results/FASHION_MNIST/checkpoints/best_model.pt (torch, 373294 bytes, 66 tensors)

conceptizer.encoder.0.0.weight f4 [10, 1, 5, 5]
00000000: 1e9e 33bd 493f ce3d 9bed 323e cb5d a33d
00000010: 0bc7 373e 8a01 003a 36f1 b4bd 5481 ce3c
00000020: a8b1 0e3e 29c9 d53c 1291 063e 0e81 4f3d
00000030: 6c7e f0bd 1ae5 f13d c70a 373c 96e9 083e
00000040: 4552 013d 08f0 0f3e 810f 893d 3f2a 013c
00000050: 0ea6 233e f968 09bc eadb 90bb 78af d9bc
00000060: 637f 3c3e e8a9 82be e0c3 80bd d3a2 5bbe
00000070: 7ea3 e2bd b95c 33bd 34d7 3ebe f36c 50be
00000080: 9e43 80be d3c4 28bd f404 d4bd b5f1 61bd
00000090: 25b3 47be ae36 8fbd d798 18be 58d6 c0bd
000000a0: 8ff9 64be 613b 60bd c332 b0bc 2e45 543d
000000b0: 5529 823b 0249 9bbc 743a 17bc f43c 60bd
000000c0: 2ec7 09be 4eb7 09bd b1d9 773d d476 06be
000000d0: 88b7 933d 4a8d abbd d14a e0bd 865f 36bd
000000e0: 22a3 e9bd 2420 50bb fefc 47be a8d8 10be
000000f0: 74e2 2ebe e185 0a3e f87a 81bd 87df 3fbe
00000100: b691 a6bd 2b5e 61bd 6ecb 873c d212 34be
00000110: 197e e8bd 7fda 1dbe 49a8 b53d b92d ed3c
00000120: 96ad e9bc 507e cbbd 0daf 02be 8da3 45be
00000130: 0499 dabd c43e 6a3c b6e1 49bc 5e61 5e3d
00000140: 7c64 59be a72a aebd 603a cabd a6b6 23bc
00000150: 584a eb3d 989a 8ebe dcb2 65be 23b1 f13a
00000160: 1e21 1fbe 7555 123d 9d58 10be 5943 15be
00000170: 8286 e2bc 1ba7 65bd 1144 2a3d f0a1 17be
00000180: 2d55 8ebd d7fd 31be 6ef3 9dbc 1655 bf3d
00000190: 2f33 873d f100 cabd 16ea af3d 651a b43c
000001a0: 48e6 b73d 2750 953d 4e51 c6bd afb6 9d3c
000001b0: d939 9f3d 97c0 17be 78a3 a63d 958f 523d
000001c0: 14ee e3bd 6f21 09be 38f4 f9bc 181f 943c
000001d0: e582 92bd 4672 f33d 77e1 cebd bdd2 173d
000001e0: 4e8a aa3d 8429 2d3e 3083 3a3c 7e08 91bd
000001f0: 9cac 893d 03f1 aa3d d59f 463e 4ac8 b03d
00000200: 02bc b73d c941 1a3d 625c 24bd 0ad3 78bd
00000210: 1553 cc3d 17cb df3d b10b a9bd 2ee5 1e3e
00000220: 9859 533d c628 ac3c d917 79bd 1eb8 42be
00000230: 4e3e a6bd 661d e83d 180d e13d 4963 8b3d
00000240: f30b 24be 4c55 f43d 9ade 493e 22ac 9f3d
00000250: ce95 91bd 0598 56bd e7ac 7e3e 72b7 f0bd
00000260: 9249 2a3e ef54 4e3e 865a 063d b331 cdbd
00000270: d122 3c3e 76a4 02bc 553e 1d3e f9ce 293e
00000280: d4ff a9bd 0fe5 ac3c 1c2d e13b 4ee1 f4bc
00000290: 11b9 94bd a4bf 17be cef2 3d3e 1c7f 0e3e
000002a0: 82dd 6bbd cb3e 15be 3244 6ebe 2113 10bd
000002b0: f84b 73be e76a 7abd 890a 45bc e1c5 4ebc
000002c0: 27b3 1e3c 0024 0dbe c57b 42be d530 9b3d
000002d0: cd6d 703d aa59 94bd 2f83 103d b455 9dbb
000002e0: 3a4a c6bd a6a4 753e 5622 453d 783b f23d
000002f0: 5da5 0c3e ebc4 c33d ac5b 4c3e d14f b6bd
00000300: b795 6a3d 2134 8bbc 5abe 6dbb e823 803d
00000310: 72ba 043e 49b4 8ebd 3235 513d cc3d e73d
00000320: 1e6b fd3d 8df7 1ebc 8fbc 063e c6e4 cf3d
00000330: 7c34 00bd b31d b23d 3eaa 983d 161a 8bbd
00000340: e4d2 9abd 2d1a 6c3e 58d3 fa3d d31a 08be
00000350: d95b bcbd 8cd4 7dbd 6bf2 c5bd a0a2 093d
00000360: 119e 1bbd 1355 bb3d 2a3b 10be 1f48 6e3d
00000370: 294b 30be b9a1 8e3d 6b95 e4bc 4d78 babc
00000380: d7ff 533e c33d 1bbc 60d4 123e b88b f43d
00000390: 9165 b13d 49b2 823d e7c8 81bd 7f0c 94ba
000003a0: d7bb be3d 946a 7ebd 6cd0 913d f9f8 023e
000003b0: e363 103e 80fa 213e dc97 5bbd 00c8 e93d
000003c0: 2e0e b63b cfe5 043e c928 93bd 1368 d9bd
000003d0: 7e5f 893d 9479 263d d358 713d a50b 2d3e
000003e0: a9ad 2a3e e3df 993d
-0.043851964 0.100706644 0.17473452 0.07976874 0.17947023 0.0004883042 -0.0883507 0.025208153
0.13934958 0.026096897 0.13141277 0.050660186 -0.11742863 0.11811276 0.011172003 0.13370356
0.0315726 0.14056408 0.0669241 0.007883607 0.15981314 -0.008386844 -0.004420747 -0.026572928
0.18407969 -0.25520253 -0.0628736 -0.21448831 -0.1106634 -0.0437896 -0.18636781 -0.20354061
-0.25051588 -0.04120333 -0.10352507 -0.05516215 -0.19501932 -0.06992851 -0.14902054 -0.09415883
-0.22360824 -0.05474413 -0.02150858 0.051823787 0.0039722123 -0.018955711 -0.009230245 -0.05474563
-0.13454887 -0.03362208 0.06051034 -0.13131267 0.0721274 -0.08376558 -0.1095177 -0.044524692
-0.11408068 -0.0031757439 -0.19530103 -0.14145148 -0.17078573 0.13527633 -0.063222826 -0.18737613
-0.08133261 -0.055021446 0.016576495 -0.17585304 -0.11352176 -0.15415381 0.088699885 0.028952466
-0.028525155 -0.099362016 -0.12762089 -0.19300671 -0.10673717 0.014297191 -0.01232188 0.054292075
-0.21229738 -0.08504229 -0.098744154 -0.009992277 0.11488789 -0.2785232 -0.2243151 0.0018439632
-0.15539977 0.03572603 -0.14096303 -0.14576472 -0.027652029 -0.056067567 0.04156882 -0.14807868
-0.0694984 -0.17381988 -0.019281115 0.09342401 0.06601559 -0.09863461 0.0858957 0.021985242
0.089794695 0.072906785 -0.096834764 0.01925215 0.077747054 -0.14819561 0.08136648 0.05140646
-0.11129394 -0.1339166 -0.03051196 0.018081233 -0.071538724 0.1188703 -0.10101598 0.03706621
0.08327161 0.16910368 0.011383817 -0.07081698 0.06722376 0.083467506 0.19396909 0.08631952
0.089714065 0.037660394 -0.040127166 -0.060748138 0.09976784 0.10927408 -0.08254183 0.15517113
0.051599115 0.021015536 -0.06081376 -0.19015548 -0.081173524 0.11333732 0.109888256 0.068060465
-0.16020183 0.119303316 0.19713822 0.077965036 -0.07108651 -0.05239107 0.24870645 -0.117537394
0.16629627 0.20149587 0.032801174 -0.10019245 0.18372656 -0.007973781 0.15355809 0.1658286
-0.083007485 0.021105317 0.0068718325 -0.02989259 -0.07261861 -0.14819199 0.18549654 0.13915676
-0.057584293 -0.14574735 -0.23268202 -0.035174493 -0.23759449 -0.061137106 -0.012026438 -0.01262042
0.009686268 -0.13783264 -0.18992527 0.07577673 0.058698464 -0.072436646 0.035281356 -0.0048014764
-0.09682126 0.2398859 0.04812845 0.11827749 0.13734956 0.095590435 0.19956845 -0.089019425
0.057271685 -0.01699263 -0.0036276788 0.062568486 0.12961748 -0.069679804 0.05107612 0.11291084
0.123739466 -0.009702575 0.13157867 0.10151057 -0.031300053 0.08697071 0.07454346 -0.06792085
-0.075597554 0.2305686 0.12247342 -0.13291483 -0.09197206 -0.06197028 -0.09665378 0.033602357
-0.03799254 0.09147086 -0.1408507 0.05817425 -0.17216171 0.0696444 -0.02790328 -0.022762442
0.20703064 -0.009475174 0.14338827 0.11940712 0.086619504 0.063816614 -0.06337147 -0.0011295228
0.09313171 -0.06211336 0.071198314 0.12790288 0.14100604 0.15818214 -0.05361162 0.114151
0.0055558896 0.1297829 -0.071855135 -0.10615554 0.06707667 0.04064329 0.0589226 0.16898973
0.16667809 0.07513406

conceptizer.encoder.0.0.bias f4 [10]
00000000: 4ea6 923d 0c02 493e a4a7 b13e 3b55 bcbd
00000010: 535f eb3e 6e72 4e3e c567 23be e2d2 de3d
00000020: 79d8 983e adb9 2e3d
0.07160626 0.19629687 0.34698212 -0.09195944 0.45971164 0.20160839 -0.15957554 0.108800665
0.29852656 0.042657543

conceptizer.encoder.1.0.weight f4 [5, 10, 5, 5]
00000000: a8d3 47bc 6eab 8abc f93d 32bc 7099 093d
00000010: d0d4 34bb 538d 8f39 5ca5 ba3b 0203 adbb
00000020: 3424 60bd 67e6 dd3d 4dc0 50bd 3d90 443d
00000030: 99b6 2dbd 5f43 eb3b 93c1 c53b fbe9 b13c
00000040: 3b7c 7c3c 8f82 1e3d dad4 b3bc 0054 603d
00000050: cc93 07bb e9fc 5ebd fe9a db3c b75b 953c
00000060: 57eb 253d 5676 f83d 25c4 573d 3576 ee3c
00000070: 1fe8 7a3c 775f 1f3c 815c 8b3d d316 0a3c
00000080: 02fe 61bd 5244 88bc fa86 c8bb f288 3f3d
00000090: 9780 313c 135c 50bc 903c afbc fea4 563b
000000a0: ef98 cdbb b1ad fcbb afc9 d5bc 772a 8e3d
000000b0: 79c9 6e3d 314f 46bd bd88 983c 90e6 39bd
000000c0: a7bf d7bc e052 7dbd 6277 323d 9269 233d
000000d0: aa41 863b 947c b0bc 2117 96bd aff7 d0bb
000000e0: cad6 b13b 2bb1 783c 4583 90bd bdb0 f2bb
000000f0: 0e95 723d 786c e43c d13d 15bc 1303 3cbd
00000100: f53b 02bd d06d ee3c 51d0 fa3c 6037 14bd
00000110: e3e9 423c 2986 35bd f09f 1bbc c9df 01bd
00000120: 5fd8 0e3d c0f6 d43c c200 9cbb e804 3f3c
00000130: 6fd3 5bba f212 953c 084b 383d f2d0 c8bc
00000140: 5608 b03d 9c95 773d 6677 a4bc d8e7 4a3c
00000150: 7bb7 53bd 6f3e b43d c236 933c 9e9c 2dbd
00000160: cd0a 0fbd 755b 4bbd 9d15 1bbd a11b 99bc
00000170: 03ac 553b 1fc0 1e3a 1a59 fcbc fac9 95bc
00000180: 2912 acbd e0cd 73bb 3d84 2b3d 7cd4 3cbc
00000190: e03c 9a3d 9004 913d 4aca 113d fb7c 023b
000001a0: 1ece 29bd f941 7c3c 3631 443d 2a1d 043d
000001b0: 6d0c 8c3c 0c62 17bc bc28 c63d 9b92 463c
000001c0: a9b7 aa3d 0779 99bc 9ae7 9abd ab40 733d
000001d0: a621 073e 4d70 713d 7adb 0e3d 16a7 ce3c
000001e0: 2402 1e3d 9102 b33d d834 f83d 2d90 233d
000001f0: 174f 02bb 4c72 8c3c d7b9 813d 53e8 78bd
00000200: 14b7 3cbd bf1f 4d3c 35e2 2ebd d70f bb3c
00000210: d187 e6bc 763a 273a 88d1 c2bb 36b3 2abd
00000220: 9508 d43c 244d 433d 3b52 113d 5f3c da3c
00000230: 4269 dabb 98ea 34bd 250c c83c 2df3 1bbd
00000240: 7ca1 59bd b76d 29bd 1d82 313d 77f8 17bd
00000250: 487a 1fbd f14c bbbc 90db a9bc 810b b0bd
00000260: 4f5d ecbc 9d75 383c 70f9 3fbc f7b1 303d
00000270: 7329 353c 723a 09bd 480d 4abd 0019 13bd
00000280: 4f64 903c aedd 003d e817 40bd 186d 85bd
00000290: 6a7e 10bd 4990 35bd 5024 51bd ec7b 78bd
000002a0: 1aca 2bbd 59fa f6bc 8b7a fdbd 5978 a4bd
000002b0: 2d1f c7bd d638 16be cc8a 04be f249 4abd
000002c0: 7512 5bbd 5c66 9b3b 9c4b c03c 520c 4c3d
000002d0: 3747 81bc 73ec c43c 0931 b7bd 9dd4 0bbc
000002e0: b78a 0dbb 677a 4a3c 1863 4abd 557b 92bd
000002f0: 5c87 b4bc 4557 943d ec71 8fbc e908 6eb9
00000300: 3b1c 0ebd 76e0 eb3c c087 2f3d a398 7f3d
00000310: 37b4 423b d3be dcbc f1cb 163d 3a85 5d3d
00000320: 31c4 04be f6e8 c63c 7c50 21bc e2c0 ebbc
00000330: 01bc 7a3d c197 a6bc 8a22 043d fe4e 6e3c
00000340: dc2e 83b7 c144 b93d 3e2d 5e3c d53d 3ebd
00000350: e83f 67bd 5ac6 b43c 726e 5d3d a854 033c
00000360: f094 353d 4731 f43b a1a5 71bc 45d6 be3d
00000370: 6a25 82bc 098b 9d3d 13a5 a93a f33e fa3c
00000380: 7c5a c73d 0c31 853c a66e 7dbd 3ab0 43bd
00000390: f1cf 583d 675f 623d e56a 813c 9d35 db3c
000003a0: 1f31 cc3a e922 35bd b195 8e3c a3f5 d33b
000003b0: 0135 593d 0850 e3bc 4ec5 2c3d bf22 9fbc
000003c0: 9524 b73c 0599 7ebc 5709 98bc c711 27bd
000003d0: 4e66 623d 455d 89bc 6eff 16bd ff24 0c3d
000003e0: 3bdd 973d 9e06 e73a 9da0 933c 15ca 0e3d
000003f0: a8ed e73b 5c91 3c3d e9e8 663d 16ce 41bc
-0.012196459 -0.016927447 -0.010879033 0.033593595 -0.0027592666 0.0002738038 0.005695982 -0.0052798996
-0.054722026 0.108349614 -0.050964642 0.04798912 -0.042410467 0.007179662 0.0060350387 0.021718016
0.015410478 0.03869873 -0.021952081 0.05476761 -0.002068746 -0.054440413 0.026807304 0.01823221
0.04050764 0.12131946 0.052677292 0.0291091 0.015314131 0.00972735 0.06804753 0.008428293
-0.05517388 -0.01663414 -0.006119606 0.04676146 0.010833881 -0.012717265 -0.021391183 0.0032752152
-0.0062743346 -0.0077111353 -0.026097147 0.06941693 0.058297608 -0.048415367 0.01861989 -0.045385897
-0.026336504 -0.061846614 0.043570884 0.0398956 0.0040971832 -0.021543778 -0.0732863 -0.0063771824
0.005427216 0.015178959 -0.07056288 -0.0074063228 0.05922418 0.027883753 -0.009108976 -0.04590137
-0.03179546 0.029105097 0.030616911 -0.036185622 0.011896583 -0.0443174 -0.009498581 -0.03170756
0.034874316 0.025996566 -0.0047608325 0.011658885 -0.0008385693 0.01819751 0.04499343 -0.024513695
0.0859534 0.060445413 -0.020076465 0.012384377 -0.051688652 0.08800971 0.017970446 -0.04238569
-0.03492241 -0.049647767 -0.03786241 -0.018689932 0.0032603748 0.000605585 -0.030804206 -0.018284786
-0.08401901 -0.0037201568 0.04187416 -0.01152527 0.07531142 0.07080948 0.03559331 0.001991092
-0.041456334 0.0153965885 0.047898494 0.032254376 0.017095769 -0.009239685 0.09675738 0.012119914
0.08335812 -0.018734468 -0.07563706 0.059387844 0.1319643 0.05894499 0.034877278 0.025226157
0.03857626 0.08740724 0.12119454 0.03993242 -0.0019883567 0.017144345 0.06334274 -0.060768437
-0.046073034 0.012519776 -0.042696197 0.022834701 -0.028140934 0.0006379256 -0.005945388 -0.041674815
0.025882998 0.04768099 0.03547881 0.026640115 -0.0066653797 -0.04416904 0.024419853 -0.038073707
-0.05313252 -0.041364398 0.043336976 -0.03710219 -0.038934976 -0.022863837 -0.020734578 -0.08595944
-0.028853087 0.01125851 -0.011717185 0.04313847 0.011057246 -0.033503003 -0.049329072 -0.035912514
0.017625956 0.03146141 -0.0468978 -0.065149486 -0.035276808 -0.044327054 -0.05106002 -0.060665056
-0.041940786 -0.030148672 -0.12376889 -0.08030767 -0.09722743 -0.14670119 -0.12943572 -0.049386926
-0.0534844 0.004742427 0.023473553 0.049816437 -0.015781028 0.024038529 -0.089448996 -0.008534578
-0.0021597573 0.012358285 -0.04941091 -0.0715243 -0.0220372 0.07243208 -0.017510377 -0.00022700768
-0.03469489 0.028793555 0.04285407 0.062401425 0.0029709467 -0.02694646 0.036815587 0.054082133
-0.12965466 0.024281006 -0.009845849 -0.028778497 0.06121445 -0.020336034 0.0322595 0.0145452
-1.5638238e-05 0.09046317 0.013560591 -0.046445686 -0.05645743 0.022067238 0.054060407 0.008015789
0.04433149 0.0074521634 -0.014748962 0.093182124 -0.015886981 0.076925345 0.0012942873 0.030547595
0.097340554 0.016258739 -0.0618731 -0.047775485 0.052932683 0.055266764 0.015798042 0.026758963
0.0015578604 -0.044222746 0.017405363 0.006468491 0.053029064 -0.027748123 0.042180352 -0.019425748
0.02235631 -0.015539412 -0.018559141 -0.04078844 0.055273347 -0.016768107 -0.03686469 0.03421497
0.07415243 0.0017625873 0.018020922 0.03486069 0.0070778914 0.046037063 0.056374464 -0.01182892

conceptizer.encoder.1.0.bias f4 [5]
00000000: f799 113e e4e0 723d 4748 283d a8af 113e
00000010: 5767 463e
0.14218889 0.059296504 0.041084554 0.14227164 0.19375359

conceptizer.encoder.2.layers.0.weight f4 [1, 16]
00000000: 7ac9 6e3b 0f15 4abe 0611 cdbc 413d f5bd
00000010: 810f 983d 54b8 dabc 7be4 763d 8bb9 42be
00000020: dbe6 38be a9d5 67be fd8f 86bd 99cf efbd
00000030: 93f0 c3bd 51c5 96be e70d 57be d545 47be
0.0036436007 -0.19734596 -0.025032531 -0.11974574 0.07424832 -0.026699223 0.06027649 -0.19016092
-0.18056814 -0.22640099 -0.06570432 -0.11709518 -0.0956737 -0.29447415 -0.21001397 -0.19460233

conceptizer.encoder.2.layers.1.weight f4 [1, 16]
00000000: 4926 893e 0fc5 38be eda6 863d b765 3f3e
00000010: ed55 903c ba25 9a3d 18bc 3dbe 5d21 233e
00000020: c06b 2a3e c142 61be d528 1fbd d76f 8f3c
00000030: 9c79 af3e d566 0fbe c35a 5abd 30ed 1e3e
0.26787022 -0.18043922 0.06574807 0.18691145 0.017619098 0.07526727 -0.18528783 0.15930696
0.16642666 -0.21998121 -0.0388573 0.017509384 0.34272468 -0.14004071 -0.053309213 0.15520167

conceptizer.encoder.2.layers.2.weight f4 [1, 16]
00000000: da9b 54be 3eda b33e d872 973e b47b 9c3e
00000010: 3c62 cb3d c968 3f3d 38ef 343e ef49 b43d
00000020: 1491 79be 6947 cabc f301 273c 241f 393c
00000030: f9cc a1be 42d4 56bd e22d 02be 1e07 1abd
-0.20762578 0.35127443 0.29579806 0.30563128 0.09930846 0.04673079 0.1766938 0.08803164
-0.24371749 -0.024692254 0.010193336 0.011298928 -0.31601694 -0.05244852 -0.12712815 -0.037604444

conceptizer.encoder.2.layers.3.weight f4 [1, 16]
00000000: 4b03 913e 6e03 4a3d 63d4 4abd 3e71 6b3e
00000010: 6ad1 4e3c 2078 46bd 64d5 fa3d b9d6 433e
00000020: d3bf a9bd daeb 4b3d ab98 76bd 8881 233e
00000030: 6c46 9d3d f6cf 15be 08eb a8bd af61 f0bd
0.28322825 0.049319677 -0.049518954 0.22992417 0.01262317 -0.048454404 0.12247732 0.19124879
-0.08288541 0.049785472 -0.06020419 0.15967381 0.076794475 -0.14630112 -0.08247954 -0.11737382

conceptizer.encoder.2.layers.4.weight f4 [1, 16]
00000000: 63d4 933c cfa9 1fbe b3af 04be 2ea2 7cbc
00000010: 2d7f aabe fbc6 80bd 03f1 bdbb 0e8c fcbd
00000020: 50b0 1ebe 6109 f9bd b838 2abe 9b14 18bd
00000030: 7c0d 07be d850 0c3e 5160 583d fe74 a9bd
0.01804561 -0.1559212 -0.12957649 -0.015419526 -0.33300152 -0.062879525 -0.005796553 -0.12331401
-0.15496945 -0.12159992 -0.16623199 -0.037129026 -0.13188738 0.13702714 0.05282623 -0.082742676

conceptizer.decoder.0.0.weight f4 [5, 16, 5, 5]
00000000: b987 a9bd 1655 983d ffd7 223d 6c5f 0ebe
00000010: 0f5e d5bd 91e2 fa3d 7876 2d3c 6299 fc3c
00000020: 46e6 963c 9ad9 b9bd 6051 1abe ff18 18bd
00000030: 394f 84bc 3ffe 0ebe f567 013e e3e8 e4bc
00000040: c035 3b3d b2cd 0abe fe70 0cbe 2879 ed3d
00000050: ebc4 36be 6213 afbd b59a c23d dcba 25be
00000060: 903a 5fbe bed7 b43c b0ee 503e d2f2 77bc
00000070: 4f29 093e 7384 b43d b307 96bd 2d2b 983d
00000080: e75d d6bd 18ee e93d 48a9 f63c 284b 843d
00000090: 449e e83a 274e 1b3d 7d70 7dbd c2b9 4ebd
000000a0: fbc4 1c3e aaa9 2dbe 16c0 b4bd 3c02 de3d
000000b0: 6513 213d d1a8 50bd 46ca f4bd 120a 5abc
000000c0: a5e4 55bc cc6d df3d f3a7 ea3d 8c25 b4bd
000000d0: bbc1 3bbe 7c88 8cbd ff42 b73d 55fc 5ebc
000000e0: 82e8 afbd 0893 c7bd fe22 243d 9b2d 653d
000000f0: 6282 e9bd 353a 41bd 17ac 133e 1e69 59bd
00000100: 78a1 2abe 8019 b53d 9a11 fdbd 48bd 903d
00000110: 7200 193e 3188 003e 9149 4c3b 60be 85be
00000120: 308b 073d 6e58 b43d 0784 093d f15e b9bd
00000130: 2a71 62be 7d55 24be 6166 bb3d 2e9d bbbd
00000140: 1821 09be 2691 1d3e 4670 5abe df2a a9be
00000150: 6c8b 3e3d 4a7e 28be 6098 57be 73f9 2c3d
00000160: 5448 bd3d 57c2 243d ecbd 4ebd 7bd0 d1bd
00000170: 8dd3 86be d74b 95be 2a09 0ebd 624c 07be
00000180: ca31 0bbe 43b7 0a3e 08fc 1b3d 5252 753d
00000190: 3ad5 a1bd 337c ebbd f07c ccbd e984 10be
000001a0: 60ea a13d 66ff 9abd a2aa 9e3d 4f43 573d
000001b0: 4f8f 22bd c780 afbc cb4b a23d 2fcb de3d
000001c0: 0015 f6bd 8f34 25bd f97f 2f3b 5360 16bc
000001d0: cb16 8ebd f352 0c3e d4e4 dc3d eb5f eebd
000001e0: e92a 27be 3667 ff3c 7284 b53d 994a 2a3e
000001f0: bd2f 273e 945d c73d c17d dcbd 7fbe adbd
00000200: e5f3 043e d1b2 f93d d641 96be 1289 0fbe
00000210: 3325 a33c 44b2 a1bd 5574 d9bd 23eb d6bd
00000220: 1eaf e6bd 7a3d 703d e776 893d 77ef 0bbd
00000230: 79aa 4bbd 2e51 cebc e55f 43be e3f3 82be
00000240: 6c85 043e c38f 4a3e af34 56be 8319 223d
00000250: 9696 4c3d f9e6 933d 0078 c53d 0a0d a1bd
00000260: cc6e ba3d abb0 f6bd ce65 1f3e caed 97bd
00000270: 90b9 41bd a05c 67bd af13 4cbd a4e8 933d
00000280: 9581 6f3d e1c8 c03a 79a9 6fbd cd48 e83d
00000290: 8ffd c5bc d9de bd3d df05 2bbd b470 e7bc
000002a0: e731 a13d 3e98 86bd 8a94 09be b5ed db3d
000002b0: 20c1 943d bdb9 3abe 48ad 58be 1826 db3c
000002c0: 2022 b63c c09d 383d 7d9f fbbc cacb c43d
000002d0: 698e 5f3d addc f93d 7f4e 4fbd b11c 353b
000002e0: edf0 393a 0395 073e 3688 0f3e dea5 5abc
000002f0: aa08 5ebd 5258 0cbe 104b e33c e16c 0e3e
00000300: b4f8 51be b4e9 4e3d 826c 1abe 5dfb 943d
00000310: 62cd 6f3c af1f d83d 39b4 b53d b6c4 74be
00000320: f825 a53d faf4 8f3a d28d 11be 3894 c2bd
00000330: 4228 28be 0f07 efbb e102 b1bd cdce 4a3c
00000340: 9956 c0bd 1541 223e 40bd 5c3e 6749 a93d
00000350: f093 21be b1a0 013d 3534 88bd 87cf 233d
00000360: 2434 b4bd 245a 213c 189d fcbc d728 273d
00000370: 47e7 aabc 9e3b a13c 45ef 05be 762a 583d
00000380: 4032 3b3d 3f83 103d 1b48 99bd df0f 9e3d
00000390: a0d2 6e3e 6bb1 30be e63a 003e f709 e43d
000003a0: 7ecd 263e 9c77 4d3d 796e 383e 8d22 25be
000003b0: 8851 eabc 9a75 143e 02b4 883d 46e8 26bd
000003c0: 0319 833c 4d02 e33c 40f8 38bc f85b 9b3b
000003d0: dca5 0e3d fe03 2fbe 5032 293e 9ffc 103e
000003e0: f775 b93d a4a6 53bd 7029 a13d d26b bbbc
000003f0: 930a 733e be4b 64bd edb8 4cbe 4590 e2bc
-0.0827784 0.07438104 0.03975677 -0.13903588 -0.10418331 0.12250245 0.010587327 0.030834857
0.01842035 -0.09074707 -0.15070105 -0.037133213 -0.016151058 -0.13964175 0.12637313 -0.02794308
0.045705557 -0.13555029 -0.13714978 0.11595374 -0.17848556 -0.08548619 0.09502164 -0.16184562
-0.21799684 0.02207553 0.20403552 -0.0151335765 0.13394664 0.08814325 -0.07325687 0.0743011
-0.10467129 0.11422366 0.030110016 0.064596474 0.0017747362 0.03791633 -0.061874855 -0.05047012
0.15309517 -0.16959253 -0.088257 0.1084027 0.039325137 -0.050942246 -0.11952643 -0.013308065
-0.013055001 0.10909614 0.11457815 -0.08796224 -0.18335621 -0.0686197 0.08948325 -0.013609965
-0.08589269 -0.09744841 0.040072434 0.055951696 -0.11401822 -0.04717465 0.14421116 -0.053078763
-0.16663158 0.08842754 -0.12356873 0.070673525 0.14941576 0.12551953 0.0031171779 -0.26121807
0.033091724 0.08805929 0.033573177 -0.09051312 -0.22113481 -0.16048236 0.091503866 -0.09160839
-0.1339153 0.15387401 -0.21331891 -0.3304052 0.04651968 -0.16454425 -0.2105422 0.04223008
0.09242311 0.0402244 -0.050474092 -0.102448426 -0.26333275 -0.29159424 -0.03467671 -0.13212731
-0.13593212 0.13546471 0.038082153 0.05989296 -0.07901998 -0.114982985 -0.099847674 -0.14113201
0.079060316 -0.07568245 0.077473894 0.052554425 -0.03968745 -0.02142371 0.079246126 0.10878598
-0.12015724 -0.040333327 0.0026779159 -0.009178239 -0.06937941 0.13703518 0.10785833 -0.11639389
-0.16324963 0.031177144 0.088631526 0.16630019 0.16326804 0.097346455 -0.10766173 -0.084836
0.12983663 0.1219231 -0.29347104 -0.14017132 0.019915199 -0.078953296 -0.10617892 -0.104940675
-0.1126387 0.05865238 0.06712132 -0.03416392 -0.049723122 -0.025185194 -0.1907955 -0.25576696
0.12941521 0.19781403 -0.20918535 0.03957511 0.049948297 0.07221789 0.09642029 -0.07863815
0.09103164 -0.120454155 0.15566179 -0.074184015 -0.047296107 -0.05648482 -0.04982346 0.07222107
0.05847319 0.0014708304 -0.05851123 0.11342011 -0.024168758 0.092710204 -0.041753646 -0.028251983
0.07870846 -0.06572007 -0.1343557 0.107386984 0.07263398 -0.18234916 -0.21159852 0.026751563
0.022233069 0.045072317 -0.030715698 0.09609182 0.054579172 0.12200294 -0.05061197 0.002763551
0.00070930907 0.13240437 0.14016804 -0.01334521 -0.05420748 -0.13705567 0.027745754 0.13908722
-0.20505029 0.050515845 -0.15080455 0.07274506 0.014636369 0.10552918 0.08872265 -0.23903164
0.080638826 0.0010983043 -0.14214256 -0.09500927 -0.16421607 -0.0072945426 -0.08643127 0.012378407
-0.09391517 0.1584514 0.21556568 0.082659535 -0.1577909 0.031647388 -0.06650583 0.039992835
-0.087990075 0.009848151 -0.030836627 0.040810432 -0.020862235 0.019681748 -0.13079555 0.05277487
0.04570222 0.035281416 -0.07484456 0.07717871 0.23322535 -0.1725518 0.12522468 0.11134713
0.16289327 0.050162897 0.18010892 -0.16126461 -0.02860333 0.14497986 0.06674959 -0.040748857
0.016003137 0.027711058 -0.011289656 0.004741188 0.034826145 -0.17091367 0.16523099 0.14158867
0.09055703 -0.051672593 0.07869232 -0.022878561 0.23734502 -0.055736296 -0.19992419 -0.027656684

conceptizer.decoder.0.0.bias f4 [16]
00000000: 8e06 a33d e466 143d a7d3 15bc 483f aa3d
00000010: c56e 87bc 4545 bb3c 04e5 973d 0074 3f3d
00000020: 4972 b1bc c5f9 923d 34b4 e3bc fa9d 0b3d
00000030: 560b 093e 413a 10be 06a1 ffbd b337 ba3d
0.079602346 0.036230937 -0.0091447 0.08312851 -0.016532311 0.022860179 0.07416728 0.046741486
-0.02166094 0.07176546 -0.027795888 0.034086205 0.1338323 -0.14084722 -0.12481885 0.09092655

conceptizer.decoder.2.0.weight f4 [16, 8, 5, 5]
00000000: df42 93bd 4bc1 823c 7d51 f83d c1ed 1b3e
00000010: 6825 cf3d 11e6 13be f90d 583e e15c 753e
00000020: a57c 713d b37e 963d 42ab c63d 1418 323e
00000030: b241 263e 6170 883d 7b25 013d decc 413e
00000040: 5521 313e fc55 2c3e edac fcbc a0b6 4a3c
00000050: 4ec0 233e fa1b 113d 94c6 8d3d e06d fe3d
00000060: 3ae3 673d 94de 6bbc d524 6bbd 2b64 683d
00000070: 212c 233e 3f97 293e 9c4b 853d 6e9b 03bd
00000080: aa4e c83d 520e 6c3e 5d85 3a3e adaa 18bc
00000090: 5af7 573d 74cb 003e 6b13 003e c4a8 0a3e
000000a0: 4e66 163d 2a56 0c3e e4a5 6a3e 0693 653e
000000b0: e80c 3c3e 8deb ca3d 4d93 063e 6805 3a3e
000000c0: 0f09 cf3d c15e 773d b76d 09bd 1a57 c9bd
000000d0: fb40 96bd 9230 e13c cf84 a03d bad2 b5bd
000000e0: b46c bcbd b3db 3dbd 61f0 703d 932e 133e
000000f0: 2b30 6ebd 09b2 68bd 9cc6 55bc ba53 093e
00000100: c47a d23d f841 b53d 7972 2e3e 5ee9 113e
00000110: 30f1 fd3d 3c22 f43d 13d7 033e dd6e 613d
00000120: f210 383e 56ac 273e 62c3 cd3d 1d3d 65bd
00000130: ff6c a33d e20e a6bc 657c ec3d 4358 8d3d
00000140: 267a cc3d 5d3f 633d c010 f1bd 6130 b8bd
00000150: 4e4c 2cbd b0ad 07be 15a3 ac3c 6811 06be
00000160: 532a e3bd 7e1c abbd a973 54be 4ebe 11be
00000170: 2696 8abe ba38 24be 165f 0dbe c527 1c3d
00000180: e09d f0bc b45a 11be f847 09be 36c8 05be
00000190: 1677 0e3e 3637 083e 1d94 cf3c 645c ffbd
000001a0: 1d88 19bd dc2c c23d f9bc 9e3d 6de4 55bd
000001b0: 8aa8 2dbe ca20 d23d 5f71 e23d 8772 2bbe
000001c0: 87a8 36be 2f0e 0abe fd65 ecbc f502 50bd
000001d0: df7a 26be 898d a1be dda2 1dbe 2255 9abd
000001e0: 883e 1bbd ea21 32be 229a 86be 55b7 0abe
000001f0: d285 d03d e36d 153e 3a06 873e 091c 493c
00000200: 722f 73be a2e3 dabd b756 0e3e a730 193e
00000210: 1ad4 b2bd 1daf 9fbe b834 3ebe 35c3 4e3d
00000220: e9c7 a5bd 3bc0 29be 454a 6fbe c4e5 6fbe
00000230: ddd4 fa3b 11d8 17be f17e 67be 880a a9be
00000240: 3368 92be c843 953b c8a7 c6bd d2e0 67bd
00000250: 237e 01be 15b0 e0bd ade5 d63d 6c1d 173e
00000260: e8b7 7dbc bc0c 8ebd 0590 643c 5559 a83d
00000270: 3f59 e9bb 4a9c 22be 38b6 5dbe b95b 8cbd
00000280: e321 aaba 2a8d 05be d39a 58be 611e 56be
00000290: 4a32 7ebe 94fe f4bd ba3e 65be a51a 76be
000002a0: d818 89be 555d b7bd b8e1 f5bd 0c39 57be
000002b0: aa9f 0ebe 37a4 60be a993 74bd 57d9 a7bd
000002c0: e018 70bd c9cb 973d 82b7 2b3e d8e0 ecbc
000002d0: 1317 f1bd 7588 7fbd f65a 103d 5739 ea3d
000002e0: 7ee6 b33c 7127 96bd 8d3d 93bd dd66 c93d
000002f0: 97c1 1f3e 7491 d83d 8083 b03d 0da3 e93c
00000300: 7708 eb3d 3bfd 8d3e aba6 353e 144b 64be
00000310: f2db b83d ef6b e23d 213f 4f3e 72be 4e3e
00000320: b513 8c3d d23f 31bd f39f 243d 41a7 fc3d
00000330: 0a71 89bb c99c fa3d de48 a2bd c463 5e3d
00000340: 7308 2c3e b97b 52bd a1a9 d73d 90eb ecbd
00000350: 2401 8e3c a305 5d3e 2303 36bd caf1 863d
00000360: ff70 043d ee7e c13d 9d7b 3f3e 923d dabd
00000370: d453 bc3d 1d88 8a3a 403d 0d3e a6f9 db3d
00000380: 32fa bd3d 420d ce3d e1d0 f43d c08e e13d
00000390: 0589 c43d 7d32 da3d 2842 df3d 3789 ba3d
000003a0: c75d a3bb 4ce6 203e 42c7 b83d dad7 373e
000003b0: 3812 123e c092 b33d 9a23 213e f792 233e
000003c0: bb8e 283e 215f da3d 7a20 223d c250 833d
000003d0: c9bb 1b3e e52a 9e3d e9af 6abc 5d3a 553d
000003e0: 9326 073e 923e ba3d 9ea1 e3bc 0f1d 7ebc
000003f0: 23fe f83c 0878 db3d 1ea7 82bb dc10 f03d
-0.07190489 0.01596131 0.12124918 0.15227415 0.101145566 -0.14443232 0.2109908 0.23961212
0.05895676 0.07348385 0.097006336 0.17391998 0.16235998 0.066620596 0.031529885 0.18925807
0.17297871 0.16829675 -0.030844176 0.012372643 0.15991327 0.03542707 0.069226414 0.12423301
0.056613185 -0.0143963285 -0.057408173 0.056736153 0.15934803 0.16561602 0.06508562 -0.03213065
0.09780629 0.23052338 0.18214937 -0.009318036 0.052726127 0.12577611 0.12507407 0.13540941
0.03671866 0.13704744 0.22914845 0.22419366 0.18364298 0.09908209 0.13142128 0.18166125
0.1010915 0.0603931 -0.033551898 -0.098310664 -0.07336613 0.02748898 0.07837831 -0.088780835
-0.09200421 -0.0463521 0.058822993 0.14373235 -0.058151405 -0.056810413 -0.01304784 0.13410845
0.10277322 0.08850473 0.17035855 0.14249179 0.123995185 0.11920592 0.12875013 0.055037368
0.17975214 0.16374335 0.10047032 -0.055966485 0.07979774 -0.020270769 0.11547164 0.069016
0.099842355 0.05548035 -0.11770773 -0.089936025 -0.042064957 -0.1324985 0.021073857 -0.13092577
-0.11092057 -0.08355044 -0.20747246 -0.14232752 -0.2706768 -0.16037264 -0.13805804 0.038123865
-0.029372156 -0.14194757 -0.1340636 -0.13064656 0.13912615 0.13302311 0.02533918 -0.12468794
-0.037483323 0.094812125 0.077508874 -0.052219797 -0.16958824 0.1026016 0.1105678 -0.16742907
-0.17837726 -0.13481973 -0.028857226 -0.05078407 -0.16257809 -0.31553295 -0.15394159 -0.07535769
-0.03790143 -0.1739575 -0.2628947 -0.13546498 0.10181774 0.145927 0.26371938 0.0122747505
-0.23748568 -0.10687949 0.13900267 0.14959966 -0.087318614 -0.31188288 -0.18574798 0.050479133
-0.080947705 -0.16577236 -0.23368175 -0.23427492 0.00765477 -0.14828517 -0.22607018 -0.33015847
-0.28595123 0.0045551993 -0.096999705 -0.05661089 -0.12645774 -0.10971085 0.10493026 0.14757317
-0.015485741 -0.06936023 0.013950353 0.08220164 -0.0071212347 -0.15879932 -0.21651542 -0.06853432
-0.001298007 -0.13042131 -0.21152811 -0.20910026 -0.24823871 -0.119626194 -0.2238721 -0.24033602
-0.26776767 -0.089533485 -0.12005943 -0.21017855 -0.13928095 -0.21937643 -0.059711132 -0.08195751
-0.058617473 0.07411916 0.16769221 -0.028915808 -0.11771979 -0.062385995 0.035242997 0.11436718
0.021960493 -0.073317416 -0.07189474 0.09834073 0.15601192 0.10574618 0.08618832 0.028520131
0.11476224 0.27732262 0.1773936 -0.22294265 0.09026326 0.11055743 0.20238926 0.20189837
0.06839696 -0.043273754 0.040191602 0.12336589 -0.0041943835 0.12236936 -0.079240546 0.054294363
0.16800098 -0.051387522 0.10530401 -0.115683675 0.017334528 0.21584181 -0.044436585 0.06589086
0.032334324 0.09448038 0.18699498 -0.10656275 0.091956764 0.0010569129 0.13792896 0.10740976
0.092762366 0.100611225 0.11953903 0.110135555 0.09596447 0.10654161 0.1090129 0.09108203
-0.0049855444 0.15712851 0.090223804 0.17953435 0.14264762 0.08768225 0.15736237 0.15974031
0.16460697 0.10662676 0.039581753 0.06411888 0.15208353 0.07723025 -0.014324167 0.052057613
0.13198309 0.090939656 -0.027787026 -0.015509858 0.03039462 0.107162535 -0.003987207 0.11721966

conceptizer.decoder.2.0.bias f4 [8]
00000000: f140 ff3d fd0e 733d 263e 0c3e 33a3 383d
00000010: 9c28 583d 7814 7b3d 6be2 05bb cacb 0cbe
0.124635585 0.059340466 0.13695583 0.045077514 0.052773103 0.061298817 -0.0020429145 -0.13749614

conceptizer.decoder.4.0.weight f4 [8, 1, 2, 2]
00000000: 61f5 babe 6b22 a43d 72dc 27be b6ea 3d3f
00000010: 1675 093f 7a07 0f3f 6f90 2d3f 1f86 213f
00000020: 4287 383f e9e0 0b3f 91a8 d63e 2714 a5bd
00000030: 5ed7 41bf 549d 54bf c647 41bf 6edb 5bbf
00000040: 9869 2abf 037e 6bbf 29c3 52be 9ca5 0cbf
00000050: 9d71 27bf d356 72be 48c8 7fbf 1e52 3ebf
00000060: b665 9ebe 6374 60bf 7945 80be 4edf 00bf
00000070: 1700 a03f 54f0 6cbd ccd5 983f 21dd 093d
-0.36515334 0.08014377 -0.16392687 0.74186265 0.53694284 0.55870783 0.67798513 0.6309528
0.7208139 0.5464006 0.4192548 -0.080604844 -0.7571925 -0.83052564 -0.7550014 -0.858817
-0.66567373 -0.91989154 -0.2058226 -0.549402 -0.65407735 -0.23665933 -0.9991498 -0.7434405
-0.30936974 -0.8767759 -0.25053003 -0.50340736 1.2500027 -0.057846382 1.1940246 0.03365815

conceptizer.unlinear.weight f4 [16, 1]
00000000: d862 81bf da4e 293f 23f2 54bf ed89 adbf
00000010: e106 8ebf 304d 6bbf effa 873f 5328 83bf
00000020: 8508 8ebf 5c86 94bf 2bb1 8e3f a4c1 173f
00000030: a30b 9bbf 96be 903d 5de3 43bf 7307 6a3f
-1.010829 0.6613594 -0.8318197 -1.3557717 -1.1095849 -0.91914654 1.0623454 -1.0246681
-1.109635 -1.1603503 1.1147817 0.5927985 -1.2112926 0.070676014 -0.76518804 0.91417617

conceptizer.unlinear.bias f4 [16]
00000000: ced3 443f c3b8 0bbe bfe5 95bf 60f4 803f
00000010: 8735 393f 50d9 653e 541d 04bf 5600 e53e
00000020: dd4d ea3e 78e1 32bf fc08 30bf 03ce 0b3f
00000030: a563 46be 87e7 4abf f71e 54bf 6541 91bd
0.7688569 -0.136447 -1.1710738 1.0074577 0.723473 0.2244618 -0.5160725 0.4472682
0.4576253 -0.6987529 -0.6876371 0.54611224 -0.19373949 -0.7925953 -0.8285975 -0.07092551

parameterizer.cl_layers.0.weight f4 [10, 1, 5, 5]
00000000: bd75 663d 7736 923c 2897 253e 7e90 163e
00000010: 3945 863c ce9e e83c 9487 653e 6828 853c
00000020: dab2 acbd 226b c6bd 8262 9b3d 766b c23d
00000030: ec99 773d bab1 e13d 2d24 4a3d af3d d9bd
00000040: 6155 e6bd a21a 24be 8c5f 62be e740 47be
00000050: 09e3 acbc eaa1 8fbe abca b6be 21b0 a3be
00000060: 0b68 22be 218f 66be 62b3 20be 29a5 bc3d
00000070: 3e3f 593c 01e7 3dbc fb96 9dbe 756b 61be
00000080: be48 61bd cc14 c9bd 8969 94bd a284 e3bd
00000090: f7ab f53b 66cf 37be 6e33 f2bd badd 3cbe
000000a0: 214b 423e 2a54 39bc 42c4 b5bc 4264 4cbe
000000b0: e533 b6bd 5252 8e3e b502 f03d fbc9 a4bd
000000c0: 0a56 1e3d 8fe9 19be 740b 09be bce1 f43c
000000d0: b020 863d 401a a93d 8716 a13d 14b6 153d
000000e0: ee1a 93bd 60e0 163e cb75 843d af47 e43d
000000f0: 6e9b 993d be88 383c 6b0d cabc 51e4 013e
00000100: f706 393d 1074 f5bd 90dc b9bd 1269 123e
00000110: e8eb ca3c 8edf 003e 855d 633d 8dea 1ebe
00000120: fa84 94bd 7a99 c6bc 2eb6 1e3e 6e4c afbd
00000130: dc60 243e 5d58 1f3e d2fb b43d 32de 0d3e
00000140: 9d87 a33d 2baa 7dbd c26c 013e 95af 7a3d
00000150: 06c6 533d 06f7 13bb 9246 15be 1020 57bd
00000160: 2295 dfbd 5ff6 03be 1460 eb3d 8337 64be
00000170: 279c 233e e464 d1bd 1298 c23d 6035 4ebe
00000180: 4926 70be a0d4 023e 67ba 3abe 581c 2e3e
00000190: 4dd3 553d 861e 8abc 6790 cfbe 4f9c 80be
000001a0: b5a1 73be 767e 153c 9d4d ab3d ab9d b2be
000001b0: 43b9 a4be b726 65bd 0210 333d 1d3f 0abd
000001c0: 32da 1ebd 6c71 f73d e0b7 ac3d eb60 d13d
000001d0: 961d 37bd 7e38 b5bd c994 df3c c772 cb3d
000001e0: 7582 eebc 9f40 27be 53b6 18be a599 153e
000001f0: 2f74 6b3d 0942 5abe 259c f5bd b502 653e
00000200: cfe6 9cbd 3ea6 3ebd 0e10 f53d 5b48 27be
00000210: 3e1b 0ebe 6d1f ca3d f0ab 3d3e 3b61 0f3e
00000220: 05a0 48be 1b32 aa3d 2d37 b53d e72f 4fbd
00000230: 624f b93d 89c5 80be dd92 563d c68a 423e
00000240: b63b 10bd a09d 3cbe a50f 473d b6fd 1ebe
00000250: 7600 6d3e e80b 503d 31e2 883b 3e0a 9abd
00000260: 8eaa e23d 7af7 293e 6124 4ebe 07c7 b6bd
00000270: 4ab6 19be f073 573e bd24 f03d cc5a b4bd
00000280: d22e 493d 50b2 2bbd e58d 823e 5717 abbd
00000290: adbb 3dbe 36b9 843b 2fb6 153e 2a3a 0ebd
000002a0: 6d28 5b3e aefb 77be 2695 1abe d902 cabd
000002b0: 2102 19bd 477c 6b3e d0ef a8bc 373b 3a3e
000002c0: baa6 18be 069b 26be 36e3 59be 7584 f83d
000002d0: 7eb9 4a3e 0f95 f8bd d71a e6bd deca 3ebe
000002e0: ebf4 a83c 1557 ba3d 0859 2d3e 60b9 7dbe
000002f0: ca21 98be 559c d6bd 59dc e73c 53fd b6bd
00000300: c9e6 223d 58e4 9dbe 9ced 7fbc 0c5d d7bd
00000310: 5fe8 b1bd 7639 383c fa20 56be ba35 77be
00000320: d22e fbbd e883 82be 1f61 58be f5da 7e3e
00000330: 4a6c 71bd 13e3 613e 5c4f 183e 9682 1a3e
00000340: 4132 7a3d 0fe1 ff3d 72e3 243d 36de b53d
00000350: cea1 84bd e1b4 0d3d 433b d0bd bd80 15be
00000360: 0112 043e f1cf e93d 5dc6 36be 50de 2cbe
00000370: 0b4a efbb e90b 46be 0e4f 193e 8cb6 56be
00000380: abf6 223e 6655 a6bd e0f1 8bbe 8f3a 5fbe
00000390: a454 e0bd 541d 3a3e 2545 7fbd 34d8 fe3d
000003a0: 2f0b 173e a67f 593d 2b50 933d 6854 ec3d
000003b0: 6887 ff3d 4192 2c3e 2744 373d 09e4 08be
000003c0: c666 2b3d 58ca 2d3d 620e 883b c815 293d
000003d0: ab77 dfbd b8a3 2b3d d093 85ba 4f81 73bd
000003e0: 08db 52bd 2b09 af3d
0.056264628 0.017848236 0.16170943 0.14703557 0.01639043 0.028396036 0.22415 0.016254619
-0.08432551 -0.09688403 0.07587148 0.09493153 0.060449526 0.11020227 0.049350906 -0.10607468
-0.112467535 -0.16025785 -0.2210676 -0.19458352 -0.021104353 -0.28053218 -0.35701498 -0.31970313
-0.15860002 -0.22515537 -0.15693429 0.09211189 0.013259707 -0.01159072 -0.3077925 -0.22013648
-0.055001013 -0.0981842 -0.07246692 -0.11109282 0.0074973064 -0.1795021 -0.11826216 -0.18443957
0.18973972 -0.01131157 -0.02218831 -0.1996012 -0.08896617 0.2779718 0.11719266 -0.08046337
0.038656272 -0.15030502 -0.13383275 0.029892795 0.065492034 0.0825696 0.07865625 0.036550596
-0.07182871 0.1473403 0.0646778 0.11146485 0.07500349 0.011263071 -0.024664601 0.12684752
0.045172658 -0.11985028 -0.09075272 0.14297894 0.024770692 0.1258528 0.05550911 -0.15519162
-0.07251926 -0.024243105 0.15499184 -0.085595 0.16052574 0.15561052 0.088370934 0.13854292
0.079848506 -0.061929863 0.12639144 0.061202604 0.05170252 -0.0022577657 -0.14577702 -0.05252081
-0.10917117 -0.12886952 0.11492935 -0.22286801 0.15977536 -0.102243215 0.09501661 -0.20137548
-0.23452105 0.12776423 -0.1823517 0.17003 0.052203465 -0.016860258 -0.40539858 -0.25119254
-0.23792155 0.009124389 0.08364413 -0.34885916 -0.32172593 -0.055945124 0.043716438 -0.033751596
-0.038782306 0.120821804 0.08433509 0.10223564 -0.04470595 -0.08848666 0.027292626 0.099340014
-0.029114941 -0.16333245 -0.14913301 0.14609392 0.05748385 -0.21314253 -0.11992673 0.22364314
-0.07661211 -0.04654526 0.11965953 -0.16336195 -0.1387758 0.09869275 0.1852262 0.14001934
-0.19592293 0.08310338 0.088484146 -0.050582793 0.09048344 -0.25150707 0.052386153 0.1899825
-0.035213195 -0.18419504 0.048598904 -0.1552647 0.23144707 0.050792605 0.0041773547 -0.07521485
0.11067687 0.16598311 -0.20131065 -0.0892468 -0.15010944 0.2104032 0.11725757 -0.08806381
0.049116917 -0.0419181 0.25498882 -0.08354061 -0.18528624 0.004050399 0.14620279 -0.03472344
0.2140214 -0.24217102 -0.15095958 -0.098638244 -0.037355546 0.22996627 -0.020622164 0.18186651
-0.14907351 -0.16270074 -0.2127808 0.12134639 0.19797322 -0.12137806 -0.11235588 -0.18632075
0.020624598 0.09098641 0.16928494 -0.24777746 -0.2971328 -0.10479037 0.028303312 -0.089350365
0.039770875 -0.30838275 -0.015620615 -0.10515794 -0.086868994 0.0112441685 -0.20911017 -0.24141589
-0.1226479 -0.2549126 -0.21130799 0.24888213 -0.058941163 0.22059278 0.14874023 0.15088877
0.061083082 0.124940984 0.04025597 0.08880274 -0.06476174 0.034596328 -0.10167553 -0.14599891
0.12897493 0.11416615 -0.17849107 -0.1688168 -0.007302528 -0.19340481 0.14971563 -0.20968074
0.15914409 -0.08121757 -0.27332973 -0.21799682 -0.10953644 0.1817525 -0.0623218 0.12443581
0.1475036 0.05310025 0.07193025 0.11539537 0.124769986 0.16852666 0.04474273 -0.13368239
0.04184606 0.0424293 0.004152105 0.041280538 -0.10911497 0.04190418 -0.0010191146 -0.05944949
-0.051478416 0.085466705

parameterizer.cl_layers.0.bias f4 [10]
00000000: 791c 87bc cd00 c2bd fd5b 2abe 0ac2 c03d
00000010: 985e 0cbe 7a69 7b3d db9d 68bc f48a aebe
00000020: b109 9cbd 2682 8c3d
-0.016493069 -0.09472809 -0.16636653 0.0941201 -0.1370796 0.061379887 -0.014197792 -0.34090388
-0.07619036 0.06860761

parameterizer.cl_layers.3.weight f4 [20, 10, 5, 5]
00000000: 9739 983b 9e90 8ebd b4a3 f4bc 6f5e b0bb
00000010: daa7 b73c 891f 813c 3179 30bd 3394 30bd
00000020: 4b4c 9f3d e3eb 0bbd 6921 52bd 346f 85bc
00000030: 5d84 17bd 017f 83bc 4beb 23bd 75ea d83b
00000040: 44cb a6bb 00ab 10bd 065f 28bd 6cb9 88bb
00000050: a05b b7bd fec7 bb3c 2059 4a3d c213 443d
00000060: 26bb e5bc 9710 8f3d 3f9c 9b3d 41d7 45ba
00000070: 307c 523d c622 2d3d 2285 06bd 2a66 a33a
00000080: a6f6 773d 9d20 4e3d 8cb0 9a3c d23a 533b
00000090: 2540 f7bc d742 1b3d a1b0 b93d 359c df3c
000000a0: c4fe 16bd 1e57 523d 2a13 2ebd b078 203b
000000b0: 68d7 31bc b7db 86bc 923d 903d fe9b 523d
000000c0: 6a4a 403d 8d6d 1a3d a16c 713d f48d 8cbc
000000d0: c93d a13c e2ce 7fbc 1701 fc3c 24c0 bebc
000000e0: bc5d b5bc a2ad 093d 147c 12bd 0c41 e3bb
000000f0: 9bdc 673c f926 2a3d dd48 bfbc fd95 14bd
00000100: 576e cf3c 1598 d5bc 0782 db3b b5fe dbbc
00000110: dc30 aabc 58ae fbbc 4d81 8abd 38f1 afbd
00000120: 1fb8 ae3b 216b 22bd 7e75 a93d f152 9e3a
00000130: 7265 96bd 442a 2c3d a48d 4b3d 2652 5a3d
00000140: 258b bbbc 0e32 8a3c 785e 13bc d946 ba3c
00000150: 66ef f7bd 431e 833c d1d1 97ba b194 8b3c
00000160: 00c4 76bd f860 2a3d c61e b8bc bbd6 333c
00000170: b6f1 803d d369 10bc 0009 963c aa54 c23c
00000180: 2d45 b5bc 0386 e73c 4efd 0f3c 848b 9abc
00000190: a14e a13d e587 f9bc ee88 d73c e03a 173d
000001a0: 9c6f 79bd 2d8e 993d 1980 cbbc edcc 4ebd
000001b0: e29b 5fbd 9a85 ad3d 0f98 f93b 0989 aabc
000001c0: c1b1 ab3d b286 c2bc e94c 523d 2d16 f1bc
000001d0: f523 85bc c113 4abd 0a7f e03c a053 b8bd
000001e0: 51f7 433d 89ae 89bc f009 423d eee9 22bd
000001f0: f5c2 c43c 80ea 733b 90ff 543d 6a20 d0bc
00000200: b053 d53c 8de5 0fbc afdf b8bb c23c 343d
00000210: 0747 0c3b 81b8 ebbc 75d4 85bd 71b3 57bc
00000220: 0e0c 6f3c a356 ecbc f1a0 59bd c92b 5e3c
00000230: 6731 cd3a bf50 31bc 3095 9e3c 2a7a b73b
00000240: 4097 2bbc 6c62 a63c 6afe 73bd 78ca 553d
00000250: 8b46 99bd 840b b23c cb94 ae3d 382b 183e
00000260: 05a5 79bc 5a0d 2bbe e44e 403d f294 653c
00000270: 64d0 423d d971 45bc 3be6 c6bd dc9e 283d
00000280: ed13 e43c d55a 6ebc e1eb e8bc dcce 39bd
00000290: 3cf6 143d d873 afbb a9e1 103d 265c 4ebd
000002a0: 23b3 a7bd c48c 363d c8ec 063d 6dc3 8cba
000002b0: fa70 f6bc 63db 1fbd 5c16 cbbc 0355 a33c
000002c0: ff7e a13c 9151 25bd 0916 c1bd fc32 afbd
000002d0: 5767 46bb 878f d7bc 6192 d23c 5b9b aa38
000002e0: 7a6c 93bd bb3b 91bd e019 42bd 29cf 06bd
000002f0: 3c42 2f3c 421f 00be dce8 a8bd b464 b1bd
00000300: 6967 3ebd df8a 32bd 7d83 8cbc 4641 d1bd
00000310: 29df d0ba 237c 74bd 9740 98bc a17f dabd
00000320: 2992 86bd 5b7f 7d3d 1f46 1dbd 9d58 c33d
00000330: 4664 1c3d d2f5 e3bd 5b27 733d 1303 02bd
00000340: 6656 c13c 7c7c a03d 6312 a1bd 56c5 c9bc
00000350: 9522 843d 65c3 363d a68f 283d f235 68bc
00000360: 2bb4 c0bc 3afe e03c 6c8c ef3c af1a 663d
00000370: 2b46 00be 2afc cb3d 2e9f 12bb 377e 333d
00000380: c8c2 ef3b 3553 f83c 4559 073d f36f 23bc
00000390: d879 f13b 4905 bf3c 9902 fe3c 7ac7 2b3d
000003a0: fc9f 94bd 6b7c 13bd 3a9b b23d 1dd3 433d
000003b0: bb64 8bbb fbe7 d7bc bf61 37bc d135 163d
000003c0: 4131 5a3b 02c2 2c3b 52ad 23bd 0c67 b83c
000003d0: dc03 ad3d ab39 06bd d95e a83c 2353 b139
000003e0: be4a 543c f341 00bc 9d5a 31bd aaba 8cbd
000003f0: d904 b23d a177 cb3c 38b7 b33d 742c 53bd
0.004645537 -0.06961177 -0.029863216 -0.005382351 0.022418905 0.015762107 -0.043084327 -0.043110084
0.077782236 -0.034160506 -0.051301394 -0.016288377 -0.036991466 -0.016051771 -0.040019315 0.0066197463
-0.005090149 -0.03531933 -0.041106246 -0.0041724946 -0.08953023 0.022922512 0.049401402 0.047870405
-0.02804334 0.06985586 0.07598161 -0.0007547029 0.051387966 0.04226949 -0.03284181 0.001246636
0.060537957 0.05032407 0.018883012 0.0032231105 -0.030181954 0.03790554 0.090668924 0.027296165
-0.036864057 0.051352613 -0.042498745 0.0024485998 -0.0108545795 -0.01646219 0.070429936 0.051418297
0.046945967 0.037702132 0.058941487 -0.017157532 0.019682782 -0.01561329 0.030762238 -0.02328498
-0.022139423 0.033612855 -0.03576286 -0.0069352444 0.014151718 0.041541073 -0.023350174 -0.036275852
0.025321169 -0.026073495 0.00669885 -0.026854852 -0.020775251 -0.030722782 -0.067629434 -0.08590931
0.0053320075 -0.039652947 0.08274363 0.0012079162 -0.07343568 0.042032495 0.049695626 0.053301
-0.022893498 0.016869571 -0.008994691 0.02273886 -0.121062085 0.01600564 -0.0011582916 0.017038675
-0.060245514 0.041596383 -0.022475611 0.010976489 0.06296103 -0.008814293 0.018314838 0.023722012
-0.022127712 0.028262144 0.00878842 -0.018865354 0.078763254 -0.030460307 0.02631041 0.036921382
-0.060897455 0.07497821 -0.024841355 -0.0504884 -0.05459202 0.08472748 0.0076170038 -0.020817297
0.08383513 -0.023745868 0.05134288 -0.02942952 -0.016252497 -0.049335245 0.027404327 -0.09000325
0.04784328 -0.016806858 0.04737276 -0.039773874 0.024018744 0.003721863 0.052001536 -0.025406081
0.026040882 -0.0087827565 -0.0056418995 0.044003256 0.002140464 -0.028774502 -0.065346636 -0.013165341
0.014590276 -0.028849905 -0.053132 0.013560244 0.0015654982 -0.010822474 0.019358248 0.00559928
-0.0104730725 0.020310603 -0.0595688 0.052195042 -0.07484158 0.021734007 0.08524474 0.14860237
-0.015237098 -0.16704312 0.046950236 0.014012562 0.047562018 -0.012051069 -0.09711882 0.041167125
0.027841533 -0.014548023 -0.028432788 -0.045363292 0.03636764 -0.005354386 0.035371456 -0.05038085
-0.081884645 0.04456784 0.032940656 -0.0010739394 -0.030083168 -0.039027583 -0.024790935 0.019937998
0.019713877 -0.04036099 -0.09428031 -0.085546464 -0.0030273998 -0.026313556 0.025704565 8.135169e-05
-0.07198425 -0.07091471 -0.047387958 -0.032912407 0.010696944 -0.12511924 -0.082475394 -0.08661786
-0.04648534 -0.04358947 -0.017152542 -0.10217528 -0.0015935648 -0.0596887 -0.018585486 -0.106688745
-0.065708466 0.061889034 -0.03839695 0.09538386 0.038181566 -0.11130871 0.059363704 -0.031741213
0.023600768 0.078362435 -0.07864835 -0.02463023 0.064519085 0.044619936 0.04115262 -0.014173018
-0.02352341 0.027464975 0.029241763 0.05617779 -0.12526767 0.09960206 -0.002237271 0.04382154
0.007316921 0.030313114 0.03304412 -0.009975421 0.0073692612 0.02331795 0.031007098 0.041938283
-0.07257077 -0.036007326 0.08721013 0.047808755 -0.0042539514 -0.026355734 -0.011192738 0.036672417
0.0033293518 0.0026360755 -0.039960213 0.022510074 0.08448002 -0.03276984 0.02055304 0.00033822012
0.012957273 -0.0078282235 -0.043299306 -0.06871541 0.08692331 0.024837317 0.087751806 -0.051556066

parameterizer.cl_layers.3.bias f4 [20]
00000000: 1d4f cb3d 8837 2a3d 310e c0bc 6d05 743d
00000010: c4d6 2b3d 23f5 ff3c 3b31 0b3e 39fb a7bd
00000020: 1968 883d 3fa5 4e3d 6818 563d ce20 b23c
00000030: 16c3 c13d 26e3 f83b 536b eabd 2d06 19bd
00000040: 2d4d 473d 1191 87bd 48bd bebc eb45 53bd
0.09927199 0.041556865 -0.023444267 0.059575487 0.041952863 0.03124482 0.13592999 -0.08202214
0.0666048 0.05045056 0.05226937 0.021744158 0.09461038 0.0075954376 -0.11446252 -0.037359405
0.048657585 -0.06619466 -0.023283616 -0.05158035

parameterizer.fc_layers.0.weight f4 [50, 320]
00000000: d577 f3bc 97f5 c5bc 410b f63c 337b 14bd
00000010: f5f6 b93b c4d4 843c 1368 9b3c 84fb b33d
00000020: 810a 423c 482b 2fbd 72f9 a13a 4c80 413d
00000030: 6803 5a3d 851b 4ebb 91b0 453d fe27 1a3d
00000040: 70fd 02bd 7f86 88bc 60dd d3bc 0308 e53c
00000050: 1f79 ddba fbfd e53c f923 f83b 2c1f 01bd
00000060: da57 b63d 905e 21bd 79d0 ff3a 697b 713c
00000070: 3c8b f03d 99fd 50bc c2fe ff3c 9875 7c3c
00000080: e4c5 b5bd f4e3 223c 8c7b d13c 1725 e9bc
00000090: d5e0 873c f729 0d3d 9b65 2a3c 5c47 683d
000000a0: 85a4 e6bc 43b3 073d a08d 9d3c 707b e8bb
000000b0: 9371 df3d 1bb0 adbc fc18 2c3c fb1f 2cbd
000000c0: b435 bcbc 2f34 bd3c 19be 1ebd c301 323d
000000d0: 5ab3 663c 3515 e8bc 975f 143d ee21 01bd
000000e0: 884e 683c 7b54 debc f308 32bb 0eff 12bc
000000f0: 6935 963c 70ce 343d 314c fb3a 236f fcbc
00000100: 40fa e2bb b276 113c 81c3 82bc 557d 93bc
00000110: bf9a 9b3b 9ead 91bd 3a5f 32bc e4e0 563d
00000120: 4653 a73b aafb 6b3c 02e8 893c 0520 393d
00000130: 2ac7 40bc f21a 443d 1e8a e03c f5b7 c63c
00000140: b82b 073d e8de 10bc b847 e7bc f1ed e63b
00000150: 37a4 ce3c 6f62 e3bb 4991 8bbb 4166 903c
00000160: d595 c4bc 8c12 02bd 2d73 f43c 5ad9 73bd
00000170: 14d6 5f3b cb2d e53a 178c 883d 8f87 723c
00000180: 31bd 3e3b c040 0abc c2ab adbb 0a0a 013e
00000190: bf86 24bc 285b 243c 05c4 4b3c 20c5 9c3c
000001a0: e54a 043c 2d32 5fbd e874 04bd b094 5cbd
000001b0: 4ed7 603c 679b 74bd 3c49 4b3d 9eaf 38bd
000001c0: 6a0e 07ba 93c0 5dbc 3c46 193d 1bdf 90bc
000001d0: ab5b 323d ba12 823d 50ab 1e3c 7426 d63c
000001e0: 587b 8ebc 3608 9abd 7676 ed3c 4af2 b9bc
000001f0: 9dff 81bc c1a6 79bc 103f 0a3d 98a7 8e3c
00000200: 3f18 743b 6f1c a83c c7a2 2d3c 7961 8e3b
00000210: 0111 093d 867c 86bd e6fa 253d 179b 04bd
00000220: b85b 2ebb 1e14 1e3d c619 b8bc 3db9 9bbc
00000230: 4be4 4cbd 4c73 a3bb c66d 043b 8168 b2bc
00000240: 2803 083d 608b 81bb 5d55 3abd a5eb 2a3d
00000250: 6e11 af3d e471 543d ef81 35bd 72e9 86bc
00000260: 0575 993d 9a91 20bc ef65 a53b 5a35 113d
00000270: 9a4e 463b eeac 4cbc 874c 8cbc 3d29 04bd
00000280: de84 87bb 8d83 743b 3500 933d 207d 15bc
00000290: 0088 9bbd 7d0d 513d 2fa2 97bc 662c 7cbb
000002a0: 65e0 e9bb d9bd 0b3b 63a1 a7ba 7bc3 613c
000002b0: 862f 4a3c 8ac4 d63c d61d 233d 39bd de3c
000002c0: 2bb6 17bc 997b bbbc c04a 1cbc 4b77 87bd
000002d0: 4280 e43c 86e3 1cbd 4703 9e3c ac79 d6bc
000002e0: ae16 09bd 6ae1 413d ba47 b8bc 8317 2d3d
000002f0: 6ccc 3c3d 1e75 153c c4a3 cd39 e553 c53d
00000300: ad64 8d3c 8e3b 6d3c 2cce d63b f7da 66bd
00000310: a3ca 22bb a75a 1cbd 2d65 313c b52e c43d
00000320: 1894 bbbb b7ca 0cbd 8631 aabc eb89 083d
00000330: 4371 52bd aac7 a93c ca58 463d 8646 f23d
00000340: 28f9 e03c 1320 243c cd41 18bd 88b5 9abc
00000350: ae5f bcbb 8163 85bd ed9a e9bb 1209 d8bc
00000360: cacb 013d c4b6 4c3c 44a2 2cbd 6668 c3bc
00000370: 01a1 8abb 0cee d33c 72b5 1d3b 44d1 4c3d
00000380: a946 b03c 64e9 563d 74b6 843c 715e 4d3c
00000390: f319 69bd 018b a53c 9f06 9cbc 1746 15bd
000003a0: f20a 2f3d d106 b43c d06a 663c 7b1d a1bc
000003b0: bee9 cc3a 3583 893d bab3 1dbd 5387 303d
000003c0: 2964 343b 6ff4 ae3c 0f6e 013d 3308 8fbc
000003d0: de1b 213b f401 5b3d 3837 3abd 7fe2 bb3b
000003e0: 5709 72bd 6ec9 bf3c 1841 d53b 7b70 2fbd
000003f0: be09 9c3c c995 883d 67bf 663c 9f6d 2c3e
-0.029720226 -0.024164958 0.030034663 -0.036250304 0.0056751915 0.016214736 0.018970525 0.08788207
0.011843325 -0.042765886 0.0012357666 0.047241494 0.053225905 -0.0031449508 0.04826409 0.037635796
-0.031979978 -0.016665695 -0.025862396 0.027957922 -0.0016897059 0.028075209 0.0075726476 -0.03152387
0.08903475 -0.039396822 0.0019517086 0.014738896 0.11745307 -0.012755775 0.031249408 0.015408896
-0.08875635 0.009942044 0.025571607 -0.028460069 0.0165867 0.03446385 0.010400201 0.05670868
-0.02815462 0.03312994 0.019232571 -0.007094793 0.109103344 -0.021202138 0.010504004 -0.042022686
-0.022974826 0.023096172 -0.03875551 0.04345871 0.014080847 -0.028330425 0.036223974 -0.0315265
0.01417888 -0.027139893 -0.0027165979 -0.008971943 0.018336015 0.044142187 0.0019172487 -0.030814713
-0.006926805 0.008878397 -0.015962364 -0.018004099 0.004748672 -0.07113193 -0.010886962 0.052460566
0.0051063625 0.014403263 0.016834263 0.04519655 -0.011766234 0.04787726 0.02740961 0.02425764
0.033000678 -0.0088422075 -0.02823244 0.007047408 0.025224788 -0.0069392244 -0.0042592627 0.017626883
-0.023997227 -0.03175597 0.029840076 -0.059533454 0.00341547 0.0017484961 0.06667345 0.0148028275
0.0029104466 -0.008438289 -0.005300016 0.12601486 -0.010041892 0.010031499 0.012436871 0.019136965
0.008074497 -0.05449121 -0.032338053 -0.053852737 0.013723208 -0.059718516 0.04963039 -0.045089357
-0.0005151989 -0.013534683 0.037420496 -0.01768451 0.043544453 0.06351228 0.009684399 0.026141383
-0.0173928 -0.07521097 0.02898715 -0.02269854 -0.015868956 -0.015237511 0.033751547 0.0174139
0.0037245897 0.02052137 0.010597891 0.0043451157 0.03346348 -0.0656672 0.04052248 -0.032374468
-0.0026604962 0.038593404 -0.022473227 -0.019009227 -0.050022405 -0.0049881097 0.0020207032 -0.021778347
0.033206135 -0.0039533824 -0.045491565 0.041728634 0.08548246 0.051866427 -0.044313367 -0.016468737
0.07493023 -0.009800339 0.005047552 0.03545127 0.0030259253 -0.0124924015 -0.017126335 -0.03226589
-0.004135712 0.0037309856 0.07177774 -0.00912407 -0.07594299 0.051038254 -0.018509952 -0.0038478612
-0.0071373456 0.0021322875 -0.0012789186 0.013779516 0.012340432 0.026216764 0.039823376 0.027189838
-0.009259741 -0.022886084 -0.009539306 -0.0661455 0.02789319 -0.03830292 0.019288672 -0.026181065
-0.033468895 0.047334112 -0.02249514 0.04225875 0.04609339 0.009122161 0.00039222662 0.09635142
0.01725992 0.014479531 0.0065553393 -0.056361165 -0.002484002 -0.03817239 0.010827345 0.09579221
-0.0057244413 -0.03437301 -0.020775568 0.033334654 -0.051377546 0.02072509 0.04842452 0.118298575
0.027462557 0.010017413 -0.037172128 -0.018885389 -0.0057487106 -0.065131195 -0.0071290643 -0.026371513
0.03168849 0.012494747 -0.042146936 -0.023853492 -0.004230619 0.025870346 0.0024064449 0.05000426
0.021518068 0.052468672 0.016200282 0.012534724 -0.056909513 0.020207884 -0.019046126 -0.036443796
0.042735048 0.021975907 0.014063552 -0.019667378 0.0015633625 0.06714479 -0.03850148 0.043097805
0.002752552 0.02135679 0.0315991 -0.017459964 0.002458326 0.05346866 -0.045462817 0.0057337875
-0.05909094 0.023411479 0.006508004 -0.04283188 0.019047614 0.06669194 0.01408372 0.16838692

parameterizer.fc_layers.0.bias f4 [50]
00000000: 613f 2ebc 3369 1f3d ef83 0cbc 5663 dcbc
00000010: 9c32 79bc 4195 aa3d 82e9 aabb d741 2fbd
00000020: 7ee1 84bd 5eaa 74bd 89c5 ae3b e988 da3a
00000030: 4d1e 0dbc ed1d 843d f924 00bc 463b 06bd
00000040: 96a0 653b 1b04 463d ba1a e1bc badc cd3b
00000050: f17a 87bd e3bf 17bc 6bce 4abc 6b50 84bc
00000060: 95e5 10bd ec98 9bbb d7ef d6bc 4961 9b3d
00000070: 2bdf da3c f868 923d 9e11 09bd 4707 70bd
00000080: 09b8 353d 44ba 02bc 0588 af3a 7dea 2cbd
00000090: fbba 4b3d b2d7 863d 8213 d7bc 7f43 063d
000000a0: 377a eeba b3ad 893d fdf6 9cbc 1941 b9ba
000000b0: 24c8 33bc 51ca 1e3d 0b40 99bc 5fc3 34bd
000000c0: 28d9 94bd 0f19 8ebc
-0.010635228 0.038918685 -0.008576377 -0.026902836 -0.01520982 0.08329249 -0.0052158246 -0.0427874
-0.06488322 -0.059732787 0.0053336066 0.0016672882 -0.008613181 0.064510204 -0.007821315 -0.03277137
0.0035038344 0.04834376 -0.027478565 0.006282416 -0.06615246 -0.009262058 -0.012378315 -0.016151628
-0.035375196 -0.0047484543 -0.026237411 0.07586915 0.026717743 0.071489275 -0.033464067 -0.05860069
0.044364963 -0.0079789795 0.0013391977 -0.042215813 0.049738865 0.06584109 -0.02625442 0.032779213
-0.0018194382 0.067225836 -0.019160742 -0.001413378 -0.01097301 0.038767163 -0.018707296 -0.044131633
-0.07267982 -0.017345933
