results/FASHION_MNIST/checkpoints/Epoch[16]-Step[4590].pt (torch, 374454 bytes, 66 tensors)

conceptizer.encoder.0.0.weight f4 [10, 1, 5, 5]
000000 45 2e 86 bd 02 02 2f 3e 9f ba 2d 3e 60 32 d7 3d
       -0.06551794 0.1709061 0.16965722 0.10507655
000010 fb a4 00 3e b5 2f bb bc dd 67 31 bd 7f 85 0e 3c
       0.12562935 -0.022849897 -0.043311942 0.00869882
000020 82 3d 2c 3e f3 9d 2e bd 7e 79 13 3e 66 fb bf 3d
       0.16820338 -0.0426311 0.14401814 0.09374122
000030 09 46 2d be 4c 48 01 3e 50 8a 31 bd bf 69 24 3e
       -0.16921248 0.12625235 -0.043344796 0.16055964
000040 78 b3 67 3d 51 46 01 3e ee 96 9b 3d f7 51 d3 bc
       0.05656764 0.1262448 0.07597147 -0.02579592
000050 f6 97 47 3e b2 19 23 bc d6 f5 98 bc 63 23 a5 bc
       0.19491562 -0.009954857 -0.018671911 -0.020158475
000060 83 fe 49 3e 2a 16 52 be 97 bb de bb 14 69 58 be
       0.19725995 -0.20516267 -0.006797265 -0.21133834
000070 e2 30 05 be f0 9f ad bd e1 b9 09 be 5a a8 27 be
       -0.13006929 -0.08477771 -0.13449813 -0.16372815
000080 e4 1d 86 be db 4c 3a bd 65 c5 0e be 4a f1 b1 bb
       -0.2619468 -0.04548345 -0.13942488 -0.005430375
000090 12 ad 3c be cf 73 cd bd b2 dd 31 be e9 86 de bd
       -0.18425396 -0.10031854 -0.17369726 -0.10865576
0000a0 24 68 6e be 7c 6e 54 bd 09 48 7c bd 08 e1 6b 3d
       -0.23281914 -0.05186318 -0.061592136 0.057587653
0000b0 42 8b de 3c bf 82 43 3c a8 ca ac bb 3a ef de bd
       0.027166013 0.011933028 -0.005273182 -0.108854726
0000c0 2b 56 2e be 71 c9 7c ba 50 09 4e 3c b8 27 36 be
       -0.17025058 -0.0009643054 0.012575462 -0.17788589
0000d0 bc 8c 93 3d 1a 8e a9 bd eb ff f3 bd 06 5d cb bd
       0.07204577 -0.08279057 -0.11914047 -0.09929852
0000e0 34 c6 33 be 54 e8 03 bd 3e 22 5f be 09 6a 1f be
       -0.17556077 -0.032203987 -0.21790406 -0.15567793
0000f0 d4 97 51 be 10 d7 eb 3d 7e 90 a8 bd f4 ec 48 be
       -0.20468074 0.11515629 -0.08230685 -0.1962164
000100 67 21 75 bd 5b e9 a3 bd 82 43 ce bc b3 8f 4b be
       -0.059846308 -0.080034934 -0.025178675 -0.19879036
000110 e3 b3 ea bd f5 97 25 be 6c 96 d7 3d 56 99 06 3c
       -0.11460092 -0.16171248 0.105267376 0.008215269
000120 f1 80 df bb 1c 8b 88 bd 40 50 fa bd b4 50 2e be
       -0.006820791 -0.06667158 -0.12222338 -0.17022973
000130 96 c7 c6 bd 08 1d 09 3d c7 99 1b bd 64 4f d0 bc
       -0.09706037 0.033474952 -0.03798845 -0.025428481
000140 91 72 3e be cf 46 9e bd 29 b1 e2 bd b9 bf f6 bc
       -0.18598391 -0.077283494 -0.11068947 -0.030120717
000150 4d 75 cb 3d 67 db 7e be 96 c9 69 be da c8 91 3c
       0.09934483 -0.24888383 -0.22830805 0.017795969
000160 5b a1 21 be a0 a0 c5 3c 98 d5 db bd c4 fd 19 be
       -0.15784208 0.024124444 -0.10734099 -0.1503821
000170 b9 a9 9f bc 4e 14 4a bd 21 59 f8 3c 39 23 d7 bd
       -0.01949011 -0.04933577 0.030315937 -0.10504765
000180 4f dd 86 bd 64 b9 3d be 40 ef d8 bb d4 57 f1 3d
       -0.0658518 -0.18527752 -0.0066203177 0.1178433
000190 bb 15 c0 3d f4 3c f6 bd 05 f1 b4 3d 88 02 2f 3d
       0.09379145 -0.12023345 0.08835033 0.042727023
0001a0 79 e1 a8 3d 27 39 b6 3d 5f c4 04 be 59 13 fb 3b
       0.082461305 0.0889762 -0.12965535 0.0076622185
0001b0 af 3a cc 3d 7f 8f 41 be b1 99 b7 3d da f0 33 3d
       0.099721305 -0.18902396 0.08964861 0.043930866
0001c0 33 8b 16 be e0 68 2a be e9 13 6b bd 42 df 36 3d
       -0.14701538 -0.16641569 -0.057392035 0.04464651
0001d0 b6 51 7e bd 59 14 19 3e 8c c5 de bd 33 52 79 3d
       -0.062089644 0.14949168 -0.10877523 0.060869407
0001e0 5e 05 d0 3d f5 ca 3c 3e 05 85 95 bb 53 7b d6 bd
       0.10157274 0.18436797 -0.0045629763 -0.10472741
0001f0 11 ff 92 3d 03 ca 8d 3d 10 1e 51 3e f6 88 cd 3d
       0.07177556 0.06923296 0.20421624 0.10035889
000200 a0 89 ef 3d 5b ba 9f 3d 90 f5 25 bd 2e 1e 5a bd
       0.11696172 0.07799216 -0.04051739 -0.053251438
000210 cf f8 e7 3d 74 10 02 3e 6b e4 18 bd bb 8c 43 3e
       0.11326753 0.12701589 -0.03732721 0.19096653
000220 c5 d1 b8 3d 36 3e 5e 3d 10 5b 71 bd 51 b6 0f be
       0.09024385 0.054258548 -0.058924735 -0.14034392
000230 36 98 ac bd 7b e1 1d 3e 3a 22 04 3e 93 9d 3d 3d
       -0.084274694 0.15418045 0.12903681 0.046292853
000240 41 cf 1c be 45 54 02 3e a9 10 63 3e fb 3a a4 3d
       -0.15313436 0.12727459 0.22174324 0.08019062
000250 fd 7a 91 bd 1e 69 2e bc 4d 15 70 3e db ce bd bd
       -0.07103536 -0.010645179 0.23445626 -0.0926797
000260 61 1a 28 3e db c6 4a 3e 8a 60 0d 3d 0d ff 80 bd
       0.16416313 0.1980242 0.034515895 -0.06298647
000270 c6 6e 5c 3e f4 39 b1 3c 2a 5c 38 3e eb 2a 3f 3e
       0.21526632 0.02163408 0.18003908 0.18668716
000280 3a 38 e1 bd 62 74 22 bc 46 3b fd bc 22 37 6d bd
       -0.109970525 -0.009915443 -0.030912053 -0.057913907
000290 71 02 ed bd f9 f4 20 be 79 96 28 3e 0a 67 d6 3d
       -0.11572731 -0.1571845 0.16463651 0.10468872
0002a0 56 cb 91 bd 21 13 2f be 50 15 44 be 68 88 ce bb
       -0.071188614 -0.17097141 -0.19148755 -0.006302882
0002b0 f0 1f 5a be d8 53 0e bd 6f 5a 0c bc 3e f5 43 3a
       -0.21301246 -0.03474793 -0.008566483 0.00074752036
0002c0 17 4f 72 3c 40 04 15 be e4 52 3e be 65 d9 c8 3d
       0.014789364 -0.14552402 -0.18586308 0.0980709
0002d0 5b 87 b5 3c ac 4c 9a bd 94 4f 88 3d 65 dc ac 3c
       0.02215927 -0.07534155 0.06655803 0.021101186
0002e0 9e 02 d6 bd 94 8f 65 3e 46 01 1c 3d 4f 57 08 3e
       -0.10449718 0.22418052 0.038087152 0.13314556
0002f0 7d 1b 46 3e 08 98 b1 3d 40 b5 48 3e 46 42 c8 bd
       0.19346423 0.08671576 0.19600391 -0.09778266
000300 77 a9 6b 3d 14 f0 34 3b 25 ae e3 bb b8 a8 7b 3d
       0.05753466 0.0027608918 -0.00694825 0.0614402
000310 8f 69 39 3e 09 2a ab bd ab 88 d8 3d f0 0f 18 3e
       0.18106674 -0.08357627 0.10572942 0.1484983
000320 23 c3 0c 3e be e7 4f bb 69 e0 06 3e 88 9a ca 3d
       0.13746314 -0.0031723822 0.13171543 0.09892756
000330 6e 9d 15 bd af 59 c5 3d 1d 8a 94 3d a9 e2 8c bd
       -0.03652709 0.096362464 0.072529055 -0.068791695
000340 c6 7d bc bd 2c f4 62 3e a7 4d 19 3e 5a 7b 09 be
       -0.09203677 0.22163457 0.14971028 -0.13425961
000350 73 c2 98 bd ad cb 8f bd 63 a0 db bd 75 9f 82 3d
       -0.07458963 -0.0702127 -0.10723951 0.0637807
000360 5e 95 1e bc f8 72 06 3e 4e 9f fd bd 4d 02 92 3d
       -0.009679167 0.13129795 -0.123839006 0.07129345
000370 54 dd 28 be 59 66 dc 3d 6a 78 06 3b a6 4f eb 39
       -0.1649068 0.10761709 0.002051855 0.00044882036
000380 0d 08 5c 3e be 10 83 3c 8d 67 2c 3e 2a 6b 15 3e
       0.21487446 0.015999194 0.16836376 0.14591661
000390 6f a3 f4 3d 6e 78 1e 3d 15 88 92 bd 1c 59 2f 3c
       0.11945235 0.03868907 -0.07154862 0.010702398
0003a0 e3 6a 17 3e a6 30 53 bd 7d 2d 93 3d 28 fe 0e 3e
       0.14786868 -0.051560067 0.071864106 0.1396414
0003b0 f3 f1 10 3e 3c 61 34 3e c7 53 b6 bd 32 63 e5 3d
       0.14154796 0.17615217 -0.08902698 0.11200561
0003c0 4f 04 d0 3b 1f aa f0 3d 04 b7 90 bd fe 3a ea bd
       0.00634817 0.11751198 -0.070661575 -0.11437033
0003d0 48 12 c7 3d fd 1a 77 3c 8e 07 b6 3c 7f ff 40 3e
       0.09720284 0.015082118 0.0222204 0.18847464
0003e0 4b 6b 4b 3e 76 f4 d6 3d
       0.19865148 0.10495846

conceptizer.encoder.0.0.bias f4 [10]
000000 b7 d6 92 3d 8a 9f 3d 3e 47 4e 87 3e 3c ee 53 bd
       0.0716986 0.1851789 0.26426908 -0.05174087
000010 ce 2f c3 3e 94 7a 21 3e 84 33 0c be 05 5f 18 3d
       0.3812241 0.15769416 -0.13691527 0.037199993
000020 66 47 67 3e df 7d d0 3d
       0.2258583 0.10180258

conceptizer.encoder.1.0.weight f4 [5, 10, 5, 5]
000000 d0 92 3d bc d8 08 55 bc 6d ae 10 3c f5 c9 63 3d
       -0.011570647 -0.013002597 0.008830649 0.055612523
000010 4c 5c 2d bc 03 f7 5b bb ff 45 77 3c e1 07 f5 3b
       -0.010581087 -0.0033563979 0.015092372 0.007477746
000020 79 9e 29 bd 53 78 d5 3d eb 39 5e bd 9b 04 41 3d
       -0.041410897 0.10423341 -0.054254454 0.047123533
000030 02 7f 60 bd d8 d8 d6 3b cc 16 d9 bb f0 65 94 3c
       -0.054808624 0.0065566115 -0.006625032 0.018115014
000040 65 b1 c6 3b 8d 02 e3 3c 12 88 bb bc 8a ce 50 3d
       0.0060636275 0.027711177 -0.022892032 0.05097822
000050 57 67 09 3c 52 c4 56 bd 51 6a b8 3c c8 db f6 3c
       0.008386455 -0.05243332 0.022511633 0.030134097
000060 8e d1 64 3d 11 d6 04 3e a2 b9 a1 3d 51 4d 06 3d
       0.05586391 0.12972285 0.07896735 0.03278858
000070 35 89 26 ba 09 5d ab bb f6 48 c2 3d bf 07 02 3d
       -0.0006352843 -0.0052295965 0.094865724 0.03174567
000080 d1 43 8b bd 79 a6 ca bc b2 9a 93 bb ea 26 81 3d
       -0.06800044 -0.024737583 -0.004504525 0.063062504
000090 84 92 0f 3d fd fb 25 bc 49 b8 cc bc 27 21 83 bc
       0.035051838 -0.0101308795 -0.024990218 -0.01600702
0000a0 9d 3a 14 bb 76 90 01 ba 32 72 62 bd 3e 8b 89 3d
       -0.0022617944 -0.0004942486 -0.055284686 0.067160115
0000b0 e9 6d 38 3d 0e 95 01 bd 3b 82 07 3d e3 75 87 bd
       0.045026693 -0.03163629 0.03308318 -0.06614282
0000c0 68 de e3 bc 18 41 96 bd 6d f8 a2 3d ca 06 44 3d
       -0.027816013 -0.073366344 0.0795754 0.047858037
0000d0 9f 7d 8c bc a4 30 da bc 67 7b 4e bd ce 0c bb 3c
       -0.017149745 -0.026634522 -0.050410654 0.022833254
0000e0 f9 42 35 3b a2 8e 84 3a e0 fd 85 bd 74 a9 81 3c
       0.0027658327 0.0010113309 -0.065425634 0.015827872
0000f0 d2 d5 a6 3d a3 82 e4 3c b1 f9 9f bc bc 78 2c bd
       0.08146252 0.027894324 -0.019528242 -0.04210733
000100 02 f0 f0 bc d4 71 4e 3d c5 b0 b5 3c 2e 23 56 bd
       -0.02941132 0.050401524 0.022179017 -0.052279644
000110 f0 70 09 3d 7b 57 56 bd 24 bc 84 3c 30 29 56 bd
       0.03355497 -0.05232952 0.016202994 -0.052285373
000120 7a 85 6e 3c 13 d8 1c 3d 29 8b 91 bc e5 61 f2 3c
       0.0145581905 0.038292002 -0.017766552 0.029587695
000130 36 64 ce 3c 40 42 3b 3a 07 6c 7e 3c 24 38 12 ba
       0.025194269 0.0007143356 0.015528685 -0.00055778236
000140 7a 0a e8 3d 86 64 93 3d 5e fd 55 bd a7 8e 56 3c
       0.11330123 0.07196908 -0.052243583 0.013095534
000150 09 7e 1b bc b6 00 e8 3d 69 a3 ed 3c 67 95 81 bd
       -0.009490498 0.113282606 0.029008584 -0.06327324
000160 ae 82 1b bd 12 2b bb bc 95 6f 06 bd ce 64 c4 bc
       -0.037966423 -0.022847686 -0.032821257 -0.023973849
000170 6d 12 fb bc 0e 37 da bb 89 3a e9 3b 8d 1f 93 bb
       -0.030648435 -0.006659395 0.0071175736 -0.004489845
000180 50 ad 8c bd df 7b 60 bc 9d ea 2d 3d 94 d8 9e 3c
       -0.06868994 -0.013701408 0.042460073 0.019390382
000190 18 8c 83 3d 04 a4 3e 3d ec ef 95 3c ed b3 5f bc
       0.06423205 0.046543136 0.01830288 -0.0136537375
0001a0 5c 2b 24 bd f3 30 6f 3b 93 d1 00 3d 4b 72 e0 3c
       -0.040080413 0.0036497682 0.031449866 0.02739825
0001b0 e1 df 70 3c 51 3d 09 bb e5 18 b0 3d db 0c e2 3a
       0.014701814 -0.0020941088 0.08598498 0.0017246263
0001c0 9f c7 a7 3d b7 d2 f1 bc 4e f2 af bd e0 92 3e 3d
       0.081923716 -0.029519422 -0.08591138 0.04652679
0001d0 67 07 fb 3d 65 b1 67 3d 0f d9 05 3d f1 94 bf 3c
       0.12257271 0.05656566 0.032677706 0.02338645
0001e0 06 6a 02 3d ee 7f b4 3d ee a4 eb 3d 7f 1e 21 3d
       0.031839393 0.08813463 0.11506067 0.039335724
0001f0 ab fb a2 bb 5a f2 01 3d 05 6c 62 3d 25 00 5c bd
       -0.004973849 0.031725265 0.055278797 -0.053711075
000200 95 85 b9 bc b0 56 16 3d 67 55 31 bd a6 5b b7 3c
       -0.022646705 0.036703765 -0.043294337 0.022382569
000210 d4 83 6d bc 65 84 96 3c b2 ad 93 3c 3f 5f 34 bd
       -0.014496762 0.018373678 0.01802716 -0.044036146
000220 c4 d3 aa 3c cf c0 4b 3d e1 cf 0f 3d 96 25 1e 3d
       0.02085293 0.049744423 0.03511036 0.038610063
000230 a1 d9 2b bc 23 44 5e bd af bc f9 3c 75 35 2b bd
       -0.0104888985 -0.0542642 0.03048548 -0.041799027
000240 14 70 2d bd 4e c6 1b bd 40 5f 12 3d 20 fc fd bc
       -0.042343214 -0.038030915 0.03573537 -0.031004012
000250 c6 8d 36 bd 9a b8 36 bc e6 51 2e bd 2d d0 9b bd
       -0.0445688 -0.011152411 -0.042558573 -0.07608066
000260 47 af 45 bd ca 9c 5c bc 84 8e ad 3c 6e 26 47 3d
       -0.04826286 -0.013465116 0.02118612 0.048620634
000270 b5 33 6c 3c 3a a2 77 bd b0 9e a1 bd b7 9e b6 bc
       0.014416625 -0.060457446 -0.07891595 -0.022292478
000280 56 26 39 bc 01 2c 4f bc f4 b5 af bd 4b 98 ce bd
       -0.011300644 -0.012644769 -0.08579627 -0.10087641
000290 79 d0 b8 bc 84 96 e7 bc 82 4e 9f bd ee c6 bb bd
       -0.022560345 -0.028270014 -0.07778646 -0.09168802
0002a0 45 ec a8 bd bd ca 5e bd 8c 6f f6 bd 8d 4f 7d bd
       -0.0824819 -0.054392565 -0.12032995 -0.061843444
0002b0 ee 14 0c bd 9d 2b d1 bd f6 80 6a bd 97 99 4b bd
       -0.034199648 -0.10213397 -0.057251893 -0.04970702
0002c0 42 2b 78 bd 78 a5 a4 3c 4d 71 2f 3d 6f 9b 76 3d
       -0.06058813 0.020098433 0.04283266 0.060206827
0002d0 73 a2 be 3a 19 9e 1a 3d f5 07 b4 bd a5 70 20 bc
       0.0014544263 0.03774843 -0.0879058 -0.009792482
0002e0 8f c1 42 bc 23 3e b7 3c 60 01 41 bd f6 7e a3 bd
       -0.011886968 0.022368496 -0.047120452 -0.079832
0002f0 b1 99 a2 bc c7 3a a0 3d 84 aa b1 bc b7 be 39 3b
       -0.019848676 0.07823711 -0.021687753 0.0028342435
000300 de 75 39 bd 4c 19 f7 3c ae e8 28 3d 88 d9 6f 3d
       -0.045278423 0.03016343 0.041237526 0.058557063
000310 60 4b 91 b9 71 18 32 bd 86 6a 3d 3d a8 72 80 3d
       -0.00027712714 -0.04348034 0.046244167 0.06271869
000320 54 1c d0 bd 7e 5c 2f 3d e0 78 d4 bb 24 05 b1 bc
       -0.10161653 0.042812817 -0.006484136 -0.021608897
000330 09 77 79 3d 18 d5 79 bc af 2a 03 3d 9d d0 05 3d
       0.060904536 -0.015248559 0.032023128 0.032669652
000340 6d 46 af 3c 3d cd b3 3d 2a d8 56 3c 04 1c 3c bd
       0.021395886 0.087793805 0.013113061 -0.045925155
000350 d3 e5 5e bd 9f a5 06 3d 8d 88 08 3d 61 28 7d 3c
       -0.054418396 0.032872792 0.03333335 0.015451522
000360 78 9b 7d 3d de ec b1 3c 6e 18 ea 3b e2 ae a9 3d
       0.061915845 0.021719392 0.0071440255 0.082853094
000370 1f 4d 22 bd c3 7f 88 3d 35 57 7c bb a4 9c 1f 3d
       -0.03962433 0.066649936 -0.0038504128 0.038967744
000380 1a be 97 3d db 8a 9d 3c 27 2b 73 bd 40 6c 13 bd
       0.07409306 0.01923125 -0.059367325 -0.035991907
000390 c4 a0 8d 3d bb 29 75 3d 18 2a 96 3c ed 2c 1b 3d
       0.06915429 0.05985425 0.018330619 0.03788464
0003a0 91 30 07 3c 37 1e 28 bd c8 53 8d 3c 6e fc e8 3b
       0.008251325 -0.04104444 0.017251864 0.00711017
0003b0 8c f6 45 3d 6d fd 2c bd bb f4 0e 3d b8 f0 e4 bc
       0.04833083 -0.042233873 0.034901362 -0.027946815
0003c0 da 05 d3 3c a3 80 ed bc 39 89 08 bd 04 04 4c bd
       0.025759626 -0.028992003 -0.03333399 -0.049808517
0003d0 33 83 56 3d 02 6f 37 bc d0 13 5c bd ee 24 aa 3c
       0.052371215 -0.0111959 -0.053729832 0.020769563
0003e0 fd 68 8c 3d c0 f2 d9 38 84 46 2a 3d b1 c0 e4 3c
       0.068559624 0.00010392582 0.041571155 0.027923914
0003f0 05 72 38 3c 38 99 86 3d cb ac 8e 3d 11 6c b7 3c
       0.011257653 0.06572193 0.069665514 0.022390397

conceptizer.encoder.1.0.bias f4 [5]
000000 23 d1 9e 3d 96 e0 ee 3c 16 a6 4a bc b6 c6 8d 3d
       0.077547334 0.029159825 -0.0123687 0.06922667
000010 f0 b5 1d 3e
       0.15401435

conceptizer.encoder.2.layers.0.weight f4 [1, 16]
000000 b7 81 93 3a fb 6e 68 be 56 51 d3 bd 9d b9 3f be
       0.0011253868 -0.22698586 -0.10318248 -0.1872315
000010 9c 29 ee 3d 32 cb ad 3c 8f 06 a4 3d 7a 92 38 be
       0.1162903 0.021215055 0.080090635 -0.18024626
000020 5c 3e 34 be 4b 07 81 be a7 4b 10 be 21 82 4c be
       -0.17601913 -0.25200877 -0.14091359 -0.19971515
000030 54 b3 ed bc 0c 2d 83 be 51 c5 38 be af cc 40 bd
       -0.029016174 -0.25620306 -0.1804402 -0.0470702

conceptizer.encoder.2.layers.1.weight f4 [1, 16]
000000 fe e9 8b 3e 2d 73 3e be c9 f6 4c 3d a8 9f 2f 3e
       0.2732696 -0.18598624 0.05004004 0.17150748
000010 8d 46 db 3c a7 bb da 3d 8c 40 6c be af 9c 49 3e
       0.02676704 0.10680323 -0.23071498 0.19688676
000020 25 25 12 3e 41 9c 5d be 41 7b 29 bd fb 13 f1 3c
       0.14271982 -0.21641637 -0.04137731 0.029428473
000030 de 49 98 3e 43 08 46 bd 20 76 9a 3c 96 63 47 3e
       0.29743856 -0.048347723 0.018855155 0.19471583

conceptizer.encoder.2.layers.2.weight f4 [1, 16]
000000 9b f8 44 be 12 35 ab 3e 45 09 a0 3e 32 07 87 3e
       -0.1923546 0.33438927 0.31257072 0.26372677
000010 cc 4c ee 3d 33 b4 d1 3c 0c 2b 5a 3e 14 ec 68 bd
       0.116357416 0.025598621 0.21305484 -0.056865767
000020 7e 45 83 be 66 e7 49 bd 42 2b 49 3d d8 86 c3 bd
       -0.25638956 -0.049292944 0.04911352 -0.09547204
000030 4d 7b 93 be ff b7 92 bb 70 ab 64 bc 19 6a 52 bc
       -0.2880501 -0.0044775004 -0.0139568895 -0.012842678

conceptizer.encoder.2.layers.3.weight f4 [1, 16]
000000 51 c6 89 3e 2c 68 b0 3d 1d 40 af bd 0e 71 66 3e
       0.26909116 0.08613619 -0.085571505 0.22504064
000010 80 da bc 3b 6e b4 a8 3c b6 08 d0 3d aa a1 30 3e
       0.005763352 0.020593848 0.101579115 0.1724917
000020 72 70 f9 bd 1f b6 f2 3d 52 93 93 bd 90 1d 07 3e
       -0.1217965 0.11851143 -0.072058335 0.13194871
000030 d3 72 a1 3d 2c 1a 0b be 8f 3b cb bd 4f 47 10 be
       0.07883229 -0.13584203 -0.09923469 -0.14089702

conceptizer.encoder.2.layers.4.weight f4 [1, 16]
000000 d8 c8 49 3d 90 38 20 be 49 b9 af bd e9 39 1d bd
       0.049263805 -0.15646577 -0.08580262 -0.038385306
000010 f8 41 a9 be fd 11 4f bd 92 28 40 3d 52 a9 04 be
       -0.33058143 -0.050554264 0.04691369 -0.12955216
000020 3d 1c 23 be e4 ad 3f be 49 80 52 be 0b 2f 13 bd
       -0.15928741 -0.18718678 -0.2055675 -0.035933536
000030 79 64 bb bd 5a b2 07 3e be fd 2c 3d b4 2e 8a bd
       -0.09150023 0.1325163 0.042234175 -0.06747189

conceptizer.decoder.0.0.weight f4 [5, 16, 5, 5]
000000 62 f6 e0 bd 65 bc 9a 3d 8c 7a 4b 3d c2 7b 0f be
       -0.10984494 0.07555465 0.049677417 -0.14012054
000010 d1 05 af bd 49 89 dd 3d 83 9f 1e bd a9 89 00 3d
       -0.08546031 0.10817201 -0.03872634 0.031381283
000020 f7 4b cb bc 31 36 d5 bd 69 8f ba bd 5d 5e 03 bd
       -0.024816496 -0.10410727 -0.091093846 -0.032072414
000030 90 d4 93 bb 52 9c 04 be c2 d6 34 3e d3 84 c0 bc
       -0.0045114234 -0.12950256 0.17660049 -0.023500836
000040 df 3b 09 3d 45 c5 cd bd ef 12 d9 bd 6c 84 e0 3d
       0.033504363 -0.10047392 -0.105993144 0.109627575
000050 a9 49 ed bd 32 5a 8c bd 0e 38 bf 3d 0c d1 19 be
       -0.11586315 -0.06853141 0.093368635 -0.15021151
000060 87 5d 1c be 28 aa fe bb 79 9d 38 3e a1 09 90 bd
       -0.15270053 -0.007771749 0.18028821 -0.070330866
000070 98 5c 10 3e b4 db db 3d e0 14 50 bd b2 7e b2 3d
       0.14097822 0.107352644 -0.050801158 0.087155715
000080 2b 34 f7 bd 83 99 d1 3d 18 09 48 3d a8 3d f5 3d
       -0.12070497 0.10234358 0.048836797 0.119746506
000090 7a b0 06 bd 25 05 06 3d 57 2f 45 bd 78 b7 3f bd
       -0.032883145 0.03271975 -0.04814085 -0.04680583
0000a0 2b 93 1b 3e 85 4d 21 be cc d4 d5 bd 64 cc be 3d
       0.15192859 -0.15752228 -0.104409784 0.09316328
0000b0 c1 14 ae 3c c1 75 36 bd c7 ba 91 bd b7 a0 4e bd
       0.02125013 -0.044545893 -0.07115703 -0.05044624
0000c0 9a f7 c3 bb ed 9d 9b 3d c4 7c d9 3d d5 b6 79 bd
       -0.005980444 0.07598481 0.106195 -0.060965378
0000d0 db 32 25 be f0 2c 63 bd b7 cb e3 3d 50 51 12 bd
       -0.16132681 -0.055462778 0.1112284 -0.035722077
0000e0 13 e3 8d bd b1 c1 ca bd 40 f2 0c 3d f8 1b 32 3c
       -0.069280766 -0.09900225 0.034410715 0.010870926
0000f0 02 d0 d3 bd 82 16 19 bc 36 f5 de 3d 4e 4d c6 3b
       -0.10342409 -0.009343745 0.10886614 0.006051696
000100 cc 1c fa bd 23 28 ae 3d 58 a2 b8 bd b4 4a fb 3c
       -0.12212524 0.08503749 -0.090153396 0.03067527
000110 f2 fe 15 3e 18 8b 82 3d 9a 2b e3 bd ab 28 37 be
       0.14648035 0.06374186 -0.11092301 -0.17886607
000120 e9 f9 58 3c dd c7 93 3d 16 5c e8 bb 61 71 b4 bd
       0.013243177 0.07215855 -0.0070910556 -0.08810688
000130 12 1b 80 be 68 30 0b be e9 fa c7 3d 0f 88 17 bd
       -0.25020653 -0.13592684 0.09764654 -0.03699499
000140 8a 98 0f be 48 d4 f4 3d 35 08 38 be 69 a4 9b be
       -0.14023033 0.11954552 -0.1797188 -0.30398872
000150 9d 78 ee 3b 2e 98 b6 bd 8c 01 03 be 58 70 86 3d
       0.007277562 -0.08915745 -0.12793559 0.065643966
000160 44 be 8e 3d 94 7e c9 3c bf a0 3c bd 48 80 1b bd
       0.06969884 0.02459649 -0.046051737 -0.037964135
000170 cd d8 26 be 7a ab 63 be b9 ad 75 bc 84 70 d7 bd
       -0.1629364 -0.22233382 -0.014995032 -0.105195075
000180 bf 02 16 be 4a aa 94 3d c9 77 a0 3d 42 e8 13 3e
       -0.14649485 0.072590426 0.07835347 0.14444068
000190 fb e4 01 be 75 ce 12 be 09 f9 b4 bd da ee 19 be
       -0.12685005 -0.1433657 -0.08836562 -0.15032521
0001a0 f4 18 ed 3d ad 12 d2 bd 01 83 c9 3d e9 83 30 3d
       0.11577025 -0.102574684 0.0983944 0.04309455
0001b0 f0 0f 68 bd ae f9 71 bd 82 53 07 3e 2f a1 aa 3d
       -0.056655824 -0.059076004 0.1321545 0.083315246
0001c0 49 93 0c be 6b 01 56 bd 81 1c c1 3c 5b a3 01 3d
       -0.1372806 -0.052247446 0.023573162 0.03164993
0001d0 2a 6c 41 bd cf 57 b9 3d c7 a8 00 3e 99 75 c6 bd
       -0.047222294 0.09049951 0.12564383 -0.09690399
0001e0 10 65 dd bd a7 80 1c 3d 12 9a a7 3d 80 ff 0b 3e
       -0.10810292 0.03820863 0.081836835 0.13671684
0001f0 96 8a 16 3e c5 b2 a6 3d 1f 0a 73 bd c6 1d f3 bc
       0.14701304 0.08139566 -0.059335824 -0.029677283
000200 29 33 a4 3d 7b 89 c4 3d d5 89 8f be 66 63 df bd
       0.080175705 0.09596535 -0.28034845 -0.109076306
000210 6d 6a c0 3c 1a 53 24 bd 1d 8e c8 bd b9 c8 ad bd
       0.023488248 -0.040118314 -0.09792731 -0.084855504
000220 e9 db da bd aa 10 92 3d ca 94 6c 3d ec 54 98 3b
       -0.10686476 0.07132085 0.057759084 0.0046487954
000230 80 97 bf 3c 68 a2 f8 bb 00 9e 33 be 0e 14 81 be
       0.02338767 -0.0075877197 -0.17540741 -0.25210613
000240 7c fe c7 3d e5 12 22 3e f2 ec 0a be 4f b2 1f 3d
       0.09765336 0.1582752 -0.1356695 0.038988408
000250 22 fa 5f 3d e4 f3 60 3d 27 8f ac 3d 0a 24 d4 bd
       0.054681905 0.054920092 0.08425742 -0.103584364
000260 d3 ef 51 3d db 26 d5 bd f6 bb 36 3e 85 28 9f bd
       0.051254105 -0.10407802 0.17845139 -0.077714
000270 09 69 d2 bc d4 6f 4e bd 6f df 5c bd 1f 74 b2 3d
       -0.02568485 -0.050399616 -0.05392402 0.087135546
000280 6d d3 09 3d b3 ea 1c bd a5 12 7a bd e0 17 11 3e
       0.033648897 -0.038309764 -0.061052937 0.14169264
000290 9b 96 78 bd 7b 18 89 3d 83 63 14 bd b8 12 dd 3c
       -0.060690504 0.066941224 -0.036227714 0.026986465
0002a0 63 49 b6 3d 47 ba e3 bd 7f 64 15 be 30 37 c4 3d
       0.08900716 -0.11119514 -0.14589117 0.09580839
0002b0 f2 1f 36 3d 46 d2 16 be 99 e1 27 be 75 6d cf 3c
       0.04446406 -0.1472865 -0.16394652 0.025320748
0002c0 fb f9 90 3b cd 0c 81 3d bf a7 92 bc 4e 94 69 3d
       0.0044243312 0.0630127 -0.017902253 0.0570262
0002d0 94 dd 16 3d 1d c4 ff 3d ee bc f3 bd 90 74 d8 3c
       0.036832407 0.124885775 -0.1190127 0.026422769
0002e0 04 5a 13 3b 13 78 00 3e 31 88 b6 3d 98 ba 9e bc
       0.0022484073 0.12545805 0.08912695 -0.019376084
0002f0 e3 12 5c bd f7 39 14 be e4 e7 e8 3c 24 8d f8 3d
       -0.05372895 -0.14475237 0.028430887 0.121362954
000300 5e 21 58 be 81 a6 08 3d 8e 9b e9 bd 1b 32 ec 3c
       -0.21106479 0.033361915 -0.11406623 0.028832486
000310 b8 b7 18 bd fd 6c 91 3d fa 66 ce 3d 53 76 66 be
       -0.037284583 0.07100866 0.10078235 -0.22506075
000320 2d 68 dd 3d ce f1 24 3c 3f 08 06 be 2c cf ba bd
       0.108108856 0.010067416 -0.13089083 -0.09121546
000330 0d d6 e5 bd 6b fd 7c bb f8 e7 ba bd 98 73 be 3c
       -0.112224676 -0.0038603197 -0.09126276 0.023248479
000340 f1 d7 2f bd 04 e8 bf 3d 37 7e 29 3e e4 0b 6b 3d
       -0.042930547 0.09370425 0.16552053 0.057384387
000350 30 83 f2 bd 12 05 ec bc 3a 30 b1 3c fc 6f 32 3a
       -0.11841428 -0.028811011 0.021629442 0.0006806848
000360 86 81 c0 bd b2 08 02 3d 14 d0 9e 3c 49 c9 29 3d
       -0.09399705 0.031746574 0.019386329 0.041451726
000370 75 76 8e 3b 22 2e 78 3c 62 77 f4 bd 6a a5 8b bd
       0.0043476173 0.015147718 -0.11936833 -0.068186596
000380 12 a1 8b 3d 64 11 23 3c ce 51 0a 3d 67 12 fa 3d
       0.06817831 0.009952877 0.03376942 0.12210541
000390 7b e6 5a 3e 82 19 e2 bd 16 f1 06 3e 6a ce c7 3d
       0.21376984 -0.110400215 0.13177904 0.09756167
0003a0 13 bc 40 3e 12 ae e2 3b 0b d3 21 3e 08 a4 4d be
       0.18821745 0.0069177235 0.15803163 -0.20082104
0003b0 71 f2 02 bd b0 11 d2 3d 9b 3a 92 3d 2a 7b 41 bd
       -0.03196949 0.1025728 0.07140084 -0.0472366
0003c0 1c 67 8e bc 14 e1 a7 3c b7 44 9f 3c 12 a8 e7 bc
       -0.01738315 0.020493068 0.019441945 -0.028278384
0003d0 7d c4 06 bd 55 20 3f be 18 07 30 3e 51 c6 eb 3d
       -0.03290223 -0.18664677 0.17190206 0.11512435
0003e0 dc 09 1b 3c 1c f4 1d bd a4 a1 3e bb c4 4d 65 3c
       0.0094628 -0.03856288 -0.0029088045 0.013995592
0003f0 8a 2f 5c 3e c3 be 96 bd 3b 23 7a be 6b 82 23 bd
       0.2150251 -0.07360604 -0.24427502 -0.0399193

conceptizer.decoder.0.0.bias f4 [16]
000000 e5 6d 88 3d 36 f0 b3 3c 25 84 1b 3d 98 af 99 3d
       0.06661586 0.021965127 0.03796782 0.07504195
000010 6a 22 dc bb 60 ad 6c 3d ff aa 55 3d 58 7d 6a 3d
       -0.0067179697 0.05778253 0.052165028 0.057248443
000020 5c c0 30 3c 92 76 62 3d 75 6a 57 3c b1 08 d9 3c
       0.01078805 0.05528886 0.01314794 0.026493402
000030 c3 75 a0 3d 3d 0b 10 be 1d c4 b3 bd d1 d4 5b 3d
       0.07834961 -0.14066787 -0.0877764 0.053669754

conceptizer.decoder.2.0.weight f4 [16, 8, 5, 5]
000000 32 bb 34 bd 81 5d c8 3c 98 36 da 3d a8 33 a7 3d
       -0.044123836 0.024458649 0.10654944 0.081641495
000010 fc de f8 3d d2 d0 7c bd e0 ba 29 3e 7a 7c 19 3e
       0.12151906 -0.061722584 0.16575193 0.1498889
000020 fd de 31 3d df 4b e5 3d 34 88 ca 3d 49 61 0e 3e
       0.04342555 0.11196112 0.0988926 0.13904299
000030 1c eb f3 3d 8f b9 04 3e 2a c2 d2 3c 11 b5 1d 3e
       0.11910078 0.1296141 0.02572735 0.15401103
000040 d6 2b f8 3d 41 d1 0f 3e 6f 9d 62 3d 28 46 ad bc
       0.12117736 0.14044668 0.05532592 -0.021151617
000050 cb 7f 2b 3e 0d f7 6b 3d 8a 7c 6d 3d 74 d9 bd 3d
       0.16747968 0.057608653 0.057980098 0.092699915
000060 18 f4 08 3b 4d c4 47 bc 59 5d 45 bd ec f6 ff 3c
       0.0020897444 -0.012192798 -0.048184726 0.031245671
000070 16 4a 03 3e e3 b0 0c 3e c1 ce 87 3d dd 5e 40 3c
       0.1282123 0.13739352 0.06631232 0.011741367
000080 26 b6 98 3d 40 a0 42 3e 1c 28 17 3e 6b 12 b3 bb
       0.07456617 0.19006443 0.14761394 -0.005464842
000090 39 fb 8e 3d 55 7d c0 3d 87 3d e4 3d c1 a7 c8 3d
       0.06981511 0.09398905 0.11144548 0.097976215
0000a0 6a 94 8b 3c f1 8e 9e 3d a6 e0 24 3e 1d e3 40 3e
       0.017038543 0.07742108 0.16101322 0.18836637
0000b0 f7 a0 20 3e 8f fb af 3d a2 f1 c7 3d db 6f 16 3e
       0.15686403 0.08592903 0.09762885 0.14691107
0000c0 0a 0c c2 3d 6b 42 9c 3d b0 66 95 bc a2 07 96 bd
       0.094749525 0.07629856 -0.018237442 -0.073256746
0000d0 61 ba 61 bd a3 10 2c 3d de 89 7b 3d 5a bc ca bd
       -0.055109385 0.042008054 0.061410777 -0.098992065
0000e0 0e 18 a1 bc 93 8d 9e ba 62 7e 5e 3d c3 54 13 3e
       -0.01966479 -0.0012096636 0.054319747 0.14387803
0000f0 1f 7e 3e bd f6 09 85 bb 2f bb f2 3a 16 78 f0 3d
       -0.046506997 -0.0040600253 0.001851892 0.117416546
000100 6b 88 ce 3d 37 17 9c 3d 67 1a 05 3e 00 51 c6 3d
       0.100846134 0.076216154 0.12998353 0.09683418
000110 52 e9 ab 3d b3 bc e7 3d b3 e7 ba 3d 97 33 dc 3c
       0.08394112 0.113152884 0.09126224 0.026880069
000120 1e ae 19 3e 8c 2d 2c 3e b3 46 fa 3d d1 62 b2 bd
       0.15007827 0.1681425 0.12220516 -0.08710254
000130 21 08 8a 3d a9 18 55 3c f7 a8 97 3d 64 5a 57 3d
       0.06739832 0.013006368 0.07405274 0.052576438
000140 62 97 37 3d 48 70 15 3b e7 f5 d0 bd ca 84 94 bd
       0.044822104 0.002280252 -0.10203152 -0.0725189
000150 2c 40 30 bd 1c 33 05 be 11 50 c2 bc 3d ef ec bd
       -0.04302995 -0.13007778 -0.02371982 -0.115690686
000160 ff 29 01 be 87 91 9a bd f1 5b 33 be bf 24 d6 bd
       -0.12613676 -0.075472884 -0.17515542 -0.104562275
000170 5a e3 51 be 61 24 10 be d5 8b 0a be 5d 8d 72 3d
       -0.20496884 -0.14076377 -0.13529904 0.059216846
000180 b8 95 e7 bc db 60 15 be bd 8b 04 be 11 c4 16 be
       -0.028269634 -0.14587729 -0.12943931 -0.14723231
000190 5e 08 d7 3d a2 07 b9 3d 15 67 80 bc 38 d2 02 be
       0.10499643 0.09034659 -0.015674153 -0.12775505
0001a0 2d 4d c6 bc bd 84 08 3e 51 8b 43 3d 94 64 82 bd
       -0.024206722 0.13331886 0.047740284 -0.0636684
0001b0 56 fb 28 be 75 f2 80 3d e7 bb 2e 3d b6 ea 26 be
       -0.16502127 0.06296245 0.042659666 -0.16300473
0001c0 4a 75 39 be 2c 28 f8 bd e1 29 9c 3b f8 64 90 bd
       -0.18111148 -0.12117037 0.0047657345 -0.07050508
0001d0 6f 1a e8 bd dc 00 46 be 79 fa 24 be 05 1f 07 be
       -0.11333167 -0.19336265 -0.16111173 -0.13195427
0001e0 25 aa a2 bd c8 d1 26 be 99 cf 3b be d1 ec 28 be
       -0.07942609 -0.16290963 -0.18340911 -0.16496588
0001f0 f7 af e7 3d 67 ff 1a 3e 41 77 73 3e 5b 25 21 3d
       0.113128595 0.15136491 0.2377596 0.039342266
000200 dd 6b 51 be 76 f6 cd bd ac 15 1d 3e 64 44 cb 3d
       -0.20451303 -0.10056774 0.15340298 0.09925154
000210 2d c8 91 bd a4 76 94 be 53 51 45 be e9 6f 45 3d
       -0.071182586 -0.28996766 -0.19269304 0.04820243
000220 8d b1 ca bd 20 b7 f6 bd bf c4 42 be d6 7d 41 be
       -0.098971464 -0.12046647 -0.19020365 -0.18895659
000230 43 fd 9b 3c 37 0e ce bd fb 2b 22 be 64 4b 91 be
       0.019041663 -0.10061305 -0.1583709 -0.2837783
000240 0a e8 8a be 7b 00 1f 3c 41 71 a8 bd c2 d1 fe bc
       -0.27130157 0.009704704 -0.082247265 -0.03110588
000250 fd 46 f1 bd e4 be 0f be 48 de cd 3d 47 e3 0f 3e
       -0.11781118 -0.14037663 0.100521624 0.14051543
000260 bb 80 94 bc 7c ce 9c bd 16 8d 04 3d 5d 97 3f 3d
       -0.01812779 -0.07656571 0.032361113 0.04677521
000270 03 23 5d bd 34 f8 19 be 72 80 38 be 76 bd 4a bd
       -0.053988468 -0.15036088 -0.18017748 -0.04949709
000280 a4 ba 1e bc 22 7e 15 be 07 df 53 be a8 c4 5b be
       -0.009688053 -0.14598897 -0.20690547 -0.21461737
000290 6b de 7e be 66 52 c7 bd 83 ca 0f be fb 8f 35 be
       -0.24889533 -0.09732513 -0.14042096 -0.17730705
0002a0 76 2d 85 be 8d 2f 94 bd ce 17 c9 bd 53 8f 16 be
       -0.26011246 -0.07235632 -0.098189935 -0.14703111
0002b0 0c bf da bd 06 f4 65 be bb ce 9d bd 57 20 3e bd
       -0.106809705 -0.22456369 -0.07705446 -0.04641756
0002c0 e0 e7 2f bd 9f 6f 8f 3d b9 a3 8e 3d 07 d4 a7 bd
       -0.042945743 0.07003712 0.06964821 -0.08194738
0002d0 7d c9 1e be 99 fa 9c bc 02 59 5e bc be a7 a6 3d
       -0.15506549 -0.019162463 -0.013571026 0.08137463
0002e0 a6 ec 5b bd 4d 29 1c be f2 7d 7a bc 51 28 f2 3c
       -0.053692482 -0.1525013 -0.015288817 0.02956024
0002f0 9f 6d ad 3d 3e ea b8 3d ee 42 88 3b 71 b0 eb ba
       0.08468174 0.09029053 0.0041583693 -0.0017981661
000300 90 61 ab 3c 26 23 2b 3e 75 9d 22 3e 58 ff 5d be
       0.020920545 0.16712627 0.15880378 -0.21679437
000310 78 d4 3b 3c 01 8e e7 3b 13 ed 4a 3e 8c 12 3b 3e
       0.011464231 0.0070664887 0.19816999 0.18268794
000320 a2 2a 0c 3d bf bd 44 bd 54 90 a0 3d 98 ea 75 3d
       0.034220345 -0.04803252 0.078400284 0.06003818
000330 54 17 a5 3c 84 49 7c 3d 72 3c a1 bd 15 5b 9f 3d
       0.020152725 0.061593547 -0.07872857 0.077810444
000340 ad a5 d8 3d 88 6c e8 3c f5 ed 88 3d 97 bf d8 bd
       0.10578475 0.028372064 0.06686012 -0.10583418
000350 9a 58 71 3d 2a 28 1a 3e 50 8f ad bc a2 83 cb 3b
       0.058922388 0.15054384 -0.0211865 0.00621076
000360 fa 05 56 bc 71 ad a7 3d 42 35 08 3e ce ec 2e bd
       -0.013062948 0.08187378 0.13301566 -0.042706303
000370 6c 65 20 3d 77 94 ef 3c fe 5b 95 3d 8d 4f dd 3d
       0.039159223 0.029245598 0.07292937 0.10806189
000380 4e 50 a5 3d 49 d8 b1 3d f4 0b e2 3d ae 00 e0 3d
       0.080719575 0.08683831 0.11037436 0.1093763
000390 01 23 6f 3d 6c 5b a3 3d 0a 91 a4 3d 2e d3 6e 3d
       0.05838299 0.07976422 0.080354765 0.058306865
0003a0 fb 9e 16 3d a1 f4 03 3e 3c 06 9c 3d c1 c8 1c 3e
       0.03677271 0.12886287 0.076183766 0.15310957
0003b0 5a 92 f3 3d a5 c7 b2 3d 30 cb 14 3e be 62 02 3e
       0.11893149 0.087294854 0.14530635 0.1273298
0003c0 8a 20 0f 3e f7 30 c5 3d d4 4c 3c 3c 9b 68 14 3d
       0.13977256 0.0962848 0.011492927 0.036232572
0003d0 0a 04 06 3e d3 62 28 3d 58 cd 12 bd ed cb 1e 3c
       0.13087478 0.04110987 -0.035840362 0.009692174
0003e0 27 0d cd 3d 2f 33 77 3d 42 57 12 bc b6 ac 01 bb
       0.10012274 0.060351547 -0.008931937 -0.0019786782
0003f0 88 25 3e 3c e9 32 a0 3d 06 f4 23 bc 49 63 fa 3d
       0.011605628 0.0782221 -0.01000691 0.122259684

conceptizer.decoder.2.0.bias f4 [8]
000000 58 9e 83 3d 14 e2 7b 3c 34 e7 9a 3d 2f f3 a8 3d
       0.06426686 0.015373725 0.0756363 0.082495086
000010 73 16 91 3d 86 33 9e 3d 4f c2 6f 3d 2f 4a 80 bd
       0.0708436 0.07724671 0.058534916 -0.062641494

conceptizer.decoder.4.0.weight f4 [8, 1, 2, 2]
000000 15 39 98 be ae d5 0f bc ce 87 68 be a3 da 30 3f
       -0.2973105 -0.008778973 -0.22708055 0.69083613
000010 56 d9 04 3f cb 5e 07 3f 67 74 24 3f ca 49 18 3f
       0.5189413 0.5287902 0.64240116 0.59487593
000020 5a be 1d 3f 14 57 03 3f 7d c0 e7 3e f1 54 0a be
       0.6161858 0.51304746 0.45264044 -0.13508965
000030 04 c0 33 bf 80 e5 37 bf dd 69 27 bf e1 9f 43 bf
       -0.7021487 -0.71834564 -0.6539591 -0.7641583
000040 ff d4 0a bf a4 a8 3a bf 71 1b 17 bd 06 3a a4 be
       -0.54231256 -0.72913575 -0.036891405 -0.32075518
000050 b8 87 1c bf 27 0d 20 be e8 e9 56 bf 0e c8 1f bf
       -0.6114459 -0.15630017 -0.8395066 -0.62414634
000060 c7 7c 3f be 07 0e 3f bf 55 e4 86 be 9e 7e be be
       -0.18699943 -0.7463078 -0.2634608 -0.37205976
000070 b6 bc 44 3f fb 48 79 be 78 16 11 3f ac 24 8d be
       0.7685045 -0.24344246 0.5667491 -0.2756704

conceptizer.unlinear.weight f4 [16, 1]
000000 c4 72 73 bf 9b df 20 3f 25 a8 4b bf de 9b a4 bf
       -0.95096993 0.62841195 -0.79553443 -1.2860067
000010 30 4b 83 bf e9 6f 5c bf 58 3b 80 3f 75 f3 77 bf
       -1.025732 -0.8610826 1.001811 -0.9685586
000020 fa b2 67 bf e8 aa 8a bf c9 ec 86 3f fa 94 00 3f
       -0.9050747 -1.0833406 1.0541011 0.5022732
000030 62 20 82 bf 1f 31 86 3d c5 d5 23 bf 5f 9f 4a 3f
       -1.0166132 0.06552338 -0.6399806 0.7914943

conceptizer.unlinear.bias f4 [16]
000000 59 db 3a 3f d5 12 86 be 15 df 8f bf 9f 97 6f 3f
       0.7299095 -0.26186243 -1.1239954 0.9359073
000010 19 c9 2c 3f d1 60 6a 3e 8d d1 e4 be 1a d6 be 3e
       0.6749435 0.22888495 -0.44691125 0.37272722
000020 27 71 d0 3e 0a 85 2b bf e4 ef 29 bf dd 0c 06 3f
       0.40711328 -0.66999876 -0.6638167 0.5236338
000030 bd 55 1b be 7d 32 23 bf d2 a7 2d bf e4 a1 6a 3d
       -0.15169425 -0.63748914 -0.678342 0.057283297

parameterizer.cl_layers.0.weight f4 [10, 1, 5, 5]
000000 20 f1 b3 3d 9f 4c 27 3c c0 fc ff 3d 2b 3f 03 3e
       0.08786225 0.010211139 0.1249938 0.12817065
000010 eb 04 32 3d 05 1a ad 3c 26 06 5f 3e fa 49 c9 bc
       0.04346172 0.021130571 0.21779689 -0.024571408
000020 0c 4b 00 be 93 ab f7 bd 79 cc a3 3d cd 4c e9 3d
       -0.12528628 -0.12093272 0.079979844 0.11391602
000030 84 dd 9a 3d 38 23 f8 3d 29 d8 94 3d 45 19 11 be
       0.07561782 0.121160924 0.07267792 -0.14169796
000040 ae a8 d6 bd 7e 95 21 be a7 aa 4c be c8 5e 59 be
       -0.10481392 -0.15779683 -0.19986974 -0.21227562
000050 ac 40 5d 3c da d1 87 be 99 a0 94 be cd b4 87 be
       0.0135041885 -0.26527292 -0.29028776 -0.26505128
000060 15 d6 43 be 07 ba 5a be e4 c3 07 be 4e 39 ca 3d
       -0.19124635 -0.21360026 -0.1325832 0.09874211
000070 de 45 1a bd ef 34 1e bd 3f 23 92 be 20 03 49 be
       -0.037664287 -0.0386247 -0.28542516 -0.19630098
000080 ee 34 4d bd bd 3b c2 bd bd d1 ae bd d5 6f 11 be
       -0.050099306 -0.094840504 -0.08536098 -0.14202817
000090 87 16 f9 3b 98 04 2b be c9 53 a4 bd 0c 83 1a be
       0.0076015624 -0.16700971 -0.08023793 -0.15089053
0000a0 78 19 41 3e f8 4e f2 bc b6 bb 60 bc df 8c 5a be
       0.18857372 -0.02957867 -0.013716629 -0.213428
0000b0 31 c9 ba bd a8 52 89 3e e1 50 c4 3d d3 ee f0 bd
       -0.091204055 0.26820874 0.09585739 -0.11764302
0000c0 84 0a 8a 3d ec dc 1c be 28 18 0c be 03 47 c5 3c
       0.06740287 -0.1531865 -0.1368109 0.024081713
0000d0 56 db 76 3d b8 94 c0 3d d9 80 aa 3d 1e 07 22 3d
       0.06026777 0.09403366 0.08325357 0.03955757
0000e0 96 fe 8c bd d8 75 1b 3e a7 66 9d 3d e3 fb ec 3d
       -0.06884496 0.15181673 0.07685595 0.11571481
0000f0 00 b5 c5 3d 8a 92 30 3c 81 09 08 bd f9 18 dc 3d
       0.09653664 0.010777125 -0.03321219 0.10746951
000100 07 a8 07 3d 35 80 cc bd c5 ba ca bd 3c 59 19 3e
       0.033119228 -0.09985391 -0.09898905 0.14975446
000110 80 f3 f4 3b 4e cd ea 3d 43 32 97 3d 00 ec 1a be
       0.0074753165 0.1146494 0.073826335 -0.1512909
000120 42 34 3b bd 08 9f 00 bd d0 88 3f 3e 15 7e b2 bd
       -0.045704134 -0.031401664 0.18704534 -0.087154545
000130 d1 a8 21 3e 07 04 18 3e 05 0a c5 3d 29 9c 08 3e
       0.15787055 0.14845286 0.09621052 0.1334082
000140 b1 46 bd 3d 2f 22 77 bd 66 ae e8 3d 2b 5d ae 3d
       0.09241999 -0.060335334 0.11361389 0.08513864
000150 d7 3a 89 3d 5e e7 17 bc f1 e0 26 be d6 7b b9 bd
       0.06700676 -0.009271471 -0.16296746 -0.09056823
000160 2b 9e ca bd 56 b2 08 be 09 83 08 3e f1 43 59 be
       -0.098934494 -0.1334928 0.13331236 -0.21217324
000170 7b bd 23 3e c2 b3 98 bd 2d 50 e1 3d d2 52 56 be
       0.1599025 -0.07456161 0.110016204 -0.20930031
000180 30 dc 60 be af 14 e6 3d 43 52 39 be ab 2c 35 3e
       -0.21958995 0.11234414 -0.18097787 0.1769282
000190 48 7a 4e 3d 51 f2 e5 3c ce 65 b8 be 4f 05 45 be
       0.050409585 0.028069647 -0.3601517 -0.19240306
0001a0 45 71 57 be 81 52 3f bd af df 8d 3d 24 82 9e be
       -0.21039303 -0.04670954 0.0692743 -0.30958664
0001b0 f0 b8 90 be 5b 99 a7 bd ba 08 92 3d f3 bd fd ba
       -0.28266096 -0.08183547 0.07130571 -0.0019358977
0001c0 5d 32 78 bd d6 7c 00 3e a7 85 dd 3d 9a e0 f3 3d
       -0.060594905 0.12547621 0.10816508 0.11908074
0001d0 90 53 7c bd 9d 50 8e bd 98 c9 db 3c 36 96 6b 3d
       -0.06160313 -0.069489695 0.026829526 0.0575163
0001e0 3a 6b 0a bd 44 8b 39 be 96 df 20 be 95 e9 26 3e
       -0.033793665 -0.18119532 -0.15710291 0.16300042
0001f0 2c 9b 39 3d bd 4d 5f be d4 16 f9 bd b6 67 3d 3e
       0.045314 -0.21806999 -0.12162557 0.18496594
000200 bf b6 89 bd a2 db 65 bd 79 94 b9 3d 3e 35 44 be
       -0.06724309 -0.05611766 0.09061522 -0.19160935
000210 29 78 2b be 57 e7 d8 3d c7 40 41 3e 4f 95 12 3e
       -0.16745056 0.105909996 0.18872367 0.14314769
000220 6d f2 3b be ca ca f0 3d 2e 65 b5 3d 59 42 71 bd
       -0.18354197 0.11757429 0.08857189 -0.058901165
000230 60 86 db 3d e8 eb 6d be dd 02 c8 3d ef 1d 27 3e
       0.10718989 -0.23234522 0.09766171 0.16320013
000240 8c 57 3a bd d7 4c 4a be 0d 81 42 3d 30 08 07 be
       -0.045493647 -0.19755875 0.047486354 -0.13186717
000250 c9 1e 5b 3e 21 f6 70 3d 3b 87 82 bb 19 b2 a2 bd
       0.21398462 0.058828477 -0.003983406 -0.07944126
000260 63 27 eb 3d c5 ed 25 3e 3d 3c 4a be 4b 68 be bd
       0.11482122 0.16203983 -0.19749542 -0.09297236
000270 1c 26 15 be f3 3f 47 3e f0 71 03 3e c7 be 75 bd
       -0.14565319 0.19457988 0.12836432 -0.059996393
000280 d6 68 56 3d 82 38 2d bd 93 83 73 3e e2 60 ac bd
       0.052346073 -0.04229022 0.2378066 -0.084169164
000290 4c 04 37 be 7a a0 8e 3c db 90 25 3e b0 f1 e3 bc
       -0.17872733 0.017410506 0.16168539 -0.027825207
0002a0 d7 82 57 3e 2a a9 6c be ba 40 2b be 26 25 d9 bd
       0.21046005 -0.23111406 -0.1672391 -0.106027886
0002b0 81 86 4b bd a6 2f 5b 3e e9 0c c3 bc 6b a8 3f 3e
       -0.04968882 0.21404895 -0.023809867 0.1871659
0002c0 81 f2 2d be 53 8d 2f be d4 31 59 be 6f 90 0b 3e
       -0.16987039 -0.17143755 -0.21210414 0.13629316
0002d0 06 1c 37 3e bc c5 0e be 62 c0 9f bd 9e 5c 26 be
       0.17881784 -0.13942617 -0.07800366 -0.16246268
0002e0 50 67 11 3d f0 a7 9c 3d 4a 98 22 3e 85 8b 7d be
       0.035498917 0.07649219 0.15878406 -0.24760254
0002f0 87 cb 8f be 9f 27 bc bd 87 b0 00 3d 37 6c fd bd
       -0.28084967 -0.091872446 0.03141835 -0.12374156
000300 7c 7e 7c 3d 17 72 8f be 56 67 63 3d 12 e7 df bd
       0.061644062 -0.2801673 0.05551847 -0.10932745
000310 b3 4b f7 bd 34 c6 dd 3c 33 34 5a be 89 c8 65 be
       -0.12074985 0.02707205 -0.21308975 -0.2243978
000320 c7 cf e4 bd 3e a9 74 be b0 88 41 be 20 52 5e 3e
       -0.11172443 -0.23892686 -0.18899798 0.21711016
000330 47 65 9d bd 8a 05 48 3e 84 32 0e 3e 74 6f 16 3e
       -0.07685333 0.19533363 0.13886458 0.14690953
000340 c9 17 cf 3c 45 f9 02 3e c6 b9 4a 3d 95 0b e2 3d
       0.025279896 0.12790401 0.049493574 0.11037365
000350 32 30 37 bd d1 1e 1e 3d 8a 8b a2 bd 2c 81 1c be
       -0.044723697 0.038603608 -0.07936771 -0.1528365
000360 86 05 03 3e 5a d1 cc 3d 82 cb 39 be c3 c7 36 be
       0.12795076 0.10000868 -0.18144038 -0.1784964
000370 ab 88 33 3c 77 5d 4e be f1 7b 1c 3e ba 0e 41 be
       0.010957877 -0.20152842 0.15281655 -0.18853274
000380 db 11 36 3e d2 c9 82 bd 73 70 7d be 8f 75 47 be
       0.17780249 -0.063861504 -0.24749927 -0.19478439
000390 03 6a f6 bd 19 92 41 3e 53 61 85 bd 3a 09 0e 3e
       -0.12031939 0.18903388 -0.06512704 0.13870707
0003a0 69 40 14 3e 57 e8 e3 3c d7 0f a4 3d fe 5d d6 3d
       0.14477696 0.02782075 0.08010834 0.10467146
0003b0 1c ac e1 3d 70 17 27 3e 77 f1 2c 3d b9 ab 01 be
       0.110191554 0.16317534 0.042222466 -0.12663163
0003c0 e2 e2 12 3d 47 1e 28 3d 33 9a 83 bb 0b c8 2c 3d
       0.035860904 0.0410445 -0.0040161847 0.042182963
0003d0 fb eb 06 be 2d 25 2a 3d 04 c9 83 3b b4 de 92 bd
       -0.13175957 0.04153936 0.0040217657 -0.071713835
0003e0 a4 0e 2f bd 1a 57 c8 3d
       -0.04273857 0.09782238

parameterizer.cl_layers.0.bias f4 [10]
000000 eb 82 ba 3d 92 b9 1f 3d a7 6d 0f be 56 51 ea 3d
       0.09107002 0.038995333 -0.14006673 0.11441295
000010 0b 94 c2 bc 23 66 e1 3d 33 90 5e bc 16 f2 68 be
       -0.023752233 0.11005809 -0.013584184 -0.22748598
000020 a5 70 7d bd 8d d3 a5 3c
       -0.061875004 0.020242477

parameterizer.cl_layers.3.weight f4 [20, 10, 5, 5]
000000 97 73 49 bc 22 40 9b bd 6e c6 1e bd c0 99 d0 bc
       -0.012295625 -0.07580592 -0.038763456 -0.025463939
000010 f2 0e d9 3c 46 8c d6 3b 25 55 17 bd 4d 84 71 bd
       0.026496384 0.0065474836 -0.036946435 -0.058964062
000020 03 d1 9d 3d 4e 7c fe bc 3c 79 70 bd 88 9f 99 bc
       0.077058814 -0.031065132 -0.058709368 -0.018752828
000030 52 7f 04 bd 7d ce b5 bc e0 81 26 bd 08 8f 56 3b
       -0.032347985 -0.022193188 -0.040651202 0.0032739062
000040 a1 5b 2a 3b 5b cd 07 bd 24 3e 02 bd 38 3e 32 3c
       0.0025994556 -0.033154827 -0.031797543 0.010879092
000050 25 37 b6 bd 71 46 8e 3b 5c 7c 19 3d 17 08 21 3d
       -0.08897237 0.0043418934 0.037472114 0.039314356
000060 75 5c db bc 26 a2 48 3d bc 3a ad 3d ff 7b 50 bb
       -0.026777485 0.04898276 0.08458468 -0.0031812189
000070 b6 a1 e7 3c d5 31 05 3d 48 3c e6 bc b5 e1 43 3b
       0.028275352 0.032518227 -0.028104916 0.002988917
000080 e4 5d ee 3c c9 03 13 3d b8 65 0c 3d 6b 1d 8b bc
       0.029097505 0.03589228 0.034276694 -0.016981801
000090 45 1d b2 bc 24 c3 2a 3d 28 0e 9a 3d e1 48 02 3d
       -0.021742472 0.041690007 0.07522231 0.031807784
0000a0 32 00 cc bc 15 57 24 3d ae 46 8f bc 16 e1 80 bc
       -0.024902437 0.04012211 -0.017489757 -0.01573233
0000b0 88 03 e2 bc bc 8c b4 ba df 35 73 3d 6c d3 3f 3d
       -0.027589574 -0.0013774852 0.059377547 0.046832487
0000c0 60 c2 32 3d e9 c0 b2 3c 82 25 3a 3d 80 d9 06 bd
       0.0436424 0.021820502 0.045445926 -0.032922268
0000d0 bc 2f e9 3b 40 20 c0 bc 3c 09 3a 3d cc ee c9 bc
       0.007116286 -0.023452878 0.045418963 -0.02465
0000e0 38 80 3d bd 1b a9 f2 3c 12 77 26 bd 15 94 a7 bc
       -0.046264857 0.029621651 -0.040640898 -0.020456353
0000f0 29 3f 68 3c 6d bc 2a 3d 61 72 cb bc 22 ea 48 bd
       0.014175215 0.041683603 -0.024834814 -0.04905141
000100 a4 5d 91 3c bb 23 8b bc 27 9d e7 3c 34 dd 6f bc
       0.017744847 -0.016984811 0.028273178 -0.014640141
000110 1f 5d e4 bb 74 ac 47 bd 88 db 6f bd 57 6e 87 bd
       -0.0069691087 -0.04874845 -0.05855897 -0.066128425
000120 34 22 be 3c 63 56 88 bc 9b e2 68 3d 6c 46 84 3c
       0.023209669 -0.016642755 0.056856733 0.016146861
000130 43 a9 46 bd aa 35 0a ba a6 92 14 3d b5 1a 87 3d
       -0.048501264 -0.0005272279 0.036272667 0.06596891
000140 3a 2c c7 bc fa ac 4a 3c 08 8e d0 bb 32 e2 49 3d
       -0.024313081 0.012370342 -0.0063645877 0.049287982
000150 e4 4b 7f bd f6 8a 00 3c 08 88 34 bc ab 1d be bb
       -0.062328234 0.007845631 -0.0110187605 -0.0058018765
000160 78 44 80 bd 5a d4 38 3d 1b f4 99 bc 34 b4 c4 3c
       -0.062630594 0.04512439 -0.018793156 0.024011709
000170 c6 96 88 3d fb 86 f5 bb 0e d9 42 3c cf bf b0 3b
       0.06669383 -0.0074928976 0.01189257 0.005393959
000180 43 47 50 bd 53 4e 05 3c 5e bb 8e 3c 24 3e 27 bd
       -0.05084921 0.00813635 0.017423328 -0.040830746
000190 4a cd 9c 3d 5a db 38 bd e5 48 d5 3c db 05 6a 3d
       0.07656343 -0.045131065 0.026035735 0.05713449
0001a0 8b 84 46 bd b8 7a 88 3d cb 0a 45 bd b2 0c 29 bd
       -0.048466247 0.06664032 -0.048105996 -0.041271873
0001b0 c0 03 63 bd a0 33 5a 3d e0 f0 b3 3c 0f 5d 8b bc
       -0.0554235 0.05327189 0.021965444 -0.017012147
0001c0 4b 46 97 3d b2 26 1f bd 7c d8 33 3d ff 68 a8 bc
       0.07386454 -0.038855262 0.043907627 -0.020557879
0001d0 18 28 cb 3b 03 2a 34 bd bd 97 97 3c e3 00 b6 bd
       0.006199848 -0.043985378 0.018504972 -0.08886888
0001e0 16 6b 8a 3d 62 df f4 3b 57 3d e7 3c 8d 9a b3 bc
       0.06758706 0.0074729184 0.028227491 -0.021924281
0001f0 d9 74 0e 3d b5 e0 18 3c 10 08 51 3d 98 bf 1f bd
       0.034779403 0.009330918 0.05103308 -0.039001077
000200 39 4a f4 3c 3b 00 09 3d 38 2d 1e 3c 82 e9 54 3d
       0.029820548 0.033447485 0.009654336 0.051980503
000210 7b a3 2b 3d ae a3 ef bc cf 59 27 bd 24 40 8d bc
       0.041903954 -0.029252853 -0.040857133 -0.017242499
000220 75 55 d5 3c 8b f9 84 3b 39 c0 0d bd 1f 3a 8f 3c
       0.026041726 0.004058068 -0.034607146 0.017483769
000230 8e 28 09 bb 1f 28 a0 bc e7 65 0f 3d 15 8a ac 3c
       -0.0020928713 -0.019550381 0.03500929 0.021061936
000240 fa 0c da bc f1 56 ce 3b 94 d1 77 bd 6a 9d e4 3c
       -0.026617516 0.0062969853 -0.060502604 0.027907092
000250 46 3f 91 bd fd bd d1 3b 17 e1 86 3d 5d 5f f5 3d
       -0.070921466 0.006400822 0.06585901 0.1198108
000260 70 6c 1d bd 95 6e 0a be 72 c5 78 3d 4a 69 3f 3c
       -0.038433492 -0.13518746 0.060735174 0.011682818
000270 89 51 1c 3d f6 b5 f1 bc 42 06 c5 bd 69 27 cc 3c
       0.038163695 -0.029505711 -0.09620334 0.024921136
000280 a3 ae d4 3c cb dd 58 bc 14 c7 3a bd ac c2 34 bd
       0.02596218 -0.013236473 -0.045600012 -0.044130966
000290 9f 9c 04 3d 01 5f 04 3b c2 70 bf 3c fb 60 79 bd
       0.032375928 0.0020198228 0.023369197 -0.060883503
0002a0 ac f3 b6 bd de bb 51 3d 59 53 1d 3d 62 51 dd bc
       -0.089331955 0.051204555 0.038409565 -0.027016345
0002b0 90 16 ad bc 09 ed 62 bd 9c 1c fa 3a b4 09 ba 3c
       -0.021128923 -0.055401836 0.0019082013 0.022709705
0002c0 23 be 0a 3d b8 7e db bc d1 1f a7 bd 2c c3 6d bd
       0.033872735 -0.026793823 -0.081603654 -0.05804746
0002d0 a6 cb 36 bb 8e d6 12 bc d5 69 c5 3c 65 f0 d7 bb
       -0.002789238 -0.008962287 0.024098316 -0.0065899366
0002e0 30 dd 4b bd df 1e 85 bd 3d 7f 17 bd 3e a2 b4 bc
       -0.049771488 -0.06500029 -0.03698658 -0.02205002
0002f0 e2 84 2c 3c 85 f0 be bd 13 75 36 bd db a8 68 bd
       0.010529729 -0.09323219 -0.044545244 -0.056801658
000300 73 6f 13 bd 25 b0 3f bd 01 98 76 3b 05 64 c3 bd
       -0.035994958 -0.046798844 0.0037627222 -0.095405616
000310 1f 11 3f bc a4 3d 26 bd aa 0a a4 bc e7 99 bc bd
       -0.011661797 -0.04058613 -0.020024616 -0.09209042
000320 44 4b 02 bd d8 9c 8d 3d 48 24 fd bc 18 15 a5 3d
       -0.03181006 0.06914681 -0.03090109 0.08060664
000330 c9 84 21 3c 99 12 bb bd d7 f3 57 3d 4a 53 36 bc
       0.009858319 -0.091344066 0.05272278 -0.011128256
000340 6a 19 29 3d 64 10 a9 3d 94 c0 5f bd 28 66 09 bd
       0.041284002 0.082550794 -0.054627016 -0.03354469
000350 e1 b7 f3 3c 87 7b df ba 90 cf 2e 3c ed 89 9a 3c
       0.029750766 -0.0017050364 0.010669604 0.018864596
000360 ff 73 f4 bc dc f6 be 3c bd 3e 7b 3b c6 38 a4 3c
       -0.029840467 0.023311071 0.0038336955 0.020046603
000370 45 b4 bb bd b7 cb a5 3d d4 72 fc bc ff da 00 3d
       -0.09165243 0.08095496 -0.030816473 0.03145885
000380 20 84 3d 3c aa 21 c7 3c bb 47 40 3d 48 a9 c0 bc
       0.011567146 0.024308044 0.046943408 -0.02351822
000390 9c bf 44 bc 53 5d a3 3c 4d 60 83 3c 3e 5d 29 3d
       -0.012008574 0.019941961 0.01603713 0.04134869
0003a0 a5 45 0e bd 2d 8c b1 bc be 78 b3 3d e5 2d 3e 3c
       -0.034734387 -0.021673286 0.08763264 0.011607622
0003b0 b1 71 12 ba 33 c3 d2 bc 94 cf 7d bc 03 8f 55 3d
       -0.00055863993 -0.025727844 -0.015491385 0.05213834
0003c0 b6 6a d8 3c e8 d9 8d 3b 09 71 df bc 2e f4 e0 3c
       0.026418071 0.004328955 -0.027275579 0.027460184
0003d0 3f f3 7a 3d 6a f0 03 bd 16 12 c2 3c a6 77 c1 3c
       0.061267134 -0.0322117 0.023690265 0.023616623
0003e0 b9 fe f0 3c 33 b8 f1 ba b3 d3 49 bd a4 8f 78 bd
       0.029418336 -0.0018441736 -0.049274158 -0.06068386
0003f0 fc 17 9c 3d 78 59 00 bb 74 a6 8c 3d 23 26 26 bd
       0.07621762 -0.0019584578 0.06867686 -0.040563714

parameterizer.cl_layers.3.bias f4 [20]
000000 34 f5 c5 3d 41 4c c8 39 7b ed 06 bc 83 63 58 3d
       0.096659094 0.00038203786 -0.008235331 0.052829277
000010 31 1e 04 3d ce f4 0e 3c b8 c0 a6 3d 1d b7 8e bd
       0.032255355 0.008725358 0.08142227 -0.0696852
000020 bd 05 37 3d c0 f9 b5 bb 9d 06 62 3d 8d f4 8d 3c
       0.044683207 -0.005553454 0.05518209 0.017328525
000030 ac b5 91 3d 00 7f a0 bb d3 62 bd bd a7 25 bb bb
       0.07114729 -0.004897952 -0.09247365 -0.0057112756
000040 31 1a 42 3d 20 fe 45 bd 1e 19 36 bd f4 c7 42 bd
       0.04738826 -0.048338056 -0.044457547 -0.04755397
