results/FASHION_MNIST/checkpoints/Epoch[43]-Step[11880].pt (torch, 374570 bytes, 66 tensors)

conceptizer.encoder.0.0.weight f4 [10, 1, 5, 5]
-0.03841832 0.08732816 0.17446311 0.07106456 0.18876284 0.0043822653 -0.09865876 0.023052596
0.12952496 0.032664232 0.12656277 0.04096877 -0.110264145 0.11667917 0.015358406 0.12881407
0.031069953 0.13889991 0.06594907 0.005230148 0.15424877 -0.0023972082 -0.006766409 -0.02841608
0.16982278 -0.263598 -0.07017036 -0.2123804 -0.108270735 -0.03922538 -0.19503894 -0.20754783
-0.2457668 -0.040916987 -0.09970111 -0.063655056 -0.195202 -0.06399578 -0.14490955 -0.093768254
-0.22195867 -0.056159593 -0.017846778 0.0470206 -0.000761471 -0.027086617 -0.0097179385 -0.044808723
-0.12862699 -0.03650785 0.06960089 -0.12024219 0.06741717 -0.08054694 -0.10755775 -0.033303186
-0.098859645 0.0007944287 -0.18532239 -0.13641979 -0.16620018 0.13528708 -0.0656535 -0.18200797
-0.0836829 -0.052265152 0.021950992 -0.17633477 -0.1072921 -0.15097696 0.08263918 0.03095552
-0.035156343 -0.09599675 -0.12431877 -0.19311704 -0.10687843 0.008370329 -0.0074289623 0.059909936
-0.21434703 -0.08490955 -0.09393408 -0.0047833826 0.10910835 -0.28130493 -0.22196053 0.00060050347
-0.15281084 0.03051729 -0.14542785 -0.1435969 -0.02844054 -0.056463093 0.039423276 -0.15287253
-0.06735919 -0.16867031 -0.019101596 0.08771486 0.058998708 -0.09390267 0.08214398 0.019635104
0.088029176 0.06866253 -0.09046351 0.019734811 0.07402687 -0.14324428 0.07933327 0.054571215
-0.102738194 -0.12427734 -0.026104936 0.012657755 -0.07021621 0.112222426 -0.09902006 0.031678867
0.079544164 0.16813722 0.013161905 -0.06326374 0.06583844 0.08291059 0.19494823 0.08578753
0.082064934 0.026675947 -0.04070257 -0.059172265 0.10077112 0.10634639 -0.08927241 0.1494057
0.047088258 0.016729658 -0.05920095 -0.19945863 -0.08316115 0.10506086 0.109013334 0.0710241
-0.16516171 0.118303426 0.19384257 0.08080412 -0.06914107 -0.057684198 0.24552724 -0.122612596
0.16528451 0.1996103 0.031713974 -0.10712528 0.18027467 -0.01255005 0.14840078 0.16345935
-0.07897749 0.026531799 0.012433709 -0.026301902 -0.06467593 -0.14820851 0.18801807 0.14398608
-0.0545827 -0.14025505 -0.23713681 -0.038771123 -0.23998688 -0.06251596 -0.008868603 -0.01866566
0.016585559 -0.13189746 -0.17727049 0.07335212 0.06134744 -0.07464413 0.025124703 -0.0020637135
-0.09443243 0.23928796 0.04250667 0.109758936 0.13185789 0.09539384 0.20839103 -0.08009364
0.06253043 -0.009971466 0.002064209 0.062390883 0.12422841 -0.0680619 0.042455874 0.10917492
0.12330873 -0.0065581677 0.13476443 0.10394964 -0.030457212 0.08599349 0.075630516 -0.0683422
-0.0730357 0.23302986 0.121073715 -0.12929565 -0.09108252 -0.057433207 -0.0901133 0.032866832
-0.037237667 0.08898437 -0.13955407 0.060798943 -0.17531069 0.06467573 -0.03253081 -0.025498176
0.20716624 -0.013088134 0.1377075 0.10848773 0.08225025 0.065438405 -0.06245177 -0.0022024417
0.08168987 -0.060923934 0.06727516 0.12535849 0.14232156 0.1511733 -0.045509752 0.11220093
0.008664797 0.13176368 -0.07543433 -0.100809276 0.060298126 0.045062825 0.0642886 0.16248155
0.16165817 0.06935798
00000000: 875c 1dbd 1bd9 b23d 75a6 323e 4c8a 913d
00000010: 0c4b 413e 1b99 8f3b 9b0d cabd ccd8 bc3c
00000020: 31a2 043e eeca 053d ac99 013e dece 273d
00000030: 2bd2 e1bd 7df5 ee3d d3a1 7b3c d6e7 033e
00000040: 6a86 fe3c c73b 0e3e 4e10 873d a961 ab3b
00000050: 64f3 1d3e 7b1a 1dbb c1b8 ddbb d7c8 e8bc
00000060: 06e6 2d3e 51f6 86be 7ab5 8fbd 3f7a 59be
00000070: 0cbd ddbd cbaa 20bd 4ab8 47be 6b87 54be
00000080: 4baa 7bbe 9298 27bd 1830 ccbd 955d 82bd
00000090: 08e3 47be 3810 83bd 2b63 14be 9209 c0bd
000000a0: 2249 63be 9a07 66bd 6833 92bc ac98 403d
000000b0: 749d 47ba c1e4 ddbc fd37 1fbc 5a89 37bd
000000c0: cbb6 03be 4189 15bd e98a 8e3d 8a41 f6bd
000000d0: 0312 8a3d cbf5 a4bd 3d47 dcbd ec68 08bd
000000e0: ed76 cabd 3541 503a 27c5 3dbe a1b1 0bbe
000000f0: 6130 2abe b288 0a3e 5875 86bd 4c60 3abe
00000100: f161 abbd fc13 56bd 91d2 b33c 1a91 34be
00000110: f6bb dbbd b499 1abe bb3e a93d 6e96 fd3c
00000120: 1900 10bd f299 c4bd d79a febd 79c0 45be
00000130: 14e3 dabd b423 093c a76e f3bb 1f64 753d
00000140: ca7d 5bbe 0fe5 adbd 8360 c0bd ecbd 9cbb
00000150: 3374 df3d 3307 90be 9f49 63be 1b6b 1d3a
00000160: 727a 1cbe 65ff f93c 0aeb 14be 110b 13be
00000170: 23fc e8bc d845 67bd 4d7a 213d 9e8a 1cbe
00000180: 9df3 89bd e9b7 2cbe f37a 9cbc d9a3 b33d
00000190: a1a8 713d 0b50 c0bd 1a3b a83d ccd9 a03c
000001a0: a448 b43d f19e 8c3d ef44 b9bd e6aa a13c
000001b0: 669b 973d a1ae 12be 7b79 a23d 1186 5f3d
000001c0: 6768 d2bd 1e85 febd 05da d5bc 7962 4f3c
000001d0: 84cd 8fbd dfd4 e53d 07cb cabd b3c1 013d
000001e0: 0de8 a23d 2a2c 2c3e 08a5 573c 6b90 81bd
000001f0: 4ed6 863d 07cd a93d 82a0 473e 5fb1 af3d
00000200: a911 a83d 8487 da3c bdb7 26bd 9e5e 72bd
00000210: 1761 ce3d 23cc d93d 74d4 b6bd cffd 183e
00000220: 9edf 403d a30c 893c b27c 72bd e23e 4cbe
00000230: 6550 aabd 262a d73d 6242 df3d 1575 913d
00000240: 2720 29be 1149 f23d ab7e 463e a17c a53d
00000250: d599 8dbd 4446 6cbd 7e6b 7b3e 501c fbbd
00000260: 5840 293e a466 4c3e 83e6 013d 8064 dbbd
00000270: ec99 383e ba9e 4dbc 60f6 173e e361 273e
00000280: f3be a1bd 3759 d93c c1b6 4b3c 1677 d7bc
00000290: d074 84bd f9c3 17be cf87 403e 1671 133e
000002a0: 1c92 5fbd 059f 0fbe fed3 72be 78ce 1ebd
000002b0: 1fbf 75be 5e08 80bd 9e4d 11bc bae8 98bc
000002c0: 70de 873c 2110 07be 6586 35be a339 963d
000002d0: 7447 7b3d 06df 98bd 52d2 cd3c 5e3f 07bb
000002e0: ca65 c1bd e707 753e 791b 2e3d 4bc9 e03d
000002f0: c105 073e d85d c33d 7564 553e 2208 a4bd
00000300: f40f 803d 5c5f 23bc ae47 073b 958d 7f3d
00000310: 776b fe3d 0a64 8bbd 36e6 2d3d 1a97 df3d
00000320: 4a89 fc3d e6e5 d6bb b0ff 093e 8de3 d43d
00000330: 6781 f9bc 5b1d b03d 2ce4 9a3d fff6 8bbd
00000340: be93 95bd 619f 6e3e 7ff5 f73d 1466 04be
00000350: 7989 babd 153f 6bbd 528d b8bd 5f9f 063d
00000360: 8686 18bd 703d b63d 43e7 0ebe 5008 793d
00000370: a584 33be b674 843d 073f 05bd 8de1 d0bc
00000380: 6323 543e 9d6f 56bc 3203 0d3e d12e de3d
00000390: d272 a83d 9204 863d 6dcd 7fbd d756 10bb
000003a0: 054d a73d 608b 79bd 8fc7 893d fa5d 003e
000003b0: bebc 113e 2ccd 1a3e 6f68 3abd 9ac9 e53d
000003c0: cbf6 0d3c 0fed 063e 507d 9abd 1875 cebd
000003d0: 2bfb 763d cc93 383d bea9 833d 9061 263e
000003e0: b889 253e 8e0b 8e3d

conceptizer.encoder.0.0.bias f4 [10]
0.07711884 0.20061965 0.3616529 -0.10573787 0.47334024 0.2004422 -0.16552156 0.1280805
0.30363855 0.030499013
00000000: 7bf0 9d3d 3d6f 4d3e 922a b93e 198d d8bd
00000010: a759 f23e b840 4d3e 7c7e 29be 8927 033e
00000020: 8376 9b3e 11d9 f93c

conceptizer.encoder.1.0.weight f4 [5, 10, 5, 5]
-0.0092283655 -0.017414298 -0.0142853195 0.029958632 -0.0032469563 0.0028759127 0.004230362 -0.007294746
-0.056466665 0.10695939 -0.04971419 0.04850267 -0.040590774 0.00735502 0.0059155663 0.022877228
0.017005743 0.03985338 -0.022079447 0.052575476 -0.0018376552 -0.053405486 0.028547643 0.017018965
0.036532693 0.12000709 0.044845004 0.027308064 0.015218745 0.009746936 0.065769024 0.0038674711
-0.0516762 -0.01712741 -0.0070827454 0.04738209 0.007144187 -0.013383008 -0.022814203 0.004942632
-0.004248326 -0.008562892 -0.022418581 0.066622004 0.0581475 -0.048442535 0.017961232 -0.04257079
-0.028849922 -0.0571728 0.034585934 0.037798684 0.008203707 -0.023195801 -0.07766885 -0.010077989
0.006422978 0.019641016 -0.07199375 -0.009888128 0.057756275 0.029335678 -0.0031311016 -0.04716429
-0.029318068 0.027122844 0.031357467 -0.032337774 0.0070675635 -0.04085624 -0.01151705 -0.027865363
0.03886865 0.025660582 0.0014896595 0.008524508 -0.0043274104 0.022534236 0.04930569 -0.029770039
0.08293707 0.062124737 -0.013759252 0.009953245 -0.057192758 0.08506964 0.021013597 -0.039150886
-0.03677736 -0.0529711 -0.037901632 -0.013951664 0.006121272 -0.0018354239 -0.035690833 -0.02325013
-0.08307145 -0.0049328823 0.037335422 -0.013107874 0.0773037 0.0717018 0.039451264 0.0039909715
-0.04075584 0.017887833 0.047109663 0.034337606 0.017815808 -0.008555627 0.0987505 0.01204825
0.086213246 -0.017074183 -0.07193671 0.06301595 0.1315192 0.060833406 0.036065284 0.027873179
0.04077855 0.08569391 0.12288609 0.041303903 2.3718121e-05 0.016831959 0.06547249 -0.06134625
-0.050208457 0.009723884 -0.040638186 0.02337583 -0.029636048 -0.002338509 -0.007982867 -0.040784705
0.024967821 0.04730718 0.03402905 0.02620573 -0.0046164654 -0.045117855 0.022806384 -0.038404316
-0.053886525 -0.04068397 0.04109419 -0.03869961 -0.03803795 -0.024290202 -0.020700747 -0.08034504
-0.024129935 0.016277084 -0.01759682 0.03401715 0.009880358 -0.029374186 -0.04724941 -0.040724717
0.012202903 0.037127815 -0.038712475 -0.05965041 -0.035214957 -0.050089516 -0.047425326 -0.051847663
-0.031518467 -0.021275532 -0.121284395 -0.079027094 -0.09880721 -0.14477958 -0.13838492 -0.046231456
-0.05162431 0.0032737714 0.02192494 0.0477518 -0.01922441 0.020234613 -0.08948585 -0.008406381
-0.0037100338 0.009981472 -0.051551178 -0.07109984 -0.022282027 0.06825045 -0.014468236 -0.00017504278
-0.031736825 0.029651832 0.041344866 0.06501663 0.0030019355 -0.023618318 0.036291257 0.05078669
-0.13208692 0.021501249 -0.008559356 -0.030528141 0.058846675 -0.019331174 0.03211805 0.0115471715
-0.0032145998 0.088641986 0.013884792 -0.048049945 -0.05614017 0.018660039 0.05312878 0.0072162324
0.04040091 0.0057637817 -0.018809369 0.092735164 -0.011182547 0.07835838 0.00229769 0.027762083
0.09728136 0.0159811 -0.060295936 -0.04966835 0.04983386 0.054425705 0.014873049 0.025736831
0.00075674226 -0.04407366 0.018052222 0.0057533225 0.05432332 -0.02500968 0.043314107 -0.017599909
0.022112248 -0.012705831 -0.015555194 -0.039230734 0.056569718 -0.017272247 -0.034540314 0.036150884
0.07484315 0.0012174109 0.021254657 0.031160172 0.002012532 0.041616306 0.05875208 -0.01598219
00000000: 9232 17bc 6ea8 8ebc f90c 6abc ce6b f53c
00000010: e3ca 54bb cf79 3c3b d99e 8a3b c408 efbb
00000020: 9749 67bd 860d db3d 1ba1 4bbd bcaa 463d
00000030: 8342 26bd 6102 f13b 5ed7 c13b 0669 bb3c
00000040: a14f 8b3c 4c3d 233d f5df b4bc 6259 573d
00000050: 7add f0ba b6bf 5abd bfdc e93c 5b6b 8b3c
00000060: 4ea3 153d 47c6 f53d 65af 373d 29b5 df3c
00000070: 0b58 793c 9db1 1f3c e9b1 863d 6675 7d3b
00000080: 6caa 53bd c84e 8cbc 6016 e8bb b913 423d
00000090: c919 ea3b 6744 5bbc dae4 babc cdf5 a13b
000000a0: 8b35 8bbb 5f4b 0cbc 2ca7 b7bc 1e71 883d
000000b0: 132c 6e3d ae6b 46bd 6f23 933c b55e 2ebd
000000c0: ac56 ecbc 072e 6abd fba9 0d3d cbd2 1a3d
000000d0: d768 063c 1f05 bebc d910 9fbd 261e 25bc
000000e0: d877 d23b 32e6 a03c 7671 93bd d101 22bc
000000f0: d891 6c3d 6051 f03c 2b33 4dbb 582f 41bd
00000100: 722c f0bc ba30 de3c b070 003d 9d74 04bd
00000110: 0597 e73b df58 27bd 02b2 3cbc e745 e4bc
00000120: bc34 1f3d 2436 d23c ae40 c33a 61aa 0b3c
00000130: f3cc 8dbb b899 b83c c3f4 493d 4ce0 f3bc
00000140: e9da a93d 8276 7e3d 7c6e 61bc ef12 233c
00000150: f442 6abd fe38 ae3d b524 ac3c ae5c 20bd
00000160: dba3 16bd 39f8 58bd be3e 1bbd 8595 64bc
00000170: f494 c83b 9b92 f0ba 8d30 12bd 0e77 bebc
00000180: 5d21 aabd 04a4 a1bb 07ed 183d 69c2 56bc
00000190: 6751 9e3d 65d8 923d a697 213d b2c6 823b
000001a0: 98ef 26bd 8189 923c 10f6 403d 97a5 0c3d
000001b0: 75f2 913c e72c 0cbc b43d ca3d 0666 453c
000001c0: 9290 b03d 28df 8bbc 8e53 93bd 820e 813d
000001d0: f8ac 063e 732c 793d 31b9 133d 4b56 e43c
000001e0: 6907 273d 4a80 af3d b4ab fb3d 482e 293d
000001f0: 47f6 c637 2de3 893c 7116 863d 3546 7bbd
00000200: 62a7 4dbd ed50 1f3c 3a74 26bd ab7e bf3c
00000210: 4cc7 f2bc ac41 19bb 92ca 02bc dd0d 27bd
00000220: 5189 cc3c 2cc5 413d 0c62 0b3d 66ad d63c
00000230: b845 97bb 80cd 38bd 74d4 ba3c d84d 1dbd
00000240: 1eb8 5cbd 3ca4 26bd 6252 283d 7b83 1ebd
00000250: aecd 1bbd 3ffc c6bc 9d94 a9bc f18b a4bd
00000260: 24ac c5bc 8557 853c 3527 90bc 9155 0b3d
00000270: 3ae1 213c 22a2 f0bc 9988 41bd f6ce 26bd
00000280: afee 473c 5613 183d f990 1ebd fd53 74bd
00000290: 8f3d 10bd aa2a 4dbd 0f41 42bd 375e 54bd
000002a0: 8219 01bd 064a aebc f463 f8bd f5d8 a1bd
000002b0: 6f5b cabd 1941 14be c7b4 0dbe 325d 3dbd
000002c0: 0374 53bd c58c 563b ef9b b33c 6497 433d
000002d0: 837c 9dbc 0fc3 a53c 5b44 b7bd ebba 09bc
000002e0: 0a24 73bb 5489 233c 5427 53bd cb9c 91bd
000002f0: cc88 b6bc e4c6 8b3d 2e0c 6dbc b08b 37b9
00000300: 79fe 01bd 66e8 f23c 3c59 293d 7027 853d
00000310: 1fbc 443b 347b c1bc 24a6 143d b405 503d
00000320: cb41 07be 6323 b03c 8b3c 0cbc 2716 fabc
00000330: 3609 713d 695c 9ebc 378e 033d 5930 3d3c
00000340: 09ac 52bb ee89 b53d 0a7d 633c 05d0 44bd
00000350: 3cf3 65bd f0dc 983c 909d 593d 2576 ec3b
00000360: 6d7b 253d 1bde bc3b 1b16 9abc efeb bd3d
00000370: 0037 37bc 5c7a a03d d794 163b 4f6d e33c
00000380: 733b c73d ccea 823c dff8 76bd 0a71 4bbd
00000390: 971e 4c3d 7ded 5e3d 17ae 733c 0cd6 d23c
000003a0: 1d60 463a 9586 34bd 41e2 933c 5e86 bc3b
000003b0: 2182 5e3d 1ae1 ccbc 226a 313d af2d 90bc
000003c0: bf24 b53c 1e2c 50bc 36db 7ebc 68b0 20bd
000003d0: a6b5 673d 877e 8dbc 257a 0dbd f312 143d
000003e0: 5e47 993d 8891 9f3a 3f1e ae3c 9e43 ff3c
000003f0: afe4 033b dc75 2a3d 05a6 703d 15ed 82bc

conceptizer.encoder.1.0.bias f4 [5]
0.15268858 0.067318566 0.053995218 0.153477 0.20067482
00000000: 655a 1c3e 51de 893d 172a 5d3d 1329 1d3e
00000010: b37d 4d3e

conceptizer.encoder.2.layers.0.weight f4 [1, 16]
0.0045026643 -0.18819997 -0.015718535 -0.10797291 0.069278665 -0.029598875 0.05395293 -0.1924606
-0.18130313 -0.2213265 -0.06126738 -0.11081672 -0.10796877 -0.2963869 -0.20539401 -0.19746365
00000000: 168b 933b 7eb7 40be 28c4 80bc e720 ddbd
00000010: f9e1 8d3d 5779 f2bc bffd 5c3d 6414 45be
00000020: 87a7 39be 6aa3 62be 81f3 7abd e0f3 e2bd
00000030: bb1e ddbd 06c0 97be cf52 52be e933 4abe

conceptizer.encoder.2.layers.1.weight f4 [1, 16]
0.26482022 -0.18260144 0.06623441 0.19122602 0.014249969 0.069578566 -0.17478922 0.15499589
0.16749491 -0.21601734 -0.03328413 0.01816929 0.3485757 -0.1484343 -0.057080377 0.15445465
00000000: 8496 873e dffb 3abe e8a5 873d c1d0 433e
00000010: b478 693c 357f 8e3d f2fb 32be 3eb7 1e3e
00000020: c983 2b3e a633 5dbe f154 08bd c3d7 943c
00000030: 8478 b23e 29ff 17be 1dcd 69bd 5c29 1e3e

conceptizer.encoder.2.layers.2.weight f4 [1, 16]
-0.21040717 0.35581607 0.29316482 0.31073424 0.09805372 0.052782368 0.17035833 0.11010489
-0.23943631 -0.017972892 0.007965547 0.027564565 -0.31589353 -0.05336421 -0.14032418 -0.05221177
00000000: fa74 57be 862d b63e b319 963e 8f18 9f3e
00000010: 64d0 c83d 5332 583d 6a72 2e3e ac7e e13d
00000020: cb2e 75be e33b 93bc ed81 023c 15cf e13c
00000030: ccbc a1be 6e94 5abd 24b1 0fbe 02dc 55bd

conceptizer.encoder.2.layers.3.weight f4 [1, 16]
0.28514168 0.047167018 -0.040392287 0.22932751 0.013792271 -0.053698514 0.1253849 0.18992493
-0.074542604 0.04251898 -0.06002157 0.1627817 0.07770653 -0.14921679 -0.08103081 -0.11151018
00000000: 17fe 913e 3432 413d 6272 25bd d5d4 6a3e
00000010: faf8 613c f9f2 5bbd e664 003e ae7b 423e
00000020: cba9 98bd 6228 2e3d 2ed9 75bd 3fb0 263e
00000030: 9a24 9f3d 49cc 18be 7bf3 a5bd 735f e4bd

conceptizer.encoder.2.layers.4.weight f4 [1, 16]
0.012172993 -0.15583068 -0.13793667 -0.010255158 -0.33068612 -0.06375839 -0.0129787065 -0.118437186
-0.15359753 -0.11183182 -0.15917046 -0.036047857 -0.13896877 0.14047222 0.056924254 -0.08684788
00000000: 3c71 473c 1492 1fbe 453f 0dbe 4005 28bc
00000010: b14f a9be c293 82bd a4a4 54bc 328f f2bd
00000020: ac48 1dbe 1508 e5bd 95fd 22be eba6 13bd
00000030: d44d 0ebe f3d7 0f3e 6829 693d 4ddd b1bd

conceptizer.decoder.0.0.weight f4 [5, 16, 5, 5]
-0.079225235 0.073919155 0.039299294 -0.1383678 -0.104219854 0.12793082 0.016710721 0.032009285
0.021411449 -0.088017665 -0.1588025 -0.033907387 -0.012817684 -0.1430351 0.11775769 -0.03264514
0.043452095 -0.14314705 -0.14113481 0.11246429 -0.17914976 -0.0939828 0.092632726 -0.1635057
-0.22401474 0.02585146 0.20557989 -0.0126753505 0.13509627 0.086530656 -0.07898489 0.07070846
-0.10649383 0.112810895 0.031577926 0.05676343 0.0057520405 0.038996972 -0.06376197 -0.05095056
0.15101773 -0.17080215 -0.08312421 0.11051495 0.040418793 -0.05389332 -0.12558529 0.0015946474
-0.014744813 0.112036325 0.117386065 -0.09099702 -0.18018606 -0.07390023 0.08229944 -0.012154429
-0.08881185 -0.101582244 0.04027837 0.05613145 -0.113786705 -0.05242288 0.14966242 -0.065354034
-0.1745232 0.0859133 -0.12344734 0.07422647 0.15134262 0.12972109 0.010079535 -0.2684072
0.035739835 0.084099546 0.043743063 -0.10128574 -0.21517032 -0.1578783 0.09102273 -0.09232907
-0.13134316 0.15437496 -0.22501433 -0.32882977 0.050209172 -0.18048394 -0.22249725 0.03853235
0.09233497 0.04633519 -0.048934847 -0.109286845 -0.27716395 -0.2969568 -0.033618405 -0.12707122
-0.13633624 0.14235358 0.039059315 0.04791014 -0.076152846 -0.108346835 -0.101853184 -0.14054069
0.07482986 -0.072703324 0.07414746 0.054441437 -0.034138262 -0.015150598 0.07023784 0.11337464
-0.120256744 -0.03959652 -0.00019221396 -0.011471078 -0.07142902 0.14155112 0.10302119 -0.12301676
-0.16562417 0.029977454 0.09194375 0.16846691 0.16054666 0.1035353 -0.10901444 -0.096255876
0.13620698 0.12586302 -0.29226422 -0.14759861 0.017206619 -0.07764455 -0.108362034 -0.107274994
-0.11338345 0.058865264 0.07161682 -0.045005545 -0.06037328 -0.024196893 -0.19093803 -0.25607723
0.13273032 0.19964486 -0.21769167 0.038800854 0.050901186 0.07678445 0.09668056 -0.07374163
0.093731485 -0.12293947 0.15854768 -0.07114294 -0.04879055 -0.05839333 -0.045143954 0.068273805
0.059977315 0.011753346 -0.05497059 0.11020563 -0.01784174 0.09454354 -0.040403012 -0.03515711
0.07804244 -0.058787577 -0.12835763 0.107071646 0.072992414 -0.18280233 -0.21531262 0.03253352
0.019670593 0.04552183 -0.033904962 0.09703015 0.053647965 0.121107034 -0.03786074 0.0025334524
-0.0006844931 0.13368161 0.14532019 -0.013759245 -0.054810148 -0.13633138 0.026940295 0.14364713
-0.2073717 0.053542517 -0.15376194 0.07819068 0.020668328 0.11119737 0.0861473 -0.24240188
0.07264227 -0.00879162 -0.14346144 -0.09126642 -0.16511227 -0.009747136 -0.09104769 0.011528574
-0.10256995 0.1604789 0.22149245 0.08094905 -0.1591882 0.03782709 -0.08137007 0.045913465
-0.0895625 0.008327386 -0.039306886 0.045293916 -0.017424356 0.014091925 -0.12956499 0.056727987
0.04218819 0.038284224 -0.087215506 0.07448851 0.23564582 -0.17502461 0.122479305 0.10921823
0.15269232 0.056290194 0.17939027 -0.1491961 -0.022365943 0.14887081 0.07119222 -0.036887035
0.01618221 0.033955745 -0.011523514 0.0123088155 0.04812071 -0.17191134 0.15843798 0.15012912
0.0981011 -0.057224825 0.08751487 -0.026830448 0.23842469 -0.054558594 -0.19502394 -0.01875446
00000000: d740 a2bd ed62 973d 4cf8 203d 4ab0 0dbe
00000010: 3871 d5bd 4c00 033e ece4 883c 2b1c 033d
00000020: 1067 af3c 9b42 b4bd 1f9d 22be 79e2 0abd
00000030: 4301 52bc cb77 12be f22a f13d e9b6 05bd
00000040: d3fa 313d 2495 12be a585 10be ad53 e63d
00000050: 0973 37be 0e7a c0bd 3ab6 bd3d 0a6e 27be
00000060: 1f64 65be 71c6 d33c 8983 523e 46ac 4fbc
00000070: ad56 0a3e fc36 b13d d4c2 a1bd 99cf 903d
00000080: 7019 dabd 6609 e73d db57 013d c580 683d
00000090: 9d7b bc3b 4abb 1f3d a395 82bd 89b1 50bd
000000a0: 64a4 1a3e c2e6 2ebe 073d aabd a955 e23d
000000b0: 2d8e 253d 3ebf 5cbd 6e99 00be 7d03 d13a
000000c0: 3a94 71bc 4d73 e53d 1b68 f03d a55c babd
000000d0: b282 38be 0159 97bd 9c8c a83d 5f23 47bc
000000e0: fde2 b5bd 5a0a d0bd effa 243d 17ea 653d
000000f0: 0109 e9bd 60b9 56bd 1b41 193e 56d8 85bd
00000100: 36b6 32be 50f3 af3d f6d1 fcbd 0c04 983d
00000110: 8ff9 1a3e 9bd5 043e a224 253c ab6c 89be
00000120: ef63 123d 623c ac3d ed2b 333d e66e cfbd
00000130: 9c55 5cbe d9aa 21be 206a ba3d 0617 bdbd
00000140: d27e 06be 7814 1e3e 286a 66be 605c a8be
00000150: 22a8 4d3d c8d0 38be 52d6 63be 19d4 1d3d
00000160: 1e1a bd3d f8c9 3d3d e86f 48bd c8d1 dfbd
00000170: 6fe8 8dbe b90a 98be 74b3 09bd f51e 02be
00000180: ba9b 0bbe 23c5 113e a9fc 1f3d 6c3d 443d
00000190: 06f6 9bbd f2e4 ddbd 6798 d0bd e6e9 0fbe
000001a0: 6640 993d 7be5 94bd a0da 973d fcfd 5e3d
000001b0: 90d4 0bbd 373a 78bc dbd8 8f3d f730 e83d
000001c0: 2b49 f6bd f62f 22bd 0b8d 49b9 30f1 3bbc
000001d0: 6149 92bd c7f2 103e c6fc d23d 36f0 fbbd
000001e0: 6299 29be 4793 f53c 014d bc3d 9782 2c3e
000001f0: 5866 243e 510a d43d f642 dfbd cd21 c5bd
00000200: d879 0b3e 3ce2 003e a8a3 95be 1724 17be
00000210: e5f4 8c3c 1b04 9fbd eaec ddbd feb2 dbbd
00000220: 9535 e8bd b41c 713d d7ab 923d bc57 38bd
00000230: f949 77bd 9038 c6bc 4285 43be 8e1c 83be
00000240: 75ea 073e b46f 4c3e 91ea 5ebe a5ed 1e3d
00000250: c37d 503d 2a41 9d3d 7500 c63d da05 97bd
00000260: 4bf6 bf3d b0c7 fbbd 535a 223e 64b3 91bd
00000270: 9ad8 47bd d82d 6fbd dee8 38bd 23d3 8b3d
00000280: c6aa 753d 1b91 403c d728 61bd 7db3 e13d
00000290: d728 92bc 0ba0 c13d a17d 25bd e700 10bd
000002a0: b7d4 9f3d 3ecb 70bd 2f70 03be 6148 db3d
000002b0: 0c7d 953d 8930 3bbe e97a 5cbe de41 053d
000002c0: 3924 a13c 1975 3a3d eedf 0abd beb7 c63d
000002d0: f8bd 5b3d f706 f83d dd13 1bbd 4708 263b
000002e0: 8e6f 33ba d5e3 083e d1ce 143e 756e 61bc
000002f0: 9b80 60bd 749a 0bbe e5b1 dc3c 3c18 133e
00000300: 3f59 54be 664f 5b3d c573 1dbe 6f22 a03d
00000310: a050 a93c 72bb e33d ff6d b03d 3338 78be
00000320: 78c5 943d ba0a 10bc 8ee7 12be e4e9 babd
00000330: 3113 29be 74b2 1fbc 3677 babd 58e2 3c3c
00000340: 3210 d2bd 9554 243e ebce 623e 9ec8 a53d
00000350: 3b02 23be 94f0 1a3d 5aa5 a6bd c20f 3c3d
00000360: 8b6c b7bd 976f 083c 4200 21bd 1d86 393d
00000370: 86bd 8ebc d1e1 663c afac 04be 9b5b 683d
00000380: 86cd 2c3d ebcf 1c3d 0b9e b2bd 6f8d 983d
00000390: 234d 713e a739 33be 6ed6 fa3d cfad df3d
000003a0: 605b 1c3e 8c90 663d 15b2 373e ddc6 18be
000003b0: c838 b7bc 9771 183e 3acd 913d dc16 17bd
000003c0: 8e90 843c 2e15 0b3d 1fcd 3cbc eaaa 493c
000003d0: 391a 453d 8709 30be 913d 223e 73bb 193e
000003e0: 3be9 c83d 9464 6abd ff3a b33d 87cb dbbc
000003f0: 9a25 743e d578 5fbd 5bb4 47be f4a2 99bc

conceptizer.decoder.0.0.bias f4 [16]
0.080074064 0.03929088 -0.017859511 0.082483284 -0.017233066 0.014186997 0.07769763 0.04562132
-0.025603397 0.072919235 -0.027353005 0.037389223 0.14410459 -0.13890757 -0.12770277 0.097333714
00000000: dffd a33d 79ef 203d 1c4e 92bc ffec a83d
00000010: 5c2c 8dbc 9470 683c ef1f 9f3d 6cdd 3a3d
00000020: 37be d1bc ae56 953d 6913 e0bc 7125 193d
00000030: 2790 133e c93d 0ebe 84c4 02be e656 c73d

conceptizer.decoder.2.0.weight f4 [16, 8, 5, 5]
-0.074628234 0.019409487 0.123704314 0.1607935 0.10078856 -0.1501618 0.2231526 0.25513053
0.058593918 0.073101126 0.100405544 0.17861615 0.1755594 0.057603203 0.03034782 0.20242843
0.18438326 0.17971312 -0.04041082 0.011366062 0.15432107 0.030792488 0.077289544 0.126613
0.06260591 -0.01252294 -0.057108857 0.061988223 0.16049267 0.16932337 0.06368837 -0.037031803
0.099367045 0.23551448 0.18648833 -0.0050400146 0.05560179 0.13159952 0.1291831 0.13721438
0.039609488 0.1447243 0.2407008 0.23238999 0.1825935 0.10510424 0.13148527 0.18926418
0.1022475 0.053016357 -0.033709846 -0.0988985 -0.07440316 0.022052068 0.081228904 -0.08849396
-0.10147552 -0.05445683 0.06072797 0.14396292 -0.059065443 -0.059746522 -0.01411366 0.13829625
0.10221352 0.08729433 0.17624627 0.15182364 0.13285176 0.119886324 0.13825615 0.053126935
0.18349198 0.16477232 0.09447887 -0.049537804 0.084806874 -0.026984109 0.12474615 0.069322735
0.108176194 0.05570013 -0.11726205 -0.09079014 -0.042190984 -0.1315133 0.025269287 -0.12932847
-0.1110409 -0.08345188 -0.21356398 -0.14910297 -0.2813967 -0.16657653 -0.13536079 0.03035154
-0.026367323 -0.14323011 -0.13622886 -0.12503986 0.1438541 0.13528936 0.019388823 -0.12920444
-0.03134894 0.09270662 0.08047655 -0.06016748 -0.17973475 0.10273089 0.119686455 -0.1721337
-0.17683733 -0.14804897 -0.022391118 -0.05469104 -0.17282493 -0.33252198 -0.15684299 -0.06561097
-0.03850832 -0.1728013 -0.2743627 -0.13006857 0.09670543 0.14514634 0.26577616 0.0076468927
-0.23927295 -0.110923015 0.13937673 0.1553145 -0.08567934 -0.31311816 -0.18567587 0.042941783
-0.08635411 -0.17231488 -0.24345507 -0.23590374 0.0060333745 -0.15349886 -0.23421264 -0.3418035
-0.28175843 -0.0011685463 -0.095606 -0.06338427 -0.1268645 -0.1004347 0.101898596 0.14551836
-0.01833587 -0.06274691 0.01251482 0.08643414 -0.0025992112 -0.15849973 -0.22120999 -0.06973585
-0.00040259192 -0.12917967 -0.21611688 -0.20850794 -0.24800657 -0.12316452 -0.2350864 -0.25692293
-0.27053756 -0.090380624 -0.12678428 -0.21191616 -0.1478536 -0.22119868 -0.05400469 -0.08400065
-0.06518883 0.07288468 0.18059866 -0.016757349 -0.11621891 -0.063096456 0.04270982 0.1234118
0.04026337 -0.068111114 -0.07269651 0.109849215 0.16627079 0.10251085 0.0976692 0.032800592
0.12658678 0.2879662 0.16927521 -0.22018585 0.08991973 0.12605527 0.2042462 0.19709942
0.08099705 -0.047227293 0.0430307 0.127213 -0.0048844875 0.13528314 -0.07540427 0.05523715
0.17560501 -0.06789061 0.10907637 -0.120872475 0.012460696 0.2201206 -0.052462094 0.06785728
0.037337456 0.0954712 0.19392279 -0.11610859 0.09107444 -0.0025132978 0.15536386 0.110025816
0.08637989 0.10207356 0.11678081 0.10863899 0.10170361 0.10952329 0.11096709 0.09494538
-0.012230357 0.16028497 0.09516858 0.17738713 0.14120896 0.08643524 0.15742487 0.16141535
0.16788423 0.10468895 0.044135686 0.06826957 0.15099806 0.081113756 -0.0110593485 0.057157412
0.13696343 0.094468966 -0.03163674 -0.018851351 0.030912932 0.1129005 -0.0029134173 0.115339115
00000000: b0d6 98bd a500 9f3c b058 fd3d 0da7 243e
00000010: 3c6a ce3d 04c4 19be 1d82 643e 78a0 823e
00000020: 2d00 703d 0bb6 953d 6ca1 cd3d 27e7 363e
00000030: d8c5 333e 56f1 6b3d fe9b f83c 6649 4f3e
00000040: f7ce 3c3e b706 383e d185 25bd b838 3a3c
00000050: 5806 1e3e 8740 fc3c fb49 9e3d d7a6 013e
00000060: 8737 803d 042d 4dbc faea 69bd 5de7 7d3d
00000070: 3158 243e 1b63 2d3e 0c6f 823d a9ae 17bd
00000080: f380 cb3d b52a 713e ccf6 3e3e b526 a5bb
00000090: b4be 633d 06c2 063e 9348 043e ed81 0c3e
000000a0: 8f3d 223d 9b32 143e 457a 763e a4f7 6d3e
000000b0: caf9 3a3e e440 d73d 13a4 063e 78ce 413e
000000c0: 2367 d13d ae27 593d 5613 0abd 4c8b cabd
000000d0: af60 98bd 8aa6 b43c 575b a63d 523c b5bd
000000e0: 66d2 cfbd 200e 5fbd e4bd 783d 046b 133e
000000f0: 9bee 71bd c5b8 74bd fb3c 67bc 889d 0d3e
00000100: 5255 d13d 5fc7 b23d e779 343e a877 1b3e
00000110: 4b0a 083e f686 f53d 0593 0d3e a19b 593d
00000120: 52e5 3b3e 13ba 283e 237e c13d 27e8 4abd
00000130: 3aaf ad3d c70d ddbc e97a ff3d 14f9 8d3d
00000140: 7b8b dd3d d225 643d 1627 f0bd 2ef0 b9bd
00000150: 74d0 2cbd 6cab 06be 8901 cf3c af6e 04be
00000160: 6969 e3bd d2e8 aabd 84b0 5abe 73ae 18be
00000170: 3a13 90be 0a93 2abe 059c 0abe cba3 f83c
00000180: 4900 d8bc eaaa 12be 947f 0bbe 730a 00be
00000190: 7d4e 133e 4b89 0a3e 4fd5 9e3c 2b4e 04be
000001a0: bf67 00bd f8dc bd3d e4d0 a43d 2d72 76bd
000001b0: 630c 38be 9364 d23d 2c1e f53d d143 30be
000001c0: d814 35be 269a 17be 946d b7bc b603 60bd
000001d0: 05f9 30be 5240 aabe 739b 20be 0b5f 86bd
000001e0: e6ba 1dbd d3f2 30be 4579 8cbe b230 05be
000001f0: 7f0d c63d 3ea1 143e d013 883e c992 fa3b
00000200: f803 75be 9b2b e3bd c6b8 0e3e c40a 1f3e
00000210: a678 afbd 0651 a0be d121 3ebe b9e3 2f3d
00000220: 6cda b0bd 5073 30be 494c 79be c090 71be
00000230: 9db3 c53b ce2e 1dbe 70d5 6fbe de00 afbe
00000240: a442 90be e829 99ba 14cd c3bd 9dcf 81bd
00000250: c4e8 01be b5b0 cdbd 36b0 d03d c402 153e
00000260: 1b35 96bc 7481 80bd f60a 4d3c 6204 b13d
00000270: 8757 2abb c14d 22be df84 62be abd1 8ebd
00000280: f912 d3b9 ad47 04be be4d 5dbe 1b83 55be
00000290: 6ff5 7dbe ae3d fcbd 7dba 70be 678b 83be
000002a0: e683 8abe 7a19 b9bd bdd3 01be 8d00 59be
000002b0: ef66 17be e881 62be 0634 5dbd 8808 acbd
000002c0: b981 85bd 9044 953d dbee 383e b546 89bc
000002d0: 2e04 eebd b738 81bd 7ef0 2e3d 53bf fc3d
000002e0: 34eb 243d d77d 8bbd e8e1 94bd a0f8 e03d
000002f0: e442 2a3e 35f1 d13d ca06 c83d ea59 063d
00000300: f79f 013e 4e70 933e 7b56 2d3e 6678 61be
00000310: d627 b83d a214 013e ea25 513e 6ed4 493e
00000320: c8e1 a53d 6871 41bd f640 303d 2044 023e
00000330: 0d0e a0bb aa87 0a3e 8e6d 9abd 5a40 623d
00000340: cdd1 333e 3b0a 8bbd 6f63 df3d fd8b f7bd
00000350: f227 4c3c 4b67 613e 7ee2 56bd c2f8 8a3d
00000360: 29ef 183d 6886 c33d b293 463e 57ca edbd
00000370: 3c85 ba3d 24b6 24bb b417 1f3e 3755 e13d
00000380: f1e7 b03d f10b d13d c72a ef3d 1e7e de3d
00000390: fb49 d03d bf4d e03d b742 e33d b972 c23d
000003a0: d661 48bc be21 243e bfe7 c23d f9a4 353e
000003b0: 1599 103e f604 b13d fc33 213e 114a 253e
000003c0: d8e9 2b3e 2967 d63d 9fc7 343d ebd0 8b3d
000003d0: 3c9f 1a3e f81e a63d 4532 35bc e41d 6a3d
000003e0: 2440 0c3e f278 c13d 8795 01bd 266e 9abc
000003f0: 1e3d fd3c 6138 e73d 08ef 3ebb ea36 ec3d

conceptizer.decoder.2.0.bias f4 [8]
0.13001128 0.063433155 0.14461464 0.041235782 0.05374553 0.06250821 -0.009541676 -0.14704576
00000000: ad21 053e 3ee9 813d dc15 143e dae6 283d
00000010: 4624 5c3d 4e04 803d b154 1cbc 2a93 16be

conceptizer.decoder.4.0.weight f4 [8, 1, 2, 2]
-0.37915686 0.094971806 -0.1514192 0.7480179 0.5399983 0.56201375 0.68200403 0.63581264
0.7372209 0.5495934 0.4128842 -0.07245426 -0.76383835 -0.84493303 -0.76627797 -0.86975425
-0.68118125 -0.95172083 -0.23044664 -0.58015555 -0.6592272 -0.24713731 -1.0224929 -0.7577373
-0.32763726 -0.8964913 -0.24474469 -0.52088064 1.3413228 6.38688e-05 1.3085358 0.09562137
00000000: d920 c2be 9480 c23d a20d 1bbe 1a7e 3f3f
00000010: 543d 0a3f 22e0 0f3f d197 2e3f 9ec4 223f
00000020: 82ba 3c3f 27b2 0c3f 8f65 d33e e662 94bd
00000030: e98a 43bf 884d 58bf cb2a 44bf 37a8 5ebf
00000040: e561 2ebf faa3 73bf 34fa 6bbe 1385 14bf
00000050: 1dc3 28bf 9011 7dbe 0ce1 82bf 12fb 41bf
00000060: 12c0 a7be 7480 65bf 5a9e 7abe 6f58 05bf
00000070: 77b0 ab3f 4df1 8538 1a7e a73f 23d5 c33d

conceptizer.unlinear.weight f4 [16, 1]
-1.0144807 0.6651048 -0.8339869 -1.3636996 -1.1217016 -0.92504823 1.0744066 -1.0302774
-1.1379174 -1.1705562 1.1183196 0.60154307 -1.2392747 0.07774764 -0.786927 0.92664105
00000000: 81da 81bf 4f44 2a3f 2a80 55bf b58d aebf
00000010: eb93 8fbf f6cf 6cbf 2886 893f 21e0 83bf
00000020: 47a7 91bf c9d4 95bf 1925 8f3f bafe 193f
00000030: 8ea0 9ebf 283a 9f3d 0c74 49bf 5938 6d3f

conceptizer.unlinear.bias f4 [16]
0.78196514 -0.13767704 -1.177179 1.0205628 0.7372051 0.2226075 -0.51967585 0.4629282
0.4539254 -0.7045188 -0.69021887 0.5562894 -0.20563455 -0.82007474 -0.8475462 -0.08583193
00000000: de2e 483f 36fb 0cbe cdad 96bf cda1 823f
00000010: 79b9 3c3f 38f3 633e 7a09 05bf ed04 ed3e
00000020: e968 e83e 585b 34bf 2fb2 30bf fb68 0e3f
00000030: dd91 52be 6bf0 51bf caf8 58bf a7c8 afbd

parameterizer.cl_layers.0.weight f4 [10, 1, 5, 5]
0.054810874 0.019097326 0.16930737 0.14713487 0.010385672 0.03218313 0.22374475 0.028303927
-0.07727956 -0.08928618 0.07659415 0.08724008 0.05889318 0.104230985 0.041138124 -0.098015085
-0.114990234 -0.15608068 -0.22288838 -0.1938022 -0.022898132 -0.28153563 -0.36372733 -0.3263998
-0.1561792 -0.22830287 -0.16053793 0.092948295 0.019468082 -0.006109437 -0.308643 -0.2214872
-0.04960575 -0.10126493 -0.06950093 -0.105139196 0.008509785 -0.17842521 -0.124295525 -0.18554819
0.19224669 -0.008478844 -0.025596185 -0.19855084 -0.0824318 0.280079 0.120300665 -0.07653009
0.03216661 -0.14654218 -0.13578115 0.029472077 0.06410362 0.07585867 0.07627768 0.03109797
-0.075324506 0.14658743 0.062024042 0.11224606 0.06846534 0.010872705 -0.025013382 0.12728119
0.049892616 -0.12871522 -0.09257954 0.14083312 0.02379725 0.12867178 0.05110009 -0.1576074
-0.07679289 -0.025282573 0.15009986 -0.08542333 0.16161333 0.15284428 0.08548892 0.14106105
0.07823811 -0.062184885 0.122947894 0.05899341 0.050967135 -0.00058606575 -0.14254504 -0.04998541
-0.1113851 -0.12578298 0.110018186 -0.22472511 0.15891087 -0.108187385 0.09538664 -0.20315225
-0.23930831 0.13053893 -0.18432169 0.16977322 0.057044677 -0.01994728 -0.40492517 -0.25898302
-0.24167626 0.01679679 0.08308929 -0.35199705 -0.32691503 -0.053114593 0.03935446 -0.041294087
-0.038368985 0.11510093 0.07957798 0.10088197 -0.0397116 -0.091118194 0.025851673 0.104009554
-0.026698237 -0.16056116 -0.14757071 0.14791273 0.062466465 -0.2121149 -0.11580189 0.23558521
-0.07886132 -0.03920746 0.12319906 -0.16083363 -0.13358998 0.09926704 0.18736506 0.13833879
-0.20139016 0.07426287 0.08876491 -0.044534065 0.088519104 -0.25275055 0.043469194 0.19175714
-0.031717557 -0.18250817 0.049409084 -0.15837882 0.22964855 0.05176049 0.0068929307 -0.074452415
0.1082001 0.16643028 -0.202312 -0.086734936 -0.15071784 0.21322036 0.11599517 -0.09273247
0.049372 -0.0424309 0.2580388 -0.083251975 -0.18530226 0.0021309017 0.1425562 -0.03704278
0.21579675 -0.24358612 -0.14681326 -0.099131025 -0.037306346 0.23121905 -0.02167451 0.1763259
-0.14586915 -0.1600566 -0.21611327 0.11914446 0.19892685 -0.11624629 -0.113511264 -0.18629411
0.025396967 0.09106699 0.17396022 -0.24384955 -0.29801434 -0.10306125 0.023442969 -0.08831938
0.030532984 -0.3155979 -0.026993284 -0.10685561 -0.07741527 0.008722427 -0.20792809 -0.242281
-0.122805595 -0.25494453 -0.21193163 0.25224465 -0.0544536 0.22489648 0.15053013 0.15396535
0.06468149 0.12393624 0.04234256 0.08505334 -0.06608388 0.034038737 -0.10349525 -0.14402646
0.12662393 0.11715326 -0.17922786 -0.16794741 -0.007932821 -0.1924667 0.15004073 -0.214364
0.15710516 -0.08216703 -0.27261084 -0.22214681 -0.106249146 0.1819104 -0.061420884 0.12502694
0.14622098 0.057931244 0.07104122 0.11841447 0.1290978 0.16828632 0.045606222 -0.13734072
0.04469655 0.04325133 0.003541653 0.04098166 -0.10788158 0.040196124 -0.0024219013 -0.060037173
-0.057991434 0.07908897
00000000: 5e81 603d ff71 9c3c e95e 2d3e 86aa 163e
00000010: aa28 2a3c 75d2 033d 581d 653e a3dd e73c
00000020: bf44 9ebd acdb b6bd 65dd 9c3d edaa b23d
00000030: fa39 713d 0e77 d53d 7380 283d 22bc c8bd
00000040: 0080 ebbd 9dd3 1fbe da3c 64be 1574 46be
00000050: dd94 bbbc 7025 90be 783a babe e01d a7be
00000060: 71ed 1fbe 3ac8 69be 0e64 24be ad5b be3d
00000070: 877b 9f3c ac31 c8bb 7506 9ebe 8acd 62be
00000080: 662f 4bbd fd63 cfbd 8156 8ebd 3853 d7bd
00000090: a06c 0b3c 19b5 36be a78e febd 5800 3ebe
000000a0: 51dc 443e d9ea 0abc 17af d1bc e950 4bbe
000000b0: 01d2 a8bd 8466 8f3e 3260 f63d cfbb 9cbd
000000c0: 23c1 033d 270f 16be 370a 0bbe 6d6f f13c
000000d0: c248 833d ca5b 9b3d 7937 9c3d 2cc1 fe3c
000000e0: bc43 9abd 041b 163e ec0c 7e3d 43e1 e53d
000000f0: 8e37 8c3d 6e23 323c dde8 ccbc 0056 023e
00000100: 335c 4c3d eccd 03be 589a bdbd 8f36 103e
00000110: 73f2 c23c 89c2 033e 544e 513d d663 21be
00000120: 9745 9dbd 661d cfbc c7b3 193e 6df2 aebd
00000130: f77d 253e 3683 1c3e d114 af3d 4f72 103e
00000140: 4d3b a03d 94b5 7ebd 1bcc fb3d 13a3 713d
00000150: eac2 503d 35a2 19ba 54f7 11be 80bd 4cbd
00000160: df1d e4bd 41cd 00be 3751 e13d 571e 66be
00000170: 88b9 223e 5991 ddbd 125a c33d 2507 50be
00000180: 3d0d 75be ffab 053e d3be 3cbe 08d9 2d3e
00000190: aea7 693d 7a68 a3bc 5a52 cfbe 6c99 84be
000001a0: fb79 77be 6c99 893c b82a aa3d f538 b4be
000001b0: 6861 a7be b08e 59bd 2432 213d fd23 29bd
000001c0: cc28 1dbd 09ba eb3d c8f9 a23d 359b ce3d
000001d0: a1a8 22bd 2d9c babd e3c6 d33c f602 d53d
000001e0: 43b6 dabc 256a 24be c71c 17be 6f76 173e
000001f0: d6dc 7f3d a634 59be 8b29 edbd 403d 713e
00000200: 0b82 a1bd 0098 20bd ca4f fc3d 92b1 24be
00000210: d0cb 08be 854c cb3d a0dc 3f3e afa8 0d3e
00000220: 3939 4ebe 2217 983d 61ca b53d 5a69 36bd
00000230: 8149 b53d 8568 81be c10c 323d fc5b 443e
00000240: 45ea 01bd 6ce3 3abe 2e61 4a3d 0f2e 22be
00000250: fd28 6b3e cf02 543d 18de e13b 827a 98bd
00000260: 0498 dd3d b36c 2a3e e02a 4fbe 16a2 b1bd
00000270: c755 1abe 7056 5a3e e08e ed3d 85ea bdbd
00000280: 4b3a 4a3d 06cc 2dbd a91d 843e 0380 aabd
00000290: e0bf 3dbe 99a6 0b3b 41fa 113e 2cba 17bd
000002a0: d3f9 5c3e a46e 79be 3756 16be 3505 cbbd
000002b0: 8ace 18bd b0c4 6c3e be8e b1bc c78e 343e
000002c0: b95e 15be e1e5 23be cc4c 5dbe 0302 f43d
000002d0: 7bb3 4b3e 8912 eebd 9878 e8bd e2c3 3ebe
000002e0: 4d0d d03c 5481 ba3d a122 323e b2b3 79be
000002f0: 5695 98be c711 d3bd 780b c03c cbe0 b4bd
00000300: 4f20 fa3c 0c96 a1be 0521 ddbc 1dd7 dabd
00000310: e68b 9ebd 83e8 0e3c 1aeb 54be 8318 78be
00000320: 8081 fbbd 1788 82be 9b04 59be 3626 813e
00000330: bd0a 5fbd 434b 663e 9224 1a3e 18a9 1d3e
00000340: bb77 843d 49d2 fd3d 646f 2d3d 7230 ae3d
00000350: fc56 87bd 346c 0b3d 51f5 d3bd ac7b 13be
00000360: b4a9 013e 0cee ef3d 8287 37be 68fa 2bbe
00000370: aaf8 01bc fe15 45be 47a4 193e 3d82 5bbe
00000380: 2de0 203e 3047 a8bd a693 8bbe 747a 63be
00000390: 2799 d9bd b846 3a3e 7794 7bbd 1007 003e
000003a0: f4ba 153e 5049 6d3d 0f7e 913d 4983 f23d
000003b0: 3732 043e 4053 2c3e 97cd 3a3d 0ca3 0cbe
000003c0: bb13 373d 4e28 313d 141b 683b 63dc 273d
000003d0: 05f1 dcbd b1a4 243d c3b8 1ebb 8ae9 75bd
000003e0: 6d88 6dbd 66f9 a13d

parameterizer.cl_layers.0.bias f4 [10]
-0.032712836 -0.116465375 -0.17355877 0.0895233 -0.16210088 0.053617995 -0.013164959 -0.36202976
-0.07520418 0.073780134
00000000: e5fd 05bd 6685 eebd 64b9 31be fe57 b73d
00000010: c6fd 25be 8b9e 5b3d d7b1 57bc f75b b9be
00000020: a604 9abd 0a1a 973d

parameterizer.cl_layers.3.weight f4 [20, 10, 5, 5]
0.006208487 -0.07688437 -0.033518106 -0.00618908 0.021884173 0.010288765 -0.04213594 -0.04118702
0.0761873 -0.033760548 -0.047680475 -0.009803351 -0.040813945 -0.014454968 -0.037211917 0.014356596
-0.0014004356 -0.03527378 -0.040804006 -0.001939332 -0.0884816 0.02743856 0.048619892 0.044988822
-0.0262306 0.07247565 0.07228371 -0.0031936571 0.0559689 0.04451294 -0.035256356 -0.0014201971
0.06250704 0.051443886 0.013860255 0.0074704983 -0.031673938 0.036029015 0.093735166 0.029941617
-0.043517023 0.050125647 -0.05201959 0.0007068649 -0.003912471 -0.0175176 0.07102476 0.048601046
0.04604435 0.04177281 0.065822095 -0.012617392 0.020545226 -0.011686911 0.0306112 -0.01920318
-0.016163925 0.032509506 -0.030744478 0.0001904159 0.016629023 0.043719172 -0.022196343 -0.03177027
0.022892566 -0.027083606 0.004892124 -0.029231833 -0.020616872 -0.030513054 -0.07283397 -0.08886786
0.004243517 -0.038160734 0.08250154 -0.0058053117 -0.0749476 0.05258656 0.05084442 0.045767494
-0.025351558 0.01773705 -0.008460631 0.015729396 -0.13013428 0.015460024 0.0029652948 0.025882196
-0.064176165 0.03929049 -0.025948465 0.011239618 0.059877496 -0.019491848 0.0147790685 0.020791244
-0.017552229 0.031236991 0.008007967 -0.019117374 0.08099788 -0.02764861 0.028277108 0.036686752
-0.060905185 0.08005675 -0.018031962 -0.050619267 -0.05348969 0.091385774 0.007873657 -0.024742099
0.08527297 -0.022031808 0.047280565 -0.031477034 -0.017240612 -0.053512894 0.024769422 -0.08883462
0.04343288 -0.01893827 0.047587167 -0.042218085 0.026149195 0.0044506514 0.054281116 -0.01861036
0.026394034 -0.019033842 -0.007986764 0.04103535 -0.00045474755 -0.025038516 -0.07195075 -0.009838819
0.0075577074 -0.026814166 -0.05499438 0.0053050863 0.0014718804 -0.013335722 0.020690441 -0.0030760635
-0.016376348 0.017253429 -0.057236493 0.060965545 -0.07530479 0.012673494 0.08793038 0.15842667
-0.015735492 -0.16522005 0.040290166 0.017506994 0.05116198 -0.010727814 -0.09015919 0.04411822
0.031007454 -0.01626845 -0.028787374 -0.032777224 0.037484366 -0.0021377055 0.031147253 -0.05688147
-0.07731894 0.048529476 0.029800475 -0.002032421 -0.039174505 -0.031834245 -0.025766678 0.019894782
0.015956322 -0.045776 -0.09530705 -0.08795188 -0.0057709566 -0.026436001 0.02551674 0.0014331318
-0.06996734 -0.07786257 -0.050505288 -0.035887916 0.014417961 -0.1276134 -0.093876936 -0.08765812
-0.05194798 -0.042916305 -0.015255498 -0.0985253 0.0025000088 -0.06877049 -0.02429954 -0.10677337
-0.07645833 0.060446616 -0.044225298 0.09199175 0.034105115 -0.10959166 0.062209412 -0.03456368
0.026400248 0.07627751 -0.07114247 -0.011856926 0.06317101 0.052101597 0.041786797 -0.008826512
-0.018902998 0.025986336 0.032796726 0.06401441 -0.12863496 0.09776998 -0.0013591611 0.049894545
0.0061629624 0.026342811 0.026447946 -0.011959482 0.0039463183 0.020509917 0.034153406 0.042406492
-0.0773572 -0.038496964 0.092625804 0.06262786 0.0017060558 -0.03066738 -0.008121674 0.027795322
0.004856687 0.0026265138 -0.043195058 0.026206424 0.09620778 -0.036608238 0.013240536 -0.0027345815
0.0114514 -0.0049910904 -0.04370117 -0.070568144 0.086926155 0.030557668 0.09069247 -0.056364585
00000000: 9070 cb3b 8d75 9dbd 484a 09bd c4cd cabb
00000010: 7046 b33c 3592 283c bc96 2cbd b8b3 28bd
00000020: 1608 9c3d 8048 0abd 9a4c 43bd 3c9e 20bc
00000030: 862c 27bd 88d4 6cbc 866b 18bd ee37 6b3c
00000040: d28e b7ba 3d7b 10bd 1a22 27bd 2f31 feba
00000050: d735 b5bd d5c6 e03c a725 473d 3346 383d
00000060: 8ee1 d6bc 1d6e 943d 7b09 943d ad4c 51bb
00000070: a53f 653d 3353 363d f868 10bd e825 baba
00000080: b103 803d d3b6 523d 1f16 633c 15cb f43b
00000090: 88bc 01bd 2993 133d 39f8 bf3d 1f48 f53c
000000a0: e83e 32bd 8d50 4d3d 7e12 55bd e74c 393a
000000b0: 2f34 80bb 1281 8fbc 6e75 913d e411 473d
000000c0: 0099 3c3d f719 2b3d bccd 863d 2eb9 4ebc
000000d0: 764e a83c 757a 3fbc 57c4 fa3c fd4f 9dbc
000000e0: 356a 84bc b028 053d d8db fbbc 61aa 4739
000000f0: 9739 883c e012 333d 1bd5 b5bc 8b21 02bd
00000100: 3189 bb3c 70de ddbc 1c4e a03b 9977 efbc
00000110: b7e4 a8bc 83f6 f9bc fa29 95bd 5a00 b6bd
00000120: 330d 8b3b 6e4e 1cbd 91f6 a83d 7c3a bebb
00000130: 217e 99bd 0165 573d 3d42 503d b276 3b3d
00000140: 12ae cfbc 4a4d 913c 759e 0abc efda 803c
00000150: ec41 05be 0a4c 7d3c 6455 423b e606 d43c
00000160: cb6e 83bd 11ef 203d e091 d4bc 6026 383c
00000170: 1b42 753d 5ead 9fbc e823 723c 6652 aa3c
00000180: b1c9 8fbc b8e4 ff3c d933 033c 0a9c 9cbc
00000190: 37e2 a53d 567f e2bc 65a5 e73c d944 163d
000001a0: b777 79bd cbf4 a33d c4b7 93bc 2656 4fbd
000001b0: 0118 5bbd 7728 bb3d 8300 013c f1af cabc
000001c0: 98a3 ae3d 0d7c b4bc 44a9 413d 10ee 00bd
000001d0: 2f3c 8dbc 5630 5bbd 3ee9 ca3c edee b5bd
000001e0: ade6 313d 6e24 9bbc c3ea 423d dfec 2cbd
000001f0: d636 d63c c5d6 913b e055 5e3d c174 98bc
00000200: 4d38 d83c dcec 9bbc ebda 02bc af14 283d
00000210: 2f6b eeb9 931d cdbc ea5a 93bd ff32 21bc
00000220: a5a6 f73b 62a9 dbbc c941 61bd 4ad6 ad3b
00000230: 1cec c03a 127e 5abc 007f a93c c897 49bb
00000240: b127 86bc 1057 8d3c d070 6abd 02b7 793d
00000250: 6639 9abd 7da4 4f3c d814 b43d 9a3a 223e
00000260: b8e7 80bc 722f 29be 4d07 253d d46a 8f3c
00000270: 398f 513d b7c3 2fbc 62a5 b8bd 4fb5 343d
00000280: 5803 fe3c 6a45 85bc 80d3 ebbc 6941 06bd
00000290: 3589 193d bf18 0cbb 8628 ff3c 8bfc 68bd
000002a0: 6459 9ebd d8c6 463d 2020 f43c 5e32 05bb
000002b0: 7275 20bd a064 02bd a414 d3bc 62fa a23c
000002c0: d5b6 823c 9d7f 3bbd 5830 c3bd 1e20 b4bd
000002d0: 4b1a bdbb 5090 d8bc 7b08 d13c ecd7 bb3a
000002e0: 094b 8fbd 6976 9fbd a2de 4ebd 35ff 12bd
000002f0: 5039 6c3c 16ad 02be 8d42 c0bd 1a86 b3bd
00000300: 68c7 54bd 02c9 2fbd 32f2 79bc a2c7 c9bd
00000310: 30d7 233b 8bd7 8cbd d40f c7bc ffab dabd
00000320: 2f96 9cbd df96 773d 9625 35bd 2c66 bc3d
00000330: ceb1 0b3d 9871 e0bd 4ccf 7e3d a592 0dbd
00000340: 5545 d83c 6237 9c3d 25b3 91bd 8d43 42bc
00000350: cd5f 813d 7c68 553d a228 2b3d 139d 10bc
00000360: 76da 9abc 4ce1 d43c dc55 063d fd19 833d
00000370: e2b8 03be a13b c83d e125 b2ba 395e 4c3d
00000380: adf2 c93b e1cc d73c 5da9 d83c b4f1 43bc
00000390: 1e50 813b 6a04 a83c 71e4 0b3d 6eb2 2d3d
000003a0: 746d 9ebd feae 1dbd 99b2 bd3d 0943 803d
000003b0: bc9d df3a 283a fbbc c510 05bc 04b3 e33c
000003c0: d824 9f3b 9721 2c3b 4ded 30bd dbae d63c
000003d0: 9608 c53d 85f2 15bd d5ee 583c aa36 33bb
000003e0: a79e 3b3c 4d8c a3bb ffff 32bd 0886 90bd
000003f0: 5706 b23d 1354 fa3c f9bc b93d 8dde 66bd

parameterizer.cl_layers.3.bias f4 [20]
0.09619581 0.05086698 -0.026029428 0.060511246 0.044500817 0.032810494 0.1431206 -0.08259704
0.06743645 0.061398126 0.05253354 0.026663817 0.099307455 0.007956372 -0.11692619 -0.040874325
0.046370853 -0.0689433 -0.016053727 -0.055408772
00000000: 4f02 c53d e559 503d ab3b d5bc a4da 773d
00000010: 7d46 363d 4c64 063d 358e 123e a328 a9bd
00000020: 1f1c 8a3d 9a7c 7b3d 692d 573d 146e da3c
00000030: b561 cb3d 715b 023c 0077 efbd d66b 27bd
00000040: 5def 3d3d 2532 8dbd 1b83 83bc 4ff4 62bd

parameterizer.fc_layers.0.weight f4 [50, 320]
-0.025920998 -0.027250273 0.026037198 -0.037961178 0.0017298444 0.0067294594 0.022441432 0.08989423
0.013915756 -0.04603495 0.0023725925 0.037309356 0.06160101 -0.0028992686 0.051447853 0.024683254
-0.035278406 -0.016218122 -0.025540343 0.026626896 -0.016787125 0.03302416 0.0034675577 -0.02758298
0.09091488 -0.034842703 -0.0037966967 0.012835645 0.114849344 -0.008885003 0.028762178 0.0146758575
-0.088653214 0.0065912516 0.02274518 -0.03109599 0.017552912 0.035979304 0.004293108 0.0556829
-0.03774514 0.023554856 0.016189888 -0.008621581 0.11098818 -0.028018938 0.008954763 -0.043400545
-0.029408837 0.026135508 -0.03603356 0.045986902 0.013532956 -0.027001726 0.039043587 -0.030988773
0.009850818 -0.026404122 -0.007816358 -0.011322408 0.013944744 0.039770473 -0.003807935 -0.03511428
-0.014029991 0.009236241 -0.012985391 -0.0182942 0.005486997 -0.07258398 -0.011099248 0.059802108
0.001405509 0.009025699 0.015525386 0.051456094 -0.016478762 0.04327104 0.028500902 0.028538827
0.043356847 -0.012598561 -0.03126512 0.012362421 0.03047457 -0.0021440624 -0.0087699 0.016061472
-0.017893998 -0.024944628 0.025359558 -0.05764609 0.0025491756 0.011145238 0.074293524 0.014263945
0.0009755694 -0.010130705 -0.009695424 0.12645797 -0.014098433 0.011787861 0.0046734405 0.025031684
-0.0008926402 -0.059474688 -0.039145663 -0.05534464 0.012588888 -0.06421902 0.0560674 -0.04981089
0.0073298393 -0.008263165 0.038464893 -0.017033923 0.04047706 0.065210976 0.0011327222 0.028107485
-0.017594993 -0.07273231 0.029019626 -0.016682452 -0.015547122 -0.0073478594 0.032306705 0.023890218
0.009269689 0.020889064 0.010759326 0.0026922654 0.032404926 -0.06879921 0.03678576 -0.030793253
-0.0037686804 0.045392077 -0.01886372 -0.016227072 -0.045522656 -0.0021394968 0.0053186943 -0.017077433
0.029210245 -0.009248361 -0.044495348 0.04183202 0.08102815 0.046132483 -0.042956688 -0.011892412
0.08450114 -0.015291061 0.004527569 0.04338128 0.012697354 -0.019515125 -0.021569965 -0.0276425
-0.0036806674 0.003694593 0.07470192 -0.008338167 -0.07682235 0.05070746 -0.021047262 -0.010444643
-0.005534499 0.0069118678 -0.00031045548 0.011012105 0.015538829 0.033071764 0.04014541 0.028636469
-0.008195875 -0.021691889 -0.013188117 -0.07362744 0.025840595 -0.046255216 0.014540673 -0.03337284
-0.033825092 0.039444093 -0.021526743 0.037620284 0.04065234 0.005738518 0.001816421 0.09563587
0.01798965 0.016599353 0.0038028727 -0.050316516 -0.005697967 -0.030454755 0.018385079 0.10809853
-0.009700677 -0.03254873 -0.018504916 0.03688027 -0.058296077 0.021587675 0.05298919 0.12654035
0.0376889 0.012430274 -0.04417941 -0.017051214 -0.0012730381 -0.068154745 -0.007344575 -0.025138004
0.039216347 0.02359104 -0.040603757 -0.020089833 0.0030008473 0.0343936 0.00071035296 0.05569623
0.017288756 0.046829868 0.012738503 0.005541071 -0.0608625 0.013650697 -0.024860026 -0.03854303
0.04047345 0.02261611 0.015258016 -0.023148142 0.0011529428 0.06891599 -0.042841516 0.04460287
0.0002573717 0.022611778 0.037712023 -0.016166136 0.002000954 0.050309394 -0.03992345 0.006190923
-0.058006722 0.02287071 0.00898293 -0.04693991 0.022545328 0.06897977 0.029847573 0.16495368
00000000: 4658 d4bc f73b dfbc f64b d53c 2e7d 1bbd
00000010: f2bb e23a cc82 dc3b 18d7 b73c 771a b83d
00000020: e9fe 633c 258f 3cbd 7f7d 1b3b b2d1 183d
00000030: 5751 7c3d a801 3ebb fcba 523d 8934 ca3c
00000040: 1780 10bd dedb 84bc fb39 d1bc a620 da3c
00000050: 2785 89bc 5744 073d f73f 633b b4f5 e1bc
00000060: 9531 ba3d 39b7 0ebd 00d2 78bb 994c 523c
00000070: 2236 eb3d 6792 11bc a99e eb3c 0273 703c
00000080: d18f b5bd 6dfb d73b 1a54 ba3c 05bd febc
00000090: 20cb 8f3c 095f 133d 33ad 8c3b c113 643d
000000a0: a69a 1abd 1df6 c03c a8a0 843c 8841 0dbc
000000b0: c54d e33d f987 e5bc 00b7 123c c5c4 31bd
000000c0: cdea f0bc 221a d63c ed97 13bd c35c 3c3d
000000d0: 55b9 5d3c b932 ddbc 2bec 1f3d 2bdc fdbc
000000e0: 5365 213c 754d d8bc 2e10 00bc 9f81 39bc
000000f0: 7f78 643c 5de6 223d 8c8e 79bb fed3 0fbd
00000100: 0cde 65bc 9a53 173c adc0 54bc b8dd 95bc
00000110: 44cc b33b e9a6 94bd 9fd9 35bc 0ef3 743d
00000120: 0e39 b83a 87e0 133c 305e 7e3c a0c3 523d
00000130: 78fe 86bc f93c 313d b97a e93c 42ca e93c
00000140: f396 313d 326a 4ebc db0f 00bd c08b 4a3c
00000150: cea5 f93c 6683 0cbb a0af 0fbc 5993 833c
00000160: 6f96 92bc ad58 ccbc d9be cf3c 4e1e 6cbd
00000170: 1210 273b 849a 363c 3427 983d 52b3 693c
00000180: 5bbd 7f3a 42fb 25bc 8ed9 1ebc 337e 013e
00000190: 1dfd 66bc df21 413c a923 993b 3f0f cd3c
000001a0: 1200 6aba bb9b 73bd 3457 20bd 10b1 62bd
000001b0: a041 4e3c 4385 83bd eea6 653d 8106 4cbd
000001c0: 262f f03b 3a62 07bc 5d8d 1d3d ba8a 8bbc
000001d0: 46cb 253d 558d 853d da77 943a ab41 e63c
000001e0: 6023 90bc adf4 94bd 91ba ed3c a3a9 88bc
000001f0: 5bb9 7ebc 50c6 f0bb 0954 043d 6bb5 c33c
00000200: e5df 173c 8b1f ab3c e247 303c b870 303b
00000210: 07bb 043d 9ae6 8cbd aaac 163d 2242 fcbc
00000220: f7fb 76bb 0bed 393d 1788 9abc a3ee 84bc
00000230: f775 3abd cd36 0cbb 7148 ae3b f9e5 8bbc
00000240: 534a ef3c 7086 17bc c140 36bd 0d58 2b3d
00000250: 16f2 a53d 6af5 3c3d 5af3 2fbd 64d8 42bc
00000260: ef0e ad3d 5c87 7abc 005c 943b 92b0 313d
00000270: 9008 503c 2fde 9fbc 7fb3 b0bc 8672 e2bc
00000280: 5a37 71bb fc20 723b 52fd 983d cf9c 08bc
00000290: 0955 9dbd a0b2 4f3d 4f6b acbc 0220 2bbc
000002a0: be5a b5bb f37c e23b a1c4 a2b9 1e6c 343c
000002b0: 9396 7e3c 4276 073d 836f 243d 0797 ea3c
000002c0: fe47 06bc 30b3 b1bc f912 58bc fcc9 96bd
000002d0: a8af d33c 1c76 3dbd 013c 6e3c f6b1 08bd
000002e0: 2e8c 0abd 2190 213d da58 b0bc ba17 1a3d
000002f0: 1183 263d 2e0a bc3b fa14 ee3a bddc c33d
00000300: 085f 933c 5efb 873c 9e39 793b b118 4ebd
00000310: 03b6 babb 407c f9bc 4e9c 963c c362 dd3d
00000320: 97ef 1ebc d151 05bd 9f97 97bc c40f 173d
00000330: dec7 6ebd a3d8 b03c 310b 593d cb93 013e
00000340: ad5f 1a3d 59a8 4b3c 78f5 34bd fdae 8bbc
00000350: 12dc a6ba b794 8bbd c3aa f0bb 37ee cdbc
00000360: 52a1 203d ff41 c13c 2050 26bd 6f93 a4bc
00000370: dda9 443b 4ee0 0c3d fb36 3a3a bb21 643d
00000380: 26a1 8d3c add0 3f3d 27b5 503c df91 b53b
00000390: f54a 79bd 2ca7 5f3c 41a7 cbbc 4cdf 1dbd
000003a0: 7dc7 253d 6c45 b93c c2fc 793c 2ca1 bdbc
000003b0: 571e 973a d423 8d3d 967a 2fbd 80b1 363d
000003c0: d8ef 8639 563c b93c ec77 1a3d d86e 84bc
000003d0: 7022 033b 3911 4e3d c686 23bd 3add ca3b
000003e0: 7598 6dbd 5b5b bb3c 242d 133c 1044 40bd
000003f0: fbb0 b83c 4445 8d3d e682 f43c 9ee9 283e

parameterizer.fc_layers.0.bias f4 [50]
-0.0101793185 0.03398207 -0.011691021 -0.025874907 -0.01422383 0.08466053 -0.008852347 -0.04166108
-0.06592434 -0.06454655 0.0053643533 0.001955974 -0.006756082 0.06598766 -0.007000425 -0.038202092
0.003585228 0.046389073 -0.03406415 0.008795761 -0.068167016 -0.00844839 -0.016625658 -0.015606533
-0.036396842 -0.0007191049 -0.028598243 0.08144025 0.024104705 0.07493281 -0.034574583 -0.05991324
0.04618084 -0.0057657985 0.0021543882 -0.04270379 0.04737339 0.067012616 -0.02463738 0.03174506
-0.0025713115 0.06705695 -0.021710895 -0.0042463667 -0.015319929 0.043702163 -0.01748798 -0.045410153
-0.07329377 -0.019014586
00000000: 28c7 26bc c830 0b3d b28b 3fbc 9df7 d3bc
00000010: 110b 69bc 8062 ad3d 6f09 11bc cfa4 2abd
00000020: 5703 87bd fb30 84bd 75c7 af3b cc2f 003b
00000030: 2062 ddbb 8a24 873d d263 e5bb cc79 1cbd
00000040: 25f6 6a3b 7802 3e3d da86 0bbd 181c 103c
00000050: 269b 8bbd 1e6b 0abc 8832 88bc 8bb2 7fbc
00000060: db14 15bd 5082 3cba dd46 eabc 25ca a63d
00000070: 3b77 c53c 6076 993d 149e 0dbd 9667 75bd
00000080: 1f28 3d3d 06ef bcbb a330 0d3b 2bea 2ebd
00000090: 9a0a 423d e93d 893d 55d4 c9bc 1c07 023d
000000a0: 7383 28bb 2755 893d 0cdb b1bc 1b25 8bbb
000000b0: 7100 7bbc 0a01 333d f442 8fbc ffff 39bd
000000c0: 0b1b 96bd 7ac4 9bbc
