results/FASHION_MNIST/checkpoints/Epoch[14]-Step[4050].pt (torch, 374454 bytes, 66 tensors)

conceptizer.encoder.0.0.weight f4 [10, 1, 5, 5]
-0.070945494 0.1757053 0.17011562 0.10301293 0.12066632 -0.023105538 -0.040341575 0.0073943418
0.16785446 -0.04828855 0.14421071 0.09595456 -0.17495872 0.12517309 -0.04878337 0.16271935
0.0597699 0.12558584 0.07622041 -0.027232528 0.196019 -0.011029799 -0.022339763 -0.024218224
0.19692598 -0.19832657 0.0009324446 -0.20849931 -0.13224895 -0.090040214 -0.12830344 -0.15799621
-0.26035205 -0.047188453 -0.14366475 -0.0007322873 -0.18245578 -0.10117986 -0.17694515 -0.110212766
-0.2333373 -0.051979933 -0.06503471 0.0553323 0.02884102 0.018525023 -0.00043961682 -0.11172502
-0.17202075 0.0074355267 0.009487597 -0.1797188 0.071306705 -0.079970315 -0.11957102 -0.102522664
-0.1773488 -0.033458073 -0.21577656 -0.1549455 -0.20707084 0.11364135 -0.085584566 -0.19556995
-0.05752426 -0.082117915 -0.030529147 -0.20286097 -0.112063885 -0.16113581 0.1091468 0.0076651727
-0.0025943776 -0.056241333 -0.118140295 -0.16507165 -0.09304071 0.03707352 -0.03987405 -0.03715468
-0.17956871 -0.071930975 -0.1077199 -0.030507157 0.09501157 -0.24348688 -0.22538327 0.021589065
-0.15871944 0.019834671 -0.10264708 -0.14917147 -0.01817285 -0.050408 0.026428932 -0.097593345
-0.06182136 -0.18459028 -0.004360232 0.12374195 0.09432509 -0.12243317 0.087373085 0.044803802
0.08201298 0.08965843 -0.13149983 0.0071475534 0.10294601 -0.19260511 0.09041269 0.04624685
-0.14846583 -0.16865098 -0.059296913 0.046641015 -0.059274185 0.1518506 -0.11050541 0.062391527
0.10339452 0.18754616 -0.0069928146 -0.10823087 0.07206599 0.06384377 0.20062792 0.101269044
0.11862391 0.07847117 -0.04603802 -0.05780751 0.115641646 0.12588413 -0.037104975 0.19086789
0.08829083 0.05625644 -0.06260893 -0.1404938 -0.08817659 0.15250659 0.13185032 0.041259706
-0.15583701 0.12476164 0.21847677 0.08140958 -0.07485804 -0.008475124 0.23015629 -0.09069219
0.16314068 0.19665411 0.03431365 -0.061224714 0.21828207 0.02446568 0.18228209 0.18899612
-0.11477379 -0.012711598 -0.035515573 -0.060577225 -0.11930768 -0.1585951 0.16484685 0.10226476
-0.070124306 -0.17097703 -0.18916838 -0.0025926966 -0.21104273 -0.031034978 -0.0077916207 -0.0018986055
0.018652478 -0.13914879 -0.17483962 0.10494082 0.019132731 -0.074139945 0.07408075 0.030517489
-0.10130138 0.222066 0.03358996 0.13887286 0.20204689 0.08498364 0.1931823 -0.10040478
0.061912946 0.0038839693 -0.007902303 0.05387643 0.17969565 -0.08766638 0.103453435 0.14909609
0.13753547 -3.0702668e-05 0.13259837 0.09886194 -0.040522654 0.09867379 0.076349124 -0.06755359
-0.09304268 0.22027189 0.15500714 -0.13026454 -0.06976131 -0.068543665 -0.10833026 0.06981402
-0.0035272883 0.13802287 -0.1222278 0.07167766 -0.16469082 0.112354234 0.0056021693 0.00029021307
0.21300939 0.021630423 0.17092289 0.14476044 0.12261777 0.03213328 -0.06845164 0.013598065
0.15152535 -0.04818583 0.06889058 0.14387502 0.14429356 0.17714745 -0.090229586 0.10860276
0.01086743 0.11933609 -0.070812054 -0.11427544 0.09660838 0.016159393 0.019357584 0.18768844
0.2001723 0.10057488
00000000: df4b 91bd 17ec 333e ca32 2e3e 71f8 d23d
00000010: e71f f73d d347 bdbc 353d 25bd 3c4c f23b
00000020: 0ae2 2b3e 37ca 45bd f9ab 133e d383 c43d
00000030: 6128 33be 602d 003e 12d1 47bd e79f 263e
00000040: 48d1 743d 9399 003e 7219 9c3d c016 dfbc
00000050: 34b9 483e 54b6 34bc e101 b7bc 4c65 c6bc
00000060: f7a6 493e 1f16 4bbe 4c6f 743a d880 55be
00000070: 456c 07be 0167 b8bd fa61 03be c2c9 21be
00000080: dd4c 85be ae48 41bd da1c 13be f8f6 3fba
00000090: b0d5 3abe 6337 cfbd 1c31 35be 3bb7 e1bd
000000a0: f9ef 6ebe e9e8 54bd eb30 85bd 1fa4 623d
000000b0: 0144 ec3c cac1 973c 5f7c e6b9 16d0 e4bd
000000c0: 3526 30be b8a5 f33b de71 1b3c 3508 38be
000000d0: 4009 923d 7ac7 a3bd a7e1 f4bd 67f7 d1bd
000000e0: ec9a 35be 550b 09bd 88f4 5cbe 08aa 1ebe
000000f0: 610a 54be ccbc e83d f646 afbd 7d43 48be
00000100: 8f9e 6bbd 702d a8bd 4318 fabc c9ba 4fbe
00000110: c081 e5bd c900 25be 5c88 df3d 212c fb3b
00000120: 6f06 2abb 505d 66bd 8af3 f1bd 8b08 29be
00000130: 218c bebd 67da 173d f952 23bd 812f 18bd
00000140: dce0 37be 8c50 93bd 409c dcbd 25ea f9bc
00000150: 6d95 c23d a054 79be dfca 66be 8ddb b03c
00000160: 5987 22be 527c a23c a238 d2bd 68c0 18be
00000170: 3bdf 94bc 9e78 4ebd 7d81 d83c 05df c7bd
00000180: 6538 7dbd 3c05 3dbe 47e0 8ebb 6b6c fd3d
00000190: 832d c13d 3ebe fabd a9f0 b23d 3184 373d
000001a0: 6cf6 a73d d79e b73d e4a7 06be 0636 ea3b
000001b0: 5cd5 d23d 463a 45be 4a2a b93d 566d 3d3d
000001c0: 6d07 18be d8b2 2cbe 52e1 72bd a60a 3f3d
000001d0: 7dc9 72bd b97e 1b3e a950 e2bd 428e 7f3d
000001e0: 82c0 d33d 1a0c 403e fb23 e5bb 25a8 ddbd
000001f0: 5597 933d 86c0 823d 6871 4d3e 2566 cf3d
00000200: 18f1 f23d 7eb5 a03d 5d92 3cbd 91c7 6cbd
00000210: 87d5 ec3d c5e7 003e 63fb 17bd df72 433e
00000220: d3d1 b43d 276d 663d 1c39 80bd 9bdd 0fbe
00000230: ee95 b4bd b02a 1c3e c503 073e f0ff 283d
00000240: bd93 1fbe 0883 ff3d 60b8 5f3e 11ba a63d
00000250: 2c4f 99bd 3fdb 0abc 17ae 6b3e d4bc b9bd
00000260: 5a0e 273e b25f 493e 788c 0c3d c4c6 7abd
00000270: 5685 5f3e 406c c83c 28a8 3a3e 3388 413e
00000280: 850e ebbd 4e44 50bc c778 11bd d31f 78bd
00000290: 9657 f4bd c166 22be 9dcd 283e 3070 d13d
000002a0: 559d 8fbd 9a14 2fbe 5bb5 41be 3bea 29bb
000002b0: 961b 58be 113d febc da50 ffbb a1da f8ba
000002c0: 15cd 983c 057d 0ebe 2809 33be 36eb d63d
000002d0: 3fbc 9c3c afd6 97bd a6b7 973d d0ff f93c
000002e0: 1977 cfbd 4565 633e a095 093d b034 0e3e
000002f0: 61e5 4e3e e70b ae3d 95d1 453e 05a1 cdbd
00000300: 6e98 7d3d 318a 7e3b a978 01bc 88ad 5c3d
00000310: 2302 383e 6e8a b3bd 65df d33d a5ac 183e
00000320: 19d6 0c3e bdc6 00b8 dec7 073e 2178 ca3d
00000330: 15fb 25bd 7c15 ca3d ee5c 9c3d 8959 8abd
00000340: 298d bebd f48e 613e 31ba 1e3e 1164 05be
00000350: 05df 8ebd 9f60 8cbd 41dc ddbd a7fa 8e3d
00000360: 142a 67bb de55 0d3e 9252 fabd bdcb 923d
00000370: b6a4 28be fa19 e63d 6792 b73b bd27 9839
00000380: 221f 5a3e 4932 b13c 6906 2f3e 153c 143e
00000390: 071f fb3d 309e 033d 6030 8cbd 6bca 5e3c
000003a0: 7629 1b3e 815e 45bd 8116 8d3d f953 133e
000003b0: b1c1 133e 2466 353e 4aca b8bd 206b de3d
000003c0: 4e0d 323c 7b66 f43d e905 91bd 3e09 eabd
000003d0: 9dda c53d b460 843c cc93 9e3c 6631 403e
000003e0: f8f9 4c3e 34fa cd3d

conceptizer.encoder.0.0.bias f4 [10]
0.07252341 0.18367192 0.2546258 -0.051468328 0.3708602 0.1469608 -0.13185918 0.0327841
0.21662292 0.105818965
00000000: 2787 943d 7e14 3c3e 505e 823e 74d0 52bd
00000010: 63e1 bd3e e47c 163e 1806 07be 9f48 063d
00000020: 66d2 5d3e 9db7 d83d

conceptizer.encoder.1.0.weight f4 [5, 10, 5, 5]
-0.009721153 -0.012742612 0.010602759 0.057189956 -0.013056309 -0.002271137 0.01565705 0.008678795
-0.040246695 0.101707764 -0.053490866 0.0472147 -0.055714317 0.0066537485 -0.009805727 0.019926442
0.0067266957 0.027867502 -0.02196963 0.04985594 0.0111220535 -0.05111058 0.022636613 0.03147373
0.055991855 0.1314348 0.0783776 0.032128546 -0.0046379874 -0.010590023 0.09884232 0.032162372
-0.068660386 -0.026464166 -0.007555609 0.068276055 0.038449056 -0.008243366 -0.025744596 -0.022013089
0.000561934 0.00013696324 -0.057004143 0.06863766 0.04053918 -0.030910043 0.03318704 -0.06787741
-0.026600417 -0.07633375 0.08213591 0.046366557 -0.019122528 -0.03162979 -0.05066362 0.02653006
0.0006823913 -0.00025580495 -0.068210706 0.017063053 0.08755159 0.02897815 -0.017536642 -0.043866176
-0.030017992 0.054155108 0.020295637 -0.05135659 0.033422288 -0.05498209 0.019081945 -0.054894123
0.014398875 0.03874275 -0.019933019 0.030598769 0.02789667 -0.0017401425 0.01424218 -0.002861306
0.11532889 0.07587641 -0.054460257 0.014527344 -0.008040367 0.116470516 0.036003422 -0.06301907
-0.035554223 -0.022071589 -0.034259908 -0.02095181 -0.03489723 -0.0038274312 0.010502178 -0.007105401
-0.063709244 -0.01369958 0.044810057 0.024475299 0.064535044 0.041491665 0.016857948 -0.015919661
-0.038195018 0.0025393697 0.025270903 0.026170228 0.012548669 -0.00017366874 0.08753874 -0.0014212955
0.08220107 -0.03191577 -0.08570133 0.0472245 0.120177634 0.055823628 0.03183284 0.02439843
0.029095918 0.08408204 0.111810684 0.037315287 -0.0065864134 0.034205843 0.055257928 -0.05317849
-0.021083804 0.039479528 -0.042145908 0.022507537 -0.013655609 0.019275296 0.020829236 -0.04224381
0.020042613 0.049475234 0.033901185 0.040674288 -0.008138516 -0.05518199 0.030857421 -0.04261708
-0.03987208 -0.034909945 0.034362722 -0.030969286 -0.045411374 -0.008813181 -0.040795494 -0.07195626
-0.047693156 -0.012428034 0.026782341 0.046872657 0.010173326 -0.06507838 -0.08477161 -0.02380925
-0.011710934 -0.019443197 -0.08763526 -0.10414932 -0.021882333 -0.024796585 -0.08418117 -0.093985036
-0.08565445 -0.0561319 -0.11299514 -0.058748282 -0.026432378 -0.093972035 -0.04613808 -0.047923565
-0.061050504 0.022061197 0.044369403 0.05881338 0.0038480142 0.037863165 -0.08753643 -0.010216029
-0.01547848 0.02358258 -0.048823647 -0.08061307 -0.01932868 0.07660615 -0.017878212 0.004903828
-0.04435352 0.03220752 0.04078006 0.06049205 -0.00027564983 -0.044441335 0.047781426 0.061646737
-0.09807267 0.04336197 -0.005479832 -0.021826457 0.060070235 -0.014975717 0.030513518 0.034083348
0.02191378 0.08641718 0.013954211 -0.047125533 -0.05451962 0.03252066 0.030448634 0.016315853
0.06184123 0.022380786 0.0080652125 0.08114073 -0.03994333 0.06621624 -0.0044820257 0.03849452
0.07076735 0.019542346 -0.058999546 -0.035272676 0.069334365 0.058934007 0.018756308 0.038922478
0.008508359 -0.041337326 0.015849957 0.007350249 0.04797437 -0.04369875 0.033835735 -0.029217204
0.02754587 -0.02913936 -0.034016058 -0.05005496 0.052439976 -0.009413238 -0.054292727 0.01945548
0.06795062 -0.00082749355 0.043641113 0.028600672 0.010402652 0.06616956 0.070002936 0.026092188
00000000: 7945 1fbc 63c6 50bc 32b7 2d3c 0440 6a3d
00000010: 21ea 55bc 5bd7 14bb 3743 803c 8131 0e3c
00000020: b8d9 24bd 294c d03d 3d19 5bbd 3464 413d
00000030: b234 64bd b007 da3b 33a8 20bc c73c a33c
00000040: 9d6b dc3b 634a e43c a7f9 b3bc be35 4c3d
00000050: 4639 363c 5459 51bd 6b70 b93c 99ea 003d
00000060: b757 653d d896 063e 6f84 a03d 3999 033d
00000070: 42fa 97bb c781 2dbc d86d ca3d b1bc 033d
00000080: d19d 8cbd 61cb d8bc 0b95 f7bb 51d4 8b3d
00000090: c27c 1d3d 2f0f 07bc 55e6 d2bc cb54 b4bc
000000a0: c14e 133a ca9d 0f39 2d7d 69bd e791 8c3d
000000b0: 690c 263d 0f37 fdbc 22ef 073d 5003 8bbd
000000c0: 1ee9 d9bc de54 9cbd df36 a83d dcea 3d3d
000000d0: d9a6 9cbc 3d8e 01bd a884 4fbd 9255 d93c
000000e0: 81e2 323a 8f1d 86b9 0eb2 8bbd d1c7 8b3c
000000f0: 3f4e b33d 9663 ed3c 01a9 8fbc 05ad 33bd
00000100: 4be8 f5bc bfd1 5d3d 0943 a63c 4a5b 52bd
00000110: cfe5 083d e634 61bd bd51 9c3c a9d8 60bd
00000120: 42e9 6b3c b8b0 1e3d 924a a3bc 45aa fa3c
00000130: 8f87 e43c 7e15 e4ba 0858 693c c084 3bbb
00000140: 8e31 ec3d 1765 9b3d b811 5fbd 1904 6e3c
00000150: bebb 03bc 1888 ee3d 5378 133d 2410 81bd
00000160: 4ea1 11bd 7acf b4bc 1e54 0cbd 21a3 abbc
00000170: 66f0 0ebd a4d5 7abb 5411 2c3c 6cd4 e8bb
00000180: fe79 82bd 3474 60bc c08a 373d 6c80 c83c
00000190: f32a 843d 2af3 293d ae19 8a3c f369 82bc
000001a0: 6172 1cbd 8e6b 263b ed04 cf3c f262 d63c
000001b0: ef98 4d3c d91a 36b9 8347 b33d c34a baba
000001c0: 0959 a83d 1cba 02bd 2e84 afbd 7a6e 413d
000001d0: b11f f63d 51a7 643d 2763 023d 37df c73c
000001e0: 905a ee3c 3433 ac3d 00fd e43d ead7 183d
000001f0: d7d2 d7bb 6d1b 0c3d 2356 623d b0d1 59bd
00000200: f1b7 acbc 49b5 213d 30a1 2cbd ba61 b83c
00000210: c7bb 5fbc 3ae7 9d3c 13a2 aa3c d807 2dbd
00000220: 6830 a43c 8ba6 4a3d f8db 0a3d 159a 263d
00000230: 6957 05bc 8306 62bd b4c8 fc3c 3f8f 2ebd
00000240: e850 23bd bbfd 0ebd edbf 0c3d 4db3 fdbc
00000250: 4701 3abd 2965 10bc 2d19 27bd ce5d 93bd
00000260: e659 43bd f49e 4bbc a466 db3c 8bfd 3f3d
00000270: 06ae 263c d047 85bd bd9c adbd 9e0b c3bc
00000280: 38df 3fbc 5747 9fbc 1d7a b3bd 3d4c d5bd
00000290: 9442 b3bc 3522 cbbc 2d67 acbd 3a7b c0bd
000002a0: 9a6b afbd 90ea 65bd ff69 e7bd 0aa2 70bd
000002b0: b788 d8bc 6974 c0bd 49fb 3cbd 804b 44bd
000002c0: 1810 7abd afb9 b43c b1bc 353d 4ce6 703d
000002d0: f72e 7c3b 6816 1b3d 4d46 b3bd 2261 27bc
000002e0: 7399 7dbc 4130 c13c 4efb 47bd 7718 a5bd
000002f0: 2e57 9ebc afe3 9c3d 5475 92bc 4ab0 a03b
00000300: 09ac 35bd 08ec 033d fe08 273d 83c6 773d
00000310: 1885 90b9 1e08 36bd 75b6 433d 4a81 7c3d
00000320: 53da c8bd 529c 313d 2a90 b3bb 66cd b2bc
00000330: 350c 763d b65c 75bc 7cf7 f93c fb9a 0b3d
00000340: 8784 b33c 7efb b03d 34a0 643c b406 41bd
00000350: f74f 5fbd 6234 053d 6a6f f93c d3a8 853c
00000360: 3b4d 7d3d e957 b73c f423 043c 1c2d a63d
00000370: 9e9b 23bd 619c 873d f5dd 92bb 6eac 1d3d
00000380: 79ee 903d 4517 a03c 82a9 71bd 157a 10bd
00000390: 2dff 8d3d c964 713d d4a6 993c 2d6d 1f3d
000003a0: a566 0b3c 5451 29bd c5d7 813c 5cda f03b
000003b0: c680 443d 76fd 32bd 5797 0a3d eb58 efbc
000003c0: e0a7 e13c abb5 eebc 6c54 0bbd 6e06 4dbd
000003d0: 4dcb 563d fb39 1abc 0d62 5ebd 1961 9f3c
000003e0: b229 8b3d 27ec 58ba 06c1 323d f54b ea3c
000003f0: e36f 2a3c e883 873d b35d 8f3d 49bf d53c

conceptizer.encoder.1.0.bias f4 [5]
0.070428684 0.027289193 -0.01956052 0.058429025 0.14758871
00000000: ea3c 903d 968d df3c 623d a0bc 4653 6f3d
00000010: 7f21 173e

conceptizer.encoder.2.layers.0.weight f4 [1, 16]
0.0012546015 -0.22398344 -0.10741208 -0.19216505 0.12096361 0.029720958 0.0805807 -0.18652822
-0.1743229 -0.25239715 -0.15315899 -0.21554111 -0.019274537 -0.24793214 -0.17079447 -0.02519931
00000000: 7171 a43a ea5b 65be ddfa dbbd eac6 44be
00000010: c5bb f73d 5e79 f33c 7e07 a53d 4101 3fbe
00000020: b481 32be 333a 81be b6d5 1cbe cfb6 5cbe
00000030: a2e5 9dbc ece1 7dbe bfe4 2ebe c96e cebc

conceptizer.encoder.2.layers.1.weight f4 [1, 16]
0.27292874 -0.18591776 0.049024317 0.17074442 0.026999239 0.11208037 -0.23000573 0.20314944
0.1382245 -0.21207008 -0.037091658 0.03323861 0.29003003 -0.03718628 0.029533124 0.19922058
00000000: 51bd 8b3e 3a61 3ebe b9cd 483d a0d7 2e3e
00000010: 822d dd3c 658a e53d 9f86 6bbe 6806 503e
00000020: b98a 0d3e e628 59be 6ced 17bd 3525 083d
00000030: d17e 943e a450 18bd 73ef f13c 7b00 4c3e

conceptizer.encoder.2.layers.2.weight f4 [1, 16]
-0.1927283 0.3290987 0.31191915 0.25753668 0.116346955 0.019447036 0.21580182 -0.072008595
-0.25886336 -0.052973643 0.053810365 -0.10635899 -0.2833011 0.0031664115 0.0043875505 -0.011548671
00000000: 915a 45be a07f a83e deb3 9f3e d9db 833e
00000010: 5047 ee3d 644f 9f3c 27fb 5c3e 3e79 93bd
00000020: bd89 84be e4fa 58bd 4268 5c3d bed2 d9bd
00000030: d70c 91be 9283 4f3b 71c5 8f3b a336 3dbc

conceptizer.encoder.2.layers.3.weight f4 [1, 16]
0.26657778 0.089786604 -0.08737374 0.2218411 0.0044392333 0.02953524 0.098012604 0.16679682
-0.12631957 0.12546651 -0.07817729 0.1258576 0.079119734 -0.13463044 -0.10348302 -0.14342442
00000000: e27c 883e 0ae2 b73d 01f1 b2bd 502a 633e
00000010: fd76 913b e3f3 f13c d5ba c83d c9cc 2a3e
00000020: eb59 01be 4b7a 003e 6a1b a0bd d1e0 003e
00000030: 8709 a23d 90dc 09be e8ee d3bd dadd 12be

conceptizer.encoder.2.layers.4.weight f4 [1, 16]
0.055720914 -0.15987252 -0.08151539 -0.03737531 -0.3261706 -0.051055793 0.053393908 -0.12638012
-0.15706366 -0.19609982 -0.21014814 -0.03479226 -0.0833654 0.13262641 0.043336276 -0.065049306
00000000: 9d3b 643d 9fb5 23be 8af1 a6bd da16 19bd
00000010: d5ff a6be e11f 51bd 92b3 5a3d ca69 01be
00000020: 4cd5 20be 64ce 48be 1331 57be 5482 0ebd
00000030: 7bbb aabd 38cf 073e 6181 313d 9238 85bd

conceptizer.decoder.0.0.weight f4 [5, 16, 5, 5]
-0.10991185 0.0745895 0.04572431 -0.14191654 -0.0827562 0.1104914 -0.04158587 0.03161758
-0.029791322 -0.1060652 -0.08680404 -0.027049163 -0.0047728214 -0.12869798 0.18075444 -0.02737899
0.032021914 -0.095796324 -0.101222515 0.109119564 -0.10472461 -0.07337846 0.08774071 -0.14779235
-0.14159486 -0.0064722043 0.17227732 -0.0782097 0.14291382 0.11209901 -0.0466008 0.08543148
-0.12362291 0.09991054 0.052757792 0.12618335 -0.030524306 0.025026962 -0.04743455 -0.043783184
0.14775716 -0.15201144 -0.101995885 0.08988311 0.019925144 -0.043400098 -0.068497464 -0.054164253
-0.0076793907 0.07307086 0.107798085 -0.05947603 -0.14823265 -0.051808096 0.11261732 -0.037090026
-0.06825707 -0.09714275 0.034814492 0.004431001 -0.094379134 -0.004011859 0.108430415 0.0050504175
-0.11335577 0.08433137 -0.088688895 0.023622017 0.14090322 0.049574055 -0.12787229 -0.16455
0.015926924 0.07129841 -0.015641928 -0.09466177 -0.2458933 -0.12567873 0.095605254 -0.026604753
-0.13284881 0.11158496 -0.17447764 -0.2958408 0.0042476007 -0.07727059 -0.12905397 0.06288705
0.06693269 0.027107736 -0.036823273 -0.025784817 -0.14965911 -0.20667316 -0.011334921 -0.094753265
-0.13526392 0.063238494 0.07670975 0.15295768 -0.13205078 -0.14285135 -0.0905836 -0.15264884
0.119364016 -0.102983095 0.09754401 0.04146695 -0.058654733 -0.06640394 0.13251261 0.0818419
-0.13971417 -0.05368447 0.023801638 0.03377804 -0.042735934 0.08711593 0.12398216 -0.09836575
-0.1028172 0.040739447 0.0809849 0.13367532 0.14681697 0.08443348 -0.04844862 -0.02093164
0.07674721 0.09227591 -0.27413702 -0.10698179 0.021217648 -0.03443563 -0.093080014 -0.07804634
-0.104312114 0.07296786 0.058638923 0.004516808 0.03286829 -0.0034609989 -0.17212538 -0.24974535
0.0927758 0.14980468 -0.12442732 0.036200076 0.0537304 0.052243568 0.078103386 -0.10490544
0.044428848 -0.100166544 0.1833167 -0.07767916 -0.023000319 -0.05110751 -0.054973498 0.07516557
0.025561588 -0.040231533 -0.058743466 0.14652467 -0.06727343 0.06620452 -0.03581331 0.026450766
0.08793163 -0.11744997 -0.14221327 0.093948275 0.036949992 -0.14036834 -0.15991263 0.025916914
0.0048359414 0.066407785 -0.010332159 0.051986493 0.03547614 0.12627618 -0.118181325 0.029907824
0.0029525764 0.12522218 0.07885309 -0.019436497 -0.05420636 -0.14650996 0.03424901 0.12052179
-0.21166444 0.028305106 -0.11067869 0.024791026 -0.045168508 0.07065476 0.09913459 -0.22006854
0.10915739 0.007973698 -0.12200837 -0.08608332 -0.10564735 -0.002946523 -0.094990775 0.02211495
-0.03617814 0.08019363 0.1489303 0.04815611 -0.108257905 -0.02937031 0.028817374 0.0001801242
-0.091938354 0.034687698 0.018625362 0.041182023 0.013656722 0.014956459 -0.117236845 -0.075152636
0.070539534 -0.005699574 0.044297297 0.12580454 0.20980859 -0.10413605 0.12472776 0.09464838
0.18109249 -0.005722453 0.15153164 -0.19230051 -0.02881294 0.09465054 0.06972579 -0.047369365
-0.027206834 0.023288324 0.023989217 -0.026150966 -0.03388384 -0.18455668 0.167585 0.11013774
0.0036688235 -0.042828687 -0.010456831 0.020291477 0.21042033 -0.07687753 -0.2406975 -0.036336757
00000000: 7719 e1bd 61c2 983d 6a49 3b3d 9252 11be
00000010: 157c a9bd 5149 e23d f255 2abd 7081 013d
00000020: ee0c f4bc b638 d9bd 51c6 b1bd 3596 ddbc
00000030: 5465 9cbb 67c9 03be b117 393e e749 e0bc
00000040: 6929 033d dd30 c4bd c04d cfbd 147a df3d
00000050: db79 d6bd 7247 96bd 67b1 b33d e156 17be
00000060: 3efe 10be c914 d4bb 7769 303e 682c a0bd
00000070: 0058 123e 2a94 e53d 7be0 3ebd b3f6 ae3d
00000080: 022e fdbd e69d cc3d 8e18 583d 3536 013e
00000090: 1c0e fabc 5805 cd3c bb4a 42bd ff55 33bd
000000a0: a74d 173e e3a8 1bbe 38e3 d0bd a314 b83d
000000b0: 0e3a a33c 4dc4 31bd 6648 8cbd 56db 5dbd
000000c0: 66a3 fbbb 2da6 953d 3ec5 dc3d 239d 73bd
000000d0: 4dca 17be ba34 54bd e9a3 e63d b6eb 17bd
000000e0: 5dca 8bbd c7f2 c6bd a499 0e3d ee31 913b
000000f0: d949 c1bd ea75 83bb c410 de3d f97d a53b
00000100: 1227 e8bd edb5 ac3d 86a2 b5bd f682 c13c
00000110: ef48 103e 2a0e 4b3d f4f0 02be cc7f 28be
00000120: 2e79 823c e704 923d 8023 80bc 08de c1bd
00000130: 74cb 7bbe edb1 00be b0cc c33d 36f2 d9bc
00000140: 8509 08be a886 e43d 44aa 32be 7278 97be
00000150: 752f 8b3b 0b40 9ebd b926 04be edca 803d
00000160: 0214 893d 0b11 de3c 00d4 16bd ae3a d3bc
00000170: 3d40 19be 21a2 53be 1bb6 39bc 000e c2bd
00000180: a082 0abe 2f83 813d 001a 9d3d f0a0 1c3e
00000190: 5238 07be a047 12be e583 b9bd fa4f 1cbe
000001a0: 1f75 f43d cde8 d2bd 27c5 c73d 40d9 293d
000001b0: f23f 70bd cafe 87bd 63b1 073e ba9c a73d
000001c0: 3b11 0fbe 3fe4 5bbd a7fb c23c d85a 0a3d
000001d0: e00b 2fbd d669 b23d 5cea fd3d fb73 c9bd
000001e0: d391 d2bd 68de 263d 69db a53d 2fe2 083e
000001f0: 3057 163e 76eb ac3d 0f72 46bd d578 abbc
00000200: a42d 9d3d 27fb bc3d b05b 8cbe 4519 dbbd
00000210: a2d0 ad3c 600c 0dbd bca0 bebd c2d6 9fbd
00000220: 97a1 d5bd 2c70 953d 5e2f 703d bb01 943b
00000230: e6a0 063d edd1 62bb a341 30be 3fbd 7fbe
00000240: 3d01 be3d 6666 193e c0d3 febd 8846 143d
00000250: 6814 5c3d 5afd 553d abf4 9f3d aad8 d6bd
00000260: 06fb 353d 1e24 cdbd 5fb7 3b3e 4016 9fbd
00000270: 2a6b bcbc 1c56 51bd e42b 61bd 68f0 993d
00000280: 8966 d13c d2c9 24bd fd9c 70bd 900a 163e
00000290: a7c6 89bd 3c96 873d fab0 12bd 47af d83c
000002a0: 8015 b43d 9c89 f0bd 5ba0 11be f467 c03d
000002b0: e058 173d b8bc 0fbe 23c0 23be b54f d43c
000002c0: d176 9e3b ce00 883d 3748 29bc caef 543d
000002d0: 6e4f 113d 8b4e 013e 0d09 f2bd 4101 f53c
000002e0: 0380 413b 3e3a 003e bb7d a13d 4a39 9fbc
000002f0: 7d07 5ebd b506 16be b148 0c3d 21d4 f63d
00000300: 90be 58be 1ce0 e73c 82ab e2bd 8d16 cb3c
00000310: 9d02 39bd 71b3 903d 1307 cb3d a659 61be
00000320: e98d df3d 1da4 023c 86df f9bd 744c b0bd
00000330: a35d d8bd 741a 41bb 868a c2bd 692a b53c
00000340: 882f 14bd 8f3c a43d 2f81 183e 573f 453d
00000350: 52b6 ddbd 019a f0bc 6a12 ec3c b9df 3c39
00000360: 2d4a bcbd b014 0e3d 3794 983c 7bae 283d
00000370: 72c0 5f3c f00b 753c df19 f0bd a0e9 99bd
00000380: 0877 903d 7ec3 babb 1571 353d e8d2 003e
00000390: 10d8 563e 4845 d5bd 4571 ff3d 03d7 c13d
000003a0: 4f70 393e 6a83 bbbb 1c2b 1b3e 6dea 44be
000003b0: 1d09 ecbc 24d8 c13d 65cc 8e3d 6106 42bd
000003c0: dee0 debc 28c7 be3c 0985 c43c 8d3a d6bc
000003d0: c8c9 0abd 6dfc 3cbe 679b 2b3e e58f e13d
000003e0: a570 703b 226d 2fbd 2153 2bbc 503a a63c
000003f0: 6d78 573e f771 9dbd 6879 76be dad5 14bd

conceptizer.decoder.0.0.bias f4 [16]
0.06235299 0.020525968 0.042471882 0.075484306 -0.005712983 0.060765613 0.047871333 0.06030577
0.013864948 0.050359942 0.017741265 0.022309432 0.071061224 -0.13915598 -0.077924915 0.04770736
00000000: d965 7f3d 1326 a83c fff6 2d3d 8497 9a3d
00000010: fa33 bbbb 5de5 783d bb14 443d 2f03 773d
00000020: cf29 633c 3a46 4e3d 2156 913c 45c2 b63c
00000030: 8c88 913d e87e 0ebe 1997 9fbd cb68 433d

conceptizer.decoder.2.0.weight f4 [16, 8, 5, 5]
-0.037195012 0.026210336 0.09694273 0.07240465 0.124777324 -0.05045862 0.15671323 0.1361153
0.044693947 0.11352038 0.09014606 0.13172975 0.110777184 0.13421202 0.02637605 0.14864871
0.11876893 0.13763201 0.064129256 -0.030283323 0.16809765 0.06448282 0.06553012 0.091357805
0.00013477 -0.0064020813 -0.043235805 0.034779135 0.12266624 0.13074048 0.065984696 0.014993562
0.07037856 0.18302564 0.1407826 -0.0017667281 0.069681674 0.08691764 0.1128523 0.09471904
0.016075134 0.06939178 0.1526462 0.18781236 0.14629869 0.08569376 0.09086837 0.14543258
0.09313291 0.074016735 -0.012724218 -0.063671306 -0.046977732 0.04188214 0.06017092 -0.10036578
-0.012662743 0.0011738121 0.05144398 0.14296393 -0.040593773 -4.6140907e-05 0.00022847677 0.11872774
0.09922682 0.0760286 0.12269817 0.09174993 0.082577296 0.10803573 0.09083425 0.020621896
0.1460472 0.16435122 0.120223515 -0.09267665 0.06609899 0.0103338715 0.071607 0.05224033
0.03954395 -0.0031728323 -0.094265684 -0.06943906 -0.041545313 -0.12987784 -0.024647942 -0.10762147
-0.13090253 -0.07602453 -0.17793204 -0.10072914 -0.19602713 -0.14228089 -0.13107254 0.060541812
-0.029396275 -0.14919443 -0.1275073 -0.14701416 0.1006008 0.075756446 -0.032651193 -0.12630741
-0.020751014 0.13885695 0.041041847 -0.06866998 -0.16899006 0.044351988 0.034151636 -0.1633144
-0.17933993 -0.11991589 0.0034696073 -0.07702866 -0.10538802 -0.17865115 -0.15780823 -0.13552503
-0.08483781 -0.14777718 -0.17542939 -0.1573007 0.11010892 0.14606273 0.23160855 0.03615392
-0.20151083 -0.097937785 0.15494888 0.09212534 -0.06737316 -0.28214094 -0.1907372 0.04320839
-0.10032447 -0.11202468 -0.18915404 -0.18548673 0.018300964 -0.09379385 -0.14911342 -0.28231022
-0.25781462 0.010677971 -0.076648764 -0.03038905 -0.117197156 -0.13878019 0.09660538 0.13278887
-0.021878203 -0.073033646 0.033939864 0.044258982 -0.05408109 -0.14684485 -0.17579482 -0.047489215
-0.012671105 -0.14303124 -0.20137921 -0.21751797 -0.24902087 -0.09571339 -0.12797222 -0.17029072
-0.26235378 -0.06903177 -0.09924182 -0.13648038 -0.10857243 -0.2241616 -0.07859114 -0.03749242
-0.04426729 0.07268851 0.054687444 -0.08863968 -0.15435451 -0.008653456 -0.021880383 0.075798646
-0.063248836 -0.15404096 -0.0075721857 0.02137965 0.072026335 0.083702505 -0.0037640745 -0.006091201
0.009559301 0.15072703 0.14020395 -0.20649232 0.0013918792 -0.0066762865 0.18656586 0.17669313
0.0349092 -0.049148664 0.08135232 0.05206924 0.020234091 0.059685897 -0.07381677 0.08389466
0.094023876 0.031885855 0.059587944 -0.10232934 0.059847686 0.14097863 -0.017375417 -0.0059635765
-0.018662112 0.07387439 0.12258108 -0.035396833 0.032159593 0.033235066 0.06501926 0.10131302
0.07334614 0.0842321 0.107760884 0.108077966 0.05394288 0.07431548 0.075072244 0.057103284
0.03965192 0.12559983 0.07419037 0.14634383 0.1157953 0.08684133 0.14297074 0.12112833
0.1347037 0.09197495 0.006560091 0.031234773 0.12475388 0.03862667 -0.032904163 0.0058415597
0.100224234 0.055683978 -0.0090220375 0.002739892 0.010745555 0.075683236 -0.010828391 0.11843644
00000000: cc59 18bd 0fb7 d63c e989 c63d e448 943d
00000010: 418b ff3d b3ad 4ebd 6f79 203e cf61 0b3e
00000020: 0011 373d 5f7d e83d 7f9e b83d 2ae4 063e
00000030: 26df e23d e06e 093e 9612 d83c 5e37 183e
00000040: 203d f33d 68ef 0c3e 3356 833d bb14 f8bc
00000050: ca21 2c3e 920f 843d a834 863d cd19 bb3d
00000060: 0c51 0d39 8dc8 d1bb 0718 31bd 9174 0e3d
00000070: 7038 fb3d d5e0 053e fc22 873d 8fa7 753c
00000080: a222 903d 136b 3b3e 5029 103e 8f91 e7ba
00000090: 44b5 8e3d e001 b23d 1b1f e73d 0efc c13d
000000a0: 00b0 833c 471d 8e3d 494f 1c3e e251 403e
000000b0: 53cf 153e 3680 af3d 3219 ba3d 47ec 143e
000000c0: 78bc be3d 1696 973d 3d79 50bc 1a66 82bd
000000d0: b96b 40bd 9b8c 2b3d c875 763d 938c cdbd
000000e0: 6577 4fbc 99da 993a ecb6 523d 2365 123e
000000f0: a845 26bd 6c87 41b8 4493 6f39 8827 f33d
00000100: 6e37 cb3d e2b4 9b3d 2e49 fb3d 63e7 bb3d
00000110: 491e a93d d641 dd3d 4f07 ba3d 40ef a83c
00000120: 668d 153e b04b 283e bf37 f63d 41cd bdbd
00000130: e85e 873d 664f 293c b1a6 923d f5f9 553d
00000140: d6f8 213d 4bef 4fbb 5e0e c1bd 1136 8ebd
00000150: 6b2b 2abd b2fe 04be 7bea c9bc a568 dcbd
00000160: 500b 06be c0b2 9bbd d133 36be 144b cebd
00000170: 56bb 48be 15b2 11be e137 06be b1fa 773d
00000180: 75d0 f0bc 6dc6 18be 4691 02be e18a 16be
00000190: cb07 ce3d 3226 9b3d 42bd 05bd bb56 01be
000001a0: 08fe a9bc 8430 0e3e 7f1b 283d d9a2 8cbd
000001b0: bb0b 2dbe 6eaa 353d 96e2 0b3d e43b 27be
000001c0: e3a4 37be 7696 f5bd 5a62 633b 34c1 9dbd
000001d0: add5 d7bd 54f0 36be 7b98 21be 13c7 0abe
000001e0: 72bf adbd e752 17be c3a3 33be 6f13 21be
000001f0: c980 e13d 7891 153e cb2a 6d3e 2216 143d
00000200: db58 4ebe 9b93 c8bd ebaa 1e3e 36ac bc3d
00000210: f0fa 89bd c774 90be 9d50 43be 48fb 303d
00000220: ea76 cdbd 326d e5bd 99b1 41be 3cf0 3dbe
00000230: e7eb 953c fd16 c0bd 30b1 18be f78a 90be
00000240: 4700 84be a8f2 2e3c 07fa 9cbd 75f2 f8bc
00000250: 1005 f0bd 651c 0ebe 0bd9 c53d cef9 073e
00000260: eb39 b3bc aa92 95bd 8704 0b3d e848 353d
00000270: 2284 5dbd 7f5e 16be 8f03 34be 0d84 42bd
00000280: 779a 4fbc c876 12be 5a36 4ebe 08bd 5ebe
00000290: 54ff 7ebe 6205 c4bd 260b 03be b160 2ebe
000002a0: 3c53 86be 8760 8dbd 4c3f cbbd 83c1 0bbe
000002b0: 395b debd 9e8a 65be 64f4 a0bd a791 19bd
000002c0: 9e51 35bd b7dd 943d f1ff 5f3d b888 b5bd
000002d0: 1c0f 1ebe 3ac7 0dbc 7d3e b3bc 523c 9b3d
000002e0: 9b88 81bd eabc 1dbe 1920 f8bb 6024 af3c
000002f0: 8b82 933d 386c ab3d b1ae 76bb b398 c7bb
00000300: 9d9e 1c3c 3058 1a3e a091 0f3e b972 53be
00000310: b76f b63a c0c4 dabb 1f0b 3f3e 0bef 343e
00000320: f3fc 0e3d 1c50 49bd 0c9c a63d 8e46 553d
00000330: f7c1 a53c 3379 743d 3f2d 97bd f7d0 ab3d
00000340: 978f c03d be9a 023d 7d12 743d 0c92 d1bd
00000350: d922 753d b45c 103e e456 8ebc 1b6a c3bb
00000360: 49e1 98bc 754b 973d ca0b fb3d 45fc 10bd
00000370: c7b9 033d 7e21 083d d128 853d 337d cf3d
00000380: 8036 963d e181 ac3d bdb1 dc3d fb57 dd3d
00000390: 36f3 5c3d b732 983d 7abf 993d 22e5 693d
000003a0: 0d6a 223d 3e9d 003e 1ff1 973d 28db 153e
000003b0: 1626 ed3d ded9 b13d ec66 123e 2112 f83d
000003c0: c4ef 093e 5d5d bc3d 08f6 d63b 11e0 ff3c
000003d0: f67e ff3d 0037 1e3d 84c6 06bd 8e6a bf3b
000003e0: 5d42 cd3d e214 643d 2bd1 13bc c38f 333b
000003f0: 200e 303c d0ff 9a3d 9069 31bc ce8e f23d

conceptizer.decoder.2.0.bias f4 [8]
0.05406105 0.009054678 0.06820862 0.08758141 0.07941892 0.08294883 0.068730235 -0.05460197
00000000: 1f6f 5d3d 125a 143c f6b0 8b3d e25d b33d
00000010: 63a6 a23d 14e1 a93d 70c2 8c3d 51a6 5fbd

conceptizer.decoder.4.0.weight f4 [8, 1, 2, 2]
-0.29168418 -0.018112626 -0.23427813 0.68321836 0.5161778 0.52468765 0.6370156 0.5891463
0.6035076 0.5085253 0.45435855 -0.14329481 -0.692378 -0.70325196 -0.6357094 -0.74762875
-0.52458245 -0.70648634 -0.016085654 -0.29250458 -0.6035496 -0.1448692 -0.81912005 -0.6052994
-0.17156442 -0.72866327 -0.25906596 -0.35343954 0.7193808 -0.2490752 0.5087227 -0.30430448
00000000: a157 95be ee60 94bc 9be6 6fbe 66e7 2e3f
00000010: 3a24 043f ee51 063f 7413 233f 4bd2 163f
00000020: 797f 1a3f b72e 023f afa1 e83e e0bb 12be
00000030: af3f 31bf 5208 34bf dabd 22bf 9964 3fbf
00000040: 094b 06bf 4adc 34bf 10c6 83bc 29c3 95be
00000050: 3a82 1abf 9758 14be dab1 51bf e7f4 1abf
00000060: 95ae 2fbe ad89 3abf 4ba4 84be 07f6 b4be
00000070: 5729 383f 920d 7fbe a73b 023f cccd 9bbe

conceptizer.unlinear.weight f4 [16, 1]
-0.94132715 0.62568367 -0.78473324 -1.2726641 -1.0115935 -0.8514189 0.99782765 -0.962472
-0.8771864 -1.0695422 1.0422511 0.4901411 -0.99012154 0.06696948 -0.63508826 0.7740353
00000000: d1fa 70bf ce2c 203f 47e4 48bf a8e6 a2bf
00000010: e57b 81bf 97f6 59bf a271 7f3f 9164 76bf
00000020: 4a8f 60bf c2e6 88bf 7c68 853f c6f3 fa3e
00000030: 9b78 7dbf 4b27 893d 2595 22bf 2d27 463f

conceptizer.unlinear.bias f4 [16]
0.72508705 -0.28730145 -1.1081305 0.9224597 0.6635234 0.23166528 -0.4378447 0.3660497
0.3964156 -0.66807073 -0.65462035 0.51535916 -0.14759424 -0.62731904 -0.6462946 0.077336624
00000000: 4e9f 393f 2d19 93be 38d7 8dbf 5226 6c3f
00000010: abdc 293f aa39 6d3e 2e2d e0be de6a bb3e
00000020: fcf6 ca3e af06 2bbf 3395 27bf 94ee 033f
00000030: f222 17be fb97 20bf 9073 25bf aa62 9e3d

parameterizer.cl_layers.0.weight f4 [10, 1, 5, 5]
0.089830905 0.010597944 0.11953293 0.12354715 0.04674481 0.018051734 0.21855687 -0.03280091
-0.131856 -0.12314194 0.08039023 0.11821833 0.07226652 0.12518395 0.07734018 -0.1471267
-0.102452174 -0.16384096 -0.19693688 -0.21205972 0.016568068 -0.25963387 -0.28385672 -0.25641215
-0.19292007 -0.2085966 -0.12880522 0.100736044 -0.040873192 -0.037939154 -0.28094262 -0.19212177
-0.04673937 -0.0878463 -0.084878415 -0.14578788 0.007315767 -0.16336463 -0.07284348 -0.14502797
0.18377113 -0.034979858 -0.012597461 -0.2139528 -0.090661414 0.2616102 0.08967207 -0.12242793
0.07226944 -0.15574104 -0.13528259 0.022891194 0.06105178 0.09340212 0.08583451 0.040110674
-0.07132064 0.15378642 0.07832849 0.11903404 0.09800294 0.009199682 -0.031086298 0.107024744
0.03507504 -0.09960354 -0.101604775 0.15286039 0.005089551 0.11496555 0.072401665 -0.15382536
-0.041291878 -0.031107958 0.19211729 -0.088684015 0.15925643 0.14891239 0.098845586 0.1335091
0.092981875 -0.061153922 0.11080076 0.089033745 0.06910827 -0.012569115 -0.16658257 -0.09536355
-0.096273825 -0.13486965 0.13257657 -0.21114258 0.16036494 -0.07047651 0.11132062 -0.2126235
-0.21691483 0.11054402 -0.17975189 0.17702895 0.054240543 0.03889489 -0.35073856 -0.18449391
-0.20996927 -0.053171575 0.06767245 -0.30110493 -0.2740535 -0.08457281 0.07269218 0.0016918918
-0.06227779 0.12893541 0.10888723 0.12444323 -0.058827262 -0.067555845 0.02536355 0.049914367
-0.029918665 -0.18387777 -0.1611116 0.16376385 0.041133825 -0.21857367 -0.12143795 0.18299139
-0.06514483 -0.057560083 0.08727485 -0.19537228 -0.17060468 0.107158154 0.18943156 0.143689
-0.18346834 0.12132769 0.08734171 -0.05844262 0.10861362 -0.23025894 0.103994034 0.1581822
-0.046947893 -0.19776471 0.04853862 -0.12610805 0.2141242 0.059212882 -0.0040397183 -0.08010634
0.113916524 0.16172232 -0.19625005 -0.09115091 -0.14460051 0.19215418 0.13079374 -0.054785553
0.05352521 -0.042763505 0.2355198 -0.08270601 -0.17579594 0.019617518 0.16338874 -0.027167968
0.21057026 -0.22811495 -0.16758953 -0.10588784 -0.050019957 0.21202019 -0.02289184 0.1861303
-0.16925493 -0.17156507 -0.21064292 0.13793132 0.1770278 -0.13628292 -0.07110881 -0.15584451
0.038410448 0.07598916 0.16292067 -0.24218369 -0.27628613 -0.087558754 0.03165343 -0.122638494
0.06811664 -0.27529353 0.06518707 -0.11031043 -0.122971795 0.031905916 -0.21000624 -0.22103806
-0.11020861 -0.23346953 -0.18627143 0.21473156 -0.074114166 0.18993327 0.13623193 0.14502746
0.018627519 0.12856168 0.050689153 0.11189362 -0.043033812 0.038028583 -0.07767967 -0.1526893
0.12785764 0.09686715 -0.1835809 -0.18063697 0.011042876 -0.20407873 0.15057284 -0.18954863
0.1769835 -0.059240192 -0.24279308 -0.1895146 -0.119270585 0.1895066 -0.06344213 0.14019413
0.1466255 0.025146866 0.08100102 0.105190985 0.10876328 0.165125 0.041999094 -0.12580527
0.035947554 0.041114867 -0.004330872 0.043551113 -0.13346891 0.041819848 0.0041258894 -0.07353171
-0.040863805 0.10153507
00000000: 44f9 b73d 00a3 2d3c aecd f43d 4a06 fd3d
00000010: 7c77 3f3d 3be1 933c 5fcd 5f3e 3f5a 06bd
00000020: 4205 07be d731 fcbd a2a3 a43d 741c f23d
00000030: 7800 943d 3930 003e 8764 9e3d 62a8 16be
00000040: 72d2 d1bd edc5 27be d2a9 49be 2f26 59be
00000050: c2b9 873c bbee 84be ab55 91be 7448 83be
00000060: d78c 45be 599a 55be 84e5 03be b34e ce3d
00000070: a66a 27bd 1666 1bbd b6d7 8fbe 92bb 44be
00000080: c871 3fbd c3e8 b3bd bcd4 adbd 6b49 15be
00000090: 1ab9 ef3b 0f49 27be f62e 95bd 3682 14be
000000a0: 802e 3c3e 0a47 0fbd 9565 4ebc 7116 5bbe
000000b0: b1ac b9bd c6f1 853e fea5 b73d 7fbb fabd
000000c0: 0002 943d 947a 1fbe 8587 0abe 5086 bb3c
000000d0: 6e11 7a3d 9c49 bf3d 01ca af3d 174b 243d
000000e0: 8e10 92bd 307a 1d3e b06a a03d 1ec8 f33d
000000f0: c4b5 c83d 43ba 163c b1a8 febc ca2f db3d
00000100: d8aa 0f3d f1fc cbbd 2a16 d0bd 6f87 1c3e
00000110: 40c6 a63b 0f73 eb3d 5347 943d 6584 1dbe
00000120: ac21 29bd 1ed6 febc 65ba 443e f79f b5bd
00000130: 1e14 233e 7d7c 183e 8e6f ca3d 9cb6 083e
00000140: 486d be3d 897c 7abd 82eb e23d 5357 b63d
00000150: a388 8d3d b0ee 4dbc 9f94 2abe f74d c3bd
00000160: 362b c5bd 451b 0abe 27c2 073e c335 58be
00000170: b536 243e fd55 90bd 11fc e33d fab9 59be
00000180: ec1e 5ebe e764 e23d e110 38be 1447 353e
00000190: 552b 5e3d 4050 1f3d 0194 b3be f9eb 3cbe
000001a0: 2f02 57be 70ca 59bd da97 8a3d 6d2a 9abe
000001b0: be50 8cbe 8234 adbd a3df 943d 78c2 dd3a
000001c0: ff16 7fbd a507 043e 4500 df3d 18dc fe3d
000001d0: dbf4 70bd b85a 8abd 38c7 cf3c 0273 4c3d
000001e0: fd17 f5bc 744a 3cbe 70fa 24be b6b1 273e
000001f0: f17b 283d c7d1 5fbe 76b4 f8bd 1862 3b3e
00000200: a76a 85bd 1fc4 6bbd 28bd b23d ac0f 48be
00000210: feb2 2ebe bc75 db3d 59fa 413e 3623 133e
00000220: 20df 3bbe a77a f83d 36e0 b23d 8761 6fbd
00000230: d170 de3d 00c9 6bbe d3fa d43d 84fa 213e
00000240: 6f4c 40bd d582 4abe 6fd0 463d 7822 01be
00000250: 6043 5b3e 3589 723d 9d5f 84bb cb0e a4bd
00000260: 114d e93d 899a 253e c6f5 48be 54ad babd
00000270: 2812 14be 11c4 443e cbee 053e d166 60bd
00000280: 403d 5b3d c928 2fbd 1a2c 713e c561 a9bd
00000290: da03 34be ebb4 a03c 614f 273e 5c8f debc
000002a0: bb9f 573e f796 69be 979c 2bbe b9db d8bd
000002b0: bae1 4cbd d21b 593e ab87 bbbc f198 3e3e
000002c0: 2a51 2dbe c1ae 2fbe c7b2 57be de3d 0d3e
000002d0: c746 353e c08d 0bbe 7fa1 91bd b495 1fbe
000002e0: 4654 1d3d 34a0 9b3d add4 263e 00ff 77be
000002f0: 6075 8dbe 0152 b3bd 07a7 013d e429 fbbd
00000300: bd80 8b3d 46f3 8cbe cc80 853d 6fea e1bd
00000310: a3d8 fbbd c7af 023d e00b 57be cd57 62be
00000320: 0db5 e1bd a312 6fbe f0bd 3ebe 97e2 5b3e
00000330: 2bc9 97bd de7d 423e 6280 0b3e 1482 143e
00000340: bd98 983c aca5 033e 6e9f 4f3d 7b28 e53d
00000350: 3944 30bd dcc3 1b3d 8516 9fbd 955a 1cbe
00000360: 1ded 023e 4962 c63d a2fc 3bbe e6f8 38be
00000370: 2eed 343c 04fa 50be c42f 1a3e 0919 42be
00000380: 2a3b 353e d8a5 72bd c09e 78be 1e10 42be
00000390: 2344 f4bd 050e 423e f3ed 81bd 0d8f 0f3e
000003a0: ff24 163e cd00 ce3c dde3 a53d 5f6e d73d
000003b0: 48bf de3d 8716 293e 3e07 2c3d 19d3 00be
000003c0: be3d 133d 1068 283d fde9 8dbb a762 323d
000003d0: 13ac 08be 4a4b 2b3d 7832 873b cb97 96bd
000003e0: ce60 27bd 9ef1 cf3d

parameterizer.cl_layers.0.bias f4 [10]
0.099564664 0.049136035 -0.13708593 0.11452697 -0.0094401855 0.11496366 -0.014401101 -0.21826252
-0.061859198 0.016191166
00000000: 8fe8 cb3d de42 493d 4160 0cbe 1e8d ea3d
00000010: 02ab 1abc 1172 eb3d 98f2 6bbc 3680 5fbe
00000020: 1260 7dbd 56a3 843c

parameterizer.cl_layers.3.weight f4 [20, 10, 5, 5]
-0.01258571 -0.07508559 -0.03668668 -0.026194809 0.03057602 0.002573032 -0.03864491 -0.06515563
0.07428355 -0.028322626 -0.056906164 -0.014343917 -0.029442567 -0.018882219 -0.034475267 0.004974403
0.0065183216 -0.031650644 -0.029337658 0.015995497 -0.08789153 0.0050500715 0.03680413 0.039015394
-0.025949972 0.044062726 0.081763454 -0.0045888 0.021587703 0.027461316 -0.030084614 0.0032970216
0.02674617 0.035788473 0.035046387 -0.023123536 -0.024154264 0.03990843 0.07237574 0.032651443
-0.027108364 0.038664516 -0.017397234 -0.019001 -0.030382477 0.0005176673 0.059878685 0.045377307
0.044085413 0.020815693 0.04481694 -0.031785436 0.0117306635 -0.021029526 0.05098527 -0.026680823
-0.047693163 0.031935148 -0.039551057 -0.020308815 0.01612046 0.04374876 -0.023355382 -0.04746787
0.018290244 -0.016648175 0.03218864 -0.0122876875 -0.003180324 -0.04728356 -0.058653697 -0.06453798
0.026021514 -0.01456611 0.056912538 0.018465374 -0.0419143 0.003166062 0.03846937 0.065915
-0.03084772 0.013091226 -0.005035575 0.049629644 -0.055699084 0.004633748 -0.0089652985 -0.009205456
-0.06468315 0.04565016 -0.019017836 0.028863389 0.07206257 -0.001970692 0.013432175 0.0038796167
-0.04875065 0.009726646 0.019462455 -0.041504372 0.07362891 -0.04797126 0.018884744 0.052969635
-0.05036103 0.06297193 -0.051322933 -0.041331336 -0.058201157 0.048907045 0.020477362 -0.019493973
0.07262652 -0.039012566 0.04559215 -0.022238806 0.0021362817 -0.046171688 0.015544404 -0.087862134
0.067757994 0.009662325 0.025928227 -0.020140776 0.03661709 0.009331072 0.049549367 -0.040163092
0.028192058 0.034647074 0.011243903 0.053137444 0.046804227 -0.026427822 -0.04399595 -0.018735973
0.02891207 0.0070249536 -0.029949237 0.018698128 -0.004528578 -0.02177379 0.039952505 0.023137849
-0.02643602 0.0033283515 -0.061162975 0.027983224 -0.0708944 0.008011485 0.060721718 0.11692865
-0.04269383 -0.13246576 0.062343165 0.007277713 0.037951868 -0.03123066 -0.09665386 0.022002619
0.022596098 -0.015452089 -0.04742661 -0.04107695 0.030099941 -0.00061892514 0.018886626 -0.05736424
-0.08456256 0.04845734 0.036989093 -0.032714266 -0.017773587 -0.053634945 0.00016354259 0.021585723
0.036608096 -0.026574923 -0.08113473 -0.05613635 -0.0068261973 -0.009708362 0.023035357 -0.009039123
-0.04574948 -0.06361085 -0.037141364 -0.022357985 0.0068163266 -0.09083307 -0.042901028 -0.056041483
-0.035843283 -0.04754839 0.006342616 -0.09162696 -0.011258257 -0.0380914 -0.018051367 -0.08902556
-0.02443346 0.07291683 -0.028094096 0.08025288 0.005362608 -0.09167845 0.046489805 -0.011333265
0.03711154 0.08359277 -0.050464466 -0.03089619 0.030500002 0.00095471606 0.012327811 0.015296331
-0.03096897 0.022889383 0.004787232 0.016295452 -0.08708102 0.080130935 -0.034297373 0.029763695
0.009705883 0.021005992 0.04606534 -0.025286369 -0.014646984 0.017506497 0.012292841 0.04377444
-0.03221011 -0.019883392 0.08284866 0.009889444 9.8521334e-05 -0.019490961 -0.012168255 0.05816164
0.025688317 0.001809429 -0.026778134 0.026754431 0.059357245 -0.027141375 0.024038529 0.022793477
0.030179644 -0.0041761575 -0.04825648 -0.05878229 0.07453603 -0.004612146 0.0640459 -0.036333196
00000000: 4b34 4ebc 79c6 99bd c644 16bd 7f96 d6bc
00000010: 907a fa3c 50a0 283b 204a 1ebd 5170 85bd
00000020: f921 983d da04 e8bc 7016 69bd c002 6bbc
00000030: 8a31 f1bc e2ae 9abc f035 0dbd 5100 a33b
00000040: a597 d53b 1ba4 01bd 8755 f0bc fd08 833c
00000050: 7900 b4bd 127b a53b edbf 163d 9bce 1f3d
00000060: 0995 d4bc 1e7b 343d 9973 a73d a55d 96bb
00000070: b2d8 b03c 8ef6 e03c 0274 f6bc d812 583b
00000080: c91a db3c ef96 123d cd8c 0f3d 926d bdbc
00000090: 2adf c5bc 0677 233d bb39 943d 85bd 053d
000000a0: 5c12 debc af5e 1e3d a584 8ebc fca7 9bbc
000000b0: ace4 f8bc 10b4 073a 5a43 753d 8edd 393d
000000c0: e892 343d ac85 aa3c f891 373d 7231 02bd
000000d0: f831 403c 1d46 acbc eed5 503d be91 dabc
000000e0: e859 43bd 6ece 023d 4a00 22bd ac5e a6bc
000000f0: 0e0f 843c e631 333d c953 bfbc ab6d 42bd
00000100: 6cd5 953c c161 88bc 3cd8 033d 4c52 49bc
00000110: fc6c 50bb 68ac 41bd dc3e 70bd 7d2c 84bd
00000120: 122b d53c b2a6 6ebc 1f1d 693d b244 973c
00000130: 54ae 2bbd b57d 4f3b 0f92 1d3d 72fe 863d
00000140: 5cb4 fcbc 957c 563c 7701 a5bb 7448 4b3d
00000150: b924 64bd b2d6 973b 30e3 12bc 7bd2 16bc
00000160: 9978 84bd aafb 3a3d 4bcb 9bbc ea72 ec3c
00000170: 8a95 933d ba26 01bb a012 5c3c 2b41 7e3b
00000180: c3ae 47bd 835c 1f3c ba6f 9f3c 7d00 2abd
00000190: c1ca 963d 837d 44bd 2eb4 9a3c b0f6 583d
000001a0: 5e47 4ebd 6df7 803d ff37 52bd 0c4b 29bd
000001b0: 5664 6ebd c152 483d 24c0 a73c d3b1 9fbc
000001c0: 37bd 943d a4cb 1fbd d6be 3a3d 282e b6bc
000001d0: dc00 0c3b 861e 3dbd f5ad 7e3c 10f1 b3bd
000001e0: b4c4 8a3d ba4e 1e3c 6f67 d43c 45fe a4bc
000001f0: cdfb 153d 5ae1 183c 47f4 4a3d 0e82 24bd
00000200: 08f3 e63c 17ea 0d3d 5938 383c a6a6 593d
00000210: cab5 3f3d 297f d8bc 1935 34bd 2f7c 99bc
00000220: 01d9 ec3c 9531 e63b 1a58 f5bc d12c 993c
00000230: 7764 94bb f25e b2bc 3da5 233d 968b bd3c
00000240: 5a90 d8bc 7920 5a3b 0786 7abd 133d e53c
00000250: 1531 91bd 9b42 033c 56b7 783d 4a78 ef3d
00000260: badf 2ebd 1ba5 07be 8c5b 7f3d e279 ee3b
00000270: 6b73 1b3d 71d7 ffbc 75f2 c5bd d63e b43c
00000280: 741b b93c c22a 7dbc 6842 42bd 4e40 28bd
00000290: 2794 f63c 5d3f 22ba 20b8 9a3c c4f6 6abd
000002a0: 232f adbd 347b 463d e081 173d 65ff 05bd
000002b0: ea99 91bc 51b0 5bbd a17c 2b39 8bd4 b03c
000002c0: 5ff2 153d a7b3 d9bc f729 a6bd 3bef 65bd
000002d0: 4bae dfbb d20f 1fbc a5b4 bc3c d418 14bc
000002e0: cf63 3bbd 6846 82bd 8b21 18bd 1828 b7bc
000002f0: 7e5b df3b b006 babd fdb8 2fbd c18b 65bd
00000300: 68d0 12bd 1ac2 42bd b8d5 cf3b eaa6 bbbd
00000310: 8d74 38bc ba05 1cbd 76e0 93bc 0853 b6bd
00000320: ae28 c8bc 6b55 953d 9725 e6bc 9f5b a43d
00000330: d1b8 af3b e9c1 bbbd 186c 3e3d 29af 39bc
00000340: 4502 183d b032 ab3d d4b3 4ebd 021a fdbc
00000350: 24db f93c e945 7a3a 96fa 493c 769d 7a3c
00000360: a3b2 fdbc 8482 bb3c 36de 9c3b 0a7e 853c
00000370: 8957 b2bd b01b a43d 677b 0cbd fed2 f33c
00000380: 6d05 1f3c c214 ac3c 03af 3c3d 5c25 cfbc
00000390: e7f9 6fbc c969 8f3c ea67 493c d44c 333d
000003a0: c0ee 03bd 7fe2 a2bc 8fac a93d 5607 223c
000003b0: 3d9d ce38 82ab 9fbc 5c5d 47bc e63a 6e3d
000003c0: 4e70 d23c 5d2a ed3a d15d dbbc 1c2c db3c
000003d0: 9520 733d 9757 debc 73ec c43c 63b9 ba3c
000003e0: 4d3b f73c 26d8 88bb 96a8 45bd b3c5 70bd
000003f0: 59a6 983d 7c21 97bb 7f2a 833d 1ed2 14bd

parameterizer.cl_layers.3.bias f4 [20]
0.09540985 -0.0028410729 -0.006121527 0.05147546 0.031072402 0.0087012155 0.07426986 -0.068493076
0.042895507 -0.010730098 0.056766473 0.015944153 0.06615402 -0.0042163874 -0.09082099 -0.0016007052
0.04773889 -0.04898537 -0.04826441 -0.04794225
00000000: 3d66 c33d 4b31 3abb 1797 c8bb efd7 523d
00000010: 8d8b fe3c 8b8f 0e3c cc1a 983d 1946 8cbd
00000020: 33b3 2f3d 4bcd 2fbc f683 683d 509d 823c
00000030: c27b 873d 9f29 8abb 5b00 babd c1ce d1ba
00000040: db89 433d e2a4 48bd e7b0 45bd 185f 44bd

parameterizer.fc_layers.0.weight f4 [50, 320]
-0.015227415 -0.017775634 0.025013065 -0.05376188 0.023015639 0.037293006 -0.0077274204 0.058422882
0.00024693407 -0.04552361 -0.009824062 0.04002958 0.019324312 -0.0008601974 0.05730393 0.062449224
-0.04278107 -0.022590868 -0.035460506 0.019880764 0.031863566 -0.006228896 0.012938501 -0.011919742
0.08007748 -0.047398813 -0.004726734 0.01768015 0.10067696 0.009909044 -0.003559959 0.03872682
-0.08157587 0.018561985 0.016992824 -0.02170179 0.018151933 0.041036468 0.019750897 0.049047146
-0.019106857 0.041407797 0.030010305 -0.015758688 0.08438774 -0.025110748 0.0021267761 -0.04728167
0.0010127883 0.015801027 -0.052008595 0.021223117 -0.0032768664 -0.039253272 0.019740244 -0.04190459
0.023667999 -0.019698843 0.011150721 -0.009828207 0.055815097 0.048425775 0.0034594364 -0.021495495
0.009952813 0.016449556 -0.036765374 -0.007127566 -0.0027024804 -0.05367719 -0.0077756005 0.005142839
0.0053642057 0.028677626 0.018977763 0.042164404 -0.0029229715 0.056513473 0.025477085 0.04152457
0.031986825 -0.010296819 -0.041428216 -0.0012434674 0.03427616 -0.019404512 -0.0203087 0.0024562823
-0.0032556343 -0.031941615 0.025600547 -0.05971141 0.016661214 0.0100097675 0.034848005 0.020138195
0.005349484 0.009777416 0.009292554 0.07530434 -0.010270618 -0.007271126 0.020757735 -0.016894829
0.028801493 -0.04936962 -0.037290037 -0.05271219 0.02827292 -0.04443007 0.019437281 -0.02086323
-0.009832884 0.006911425 0.027064612 0.00664299 0.057082675 0.06516918 0.04735809 0.03476968
-0.03536991 -0.06423708 0.022161972 -0.036921185 -0.007227738 -0.036771066 0.007486839 0.014124598
-0.0049684206 0.019886116 0.021791777 0.01563869 0.037111904 -0.049117286 0.027849998 -0.021425184
0.026978267 0.03871896 -0.046651628 -0.020101283 -0.028018063 0.02412395 -0.020465238 -0.023594687
0.021953743 -0.03176442 -0.056414925 0.041852504 0.061277516 0.017722415 -0.042493936 -0.023339303
0.050747037 0.005324229 0.024575768 0.03884922 -0.011788853 0.0020280036 0.012962137 -0.048484232
-0.0021084643 0.013128558 0.074373014 -0.018583048 -0.07309121 0.04290177 -0.01600847 0.018452741
-0.02138848 -0.0057955245 -0.019682186 0.03387297 0.00021694378 0.025354208 0.034415293 0.024035899
-0.026295163 -0.044394284 0.0099392235 -0.023304867 0.014192853 -0.029473566 0.019026518 -0.0003061587
-0.037538376 0.05403956 -0.03813398 0.045516457 0.058086336 0.015446379 -0.009236966 0.0664259
0.013069321 0.017338758 0.004867211 -0.06129982 -0.007323844 -0.04391387 0.01525259 0.046790138
0.016306678 -0.03208015 -0.024479205 0.030874945 -0.025159124 0.021315627 0.053626765 0.09406798
0.01319187 -0.006575757 -0.018517911 -0.014819335 0.005728943 -0.05057897 -0.0075329393 -0.011941549
0.031145394 0.02489228 -0.019030811 -0.032146472 0.0044616973 0.021433143 0.0041493443 0.050761115
0.020857822 0.05421761 0.008910666 0.0144027015 -0.05705833 0.03748754 -0.02873576 -0.024841893
0.043073 0.025453383 -0.008066672 -0.010262451 -0.025382165 0.0476983 -0.030329032 0.043994464
-0.0037430937 0.005627891 0.001173964 -0.013051446 0.01887948 0.05330183 -0.04916402 0.0091153495
-0.054877218 0.0068470016 0.01842148 -0.020020623 0.01220947 0.05913107 -0.0016474494 0.12827621
00000000: 687c 79bc 359e 91bc 33e8 cc3c 6b35 5cbd
00000010: 4b8b bc3c 8dc0 183d 4d36 fdbb d54c 6f3d
00000020: ee76 8139 f776 3abd 1af5 20bc 0ff6 233d
00000030: 054e 9e3c df7e 61ba 87b7 6a3d c2ca 7f3d
00000040: 343b 2fbd 7c10 b9bc 093f 11bd fcdc a23c
00000050: 5f83 023d c41b ccbb 02fc 533c 064b 43bc
00000060: a9ff a33d 4225 42bd b8e2 9abb f6d5 903c
00000070: b92f ce3d 8b59 223c 334e 69bb 04a0 1e3d
00000080: 4011 a7bd 4e0f 983c 8934 8b3c f4c7 b1bc
00000090: 5db3 943c db15 283d a2cc a13c a9e5 483d
000000a0: fc85 9cbc 399b 293d 2cd8 f53c 5d18 81bc
000000b0: 7bd3 ac3d 0eb5 cdbc 6261 0b3b 6daa 41bd
000000c0: 89bf 843a 2871 813c f706 55bd 1adc ad3c
000000d0: b2c0 56bb 0ac8 20bd 4bb6 a13c 26a4 2bbd
000000e0: 64e3 c13c 785f a1bc 84b1 363c 7d06 21bc
000000f0: 5f9e 643d 1b5a 463d b6b7 623b 5217 b0bc
00000100: 2011 233c 38c1 863c 4a97 16bd 5b8e e9bb
00000110: 191c 31bb 9ddc 5bbd 77ca febb 4385 a83b
00000120: 38c6 af3b 57ed ea3c 4177 9b3c 95b4 2c3d
00000130: 538f 3fbb ac7a 673d 52b5 d03c ab15 2a3d
00000140: 9e04 033d fdb3 28bc a2b0 29bd d8fb a2ba
00000150: 2965 0c3d 36f6 9ebc 6e5e a6bc 94f9 203b
00000160: 7b5c 55bb 36d5 02bd 3db8 d13c f493 74bd
00000170: 197d 883c 0200 243c c8bc 0e3d dbf8 a43c
00000180: b94a af3b 7431 203c cc3f 183c 2939 9a3d
00000190: 1846 28bc a042 eebb 200c aa3c 0667 8abc
000001a0: 1cf1 eb3c cc37 4abd 70bd 18bd bde8 57bd
000001b0: 9c9c e73c 4efc 35bd ef3a 9f3c 5de9 aabc
000001c0: 1b1a 21bc 3c79 e23b 9bb6 dd3c 70ad d93b
000001d0: 86cf 693d 6b77 853d 8efa 413d a76a 0e3d
000001e0: 0ae0 10bd bb8e 83bd 068d b53c ab3a 17bd
000001f0: a9d6 ecbb 429d 16bd 2854 f53b dc6a 673c
00000200: 22ce a2bb 35e8 a23c ab84 b23c b61c 803c
00000210: a702 183d 352f 49bd ae25 e43c de83 afbc
00000220: 8701 dd3c c697 1e3d c715 3fbd 72ab a4bc
00000230: 2386 e5bc 979f c53c b7a6 a7bc a549 c1bc
00000240: 56d8 b33c 691b 02bd 5613 67bd 886d 2b3d
00000250: 22fe 7a3d 992e 913c 1f0e 2ebd 1132 bfbc
00000260: 20dc 4f3d df76 ae3b 1f53 c93c 5c20 1f3d
00000270: 0926 41bc 41e8 043b 255f 543c 6797 46bd
00000280: 292e 0abb 2a19 573c e150 983d 7a3b 98bc
00000290: d8b0 95bd c4b9 2f3d 3224 83bc 342a 973c
000002a0: e536 afbc 62e8 bdbb 893c a1bc 62be 0a3d
000002b0: 677b 6339 a1b3 cf3c 0df7 0c3d efe6 c43c
000002c0: f468 d7bc c8d6 35bd 20d8 223c d9e9 bebc
000002d0: 2489 683c 8c72 f1bc 80dd 9b3c ed83 a0b9
000002e0: d7c1 19bd 9658 5d3d 6032 1cbd 776f 3a3d
000002f0: f0eb 6d3d cf12 7d3c a556 17bc 4d0a 883d
00000300: b520 563c 030a 8e3c 207d 9f3b 8515 7bbd
00000310: dbfc efbb 08df 33bd 00e6 793c 04a7 3f3d
00000320: 9595 853c 7a66 03bd 9d88 c8bc 74ed fc3c
00000330: 821a cebc 1c9e ae3c bda7 5b3d b7a6 c03d
00000340: b722 583c 7379 d7bb e0b2 97bc cccc 72bc
00000350: dbb9 bb3b e52b 4fbd e0d6 f6bb 7da6 43bc
00000360: a024 ff3c e5ea cb3c 81e6 9bbc 05ac 03bd
00000370: 6e33 923b 8f94 af3c 39f7 873b e3ea 4f3d
00000380: 06de aa3c 4913 5e3d 0bfe 113c 4ff9 6b3c
00000390: ffb5 69bd 898c 193d 4267 ebbc 3a81 cbbc
000003a0: 506d 303d 9d83 d03c 132a 04bc d723 28bc
000003b0: 42ee cfbc 4b5f 433d 9774 f8bc 8a33 343d
000003c0: b14e 75bb 2c6a b83b b2df 993a bbd5 55bc
000003d0: 24a9 9a3c 0553 5a3d 3660 49bd 8c58 153c
000003e0: efc6 60bd d05c e03b a5e8 963c 4a02 a4bc
000003f0: 3b0a 483c 6c33 723d 3bef d7ba d75a 033e
