results/FASHION_MNIST/checkpoints/Epoch[34]-Step[9450].pt (torch, 374454 bytes, 66 tensors)

conceptizer.encoder.0.0.weight f4 [10, 1, 5, 5]
-0.044076633 0.11338638 0.17469783 0.085883975 0.17369603 -0.001233141 -0.08043597 0.023925273
0.14531699 0.020711225 0.13620466 0.057364892 -0.12619954 0.118534245 0.0061186836 0.13902424
0.03293504 0.13926655 0.06797693 0.005772236 0.16725738 -0.011903224 -0.0036905864 -0.024262285
0.19217248 -0.24919291 -0.05687288 -0.21468326 -0.109600216 -0.047297727 -0.17882779 -0.1990295
-0.25229335 -0.037608508 -0.106046736 -0.04849895 -0.1954671 -0.076215014 -0.14972946 -0.095414504
-0.22474855 -0.055193935 -0.027261483 0.057713613 0.007975164 -0.014033967 -0.0111628985 -0.065293044
-0.13972172 -0.02986128 0.05301849 -0.13986266 0.075337075 -0.08531016 -0.11047942 -0.053551562
-0.124630205 -0.006215817 -0.20254718 -0.14383355 -0.17213766 0.13712414 -0.060781755 -0.18975079
-0.07679309 -0.05519725 0.016601091 -0.17488907 -0.11696034 -0.15454789 0.09518431 0.030926574
-0.020822197 -0.10027189 -0.12715304 -0.19139358 -0.10668997 0.018848369 -0.014557484 0.044956468
-0.20934135 -0.08541184 -0.10180492 -0.013294413 0.11598898 -0.27516225 -0.22571696 0.00395738
-0.15548214 0.0390845 -0.13707948 -0.14812644 -0.027355572 -0.05465819 0.04414961 -0.14328964
-0.07165171 -0.17750333 -0.018627124 0.099143475 0.07302835 -0.10247511 0.089534506 0.02568629
0.090205684 0.07713472 -0.103155375 0.018964402 0.08057562 -0.15376365 0.08382848 0.048809696
-0.11645603 -0.14021567 -0.034589812 0.02372764 -0.07140641 0.12575619 -0.10236653 0.04125677
0.08704052 0.17067681 0.011585595 -0.07578249 0.068595804 0.08276625 0.19402741 0.08736944
0.09369601 0.045199055 -0.04065191 -0.06303472 0.09906021 0.11021046 -0.0776169 0.15746488
0.05454459 0.022994816 -0.06296658 -0.18539244 -0.080907546 0.11998334 0.11111203 0.066507414
-0.15813619 0.12038845 0.20027778 0.073936045 -0.073782586 -0.049382515 0.24910977 -0.11360841
0.16701163 0.20326766 0.033471998 -0.09422452 0.18767838 -0.003686087 0.15909651 0.16890518
-0.08730659 0.015504015 0.0010921952 -0.033376586 -0.08038841 -0.14988755 0.18117361 0.13355595
-0.05956094 -0.15132782 -0.22768776 -0.03273555 -0.23552062 -0.05797272 -0.013663287 -0.012236371
0.00442392 -0.14342509 -0.19680136 0.077673204 0.053819776 -0.06951047 0.043977812 0.0008960178
-0.096342236 0.23960769 0.05238889 0.11936618 0.14711499 0.096691206 0.19355698 -0.09159336
0.050338734 -0.019068114 -0.008415577 0.063234344 0.13950114 -0.07344715 0.062183723 0.11947156
0.122235544 -0.012710904 0.12974373 0.10072473 -0.029831115 0.085291944 0.071834765 -0.06829562
-0.07808174 0.2288851 0.122784816 -0.13607836 -0.0910401 -0.064178295 -0.1008467 0.03283008
-0.037885793 0.09493935 -0.14034966 0.055954784 -0.17280966 0.07481423 -0.022313619 -0.01823178
0.20773174 -0.005038527 0.1486272 0.12896629 0.09051327 0.063504755 -0.065753445 0.0006187031
0.1033743 -0.0625291 0.07459094 0.12774862 0.14098565 0.16248451 -0.0598106 0.116582915
0.0028532138 0.12693404 -0.072314724 -0.109090805 0.07451489 0.036895435 0.05594917 0.17280143
0.1717075 0.084021345
00000000: b389 34bd 1e37 e83d fde3 323e f0e3 af3d
00000010: 5fdd 313e 59a1 a1ba 9dbb a4bd effe c33c
00000020: facd 143e 96aa a93c 3c79 0b3e 73f7 6a3d
00000030: 743a 01be 15c2 f23d 3d7f c83b 5f5c 0e3e
00000040: e4e6 063d e49b 0e3e 7d37 8b3d 0625 bd3b
00000050: 8545 2b3e bd05 43bc c4dd 71bb b3c1 c6bc
00000060: ddc8 443e 6d2c 7fbe 89f3 68bd eed5 5bbe
00000070: 1476 e0bd 43bb 41bd a21e 37be 64ce 4bbe
00000080: 982c 81be 610b 1abd 082f d9bd d6a6 46bd
00000090: 8728 48be 9e16 9cbd ae52 19be ae68 c3bd
000000a0: 7c24 66be 0913 62bd 7953 dfbc 1c65 6c3d
000000b0: 43aa 023c b9ee 65bc 97e4 36bc 5cb8 85bd
000000c0: 3613 0fbe a59f f4bc eb29 593d 2838 0fbe
000000d0: 534a 9a3d 18b7 aebd 0943 e2bd e258 5bbd
000000e0: 1f3e ffbd 0dae cbbb 8768 4fbe 1a49 13be
000000f0: db44 30be 456a 0c3e 4af6 78bd 084e 42be
00000100: b245 9dbd 8316 62bd 03ff 873c 1f16 33be
00000110: e788 efbd cd41 1ebe feef c23d ba59 fd3c
00000120: 5093 aabc 595b cdbd 6834 02be aefc 43be
00000130: 4580 dabd e567 9a3c 8382 6ebc 4624 383d
00000140: 945d 56be 67ec aebd 197f d0bd cfd0 59bc
00000150: a18b ed3d 11e2 8cbe 5922 67be e9ac 813b
00000160: b636 1fbe 1217 203d 905e 0cbe 75ae 17be
00000170: cb18 e0bc 44e1 5fbd 39d6 343d 85ba 12be
00000180: 22be 92bd 6fc3 35be e997 98bc bc0b cb3d
00000190: e38f 953d 78de d1bd de5d b73d 0e6c d23c
000001a0: c2bd b83d cff8 9d3d 2043 d3bd 3c5b 9b3c
000001b0: d504 a53d 3874 1dbe 44ae ab3d adec 473d
000001c0: 8080 eebd b294 0fbe 0cae 0dbd 7860 c23c
000001d0: 863d 92bd 3bc6 003e 8ba5 d1bd dcfc 283d
000001e0: 4d42 b23d e7c5 2e3e 82d1 3d3c da33 9bbd
000001f0: f57b 8c3d 5a81 a93d 1faf 463e c0ee b23d
00000200: b2e3 bf3d a522 393d 9e82 26bd 5918 81bd
00000210: 14e0 ca3d 06b6 e13d 9cf5 9ebd 793e 213e
00000220: 266a 5f3d a05f bc3c 9ff4 80bd 84d7 3dbe
00000230: dbb2 a5bd d3b9 f53d b48e e33d 0a35 883d
00000240: 74ee 21be 388e f63d 9e15 4d3e c86b 973d
00000250: 531b 97bd 5245 4abd a216 7f3e 87ab e8bd
00000260: 1905 2b3e 6625 503e ef19 093d c9f8 c0bd
00000270: c32e 403e 4792 71bb 32ea 223e 7bf5 2c3e
00000280: cccd b2bd 8d04 7e3c fd27 8f3a e3b5 08bd
00000290: aea2 a4bd 1f7c 19be 9385 393e e4c2 083e
000002a0: 2cf6 73bd aef5 1abe fb26 69be b615 06bd
000002b0: 512c 71be ce74 6dbd fbdb 5fbc 0f7b 48bc
000002c0: 88f6 903b 07de 12be 4c86 49be 2113 9f3d
000002d0: 2072 5c3d 815b 8ebd 1422 343d bde2 6a3a
000002e0: 144f c5bd b85b 753e bc95 563d 4176 f43d
000002f0: 50a5 163e 0a06 c63d cd33 463e 4d95 bbbd
00000300: fd2f 4e3d bc34 9cbc 7de1 09bc 0281 813d
00000310: 63d9 0e3e 766b 96bd 5cb4 7e3d 81ad f43d
00000320: a156 fa3d 6541 50bc 8adb 043e c448 ce3d
00000330: 6260 f4bc 8bad ae3d 1b1e 933d 93de 8bbd
00000340: 52e9 9fbd db60 6a3e 9b76 fb3d 2058 0bbe
00000350: 3b73 babd e96f 83bd b788 cebd d578 063d
00000360: 222e 1bbd 906f c23d d2b7 0fbe d830 653d
00000370: 04f5 30be 3438 993d 0dcb b6bc d05a 95bc
00000380: a1b7 543e 3a1a a5bb bb31 183e bd0f 043e
00000390: 055f b93d c80e 823d bea9 86bd 7630 223a
000003a0: e8b5 d33d 420f 80bd 22c3 983d 89d0 023e
000003b0: 8b5e 103e 5762 263e f6fb 74bd 06c3 ee3d
000003c0: fcfc 3a3b fffa 013e be19 94bd 006b dfbd
000003d0: 439b 983d ab1f 173d f52a 653d dcf2 303e
000003e0: 17d4 2f3e 6213 ac3d

conceptizer.encoder.0.0.bias f4 [10]
0.06736684 0.19329865 0.3341959 -0.081302464 0.44793376 0.19816895 -0.15638831 0.088870116
0.29415128 0.050982445
00000000: a0f7 893d 15f0 453e ba1b ab3e e881 a6bd
00000010: 9357 e53e cdec 4a3e 4224 20be 8901 b63d
00000020: ff9a 963e f8d2 503d

conceptizer.encoder.1.0.weight f4 [5, 10, 5, 5]
-0.014297993 -0.016976394 -0.008104557 0.036710504 -0.0017194523 -0.0018921806 0.006503033 -0.0036338891
-0.053422928 0.1099614 -0.052338272 0.046810277 -0.04433602 0.0066088196 0.0064178747 0.020178284
0.012734354 0.03729177 -0.022369025 0.05653084 -0.002503575 -0.05592355 0.025889058 0.019360421
0.044192087 0.12186449 0.059161123 0.031096822 0.014323196 0.008489912 0.07005117 0.012700607
-0.05783507 -0.0179189 -0.0056435796 0.046457395 0.014536655 -0.011199703 -0.022153981 0.0015365192
-0.0077455197 -0.0073102647 -0.029047001 0.06792699 0.05636408 -0.046929263 0.019228846 -0.04788744
-0.027572377 -0.06586327 0.05047365 0.042234212 0.00066328404 -0.020315599 -0.070350334 -0.0030825664
0.0051417835 0.012169581 -0.068959326 -0.005239088 0.060512256 0.027858628 -0.013105017 -0.045313623
-0.033499632 0.031205278 0.030254357 -0.04006325 0.015155422 -0.047320195 -0.0070462497 -0.036259875
0.031113626 0.026713008 -0.009115 0.014288773 0.0017364156 0.016140928 0.041009825 -0.019330999
0.08917206 0.059169028 -0.024425833 0.013647235 -0.044683356 0.091127664 0.015104112 -0.04388545
-0.034394354 -0.04634191 -0.036667753 -0.023096824 0.0005062241 0.0010685701 -0.027780833 -0.0132114
-0.08525238 -0.004798217 0.044040762 -0.01009944 0.07267373 0.06996057 0.03288042 0.00039695023
-0.042277202 0.012820681 0.048534498 0.031211907 0.017407754 -0.009243927 0.094631195 0.012435701
0.08205034 -0.020054711 -0.07864439 0.055886775 0.13192865 0.05817553 0.033688653 0.02335929
0.037447292 0.08903764 0.12076568 0.039342355 -0.003412911 0.016369022 0.06096274 -0.059949964
-0.04252358 0.015408242 -0.045110352 0.022383427 -0.026027203 0.003852732 -0.003341598 -0.04395155
0.025398184 0.048001688 0.036505837 0.027153207 -0.009574432 -0.04524756 0.02549302 -0.037061382
-0.052730843 -0.043282993 0.043699797 -0.036174715 -0.038965013 -0.022263272 -0.022414591 -0.089722544
-0.03357933 0.0057787807 -0.0059156865 0.051103063 0.013935175 -0.03611253 -0.051401637 -0.029095212
0.018352836 0.027055906 -0.05374554 -0.070213035 -0.032063004 -0.043440398 -0.05577598 -0.06976677
-0.05308018 -0.037804347 -0.12762423 -0.08108901 -0.09494523 -0.14894861 -0.123119086 -0.051819243
-0.05464705 0.0062919445 0.02557802 0.05203657 -0.014017574 0.026690861 -0.08958936 -0.008979283
-0.0017950773 0.013580445 -0.048004862 -0.07236778 -0.022013098 0.075911306 -0.020742752 -0.0013361252
-0.037329614 0.027109386 0.043472245 0.05931686 0.0018805609 -0.029194836 0.036850043 0.056878082
-0.127724 0.027292524 -0.010466551 -0.02724344 0.06302895 -0.020340858 0.033159137 0.017228194
0.0040203026 0.09214512 0.012852929 -0.0455878 -0.056660328 0.024372939 0.053265125 0.009430091
0.047778215 0.009642078 -0.010971742 0.09362117 -0.019722166 0.07416791 -0.00018999215 0.031934373
0.096257895 0.015842035 -0.062580496 -0.04656009 0.0553746 0.05684586 0.01573982 0.028121416
0.0018070762 -0.0442076 0.017771313 0.0060068136 0.05205873 -0.030603198 0.040814895 -0.020403923
0.021251954 -0.01848399 -0.02171952 -0.042521257 0.05479737 -0.017340798 -0.039402824 0.032169797
0.073258616 0.0025647485 0.017904712 0.035468243 0.009050291 0.05068956 0.05766345 -0.008091236
00000000: 2142 6abc 1412 8bbc fac8 04bc c15d 163d
00000010: 3f5f e1ba 0c03 f8ba 6517 d53b 8b26 6ebb
00000020: 00d2 5abd 7133 e13d a860 56bd 22bc 3f3d
00000030: b099 35bd cc8e d83b 094d d23b ee4c a53c
00000040: c0a3 503c 41bf 183d 3f3f b7bc e28c 673d
00000050: 0513 24bb 1810 65bd 4a15 d43c bf99 9e3c
00000060: c302 353d 1794 f93d ef52 723d c3be fe3c
00000070: d7ab 6a3c 4619 0b3c fd76 8f3d 3516 503c
00000080: 77e4 6cbd a8ca 92bc c7ed b8bb 1c4a 3e3d
00000090: 262b 6e3c f67e 37bc 447c b5bc 0765 c93a
000000a0: 21ce fdbb f28a efbb faf3 edbc 4e1d 8b3d
000000b0: 06de 663d e638 40bd d085 9d3c 9f25 44bd
000000c0: 77df e1bc 52e3 86bd 75bd 4e3d c8fd 2c3d
000000d0: 3de0 2d3a e66c a6bc d613 90bd e204 4abb
000000e0: 687c a83b ec62 473c 8c3a 8dbd a8ac abbb
000000f0: b3db 773d c737 e43c 6db6 56bc c79a 39bd
00000100: e936 09bd 36a2 ff3c fcd7 f73c 5d19 24bd
00000110: 724e 783c d2d2 41bd 3ae4 e6bb 3c85 14bd
00000120: 01e2 fe3c 3dd5 da3c 1557 15bc 751b 6a3c
00000130: 7098 e33a fb39 843c ebf9 273d 0b5c 9ebc
00000140: d79f b63d 395b 723d af18 c8bc a798 5f3c
00000150: e505 37bd 24a1 ba3d 3d77 773c 3bc1 33bd
00000160: 18e1 0cbd 04d1 3dbd ed30 16bd 8d35 bdbc
00000170: 20b4 043a 430f 8c3a a194 e3bc a174 58bc
00000180: cd98 aebd 5d3a 9dbb 1664 343d 1f78 25bc
00000190: f7d5 943d 7d47 8f3d 9fad 063d c21d d039
000001a0: dc2a 2dbd d50d 523c 1ccc 463d 1db0 ff3c
000001b0: b59a 8e3c d773 17bc 00ce c13d 1cbf 4b3c
000001c0: 020a a83d c749 a4bc 4f10 a1bd 88e9 643d
000001d0: 4e18 073e 7749 6e3d 1dfd 093d fb5b bf3c
000001e0: 5562 193d 5e59 b63d ff53 f73d 7325 213d
000001f0: 25ab 5fbb 5418 863c 11b4 793d 188e 75bd
00000200: 352d 2ebd da72 7c3c a2c5 38bd 735d b73c
00000210: 0037 d5bc 1e7e 7c3b b6fe 5abb 8a06 34bd
00000220: da0f d03c 6b9d 443d 2587 153d 6770 de3c
00000230: 14de 1cbc 8155 39bd bdd6 d03c adcd 17bd
00000240: 4cfc 57bd 8249 31bd 8ffe 323d f02b 14bd
00000250: c799 1fbd 7761 b6bc ce9e b7bc 74c0 b7bd
00000260: 7b8a 09bd ed5b bd3b 60d8 c1bb 7251 513d
00000270: 5c50 643c bbea 13bd 868a 52bd 1559 eebc
00000280: b058 963c 59a4 dd3c 4924 5cbd dacb 8fbd
00000290: 7f54 03bd 8fee 31bd 5b75 64bd e1e1 8ebd
000002a0: 9a6a 59bd bbd8 1abd edaf 02be ff11 a6bd
000002b0: a572 c2bd fc85 18be dc25 fcbd 6a40 54bd
000002c0: 96d5 5fbd a82c ce3b ff88 d13c 4c24 553d
000002d0: f7a9 65bc cba6 da3c a07a b7bd d81d 13bc
000002e0: cd48 ebba 8480 5e3c bfa0 44bd 8f35 94bd
000002f0: d054 b4bc 6377 9b3d b4ec a9bc ec20 afba
00000300: f0e6 18bd 8114 de3c f40f 323d 3cf6 723d
00000310: 277d f63a 022a efbc 12f0 163d fef8 683d
00000320: 15ca 02be 9294 df3c e67b 2bbc a22d dfbc
00000330: 5215 813d dfa1 a6bc e0d1 073d 2422 8d3c
00000340: bebc 833b 95b6 bc3d 1795 523c 46ba 3abd
00000350: a914 68bd c2a9 c73c 882c 5a3d ab80 1a3c
00000360: 17b3 433d cef9 1d3c d2c2 33bc 75bc bf3d
00000370: 6190 a1bc 58e5 973d a138 47b9 9ecd 023d
00000380: dc22 c53d 28c7 813c 342a 80bd cbb5 3ebd
00000390: 7ad0 623d 34d7 683d ccf0 803c e25e e63c
000003a0: 6adb ec3a 0713 35bd 2595 913c ced4 c43b
000003b0: 893b 553d 8fb3 fabc 852d 273d 2126 a7bc
000003c0: 9418 ae3c bd6b 97bc 23ed b1bc c52a 2ebd
000003d0: 3573 603d 4a0e 8ebc db64 21bd 7ac4 033d
000003e0: 9d08 963d 5715 283b e7ac 923c 2647 113d
000003f0: ac47 143c db9f 4f3d 8230 6c3d 1b91 04bc

conceptizer.encoder.1.0.bias f4 [5]
0.13322887 0.05273933 0.030796297 0.13254963 0.18705496
00000000: 266d 083e 3205 583d 8448 fc3c 17bb 073e
00000010: 568b 3f3e

conceptizer.encoder.2.layers.0.weight f4 [1, 16]
0.0032720298 -0.20549853 -0.035886206 -0.13307159 0.07914393 -0.024919352 0.064410545 -0.1886759
-0.1800609 -0.2315733 -0.0709251 -0.123561054 -0.08591745 -0.2930685 -0.21353142 -0.18987378
00000000: 8d6f 563b 356e 52be 6afd 12bd eb43 08be
00000010: 3616 a23d ab23 ccbc ade9 833d 4134 41be
00000020: e261 38be 8d21 6dbe 2e41 91bd 940d fdbd
00000030: 7df5 afbd 130d 96be fba7 5abe 466e 42be

conceptizer.encoder.2.layers.1.weight f4 [1, 16]
0.2705713 -0.17907843 0.06556781 0.1837414 0.02048407 0.08054236 -0.19287392 0.16380364
0.16502857 -0.22227599 -0.041396122 0.018115846 0.33723715 -0.13168855 -0.04834691 0.157604
00000000: 5288 8a3e 5660 37be 6a48 863d b526 3c3e
00000010: 35ce a73c 65f3 a43d be80 45be 24bc 273e
00000020: 40fd 283e 519c 63be fb8e 29bd af67 943c
00000030: 59aa ac3e 5dd9 06be 6907 46bd f162 213e

conceptizer.encoder.2.layers.2.weight f4 [1, 16]
-0.20369036 0.34936237 0.2999773 0.30220821 0.10287334 0.044429984 0.18311566 0.06798925
-0.24498346 -0.026679104 0.016697668 -0.001903884 -0.3122462 -0.04426039 -0.11395369 -0.032259565
00000000: 3594 50be a0df b23e a096 993e 09bb 9a3e
00000010: 42af d23d 37fc 353d ac82 3b3e f33d 8b3d
00000020: f2dc 7abe 238e dabc 8cc9 883c bf8b f9ba
00000030: bcde 9fbe 624a 35bd 8d60 e9bd 9b22 04bd

conceptizer.encoder.2.layers.3.weight f4 [1, 16]
0.28229943 0.053653356 -0.056680594 0.2308479 0.012396041 -0.040533096 0.11899954 0.19105782
-0.09005354 0.05795618 -0.062049907 0.15616935 0.07465443 -0.14527814 -0.08556638 -0.12340987
00000000: 8d89 903e 9fc3 5b3d e929 68bd 6463 6c3e
00000010: c418 4b3c 0806 26bd 08b6 f33d a9a4 433e
00000020: fe6d b8bd 7663 6d3d 0b28 7ebd dcea 1f3e
00000030: 6ce4 983d cbc3 14be 6d3d afbd 50be fcbd

conceptizer.encoder.2.layers.4.weight f4 [1, 16]
0.023947667 -0.15421177 -0.1205878 -0.019238275 -0.33461958 -0.060177963 0.0025246902 -0.12607212
-0.15667501 -0.13105129 -0.17166053 -0.03740709 -0.12655485 0.13366218 0.05002166 -0.079214744
00000000: e62d c43c b1e9 1dbe bdf6 f6bd 9699 9dbc
00000010: 4253 abbe 2b7d 76bd 4675 253b 0d19 01be
00000020: 6a6f 20be 4f32 06be c7c7 2fbe 2d38 19bd
00000030: 9897 01be bdde 083e 83e3 4c3d 573b a2bd

conceptizer.decoder.0.0.weight f4 [5, 16, 5, 5]
-0.08611362 0.07689082 0.042799544 -0.13791092 -0.10261813 0.11907899 0.0055170045 0.027821785
0.015538554 -0.093911275 -0.14175767 -0.04088858 -0.01801586 -0.1365401 0.1358306 -0.0244852
0.045938473 -0.12889193 -0.13310684 0.11920487 -0.17590179 -0.07935139 0.09678369 -0.16013429
-0.21112828 0.0176381 0.20565157 -0.019866517 0.13555196 0.08913461 -0.0685904 0.07845352
-0.10275814 0.11526947 0.029751396 0.07285461 -0.0038419825 0.03976075 -0.060062516 -0.051357012
0.15453735 -0.16721489 -0.09289518 0.10675287 0.0380065 -0.04804639 -0.11469276 -0.022942597
-0.012760096 0.105401166 0.111919865 -0.08321026 -0.1859904 -0.065202884 0.095446244 -0.015680134
-0.08227432 -0.09619876 0.038832374 0.05462722 -0.11497627 -0.042646077 0.13869658 -0.041499697
-0.15889475 0.0888583 -0.12478558 0.06848908 0.14791362 0.1229698 -0.005990342 -0.25466245
0.028299795 0.091094375 0.026584595 -0.08255912 -0.22763693 -0.16229808 0.09362121 -0.08919552
-0.1357349 0.15536681 -0.20859678 -0.3315709 0.043022808 -0.15173912 -0.20022546 0.046123184
0.08961007 0.034583244 -0.049960513 -0.09451903 -0.25007683 -0.28485098 -0.035730593 -0.13439773
-0.13723555 0.1277035 0.036389027 0.07174087 -0.08045149 -0.119606726 -0.09829665 -0.14166884
0.08337945 -0.078769244 0.08185709 0.051286444 -0.045446925 -0.026698094 0.08925426 0.10581211
-0.120907985 -0.042744957 0.006433064 -0.0054177972 -0.06767841 0.13131568 0.11192166 -0.112505525
-0.15903729 0.032124452 0.08667998 0.16408162 0.16506463 0.08959458 -0.1042552 -0.078469366
0.12201844 0.119405 -0.29475027 -0.13587643 0.02119079 -0.07771922 -0.103690356 -0.102981135
-0.112712145 0.05794303 0.06404537 -0.025339652 -0.044608332 -0.027243221 -0.18992232 -0.25631127
0.12547761 0.19568428 -0.20075265 0.0402049 0.04889185 0.06887134 0.097878836 -0.08129955
0.08696647 -0.117048174 0.15844752 -0.073340476 -0.044842094 -0.054128375 -0.052422293 0.07838342
0.05829125 -0.0058705653 -0.061910503 0.11744223 -0.02986256 0.09076106 -0.04221888 -0.01880209
0.081033245 -0.07212405 -0.139177 0.107268356 0.072283186 -0.18068932 -0.2076299 0.02354023
0.018646332 0.04484025 -0.02984281 0.093091905 0.054880224 0.122622855 -0.06528396 0.0040827557
0.00067394733 0.1301838 0.13473657 -0.0131728295 -0.053274933 -0.13773893 0.02852725 0.13499887
-0.20285064 0.049387824 -0.14811686 0.06712304 0.00897585 0.09877746 0.09100334 -0.23680505
0.08839271 0.005957843 -0.14422128 -0.10066443 -0.1600622 -0.006433128 -0.07870938 0.01366755
-0.08518166 0.15614715 0.21290459 0.08551055 -0.15511435 0.021753589 -0.053528085 0.03367791
-0.0896564 0.011868449 -0.021092497 0.038266037 -0.022297587 0.026006194 -0.1298298 0.043639146
0.04729005 0.034459397 -0.058734145 0.081124716 0.2306579 -0.16711259 0.12709154 0.11425601
0.17317304 0.04662271 0.18402833 -0.17409278 -0.033962138 0.14056888 0.06415174 -0.04254352
0.017285297 0.024448086 -0.009483941 0.00031461878 0.025189592 -0.17105067 0.17261098 0.13306099
0.08249959 -0.047349613 0.06844034 -0.01774963 0.23900703 -0.057355553 -0.20693038 -0.0337154
00000000: 565c b0bd ef78 9d3d 934e 2f3d 8538 0dbe
00000010: 7429 d2bd afdf f33d fdc7 b43b 83ea e33c
00000020: 6b95 7e3c 8e54 c0bd ec28 11be c97a 27bd
00000030: ff95 93bc 2bd1 0bbe 2d17 0b3e 3095 c8bc
00000040: fb29 3c3d 3ffc 03be 294d 08be af21 f43d
00000050: 991f 34be fb82 a2bd 8736 c63d 3efa 23be
00000060: 0332 58be c77d 903c 5396 523e 1bbf a2bc
00000070: 22ce 0a3e 358c b63d 2079 8cbd 3dac a03d
00000080: dc72 d2bd 6612 ec3d 33b9 f33c cc34 953d
00000090: c5c9 7bbb 2bdc 223d 1d04 76bd bb5b 52bd
000000a0: 0a3f 1e3e 613a 2bbe d43f bebd 40a1 da3d
000000b0: b4ac 1b3d 4bcc 44bd 0ae4 eabd 1df2 bbbc
000000c0: b90f 51bc 91dc d73d 3e36 e53d 246a aabd
000000d0: 4474 3ebe 1789 85bd 5279 c33d a073 80bc
000000e0: 707f a8bd db03 c5bd b20e 1f3d cbc0 5f3d
000000f0: ae78 ebbd a7ad 2ebd 7a06 0e3e 96fb 29bd
00000100: 4eb5 22be 57fb b53d 958f ffbd 0144 8c3d
00000110: ab76 173e 97d7 fb3d a14a c4bb 1e63 82be
00000120: f9d4 e73c b08f ba3d f0c7 d93c c214 a9bd
00000130: a819 69be 7831 26be 7abc bf3d 24ac b6bd
00000140: 17fe 0abe 7a18 1f3e 659a 55be a9c3 a9be
00000150: af38 303d 8061 1bbe e707 4dbe aaeb 3c3d
00000160: 7c85 b73d 29a7 0d3d 65a3 4cbd 3193 c1bd
00000170: 120a 80be fdd7 91be 3e5a 12bd 8f9f 09be
00000180: 7a87 0cbe b5c4 023e a90c 153d e1ec 923d
00000190: c0c3 a4bd 5ff4 f4bd c14f c9bd a311 11be
000001a0: d8c2 aa3d c551 a1bd b1a4 a73d bc11 523d
000001b0: 8e26 3abd f6b5 dabc f0ca b63d 05b4 d83d
000001c0: 9b9e f7bd 5615 2fbd 74cc d23b c787 b1bb
000001d0: fa9a 8abd 9e77 063e 2f37 e53d 4c69 e6bd
000001e0: acda 22be ee94 033d 4685 b13d 0305 283e
000001f0: b406 293e 5d7d b73d c083 d5bd 8cb4 a0bd
00000200: cee4 f93d 9c8a f43d 82e9 96be 3123 0bbe
00000210: 4f98 ad3c 412b 9fbd 9c5b d4bd c6e7 d2bd
00000220: a0d5 e6bd ac55 6d3d 382a 833d 1a95 cfbc
00000230: 3ab7 36bd 2d2d dfbc ff7a 42be 3b3b 83be
00000240: 347d 003e 7661 483e 1a92 4dbe e5ad 243d
00000250: d242 483d 6b0c 8d3d b374 c83d 6180 a6bd
00000260: 7a1b b23d f4b6 efbd 1140 223e 8833 96bd
00000270: 58ac 37bd b7b5 5dbd c2b8 56bd 7d87 a03d
00000280: cec2 6e3d df5d c0bb de95 7dbd 8d85 f03d
00000290: 54a2 f4bc efe0 b93d b4ed 2cbd d706 9abc
000002a0: c2f4 a53d c6b5 93bd 6a84 0ebe 83af db3d
000002b0: 3509 943d 9f06 39be ef9c 54be 71d7 c03c
000002c0: 31c0 983c 69aa 373d e978 f4bc f8a6 be3d
000002d0: 16ca 603d b121 fb3d 99b3 85bd a3c8 853b
000002e0: d7ab 303a e74e 053e 62f8 093e dad2 57bc
000002f0: d136 5abd 6f0b 0dbe fbb1 e93c 253d 0a3e
00000300: 14b8 4fbe e34a 4a3d f2ab 17be ce77 893d
00000310: 720f 133c d64b ca3d f65f ba3d 067d 72be
00000320: 3d07 b53d 023a c33b beae 13be 2729 cebd
00000330: 58e7 23be fdcc d2bb 6232 a1bd dced 5f3c
00000340: b973 aebd 0ae5 1f3e a903 5a3e 2820 af3d
00000350: 4cd6 1ebe 9534 b23c 4440 5bbd d9f1 093d
00000360: c69d b7bd e273 423c 2cca acbc d9bc 1c3d
00000370: 6ea9 b6bc f10a d53c 1af2 04be f6be 323d
00000380: 36b3 413d 4c25 0d3d 3793 70bd b724 a63d
00000390: 9631 6c3e 901f 2bbe 4924 023e 0eff e93d
000003a0: 4654 313e 74f7 3e3d ec71 3c3e 6145 32be
000003b0: e21b 0bbd 4af1 0f3e fd61 833d 1d42 2ebd
000003c0: e599 8d3c 5a47 c83c 8862 1bbc 6bf3 a439
000003d0: 675a ce3c e827 2fbe efc0 303e 2441 083e
000003e0: 8cf5 a83d abf1 41bd 732a 8c3d ac67 91bc
000003f0: 42be 743e a8ed 6abd 8fe5 53be 2919 0abd

conceptizer.decoder.0.0.bias f4 [16]
0.08030153 0.0333414 -0.0011608322 0.08312444 -0.015959892 0.030213917 0.07167112 0.04765407
-0.017936008 0.07179752 -0.025841568 0.033051252 0.12236606 -0.14303781 -0.1222476 0.08764063
00000000: 2175 a43d fe90 083d 1127 98ba 253d aa3d
00000010: 52be 82bc 2d83 f73c 4fc8 923d ea30 433d
00000020: 89ee 92bc 940a 933d b2b1 d3bc c060 073d
00000030: 0f9b fa3d 8178 12be f35c fabd ee7c b33d

conceptizer.decoder.2.0.weight f4 [16, 8, 5, 5]
-0.06727729 0.01578252 0.119682185 0.14689131 0.102567285 -0.13616845 0.20383447 0.22696525
0.058005024 0.08094752 0.09797969 0.17020684 0.15300964 0.0769152 0.03359363 0.18073289
0.16679296 0.15788835 -0.01916203 0.012907899 0.16303502 0.03811956 0.0586272 0.12296767
0.05132343 -0.016703295 -0.056887444 0.05172784 0.15735091 0.16320656 0.06685818 -0.02528363
0.096039906 0.22707477 0.18022266 -0.012397553 0.052426875 0.12096989 0.12129533 0.13170624
0.034739025 0.13032752 0.21906671 0.21673524 0.18448588 0.09432884 0.13117579 0.17693062
0.09995266 0.0663532 -0.0340356 -0.09687948 -0.072140604 0.030799527 0.076409824 -0.088682346
-0.08165079 -0.039709594 0.05839607 0.14527 -0.05815314 -0.05188585 -0.011193393 0.12951966
0.10266201 0.089029774 0.16517487 0.13492835 0.11537511 0.11928497 0.12001492 0.05593708
0.17875019 0.16374782 0.10624306 -0.0603135 0.07551461 -0.013884323 0.10783419 0.067514196
0.09149091 0.051955923 -0.11826118 -0.089137785 -0.04414337 -0.13277502 0.015845263 -0.13134007
-0.110945605 -0.08242847 -0.20291258 -0.13644946 -0.2612754 -0.15506738 -0.14045128 0.04406234
-0.031507436 -0.14290714 -0.13319811 -0.13587293 0.13676597 0.13062048 0.028250122 -0.1207121
-0.038711067 0.09685322 0.0723429 -0.04849364 -0.1603198 0.10107863 0.10093031 -0.16612484
-0.17885347 -0.12544097 -0.033204213 -0.04870458 -0.15487026 -0.297904 -0.15567613 -0.0844435
-0.037009597 -0.17576495 -0.25120693 -0.14120352 0.10677476 0.14759578 0.26136565 0.016774692
-0.23462673 -0.10431178 0.13874206 0.14196892 -0.08786471 -0.3125786 -0.18765901 0.055986498
-0.07940055 -0.15963767 -0.2243897 -0.22970048 0.008349327 -0.14330263 -0.21893357 -0.31975403
-0.28952235 0.008128079 -0.0989708 -0.05361553 -0.1248167 -0.11689624 0.10789349 0.14801471
-0.01333197 -0.073671386 0.014924279 0.07663654 -0.01372488 -0.15844448 -0.21169332 -0.06930936
-0.0021171458 -0.1320598 -0.20906977 -0.21018074 -0.24834105 -0.11692618 -0.214669 -0.22602159
-0.26515907 -0.08885823 -0.11352091 -0.20705527 -0.13231564 -0.21933952 -0.065268666 -0.07800733
-0.05405561 0.07606889 0.15693432 -0.035041377 -0.12032946 -0.06314559 0.027179914 0.11152429
0.0074999654 -0.079128675 -0.06919548 0.09142005 0.15105982 0.1066146 0.072719745 0.029263599
0.10691958 0.26480332 0.18232933 -0.22530852 0.08545429 0.09859234 0.202689 0.20220311
0.05774084 -0.043279298 0.039363086 0.120083526 -0.0012933108 0.1117025 -0.08233296 0.053737678
0.1630763 -0.038187265 0.100287676 -0.11073572 0.024150193 0.21168928 -0.040084932 0.062425286
0.0276635 0.09309359 0.18001966 -0.095648445 0.09049826 0.0048644026 0.12482517 0.106155604
0.097142786 0.09934413 0.121025704 0.11156355 0.09265231 0.10453717 0.106150635 0.087448426
0.0028865174 0.15500818 0.08672177 0.18008111 0.1417264 0.088638075 0.15705915 0.1577228
0.16153432 0.107842706 0.036274895 0.06066365 0.1524758 0.07351589 -0.018145755 0.047990482
0.1264883 0.08761048 -0.024139533 -0.013156814 0.028683724 0.10300187 -0.00477603 0.11819135
00000000: adc8 89bd 584a 813c ef1b f53d ad6a 163e
00000010: cc0e d23d be6f 0bbe fcb9 503e 9469 683e
00000020: ad96 6d3d d0c7 a53d 93a9 c83d b44a 2e3e
00000030: 8fae 1c3e b785 9d3d 7999 093d 0b12 393e
00000040: c6cb 2a3e 7cad 213e b1f9 9cbc a77b 533c
00000050: a7f2 263e 4123 1c3d 1323 703d 79d6 fb3d
00000060: 8438 523d 59d5 88bc cf02 69bd 92e0 533d
00000070: 9920 213e 9f1f 273e f1ec 883d 9d1f cfbc
00000080: 92b0 c43d 4a86 683e 4a8c 383e 1b1f 4bbc
00000090: 90bd 563d 10bf f73d b069 f83d 00de 063e
000000a0: 824a 0e3d 9474 053e 0653 603e d8ef 5d3e
000000b0: dee9 3c3e 7b2f c13d f252 063e 4d2d 353e
000000c0: fbb3 cc3d 30e4 873d ea68 0bbd c068 c6bd
000000d0: 74be 93bd 4a4f fc3c c17c 9c3d 179f b5bd
000000e0: 8838 a7bd 87a6 22bd b830 6f3d a9c1 143e
000000f0: fd31 6ebd 4286 54bd 7e64 37bc cda0 043e
00000100: 7640 d23d 3e55 b63d 9a23 293e a82a 0a3e
00000110: c949 ec3d ae4b f43d 62ca f53d 481e 653d
00000120: 4a0a 373e 82ad 273e f695 d93d 4a0b 77bd
00000130: 67a7 9a3d 127b 63bc 2cd8 dc3d e244 8a3d
00000140: 965f bb3d bccf 543d eb32 f2bd df8d b6bd
00000150: aecf 34bd 2df6 07be edcd 813c 037e 06be
00000160: 7337 e3bd 42d0 a8bd 51c8 4fbe 68b9 0bbe
00000170: e4c5 85be fcc9 1ebe 76d2 0fbe b67a 343d
00000180: f10d 01bd 4056 12be 1665 08be 4622 0bbe
00000190: 610c 0c3e 60c1 053e cd6c e73c e837 f7bd
000001a0: 7f8f 1ebd fb5a c63d 8428 943d 44a1 46bd
000001b0: e02a 24be 5002 cf3d 8db4 ce3d a11c 2abe
000001c0: 5d25 37be 9973 00be 2401 08bd 747e 47bd
000001d0: 4f96 1ebe e086 98be 9069 1fbe b7f0 acbd
000001e0: 6097 17bd bafb 33be 329e 80be a897 10be
000001f0: baac da3d 5923 173e b8d1 853e 146b 893c
00000200: fd41 70be 6aa1 d5bd 6612 0e3e 4d60 113e
00000210: 6af2 b3bd 4d0a a0be af29 40be 1952 653d
00000220: c19c a2bd 0f78 23be 6ac6 65be 9a36 6bbe
00000230: 9ecb 083c edbd 12be 1f30 60be cdb6 a3be
00000240: 463c 94be a22b 053c 34b1 cabd f59b 5bbd
00000250: e69f ffbd 4c67 efbd 43f7 dc3d 2b91 173e
00000260: 566e 5abc 06e1 96bd f784 743c 9ef3 9c3d
00000270: 52de 60bc 453f 22be 22c6 58be 11f2 8dbd
00000280: d0bf 0abb af3a 07be 6316 56be 9f39 57be
00000290: 1e4d 7ebe fe76 efbd 31d2 5bbe 3472 67be
000002a0: eec2 87be 4efb b5bd a77d e8bd 4c06 54be
000002b0: c07d 07be 8a9a 60be 94ab 85bd 4fc2 9fbd
000002c0: 6a69 5dbd 02ca 9b3d 64b3 203e 8c87 0fbd
000002d0: 4b6f f6bd 7a52 81bd 69a8 de3c d966 e43d
000002e0: 45c2 f53b 370e a2bd 5cb6 8dbd 6f3a bb3d
000002f0: 6daf 1a3e c158 da3d 17ee 943d 37ba ef3c
00000300: a7f8 da3d 4d94 873e 8ab4 3a3e 47b7 66be
00000310: a902 af3d c8ea c93d b58d 4f3e 550e 4f3e
00000320: a981 6c3d a245 31bd 303b 213d 5aee f53d
00000330: 4f84 a9ba 48c4 e43d 2f9e a8bd 0a1c 5c3d
00000340: 79fd 263e 406a 1cbd a063 cd3d 69c9 e2bd
00000350: a0d6 c53c 13c5 583e 1930 24bd a8b1 7f3d
00000360: 909e e23c daa7 be3d 1357 383e 55e3 c3bd
00000370: 2757 b93d 9165 9f3b 57a4 ff3d 1c68 d93d
00000380: ccf2 c63d ef74 cb3d 53dc f73d 6e7b e43d
00000390: 7fc0 bd3d 9517 d63d 8165 d93d 2918 b33d
000003a0: ba2b 3d3b 77ba 1e3e 2f9b b13d 2f67 383e
000003b0: ba20 113e e187 b53d 1dd4 203e 1682 213e
000003c0: 4169 253e a3dc dc3d fc94 143d 737a 783d
000003d0: 9e22 1c3e 808f 963d 68a6 94bc ab91 443d
000003e0: 2686 013e 206d b33d 45c0 c5bc ad8f 57bc
000003f0: 21fa ea3c a5f2 d23d 3e80 9cbb 4e0e f23d

conceptizer.decoder.2.0.bias f4 [8]
0.1197991 0.055915844 0.13012747 0.048338994 0.05146588 0.060023222 0.0042856527 -0.12561414
00000000: 3b59 f53d 0308 653d 2340 053e 1cff 453d
00000010: e3cd 523d e9da 753d a96e 8c3b fea0 00be

conceptizer.decoder.4.0.weight f4 [8, 1, 2, 2]
-0.35308108 0.066534646 -0.17414585 0.73656136 0.5346822 0.55516917 0.67459726 0.62713665
0.70615405 0.54317105 0.42553428 -0.087316856 -0.75085604 -0.8162238 -0.7437171 -0.84804904
-0.6505519 -0.8909443 -0.18260457 -0.5199253 -0.64986485 -0.22769122 -0.97750014 -0.72977304
-0.29218087 -0.85946465 -0.25529245 -0.4872267 1.1713586 -0.09788812 1.0938762 -0.01646034
00000000: 0bc7 b4be 5143 883d 4a53 32be 498f 3c3f
00000010: efe0 083f 911f 0e3f 68b2 2c3f 078c 203f
00000020: 83c6 343f 420d 0b3f a1df d93e 2ed3 b2bd
00000030: 1a38 40bf 0bf4 50bf 3e64 3ebf be19 59bf
00000040: 928a 26bf ed14 64bf b1fc 3abe d319 05bf
00000050: 8b5d 26bf e327 69be 733d 7abf 68d2 3abf
00000060: bb98 95be e005 5cbf b1b5 82be c775 f9be
00000070: 14ef 953f 9179 c8bd 2304 8c3f d6d7 86bc

conceptizer.unlinear.weight f4 [16, 1]
-1.0044159 0.6592818 -0.83041495 -1.3468646 -1.0991384 -0.9134446 1.053293 -1.0169786
-1.0804288 -1.1524631 1.1104143 0.582162 -1.1856518 0.06604005 -0.7438435 0.901196
00000000: b390 80bf b1c6 283f 1396 54bf 0f66 acbf
00000010: 91b0 8cbf 81d7 69bf 4ed2 863f 5b2c 82bf
00000020: 7e4b 8abf e983 93bf 0e22 8e3f 9208 153f
00000030: 70c3 97bf 0140 873d 876c 3ebf c8b4 663f

conceptizer.unlinear.bias f4 [16]
0.76143444 -0.14635244 -1.1656436 0.99785835 0.7147855 0.22656438 -0.51449126 0.43579513
0.4575933 -0.69103366 -0.6866312 0.540483 -0.18319635 -0.77026176 -0.81155336 -0.060202725
00000000: 5eed 423f 6add 15be cf33 95bf a573 7f3f
00000010: 2ffc 363f 7e00 683e b3b5 03bf 8a20 df3e
00000020: ab49 ea3e 95e7 30bf 10c7 2fbf 185d 0a3f
00000030: d397 3bbe e02f 45bf f6c1 4fbf 2297 76bd

parameterizer.cl_layers.0.weight f4 [10, 1, 5, 5]
0.05881937 0.01640322 0.15412223 0.13927653 0.016632786 0.02786469 0.2249552 0.009285311
-0.09400636 -0.10502612 0.08029805 0.10280305 0.066522256 0.113928854 0.05292223 -0.11022195
-0.11024432 -0.15535551 -0.2154032 -0.1953351 -0.015059617 -0.2842072 -0.34770116 -0.31666595
-0.16534658 -0.22221184 -0.15606003 0.09791676 0.0087713655 -0.015389339 -0.30475625 -0.21846357
-0.05023273 -0.09547104 -0.07355116 -0.11712925 0.0053731133 -0.17933697 -0.11346121 -0.17954685
0.18786871 -0.016225263 -0.025295917 -0.20506112 -0.09088994 0.2766753 0.11222842 -0.08985422
0.039419062 -0.14999612 -0.13624263 0.031343937 0.06492289 0.08473197 0.07992687 0.033255752
-0.06992475 0.14737196 0.06533115 0.1090201 0.076316014 0.011461305 -0.026549414 0.12179308
0.040279895 -0.119389646 -0.09261962 0.14441392 0.021831628 0.123973705 0.0538922 -0.15611365
-0.068932675 -0.025178589 0.16045572 -0.0852826 0.15881239 0.15522805 0.09010003 0.13673921
0.081357926 -0.06282139 0.12535617 0.06288637 0.05269771 -0.0025629632 -0.14886257 -0.05733061
-0.1078682 -0.1303709 0.11819748 -0.22148675 0.15906163 -0.0986095 0.0959826 -0.20589499
-0.23259506 0.12400624 -0.18366669 0.17031613 0.051220287 -0.011267821 -0.39823622 -0.24294472
-0.23584639 -0.0009410691 0.07893901 -0.3430534 -0.31579515 -0.0608616 0.050793048 -0.030292707
-0.042789757 0.11990202 0.0889664 0.106374346 -0.047441013 -0.08285349 0.027029082 0.09529254
-0.035227776 -0.17155364 -0.14889188 0.15149832 0.056918453 -0.21336436 -0.11975371 0.21275131
-0.07418923 -0.048980888 0.11517944 -0.166259 -0.14544521 0.10319849 0.18587306 0.14017132
-0.19360264 0.088790804 0.0893348 -0.05426955 0.09426637 -0.25022182 0.058700234 0.18841451
-0.036348123 -0.18724477 0.04551265 -0.15551633 0.23085904 0.049502462 0.0031413576 -0.0755713
0.11183399 0.16456628 -0.20143904 -0.0911421 -0.15088482 0.20694517 0.11828331 -0.084839545
0.04869726 -0.042668145 0.25150466 -0.08399621 -0.18485846 0.0053611165 0.14823432 -0.034541532
0.21354523 -0.24075557 -0.15523098 -0.10142715 -0.040821955 0.22862203 -0.020638572 0.18229553
-0.14990616 -0.16434895 -0.21471462 0.11766471 0.19348611 -0.12392723 -0.10990188 -0.18719077
0.017126113 0.08752488 0.16638353 -0.24955326 -0.2960201 -0.10578331 0.028970465 -0.09346203
0.042506386 -0.3047638 -0.0062204096 -0.10194103 -0.08796392 0.013199568 -0.21117336 -0.2390601
-0.121566325 -0.25126883 -0.20681179 0.2471579 -0.061158378 0.21909358 0.14952287 0.15420866
0.05890723 0.12616621 0.039411493 0.0915987 -0.059864033 0.035653006 -0.09777058 -0.14714026
0.129913 0.11215349 -0.17520149 -0.16676132 -0.0012426714 -0.19341981 0.14951827 -0.20547956
0.16359982 -0.07805816 -0.26908696 -0.21481402 -0.111527674 0.18041523 -0.06333123 0.12615892
0.1447944 0.049818177 0.07188586 0.112698056 0.12399456 0.16605876 0.04548641 -0.1348817
0.041078795 0.043649428 0.0004813509 0.04028941 -0.11477922 0.039805394 -0.0013399041 -0.066286184
-0.05386507 0.086861685
00000000: 94ec 703d 0c60 863c 38d2 1d3e 829e 0e3e
00000010: 7b41 883c 7e44 e43c a85a 663e 6b21 183c
00000020: 6886 c0bd ef17 d7bd 4e73 a43d 688a d23d
00000030: d23c 883d 8853 e93d fbc4 583d 0cbc e1bd
00000040: c6c7 e1bd 8415 1fbe a892 5cbe ed05 48be
00000050: 9dbc 76bc 9b83 91be e305 b2be 0a22 a2be
00000060: 9d50 29be 808b 63be 33ce 1fbe 9588 c83d
00000070: c6b5 0f3c 9123 7cbc 0309 9cbe eab4 5fbe
00000080: d6c0 4dbd 5286 c3bd fea1 96bd 76e1 efbd
00000090: f110 b03b 1ca4 37be 5a5e e8bd 21db 37be
000000a0: a860 403e d8ea 84bc 6239 cfbc 8bfb 51be
000000b0: 8124 babd 63a8 8d3e 04d8 e53d 7d05 b8bd
000000c0: e275 213d 9598 19be 3083 0bbe 8062 003d
000000d0: 4bf6 843d f587 ad3d b3b0 a33d 2f37 083d
000000e0: b534 8fbd ade8 163e 57cc 853d ee45 df3d
000000f0: 924b 9c3d 33c8 3b3c 287e d9bc a66e f93d
00000100: 88fc 243d 8f82 f4bd 5baf bdbd 3ee1 133e
00000110: 3ed8 b23c ede5 fd3d 11be 5c3d 42dc 1fbe
00000120: 932c 8dbd 5443 cebc 814e 243e a5a8 aebd
00000130: b79f 223e 1af4 1e3e 5d86 b83d 5d05 0c3e
00000140: fc9e a63d 80a8 80bd 5e5d 003e 92ca 803d
00000150: 8ed9 573d 63f7 27bb 6e6f 18be 80d3 6abd
00000160: 01ea dcbd f37f 05be 8511 f23d 6ccd 62be
00000170: 0de1 223e c7f3 c9bd 8692 c43d 23d6 52be
00000180: 662d 6ebe fcf6 fd3d 1f13 3cbe 5a67 2e3e
00000190: 5dcc 513d ab9c 38bc 9ee5 cbbe 80c6 78be
000001a0: b781 71be 14b2 76ba c7aa a13d b2a4 afbe
000001b0: e7af a1be 034a 79bd 5f0c 503d 6928 f8bc
000001c0: 5044 2fbd 318f f53d 0434 b63d cbda d93d
000001d0: 8251 42bd 17af a9bd 186c dd3c bc28 c33d
000001e0: 004b 10bd c2ab 2fbe 1d77 18be 6022 1b3e
000001f0: 5323 693d 307c 5abe 6f41 f5bd 7bdb 593e
00000200: 86f0 97bd 2fa0 48bd 33e3 eb3d cd3f 2abe
00000210: 97ef 14be bb59 d33d 8255 3e3e 1289 0f3e
00000220: c53f 46be f4d7 b53d 2af5 b63d bf49 5ebd
00000230: ba0e c13d 131d 80be a86f 703d bcef 403e
00000240: c5e1 14bd 18bd 3fbe 796b 3a3d ac3f 1fbe
00000250: 5066 6c3e 18c3 4a3d 3cdf 4d3b 20c5 9abd
00000260: 3809 e53d 1084 283e 0946 4ebe b6a8 babd
00000270: 8d81 1abe 6fe9 533e 853e f23d 5bc0 adbd
00000280: c776 473d cbc4 2ebd 38c5 803e 3406 acbd
00000290: 894b 3dbe 4eac af3b bdca 173e 6c7b 0dbd
000002a0: 9aab 5a3e a188 76be dff4 1ebe 0ab9 cfbd
000002b0: ec34 27bd e51b 6a3e 3912 a9bc aeab 3a3e
000002c0: 0081 19be 174b 28be 26de 5bbe 32fa f03d
000002d0: 3921 463e 8fcd fdbd 3d14 e1bd f0ae 3fbe
000002e0: 104c 8c3c 3f40 b33d 7260 2a3e e48a 7fbe
000002f0: f28f 97be eca4 d8bd 7853 ed3c 0569 bfbd
00000300: 2d1b 2e3d 000a 9cbe 94d4 cbbb 75c6 d0bd
00000310: 6d26 b4bd 0043 583c d43d 58be 2ccc 74be
00000320: c4f7 f8bd 4fa6 80be 78c6 53be f616 7d3e
00000330: 3581 7abd 115a 603e 861c 193e e0e8 1d3e
00000340: b548 713d b731 013e f26d 213d 1998 bb3d
00000350: fd33 75bd e308 123d f13b c8bd f0ab 16be
00000360: ea07 053e bbb0 e53d 0568 33be 7bc3 2abe
00000370: 22e1 a2ba d80f 46be 511b 193e 3c69 52be
00000380: b686 273e f5dc 9fbd c4c5 89be 35f8 5bbe
00000390: 9f68 e4bd c5be 383e ceb3 81bd ce2f 013e
000003a0: fc44 143e 250e 4c3d e538 933d 3dce e63d
000003b0: dcf0 fd3d 4f0b 2a3e f54f 3a3d 6e1e 0abe
000003c0: 3d42 283d bec9 323d d35d fc39 8206 253d
000003d0: 5e11 ebbd fb0a 233d b99f afba 0dc1 87bd
000003e0: 9fa1 5cbd 8ae4 b13d

parameterizer.cl_layers.0.bias f4 [10]
0.0060592825 -0.07195224 -0.16375595 0.09816546 -0.11944224 0.06960503 -0.013373647 -0.32407573
-0.07571482 0.06557427
00000000: f28c c63b b25b 93bd a4af 27be f90a c93d
00000010: 229e f4bd 158d 8e3d 241d 5bbc 41ed a5be
00000020: 5f10 9bbd ce4b 863d

parameterizer.cl_layers.3.weight f4 [20, 10, 5, 5]
-0.0023769767 -0.07195363 -0.033780776 -0.003970761 0.027318351 0.017073182 -0.041957475 -0.046237167
0.07926967 -0.035616815 -0.052527424 -0.017815338 -0.036231097 -0.01597622 -0.040615715 0.0045204586
-0.0048802746 -0.03271013 -0.033006478 0.0047411816 -0.08778479 0.020853156 0.048236527 0.04923957
-0.02712525 0.06758255 0.07916306 -0.0011758028 0.050361916 0.039177384 -0.03050112 0.0021698778
0.055709727 0.05195872 0.023705618 0.0004614132 -0.028098918 0.039729297 0.09016335 0.028122932
-0.034833327 0.050463263 -0.037137076 0.000193683 -0.0113707455 -0.015163299 0.067369364 0.04973435
0.045815203 0.03911685 0.054779172 -0.017471913 0.017347531 -0.014805603 0.03668686 -0.024714902
-0.026620818 0.034788553 -0.037673548 -0.009668149 0.01305132 0.04416052 -0.020225532 -0.03703514
0.025454482 -0.025963463 0.009475211 -0.025575535 -0.019946638 -0.031635214 -0.067975014 -0.08093412
0.00543173 -0.04023152 0.08008529 0.0008202381 -0.07325552 0.034692634 0.05082984 0.061879396
-0.023820719 0.01330714 -0.007595271 0.031365693 -0.11523413 0.01777676 -0.0034206223 0.018311929
-0.056838475 0.038541608 -0.01796412 0.0138651775 0.06675281 -0.0041486043 0.015563969 0.022705613
-0.023302015 0.026272282 0.011803419 -0.01948871 0.07830141 -0.030639546 0.026986897 0.039190356
-0.062152375 0.08091124 -0.025875181 -0.049150527 -0.05262023 0.0778469 0.015173348 -0.022046234
0.08125303 -0.022860538 0.052524604 -0.026114777 -0.01157485 -0.050211057 0.02562208 -0.089218445
0.05136695 -0.012702675 0.046084337 -0.036972478 0.025741158 0.003935731 0.055046804 -0.028304197
0.02693056 -0.0017651507 -0.0037822272 0.048050456 0.0073937564 -0.03221293 -0.06133161 -0.012749999
0.01889392 -0.021255815 -0.044010557 0.013468153 0.0009535512 -0.010698606 0.022622101 0.0085916305
-0.014024058 0.019419631 -0.05812863 0.050650485 -0.07551191 0.019664891 0.08171684 0.14476438
-0.024343045 -0.1655076 0.048366655 0.013009091 0.04815359 -0.013340149 -0.09547974 0.03435406
0.028079672 -0.013671334 -0.027513416 -0.045669973 0.03168204 -0.0035733157 0.032717098 -0.050830096
-0.085990734 0.041691948 0.035172854 -0.0061817765 -0.030146673 -0.045265228 -0.025989799 0.023668505
0.023762247 -0.03816877 -0.09022662 -0.0823203 -0.002514587 -0.026825061 0.023645565 -0.00013770806
-0.070854954 -0.07238584 -0.045838952 -0.032028683 0.013582612 -0.12062164 -0.07702644 -0.08068644
-0.048996717 -0.04227688 -0.013643884 -0.1026243 -0.0010983434 -0.058110844 -0.017362071 -0.099308595
-0.052495603 0.0707975 -0.02967781 0.09695147 0.0356289 -0.11300546 0.059891876 -0.024497773
0.030363804 0.06907915 -0.06533541 -0.018882472 0.0701233 0.039537355 0.039233387 -0.0029339555
-0.023555215 0.031241924 0.028963681 0.048321355 -0.11723919 0.10395785 -0.0063888635 0.046595063
0.008663984 0.03358072 0.039784413 -0.009659967 0.0061091688 0.023066543 0.030512774 0.043060437
-0.063701354 -0.033259366 0.08333638 0.045635413 0.0023134812 -0.021477783 -0.009791567 0.045946922
0.0030677905 0.0016226049 -0.04071505 0.021394962 0.08001141 -0.032557163 0.023085495 0.0034857062
0.018114364 -0.0046956763 -0.042076476 -0.067186974 0.08107871 0.015427987 0.082183935 -0.0507782
00000000: 0dc7 1bbb 6d5c 93bd b65d 0abd 281d 82bb
00000010: bcca df3c 0fdd 8b3c 9adb 2bbd 2f63 3dbd
00000020: 2358 a23d f0e2 11bd ff26 57bd 79f1 91bc
00000030: 0f67 14bd 90e0 82bc aa5c 26bd 5b20 943b
00000040: b6ea 9fbb 0ffb 05bd cd31 07bd ea5b 9b3b
00000050: 83c8 b3bd 3dd4 aa3c aa93 453d 6eaf 493d
00000060: c635 debc b868 8a3d 3e20 a23d 651d 9aba
00000070: 4c48 4e3d 7778 203d 7cdd f9bc 8234 0e3b
00000080: e22f 643d abd2 543d 4932 c23c d5e9 f139
00000090: b42f e6bc 30bb 223d 90a7 b83d 1062 e63c
000000a0: 64ad 0ebd 91b2 4e3d 0c1d 18bd 6217 4b39
000000b0: 5d4c 3abc 7c6f 78bc f3f8 893d 3fb6 4b3d
000000c0: b9a8 3b3d fd38 203d 2060 603d 4221 8fbc
000000d0: 691c 8e3c 3393 72bc f644 163d e876 cabc
000000e0: e713 dabc 717e 0e3d 944f 1abd 2867 1ebc
000000f0: 34d5 553c a9e1 343d 04b0 a5bc 29b2 17bd
00000100: eb85 d03c 54b1 d4bc ea3d 1b3c c983 d1bc
00000110: 2267 a3bc ed93 01bd 7c36 8bbd cac0 a5bd
00000120: a7fc b13b cec9 24bd c203 a43d 3f05 573a
00000130: fd06 96bd dd19 0e3d f332 503d 4075 7d3d
00000140: ab23 c3bc 3106 5a3c c0e1 f8bb 5079 003d
00000150: dfff ebbd 91a0 913c 852c 60bb e602 963c
00000160: 76cf 68bd cedd 1d3d 7d29 93bc c52a 633c
00000170: b2b5 883d 04f1 87bb 0400 7f3c 1f01 ba3c
00000180: dee3 bebc f838 d73c 2163 413c caa6 9fbc
00000190: 7d5c a03d c9ff fabc a013 dd3c 1186 203d
000001a0: 7d93 7ebd cbb4 a53d 30f8 d3bc 1052 49bd
000001b0: 4f88 57bd 326e 9f3d a299 783c 4e9a b4bc
000001c0: fd67 a63d 0646 bbbc 0a24 573d a8ee d5bc
000001d0: 71a4 3dbc 1caa 4dbd 65e5 d13c 29b8 b6bd
000001e0: 2766 523d e11e 50bc eec2 3c3d 7470 17bd
000001f0: 1fdf d23c 4ef7 803b c278 613d 34de e7bc
00000200: 7a9d dc3c a15c e7ba 3edf 77bb 8ed0 443d
00000210: 5347 f23b b5f1 03bd db36 7bbd 5fe5 50bc
00000220: 6cc7 9a3c ad20 aebc 6a44 34bd 87a9 5c3c
00000230: bdf7 793a 3549 2fbc fc51 b93c e9c3 0c3c
00000240: 2ac5 65bc eb15 9f3c 4918 6ebd e276 4f3d
00000250: fda5 9abd 4418 a13c 295b a73d 1d3d 143e
00000260: 116b c7bc d37a 29be 1d1c 463d 1524 553c
00000270: b33c 453d a490 5abc e28a c3bd d8b6 0c3d
00000280: 5707 e63c bbfd 5fbc d163 e1bc 7010 3bbd
00000290: 07c5 013d 4a2e 6abb 5d02 063d 3833 50bd
000002a0: e91b b0bd 2dc5 2a3d 6911 103d 8090 cabb
000002b0: 28f6 f6bc 0868 39bd 8fe8 d4bc 74e4 c13c
000002c0: 0ba9 c23c db56 1cbd bcc8 b8bd 8c97 a8bd
000002d0: c5cb 24bb 3bc0 dbbc 58b4 c13c ba65 10b9
000002e0: 671c 91bd 073f 94bd a0c1 3bbd 8230 03bd
000002f0: 9b89 5e3c 7a08 f7bd 0ac0 9dbd ef3e a5bd
00000300: c8b0 48bd 862a 2dbd 998a 5fbc b02c d2bd
00000310: 4af6 8fba a305 6ebd e73a 8ebc 4e62 cbbd
00000320: a105 57bd 48fe 903d e11e f3bc 7e8e c63d
00000330: 9cef 113d 686f e7bd 2f51 753d 8eaf c8bc
00000340: 83bd f83c 5f79 8d3d 92ce 85bd 6aaf 9abc
00000350: ce9c 8f3d ecf1 213d 30b3 203d 9b47 40bb
00000360: def6 c0bc 10ef ff3c 3e45 ed3c 9dec 453d
00000370: 1a1b f0bd dae7 d43d ac59 d1bb 77da 3e3d
00000380: 62f3 0d3c f08b 093d fbf4 223d d744 1ebc
00000390: 6c2f c83b 0cf6 bc3c edf5 f93c 2460 303d
000003a0: db75 82bd f93a 08bd 44ac aa3d 33ec 3a3d
000003b0: c69d 173b 2df2 afbc cf6c 20bc d732 3c3d
000003c0: fc0c 493b 96ad d43a d3c4 26bd 7d44 af3c
000003d0: 06dd a33d a95a 05bd cb1d bd3c 7270 643b
000003e0: 9364 943c 30de 99bb 6258 2cbd 5399 89bd
000003f0: 980c a63d abc5 7c3c 0d50 a83d cdfc 4fbd

parameterizer.cl_layers.3.bias f4 [20]
0.1003388 0.03853476 -0.022039779 0.05850113 0.042313874 0.02790669 0.1302265 -0.08122309
0.06477589 0.04062573 0.05142734 0.024296308 0.090986684 0.004218674 -0.111990504 -0.035296302
0.048152056 -0.06330456 -0.028553246 -0.0513354
00000000: 6e7e cd3d a0d6 1d3d c48c b4bc e29e 6f3d
00000010: 5051 2d3d 929c e43c 185a 053e 4b58 a6bd
00000020: 39a9 843d 2a67 263d 79a5 523d 0d09 c73c
00000030: 3a57 ba3d cd3c 8a3b 475b e5bd db92 10bd
00000040: 173b 453d d2a5 81bd 7fe8 e9bc 1245 52bd

parameterizer.fc_layers.0.weight f4 [50, 320]
-0.028899444 -0.028561182 0.02720268 -0.045279786 0.005682846 0.01574842 0.012532389 0.082458176
0.011215256 -0.04776802 -0.002648343 0.046344724 0.04713239 -0.004513791 0.049237326 0.042103037
-0.030876389 -0.013088471 -0.024734534 0.02431683 0.0031614185 0.028731627 0.018352201 -0.023889963
0.08496264 -0.036559805 0.0054288227 0.019844923 0.12106273 -0.0073840464 0.031331275 0.021402217
-0.08545053 0.006817052 0.019445416 -0.03134763 0.0218151 0.034635592 0.007716846 0.05040733
-0.022707762 0.032911535 0.017757483 -0.013400099 0.11039253 -0.025957689 0.006063667 -0.047212385
-0.019603148 0.019847032 -0.045149103 0.040193964 0.017028563 -0.02558663 0.037711497 -0.03384581
0.022344353 -0.017624462 0.006716809 -0.007680691 0.029938964 0.04672554 0.012337471 -0.030673446
-0.005788256 0.009333639 -0.019810906 -0.013809226 0.007200748 -0.06795179 -0.014339039 0.042384196
0.00720154 0.016798653 0.019031968 0.046071786 -0.0095499605 0.04868503 0.026442777 0.023614015
0.031554315 -0.00055851083 -0.029249113 0.0039268006 0.023790494 -0.008098725 -0.0030732676 0.020212226
-0.01643579 -0.0318751 0.034757007 -0.057029143 0.009706883 0.0033539908 0.06856866 0.021201033
0.0051228623 -0.0043559894 -0.0040607965 0.11766469 -0.008276949 0.009139285 0.012468845 0.01162838
0.009440974 -0.053080775 -0.033975124 -0.057281602 0.018495927 -0.061093394 0.04010972 -0.046528574
-0.00175473 -0.014754157 0.030449849 -0.011194569 0.047618445 0.06512483 0.014524198 0.02884432
-0.019305438 -0.06920935 0.03254471 -0.027601438 -0.0112227965 -0.01297581 0.034455277 0.016024273
0.0074671838 0.021221936 0.016359895 0.010195974 0.035163637 -0.059066843 0.041859265 -0.024837492
0.0045274277 0.040062126 -0.02240589 -0.013234794 -0.048370507 0.0006029115 0.00046196385 -0.020842364
0.023997594 -0.015166428 -0.054210607 0.037514944 0.083277896 0.04957174 -0.045073148 -0.021307398
0.07299359 -0.004380917 0.008861623 0.037804235 0.0035326919 -0.011011075 -0.013246457 -0.03127268
-0.0049293553 0.005115804 0.06549892 -0.017524188 -0.07755159 0.047588006 -0.021994127 -0.003963589
-0.013721848 -0.002858283 -0.0059142318 0.015666535 0.008895253 0.02416118 0.038025107 0.026547235
-0.015179042 -0.02937422 0.0011543046 -0.05000204 0.023840496 -0.037642438 0.021265468 -0.023415511
-0.036681097 0.0495289 -0.026845412 0.034563743 0.0453754 0.0059420173 -0.008797764 0.09269551
0.016261823 0.011302269 0.0029164813 -0.058709834 -0.0007028534 -0.03785888 0.017206538 0.098356545
-0.003503183 -0.035921786 -0.019517865 0.038562577 -0.048628367 0.018248143 0.050675873 0.12019899
0.026036942 0.006698838 -0.03515239 -0.015235761 -0.0015950354 -0.059991024 -0.010275497 -0.021975216
0.028753301 0.010053203 -0.04033294 -0.019323952 -0.0036795253 0.017168641 0.00030552532 0.04793196
0.017026152 0.052822273 0.009015556 0.0048113232 -0.058953937 0.022221664 -0.021902971 -0.03842896
0.041475356 0.01856293 0.0089079 -0.021132544 -0.0024857174 0.06411802 -0.03767108 0.042139336
0.00018120518 0.013261127 0.029545346 -0.015591728 0.00608565 0.0473904 -0.045890152 0.0045557595
-0.05818777 0.015429099 0.0087332055 -0.039685424 0.018035077 0.061885223 0.0065123118 0.16244441
00000000: 87be ecbc 24f9 e9bc 28d8 de3c 4c77 39bd
00000010: 2b37 ba3b d502 813c a654 4d3c d5df a83d
00000020: 31c0 373c 66a8 43bd d38f 2dbb f7d3 3d3d
00000030: e50d 413d 6ce8 93bb 14ad 493d 3c74 2c3d
00000040: 7bf0 fcbc 0771 56bc 14a0 cabc 1734 c73c
00000050: cd2f 4f3b 975e eb3c 5b57 963c e2b4 c3bc
00000060: e500 ae3d bcbf 15bd 44e4 b13b d291 a23c
00000070: bdef f73d dff5 f1bb 3955 003d b453 af3c
00000080: b000 afbd 9461 df3b fe4b 9f3c 5f66 00bd
00000090: 95b5 b23c 0dde 0d3d 99dd fc3b eb77 4e3d
000000a0: a105 babc 3fce 063d 2478 913c 178c 5bbc
000000b0: 7b15 e23d 38a5 d4bc bab1 c63b c661 41bd
000000c0: c896 a0bc 3e96 a23c 44ee 38bd 6da2 243d
000000d0: 7c7f 8b3c 0d9b d1bc 5f77 1a3d e7a1 0abd
000000e0: 810b b73c 2d61 90bc ad18 dc3b 4eae fbbb
000000f0: 8f42 f53c 4863 3f3d 1b23 4a3c e146 fbbc
00000100: 69ab bdbb 1fec 183c 7b4a a2bc 1840 62bc
00000110: 41f4 eb3b 4f2a 8bbd 4aee 6abc 0d9b 2d3d
00000120: e5fa eb3b 549d 893c eee8 9b3c c5b5 3c3d
00000130: 7077 1cbc f469 473d 869e d83c 2e72 c13c
00000140: 193f 013d 0769 12ba d69b efbc 64ac 803b
00000150: 48e4 c23c 84b0 04bc e068 49bb 1c94 a53c
00000160: 5aa4 86bc 778f 02bd 5d5d 0e3d 6497 69bd
00000170: 9e09 1f3c a1ce 5b3b ba6d 8c3d caad ad3c
00000180: afdd a73b b0bc 8ebb 6e10 85bb 2ffa f03d
00000190: 0a9c 07bc f1bc 153c 204a 4c3c f684 3e3c
000001a0: 51ae 1a3c 3a6b 59bd 8029 0bbd 1da0 6abd
000001b0: c584 973c 113d 7abd 174a 243d bf94 3ebd
000001c0: f8fe e5ba 6bbb 71bc f671 f93c 6d69 37bc
000001d0: 8f0b 433d 2b60 853d e7f6 6d3c ec4a ec3c
000001e0: 7026 9ebc a2bd 8dbd 9a4d 053d 691c e2bc
000001f0: d2df 37bc 7e98 54bc fa20 0d3d 5645 833c
00000200: 47af f43b a0d9 ad3c 3005 863c 040d 273c
00000210: bf07 103d 13f0 71bd 9f74 2b3d ff77 cbbc
00000220: d15a 943b 2f18 243d 8f8c b7bc c0d6 58bc
00000230: 2720 46bd b50c 1e3a bd33 f239 9bbd aabc
00000240: 9a96 c43c 9c7c 78bc f10b 5ebd 45a9 193d
00000250: 9a8d aa3d bd0b 4b3d 9f9e 38bd da8c aebc
00000260: aa7d 953d cc8d 8fbb 5730 113c 9dd8 1a3d
00000270: bc84 673b cc67 34bc ab07 59bc c817 00bd
00000280: 6e86 a1bb 79a2 a73b 4c24 863d e38e 8fbc
00000290: 5ed3 9ebd a4eb 423d 072d b4bc ffe0 81bb
000002a0: 9ad1 60bc 0852 3bbb 2ccc c1bb 1b57 803c
000002b0: 65bd 113c abed c53c 37c0 1b3d 9679 d93c
000002c0: 84b1 78bc 34a2 f0bc 094c 973a f0ce 4cbd
000002d0: 254d c33c f52e 1abd eb34 ae3c e3d1 bfbc
000002e0: eb3e 16bd d1de 4a3d e9ea dbbc b692 0d3d
000002f0: 8edb 393d 41b5 c23b 7f24 10bc 25d7 bd3d
00000300: 8437 853c 272d 393c 7022 3f3b b979 70bd
00000310: b13f 38ba ea11 1bbd baf4 8c3c 286f c93d
00000320: a895 65bb b922 13bd eee3 9fbc cbf3 1d3d
00000330: 8a2e 47bd 217d 953c 8191 4f3d e32a f63d
00000340: 6d4b d53c ed81 db3b f4fb 0fbd 6a9f 79bc
00000350: 8210 d1ba 26b9 75bd 8f5a 28bc 5e05 b4bc
00000360: 0b8c eb3c 31b6 243c 2734 25bd 444d 9ebc
00000370: 3124 71bb 40a5 8c3c ea2e a039 4e54 443d
00000380: 6e7a 8b3c 2b5c 583d fcb5 133c 4ea8 9d3b
00000390: af79 71bd 350a b63c dc6d b3bc af67 1dbd
000003a0: 10e2 293d 4911 983c 71f2 113c 281e adbc
000003b0: 6be7 22bb 4f50 833d fe4c 1abd 4c9a 2c3d
000003c0: e501 3e39 3345 593c 1509 f23c 7274 7fbc
000003d0: 226a c73b 701c 423d 50f7 3bbd 7b48 953b
000003e0: 4d56 6ebd 55ca 7c3c b815 0f3c 2f8d 22bd
000003f0: 4cbe 933c 5c7b 7d3d 3b65 d53b d457 263e

parameterizer.fc_layers.0.bias f4 [50]
-0.011543817 0.04204538 -0.009313242 -0.024640514 -0.014635142 0.08122721 -0.0035713909 -0.04299839
-0.061378874 -0.059383743 0.005735428 -4.981744e-05 -0.0061220243 0.0638143 -0.013367075 -0.031395633
0.0036852949 0.04566028 -0.021919772 0.008307101 -0.062728964 -0.00511676 -0.010542491 -0.012695415
-0.030105077 -0.0056813234 -0.027233552 0.07101736 0.03207798 0.06939514 -0.035751168 -0.060152642
0.046614733 -0.0113732675 -0.00096645 -0.04192489 0.04790671 0.06308308 -0.027168212 0.03044881
-0.0057139844 0.06644837 -0.020096928 0.0009519545 -0.006718879 0.03652008 -0.01595401 -0.04232693
-0.06951234 -0.01611468
00000000: 4722 3dbc c737 2c3d 9196 18bc e7da c9bc
00000010: 3cc8 6fbc 745a a63d ff0d 6abb 141f 30bd
00000020: 6a68 7bbd 5e3c 73bd 42f0 bb3b 12f3 50b8
00000030: 439b c8bb 12b1 823d 9301 5bbc b598 00bd
00000040: fd84 713b 4606 3b3d 1891 b3bc 821a 083c
00000050: 0b78 80bd 7eaa a7bb 6aba 2cbc 6e00 50bc
00000060: ec9e f6bc 652a babb e618 dfbc 8d71 913d
00000070: 3364 033d 0a1f 8e3d d16f 12bd 9e62 76bd
00000080: 17ef 3e3d f156 3abc 5d59 7dba 6fb9 2bbd
00000090: d439 443d b431 813d df8f debc c86f f93c
000000a0: 603c bbbb 1516 883d 50a2 a4bc 968c 793a
000000b0: 0b2a dcbb 1496 153d fcb1 82bc 015f 2dbd
000000c0: 7c5c 8ebd ef02 84bc
