results/FASHION_MNIST/checkpoints/Epoch[23]-Step[6480].pt (torch, 374454 bytes, 66 tensors)

conceptizer.encoder.0.0.weight f4 [10, 1, 5, 5]
00000000: f915 5cbd 2d2b 183e 9a6b 303e 6a19 d53d
00000010: 8052 143e d104 85bc d354 73bd 0a9a 783c
00000020: e399 283e 50f2 85bc d05e 103e 4ac9 a13d
00000030: 6b20 1abe 4dd8 013e dea2 afbc 5444 1b3e
00000040: 6b65 363d c8ae 093e e8fd 9b3d 0fcf 1fbc
00000050: 8438 3f3e 8fb3 35bc b5c2 d1bb a65e 6bbc
00000060: ccfc 4e3e 9436 67be bb09 f3bc 1b11 5cbe
00000070: ffae f3bd 338d 85bd b735 1fbe 70a8 37be
00000080: 05fa 84be ec5e 21bd 4464 febd de4b babc
00000090: f0c4 42be 2828 bcbd b04c 23be 8fb5 d4bd
000000a0: b3c7 68be ce9b 4fbd 7ceb 38bd 1571 863d
000000b0: 3f8f a83c fe33 bd3a 8773 cfbb 285c b6bd
000000c0: f857 1dbe 213b 41bc 11b3 ed3c dfc7 25be
000000d0: fb85 9e3d ab6b afbd 6edf eabd d764 a5bd
000000e0: 4908 1fbe e381 9bbc dc13 5dbe 425a 1bbe
000000f0: 6dce 40be 4658 033e 8359 8abd de4d 47be
00000100: 49de 89bd af0a 85bd 03cb e9ba c89d 3bbe
00000110: 652b f5bd cacc 24be b0e8 d63d b2fe b53c
00000120: 5125 2cbc f198 b7bd a5b6 02be dd29 38be
00000130: 56ea cfbd 36ed f13c c014 c5bc 610e 233c
00000140: 9008 4abe 5536 a9bd 3f97 ddbd c237 acbc
00000150: 5a6f e33d 5927 85be 26ce 68be 6864 463c
00000160: dd41 1dbe 1256 0e3d 1e9f f6bd af48 1abe
00000170: 09d3 bfbc f489 49bd 771b 1d3d a888 fabd
00000180: b3f7 8ebd 9810 3cbe 838b 48bc 9f77 da3d
00000190: ab28 b43d cdc2 e5bd 5135 bb3d cc32 0f3d
000001a0: 75a1 b13d bcf4 ae3d 6fb3 f3bd 6d1f 523c
000001b0: c3c0 b63d 0cc0 32be 450e b53d 4ecb 2f3d
000001c0: 5d22 0abe f13d 20be aeba 43bd 6b2f 1a3d
000001d0: 4b53 8bbd 25ea 103e 9d10 d6bd 2db4 5c3d
000001e0: 89cf c83d c1fd 363e e523 ca3b f849 b9bd
000001f0: a329 943d 485a 9e3d 668d 4e3e 2074 c03d
00000200: fe28 d83d e949 833d 9525 13bd 2357 5fbd
00000210: 8089 d83d ab2e f83d 562a 64bd 3fe2 353e
00000220: 62d2 983d 0a04 1d3d cd79 75bd 261b 27be
00000230: 1c8c a4bd b254 123e 56b7 f23d c477 793d
00000240: ceff 1cbe 10e7 fc3d 60bc 593e 6f80 903d
00000250: a88b 96bd 71e6 00bd 69a3 7a3e 3dce cfbd
00000260: 12ea 2a3e 223e 4f3e ff8d 083d 4489 96bd
00000270: d6a9 513e 8b2b 473c 2299 313e 1787 363e
00000280: 4679 ccbd af29 ec39 3b35 8abc deef 43bd
00000290: f0b9 d6bd e91c 1ebe ceb0 2e3e 4075 ee3d
000002a0: d10a 8ebd 2463 2bbe aeff 53be b2b9 95bc
000002b0: 23a5 64be 0eb1 3ebd 88a5 48bc 5a7c c4ba
000002c0: 3abd 6b3b 845e 1abe d27f 51be ec7a a93d
000002d0: 59ac 113d 305f 90bd 8c0f 6e3d ac3b 913b
000002e0: e55c d9bd 4805 6b3e 54f6 483d d9e9 f93d
000002f0: 9455 2b3e d60b b73d adec 433e 3e0d c5bd
00000300: 6b3e 413d b771 51bc eaad 0cbc eb79 8b3d
00000310: 52ec 2c3e ec07 9ebd 6919 b83d dbaa 0c3e
00000320: 55a2 063e 7ba3 33bc 03ea 063e 4309 cd3d
00000330: 6a91 02bd 1af6 b43d 26ca 893d 398e 8dbd
00000340: e9aa b5bd 00e9 643e 003d 083e 5b39 11be
00000350: a8d6 acbd 5b41 8fbd 2cf9 dbbd 1465 3a3d
00000360: 6fad e3bc 8af9 e43d 7425 07be e8e9 803d
00000370: 6dce 2dbe 26a0 b73d a321 20bc 0e08 b6bb
00000380: a679 5a3e 08e4 7f3b 112e 233e 8532 163e
00000390: eceb d63d 470d 583d 594f 90bd 8198 de3b
000003a0: 57e7 073e 724c 77bd f20f 9d3d cad2 073e
000003b0: d27e 0e3e c274 333e 360b 9dbd 207c f13d
000003c0: 3cbf e43a 27cd ef3d 422e 8cbd 48a8 e8bd
000003d0: 1195 b73d 6022 c93c 8f62 133d 3c66 3e3e
000003e0: 9c33 413e 9bee cd3d
-0.053731892 0.1486022 0.17228547 0.10405238 0.14484596 -0.016237648 -0.059407067 0.0151734445
0.16464953 -0.016350895 0.14098668 0.07899721 -0.15051429 0.12680168 -0.021439966 0.15162784
0.044530313 0.1344558 0.07616788 -0.009753956 0.18673903 -0.011090173 -0.0064013847 -0.014365828
0.20213622 -0.22579414 -0.029667726 -0.214909 -0.11898612 -0.06521072 -0.15547834 -0.17935348
-0.25972 -0.039397165 -0.12421468 -0.022741254 -0.19020438 -0.09187347 -0.15947223 -0.10386192
-0.22732429 -0.050685696 -0.04514645 0.065645374 0.020576118 0.001443505 -0.0063309106 -0.08904296
-0.15365589 -0.011793883 0.02901605 -0.16189526 0.077403985 -0.08565458 -0.11468397 -0.08075874
-0.15530504 -0.018982833 -0.21589607 -0.1517115 -0.18828745 0.12826642 -0.06755354 -0.19463298
-0.06731851 -0.06496178 -0.0017836991 -0.18321908 -0.119711675 -0.16093746 0.104936 0.022216175
-0.010506944 -0.08964718 -0.12764986 -0.1798472 -0.10152118 0.029532056 -0.024057746 0.009952159
-0.19729829 -0.08262316 -0.108198635 -0.021022681 0.11105223 -0.26006582 -0.2273489 0.0121089
-0.15357156 0.03475005 -0.12042068 -0.15066789 -0.02341606 -0.049203828 0.03835627 -0.12233096
-0.069808386 -0.18365705 -0.012240293 0.10667347 0.08796819 -0.11218796 0.09141029 0.034960553
0.086733736 0.08542773 -0.118994586 0.012824875 0.08923485 -0.17456073 0.08840612 0.042918496
-0.13489671 -0.15648629 -0.047785453 0.037642878 -0.06802996 0.14151819 -0.104523875 0.053882767
0.09805209 0.17870237 0.0061688297 -0.090473115 0.07234504 0.077320635 0.20171127 0.09397149
0.10554694 0.064105816 -0.035924513 -0.05452646 0.10573101 0.12118276 -0.055704437 0.17762087
0.07462002 0.03833393 -0.05993061 -0.1631895 -0.08034536 0.14290121 0.11851375 0.060905233
-0.15331957 0.12348759 0.21263266 0.07055747 -0.07350856 -0.031469766 0.24476399 -0.10146759
0.16690853 0.20238546 0.033338543 -0.073504 0.20474944 0.012156378 0.17343572 0.1782497
-0.099840686 0.00045044484 -0.016871085 -0.047836177 -0.104846835 -0.15440716 0.17059633 0.116434574
-0.06935657 -0.16737038 -0.20703003 -0.018277023 -0.2232862 -0.04655557 -0.012246497 -0.0014990673
0.0035970942 -0.15075117 -0.20458916 0.082753986 0.035564754 -0.070494056 0.058120295 0.0044321623
-0.10613421 0.22951233 0.04906304 0.12202806 0.16731864 0.089378044 0.19133253 -0.09621666
0.047178667 -0.012783459 -0.008586386 0.068103634 0.16887024 -0.07716355 0.089892216 0.13737051
0.13147862 -0.01096427 0.13175206 0.10011532 -0.03187696 0.08836003 0.0672801 -0.069118924
-0.08870489 0.22354507 0.1330452 -0.14182036 -0.0843938 -0.069948874 -0.10740885 0.04550655
-0.02779266 0.11180408 -0.13197881 0.06294614 -0.16973276 0.08966093 -0.009773645 -0.0055551594
0.21335468 0.003904583 0.15935542 0.14667709 0.10494217 0.052747037 -0.07046384 0.006793082
0.13271843 -0.06037564 0.07669057 0.13264003 0.13915566 0.17525008 -0.07668154 0.11791253
0.0017452012 0.117090516 -0.068447605 -0.11360222 0.08963979 0.024552524 0.035982665 0.18593687
0.18867344 0.10055276

conceptizer.encoder.0.0.bias f4 [10]
00000000: cf52 883d 9b0a 423e 6a87 963e c0a6 76bd
00000010: ffeb d13e 9fe5 383e 4e81 15be 95dd 413d
00000020: 83a3 853e 5d3d a93d
0.066564195 0.18949358 0.29400188 -0.06021762 0.41000363 0.18056343 -0.14600107 0.047330458
0.26101312 0.08263657

conceptizer.encoder.1.0.weight f4 [5, 10, 5, 5]
00000000: 3ec6 86bc 3e5e 83bc 95b9 5e3a e507 403d
00000010: e833 72bb 8283 a9bb 695d 353c 423d 473b
00000020: e4c7 3ebd 71fa e33d fc0c 61bd ac7a 3b3d
00000030: 899a 4ebd c896 c93b 4432 1d3b fc43 863c
00000040: 5ecf c93b 2956 fb3c 23ec c6bc e74f 623d
00000050: 6be6 c83a 7a48 65bd 8ef4 c03c de67 cc3c
00000060: ae27 5c3d 6563 003e 4323 9c3d baec 123d
00000070: 72c4 223c 396a fb3b 6954 a73d 10d6 da3c
00000080: 987f 83bd f4f5 b3bc 7ef8 5aba a4c3 4d3d
00000090: 0282 d83c 51b9 23bc 78cb ccbc 9021 7cbb
000000a0: d42f 0ebc b17d 48bb cb52 26bd c8d6 853d
000000b0: 403d 623d b5f8 20bd 8b9a d83c 6c00 64bd
000000c0: aa08 fbbc e0e6 8bbd 1355 903d 9f31 4b3d
000000d0: 3240 1abc f0db 8bbc 8c8e 6cbd 0917 343c
000000e0: f52e cd3b 71f3 8b3b b2cc 81bd 6daf af3b
000000f0: 576d 8c3d 209f e83c ca35 b4bc b66d 2dbd
00000100: 021c 05bd 166a 233d b76a f03c 989f 4bbd
00000110: 53b2 eb3c e59d 51bd 774f 613b 276e 37bd
00000120: 16fd 973c aae3 083d f968 87bc ab96 c53c
00000130: 961d 7e3c 3265 143c 0e27 c63c 3e2b 28bb
00000140: 4925 d23d 3766 7d3d dcd9 23bd 4bab 353c
00000150: 70f1 b5bc d71c d23d f07a 6d3c f6f2 5cbd
00000160: ee19 25bd b872 07bd 35fe 06bd dbdf f8bc
00000170: 136c 48bc a746 afbb 2a57 15bc 885d 3bbb
00000180: 0a00 abbd bfc7 1bbc b7a0 243d 5bcf f73a
00000190: 9c18 8b3d 0ef2 783d 89e2 bf3c 8fa9 dcbb
000001a0: 7702 31bd 7f21 0f3c d886 383d 26f9 ee3c
000001b0: fed3 913c 493f d8bb 2af1 b63d 06b8 0c3c
000001c0: 7c79 a43d 800d d1bc 0d44 aebd a649 4a3d
000001d0: bf3d 053e d403 6c3d 1f51 093d 042c ad3c
000001e0: 0ff8 123d b13d bf3d 0910 f63d 65e6 273d
000001f0: 7c4a a3bb e858 be3c 8833 623d 56ce 6bbd
00000200: 587d 03bd b12a d73c 3d5e 39bd 9e2e ab3c
00000210: c87b 9dbc f351 513c 78f6 083c c94f 39bd
00000220: 6104 bb3c 5ecb 4a3d c506 183d ff1d 033d
00000230: 1687 46bc 9798 4cbd 8388 eb3c b3fa 1dbd
00000240: 2ee7 4abd 91ff 2dbd 795c 293d 93c2 04bd
00000250: 1e0d 28bd dc32 93bc 7bf2 22bd 52fe b4bd
00000260: 2114 3fbd 685e 54bc 3fe7 953b cb02 503d
00000270: 95a5 8c3c 5abf 4bbd 1c35 86bd 2e39 97bc
00000280: 35a9 1bba d954 213c 7e5e 91bd f9a7 abbd
00000290: b5f2 b6bc 6937 2ebd 3573 8dbd 06d8 b4bd
000002a0: 556d 99bd ac26 5bbd bf15 0abe 64a0 9cbd
000002b0: 15be 92bd f01d 0abe 5ddd c2bd 992e 5bbd
000002c0: a2b0 75bd fe8d 5d3c 717d 113d 829e 753d
000002d0: 2ee0 92bb cb3d 0f3d e971 b2bd c196 13bc
000002e0: 2080 6abb 0a32 963c f8c2 3abd cecf 9cbd
000002f0: a0f8 afbc 4ef9 a33d b380 d3bc a162 f1ba
00000300: a3d0 36bd 0aa5 cf3c 815f 2d3d af84 653d
00000310: 6a5a ba39 dd62 17bd 0160 283d e68b 823d
00000320: e7e5 e5bd 8414 173d cbe8 23bc 3bc0 c9bc
00000330: bd34 803d a43c 8abc 693b 0a3d fd86 d43c
00000340: 171a 713c a3b0 bb3d 36da 583c b6ba 37bd
00000350: ca57 64bd e08b f73c f11f 333d b720 6f3c
00000360: 7460 703d 0cc8 903c 2a83 843a 1287 b83d
00000370: 95ae 08bd c249 8c3d 0044 76bb d7e3 0f3d
00000380: 3057 ad3d bdf8 843c f109 7fbd 1356 29bd
00000390: 58d2 823d bac7 753d f08f 883c 292c 083d
000003a0: 6e56 ac3b e7b6 2bbd 5ae7 9a3c 5b15 da3b
000003b0: ecc6 4a3d c643 19bd 7dff 193d 14e3 c4bc
000003c0: 822c b63c 74ef d7bc 2d95 f4bc 7ae8 44bd
000003d0: 88d7 583d e2d1 6ebc 0d06 44bd 32d8 d43c
000003e0: d5b1 903d bdc7 4e3b 5e46 fa3c 5ae4 003d
000003f0: e3de 6e3c 7f75 833d 3df4 713d a04e f33b
-0.016451951 -0.01603615 0.0008496282 0.04688253 -0.0036957208 -0.0051731477 0.011069634 0.0030401503
-0.04657735 0.11131752 -0.054944023 0.045771286 -0.050440345 0.0061520077 0.002398626 0.01638984
0.0061587533 0.030680733 -0.02428252 0.055251982 0.0015327459 -0.055977322 0.023554113 0.024951871
0.05374878 0.12537916 0.07623913 0.03587029 0.0099345315 0.007672575 0.08170397 0.026713401
-0.06420821 -0.021967866 -0.0008353068 0.050235406 0.02642918 -0.009992913 -0.024999365 -0.0038472153
-0.008678395 -0.0030592496 -0.0406063 0.06535107 0.055234194 -0.039299686 0.02644088 -0.055664465
-0.03064378 -0.06831145 0.070474766 0.04960787 -0.009414719 -0.017072648 -0.05775313 0.01099182
0.006261701 0.004270964 -0.06337871 0.0053614886 0.068567924 0.02839619 -0.021998305 -0.042340957
-0.032497413 0.039896093 0.02934776 -0.049712747 0.028771555 -0.05117597 0.003437964 -0.044782784
0.018553298 0.033420242 -0.016529547 0.024119696 0.0155099835 0.00905733 0.024188545 -0.002566054
0.10261018 0.061865058 -0.04000269 0.011088203 -0.022209853 0.10259407 0.014494643 -0.053942643
-0.04030793 -0.03306839 -0.032957274 -0.03038018 -0.012232798 -0.0053489986 -0.00911502 -0.0028589685
-0.08349617 -0.009508072 0.040192332 0.0018906401 0.06791803 0.060777716 0.02342345 -0.00673408
-0.04321524 0.008736013 0.045050472 0.029171538 0.017801281 -0.006599341 0.08932717 0.0085887965
0.08030984 -0.025519133 -0.085090734 0.049386643 0.13011836 0.05762084 0.03352463 0.021139152
0.0358811 0.093379386 0.12014777 0.040991206 -0.0049832445 0.023235753 0.055224925 -0.057569824
-0.03210196 0.026265474 -0.04525589 0.020896252 -0.019224063 0.012775886 0.008359544 -0.045242105
0.022829236 0.049510352 0.03711583 0.03201103 -0.012117168 -0.04995021 0.028751617 -0.038569164
-0.049536876 -0.042480055 0.041347954 -0.032412123 -0.041028135 -0.017968588 -0.03978203 -0.0883757
-0.046650056 -0.012961961 0.004574686 0.050783914 0.0171688 -0.049743034 -0.065530986 -0.018459883
-0.00059379946 0.009846889 -0.07098101 -0.083816476 -0.022332529 -0.042533312 -0.069067396 -0.08830266
-0.074915566 -0.053503677 -0.13484858 -0.076477796 -0.071651615 -0.13487983 -0.09514878 -0.053511236
-0.059982903 0.013522623 0.03552002 0.059965618 -0.0044822907 0.03497104 -0.08713133 -0.0090081105
-0.0035781935 0.018334407 -0.045596093 -0.07656823 -0.021480858 0.080065355 -0.025818205 -0.0018416235
-0.044632565 0.025347251 0.042327408 0.05603474 0.00035544048 -0.036959518 0.04110718 0.0637434
-0.11225491 0.0368848 -0.010004233 -0.024627795 0.06260059 -0.016874619 0.033748064 0.025943274
0.014715693 0.0916455 0.013235619 -0.044855796 -0.055747785 0.030218065 0.043731634 0.014595202
0.058685735 0.017673515 0.0010109891 0.090101376 -0.03336962 0.06850006 -0.0037577152 0.035129394
0.08463895 0.016231889 -0.06226534 -0.041341852 0.06387776 0.060004927 0.016670197 0.03324524
0.0052593267 -0.041922476 0.018909145 0.006655378 0.049506113 -0.03741815 0.03759717 -0.02403406
0.02223802 -0.026359297 -0.029856289 -0.04807327 0.05293992 -0.014576407 -0.047857333 0.025981996
0.07065169 0.0031552159 0.030551132 0.031467773 0.0145795075 0.06418895 0.059070814 0.0074251443

conceptizer.encoder.1.0.bias f4 [5]
00000000: bc89 d03d 7fc2 163d d5da 8a3b 8574 c53d
00000010: 3d90 2d3e
0.10182521 0.03680658 0.0042375126 0.09641365 0.16949554

conceptizer.encoder.2.layers.0.weight f4 [1, 16]
00000000: 0aaf 333b 8724 68be 15e0 9ebd a7b9 32be
00000010: 8333 cd3d 02bf 77bb 432d 9c3d 4ce0 3bbe
00000020: 7461 35be 4c90 79be ff89 cebd 8949 21be
00000030: fe5a 67bd 40fd 8ebe 20dd 54be 0ec0 02be
0.0027417564 -0.22670184 -0.07757584 -0.17453633 0.10019591 -0.0037803059 0.076258205 -0.18347281
-0.17712957 -0.24371451 -0.100849144 -0.15750708 -0.05648326 -0.2792759 -0.20787477 -0.12768576

conceptizer.encoder.2.layers.1.weight f4 [1, 16]
00000000: e5e2 8c3e 0b62 37be d910 783d e4cc 323e
00000010: 633a da3c 3fc6 c43d 9770 61be ecb7 353e
00000020: 9157 1f3e b6ff 65be 711d 43bd cb75 a13c
00000030: 1a52 a23e 7e5b b3bd 864a 7fbc df21 353e
0.27516857 -0.17908494 0.060562942 0.17460972 0.02663917 0.09608125 -0.22015606 0.17745942
0.15560748 -0.22460827 -0.0476355 0.019709488 0.31703264 -0.08757685 -0.015581733 0.17688702

conceptizer.encoder.2.layers.2.weight f4 [1, 16]
00000000: 079f 47be d1f1 ae3e b39a 9e3e f1b0 913e
00000010: e584 e53d 85b7 063d a108 503e 4d3e eabb
00000020: afb3 7fbe 21b8 23bd 1f21 1a3d 7e49 68bd
00000030: da65 9abe d4f2 b4bc f7fb 6fbd 6f5e 6abc
-0.19494258 0.34168866 0.309774 0.28455308 0.11206988 0.03288986 0.20315792 -0.00714854
-0.24970888 -0.03997052 0.037629243 -0.056710713 -0.30155832 -0.022088446 -0.0585899 -0.014304741

conceptizer.encoder.2.layers.3.weight f4 [1, 16]
00000000: 1559 8c3e 2b18 943d b2aa 9abd 836f 6a3e
00000010: a6c3 033c 2ebc 06bc e2e0 e13d a4cc 3b3e
00000020: 50fa e3bd b116 ba3d 3394 81bd 0c92 123e
00000030: 9069 963d 730c 0ebe e853 b9bd 849f 0bbe
0.27411714 0.07231172 -0.07552089 0.22894101 0.008042252 -0.0082235765 0.11029221 0.18339783
-0.11131728 0.09086359 -0.06327095 0.14313525 0.07344353 -0.13871937 -0.09049207 -0.13635069

conceptizer.encoder.2.layers.4.weight f4 [1, 16]
00000000: 71c7 173d 6019 1bbe 7eff c9bd 98bc 06bd
00000010: e67f acbe 33e4 59bd 930c dc3c 98fb 07be
00000020: 1cf6 22be 5d10 26be a328 44be 0b3c 1abd
00000030: 68b4 dbbd d5bb 033e c306 273d a6a1 95bd
0.037055437 -0.15146399 -0.098631844 -0.0328947 -0.3369133 -0.053196143 0.026861465 -0.13279569
-0.15914196 -0.1621718 -0.19156127 -0.037654918 -0.10727769 0.12864621 0.040777933 -0.073062226

conceptizer.decoder.0.0.weight f4 [5, 16, 5, 5]
00000000: 237d d0bd 69f5 9b3d 88f9 4e3d 2e78 0abe
00000010: b71b c2bd 54f9 dc3d 31c5 82bc 6593 ec3c
00000020: a1f7 14bc 64fb cebd 6402 e4bd b4ee 2bbd
00000030: 28c0 6dbc 65d0 05be d7ce 243e ce7d 81bc
00000040: a10c 273d 53c4 edbd 1f8f f3bd 1f6d f03d
00000050: 8e67 1abe 8460 80bd 57a7 c83d d2b1 1fbe
00000060: 50a9 3cbe bebc 63bb 745d 443e 82c2 4dbd
00000070: 1faa 0a3e fb2d c83d a6be 6bbd 264a ad3d
00000080: b080 dabd 8a56 e13d 8c16 1b3d 3fb0 cc3d
00000090: e9b1 d0bc 422b 263d 136b 5dbd 0d03 56bd
000000a0: 51f6 233e 51ca 26be 0f15 d9bd a47c c93d
000000b0: 05fb ee3c 0470 36bd a7ed bfbd 7f32 31bd
000000c0: 9d20 18bc 5440 ba3d 6a46 db3d b51d 8ebd
000000d0: c1be 39be e06c 6dbd bcc6 d93d 08b1 f0bc
000000e0: bacb 95bd ef55 bdbd b520 183d a68e 1a3d
000000f0: 5eb6 f1bd 8230 d0bc 02bf f13d e71d b6bb
00000100: e546 11be a10e b03d c8a0 e2bd 4494 5b3d
00000110: 1e63 163e d59c cf3d 4bc4 80bd d96c 64be
00000120: 0560 103c 3864 ae3d f173 473c d86f 96bd
00000130: d4d0 7fbe 7f8c 20be f167 cf3d e287 92bd
00000140: cbab 11be 6161 0e3e 740c 4ebe e64b a6be
00000150: b5b0 8a3c b115 e6bd 10e5 1fbe 9ed6 773d
00000160: 568b a43d b0dc a63c db29 58bd ead2 84bd
00000170: 4d9c 4ebe aa9b 82be ce14 efbc 3b5d f8bd
00000180: 7a51 12be f269 c63d 63fb 583d 36f1 ec3d
00000190: 80b7 dabd 50d7 0bbe 695f b0bd 811c 14be
000001a0: ee1d ce3d 7f44 c1bd 66ad ba3d 5f20 443d
000001b0: bd4d 61bd bbde 27bd f9b8 f43d 307b be3d
000001c0: 3844 00be c40f 43bd b677 923c 8984 843c
000001d0: 5929 70bd c75d e23d 7adb fd3d 3676 c4bd
000001e0: fe91 07be f2a9 0d3d c137 ac3d f7c7 173e
000001f0: 69b8 203e b540 a23d 4ed3 c2bd eee8 6bbd
00000200: 35f8 c43d fdd2 dd3d 847c 96be 2841 f4bd
00000210: cd1c d03c f49e 73bd dd8f d3bd e30e bdbd
00000220: 0040 e1bd 5c4d 7f3d b87c 643d 3b63 beba
00000230: 5085 08bc 2076 92bc c6e2 3ebe 6dc2 81be
00000240: dfda e63d 0283 383e c440 2bbe de7a 303d
00000250: 55af 5f3d 3efb 743d 6f10 c33d 0164 c4bd
00000260: 302e 903d 5a21 e2bd 0b0b 243e ba63 9ebd
00000270: 167f 07bd 93ce 46bd fa96 62bd 0984 bd3d
00000280: 7a46 4c3d 75e9 e5bc bf01 87bd 2d6a 053e
00000290: c96d 40bd ddb6 9c3d f48e 2abd a6a8 583c
000002a0: 3469 b73d 0b2f c3bd ae44 18be 62e4 cf3d
000002b0: 77e4 803d 4c6c 2abe d8d2 3dbe d252 bd3c
000002c0: c42e 4b3c 8392 553d 2e68 e0bc 0070 9f3d
000002d0: e5c5 483d b564 fe3d 9bd7 d6bd 771c 473c
000002e0: 0377 803b 7008 023e 0b2b e63d 4297 8dbc
000002f0: a478 50bd 20d4 0ebe a182 ed3c a3e0 fe3d
00000300: f60d 4ebe ff9f 3b3d 3544 08be 37d5 2f3d
00000310: fe18 82bc c2e2 a13d c7ed cf3d 2edb 6fbe
00000320: b3e5 d03d b522 743c c7f4 12be 90be cfbd
00000330: 2e1d 0cbe 70b4 75bb 8c5f a7bd 68b5 b03c
00000340: eacd 7cbd 1b13 063e ca0c 463e 2527 a33d
00000350: 0b5d 0ebe b0b7 8abc 5b9a acbb 10a9 3b3c
00000360: 4d45 c1bd 70eb bb3c 97b0 383c 8835 243d
00000370: 58d4 72bc 91ba a63c ab37 fdbd 056e 13bd
00000380: b8fd 663d 747a 1c3d 0355 ccbb a75f ce3d
00000390: 3284 643e 2e3d 0ebe b347 0a3e d871 e83d
000003a0: 1502 4a3e e68e 1e3d c46f 323e 6794 56be
000003b0: 9b01 1abd cfe6 fc3d 3a4c 8a3d 547d 3dbd
000003c0: 4cc0 b33b a3c5 9b3c ee1f 063c a074 a4bc
000003d0: e136 4fbc 8f16 36be ff49 363e 57ee e83d
000003e0: 2d47 123d 4c13 0fbd d18d af3c 2c3d c8b9
000003f0: 02e5 6a3e 5e74 7ebd 68f7 6cbe 0f74 3dbd
-0.10180118 0.07615168 0.05053094 -0.13522407 -0.094779424 0.10789743 -0.015963169 0.028878877
-0.009092242 -0.10106543 -0.111332685 -0.041975692 -0.014511146 -0.13067777 0.16094528 -0.015807059
0.04078353 -0.116097115 -0.118925326 0.11739563 -0.15078565 -0.06268409 0.097975425 -0.15595177
-0.18423963 -0.003474995 0.19176275 -0.050234325 0.13541459 0.09774395 -0.057554863 0.08461408
-0.106690764 0.11002834 0.0378633 0.09994554 -0.02547546 0.040568598 -0.054057192 -0.052249003
0.16011931 -0.16288115 -0.1059972 0.098382264 0.02917243 -0.04454042 -0.093715005 -0.043261047
-0.009285119 0.09094301 0.1070679 -0.0693926 -0.18139173 -0.05796516 0.10633609 -0.02938129
-0.073142484 -0.09244906 0.037140567 0.037733696 -0.11802362 -0.025413755 0.1180401 -0.005557764
-0.141872 0.0859654 -0.11065823 0.053608194 0.14686248 0.10137335 -0.0628744 -0.22307147
0.008811955 0.08515209 0.012173639 -0.07345551 -0.24982005 -0.15678595 0.10127247 -0.07154824
-0.1422569 0.13904335 -0.20121938 -0.3247978 0.016929964 -0.11234606 -0.15614724 0.06050741
0.08034389 0.020368904 -0.05277429 -0.06485541 -0.20176812 -0.25509387 -0.029184725 -0.12127157
-0.14288893 0.09688176 0.052974116 0.11569445 -0.10679531 -0.13656354 -0.08611948 -0.14463998
0.100643024 -0.09436893 0.091151044 0.047882434 -0.055005778 -0.040983897 0.11949343 0.0930084
-0.12526023 -0.047622457 0.017879348 0.016176479 -0.058633182 0.11053043 0.123953775 -0.095928594
-0.13239285 0.0345859 0.08409072 0.14822374 0.15695347 0.07922498 -0.095129594 -0.057595186
0.09617654 0.108312584 -0.29391873 -0.1192649 0.025404358 -0.05947776 -0.10330174 -0.09231355
-0.10998535 0.062329635 0.055783004 -0.0014525423 -0.008332565 -0.017878592 -0.18641195 -0.25343648
0.11272215 0.18018726 -0.16723925 0.043085925 0.05461057 0.059809916 0.09524619 -0.09589387
0.070400596 -0.110415176 0.16019838 -0.07733865 -0.033080183 -0.04853685 -0.055319764 0.09253699
0.0498719 -0.028065423 -0.0659213 0.13028784 -0.0469797 0.07652066 -0.041640237 0.013223803
0.08955613 -0.09530457 -0.14869949 0.101509824 0.06293576 -0.16642874 -0.18537462 0.02311078
0.0124012865 0.052141678 -0.027393427 0.07785034 0.049016852 0.12421552 -0.10490342 0.012152783
0.0039204373 0.12698531 0.112386785 -0.01728404 -0.050896302 -0.13948107 0.028992953 0.1244519
-0.20122513 0.04580688 -0.13307269 0.042927947 -0.015881058 0.07904579 0.10152774 -0.23423454
0.10200062 0.014900853 -0.14351188 -0.10143769 -0.13683006 -0.0037491582 -0.08172521 0.021570876
-0.061719812 0.13093226 0.19340816 0.079664506 -0.1390268 -0.016933292 -0.005267424 0.011453882
-0.09437046 0.022939414 0.011272571 0.040090114 -0.0148211345 0.020352634 -0.123641334 -0.035993595
0.05639431 0.038202718 -0.00623572 0.10076838 0.22316054 -0.13890526 0.13503914 0.11349839
0.19727357 0.038710497 0.17425448 -0.20955049 -0.037599187 0.12348711 0.0675282 -0.0462621
0.00548557 0.019015139 0.008186324 -0.020075142 -0.0126473615 -0.17782043 0.17801665 0.11373585
0.03571241 -0.034930512 0.021429928 -0.0003819255 0.22938922 -0.062122695 -0.23141253 -0.04625326

conceptizer.decoder.0.0.bias f4 [16]
00000000: 04fa 9e3d 066f d83c ad89 b73c 9fc5 a03d
00000010: a650 37bc c44f 403d 5db1 803d 56a4 4f3d
00000020: e6de 2f3a b420 8a3d fd72 00bc 53d7 053d
00000030: fab1 c33d 2156 13be acbe dcbd 85d7 883d
0.077625304 0.026420128 0.022404516 0.07850193 -0.011188662 0.04695107 0.06283829 0.050693832
0.00067089347 0.06744519 -0.007839915 0.032676052 0.09555431 -0.14388324 -0.10778555 0.06681732

conceptizer.decoder.2.0.weight f4 [16, 8, 5, 5]
00000000: 714b 76bd ec49 a33c 9cd3 ef3d 400a de3d
00000010: 9cf7 e03d 8897 cabd 9fbd 3e3e da64 453e
00000020: 1dfc 2b3d 126b cf3d bc54 ce3d 8ad2 1b3e
00000030: b6b7 0a3e 29a1 e23d 286e e03c 9d8a 243e
00000040: 2348 133e fe04 103e e87f b93c 010d 973b
00000050: fa6d 283e 3db4 393d aa9b 3d3d c4a1 dc3d
00000060: 7971 a43c f3d6 9ebc 0d33 6bbd b174 023d
00000070: dc8a 113e 0819 1a3e 548e 923d 8b37 5dbb
00000080: f16a ae3d 8a03 583e 1fce 283e f532 7bbc
00000090: 18fb 753d c80b d93d 006d e03d 6dd8 e03d
000000a0: 5692 c13c 5915 d13d e26c 3e3e b479 473e
000000b0: 00f0 373e 9ccb b03d f476 ed3d 0058 243e
000000c0: f165 c33d 171f a53d d122 e7bc 719d bcbd
000000d0: 5913 8fbd 296b 1a3d 1300 893d 97f5 b7bd
000000e0: f0a4 3bbd f5d9 8ebc 011f 783d 4a6f 153e
000000f0: 7fe0 6ebd 9b2e d3bc cc8a 44bb 301a eb3d
00000100: 2a88 ce3d 2e07 a53d 21c7 153e a054 e83d
00000110: 26bd be3d 85e0 f63d 0b1a c63d c31e 2d3d
00000120: 15a8 2d3e d73f 2c3e 58ed fe3d 2c71 9abd
00000130: 17ee 913d e6f9 223c fb47 b43d d590 763d
00000140: 39b2 713d 903e dd3c edad e9bd 0fde a8bd
00000150: 934b 3dbd 9843 06be 8f66 23bc 60df 02be
00000160: d394 e5bd fcf1 96bd 321c 38be 4c0e f2bd
00000170: 451a 6cbe 7da3 11be 0a47 13be e989 5f3d
00000180: 651a e9bc 99e0 11be 6bd1 05be 314a 19be
00000190: 8c8d fa3d 6099 f83d d08f bd3c b9bc ebbd
000001a0: b990 dcbc 1fbe e23d 96f2 7f3d c2df 46bd
000001b0: 8bfd 1dbe 681c cc3d 5083 8b3d 8c65 23be
000001c0: df8c 38be 534d f8bd a467 69bc 1324 46bd
000001d0: 2e15 06be 0dc3 6bbe cc8d 24be 2af5 e3bd
000001e0: 1a6e 50bd f33c 3bbe fd7d 5bbe 1211 22be
000001f0: f796 fe3d 6735 1d3e 5729 823e 1aa1 1c3d
00000200: bf83 5ebe 2326 cdbd f890 103e 164e f53d
00000210: 200f a3bd 7c91 9dbe 17f5 44be 1c90 753d
00000220: febd b1bd 8e47 0bbe aa4c 4abe 3d62 51be
00000230: 422a 703c 1c2e f6bd 9942 3fbe 6bab 94be
00000240: 9e01 96be 7f39 363c e91f c1bd 85e3 25bd
00000250: c67a f0bd a1e0 0dbe 337b dd3d e776 1a3e
00000260: 0329 18bc 0001 9ebd 1da0 cd3c b3f3 603d
00000270: 521a 24bd fa9b 21be ecf9 46be f5b8 6ebd
00000280: 0842 a6ba 4beb 0ebe 0da9 57be 9dfc 55be
00000290: b01b 79be 139d d3bd c57c 35be 22f1 46be
000002a0: 03a7 84be e382 adbd b88e cdbd 9003 35be
000002b0: 87db eebd a4f3 61be 0e17 9fbd 4891 6ebd
000002c0: 9521 4bbd 6399 923d b717 e13d c689 5abd
000002d0: e5da 0abe 0398 30bd cc05 6c3c af51 da3d
000002e0: 1267 19bd f6d7 fbbd d182 27bd 198a 813d
000002f0: c75c 023e fe65 dd3d 2844 ff3c cfeb 4c3c
00000300: 92a6 803d 59d8 583e 7a05 453e 1433 6ebe
00000310: 4eea 543d ab95 693d 6d28 583e e43c 423e
00000320: 2901 1f3d a16c 31bd d9e7 783d f0ad c13d
00000330: 3054 df3b 89dc 953d 9c8a afbd 98f5 763d
00000340: b1f9 0b3e fdb3 083c 09ba a23d 3125 d7bd
00000350: fa1e 453d 226f 393e c44d fcbc 66b8 113d
00000360: deeb 293c 7017 be3d 4248 1f3e e1f6 88bd
00000370: 069b 873d a5e5 9e3c 2429 c13d eb9f e93d
00000380: 2e85 c43d 72ec c23d 934a f43d fee7 e53d
00000390: 1890 a03d 88cc c03d 4ce5 c23d 27de 923d
000003a0: 9e86 bc3c 0f85 0f3e be43 a03d 5361 2d3e
000003b0: 3fee 043e dfd9 b13d 63e6 1b3e 42a8 133e
000003c0: 0ff7 193e 8090 dc3d f9b1 c13c 9c36 4d3d
000003d0: 5ccd 153e ee38 623d 2cbe 02bd 77a1 da3c
000003e0: e7a7 df3d 1c15 973d b41e 47bc dd5b 06bc
000003f0: 2c0a 9a3c 3523 b63d 113b d2bb 5244 013e
-0.06013054 0.01993271 0.11710283 0.10841799 0.10984728 -0.098921835 0.18627022 0.19276753
0.04198848 0.10127844 0.100747555 0.15217033 0.13546643 0.11065895 0.027396277 0.16068502
0.14382987 0.14064404 0.022643998 0.0046097045 0.16448203 0.045337904 0.04629103 0.10773042
0.02007364 -0.019389605 -0.057421733 0.031849567 0.14213127 0.15048611 0.07156053 -0.003375503
0.08516491 0.210951 0.16484879 -0.015331973 0.060053915 0.1059795 0.1095829 0.1097878
0.023629349 0.1020915 0.18596223 0.1948002 0.17962646 0.086325854 0.11594954 0.16049194
0.09540928 0.080625705 -0.028214844 -0.09209717 -0.06986112 0.037699852 0.06689467 -0.089823894
-0.045811594 -0.017437914 0.060576443 0.14593235 -0.058319565 -0.02577906 -0.0029989956 0.11479604
0.10084565 0.0805801 0.14626743 0.11344266 0.09313421 0.120545425 0.09672936 0.042265665
0.1695865 0.16821228 0.124476135 -0.07541117 0.0712549 0.009947276 0.08802792 0.060196716
0.059007857 0.027007371 -0.11410127 -0.08245479 -0.04621465 -0.13111722 -0.009973182 -0.12780523
-0.112100266 -0.073703736 -0.17979506 -0.11819133 -0.23056896 -0.14222522 -0.14382568 0.05457488
-0.028454969 -0.14245833 -0.13068168 -0.14969708 0.12234029 0.12138629 0.023139864 -0.11510605
-0.026924478 0.11071419 0.062487207 -0.048553236 -0.1542875 0.099663556 0.06812155 -0.15956706
-0.18022488 -0.121241234 -0.014245901 -0.048374247 -0.13094017 -0.23023625 -0.16069716 -0.11130746
-0.05088625 -0.18284969 -0.2143478 -0.15826824 0.12431138 0.15352403 0.25422165 0.038239576
-0.21729945 -0.100170396 0.14117801 0.11977784 -0.07961869 -0.30775058 -0.1923412 0.059951887
-0.08678816 -0.13601515 -0.19755808 -0.20447631 0.014658513 -0.120205134 -0.18677749 -0.29037032
-0.2929811 0.011122107 -0.094299145 -0.040500183 -0.11742167 -0.1385522 0.10814514 0.1508442
-0.009287122 -0.077150345 0.025100762 0.05491991 -0.040064164 -0.15782157 -0.19431275 -0.058281858
-0.0012684474 -0.13956945 -0.21060582 -0.20897146 -0.24326968 -0.10332694 -0.17723377 -0.19427922
-0.2590867 -0.0847223 -0.10036987 -0.1767714 -0.11662965 -0.22065598 -0.07768069 -0.05824402
-0.049592573 0.071581624 0.10990851 -0.053354047 -0.13560064 -0.04311372 0.014405679 0.10660111
-0.03745181 -0.12297051 -0.04089624 0.06325168 0.12730704 0.10810469 0.03116043 0.012507393
0.06281771 0.2117628 0.1924037 -0.23261672 0.051981263 0.0570275 0.21109171 0.1896854
0.038819466 -0.043316487 0.060767982 0.09457004 0.006815456 0.07317454 -0.085713595 0.06029281
0.13669468 0.008343694 0.0794564 -0.105051406 0.048125245 0.181088 -0.0307988 0.035576247
0.0103711765 0.09281814 0.15554908 -0.066877134 0.06621365 0.019396612 0.09431675 0.11407455
0.095957145 0.095177546 0.119282864 0.112258896 0.07839984 0.09414011 0.09516391 0.071712784
0.02301341 0.14015602 0.07825421 0.16931657 0.12981509 0.08684134 0.15224604 0.14419654
0.15035652 0.10769749 0.023644434 0.050100908 0.1462912 0.055230074 -0.031919643 0.02668832
0.10920697 0.07377073 -0.012153316 -0.008200613 0.018803678 0.08893434 -0.0064157327 0.12623718

conceptizer.decoder.2.0.bias f4 [8]
00000000: ddbc bf3d d3d5 173d 14a5 d23d f032 823d
00000010: df70 5a3d 8436 823d 0966 ed3c aa6d b7bd
0.09362195 0.037069153 0.102853924 0.06357372 0.0533303 0.06358054 0.028979318 -0.08956464

conceptizer.decoder.4.0.weight f4 [8, 1, 2, 2]
00000000: de0c a3be f3b8 b53c 22e4 51be 8e8e 363f
00000010: ade5 063f a38c 0a3f c588 283f df56 1c3f
00000020: 71bb 273f c23d 073f 3f85 e33e 7df9 e5bd
00000030: 2980 3abf d8b1 43bf 7bbe 33bf e5d0 4ebf
00000040: 5a34 17bf 16f0 4bbf 8dc0 cabd 3408 d2be
00000050: 4eaf 21bf 779d 43be 7419 67bf 294b 2dbf
00000060: 21cb 70be 005a 4cbf d5fd 88be b5e1 dabe
00000070: 99f1 703f bb28 46be 2bb5 483f 280f 27be
-0.31845754 0.022182917 -0.20497182 0.7131127 0.5269421 0.54120845 0.65833694 0.61070055
0.6552039 0.5282861 0.44437596 -0.11229227 -0.72851807 -0.76443243 -0.70212525 -0.807875
-0.5906426 -0.7966322 -0.099000074 -0.41021883 -0.6315812 -0.19103037 -0.90273213 -0.6769281
-0.23514988 -0.7982483 -0.26756158 -0.42750326 0.9411865 -0.19351475 0.7840144 -0.16314375

conceptizer.unlinear.weight f4 [16, 1]
00000000: dcf5 7cbf 8565 253f b178 52bf dd25 a8bf
00000010: a384 87bf 891e 64bf cbe9 823f b8f9 7cbf
00000020: 9fb9 7abf 9a87 8fbf f61d 8b3f 60de 0a3f
00000030: e736 8cbf 4dee 873d dcf6 2cbf 19fc 583f
-0.9881265 0.6460803 -0.8221541 -1.3136555 -1.0587353 -0.8910909 1.0227598 -0.9881854
-0.97939485 -1.1213257 1.0868518 0.5424557 -1.0954255 0.06637249 -0.6756418 0.8475967

conceptizer.unlinear.bias f4 [16]
00000000: 8c4c 3d3f 6bf2 47be 5c0d 93bf 5f6c 773f
00000010: bfd1 313f 4d20 683e e955 f7be 7c32 c93e
00000020: 7ac4 e03e 4488 2bbf 3894 2dbf d617 063f
00000030: 35f5 23be 2590 32bf cec8 3fbf 4847 0cbc
0.73944926 -0.19526069 -1.1488452 0.96649736 0.6946067 0.22668572 -0.48307732 0.3929633
0.438999 -0.670048 -0.6780429 0.5238012 -0.16011508 -0.697512 -0.7491578 -0.008561917

parameterizer.cl_layers.0.weight f4 [10, 1, 5, 5]
00000000: 88d7 a13d 40d3 8c3c e3a5 0d3e 2956 083e
00000010: 9597 043d c3de f73c ccae 663e f9e5 25bc
00000020: e52c e8bd 7565 f6bd bcf4 b23d 530f e73d
00000030: b36f 973d be99 f53d b24c 713d 8246 01be
00000040: b2fa dabd 2538 21be b024 59be 78eb 55be
00000050: 0f08 b93b 38e7 8abe a317 a0be c8b2 94be
00000060: 061a 3dbe 141a 5fbe 4240 16be 3efc bb3d
00000070: 634a adbc 63fc 02bd 30b3 96be c07e 51be
00000080: 45bd 4bbd 0dee cebd b81c a4bd fa50 09be
00000090: ef2e 753b 8f79 32be eed1 c3bd 38db 29be
000000a0: 4332 3d3e 988f d1bc 1d06 92bc fb9a 56be
000000b0: 7e86 c0bd 344e 8c3e b7f8 ce3d c820 dcbd
000000c0: 5e42 663d d8ef 1cbe 5823 0fbe be07 cc3c
000000d0: f5e4 803d 1e69 b53d dd6f a63d eb50 093d
000000e0: 2123 91bd 80db 193e 2bba 933d b857 e73d
000000f0: 231d b23d 5e29 103c 26eb f7bc 2e3d eb3d
00000100: 68a7 0b3d 38b8 dabd 7e50 c7bd 9856 173e
00000110: ace7 7b3c 75be ec3d 104f 893d b9c9 1dbe
00000120: 0d2b 5fbd 4362 c7bc e2af 363e eace aebd
00000130: 8240 223e cf42 1e3e 1d5c b83d be18 0e3e
00000140: 1067 b23d 9a6e 73bd dcf6 f73d 4ca6 913d
00000150: 750b 833d 18ac 3fbb f3f9 1dbe 215b 99bd
00000160: 617b d6bd 2d27 05be 7742 043e 5ae1 5cbe
00000170: fc34 233e af7a b0bd 3b9b d23d 1874 54be
00000180: b43f 68be 3256 ed3d 4a27 3abe 1f08 333e
00000190: 6e4e 2c3d 8dce 643b 5739 c1be faf8 59be
000001a0: e8fc 5dbe c998 f1bc 279d 943d 4d5f a9be
000001b0: 8dc0 9abe 340a 95bd 2186 733d c081 6fbc
000001c0: 120a 5cbd 8e2d f13d 2766 c83d 35e0 e03d
000001d0: fcb7 72bd dbab 8fbd a5f9 f13c 12b5 953d
000001e0: cf2f 19bd df54 36be 20fa 1dbe bdcd 223e
000001f0: f539 503d cbaa 59be 66a1 f7bd 37d2 453e
00000200: c4a3 8dbd 3d12 50bd 63a2 ce3d 9e17 3abe
00000210: 8bac 23be ca5f da3d 87f0 423e 6c2c 123e
00000220: 3cfe 3fbe 189a da3d 392c b93d 66db 6cbd
00000230: 4048 d43d 3778 75be be07 aa3d 30f8 313e
00000240: f406 32bd 0284 43be 494a 453d faf0 0fbe
00000250: 9696 653e 4442 723d ef11 dbb7 8d7a 9ebd
00000260: 553a ec3d 46c5 263e 9898 4dbe 3a5a bebd
00000270: 0eed 16be d609 4e3e 080e fe3d abf0 92bd
00000280: 5fb5 533d 37ff 26bd 5100 7b3e e42c a9bd
00000290: a30c 3abe b727 483c a594 1f3e b026 fcbc
000002a0: a252 5a3e d632 70be 98aa 25be 6414 d3bd
000002b0: 9900 3bbd 035e 643e 4af3 a8bc ce75 443e
000002c0: 375f 20be fba6 2bbe b422 5cbe ec70 033e
000002d0: 32f4 3e3e 749c 04be a3fb b7bd 4031 35be
000002e0: a97d b73c c2e7 aa3d 4720 283e 434d 7bbe
000002f0: 9472 93be db1c ccbd 60b4 f43c 6f74 e3bd
00000300: ea3b 623d 0873 93be 4a93 ec3c a8ca ccbd
00000310: b8e1 d4bd 69cf b43c ae9b 56be efa6 68be
00000320: 593b efbd 3c8f 78be c63e 47be 9880 6a3e
00000330: 6bfd 93bd 387c 543e 249c 133e 02cc 1f3e
00000340: ea29 293d 62e8 023e 20c6 323d d9ae d23d
00000350: 4d6b 3fbd a41a 213d b958 b3bd 97aa 1abe
00000360: e345 053e 22c3 d63d 832c 38be b871 32be
00000370: 4c02 033b 18d0 4fbe 9354 183e 543a 4fbe
00000380: 035f 293e f390 95bd 4dc7 84be fb7c 4fbe
00000390: a801 f0bd ae81 3c3e 3745 81bd 3d33 0b3e
000003a0: 11cf 163e e12b 213d 476b 9e3d e695 df3d
000003b0: 76f5 ee3d 62e8 2b3e fa05 343d 63fa 06be
000003c0: 1f2e 193d b6b8 2a3d 4cd9 953a 74d2 303d
000003d0: 4939 febd cf97 253d ae8f deb6 b382 8cbd
000003e0: 46ac 37bd 8183 bd3d
0.079024374 0.017190576 0.13832812 0.13314117 0.032371122 0.030257588 0.22527617 -0.010125631
-0.11336688 -0.1203107 0.08738086 0.1128222 0.07394352 0.119922146 0.058911033 -0.12624553
-0.106923476 -0.15744074 -0.21205401 -0.20890605 0.0056467126 -0.2712953 -0.31268033 -0.2904265
-0.18466958 -0.21787292 -0.1467295 0.09178971 -0.021153634 -0.031978976 -0.29433584 -0.20458508
-0.04974105 -0.10103998 -0.0801329 -0.13409796 0.0037412008 -0.17429183 -0.09561525 -0.16587532
0.18476205 -0.025581166 -0.01782518 -0.20957558 -0.09400652 0.27403414 0.10106032 -0.1074844
0.056215636 -0.15325868 -0.13978326 0.024906036 0.0629367 0.0885794 0.08126805 0.033524435
-0.070867784 0.15025139 0.07213243 0.11296028 0.08696964 0.008798925 -0.030263495 0.114862785
0.034095198 -0.10679668 -0.097321495 0.14779127 0.015375059 0.11559764 0.06704533 -0.15408982
-0.054484416 -0.024338847 0.17840531 -0.085355595 0.1584492 0.15455173 0.09001944 0.13876626
0.08711064 -0.05943165 0.121076316 0.07111797 0.0639867 -0.0029246863 -0.1542738 -0.074880846
-0.104727514 -0.13003226 0.1291598 -0.2157034 0.1593818 -0.0861715 0.10283514 -0.20747411
-0.22680551 0.11588706 -0.1817905 0.17483567 0.042066984 0.0034913153 -0.3773906 -0.21286383
-0.21678507 -0.029491799 0.07256537 -0.3308052 -0.3022503 -0.07277337 0.059454087 -0.014618337
-0.05372054 0.11776267 0.09785109 0.10980264 -0.059257492 -0.07015201 0.029537985 0.07309927
-0.03739911 -0.17805813 -0.15427446 0.15898795 0.050836522 -0.21256559 -0.12091331 0.19318472
-0.069160014 -0.050798643 0.100895666 -0.18173072 -0.15983789 0.106628016 0.19037066 0.14274758
-0.18749326 0.10673922 0.09041638 -0.057826422 0.10365343 -0.2397164 0.08302258 0.17379832
-0.043463662 -0.19093326 0.048166547 -0.14056769 0.22420725 0.059145227 -2.6115185e-05 -0.077382185
0.115345635 0.16286191 -0.20077741 -0.09294553 -0.14738867 0.2012094 0.1240502 -0.0717481
0.05168664 -0.040770736 0.2451184 -0.08260515 -0.18168883 0.0122165 0.15584047 -0.030780166
0.21320584 -0.23456892 -0.16178358 -0.103066236 -0.045654867 0.22301488 -0.020623822 0.19185564
-0.15661322 -0.16762917 -0.21497613 0.12836045 0.1864784 -0.12950307 -0.08983543 -0.17694569
0.022398787 0.083449855 0.16418563 -0.24541192 -0.28798354 -0.09966441 0.029871166 -0.11106192
0.05523292 -0.287987 0.028878827 -0.09999591 -0.10394615 0.022071557 -0.20957825 -0.2271993
-0.116812415 -0.2427339 -0.1945754 0.22900617 -0.0722607 0.2075051 0.14415032 0.15605167
0.041299738 0.1278396 0.043645978 0.10287256 -0.04673319 0.039332047 -0.08757157 -0.15104137
0.13014941 0.104864374 -0.1798573 -0.17426193 0.0019990383 -0.20294225 0.14876013 -0.20237094
0.1654015 -0.073030375 -0.25933304 -0.2026252 -0.11719066 0.18408844 -0.0631203 0.13593765
0.14727427 0.039348487 0.07735305 0.10917263 0.11667912 0.16787866 0.043951012 -0.13181452
0.0373975 0.04168006 0.0011432557 0.043169454 -0.1241327 0.04042798 -6.632842e-06 -0.068608664
-0.044842027 0.09253598

parameterizer.cl_layers.0.bias f4 [10]
00000000: d844 843d 5ace 12bc 615b 19be e513 e13d
00000010: 1fe1 87bd 7387 bb3d ee42 42bc 7f5e 8abe
00000020: 9cc9 8ebd e554 243d
0.064584434 -0.008960331 -0.14976265 0.10990123 -0.06634735 0.09156694 -0.011856778 -0.2702522
-0.06972048 0.040120024

parameterizer.cl_layers.3.weight f4 [20, 10, 5, 5]
00000000: dec3 32bc 4033 91bd 309e 0ebd 3281 37bc
00000010: 9d5b ef3c ab23 5d3c c6d4 0bbd 42ab 53bd
00000020: 2e61 a33d 02cb d0bc 410c 70bd f037 e4bc
00000030: 3851 26bd c19a c9bc 000a 3dbd 6481 56b9
00000040: c503 c1bb 69cb 06bd 7d92 0ebd 6cbb a93b
00000050: 9bfc adbd 9663 5f3c 9470 363d 88de 383d
00000060: 9198 d2bc e734 633d ba6c 9b3d 8550 bcbb
00000070: 203e 173d b952 093d 5e4d f6bc 2889 373a
00000080: c02b 203d 4d1a 393d bfca 0b3d b1f3 39bc
00000090: 123b cebc ca60 1f3d c94d a53d 41e2 053d
000000a0: 7e44 05bd 32b1 203d db43 d1bc 083f 4fbc
000000b0: e718 c5bc c96c 20bc e3d7 6d3d baa3 4a3d
000000c0: 9f9a 3c3d 9257 fb3c 6616 4d3d d62c cbbc
000000d0: b070 673c c2ab 90bc cf3b 3a3d 37d9 e2bc
000000e0: 1d9d 1fbd 208c 053d 1d6f 19bd f8d5 79bc
000000f0: fca8 413c 454c 2f3d 1d9b c8bc d243 39bd
00000100: 0ce9 aa3c 52eb a7bc 1b47 c53c 4bb4 8fbc
00000110: ed48 32bc e26f 22bd bc17 84bd e4ad 88bd
00000120: 5f1c 993c 9d2e e4bc 44c2 833d 1a18 843c
00000130: 5017 70bd 9fc1 803c 3bbe 2e3d 9427 933d
00000140: 78e5 b4bc 1cef 443c fa62 29bb c19f 513d
00000150: 46bc a1bd ab1b 6c3c 2223 c3bb bb6d dcba
00000160: b734 88bd dd64 2f3d cae5 9dbc 0398 ad3c
00000170: d6ae 823d 6291 94bb 1f11 9e3c 78fa 183c
00000180: 2ccf 22bd a31d 493c b02d 713c 7d10 f7bc
00000190: 644c 993d d876 40bd 77ad d33c 1e74 433d
000001a0: b948 5ebd 9996 953d 13d6 30bd 9f39 3cbd
000001b0: 9f8e 6bbd 99ac 803d 9298 713c 8350 8bbc
000001c0: 2b05 a23d fac5 ebbc 4b24 583d 46dd bebc
000001d0: 0720 87ba a653 43bd 330b 9c3c 5d77 aabd
000001e0: fdd9 6c3d 778e 63bb f5b7 123d 5abc eebc
000001f0: 7f25 e63c 7fae cc3b 8078 703d c3cd 2cbd
00000200: 60c6 c53c 3780 b43c 5ef6 f83b 23cc 553d
00000210: d502 0c3d 59ea 0ebd 7ec8 4fbd 697a 32bc
00000220: 7d07 ce3c e6ea afbb 2fd0 1fbd 5959 953c
00000230: c87f 1e3a 8a0d 13bc 62ac e63c cfd7 103c
00000240: 272a afbc 5677 303c baf3 60bd 9dce f43c
00000250: 2d7b a3bd ef5a 203c 3342 993d 3c69 0c3e
00000260: cd7b 2dbd f512 16be 799f 863d 7054 2a3c
00000270: dde3 3c3d 0845 bdbc 66dc bbbd 2d07 f93c
00000280: b5ab dd3c 76d8 5abc 2ed4 1bbd 5ea9 38bd
00000290: 538c 183d 0624 0dbb 7911 d53c 603c 65bd
000002a0: d52f c0bd ae7c 4b3d 75ef 103d 19aa 9abc
000002b0: 90a8 e5bc 001c 53bd 1bf6 edbb 372d ba3c
000002c0: 7002 d43c 2610 07bd 348c acbd 7038 84bd
000002d0: 71ae fcb9 c1d2 9bbc 4559 a83c 1658 cbbb
000002e0: 58e0 61bd 4f07 92bd 9164 2fbd 96c7 00bd
000002f0: fca6 f43b 7dbf d2bd f618 75bd 1839 8fbd
00000300: 56f6 2ebd 05df 43bd 6ec6 2bbb f456 ccbd
00000310: c05e 12bc a0bf 40bd 351e bcbc 703e c9bd
00000320: 5d91 2cbd ae38 963d 846e 25bd cc1c c53d
00000330: 1f80 ee3c 0189 dfbd 4168 653d cf36 33bc
00000340: 402b 333d 6fd1 9b3d 4bb6 65bd f603 d4bc
00000350: a178 533d 6bd7 803c 85a7 d13c 067e 223c
00000360: caa3 ccbc ad8f ee3c 410b 823c c88b 0a3d
00000370: 7ee7 d3bd 6ba4 b53d a883 bcbc 4398 043d
00000380: e667 b33b 506b c83c 4e4d 213d b527 b0bc
00000390: faee 63bb 1d9d e43c 340e c13c e1ac 283d
000003a0: 1b64 2dbd 0796 d6bc f6bc a13d 3b23 fb3c
000003b0: 5d27 b03b a177 a1bc 12d2 1bbc 277c 6c3d
000003c0: 805e b43c fb0c c33b a69e e8bc d4e8 e03c
000003d0: c47e 8c3d 716a f6bc bdec ce3c 63ff 803c
000003e0: c6cc cc3c aa48 d5bb 82c3 50bd 756f 91bd
000003f0: 7acc 963d 6668 f23a 12de 973d c356 4fbd
-0.010910956 -0.07089853 -0.034818828 -0.011200236 0.02921849 0.013497273 -0.034138463 -0.051676996
0.0797752 -0.025487427 -0.058605436 -0.027858704 -0.0406048 -0.024609925 -0.046152115 -0.00020456832
-0.005890342 -0.03290883 -0.03480767 0.005179813 -0.08495446 0.013634583 0.044540957 0.045134097
-0.025707515 0.055470373 0.07589097 -0.0057469034 0.03692448 0.033526156 -0.030066188 0.0007001334
0.039104223 0.045191098 0.0341289 -0.011349604 -0.025174651 0.038910665 0.08071477 0.032686476
-0.032536022 0.039231487 -0.025545051 -0.012649305 -0.024059726 -0.009791561 0.058067214 0.049472548
0.046045896 0.030681405 0.05007019 -0.024801653 0.014125988 -0.017660026 0.045467194 -0.027691467
-0.038968194 0.032604337 -0.03745948 -0.015248768 0.011820074 0.042797346 -0.024488026 -0.045230694
0.020863079 -0.020497952 0.024081757 -0.017542025 -0.010881645 -0.03965748 -0.064498395 -0.06673792
0.018690286 -0.027854258 0.064335376 0.016124774 -0.058615983 0.015717326 0.042661887 0.07185283
-0.022082075 0.012019899 -0.0025846348 0.051177744 -0.078972384 0.014410893 -0.005955116 -0.001681737
-0.066506796 0.0428208 -0.019274611 0.021190649 0.063810036 -0.0045339325 0.019295273 0.00933706
-0.039748356 0.012275132 0.014720365 -0.03015923 0.074852735 -0.04698834 0.02583955 0.04771816
-0.054268572 0.07304115 -0.043172907 -0.04595339 -0.05750906 0.062829204 0.014745848 -0.017006164
0.07911142 -0.028780926 0.052768987 -0.02329887 -0.0010309228 -0.047687195 0.019048309 -0.08323548
0.057825077 -0.0034722367 0.035819966 -0.029142547 0.028094051 0.0062463875 0.058708668 -0.042188417
0.024142444 0.022033794 0.0075977286 0.052196633 0.03418239 -0.03489146 -0.050728314 -0.010893443
0.025150055 -0.0053685782 -0.0390169 0.01823108 0.00060462626 -0.008975396 0.02815837 0.008840515
-0.021382404 0.010770639 -0.054919936 0.029883677 -0.07982478 0.009787305 0.074833296 0.13712019
-0.042354394 -0.14655669 0.06573386 0.010396108 0.046115745 -0.023104206 -0.09172897 0.03039893
0.027059415 -0.013357272 -0.038044147 -0.045083396 0.0372432 -0.0021536364 0.026009308 -0.05596578
-0.09384123 0.04967945 0.035384614 -0.018879937 -0.028034478 -0.051540375 -0.007262004 0.022726638
0.025880069 -0.032974385 -0.08425179 -0.06456077 -0.00048195155 -0.019021394 0.02055038 -0.006205569
-0.05514559 -0.071303 -0.042820517 -0.03144034 0.007466195 -0.1029043 -0.059838258 -0.06993312
-0.042715393 -0.04782011 -0.0026210803 -0.099775225 -0.008933723 -0.047057748 -0.022963623 -0.09826362
-0.042130817 0.073350295 -0.0403886 0.09624633 0.029113827 -0.10914803 0.056007627 -0.01093836
0.04374242 0.07608306 -0.05608205 -0.025880795 0.051628713 0.01572772 0.025592575 0.009917742
-0.024980444 0.029121244 0.015874507 0.033824712 -0.10346888 0.08869251 -0.023011997 0.03237177
0.005475032 0.024465233 0.039380364 -0.021503309 -0.0034779892 0.027906949 0.023566343 0.041180495
-0.042331796 -0.026194585 0.078973696 0.030656448 0.005375786 -0.019710364 -0.009510534 0.05773559
0.022017717 0.005952475 -0.028395962 0.027454771 0.06860116 -0.030080052 0.02525937 0.015746778
0.024999987 -0.0065089064 -0.0509677 -0.07101337 0.073632196 0.0018494248 0.074154034 -0.05061985

parameterizer.cl_layers.3.bias f4 [20]
00000000: 472a ca3d 2d73 8f3c 3a7f 5bbc 5c86 643d
00000010: 5daf 1a3d 71d0 7d3c d4ec d53d feaa 9fbd
00000020: 06c5 603d eb64 f73b c117 5a3d d6fc af3c
00000030: ab36 a53d 939d 583a 4854 d0bd 381d 8ebc
00000040: 81b8 343d 1d15 63bd df24 20bd 04a7 3dbd
0.09871345 0.017510975 -0.013397032 0.055792198 0.037764896 0.015491591 0.10445562 -0.07796286
0.054875396 0.007549872 0.05324531 0.021482866 0.08067068 0.00082632265 -0.101723254 -0.017347917
0.04412127 -0.055440057 -0.039097663 -0.046301857

parameterizer.fc_layers.0.weight f4 [50, 320]
00000000: 1933 a8bc b5a5 e0bc 9bf7 c33c a1ab 5abd
00000010: bc02 8f3c 1c8a a33c e08e b93a a261 7d3d
00000020: aeec ab3b 4e32 41bd 3391 68bb cd5d 2b3d
00000030: 0477 f53c b6af 8dbb 2416 563d 88ef 413d
00000040: 4f22 06bd aa83 bdbc eee6 1abd 3916 a93c
00000050: 152a cc3c 385a 323c 8546 2f3c d8de b1bc
00000060: ee2f a23d b813 1ebd 5eef cb3a 65ab ab3c
00000070: a700 de3d e9f6 b1bb a45e 1e3c c92f ea3c
00000080: 1896 aebd 0442 303c 918b 813c 2cb3 e8bc
00000090: f7bf 6a3c 30eb 293d 235b 623c 942f 423d
000000a0: a290 a3bc 1661 2d3d 2739 c43c d72e 89bc
000000b0: d918 b73d d40f d8bc 123e 2c3b c1b3 48bd
000000c0: 1b29 c2bb aa23 a03c 10f3 37bd 4386 253d
000000d0: da94 663b c98c 0dbd 5a8c bb3c b048 1dbd
000000e0: 501e 8c3c 16af a7bc c100 dc3b f6c7 eebb
000000f0: bd39 2f3d f402 333d 01c6 af3a 0eba d2bc
00000100: 88c9 34bb a3cc 3c3c b602 e7bc 738d 77bc
00000110: 3767 c7bb 8132 8abd b995 9cbc 6778 ee3c
00000120: bc4c 61bb b7be a13c 59c2 553c 194b 473d
00000130: fd84 3bbc 5c98 5a3d dff0 c63c b0e3 073d
00000140: 9048 fa3c 9957 3fbb da1b 12bd a3ee 5c3c
00000150: a3c5 f73c a240 88bc dfab 64bc ee29 223c
00000160: 5e93 11bc f07a 04bd 5090 e93c 4b9e 84bd
00000170: f444 993c 35fa f63b 108a 393d 4f61 9a3c
00000180: 2d04 ed3b 6320 aa3a caaa a13b 86fa d63d
00000190: 65f7 02bc b76f 9aba 6ed7 7a3c d1fb 273b
000001a0: eaba c33c 00bb 4abd 64a1 10bd dff6 4fbd
000001b0: ec6e db3c 930b 31bd 5019 0e3d d783 f7bc
000001c0: 166a 41bc 9437 09bc 22b0 973c d1ad 83ba
000001d0: aa67 4f3d 8413 743d 0667 f73c 407a e43c
000001e0: 5ac3 d9bc c091 99bd 6df7 d03c 4616 08bd
000001f0: 2647 1abc 8df7 e9bc 2a6d 983c a745 8e3c
00000200: c810 d1b9 5b73 a43c 4c39 7e3c afc2 193c
00000210: 6427 263d 8b3d 46bd cc00 193d 7cfe ddbc
00000220: 3849 6c3c dacb 1c3d 5ff2 13bd 54da 90bc
00000230: 05dc 2ebd f0fc ff3b 6152 62bc e6f1 bdbc
00000240: 674f dc3c 0016 c5bc c314 5dbd 013e 3f3d
00000250: de1e a53d c6a7 eb3c 434f 27bd 38d7 c0bc
00000260: 51de 7b3d 2f24 5f3a d7b0 a03c 9207 2e3d
00000270: e410 f1bb 8dce 2fbc f462 91bb 266d 2dbd
00000280: 318c 03bc 4a71 433c ddb1 913d 1fbe c3bc
00000290: b432 9bbd 9161 3f3d b73d 96bc fc30 e93b
000002a0: 7b3d 7dbc d7c8 f5b9 3e4f 3fbc e4f9 ba3c
000002b0: e797 953b 9283 ec3c fcb7 173d 8c8b db3c
000002c0: d5c1 cdbc afc6 16bd cf11 9b3a dcbc 34bd
000002d0: 90e3 883c 94ec 07bd 3249 883c 5976 58bc
000002e0: f850 19bd 6477 4a3d ee47 08bd 8055 303d
000002f0: 9de0 4b3d 5067 643c a190 01bc d3ec 9f3d
00000300: d873 4d3c cca9 593c d2e1 cb3b 7930 82bd
00000310: 8e6e 8dbb 8f2a 3abd 6588 7a3c 6d72 983d
00000320: fe21 43b9 054c 10bd 8b4f a7bc b34f 163d
00000330: d699 2bbd 5fd8 b03c 196c 5a3d 5e74 e03d
00000340: 8eab 913c 75ea 7f3b fe96 f0bc 802a 63bc
00000350: 8883 d13a 8df8 92bd 95da 1fbc 0056 9abc
00000360: 0d7d 063d 7b82 593c 7450 f9bc d3e7 cebc
00000370: c636 2f3b c6c7 e93c 180f 7b3b 84c6 643d
00000380: 5e08 9b3c 5fea 723d 0a98 2c3c c2fc 0e3c
00000390: a255 70bd 8dc7 f23c 0f8c b6bc d668 01bd
000003a0: dac8 3f3d 51f0 a33c ee1d 823b 5579 86bc
000003b0: e023 0cbc 324a 633d b46d f1bc 44b1 2c3d
000003c0: 300d f5bb b0f8 ec3b bf29 b53c 1150 a6bc
000003d0: 483b 443c ee33 533d 3b52 61bd 5ebf 36b9
000003e0: ba24 5fbd f5d8 503c f7f9 5d3c ffd3 23bd
000003f0: edeb 813c e165 923d 7c10 60b9 7d39 153e
-0.020532178 -0.027422765 0.023921778 -0.053386334 0.017457359 0.019963317 0.001415696 0.061860688
0.0052467203 -0.047167115 -0.0035486936 0.041837502 0.029963978 -0.004323925 0.05226721 0.047347575
-0.032747563 -0.023134071 -0.037817888 0.02064048 0.02492241 0.010885768 0.0106979655 -0.021712705
0.07919298 -0.038593024 0.0015559008 0.02095575 0.10839968 -0.0054310453 0.009666119 0.028587239
-0.08524722 0.010757927 0.01581362 -0.028405748 0.014327995 0.041484058 0.013815674 0.047408655
-0.019966427 0.042328916 0.023953034 -0.016745968 0.08940286 -0.026374735 0.0026282114 -0.04899955
-0.0059253103 0.019548256 -0.044909537 0.040411245 0.0035183937 -0.03455809 0.022894073 -0.0383994
0.017104298 -0.02046923 0.006713957 -0.007287021 0.042779673 0.04370399 0.001341045 -0.025723483
-0.0027585942 0.011523399 -0.028199535 -0.015109408 -0.006085302 -0.06747914 -0.019114362 0.029110147
-0.0034378013 0.01974426 0.013046824 0.048655603 -0.011445281 0.053367957 0.024284778 0.033176124
0.030552179 -0.00291965 -0.035671093 0.01348463 0.030245608 -0.016632382 -0.013956993 0.009897692
-0.008885233 -0.032343805 0.028511196 -0.064755045 0.018709637 0.007537151 0.045297682 0.018845228
0.007233164 0.0012979623 0.0049336897 0.10497002 -0.007993554 -0.0011782561 0.0153101515 0.0025632272
0.023892839 -0.049494743 -0.035310164 -0.050772544 0.02678629 -0.04322393 0.03469211 -0.030214233
-0.011805078 -0.008375067 0.018516604 -0.0010046308 0.05063597 0.059588924 0.030200493 0.027890325
-0.026582409 -0.07498503 0.025508607 -0.033224367 -0.009416377 -0.028560424 0.018606741 0.017367197
-0.0003987609 0.020074537 0.01551659 0.009384795 0.04056491 -0.048398536 0.037354276 -0.027098887
0.014421754 0.038280345 -0.036119815 -0.017682232 -0.042690296 0.007812135 -0.013813586 -0.023186635
0.02689333 -0.024058342 -0.053974878 0.04668999 0.08062528 0.028766524 -0.040847074 -0.023540124
0.061491314 0.00085121667 0.019615574 0.04248769 -0.00735675 -0.010730398 -0.004436845 -0.04234042
-0.00802903 0.011928866 0.07114003 -0.023894368 -0.0757803 0.046723906 -0.018339975 0.007116435
-0.015456553 -0.0004687968 -0.011676608 0.022824235 0.0045652273 0.028871331 0.037040696 0.02679994
-0.02511684 -0.036810573 0.0011830869 -0.044125423 0.016710073 -0.033184603 0.016636465 -0.01321181
-0.037430733 0.049430266 -0.033271722 0.04305029 0.049774755 0.013940647 -0.007908017 0.078088425
0.012539826 0.013285112 0.0062219882 -0.06356902 -0.0043161577 -0.045450743 0.015291308 0.074437
-0.00018609312 -0.035228748 -0.020423671 0.0366971 -0.041894756 0.021587549 0.053325746 0.10959695
0.017781999 0.003904966 -0.029368874 -0.013865113 0.0015984634 -0.071763135 -0.009756704 -0.018839836
0.0328341 0.013275738 -0.03043387 -0.025257027 0.0026735528 0.028537642 0.0038308557 0.05585338
0.018924888 0.059305545 0.010534296 0.008727254 -0.058675416 0.029636169 -0.022283582 -0.03159412
0.046822406 0.020012053 0.003970853 -0.016415277 -0.008553475 0.05549068 -0.029471256 0.04216124
-0.0074783787 0.0072317943 0.022114633 -0.02030185 0.011977024 0.051563196 -0.05501006 -0.00017428162
-0.054478385 0.012747039 0.013548366 -0.039997097 0.015859568 0.07148338 -0.00021368446 0.14572711

parameterizer.fc_layers.0.bias f4 [50]
00000000: 2322 94bc 8638 113d ddf1 9fbb 8991 7cbc
00000010: beaf 02bc 4771 9d3d 8440 cb3b d63e 2ebd
00000020: 05fc 68bd 06cd 57bd 9e2e a63b c1bb 3639
00000030: 17d3 caba 6b74 653d 9897 9bbc cc55 e8bc
00000040: 28e7 9838 8566 133d e1f4 36bc 761b 563c
00000050: d23c 57bd 5a57 b2ba 1c05 01bc 3ddd adba
00000060: d11a d0bc 981c 65bc 8073 cdbc 8e95 593d
00000070: 4eee f73c 592b 813d c054 d5bc 84ac 7cbd
00000080: 29b5 483d fad6 c9bc b4ee 0ebc 974d 42bd
00000090: cfd3 213d b1e3 623d 6ad3 d7bc 5f59 1b3d
000000a0: 61ad 82bc 3746 823d 0dbb cbbc 7839 5d3c
000000b0: 4b95 d53b c4f8 043d 2d95 2dbc ce24 1cbd
000000c0: 7dd1 76bd 826a 7cbc
-0.018082684 0.035454296 -0.0048811273 -0.015415558 -0.0079764705 0.076876216 0.006202759 -0.042540394
-0.05688097 -0.05268576 0.005071475 0.00017426816 -0.0015474287 0.056019228 -0.018993184 -0.028361224
7.290981e-05 0.035986442 -0.011166782 0.013068071 -0.052548237 -0.0013606355 -0.007874753 -0.0013264787
-0.025403412 -0.013983868 -0.025079489 0.053121142 0.030265 0.06307096 -0.026041389 -0.06168796
0.049000893 -0.024638642 -0.008723903 -0.047437277 0.039508637 0.055392925 -0.026345927 0.037927028
-0.015951814 0.06361049 -0.024869466 0.013502471 0.0065180412 0.032463804 -0.010594648 -0.038121037
-0.060258377 -0.015406253
