results/FASHION_MNIST/checkpoints/Epoch[45]-Step[12420].pt (torch, 374570 bytes, 66 tensors)

conceptizer.encoder.0.0.weight f4 [10, 1, 5, 5]
000000 57 ad 13 bd e5 e7 a1 3d 4c 68 31 3e 41 0e 88 3d
       -0.03605398 0.079055585 0.17324942 0.06643344
000010 4f e6 43 3e da 94 ea 3b 75 56 d4 bd 0c 43 b8 3c
       0.19130825 0.007158858 -0.10368053 0.022492908
000020 11 40 01 3e ff 34 13 3d 83 6e 00 3e dc 91 14 3d
       0.12622096 0.035939213 0.12542157 0.036271915
000030 22 1c dc bd 7c 57 f2 3d ce e9 9d 3c b3 10 02 3e
       -0.107475534 0.118330926 0.019276526 0.12701683
000040 f1 c1 f1 3c c5 a1 0d 3e f2 65 89 3d 97 5f bd 3b
       0.029511424 0.13831241 0.06708898 0.0057792175
000050 f2 5e 19 3e 57 0c 91 38 71 e5 c1 bb 00 d2 dc bc
       0.14977625 6.916437e-05 -0.005917244 -0.026955605
000060 b1 ca 29 3e 3f a6 88 be 22 c6 95 bd 0c 5d 58 be
       0.16581227 -0.26689336 -0.073131815 -0.21129245
000070 8d 09 dc bd b4 be 20 bd 50 61 4b be a9 57 57 be
       -0.10744009 -0.03924437 -0.1986134 -0.21029533
000080 82 0e 7a be 88 84 29 bd 4c c8 cc bd 31 eb 8a bd
       -0.24419597 -0.041386157 -0.09999141 -0.067831405
000090 85 c3 48 be 54 30 7a bd f0 dc 12 be bc eb c0 bd
       -0.19605835 -0.061081246 -0.14342093 -0.09419963
0000a0 93 f5 61 be 08 21 63 bd 18 cc 63 bc cc 8c 3d 3d
       -0.22066335 -0.055451423 -0.01390364 0.046276852
0000b0 85 da 11 bb 28 75 e8 bc 02 d6 05 bc 23 1f 1b bd
       -0.0022255492 -0.028376177 -0.008168699 -0.03787149
0000c0 87 60 fb bd 08 e7 16 bd 37 aa 96 3d 45 b9 ea bd
       -0.122742705 -0.036841422 0.07356685 -0.114611186
0000d0 1e 5b 88 3d b7 23 9f bd 45 05 d7 bd 92 79 eb bc
       0.06658004 -0.07770484 -0.10499052 -0.028744493
0000e0 7c 33 bd bd 65 ac 55 3b 86 79 38 be 10 03 09 be
       -0.092383355 0.0032603976 -0.18015108 -0.13380075
0000f0 fb 74 28 be c4 b3 09 3e 13 8d 87 bd 1a ce 36 be
       -0.16450875 0.13447481 -0.06618705 -0.17852059
000100 f2 cc ad bd 23 13 4e bd 6f ce bb 3c b8 7f 34 be
       -0.08486356 -0.05031122 0.022925584 -0.17626846
000110 a7 46 d4 bd bf 9b 19 be a8 e0 a5 3d 17 a0 ff 3c
       -0.10365038 -0.15000819 0.080994904 0.031204266
000120 56 c5 16 bd 18 30 bf bd f6 67 fc bd 1d a7 44 be
       -0.036809288 -0.09335345 -0.123245165 -0.19204374
000130 12 33 d7 bd 71 72 e2 3b 64 f4 cf bb a7 9e 7e 3d
       -0.10507788 0.006910615 -0.0063462723 0.06216302
000140 cf 98 5b be c1 20 ac bd 9f 9a be bd 90 06 90 bb
       -0.2144501 -0.08404685 -0.093068354 -0.0043953136
000150 ac ba d8 3d be 66 90 be 4d e2 61 be 6e 49 01 bb
       0.1058248 -0.28203386 -0.22058983 -0.0019727605
000160 75 6f 1c be a7 17 e6 3c 80 6e 16 be 80 e8 10 be
       -0.15276892 0.02808745 -0.1469059 -0.14151192
000170 ec 51 f8 bc 16 7f 6a bd 25 fe 1c 3d de 0f 1d be
       -0.0303125 -0.057250105 0.03832831 -0.15338084
000180 73 e3 85 bd 15 da 2b be 36 fd 9b bc 29 7e af 3d
       -0.06537523 -0.1678241 -0.019041639 0.08568985
000190 ee 37 65 3d 5a 22 bb bd 7c a2 a4 3d b7 60 9d 3c
       0.05596154 -0.091374114 0.08038804 0.019211156
0001a0 be 62 b2 3d 7b 8a 89 3d 13 21 b2 bd 32 4e a1 3c
       0.0871024 0.06715866 -0.08697715 0.019690607
0001b0 01 d0 96 3d 10 17 10 be 1b 57 a1 3d 8b b6 69 3d
       0.07363892 -0.14071298 0.07877942 0.057058852
0001c0 8d 4b cc bd a6 63 f4 bd 0c 54 c2 bc 2d a8 37 3c
       -0.09975348 -0.11933069 -0.023721717 0.01120953
0001d0 9e 28 8d bd 43 9c e0 3d 2c 05 c7 bd e1 ba f5 3c
       -0.06892513 0.109673046 -0.09717783 0.029996337
0001e0 27 17 a0 3d a1 73 2c 3e 19 66 5e 3c 51 7a 75 bd
       0.07816916 0.16840984 0.013574147 -0.059931103
0001f0 33 ed 85 3d 53 52 ae 3d 9e c9 48 3e 20 91 b0 3d
       0.06539383 0.08511796 0.19608161 0.086214304
000200 e2 de a6 3d 1c 3f c0 3c fe 32 1c bd e4 ab 6b bd
       0.0814798 0.023467593 -0.038134567 -0.057536975
000210 35 b6 ce 3d 46 f3 dd 3d d0 3b b6 bd 5f 60 18 3e
       0.10093347 0.10837416 -0.08898127 0.14880513
000220 b1 9a 34 3d 06 e5 72 3c 81 0b 67 bd ee 21 4c be
       0.044092838 0.014825111 -0.056407455 -0.19934818
000230 32 e3 a5 bd 6a c8 ce 3d ca 39 dc 3d 2b 42 96 3d
       -0.08099975 0.1009682 0.1075321 0.07336839
000240 6f f2 28 be fb ab f5 3d bb 43 44 3e 1a 56 a9 3d
       -0.16498731 0.11995693 0.19166462 0.08268376
000250 89 e6 87 bd 95 2a 66 bd 94 2c 7a 3e 8a 1d 00 be
       -0.06635768 -0.056192953 0.24431068 -0.12511268
000260 bf 48 28 3e 90 5a 4b 3e df 23 02 3d 89 bd df bd
       0.16434 0.19858766 0.03177249 -0.10924823
000270 37 2c 37 3e ed a4 6b bc 27 20 15 3e 57 0d 27 3e
       0.1788796 -0.014382583 0.14563046 0.16313682
000280 18 ac 9d bd 6d 09 e8 3c f6 d7 66 3c 85 5c d7 bc
       -0.0769884 0.028324807 0.014089575 -0.026289234
000290 01 db 7c bd ae 01 17 be 29 a6 41 3e 1a 4c 15 3e
       -0.061732296 -0.14746734 0.18911041 0.14579812
0002a0 0a b2 5f bd 74 ba 0d be 0b f2 73 be 05 99 25 bd
       -0.05461315 -0.13840657 -0.23822801 -0.040429134
0002b0 c0 ca 77 be ab f5 83 bd 52 83 06 bc 50 db b9 bc
       -0.24198437 -0.06443342 -0.00821002 -0.022687584
0002c0 13 11 90 3c 60 4d 05 be 12 3e 31 be 7c 5b 95 3d
       0.017586267 -0.13017797 -0.17308834 0.0729284
0002d0 e2 e5 7a 3d c4 5d 9e bd 61 d2 9c 3c 3d 6a 37 bb
       0.06125439 -0.07732728 0.019143285 -0.0027986907
0002e0 91 4b bf bd 9f 2d 74 3e 87 d1 1b 3d 8b 79 d8 3d
       -0.09340585 0.23845528 0.038041618 0.105700575
0002f0 ae 0a 03 3e 27 d8 c4 3d 0f 03 57 3e 94 34 a4 bd
       0.12797043 0.0961154 0.2099726 -0.08017841
000300 7d 1b 81 3d 58 d5 12 bc 2d 32 79 3b dd 73 71 3d
       0.06304071 -0.008961998 0.0038024292 0.058948386
000310 51 19 f2 3d fa fc 90 bd a3 4b 20 3d fe e0 e0 3d
       0.11821235 -0.070795015 0.039134633 0.10980414
000320 85 9e fc 3d 51 1f c6 bb d5 1b 0b 3e eb c2 d5 3d
       0.12334923 -0.0060462137 0.13584836 0.10437568
000330 fa 90 fd bc 56 bd b0 3d 8c c1 99 3d a4 c5 8b bd
       -0.03095292 0.08629863 0.07507619 -0.06824806
000340 e6 7a 92 bd 32 30 6d 3e 45 b8 f8 3d 8b fd 01 be
       -0.07152347 0.23162916 0.121445216 -0.12694375
000350 30 9c b9 bd ad a9 62 bd 32 4d b3 bd b1 11 08 3d
       -0.090629935 -0.055337597 -0.08754958 0.033219997
000360 4f 28 18 bd e5 91 b3 3d 3f d6 0e be b2 fa 7b 3d
       -0.037147816 0.087680615 -0.13948916 0.06151838
000370 fb 3a 35 be 38 12 80 3d f0 85 0e bd 0e 30 d5 bc
       -0.1769828 0.06253475 -0.0347957 -0.02602389
000380 32 83 54 3e 5c 13 83 bc aa 31 0b 3e de 90 d6 3d
       0.20753172 -0.016000442 0.13593164 0.1047685
000390 e5 72 a3 3d 5b a8 88 3d 11 5d 7f bd 98 fb 1a bb
       0.07980899 0.06672736 -0.062344614 -0.0023648497
0003a0 88 d4 9f 3d 08 21 7c bd 75 32 87 3d f2 ca fb 3d
       0.07804209 -0.06155494 0.06601421 0.12294568
0003b0 7d 0b 12 3e 0e ba 18 3e 2c 28 31 bd 8e 6f e5 3d
       0.14262195 0.14914724 -0.0432512 0.11202918
0003c0 cc 81 21 3c 67 68 09 3e 9e 09 9c bd b8 2f cd bd
       0.009857606 0.13418733 -0.07619022 -0.10018867
0003d0 c7 de 6d 3d 5a 73 3e 3d 56 3b 86 3d d3 80 23 3e
       0.058073785 0.046496727 0.06554286 0.15967111
0003e0 cc 81 22 3e e5 c6 89 3d
       0.15869826 0.06727389

conceptizer.encoder.0.0.bias f4 [10]
000000 41 73 9e 3d 7b 96 4e 3e f6 5d bc 3e d3 59 e4 bd
       0.07736827 0.20174591 0.36790437 -0.11149945
000010 16 9e f4 3e 40 ac 4b 3e 5d 97 2a be 99 d2 0d 3e
       0.4777686 0.19889927 -0.16659303 0.13849868
000020 87 6b 9c 3e ac 1e cc 3c
       0.30550787 0.02491697

conceptizer.encoder.1.0.weight f4 [5, 10, 5, 5]
000000 52 49 0c bc bf 84 8f bc fd 2c 7f bc 1c 57 ea 3c
       -0.008562403 -0.017519353 -0.015574691 0.02860599
000010 3b 2d 6c bb 07 80 77 3b 86 5a 85 3b 17 ce 03 bc
       -0.0036037702 0.003776552 0.004069629 -0.008044741
000020 3b 58 6b bd ae b3 d8 3d 55 29 49 bd b0 21 49 3d
       -0.05745719 0.10581146 -0.049111683 0.049104393
000030 b6 8d 23 bd 6e 76 ed 3b ae 2a b6 3b 52 36 c1 3c
       -0.039930068 0.007246784 0.005559287 0.023585472
000040 33 c8 90 3c 26 26 24 3d 62 9a b6 bc d3 24 52 3d
       0.017673587 0.040075444 -0.022290412 0.05130465
000050 3f 99 aa ba f2 46 58 bd a7 6e ee 3c 31 4e 88 3c
       -0.0013015642 -0.052802034 0.029105498 0.016638847
000060 d4 f7 0e 3d a5 fb f4 3d e8 27 2c 3d f0 d3 d8 3c
       0.034904316 0.1196206 0.042030245 0.026468247
000070 d3 7a 7d 3c 3c 42 26 3c 53 35 84 3d 64 c1 15 3b
       0.015471178 0.010147627 0.06455483 0.0022850865
000080 4d 79 4d bd a0 bb 82 bc 0c bd b6 bb ff 5f 3f 3d
       -0.05016451 -0.015958607 -0.0055767354 0.04672241
000090 23 15 bb 3b ca 78 5f bc 38 f7 b7 bc 0e dd c7 3b
       0.005709307 -0.013639638 -0.02245675 0.00609935
0000a0 2e 65 89 bb 54 92 11 bc 80 78 af bc ed c3 86 3d
       -0.0041929698 -0.008884985 -0.021419764 0.065803386
0000b0 ef 95 6f 3d 51 8b 47 bd 08 d4 93 3c 5e 8a 2b bd
       0.058492597 -0.048716847 0.01804544 -0.041880004
0000c0 3f 86 f3 bc 40 88 62 bd 6c b4 ff 3c 25 bd 16 3d
       -0.0297271 -0.05530572 0.031213962 0.036801476
0000d0 7b e9 23 3c e3 26 b9 bc 98 bb a1 bd c7 d1 3c bc
       0.010004397 -0.02260155 -0.07897109 -0.011524624
0000e0 70 f9 de 3b ec 16 b8 3c 5d fd 90 bd e4 cf 28 bc
       0.0068046376 0.022471868 -0.07079575 -0.010303471
0000f0 c8 99 68 3d 4d d6 f1 3c aa 84 f4 b9 3f 87 3e bd
       0.056787282 0.029521132 -0.0004663815 -0.0465157
000100 f8 85 e6 bc 6b 7d d1 3c ff 5f ff 3c df 0f fd bc
       -0.028140053 0.0255725 0.031173704 -0.030891357
000110 01 0c c5 3b 62 16 22 bd 62 fb 50 bc dd b5 da bc
       0.006013394 -0.039572127 -0.012755247 -0.026698047
000120 9e f6 24 3d 89 2f d2 3c 2e 05 56 3b a0 c7 fe 3b
       0.040274255 0.025657432 0.0032656896 0.007775262
000130 77 b2 bd bb 59 ee c2 3c 23 45 52 3d a9 2a f6 bc
       -0.005789097 0.023795294 0.051335465 -0.030049639
000140 c5 1b a7 3d 10 e6 7f 3d cc 88 3c bc 8e 13 2f 3c
       0.081595935 0.062475264 -0.011507224 0.010685815
000150 8d 85 6b bd a8 d0 aa 3d d6 fa b2 3c bb 24 1c bd
       -0.05750041 0.08340579 0.021848124 -0.038120966
000160 71 e1 15 bd a4 60 58 bd 05 32 1e bd 9a 5b 4c bc
       -0.03659195 -0.05282654 -0.03862192 -0.012473011
000170 1d 7d ed 3b 3b 05 15 bb a2 59 15 bd c0 c9 cf bc
       0.0072475807 -0.0022738713 -0.036462434 -0.025364757
000180 56 c9 a8 bd 1f 3c 99 bb d5 10 12 3d 22 e0 51 bc
       -0.08241527 -0.0046763564 0.035660584 -0.012809785
000190 09 5a 9f 3d 39 f4 92 3d 2b 4b 27 3d 41 89 a3 3b
       0.07780845 0.07175488 0.04084317 0.004990727
0001a0 fb 81 26 bd 73 26 98 3c a6 3a 40 3d a2 ec 0f 3d
       -0.040651303 0.018573022 0.04693093 0.03513778
0001b0 10 07 94 3c 1f ad 0b bc f9 db ca 3d 07 a0 44 3c
       0.018069774 -0.008525162 0.09905238 0.012001044
0001c0 e4 7e b2 3d 51 09 86 bc 2d 67 90 bd ce cc 82 3d
       0.08715609 -0.016361864 -0.07050929 0.0638672
0001d0 77 58 06 3e 95 9a 7b 3d 7b 18 16 3d e4 27 ee 3c
       0.13119684 0.061426718 0.03664444 0.029071756
0001e0 ee eb 28 3d f7 13 ae 3d b8 f5 fc 3d a2 7d 2b 3d
       0.041240625 0.08499902 0.12351555 0.04186786
0001f0 9b 7e 2b 3a 8a 6e 85 3c 56 93 86 3d c8 bf 7a bd
       0.0006541998 0.01628806 0.06571071 -0.061218053
000200 6f 0b 53 bd a0 1c 12 3c 9f cd 23 bd 9a 30 c0 3c
       -0.051524576 0.008917958 -0.039991017 0.023460675
000210 b9 d7 f1 bc c4 71 68 bb d2 82 0e bc 8e a3 26 bd
       -0.02952181 -0.00354682 -0.008698182 -0.04068332
000220 d0 2c c9 3c 98 23 43 3d e1 ec 08 3d 3b 50 d7 3c
       0.024557501 0.047641367 0.03342903 0.026283374
000230 45 56 8c bb c9 74 39 bd 7f 7e b9 3c 33 d5 1d bd
       -0.004282745 -0.04527739 0.022643326 -0.0385334
000240 65 f2 5c bd 9e 19 26 bd ac e2 25 3d 48 cb 1e bd
       -0.053942103 -0.040551774 0.040499374 -0.038768083
000250 ce 5d 1a bd aa cf ca bc f5 0c ae bc ff 5c a1 bd
       -0.037687115 -0.024757225 -0.021246413 -0.07879066
000260 ee 78 b8 bc 66 8e 97 3c e8 a7 98 bc cb d3 f7 3c
       -0.022518601 0.018500518 -0.018634751 0.030252358
000270 cd 3e 0e 3c e2 e5 ea bc ad 86 45 bd cd cc 2f bd
       0.008681965 -0.02867407 -0.04822414 -0.042919923
000280 d3 d4 2e 3c a6 81 1e 3d cf 63 15 bd f6 d5 6c bd
       0.010670858 0.03869786 -0.036472138 -0.057821237
000290 b1 19 0c bd 88 c7 53 bd 84 7a 41 bd e6 5d 4a bd
       -0.03420419 -0.05170396 -0.04723598 -0.049405955
0002a0 c7 e8 e8 bc 19 de 9d bc 9a 02 f5 bd 54 d5 9f bd
       -0.02843131 -0.019270943 -0.11963387 -0.07804361
0002b0 1a 87 c9 bd 16 b9 13 be 88 56 11 be 1e 63 38 bd
       -0.09840222 -0.14426073 -0.14193165 -0.0450164
0002c0 3e 32 4f bd a7 ad 2f 3b 52 d5 ac 3c fd 80 3d 3d
       -0.050585024 0.0026806386 0.021097813 0.04626559
0002d0 74 c6 a8 bc bc fc 9d 3c 03 b3 b7 bd 02 4a 0e bc
       -0.020602442 0.019285552 -0.08969691 -0.008684637
0002e0 6f f7 9f bb 35 89 1c 3c 7f cb 53 bd 1d af 91 bd
       -0.0048817913 0.009554197 -0.05170774 -0.07113478
0002f0 00 e1 b6 bc af 86 87 3d 92 15 5a bc e9 37 6a 39
       -0.022324085 0.06617486 -0.013310807 0.00022336807
000300 29 5f ff bc 08 af f4 3c 73 53 25 3d 31 48 87 3d
       -0.031173306 0.029868618 0.040362787 0.06605566
000310 5e 2b 44 3b d5 a6 bc bc ee 1a 14 3d 54 e2 4a 3d
       0.0029933075 -0.02302877 0.036158495 0.04953225
000320 f3 28 08 be db e6 a6 3c db 4b 0c bc 72 28 fc bc
       -0.13296871 0.020373752 -0.008563007 -0.030781005
000330 a8 5d 6e 3d 42 09 9f bc bd 71 01 3d 4c 5b 26 3c
       0.058194786 -0.019413594 0.03160261 0.010153603
000340 f2 14 8d bb 9b 7f b2 3d 72 1f 57 3c 7a 6e 47 bd
       -0.0043054754 0.08715745 0.013130056 -0.048689343
000350 c9 14 67 bd b9 65 8c 3c 53 6c 55 3d 88 67 d3 3b
       -0.056416307 0.017138349 0.05210526 0.006451551
000360 c2 5b 1f 3d f4 1c a6 3b 74 7b a8 bc d9 fd bc 3d
       0.038905866 0.0050693695 -0.02056668 0.09228105
000370 fd e7 25 bc 69 f6 a1 3d 90 8e 38 3b 8f 31 db 3c
       -0.010126111 0.07908327 0.0028161146 0.02675703
000380 bf 6e c6 3d 51 1a 80 3c b3 62 75 bd 36 40 4e bd
       0.09689092 0.015637549 -0.05990858 -0.050354205
000390 5d 80 46 3d ae da 5c 3d c3 46 6e 3c 54 6d cf 3c
       0.04846226 0.053919487 0.014543238 0.025320686
0003a0 79 ee 0f 3a d3 6f 35 bd 9c 68 92 3c 25 f1 bb 3b
       0.0005490552 -0.044296097 0.017872147 0.005735534
0003b0 56 b6 60 3d b6 5c c4 bc 42 da 31 3d cd 23 8d bc
       0.05486139 -0.02396999 0.043421037 -0.017228985
0003c0 6c 18 b8 3c 88 ca 3b bc 9e c8 6b bc 5d 9e 1e bd
       0.022472583 -0.011461861 -0.014391093 -0.038725246
0003d0 e3 14 69 3d 7c b9 8b bc 8c e2 0a bd 05 77 16 3d
       0.056904685 -0.01705622 -0.03390746 0.0367346
0003e0 48 7f 99 3d 7f 84 98 3a 82 f7 af 3c 8d 8e da 3c
       0.0749498 0.0011636167 0.021480326 0.026679302
0003f0 eb 81 b7 ba be 7b 21 3d ea 20 70 3d b0 8f 93 bc
       -0.001400051 0.03942465 0.05862514 -0.018012851

conceptizer.encoder.1.0.bias f4 [5]
000000 23 0e 20 3e b9 5e 8f 3d ad f2 73 3d 63 3b 21 3e
       0.15630393 0.07000489 0.059557606 0.1574531
000010 a9 25 4f 3e
       0.2022921

conceptizer.encoder.2.layers.0.weight f4 [1, 16]
000000 51 c8 b3 3b da 1d 3c be 23 7f 3f bc f8 45 d4 bd
       0.005486526 -0.18370762 -0.011688027 -0.10364908
000010 40 d1 8a 3d b9 03 f8 bc 1a 94 54 3d fa 7a 45 be
       0.067781925 -0.030275213 0.051899053 -0.19285193
000020 3a de 38 be 22 39 60 be 65 07 76 bd 23 c1 df bd
       -0.18053523 -0.21896794 -0.060065646 -0.1092551
000030 67 ec e3 bd 1c 90 97 be a9 5c 51 be 23 b2 4d be
       -0.111290745 -0.29602134 -0.20445503 -0.20087485

conceptizer.encoder.2.layers.1.weight f4 [1, 16]
000000 57 d6 86 3e 08 98 3b be 40 f9 88 3d 3a a0 45 3e
       0.26335403 -0.18319714 0.06688166 0.19299403
000010 43 3a 4b 3c ce 3c 8a 3d 71 e7 2e be 37 fa 1c 3e
       0.012404027 0.06749879 -0.17080475 0.15329824
000020 9c b3 2a 3e 52 13 5c be ce f1 fd bc 44 f5 91 3c
       0.16670078 -0.21491745 -0.03099909 0.017817147
000030 c3 23 b3 3e 19 63 1a be 46 77 69 bd 7b ee 1d 3e
       0.34988222 -0.15076865 -0.056998514 0.15423004

conceptizer.encoder.2.layers.2.weight f4 [1, 16]
000000 29 af 59 be 06 bd b6 3e f7 e7 94 3e 21 b7 9f 3e
       -0.21258225 0.35691088 0.29083225 0.31194404
000010 d3 00 c6 3d cb 29 5c 3d 99 9d 2a 3e ad 54 f1 3d
       0.09668126 0.053750794 0.16661681 0.11783729
000020 68 3b 74 be 0e 71 8a bc 41 73 bd 3b 3d a5 06 3d
       -0.23850787 -0.016899612 0.0057815616 0.032872427
000030 59 b9 a2 be 70 ff 64 bd 3e 76 14 be ca ab 64 bd
       -0.31782034 -0.055907667 -0.14498231 -0.055827893

conceptizer.encoder.2.layers.3.weight f4 [1, 16]
000000 61 eb 91 3e aa 67 39 3d 38 33 1a bd ea 59 6a 3e
       0.28499892 0.045264877 -0.037646502 0.22885862
000010 31 5a 56 3c 59 21 69 bd 93 22 01 3e a9 cd 41 3e
       0.013083027 -0.05691657 0.12610845 0.1892611
000020 53 2b 94 bd ba 4d 1d 3d ed 0b 75 bd 5b 86 27 3e
       -0.07234826 0.038404204 -0.059825826 0.16359846
000030 25 d7 9e 3d 8f 00 1a be be d7 a4 bd b3 a7 e0 bd
       0.07755879 -0.15039276 -0.08048962 -0.10969486

conceptizer.encoder.2.layers.4.weight f4 [1, 16]
000000 7f 46 35 3c b1 89 1e be 3d 42 10 be a5 cd fa bb
       0.011064171 -0.15482213 -0.14087768 -0.0076539093
000010 ad 77 a8 be 5b 0f 81 bd 92 78 79 bc 80 ce ed bd
       -0.32903805 -0.06301757 -0.0152265 -0.116116524
000020 92 3a 1d be 41 09 dc bd 3d 3e 1f be 8f 3a 11 bd
       -0.15354374 -0.107439525 -0.15551086 -0.035456236
000030 08 74 11 be 50 4d 12 3e 75 14 76 3d 69 aa b3 bd
       -0.14204419 0.14287305 0.060078103 -0.087727375

conceptizer.decoder.0.0.weight f4 [5, 16, 5, 5]
000000 fd cb a0 bd 53 be 95 3d 74 03 1f 3d 20 7e 0d be
       -0.07851408 0.07311692 0.038821653 -0.13817644
000010 8f 04 d4 bd ab 9c 03 3e 5a fd 9f 3c 6e 90 ff 3c
       -0.10352432 0.12852733 0.019529987 0.0311968
000020 5c 2a b2 3c ff 77 b1 bd 79 d3 23 be 10 ad 05 bd
       0.021748714 -0.086654656 -0.15998639 -0.03263575
000030 a0 49 48 bc 28 c2 13 be 6c d8 e9 3d 0b 05 11 bd
       -0.012224585 -0.14429533 0.11418232 -0.0354052
000040 10 aa 32 3d ef 69 15 be e4 db 11 be d7 f1 e1 3d
       0.043619215 -0.14591192 -0.14244038 0.110324554
000050 36 31 38 be 8b 73 c7 bd 97 23 bc 3d 50 2f 27 be
       -0.17987522 -0.09738835 0.09186476 -0.16326642
000060 3b 76 66 be ce 24 d0 3c 16 67 4e 3e dc 7f 69 bc
       -0.22506039 0.025408175 0.20156512 -0.014251675
000070 13 67 0a 3e cc 83 b1 3d 4e 7d a6 bd 9e f0 8b 3d
       0.13515882 0.086677164 -0.08129369 0.068330035
000080 11 9b da bd 6c 8a e4 3d e7 7d 01 3d 4c 54 59 3d
       -0.10674108 0.111592144 0.03161421 0.053058907
000090 0c 44 a9 3b ae 7a 1c 3d b2 83 84 bd f6 1a 50 bd
       0.0051655825 0.038202934 -0.064704314 -0.050806962
0000a0 dc ee 18 3e 1e 3e 30 be 53 f1 a6 bd 98 5c e4 3d
       0.14934868 -0.17211196 -0.08151498 0.11150473
0000b0 ec e5 26 3d a5 5b 68 bd fb 81 03 be 03 7f d3 3b
       0.040746614 -0.056728024 -0.12842552 0.00645435
0000c0 f3 0c 7e bc 5a 7a e8 3d d0 fb f3 3d d3 e8 bc bd
       -0.015506017 0.11351462 0.11913264 -0.09224095
0000d0 e5 09 37 be 16 0a 96 bd 95 a9 a0 3d 02 bc 39 bc
       -0.17874868 -0.073261425 0.07844845 -0.011336328
0000e0 58 c1 b5 bd 69 aa d2 bd f8 8b 27 3d 37 78 6a 3d
       -0.08874768 -0.102864094 0.04090497 0.057243552
0000f0 b8 74 e7 bd 5b c4 5e bd ab 61 1b 3e f1 60 8b bd
       -0.11301559 -0.054386478 0.15173976 -0.068055995
000100 b0 3a 37 be 90 d5 ae 3d e9 26 fb bd a1 b3 98 3d
       -0.17893481 0.085368276 -0.12263281 0.074561365
000110 8f 27 1c 3e 2e 05 06 3e 57 0e 58 3c 63 72 8a be
       0.15249465 0.13087913 0.013187013 -0.27040395
000120 0e c4 14 3d 7d d3 a8 3d 0f 6e 41 3d ca 4d da bd
       0.036319785 0.08243463 0.0472241 -0.10659368
000130 8e 29 5a be b0 d6 20 be 04 6f b8 3d 09 dc bf bd
       -0.21304914 -0.15706897 0.090055496 -0.0936814
000140 12 b4 04 be d6 42 1d 3e a5 8b 68 be 6e 08 a8 be
       -0.12959316 0.15357527 -0.2270952 -0.3281893
000150 70 3b 4e 3d 51 07 3e be 3a 81 68 be 6c 68 19 3d
       0.050349653 -0.18557478 -0.22705546 0.0374531
000160 8e 86 bc 3d 82 72 41 3d 81 20 40 bd b8 22 e7 bd
       0.09205352 0.047228344 -0.046906 -0.11285919
000170 88 9b 90 be d4 ad 97 be f0 48 05 bd 2c de fc bd
       -0.2824366 -0.29624808 -0.03254026 -0.123470634
000180 14 71 0a be 28 95 14 3e 16 44 22 3d 4f 4b 31 3d
       -0.13519698 0.14510024 0.039615713 0.04328471
000190 71 1c 9c bd 9b a7 d8 bd e8 8d d3 bd 81 5b 0e be
       -0.07622612 -0.10578843 -0.10329801 -0.13902093
0001a0 24 ae 95 3d c5 44 90 bd e3 56 95 3d 69 45 5f 3d
       0.07308605 -0.07044367 0.07291963 0.054509554
0001b0 e8 d9 0a bd 39 4b 65 bc c6 9c 89 3d fb 32 ed 3d
       -0.033899218 -0.013994985 0.06719355 0.115819894
0001c0 61 a1 f7 bd fb 65 20 bd 34 87 c5 ba 90 10 4b bc
       -0.120913275 -0.039159756 -0.0015070201 -0.0123940855
0001d0 f5 a2 94 bd 54 09 13 3e a5 76 cd 3d 43 46 01 be
       -0.07257644 0.14359027 0.10032395 -0.12624459
0001e0 61 9a 2a be 3a 02 f2 3c d6 d4 bf 3d 94 42 2d 3e
       -0.16660453 0.029542077 0.09366767 0.16919929
0001f0 49 33 22 3e b6 52 db 3d 38 75 e1 bd f1 d5 cc bd
       0.15839876 0.10709135 -0.11008686 -0.100017436
000200 26 1b 0f 3e 9c 68 03 3e aa 47 95 be 6e d2 17 be
       0.139752 0.12832874 -0.29156238 -0.14826366
000210 1b 2a 90 3c e2 d9 9f bd 05 1e df bd b3 15 db bd
       0.017598202 -0.0780523 -0.10894398 -0.10697498
000220 7b 4e e8 bd 80 43 71 3d 1b 92 97 3d 86 93 48 bd
       -0.11343094 0.058902264 0.07400914 -0.048968814
000230 f7 0f 7f bd 80 ef c0 bc 29 6e 42 be 12 0a 83 be
       -0.062271085 -0.023551702 -0.18987335 -0.2559362
000240 be 9f 09 3e 5a 86 4c 3e 15 bf 61 be 29 ce 1b 3d
       0.13439843 0.19973126 -0.22045548 0.038038407
000250 58 05 52 3d 73 43 9f 3d db 91 c5 3d 2a c5 93 bd
       0.051274627 0.07776537 0.0964696 -0.072153404
000260 5a 83 c1 3d 6f 94 fd bd 3a 8b 21 3e fd ba 96 bd
       0.094488814 -0.12381827 0.15775767 -0.07359884
000270 6f 5d 49 bd 91 b6 73 bd a0 72 34 bd 51 06 86 3d
       -0.04916137 -0.05950028 -0.044054627 0.065441735
000280 ca 4e 79 3d 89 6e 6e 3c 2b 70 5b bd 1a 1e df 3d
       0.060866155 0.014552721 -0.05357377 0.10894413
000290 ba bd 7a bc 3b 81 c0 3d d5 d7 2a bd 2a 9b 18 bd
       -0.015304023 0.09399649 -0.04170974 -0.03725735
0002a0 d3 d1 9e 3d f7 64 6c bd b9 bd 01 be 7a 6a db 3d
       0.077548645 -0.057713475 -0.1267003 0.10713668
0002b0 1c 52 96 3d b0 26 3b be a7 49 5c be 19 32 10 3d
       0.0733988 -0.18276477 -0.21512471 0.035204027
0002c0 e1 e4 ac 3c c4 d8 3f 3d 81 6c 0f bd 73 16 c9 3d
       0.021105232 0.046837583 -0.035015587 0.09818735
0002d0 9c a3 60 3d a9 fc f8 3d c2 eb 08 bd dd 6e 21 3b
       0.05484353 0.12157566 -0.03342796 0.002463273
0002e0 b7 11 0f 3a 5d 29 09 3e d6 bd 16 3e 5b a7 69 bc
       0.0005457657 0.13394685 0.14720854 -0.014261092
0002f0 dd 93 5e bd a9 22 0b be ee 88 df 3c fe d6 14 3e
       -0.054340232 -0.1358744 0.027286973 0.14535138
000300 3d 62 55 be fa d2 69 3d 32 69 1d be 1f 52 a5 3d
       -0.20838256 0.05708597 -0.1537216 0.08072304
000310 3e a3 bf 3c 24 4f e7 3d 6d e6 ae 3d d9 f3 79 be
       0.02339327 0.11294392 0.08540044 -0.24409427
000320 5c 4e 8f 3d 44 98 41 bc f4 59 11 be bd f7 b4 bd
       0.06997368 -0.011816088 -0.1419447 -0.08836315
000330 bd be 2a be 6b 1a 11 bc b6 39 bd bd 3b bf 37 3c
       -0.16674323 -0.008856396 -0.09239523 0.0112150265
000340 c8 65 d7 bd 99 4a 24 3e 70 a0 64 3e 38 eb a4 3d
       -0.1051746 0.16044082 0.22326827 0.08052677
000350 fa a3 21 be c1 0f 26 3d 7e 5f af bd c4 3f 48 3d
       -0.15785208 0.040542368 -0.085631356 0.048888937
000360 19 a8 b8 bd 74 8c fe 3b bd ef 22 bd 7a 7e 43 3d
       -0.09016437 0.007768208 -0.039779413 0.04772804
000370 f3 7c 72 bc 90 19 3a 3c 5b 1d 05 be 9e f5 6d 3d
       -0.014800298 0.011358634 -0.1299948 0.058095567
000380 c6 53 2e 3d db 62 1c 3d e5 84 bb bd 34 dc 97 3d
       0.04256036 0.038180213 -0.09156207 0.07415047
000390 ed 9e 72 3e 05 01 35 be 44 80 f9 3d 61 ad dc 3d
       0.23693438 -0.1767617 0.12182668 0.10775257
0003a0 88 a4 17 3e 6e 02 6e 3d 07 b4 34 3e 33 69 14 be
       0.14808857 0.058107786 0.176468 -0.14493255
0003b0 87 be b3 bc d9 4c 19 3e 03 df 93 3d d6 99 0d bd
       -0.021941436 0.14970721 0.072202705 -0.034570538
0003c0 67 6b 6b 3c 7f a9 12 3d cf 10 2f bc 42 2d 48 3c
       0.014368868 0.035806175 -0.01068516 0.012217822
0003d0 2a aa 49 3d c4 33 31 be 79 c8 1e 3e e4 f8 1b 3e
       0.049234547 -0.17304903 0.15506162 0.15231663
0003e0 e5 4e c9 3d 9f 3b 76 bd d4 ec b3 3d 8a 77 ea bc
       0.09829501 -0.060115453 0.08785406 -0.028621454
0003f0 41 06 72 3e ec 5b 5b bd 52 9d 44 be 28 37 87 bc
       0.23635198 -0.05355446 -0.19200638 -0.016505793

conceptizer.decoder.0.0.bias f4 [16]
000000 91 db a2 3d 72 db 22 3d 4a 80 a4 bc 04 c1 a8 3d
       0.07952035 0.03976006 -0.020080704 0.0823994
000010 62 de 92 bc 3a bc 41 3c 79 46 a0 3d 32 a3 3c 3d
       -0.017928306 0.011824662 0.078259416 0.046054073
000020 24 19 da bc 3c b4 95 3d 27 af e3 bc f5 0e 1e 3d
       -0.026623316 0.073097676 -0.02779348 0.038588483
000030 2e d8 16 3e eb 02 0e be 03 5a 02 be a4 1e c8 3d
       0.14730904 -0.138683 -0.12729649 0.09771469

conceptizer.decoder.2.0.weight f4 [16, 8, 5, 5]
000000 b5 54 9d bd a8 39 a0 3c fa ff fe 3d 62 4e 26 3e
       -0.07682172 0.019558743 0.124511674 0.16240838
000010 ce 77 cc 3d 1a 4b 1c be 22 44 68 3e 37 a4 84 3e
       0.099837884 -0.15263024 0.2268224 0.25906536
000020 5c 08 6c 3d 27 54 94 3d 97 64 cc 3d 6b bc 37 3e
       0.05762516 0.07242613 0.099801235 0.1794297
000030 f0 58 38 3e fc 69 5e 3d 9a b6 e9 3c 4f 0f 54 3e
       0.18002677 0.054300293 0.028529454 0.20708965
000040 7f 45 42 3e 6e db 3b 3e b6 cc 39 bd c4 e7 11 3c
       0.18971823 0.18345425 -0.045361243 0.008905355
000050 42 60 1b 3e 63 93 fc 3c 07 37 a5 3d 68 41 00 3e
       0.15173438 0.030831998 0.08067136 0.1252495
000060 fd 0e 7b 3d 95 8a 4d bc 9f 1b 6c bd 25 56 82 3d
       0.06129359 -0.012545248 -0.05764353 0.06364087
000070 ec 7f 24 3e 0c 72 2e 3e 59 e1 80 3d 17 dd 21 bd
       0.16064423 0.17035693 0.06292982 -0.03951749
000080 c8 c9 cb 3d 0b 3e 73 3e 08 73 3f 3e 90 7d 7b bb
       0.09950596 0.23754136 0.18696225 -0.0038374402
000090 5f 73 64 3d c8 cf 08 3e 30 57 05 3e 49 d5 0b 3e
       0.05577409 0.13360512 0.1302154 0.1365558
0000a0 70 e7 26 3d fb 92 16 3e 74 a4 7a 3e c7 0f 71 3e
       0.04074806 0.14704506 0.24476796 0.23541175
0000b0 15 8a 39 3e da 7e dc 3d 04 24 07 3e a7 1e 45 3e
       0.1811908 0.107663825 0.13197333 0.19249974
0000c0 26 9a d2 3d 33 28 4e 3d a5 e6 09 bd 49 6e cb bd
       0.10283308 0.050331306 -0.033667225 -0.099331446
0000d0 c8 ad 98 bd ec ec a2 3c 8a 2a a8 3d 86 e0 b5 bd
       -0.07455021 0.019888364 0.08211239 -0.08880715
0000e0 ad 32 d8 bd 64 a9 6a bd b9 58 7d 3d 87 a7 12 3e
       -0.10556541 -0.05729045 0.06185219 0.14321719
0000f0 94 56 73 bd 38 aa 7a bd bf 81 61 bc 1b e0 0e 3e
       -0.05940874 -0.06119749 -0.013763844 0.13952677
000100 b8 f4 cf 3d 68 94 b1 3d 83 29 36 3e 99 02 1f 3e
       0.10154098 0.08670884 0.17789273 0.15528335
000110 bd d9 0b 3e a2 57 f5 3d 47 3a 11 3e 85 4b 58 3d
       0.1365728 0.11979605 0.14182387 0.052806396
000120 87 d5 3d 3e 93 fb 29 3e 38 cb bf 3d 52 ba 44 bd
       0.18538485 0.16599874 0.09364933 -0.04802925
000130 e4 7a b1 3d ac ab f6 bc ae 87 03 3e b8 13 8f 3d
       0.08666018 -0.030111156 0.12844726 0.06986183
000140 1a f4 e1 3d 55 1f 61 3d fc 2e f2 bd eb b6 ba bd
       0.11032887 0.05496152 -0.11825368 -0.0911692
000150 7d 1a 28 bd ff f6 05 be bf 1c dd 3c 08 26 04 be
       -0.041040886 -0.13082503 0.026991246 -0.12905133
000160 74 19 e2 bd e8 73 a8 bd b0 57 5d be 05 7a 1b be
       -0.11040011 -0.08225232 -0.21615481 -0.15183266
000170 07 53 92 be 2a fa 2c be 10 78 08 be a9 1c de 3c
       -0.2857897 -0.16892305 -0.1332705 0.027113276
000180 7c 96 d4 bc 78 a6 13 be ee 3c 0c be b5 68 fc bd
       -0.025950663 -0.14418972 -0.13695118 -0.12324659
000190 b3 50 16 3e bf 68 0c 3e fb bf 83 3c 17 45 06 be
       0.14679222 0.13711832 0.016082754 -0.13112293
0001a0 1b 12 e3 bc f7 9b be 3d 66 d5 a9 3d 53 8f 80 bd
       -0.027718594 0.09307092 0.08292656 -0.06277337
0001b0 1a 1e 3c be 5d d1 d2 3d 66 d6 fe 3d 5c a8 31 be
       -0.18370858 0.10293839 0.12443237 -0.1734938
0001c0 27 51 34 be 4f 51 1c be 78 c2 a4 bc a4 27 64 bd
       -0.17609082 -0.15265392 -0.020112261 -0.055701867
0001d0 29 91 34 be cf 0e ad be 2d 0f 21 be 33 1c 72 bd
       -0.17633499 -0.3380036 -0.15728445 -0.059108924
0001e0 4d c5 1b bd 0c 3b 31 be b5 c5 8e be 1b 61 02 be
       -0.038029958 -0.17307681 -0.27885213 -0.12732355
0001f0 d1 a3 c6 3d 49 89 15 3e d5 df 88 3e 67 08 c9 3b
       0.09699214 0.14603151 0.2673327 0.006135035
000200 60 a8 75 be d4 f5 e4 bd 92 d3 0e 3e a1 bc 21 3e
       -0.23990011 -0.111797005 0.13947895 0.15794612
000210 bd 97 ac bd 2d f1 a0 be a3 49 3d be ce 8e 25 3d
       -0.08427379 -0.31434003 -0.18485121 0.040419392
000220 57 f9 b2 bd 80 1e 32 be 53 9d 7c be 70 85 70 be
       -0.08738964 -0.17394447 -0.2466939 -0.23488402
000230 2d 21 a6 3b 9f 7d 1e be 25 b1 72 be c5 3c b1 be
       0.005069873 -0.15477608 -0.23700388 -0.34616676
000240 dc 02 8f be fc de 80 bb da 4b c3 bd f2 9d 87 bd
       -0.2793187 -0.003932832 -0.09535952 -0.066219226
000250 95 44 02 be 50 be c6 bd a1 98 ce 3d af c9 14 3e
       -0.12721474 -0.09704268 0.100877054 0.14530061
000260 9e ca a5 bc 6c 45 73 bd c3 03 4e 3c 2b 7b b5 3d
       -0.020238217 -0.059392378 0.012574139 0.08861383
000270 41 50 c4 b6 fa fb 21 be 0b 30 64 be 5e ea 8c bd
       -5.850598e-06 -0.15818778 -0.22283952 -0.068806395
000280 89 d8 12 3a 4c ee 02 be 0c 02 60 be ef 39 55 be
       0.0005601724 -0.12786216 -0.21875781 -0.20822881
000290 53 32 7d be db 19 fe bd 6f a9 74 be 3b 99 86 be
       -0.24726228 -0.12407275 -0.23892759 -0.2628878
0002a0 c6 e2 8a be 16 4a b7 bd 0d 49 04 be 45 78 5a be
       -0.2712614 -0.08949678 -0.12918492 -0.21334942
0002b0 7f 40 1b be 1b 2b 63 be 2a 97 54 bd 7c 1a ac bd
       -0.15161322 -0.22184412 -0.051901974 -0.08403489
0002c0 2f 91 88 bd 6a 2c 94 3d 19 a6 3d 3e e1 96 43 bc
       -0.066683166 0.07235034 0.18520392 -0.011937828
0002d0 b3 8f eb bd c5 d6 7f bd 1c 61 36 3d 1d a2 01 3e
       -0.11502018 -0.06246068 0.044526204 0.12659498
0002e0 e2 f2 48 3d 95 96 88 bd 10 61 95 bd 8c c7 eb 3d
       0.049059756 -0.06669346 -0.07293904 0.1151267
0002f0 1e 14 2e 3e 16 ef d1 3d 58 ef d2 3d d6 43 12 3d
       0.16999862 0.1025068 0.102995574 0.035709225
000300 c5 8c 06 3e ed 18 95 3e fb 60 2a 3e 16 c2 5f be
       0.13139637 0.2912058 0.16638558 -0.21851382
000310 5a 26 b6 3d 03 6d 06 3e 5e 73 52 3e d9 9f 48 3e
       0.08894034 0.13127522 0.20551822 0.19592227
000320 dc 96 ae 3d a2 4e 4c bd cf a9 39 3d c8 a0 03 3e
       0.08524868 -0.049879678 0.045327958 0.12854302
000330 6a 04 bc bb cf fe 0c 3e b7 75 9a bd 66 c8 64 3d
       -0.005737831 0.13769077 -0.075419836 0.055855177
000340 55 a4 36 3e 17 fe 97 bd a4 26 e1 3d db 64 fc bd
       0.17836125 -0.07421511 0.10993698 -0.12323924
000350 8b f1 3d 3c 12 28 63 3e 88 58 63 bd a3 8d 8d 3d
       0.011593233 0.22183254 -0.05550435 0.06911781
000360 27 6e 25 3d 22 15 c7 3d 18 f0 49 3e 34 47 f4 bd
       0.040388253 0.09720828 0.19720495 -0.119276434
000370 dd 71 ba 3d e8 30 45 bb 9b ff 25 3e 11 74 e6 3d
       0.09103749 -0.0030088965 0.16210787 0.11252607
000380 a3 91 aa 3d 52 8d d1 3d da 40 ed 3d 99 3e dd 3d
       0.08328559 0.10232033 0.11584635 0.10802955
000390 fd 0b d4 3d 18 5f e1 3d 56 11 e2 3d 87 94 c4 3d
       0.10353849 0.11004466 0.11038463 0.09598642
0003a0 fa 4c 80 bc a9 7e 24 3e a1 50 c5 3d ed 95 33 3e
       -0.015661705 0.16063942 0.09634519 0.17537661
0003b0 09 b3 0f 3e e1 1d af 3d 12 27 21 3e 39 c2 25 3e
       0.1403314 0.08550621 0.1573756 0.16187371
0003c0 28 45 2d 3e b1 e6 d5 3d a8 f6 3a 3d 63 87 8f 3d
       0.16920912 0.104443915 0.045645386 0.07008245
0003d0 3d 73 19 3e d4 10 aa 3d f7 16 1d bc 32 d5 70 3d
       0.14985366 0.08303991 -0.009587995 0.05879707
0003e0 98 73 0e 3e 3b 5c c3 3d c1 74 07 bd a3 d6 a2 bc
       0.13911283 0.09539076 -0.03307033 -0.019877737
0003f0 a3 9a fb 3c 5d 3d eb 3d d8 43 4e bb e0 7e e9 3d
       0.030713385 0.114863135 -0.0031473543 0.114011526

conceptizer.decoder.2.0.bias f4 [8]
000000 61 7e 05 3e 3e 14 81 3d c6 fe 14 3e 44 a5 27 3d
       0.13036491 0.06302689 0.14550313 0.040929094
000010 a0 29 67 3d 97 5d 84 3d 31 69 2a bc 04 92 1a be
       0.05643618 0.06463163 -0.010401056 -0.15094763

conceptizer.decoder.4.0.weight f4 [8, 1, 2, 2]
000000 c4 03 c5 be d7 21 ce 3d 98 5c 16 be 67 13 40 3f
       -0.38479435 0.10065048 -0.14683759 0.75029606
000010 1c 82 0a 3f 66 24 10 3f 48 e7 2e 3f 37 35 23 3f
       0.5410478 0.5630554 0.6832166 0.63753074
000020 a4 3b 3e 3f 98 ef 0c 3f bd 12 d2 3e c7 14 8e bd
       0.74309754 0.5505309 0.4102992 -0.06937557
000030 d5 55 44 bf 8d e7 59 bf 69 49 45 bf 14 cc 5f bf
       -0.7669347 -0.85118943 -0.7706514 -0.87420774
000040 43 32 30 bf ee b3 76 bf 6b aa 75 be bb 99 17 bf
       -0.68826693 -0.963683 -0.2399079 -0.5921895
000050 bf 62 29 bf aa 59 80 be 01 13 84 bf 4d 61 43 bf
       -0.661663 -0.25068408 -1.03183 -0.76320344
000060 b3 4e ab be 1b 6d 67 bf cd b0 78 be af 1a 07 bf
       -0.3345848 -0.90400857 -0.24286194 -0.5277509
000070 8e 57 b0 3f d8 ce bc 3c 6f 34 ad 3f 27 36 f7 3d
       1.377672 0.02304785 1.3531626 0.120708756

conceptizer.unlinear.weight f4 [16, 1]
000000 a0 b7 82 bf db b1 2a 3f cb 4d 56 bf 52 84 af bf
       -1.0212288 0.66677636 -0.8371245 -1.3712256
000010 97 59 90 bf 37 6f 6d bf d5 50 8a 3f a4 3b 84 bf
       -1.1277341 -0.92747825 1.0805918 -1.0330701
000020 8b b6 92 bf 4b 69 96 bf d2 4e 8f 3f d7 37 1b 3f
       -1.1461958 -1.1750883 1.1195929 0.6063208
000030 f9 d2 9f bf 9a 5b a4 3d 9e df 4b bf f2 8b 6e 3f
       -1.2486259 0.08025284 -0.7963809 0.9318229

conceptizer.unlinear.bias f4 [16]
000000 8f 0f 49 3f ce c7 0f be 09 54 96 bf 82 f0 82 3f
       0.78539366 -0.14041063 -1.1744395 1.0229647
000010 4e 19 3d 3f dd cc 63 3e 50 ec 04 bf 18 02 f0 3e
       0.73866737 0.22246118 -0.51923084 0.46876597
000020 04 19 e8 3e 47 a3 34 bf 77 dd 30 bf a6 95 0d 3f
       0.45331585 -0.7056164 -0.6908793 0.5530647
000030 e3 ca 57 be 55 7e 54 bf cc 97 5a bf 58 ed b5 bd
       -0.21073489 -0.8300527 -0.85387874 -0.0888316

parameterizer.cl_layers.0.weight f4 [10, 1, 5, 5]
000000 68 da 51 3d 6f 97 a3 3c 14 69 31 3e c0 48 18 3e
       0.05123368 0.01996967 0.1732524 0.14871502
000010 9b 07 4a 3c e9 3c fa 3c 86 67 63 3e 25 b5 f6 3c
       0.012330915 0.030546622 0.2220746 0.030115673
000020 b8 b5 9a bd e9 57 b1 bd 91 3d 98 3d 8a 0a af 3d
       -0.07554191 -0.08659346 0.07433618 0.08546932
000030 0d ea 6c 3d 8d 00 d1 3d 3d 53 1a 3d 86 2f c4 bd
       0.057840396 0.10205183 0.03767704 -0.09579377
000040 b6 8d ee bd 3e 09 1e be 1b 2c 64 be 04 9b 42 be
       -0.11648123 -0.15433213 -0.2228245 -0.19004446
000050 f3 e9 c5 bc 92 9d 8f be ec 4e bc be 24 a7 a7 be
       -0.024159407 -0.28049904 -0.36778963 -0.32744706
000060 6b d0 19 be 3b 80 6a be cd 53 26 be 27 d3 b7 3d
       -0.15020911 -0.22900479 -0.16242905 0.08975821
000070 bf 68 bc 3c 1d c1 ad bb f5 ba 9f be cf 63 64 be
       0.022999166 -0.005302562 -0.31197324 -0.22303699
000080 f2 4c 46 bd a3 9d cc bd 6e 30 92 bd 4c 73 da bd
       -0.048413225 -0.09991004 -0.071381435 -0.106665224
000090 7e e3 c1 3b 68 a2 39 be 2f 45 00 be 34 a7 3f be
       0.0059170118 -0.1812836 -0.12526391 -0.18716127
0000a0 e3 3d 40 3e 5d 3f 1c bc 33 db e5 bc 6e 69 4a be
       0.18773608 -0.009536591 -0.028058624 -0.1976678
0000b0 2b 62 a9 bd ab ac 8d 3e 95 a5 ef 3d cf 38 9b bd
       -0.08270677 0.27670798 0.11701504 -0.07579195
0000c0 bd 41 e5 3c 48 ff 17 be ac 79 09 be e9 ad fd 3c
       0.027985448 -0.14843476 -0.1342532 0.030966716
0000d0 9d 62 87 3d 34 7f 9c 3d 35 1a 99 3d e7 f1 04 3d
       0.06610606 0.076414496 0.07475702 0.03245726
0000e0 80 06 99 bd 29 a5 18 3e e5 86 81 3d e2 1e e7 3d
       -0.07471943 0.14906754 0.06324557 0.11285187
0000f0 d4 7e 8d 3d 29 ad 4d 3c db 05 bc bc 01 ba 02 3e
       0.06908956 0.012553492 -0.02295201 0.12766267
000100 e0 0e 54 3d 91 9b 02 be d1 78 ba bd d9 29 10 3e
       0.051772 -0.12754656 -0.09105075 0.14078464
000110 a6 10 c6 3c ff 9e 05 3e 8d 82 50 3d 0a 6d 20 be
       0.02417786 0.13048933 0.050905753 -0.15666595
000120 f7 2d 9e bd f9 12 de bc 59 d6 16 3e 76 6d ad bd
       -0.07723611 -0.027108656 0.14730205 -0.08468144
000130 1e 04 28 3e 3c 5b 1e 3e 01 c3 a9 3d e4 0e 10 3e
       0.1640782 0.1546449 0.08289147 0.1406818
000140 41 04 9c 3d da 3b 7c bd 60 8c fd 3d 62 8b 68 3d
       0.07617999 -0.061580516 0.1238029 0.05677355
000150 2c 02 4c 3d 30 97 d3 b9 92 d1 0f be 16 6d 44 bd
       0.04980676 -0.000403577 -0.14044788 -0.047955595
000160 ab 89 e6 bd 2a cf fe bd 6e fb de 3d a8 85 64 be
       -0.11256727 -0.12441857 0.108878 -0.22316611
000170 f2 c7 24 3e 5b a9 de bd 64 e3 c8 3d d7 10 50 be
       0.16091898 -0.10872146 0.09808996 -0.20318924
000180 73 97 73 be bb 97 09 3e ee 63 3b be 96 2f 2f 3e
       -0.23788242 0.13436787 -0.18299839 0.17107996
000190 7b c7 5a 3d d8 58 de bc e7 c3 cf be 63 c7 85 be
       0.053412896 -0.027141973 -0.4057915 -0.26128682
0001a0 2e aa 7e be ea 77 b7 3c d5 d9 ac 3d 5b 32 b3 be
       -0.24869606 0.022396047 0.08439986 -0.34999356
0001b0 65 80 a6 be 71 7e 57 bd c3 4c 1d 3d e5 ae 29 bd
       -0.32519832 -0.05261082 0.038403284 -0.041426558
0001c0 41 ca 08 bd 84 42 ef 3d 72 18 9a 3d 16 a8 c6 3d
       -0.03339601 0.11682609 0.07524194 0.097000286
0001d0 7c e2 23 bd f4 31 b8 bd 4c 95 ef 3c b0 1f d7 3d
       -0.040010914 -0.08993903 0.029245995 0.10504091
0001e0 bf 0f f9 bc fc 22 25 be 77 79 17 be 2c ec 16 3e
       -0.030403016 -0.16126627 -0.14792429 0.1473853
0001f0 86 d7 79 3d 6c 9b 59 be e0 44 ed bd c1 3e 73 3e
       0.060996555 -0.21250695 -0.115854025 0.23754407
000200 9e 60 a6 bd c2 7b 2e bd e8 d3 fd 3d cf 08 23 be
       -0.08123897 -0.042598493 0.123939335 -0.15921329
000210 47 fc 06 be 18 7a cb 3d 7e 1b 3d 3e f7 3a 0c 3e
       -0.13182174 0.09935397 0.18467519 0.13694368
000220 f3 19 4f be b9 0d 93 3d 5f be b4 3d 52 8f 40 bd
       -0.20224743 0.07180352 0.08825373 -0.04701168
000230 ea 89 b0 3d ef 63 81 be f4 16 22 3d d8 f3 44 3e
       0.08620055 -0.25271556 0.03957267 0.19233644
000240 94 27 0c bd c7 70 3b be 9c f4 50 3d f3 1b 24 be
       -0.034217432 -0.1830474 0.051014528 -0.16026287
000250 18 69 6a 3e de 08 47 3d 88 9d de 3b 3e 61 98 bd
       0.22891653 0.04859244 0.0067936815 -0.074404225
000260 11 01 dc 3d 24 ce 2a 3e c5 c6 4f be 80 c7 b1 bd
       0.10742391 0.16680199 -0.20290668 -0.0868063
000270 76 78 1a be 18 a4 5b 3e 60 59 eb 3d 2d 8f c2 bd
       -0.15085015 0.21449316 0.11491656 -0.09499965
000280 33 ab 48 3d 0d 90 2f bd ad be 84 3e 65 d0 a9 bd
       0.048991393 -0.042861987 0.25926724 -0.08291701
000290 cd 2a 3e be bc cf c8 3a 66 db 10 3e c7 f3 16 bd
       -0.18571015 0.0015320699 0.14146194 -0.036853578
0002a0 a3 c5 5d 3e 32 98 79 be f2 bb 16 be 2a 46 ce bd
       0.21657424 -0.24374464 -0.14720133 -0.100719765
0002b0 a9 cd 19 bd 22 c3 6b 3e ef f1 bf bc 31 6c 36 3e
       -0.03754965 0.23023656 -0.023430793 0.17814709
0002c0 5e 7c 0f be db 6e 20 be 88 c2 5c be 05 bf f2 3d
       -0.14012286 -0.15667288 -0.21558583 0.1185284
0002d0 f6 ad 51 3e f2 c6 e2 bd 47 dd e7 bd d0 bc 40 be
       0.20476517 -0.11073102 -0.11321502 -0.18822026
0002e0 07 93 d4 3c 7c 7d c0 3d ad b1 34 3e b6 41 76 be
       0.025949014 0.09398934 0.17645903 -0.24048504
0002f0 ae 15 99 be f1 8f d1 bd 26 61 cf 3c 65 4b b0 bd
       -0.29899353 -0.10232533 0.025314879 -0.0860813
000300 e1 d2 ed 3c d5 ca a3 be a4 23 f5 bc c3 cb d5 bd
       0.029031219 -0.31990686 -0.029924221 -0.10439255
000310 9b 19 97 bd b1 09 04 3c 98 b5 57 be 6e 6e 77 be
       -0.07377931 0.008058951 -0.21065366 -0.2416322
000320 a7 01 f8 bd 51 33 82 be f3 b7 5a be 51 64 82 3e
       -0.1210969 -0.25429776 -0.21359234 0.2546716
000330 47 44 54 bd 84 33 68 3e ac 02 1c 3e b0 35 1c 3e
       -0.051822927 0.22675902 0.15235394 0.15254855
000340 4c ae 85 3d 56 45 fd 3d 69 02 37 3d cb 92 ad 3d
       0.06527385 0.123667404 0.044680033 0.08475264
000350 e5 b6 88 bd 2d 54 09 3d 5b f9 d2 bd df bd 11 be
       -0.06675509 0.033527542 -0.10301467 -0.14232586
000360 ed 15 03 3e ab 0f f7 3d 0a 59 36 be 0c 95 29 be
       0.12801333 0.12063535 -0.17807403 -0.16560763
000370 13 94 13 bc 45 8d 43 be e9 69 1c 3e 58 fa 5a be
       -0.009007472 -0.19096859 0.15274777 -0.21384561
000380 8f 31 23 3e 15 a3 ab bd cf c9 8b be dc 69 64 be
       0.15936874 -0.08380715 -0.27302405 -0.22306007
000390 2c a1 d7 bd 80 df 39 3e f1 24 82 bd 7c 0d fc 3d
       -0.10528788 0.18151665 -0.06354702 0.123072594
0003a0 1d a8 15 3e c0 46 71 3d 13 fc 8f 3d f4 4b f0 3d
       0.14614911 0.058905363 0.07030501 0.11733237
0003b0 4e 0f 05 3e 06 e4 2b 3e e3 03 33 3d ac b0 0d be
       0.1299412 0.16786203 0.04370488 -0.13836926
0003c0 d3 7e 37 3d be ba 2e 3d 0f 4a 83 3b 6d 4a 26 3d
       0.044798683 0.04265856 0.004006631 0.04059832
0003d0 e7 8f d7 bd 6f cc 1f 3d 80 80 32 bb b5 92 71 bd
       -0.10525494 0.039013322 -0.0027237236 -0.0589778
0003e0 72 f1 75 bd 77 a1 9d 3d
       -0.060044713 0.076968126

parameterizer.cl_layers.0.bias f4 [10]
000000 a8 e6 2c bd 0c 88 02 be 12 03 35 be 4d f0 b5 3d
       -0.04221216 -0.1274721 -0.17676952 0.08883724
000010 6b 6b 2f be ef 9d 4c 3d a7 e1 38 bc 81 bf bc be
       -0.1713082 0.049955305 -0.011284268 -0.36864856
000020 92 08 9a bd 2e d6 95 3d
       -0.07521166 0.07316242

parameterizer.cl_layers.3.weight f4 [20, 10, 5, 5]
000000 fe 45 38 3c c5 7d 99 bd 67 84 0a bd 48 af 13 bb
       0.011247156 -0.07494692 -0.033817675 -0.0022534896
000010 5d 47 b4 3c 4f 89 72 3c fe d0 34 bd a6 e7 15 bd
       0.022006685 0.014803245 -0.044144623 -0.03659787
000020 6a b3 9f 3d 53 6d 15 bd aa 60 3b bd da ed 39 bc
       0.077978924 -0.036481213 -0.045746483 -0.011348212
000030 91 e7 25 bd b1 36 4c bc 5f cd 18 bd 2a bd 77 3c
       -0.040504042 -0.012464211 -0.037305232 0.015120784
000040 9e 72 23 bb ee 63 0d bd 5f 89 30 bd d9 7e a9 bb
       -0.0024940143 -0.03451913 -0.043099757 -0.005172592
000050 51 5e b9 bd 20 2c db 3c 88 a1 4c 3d 09 96 38 3d
       -0.090511926 0.026754439 0.049958736 0.04506496
000060 3c 75 e2 bc 04 5b 9a 3d e1 96 91 3d 58 fd 30 ba
       -0.027643792 0.07536891 0.07108856 -0.00067516183
000070 33 b4 72 3d 42 1b 36 3d 76 59 02 bd bf de 89 bb
       0.059253883 0.04445959 -0.031823598 -0.0042074616
000080 8a 7a 82 3d 1c ad 59 3d bf dc 6d 3c 18 c4 42 3c
       0.06371029 0.053143606 0.014517962 0.011887573
000090 4a a5 f5 bc 58 51 1d 3d fa ff c4 3d 42 22 08 3d
       -0.029986043 0.038407654 0.09619136 0.033235796
0000a0 f5 42 32 bd 96 e6 45 3d bd 64 6e bd 91 4f 91 b9
       -0.043520886 0.048315607 -0.05820154 -0.00027715837
0000b0 52 38 71 3a 3c 40 90 bc e5 7f 8c 3d f8 9f 51 3d
       0.0009201813 -0.017608754 0.068603314 0.05117795
0000c0 3e c2 3e 3d 47 86 2f 3d 1d 3f 8a 3d 04 a9 67 bc
       0.046571963 0.042852666 0.06750319 -0.014139418
0000d0 fd c1 9d 3c 00 dc 5b bc fc c8 00 3d ac ec 9e bc
       0.01925754 -0.013419151 0.031441674 -0.019399963
0000e0 10 53 87 bc f7 1e dc 3c 9c 89 07 bd 4d 51 a5 3a
       -0.0165191 0.026870234 -0.03309022 0.001261273
0000f0 53 2d 71 3c 67 a5 25 3d 07 53 ef bc 36 87 05 bd
       0.014720279 0.040440943 -0.029214395 -0.03259965
000100 1b 72 bb 3c 24 92 e6 bc fc d4 b9 3a 20 7a 0f bd
       0.022881558 -0.028145857 0.0014177854 -0.035028577
000110 da d7 cb bc 70 22 f1 bc 11 86 97 bd b6 f4 be bd
       -0.0248832 -0.029435366 -0.07398618 -0.09324019
000120 18 fb 6b bb 3a af 26 bd de a0 ab 3d 85 f6 40 bb
       -0.0036007818 -0.040694453 0.08380292 -0.0029443812
000130 87 0a 9a bd 98 a9 65 3d 8b 7e 57 3d a2 5e 41 3d
       -0.07521539 0.05606994 0.052610915 0.04720939
000140 3d a2 c1 bc e9 a6 99 3c e3 83 da bb 59 db 80 3c
       -0.023636932 0.018756347 -0.006668554 0.015729593
000150 1e d3 06 be b0 47 59 3c c7 73 87 39 45 19 d6 3c
       -0.13166472 0.013261721 0.00025835467 0.026135096
000160 b6 63 87 bd 4e 82 22 3d dc 92 fb bc 73 e5 1e 3c
       -0.06610815 0.03967505 -0.030709676 0.00969826
000170 c7 85 6f 3d 99 12 ae bc 39 df 7b 3c 5a 79 ae 3c
       0.05847719 -0.021249102 0.015373045 0.0212981
000180 72 42 88 bc 07 04 e7 3c 7d 9f a7 3b 37 3a 98 bc
       -0.016633246 0.028200163 0.005115448 -0.018582447
000190 85 0c a7 3d 64 53 d2 bc 99 77 e8 3c c9 28 1d 3d
       0.08156685 -0.02567453 0.028377341 0.038368974
0001a0 3b a6 7d bd 22 4e a2 3d 04 f1 54 bc 5b cb 58 bd
       -0.061926108 0.07925059 -0.012996916 -0.05292831
0001b0 85 63 51 bd e2 e0 b9 3d 97 da 1a 3c da 01 d2 bc
       -0.0511203 0.09076096 0.00945153 -0.025635649
0001c0 ce b8 b1 3d 3f 0e 90 bc 11 8d 44 3d c7 8e fe bc
       0.08677827 -0.017584918 0.047986094 -0.03107394
0001d0 c9 cf a8 bc 59 cf 59 bd 4a 9d dc 3c 8b a4 b5 bd
       -0.020606892 -0.053176258 0.02693047 -0.08869275
0001e0 25 c9 22 3d d5 10 c2 bc d1 e7 39 3d cc 07 36 bd
       0.039742608 -0.023689667 0.045387093 -0.04444103
0001f0 0c 81 cd 3c 62 ee af 3b 01 a9 51 3d 03 49 91 bc
       0.025085948 0.0053689936 0.051186565 -0.01773501
000200 56 20 d9 3c 6b ee 85 bc fb 3e fc bb 61 ee 24 3d
       0.026504677 -0.016349038 -0.0076979375 0.0402664
000210 21 6f 83 bb d3 cf cc bc c9 f3 92 bd 68 fb 35 bc
       -0.0040110503 -0.025001442 -0.071754046 -0.011107303
000220 06 59 fc 3b d2 57 ef bc 34 dc 59 bd 8a 57 09 3c
       0.007701042 -0.02921668 -0.053188518 0.008382687
000230 c2 a6 64 ba 06 87 59 bc cb fb 95 3c f3 c7 68 bb
       -0.00087223586 -0.013276821 0.01830854 -0.003551957
000240 f8 8b 5f bc 16 13 85 3c 5a 29 6d bd 40 a4 70 3d
       -0.013644211 0.016244452 -0.057900764 0.05875039
000250 24 d8 94 bd eb 08 88 3c b6 cc be 3d 19 ea 21 3e
       -0.07267788 0.016605815 0.09316389 0.15811957
000260 04 8b 07 bc fa 9d 34 be c7 cb 1b 3d 33 c4 b5 3c
       -0.00827289 -0.17638388 0.038036134 0.022188282
000270 81 41 56 3d 8e a4 86 bb 9f 08 c3 bd 7d b4 37 3d
       0.052308563 -0.004108972 -0.09523129 0.04484986
000280 2c 1a f6 3c a2 05 88 bc 68 06 c1 bc 71 72 09 bd
       0.030041777 -0.016604248 -0.023562625 -0.033556405
000290 cb 00 15 3d 88 53 9e ba e0 5a 0d 3d a2 00 5a bd
       0.03637771 -0.0012079338 0.034510493 -0.05322326
0002a0 2a 67 a4 bd 22 56 40 3d 18 97 ee 3c 9c 12 14 bb
       -0.080274895 0.046957143 0.029124781 -0.00225941
0002b0 ea 3f 26 bd 12 64 e6 bc cd a9 df bc f7 17 ae 3c
       -0.040588297 -0.02812389 -0.027302647 0.021251662
0002c0 cf c7 67 3c 15 f5 3b bd 57 84 be bd c1 4b b3 bd
       0.014146759 -0.045888025 -0.093025856 -0.08754683
0002d0 b8 02 bb ba da c5 e3 bc 2b 18 e1 3c 1e 14 db 3b
       -0.0014267778 -0.027804304 0.027477344 0.0066857478
0002e0 69 d9 8b bd 3c d3 a2 bd c0 f9 5a bd dd 63 1a bd
       -0.06828577 -0.07950446 -0.053460836 -0.037692893
0002f0 e9 a2 91 3c 21 1f 03 be a9 90 c7 bd 6b 73 af bd
       0.017777877 -0.12804843 -0.097443886 -0.08566936
000300 89 01 57 bd ef 0d 26 bd 2b f5 84 bc 46 ad c6 bd
       -0.0524917 -0.04054063 -0.016230186 -0.09701018
000310 33 20 30 3b 31 42 91 bd 9f d4 bc bc 92 c8 d9 bd
       0.002687466 -0.07092703 -0.023050604 -0.10633959
000320 a7 1f a6 bd d1 b6 6d 3d 18 d9 4d bd f1 e8 bd 3d
       -0.08111506 0.058035675 -0.050255865 0.09272946
000330 e3 36 1a 3d 36 99 e5 bd 6c a1 7a 3d 0f 8f 00 bd
       0.03765 -0.11210863 0.0611891 -0.03138643
000340 32 a0 c8 3c 0b bb 9c 3d 86 9c 98 bd 71 ca 70 bc
       0.02449045 0.07652863 -0.074517295 -0.014696703
000350 af 8e 84 3d bf 28 6c 3d e7 7d 3a 3d 23 f7 44 bc
       0.06472527 0.057656046 0.045530226 -0.012021813
000360 95 d4 89 bc 31 e8 c7 3c 1d ac 1b 3d 36 98 89 3d
       -0.016825 0.02440271 0.038005937 0.06718485
000370 68 2c 07 be b7 e7 be 3d 0f 38 81 ba 58 73 51 3d
       -0.13200533 0.0932154 -0.0009858626 0.05113539
000380 20 99 bc 3b 69 7c cd 3c 6e ff bf 3c 72 10 68 bc
       0.0057555586 0.025083737 0.023437228 -0.014164077
000390 45 83 5e 3b df b8 a3 3c 91 9a 02 3d cf a0 22 3d
       0.0033952754 0.019985614 0.031885687 0.03970414
0003a0 46 b8 9f bd 6c bc 34 bd c7 b4 b1 3d 9a 1f 88 3d
       -0.07798819 -0.044125006 0.08677059 0.066466525
0003b0 03 76 7e bb ac 2f fb bc a3 3e 90 bb 3d 96 b8 3c
       -0.0038827665 -0.03066238 -0.004401998 0.022532577
0003c0 de ff f2 3b 1e 00 85 3b b0 94 3e bd 02 c4 cb 3c
       0.0074157557 0.004058852 -0.04652852 0.024873737
0003d0 f0 1a c1 3d b2 80 24 bd ed 17 0a 3c 88 ff da bb
       0.09428966 -0.040161796 0.008428556 -0.0066832937
0003e0 15 d7 36 3c 79 36 73 bb 5e fe 41 bd f4 83 97 bd
       0.011159678 -0.0037111326 -0.047361724 -0.07398215
0003f0 99 d9 ab 3d 0c 6a fb 3c be 66 b6 3d 81 eb 61 bd
       0.08391113 0.030690216 0.08906315 -0.055156235

parameterizer.cl_layers.3.bias f4 [20]
000000 da db c2 3d 28 5c 5d 3d 0e df e5 bc 2b df 76 3d
       0.095145896 0.054042965 -0.028060462 0.060271423
000010 c9 7a 36 3d 8d f6 0d 3d f4 d5 13 3e 2c b9 a5 bd
       0.04455069 0.034658957 0.14437085 -0.08091959
000020 90 9c 8a 3d c4 7d 84 3d 31 aa 59 3d 9f a8 db 3c
       0.06768143 0.064693004 0.053140823 0.026813803
000030 62 64 d0 3d 4c 36 0a 3c 12 d5 f6 bd e9 95 24 bd
       0.101753965 0.008435797 -0.12052359 -0.040182028
000040 4a f6 3b 3d 3c a7 92 bd 16 cf 64 bc 43 03 66 bd
       0.045889176 -0.07160804 -0.013965389 -0.056155454
