results/CONF_FASHION_MNIST/checkpoints/best_model.pt (torch, 373294 bytes, 66 tensors)

conceptizer.encoder.0.0.weight f4 [10, 1, 5, 5]
000000 7b 9e d6 bd ca 16 f8 3d bd 56 42 3e 58 ff 24 3e
       -0.104794465 0.12113722 0.189784 0.16113031
000010 80 d8 5f 3e 1f 65 5f bd 23 8b 2a bc e6 64 a9 3c
       0.21859932 -0.054539796 -0.010409149 0.020677995
000020 9c 7b e5 3d 66 c0 f7 bc 63 f0 3b 3d 4c 37 dc 3d
       0.11205217 -0.03024311 0.045883548 0.107527345
000030 8e 73 c8 bd db 41 fb 3d f8 f5 69 3b 7d 89 51 3e
       -0.09787665 0.1226842 0.0035699587 0.20462604
000040 f2 11 1e 3e 8f 89 26 3e 6e 7f ae 3d 63 0f 41 bd
       0.15436533 0.16263412 0.08520399 -0.047133815
000050 39 cd c0 3e a8 e1 63 bc 68 00 1c be 06 bf fb bd
       0.37656572 -0.013908781 -0.1523453 -0.12292294
000060 91 5e a5 3d 99 f9 96 bd 3e de bd 3d a3 86 08 be
       0.08074678 -0.07371826 0.09270905 -0.1333261
000070 d0 c1 ff bd 09 4d 39 be bf 8c 0d 3b 43 9b 83 bd
       -0.12488139 -0.18095793 0.0021598784 -0.06426098
000080 6e 84 18 be 32 5a 72 3c 9a 58 28 be d0 62 00 3e
       -0.14894268 0.014792012 -0.16440049 0.12537694
000090 2c d9 c6 bd 5d ce 28 bd 5b b5 07 be 02 aa 21 be
       -0.09709391 -0.04121243 -0.13252775 -0.15787509
0000a0 f2 d8 2f be 01 67 9f bc 21 2f d4 bc 4f 78 8d 3d
       -0.17172602 -0.019458296 -0.025901379 0.06907713
0000b0 31 94 76 bd bb 54 e4 3a 1c 6f 3c 3d a4 65 98 bd
       -0.06019992 0.0017420271 0.0460044 -0.074412614
0000c0 ce 33 2d be 26 5b 08 bd f9 f6 c1 3c f3 9a ec bd
       -0.16914293 -0.03329005 0.023677336 -0.11552992
0000d0 22 eb c8 3d 9c 03 da bb ce f4 a5 bd 42 cf 7d bd
       0.09810473 -0.0066532623 -0.081033334 -0.061965235
0000e0 cc 8c f5 bd d9 73 a0 bb bc d9 f9 bd 1c 60 b5 bd
       -0.119897455 -0.0048966226 -0.12199733 -0.08856222
0000f0 a5 7a 2e be 1f 02 1f 3e 07 9f 3e bd 27 53 d5 bd
       -0.17038973 0.15528153 -0.04653838 -0.10416251
000100 c7 3e 99 ba 59 4b ac bd 79 cd f7 bc dd 4c 37 be
       -0.0011691683 -0.08412809 -0.030249344 -0.17900415
000110 b0 fa 81 bd b6 93 17 be d6 78 9d 3d 41 2b 78 3b
       -0.06346643 -0.14802441 0.07689063 0.0037867578
000120 d7 a9 91 3d 16 b6 14 bc 92 bb 1a be 00 35 c1 bd
       0.071124725 -0.009076616 -0.15110615 -0.09433937
000130 2f 02 59 bd ce e0 54 3d 50 f7 69 bd 08 95 99 bd
       -0.052980598 0.051972203 -0.05712062 -0.074991286
000140 20 07 d5 bd 1c 57 3d bd 01 ba d2 bd 56 d4 3e bd
       -0.104017496 -0.046225652 -0.10289384 -0.046589218
000150 e2 26 bb 3d 84 5f 30 be 4e 2c 38 be b4 ca 51 3d
       0.09138276 -0.17223936 -0.17985651 0.051218703
000160 fa 2a 15 be 90 56 c1 bc 3b a4 8a bd 54 4c 02 be
       -0.14567176 -0.023600847 -0.06769606 -0.1272443
000170 f7 97 79 3a bb 86 9a bd df 1a 66 bd 18 8b 8a bd
       0.0009521241 -0.07545229 -0.05617797 -0.06764811
000180 d6 aa 64 bd 95 b1 46 be ec b2 96 bd 83 55 5b 3d
       -0.055826984 -0.1940368 -0.073583454 0.053548347
000190 e0 4d 18 3d b8 c4 3a be bc 91 96 3d 54 ae a9 3d
       0.037183642 -0.18239105 0.073520154 0.082852036
0001a0 2e a2 10 3e 37 58 8a bb 1f f7 43 be 22 e3 6e 3c
       0.14124367 -0.004221942 -0.19137238 0.01458052
0001b0 54 c5 f3 3d 11 4d 38 be 76 10 82 3c 35 68 84 3c
       0.11902872 -0.17998149 0.01587699 0.016162971
0001c0 d9 2f 07 be 17 3f 25 be 4e ea 3a bd 08 6b 5e bd
       -0.13201846 -0.16137348 -0.045633607 -0.05430129
0001d0 b9 0c f0 bd 9d cb a4 3d 1f d2 1d be 1f ff 17 b9
       -0.11721177 0.08046649 -0.15412186 -0.00014495522
0001e0 f3 e8 e6 3b 28 58 52 3d 01 eb c8 bd 14 c6 2e be
       0.0070468127 0.051353604 -0.098104484 -0.17067748
0001f0 c4 12 24 bd ac 73 f4 bb 37 12 b0 3d 61 56 e3 3c
       -0.04005696 -0.007460078 0.08597224 0.02775115
000200 89 b2 2a 3c 40 d3 8d bd 31 11 76 bd e7 0b 15 be
       0.010418543 -0.06925058 -0.06007499 -0.14555322
000210 3e 12 dd 3c 96 81 21 bb 0e 89 2d be 23 3c 1c 3e
       0.026986238 -0.002464389 -0.16946813 0.15257315
000220 6b 6f 5d 3d 4d 01 be 3d 23 80 ab bd 69 f5 3c be
       0.054061335 0.09277592 -0.083740495 -0.18452992
000230 32 80 e8 bd 0f 18 46 3e 58 97 37 3e df 18 69 bd
       -0.11352576 0.19345115 0.17928827 -0.056908485
000240 5d fa 62 be 21 7a 31 3e 80 b0 9f 3e 0a 33 41 3e
       -0.22165819 0.17331745 0.31189346 0.18867126
000250 31 c0 36 be cb 4c fd bd ac 64 4a 3e 4e fc dc bd
       -0.17846753 -0.12368163 0.19764966 -0.10790311
000260 75 56 5f 3d c8 63 4d 3e 1d ee 68 3e 2c 5e 2e bc
       0.05452581 0.20057595 0.22747083 -0.0106425695
000270 c9 80 ee 3d 2c de 48 bc c5 15 fb 3d 2d 2f 18 3e
       0.116456576 -0.012260001 0.122600116 0.14861746
000280 cc 3d 65 bd 7d 7b 14 bd 94 4a 37 bd f6 60 c7 bd
       -0.055967137 -0.03625058 -0.044748858 -0.09735291
000290 4a 93 f3 bd 7e 6e f1 bd 8f 99 21 3e e0 68 86 3d
       -0.118933275 -0.11788653 0.15781234 0.06562972
0002a0 b8 f2 ab bd 2c c2 2d be 58 be 02 be 35 4d 83 bc
       -0.08395904 -0.16968602 -0.12767923 -0.016028026
0002b0 0b 33 3d be 9b e1 13 bd 0c 59 86 bd cd 2d d7 bd
       -0.18476503 -0.036103826 -0.06559953 -0.10506783
0002c0 cc f7 a0 bd 4b 43 54 be 6e d9 6a be 39 48 7e 3d
       -0.078597635 -0.20728795 -0.22934505 0.062080596
0002d0 16 9c dc bd e8 aa 35 be cb 09 28 bd 7c 1c 5e 3c
       -0.107719585 -0.17740977 -0.041024964 0.013556596
0002e0 64 61 92 bc 34 52 80 3d 86 6b b9 bd ec 0a de 3c
       -0.017868705 0.06265679 -0.090537116 0.027104817
0002f0 5e a5 24 3e 93 83 fa 3d f6 12 50 3e 8d 52 ff bc
       0.16078708 0.12232127 0.20319733 -0.031167293
000300 83 d9 8a 3d 62 57 1c bd 7f ca 26 bd dc 19 44 3e
       0.06779768 -0.038169272 -0.04072046 0.1915049
000310 66 ac 89 3e 26 74 65 bd 10 e3 96 3c c0 6c a9 3d
       0.26889342 -0.05601897 0.018418819 0.082726955
000320 84 c2 6b 3e 3e a0 eb 3d 61 cd 27 3c f7 b5 27 3c
       0.2302342 0.11505173 0.010241837 0.010236255
000330 22 77 9a bd 44 ee 62 3e 8f d4 d4 3d 2e f4 11 be
       -0.07542254 0.22161204 0.10392105 -0.14253303
000340 ba c7 1d be 79 2f 04 3e 01 e3 5c 3e 08 9f 92 bd
       -0.15408221 0.12908734 0.2157097 -0.07159239
000350 49 80 88 bd 70 52 e6 bd 34 45 2a be 0f 01 0f 3e
       -0.066650935 -0.112461925 -0.16627961 0.13965248
000360 c5 05 12 3d f5 78 a0 3d 94 11 24 be 1a 3a 52 bd
       0.035650034 0.07835571 -0.1602233 -0.05132494
000370 98 45 1f be b2 b7 67 3d 74 41 94 bd f2 fb d1 bd
       -0.15553892 0.05657167 -0.07239047 -0.10253133
000380 8c 5c b0 3d a8 95 00 3e 8d 3a 99 3e 69 84 72 3e
       0.08611402 0.1255709 0.29927483 0.23683323
000390 6e b8 ba 3d a6 86 8e 3d d4 6d b3 bd 27 1f 17 3d
       0.091172084 0.06959276 -0.087611824 0.036894944
0003a0 2b 43 08 3e e4 af f2 bd fb c1 20 3d 5b ff 2f bc
       0.13306873 -0.11849955 0.039247494 -0.010742034
0003b0 bc 08 81 3d 47 b8 07 3e b7 5a 01 be 27 9c 89 3d
       0.06300494 0.1325389 -0.12632261 0.06719237
0003c0 cf 19 18 be b2 ee 71 3d 84 66 d7 bc 3f 3b f6 bd
       -0.14853595 0.05906553 -0.026294 -0.12023019
0003d0 a1 3b 64 3d d3 71 94 bd 7e 8b 5e 3d e5 65 99 3e
       0.05572093 -0.07248273 0.05433225 0.29960552
0003e0 4d fc 82 3e 4b 66 d3 3d
       0.25583115 0.10322245

conceptizer.encoder.0.0.bias f4 [10]
000000 f8 04 2f 3e 3a 5f e1 3d 72 0c 6f 3e 02 3c 98 bd
       0.17091739 0.11004491 0.23344591 -0.074333206
000010 89 71 60 3e db 1b 9b 3d 55 0d 3c bd 26 bb 6a 3d
       0.2191831 0.075736724 -0.045911152 0.057307385
000020 1a e0 cb 3d d1 39 15 3e
       0.09954853 0.14572836

conceptizer.encoder.1.0.weight f4 [5, 10, 5, 5]
000000 45 c5 5f bd f6 14 8b bd b7 0f ea 3c cd 2c 9b 3d
       -0.05463149 -0.06791107 0.028571947 0.075769044
000010 cb ba 6b 3d bf ce 10 bc 6f 5a f1 3c c4 09 96 bc
       0.057551187 -0.008838355 0.029462067 -0.018315203
000020 69 c4 98 bc d5 ce 90 3d fa 36 4c bd 4f 43 08 bc
       -0.018648343 0.070707 -0.049857117 -0.008316829
000030 a0 e8 68 bc c7 d8 43 3d f5 ed 9d 3c 6d 6f a5 bb
       -0.014215618 0.047814157 0.019278506 -0.0050486834
000040 68 13 fd 3c 62 b4 69 3d 9c 87 5f 3c 27 d1 cf bb
       0.030893043 0.057056792 0.013643172 -0.0063420716
000050 ea eb e7 bc 7e 54 12 bc c4 a5 d7 3c e4 b1 25 3d
       -0.028310735 -0.008931277 0.02632416 0.040452853
000060 fe 2f 1c bd d1 42 87 3d a2 92 a6 3b b9 31 d3 3a
       -0.038131706 0.06604541 0.005083398 0.0016112841
000070 ab 68 11 bc ad 78 ca ba 4f 6f 86 3d 95 92 3e 3c
       -0.008875052 -0.0015447341 0.06564199 0.011631628
000080 4f e1 56 bd 4d 39 11 3d 50 64 8b 3d 7d 62 c1 3c
       -0.052460965 0.035455037 0.068062425 0.023606533
000090 69 8d 07 3d de 0f 11 3d b5 8b 99 3c 65 82 b3 3c
       0.033093844 0.035415523 0.018743375 0.021912763
0000a0 81 9f ec bc 4d e7 e0 bb 9c 63 4f bd 9e d1 ba 3d
       -0.028884651 -0.0068635107 -0.050632104 0.091220126
0000b0 be da 8b 3d 90 9e 9e 3c 36 0b 91 3d 18 af 0c 3b
       0.06828831 0.019362718 0.070822164 0.0021466669
0000c0 94 ef 35 3c d1 74 06 bc f7 12 e9 3c 60 f6 1d bc
       0.011104483 -0.008206562 0.028451426 -0.00964126
0000d0 35 94 b2 bc af 0d c1 bc b4 43 9f bc 95 33 4a 3c
       -0.021799186 -0.023566095 -0.019441463 0.0123414
0000e0 f7 17 13 bb a1 01 1b 3d 2c 00 91 bc f1 b2 ce 3d
       -0.0022444704 0.03784335 -0.017700277 0.10092724
0000f0 a4 c7 31 3d 0e 65 0b 3d 07 f5 92 3c 14 f6 b8 bb
       0.043403283 0.03403192 0.017939104 -0.005644569
000100 11 cd f2 3c ec 46 0f 3d 55 57 b8 3a 10 c7 ab bc
       0.029638799 0.034979746 0.0014064113 -0.020968944
000110 9e 0c f0 3c 61 68 69 bc dd fd 02 3d e7 b7 28 bc
       0.029302891 -0.014246077 0.031980384 -0.010297752
000120 c8 e0 47 3d 61 ee 83 3d 2b bc e4 3c f7 04 1b bd
       0.048798352 0.064419515 0.027921757 -0.03784653
000130 e5 70 20 bd 8e b1 3b bd 27 4f 0e ba 39 9e 38 3d
       -0.039170165 -0.045823626 -0.0005428665 0.045072768
000140 34 63 99 3d 28 aa 1b 3d 0c cd e4 bc bf 0c 9b 3d
       0.074896246 0.03800407 -0.027929805 0.075707905
000150 79 3e 96 3d fd 4b a5 3d 26 cd 4a bc da eb cf 3a
       0.073361345 0.08071134 -0.012378013 0.0015863136
000160 a2 bd e0 3c 4d 92 25 3c 97 1e 88 bd b7 e2 25 bd
       0.027434174 0.010105682 -0.066464595 -0.040499415
000170 a1 9d 06 bc 39 4c 40 3d 7b 3b fb 3c 72 6c 46 3c
       -0.008216293 0.04694769 0.030668011 0.012110816
000180 b4 c5 02 3b ec 75 5e 3d 2e f6 af 3d bd c1 98 3d
       0.0019954266 0.054311678 0.08591877 0.07458828
000190 a8 17 17 3d 94 b1 fe bc 33 f6 d5 bb 1b 0d b1 3c
       0.036887795 -0.031090535 -0.0065295934 0.021612694
0001a0 74 d2 8d 3c 19 0b e7 bc 58 22 9f bc a1 8a 04 bc
       0.017312266 -0.028203534 -0.019425556 -0.008089692
0001b0 52 54 7a 3d ec e6 83 3d 3b 0e f1 3c eb 73 07 bd
       0.06111557 0.06440529 0.02942573 -0.033069532
0001c0 67 c3 8c 3d 5b 03 28 bc 67 35 18 bc 11 a0 15 bd
       0.068732075 -0.010254706 -0.009290076 -0.036529604
0001d0 f9 c5 e6 3c 3d 33 92 3c e6 de cf 3c 25 5e e1 3c
       0.028170573 0.017846698 0.025374841 0.027510712
0001e0 65 c9 7f bd 0a e0 d2 3c 55 d4 00 3d 8b 08 3e 3d
       -0.062447924 0.025741596 0.031452496 0.046394866
0001f0 1e c4 4c 3c f4 17 38 bc 31 8e 3b 3d 5b ea b6 3c
       0.01249793 -0.01123618 0.0457899 0.022328546
000200 78 36 e2 3a 77 ae c0 3b cf fe dd bb 15 65 f9 3c
       0.0017258665 0.005880173 -0.0067747603 0.030443707
000210 43 26 83 bc 6b 2b be bc cc 0e 04 3c 18 e6 7a 3c
       -0.016009456 -0.023214063 0.0080601685 0.015313648
000220 4d 1c 94 bb bc 5f 3a 3c 11 39 3a bd 9a fa 79 bb
       -0.0045199753 0.011375364 -0.04546458 -0.0038143755
000230 1a 85 d3 3c 27 37 d1 bc ed 2b 2f 3c dd 14 07 bd
       0.025820304 -0.025538994 0.010691625 -0.03297888
000240 60 27 61 3c b1 28 02 3d bd ed 0d 3d 26 40 91 bd
       0.013742298 0.031777088 0.034650553 -0.070923135
000250 57 66 1f bd 1e 83 b2 bb d2 74 70 39 47 02 c8 bc
       -0.03891596 -0.0054477593 0.00022931703 -0.024415148
000260 7b ae 95 3b e4 3f 8c bb 68 34 14 3e 56 8e 23 bd
       0.004567919 -0.0042800773 0.14473116 -0.039930664
000270 d2 47 97 bc 0f 20 1e 3d 36 32 7f bd e6 86 5f 3c
       -0.018466864 0.038604792 -0.062303744 0.013643002
000280 18 d6 e7 3c 87 6d 0c 3d 04 13 8b 3b 4c c2 cf bb
       0.02830033 0.03428414 0.00424421 -0.0063403007
000290 fc 3e b5 3c 66 a2 46 3d 69 b9 02 bc c9 f7 c0 ba
       0.02212476 0.04849472 -0.007978776 -0.0014722283
0002a0 b9 89 3d 3c ce 1f 7e bc 2c 5e 1e bd 41 16 db ba
       0.01156848 -0.0155105125 -0.038664028 -0.0016715006
0002b0 88 8e 4c 3d a7 40 1c bc b7 b3 ac 3c 30 29 0f bc
       0.049940616 -0.009536899 0.021081788 -0.008737847
0002c0 9d 92 59 bc c1 bc 10 bc aa a5 a5 bb a9 f7 e7 3c
       -0.013279584 -0.008834065 -0.005055149 0.028316336
0002d0 29 20 91 bc 6b c5 0e 3d b4 fd 72 bd 62 0b 2e 3c
       -0.01771553 0.03485624 -0.05932398 0.010622831
0002e0 48 8c 62 bd 2d 43 92 37 97 1a a0 3c fb 31 ac bb
       -0.055309564 1.7435837e-05 0.019543929 -0.0052549816
0002f0 90 f1 15 3c 13 c1 1f bc 6c 37 6e 3d 6e 2f 13 3d
       0.009151831 -0.009750622 0.058158323 0.035933904
000300 3e b2 2d bc 57 d8 50 bc 04 76 88 bb 9f ca 6c bd
       -0.010601578 -0.012746892 -0.004164459 -0.057810422
000310 35 3b 89 bd 46 74 d1 bd cb 78 54 3c ba c5 f9 bd
       -0.06700746 -0.102272555 0.012968252 -0.121959165
000320 a7 85 91 bd 02 1b cd 3c 2e 75 ed 3c 42 6a da 3c
       -0.0710557 0.025037292 0.02898654 0.026661996
000330 dd f6 6a 3c 70 73 89 bd 28 9e 4b 3a 48 d5 47 3d
       0.014341083 -0.06711471 0.00077674026 0.048787385
000340 14 f8 80 bb fa f5 0b 3d 41 27 39 bd 3e 46 d2 bc
       -0.003935823 0.03417013 -0.04520345 -0.02566826
000350 dd 26 4a bd ea 52 45 bc e1 d0 f2 bc a2 5a ae 3c
       -0.04935347 -0.012043694 -0.029640617 0.021283451
000360 f5 1f a5 3d 6b 9b 08 3d cc c6 1b bd 9f 38 aa 3b
       0.08062736 0.033351343 -0.038031384 0.005194738
000370 cb c2 a5 3c 83 64 41 3d 23 74 44 bd b6 f4 60 bc
       0.020234486 0.047214996 -0.04796232 -0.013730219
000380 26 72 a5 bc 94 bb d0 bc b2 08 b5 3c d9 20 7a 3d
       -0.020196032 -0.02548007 0.022098873 0.061066482
000390 e7 52 88 3d 94 f5 b5 3d 04 0c 9a 3c 12 69 32 3b
       0.06656437 0.08884731 0.018804558 0.0027223271
0003a0 b5 e3 9f bc d1 ac 50 bd 99 fe 37 bc 9e 2b c5 bc
       -0.019517759 -0.05094606 -0.011230134 -0.02406865
0003b0 2c f6 25 bb 70 cc 37 bd 59 8d 83 3d 88 77 7a bb
       -0.0025323732 -0.0448727 0.06423444 -0.0038218219
0003c0 ee 7f 41 bc 09 87 8d 3c 95 8f 58 3d 64 ff e2 3c
       -0.011810286 0.017276304 0.052871305 0.02770967
0003d0 c8 06 34 3c 2b 78 35 bd 54 5b ab 3b 44 ce 10 3c
       0.010987945 -0.044304054 0.005229393 0.00883824
0003e0 13 7a 4d bd b0 db 48 bd 87 74 c3 3d 71 46 80 3d
       -0.050165247 -0.049037635 0.0954371 0.06263436
0003f0 b2 30 a1 3d 1e 4a 38 3d c1 ab 19 bd 69 5f e0 3b
       0.07870616 0.04499256 -0.037517313 0.0068473113

conceptizer.encoder.1.0.bias f4 [5]
000000 ec 10 4e bc 03 b9 b1 3d 05 89 c1 bc 5d ca f3 3c
       -0.012577277 0.08677866 -0.023624906 0.02975958
000010 5d 0b 5b 3d
       0.053477634

conceptizer.encoder.2.layers.0.weight f4 [1, 16]
000000 ef 7f a1 bd ac ec 5f be b4 9e c7 bd 16 ae 19 be
       -0.078857295 -0.21867627 -0.09747067 -0.15007815
000010 fd 21 2b 3e 18 78 b8 3d 23 5e b4 3d 6e f1 a6 bd
       0.16712184 0.09007281 0.08807018 -0.08151518
000020 07 55 53 be e6 3b 14 bd cd ad 56 be 60 94 91 be
       -0.20637904 -0.036189936 -0.20964737 -0.28433514
000030 2b e7 f0 bc 71 27 93 bd 57 8b 5e be 07 32 10 3e
       -0.029407104 -0.07185257 -0.21732841 0.14081584

conceptizer.encoder.2.layers.1.weight f4 [1, 16]
000000 e7 10 87 3d 49 9e 54 be 6d 79 17 be 43 e8 86 bd
       0.06595021 -0.20763506 -0.14792414 -0.06587269
000010 2a 14 de bd 8b e9 a2 3d 83 35 a3 be 6f db ac 3d
       -0.1084369 0.07954701 -0.31876764 0.08440291
000020 92 70 87 bc ea 4a 61 be 86 15 e4 bd 02 f6 91 bb
       -0.01653317 -0.22001234 -0.11136918 -0.0044543752
000030 80 4b 97 3d 1f ef 45 bd a5 fd 18 3e 71 04 3e 3e
       0.07387447 -0.048323747 0.14940508 0.18556382

conceptizer.encoder.2.layers.2.weight f4 [1, 16]
000000 35 01 6f be 73 a5 02 3e e2 2a 75 3d 20 18 11 3e
       -0.23340304 0.12758426 0.05985535 0.14169359
000010 7d 3d 9d bb 5f 43 66 be 52 70 d5 3d 4e 8c da bd
       -0.0047985897 -0.22486638 0.10421814 -0.10671292
000020 35 81 b6 be 9a a6 66 be 3a d2 0f 3e 2b dc c5 bd
       -0.35645452 -0.22524491 0.14045039 -0.09661134
000030 ad 9f 16 be ed 4f 0d 3e 58 cd 93 3d f3 ac 0b be
       -0.14709349 0.1380002 0.072169006 -0.13640194

conceptizer.encoder.2.layers.3.weight f4 [1, 16]
000000 8f ea 4e 3e 1f e7 ef 3c 25 20 0a bd 01 17 1c 3e
       0.20206665 0.029285012 -0.03372206 0.1524315
000010 5c 08 c3 3c f6 ea a7 3d ce d6 02 3e 31 64 6e 3d
       0.023807697 0.08199112 0.12777254 0.05820102
000020 99 33 08 bc c2 aa a4 3e 45 ee 1c bd 07 d8 66 3d
       -0.008313083 0.32161528 -0.03831317 0.056358363
000030 91 17 22 3e 5d 58 1d bd 95 d4 25 be 88 6c 3e be
       0.15829302 -0.038414348 -0.16194375 -0.18596089

conceptizer.encoder.2.layers.4.weight f4 [1, 16]
000000 fc 9b c8 3d 29 33 5c be 11 cc 25 3d b2 ef f4 3d
       0.09795377 -0.21503891 0.040477816 0.11959781
000010 4d 2c 42 be 19 49 3f be 45 2f 0f 3e a1 7a 80 bd
       -0.18962212 -0.18680228 0.13982876 -0.062733896
000020 a7 f1 c4 bd cb 66 9a be 69 d1 43 be 88 d8 e6 bd
       -0.09616404 -0.3015655 -0.19122852 -0.11271769
000030 19 d6 44 3c 66 be 34 bb b6 32 b3 3c 79 de 60 bc
       0.0120139355 -0.0027579307 0.021874767 -0.013724917

conceptizer.decoder.0.0.weight f4 [5, 16, 5, 5]
000000 93 9f d8 ba 5a 94 dd 3d d8 67 41 3c 94 40 80 3d
       -0.0016527049 0.108193114 0.011804543 0.06262317
000010 10 ea 44 3e 91 01 04 3d 28 62 9c 3d 19 8e 90 3c
       0.19229913 0.032228056 0.07635909 0.017645882
000020 44 a4 86 bd d5 9b 93 bd 76 fb 0a 3e f8 5b 10 3e
       -0.065743 -0.07207457 0.13572487 0.14097583
000030 39 e7 9d bd 65 2f bf 3d b6 79 be 3d 98 b6 40 3d
       -0.07710118 0.09335212 0.09300558 0.047049135
000040 44 af 9e 3d 5f 42 85 3d 60 6e 0d bd d9 17 91 bd
       0.07748273 0.065068 -0.03452909 -0.07084627
000050 f9 23 33 3d 34 45 84 be af 0d 24 be b5 e6 38 3e
       0.043735478 -0.25834048 -0.16020845 0.18056758
000060 71 c6 25 3e de dc bb bc f5 64 fd 3d 56 3f 56 3d
       0.1618898 -0.022932466 0.12372772 0.052306496
000070 10 08 5a 3c c8 92 0c 3c db ad c6 3d 89 5b 97 3d
       0.013307586 0.008579917 0.09701129 0.07390506
000080 92 d8 e7 bd 23 af 9c 3d 80 55 0a 3e cd 89 1c 3e
       -0.113206044 0.07650592 0.13509178 0.15286942
000090 89 9d d3 bc 7a 1d c8 3d 42 0a f8 3d 37 46 15 bd
       -0.025831955 0.09771247 0.121113315 -0.036443915
0000a0 e0 75 00 3d 69 cf 8c be b1 89 a0 3e c5 f2 1e 3e
       0.031362414 -0.2750199 0.3135505 0.15522297
0000b0 2f 67 66 be 4f a3 11 3d 9e e1 65 3b fb 7a 0d 3d
       -0.22500299 0.035556134 0.0035077105 0.03454111
0000c0 9b 2c d4 bd e3 bf 90 ba 85 e3 1a 3e ea 04 26 3d
       -0.1036007 -0.0011043515 0.15125854 0.04053203
0000d0 82 d6 03 bc e0 df 18 bc e4 ff 0b 3e f4 01 2d 3c
       -0.008046748 -0.00933072 0.13671833 0.010559548
0000e0 a6 72 da 3d ce 2e 20 3e ca 4f f4 bd d3 12 f7 3d
       0.10666399 0.15642855 -0.11929281 0.12064137
0000f0 a9 ee bb 3d 24 c7 a9 3c b9 4d 69 3d ac ac 9a bd
       0.0917638 0.02072484 0.056958888 -0.07552466
000100 29 d9 92 bc 7c 10 2f 3e b0 30 ad 3d 78 74 9e bc
       -0.017925816 0.17096132 0.08456552 -0.019342646
000110 98 f9 2c bd 8d b1 80 3e 57 df 03 3e 87 13 66 3e
       -0.04223022 0.2513546 0.12878166 0.22468387
000120 3f ce 88 3d 39 9a 8b bd 96 bf 62 be 60 7d dd bc
       0.06679963 -0.06816525 -0.22143397 -0.027037323
000130 35 17 00 3d ef 5e 0c bd c4 02 0b 3e 01 41 45 3d
       0.031272132 -0.034270223 0.13575274 0.048157696
000140 51 29 9c bd a2 b6 f8 3b 9f 9b 7d bc e5 7d ff bd
       -0.07625068 0.007590131 -0.0154789975 -0.12475184
000150 94 d0 9a bd 02 f0 21 3d 90 b0 3b be d6 f8 01 be
       -0.07559314 0.03953553 -0.18329072 -0.1269258
000160 d5 26 be 3d 1d c7 14 3e 1b ee 00 3e a2 e1 fa bc
       0.0928475 0.1452908 0.1259083 -0.030625168
000170 bb 9f 18 be 9e a2 1a 3e c3 cc 00 be b1 42 ce 3d
       -0.14904682 0.15101096 -0.1257811 0.10071314
000180 69 f2 53 3d 23 9f 0c 3e 30 91 b4 3d 13 3e 2a 3e
       0.051744852 0.13732581 0.08816755 0.16625242
000190 b9 9f 7d 3d 44 25 e6 bd ac 87 0a 3e 80 02 4b 3d
       0.0619199 -0.112375766 0.13528317 0.04956293
0001a0 70 12 48 3e 02 bc 92 bc ca 32 87 bd b1 21 d7 3d
       0.19538283 -0.017911915 -0.06601484 0.10504473
0001b0 f2 78 b0 bd cd 0e a5 bc bc 8e e6 bc 2d 05 90 3b
       -0.086168185 -0.02014866 -0.028144233 0.0043951483
0001c0 e0 35 f4 3c c0 26 61 be b1 93 3c bd bd a0 92 3d
       0.029810846 -0.21987438 -0.046039287 0.07159565
0001d0 cd 82 c1 3d 3e 71 ef 3d cf be fb bd 17 d1 17 be
       0.094487764 0.11691521 -0.12292253 -0.14825855
0001e0 cf 2d b1 bc aa 8b ea 3c c5 f4 96 3d d7 76 29 3c
       -0.021628289 0.02863105 0.07370905 0.010343275
0001f0 d7 1c f3 bd 8f 1b 45 3e 0c 04 4d bd c5 81 b8 bc
       -0.11870735 0.19248794 -0.050052688 -0.022522816
000200 90 cc 46 3c d2 75 ab ba fe 66 7b bc 60 4b 17 be
       0.012133732 -0.0013081378 -0.0153443795 -0.14774847
000210 9e c1 c6 3d 0f 3b 14 3d c9 0a 8a bc 13 ce 17 3d
       0.09704898 0.036189135 -0.016850846 0.037061762
000220 c8 02 a3 bd cc 5c f7 3c fb b4 8d bb 2b 12 12 bc
       -0.07959515 0.030195616 -0.004324553 -0.008915464
000230 1b da 84 3d c6 01 cd bb 0b 45 37 3d 4e 29 1e be
       0.06486913 -0.006256315 0.04474358 -0.15445444
000240 8a 76 94 3b d3 38 1d 3e a7 00 e2 3c ac 40 a6 3d
       0.0045307325 0.15353708 0.027588202 0.08117804
000250 0e 24 4f be 10 c5 48 bc 2d 72 b1 3d a2 4b c0 3d
       -0.20228598 -0.012254015 0.086643554 0.09389426
000260 73 ae 3d 3d e5 50 ad 3d a2 7f 19 3e f5 f8 7f bd
       0.046308946 0.08462695 0.14990094 -0.062493283
000270 74 de e6 3d 71 ee b2 3d c6 b2 0a be 2c bf 2f be
       0.11272898 0.08736885 -0.13544759 -0.1716277
000280 de be 14 bd 2f b3 e0 3d ba 39 8f 3d 0a 49 82 3d
       -0.036314838 0.109716766 0.06993432 0.06361587
000290 42 7f ba 3d 65 f0 d3 3d 0c 7a a0 3a ad 01 6e 3d
       0.09106304 0.10348586 0.0012243404 0.058107067
0002a0 c7 3e cb 3d 1c 8b ea bc eb be 55 3d 37 5c 1a bd
       0.09924083 -0.028630786 0.052184027 -0.0376856
0002b0 4f e0 73 bb 29 f1 ab bd d7 a2 13 be 94 8d 2e 3e
       -0.0037212556 -0.08395607 -0.14417587 0.17046195
0002c0 43 83 70 3d a2 b4 29 3d cb a1 10 3e 27 60 38 3e
       0.05871893 0.04143203 0.14124219 0.18005429
0002d0 6b 66 e9 bd 4d 37 14 bd 10 90 1a 3d 14 70 d6 3d
       -0.11396488 -0.03618555 0.037735045 0.10470596
0002e0 88 d1 1f 3e 97 54 d7 3d 31 41 70 3d 84 d6 09 3d
       0.15607274 0.10514181 0.05865592 0.033651844
0002f0 57 bf ac bd fc 94 78 bd 7f 9e b0 3d 9c 1b 87 3d
       -0.08434933 -0.060688958 0.08623981 0.06597063
000300 8c 47 24 be 6f 74 24 be 44 20 90 bc 79 9e 12 3d
       -0.16042918 -0.16060041 -0.01759351 0.035795663
000310 ff 56 ef 3d b4 2e e0 bc 9d 50 1a be 3d d9 74 be
       0.11686515 -0.02736602 -0.15069814 -0.23910995
000320 71 65 4b bb 3b 88 b0 bc 73 b9 fd bd 02 6b e1 3c
       -0.0031035806 -0.021549335 -0.12388887 0.027516846
000330 a0 0a d0 3d 06 ef 81 3d 39 63 f7 bc 9f 8f d7 bd
       0.101582766 0.06344418 -0.03019868 -0.105254404
000340 a4 4d f4 bd 74 45 14 3e 91 7e a2 3d 5a 75 0c 3d
       -0.11928871 0.1447962 0.07934297 0.034291603
000350 54 35 43 be eb c7 87 3d 61 fb f3 3d f9 55 26 3e
       -0.19063312 0.06629928 0.11913181 0.16243733
000360 e5 9d f3 3d 69 24 f5 ba 8d 48 0b bd 54 dd 0a 3e
       0.1189535 -0.0018702868 -0.034004737 0.13560992
000370 8f ca 56 3d af e6 40 be 01 1b 2f be fe e6 46 bd
       0.05243927 -0.18837999 -0.17100145 -0.048560135
000380 51 5d ef 3d 00 dd e6 3d 15 b7 ea 3d 0f bf 9c 3c
       0.116877206 0.11272621 0.114607014 0.019134073
000390 54 50 20 3d 01 e7 6a bc a9 85 48 3d 42 9a 51 bc
       0.039139107 -0.014337302 0.048955593 -0.012793126
0003a0 08 71 d8 3c 65 9e 47 3d 3c c3 2a 3e 22 b4 86 3d
       0.026421085 0.04873504 0.16676039 0.06577326
0003b0 84 f7 35 3e 17 7a 38 bd f7 45 99 3c d5 47 eb 3b
       0.17770201 -0.04503831 0.01871012 0.007180194
0003c0 91 e9 4c 3d 46 2e 97 bc d7 16 eb bd 9a 9b fc 3c
       0.050027434 -0.018454682 -0.11478966 0.030835915
0003d0 1b 49 db bd 2c c2 ba 3d 5d 38 3f 3e 44 3c 3f 3d
       -0.10707303 0.091190666 0.18673845 0.046688333
0003e0 4b 01 05 3e 53 26 7e be 8c b0 a8 bc c7 95 1e bd
       0.12988774 -0.24819307 -0.020591997 -0.038717058
0003f0 f8 39 a2 3b 14 fe 83 bc 58 75 23 be 10 e9 e7 bd
       0.004950758 -0.016112365 -0.15962732 -0.1132375

conceptizer.decoder.0.0.bias f4 [16]
000000 39 aa e7 bd 4c 01 27 3d 50 36 17 3b 00 b7 dd 3d
       -0.11311764 0.04077272 0.0023073144 0.1082592
000010 2d d5 87 bd 8a ec a0 3b 9f 7f f7 bc c0 52 7d 3d
       -0.06632457 0.00491101 -0.030212222 0.061846495
000020 46 1e 6c bc 87 d0 a3 bd a9 db f6 3d 10 86 f2 3d
       -0.014411515 -0.07998758 0.120536156 0.11841977
000030 a1 e6 ad 3c 12 49 76 bc cc ac 44 bd 5b b0 b5 3d
       0.021228136 -0.01503207 -0.048016354 0.08871528

conceptizer.decoder.2.0.weight f4 [16, 8, 5, 5]
000000 d1 7d 47 3d b5 69 56 3e 4f e8 33 3e ea 69 91 3d
       0.048703972 0.20938762 0.17569087 0.0710028
000010 1c 20 1a 3e 2f 64 c4 3d 10 3c 9a 3e 47 5b 30 3e
       0.15051311 0.09589421 0.3012395 0.1722232
000020 ba 9d 3a 3d ec b9 78 3e 8f 4d a1 bd d4 f9 14 3e
       0.045560576 0.24289674 -0.07876121 0.14548427
000030 0d 84 06 bd fb 07 53 3d d9 e0 be 3d 3c 38 8a bc
       -0.032840777 0.051521283 0.0932023 -0.016872518
000040 65 aa 33 3d d5 37 8c bd 30 59 9a 3c 36 6b 44 3c
       0.043863673 -0.068465866 0.018841356 0.011988452
000050 b0 ca 0a be 01 e9 10 be 18 d4 18 be 4f af 88 bc
       -0.13553882 -0.14151384 -0.14924657 -0.016685156
000060 8e 38 ac 3c 95 3b da bd d4 a8 07 be ad 4a 6d bd
       0.021023061 -0.106558956 -0.13247997 -0.057932544
000070 da e0 c9 3b 2c a9 02 3d cf 0b 0b bd 5d 37 ed bd
       0.0061608376 0.031899616 -0.03394681 -0.11582825
000080 40 80 ef bd 47 c4 05 bc a5 22 24 bd c0 06 c2 bd
       -0.116943836 -0.008164472 -0.040072102 -0.09473944
000090 3b 25 8d bd 58 21 71 bd c1 fc 1e 3c fa b1 bc bd
       -0.06891867 -0.05886969 0.009703816 -0.09213634
0000a0 02 c6 ef 3b c9 3e 28 3d af f0 e2 3d dc 06 04 3e
       0.0073173055 0.0410755 0.11081063 0.12893242
0000b0 dd 27 98 3b 58 af fa 3d 80 ff b7 3d a3 67 9e 3d
       0.004643424 0.122404754 0.0898428 0.07734611
0000c0 f8 ac 50 3d d8 6d f1 3c 8e b9 f6 bd ec fb 80 3e
       0.050946206 0.029471323 -0.120471105 0.251922
0000d0 56 1c 0b 3d 70 93 94 3d 86 e2 6d 3d 85 3b ed 3c
       0.03396257 0.07254684 0.058077358 0.028959045
0000e0 34 68 85 be cf ab f1 3d 92 37 14 bc a3 11 3e bc
       -0.26056063 0.11800348 -0.009046452 -0.011600885
0000f0 f0 7c 0c be b7 07 64 be 89 f8 55 3d 08 b9 5a 3d
       -0.13719535 -0.22268568 0.052238975 0.053399116
000100 ea 6d b1 3a 36 80 60 3c c2 cd 19 3c 6f 75 13 3d
       0.0013536785 0.013702443 0.009387435 0.036000665
000110 66 50 4b bd be 94 fd bc b8 a7 7f 3d 0d dd a0 bd
       -0.04963722 -0.030954715 0.06241581 -0.07854662
000120 68 3e 96 bc 91 69 cc bb 41 2e b1 3c 58 07 56 3e
       -0.018340304 -0.0062381704 0.0216285 0.20901239
000130 5c ab 4c 3e e0 fa 24 3e ee 9e 2d 3d 92 35 10 3d
       0.19987243 0.16111326 0.042387895 0.03520734
000140 c7 85 7a 3e 2e 5a de 3d 17 aa a6 3d e4 13 45 3d
       0.24465095 0.10857044 0.08137911 0.048114672
000150 6b 3e a1 3d 4a f2 9f bd 57 b6 0f be e9 3e 2d bd
       0.078732334 -0.07809885 -0.14034401 -0.042296324
000160 8e 7d 02 bd 6b 4a f3 3d 30 0f 5a be 97 90 4b be
       -0.03185802 0.118794285 -0.21294856 -0.19879375
000170 8c 0d 21 be b7 74 40 bd d2 f9 95 3d 69 5c 4f bd
       -0.15727824 -0.046986308 0.0732304 -0.05062524
000180 0d 49 0e be a9 a4 1a be bc 47 94 bd 6b 37 5e bd
       -0.13895054 -0.15101875 -0.07240245 -0.05425207
000190 a9 8f 74 3c 4b f2 d8 bc 1a 22 b6 bd c3 38 a7 bd
       0.014926829 -0.026482722 -0.08893223 -0.08165123
0001a0 37 9e b8 bd 4b 51 54 3e 6e 92 2b 3e 40 06 49 3e
       -0.09014552 0.20734136 0.16755077 0.1963129
0001b0 25 c9 c9 3d 43 98 6a 3d 8d 10 10 3e c6 90 43 3e
       0.098528184 0.057274114 0.14068814 0.19098195
0001c0 44 52 58 3e 6c 2b 38 3e 4a bf 27 3e 8b 4c ab bd
       0.21125132 0.17985314 0.16381565 -0.08364209
0001d0 df d3 68 bd e1 a6 48 3c 4f 6d a7 3d dd 1a bb bc
       -0.05684268 0.012246818 0.08175146 -0.022839958
0001e0 0f 0c 55 be 99 7e c4 bd 2e 2b 50 bd 56 89 ef bc
       -0.20805381 -0.09594459 -0.05082243 -0.029240292
0001f0 77 0e ed 3b b1 25 78 3e f6 e0 83 3e a6 5a 69 3e
       0.0072343904 0.24233128 0.2575757 0.22788486
000200 0f 5b cc 3d 62 1d 4a 3e 91 d3 1e 3e 9c b5 50 3e
       0.099783055 0.19737771 0.15510394 0.20381778
000210 70 c6 2f 3e 35 bb ae 3d af bb 2e 3e db 99 d2 bd
       0.17165542 0.08531801 0.17063783 -0.10283252
000220 3c 0f d3 bd f8 be 43 bc 88 5e 4d 3c f7 59 5e 3d
       -0.1030564 -0.011947386 0.012534745 0.054285016
000230 94 8f 19 be 71 b3 46 be 68 0c 02 be 04 a8 14 be
       -0.14996177 -0.19404389 -0.12700045 -0.14517218
000240 9f c7 78 bd 74 94 0e be b5 b7 42 be 33 cc 0b bd
       -0.06073725 -0.13923818 -0.19015391 -0.034130286
000250 db 42 ff bc ba ac 91 3c 7c 89 bc 3e 96 79 44 3e
       -0.031159809 0.017782558 0.36823642 0.19187006
000260 e1 d0 49 3d 8d 56 9d 3c 1a 9d db 3d a6 0b ec 3d
       0.049271468 0.01920631 0.10723324 0.11525659
000270 a1 7f 1c 3e 40 d8 89 3d c8 81 4d 3d 8e 59 19 3b
       0.15283062 0.067306995 0.050172597 0.0023399326
000280 03 b8 0c 3d 8e b3 f1 bc c9 e0 c3 bd 6a b1 df bd
       0.034355175 -0.029504564 -0.09564359 -0.10922511
000290 1d 83 07 be a4 4d 16 be e3 3b 73 bd d6 e5 21 be
       -0.1323361 -0.14678055 -0.059383284 -0.15810332
0002a0 95 cf 1f be 3a f2 84 bd e1 56 f5 bd 6a f5 c6 bd
       -0.1560653 -0.064915136 -0.119794615 -0.09714778
0002b0 9a c9 06 be b6 03 84 bd 0c 42 e3 3d 3c 95 9c 3e
       -0.13162842 -0.0644602 0.11096582 0.30582607
0002c0 2a 31 4a 3e a9 b3 00 3d 22 e0 6b 3d 3e 46 db 3c
       0.19745317 0.031421337 0.057586797 0.026766893
0002d0 e9 13 f8 3c 29 f0 cb 3d 9e f2 20 3c 2e b5 1b 3d
       0.030282931 0.09957916 0.009823469 0.038014583
0002e0 89 86 27 3d 42 c8 cf bd 15 29 de bd 46 c8 dd 3c
       0.040899787 -0.10145618 -0.108476795 0.027073037
0002f0 51 dc ac bc b4 34 00 3d dd de d0 bd 92 64 3e be
       -0.021101149 0.03130026 -0.10198758 -0.18593052
000300 d8 a8 4a bd fd 29 84 3d 95 60 92 3d ba 08 7c be
       -0.04947743 0.06453321 0.07147328 -0.24612704
000310 ae 4a 82 bd 60 70 e1 bc 9a 7b 44 3c 35 53 a8 3d
       -0.063619 -0.027519405 0.0119923595 0.082189955
000320 de e8 8f 3d 2f 59 83 3d 80 50 46 3e 89 bd 3c 3e
       0.07026838 0.06413495 0.19366646 0.18431677
000330 95 bc 39 3e ec 52 06 3e a6 29 e7 3d 40 95 27 3e
       0.18138345 0.1311757 0.11287241 0.16365528
000340 fe 9c c3 3d dd 4a 29 3e ca 09 a0 3d 92 3a 6d bd
       0.09551428 0.16532464 0.07814367 -0.057917185
000350 34 83 b5 bd ec 85 ed 3b 51 39 0d 3b b8 0c 94 bd
       -0.08862916 0.0072486307 0.0021549056 -0.072289884
000360 da 8f 9f bb 81 ca c8 3b 89 1a 15 bc 03 4d f2 bc
       -0.0048694434 0.006127656 -0.009100565 -0.029577738
000370 c7 ee fa bc 34 36 9b 3d bb 7e 6c bd d4 16 4e 3d
       -0.030631436 0.07578698 -0.057738047 0.05031474
000380 d1 24 f0 3d 06 4a b8 bd 34 61 1a be fe cc 00 be
       0.11725772 -0.08998494 -0.15076143 -0.12578198
000390 99 2d 14 bd 83 09 d4 3c 97 d3 ba bd 20 8d 53 bc
       -0.036176298 0.025883442 -0.09122389 -0.012912065
0003a0 22 ca 3d bc 1e 20 28 3d fd a0 16 3d cb d1 46 3e
       -0.011583837 0.041046254 0.036774624 0.19415967
0003b0 45 48 74 3e 2b 1b 30 3e c6 e3 f6 3d 4f a2 02 3e
       0.23855694 0.17197864 0.12055163 0.12757228
0003c0 cc f5 08 3e d9 8e ea 3d 8f a1 39 3c 77 57 c7 bc
       0.13375014 0.11453027 0.0113300225 -0.024333699
0003d0 3e 84 08 3e 4e c4 a2 3c 65 c1 99 bd 54 c1 5a bd
       0.13331696 0.019868996 -0.0750759 -0.05340703
0003e0 3b 53 a9 3d 23 72 bb 3d c3 a1 07 be c7 00 e5 3d
       0.08267828 0.09152629 -0.13245301 0.11181789
0003f0 d4 3a 91 3c 90 80 90 3d e9 77 b1 bd 2a 25 0c 3d
       0.017728247 0.07055771 -0.08665449 0.03421513

conceptizer.decoder.2.0.bias f4 [8]
000000 dd 66 5a 3c e2 0c 35 3d 92 73 29 3d 72 7d 34 3d
       0.013330189 0.04420174 0.041369982 0.044064946
000010 e3 27 87 3d e0 44 a3 3b 43 db 44 3e 2c 6f 91 bd
       0.06599405 0.004982576 0.19224267 -0.071012825

conceptizer.decoder.4.0.weight f4 [8, 1, 2, 2]
000000 e0 92 b4 bf 5d 62 42 bf b4 e8 7c bf 3c 33 8c be
       -1.4107323 -0.7593134 -0.98792577 -0.2738284
000010 35 28 37 3f 8a 94 3b 3f d4 44 38 3f c4 ed 32 3f
       0.71545726 0.7327353 0.71980023 0.6989405
000020 2b 0c 35 3f 1d 72 6e 3f 77 20 01 3e db 49 ad ba
       0.7072169 0.93142873 0.1261004 -0.0013220863
000030 59 1b 50 bf 7f b7 73 bf 1f c1 56 bf 3c 2a 65 bf
       -0.8129173 -0.9520187 -0.8388843 -0.8951757
000040 1a dc 87 bf 9e 13 9e bf 83 16 a9 3c b7 88 51 be
       -1.0614045 -1.2349737 0.020640617 -0.20462309
000050 85 e6 1b bf b1 8a 7f be 47 fa a4 bf a7 2f 5f bf
       -0.6089862 -0.2495525 -1.2888879 -0.87182087
000060 7b ec 67 bf e9 10 85 bf 35 d6 73 bf 1a d8 6c bf
       -0.90595216 -1.0395786 -0.9524873 -0.92517245
000070 c5 bd 62 bd 53 40 8b bf ff 42 1f bf 93 d0 d4 bf
       -0.05535676 -1.0879005 -0.622116 -1.6626152

conceptizer.unlinear.weight f4 [16, 1]
000000 f8 31 4d bf 52 56 07 3f af 91 15 bf 87 e2 b4 bf
       -0.8015437 0.5286609 -0.5842542 -1.4131631
000010 0a e7 7a bf ea 8b 26 bf 0f 32 7c 3f cc 94 55 bf
       -0.9800879 -0.6505724 0.98513883 -0.8343017
000020 52 7e 4f bf 3d 75 86 bf b8 d7 97 3f 5b 17 25 3f
       -0.81052125 -1.0504528 1.1862707 0.6448876
000030 45 78 8b bf 4f 7b 16 bd 5f b1 5b bf 74 ab 45 3f
       -1.0896078 -0.03673869 -0.8581752 0.7721474

conceptizer.unlinear.bias f4 [16]
000000 5d cd 41 3f 73 5c d9 bd a9 e9 85 bf 9c e8 25 3f
       0.75703984 -0.106133364 -1.0461932 0.6480806
000010 9e 13 9c 3e 22 a5 14 3e e7 6f 0f bf d1 77 1d 3f
       0.30483717 0.14516118 -0.56030124 0.6151095
000020 c2 36 23 bc ac c0 4a bf 79 1b 4c bf 70 ff 49 3f
       -0.009961786 -0.79200244 -0.7972942 0.7890539
000030 0c 56 9e be 26 22 34 bf a1 bb 3f bf 80 52 eb 3e
       -0.30925024 -0.70364606 -0.74895674 0.4596138

parameterizer.cl_layers.0.weight f4 [10, 1, 5, 5]
000000 e2 cc 19 3e 6a b1 f3 bc f4 ec bc 3d df 9b 29 3e
       0.15019563 -0.029747684 0.09224883 0.16563366
000010 94 1e f1 3d bd da 5a bc dd 32 7b 3e 17 e0 6e bd
       0.117734104 -0.013357815 0.24531122 -0.058319177
000020 4f f5 f1 bd 1c ac 69 bd 5b dd fc 3c e3 20 a5 3d
       -0.11814367 -0.057048902 0.03086727 0.08062913
000030 b4 c4 e3 3d 63 b1 97 3e 37 46 8a 3e 0e 6e 6a be
       0.111215025 0.29627523 0.27006695 -0.22893545
000040 26 c5 c8 bd 55 78 f4 bd a4 38 32 be 54 c0 4f be
       -0.09803228 -0.11937014 -0.17404419 -0.20288211
000050 2b 48 c9 bd 73 37 58 be ea 19 57 be ff 71 3c be
       -0.09828218 -0.21114902 -0.21005979 -0.18402861
000060 b5 0c 04 be f4 98 b0 bd 69 e5 b4 bd 63 72 41 3e
       -0.12895472 -0.086229235 -0.08832819 0.18891291
000070 b7 58 89 bd 1b 62 38 3c 56 48 01 be 92 be 03 be
       -0.06706374 0.011253859 -0.1262525 -0.12865666
000080 f5 f2 d1 bd b8 16 67 bc c9 f0 0f bc 85 3c 0d be
       -0.102514185 -0.014104538 -0.008785435 -0.13792618
000090 99 d3 93 3d 06 d9 4a be 8e a1 69 3c 7a 3a b9 bd
       0.072180934 -0.1980935 0.014259709 -0.09044357
0000a0 d5 29 57 3e 77 4b 0c be c3 57 fa 3c 93 b4 53 be
       0.21012051 -0.13700663 0.030559426 -0.20674352
0000b0 f2 ba 00 be da bd 8e 3e 6f 8c 9c 3d 16 30 c1 bd
       -0.12571314 0.2787922 0.07643973 -0.09433
0000c0 d6 fe b7 3e 19 08 24 be 23 2a 5b bd 75 79 01 3e
       0.35936612 -0.16018714 -0.05350698 0.12643988
0000d0 81 33 16 3e 36 a9 13 3e a1 fc 04 3b 3e 07 c2 3c
       0.14668085 0.14420018 0.002029218 0.023685094
0000e0 48 34 aa bd d3 f5 19 3e ff 62 d3 3d b1 5b bd 3d
       -0.08310753 0.15035181 0.103216164 0.092460044
0000f0 6e 84 ad 3d 05 b4 35 bb 3b 75 af bd 44 ba fb 3d
       0.084725246 -0.0027725708 -0.08567282 0.12291387
000100 15 e0 1b 3e e4 eb 0b be 62 52 0f be 97 78 13 3a
       0.152222 -0.13664204 -0.1399627 0.0005625574
000110 96 13 ff bc ad a6 8f 3e 87 60 28 bd 4d 2a 42 be
       -0.031137269 0.2805685 -0.04110768 -0.18961449
000120 e2 c7 16 be 4f 54 87 bd eb f2 d4 3e a1 e2 14 bd
       -0.14724687 -0.066078775 0.41591582 -0.036348943
000130 94 19 56 3e 19 81 03 3e b5 2f e7 3d 21 fa 30 3e
       0.20908195 0.12842216 0.11288396 0.17282917
000140 1e 56 e8 3d 81 ae 7a 3b 0c de d2 3d f2 d6 14 3e
       0.113445505 0.0038250985 0.10296258 0.1453512
000150 de 5f 10 3e cf 91 10 be 82 cf 14 be f9 dd 77 be
       0.1409907 -0.14118122 -0.14532283 -0.2420577
000160 b9 1d 38 be a1 01 44 be d9 5f 2e 3e 89 b1 36 be
       -0.17980088 -0.19141246 0.1702875 -0.17841162
000170 9d 30 a5 3e 8e 6a 00 be 24 c2 d8 3d 44 16 44 be
       0.32263651 -0.12540647 0.105839044 -0.19149119
000180 16 6b 0f be db e1 1d 3d 66 c4 3c be a3 e6 1d 3d
       -0.14005694 0.03854547 -0.18434295 0.03855003
000190 60 ef 83 3d 69 7b 8a 3e e5 21 05 be 54 a4 05 be
       0.064421415 0.2704728 -0.13001211 -0.13050967
0001a0 8b 21 e7 bd 67 88 b4 bc 3a ba 27 3e d3 d7 47 be
       -0.11285695 -0.022037698 0.16379634 -0.19515924
0001b0 c7 83 1b be d9 23 a1 bb 99 8e 98 3d cc c0 f2 bc
       -0.15186988 -0.0049176035 0.07449073 -0.029632948
0001c0 18 b1 42 be 05 30 e5 3d f2 3e 12 bc da 52 4c 3e
       -0.19012868 0.111907996 -0.00892614 0.1995348
0001d0 77 20 f6 bd 9e 20 38 be 1d eb bb bd 78 91 c7 bc
       -0.12017911 -0.17981192 -0.09175704 -0.024361357
0001e0 3b 5a 16 bd 73 82 41 be cc 97 5b be f6 28 8d 3e
       -0.036707144 -0.18897419 -0.21444625 0.27570313
0001f0 ce 15 67 bd 79 47 4c be 75 b0 cf bd b1 a8 29 3e
       -0.05641728 -0.1994914 -0.101410784 0.16568257
000200 19 d1 cc bd 3a 4d 45 bd e7 0e 85 3a 6b 45 25 be
       -0.1000082 -0.048169352 0.0010151536 -0.16139762
000210 be f5 49 be 4b fe a3 3d b7 0c a5 3e 23 a6 f3 3d
       -0.1972265 0.08007487 0.32236263 0.118969224
000220 1b 63 96 be c4 4a 2a 3e 91 80 f9 3d a4 01 db 3c
       -0.29372486 0.16630083 0.12182725 0.02673418
000230 cf 06 98 3b ca 9c 87 be e4 a6 72 3d c8 98 35 3e
       0.0046394835 -0.26486808 0.05924119 0.17734063
000240 b7 54 0b 3d c0 5c 55 be c3 60 27 3e f7 33 5b bd
       0.034016337 -0.20836163 0.16345505 -0.053516354
000250 9b 9a 83 3e 34 48 af bb 1f 41 85 3d 2d c3 15 bd
       0.25703892 -0.0053491835 0.065065615 -0.036563087
000260 d0 bc 64 bc 70 d3 20 3e 5e 69 2c be af 78 b9 bc
       -0.013961032 0.15705657 -0.1683707 -0.022640554
000270 a6 5d 35 bd dc 73 5f 3d 56 1c ce bc f8 38 ec 3d
       -0.044278763 0.05455385 -0.025159996 0.115343034
000280 f5 d5 37 3d 9c fe 47 be 6f 38 ee 3d a8 6b 32 be
       0.04488178 -0.1953072 0.116318576 -0.1742388
000290 39 27 da bd e8 f9 d2 bd 57 eb ff 3e 07 09 a5 be
       -0.106520124 -0.10301572 0.49984238 -0.3223345
0002a0 46 fb 19 3f 54 2a 63 be 95 30 cd bd 10 38 0d be
       0.6014904 -0.22184116 -0.10019032 -0.13790917
0002b0 e6 7f f1 bd 53 c4 35 3d 1d 85 10 bd c3 52 3e 3e
       -0.11791973 0.044376682 -0.035283197 0.18586259
0002c0 0e 4e e9 bd 58 8d 8b bd ac 76 33 be 8e 11 5d 3e
       -0.11391841 -0.068140686 -0.17525738 0.21588728
0002d0 66 63 4d bc df 69 41 be e1 b8 6b 3e 8d 2d c7 bd
       -0.012535905 -0.18888043 0.23019744 -0.09725485
0002e0 de c5 82 3c df da b6 bd 81 75 8b 3e ca 6a 8d be
       0.015963491 -0.08928465 0.27238086 -0.27620536
0002f0 b8 65 2c be 4a 26 52 bd df c4 27 bb 02 17 95 be
       -0.16835678 -0.051306047 -0.0025599522 -0.29119116
000300 1c c9 f6 3e 96 8a b6 be be 2f bb 3e 62 24 9f 3c
       0.4820031 -0.35652608 0.36559862 0.019426528
000310 1f 10 0b be c0 77 ec 3c de c8 19 be e2 c2 26 be
       -0.13580368 0.028865695 -0.15018031 -0.1628528
000320 18 9d 03 be 3c f0 1e be 3c 73 06 be b3 f3 93 3e
       -0.12852895 -0.1552133 -0.13129896 0.28896865
000330 36 23 3c be eb 7d b1 3e 04 60 2c 3c 83 67 d3 3d
       -0.18372807 0.3466638 0.010520939 0.10322478
000340 db a6 43 be 73 38 6e 3e 80 1a 65 bd c0 31 bd bc
       -0.19106619 0.23263721 -0.055933475 -0.023095012
000350 23 d0 11 be ce fa 67 3d 87 a4 46 bd 74 21 33 be
       -0.14239554 0.05663567 -0.04849675 -0.1749323
000360 18 24 91 3e 7b 35 03 3e 25 70 1b be d6 04 14 be
       0.2834785 0.1281337 -0.15179498 -0.1445497
000370 5b 4d 7f 3b ee 5c 81 be 67 a7 28 3e e3 50 30 be
       0.003895602 -0.25266212 0.16470109 -0.17218356
000380 18 e6 92 3e 16 44 ab bd ed fb 8c be ac 7f 6b be
       0.28691173 -0.08362596 -0.27535954 -0.22997922
000390 aa 10 0d be b8 ee c1 3d 48 42 7a bd eb 46 c2 3d
       -0.13775888 0.0946936 -0.061098367 0.09486183
0003a0 e0 26 0c 3e ea 12 d0 3d 86 b2 7b 3d 49 e5 03 3e
       0.13686705 0.101598576 0.06144955 0.12880434
0003b0 82 c9 26 3e a8 bb c4 3e cd e6 9e 3c bc db 9b bd
       0.16287807 0.3842442 0.019397164 -0.076102704
0003c0 c8 24 ab 3d 12 30 17 3d 54 a4 98 bd c5 8c 81 bb
       0.08356625 0.036911078 -0.07453218 -0.0039535486
0003d0 7c a3 ea bd ba 51 43 bc 35 6f 85 bd 49 45 05 be
       -0.114569634 -0.011921341 -0.06515352 -0.13014711
0003e0 5c b8 c5 bd 42 7b 30 3e
       -0.096543044 0.17234519

parameterizer.cl_layers.0.bias f4 [10]
000000 78 23 5d 3d 65 d5 0f 3e c0 83 22 be 5b 32 d2 3c
       0.053988904 0.14046247 -0.15870571 0.025658777
000010 e3 51 4a 3c f1 f4 83 3d cf e9 e1 bd 4c 6a 73 be
       0.012348625 0.06443203 -0.110309236 -0.23771018
000020 cd 04 35 bd f0 8a db bb
       -0.04419403 -0.0066999123

parameterizer.cl_layers.3.weight f4 [20, 10, 5, 5]
000000 99 dc f9 3c 38 20 4e bd 40 4d 72 bd fd d9 13 be
       0.030500697 -0.050323695 -0.059155703 -0.14438625
000010 3b 8b 26 bd 09 4d 70 3c c3 22 01 3b a4 37 c7 bd
       -0.040660124 0.014666804 0.0019704557 -0.097274095
000020 02 40 81 bd 57 f2 45 bd 4c a0 7c bd 55 67 7f 3c
       -0.06311037 -0.048326816 -0.06167631 0.015588601
000030 7f c5 5b bd 25 93 9c bd 8b fb 0f 3c 7b 67 5b 3d
       -0.053655144 -0.07645253 0.008788 0.053565484
000040 00 bd d7 3c b7 fc 56 bd 41 ae 85 bc 7a fa c5 3c
       0.02633524 -0.0524871 -0.016318442 0.024167288
000050 2d 63 86 3b e7 57 ac 3b 02 f2 bd 3c e5 53 99 3b
       0.004101178 0.005259502 0.023186687 0.0046791905
000060 66 79 2b bc 81 26 2b bd 2f d7 ae 3d 26 10 6c bd
       -0.010465955 -0.041784767 0.08537137 -0.057632588
000070 ba e2 39 bd 3b 2e 56 bc 3f 6d 12 bd f3 bf ba bb
       -0.04538224 -0.013072546 -0.035748716 -0.0056991517
000080 49 dd bc bd 53 e1 7e bd e3 54 b7 3c 9b 34 98 bc
       -0.09221894 -0.062226605 0.022379344 -0.018579772
000090 2c d6 6a bd d3 ae 00 3c 2e 43 f9 bc 95 85 d4 3c
       -0.057333156 0.007854181 -0.030427542 0.025942603
0000a0 80 17 0f bd 9b 40 92 3b 4a 96 a6 bc 78 88 3e bd
       -0.03493452 0.004463268 -0.020335335 -0.046516865
0000b0 22 b0 b5 bc f4 16 a7 bb a7 f0 fc bb 8c e3 9f bc
       -0.022178713 -0.005099172 -0.0077191177 -0.019517682
0000c0 7a 40 6c 3d 1b 9b 68 3d b5 9e 11 3e 09 cc 0b 3d
       0.057678677 0.056788545 0.14220698 0.03413013
0000d0 dd b0 49 3d 97 63 bb bc 62 ac 45 bc 17 26 3a 3d
       0.049240936 -0.022874637 -0.012065025 0.04544648
0000e0 eb ed 44 3c ec eb c7 3c 63 fc 6f bd 98 47 76 bd
       0.012019615 0.024404489 -0.058590304 -0.06012687
0000f0 93 84 0a 3d 49 e4 80 3c 1f 2b 87 bd dd e5 93 bd
       0.03381784 0.015733855 -0.066000216 -0.07221577
000100 8d 34 24 bd 12 66 e4 bb f7 3b fc 3c 7e 26 8f 39
       -0.04008918 -0.0069701755 0.030790312 0.00027303764
000110 66 9d 7f 3c 6c 46 80 bd 4e 47 13 3c f5 38 8d 3c
       0.015601492 -0.06263432 0.008989168 0.017239073
000120 45 53 ba 3d c0 f7 a7 3d 9f 7d 09 3d bc 3f bc 3c
       0.09097914 0.082015514 0.033567067 0.02297961
000130 84 63 c0 bc fc 4a 1c 3c 2b af 8b bd 90 40 8a bd
       -0.023484953 0.009539362 -0.0682052 -0.067505956
000140 0c f4 7a bc c9 61 10 bd f3 dd 42 bd 42 0f 3c 3c
       -0.015316974 -0.035249505 -0.04757495 0.011478247
000150 cd c9 47 bd 45 af 6c 3c e9 63 4a bc fa 3c b0 bd
       -0.048776437 0.014446084 -0.012352922 -0.0860538
000160 b7 77 fb bd f0 14 13 3c 73 9a 44 3c 25 68 52 3a
       -0.12278693 0.00897716 0.011999714 0.0008026383
000170 18 db a4 bc d8 cd 13 bd c0 9d 29 bd 24 9d 98 3d
       -0.020124003 -0.03608498 -0.041410208 0.07451847
000180 a6 f9 2f bd 3f b1 1b bd c4 57 12 3d 1e 1b fb bc
       -0.042962693 -0.038010832 0.03572823 -0.030652579
000190 fd fc 4f bc 0c 7f 13 bc c3 e5 f8 3b 31 85 5a 3d
       -0.012694594 -0.009002458 0.007595749 0.053349677
0001a0 11 1f 74 bb 15 23 42 3c f1 67 71 bb 27 52 51 bd
       -0.0037249962 0.0118491845 -0.0036835636 -0.051103737
0001b0 7d 2b 83 bc 98 f6 95 3d b2 95 63 bc 0f 6e c1 3c
       -0.016011948 0.07322425 -0.013890671 0.02361205
0001c0 39 e9 9f 3d 8b fe 84 3c 9e 78 ae 3d d7 d8 89 b8
       0.078081556 0.016234657 0.085191 -6.5730586e-05
0001d0 28 16 72 3d 80 17 f0 39 fc 33 e5 3c 2c 8d e5 bc
       0.05910316 0.00045793876 0.02797889 -0.028021418
0001e0 b9 2d 9d 3d f7 44 75 3c a9 10 47 bb 6d 95 2b bd
       0.076747365 0.014970056 -0.003037492 -0.04189055
0001f0 77 61 cc 3b 36 57 58 bd b0 97 da 3c 43 0e 20 3d
       0.0062372047 -0.052817546 0.026683658 0.0390761
000200 b5 7c 65 3d a2 94 80 3d 12 8c d0 bc 21 8f 50 3d
       0.056027133 0.062783495 -0.025457416 0.05091775
000210 b1 bd af 3d 71 53 aa 3d e2 67 07 3d fd 4f 21 bd
       0.08581103 0.083166964 0.033058055 -0.039382923
000220 bb 6c 22 3d c7 7e 5e 3d e1 99 7b 3d cb f8 45 bc
       0.039654475 0.054320123 0.061426047 -0.012083243
000230 b4 e1 ed ba 05 b8 19 3c f5 72 20 3d c6 0d 9e 3d
       -0.001814893 0.009382253 0.03917213 0.07717471
000240 d3 96 6f bd a9 19 8a bb fc b9 0d bd 14 c2 45 bd
       -0.058493447 -0.0042144847 -0.034601197 -0.04828079
000250 ea 37 71 bd ab 51 ed bb a0 aa 6e bd 2a e5 2c 3e
       -0.058891214 -0.0072424016 -0.05826819 0.16884294
000260 f3 93 29 3e 41 39 1b 3b 39 df 3b 3c 9d 8a a6 bd
       0.16560344 0.002368525 0.011466795 -0.08131907
000270 f2 74 4b bd c2 0e 60 bd 95 ec 29 bd 67 6b a8 3c
       -0.049672075 -0.054701574 -0.041485388 0.020559026
000280 c7 8c 8e 3d 8b ea ff 39 d8 9b e4 3c 28 38 08 3d
       0.06960445 0.00048812138 0.027906343 0.03325668
000290 0e d6 8a 3b 6e ce 1f 3d 5b 40 47 3d 1a 18 86 bb
       0.004236943 0.039015226 0.04864536 -0.0040922286
0002a0 d5 a6 d6 bc ff ad 8f 3c 94 b8 1e 3d 47 8b 29 bd
       -0.026202599 0.017539022 0.038750246 -0.04139259
0002b0 34 e0 3c 3d 60 65 3a 3d 99 ef e3 3c f3 d8 06 bd
       0.046112254 0.045506835 0.02782421 -0.032921743
0002c0 93 d6 ed 3d 4f b0 ad 3d 8a 51 7e bd f5 e9 15 bd
       0.116131924 0.08480894 -0.06208948 -0.036600072
0002d0 23 0d ef bd 91 d9 92 bc a9 6e 5d 3d 4a b0 f9 bb
       -0.116724275 -0.01792601 0.054060612 -0.0076198922
0002e0 e9 23 a6 bc 17 74 94 bd 65 c8 c0 39 62 c9 a7 bb
       -0.020280795 -0.07248705 0.000367704 -0.0051204422
0002f0 de 30 b4 3d c7 0f a0 3b 26 c5 6d bd bd c4 57 bd
       0.08798383 0.0048846933 -0.058049344 -0.05267786
000300 98 d2 96 3c e2 89 0b 3d 9e 27 eb 3c cf 05 8b bd
       0.018410966 0.034067042 0.028705414 -0.06788217
000310 67 79 54 bd ca c9 7a 3d ba 74 4c 3c a4 20 d5 bd
       -0.05187359 0.061227597 0.012479002 -0.10406616
000320 3e 94 3c 3c c8 da 21 3e 36 07 cc 3d b0 cc c4 3d
       0.011509953 0.15806115 0.09962313 0.096093535
000330 88 5f 75 3b d6 29 4d bd c0 20 47 3d c4 51 a9 3d
       0.0037440974 -0.050088726 0.048615217 0.08267549
000340 a5 30 12 3d 0f 3a e3 3c 9f 8a 2e bd d1 03 bd 3c
       0.035690922 0.027737645 -0.042612668 0.023073109
000350 94 f6 06 3d 2c f9 41 bd b0 2b fc bb e3 ac a5 3d
       0.03295 -0.04735677 -0.0076956376 0.08089616
000360 d2 c9 7c bd cf ab 47 bc d2 9b 0b bd 9a 72 33 bd
       -0.06171591 -0.012186958 -0.03408415 -0.043810464
000370 ed 1a 16 bd ac 0b 39 b9 b4 0a 91 3c fd 94 9f 3c
       -0.036646772 -0.00017647323 0.017705299 0.019480223
000380 a1 53 b7 3b 34 e9 94 3d 0d 13 28 3d e9 26 6d bd
       0.005594686 0.072710425 0.041033793 -0.057898436
000390 2d 5f 2f 3c 3f 4c fe 3c 96 26 07 bd 84 fc 04 3c
       0.010703844 0.031042216 -0.032995783 0.008116845
0003a0 6e 97 9f 3c 6d ae 38 bc dd f6 ab 3d eb ef 94 3d
       0.019481387 -0.011272055 0.08396695 0.07272323
0003b0 4a 4a a2 3d 0a 42 19 3d a6 e9 7d 3c 18 60 99 3d
       0.07924326 0.037416495 0.015497601 0.074890316
0003c0 e4 3e ac 3d 7e 92 45 3d ed af 08 bd 99 b7 4c bd
       0.08410433 0.04823541 -0.0333709 -0.04997978
0003d0 b9 f6 33 3d 8c d6 10 3d a3 10 f2 3c 55 79 10 bd
       0.043936465 0.035360858 0.029548949 -0.03527196
0003e0 2e da 91 bc ea 26 39 3d b4 cc 53 3d 2c 53 28 3c
       -0.017804231 0.045203127 0.051708892 0.010273736
0003f0 80 4d ac 3d c8 71 f9 3c ba 7c 41 3d 73 bf 5a 3b
       0.084132195 0.030449763 0.04723809 0.0033378273

parameterizer.cl_layers.3.bias f4 [20]
000000 fa e8 88 3d 32 90 09 bd 2e 44 1b 3d 98 d1 9f 3d
       0.06685062 -0.03358478 0.037906818 0.07803649
000010 7a d7 31 bd 6f 0e 8c 3b d6 14 9e 3d 0d a0 1e bd
       -0.043418385 0.0042741816 0.07718818 -0.038726855
000020 1b 69 01 3d 8d 0e c0 bc 55 70 7a 3c 10 10 ea bc
       0.031594377 -0.023444438 0.015285571 -0.028572112
000030 a7 50 01 bc de a7 99 bc 14 8c 83 bd f4 a6 bf 3b
       -0.007892764 -0.018756803 -0.06423202 0.00584876
000040 ce 56 28 bc f3 18 86 3c 10 91 2f bd 78 6a b6 bc
       -0.010274602 0.016369319 -0.04286295 -0.022267565
