results/CONF_FASHION_MNIST/checkpoints/Epoch[16]-Step[4590].pt (torch, 374454 bytes, 66 tensors)

conceptizer.encoder.0.0.weight f4 [10, 1, 5, 5]
0	0xbe51c8a7	-0.20486699
1	0x3e314f75	0.17315467
2	0x3e507425	0.20356806
3	0x3dff9735	0.12480012
4	0x3e39f9cc	0.18161696
5	0xbd38e599	-0.045140836
6	0xbb11d34e	-0.0022251192
7	0x3d2bbcfa	0.04192827
8	0x3e6949ff	0.22782134
9	0xbd5a3c05	-0.053279895
10	0x3e295958	0.16537988
11	0x3deba5fb	0.11506268
12	0xbe140991	-0.14456774
13	0x3e38c146	0.18042478
14	0xbdd7c76b	-0.10536083
15	0x3e672e7a	0.22576323
16	0x3df69b4f	0.120413415
17	0x3dd07b84	0.10179809
18	0x3c1c079e	0.0095233
19	0xbd967fc0	-0.07348585
20	0x3e9db140	0.30799294
21	0xbcc3e115	-0.023911038
22	0xbe01b6ce	-0.1266739
23	0xbda0e4d1	-0.07856143
24	0x3e02db5d	0.12778993
25	0xbd569393	-0.05238683
26	0x3dd41356	0.103552505
27	0xbe1f210f	-0.15539955
28	0xbdf72b42	-0.12068798
29	0xbdfd046b	-0.12354358
30	0xbc16614f	-0.009178474
31	0xbd5d47d5	-0.054023582
32	0xbe2fd1fd	-0.17169948
33	0x3c168fca	0.009189555
34	0xbe226d71	-0.15862061
35	0x3dcf1ded	0.1011313
36	0xbdcf7a3b	-0.101307355
37	0xbd096c13	-0.033550333
38	0xbe1bb649	-0.15206255
39	0xbe232656	-0.15932593
40	0xbe482f6e	-0.19549343
41	0xbc9aa81b	-0.018878987
42	0xbd42c78d	-0.047553588
43	0x3d321666	0.043478392
44	0xbd677497	-0.056507673
45	0x3d18db27	0.037318375
46	0x3c92fc09	0.017942445
47	0xbe00b516	-0.12569079
48	0xbe665ddf	-0.22496746
49	0xbd5700df	-0.052491065
50	0x3c63d91a	0.0139067415
51	0xbe15bc67	-0.14622651
52	0x3de09909	0.10966689
53	0xbcf4fac3	-0.029904729
54	0xbdde2235	-0.10846368
55	0xbdacd2d8	-0.08438653
56	0xbe0f08f1	-0.13968255
57	0xbaa18d0f	-0.0012325364
58	0xbe204d10	-0.15654397
59	0xbddf74f4	-0.10910979
60	0xbe41820b	-0.18897264
61	0x3e14c039	0.14526452
62	0xbd82ebda	-0.06392641
63	0xbe1ca14e	-0.15295908
64	0xbc7e9ec4	-0.015540782
65	0xbd9c9419	-0.07645435
66	0xbcf4be38	-0.02987586
67	0xbe4fedc4	-0.20305544
68	0xbdb9a60e	-0.090648755
69	0xbe1f8470	-0.15577865
70	0x3e0eb868	0.13937533
71	0x3cfce780	0.030872107
72	0x3d60b963	0.0548643
73	0xbb92aa97	-0.0044759023
74	0xbe00ff0d	-0.12597294
75	0xbde528d2	-0.111894265
76	0xbd545711	-0.051840845
77	0x3d59e058	0.053192466
78	0xbd774528	-0.060368687
79	0xbdba1d71	-0.09087647
80	0xbde21334	-0.11038819
81	0xbc2d8c82	-0.010592582
82	0xbdb5a29e	-0.088689074
83	0xbccc3754	-0.024928726
84	0x3db70549	0.08936555
85	0xbe3eecc3	-0.18645005
86	0xbe379e2e	-0.17931435
87	0x3d5e0ca0	0.05421126
88	0xbe2ea935	-0.17056735
89	0xbcd4a1b9	-0.025956022
90	0xbd5bb645	-0.053640623
91	0xbe015bb7	-0.12632643
92	0xbc7590ae	-0.014988108
93	0xbdc17fe9	-0.09448225
94	0xbd4c99a1	-0.0499512
95	0xbd8acc9d	-0.06777308
96	0xbd3acf32	-0.045607753
97	0xbe544b4a	-0.20731845
98	0xbd630f02	-0.055434234
99	0x3dc13bfc	0.09435269
100	0x3d58a244	0.052889124
101	0xbe0ccaff	-0.13749312
102	0x3daa339b	0.08310624
103	0x3dac85b2	0.08423938
104	0x3e1fc7c5	0.1560355
105	0x3cb9e628	0.022692755
106	0xbe3545bc	-0.17702383
107	0x3af1cdb8	0.001844815
108	0x3e115360	0.14191961
109	0xbe3f42cc	-0.18677825
110	0x3cb9281e	0.022602137
111	0x3c8bbb32	0.017057035
112	0xbe45477a	-0.19265547
113	0xbe4b86b5	-0.19875605
114	0xbd8b1820	-0.06791711
115	0xbcae4dfc	-0.02127742
116	0xbdcef6c3	-0.1010566
117	0x3de2db0b	0.110769354
118	0xbe1918e9	-0.14950909
119	0x3d2b8540	0.041875124
120	0x3d02430f	0.031802233
121	0x3e085ccd	0.1331665
122	0xbdad28fa	-0.08455081
123	0xbe1ef7d2	-0.15524223
124	0x3cbf2c24	0.023336478
125	0xbdfa0bdf	-0.122092955
126	0x3d476347	0.048678663
127	0x3d76ac05	0.060222644
128	0x3db7ace0	0.0896852
129	0x3aadd8a9	0.0013263422
130	0xbe313009	-0.1730348
131	0xbe1b5fee	-0.15173313
132	0x3e0b3e58	0.13598001
133	0x3de91ebf	0.113828175
134	0xbe1677d2	-0.14694145
135	0x3deb7f96	0.114989445
136	0x3d6946a8	0.05695215
137	0x3dd56011	0.10418714
138	0xbd99b152	-0.07504524
139	0xbe732b6b	-0.23747031
140	0xbe1d9df1	-0.15392281
141	0x3e4845ff	0.19557951
142	0x3e4fa8ff	0.2027931
143	0xbd3444fe	-0.04401111
144	0xbe78f1f0	-0.24311042
145	0x3de38833	0.11109962
146	0x3e7b440d	0.24537678
147	0x3e1fc544	0.15602595
148	0xbde0fe7f	-0.10986041
149	0xbdb6ecd8	-0.08931893
150	0x3e6adb65	0.22935255
151	0xbde4ddee	-0.11175142
152	0x3e1ad4ef	0.1512029
153	0x3e6d3976	0.23166451
154	0x3de6b922	0.1126578
155	0xbd776c62	-0.060406096
156	0x3e220795	0.15823205
157	0xbd1fa8b5	-0.03897925
158	0x3e4c74a0	0.19966364
159	0x3e5a002d	0.2128913
160	0xbe1935ee	-0.14961979
161	0xbda584f0	-0.080819964
162	0xbdbd15f9	-0.092327066
163	0xbdb8ebac	-0.09029326
164	0xbdd7cbaf	-0.105368964
165	0xbe301dc2	-0.17198852
166	0x3dbcfe5b	0.09228202
167	0x3d014dbe	0.03156828
168	0xbda709ee	-0.08156191
169	0xbdf4d45b	-0.11954566
170	0xbe102b41	-0.14079
171	0xbce06334	-0.027391054
172	0xbe7577e4	-0.23971516
173	0xbb85db86	-0.004085007
174	0x3cf0b759	0.029384302
175	0xbd27667f	-0.040869232
176	0xbd33aa16	-0.04386338
177	0xbe7d3fe8	-0.2473141
178	0xbe84de80	-0.25951004
179	0x3d33e39a	0.04391823
180	0xbd465cd6	-0.04842838
181	0xbe472df4	-0.19451123
182	0xbd27ea69	-0.040995035
183	0xbccd8b9e	-0.025090989
184	0xbe045490	-0.12922883
185	0x3e8425e5	0.2581016
186	0xbc7bc2c2	-0.015366258
187	0x3de589a0	0.112078905
188	0x3e2bbbef	0.1677091
189	0x3d320d6d	0.043469835
190	0x3ea6365f	0.32463357
191	0xbc947e24	-0.018126555
192	0x3d8a722c	0.06760058
193	0xbaae281c	-0.00132871
194	0xbcb0e59e	-0.021593865
195	0x3ddf804a	0.10913141
196	0x3e8d2a6f	0.27571437
197	0xbdcb3b4f	-0.099234216
198	0x3db2b5bc	0.08726069
199	0x3e471fb7	0.19445692
200	0x3e4f7458	0.20259225
201	0x3d9d149c	0.076699466
202	0x3db36f1d	0.087614276
203	0x3d169f5a	0.036773063
204	0xbde8b6f4	-0.113630205
205	0x3e35fe79	0.17772855
206	0x3deb5fb6	0.11492865
207	0xbde1c994	-0.11024776
208	0xbe230d40	-0.15923023
209	0x3e1bc0d6	0.1521028
210	0x3e4c2fe8	0.1994015
211	0xbdd7effa	-0.10543819
212	0xbdabba09	-0.08385093
213	0xbe0d7b77	-0.1381663
214	0xbe44d16e	-0.19220516
215	0x3dd3e76b	0.10346874
216	0x3d10a019	0.03530893
217	0x3e037fa0	0.12841654
218	0xbe3445c5	-0.1760474
219	0xbbd52b29	-0.006505389
220	0xbe3a3503	-0.18184285
221	0x3dd3ae1c	0.10335943
222	0xbd52ab28	-0.05143276
223	0xbdd93d85	-0.10607437
224	0x3da69d51	0.081354745
225	0xbd84f2eb	-0.064916454
226	0x3dfe95c7	0.124309115
227	0x3e237a82	0.15964702
228	0x3dd44622	0.10364939
229	0xbdcedc4f	-0.10100614
230	0xbe472324	-0.19446999
231	0x3d870d5f	0.06594347
232	0x3e416a16	0.18888125
233	0xbe2b4d29	-0.16728653
234	0xbd9722c6	-0.073796794
235	0x3cc0238f	0.023454456
236	0x3e274e5f	0.1633849
237	0x3e17ecf0	0.14836478
238	0xbe70b84f	-0.23507808
239	0xbcdfc7b7	-0.027316911
240	0xbd522776	-0.051307164
241	0x3e1cceec	0.1531331
242	0xbdea63bd	-0.11444805
243	0xbe6d6f68	-0.2318703
244	0xbceed97e	-0.029156443
245	0x3cab51cf	0.020913033
246	0x3d88e962	0.06685139
247	0x3e1a14dc	0.1504702
248	0x3ddbe48b	0.107369505
249	0xbd4877d7	-0.048942413

conceptizer.encoder.0.0.bias f4 [10]
0	0x3da08b98	0.078391254
1	0x3db0e00c	0.086364836
2	0x3e349046	0.17633161
3	0xbd8e36e9	-0.06944067
4	0x3e48141e	0.19538924
5	0x3dacd19e	0.08438419
6	0xbd409d1d	-0.047024835
7	0x3d1ae1fc	0.03781317
8	0x3db497ac	0.088179916
9	0x3e0367f5	0.12832625

conceptizer.encoder.1.0.weight f4 [5, 10, 5, 5]
0	0xbb8b44f3	-0.0042501627
1	0x3c1e49e9	0.009661176
2	0xbab4c08d	-0.0013790295
3	0x3d78bee7	0.060728934
4	0x3d5a4ad7	0.05329403
5	0xbc7bafbf	-0.015361725
6	0x3bda85ed	0.006668797
7	0x3b9e49f4	0.0048305932
8	0xbcb5352d	-0.022120083
9	0x3dc37222	0.095432535
10	0xbd10427f	-0.035219666
11	0x3d1de307	0.03854659
12	0xbccafc1d	-0.02477842
13	0x3d0a8c75	0.033825357
14	0xba7287c4	-0.0009251798
15	0xbca0dda5	-0.019636938
16	0x3cbc5a69	0.02299233
17	0x3d900318	0.0703184
18	0x3c2cce1e	0.010547189
19	0x3c50f177	0.012752882
20	0xbc8c66d6	-0.01713888
21	0xbc50ecba	-0.0127517525
22	0x3d5e60c6	0.05429151
23	0x3dabe085	0.08392433
24	0xbd949556	-0.07255046
25	0x3d3bdc17	0.04586419
26	0xba5ae3b1	-0.00083499687
27	0x3c0b30b6	0.0084955
28	0xbc4e95cb	-0.012608956
29	0x3c0d1300	0.008610487
30	0x3d71f773	0.059073877
31	0x3becd57d	0.007227598
32	0xbd16f51e	-0.036854856
33	0x3cbb188c	0.022838853
34	0x3d85d177	0.06534093
35	0x3d023f1d	0.03179847
36	0x3ce041d1	0.027375134
37	0x3d116afb	0.035502415
38	0x3c2e57a5	0.010641013
39	0x3b40f4b5	0.0029442732
40	0xbd09bb69	-0.033625994
41	0xbc8c36ab	-0.017115911
42	0xbce3df3f	-0.027816413
43	0x3da27d79	0.07934088
44	0x3d80a5f8	0.06281656
45	0xbc103ee6	-0.008804059
46	0x3d990ad9	0.07472772
47	0xbb9fe193	-0.0048791855
48	0x3af61ce9	0.0018776926
49	0xbc747684	-0.014920834
50	0x3c9a2c25	0.018819878
51	0xbc1ff265	-0.009762381
52	0xbd03f829	-0.032219086
53	0xbd101f96	-0.035186373
54	0xbc8626ba	-0.016375888
55	0x3c0ff078	0.00878536
56	0xbbdcc759	-0.0067376313
57	0x3d288736	0.041144572
58	0xbcfb4eb2	-0.030677173
59	0x3dacd751	0.08439506
60	0x3d963f1b	0.07336255
61	0x3d1a29bd	0.03763746
62	0x3cf4ab24	0.029866762
63	0xbcc5489c	-0.024082474
64	0x3c3c2afe	0.0114848595
65	0x3d0c595e	0.034264915
66	0x3c69e13d	0.014274892
67	0xbceb5277	-0.028725846
68	0x3d0b5c94	0.034023836
69	0xbcd603f2	-0.026124928
70	0x3cea035d	0.028566057
71	0xbc9b18ac	-0.018932663
72	0x3d524b1e	0.05134117
73	0x3d5d0e1b	0.05396853
74	0x3ccb47f6	0.024814587
75	0xbd26b130	-0.040696323
76	0xbd241655	-0.04006036
77	0xbd31b692	-0.043387003
78	0x3bc3a910	0.0059710816
79	0x3d113810	0.035453856
80	0x3d9cd367	0.07657509
81	0x3d586084	0.05282642
82	0xbccaa27b	-0.02473568
83	0x3d9e2a66	0.077229306
84	0x3da6204b	0.08111628
85	0x3dccd043	0.1000066
86	0x3c5ac2f4	0.0133521445
87	0xbd0d8c5f	-0.034557696
88	0x3cb740f0	0.022369832
89	0x3c4ead15	0.012614508
90	0xbd3520af	-0.044220623
91	0xbd6defce	-0.058090024
92	0xbc5126cd	-0.0127655985
93	0x3d20e36d	0.03927939
94	0x3d077a87	0.033075836
95	0x3ca401c9	0.020020382
96	0xbb6dad44	-0.0036266604
97	0x3d70cfa8	0.058791786
98	0x3dc4ae2d	0.09603534
99	0x3db33ccc	0.087518305
100	0x3d7202a5	0.059084553
101	0xba06cc1f	-0.0005142111
102	0xbc2b5b39	-0.010458761
103	0x3c66fa0a	0.0140977
104	0x3c0ac940	0.008470833
105	0xbc88dc05	-0.016706476
106	0xbd2187aa	-0.03943602
107	0xbc01350d	-0.007886183
108	0x3cfc4613	0.030795133
109	0x3d21b2c2	0.039477117
110	0x3d50ca4c	0.050974175
111	0xbd1c58bd	-0.038170565
112	0x3da100c7	0.078614764
113	0xbc9f88af	-0.019474356
114	0xbd02b27b	-0.031908493
115	0xbc513080	-0.012767911
116	0x3d7583fd	0.059940327
117	0x3cddea49	0.027089255
118	0x3cea9a7c	0.028638117
119	0x3d77bf7c	0.060485348
120	0xbd51eeeb	-0.05125324
121	0x3bc7fc08	0.0061030425
122	0x3d44dfbe	0.04806494
123	0x3cdd4e9b	0.027015021
124	0x3ca54ea3	0.020179098
125	0xbc80add6	-0.015707891
126	0x3d912487	0.07087045
127	0xbbdef727	-0.006804365
128	0x3b07287c	0.0020623496
129	0x3d465798	0.04842338
130	0xbd89e92f	-0.06733929
131	0x3bac233c	0.0052532237
132	0x3c9ab80c	0.018886589
133	0x3d0be43a	0.0341532
134	0xbc747a88	-0.014921792
135	0xbccf2ca2	-0.025289837
136	0x3d2ac73d	0.041693915
137	0x3d96e491	0.07367814
138	0x3ce0443a	0.027376283
139	0x3c7dd54f	0.015492751
140	0x3cf59784	0.029979475
141	0xbb2087d5	-0.0024495025
142	0x3d3c333a	0.04594729
143	0xbd101f11	-0.035185877
144	0xbcdea51e	-0.027178343
145	0x3cc75458	0.02433221
146	0x3daa3318	0.083105266
147	0xbd450a4a	-0.048105516
148	0xbd5528b6	-0.052040778
149	0xbd81cc5b	-0.06337806
150	0x3ddc6a06	0.1076241
151	0x3da77a59	0.08177633
152	0x3c470818	0.012147926
153	0x3cbf57f3	0.023357367
154	0x3db9a9f7	0.09065621
155	0x3cfafd7a	0.030638445
156	0xbc4cedb0	-0.012507841
157	0xbc8457f4	-0.01615522
158	0xbc63be30	-0.013900325
159	0xbdbefa2d	-0.09325061
160	0x3c5f3d51	0.013625459
161	0x3d329139	0.043595526
162	0x3d18bea2	0.037291177
163	0xbca2654d	-0.019823695
164	0x3c6af176	0.014339795
165	0x3d5858c7	0.05281904
166	0xbc2fd611	-0.01073219
167	0xbc7a655d	-0.015282956
168	0xbb24f2d5	-0.0025169153
169	0xbc1b79f1	-0.009489522
170	0xbd0e3766	-0.0347208
171	0x3b4e846d	0.0031512037
172	0x3d048129	0.03234974
173	0xbcb2c2bf	-0.021821378
174	0x3c7acbbd	0.015307364
175	0xbdb72573	-0.0894269
176	0xbda7b4ba	-0.08188768
177	0xbd1006b3	-0.03516264
178	0xbcbd97a9	-0.023143606
179	0xbd8dd504	-0.06925395
180	0xbcfcb1c1	-0.030846478
181	0x3ccb45bb	0.024813524
182	0xbdc29dd0	-0.095027566
183	0xbcb8ab69	-0.022542672
184	0xbd6d155d	-0.0578817
185	0x3c0a6fb7	0.008449486
186	0xbcafddb6	-0.021468025
187	0xbd1c0219	-0.038087938
188	0xbcd9a7d1	-0.026569279
189	0x3c533ef3	0.012893426
190	0x3c22f401	0.00994587
191	0x3d6691b8	0.056291312
192	0xba3bff1c	-0.0007171498
193	0xbd10696a	-0.03525678
194	0xbd949fee	-0.07257067
195	0xbd189414	-0.037250593
196	0xbd3c3d6a	-0.045957007
197	0xbda061d1	-0.07831157
198	0xbd7dd6d9	-0.061972473
199	0xbe082529	-0.13295425
200	0xbd6dcc25	-0.058056016
201	0x3d6fd599	0.058553312
202	0x3d0ac509	0.033879314
203	0xbc96ed9d	-0.01842385
204	0x3d32c8ce	0.043648534
205	0xbd9e2c23	-0.07723262
206	0xbb66832c	-0.00351734
207	0x3d182c73	0.037151765
208	0x3c90acc9	0.017660515
209	0x3d9deb88	0.0771094
210	0xbd96d5b5	-0.0736498
211	0xbd449583	-0.047994148
212	0xbd33c067	-0.04388466
213	0x3d40d2cd	0.047076035
214	0x3d2cc7f4	0.042182878
215	0xbc2a9a5c	-0.010412779
216	0x3da3e6be	0.08002995
217	0x3d4348ac	0.047676727
218	0x3bb4670f	0.0055054496
219	0x3d8a4b75	0.067526735
220	0xbd188c90	-0.037243426
221	0x3d8d594a	0.06901796
222	0xbc49e562	-0.0123227555
223	0xbbd7a798	-0.006581258
224	0x3d19df25	0.037566323
225	0xbaf20a0e	-0.0018466131
226	0xbc941519	-0.018076466
227	0x3cf82b14	0.030293979
228	0x3d7ed29e	0.06221258
229	0x3d2f5902	0.042809494
230	0xbc370019	-0.011169457
231	0x3d075159	0.033036564
232	0x3cae0d14	0.02124647
233	0xbd604c3d	-0.054760206
234	0xbd17871d	-0.03699409
235	0x3c863341	0.016381862
236	0x3d522241	0.0513022
237	0xbcd816ec	-0.026378118
238	0x3c648f8f	0.013950243
239	0xbd4dead5	-0.05027278
240	0x3d401a80	0.046900272
241	0x3cc45b97	0.023969455
242	0xbc661e88	-0.014045365
243	0xbd9ed38e	-0.077551946
244	0x3ca7f2a2	0.020501439
245	0x3c7c7009	0.015407571
246	0xbbd5ec00	-0.0065283775
247	0xb9806068	-0.0002448589
248	0x3cbf3c1f	0.023344098
249	0xbd13d7b9	-0.0360944
250	0x3e137dc7	0.14403449
251	0x3db45ca8	0.08806735
252	0x3de9a964	0.11409262
253	0x3dd5507b	0.10415741
254	0x3ce54ebd	0.027991647
255	0x3d02695a	0.031838752

conceptizer.encoder.1.0.bias f4 [5]
0	0xbccfe876	-0.0253794
1	0x3daa9bae	0.08330475
2	0xbb7f0302	-0.0038911705
3	0xbc026d98	-0.0079606995
4	0x3d254c05	0.0403557

conceptizer.encoder.2.layers.0.weight f4 [1, 16]
0	0xbc32f68d	-0.01092304
1	0xbe2abaf9	-0.16672887
2	0xbdb1a959	-0.086748786
3	0xbe09b22c	-0.13446873
4	0x3e028d47	0.12749206
5	0x3df22aae	0.11824547
6	0x3e06630b	0.1312372
7	0xbe36373c	-0.17794508
8	0xbe2faf2c	-0.17156667
9	0xbdfc5ef6	-0.123228
10	0xbe7a5253	-0.24445467
11	0xbe92a6fe	-0.2864303
12	0x3d2ed48c	0.04268317
13	0xbe0dcf44	-0.13848597
14	0xbe51324e	-0.20429346
15	0x3e22d81b	0.1590275

conceptizer.encoder.2.layers.1.weight f4 [1, 16]
0	0x3d9396ec	0.072065204
1	0xbe7fce96	-0.2498115
2	0xbd9d2246	-0.07672553
3	0x3ccf1e1b	0.02528291
4	0xbe3510ae	-0.17682144
5	0x3bf828ba	0.0075732144
6	0xbe9ba5b7	-0.30399868
7	0x3dcb2cfe	0.09920691
8	0x3c7dd80e	0.015493406
9	0xbe8b3e50	-0.27195978
10	0xbd8a3d11	-0.06749929
11	0xbcdc70be	-0.026909228
12	0x3dd8e949	0.105913706
13	0xbd75eadc	-0.060038432
14	0x3de34a7b	0.110981904
15	0x3e17fac4	0.14841753

conceptizer.encoder.2.layers.2.weight f4 [1, 16]
0	0xbe82b257	-0.25526688
1	0x3e06262d	0.131005
2	0x3df022f0	0.11725414
3	0x3d95c6be	0.07313298
4	0x3d25122c	0.040300533
5	0xbe6300ed	-0.22168322
6	0x3e3a3051	0.18182494
7	0xbe3f404c	-0.18676871
8	0xbea16c2f	-0.3152785
9	0xbe31ccbc	-0.17363256
10	0x3e2963e7	0.16542016
11	0xbe38b2e1	-0.18036987
12	0xbe4696fd	-0.19393535
13	0x3dfc10bd	0.1230788
14	0x3de68304	0.11255458
15	0xbde82d44	-0.11336759

conceptizer.encoder.2.layers.3.weight f4 [1, 16]
0	0x3e7c017b	0.2460994
1	0x3dd6b998	0.10484618
2	0xbc3e7fb0	-0.011627123
3	0x3e6fa2d8	0.23401964
4	0x3cb8f505	0.022577772
5	0x3df3c5d3	0.11902966
6	0x3dad1c50	0.08452666
7	0x3dd26411	0.102729924
8	0xbe10bbfe	-0.14134213
9	0x3e5093ca	0.20368877
10	0xbddecb85	-0.10878662
11	0x3cdc9fef	0.026931731
12	0x3e120b86	0.14262208
13	0xbd92ee60	-0.07174373
14	0xbdc3da7d	-0.09563158
15	0xbe0117b2	-0.12606695

conceptizer.encoder.2.layers.4.weight f4 [1, 16]
0	0x3e348064	0.17627102
1	0xbe4f6d26	-0.2025648
2	0xbd2eb286	-0.042650722
3	0x3bb3e191	0.005489536
4	0xbe537af4	-0.20652372
5	0xbdd63fd7	-0.10461395
6	0x3c090302	0.0083625335
7	0xbe120c80	-0.14262581
8	0xbe004d71	-0.12529542
9	0xbe8c31ab	-0.27381644
10	0xbe8fad12	-0.2806173
11	0xbdd4f0a3	-0.1039746
12	0xbd257899	-0.040398214
13	0x3e132296	0.14368662
14	0xbc6d3588	-0.014478095
15	0xbd43fca2	-0.04784835

conceptizer.decoder.0.0.weight f4 [5, 16, 5, 5]
0	0xbe0a11ad	-0.13483305
1	0x3e354abd	0.17704292
2	0x3e079d94	0.13243705
3	0x3d2fd72d	0.042929817
4	0x3d40b851	0.047050778
5	0x39f85d94	0.00047371967
6	0xbc9a24a8	-0.018816307
7	0x3cd43487	0.025903953
8	0x3cfb339f	0.030664263
9	0xbbec50d6	-0.007211785
10	0xbcdb1ba9	-0.026746588
11	0x3df41e33	0.119198225
12	0x3d2bd02c	0.041946575
13	0x3e48ae53	0.1959775
14	0x3e130bda	0.1435999
15	0xbe1861d9	-0.14881076
16	0x3d1f7d33	0.03893776
17	0xbd5dcf1d	-0.054152597
18	0x3c060fce	0.008182479
19	0xbcbd3797	-0.023097796
20	0x3e016285	0.12635238
21	0x3d525869	0.051353846
22	0x3d179286	0.03700497
23	0xbdc3d663	-0.095623754
24	0x3b30415b	0.0026894424
25	0x3dc86fe2	0.09786965
26	0x3da26dcb	0.079310976
27	0xbd0913f8	-0.03346631
28	0xbdce3239	-0.10068173
29	0x3d2635cc	0.04057865
30	0x3e4f085d	0.20218034
31	0x3d892bc9	0.066978045
32	0xbd154533	-0.036442947
33	0x3d8bc3a1	0.06824423
34	0x3e3a123d	0.1817102
35	0x3e225cb4	0.15855676
36	0x3dc139ae	0.0943483
37	0x3e11352d	0.14180441
38	0x3e0bf2bb	0.13666813
39	0xbd810215	-0.06299225
40	0x3ce37957	0.02776782
41	0xbafa81d6	-0.001911218
42	0x3e08a581	0.13344385
43	0x3bb3a884	0.005482735
44	0xbd427858	-0.04747805
45	0x3db7f6cb	0.08982619
46	0x3dab570f	0.083662145
47	0xbc6e6671	-0.014550791
48	0xbdced51e	-0.10099243
49	0xbdb21fc6	-0.086974666
50	0x3ded2b5b	0.11580535
51	0xbcc479e4	-0.023983903
52	0xbd65c7b6	-0.056098662
53	0x3db94228	0.090458214
54	0x3d75a685	0.05997326
55	0xbab1977c	-0.0013549174
56	0x3d97a62c	0.07404742
57	0x3dbfa55b	0.09357711
58	0xbd5213c9	-0.0512884
59	0xbc941af7	-0.018079264
60	0x3cebe163	0.028793996
61	0xbd42ad46	-0.047528528
62	0x3c090ed2	0.00836535
63	0xbdc80bff	-0.09767913
64	0xbbe14a77	-0.006875332
65	0x3df57895	0.1198589
66	0xbd445484	-0.047932163
67	0xbad2041f	-0.0016022957
68	0xbcc254ae	-0.023722019
69	0x3ca8ebcf	0.020620255
70	0x3e6c7137	0.23090063
71	0x3d1ee1c9	0.038789544
72	0xbdd186c9	-0.10230786
73	0x3dbe8ca8	0.09304172
74	0xbe15d0c7	-0.14630423
75	0x3e04bdbd	0.12963004
76	0xbbe3c9ae	-0.0069515323
77	0xbc246609	-0.010034093
78	0x3db6e0e3	0.089296125
79	0x3e12ec14	0.14347869
80	0xbdf2e765	-0.11860541
81	0xbd97ef7f	-0.07418727
82	0x3d68cdaf	0.05683678
83	0xbc4aa6a4	-0.012368832
84	0xbdaa4371	-0.08313645
85	0xbc3ada76	-0.011404624
86	0x3ca66bad	0.020315016
87	0xbc22d460	-0.009938329
88	0xbcde3251	-0.027123602
89	0x3d73f6d8	0.05956158
90	0x3dbee9f5	0.093219675
91	0x3d75fabb	0.06005357
92	0x3d465a94	0.048426226
93	0xbc0e5350	-0.008686855
94	0xbe287767	-0.16451798
95	0x3d8b8982	0.06813337
96	0xbcbee5ac	-0.023302875
97	0xbc749238	-0.014927439
98	0x3da41950	0.080126405
99	0xbd8df32f	-0.06931149
100	0x3d2e6977	0.042581048
101	0xbd07697a	-0.033059575
102	0x3e14244a	0.14466968
103	0x3d5ca9f0	0.053873003
104	0x3e48ac18	0.19596899
105	0xbe17db7e	-0.14829823
106	0x3d1911e7	0.03737059
107	0x3d8fffa9	0.07031185
108	0xbcbc0e48	-0.022956029
109	0xbcf3a21e	-0.02974039
110	0xbcad0157	-0.021118803
111	0x3df0635f	0.117377035
112	0xbd20d5a1	-0.039266232
113	0x3b3fd257	0.002926966
114	0xbc7a42b2	-0.01527469
115	0x3d83c4b2	0.06434001
116	0x3dd575df	0.10422873
117	0x3e08c7f3	0.13357525
118	0x3bdd84b1	0.006760203
119	0xbe101367	-0.14069901
120	0x3a822fe1	0.0009932482
121	0xbdffdc32	-0.12493171
122	0xbd013d93	-0.031552862
123	0x3ddf40ca	0.109010294
124	0xbe6a46af	-0.22878526
125	0x3e444158	0.19165552
126	0xbe1780a2	-0.14795163
127	0xbd30ec1a	-0.043193914
128	0x3e484111	0.19556071
129	0x3e1dcb0c	0.15409487
130	0xbdb94607	-0.0904656
131	0xbe53e1df	-0.20691632
132	0x3b0bc8c2	0.0021329378
133	0x3e36c943	0.17850213
134	0x3d9f7aea	0.07787116
135	0x3d044e77	0.032301392
136	0xbd53ed29	-0.051739845
137	0x3ddaa425	0.10675839
138	0x3cc056ca	0.023478884
139	0x3ddb07d2	0.10694851
140	0x3e043376	0.12910256
141	0xbdcc6f26	-0.099821374
142	0xbd97212e	-0.073793754
143	0xbe1f4d23	-0.15556769
144	0x3d90c3c9	0.07068593
145	0x3d9cd853	0.07658448
146	0xbbc5c4b3	-0.0060354113
147	0xbd2c4a66	-0.04206314
148	0xbe2de4f6	-0.16981873
149	0x3e4ddaf6	0.20103058
150	0xbd8da8d3	-0.06916966
151	0x3de49ddf	0.11162924
152	0x3d72b969	0.059258852
153	0x3c9c891d	0.01910835
154	0x3e3fde39	0.18737115
155	0x3e0c28e7	0.13687478
156	0x3e664bc6	0.22489843
157	0xbbd5b4e4	-0.006521808
158	0xbd413599	-0.047170255
159	0xbd1df2e5	-0.03856172
160	0xbe0b1227	-0.13581143
161	0x3df53a35	0.11973993
162	0xbddd46aa	-0.10804494
163	0x3df58bf5	0.11989585
164	0x3d6b9d8c	0.057523295
165	0xbb95604d	-0.004558599
166	0x3bbc0a42	0.0057385275
167	0x3db70bf3	0.08937826
168	0x3d0f691f	0.03501236
169	0xbd6f8cbe	-0.05848383
170	0x3e022439	0.1270913
171	0xbc895e06	-0.016768467
172	0xbd9fc9be	-0.07802151
173	0xbd81e7c9	-0.06343038
174	0xbdc809b6	-0.09767477
175	0x3e0cb9ac	0.13742703
176	0x3d5c4d1f	0.053784486
177	0x3de9dbff	0.11418914
178	0x3e2727c6	0.16323766
179	0x3e095d72	0.13414553
180	0x3e04e505	0.12977989
181	0x3c8fdbe5	0.017560909
182	0x3d33a486	0.043858074
183	0x3deba93d	0.11506889
184	0x3e0d5aab	0.13804118
185	0x3d99f812	0.07518019
186	0x3dab2491	0.08356584
187	0x3dff127a	0.12454696
188	0xbdbe0647	-0.09278541
189	0xbceb18cd	-0.02869835
190	0x3e0b1606	0.1358262
191	0xbaa824bb	-0.0012828329
192	0xbd21f066	-0.039535902
193	0xbe1d3523	-0.15352301
194	0xbe73b3fc	-0.23799127
195	0x3d914b0c	0.07094392
196	0x3e38ffd9	0.18066348
197	0x3cf6d8ac	0.030132614
198	0xbe05f526	-0.13081798
199	0xbeacdaf8	-0.3376081
200	0x3dfc7f25	0.123289384
201	0xbe3a713b	-0.18207256
202	0x3c2c1e76	0.010505309
203	0x3e3eb372	0.1862314
204	0x3e45b45a	0.1930708
205	0x3d5c6205	0.053804416
206	0xbdfe3408	-0.12412268
207	0xbd296ee8	-0.041365534
208	0xbd965184	-0.073397666
209	0x3dec4a83	0.115376495
210	0xbc1f6be9	-0.009730318
211	0xbd3e96c6	-0.046530508
212	0xbd49bfe0	-0.049255252
213	0xbe15e4b1	-0.1463802
214	0x3e3beefb	0.18352883
215	0x3df8cbc6	0.12148242
216	0x3dc47b99	0.09593887
217	0xbd2df26a	-0.042467512
218	0x3c8267fd	0.015918726
219	0x3d0a2860	0.03372991
220	0xbd9dd795	-0.07707135
221	0x3d08beaa	0.033384956
222	0xbe85a43e	-0.2610187
223	0xbe85d461	-0.26138595
224	0xbd35aed4	-0.044356182
225	0x3d1093cc	0.0352972
226	0x3bd7a2cc	0.006580686
227	0x3e213287	0.15741931
228	0x3e577c19	0.21043433
229	0x3d1ff4f5	0.03905197
230	0x3e30b913	0.172581
231	0x3d860eb3	0.065457724
232	0x3da3ae58	0.07992238
233	0xbd5b4b4f	-0.053538617
234	0x3e3e2a06	0.18570718
235	0x3d8b5887	0.068039946
236	0x3e0a7364	0.1352058
237	0x3d135a53	0.03597481
238	0x3ca9fa9d	0.020749385
239	0x3ddd5049	0.10806329
240	0xbca23589	-0.019800918
241	0xbb1adf97	-0.0023631805
242	0x3c8fc543	0.017550116
243	0x3dcf9a8a	0.10136898
244	0xbb5525b1	-0.0032523687
245	0x3e0f5b0c	0.13999575
246	0x3d965ecb	0.07342299
247	0xbda923e7	-0.08258801
248	0xbdd7ee94	-0.10543552
249	0xbe0ba6a3	-0.13637786
250	0xbd9bcc40	-0.07607317
251	0xbdcd4b4e	-0.10024129
252	0xbb1378cd	-0.0022502423
253	0xbd3240ef	-0.043518957
254	0xbe550687	-0.20803271
255	0x3d04bc7d	0.03240632

conceptizer.decoder.0.0.bias f4 [16]
0	0x3b31e9bf	0.002714738
1	0x3d424e02	0.047437675
2	0x3d7ce498	0.06174144
3	0x3d086796	0.033301912
4	0xbcce9704	-0.025218494
5	0x3d290d74	0.041272596
6	0xbb3aff8f	-0.0028533672
7	0x3c663ae8	0.01405213
8	0xbbf03ad8	-0.0073312335
9	0x3d332e7d	0.043745507
10	0x3e399206	0.1812211
11	0x3d48832c	0.04895322
12	0x3ccd4236	0.025055986
13	0x3de4aba2	0.11165549
14	0x3bab4236	0.005226399
15	0x3cd15d79	0.025557267

conceptizer.decoder.2.0.weight f4 [16, 8, 5, 5]
0	0x3e2b40e1	0.16723968
1	0x3dace118	0.08441371
2	0x3da22c17	0.07918566
3	0xbd928f20	-0.07156205
4	0x3b67eb75	0.0035388146
5	0x3ce52bb2	0.027974937
6	0x3e2e7eaa	0.17040506
7	0xbc61646a	-0.013756851
8	0x3d5742fc	0.052554116
9	0x3e0924f0	0.13392997
10	0xbc0a8eb0	-0.008456871
11	0x3d96a384	0.07355407
12	0xbdb025ba	-0.08600946
13	0xbd3d7194	-0.046250895
14	0xbd81c7e4	-0.06336954
15	0x3c35da78	0.01109945
16	0x3de8c25f	0.11365198
17	0xbd992f14	-0.074796826
18	0xbd06770f	-0.032828387
19	0xbd92b1d7	-0.071628265
20	0xbda27eea	-0.07934363
21	0xbd1858ab	-0.037193935
22	0xbe1a39a3	-0.15061049
23	0xbd1bb399	-0.038013075
24	0x3e0d5dc6	0.13805303
25	0xbd529bf8	-0.051418275
26	0xbd24b51f	-0.040211793
27	0xbcc84f4d	-0.024451876
28	0x3c819c96	0.015821736
29	0x3cee941b	0.029123357
30	0xbcb06068	-0.021530345
31	0xbd650c0c	-0.055919692
32	0xbd693835	-0.05693837
33	0x3b054a7b	0.0020338583
34	0x3d6aa6fb	0.05728815
35	0xbdd39416	-0.103309795
36	0xbbe64cd7	-0.007028203
37	0xbbd3863c	-0.006455211
38	0x3d4e10b7	0.05030891
39	0x3d17bf4e	0.037047677
40	0xbd865d83	-0.06560805
41	0xbcc7c2e7	-0.024384929
42	0x3cf51f49	0.029922144
43	0x3e2f615b	0.17126982
44	0x3dc2f985	0.09520248
45	0xbcadd237	-0.021218402
46	0x3d5e067b	0.0542054
47	0x3d165b2c	0.036708042
48	0xbd6f7419	-0.05846033
49	0xbda7335a	-0.081640914
50	0x3e0d0442	0.13771155
51	0xbdc9f03f	-0.098602764
52	0xbe0fd400	-0.14045715
53	0xbc3c07fa	-0.011476511
54	0x3b59bc4a	0.0033223801
55	0x3c269fec	0.010169964
56	0x3b183f21	0.0023230987
57	0xbda5d21a	-0.08096714
58	0xbd54f652	-0.05199272
59	0x3d96fdd2	0.07372631
60	0xbadfc10f	-0.0017071086
61	0xbdcf66cb	-0.10127028
62	0xbe065f72	-0.13122347
63	0xbd8a6c25	-0.06758908
64	0xbd6ec84f	-0.058296498
65	0x3a232107	0.0006222878
66	0x3c2c2538	0.0105069205
67	0xbd901ca5	-0.070367135
68	0xbdcf6ed5	-0.101285614
69	0xbc3b50be	-0.011432825
70	0x3d28e98b	0.04123835
71	0xbdb834de	-0.089944586
72	0xbd63771f	-0.055533525
73	0x3b67043a	0.0035250322
74	0xbcd6fd0c	-0.026243709
75	0x3e3bdb22	0.18345311
76	0x3e6952bb	0.22785465
77	0x3d1f8d9c	0.03895341
78	0x3c3ae686	0.0114075
79	0x3b8be488	0.0042691864
80	0x3d91cd20	0.071192026
81	0xbb520364	-0.0032045478
82	0x3cd9ce58	0.02658765
83	0x3da2eb34	0.07955018
84	0x3c06056c	0.008180004
85	0xbe7b9bc5	-0.2457114
86	0xbdc9079c	-0.098159045
87	0xbd4550b0	-0.048172653
88	0xbc6d0348	-0.014466114
89	0x3bf8aa00	0.007588625
90	0xbe7ec6b6	-0.2488049
91	0xbe245c01	-0.16050722
92	0xbddb71d0	-0.107150674
93	0xbd109fd4	-0.035308674
94	0x3cfbcdf4	0.030737855
95	0xbe1c7d46	-0.15282163
96	0xbe39de26	-0.18151149
97	0xbe34490b	-0.17605989
98	0xbc024140	-0.007950127
99	0x3d7c2dc3	0.06156708
100	0x3d2a98cd	0.04164963
101	0x3d543f0b	0.051817935
102	0x3d5ef0c3	0.054428827
103	0x3c50e55b	0.012749995
104	0xbd9c6769	-0.076369114
105	0x3e61f7d4	0.22067195
106	0x3daae1c5	0.08343843
107	0x3ddecd0e	0.10878955
108	0x3d8c1ae9	0.0684107
109	0xbc869139	-0.01642667
110	0xbd751339	-0.059832785
111	0x3d12bcca	0.035824575
112	0x3d8d4b7d	0.06899164
113	0x3d08cc3d	0.0333979
114	0x3a4b4067	0.0007753432
115	0xbe8d7e6d	-0.27635518
116	0xbcf1d068	-0.029518321
117	0xbd03a117	-0.03213605
118	0x3c42c93e	0.0118888
119	0xbd878c89	-0.06618602
120	0xbe5f2ff2	-0.21795633
121	0xbe2c530d	-0.16828556
122	0xbe0c0a8e	-0.13675901
123	0xbca790a2	-0.020454708
124	0xbd83e1e7	-0.06439572
125	0x3de8f411	0.11374677
126	0x3dc9d570	0.09855163
127	0x3d0d8535	0.034550864
128	0x3caba99f	0.020954905
129	0x3d404a82	0.046946056
130	0x3d8c380c	0.068466276
131	0x3dcd3fb2	0.100219145
132	0xbcfaed29	-0.030630665
133	0x3d77258a	0.060338534
134	0x3d86f4ed	0.06589685
135	0xbe4a0b92	-0.19730976
136	0xbe02ba7b	-0.12766449
137	0x3bfeb4e4	0.0077730287
138	0xbd1daeeb	-0.038496893
139	0xbd101f5f	-0.035186168
140	0xbe93b4e2	-0.2884894
141	0xbe0b9f0a	-0.13634887
142	0xbdb13dfc	-0.08654401
143	0xbe03aa2e	-0.12857887
144	0xbd41a3aa	-0.047275223
145	0xbdf063c9	-0.117377825
146	0xbe3313b3	-0.17487983
147	0xbd8e2621	-0.06940866
148	0xbd9351aa	-0.071933106
149	0x3d474d71	0.04865784
150	0x3e7e7cf5	0.24852355
151	0x3d348226	0.04406943
152	0xbc327a46	-0.01089341
153	0xbc97b676	-0.018519621
154	0x3d8259d4	0.063647896
155	0x3dd50c66	0.104027554
156	0xbe21ba46	-0.15793714
157	0xbdb29956	-0.08720653
158	0x3de11ffc	0.10992429
159	0xbdb0a41d	-0.08625052
160	0xbe0eaea1	-0.13933803
161	0xbddc712a	-0.10763772
162	0xbddde87c	-0.108353585
163	0xbd9ebd2d	-0.07750926
164	0xbe137f45	-0.14404018
165	0xbe64993f	-0.22324084
166	0xbdf15bfc	-0.11785123
167	0xbe83f799	-0.2577484
168	0xbe5d05d7	-0.21584259
169	0xbe23ed47	-0.16008483
170	0xbe5abd02	-0.21361163
171	0xbd2799cb	-0.040918153
172	0xbdb5d37a	-0.088782266
173	0xbbbf9f07	-0.005847815
174	0x3d7aa3f1	0.061191503
175	0x3ead66c8	0.33867478
176	0x3dc12729	0.09431297
177	0x3dd6ed31	0.104944594
178	0xbd668f31	-0.0562889
179	0xbb13c9aa	-0.002255062
180	0x3d71b243	0.059007894
181	0x3c908a3e	0.017644044
182	0xbd31b160	-0.04338205
183	0x3db96661	0.0905273
184	0xbd926108	-0.071474135
185	0xbd686f76	-0.056746922
186	0x3e095247	0.13410293
187	0x3dd2bbf8	0.102897584
188	0xb9ba1330	-0.0003549098
189	0xbc05f808	-0.008176811
190	0x3dfb7680	0.122784615
191	0x3dbe74bc	0.09299609
192	0x3dd79ae4	0.1052759
193	0x3d159fe9	0.036529455
194	0xbc213177	-0.0098384535
195	0xbd9cd599	-0.07657928
196	0x3d3da965	0.046304125
197	0x3cfe907d	0.031074757
198	0x3de531a4	0.11191109
199	0x3d2d4a22	0.042307027
200	0x3d0bd50d	0.034138728
201	0xbdaaf7ab	-0.0834802
202	0xbd08a30f	-0.03335863
203	0x3dec3278	0.11533064
204	0x3e15f49b	0.14644091
205	0x3c1d0c86	0.009585505
206	0x3d02a38d	0.031894255
207	0x3d92ced8	0.071683586
208	0x3e327c4e	0.17430231
209	0x3e037eb6	0.12841305
210	0xbcc955b5	-0.024577001
211	0x3d7a3899	0.061089132
212	0x3d0fd9ee	0.035119943
213	0x3da8ac8c	0.08236036
214	0xbdd3b4af	-0.10337197
215	0xbd80fcf3	-0.06298246
216	0x3e262d50	0.16228223
217	0x3df6ffe2	0.120605245
218	0xbc352ca8	-0.01105801
219	0xbd048e5e	-0.032362334
220	0x3d81d505	0.063394584
221	0x3e2d453f	0.16920947
222	0x3ceddb36	0.029035192
223	0xbd6c1803	-0.057640087
224	0x3d437ce3	0.047726523
225	0xbba55937	-0.0050460356
226	0xbd20e8e1	-0.03928459
227	0xbcb4931f	-0.022042809
228	0xbc0c3cc7	-0.008559412
229	0x3d2e7a5b	0.042597156
230	0xbd21f86c	-0.039543554
231	0xbd0c4800	-0.034248352
232	0xbd229a7c	-0.03969811
233	0x3d9f2a9e	0.077718005
234	0x3d860566	0.065439984
235	0x3d5c1d4a	0.05373887
236	0x3d5e7b6e	0.05431693
237	0x3cc5e388	0.024156347
238	0x3de80673	0.11329355
239	0x3dde8076	0.10864346
240	0x3d93f20c	0.07223901
241	0x3c57f4a7	0.013180888
242	0xbcec93be	-0.028879043
243	0x3d07a2a7	0.0331141
244	0x3cb1e599	0.021715926
245	0xbcc80928	-0.024418429
246	0xbd92a9db	-0.071613036
247	0xbd888e83	-0.06667807
248	0x3dc6352a	0.09678109
249	0xbd825e91	-0.06365693
250	0x3d130112	0.035889693
251	0x3c69aa16	0.014261743
252	0xbe080217	-0.13282047
253	0xbc1d1d69	-0.009589531
254	0xbd8b4913	-0.06801047
255	0x3dd2c2fb	0.10291096

conceptizer.decoder.2.0.bias f4 [8]
0	0x3d905ab7	0.070485525
1	0xba8d25a8	-0.0010768669
2	0x3d7e3543	0.062062513
3	0x3c1f8a70	0.009737596
4	0x3d946e73	0.07247629
5	0x3c29fdaa	0.01037542
6	0x3d95e8e7	0.07319813
7	0x3dd9404f	0.10607969

conceptizer.decoder.4.0.weight f4 [8, 1, 2, 2]
0	0xbf4ec43b	-0.80768174
1	0xbe041db2	-0.12901953
2	0xbeb24f35	-0.34826055
3	0x3edc5cf6	0.43039674
4	0x3e9bbb0a	0.30416137
5	0x3f0ed13d	0.5578802
6	0x3f23e670	0.64023495
7	0x3f36f467	0.7146668
8	0x3f25b0ae	0.64722717
9	0x3f23c462	0.6397153
10	0x3ebd79e7	0.37007067
11	0x3d329753	0.043601345
12	0xbf2bc89b	-0.67102975
13	0xbf7365c6	-0.9507717
14	0xbf41cf1d	-0.75706655
15	0xbf6efb85	-0.9335254
16	0xbf2c4853	-0.6729786
17	0xbf69c073	-0.9130928
18	0x3da186e1	0.07887054
19	0xbe2bb000	-0.16766357
20	0xbf18fb00	-0.59757996
21	0xbe80972e	-0.2511534
22	0xbf8765ad	-1.0577904
23	0xbf2f043b	-0.6836583
24	0xbeb71525	-0.3575832
25	0xbf3c43ef	-0.7354116
26	0xbef95be9	-0.48702934
27	0xbf09191a	-0.53553927
28	0x3f6a14e7	0.91438144
29	0x3f11c7e3	0.5694563
30	0x3f338247	0.7012066
31	0x3e77bbf4	0.24192792

conceptizer.unlinear.weight f4 [16, 1]
0	0xbf7e3865	-0.993048
1	0x3f4290e2	0.76002324
2	0xbefba32f	-0.49147937
3	0xbf979a0e	-1.1843889
4	0xbf83e620	-1.0304604
5	0xbf1fb5aa	-0.6238657
6	0x3f866842	1.0500567
7	0xbf60f38f	-0.8787164
8	0xbf59a632	-0.8501922
9	0xbf901aef	-1.125822
10	0x3f8472e2	1.034756
11	0x3f435421	0.76300246
12	0xbf9248c6	-1.1428459
13	0xbe541db9	-0.20714463
14	0xbf3fc32e	-0.74907196
15	0x3f3def45	0.7419322

conceptizer.unlinear.bias f4 [16]
0	0x3f629122	0.88502705
1	0xbdf08c2c	-0.11745486
2	0xbf94299f	-1.1575202
3	0x3f435238	0.7629733
4	0x3f180e0b	0.5939643
5	0x3e2c1ecf	0.16808628
6	0xbf14eab8	-0.5817065
7	0x3f0729e1	0.5279828
8	0x3d24a40a	0.040195502
9	0xbf343738	-0.7039676
10	0xbf44132b	-0.7659175
11	0x3f331410	0.6995249
12	0xbe9e21be	-0.30885118
13	0xbf42c362	-0.7607938
14	0xbf2460d4	-0.6421025
15	0x3ebac028	0.3647473

parameterizer.cl_layers.0.weight f4 [10, 1, 5, 5]
0	0x3ddf49d9	0.10902757
1	0x3c737248	0.01485879
2	0x3ddd6d9a	0.108119205
3	0x3e3ad94b	0.18246953
4	0x3deea025	0.11651639
5	0xbcb2f1a7	-0.021843744
6	0x3e4fcfb1	0.20294072
7	0xbd9853cd	-0.07437859
8	0xbdba5331	-0.09097899
9	0xbdac934c	-0.08426532
10	0x3c0ef6fc	0.008725878
11	0x3e03f602	0.12886813
12	0x3df3e9cc	0.119098276
13	0x3e525b29	0.20542587
14	0x3e361262	0.1778045
15	0xbe798c3f	-0.24369906
16	0xbdfefa27	-0.124500565
17	0xbe143fd0	-0.14477468
18	0xbddf429b	-0.10901376
19	0xbe585085	-0.21124466
20	0xbd9baa42	-0.076008335
21	0xbe84b002	-0.25915533
22	0xbe838145	-0.25684562
23	0xbe1e3b62	-0.1545234
24	0xbe652d61	-0.22380592
25	0xbde4bb5a	-0.11168547
26	0xbd14827f	-0.036257263
27	0x3e28e773	0.16494541
28	0x3c098bd0	0.00839515
29	0x3d0fd847	0.035118368
30	0xbe4d705c	-0.20062393
31	0xbdfff88c	-0.124985784
32	0x3bef84f1	0.007309549
33	0x3ce63514	0.028101481
34	0xbc30839f	-0.010773568
35	0xbe0c6a9a	-0.1371254
36	0x3c764e26	0.0150332805
37	0xbe26fecd	-0.16308136
38	0x3b4c17b7	0.0031142065
39	0xbdbbaeeb	-0.09164222
40	0x3e527006	0.20550546
41	0xbd9cba8d	-0.07652769
42	0xbd1b1c88	-0.037869006
43	0xbe532835	-0.20620807
44	0xbe01c68c	-0.12673396
45	0x3ea37958	0.31928515
46	0x3df700ca	0.120606974
47	0xbde26196	-0.11053769
48	0x3db399d2	0.08769573
49	0xbe6afef4	-0.2294882
50	0xbe40fb36	-0.1884583
51	0xbd705e96	-0.058683954
52	0xbc75ace3	-0.014994833
53	0x3db1a483	0.08673956
54	0x3d9caa5e	0.076496825
55	0xbd878d82	-0.06618787
56	0xbe40c23e	-0.18824098
57	0x3e0ad1ef	0.13556646
58	0x3ddfe6a7	0.10932665
59	0x3da2b1b9	0.07944054
60	0xbc67fc9b	-0.014159347
61	0xbdf52ce0	-0.1197145
62	0xbdc4c31b	-0.09607526
63	0x3e8c24f2	0.27371937
64	0x3e74b98c	0.23898906
65	0xbe670889	-0.2256185
66	0xbe85ce41	-0.26133922
67	0x3d94f1af	0.0727266
68	0x3c917e93	0.01776055
69	0x3ebb58a5	0.36591068
70	0xbd7a51a5	-0.06111302
71	0xbea51add	-0.32247058
72	0xbe2b7b95	-0.16746362
73	0xbd7f969f	-0.062399503
74	0x3ea57669	0.32316902
75	0xbd2cab10	-0.042155325
76	0x3ea155da	0.31510812
77	0x3e6de8cc	0.23233336
78	0x3e8937d7	0.26800415
79	0x3e91cdab	0.28477225
80	0x3da6bd15	0.08141533
81	0x3c717ba4	0.014738951
82	0x3e2abf2f	0.16674493
83	0x3e63397b	0.22189896
84	0x3e12590b	0.1429178
85	0xbde83f56	-0.11340205
86	0xbe5246cc	-0.2053482
87	0xbe340f33	-0.17583923
88	0xbe212e9c	-0.15740436
89	0xbe71f7e9	-0.23629726
90	0x3da2c2aa	0.079472855
91	0xbe4c2963	-0.19937663
92	0x3d3cb45c	0.04607044
93	0xbe0e9237	-0.13922964
94	0x3ba9eae5	0.0051854723
95	0xbe4ba151	-0.19885756
96	0xbe3db2e7	-0.18525277
97	0x3c5d165e	0.013494102
98	0xbe79b9e1	-0.24387313
99	0x3d88c0fd	0.066774346
100	0x3df93336	0.12167971
101	0x3e3a9526	0.18220958
102	0xbe49a75d	-0.1969275
103	0xbd3143f6	-0.043277703
104	0xbe33823f	-0.17530154
105	0xbdc65c48	-0.0968557
106	0x3d9bf51a	0.07615109
107	0xbe2e7234	-0.17035753
108	0xbe1ab278	-0.15107143
109	0xbd71de9a	-0.05905018
110	0x3cc1274d	0.02357831
111	0xbc33f710	-0.010984197
112	0xbdd9c3db	-0.106330596
113	0x3d8560de	0.065126166
114	0x3d5d6d1b	0.05405913
115	0x3daea3ac	0.08527312
116	0xbdae9bad	-0.085257865
117	0xbdfdd34f	-0.123938195
118	0xbd2bc693	-0.041937422
119	0xbd8962c3	-0.067082904
120	0xbdc3e585	-0.09565262
121	0xbe7431a7	-0.23847066
122	0xbe4fb9e8	-0.20285761
123	0x3e2961c6	0.16541204
124	0xbc44dfc9	-0.012016245
125	0xbe5c14ea	-0.21492353
126	0xbe053145	-0.13007076
127	0x3d9c36e6	0.076276585
128	0xbe0d700b	-0.13812272
129	0xbdd28b5d	-0.10280488
130	0x3d0d33d8	0.03447327
131	0xbe5ffffa	-0.21874991
132	0xbe7feba1	-0.24992229
133	0x3df4e9e0	0.119586706
134	0x3e669ac4	0.22519976
135	0x3d7198bb	0.058983546
136	0xbe80c0d3	-0.25147113
137	0x3de0d625	0.10978345
138	0x3e1a46db	0.15066092
139	0x3d76c094	0.06024225
140	0x3cff20d1	0.031143578
141	0xbe8611c3	-0.26185426
142	0x3e20ce04	0.15703589
143	0x3e216ff2	0.1576536
144	0x3e2e2175	0.1700495
145	0xbe845344	-0.25844777
146	0x3c2af51c	0.010434415
147	0xbdfbf524	-0.12302616
148	0x3ebfe3b6	0.37478417
149	0x3eabfbe1	0.33590606
150	0x3d4ddd34	0.050259784
151	0xbdc170b7	-0.09445327
152	0x3e040791	0.12893511
153	0x3e84a154	0.25904334
154	0xbe4aa261	-0.19788505
155	0xbda5e633	-0.08100548
156	0xbe058b0a	-0.1304132
157	0x3e420427	0.18946896
158	0x3e445aa2	0.19175199
159	0xbda688b0	-0.0813154
160	0xbd4c8386	-0.049930118
161	0x3cce0252	0.02514759
162	0x3e7fbf8f	0.24975418
163	0xbe5e48a2	-0.21707395
164	0xbe59e1ab	-0.21277492
165	0x3d920cb6	0.07131331
166	0x3e14d542	0.14534476
167	0xbd7b735d	-0.061389316
168	0x3e3d8b86	0.18510255
169	0xbe72046a	-0.23634496
170	0xbe06fa67	-0.13181458
171	0xbdf0800e	-0.117431745
172	0xbdecaf02	-0.115568176
173	0x3e2d8292	0.1694434
174	0xbcf7a7bf	-0.030231355
175	0x3e17ef1c	0.14837307
176	0xbe726329	-0.23670639
177	0xbe2f6421	-0.1712804
178	0xbe28356a	-0.16426626
179	0x3ebf859e	0.3740663
180	0x3de16698	0.11005896
181	0xbe29a765	-0.16567762
182	0xbccf5332	-0.025308225
183	0x3c0f55e6	0.008748507
184	0x3e800ce4	0.25009835
185	0xbcbd4050	-0.023101956
186	0x3ddd6c47	0.10811668
187	0xbe3bff08	-0.18359005
188	0xbde05b6e	-0.10954939
189	0x3db40d03	0.08791544
190	0xbcf3c1b8	-0.029755458
191	0xbe280ff7	-0.1641234
192	0x3d8f2fa5	0.06991509
193	0xbe59f7ca	-0.2128593
194	0x3e2b3f8c	0.1672346
195	0xbe1e3cab	-0.1545283
196	0xbe32bb1e	-0.17454192
197	0x3b9b05ea	0.0047309296
198	0xbe78193e	-0.24228379
199	0xbe9c5dfa	-0.30540448
200	0xbd90e8b1	-0.07075632
201	0xbe636e14	-0.2220996
202	0xbe0535e0	-0.13008833
203	0x3e5cee51	0.21575285
204	0xbd44fb08	-0.048090965
205	0x3e357351	0.17719771
206	0x3dc9694f	0.09834539
207	0x3dcd0917	0.100114994
208	0xbd573343	-0.05253912
209	0x3e1f1f5f	0.15539311
210	0x3d3ce8ab	0.046120327
211	0x3e0bb143	0.13641839
212	0xbcf6f4f4	-0.0301461
213	0x3d3189ba	0.043344237
214	0xbd265e80	-0.040617466
215	0xbe51ad6c	-0.20476311
216	0x3dfda889	0.12385661
217	0x3de22bcc	0.1104351
218	0xbe4b30fb	-0.19842903
219	0xbe808a73	-0.25105628
220	0xbc5aa008	-0.0133438185
221	0xbe4e97a4	-0.20175034
222	0x3daed52a	0.085367516
223	0xbe4f04b5	-0.2021664
224	0x3ea4eb5c	0.32210815
225	0xbd5b8b7b	-0.053599816
226	0xbe87fb72	-0.26559025
227	0xbe5de835	-0.21670611
228	0xbdc91b17	-0.0981962
229	0x3e399957	0.18124901
230	0xbdc7a859	-0.09748907
231	0x3e060104	0.13086325
232	0x3e4aea27	0.19815885
233	0x3d9bbe72	0.07604684
234	0x3dfa6f76	0.12228291
235	0x3de6ed22	0.11275698
236	0x3e16c074	0.14721853
237	0x3e80ce7d	0.25157538
238	0x3d99a991	0.07503045
239	0xbddb27ac	-0.10700926
240	0x3dfb3824	0.12266567
241	0x3dacef2e	0.084440574
242	0xbc5e03dd	-0.013550726
243	0x3d825329	0.06363518
244	0xbe190af7	-0.14945589
245	0x3cbdc7c0	0.023166537
246	0xbcc60975	-0.024174431
247	0xbe02ea84	-0.12784773
248	0xbddc7fea	-0.10766585
249	0x3d9bd4b2	0.07608928

parameterizer.cl_layers.0.bias f4 [10]
0	0x3e3bace3	0.1832767
1	0x3e2dc8ce	0.16971132
2	0xbd964eb2	-0.07339229
3	0x3d2a5fb4	0.041595176
4	0x3d302a6d	0.04300921
5	0x3dfec6e1	0.12440277
6	0xbdcdc221	-0.10046793
7	0xbe22de88	-0.15905201
8	0xbd6be359	-0.057589862
9	0x3c1a1c27	0.009406126

parameterizer.cl_layers.3.weight f4 [20, 10, 5, 5]
0	0x3b003a5d	0.0019566037
1	0xbd5c68b9	-0.05381081
2	0xbd7f1401	-0.062274937
3	0xbdb3c759	-0.08778257
4	0x3c98dbd6	0.018659513
5	0x3d1f0176	0.038819753
6	0x3c38dc25	0.011282955
7	0xbd58e7b5	-0.052955348
8	0x3c82df7a	0.015975703
9	0xbd137fec	-0.036010668
10	0xbcb1fd1b	-0.021727135
11	0x3d19d157	0.037553158
12	0xbce326f4	-0.027728535
13	0xbd84dae5	-0.06487063
14	0xbc33f89b	-0.010984565
15	0x3d6db7e5	0.058036704
16	0x3d034799	0.032050703
17	0xbd46fa02	-0.04857827
18	0xbcceb38f	-0.025232105
19	0x3d5498fd	0.051903713
20	0xbd4e0d25	-0.050305504
21	0xbd222d12	-0.039593764
22	0xbce2dd65	-0.02769346
23	0xbcde457c	-0.027132742
24	0xbe018a8d	-0.12650509
25	0x3d829643	0.063763164
26	0x3d786b34	0.060649112
27	0xbd4007e4	-0.046882525
28	0xbd2f3be7	-0.042781737
29	0x3b7bd0ca	0.0038424009
30	0xbc0c0da2	-0.008548172
31	0xbcd63783	-0.026149517
32	0xbd22ec74	-0.03977628
33	0xbd03834d	-0.03210764
34	0x3d2993d5	0.04140075
35	0xb98d1e2f	-0.00026916104
36	0xbbeb7bad	-0.007186374
37	0x3d0c4d43	0.03425337
38	0x3c507efb	0.012725587
39	0x3d124a75	0.03571554
40	0xbce0a7e1	-0.0274238
41	0x3d226230	0.03964442
42	0x3d079a1b	0.03310595
43	0xbc9cd8e2	-0.019146387
44	0xbd319304	-0.043353096
45	0xbc2168b1	-0.0098516205
46	0x3cc93424	0.024560995
47	0x3d49d6b3	0.04927702
48	0x3d59bc31	0.05315799
49	0xbc96961b	-0.018382123
50	0x3d921164	0.07132223
51	0x3b9495a8	0.004534442
52	0x3d60fe88	0.05493024
53	0xba7badfc	-0.0009600816
54	0x3d4ca5e6	0.0499629
55	0xbceff873	-0.029293275
56	0xbd426c86	-0.047466777
57	0x3d2570e4	0.040390864
58	0xbd0786f8	-0.0330877
59	0xbd759430	-0.059955776
60	0xbcbbf722	-0.02294499
61	0x3b101821	0.0021987038
62	0xbd31f888	-0.04344991
63	0xbd022bbf	-0.03178
64	0xbcf9973b	-0.03046762
65	0xbc3cdd6a	-0.011527399
66	0x3d25b28c	0.04045348
67	0xbcca11d5	-0.024666706
68	0x3cd7a45d	0.026323492
69	0xbda8afd9	-0.08236665
70	0x3ca95191	0.020668777
71	0x3d62641b	0.05527125
72	0x3d8a0fd7	0.067413025
73	0x3e051b8e	0.12998793
74	0x3e00b8ef	0.12570547
75	0x3c97e4af	0.018541662
76	0xbd12d578	-0.03584811
77	0xbd49fc69	-0.049312983
78	0xbd0859a0	-0.033288598
79	0x3bba9eae	0.0056951856
80	0xbc89d6f0	-0.016826123
81	0x3c6b6722	0.0143678505
82	0xbcee0d67	-0.029059125
83	0x3c9b1ec6	0.018935572
84	0xbdbc9d09	-0.092096396
85	0x3d27d952	0.040978737
86	0x3c11e4ef	0.00890468
87	0xbd7dc0f9	-0.06195161
88	0xbdefabd7	-0.11702698
89	0xbc3ca6ab	-0.011514346
90	0x3ce2729f	0.027642546
91	0x3d0aa520	0.03384888
92	0x3c170282	0.0092169065
93	0xbcd51aac	-0.026013695
94	0x3acdfa24	0.0015714807
95	0x3d81366e	0.0630921
96	0xbd1361ea	-0.03598205
97	0xbd4b059d	-0.0495659
98	0x3c9c109a	0.019050885
99	0xbd237067	-0.039902117
100	0x3d11c5bf	0.035588976
101	0xbd025108	-0.03181556
102	0xbd0ef0eb	-0.034897726
103	0x3d350dff	0.0442028
104	0xbd207341	-0.039172415
105	0x3d4be6c7	0.049780633
106	0xbd223ae6	-0.03960695
107	0xbd3348f1	-0.043770734
108	0xbd28356a	-0.041066565
109	0x3d709961	0.058740024
110	0x3cff8c8d	0.03119495
111	0x39e410f4	0.0004350018
112	0x3d98d85a	0.07463141
113	0xbcf79ca4	-0.03022606
114	0x3d759de5	0.059965033
115	0x3bf4c8e2	0.007470236
116	0x3d8552d8	0.06509942
117	0xbc49b330	-0.012310788
118	0x3d28d272	0.04121632
119	0x3a041589	0.00050386094
120	0x3dab7932	0.083727255
121	0xbabe75f1	-0.0014530999
122	0xbbcd4973	-0.0062648593
123	0xbcc1f150	-0.023674637
124	0x3d38fe8c	0.04516463
125	0xbc11cf1d	-0.008899477
126	0x3cf3b68d	0.029750133
127	0xbc80cb94	-0.015722074
128	0x3d307dc0	0.043088675
129	0x3cc5d529	0.024149494
130	0x3b8c5ade	0.004283293
131	0x3d1f2160	0.03885019
132	0x3d54cc1d	0.05195247
133	0x3d3358a6	0.043785714
134	0xbcb1dd1a	-0.021711875
135	0xbad3145e	-0.0016104092
136	0x3cef5a87	0.029217971
137	0x3c94510f	0.018105058
138	0x3d0812d9	0.0332211
139	0x3c4701d4	0.012146432
140	0x3be31511	0.0069300015
141	0xbbedd193	-0.007257649
142	0x3d2fa210	0.042879164
143	0x3d4b80fe	0.049683563
144	0xbc12933b	-0.008946235
145	0x3c9a0c94	0.018804826
146	0xbb033118	-0.0020018276
147	0xbbc3c730	-0.0059746727
148	0xba0503c5	-0.0005074109
149	0x3df4a7bf	0.119460575
150	0x3d393053	0.0452121
151	0x3d514517	0.05109128
152	0xbc2f3090	-0.010692731
153	0xbd1060a9	-0.035248432
154	0xbb64ec40	-0.0034930855
155	0x3cb8046b	0.022463044
156	0xbbe280eb	-0.006912341
157	0x3baae847	0.005215678
158	0xbc3f0a97	-0.01166024
159	0x3c9bba8b	0.019009849
160	0x3cb5eb66	0.022206973
161	0xbca36c5a	-0.019949127
162	0xba730bb0	-0.0009271456
163	0x3d147c8f	0.0362516
164	0x3d010c56	0.031505905
165	0x3cc1998d	0.023632789
166	0x3cf6b75c	0.03011673
167	0xbc68b91e	-0.014204292
168	0x3c05db80	0.008170009
169	0x3dfe944e	0.124306306
170	0x3c744504	0.014909033
171	0x3c2d50ae	0.010578318
172	0x3d6b918e	0.05751186
173	0xbc340f46	-0.01098997
174	0x3b6133a2	0.003436305
175	0xbbeb1aa1	-0.0071748053
176	0x3d97fd36	0.07421343
177	0xbcd48f1e	-0.02594715
178	0xbd4577f0	-0.048210084
179	0xbcb68d00	-0.02228403
180	0xbc660fc9	-0.014041849
181	0x3d74125a	0.059587814
182	0x3d139123	0.036027085
183	0x3cbf8df2	0.023383114
184	0xbc46ca2b	-0.012133162
185	0xbd7e55d5	-0.062093575
186	0xbbb8b4d5	-0.0056367912
187	0xbc9c7caf	-0.019102423
188	0x3d6d2876	0.057899915
189	0xbd020e95	-0.031752188
190	0xbc5f55b1	-0.01363127
191	0xbd6e20d0	-0.05813676
192	0xbccb9cac	-0.02485498
193	0x3c99d44c	0.018777989
194	0x3d92d1ae	0.071688995
195	0xbd33ea88	-0.04392484
196	0xbd7a693a	-0.061135508
197	0xbd28b80b	-0.041191142
198	0x3c91861b	0.017764142
199	0xbe1daf36	-0.15398869
200	0x3cb038f0	0.021511525
201	0x3c581285	0.013188009
202	0xbd0335a1	-0.032033566
203	0x3d7db032	0.06193561
204	0xbd1fd4f7	-0.03902146
205	0xbbf9711d	-0.007612361
206	0x3cae93f0	0.021310776
207	0xbcaa97fd	-0.020824427
208	0x3c04d6ce	0.008107854
209	0x3c6d8b69	0.01449857
210	0x3c039546	0.008031195
211	0xbb9d0d83	-0.0047928705
212	0x3971a4fc	0.00023045012
213	0xbc869b49	-0.016431468
214	0xbb8eea56	-0.004361431
215	0x3db3f2bf	0.087865345
216	0xbd499a3a	-0.049219348
217	0xbc545661	-0.012960047
218	0xbb8f6d43	-0.0043770387
219	0x3d520af3	0.051279973
220	0xbc368cac	-0.011141937
221	0x3d3464d6	0.044041477
222	0xbcb9d5e3	-0.022684997
223	0x3dd71b61	0.10503269
224	0xbd117e9f	-0.035521146
225	0x3d06f050	0.032944024
226	0x3cc839af	0.024441568
227	0xbd91c26d	-0.07117162
228	0xbd2bff8d	-0.04199176
229	0xbcb97481	-0.022638561
230	0x3cb8b2ee	0.022546258
231	0x3d4a9d3e	0.049466364
232	0xbc9de1da	-0.019272733
233	0xbd54e466	-0.05197563
234	0x3d14ec3c	0.036358103
235	0x3d715874	0.058922246
236	0x3d7f0fc2	0.062270887
237	0xbb7bd2b4	-0.003842515
238	0xbbf261e0	-0.0073969215
239	0x3d965728	0.073408425
240	0x3dfd8bf8	0.123802125
241	0x3d6708d5	0.056404907
242	0x3bb55e5c	0.00553493
243	0x3c341fdf	0.010993927
244	0x3cf3093a	0.029667486
245	0xbc3c7dd2	-0.011504607
246	0x3bcedfb6	0.0063132895
247	0xbc9604d8	-0.018312857
248	0xbd6bdd05	-0.057583828
249	0xbd9e2297	-0.07721441
250	0xbd10d096	-0.035355173
251	0xbc30e3b2	-0.010796474
252	0x3c992448	0.018694058
253	0xbd3f1c57	-0.046657886
254	0x3d0a9df2	0.033842035
255	0x3c9f26b7	0.01942764

parameterizer.cl_layers.3.bias f4 [20]
0	0x3d8596c8	0.065229
1	0xbce45574	-0.027872778
2	0xbbcd8bb5	-0.006272758
3	0x3d33a826	0.04386153
4	0xbd10765e	-0.035269134
5	0x3cbe5fea	0.023239095
6	0x3d2a54d2	0.041584797
7	0xbd6a36b2	-0.057181068
8	0x3cfb318f	0.03066328
9	0xbca47fc8	-0.020080462
10	0x3d329cd4	0.043606594
11	0xbb0d0c75	-0.0021522318
12	0xbba498a9	-0.0050230813
13	0x3c3ee3ce	0.011650993
14	0xbdbc3ea8	-0.09191638
15	0x3c3800b5	0.011230637
16	0x3c3f39eb	0.011671524
17	0xbc5a7a29	-0.013334789
18	0xbd1e2ade	-0.0386151
19	0xbd3ca025	-0.046051163
