results/CONF_FASHION_MNIST/checkpoints/Epoch[35]-Step[9720].pt (torch, 374454 bytes, 66 tensors)

conceptizer.encoder.0.0.weight f4 [10, 1, 5, 5]
-0.11340984 0.12670828 0.19081676 0.15661123 0.21058077 -0.058804125 -0.008218144 0.020529043
0.115628086 -0.03158135 0.05557181 0.11118009 -0.10502666 0.12453151 -0.0021648093 0.21430406
0.15456845 0.15900533 0.08410613 -0.04868682 0.37585035 -0.013534296 -0.1557235 -0.123832665
0.08321236 -0.07624305 0.09095759 -0.13414831 -0.12486864 -0.17986028 6.5942026e-05 -0.06468521
-0.15053026 0.013978145 -0.1658874 0.123121716 -0.09767661 -0.0387809 -0.1325351 -0.1582392
-0.17651778 -0.019554054 -0.024524683 0.06870083 -0.059674747 0.0013337769 0.043544363 -0.075341046
-0.1716998 -0.034572616 0.02521687 -0.11779925 0.098543175 -0.010056789 -0.08488463 -0.06264437
-0.12105259 -0.005122011 -0.12566307 -0.09121341 -0.1726491 0.15514597 -0.048158217 -0.108316064
-0.0020448582 -0.08529464 -0.029218582 -0.17854534 -0.063633375 -0.14804794 0.07810804 0.0036167304
0.0680723 -0.010469235 -0.1509045 -0.0976908 -0.0525157 0.053316057 -0.05842482 -0.0755742
-0.1057424 -0.043409944 -0.100186944 -0.04483303 0.09340607 -0.1735963 -0.17898323 0.0540815
-0.14573309 -0.023354786 -0.06845178 -0.12581508 0.0035177602 -0.07572667 -0.056700137 -0.06700392
-0.05288963 -0.19427359 -0.073591635 0.055350196 0.04012134 -0.18406235 0.07031518 0.081087366
0.14068578 -0.0005911167 -0.19193056 0.013896155 0.12149496 -0.18066502 0.016851237 0.017213961
-0.13366513 -0.16249211 -0.04683154 -0.053198062 -0.11710913 0.08343027 -0.15309039 0.0034173732
0.005805324 0.054239836 -0.097687595 -0.17156084 -0.036930297 -0.0025430028 0.08910518 0.03477669
0.014227401 -0.06672624 -0.064358175 -0.14884633 0.033915624 0.0010140942 -0.16728032 0.15228209
0.051653106 0.09121184 -0.08713249 -0.18643536 -0.111430354 0.19455269 0.18038872 -0.0604243
-0.22567308 0.17348935 0.30848595 0.18947394 -0.17984177 -0.12511484 0.19622466 -0.11370679
0.058605976 0.20151855 0.22412005 -0.01791779 0.11996224 -0.014650161 0.12513241 0.15314873
-0.06102782 -0.036837395 -0.046847306 -0.099940166 -0.123650454 -0.12107549 0.1608534 0.06650785
-0.088943265 -0.17384264 -0.12916555 -0.0125265755 -0.1910076 -0.038146697 -0.061359532 -0.10507734
-0.07778585 -0.21025199 -0.22875415 0.06673837 -0.10527573 -0.1786549 -0.038142797 0.01109631
-0.023624951 0.06726486 -0.09027409 0.03278093 0.165318 0.11809953 0.20163237 -0.035111345
0.06806264 -0.03739294 -0.042228848 0.18720527 0.27055806 -0.0553211 0.016932793 0.081291646
0.22854295 0.10990479 0.013544413 0.013000889 -0.076060824 0.21708728 0.10417725 -0.14036715
-0.15439394 0.13354462 0.21679792 -0.07270004 -0.06984303 -0.11620079 -0.16748196 0.13834532
0.036122065 0.08047509 -0.16254209 -0.047269538 -0.15949798 0.057484847 -0.07097396 -0.09924584
0.089815795 0.1301244 0.2970749 0.23811772 0.09772116 0.065906994 -0.08983502 0.038054954
0.1402342 -0.11932794 0.035177127 -0.014298048 0.06769569 0.13612217 -0.1319051 0.06538811
-0.14475715 0.07088696 -0.021830052 -0.1200547 0.057605844 -0.06436317 0.060082402 0.29830155
0.2575218 0.100933805
00000000: 6b43 e8bd d1bf 013e 7865 433e b25e 203e
00000010: 7ca2 573e 98dc 70bd 65a5 06bc 862c a83c
00000020: 6bce ec3d 725b 01bd 449f 633d 63b2 e33d
00000030: 3818 d7bd 600a ff3d 79df 0dbb 8672 5b3e
00000040: 3147 1e3e 4bd2 223e d63f ac3d d56b 47bd
00000050: 756f c03e f4be 5dbc fb75 1fbe fb9b fdbd
00000060: 3e6b aa3d 5125 9cbd f947 ba3d 2d5e 09be
00000070: 21bb ffbd 4b2d 38be 5b4a 8a38 ae79 84bd
00000080: 9b24 1abe 9704 653c 63de 29be 3d27 fc3d
00000090: ad0a c8bd b9d8 1ebd 48b7 07be 7509 22be
000000a0: 14c1 34be d32f a0bc fde7 c8bc 05b3 8c3d
000000b0: 826d 74bd 20d2 ae3a 935b 323d 684c 9abd
000000c0: 13d2 2fbe 049c 0dbd 9c93 ce3c bc40 f1bd
000000d0: 01d1 c93d 3bc5 24bc fed7 adbd b14b 80bd
000000e0: 6cea f7bd 8bd6 a7bb d2ad 00be 19ce babd
000000f0: edca 30be 96de 1e3e 8d41 45bd d0d4 ddbd
00000100: 0703 06bb f5ae aebd cf5b efbc 97d4 36be
00000110: 3752 82bd e199 17be 1cf7 9f3d ab06 6d3b
00000120: 7d69 8b3d 2787 2bbc b686 1abe 1d12 c8bd
00000130: b41a 57bd f061 5a3d dd4e 6fbd a5c6 9abd
00000140: 798f d8bd a0ce 31bd d02e cdbd d7a2 37bd
00000150: ae4b bf3d 3ac3 31be 6147 37be 9084 5d3d
00000160: 0e3b 15be 8952 bfbc 7230 8cbd abd5 00be
00000170: 398a 663b 9616 9bbd 673e 68bd 5a39 89bd
00000180: cca2 58bd a8ef 46be 36b7 96bd e3b6 623d
00000190: 4656 243d d77a 3cbe 6801 903d 2211 a63d
000001a0: ef0f 103e 2cf5 1aba 7289 44be b3ac 633c
000001b0: 59d2 f83d 4000 39be 9b0b 8a3c 4b04 8d3c
000001c0: 83df 08be 5564 26be 6ed2 3fbd 36e6 59bd
000001d0: e9d6 efbd 7ddd aa3d bac3 1cbe 02f6 5f3b
000001e0: 963a be3b 972a 5e3d 6f10 c8bd a5ad 2fbe
000001f0: 3944 17bd 82a8 26bb c77c b63d 0172 0e3d
00000200: 0c1a 693c c4a7 88bd 38ce 83bd 2c6b 18be
00000210: 1ceb 0a3d 5beb 843a 884b 2bbe d6ef 1b3e
00000220: 3592 533d 46cd ba3d 8572 b2bd e9e8 3ebe
00000230: 9935 e4bd d238 473e d2b7 383e 797f 77bd
00000240: d816 67be 31a7 313e dff1 9d3e 7505 423e
00000250: 7128 38be 1b1e 00be 1eef 483e 1bdf e8bd
00000260: d20c 703d e15a 4e3e ba7f 653e 54c8 92bc
00000270: c3ae f53d 3b07 70bc b622 003e 05d3 1c3e
00000280: 4ff8 79bd cfe2 16bd f6e2 3fbd 6ead ccbd
00000290: 733c fdbd 6df6 f7bd c1b6 243e 4535 883d
000002a0: e327 b6bd ce03 32be f943 04be 443c 4dbc
000002b0: 7f97 43be b63f 1cbd 2254 7bbd ca32 d7bd
000002c0: 304e 9fbd 4c4c 57be 873e 6abe 20ae 883d
000002d0: cd9a d7bd 4ff1 36be 9f3b 1cbd 4ccd 353c
000002e0: 1d89 c1bc 29c2 893d 9fe1 b8bd 4c45 063d
000002f0: 1f49 293e 2bde f13d b778 4e3e ead0 0fbd
00000300: 6d64 8b3d 5729 19bd 28f8 2cbd bdb2 3f3e
00000310: 9686 8a3e 6198 62bd a4b6 8a3c 3c7c a63d
00000320: 2a07 6a3e c315 e13d 63e9 5d3c ae01 553c
00000330: c7c5 9bbd 214c 5e3e e25a d53d 68bc 0fbe
00000340: 7219 1ebe ecbf 083e 4600 5e3e c2e3 94bd
00000350: dd09 8fbd aefa edbd 6480 2bbe 65aa 0d3e
00000360: bbf4 133d 20d0 a43d 6f71 26be b49d 41bd
00000370: 7053 23be 3b75 6b3d cc5a 91bd 6741 cbbd
00000380: 58f1 b73d 553f 053e 341a 983e 22d5 733e
00000390: 0822 c83d 3ffa 863d 6cfb b7bd 83df 1b3d
000003a0: 8e99 0f3e 3562 f4bd e415 103d 5c42 6abc
000003b0: 0aa4 8a3d 9c63 0b3e 2112 07be 34ea 853d
000003c0: 383b 14be 2f2d 913d f0d4 b2bc 3ddf f5bd
000003d0: 1bf4 6b3d d6d0 83bd f718 763d fbba 983e
000003e0: e6d9 833e 62b6 ce3d

conceptizer.encoder.0.0.bias f4 [10]
0.15559462 0.11063896 0.22759207 -0.07449921 0.21555121 0.07258306 -0.0470158 0.052352212
0.09925654 0.13482685
00000000: 3254 1f3e ae96 e23d e50d 693e 0b93 98bd
00000010: 75b9 5c3e 6da6 943d a493 40bd 466f 563d
00000020: 0347 cb3d 0d10 0a3e

conceptizer.encoder.1.0.weight f4 [5, 10, 5, 5]
-0.055272393 -0.06654878 0.030151492 0.07496292 0.051662285 -0.008995987 0.03077171 -0.016772183
-0.02357481 0.07025078 -0.05318799 -0.005465268 -0.015489862 0.047773793 0.016014406 -0.0037948682
0.032999873 0.057032265 0.012998929 -0.007648569 -0.025535762 -0.010676682 0.02442709 0.03675352
-0.040056296 0.06559448 0.00533 0.0024568762 -0.009013363 -0.0030564263 0.06576482 0.011258266
-0.05185513 0.034722257 0.066700935 0.02350932 0.034188326 0.03601198 0.018243194 0.01999497
-0.028724948 -0.0060339076 -0.0501261 0.090717606 0.0665665 0.019152196 0.0718622 0.0020740854
0.009777597 -0.010134501 0.029706122 -0.009971955 -0.02221439 -0.024644902 -0.020789176 0.011929127
-0.002648238 0.03762784 -0.019062323 0.099081226 0.04441147 0.034846928 0.018047143 -0.0064305114
0.028162425 0.03531295 0.0020679643 -0.020990599 0.029647026 -0.016276319 0.033188153 -0.01095887
0.04918439 0.06348559 0.026421461 -0.037315283 -0.039265048 -0.04580547 -0.0007668188 0.04442593
0.07532641 0.03862981 -0.028504765 0.0753418 0.072834656 0.080339156 -0.01086876 0.0004252414
0.02768534 0.009269696 -0.066463314 -0.041707132 -0.008500929 0.045861375 0.028908309 0.014024628
0.00032898306 0.055528235 0.08585724 0.07455337 0.038015373 -0.031996924 -0.0074208383 0.02089847
0.015914299 -0.028087273 -0.018876357 -0.00925129 0.060313664 0.063675664 0.030478096 -0.032231804
0.06957033 -0.009716909 -0.010575314 -0.035229187 0.030190377 0.018788163 0.025262967 0.027466157
-0.062110767 0.025749525 0.032639302 0.04526558 0.011808684 -0.00940499 0.042867646 0.022738675
0.0033616857 0.0062122345 -0.009069673 0.02973254 -0.013462996 -0.022585202 0.00759467 0.013146791
-0.0037995377 0.013278301 -0.043652106 -0.0032764506 0.026013568 -0.02316598 0.009473142 -0.035902455
0.013807046 0.030503748 0.0340601 -0.07242902 -0.03927979 -0.005116046 0.004449041 -0.026298037
0.006665647 -0.003390149 0.149429 -0.036925197 -0.014886168 0.033178218 -0.065484636 0.015899787
0.03251489 0.036082692 0.0047585745 -0.005851967 0.02450032 0.05184558 -0.0075188205 -0.0025851664
0.0071376143 -0.01940557 -0.037119854 -0.0032388528 0.049026985 -0.008251002 0.018623507 -0.007975767
-0.015889378 -0.009859817 -0.0035629696 0.023982137 -0.01464689 0.035779383 -0.06049445 0.011108617
-0.054668218 0.004830567 0.020494977 -0.0073240297 0.006675873 -0.006434935 0.055447336 0.041064393
-0.010546915 -0.009763019 -0.0029456378 -0.059071608 -0.06605634 -0.10246818 0.012947918 -0.124785796
-0.077347256 0.026690707 0.029231802 0.024213923 0.013491615 -0.070447184 0.0010467443 0.046052337
-0.0029291774 0.0336713 -0.04537193 -0.0258905 -0.051920034 -0.009194639 -0.02760049 0.025175339
0.08296234 0.035373375 -0.036939558 0.0069818366 0.012419713 0.05004533 -0.046692025 -0.0122323185
-0.019611292 -0.0296293 0.01737169 0.061032075 0.0671792 0.08876939 0.018533561 0.005840918
-0.016689932 -0.054310758 -0.013677727 -0.024830058 -0.00093861675 -0.04648174 0.060919154 -0.0065847016
-0.01006069 0.018752404 0.051081967 0.021216568 0.012779924 -0.042192098 0.0030641838 0.00887156
-0.052267235 -0.0475981 0.0957793 0.06531935 0.07862374 0.041904796 -0.03356055 0.007357731
00000000: 4e65 62bd ba4a 88bd 4300 f73c 2986 993d
00000010: d59b 533d e763 13bc f414 fc3c d165 89bc
00000020: f61f c1bc a4df 8f3d a6db 59bd fe15 b3bb
00000030: 31c9 7dbc 74ae 433d a530 833c 53b3 78bb
00000040: e02a 073d aa9a 693d 76f9 543c d9a0 fabb
00000050: 6030 d1bc 40ed 2ebc 521b c83c dc8a 163d
00000060: 1212 24bd 6656 863d 48a7 ae3b 8b03 213b
00000070: c9ac 13bc 534e 48bb b5af 863d 9774 383c
00000080: 0b66 54bd ed38 0e3d 809a 883d 9e96 c03c
00000090: 0f09 0c3d 4c81 133d c072 953c 7ecc a33c
000000a0: 9550 ebbc 16b8 c5bb 0751 4dbd 27ca b93d
000000b0: 0454 883d 11e5 9c3c 7d2c 933d 61ed 073b
000000c0: 3732 203c 2e0b 26bc 415a f33c 6961 23bc
000000d0: f4fa b5bc 1be4 c9bc 104e aabc 6372 433c
000000e0: 108e 2dbb a61f 1a3d 9728 9cbc 19eb ca3d
000000f0: cde8 353d a7bb 0e3d 9ad7 933c 0ab7 d2bb
00000100: e3b4 e63c 50a4 103d af86 073b 7af4 abbc
00000110: 52de f23c ea55 85bc 4df0 073d d58c 33bc
00000120: 9275 493d bc04 823d d271 d83c e9d7 18bd
00000130: 63d4 20bd 849e 3bbd 5704 49ba f7f7 353d
00000140: bc44 9a3d 4b3a 1e3d d382 e9bc cd4c 9a3d
00000150: 562a 953d db88 a43d e212 32bc eff2 de39
00000160: 5ecc e23c ecdf 173c eb1d 88bd 19d5 2abd
00000170: 7b47 0bbc 23d9 3b3d 1ed1 ec3c 8ec7 653c
00000180: 5c7b ac39 9371 633d ecd5 af3d 70af 983d
00000190: 02b6 1b3d 350f 03bd 812a f3bb 4533 ab3c
000001a0: b45e 823c 4817 e6bc 97a2 9abc b992 17bc
000001b0: 760b 773d 6368 823d 33ad f93c 7f05 04bd
000001c0: e47a 8e3d ac33 1fbc 1544 2dbc 7b4c 10bd
000001d0: cf51 f73c a2e9 993c 48f4 ce3c b500 e13c
000001e0: dc67 7ebd abf0 d23c cab0 053d 6768 393d
000001f0: 3679 413c 6317 1abc fc95 2f3d 7546 ba3c
00000200: ba4f 5c3b 0090 cb3b f798 14bc a891 f33c
00000210: e693 5cbc 9a04 b9bc b6dc f83b a365 573c
00000220: aa01 79bb 3b8d 593c 8dcc 32bd b8b9 56bb
00000230: 681a d53c 95c6 bdbc 3d35 1b3c 740e 13bd
00000240: f336 623c ffe2 f93c 9a82 0b3d ab55 94bd
00000250: d8e3 20bd 81a4 a7bb 43c9 913b fb6e d7bc
00000260: 806b da3b 432d 5ebb ea03 193e e03e 17bd
00000270: 1de5 73bc e2e5 073d cf1c 86bd 4540 823c
00000280: 552e 053d 72cb 133d d1ed 9b3b dbc1 bfbb
00000290: e5b4 c83c 085c 543d 7060 f6bb e56b 29bb
000002a0: a6e2 e93b 6ef8 9ebc fd0a 18bd ef42 54bb
000002b0: 85d0 483d 362f 07bc 5390 983c cbac 02bc
000002c0: 712a 82bc 128b 21bc b680 69bb 3076 c43c
000002d0: 82f9 6fbc 678d 123d 07c9 77bd eb00 363c
000002e0: c8eb 5fbd bc49 9e3b 15e5 a73c 6afe efbb
000002f0: 48c1 da3b 26dc d2bb bf1c 633d 2333 283d
00000300: f8cc 2cbc 12f5 1fbc 9a0b 41bb 12f5 71bd
00000310: 8c48 87bd d6da d1bd 8123 543c b28f ffbd
00000320: 3d68 9ebd 78a6 da3c 8877 ef3c 475c c63c
00000330: ef0b 5d3c 9d46 90bd e932 893a 60a1 3c3d
00000340: 71f7 3fbb ebea 093d ebd7 39bd 5018 d4bc
00000350: 1aaa 54bd 1ca5 16bc 6c1a e2bc 833c ce3c
00000360: 29e8 a93d ace3 103d ef4d 17bd e4c7 e43b
00000370: 0d7c 4b3c 55fc 4c3d 2340 3fbd 106a 48bc
00000380: dca7 a0bc 25b9 f2bc 134f 8e3c c5fc 793d
00000390: 4095 893d bacc b53d b2d3 973c 2c65 bf3b
000003a0: 53b9 88bc f574 5ebd 8c18 60bc 6868 cbbc
000003b0: 810d 76ba a363 3ebd 5d86 793d 7bc4 d7bb
000003c0: 98d5 24bc a49e 993c 533b 513d 5ece ad3c
000003d0: e362 513c 9fd1 2cbd 79d0 483b 055a 113c
000003e0: 2b16 56bd 3af6 42bd f027 c43d 27c6 853d
000003f0: 7c05 a13d 5da4 2b3d ca76 09bd 1f19 f13b

conceptizer.encoder.1.0.bias f4 [5]
-0.014009832 0.08315046 -0.024894226 0.026842842 0.05142128
00000000: 7f89 65bc ca4a aa3d faee cbbc 85e5 db3c
00000010: 1f9f 523d

conceptizer.encoder.2.layers.0.weight f4 [1, 16]
-0.07754645 -0.2205742 -0.09579618 -0.15162078 0.16266118 0.09011693 0.08730166 -0.08659416
-0.20529225 -0.04353406 -0.21131377 -0.28244844 -0.024435185 -0.07307057 -0.21833268 0.14276887
00000000: acd0 9ebd 34de 61be ca30 c4bd 7a42 1bbe
00000010: a790 263e 3a8f b83d 36cb b23d 4758 b1bd
00000020: 2238 52be c550 32bd a362 58be 159d 90be
00000030: 4c2c c8bc 06a6 95bd 9a92 5fbe 0132 123e

conceptizer.encoder.2.layers.1.weight f4 [1, 16]
0.06731296 -0.21255566 -0.14918129 -0.057766505 -0.10542434 0.08157219 -0.3196125 0.089490116
-0.011111928 -0.22277547 -0.10899679 -0.005430589 0.07283521 -0.0495794 0.14436352 0.18083358
00000000: 61db 893d 31a8 59be fbc2 18be 929c 6cbd
00000010: b7e8 d7bd 520f a73d 40a4 a3be 9846 b73d
00000020: ce0e 36bc 411f 64be b639 dfbd 15f3 b1bb
00000030: a02a 953d c513 4bbd 08d4 133e 702c 393e

conceptizer.encoder.2.layers.2.weight f4 [1, 16]
-0.23715894 0.123667896 0.06004264 0.1429747 -0.004437747 -0.22569488 0.10747978 -0.105503
-0.35593578 -0.22615542 0.13628498 -0.09720371 -0.14979625 0.136313 0.0755128 -0.1363996
00000000: cbd9 72be 9845 fd3d 45ef 753d f667 123e
00000010: 856a 91bb 8f1c 67be 5c1e dc3d f511 d8bd
00000020: 373d b6be 4995 67be 4a8e 0b3e bd12 c7bd
00000030: 3064 19be a395 0b3e 74a6 9a3d 56ac 0bbe

conceptizer.encoder.2.layers.3.weight f4 [1, 16]
0.20287672 0.032761317 -0.034374323 0.15571523 0.022598187 0.083988056 0.12511763 0.059661385
-0.012885709 0.3204093 -0.04277447 0.05708318 0.15717158 -0.04223267 -0.16228151 -0.18346891
00000000: eabe 4f3e bb30 063d 17cc 0cbd d073 1f3e
00000010: d51f b93c ee01 ac3d d61e 003e 7f5f 743d
00000020: 951e 53bc b00c a43e 4834 2fbd 0dd0 693d
00000030: 96f1 203e 2afc 2cbd 202d 26be 46df 3bbe

conceptizer.encoder.2.layers.4.weight f4 [1, 16]
0.09841037 -0.21444198 0.04392884 0.11757595 -0.1954869 -0.18294057 0.13842402 -0.06387809
-0.09484996 -0.3019414 -0.19102533 -0.111212075 0.014869526 0.0024044334 0.021014092 -0.01709743
00000000: 608b c93d ae96 5bbe baee 333d a9cb f03d
00000010: b82d 48be c654 3bbe 07bf 0d3e 84d2 82bd
00000020: b240 c2bd 1098 9abe 259c 43be 28c3 e3bd
00000030: 509f 733c b393 1d3b bf25 ac3c e90f 8cbc

conceptizer.decoder.0.0.weight f4 [5, 16, 5, 5]
-0.00078398775 0.10868446 0.015487823 0.06659397 0.19409697 0.030592676 0.078941345 0.021576364
-0.06569257 -0.071040474 0.13589025 0.1405374 -0.07338335 0.09315176 0.09025703 0.04297383
0.07554554 0.06422775 -0.035238862 -0.06913168 0.043913532 -0.2541783 -0.15755999 0.18014282
0.1607831 -0.021389086 0.12207044 0.05423108 0.01287319 0.00964458 0.09604521 0.073222056
-0.11585878 0.077602975 0.1368567 0.14749521 -0.02519287 0.099696696 0.12134889 -0.033199456
0.028116774 -0.26998767 0.31155917 0.15390047 -0.2227213 0.035409283 0.0048326068 0.030696768
-0.10447377 -0.0016971978 0.14906275 0.042108368 -0.008019602 -0.006609609 0.13756512 0.010840377
0.104574494 0.15533596 -0.116918266 0.11699412 0.08892969 0.01970989 0.0546477 -0.07434692
-0.015501235 0.17257196 0.08543172 -0.019508334 -0.04145583 0.24889788 0.12805207 0.21966606
0.06538047 -0.066611074 -0.219097 -0.02945923 0.030708976 -0.030955888 0.1338902 0.050112132
-0.08003454 0.0061280923 -0.013576576 -0.12417245 -0.073737904 0.03602621 -0.18089157 -0.12584618
0.09124768 0.14458518 0.12351749 -0.028454026 -0.14760347 0.150471 -0.1244824 0.10142866
0.050909765 0.13482589 0.08978659 0.16511942 0.06096108 -0.11194261 0.13374902 0.048212126
0.19829535 -0.016662778 -0.06384046 0.10394685 -0.08710818 -0.020073539 -0.02363576 0.0044396133
0.027246019 -0.2162469 -0.045221552 0.070772134 0.094286315 0.11553341 -0.12019453 -0.14706632
-0.021826766 0.024383575 0.0667369 0.010710479 -0.117643885 0.19414693 -0.044293787 -0.022461426
0.014735318 0.00046816433 -0.014154327 -0.14770666 0.092302 0.03507527 -0.01887527 0.035338543
-0.07804733 0.030685186 -0.0041863825 -0.0053202035 0.065062806 -0.004929132 0.045681637 -0.15409176
0.0041171047 0.15263385 0.028232936 0.078908704 -0.19996564 -0.007987085 0.08658584 0.093377694
0.044747047 0.08342638 0.1476759 -0.059028227 0.11137427 0.09337287 -0.1294618 -0.17859603
-0.03252186 0.11184175 0.069416456 0.06246673 0.09015747 0.101509206 -0.0011436138 0.059337206
0.09872187 -0.029773738 0.05052314 -0.03659062 -0.0052927528 -0.08289789 -0.14805187 0.16877802
0.059151247 0.044038936 0.14180605 0.17992444 -0.110575855 -0.033949256 0.03835623 0.105106644
0.15420619 0.10127233 0.06049265 0.034191567 -0.084506184 -0.05929983 0.080747604 0.06686027
-0.15866518 -0.15880406 -0.015782893 0.03695379 0.1168357 -0.029693944 -0.14900146 -0.23746124
-0.00032874013 -0.023328708 -0.12113892 0.030932546 0.10265646 0.061349362 -0.030638784 -0.1045826
-0.116995305 0.1444783 0.07865811 0.03548171 -0.18790695 0.06458161 0.11844381 0.16394202
0.120080955 -0.002449548 -0.03162672 0.13517654 0.051310327 -0.18609224 -0.1712371 -0.048011087
0.116822556 0.110819176 0.11619558 0.020422978 0.042100515 -0.013172015 0.051859397 -0.0120789055
0.025937421 0.04835155 0.16663344 0.067603424 0.1777415 -0.043662194 0.023809798 0.0071421876
0.051674556 -0.019163944 -0.11621856 0.027537715 -0.10919566 0.09090365 0.18136396 0.0421852
0.1285372 -0.24331848 -0.023609271 -0.039136607 0.0031547903 -0.016040804 -0.15907809 -0.11205132
00000000: 8784 4dba f595 de3d a3c0 7d3c 6b62 883d
00000010: 5bc1 463e 7e9d fa3c 00ac a13d eac0 b03c
00000020: d389 86bd ab7d 91bd d026 0b3e 09e9 0f3e
00000030: 034a 96bd 5ac6 be3d aed8 b83d 5405 303d
00000040: 9fb7 9a3d d789 833d a056 10bd e994 8dbd
00000050: adde 333d a823 82be 6857 21be 5c77 383e
00000060: 53a4 243e 2a38 afbc 1100 fa3d 6921 5e3d
00000070: 13ea 523c 4d04 1e3c 5ab3 c43d 72f5 953d
00000080: 5e47 edbd 4fee 9e3d 2a24 0c3e fc08 173e
00000090: 4761 cebc c82d cc3d c485 f83d 27fc 07bd
000000a0: 2655 e63c d33b 8abe af84 9f3e 1698 1d3e
000000b0: 0d11 64be 5309 113d d85a 9e3b ca77 fb3c
000000c0: 58f6 d5bd 8274 deba e8a3 183e d379 2c3d
000000d0: a664 03bc 6b95 d8bb dfdd 0c3e d69b 313c
000000e0: 272b d63d 6410 1f3e d872 efbd 9d9a ef3d
000000f0: c520 b63d a376 a13c 44d6 5f3d 3343 98bd
00000100: e4f8 7dbc b4b6 303e d3f6 ae3d f1cf 9fbc
00000110: 97cd 29bd 16df 7e3e 1520 033e 24f0 603e
00000120: 32e6 853d 636b 88bd f75a 60be 7c54 f1bc
00000130: 6491 fb3c 3497 fdbc 831a 093e 6142 4d3d
00000140: 26e9 a3bd 2ace c83b 4970 5ebc 204e febd
00000150: e603 97bd 3890 133d a43b 39be d2dd 00be
00000160: 10e0 ba3d 230e 143e bdf6 fc3d 6b18 e9bc
00000170: 5d25 17be 1215 1a3e a1f0 febd d4b9 cf3d
00000180: c286 503d cc0f 0a3e 08e2 b73d 1115 293e
00000190: 53b2 793d 2b42 e5bd 81f5 083e 147a 453d
000001a0: f00d 4b3e 6180 88bc c9be 82bd 16e2 d43d
000001b0: c665 b2bd 4371 a4bc c89f c1bc 2d7a 913b
000001c0: 0b33 df3c d46f 5dbe 3c3a 39bd fbf0 903d
000001d0: 2f19 c13d c89c ec3d 8d28 f6bd 8e98 16be
000001e0: 0cce b2bc 10c0 c73c 5bad 883d 017b 2f3c
000001f0: 47ef f0bd 74ce 463e 676d 35bd 0601 b8bc
00000200: 676c 713c f473 f539 8de7 67bc 6a40 17be
00000210: d508 bd3d 16ab 0f3d 4fa0 9abc 26bf 103d
00000220: 47d7 9fbd 805f fb3c ec2d 89bb 1a55 aebb
00000230: a63f 853d 8e84 a1bb ab1c 3b3d 3bca 1dbe
00000240: c7e8 863b 0c4c 1c3e c248 e73c e39a a13d
00000250: cbc3 4cbe 43dc 02bc eb53 b13d ce3c bf3d
00000260: ae48 373d 73db aa3d 5a38 173e 95c7 71bd
00000270: 3118 e43d 463a bf3d a291 04be e1e1 36be
00000280: a435 05bd 4a0d e53d 372a 8e3d 1ddd 7f3d
00000290: 7ba4 b83d 0fe4 cf3d 50e5 95ba 920b 733d
000002a0: b12e ca3d 0ee8 f3bc 5af1 4e3d 0ce0 15bd
000002b0: d46e adbb 5ec6 a9bd e99a 17be 25d4 2c3e
000002c0: 9448 723d 2c62 343d 9b35 113e 1d3e 383e
000002d0: 9875 e2bd 600e 0bbd 6c1b 1d3d 2742 d73d
000002e0: 3ae8 1d3e de67 cf3d 24c7 773d 750c 0c3d
000002f0: 9411 adbd 61e4 72bd 005f a53d 0aee 883d
00000300: 2079 22be 889d 22be 204b 81bc db5c 173d
00000310: 8e47 ef3d b740 f3bc d793 18be 0a29 73be
00000320: c15a acb9 d91b bfbc af17 f8bd 4066 fd3c
00000330: 8d3d d23d 7849 7b3d 30fe fabc 672f d6bd
00000340: 3c9b efbd 1ff2 133e 8117 a13d 4555 113d
00000350: ae6a 40be 5d43 843d ab92 f23d 6be0 273e
00000360: 01ed f53d 9988 20bb 058b 01bd b86b 0a3e
00000370: c72a 523d f78e 3ebe c758 2fbe 46a7 44bd
00000380: aa40 ef3d 2af5 e23d f3f7 ed3d 174e a73c
00000390: 9771 2c3d 6fcf 57bc 856a 543d 9ae6 45bc
000003a0: b77a d43c 460c 463d f5a1 2a3e aa73 8a3d
000003b0: de01 363e 21d7 32bd c40c c33c 0309 ea3b
000003c0: b3a8 533d b4fd 9cbc ff03 eebd c696 e13c
000003d0: f9a1 dfbd b12b ba3d 79b7 393e 63ca 2c3d
000003e0: 419f 033e 7b28 79be 3b68 c1bc b54d 20bd
000003f0: 99c0 4e3b 0168 83bc 5ee5 22be 2a7b e5bd

conceptizer.decoder.0.0.bias f4 [16]
-0.112396955 0.041414265 0.0025151856 0.10802425 -0.06361645 0.0064878343 -0.029421853 0.060472153
-0.010581273 -0.072623745 0.120101385 0.117047355 0.021512179 -0.015608293 -0.046839595 0.08628798
00000000: 6030 e6bd 01a2 293d d0d5 243b d13b dd3d
00000010: 5749 82bd e697 d43b 1906 f1bc a6b1 773d
00000020: 135d 2dbc c2bb 94bd b7f7 f53d 86b6 ef3d
00000030: 4f3a b03c edb9 7fbc e0da 3fbd c1b7 b03d

conceptizer.decoder.2.0.weight f4 [16, 8, 5, 5]
0.049476292 0.2078385 0.17412703 0.07126016 0.14776815 0.09453191 0.29646713 0.16841961
0.045520816 0.24092823 -0.073969066 0.1423499 -0.03616063 0.05184571 0.09126055 -0.01891773
0.041141238 -0.06713381 0.019392207 0.012281425 -0.13572341 -0.13871245 -0.14928389 -0.015032637
0.02366446 -0.106030904 -0.13347907 -0.058853254 0.0032400594 0.03188329 -0.032070577 -0.114917964
-0.115534164 -0.010056475 -0.040751725 -0.09126475 -0.06619169 -0.057557426 0.008946401 -0.09197602
0.0069636344 0.041362524 0.11025435 0.12808605 0.0060169697 0.12107949 0.09091258 0.07898502
0.052109234 0.028719276 -0.09106993 0.2565393 0.033643905 0.07352291 0.055148624 0.033288307
-0.22182663 0.11620987 -0.010619303 -0.010966058 -0.12942179 -0.20491064 0.054275773 0.05282261
0.0025506553 0.007895178 -0.0061713774 0.031276204 -0.05033845 -0.03053706 0.06629037 -0.07842903
-0.01319964 0.005603079 0.01715911 0.2069374 0.20109378 0.16073829 0.04514638 0.036037333
0.24242142 0.107393794 0.08044377 0.04977602 0.0785773 -0.081616305 -0.13787323 -0.04040848
-0.030947056 0.118821904 -0.21266377 -0.1959392 -0.15486354 -0.045665525 0.07333257 -0.051456824
-0.13663252 -0.1496129 -0.07280863 -0.051044207 0.018286288 -0.024323428 -0.08756972 -0.07917602
-0.09197835 0.2030202 0.16653596 0.19563049 0.09765315 0.059259318 0.13595569 0.18738131
0.2088575 0.17892194 0.16073422 -0.08922066 -0.057408087 0.011732819 0.08004083 -0.024731021
-0.20706938 -0.09512628 -0.056083623 -0.031189768 0.0056651183 0.24189594 0.2555502 0.22729817
0.1009356 0.19437204 0.15550408 0.20179206 0.16913234 0.087019004 0.16848494 -0.10172876
-0.10578349 -0.013344561 0.012353796 0.054478094 -0.14683047 -0.19422449 -0.12557034 -0.1446311
-0.061383817 -0.13699678 -0.19080752 -0.03429045 -0.034246087 0.019393453 0.36272624 0.19426356
0.052156456 0.021516073 0.10807564 0.112811714 0.1509802 0.06690048 0.052142777 0.0057108495
0.031721614 -0.032138824 -0.09518584 -0.10425565 -0.1318455 -0.14710517 -0.056038555 -0.15897787
-0.15367089 -0.06311259 -0.11491343 -0.09058535 -0.13026261 -0.06674354 0.110935174 0.3038651
0.19339305 0.03701326 0.056413718 0.026386313 0.028436173 0.098445415 0.012872849 0.039330434
0.043283656 -0.10426289 -0.1086023 0.030299282 -0.018944543 0.034404784 -0.10269351 -0.18709359
-0.049453896 0.06545757 0.07164084 -0.24446072 -0.061622426 -0.02718199 0.0127731385 0.08388475
0.07250611 0.07172083 0.1913161 0.18309236 0.18030111 0.1331419 0.10582696 0.1573403
0.093275696 0.16566189 0.07520335 -0.059653636 -0.08967921 0.006722413 0.0010866028 -0.07292554
-0.003946578 0.0055073467 -0.010759918 -0.027504427 -0.028769528 0.076126955 -0.059008315 0.053341284
0.11968424 -0.090330385 -0.15351176 -0.124880075 -0.03420644 0.026208451 -0.08978194 -0.0124428095
-0.010986881 0.041749366 0.03477728 0.19280997 0.23671257 0.17034994 0.11999777 0.12463127
0.13200918 0.11266016 0.008608052 -0.025689518 0.13159302 0.016541926 -0.077970184 -0.05507274
0.081927046 0.08886612 -0.112806045 0.10138247 0.015929613 0.06938202 -0.08647219 0.03190115
00000000: a7a7 4a3d 9ed3 543e 5b4e 323e d9f0 913d
00000010: 8950 173e f299 c13d 8aca 973e 3176 2c3e
00000020: 0974 3a3d e4b5 763e 187d 97bd 2cc4 113e
00000030: 2b1d 14bd 2b5c 543d d0e6 ba3d 5bf9 9abc
00000040: b783 283d 737d 89bd 68dc 9e3c 0838 493c
00000050: 14fb 0abe a30a 0ebe e0dd 18be 734b 76bc
00000060: f8db c13c bb26 d9bd bdae 08be 1c10 71bd
00000070: 2d57 543b 0d98 023d 705c 03bd 1c5a ebbd
00000080: 2d9d ecbd eac3 24bc 48eb 26bd 03e9 babd
00000090: 828f 87bd 56c1 6bbd ed93 123c ec5d bcbd
000000a0: 332f e43b c06b 293d 08cd e13d fd28 033e
000000b0: 002a c53b 86f8 f73d 6030 ba3d e6c2 a13d
000000c0: 7e70 553d b044 eb3c df82 babd 1e59 833e
000000d0: 31ce 093d 2e93 963d 86e3 613d 5259 083d
000000e0: 8526 63be 71ff ed3d 96fc 2dbc fbaa 33bc
000000f0: 2587 04be 18d4 51be 4650 5e3d 855c 583d
00000100: e528 273b c75a 013c 4439 cabb 7a1b 003d
00000110: b12f 4ebd db28 fabc 3fc3 873d 669f a0bd
00000120: 4e43 58bc 099a b73b 4391 8c3c 66e7 533e
00000130: 87eb 4d3e 9498 243e 69eb 383d e29b 133d
00000140: 523d 783e 47f1 db3d b4bf a43d f1e1 4b3d
00000150: 23ed a03d 7326 a7bd a42e 0dbe 5d83 25bd
00000160: ae84 fdbc e658 f33d 88c4 59be 49a4 48be
00000170: 8c94 1ebe c60b 3bbd 632f 963d 64c4 52bd
00000180: 65e9 0bbe 2034 19be b11c 95bd bb13 51bd
00000190: 20cd 953c ed41 c7bc c157 b3bd 0a27 a2bd
000001a0: 255f bcbd 87e4 4f3e 6788 2a3e 5c53 483e
000001b0: 60fe c73d e6b9 723d f837 0b3e e3e0 3f3e
000001c0: bede 553e 5037 373e 8397 243e 52b9 b6bd
000001d0: be24 6bbd 023b 403c 72ec a33d b698 cabc
000001e0: ff09 54be 91d1 c2bd f1b7 65bd af81 ffbc
000001f0: 75a2 b93b 92b3 773e 7ad7 823e dac0 683e
00000200: 53b7 ce3d 7709 473e 763c 1f3e 94a2 4e3e
00000210: 0731 2d3e 0537 b23d 5187 2c3e 2b57 d0bd
00000220: 04a5 d8bd 25a3 5abc 9367 4a3c 6c24 5f3d
00000230: ba5a 16be c9e2 46be 8395 00be 2d1a 14be
00000240: 996d 7bbd e248 0cbe 0c63 43be 2574 0cbd
00000250: a045 0cbd 05df 9e3c 41b7 b93e 07ed 463e
00000260: 02a2 553d 7a42 b03c c356 dd3d d409 e73d
00000270: 8e9a 1a3e 1e03 893d aa93 553d 1422 bb3b
00000280: 86ee 013d 00a4 03bd cbf0 c2bd fc83 d5bd
00000290: 8202 07be bda2 16be af88 65bd 18cb 22be
000002a0: e75b 1dbe 2c41 81bd bb57 ebbd d084 b9bd
000002b0: 9063 05be d6b0 88bd fb31 e33d 3594 9b3e
000002c0: d408 463e 379b 173d 1212 673d 1c28 d83c
000002d0: faf2 e83c c09d c93d a4e8 523c f318 213d
000002e0: 344a 313d c887 d5bd e26a debd 3336 f83c
000002f0: 9631 9bbc 08ec 0c3d fa50 d2bd 7695 3fbe
00000300: 2b90 4abd 9e0e 863d 6fb8 923d e953 7abe
00000310: cc67 7cbd c4ac debc 6d46 513c c5cb ab3d
00000320: 157e 943d 5fe2 923d 5ee8 433e 907c 3b3e
00000330: dba0 383e 5a56 083e cebb d83d d11d 213e
00000340: 5407 bf3d 45a3 293e 3704 9a3d 5f57 74bd
00000350: bca9 b7bd b047 dc3b 576c 8e3a fc59 95bd
00000360: 4c52 81bb f976 b43b 5e4a 30bc f750 e1bc
00000370: 13ae ebbc 73e8 9b3d b4b2 71bd 647c 5a3d
00000380: 031d f53d 23ff b8bd 3032 1dbe 20c1 ffbd
00000390: 0d1c 0cbd 1bb3 d63c 98df b7bd eddc 4bbc
000003a0: 5202 34bc 6201 2b3d 9f72 0e3d fa6f 453e
000003b0: c864 723e 3770 2e3e 64c1 f53d ae3e ff3d
000003c0: 6a2d 073e 5fba e63d c908 0d3c d372 d2bc
000003d0: 52c0 063e ef82 873c d5ae 9fbd f493 61bd
000003e0: 5ec9 a73d 71ff b53d db06 e7bd 9da1 cf3d
000003f0: d27e 823c 2918 8e3d 5518 b1bd c8aa 023d

conceptizer.decoder.2.0.bias f4 [8]
0.01319352 0.041984793 0.041455917 0.04391879 0.06659197 0.007263489 0.18673803 -0.07016718
00000000: a229 583c 3ff8 2b3d aecd 293d 30e4 333d
00000010: 5f61 883d 9002 ee3b 4138 3f3e cfb3 8fbd

conceptizer.decoder.4.0.weight f4 [8, 1, 2, 2]
-1.3702697 -0.72814876 -0.95386094 -0.25065786 0.7127981 0.72805625 0.7163682 0.6946702
0.6567549 0.8838239 0.10808298 -0.03861019 -0.8032829 -0.93908316 -0.8272235 -0.88147646
-1.0266547 -1.2022443 0.025814919 -0.19970304 -0.60468334 -0.24341917 -1.2603664 -0.8482731
-0.8673062 -1.0041924 -0.90850174 -0.8759447 -0.036380343 -1.0538691 -0.59051293 -1.611355
00000000: ff64 afbf f567 3abf 3b30 74bf 3a56 80be
00000010: f079 363f e561 3a3f e863 373f e8d5 313f
00000020: 1721 283f 4842 623f 9c5a dd3d b825 1ebd
00000030: f3a3 4dbf c167 70bf ebc4 53bf 71a8 61bf
00000040: 6c69 83bf 24e3 99bf cf79 d33c f47e 4cbe
00000050: 87cc 1abf e042 79be b053 a1bf 6d28 59bf
00000060: c707 5ebf 6089 80bf 9293 68bf e93d 60bf
00000070: 8e03 15bd 2fe5 86bf db2b 17bf e140 cebf

conceptizer.unlinear.weight f4 [16, 1]
-0.8032017 0.5277054 -0.58061934 -1.4104849 -0.9769233 -0.64793617 0.9803191 -0.82888794
-0.8027584 -1.0448153 1.1803793 0.64462715 -1.0793258 -0.037934724 -0.8507844 0.7679412
00000000: a09e 4dbf b317 073f 78a3 14bf c58a b4bf
00000010: a517 7abf 25df 25bf 31f6 7a3f 0032 54bf
00000020: 9381 4dbf 82bc 85bf ab16 973f 4906 253f
00000030: 5927 8abf 7161 1bbd 02cd 59bf cb97 443f

conceptizer.unlinear.bias f4 [16]
0.7587261 -0.108649544 -1.0501642 0.6507958 0.303606 0.14617866 -0.563842 0.6166965
-0.0028239118 -0.7854247 -0.79465514 0.7918528 -0.30749708 -0.69808716 -0.74786747 0.4631412
00000000: e03b 423f a783 debd c86b 86bf 8e9a 263f
00000010: 3f72 9b3e dcaf 153e f357 10bf d2df 1d3f
00000020: 6111 39bb 9811 49bf 856e 4bbf ddb6 4a3f
00000030: 4270 9dbe d7b5 32bf 3e74 3fbf d820 ed3e

parameterizer.cl_layers.0.weight f4 [10, 1, 5, 5]
0.15034008 -0.02900517 0.09058298 0.16486773 0.11730836 -0.01357188 0.2427128 -0.064224206
-0.11940747 -0.05886537 0.03169107 0.07937476 0.10542173 0.2951927 0.26904026 -0.23002703
-0.101904646 -0.12244045 -0.17048955 -0.20079154 -0.09890666 -0.21527672 -0.21175227 -0.18307085
-0.13085172 -0.09125571 -0.0914155 0.18398964 -0.07000526 0.010755119 -0.13017225 -0.13206194
-0.103144735 -0.015787635 -0.009233042 -0.14056292 0.072827086 -0.19940637 0.013532115 -0.09133534
0.20438866 -0.13930795 0.027616367 -0.20599659 -0.12626697 0.27442157 0.07564548 -0.095266715
0.3542575 -0.16082807 -0.056981124 0.12481206 0.14589737 0.14586748 0.0033701472 0.02265606
-0.08480545 0.14898045 0.10086297 0.09013858 0.084894516 -0.004177203 -0.08648619 0.12102596
0.14878151 -0.13885 -0.1413829 0.0028279945 -0.029156469 0.27701312 -0.040269356 -0.1881626
-0.14278029 -0.061867543 0.4140431 -0.0368018 0.21099293 0.13177824 0.1155975 0.17670132
0.11320715 0.0054575456 0.10696441 0.15033841 0.142865 -0.13884409 -0.14363027 -0.23454924
-0.17673428 -0.19079633 0.16848333 -0.17833728 0.314823 -0.12314608 0.10452073 -0.1948605
-0.14526808 0.039399736 -0.19061923 0.036807418 0.067387566 0.27054545 -0.13243072 -0.13153407
-0.116391376 -0.022111962 0.16472776 -0.19370769 -0.15419675 -0.009613386 0.07347169 -0.026412124
-0.18627064 0.11185663 -0.010284581 0.19833735 -0.11628177 -0.17632113 -0.09065237 -0.027592184
-0.035383407 -0.18633105 -0.2113499 0.2758493 -0.054516748 -0.1990111 -0.101602994 0.16142525
-0.1049268 -0.052509833 0.003633941 -0.16459733 -0.20100197 0.08008316 0.31856397 0.11911294
-0.29218838 0.16267808 0.121912204 0.027755959 0.005881415 -0.26628056 0.059917066 0.17633884
0.03256617 -0.20800418 0.16248207 -0.05457049 0.257633 -0.00586622 0.06386128 -0.0385964
-0.014275274 0.1599815 -0.16983524 -0.025097592 -0.047666457 0.056272153 -0.022161977 0.11561553
0.044299085 -0.19241095 0.11854634 -0.17142172 -0.104929805 -0.09628474 0.4970421 -0.31612074
0.594112 -0.22187516 -0.10104651 -0.1354183 -0.12096754 0.051811125 -0.04015685 0.1850827
-0.11929194 -0.07179826 -0.17669855 0.21432298 -0.013145358 -0.19249631 0.2224893 -0.09803578
0.012593124 -0.0891927 0.26615402 -0.2752415 -0.17362115 -0.05474483 -0.0020489807 -0.28659412
0.4714746 -0.35635158 0.3614872 0.016389022 -0.13548738 0.03512614 -0.15625033 -0.16767068
-0.12576897 -0.15375184 -0.13064724 0.2863253 -0.18085897 0.34298304 0.012883121 0.105592914
-0.1895569 0.23133177 -0.05537586 -0.022262413 -0.14539865 0.050268937 -0.04671594 -0.1744934
0.27906108 0.12797047 -0.15542126 -0.14367042 0.005913192 -0.25270635 0.16705161 -0.17431194
0.287672 -0.08368914 -0.27586553 -0.23110715 -0.14195114 0.094986424 -0.06305095 0.09213191
0.13670857 0.09751289 0.060016796 0.122466944 0.15854739 0.37701726 0.020478457 -0.07823358
0.07808046 0.03205616 -0.07444439 -0.0033771954 -0.11467779 -0.014362059 -0.069604225 -0.13128097
-0.09409396 0.17131238
00000000: c0f2 193e 409c edbc 9283 b93d 16d3 283e
00000010: 5e3f f03d 975c 5ebc b489 783e fb87 83bd
00000020: e78b f4bd d01c 71bd 7fce 013d 3c8f a23d
00000030: 59e7 d73d 7f23 973e a5bf 893e 358c 6bbe
00000040: 62b3 d0bd 0fc2 fabd d094 2ebe 4c9c 4dbe
00000050: 938f cabd 8071 5cbe 96d5 58be ed76 3bbe
00000060: fefd 05be 46e4 babd 0d38 bbbd c867 3c3e
00000070: eb5e 8fbd 3d36 303c e04b 05be 3f3b 07be
00000080: 8c3d d3bd 1255 81bc 2f46 17bc baef 0fbe
00000090: 5e26 953d 2f31 4cbe ceb5 5d3c 060e bbbd
000000a0: 434b 513e bea6 0ebe b83b e23c c5f0 52be
000000b0: 214c 01be fc80 8c3e 04ec 9a3d 321b c3bd
000000c0: 3d61 b53e 1db0 24be 0a65 69bd 779d ff3d
000000d0: 1f66 153e 495e 153e b0dd 5c3b 3499 b93c
000000e0: 7bae adbd 558e 183e 3f91 ce3d 939a b83d
000000f0: 2ddd ad3d ebe0 88bb ac1f b1bd 75dc f73d
00000100: 2e5a 183e b22e 0ebe aec6 10be e055 393b
00000110: 8cd9 eebc aad4 8d3e 7bf1 24bd b2ad 40be
00000120: ff34 12be d268 7dbd 75fd d33e 7cbd 16bd
00000130: 880e 583e e0f0 063e 62be ec3d 31f1 343e
00000140: 26d9 e73d 36d5 b23b 2810 db3d 50f2 193e
00000150: 344b 123e 252d 0ebe d013 13be ad2d 70be
00000160: d5f9 34be 1d60 43be e586 2c3e 0c9e 36be
00000170: 7b30 a13e 0334 fcbd f70e d63d 8389 47be
00000180: 28c1 14be 9e61 213d b031 43be 60c3 163d
00000190: 7e02 8a3d ef84 8a3e eb9b 07be deb0 06be
000001a0: 9a5e eebd 2524 b5bc 65ae 283e 4f5b 46be
000001b0: c1e5 1dbe 7781 1dbc 5378 963d 3d5e d8bc
000001c0: bbbd 3ebe 1715 e53d a980 28bc f218 4b3e
000001d0: 2325 eebd 878d 34be f3a7 b9bd 0109 e2bc
000001e0: 31ee 10bd 91cd 3ebe 1c6c 58be 1f3c 8d3e
000001f0: f44c 5fbd 91c9 4bbe 3b15 d0bd a94c 253e
00000200: dde3 d6bd 8d14 57bd 6a27 6e3b 348c 28be
00000210: 76d3 4dbe a402 a43d d11a a33e 7cf1 f33d
00000220: b799 95be 1595 263e 1bad f93d 7760 e33c
00000230: e3b8 c03b ed55 88be 996b 753d 2b92 343e
00000240: 1b64 053d 0cff 54be b361 263e 4e85 5fbd
00000250: 79e8 833e 6c39 c0bb b4c9 823d 4217 1ebd
00000260: d7e2 69bc 31d2 233e 4ae9 2dbe 7799 cdbc
00000270: e73d 43bd a17d 663d 098d b5bc d6c7 ec3d
00000280: f572 353d 6007 45be 6cc8 f23d 2d89 2fbe
00000290: 70e5 d6bd ef30 c5bd 4d7c fe3e 94da a1be
000002a0: b917 183f 3e33 63be 79f1 cebd 18ab 0abe
000002b0: d4bd f7bd e737 543d 827b 24bd 5286 3d3e
000002c0: 554f f4bd f70a 93bd 77f0 34be 7c77 5b3e
000002d0: a15f 57bc c11d 45be 3cd4 633e fcc6 c8bd
000002e0: 6453 4e3c aaaa b6bd 5745 883e 74ec 8cbe
000002f0: bec9 31be 1d3c 60bd 3148 06bb 77bc 92be
00000300: 1e65 f13e b773 b6be da14 b93e 4542 863c
00000310: 34bd 0abe 6de0 0f3d 1600 20be ddb1 2bbe
00000320: 95c9 00be 1f71 1dbe 64c8 05be 3b99 923e
00000330: 1833 39be 799b af3e ba13 533c 1941 d83d
00000340: 341b 42be 3ce2 6c3e ccd1 62bd aa5f b6bc
00000350: 62e3 14be cde6 4d3d 3759 3fbd 66ae 32be
00000360: 18e1 8e3e b10a 033e c026 1fbe 571e 13be
00000370: 73c3 c13b ba62 81be 940f 2b3e d47e 32be
00000380: bf49 933e 3665 abbd 3f3e 8dbe 5aa7 6cbe
00000390: a45b 11be 3e88 c23d db20 81bd a8af bc3d
000003a0: 55fd 0b3e d7b4 c73d 2cd4 753d f3cf fa3d
000003b0: 3f5a 223e 6808 c13e 70c2 a73c ed38 a0bd
000003c0: a6e8 9f3d 524d 033d 4d76 98bd f053 5dbb
000003d0: 30dc eabd d74e 6bbc a98c 8ebd 856e 06be
000003e0: 56b4 c0bd 836c 2f3e

parameterizer.cl_layers.0.bias f4 [10]
0.06258356 0.14029758 -0.15692887 0.027281651 0.013610869 0.06641525 -0.10873267 -0.23431142
-0.047894754 -0.007656405
00000000: cf2b 803d 2baa 0f3e f6b1 20be c57d df3c
00000010: 1f00 5f3c b804 883d 3caf debd 55ef 6fbe
00000020: 4a2d 44bd 95e2 fabb

parameterizer.cl_layers.3.weight f4 [20, 10, 5, 5]
0.025590131 -0.052962355 -0.057675853 -0.14539704 -0.041240804 0.012370334 0.00025958146 -0.09711654
-0.060306866 -0.042583216 -0.05765274 0.016569914 -0.05357747 -0.074354045 0.009926335 0.054449506
0.02846878 -0.050022095 -0.017200544 0.024034128 0.0054295775 0.0069973175 0.02206278 0.0026762132
-0.014631935 -0.03735924 0.08463548 -0.05625224 -0.04392768 -0.01567263 -0.037005518 -0.007968626
-0.09094881 -0.06359553 0.024287151 -0.017664421 -0.05660233 0.010643513 -0.030264424 0.028161429
-0.033954334 0.006669302 -0.01997334 -0.047216438 -0.025190985 -0.0025997967 -0.0068098987 -0.01974771
0.056293797 0.053115185 0.13844883 0.027294343 0.039949454 -0.021311713 -0.0046198056 0.04357071
0.0074612675 0.025463084 -0.05744529 -0.05632679 0.034687866 0.016002672 -0.06413217 -0.07164162
-0.041160133 -0.0043709683 0.031548765 0.0017722213 0.0124310395 -0.064673014 0.00893502 0.017900616
0.09260864 0.076930806 0.030659037 0.021548716 -0.027035188 0.0019714332 -0.06812044 -0.06670886
-0.01713474 -0.035454262 -0.048647184 0.009534538 -0.045192584 0.015325461 -0.014338162 -0.08683859
-0.121714786 0.012774879 0.012859081 0.0025798322 -0.018559497 -0.03598792 -0.041817077 0.07400582
-0.04131927 -0.036137726 0.03269968 -0.031181598 -0.010759303 -0.008838567 0.007265961 0.05373627
-0.010138402 0.01181184 -0.006596804 -0.048999835 -0.017737456 0.06523172 -0.013252027 0.023215361
0.08058213 0.011400937 0.08620492 -0.001161401 0.060237516 0.0017439553 0.028130183 -0.022180434
0.07570249 0.014619524 -0.0035277389 -0.03815521 0.0122376755 -0.049859144 0.024089413 0.033001952
0.05796167 0.070832565 -0.023407489 0.044173867 0.084860615 0.0860261 0.034269296 -0.04007571
0.036899928 0.056085557 0.063288145 -0.012538611 -0.00186951 0.0057945233 0.042482924 0.07801602
-0.05633743 -0.0056367465 -0.034455355 -0.042546056 -0.05716404 -0.0068861023 -0.050437346 0.1636659
0.15633878 -0.003601236 0.004347699 -0.07493247 -0.05649003 -0.05002552 -0.038249943 0.022742173
0.06795997 0.00023259943 0.027111508 0.029001307 0.00030964758 0.039877005 0.05102635 -0.0086895935
-0.026393065 0.014075323 0.03460562 -0.0429971 0.041125216 0.045105863 0.028364716 -0.03028209
0.11459509 0.08106893 -0.06312329 -0.04024983 -0.12019965 -0.016063178 0.051966842 -0.0074027767
-0.019125108 -0.076440096 0.00018213714 -0.0049393694 0.08467899 0.0014480584 -0.054590218 -0.050685525
0.01516285 0.026885528 0.029821387 -0.06605362 -0.05149018 0.05784201 0.010470654 -0.098213896
0.010077153 0.15512112 0.09750962 0.09394871 0.0011012605 -0.048213884 0.046676815 0.080288045
0.036847297 0.03058001 -0.043604687 0.017714292 0.03343132 -0.045786057 -0.0077053774 0.07600127
-0.06103772 -0.009246962 -0.03664264 -0.04840427 -0.03715421 0.0019843304 0.021578908 0.020174291
0.008784028 0.07064299 0.039949022 -0.056653444 0.007442118 0.031870052 -0.032289088 0.009731782
0.019276148 -0.009531595 0.08990996 0.06953832 0.075184375 0.034085162 0.018761816 0.07807342
0.08149216 0.04620615 -0.030782327 -0.04521766 0.044742275 0.033630043 0.027795624 -0.032787275
-0.015725883 0.043464445 0.047437184 0.009744899 0.08597 0.033975676 0.048577756 0.0076295757
00000000: 65a2 d13c 0eef 58bd 843d 6cbd f6e2 14be
00000010: 1eec 28bd f1ac 4a3c 6f18 8839 09e5 c6bd
00000020: 5504 77bd bd6b 2ebd 4825 6cbd a1bd 873c
00000030: 0d74 5bbd ef46 98bd 11a2 223c 7206 5f3d
00000040: 5c37 e93c f8e3 4cbd 28e8 8cbc 38e3 c43c
00000050: 99ea b13b c149 e53b 01bd b43c 6863 2f3b
00000060: c9ba 6fbc 0106 19bd 5e55 ad3d c068 66bd
00000070: 83ed 33bd e363 80bc 1993 17bd d78e 02bc
00000080: 5f43 babd 603e 82bd d9f5 c63c fab4 90bc
00000090: d8d7 67bd 2162 2e3c 19ed f7bc ccb2 e63c
000000a0: b313 0bbd 298a da3b 219f a3bc 0666 41bd
000000b0: 535d cebc 5a61 2abb 9225 dfbb f3c5 a1bc
000000c0: 5394 663d 4f8f 593d 88c5 0d3e 6398 df3c
000000d0: 0aa2 233d e795 aebc bd61 97bb 3377 323d
000000e0: a67d f43b f597 d03c c14b 6bbd ecb6 66bd
000000f0: dd14 0e3d 0918 833c ba57 83bd d7b8 92bd
00000100: 8797 28bd 573a 8fbb 4739 013d e149 e83a
00000110: 8fab 4b3c 4973 84bd 3164 123c 50a4 923c
00000120: 99a9 bd3d e68d 9d3d a928 fb3c ef86 b03c
00000130: e678 ddbc 2933 013b bb82 8bbd a89e 88bd
00000140: 275e 8cbc 7d38 11bd 4542 47bd c036 1c3c
00000150: dc1b 39bd a417 7b3c 9cea 6abc 6ed8 b1bd
00000160: 9a45 f9bd ba4d 513c e5ae 523c 6712 293b
00000170: 160a 98bc 1268 13bd 6248 2bbd 5d90 973d
00000180: 653e 29bd 2705 14bd 1af0 053d 8d70 ffbc
00000190: ca47 30bc a3cf 10bc 4c17 ee3b 901a 5c3d
000001a0: 8a1b 26bc 7386 413c 012a d8bb 0db4 48bd
000001b0: 244e 91bc 3598 853d 081f 59bc 242e be3c
000001c0: 3e08 a53d ffca 3a3c 358c b03d 273a 98ba
000001d0: 9dbb 763d 6e95 e43a 4571 e63c beb3 b5bc
000001e0: e809 9b3d ba86 6f3c a331 67bb a348 1cbd
000001f0: 8880 483c 1a39 4cbd 2957 c53c 0e2d 073d
00000200: 3769 6d3d aa10 913d 10c1 bfbc a8ef 343d
00000210: 67cb ad3d 742e b03d f65d 0c3d 6d26 24bd
00000220: 6124 173d f8b9 653d 379d 813d bf6e 4dbc
00000230: 590a f5ba fcdf bd3b 9302 2e3d ddc6 9f3d
00000240: 14c2 66bd 75b4 b8bb 0f21 0dbd c644 2ebd
00000250: d724 6abd d0a4 e1bb 6497 4ebd 0998 273e
00000260: 4617 203e b702 6cbb 2577 8e3b 3276 99bd
00000270: 1762 67bd 8fe7 4cbd f9ab 1cbd cb4d ba3c
00000280: 992e 8b3d efe5 7339 f418 de3c 2694 ed3c
00000290: 3258 a239 1256 233d 0201 513d cc5e 0ebc
000002a0: 4536 d8bc 2f9c 663c 9fbe 0d3d ba1d 30bd
000002b0: ea72 283d edc0 383d 1f5d e83c 2512 f8bc
000002c0: d5b0 ea3d 7807 a63d c946 81bd 01dd 24bd
000002d0: 3c2b f6bd ed96 83bc 2fdb 543d fe92 f2bb
000002e0: 42ac 9cbc a08c 9cbd 11fc 3e39 6fda a1bb
000002f0: 2e6c ad3d c7cc bd3a fe99 5fbd a09b 4fbd
00000300: 9a6d 783c 0a3f dc3c fb4b f43c 1f47 87bd
00000310: 5ee7 52bd beeb 6c3d 1b8d 2b3c 5e24 c9bd
00000320: a51a 253c 12d8 1e3e 20b3 c73d 2e68 c03d
00000330: 2c58 903a ec7b 45bd 3030 3f3d 0f6e a43d
00000340: 31ed 163d ee82 fa3c d49a 32bd 901d 913c
00000350: 48ef 083d 298a 3bbd 647d fcbb 8ea6 9b3d
00000360: b002 7abd 9280 17bc 9816 16bd 8e43 46bd
00000370: 032f 18bd 8a0b 023b 40c6 b03c 8e44 a53c
00000380: e2ea 0f3c 46ad 903d 96a1 233d 710d 68bd
00000390: 03dd f33b 2c8a 023d 9041 04bd 0d72 1f3c
000003a0: 03e9 9d3c 682a 1cbc b722 b83d 1b6a 8e3d
000003b0: 44fa 993d e29c 0b3d 61b2 993c f5e4 9f3d
000003c0: 5de5 a63d a942 3d3d 382b fcbc 2736 39bd
000003d0: ad43 373d a8bf 093d a6b3 e33c f34b 06bd
000003e0: 91d3 80bc c607 323d 7e4d 423d 12a9 1f3c
000003f0: 0a11 b03d 142a 0b3d 78f9 463d 8501 fa3b

parameterizer.cl_layers.3.bias f4 [20]
0.066930495 -0.033774976 0.03627934 0.0787858 -0.044814482 0.0056482083 0.0766231 -0.038780898
0.032954533 -0.024830928 0.016230822 -0.02973018 -0.009378176 -0.017832208 -0.06405979 0.0057543735
-0.0076938244 0.013442188 -0.04205592 -0.020379819
00000000: db12 893d a157 0abd a599 143d 735a a13d
00000010: 648f 37bd 9b14 b93b 92ec 9c3d b8d8 1ebd
00000020: 55fb 063d 3b6a cbbc 80f6 843c b58c f3bc
00000030: eca6 19bc da14 92bc c731 83bd 2f8f bc3b
00000040: 7a1c fcbb 9f3c 5c3c d442 2cbd 94f3 a6bc

parameterizer.fc_layers.0.weight f4 [50, 320]
0.020938197 -0.026909094 0.024787588 -0.03497557 -0.078333005 0.08933175 0.019489808 0.01890234
-0.0568037 0.0852893 0.03543719 -0.027059665 -0.022052564 0.015876038 0.06280641 0.016604995
-0.0015246263 -0.036683712 -0.01619148 -0.06083374 0.07965581 0.04425241 0.021193642 0.009611063
-0.024306502 -0.020744642 0.04294003 0.10461894 0.008145933 -0.026808621 -0.023396237 0.11200499
-0.07455605 0.008534584 -0.0151977185 -0.023165278 0.022016589 0.01003656 0.03971029 0.0332512
0.011520243 0.01392029 0.016153883 0.0066155423 0.03488486 -0.0008514602 0.06011011 0.0118607795
0.25088087 0.027176058 -0.008118003 0.07032896 -0.015251486 -0.047099747 -0.035030648 0.01716481
0.10858289 0.024184883 -0.011580558 -0.012566036 0.028867302 -0.005568415 -0.067136504 -0.037038084
0.03547411 -0.023359323 -0.028009364 0.017236736 -0.06602218 0.017412018 -0.016668698 -0.065459944
0.008939515 0.038320437 -0.0073408904 0.04367454 0.0029459607 -0.0022223152 0.024096852 0.011022737
-0.08069843 0.042120457 -0.021349456 -0.04161331 0.04111724 0.060441982 -0.0011269042 -0.00031091244
0.023066493 -0.03566051 0.08964773 0.058740325 0.0012652124 -0.037949875 0.012090777 0.09828378
0.11213865 -0.015457548 0.020622255 0.03609762 -0.007983744 0.001879192 0.009879962 0.035064097
0.06740762 -0.019810634 -0.09775385 0.0064613796 0.023164399 -0.053721525 -0.03522437 -0.002024877
-0.0105923815 -0.092894495 0.035506614 -0.008562565 0.0153577 0.12840801 0.034394905 0.004152467
-0.0654712 -0.04507998 0.025279108 -0.022834174 -0.0008561795 -0.07531665 0.04011731 0.05242835
0.024432996 0.026473401 0.07462359 0.05301959 0.027313683 -0.031123681 0.05317657 -0.04266013
-0.034276947 -0.007877813 -0.009965588 -0.01622172 -0.011320569 -0.013828016 -0.009492983 0.023651911
-0.0026047789 0.022648245 -0.009543208 0.034833305 -0.059835743 0.011006644 0.0534626 0.08059914
-0.07322735 0.08279083 0.055156045 0.025179036 -0.03810429 -0.021421714 -0.01027138 -0.06462297
0.017979154 0.036297467 0.036512785 0.013477849 -0.09135753 0.051054727 0.040122014 0.015684625
0.045213114 -0.011824422 -0.02067083 0.049479455 -0.00056471553 -0.04325648 -0.03767002 0.005025226
-0.09677031 -0.040842168 -0.007889429 -0.0114976475 0.029608209 0.022276435 0.044175938 0.02214665
0.007169503 0.038311455 -0.04995439 0.039940383 0.10515874 0.0088316 0.017245587 0.034396373
0.12851979 0.055814713 -0.011462807 -0.03604977 -0.06748432 -0.016483016 0.049571194 -0.013015459
-0.02285482 0.0033812653 0.025554849 -0.03753163 -0.06296529 -0.013491381 0.038970813 0.01393792
-0.049106903 0.013406416 0.005925748 0.005517571 0.056589194 0.03613875 0.07713787 0.062556125
0.037790142 0.017582214 0.023664052 -0.090412565 -0.011220638 0.023246262 -0.05612785 -0.06799205
0.016922994 0.013884071 -0.042762544 0.013390211 0.042399652 0.10569909 0.006909147 0.055416506
0.031758126 -0.030851569 -0.001482702 0.09973216 -0.029927425 -0.046792105 -0.050894074 0.058907017
-0.06341137 0.045947615 -0.022373823 -0.0029292053 0.111316234 0.09376863 -0.052749716 -0.09380837
-0.004283134 0.043974977 0.05729424 -0.026210297 0.020301774 -0.033009578 -0.02675189 0.033560716
00000000: 9586 ab3c 7670 dcbc 570f cb3c 8b42 0fbd
00000010: 0e6d a0bd 91f3 b63d 17a9 9f3c 15d9 9a3c
00000020: ffaa 68bd 28ac ae3d 9626 113d 3bac ddbc
00000030: 94a7 b4bc 770e 823c a6a0 803d 3307 883c
00000040: f8d5 c7ba a941 16bd ffa3 84bc cd2c 79bd
00000050: 9622 a33d 0442 353d 4a9e ad3c b877 1d3c
00000060: 6e1e c7bc abf0 a9bc e3e1 2f3d 7442 d63d
00000070: 8576 053c c19d dbbc 77a9 bfbc df62 e53d
00000080: d8b0 98bd a4d4 0b3c daff 78bc 1cc5 bdbc
00000090: 225c b43c 6270 243c 42a7 223d 6932 083d
000000a0: 67bf 3c3c ee11 643c 2655 843c 31c7 d83b
000000b0: 6de3 0e3d 8734 5fba 0536 763d b753 423c
000000c0: 7573 803e 53a0 de3c 5f01 05bc a108 903d
000000d0: 5ee1 79bc aaeb 40bd 4c7c 0fbd 379d 8c3c
000000e0: b560 de3d 601f c63c 61bc 3dbc c6e1 4dbc
000000f0: 1f7b ec3c 4077 b6bb dd7e 89bd 3fb5 17bd
00000100: 4d4d 113d 0d5c bfbc e573 e5bc 0e34 8d3c
00000110: a336 87bd a6a3 8e3c cb8c 88bc dd0f 86bd
00000120: 0b77 123c e4f5 1c3d da8b f0bb 13e4 323d
00000130: 0511 413b 43a4 11bb c366 c53c b698 343c
00000140: 3845 a5bd 8086 2c3d 0ee5 aebc b872 2abd
00000150: 8d6a 283d 0392 773d a1b4 93ba f601 a3b9
00000160: f1f5 bc3c c110 12bd 3b99 b73d b299 703d
00000170: 7cd5 a53a 5471 1bbd 6518 463c 0249 c93d
00000180: f3a8 e53d a841 7dbc 01f0 a83c 19db 133d
00000190: 40ce 02bc 384f f63a 90df 213c 5f9f 0f3d
000001a0: 020d 8a3d e949 a2bc 2c33 c8bd fbb9 d33b
000001b0: 44c3 bd3c 1a0b 5cbd 6e47 10bd ccb3 04bb
000001c0: ab8b 2dbc 783f bebd 626f 113d 004a 0cbc
000001d0: dd9e 7b3c 647d 033e ace1 0c3d 6b11 883b
000001e0: c415 86bd c9a5 38bd 2216 cf3c bc0e bbbc
000001f0: 3c71 60ba 9e3f 9abd 0c52 243d 1cbf 563d
00000200: b527 c83c bfde d83c 41d4 983d 122b 593d
00000210: f2c0 df3c 17f7 febc adcf 593d 63bc 2ebd
00000220: fc65 0cbd f111 01bc b546 23bc 6ae3 84bc
00000230: e879 39bc e78e 62bc 7588 1bbc a7c1 c13c
00000240: f0b4 2abb d088 b93c 1e5b 1cbc 5ead 0e3d
00000250: 5316 75bd 3655 343c 99fb 5a3d 2911 a53d
00000260: 39f8 95bd 3d8e a93d 4eeb 613d 4444 ce3c
00000270: 3e13 1cbd 977c afbc 4a49 28bc 0c59 84bd
00000280: 0549 933c a7ac 143d 6e8e 153d 32d2 5c3c
00000290: a819 bbbd c31e 513d fb56 243d 0b7d 803c
000002a0: 6331 393d 38bb 41bc df55 a9bc f8aa 4a3d
000002b0: 6b09 14ba b52d 31bd e14b 1abd a7aa a43b
000002c0: 832f c6bd 1e4a 27bd aa42 01bc a160 3cbc
000002d0: ea8c f23c 127d b63c d4f1 343d e46c b53c
000002e0: 26ee ea3b 79ec 1c3d f99c 4cbd 8798 233d
000002f0: 775d d73d 6ab2 103c 9e46 8d3c 36e3 0c3d
00000300: b19a 033e f89d 643d 7fce 3bbc eca8 13bd
00000310: 3835 8abd 6407 87bc 2a0b 4b3d cb3e 55bc
00000320: 083a bbbc 3898 5d3b 6758 d13c c4ba 19bd
00000330: f2f3 80bd f40a 5dbc dc9f 1f3d e05b 643c
00000340: 5224 49bd 96a6 5b3c c72c c23b bdcc b43b
00000350: 12ca 673d 3a06 143d 76fa 9d3d 6d1d 803d
00000360: d6c9 1a3d 9308 903c 1ddb c13c 392a b9bd
00000370: c4d6 37bc f26e be3c 51e6 65bd 6a3f 8bbd
00000380: 17a2 8a3c 047a 633c c727 2fbd 9e62 5b3c
00000390: 42ab 2d3d c478 d83d 2066 e23b 6bfc 623d
000003a0: cf14 023d 6ebc fcbc 3957 c2ba 6040 cc3d
000003b0: 5c2a f5bc 14a9 3fbd 4e76 50bd 7c48 713d
000003c0: d2dd 81bd 9133 3c3d 4f49 b7bc e9f7 3fbb
000003d0: c4f9 e33d c409 c03d 1610 58bd 9a1e c0bd
000003e0: 8859 8cbb 1b1f 343d 5dad 6a3d fab6 d6bc
000003f0: e84f a63c 0d35 07bd c826 dbbc f676 093d

parameterizer.fc_layers.0.bias f4 [50]
0.006253712 -0.092024095 0.06796883 0.001867874 0.021234043 0.065611914 0.038720075 -0.025094919
0.014765082 -0.011853277 0.011795522 -0.092012994 0.055301934 0.04793367 0.006470068 0.0071476656
0.002909579 0.008662737 0.07537125 0.03956055 0.05115889 -0.1270602 0.08321639 0.04448268
0.05482566 -0.0041277744 -0.006238399 0.0029817852 0.02195087 0.06100857 -0.028986799 0.051797915
-0.0075230855 -0.051251497 -0.037831444 -0.047233023 -0.0055437926 0.021355959 -0.04146346 0.007994097
-0.028041512 -0.03661694 0.028105551 0.025340594 0.03370967 0.020577103 0.0028721709 -0.008887467
0.04416695 0.004629332
00000000: f0eb cc3b 2177 bcbd 3e33 8b3d 73d3 f43a
00000010: 04f3 ad3c 8a5f 863d f198 1e3d dc93 cdbc
00000020: 3ee9 713c 3f34 42bc 0142 413c 4f71 bcbd
00000030: 4884 623d 1956 443d dd02 d43b f736 ea3b
00000040: a3ae 3e3b 27ee 0d3c 3e5c 9a3d 3e0a 223d
00000050: fc8b 513d 121c 02be 5b6d aa3d 7833 363d
00000060: df90 603d 4842 87bb 7c6b ccbb 0e6a 433b
00000070: 50d2 b33c 1fe4 793d b975 edbc 0d2a 543d
00000080: 3784 f6bb 17ed 51bd 25f5 1abd 6a77 41bd
00000090: b4a8 b5bb b1f2 ae3c 97d5 29bd acf9 023c
000000a0: 50b7 e5bc a5fb 15bd 9d3d e63c 1497 cf3c
000000b0: 2713 0a3d 5091 a83c 083b 3c3b bd9c 11bc
000000c0: 67e8 343d a7b1 973b
