results/CONF_FASHION_MNIST/checkpoints/Epoch[36]-Step[9990].pt (torch, 374454 bytes, 66 tensors)

conceptizer.encoder.0.0.weight f4 [10, 1, 5, 5]
000000 6c 68 db bd a2 78 00 3e f3 0c 43 3e 9e f5 22 3e
       -0.10713276 0.12546018 0.19047908 0.15914008
000010 f9 a8 5b 3e 2a e3 5f bd 95 96 18 bc 6f f8 a1 3c
       0.21451177 -0.05466 -0.009313245 0.019771783
000020 04 97 e7 3d fc d2 f9 bc 37 0f 53 3d b3 c9 dd 3d
       0.11308101 -0.030496113 0.051528182 0.10829487
000030 af 62 d1 bd ad 91 fc 3d e8 19 d6 3a 7a 1e 57 3e
       -0.102239005 0.12332473 0.0016334625 0.2100772
000040 35 8a 1d 3e d1 0b 24 3e 8e 70 ad 3d 1f 8d 3f bd
       0.15384753 0.16020133 0.08468734 -0.046765443
000050 56 1e c1 3e 0a 2a 5e bc 3e a6 1b be 1e 3a f7 bd
       0.37718457 -0.013559828 -0.15200135 -0.12071632
000060 f2 99 ad 3d 42 c9 99 bd d6 ba bb 3d db d2 08 be
       0.08476628 -0.0750909 0.091664955 -0.13361685
000070 b9 f4 ff bd 99 e3 38 be 89 28 61 3a 64 09 84 bd
       -0.12497849 -0.18055572 0.0008589109 -0.064471036
000080 df 25 19 be d3 b1 6b 3c 98 55 29 be 26 4d fe 3d
       -0.14955853 0.014385658 -0.16536558 0.12417059
000090 2a f0 c7 bd e4 e7 23 bd 77 a8 07 be e4 d4 21 be
       -0.097626045 -0.04001607 -0.13247858 -0.15803868
0000a0 0b 07 32 be 5f 25 9f bc d9 d9 cc bc 1e c1 8d 3d
       -0.17385499 -0.019427 -0.025006222 0.069216
0000b0 da b1 74 bd 3d b2 f5 3a 08 24 38 3d 51 87 98 bd
       -0.059739925 0.0018745136 0.044956237 -0.074476846
0000c0 52 61 2e be ee b0 0a bd 13 8e cb 3c a2 71 ee bd
       -0.17029312 -0.03386014 0.02484802 -0.116427675
0000d0 9b 86 c8 3d 6c f3 04 bc 50 31 a8 bd 52 fe 7d bd
       0.09791299 -0.008114677 -0.082125306 -0.062010117
0000e0 1e d1 f6 bd 32 3b b3 bb ef 33 fd bd 6d b4 b7 bd
       -0.12051605 -0.005469703 -0.12363421 -0.0896996
0000f0 38 33 2f be 17 b5 1e 3e 62 ae 43 bd d8 81 d9 bd
       -0.17109382 0.15498768 -0.047773726 -0.10620469
000100 93 2d eb ba 76 b5 ac bd c0 40 f7 bc 76 a7 37 be
       -0.0017942659 -0.084330484 -0.030182242 -0.17934975
000110 38 de 82 bd 0a c5 17 be 30 24 9f 3d c7 51 5e 3b
       -0.06390041 -0.14821258 0.07770574 0.0033923255
000120 0f a7 8d 3d f3 16 22 bc a8 8c 1a be 4e b8 c4 bd
       0.069166295 -0.009893167 -0.15092719 -0.09605466
000130 b4 d6 56 bd 75 55 59 3d 48 94 6b bd 3f 98 99 bd
       -0.05245085 0.053060014 -0.05751446 -0.07499742
000140 24 a6 d6 bd 20 fc 36 bd 66 f8 cf bd 5c d1 3b bd
       -0.104809076 -0.04467404 -0.101548 -0.045853958
000150 a9 4a bd 3d f9 01 31 be 68 b0 37 be 8e 6b 56 3d
       0.09242756 -0.17285909 -0.17938387 0.052348666
000160 9b 73 15 be 59 8d c0 bc 5a 1c 8b bd 88 74 01 be
       -0.14594881 -0.0235049 -0.06792517 -0.1264211
000170 76 75 12 3b 4f d3 9a bd a7 84 66 bd 19 c7 89 bd
       0.0022347844 -0.07559835 -0.05627885 -0.06727428
000180 87 5f 5e bd 2a e5 46 be bd a5 96 bd 21 32 60 3d
       -0.05429032 -0.19423357 -0.07355831 0.054735307
000190 f7 22 1d 3d 6c 51 3b be ef f6 93 3d 57 63 a8 3d
       0.038363423 -0.18292779 0.07224833 0.082220726
0001a0 b3 93 10 3e 42 61 21 bb 70 19 44 be cb 88 6c 3c
       0.14118843 -0.002462462 -0.19150329 0.014436911
0001b0 74 6a f7 3d 69 5b 38 be e5 4d 86 3c fc f0 85 3c
       0.12080851 -0.1800362 0.016394565 0.016350262
0001c0 18 f1 07 be 48 7a 25 be 3e 3f 3c bd ba 36 5d bd
       -0.13275564 -0.16159928 -0.04595875 -0.05400727
0001d0 59 87 f0 bd 1a e4 a7 3d 63 d6 1c be fb de 03 3b
       -0.117445655 0.08197804 -0.15316157 0.002012192
0001e0 4e 83 b9 3b 46 8d 57 3d 28 12 c8 bd 37 71 2e be
       0.0056614047 0.052624963 -0.09769088 -0.17035376
0001f0 ff 07 1c bd be bc c2 bb 4a 47 b0 3d 55 20 ff 3c
       -0.038093563 -0.00594291 0.08607347 0.031143347
000200 88 af 52 3c 2a d2 8b bd 42 e8 81 bd 94 10 17 be
       0.012859233 -0.06827195 -0.06343128 -0.14752418
000210 6a cd fa 3c 18 de 8b b9 e0 39 2c be 52 3f 1a 3e
       0.030615527 -0.0002667762 -0.16818953 0.15063217
000220 6a a3 54 3d 6d d7 bc 3d 2e 5b ae bd 49 47 3d be
       0.051913656 0.09220777 -0.08513485 -0.18484224
000230 e6 01 e9 bd 79 7a 46 3e 32 f0 38 3e 65 b5 6b bd
       -0.11377315 0.19382657 0.18060377 -0.05754604
000240 7b 2c 64 be 23 f9 30 3e ea 93 9e 3e 3e e5 40 3e
       -0.22282593 0.17282538 0.30972224 0.18837449
000250 91 d4 37 be 8c 46 fe bd f5 7f 48 3e 98 ae e4 bd
       -0.17952181 -0.124157995 0.19580062 -0.111661136
000260 f7 a2 5f 3d b5 53 4c 3e c4 a3 66 3e bb 70 6a bc
       0.054598775 0.19953807 0.22523409 -0.014309104
000270 2a 3d f2 3d 39 74 65 bc c6 e9 fb 3d 06 7d 1a 3e
       0.11828072 -0.01400476 0.12300448 0.15086755
000280 52 36 71 bd e3 8c 13 bd 9a 30 3b bd f2 c3 c9 bd
       -0.058889695 -0.036023032 -0.045700647 -0.09851827
000290 bd bb f6 bd 27 33 f6 bd a7 c9 23 3e 6f 1b 8a 3d
       -0.12047527 -0.12021475 0.15994893 0.06743514
0002a0 92 da b0 bd b8 f1 2f be ea fd 03 be cd 0f 61 bc
       -0.08635439 -0.17182052 -0.1288983 -0.013736677
0002b0 d4 89 3f be 18 0c 19 bd 9b 58 83 bd 0d 44 d6 bd
       -0.18704921 -0.03736505 -0.064133845 -0.104621984
0002c0 d6 e6 a0 bd 1c ef 55 be 1f c1 6a be 87 13 84 3d
       -0.078565285 -0.20891994 -0.22925232 0.06449037
0002d0 fa 82 d9 bd c0 c6 36 be bf ac 24 bd af f5 3d 3c
       -0.10620685 -0.17849255 -0.040203806 0.01159422
0002e0 7b d0 af bc d9 64 87 3d 7b 7c b7 bd 83 da f7 3c
       -0.021461716 0.06611032 -0.0895929 0.030255562
0002f0 73 8c 26 3e ec 38 f5 3d 80 b2 50 3e 53 9d 06 bd
       0.16264515 0.119737476 0.20380592 -0.03286488
000300 53 fb 8a 3d 5d b7 1e bd 30 0f 2a bd b8 8d 42 3e
       0.067862175 -0.038749088 -0.04151839 0.18999374
000310 11 4e 8a 3e f9 44 64 bd f7 2d 8b 3c b7 f2 a6 3d
       0.27012685 -0.05572984 0.016989691 0.08151763
000320 7f 45 6a 3e fc 18 e5 3d b4 b0 39 3c aa 3e 44 3c
       0.22878073 0.11186406 0.011333633 0.011977831
000330 cf 6f 99 bd 21 a0 60 3e c6 f3 d4 3d 78 8c 10 be
       -0.07492029 0.21936084 0.103980586 -0.14116085
000340 55 4a 1d be 52 9e 07 3e a9 b3 5d 3e a7 6f 93 bd
       -0.15360387 0.13243988 0.21650566 -0.0719903
000350 cf 1d 8b bd 22 54 e9 bd 98 0a 2a be 61 4f 0e 3e
       -0.06792795 -0.11393 -0.16605604 0.13897468
000360 65 9a 10 3d 53 22 a2 3d ce 4a 25 be 05 26 48 bd
       0.035303492 0.07916703 -0.16141817 -0.048864383
000370 d8 b7 21 be d7 be 66 3d 1f 79 93 bd da 5a ce bd
       -0.15792787 0.056334343 -0.072008364 -0.10075922
000380 01 90 b4 3d 99 0e 05 3e d2 fd 98 3e f9 66 72 3e
       0.08816529 0.1299385 0.2988115 0.23672093
000390 ca fc c2 3d 16 00 92 3d 10 61 b2 bd d1 ef 1a 3d
       0.09520872 0.07128923 -0.087099195 0.037826363
0003a0 ab ee 0b 3e df b1 ef bd 70 57 28 3d 79 6f 29 bc
       0.13665263 -0.11703848 0.041099012 -0.010341519
0003b0 47 ee 85 3d d5 79 09 3e 77 ad 01 be 27 33 8c 3d
       0.065395884 0.13425381 -0.12663828 0.06845694
0003c0 b7 00 15 be 0e 12 84 3d 1d 0e c5 bc 82 d8 f2 bd
       -0.14551054 0.06448756 -0.024054581 -0.11857702
0003d0 5a 94 6b 3d 70 61 8a bd ae c8 68 3d 4d e9 98 3e
       0.057514526 -0.06756866 0.056832008 0.29865494
0003e0 e7 59 83 3e ae 74 d0 3d
       0.25654528 0.10178505

conceptizer.encoder.0.0.bias f4 [10]
000000 b9 56 26 3e b5 c5 e1 3d 9a d1 6b 3e 71 e8 98 bd
       0.1624402 0.11024038 0.23029175 -0.0746621
000010 92 51 5e 3e 26 ec 96 3d 42 9b 3d bd 8b c8 61 3d
       0.21710804 0.073692605 -0.046290644 0.055122893
000020 6b f0 c9 3d 88 33 0f 3e
       0.09860309 0.13984501

conceptizer.encoder.1.0.weight f4 [5, 10, 5, 5]
000000 6e 76 5c bd 1a ae 89 bd a9 e0 ea 3c 46 53 9a 3d
       -0.05382388 -0.0672266 0.02867158 0.075354144
000010 72 c3 60 3d db c9 0d bc 45 15 f1 3c 6f d4 93 bc
       0.05487389 -0.008654083 0.029429087 -0.018045632
000020 86 07 ad bc b0 6e 90 3d d9 52 56 bd d2 8c e9 bb
       -0.021121752 0.07052362 -0.052325103 -0.007127383
000030 8c bd 6c bc bd 35 46 3d 0f ab 91 3c 2f f1 88 bb
       -0.014449488 0.048391093 0.017781762 -0.004179142
000040 c2 57 04 3d 76 56 6a 3d 08 72 57 3c cf c2 eb bb
       0.032310255 0.05721136 0.013149746 -0.007194854
000050 be 09 d5 bc 3f ad 18 bc 39 e5 cb 3c 65 5d 20 3d
       -0.026005622 -0.009318649 0.024889575 0.039151568
000060 12 67 21 bd b2 7c 86 3d 63 44 ac 3b a6 5e 06 3b
       -0.039404936 0.065667525 0.005257176 0.0020503192
000070 78 79 11 bc 50 d7 0f bb 76 a8 86 3d c6 a6 3d 3c
       -0.008879058 -0.0021948405 0.065751 0.011575406
000080 40 d9 55 bd cd 95 0f 3d fa 0b 8a 3d 79 e7 c2 3c
       -0.05220914 0.03505497 0.067405656 0.023792015
000090 e5 51 0a 3d 2b 15 12 3d fc 77 96 3c b7 b0 ab 3c
       0.033769507 0.03566472 0.01836776 0.020958288
0000a0 fb 3e ec bc 12 fe d3 bb 96 5d 4e bd 64 71 ba 3d
       -0.028838625 -0.0064694965 -0.05038222 0.09103659
0000b0 f6 ff 89 3d c4 8e 9d 3c 57 61 92 3d 24 5a 12 3b
       0.06738274 0.019233115 0.07147472 0.002233156
0000c0 00 47 2a 3c 3c 6e 18 bc b6 11 ee 3c 28 5d 21 bc
       0.010392904 -0.009303626 0.02906118 -0.00984887
0000d0 d5 3b b5 bc 14 2d c5 bc 04 99 a4 bc 58 f1 45 3c
       -0.022123257 -0.024069346 -0.020092495 0.012081467
0000e0 e2 1e 19 bb 88 1c 1a 3d 99 5c 97 bc 93 cc cc 3d
       -0.0023364355 0.037624866 -0.018476771 0.09999957
0000f0 f0 1e 34 3d b9 93 0d 3d c9 15 93 3c 21 0a c9 bb
       0.043974817 0.034564707 0.017954724 -0.0061352407
000100 6e 02 ec 3c 65 2b 0f 3d d4 34 ce 3a b8 2d ac bc
       0.028809752 0.034953494 0.0015732297 -0.021017894
000110 71 e7 f0 3c a2 06 7b bc 42 53 05 3d cd 8b 2c bc
       0.029407235 -0.015321406 0.032550104 -0.010531378
000120 d4 e6 48 3d 48 0f 83 3d ca 94 dd 3c f4 b4 1a bd
       0.04904826 0.06399399 0.027048487 -0.037770227
000130 ea 36 21 bd 81 e3 3b bd ca 27 34 ba c3 a0 37 3d
       -0.03935901 -0.04587126 -0.0006872384 0.04483105
000140 35 c1 99 3d ef e8 1d 3d 4a 3d e6 bc 9a 8e 9a 3d
       0.075075544 0.03855222 -0.028105397 0.0754673
000150 4f 91 95 3d 32 50 a5 3d 16 d1 3c bc d9 a9 93 3a
       0.07303106 0.08071937 -0.011524459 0.0011265829
000160 5c 44 e2 3c a9 f7 1e 3c d4 7b 88 bd fc 26 29 bd
       0.027620487 0.0097026015 -0.06664243 -0.041296944
000170 b5 d0 08 bc c1 4e 3e 3d 70 59 f4 3c fd 84 53 3c
       -0.008350541 0.046461824 0.029827803 0.012910125
000180 3b 69 a6 3a 88 2a 61 3d db e1 af 3d 7c d5 98 3d
       0.0012696156 0.0549722 0.085880004 0.07462594
000190 f5 eb 18 3d b3 47 01 bd 4f 08 ea bb 13 0f ad 3c
       0.0373344 -0.03156252 -0.0071421037 0.021125352
0001a0 2a f5 88 3c 65 ef e5 bc 56 82 9a bc b9 3d 0f bc
       0.016718466 -0.028068254 -0.018860977 -0.008742743
0001b0 37 6b 77 3d 4a 05 83 3d a6 ba f5 3c 45 62 06 bd
       0.060404982 0.06397493 0.029996227 -0.03280856
0001c0 64 94 8d 3d c5 00 23 bc 2c f4 24 bc 3e 10 14 bd
       0.06913069 -0.009948914 -0.010067981 -0.036148302
0001d0 67 55 ed 3c 96 bf 96 3c 32 50 cf 3c 37 c7 e0 3c
       0.028971387 0.018401902 0.025306795 0.027438743
0001e0 3c fe 7e bd c1 57 d2 3c 6a 59 03 3d f9 f3 3b 3d
       -0.062254176 0.02567661 0.032067694 0.045886967
0001f0 ad fd 44 3c be bc 1e bc eb 7c 36 3d 76 9d b6 3c
       0.012023372 -0.009688554 0.044552725 0.02229188
000200 9c ee 2d 3b 9e 66 c2 3b 8c 1e 02 bc 11 b2 f5 3c
       0.0026539927 0.005932643 -0.007941853 0.029992135
000210 8b 92 77 bc 71 6e bc bc 20 b3 01 3c 6e d7 64 3c
       -0.015110622 -0.023001881 0.007916242 0.013967378
000220 d7 fa 86 bb 03 a6 4c 3c 2f 66 37 bd 56 b5 7d bb
       -0.004119258 0.012490752 -0.044775184 -0.003871282
000230 73 7e d2 3c 73 4d c8 bc 9b 96 22 3c f2 09 0f bd
       0.025695061 -0.024450993 0.009923602 -0.034921594
000240 11 88 55 3c 72 88 00 3d 35 61 0c 3d c0 1a 93 bd
       0.013032929 0.031380124 0.03427239 -0.071828365
000250 bc ef 22 bd 95 ed c1 bb 8c 44 da 3a fa 4c d9 bc
       -0.03977941 -0.0059182146 0.0016652509 -0.026525963
000260 1c 27 95 3b 71 ed b3 bb 78 72 15 3e 99 57 1d bd
       0.0045517813 -0.0054909517 0.14594448 -0.038413618
000270 bd e2 87 bc c6 a2 10 3d 02 96 84 bd 6a 47 59 3c
       -0.01658761 0.035311483 -0.06473924 0.013261655
000280 52 1a f4 3c fe ff 0e 3d 54 60 93 3b 3e fa ba bb
       0.029797707 0.034912102 0.004497567 -0.0057061007
000290 71 e3 be 3c 1d 5b 4a 3d 62 10 ff bb 52 53 e9 ba
       0.023301812 0.0494033 -0.0077839354 -0.0017801321
0002a0 18 89 19 3c 63 84 90 bc 74 57 1a bd da 5b 23 bb
       0.009371065 -0.017641252 -0.037681058 -0.0024926574
0002b0 0b 71 4b 3d 08 76 15 bc 99 1d a1 3c 84 2e 02 bc
       0.049668353 -0.009122379 0.019667434 -0.0079456605
0002c0 8c 3b 6c bc c0 15 17 bc 93 bf 84 bb 65 db d7 3c
       -0.014418494 -0.009221494 -0.0040511577 0.026349733
0002d0 e6 54 8b bc 72 aa 0d 3d 9c c8 76 bd 63 e2 2a 3c
       -0.017008256 0.034586377 -0.06024991 0.010429951
0002e0 ce 4f 61 bd 7e 32 0c 3b 65 e1 a5 3c 3e 50 c5 bb
       -0.05500775 0.00213924 0.020249078 -0.0060215285
0002f0 50 de f3 3b 1f f6 11 bc a7 9d 69 3d 25 be 1d 3d
       0.007442273 -0.0089087775 0.057035115 0.038511414
000300 85 5e 39 bc b2 52 4b bc 5f 72 82 bb d8 63 6f bd
       -0.011314039 -0.012409853 -0.0039809193 -0.058444828
000310 48 5b 8a bd 97 d8 d3 bd ae 9e 50 3c af 5e fd bd
       -0.06755692 -0.103440456 0.012733145 -0.12371575
000320 e5 f5 99 bd dc fd d1 3c 3a 8a ed 3c 2f 9f cb 3c
       -0.07517604 0.025633745 0.028996576 0.024856178
000330 e1 83 5c 3c d8 c7 8d bd 21 14 cb 3a a5 1f 41 3d
       0.013459177 -0.06922883 0.001549367 0.04714932
000340 24 aa 6d bb d6 84 0a 3d 53 6e 39 bd db 53 d4 bc
       -0.0036264742 0.03381809 -0.04527123 -0.025918892
000350 30 c5 50 bd e9 7e 33 bc 49 28 eb bc 41 b0 b9 3c
       -0.050969303 -0.010955551 -0.028705733 0.022667052
000360 78 96 a6 3d 65 02 0d 3d c2 41 1a bd bb 75 b9 3b
       0.081341684 0.03442611 -0.037660368 0.0056597865
000370 72 95 87 3c 2b 4a 47 3d 3a 9d 40 bd 54 b3 57 bc
       0.016550753 0.048654716 -0.047024943 -0.013165314
000380 da 25 a9 bc 8c d9 df bc 3e d7 a1 3c 1b ec 78 3d
       -0.020647932 -0.027325414 0.019755956 0.060772043
000390 dd 57 89 3d 30 12 b6 3d 41 b8 9d 3c 3f 46 95 3b
       0.06706212 0.08890188 0.019252898 0.004555493
0003a0 65 ff 8f bc 1a 25 52 bd c8 b6 45 bc fa 78 c5 bc
       -0.017577836 -0.051304914 -0.012067504 -0.024105538
0003b0 93 63 d9 ba f9 6f 3e bd c0 63 81 3d 27 d8 92 bb
       -0.0016585462 -0.046493504 0.06317854 -0.004481334
0003c0 78 a5 38 bc 6c b0 90 3c c1 bf 53 3d 2e c7 cd 3c
       -0.01126992 0.01766225 0.051696543 0.02511939
0003d0 0f cc 52 3c 1d 62 31 bd d4 7e 88 3b 46 fa 0b 3c
       0.012866034 -0.04330646 0.0041655097 0.008543557
0003e0 d2 3b 55 bd 26 56 44 bd 70 bb c1 3d af 0a 82 3d
       -0.052059002 -0.04793372 0.09459579 0.06349694
0003f0 ed a0 a1 3d fd 18 2b 3d f9 96 16 bd d8 cf d6 3b
       0.07892022 0.041771878 -0.036765072 0.0065555386

conceptizer.encoder.1.0.bias f4 [5]
000000 7d d5 59 bc 81 b0 ad 3d 1e 32 c6 bc 7a 2e e7 3c
       -0.0132955285 0.08480931 -0.02419382 0.028220404
000010 8d 1a 57 3d
       0.052515555

conceptizer.encoder.2.layers.0.weight f4 [1, 16]
000000 88 ec 9f bd 03 e2 60 be 66 af c5 bd 9c 81 1a be
       -0.07808787 -0.21961217 -0.09652595 -0.15088505
000010 0b 88 28 3e 2c 02 b9 3d 08 40 b4 3d e2 67 ab bd
       0.16458146 0.090336174 0.088012755 -0.083694234
000020 3d 24 53 be 14 43 23 bd 69 65 57 be 11 16 91 be
       -0.20619293 -0.039858893 -0.21034779 -0.28337148
000030 88 8b dd bc 55 64 94 bd ce 44 5f be 85 37 11 3e
       -0.027044073 -0.07245699 -0.2180359 0.14181335

conceptizer.encoder.2.layers.1.weight f4 [1, 16]
000000 76 18 88 3d 76 3e 57 be 07 ca 17 be 65 5d 7c bd
       0.066452906 -0.2101992 -0.14823161 -0.061612505
000010 46 c2 da bd 9c 14 a5 3d 71 56 a3 be 9b 45 b3 3d
       -0.10681586 0.080605716 -0.31901887 0.087535106
000020 13 7f 5b bc c7 6d 62 be c2 30 e1 bd 20 b1 91 bb
       -0.013396996 -0.22112189 -0.10995628 -0.004446164
000030 0b bc 96 3d 7b ed 47 bd 99 89 16 3e a5 64 3b 3e
       0.07360085 -0.048810463 0.14700927 0.18300112

conceptizer.encoder.2.layers.2.weight f4 [1, 16]
000000 1d f4 70 be bc d0 00 3e 18 64 76 3d 58 8f 11 3e
       -0.23530622 0.12579626 0.06015405 0.14214838
000010 1d 06 9d bb cf 02 67 be 6b ca d8 3d a4 4c d9 bd
       -0.0047919885 -0.22559665 0.10585483 -0.10610321
000020 88 7c b6 be e7 53 67 be 9a 61 0d 3e 4d a0 c6 bd
       -0.35641885 -0.225906 0.13806763 -0.09698544
000030 7e 72 18 be f3 a9 0c 3e 6e 5d 97 3d 17 93 0b be
       -0.14887425 0.13736705 0.07390867 -0.13630329

conceptizer.encoder.2.layers.3.weight f4 [1, 16]
000000 4a 44 4f 3e ce 97 fb 3c 56 0e 0d bd c1 92 1d 3e
       0.20240894 0.030712035 -0.0344375 0.15388013
000010 f1 a1 be 3c 03 69 a9 3d e5 fe 00 3e 1d d9 70 3d
       0.023270579 0.082719825 0.12597235 0.058800805
000020 fa 77 2f bc 5f 1b a4 3e a9 e5 26 bd 6d 68 68 3d
       -0.010709757 0.32052132 -0.040746365 0.056740213
000030 ea 4b 21 3e c8 60 26 bd 99 15 26 be 08 1b 3d be
       0.15751615 -0.04061964 -0.16219176 -0.18467343

conceptizer.encoder.2.layers.4.weight f4 [1, 16]
000000 c8 22 c9 3d 02 c2 5b be ef bb 2c 3d b3 a8 f2 3d
       0.09821087 -0.21460727 0.042171415 0.11848583
000010 45 15 45 be ea 1c 3d be 03 2c 0e 3e c1 8a 82 bd
       -0.19246395 -0.18468061 0.13883977 -0.063741215
000020 70 8c c3 bd d5 6a 9a be 4c f6 43 be 63 dd e4 bd
       -0.09548271 -0.3015963 -0.19136924 -0.11175039
000030 77 18 59 3c 43 0b b1 b9 9c b2 af 3c dc 46 74 bc
       0.013250462 -0.0003376846 0.021447472 -0.014909472

conceptizer.decoder.0.0.weight f4 [5, 16, 5, 5]
000000 3e d2 c9 ba c5 0d de 3d cb 53 59 3c 85 0e 84 3d
       -0.001539774 0.1084247 0.013264607 0.06448082
000010 2c ba 45 3e 78 9f ff 3c 43 b4 9e 3d 0f 06 9f 3c
       0.193093 0.03120397 0.07749226 0.019412069
000020 7d 86 86 bd 55 3c 94 bd b9 c3 0a 3e 68 88 10 3e
       -0.0656862 -0.0723807 0.13551225 0.14114535
000030 27 43 9a bd dc 9c be 3d a5 7a bb 3d 37 b9 36 3d
       -0.075323395 0.09307262 0.09154252 0.04461023
000040 3a e6 9c 3d 1e 11 85 3d 31 e7 0e bd 5e 4f 8f bd
       0.076611 0.064974055 -0.03488845 -0.0699756
000050 b3 f9 31 3d 38 3c 83 be 18 87 22 be 52 96 38 3e
       0.043451022 -0.2563188 -0.15871847 0.18026093
000060 fb 3a 25 3e bd 23 b7 bc e9 6f fb 3d 46 78 5b 3d
       0.1613578 -0.022355909 0.122772045 0.0535815
000070 ba a8 5d 3c 23 3a 09 3c 6c 02 c6 3d e6 98 95 3d
       0.013528997 0.008375677 0.09668431 0.07304554
000080 c6 f1 ea bd 1b c1 9d 3d 58 c3 0a 3e 64 22 1a 3e
       -0.11471896 0.077028476 0.1355108 0.15052181
000090 12 73 cf bc 37 79 c9 3d b5 49 f8 3d dc 90 0f bd
       -0.025323424 0.09837573 0.121234335 -0.035050258
0000a0 d5 24 f2 3c 02 aa 8b be cf 28 a0 3e 8a 37 1e 3e
       0.029558579 -0.27278143 0.31281134 0.15450874
0000b0 fa 72 65 be a1 ef 11 3d 28 1d 8d 3b 69 14 04 3d
       -0.22407141 0.03562892 0.004306454 0.032246027
0000c0 47 b4 d4 bd 5d 66 ed ba 69 81 19 3e 98 c9 2a 3d
       -0.10385948 -0.0018112172 0.14990772 0.04169616
0000d0 7f 2b 05 bc 7c ee 01 bc c0 dc 0c 3e f2 18 2a 3c
       -0.008128046 -0.007930394 0.13756084 0.010381924
0000e0 40 c5 d8 3d 62 10 20 3e a1 9b f2 bd c9 03 f4 3d
       0.105844975 0.1563125 -0.1184609 0.119147845
0000f0 6b 91 b8 3d ea 10 aa 3c 86 5b 62 3d 1f 87 99 bd
       0.09012111 0.020760018 0.055263065 -0.074964754
000100 e1 76 88 bc 6e 99 2f 3e 14 4f ae 3d ee 9e 9e bc
       -0.016658248 0.17148373 0.08511177 -0.019362893
000110 2a 0d 2b bd 02 2e 80 3e 3f 8c 03 3e cb 56 63 3e
       -0.0417606 0.250351 0.12846468 0.22201078
000120 14 f5 87 3d 56 1c 89 bd e7 99 61 be c6 19 e6 bc
       0.06638542 -0.06694858 -0.22031365 -0.028088462
000130 27 b7 fd 3c 71 61 05 bd 99 18 0a 3e 5c 0c 4a 3d
       0.030971123 -0.03256363 0.13485946 0.049328193
000140 b5 d7 9e bd 73 37 e1 3b 10 4a 75 bc e0 5e ff bd
       -0.077559866 0.006873065 -0.014971271 -0.12469268
000150 e1 0f 98 bd f7 55 1b 3d 1b 80 3a be c7 3c 01 be
       -0.07424904 0.03792378 -0.18212931 -0.12620841
000160 6a 8c bc 3d 1f 41 14 3e b3 bd 00 3e fd 18 ef bc
       0.09206469 0.14477967 0.12572365 -0.02918672
000170 4d b2 17 be c2 3c 1a 3e d7 4c 00 be 78 60 cf 3d
       -0.1481411 0.1506224 -0.12529312 0.10125822
000180 a1 99 50 3d 14 3a 0b 3e b7 f1 b5 3d f6 98 29 3e
       0.050927762 0.13596374 0.08883994 0.16562256
000190 73 db 7c 3d 85 7e e5 bd cf ed 09 3e 62 ee 47 3d
       0.06173272 -0.11205772 0.13469623 0.048811324
0001a0 6a a3 49 3e 9e 50 8d bc 3e 90 85 bd 87 e8 d5 3d
       0.19691244 -0.017250355 -0.06521653 0.10444742
0001b0 d9 3e b1 bd fd 10 a4 bc b1 b1 d1 bc 1c a9 81 3b
       -0.08654565 -0.020027632 -0.025597425 0.003956927
0001c0 e4 a3 f0 3c 99 05 5f be 7e 97 3a bd 77 6c 92 3d
       0.029375024 -0.21779479 -0.04555463 0.07149594
0001d0 61 f6 c1 3d 48 e1 ed 3d e6 47 f9 bd 4a 2c 17 be
       0.09470821 0.116152346 -0.12171917 -0.14762989
0001e0 2f 09 ae bc 60 da df 3c 4f c5 92 3d 3b 5b 21 3c
       -0.021244613 0.027325809 0.0716654 0.009848411
0001f0 e4 28 f2 bd a7 f8 45 3e bc a2 41 bd c1 f7 b7 bc
       -0.118242055 0.19333135 -0.047274336 -0.022457005
000200 15 85 5a 3c 02 d9 50 ba b3 26 74 bc 5e 8f 17 be
       0.013337393 -0.0007966907 -0.014901805 -0.14800784
000210 14 96 c2 3d 0e 18 13 3d ab 5b 91 bc 56 3f 15 3d
       0.095012814 0.035911612 -0.017743906 0.036437355
000220 2c 3c a1 bd 16 b6 f8 3c 99 7e 89 bb c6 f6 f0 bb
       -0.07872805 0.030360263 -0.004196 -0.0073536364
000230 1e 88 84 3d d9 6a b4 bb 83 7d 39 3d c4 25 1e be
       0.06471275 -0.0055059013 0.045285713 -0.15444094
000240 29 36 84 3b 67 b9 1c 3e 75 a0 e5 3c a6 69 a4 3d
       0.0040347767 0.153051 0.028030613 0.08027963
000250 38 8b 4d be 01 e7 2c bc 5c 3e b1 3d 43 eb bf 3d
       -0.20072639 -0.0105531225 0.08654472 0.093710445
000260 0d 84 39 3d f9 c8 ab 3d 81 33 18 3e a4 63 79 bd
       0.04529195 0.08387942 0.14863397 -0.06088604
000270 96 11 e6 3d 99 9b b8 3d 23 e5 07 be d1 51 33 be
       0.11233823 0.09014053 -0.13271002 -0.17511679
000280 bc fe 0d bd 6a f2 e2 3d 04 a2 8e 3d a4 40 80 3d
       -0.03466676 0.11081393 0.06964496 0.06262329
000290 09 f7 b8 3d be 52 d1 3d 38 b6 0e 3a f3 f3 6e 3d
       0.09031493 0.1022086 0.0005444023 0.058338117
0002a0 95 78 c9 3d 27 b5 ef bc f1 ed 51 3d 70 84 18 bd
       0.09837452 -0.029261185 0.05125231 -0.037235677
0002b0 d5 b8 9e bb cc cb aa bd 96 c1 15 be ae ac 2d 3e
       -0.004843811 -0.083396524 -0.14624628 0.16960403
0002c0 e5 07 72 3d 80 4e 30 3d 5c bb 10 3e 04 2c 38 3e
       0.05908956 0.043043613 0.14133972 0.1798554
0002d0 b9 7c e5 bd 96 e4 0e bd 39 f0 1b 3d 9e f3 d6 3d
       -0.112054296 -0.034885965 0.03807089 0.10495685
0002e0 70 1b 1f 3e 71 09 d3 3d 10 3b 73 3d de 47 0c 3d
       0.1553781 0.10304535 0.0593825 0.034248225
0002f0 5c cf ac bd 6b fe 74 bd da f3 aa 3d 8c fd 87 3d
       -0.08437988 -0.059812944 0.08347292 0.06640157
000300 fb 5a 22 be fd 0f 23 be 3a 5d 8b bc 71 a4 14 3d
       -0.15855019 -0.15924068 -0.017012227 0.036289636
000310 35 89 ef 3d 83 28 e8 bc be db 19 be 0c c6 73 be
       0.11696092 -0.02833963 -0.15025231 -0.23806018
000320 b7 b0 fc ba 21 1b b5 bc ce fd fa bd 06 81 ed 3c
       -0.0019278739 -0.022107663 -0.12255441 0.028992187
000330 3d 45 d1 3d 3e 48 7f 3d b3 cb f9 bc 31 9f d6 bd
       0.10218284 0.062324755 -0.03049264 -0.10479582
000340 73 1d f2 bd 70 e8 13 3e 37 55 a1 3d cf 56 0f 3d
       -0.11822023 0.14444137 0.078775816 0.034994897
000350 9c db 41 be a8 72 86 3d 28 35 f3 3d 4d 1b 27 3e
       -0.1893143 0.06564838 0.11875373 0.16319008
000360 e8 2a f4 3d 42 2f 14 bb 1d 4b 06 bd d9 8c 0a 3e
       0.11922246 -0.0022611176 -0.032786477 0.13530292
000370 28 63 54 3d 4f e6 3f be b3 4b 2f be f8 aa 44 bd
       0.051852375 -0.187402 -0.1711872 -0.04801461
000380 1f 1d ef 3d 55 22 e4 3d 68 95 eb 3d fb 67 a2 3c
       0.11675476 0.11139361 0.11503106 0.019824972
000390 35 37 26 3d 21 87 5b bc e9 c1 4d 3d 8e df 52 bc
       0.040579993 -0.013398916 0.050233755 -0.012870682
0003a0 91 68 d6 3c dd d6 47 3d a2 e4 2a 3e e5 51 88 3d
       0.026172908 0.048788894 0.16688779 0.06656245
0003b0 65 f9 35 3e b1 63 35 bd ae af a4 3c 30 8f f7 3b
       0.17770918 -0.044284526 0.020103302 0.007554911
0003c0 a7 f4 51 3d ca 12 9b bc af 1e ec bd 6a 4f ee 3c
       0.05125871 -0.018929858 -0.1152929 0.029090602
0003d0 c1 6d dd bd 77 35 bb 3d 67 34 3c 3e d0 f6 36 3d
       -0.108119495 0.09141057 0.18379365 0.044668972
0003e0 b1 3e 04 3e e1 6c 7b be 1c c9 b2 bc c5 30 1f bd
       0.1291454 -0.24553253 -0.021824412 -0.03886487
0003f0 b7 6a 8b 3b 5f 5c 84 bc a8 47 23 be 1a a9 e6 bd
       0.0042546648 -0.016157327 -0.15945303 -0.11262722

conceptizer.decoder.0.0.bias f4 [16]
000000 93 96 e7 bd e2 38 26 3d 84 a6 1d 3b c1 38 de 3d
       -0.11308017 0.04058159 0.002405555 0.10850669
000010 8f 58 84 bd 9c 2e b9 3b 45 66 f5 bc 8f 4a 7b 3d
       -0.06462204 0.005651308 -0.029955992 0.0613504
000020 7f dd 4e bc ff 8e 9c bd 59 14 f6 3d 9f ec f0 3d
       -0.012626051 -0.07644462 0.120156 0.11763882
000030 c3 31 af 3c e4 ad 7d bc dc 80 42 bd 71 01 b3 3d
       0.021386033 -0.015483353 -0.04748617 0.08740509

conceptizer.decoder.2.0.weight f4 [16, 8, 5, 5]
000000 45 47 4a 3d a6 d2 55 3e 1d d5 32 3e 7d 7c 91 3d
       0.049384374 0.20881137 0.17464109 0.071038224
000010 2d 7b 18 3e b2 b0 c2 3d 24 f6 98 3e a6 98 2e 3e
       0.14890738 0.09506358 0.2987529 0.17050418
000020 3c c4 39 3d 87 07 78 3e cf 3b 9c bd 33 3e 13 3e
       0.04535316 0.24221621 -0.07628595 0.14379196
000030 f4 05 0d bd 3e 8d 53 3d b9 fe bc 3d 6a 79 93 bc
       -0.034429505 0.05164837 0.09228272 -0.01800223
000040 7a cf 2d 3d 1f eb 8a bd 1e 61 9e 3c ee 3f 48 3c
       0.042434193 -0.06783127 0.019333418 0.012222273
000050 1e ff 0a be ca eb 0f be 2d 15 19 be b3 3f 84 bc
       -0.13573882 -0.1405479 -0.14949484 -0.016143655
000060 84 9e b5 3c bd 82 da bd f8 56 08 be 87 e7 6e bd
       0.022170313 -0.106694676 -0.13314426 -0.05832627
000070 e3 8b 9a 3b e6 62 03 3d 9d 52 08 bd 6e 3e ec bd
       0.004716383 0.03207674 -0.03328191 -0.11535345
000080 01 2d ee bd 09 ab 10 bc a5 6a 26 bd 9a c4 be bd
       -0.116296776 -0.00882984 -0.040629048 -0.093148425
000090 40 5f 8a bd b3 b3 6f bd c2 a6 15 3c e6 cd bc bd
       -0.06756449 -0.058520984 0.009133996 -0.092189595
0000a0 f9 09 e1 3b 2f d1 28 3d 6b 8b e2 3d d7 9c 03 3e
       0.006867644 0.041215118 0.11061748 0.12852798
0000b0 58 27 a6 3b 03 f8 f8 3d 99 f7 b8 3d 39 23 a0 3d
       0.005070608 0.121566795 0.090316005 0.07819218
0000c0 ce 29 53 3d 03 53 ee 3c e8 af d8 bd 5c 64 82 3e
       0.05155354 0.029092317 -0.105804265 0.25467193
0000d0 51 ed 0c 3d 84 8d 97 3d d6 3f 69 3d ec d4 02 3d
       0.03440601 0.07400039 0.056945644 0.03194134
0000e0 bf 47 77 be eb 41 f0 3d 20 f9 1e bc 44 2f 38 bc
       -0.24148463 0.11731323 -0.009702951 -0.011241738
0000f0 0e 99 08 be da e3 5b be c3 39 5c 3d c6 20 5b 3d
       -0.13339636 -0.21473637 0.053766023 0.053498052
000100 c2 1b 0d 3b f6 aa 3a 3c 73 d8 8c 3a d8 93 0a 3d
       0.0021531438 0.011393299 0.0010745659 0.0338324
000110 63 bd 4c bd 20 29 fd bc 48 78 83 3d 99 bc a0 bd
       -0.0499853 -0.030903399 0.06419426 -0.07848472
000120 a5 86 76 bc 20 a7 06 ba b7 c1 a0 3c 01 77 55 3e
       -0.01504675 -0.0005136598 0.01962362 0.20846178
000130 81 75 4d 3e c7 d3 24 3e 03 3f 33 3d 85 0b 11 3d
       0.20064355 0.16096412 0.043761265 0.035411377
000140 64 9f 79 3e e9 0a dd 3d c4 f6 a5 3d 89 e8 47 3d
       0.24377209 0.107930966 0.081037074 0.048805747
000150 d1 41 a1 3d 4b 34 a3 bd 3f 6e 0e be f4 09 28 bd
       0.078738816 -0.079689585 -0.13909243 -0.041025117
000160 46 da ff bc 7a 95 f3 3d ce b0 59 be ca 34 4a be
       -0.03123201 0.11893745 -0.21258852 -0.197467
000170 3b df 1f be ff 4e 3d bd 2f 61 96 3d cb 86 50 bd
       -0.156125 -0.046217915 0.07342755 -0.0509098
000180 4e 39 0d be 24 0c 1a be 68 9e 94 bd f7 7e 57 bd
       -0.13791391 -0.15043694 -0.07256776 -0.052611317
000190 ee 55 86 3c 30 02 d1 bc 1c bd b4 bd 13 f5 a4 bd
       0.016398396 -0.025513738 -0.08825132 -0.08054557
0001a0 42 4e ba bd 88 c5 52 3e 96 18 2b 3e f9 4f 48 3e
       -0.09096958 0.20583165 0.16708598 0.19561757
0001b0 ac 27 c8 3d 32 d5 6e 3d 9f a5 0d 3e c4 6c 41 3e
       0.09773192 0.058308788 0.1383271 0.18889147
0001c0 cd 79 57 3e ea c8 37 3e 6c 6c 26 3e ed b1 b0 bd
       0.21042557 0.17947736 0.16252297 -0.08627687
0001d0 7a ed 6a bd 52 e7 3f 3c 06 b7 a5 3d 24 aa c2 bc
       -0.05735538 0.011712866 0.080915496 -0.02376277
0001e0 fa 54 54 be 22 14 c4 bd 88 e7 5b bd 96 23 f8 bc
       -0.20735541 -0.095741525 -0.053687602 -0.030290406
0001f0 f8 89 d7 3b e6 50 78 3e 0a 5f 83 3e 1a ff 68 3e
       0.0065777265 0.2424961 0.25658447 0.22753564
000200 80 14 cd 3d 9a 1b 48 3e 87 ed 1e 3e 26 8c 4f 3e
       0.10013676 0.19541779 0.15520297 0.20268306
000210 3c 38 2e 3e d3 b9 af 3d 1f dd 2d 3e 92 7f d1 bd
       0.17013639 0.08580365 0.16978882 -0.1022941
000220 1b 14 d6 bd ac ab 4a bc 50 07 4c 3c 6e 59 5e 3d
       -0.104530536 -0.012370031 0.012452915 0.054284506
000230 e3 e2 17 be 46 2e 47 be 06 ba 01 be 28 5b 14 be
       -0.14832644 -0.19451246 -0.12668619 -0.14487898
000240 9e 25 79 bd b4 80 0d be 15 07 43 be 54 f1 0b bd
       -0.06082689 -0.13818628 -0.1904567 -0.034165695
000250 ea 8e 06 bd d2 3c 96 3c 57 35 bb 3e ea c9 45 3e
       -0.032851137 0.018339548 0.36564133 0.19315305
000260 6d ba 51 3d 9a 4c a6 3c 76 d4 dc 3d 99 db e9 3d
       0.05120318 0.020300198 0.10782711 0.11418838
000270 58 c9 1b 3e 11 98 88 3d c7 90 51 3d 0e 72 86 3b
       0.15213525 0.06669629 0.05116346 0.004102952
000280 a0 dc 05 3d c7 50 fe bc 5e ca c2 bd 75 9a da bd
       0.032681108 -0.031044377 -0.09511255 -0.106739916
000290 ef f6 06 be 2d 61 16 be 89 e8 6d bd 25 ab 22 be
       -0.13180135 -0.14685507 -0.05808309 -0.15885599
0002a0 7a 88 1e be 30 06 83 bd 59 c2 f0 bd e2 ac bf bd
       -0.15481749 -0.063976645 -0.11755819 -0.09359147
0002b0 ee a5 05 be 9a ea 86 bd 33 15 e3 3d 43 a5 9c 3e
       -0.13051578 -0.065877154 0.11088028 0.30594835
0002c0 2b 4d 48 3e b0 2d 0b 3d 5d cc 68 3d 53 ff d6 3c
       0.19560687 0.033979118 0.05683552 0.026244795
0002d0 32 c5 ef 3c 47 bb ca 3d 9f f1 3a 3c c9 bc 1c 3d
       0.029268835 0.098990016 0.011410146 0.038265977
0002e0 0d 81 2c 3d 15 ba d1 bd 8e 4d de bd 9d 78 ea 3c
       0.04211526 -0.102405705 -0.10854636 0.028621966
0002f0 81 a7 a2 bc f1 17 06 3d f6 a9 d1 bd 20 4a 3f be
       -0.019855263 0.032737676 -0.102374956 -0.1868062
000300 48 aa 4a bd 91 78 84 3d ad ef 92 3d 4c 9a 7a be
       -0.0494788 0.06468309 0.07174621 -0.24472922
000310 93 98 7f bd 73 8c e1 bc 2c ef 45 3c 5e 61 a9 3d
       -0.062401365 -0.027532792 0.012080949 0.082705244
000320 f7 97 91 3d 28 d0 89 3d 54 11 45 3e 6b 08 3c 3e
       0.07109063 0.06729156 0.19244891 0.18362586
000330 bb 47 39 3e e9 39 07 3e 49 56 e0 3d ef 37 24 3e
       0.18093769 0.13205685 0.109539576 0.16036962
000340 9e ed c0 3d 40 37 29 3e 46 5c 9d 3d 11 b9 70 bd
       0.09420322 0.16524982 0.076836154 -0.058770243
000350 3a 64 b7 bd ee 76 e5 3b d7 d8 05 3b 7c 70 94 bd
       -0.089546636 0.007002703 0.0020423436 -0.07248017
000360 40 31 84 bb 84 b0 b9 3b 5b 3a 22 bc 90 b5 e8 bc
       -0.0040341914 0.0056667943 -0.009901608 -0.028406888
000370 c8 de f6 bc 3d 7f 9b 3d 28 c7 6e bd e3 5a 55 3d
       -0.030135527 0.07592628 -0.0582954 0.05208863
000380 03 1f f3 3d e1 f6 b8 bd 81 bd 1b be a7 55 00 be
       0.118711494 -0.090314634 -0.15209009 -0.12532674
000390 3d 27 10 bd c5 b2 d4 3c 7f 81 b9 bd 6b af 4e bc
       -0.03519367 0.02596415 -0.090579025 -0.012615065
0003a0 a5 8c 35 bc f1 c1 29 3d 5b 02 12 3d 5e bf 45 3e
       -0.011080896 0.041444723 0.035646778 0.19311282
0003b0 42 38 73 3e 7d 67 2f 3e 87 53 f6 3d 8f fa 00 3e
       0.2375193 0.17129321 0.1202765 0.1259558
0003c0 8c c4 07 3e bd 42 e8 3d 55 af 21 3c b5 cc ce bc
       0.1325857 0.11340854 0.009868463 -0.025244096
0003d0 a0 b3 07 3e d2 e0 95 3c 0f f7 9c bd e0 85 5e bd
       0.13252115 0.01829568 -0.0766431 -0.054326892
0003e0 c1 62 a8 3d 26 2d b8 3d c7 5f f6 bd 76 dc da 3d
       0.08221961 0.089929864 -0.12029987 0.10686581
0003f0 a3 5c 88 3c 25 cc 8f 3d 8e db af bd 0f 6a 08 3d
       0.016645735 0.07021359 -0.085867986 0.03330427

conceptizer.decoder.2.0.bias f4 [8]
000000 d6 46 5c 3c eb b4 2f 3d ce 29 2a 3d 65 b1 34 3d
       0.013444623 0.042897146 0.041543774 0.04411449
000010 90 e5 87 3d a8 a7 cb 3b c1 3c 42 3e cb 8e 90 bd
       0.066355824 0.0062150545 0.18968488 -0.070584856

conceptizer.decoder.4.0.weight f4 [8, 1, 2, 2]
000000 aa f4 b1 bf 9b 6d 3e bf 97 a6 78 bf 8e 6b 86 be
       -1.390279 -0.74385995 -0.97129196 -0.26253933
000010 26 c3 36 3f bc f7 3a 3f be c9 37 3f 02 67 32 3f
       0.7139152 0.7303426 0.7179221 0.6968843
000020 ad e9 2e 3f 2b 79 68 3f bb 4b f1 3d 7d 3f 93 bc
       0.6832531 0.9080989 0.117820226 -0.01797461
000030 b5 d6 4e bf e3 20 72 bf d2 49 55 bf 8a 79 63 bf
       -0.80796367 -0.9458143 -0.83315766 -0.8885733
000040 5a bb 85 bf 5d ff 9b bf 8d 4b b8 3c 33 13 4f be
       -1.04478 -1.2187306 0.022496963 -0.20222168
000050 69 57 1b bf b0 45 7c be 9a 34 a3 bf ba 23 5c bf
       -0.6068025 -0.24635959 -1.2750428 -0.85992014
000060 cd 2a 63 bf b2 b8 82 bf db 4e 6e bf af 55 66 bf
       -0.88737184 -1.0212615 -0.93089074 -0.8997449
000070 d9 37 3d bd 46 13 89 bf c4 45 1b bf df 91 d1 bf
       -0.04619584 -1.0709007 -0.6065333 -1.6372641

conceptizer.unlinear.weight f4 [16, 1]
000000 8e 6b 4d bf 69 48 07 3f 6e f9 14 bf 97 b2 b4 bf
       -0.8024224 0.52844864 -0.581931 -1.4117001
000010 85 90 7a bf 68 1c 26 bf e8 a7 7b 3f e3 e3 54 bf
       -0.9787677 -0.64887094 0.9830308 -0.8316023
000020 55 6a 4e bf 9e 08 86 bf c9 77 97 3f 16 fd 24 3f
       -0.80631 -1.047138 1.183343 0.6444868
000030 b1 b0 8a bf 4f 7f 16 bd 04 9d 5a bf 94 1f 45 3f
       -1.0835172 -0.036742505 -0.85395837 0.7700131

conceptizer.unlinear.bias f4 [16]
000000 84 1b 42 3f de 2b dc bd 5e 48 86 bf b8 50 26 3f
       0.75823236 -0.107505545 -1.0490835 0.6496692
000010 d1 f5 9b 3e 43 6d 15 3e 32 f2 0f bf 12 9d 1d 3f
       0.3046098 0.14592461 -0.56228936 0.61567795
000020 84 07 de bb b3 19 4a bf ea e7 4b bf 23 59 4a 3f
       -0.0067757983 -0.78945464 -0.7965075 0.7904226
000030 4f 8e 9e be f3 98 33 bf 5b c3 3f bf 72 53 ec 3e
       -0.30967948 -0.70155257 -0.74907464 0.46157414

parameterizer.cl_layers.0.weight f4 [10, 1, 5, 5]
000000 ab 0e 1b 3e 78 02 e7 bc 89 38 bc 3d f1 0a 29 3e
       0.15142314 -0.02819942 0.09190471 0.1650808
000010 a2 78 f1 3d 66 cc 40 bc 66 9c 7a 3e e6 56 79 bd
       0.11790587 -0.011767482 0.24473724 -0.06087389
000020 b6 8f f3 bd 06 98 6b bd 5f 5a 09 3d c0 ac a6 3d
       -0.11892645 -0.057518028 0.03353345 0.08138418
000030 a7 d4 de 3d 7a d9 97 3e 89 6d 8a 3e 7e 99 68 be
       0.10880404 0.2965811 0.27036694 -0.22714803
000040 c1 60 ca bd 57 cd f5 bd c3 9c 2f be d0 e2 4d be
       -0.098817356 -0.12002056 -0.17149644 -0.20106053
000050 ff 6a c4 bd 92 9e 58 be 7c fb 56 be c0 38 3c be
       -0.095907204 -0.2115424 -0.20994371 -0.18381023
000060 69 70 05 be 3c de b5 bd 3e bd b5 bd 39 26 41 3e
       -0.13031162 -0.088802785 -0.08873986 0.18862237
000070 f1 ab 88 bd 9f 25 3f 3c 87 7f 03 be 4a e3 03 be
       -0.0667342 0.011666684 -0.12841617 -0.12879673
000080 bb 5e ce bd 84 2a 5e bc 2a a1 12 bc 3c ba 0f be
       -0.10076662 -0.013559941 -0.008949557 -0.14035887
000090 1c 9d 95 3d 0c f7 4a be f6 83 60 3c 52 4b ba bd
       0.07305357 -0.19820803 0.013703337 -0.090963975
0000a0 ce 3b 53 3e 95 7b 0e be be 6e de 3c 7c 90 55 be
       0.20628282 -0.1391433 0.027152415 -0.20855898
0000b0 81 1f 01 be 2a a4 8c 3e bc 92 98 3d 9c d1 c4 bd
       -0.12609674 0.27468997 0.07449862 -0.09610292
0000c0 0d 1b b6 3e 9a 44 24 be 0e 51 5c bd 68 b1 02 3e
       0.35567513 -0.16041794 -0.053788237 0.12762988
0000d0 a3 53 18 3e db 48 16 3e eb a9 b3 3b 88 79 c7 3c
       0.14875655 0.1467623 0.0054829023 0.024349943
0000e0 b5 37 a8 bd dc a4 1c 3e 67 52 d5 3d 42 ad be 3d
       -0.0821375 0.15297264 0.104161076 0.0931039
0000f0 16 7a ae 3d 41 13 46 bb 8f 2b af bd 14 f2 f8 3d
       0.0851938 -0.0030223879 -0.0855323 0.12155548
000100 36 93 19 3e 95 f3 0c be 4a e5 0f be d7 08 ad 3a
       0.14997563 -0.13764794 -0.1405231 0.0013201487
000110 ab ad 04 bd bc 92 8d 3e f8 e4 24 bd 0c 1b 41 be
       -0.032392185 0.27651012 -0.040257424 -0.18857974
000120 1c 2e 16 be 55 d6 86 bd 17 0e d4 3e cb fb 17 bd
       -0.14666027 -0.06583849 0.41417 -0.037105363
000130 ce fa 55 3e dd 54 03 3e f0 95 ea 3d df 0a 34 3e
       0.20896456 0.12825342 0.114543796 0.17582272
000140 09 93 e8 3d 9b dd 6d 3b 5c c5 d4 3d 10 ee 16 3e
       0.1135617 0.0036295417 0.10389206 0.14739251
000150 b9 b1 10 3e 8f 50 0f be c6 0b 15 be f2 9c 75 be
       0.14130296 -0.13995574 -0.14555272 -0.23985651
000160 0b 88 38 be 82 a8 46 be b3 7e 2e 3e a3 73 36 be
       -0.18020646 -0.19400218 0.1704052 -0.1781755
000170 58 00 a3 3e e9 bb 00 be ed 30 d0 3d 66 f1 45 be
       0.318362 -0.12571682 0.10165582 -0.19330367
000180 d5 b1 12 be 73 05 1a 3d 31 7e 42 be 36 16 0d 3d
       -0.1432565 0.037602853 -0.1899345 0.03444501
000190 20 1f 8a 3d 6c ef 8a 3e 00 ee 04 be b3 2e 04 be
       0.06744218 0.2713579 -0.12981415 -0.1290844
0001a0 b3 16 e8 bd 9a 42 ab bc f8 fd 27 3e 57 9e 47 be
       -0.113324545 -0.020905782 0.16405475 -0.19493996
0001b0 6b e5 1b be 59 bb e6 bb f9 3c 99 3d 72 35 ee bc
       -0.15224235 -0.0070413765 0.07482333 -0.02907822
0001c0 20 00 41 be 92 35 e4 3d a1 72 2c bc 1f 62 4c 3e
       -0.18847704 0.1114303 -0.010525377 0.19959305
0001d0 c5 2b f2 bd a4 3c 37 be 62 f0 bc bd bd 82 db bc
       -0.118247546 -0.17894226 -0.09225537 -0.02679574
0001e0 f5 2f 0e bd f8 19 3f be c4 1e 5a be 22 e4 8c 3e
       -0.034713704 -0.1866225 -0.21300799 0.27517802
0001f0 da 97 64 bd 60 47 4b be 22 b3 cf bd 2b 46 27 3e
       -0.05580888 -0.19851446 -0.10141589 0.1633536
000200 16 9d d1 bd 1b 21 4d bd eb 76 56 3a 6c df 27 be
       -0.1023504 -0.0500804 0.00081811723 -0.16393822
000210 54 be 4c be 12 77 a2 3d a9 b7 a3 3e 05 02 f3 3d
       -0.1999448 0.07932867 0.3197606 0.118656196
000220 f1 52 96 be 03 3d 28 3e 34 95 f9 3d 34 8c e4 3c
       -0.29360154 0.16429524 0.12186661 0.027898885
000230 96 1a b3 3b 0f b1 87 be b6 5b 76 3d 4b df 35 3e
       0.005465816 -0.26502272 0.060146056 0.17760961
000240 d9 8b 09 3d 37 c4 53 be c3 bb 28 3e c7 94 57 bd
       0.033580635 -0.20680319 0.16477875 -0.05263212
000250 d2 2e 84 3e 13 2d a0 bb e3 f4 86 3d dc 1f 18 bd
       0.2581697 -0.0048881858 0.06589677 -0.03713976
000260 32 3c 5e bc bc fc 21 3e e1 0b 2c be 9e 29 c9 bc
       -0.013564156 0.15819067 -0.16801406 -0.024555977
000270 1c 63 3f bd 99 b2 61 3d 57 40 c2 bc 60 47 ec 3d
       -0.046725377 0.055101965 -0.02371232 0.11537051
000280 6b 23 33 3d 31 a8 47 be 9e f5 ec 3d 4b 27 32 be
       0.04373495 -0.19497754 0.11570285 -0.17397802
000290 03 99 db bd 89 ce ca bd 81 90 ff 3e 79 66 a3 be
       -0.10722544 -0.09902675 0.49914935 -0.31914118
0002a0 82 f4 18 3f 96 e2 63 be 5b 83 c7 bd 30 81 09 be
       0.5974809 -0.22254404 -0.09741851 -0.13428187
0002b0 a1 f7 f0 bd 87 2e 46 3d f2 31 1b bd 84 ed 3e 3e
       -0.117659815 0.048384216 -0.03788943 0.18645293
0002c0 b0 a5 ec bd 54 cf 8f bd e8 7c 36 be dc ef 59 3e
       -0.1155504 -0.070219666 -0.17821085 0.21282905
0002d0 4a c1 3f bc 1e 28 44 be 84 27 66 3e ab a0 cb bd
       -0.011703799 -0.19155928 0.22476012 -0.09942754
0002e0 b9 90 53 3c ce 33 b6 bd ed fd 88 3e e4 8a 8e be
       0.012912923 -0.088966 0.2675623 -0.2784034
0002f0 a8 9a 31 be c5 f0 59 bd 5d 4f 04 bb a2 5a 94 be
       -0.17344153 -0.05320813 -0.0020188906 -0.28975397
000300 5f 82 f3 3e 4c 6a b6 be 25 2f bb 3e 5e aa 98 3c
       0.47560403 -0.35627973 0.36559406 0.018635925
000310 58 e4 0a be 0a e0 03 3d 2e 9a 1c be 18 e0 27 be
       -0.13563669 0.032196082 -0.1529319 -0.16394079
000320 98 52 02 be 3d 73 1e be 58 10 05 be 80 84 93 3e
       -0.1272682 -0.15473647 -0.12994516 0.28812027
000330 9e 6c 3a be 70 8d b0 3e fd 50 3d 3c 42 15 da 3d
       -0.18205497 0.34482908 0.011554954 0.10648586
000340 03 cd 41 be c6 ae 6e 3e 4c 51 61 bd 3c 3f b4 bc
       -0.18925862 0.23308858 -0.05500917 -0.022002809
000350 76 ea 10 be 1f a0 61 3d 6f ce 3d bd 41 99 32 be
       -0.1415194 0.055084344 -0.04633945 -0.17441274
000360 a1 c8 90 3e 3b 1b 04 3e 2c 7a 1d be 18 43 13 be
       0.28278068 0.12901013 -0.15378636 -0.14381063
000370 e9 25 a1 3b 26 4e 81 be 01 8c 2a 3e 18 54 31 be
       0.0049178493 -0.25254935 0.1665497 -0.17317235
000380 37 20 93 3e 48 46 aa bd 74 0f 8d be ce 37 6c be
       0.28735515 -0.08314186 -0.27550852 -0.23068163
000390 71 b9 0f be d7 3f c1 3d f2 4a 7a bd b4 66 bf 3d
       -0.14035584 0.094360046 -0.06110663 0.09345761
0003a0 92 4f 0b 3e bc f5 c9 3d 29 d1 74 3d ad 71 01 3e
       0.13604572 0.09861323 0.059769783 0.1264102
0003b0 9e 10 24 3e d6 e6 c2 3e ca 44 9b 3c e7 da a0 bd
       0.16021964 0.3806674 0.0189537 -0.07854252
0003c0 4a 7e a6 3d 0d 19 0f 3d 4f 4c 99 bd 08 44 93 bb
       0.081295565 0.034936 -0.07485258 -0.004494194
0003d0 7d c0 ec bd 54 6e 49 bc 62 13 8a bd dc 27 07 be
       -0.11560152 -0.012294371 -0.06741978 -0.13198799
0003e0 06 b1 c5 bd 47 1a 2f 3e
       -0.09652905 0.17099868

parameterizer.cl_layers.0.bias f4 [10]
000000 85 0d 68 3d 50 2c 11 3e 3b 83 22 be 18 cc e1 3c
       0.05665352 0.1417706 -0.15870373 0.02756314
000010 fb c1 41 3c 60 25 85 3d a8 bb e3 bd d5 5a 70 be
       0.011826034 0.06501269 -0.11119777 -0.2347215
000020 3a 29 37 bd 38 f4 cd bb
       -0.04471705 -0.0062852167

parameterizer.cl_layers.3.weight f4 [20, 10, 5, 5]
000000 b6 e5 ef 3c 89 fd 46 bd 6d c7 65 bd b4 a1 15 be
       0.02928434 -0.048581634 -0.05609839 -0.14612466
000010 2a 26 25 bd c0 39 70 3c cf c8 a1 3b 81 75 c2 bd
       -0.0403196 0.014662206 0.0049372683 -0.09495068
000020 b9 f9 75 bd 03 83 31 bd d5 7a 72 bd ed e0 8a 3c
       -0.060052607 -0.043337833 -0.059199173 0.016952956
000030 08 da 5b bd ad b7 9c bd ea 4f 20 3c a0 50 5d 3d
       -0.053674728 -0.07652221 0.009784678 0.054031968
000040 45 cf de 3c 27 63 51 bd 28 19 88 bc f7 67 cb 3c
       0.027198443 -0.05111995 -0.016613558 0.024829848
000050 3c dd a5 3b 52 2a aa 3b 6c f7 b7 3c 79 e9 95 3b
       0.0050617736 0.0051930333 0.022456847 0.0045749513
000060 86 a0 32 bc 47 6f 20 bd 90 c4 ab 3d 55 9e 70 bd
       -0.01090253 -0.039168622 0.08387101 -0.058744747
000070 8b 87 39 bd 2c 11 5a bc 69 86 18 bd 39 a7 d5 bb
       -0.04529528 -0.013309758 -0.03723756 -0.0065201786
000080 bf f5 bc bd dc fd 82 bd d4 de be 3c 0a 4d 89 bc
       -0.0922656 -0.06396076 0.023299612 -0.016760368
000090 30 05 69 bd 6a e9 20 3c b9 bd f9 bc b7 c0 e2 3c
       -0.056889713 0.009821275 -0.030485975 0.027679784
0000a0 88 0d 08 bd ab 86 e0 3b 52 04 a5 bc b4 f0 40 bd
       -0.03321603 0.006851991 -0.020143662 -0.047104552
0000b0 44 11 b3 bc f8 fe 60 bb 11 dd f4 bb c3 2e 9c bc
       -0.021858819 -0.003433166 -0.007472642 -0.019065266
0000c0 a9 fd 6d 3d ee 6a 61 3d 24 0a 10 3e 6f 7b 0d 3d
       0.058103237 0.055033617 0.14066368 0.034541544
0000d0 b1 06 4c 3d 0d dc 9c bc 2c 67 17 bc 67 22 39 3d
       0.04981107 -0.019147897 -0.009240907 0.045198824
0000e0 a9 df 59 3c a7 ed f7 3c a2 42 68 bd 89 b5 70 bd
       0.013297954 0.030264689 -0.05670417 -0.058766875
0000f0 ed b5 0f 3d b0 bf 77 3c 38 ec 80 bd 36 06 91 bd
       0.035085607 0.015121385 -0.06295055 -0.07081263
000100 54 ce 32 bd ef 4f a7 bb 0a c4 02 3d 3d 8a 84 3b
       -0.0436538 -0.0051059644 0.03192524 0.0040447996
000110 ae a0 80 3c 8e f3 8a bd 2f ce 22 3c 7b 9d 9a 3c
       0.015701618 -0.067847356 0.009936853 0.01887392
000120 3e 59 be 3d 87 a8 a4 3d 35 6c ee 3c d0 6c b4 3c
       0.09294365 0.080399565 0.029104332 0.022024542
000130 bf 64 cb bc 83 f3 e8 3b e5 00 8e bd 67 dd 8c bd
       -0.024828313 0.007109107 -0.06933764 -0.06878167
000140 02 02 82 bc 47 fd 02 bd f0 76 34 bd f8 ce 57 3c
       -0.015870098 -0.031979825 -0.04405874 0.013171904
000150 a7 e6 3c bd 31 0b 85 3c 6b 5b 4e bc 4b 97 af bd
       -0.046118405 0.016240688 -0.012595038 -0.08573779
000160 7b c8 f8 bd ec f2 32 3c 64 8a 42 3c 47 65 da 3a
       -0.121476136 0.010922175 0.011873815 0.0016662263
000170 5d f8 9c bc c4 4c 15 bd 0d 92 2b bd 18 37 98 3d
       -0.019161398 -0.036450163 -0.04188733 0.07432383
000180 72 4f 2c bd 48 2e 14 bd 53 94 15 3d 6b 5e f6 bc
       -0.042067952 -0.03617695 0.036518406 -0.030074319
000190 f1 10 5d bc 04 08 03 bc 70 64 d1 3b db 21 5d 3d
       -0.013492809 -0.007997517 0.006390147 0.053987365
0001a0 a9 52 a8 bb cd 9b 47 3c 23 05 6c bb 2b ad 4d bd
       -0.005136807 0.012183142 -0.0036013804 -0.050213974
0001b0 8e 29 8b bc c2 07 91 3d b0 1e 32 bc 1b b4 c3 3c
       -0.016987588 0.07081558 -0.010871574 0.023889592
0001c0 7c 57 a0 3d a6 83 64 3c b4 0a b1 3d cb bd b5 3a
       0.07829186 0.013947403 0.086446196 0.0013865767
0001d0 e0 fb 6e 3d f9 cc 9e 3a 71 6e e0 3c ab 16 c5 bc
       0.058345675 0.001211553 0.027396413 -0.02405866
0001e0 7e 4a 9c 3d 79 46 59 3c 1a 58 5a bb 5d 43 22 bd
       0.07631396 0.013261431 -0.0033316673 -0.039615024
0001f0 78 2f 47 3c 51 6e 4f bd 86 33 ca 3c 16 41 1c 3d
       0.0121573135 -0.050642315 0.024682771 0.03814801
000200 1e 32 6b 3d ad 16 8a 3d 0d 1a d8 bc 93 5a 3f 3d
       0.057420842 0.06742606 -0.02637961 0.046717238
000210 15 9c b2 3d 4c 5c ad 3d b6 62 0a 3d b3 5b 2b bd
       0.087211765 0.0846487 0.033785544 -0.041835498
000220 52 91 23 3d f6 69 69 3d 85 3a 81 3d c7 aa 30 bc
       0.03993351 0.056985818 0.0630999 -0.010782904
000230 8c 8d 02 bb 41 c5 10 3c 5a 2f 2d 3d be 43 a3 3d
       -0.0019920794 0.0088360915 0.042281486 0.07971905
000240 a7 29 77 bd 9c 7b a8 bb 51 98 0b bd 0a 4c 34 bd
       -0.060342457 -0.0051416885 -0.034080807 -0.04401783
000250 7c 10 6d bd 82 bc 38 bc 60 85 62 bd e2 98 28 3e
       -0.05787705 -0.0112754125 -0.055302978 0.1646457
000260 7e 42 25 3e 57 17 82 39 66 33 0f 3c cc 37 a0 bd
       0.16138646 0.00024812922 0.008740282 -0.078231424
000270 8b 53 5c bd e5 21 55 bd 32 cf 1e bd b4 14 b4 3c
       -0.05379061 -0.052034277 -0.038771816 0.021982528
000280 28 4a 85 3d c7 3d 29 3a ef d2 e8 3c ab 6c f2 3c
       0.06508285 0.0006456044 0.028420893 0.029592833
000290 d0 e1 04 3a f0 fb 22 3d b6 b1 50 3d 06 80 ad bb
       0.0005069049 0.039791048 0.05095073 -0.0052948026
0002a0 37 4c c5 bc ee 2c 90 3c ca cd 0b 3d 8c 92 26 bd
       -0.024084194 0.01759955 0.034131803 -0.0406671
0002b0 74 a7 37 3d a0 4c 3d 3d 75 54 f8 3c a9 9d 09 bd
       0.04483743 0.046215653 0.03031371 -0.033597622
0002c0 50 6e ed 3d 34 c5 a7 3d 19 ff 82 bd 7d 7d 19 bd
       0.11593306 0.081919104 -0.06396312 -0.03747319
0002d0 5c 4c f2 bd 54 ed 78 bc fe 86 54 3d d8 12 15 bc
       -0.11830971 -0.015193302 0.05188655 -0.009098731
0002e0 59 66 a3 bc bf f6 98 bd e5 1e 45 3b 9b ea e7 bb
       -0.019946264 -0.07468938 0.003007823 -0.0070775277
0002f0 48 02 ad 3d 2f 79 5f 3b 98 9f 61 bd 32 cf 4a bd
       0.08447701 0.003409933 -0.05508384 -0.049514003
000300 b8 c1 8c 3c 01 2d f2 3c f8 17 fe 3c c7 5b 86 bd
       0.017182216 0.029562475 0.031017289 -0.06560474
000310 df 99 4d bd a9 ae 79 3d a9 d7 44 3c 70 b6 cd bd
       -0.05019557 0.060957585 0.012014308 -0.10044563
000320 45 a6 0c 3c 03 6e 20 3e d7 cd cc 3d 96 c7 c8 3d
       0.008584564 0.15666966 0.10000198 0.09803693
000330 9b 2f b6 3b cb b1 47 bd db 8a 49 3d ee cb a6 3d
       0.0055598742 -0.04875354 0.04920469 0.08144365
000340 49 55 17 3d 8a 5b f7 3c 47 2b 3b bd 6c 27 9c 3c
       0.03694657 0.030195016 -0.04569557 0.019061767
000350 ae a4 0d 3d 70 9b 43 bd 25 8f 21 bc 36 77 9f 3d
       0.03458088 -0.04775566 -0.0098607885 0.077864096
000360 33 ab 79 bd d3 aa 35 bc d2 a6 09 bd ab 75 3d bd
       -0.060954284 -0.011088091 -0.033606358 -0.046254795
000370 83 6d 1a bd f9 fd c0 3a cc d1 9e 3c b6 7b a0 3c
       -0.037702095 0.0014724127 0.019387148 0.01959024
000380 ab 75 14 3c 17 3e 95 3d 83 72 33 3d 14 6e 5d bd
       0.009061257 0.07287233 0.04381038 -0.054060057
000390 fa e6 49 3c a3 f8 07 3d 9d 3b ea bc 41 66 0e 3c
       0.0123231355 0.033196103 -0.028592879 0.008691371
0003a0 21 8a 93 3c 05 7a 22 bc 01 4d b4 3d c4 2b 8d 3d
       0.018010201 -0.009916787 0.0880375 0.06893113
0003b0 98 8c 9b 3d a0 06 15 3d 06 2f 85 3c c2 36 9c 3d
       0.075951755 0.03638327 0.016257774 0.07627632
0003c0 98 89 a9 3d f1 e8 47 3d 42 58 fe bc 1d 40 42 bd
       0.08278197 0.048806135 -0.031047944 -0.047424424
0003d0 71 7f 42 3d 38 c0 0c 3d c4 29 ef 3c ef e9 0c bd
       0.04748482 0.034363 0.02919472 -0.034402784
0003e0 f9 9f 67 bc 8f aa 38 3d cb ce 4e 3d 42 05 50 3c
       -0.014137262 0.045084532 0.050490182 0.012696566
0003f0 32 87 b5 3d 7a 59 0c 3d aa 0c 49 3d 89 54 11 3c
       0.08863677 0.03426502 0.049084343 0.008870252

parameterizer.cl_layers.3.bias f4 [20]
000000 26 cc 8b 3d 21 e8 f3 bc c1 19 1c 3d b8 cf 9f 3d
       0.068260476 -0.029773774 0.0381105 0.07803291
000010 db 08 33 bd db f6 d1 3b 88 69 9d 3d f6 14 20 bd
       -0.043709617 0.0064076013 0.07686144 -0.03908249
000020 15 71 06 3d aa 1f c9 bc ee 5d 77 3c 37 39 e9 bc
       0.032822687 -0.024551231 0.015098078 -0.028469665
000030 ef 30 18 bc 9a 6a a4 bc 2c eb 85 bd f3 56 a6 3b
       -0.00928901 -0.020070363 -0.06538996 0.005076283
000040 3f 6e 08 bc 9d 60 53 3c 05 db 2f bd 8c 91 b6 bc
       -0.008327066 0.012901452 -0.042933483 -0.022286199
