results/CONF_FASHION_MNIST/checkpoints/Epoch[20]-Step[5670].pt (torch, 374454 bytes, 66 tensors)

conceptizer.encoder.0.0.weight f4 [10, 1, 5, 5]
0	0xbe3b16ed	-0.18270464
1	0x3e2d8d55	0.16948445
2	0x3e46249b	0.19349901
3	0x3de12f62	0.10995366
4	0x3e0af7c8	0.13571084
5	0xbd85cc53	-0.065331124
6	0x3cc2cae4	0.023778386
7	0x3c9e0337	0.019288642
8	0x3e0e84a9	0.13917793
9	0xbd8c3b23	-0.06847217
10	0x3e113b99	0.14182891
11	0x3e08703f	0.13324068
12	0xbe2a55b2	-0.16634253
13	0x3df2e557	0.11860149
14	0xbd912bba	-0.07088418
15	0x3e81da0f	0.25361678
16	0x3e06ea2a	0.13175264
17	0x3df14f2a	0.117826775
18	0x3d4873c8	0.048938543
19	0xbdafad7b	-0.08578011
20	0x3ea43a1f	0.32075593
21	0x3aca7ad5	0.0015447984
22	0xbe05210f	-0.13000892
23	0xbe016c02	-0.12638858
24	0x3d9de4d3	0.077096604
25	0xbdb7a4be	-0.08966969
26	0x3dbebee0	0.0931375
27	0xbe0915db	-0.13387243
28	0xbe029873	-0.12753467
29	0xbe3099fb	-0.17246239
30	0xbc5d8a37	-0.0135217225
31	0xbd8696ce	-0.065717325
32	0xbe28824f	-0.16455959
33	0x3b73fb03	0.0037228472
34	0xbe373f0e	-0.17895147
35	0x3dcfb451	0.101418145
36	0xbdcf1b94	-0.10112682
37	0xbcce54a3	-0.025186842
38	0xbe0fb33c	-0.14033216
39	0xbe1e9de4	-0.15489918
40	0xbe5f5d8a	-0.21813026
41	0xbca68ea6	-0.020331692
42	0xbcb9a6ff	-0.022662638
43	0x3d88a02a	0.06671174
44	0xbd36fceb	-0.044674795
45	0xbbc8ecd6	-0.0061317487
46	0x3ccdf63e	0.025141831
47	0xbdb1bb40	-0.08678293
48	0xbe44243f	-0.19154452
49	0xbd0a0ae9	-0.03370181
50	0x3ca8e8f7	0.020618899
51	0xbe0a4a21	-0.1350484
52	0x3deb3eca	0.114865854
53	0xbcd9c652	-0.026583824
54	0xbde78d1f	-0.113062136
55	0xbda230ad	-0.079194404
56	0xbe0496c3	-0.12948136
57	0x3bb65a9c	0.0055650007
58	0xbe1b5ac8	-0.15171349
59	0xbdf599d4	-0.11992231
60	0xbe4d098f	-0.20023178
61	0x3e1be753	0.15224962
62	0xbd600a0d	-0.054697085
63	0xbe11deb4	-0.14245111
64	0xbc73db3b	-0.014883812
65	0xbdcf5107	-0.101228766
66	0xbd02ebb6	-0.031963073
67	0xbe3ee507	-0.18642054
68	0xbd9a170a	-0.075239256
69	0xbe187b39	-0.14890756
70	0x3daaf5d2	0.08347668
71	0x38e170b2	0.00010749827
72	0x3d29bb3b	0.041438323
73	0xbc65c695	-0.014024396
74	0xbe07fc89	-0.13279928
75	0xbdf81289	-0.1211291
76	0xbd49ecf4	-0.04929824
77	0x3d77e167	0.060517695
78	0xbd9d3563	-0.07676198
79	0xbdd3cd05	-0.10341839
80	0xbdf41810	-0.11918652
81	0xbc94ae4c	-0.018149517
82	0xbdb0ecec	-0.08638939
83	0xbd38772b	-0.045035522
84	0x3da60366	0.08106117
85	0xbe404142	-0.18774894
86	0xbe306285	-0.17225082
87	0x3d91d57e	0.071207985
88	0xbe26b9ab	-0.16281764
89	0xbcf4c1bb	-0.029877534
90	0xbd96afee	-0.07357775
91	0xbded33a9	-0.11582119
92	0x3c254566	0.010087347
93	0xbdadd17d	-0.08487222
94	0xbd6ceb9c	-0.057841882
95	0xbd8ecf42	-0.06973125
96	0xbd1638ec	-0.03667538
97	0xbe4970c5	-0.19671924
98	0xbd868ed7	-0.06570213
99	0x3da0ac8a	0.07845409
100	0x3d89e42b	0.06732973
101	0xbe354d5c	-0.17705292
102	0x3d4c9c03	0.049953472
103	0x3d8b1788	0.067915976
104	0x3df89134	0.1213707
105	0x3d2c00d9	0.041992996
106	0xbe3577c8	-0.17721474
107	0xbb6c5da7	-0.0036066563
108	0x3dfaffa5	0.122557916
109	0xbe4ea3f3	-0.20179729
110	0x3d1b7b0f	0.037959155
111	0x3cfc3660	0.030787647
112	0xbe2b7dce	-0.1674721
113	0xbe404c94	-0.18779212
114	0xbd8afafd	-0.067861535
115	0xbd194629	-0.037420426
116	0xbdecf28f	-0.11569702
117	0x3dbd2542	0.09235622
118	0xbe21ef90	-0.15814042
119	0x3ccdbed0	0.0251154
120	0xbbb4e37d	-0.005520283
121	0x3d92d6bd	0.07169864
122	0xbde0994d	-0.1096674
123	0xbe364d70	-0.17802978
124	0xbc70ee48	-0.014705248
125	0xbb440479	-0.0029909892
126	0x3df764f2	0.12079801
127	0x3db07cc5	0.08617548
128	0x3d8e7726	0.069563195
129	0xbcf7a820	-0.030231535
130	0xbdd37cad	-0.103265144
131	0xbe14945a	-0.14509717
132	0x3dc3c8ae	0.09559761
133	0x3d169aea	0.03676883
134	0xbe172243	-0.14759164
135	0x3e0cd9ae	0.13754913
136	0x3d0cb3ea	0.034351267
137	0x3d89777d	0.06712244
138	0xbe07b060	-0.13250875
139	0xbe584afb	-0.21122353
140	0xbe0b75ca	-0.13619152
141	0x3e327a1f	0.17429398
142	0x3e2ddeab	0.16979472
143	0xbda36a3e	-0.079792485
144	0xbe83398a	-0.25629836
145	0x3e0a83e3	0.13526873
146	0x3e8ea33e	0.2785892
147	0x3e4810ba	0.1953763
148	0xbe20faeb	-0.15720718
149	0xbde2cbb2	-0.11074008
150	0x3e462696	0.19350657
151	0xbe063b57	-0.13108574
152	0x3ddcd8d8	0.10783547
153	0x3e664cd9	0.22490253
154	0x3e372ad4	0.17887431
155	0xbd7a48b9	-0.06110451
156	0x3e28a587	0.16469394
157	0xbc60c77b	-0.013719435
158	0x3e262038	0.16223228
159	0x3e4ba87f	0.19888495
160	0xbdd2588e	-0.10270797
161	0xbd1ca174	-0.03823991
162	0xbd91e676	-0.07124035
163	0xbddbaeaf	-0.107266776
164	0xbe1aca28	-0.15116179
165	0xbe0bd474	-0.13655263
166	0x3e2cb08b	0.16864221
167	0x3d61fd47	0.055173185
168	0xbdee4917	-0.116350345
169	0xbe47868f	-0.19484924
170	0xbde6e349	-0.1127382
171	0x3cd6eacd	0.026235009
172	0xbe6931e5	-0.2277294
173	0xbd2d81af	-0.042360004
174	0xbca6e0c4	-0.020370848
175	0xbdd21a8a	-0.10258968
176	0xbd8a082c	-0.0673984
177	0xbe66d590	-0.22542405
178	0xbe6988ca	-0.22806087
179	0x3dad9889	0.084763594
180	0xbdbbb40b	-0.091652
181	0xbe3987a9	-0.18118156
182	0xbc56794f	-0.013090446
183	0x3c7190fa	0.014744038
184	0xbdb8c6ca	-0.09022291
185	0x3e10489b	0.14090197
186	0xbd5d1e0f	-0.053983744
187	0x3de0e084	0.10980323
188	0x3e540d2b	0.20708148
189	0x3d9bc59a	0.07606049
190	0x3e5f95e6	0.21834525
191	0xbd555fa0	-0.05209315
192	0x3db88ae5	0.09010867
193	0xbc0d24fc	-0.008614775
194	0xbd30483a	-0.04303763
195	0x3e2418db	0.16025107
196	0x3e8ca7a9	0.27471665
197	0xbd80c007	-0.06286626
198	0x3d3b19f5	0.04567905
199	0x3dd6052e	0.10450207
200	0x3e575ee9	0.21032299
201	0x3d541e6c	0.051786825
202	0x3d268598	0.04065475
203	0x3ce64182	0.028107408
204	0xbdb31750	-0.08744681
205	0x3e40a7c2	0.18813995
206	0x3dc82d18	0.09774226
207	0xbe04ea7c	-0.12980074
208	0xbe250e33	-0.16118698
209	0x3e1e95d1	0.15486838
210	0x3e626056	0.22107062
211	0xbdb4d05e	-0.088288054
212	0xbdb865ac	-0.09003767
213	0xbe0e065b	-0.13869612
214	0xbe355426	-0.17707881
215	0x3df5da70	0.12004554
216	0x3d17f21a	0.03709612
217	0x3de2c20f	0.1107217
218	0xbe306bad	-0.17228575
219	0xbc48b25a	-0.012249554
220	0xbe353903	-0.1769753
221	0x3dc824c2	0.09772636
222	0xbd101e54	-0.035185173
223	0xbda4520e	-0.08023463
224	0x3dd02a57	0.10164326
225	0x3d932474	0.07184687
226	0x3e5c35e9	0.2150494
227	0x3e5d3b69	0.21604694
228	0x3e01faf9	0.12693395
229	0x3c03f798	0.008054636
230	0xbdf9f5cd	-0.12205086
231	0x3cf30576	0.02966569
232	0x3e463166	0.19354782
233	0xbdae7743	-0.08518841
234	0x3d117b02	0.0355177
235	0xbc977f5a	-0.018493343
236	0x3dedc36f	0.116095416
237	0x3e4975d7	0.19673859
238	0xbe0c37f8	-0.13693225
239	0x3d93d694	0.07218662
240	0xbde3eeeb	-0.11129554
241	0x3e11b35c	0.14228576
242	0x3c416316	0.011803409
243	0xbde8e335	-0.11371461
244	0x3d2b75a1	0.041860227
245	0xbc8432b6	-0.016137462
246	0x3db081ba	0.086184934
247	0x3e939e15	0.28831545
248	0x3e82b061	0.2552519
249	0x3cfbc679	0.030734288

conceptizer.encoder.0.0.bias f4 [10]
0	0x3d910826	0.07081632
1	0x3deee1c9	0.11664159
2	0x3e40f11b	0.18841974
3	0xbd9f05a1	-0.077647455
4	0x3e3fb090	0.18719697
5	0x3da0c2a1	0.078496225
6	0xbd3537a3	-0.044242512
7	0x3c426e4d	0.011867118
8	0x3dc46c49	0.09590966
9	0x3dba2e27	0.09090834

conceptizer.encoder.1.0.weight f4 [5, 10, 5, 5]
0	0xbd470eff	-0.048598286
1	0x3a61ef4f	0.00086187286
2	0x3d7ab276	0.06120535
3	0x3d9709ba	0.07374902
4	0x39d5051e	0.00040630338
5	0xbc9087bd	-0.01764285
6	0x3cfed11b	0.031105569
7	0x3c06ec41	0.008235038
8	0xbd48875b	-0.04895721
9	0x3d3b9c66	0.04580345
10	0xbd91df53	-0.07122674
11	0x3d076ad7	0.033060875
12	0xbd03fcfc	-0.032223687
13	0x3c01495b	0.007891024
14	0xbcf6b1e1	-0.030114116
15	0x3c6e97eb	0.014562587
16	0x3d29bf68	0.041442305
17	0x3d309783	0.043113243
18	0x3b99e2b6	0.0046962155
19	0xbc45cbb4	-0.012072492
20	0x3c1cd0dc	0.00957128
21	0xbca6dce5	-0.020369003
22	0x3ccee963	0.025257772
23	0x3c9dc6d0	0.01925984
24	0xbd35a632	-0.04434795
25	0x3d850d98	0.064967334
26	0x3bfbf540	0.007689148
27	0x3c02937c	0.007969733
28	0xbc3547ba	-0.011064464
29	0xbc18f17e	-0.00933492
30	0x3d819aa6	0.06328325
31	0x3c0f0afc	0.008730646
32	0xbd4b887c	-0.04969071
33	0x3cdb98ac	0.026806198
34	0x3d6395f7	0.05556294
35	0x3cb09615	0.02155594
36	0x3d17a322	0.03702081
37	0x3d12f9fa	0.035882927
38	0x3c6575f6	0.014005175
39	0x3ab82a65	0.001405072
40	0xbce05062	-0.02738208
41	0xbb218110	-0.0024643578
42	0xbd1cb992	-0.03826291
43	0x3da9eaf7	0.08296769
44	0x3d619046	0.05506923
45	0x3c6d9012	0.014499681
46	0x3da3530f	0.079748265
47	0xbb102949	-0.0021997264
48	0x3b9c5ee5	0.0047720545
49	0xbcab2869	-0.020893293
50	0x3d1dd47c	0.03853272
51	0xbc00c28c	-0.007858884
52	0xbcd8ecd2	-0.026480112
53	0xbd10cdf0	-0.035352647
54	0xbcf15aff	-0.029462336
55	0x3c26cec7	0.0101811355
56	0xbbca5385	-0.006174507
57	0x3d1c9778	0.03823039
58	0xbcf0f579	-0.029413925
59	0x3dade206	0.08490376
60	0x3d5c6d94	0.05381544
61	0x3d18f34f	0.037341412
62	0x3cb530af	0.02211794
63	0xbc6e8b6f	-0.014559611
64	0x3c76ce58	0.015063845
65	0x3d0c353a	0.03423045
66	0x3c3e8478	0.011628263
67	0xbcd01a68	-0.025403216
68	0x3d00e902	0.031472214
69	0xbd0691cf	-0.032853898
70	0x3d346b51	0.044047657
71	0xbc6d7ea5	-0.014495526
72	0x3d554a1b	0.052072626
73	0x3d6a9941	0.05727506
74	0x3cb55eae	0.022139873
75	0xbce05d78	-0.02738832
76	0xbd13527e	-0.035967343
77	0xbd2d72ea	-0.04234592
78	0xbb0ec11e	-0.0021782587
79	0x3d18c565	0.037297625
80	0x3d9a0f65	0.075224675
81	0x3d301412	0.04298789
82	0xbd010385	-0.031497497
83	0x3d88ecd1	0.06685794
84	0x3d8b9d40	0.068171024
85	0x3da038e8	0.07823354
86	0x3bf9bcd0	0.007621385
87	0xbc858eee	-0.016303506
88	0x3ccf460e	0.02530196
89	0x3b12ea3e	0.0022417451
90	0xbd7955bf	-0.06087279
91	0xbd2a75be	-0.041616194
92	0xbc55e536	-0.013055136
93	0x3d130408	0.035892516
94	0x3ca59727	0.020213677
95	0x3cb79030	0.022407621
96	0xbbc654ea	-0.006052603
97	0x3d8629f7	0.06550973
98	0x3db5536d	0.08853803
99	0x3da42e73	0.08016672
100	0x3d3edd04	0.046597496
101	0xbcd634be	-0.026148196
102	0xbc6ba556	-0.014382681
103	0x3c477efd	0.012176272
104	0xba6d10c2	-0.00090433296
105	0xbcd8f57e	-0.026484247
106	0xbcaf5299	-0.02140169
107	0xbc207ae2	-0.009794923
108	0x3d4c79db	0.049920898
109	0x3d5bef23	0.053694855
110	0x3d19b980	0.037530422
111	0xbcd887d2	-0.026431952
112	0x3d98835c	0.0744693
113	0xbc00561e	-0.007833032
114	0xbcc0c328	-0.023530558
115	0xbcb311dd	-0.021859104
116	0x3d54b946	0.051934503
117	0x3c95df0a	0.01829483
118	0x3ccbf217	0.02489571
119	0x3d11759f	0.035512563
120	0xbd6cb9b7	-0.0577943
121	0x3cbeca38	0.023289785
122	0x3d41c402	0.04730607
123	0x3d0b8bad	0.034068752
124	0x3c3db542	0.01157886
125	0x3c8d6c24	0.01726348
126	0x3d1c3d3b	0.03814433
127	0x3c6743a7	0.014115251
128	0x3bd23ef6	0.006416197
129	0x3cb27707	0.021785272
130	0xbd0ec4d3	-0.034855675
131	0x3c692315	0.014229556
132	0x3b99b8ee	0.004691235
133	0x3ad58081	0.0016288907
134	0x3c078ccf	0.0082733175
135	0xbc7bf228	-0.015377559
136	0x3c599822	0.0132809
137	0x3d1ed734	0.038779452
138	0xbbabd249	-0.005243574
139	0x3cc112df	0.023568569
140	0x3cdf9a02	0.027295116
141	0xbca51243	-0.02015031
142	0x3c47d0f6	0.012195816
143	0xbd3ef79b	-0.046622854
144	0xbcb743df	-0.02237123
145	0x3c874846	0.016513955
146	0x3d17501a	0.036941625
147	0xbd9cc17c	-0.07654092
148	0xbd6ae7a9	-0.057349835
149	0xbca5ac99	-0.020223903
150	0x3d0619ec	0.032739565
151	0x3c1a5f38	0.009422116
152	0x3c9f1d10	0.019423038
153	0x3c7faa62	0.015604587
154	0x3e26420d	0.16236134
155	0x3bd25749	0.0064190966
156	0x3b97fdaf	0.0046383957
157	0x3ba5562d	0.0050456733
158	0xbd7b45cc	-0.06134586
159	0x3cbd9620	0.023142874
160	0x3d327e13	0.043577265
161	0x3d507212	0.050890036
162	0x3c784847	0.015153951
163	0xbc025817	-0.007955573
164	0x3d301257	0.04298624
165	0x3d9102c6	0.07080607
166	0xbc4c4aa4	-0.012468968
167	0xbca2f886	-0.019893896
168	0xbca56fe8	-0.020194963
169	0xbd398fcb	-0.045303147
170	0xbcebf2c2	-0.02880228
171	0xbbae516a	-0.005319764
172	0x3d4458ae	0.047936134
173	0xbc22614a	-0.009910891
174	0x3a9f264e	0.0012142153
175	0xbcd72aec	-0.026265584
176	0xbd3c41ee	-0.045961313
177	0xbcaccb24	-0.021092959
178	0xbb8a1940	-0.004214436
179	0xbcde49b3	-0.027134752
180	0x3c553884	0.013013963
181	0x3d3b8080	0.045776844
182	0xbd875fdb	-0.0661008
183	0x3b404faf	0.002934437
184	0xbd8010f2	-0.06253232
185	0x3d31feff	0.043456074
186	0x3c7f2849	0.01557357
187	0xbcddbd51	-0.027067812
188	0x39028727	0.00012448114
189	0x3cec8116	0.028870147
190	0x3cd508cf	0.026005177
191	0x3d6ce805	0.05783846
192	0xbc1834be	-0.0092899185
193	0x3c22da2f	0.009939714
194	0xbcdb9a34	-0.026806928
195	0xbd45a782	-0.04825545
196	0xbd778594	-0.060430124
197	0xbdfa4613	-0.12220397
198	0xbd46f869	-0.048576746
199	0xbe1c66ce	-0.15273592
200	0xbdec1a2d	-0.1152843
201	0x3d3fc551	0.046819035
202	0x3cc6fe91	0.024291309
203	0x3acb9c5c	0.001553427
204	0x3cc27fcb	0.023742577
205	0xbd9124d6	-0.07087104
206	0x3ca798bb	0.02045857
207	0x3ca6dc6e	0.020368781
208	0x3b9a9649	0.0047176224
209	0x3d4f1244	0.05055453
210	0xbd14848d	-0.036259223
211	0xbcefa9be	-0.029255744
212	0xbd88e783	-0.06684782
213	0x3c8e1dc2	0.017348174
214	0x3b5880c8	0.0033035744
215	0x3cacd879	0.021099316
216	0x3dbe728c	0.09299192
217	0x3d16e9ac	0.03684394
218	0xbc8544cf	-0.016268162
219	0x3d083448	0.033252984
220	0xbd389a68	-0.04506913
221	0x3d8c6377	0.06854909
222	0xbcde1030	-0.027107328
223	0x3b3be45d	0.002867005
224	0x3c9d1203	0.019173628
225	0xbd292db8	-0.041303366
226	0xbceb60ec	-0.02873274
227	0x3d4b60c7	0.04965284
228	0x3d8f3cb7	0.06994002
229	0x3d78cbcb	0.060741227
230	0x3b75c450	0.0037501045
231	0x3cd0b3a9	0.025476294
232	0x3b049a9b	0.0020233754
233	0xbdad5b5b	-0.0846469
234	0xbcb3ed68	-0.02196379
235	0xbc6d5cf4	-0.014487494
236	0x3cfd7c38	0.030943021
237	0xbd3586b7	-0.044317927
238	0x3caf8e9e	0.02143031
239	0xbd033e4c	-0.032041833
240	0x3ca035a0	0.01955682
241	0x3cb9d3f4	0.022684075
242	0x3cb05c11	0.021528276
243	0xbd2062d9	-0.03915677
244	0x3c55d42a	0.013051072
245	0xbc2d4bf8	-0.010577194
246	0xbc6e0daf	-0.01452963
247	0x3c2c8615	0.0105300145
248	0xbcd73d8f	-0.02627447
249	0xbd93fc89	-0.07225902
250	0x3dd89943	0.10576107
251	0x3d631001	0.055435184
252	0x3d8cce61	0.06875301
253	0x3ca57709	0.020198362
254	0x3bfa9cef	0.0076481025
255	0x3cd1e84e	0.025623467

conceptizer.encoder.1.0.bias f4 [5]
0	0xbcd0f482	-0.025507215
1	0x3d806bf1	0.06270588
2	0xbd0ce5d5	-0.034398872
3	0x3b2e090f	0.0026555692
4	0x3d1d6384	0.038424984

conceptizer.encoder.2.layers.0.weight f4 [1, 16]
0	0xbd8a6dfa	-0.067592576
1	0xbe5ce3e3	-0.21571307
2	0xbdbf6084	-0.09344581
3	0xbe31a7c0	-0.17349148
4	0x3e00d1c0	0.12580013
5	0x3dc48d5b	0.09597274
6	0x3da97a2c	0.082752556
7	0xbe16e355	-0.14735158
8	0xbe345bcb	-0.17613141
9	0xbdccec78	-0.1000604
10	0xbe6601ad	-0.22461577
11	0xbe8a7cd0	-0.2704835
12	0x3cb079f9	0.021542536
13	0xbdcab210	-0.09897244
14	0xbe5d11d9	-0.2158884
15	0x3e1f9d18	0.1558727

conceptizer.encoder.2.layers.1.weight f4 [1, 16]
0	0x3daf59f8	0.08562082
1	0xbe76705c	-0.24066299
2	0xbe066273	-0.13123493
3	0x3c1c393e	0.009535132
4	0xbdb527e4	-0.08845499
5	0x3db7bc18	0.08971423
6	0xbea0e17c	-0.3142203
7	0x3e10ce52	0.14141205
8	0x3c89cb06	0.016820442
9	0xbe846447	-0.25857756
10	0xbdc23104	-0.09482005
11	0xbc1df217	-0.009640238
12	0x3d5f2256	0.054476105
13	0xbd914c4a	-0.07094629
14	0x3dc0f582	0.09421827
15	0x3e087671	0.13326432

conceptizer.encoder.2.layers.2.weight f4 [1, 16]
0	0xbe836dac	-0.2566961
1	0x3dc6510a	0.09683426
2	0x3dcb9cd3	0.09942021
3	0x3e1b049d	0.15138479
4	0x3bf57645	0.0074909055
5	0xbe7f8520	-0.24953127
6	0x3dff2455	0.12458102
7	0xbdc37521	-0.09543825
8	0xbeb48f47	-0.35265562
9	0xbe576fd3	-0.21038751
10	0x3dc8749c	0.097878665
11	0xbe0e882a	-0.1391913
12	0xbe2dd86a	-0.16977087
13	0x3e0c1563	0.13680033
14	0x3dc60d5d	0.096705176
15	0xbdfd17e2	-0.12358071

conceptizer.encoder.2.layers.3.weight f4 [1, 16]
0	0x3e5bac37	0.21452413
1	0x3d900f98	0.07034224
2	0xbd232aba	-0.03983567
3	0x3e38dfd6	0.18054137
4	0x3c143700	0.009046316
5	0x3dd5ebee	0.10445391
6	0x3dce465a	0.10072012
7	0x3da4a35c	0.08038971
8	0xbd81ca18	-0.063373744
9	0x3e952b96	0.29134816
10	0xbdb57247	-0.08859687
11	0x3d9247f6	0.07142632
12	0x3e157532	0.14595488
13	0xbd819b93	-0.063285016
14	0xbe1f76f3	-0.1557272
15	0xbe1f18cc	-0.15536803

conceptizer.encoder.2.layers.4.weight f4 [1, 16]
0	0x3dd73d34	0.105097204
1	0xbe55ce26	-0.2087942
2	0x3d47f25d	0.04881512
3	0x3db3c083	0.08776953
4	0xbe8078ff	-0.25092313
5	0xbe2237cc	-0.15841597
6	0x3dfaea90	0.122517705
7	0xbda36463	-0.079781316
8	0xbdc69b28	-0.096975625
9	0xbe9891ea	-0.29798824
10	0xbe48327c	-0.19550508
11	0xbdc28069	-0.094971485
12	0x3d0e332a	0.034716763
13	0x3d7ed846	0.062217973
14	0x3c7ddd20	0.015494615
15	0xbd16d61d	-0.036825288

conceptizer.decoder.0.0.weight f4 [5, 16, 5, 5]
0	0x3bcbc6ac	0.006218752
1	0x3dec8a29	0.115497895
2	0x3d0e4af3	0.034739446
3	0x3da4f876	0.08055203
4	0x3e5b4c7e	0.21415898
5	0x3d132c6e	0.035931043
6	0x3dcd33cb	0.10019644
7	0x3d706dd0	0.058698475
8	0xbd5e846a	-0.0543255
9	0xbd79f374	-0.06102319
10	0x3e1d66fb	0.15371315
11	0x3dfa46cc	0.12220535
12	0xbd8b6d5d	-0.06807969
13	0x3db5d55e	0.08878587
14	0x3da34510	0.07972157
15	0x3ca984d2	0.020693216
16	0x3d7aa125	0.061188836
17	0x3d288d2e	0.041150264
18	0xbd0ac64a	-0.03388051
19	0xbda26f31	-0.07931364
20	0x3d6edcff	0.058316227
21	0xbe544d2a	-0.20732561
22	0xbe066dcb	-0.1312782
23	0x3e1a5aca	0.15073696
24	0x3e1628fc	0.14664072
25	0xbb9768ee	-0.004620663
26	0x3dcad54a	0.09903963
27	0x3d80a45c	0.06281349
28	0x3bbef8da	0.0058280053
29	0x3d714127	0.058900025
30	0x3d9104a2	0.07080962
31	0x3d7ff8a2	0.062492974
32	0xbde62151	-0.11236823
33	0x3dc67871	0.09690941
34	0x3e072526	0.13197765
35	0x3dc0f527	0.09421759
36	0xbc22c32e	-0.00993423
37	0x3e0896f8	0.1333884
38	0x3de7ad05	0.11312298
39	0xbb59a400	-0.0033209324
40	0x3cd17736	0.02556954
41	0xbe564d71	-0.20927979
42	0x3e82287a	0.25421506
43	0x3e0e1a55	0.13877232
44	0xbe524dbd	-0.20537467
45	0x3d1bbf7b	0.038024407
46	0x3cb4be97	0.022063537
47	0x3c5bc731	0.01341419
48	0xbddaf53f	-0.10691308
49	0x3c9de316	0.019273322
50	0x3e030e8d	0.1279852
51	0x3d05de17	0.032682505
52	0xbc91a723	-0.017779892
53	0x3d3b2aa8	0.045694977
54	0x3e070dff	0.13188933
55	0x3c085302	0.008320572
56	0x3dd4628f	0.10370361
57	0x3e15b38b	0.14619271
58	0xbdb33263	-0.08749845
59	0x3d9ac855	0.075577416
60	0x3d826714	0.06367317
61	0x3c79eb09	0.015253791
62	0x3d22f8f9	0.03978822
63	0xbd62801e	-0.055297963
64	0x3c134c46	0.008990353
65	0x3e2dc6c8	0.1697036
66	0x3ddc37a8	0.10752803
67	0xbcbeebd8	-0.023305818
68	0xbcf6f374	-0.030145384
69	0x3e69ecd0	0.22844243
70	0x3df672a5	0.120335855
71	0x3e265738	0.16244209
72	0x3d6ff801	0.058586124
73	0xbd84a9e5	-0.06477717
74	0xbe4145ff	-0.18874358
75	0xbd248d8c	-0.040174052
76	0x3cc526a9	0.024066286
77	0xbba457ce	-0.00501535
78	0x3dedd7c1	0.116134174
79	0x3d821a4c	0.06352672
80	0xbde6ee5e	-0.11275934
81	0xbc36ae03	-0.011149886
82	0xbbfaa47a	-0.0076490017
83	0xbdd2dbb3	-0.102958106
84	0xbd54beac	-0.05193965
85	0x3c255735	0.010091593
86	0xbe1c3825	-0.15255792
87	0xbded20f2	-0.115785494
88	0x3da5ab68	0.08089334
89	0x3e07d832	0.13266066
90	0x3ddc6509	0.107614584
91	0xbcb4faef	-0.02209231
92	0xbe0f7748	-0.14010346
93	0x3e153604	0.14571387
94	0xbdd35fd5	-0.10321013
95	0x3de68fce	0.11257897
96	0x3d2adf84	0.041717067
97	0x3de52545	0.11188749
98	0x3dc1637d	0.09442804
99	0x3e248268	0.16065371
100	0x3d64889e	0.05579435
101	0xbddc71d7	-0.10763901
102	0x3df30042	0.118652835
103	0x3d39fe1e	0.04540836
104	0x3e5f2b84	0.21793944
105	0xbcbbd0df	-0.022926746
106	0xbd359644	-0.044332758
107	0x3dc1f124	0.09469822
108	0xbdca3d16	-0.098749325
109	0xbcec5a57	-0.028851671
110	0x39d440d5	0.00040484095
111	0x3b3e8edd	0.0029076852
112	0x3c351fa6	0.011054909
113	0xbe3ac208	-0.1823808
114	0xbd328c83	-0.043591034
115	0x3d813579	0.06309027
116	0x3d935739	0.07194371
117	0x3dd99815	0.106247105
118	0xbddca1c9	-0.107730456
119	0xbe13241b	-0.14369242
120	0xbc77b1d7	-0.015118084
121	0xbcbab520	-0.022791445
122	0x3d171f8a	0.036895312
123	0x39d8c2e4	0.00041343935
124	0xbdd78244	-0.10522893
125	0x3e456b11	0.19279124
126	0xbc07970e	-0.00827576
127	0xbc6f34fa	-0.014600033
128	0x3ce63c8c	0.028105043
129	0x3ccbf144	0.024895318
130	0x3b25e063	0.0025310747
131	0xbe11de22	-0.14244893
132	0x3d1dab15	0.038493235
133	0x3cc121d8	0.023575708
134	0xbd07db5f	-0.033168193
135	0x3cd39775	0.025829056
136	0xbd64da2a	-0.05587212
137	0x3d2d2fa3	0.042281758
138	0xbc10ed0e	-0.008845581
139	0x3d0d85e6	0.034551524
140	0x3d92d364	0.07169226
141	0x3982214a	0.00024820335
142	0x3d2379a4	0.039910927
143	0xbe23c56f	-0.15993284
144	0x3c132d2e	0.00898294
145	0x3e16831b	0.1469845
146	0x3d011882	0.031517513
147	0x3d562a74	0.05228658
148	0xbe3c37ff	-0.18380736
149	0x3cf9f686	0.03051306
150	0x3d9b7bc3	0.07591965
151	0x3d959ee2	0.07305695
152	0x3cbe1cb9	0.023207055
153	0x3d8b4c20	0.06801629
154	0x3df2377c	0.11826989
155	0xbd1c2bea	-0.038127817
156	0x3dd2361f	0.10264229
157	0x3e10c567	0.14137803
158	0xbdc4b8e3	-0.09605577
159	0xbe6983cf	-0.22804187
160	0xb95dae62	-0.00021141165
161	0x3e04ef78	0.12981975
162	0x3d7fbf3f	0.062438246
163	0x3d4896af	0.048971828
164	0x3d7fcced	0.06245129
165	0x3d71afbf	0.059005495
166	0xbcdaad7e	-0.026694056
167	0x3d7f0793	0.062263083
168	0x3dbb087d	0.091324784
169	0xbcf961a8	-0.030442074
170	0x3d39dea7	0.045378353
171	0xbc37c0f0	-0.0112154335
172	0xbc91fdd7	-0.017821236
173	0xbda7e1bf	-0.081973545
174	0xbe386f35	-0.18011172
175	0x3e2dd0f8	0.16974247
176	0x3d876e63	0.066128515
177	0x3d6567b3	0.0560071
178	0x3e19ca2c	0.15018529
179	0x3e3a383c	0.18185514
180	0xbdbbfcc0	-0.091790676
181	0xbbbca540	-0.005757004
182	0x3d5f8eed	0.054579664
183	0x3ddfdc4e	0.10930692
184	0x3e03a0e9	0.12854351
185	0x3dbac8e0	0.09120345
186	0x3da1ff6f	0.07910048
187	0x3d252cd7	0.040325966
188	0xbd9e9655	-0.07743517
189	0xbd63767f	-0.05553293
190	0x3d0bac60	0.034099936
191	0x3d916a7c	0.071003884
192	0xbe356bb4	-0.17716867
193	0xbe274c10	-0.1633761
194	0x3bb49519	0.005510938
195	0x3d6038e5	0.05474176
196	0x3df8392e	0.12120281
197	0xbcfdd80c	-0.030986808
198	0xbe11a710	-0.14223886
199	0xbe6b671d	-0.22988553
200	0x3cf1c3e0	0.029512346
201	0xbd375e00	-0.04476738
202	0xbddc1634	-0.107464224
203	0x3d27614f	0.040864285
204	0x3de34892	0.11097826
205	0x3d3d5abd	0.046229113
206	0xbd20e643	-0.039282095
207	0xbdccb579	-0.09995551
208	0xbdd4c7c7	-0.10389667
209	0x3e094c77	0.13408075
210	0x3dab6b20	0.08370042
211	0x3d29525b	0.041338306
212	0xbe2b0733	-0.16701965
213	0x3d5f29b7	0.05448314
214	0x3dd5ec27	0.10445433
215	0x3e2d471d	0.16921659
216	0x3e01350e	0.12617895
217	0xbbef77d7	-0.007307987
218	0xbc88722a	-0.016656
219	0x3df40008	0.119140685
220	0x3d4992be	0.04921221
221	0xbe269e44	-0.16271311
222	0xbe2f00b3	-0.1709011
223	0xbd593062	-0.053024657
224	0x3dcc6aa4	0.099812776
225	0x3dbac518	0.09119624
226	0x3e027389	0.12739386
227	0x3d1da7c0	0.038490057
228	0x3d8ca8fb	0.06868168
229	0xbbce786a	-0.0063009756
230	0x3d85aff2	0.065276995
231	0x3c9819cb	0.018566987
232	0x3ca37c2d	0.019956673
233	0x3c46c6f4	0.012132395
234	0x3e258bb3	0.16166572
235	0x3d9d0bfa	0.076683
236	0x3e24a82c	0.16079777
237	0xbcbe9d0c	-0.023268245
238	0x3d5711a0	0.052507043
239	0x3bfd3a72	0.0077279145
240	0x3d797154	0.060899094
241	0xbccdb087	-0.025108589
242	0xbe0250ac	-0.12726086
243	0x3cfc625e	0.030808624
244	0xbe030024	-0.12793022
245	0x3db67b1a	0.089101985
246	0x3e18ae93	0.14910345
247	0x3b3e2f22	0.0029019793
248	0x3dc1dc4a	0.09465845
249	0xbe41411d	-0.18872495
250	0xbd1cad41	-0.038251165
251	0xbd32b259	-0.043627117
252	0xbc6e9d90	-0.014563933
253	0xbc8373dd	-0.016046459
254	0xbe1a8771	-0.1509073
255	0xbdb7eb81	-0.08980466

conceptizer.decoder.0.0.bias f4 [16]
0	0xbdd6d523	-0.10489871
1	0x3d0d992d	0.034569908
2	0x3cb079a7	0.021542383
3	0x3dd38a6c	0.10329136
4	0xbcf0bcac	-0.02938684
5	0x3d0e3b5e	0.034724586
6	0xbc558efc	-0.013034578
7	0x3d5920ca	0.053009786
8	0x3cd0323f	0.025414584
9	0xbcaaf159	-0.020867037
10	0x3df8c078	0.121460855
11	0x3dcd3fa3	0.10021903
12	0x3cd29627	0.025706364
13	0xbc8c6a92	-0.01714066
14	0xbce14159	-0.02749698
15	0x3da20e10	0.079128385

conceptizer.decoder.2.0.weight f4 [16, 8, 5, 5]
0	0x3dc05715	0.093916096
1	0x3e587414	0.2113803
2	0x3e26629c	0.16248554
3	0x3d4262e3	0.047457587
4	0x3df0a763	0.117506765
5	0x3dab6162	0.08368184
6	0x3e836a20	0.25666904
7	0x3deca2d2	0.11554493
8	0x3ce9be85	0.02853323
9	0x3e5eb344	0.21748072
10	0xbd10965a	-0.035299636
11	0x3dd0bf6c	0.10192761
12	0xbd88d0b0	-0.06680429
13	0x3d1fc0ad	0.03900211
14	0x3d4d3f4f	0.050109204
15	0xbd14ae65	-0.036299128
16	0x3ca8080e	0.020511653
17	0xbd857061	-0.06515575
18	0x3b62e806	0.003462316
19	0x3c2e02b4	0.010620762
20	0xbdf09d02	-0.11748697
21	0xbdf9dc6d	-0.12200246
22	0xbe1a48f7	-0.15066896
23	0xbc8d273b	-0.01723062
24	0x3d292e61	0.041303996
25	0xbdf99347	-0.12186294
26	0xbe22f7b9	-0.15914811
27	0xbda23726	-0.07920675
28	0xbbd7d9df	-0.0065872516
29	0x3cfd3aae	0.03091177
30	0xbce7936f	-0.028268544
31	0xbdfd80ec	-0.123781055
32	0xbddbe006	-0.107360885
33	0xbcd1efa4	-0.025626965
34	0xbd3d001d	-0.046142686
35	0xbd6e6dde	-0.058210246
36	0xbd0653b5	-0.032794673
37	0xbd1ca5e4	-0.038244143
38	0xbab1473f	-0.0013525261
39	0xbda80f55	-0.08206049
40	0x3a9c7aaa	0.0011938412
41	0x3d4be3d7	0.049777832
42	0x3dd00ae3	0.101583265
43	0x3de56635	0.11201135
44	0x3ccb8a71	0.024846287
45	0x3dd40f1a	0.10354443
46	0x3dc887e0	0.09791541
47	0x3dae8dc0	0.085231304
48	0x3d2b80e7	0.041870978
49	0x3c90e2ae	0.017686214
50	0x3dbf697f	0.09346294
51	0x3da58c06	0.08083348
52	0xbd0b7dcf	-0.034055527
53	0x3cffd3b1	0.031228872
54	0x3c8569a1	0.01628572
55	0xbd85e0e6	-0.065370366
56	0xbcc1f18a	-0.023674745
57	0x3c4ba33c	0.012429055
58	0xbd36a4b1	-0.044590656
59	0x3d7795bb	0.06044553
60	0xbc3d6494	-0.011559624
61	0xbd6e6795	-0.058204252
62	0x3bec2fba	0.007207838
63	0x3cc67d19	0.024229573
64	0xbc2934ec	-0.010327559
65	0x3c8df350	0.017327935
66	0x3b84ac8d	0.00404889
67	0xbd3e4e5e	-0.046461456
68	0xbd6eccd3	-0.058300804
69	0xbca2fb99	-0.019895362
70	0x3d5db09f	0.054123517
71	0xbd9f55f3	-0.077800654
72	0x3cc24c9d	0.023718173
73	0x3ca82cbc	0.020529144
74	0xbc1a7d78	-0.009429328
75	0x3e459835	0.19296344
76	0x3e646b5a	0.22306576
77	0x3e30492e	0.17215416
78	0x3d869e13	0.06573119
79	0x3d4bead0	0.04978448
80	0x3e6f752c	0.23384541
81	0x3dc0646d	0.09394155
82	0x3d8d88ce	0.06910859
83	0x3d80f541	0.062967785
84	0x3d9c82ed	0.076421596
85	0xbdf3e45e	-0.11908792
86	0xbdfc33b1	-0.12314547
87	0xbd1b1fcf	-0.037872132
88	0xbc9ba10b	-0.01899769
89	0x3de30a39	0.11085934
90	0xbe50a64e	-0.2037594
91	0xbe3b8209	-0.18311323
92	0xbe0cd06c	-0.13751382
93	0xbcf1e948	-0.029530182
94	0x3d884ca2	0.066552415
95	0xbd484101	-0.048890118
96	0xbdef1558	-0.11673993
97	0xbe0d8db0	-0.1382358
98	0xbda63d1a	-0.08117123
99	0xbcb8f4fb	-0.022577753
100	0x3db3b025	0.08773831
101	0xbcb13fba	-0.021636833
102	0xbd309922	-0.04311479
103	0xbd34c4af	-0.044132885
104	0xbddacb99	-0.106833644
105	0x3e39d394	0.18147117
106	0x3e10fefb	0.14159767
107	0x3e37da95	0.17954476
108	0x3da663f1	0.08124531
109	0x3da2e814	0.07954422
110	0x3dadf5c3	0.08494141
111	0x3e09b06e	0.13446209
112	0x3e3288ac	0.17434949
113	0x3e303f7a	0.17211714
114	0x3defa4a9	0.11701328
115	0xbe036fae	-0.12835571
116	0xbd68a348	-0.056796342
117	0x3b87f036	0.0041485084
118	0x3d4788f3	0.04871459
119	0xbd3cd6be	-0.04610323
120	0xbe3dbe19	-0.18529548
121	0xbdab593d	-0.0836663
122	0xbdc21e5e	-0.09478448
123	0xbd33aaef	-0.043864187
124	0xbccba170	-0.024857253
125	0x3e6533e7	0.2238308
126	0x3e783fd4	0.24243098
127	0x3e562d0a	0.20915619
128	0x3db8acf1	0.09017361
129	0x3e1dd9ae	0.1541507
130	0x3e22a2e0	0.15882444
131	0x3e3c346e	0.18379375
132	0x3e1bfda3	0.15233473
133	0x3dceaec9	0.100919314
134	0x3e19b03b	0.15008633
135	0xbdce3316	-0.100683376
136	0xbe0ba69c	-0.13637775
137	0xbd247fc4	-0.04016091
138	0x3bef0cb0	0.0072952136
139	0x3d168ad1	0.03675348
140	0xbe041a3d	-0.12900634
141	0xbe3f7ba9	-0.18699516
142	0xbdddbbae	-0.10826813
143	0xbe0bf2ed	-0.13666888
144	0xbd7fcfbb	-0.062453967
145	0xbde17d3c	-0.11010215
146	0xbe45b39c	-0.19306797
147	0xbd01831d	-0.03161918
148	0xbd31f988	-0.043450862
149	0x3cdb1600	0.026743889
150	0x3e9491f3	0.290176
151	0x3e4358bd	0.1907682
152	0x3da0e6dd	0.07856534
153	0x3cc0e958	0.023548767
154	0x3dc9177f	0.09818935
155	0x3db9b659	0.09067983
156	0x3e0b89f3	0.13626842
157	0x3d8ed160	0.06973529
158	0x3d81edf6	0.063442156
159	0x3c7355c3	0.01485199
160	0xbb3c5123	-0.0028734885
161	0xbd2a8b53	-0.041636776
162	0xbdda8b8c	-0.10671148
163	0xbd90e3c0	-0.0707469
164	0xbe04699c	-0.12930912
165	0xbdf5fb4c	-0.12010822
166	0x3aeea14a	0.0018206027
167	0xbe1c8751	-0.15285994
168	0xbe0700d4	-0.1318391
169	0xbd8031e6	-0.06259517
170	0xbd41890b	-0.047249835
171	0xbc6294a5	-0.013829385
172	0xbdf5169c	-0.11967203
173	0xbdb8fa1a	-0.09032078
174	0x3d4e40ac	0.050354645
175	0x3e8f37b6	0.27972192
176	0x3e41f78a	0.18942085
177	0x3db920f6	0.0903949
178	0x3d02b3f6	0.031909905
179	0x3d113c59	0.035457943
180	0x3cd7ab45	0.026326785
181	0x3dc0ff18	0.09423655
182	0x3d3628f2	0.044472642
183	0x3d8f1e1c	0.06988165
184	0x3d8081de	0.0627477
185	0xbdf5e5ec	-0.12006745
186	0xbdeecd6a	-0.116602734
187	0x3d193547	0.037404325
188	0xbb23a32d	-0.0024969087
189	0x3d8056e4	0.06266573
190	0xbde0b8fc	-0.10972783
191	0xbe4e105d	-0.2012343
192	0xbd5984dd	-0.053105224
193	0x3d909da6	0.07061319
194	0x3d9afaab	0.07567342
195	0xbe61491e	-0.22000548
196	0xbd7bcf52	-0.061477013
197	0xbd0bea00	-0.034158707
198	0x3d2f9e67	0.042875674
199	0x3dbf0b2b	0.09328302
200	0x3dd7c43f	0.10535478
201	0x3da09674	0.07841197
202	0x3e2224f8	0.15834415
203	0x3e29e533	0.16591339
204	0x3e35c229	0.17749847
205	0x3e17be28	0.14818633
206	0x3c6f0004	0.014587406
207	0x3ddb1b4f	0.10698568
208	0x3da8e0b4	0.08245984
209	0x3e33306a	0.17498937
210	0x3cfb55b9	0.030680524
211	0xbdbb9abd	-0.09160373
212	0xbdab00b6	-0.08349745
213	0x3c6e5712	0.014547126
214	0xbb234609	-0.002491357
215	0xbdb8b1d0	-0.0901829
216	0x3c29d80c	0.010366451
217	0xbb12bd13	-0.002239053
218	0xbd1bc99b	-0.038034063
219	0xb9ae780c	-0.00033277308
220	0xbc803470	-0.015650004
221	0x3dc452d1	0.095861085
222	0xbd9e8a67	-0.07741242
223	0x3d4c0f59	0.049819324
224	0x3dfaca0c	0.12245569
225	0xbdb2d612	-0.08732237
226	0xbe175f07	-0.14782344
227	0xbdd31861	-0.10307384
228	0xbce9e455	-0.02855126
229	0x3cdfa9f3	0.027302718
230	0xbda0759b	-0.078349315
231	0x3b82d367	0.0039924863
232	0xbcacd9d1	-0.021099957
233	0x3cbe05e9	0.023196178
234	0x3b246b72	0.0025088456
235	0x3e33290c	0.17496127
236	0x3e54c5c0	0.2077856
237	0x3e140404	0.14454657
238	0x3dd7e509	0.10541732
239	0x3dd0fc4a	0.1020437
240	0x3de093db	0.10965701
241	0x3db5f6a2	0.08884932
242	0xbc36e04b	-0.011161874
243	0xbd20e65a	-0.03928218
244	0x3dcca57b	0.099925004
245	0xbc9a62d3	-0.018845951
246	0xbdbcb9af	-0.09215104
247	0xbd8d063b	-0.06885954
248	0x3d67efcf	0.056625184
249	0x3d7082c0	0.058718443
250	0xbbe9a7d3	-0.007130602
251	0x3b34f3f1	0.002761122
252	0xbbd76e95	-0.0065744617
253	0x3d10c0dc	0.035340175
254	0xbd9a16db	-0.075238906
255	0x3d2cf3ea	0.042224802

conceptizer.decoder.2.0.bias f4 [8]
0	0x3cb51d40	0.022108674
1	0x3c9343ec	0.017976724
2	0x3d4da807	0.05020907
3	0x3d29bab1	0.04143781
4	0x3d9851fe	0.07437514
5	0x3cc3c063	0.023895448
6	0x3de8b900	0.11363411
7	0xbd454ce7	-0.048169043

conceptizer.decoder.4.0.weight f4 [8, 1, 2, 2]
0	0xbf8135b2	-1.0094512
1	0xbef2ef82	-0.47448355
2	0xbf2495a6	-0.64290845
3	0xbcf231fa	-0.029564846
4	0x3f2b3703	0.66880816
5	0x3f2d6786	0.6773609
6	0x3f2c7222	0.6736165
7	0x3f267d3b	0.65034837
8	0x3eb7b7bb	0.35882363
9	0x3ece5faa	0.4030736
10	0x3ebbc55f	0.3667402
11	0xbeb79f2d	-0.3586363
12	0xbf302883	-0.68811816
13	0xbf4b099a	-0.79311526
14	0xbf30580f	-0.68884367
15	0xbf3bb969	-0.7332979
16	0xbf366273	-0.7124397
17	0xbf6084d4	-0.8770268
18	0x3da1c756	0.078993484
19	0xbdfb1301	-0.12259484
20	0xbf0f3aa1	-0.55948836
21	0xbe49601d	-0.1966557
22	0xbf7f7c21	-0.9979878
23	0xbf249f1b	-0.64305276
24	0xbee0ee77	-0.43931934
25	0xbf4159ef	-0.7552785
26	0xbeeafbc6	-0.45895213
27	0xbed93847	-0.4242575
28	0x3df7d128	0.1210044
29	0xbf472c45	-0.77801925
30	0xbe9c88af	-0.3057303
31	0xbf936f46	-1.1518333

conceptizer.unlinear.weight f4 [16, 1]
0	0xbf4a1f92	-0.7895442
1	0x3f02bac3	0.51066226
2	0xbf0a072a	-0.5391718
3	0xbfae1a73	-1.3601822
4	0xbf75ad6e	-0.9596776
5	0xbf1bd335	-0.6086915
6	0x3f732c94	0.94989896
7	0xbf4e08d1	-0.804822
8	0xbf3aeb72	-0.7301551
9	0xbf7b48cf	-0.9815797
10	0x3f8ffbce	1.124872
11	0x3f218706	0.63096654
12	0xbf7a6e0b	-0.9782416
13	0xbd83ed68	-0.06441766
14	0xbf430202	-0.7617494
15	0x3f375ea2	0.71628773

conceptizer.unlinear.bias f4 [16]
0	0x3f471365	0.7776397
1	0xbe2b9792	-0.16757038
2	0xbf8af1b9	-1.0855018
3	0x3f323876	0.696174
4	0x3e9b4bc3	0.3033124
5	0x3e14f1cb	0.14545362
6	0xbf1958c4	-0.5990107
7	0x3f1e3641	0.61801535
8	0x3d4277f3	0.047477674
9	0xbf3686f9	-0.712997
10	0xbf4117e5	-0.75427085
11	0x3f49b4ae	0.7879132
12	0xbe9f3b4c	-0.31099927
13	0xbf2a92be	-0.6663016
14	0xbf3792e7	-0.7170853
15	0x3eff013a	0.49805623

parameterizer.cl_layers.0.weight f4 [10, 1, 5, 5]
0	0x3e12db26	0.14341411
1	0xbcc11451	-0.023569258
2	0x3db3a08b	0.087708555
3	0x3e24911a	0.16070977
4	0x3de12d5d	0.109949805
5	0xbc48dc06	-0.012259489
6	0x3e6f92a3	0.23395781
7	0xbdac6d8e	-0.084193334
8	0xbdfd467a	-0.12366958
9	0xbd96b454	-0.073586136
10	0x3d49e4a7	0.049290325
11	0x3dca3253	0.0987288
12	0x3dc919f1	0.09819401
13	0x3e9297ca	0.2863143
14	0x3e7dcf61	0.2478614
15	0xbe5ec1f9	-0.21753682
16	0xbdb5eb1a	-0.08882733
17	0xbdeda50a	-0.11603744
18	0xbe1d304b	-0.15350454
19	0xbe46b15a	-0.19403592
20	0xbd8f22a7	-0.06989031
21	0xbe5a7b91	-0.213362
22	0xbe4e9130	-0.20172572
23	0xbe2ab0d2	-0.16669014
24	0xbe105428	-0.14094603
25	0xbdb94377	-0.09046071
26	0xbd9c14ca	-0.07621153
27	0x3e3cc678	0.18435085
28	0xbd8fc78b	-0.07020482
29	0x3ac97afc	0.0015371735
30	0xbe0683e3	-0.13136248
31	0xbe018f68	-0.12652361
32	0xbda80cac	-0.08205542
33	0xbca11aaf	-0.019666044
34	0xbd0702cd	-0.032961655
35	0xbe0dd97b	-0.13852493
36	0x3db6f819	0.089340396
37	0xbe3c4351	-0.18385054
38	0x3bd850c0	0.006601423
39	0xbdcfe8b2	-0.10151805
40	0x3e456e42	0.19280341
41	0xbe03d528	-0.12874281
42	0x3caf542d	0.021402443
43	0xbe413a32	-0.18869856
44	0xbdee18c9	-0.11625821
45	0x3e85b1b7	0.26112148
46	0x3d97f0c6	0.07418971
47	0xbdca9142	-0.09890987
48	0x3e99deba	0.3005274
49	0xbe2a7444	-0.16645914
50	0xbdab0334	-0.0835022
51	0x3dbf1d16	0.093317196
52	0x3e067d0d	0.1313364
53	0x3e16d312	0.14728954
54	0x3d1fda60	0.039026618
55	0x3ca8c7b7	0.020603044
56	0xbdc21578	-0.09476751
57	0x3e1263a6	0.14295825
58	0x3dc80ca6	0.097680375
59	0x3db4f3fb	0.08835598
60	0x3dc07b7a	0.09398551
61	0xbb0a0637	-0.0021060833
62	0xbdae6a49	-0.08516366
63	0x3df00d3f	0.117212765
64	0x3dfc2aa1	0.12312818
65	0xbe092a31	-0.13395001
66	0xbe0ac653	-0.13552217
67	0x3ce29e9f	0.027663527
68	0xbcbe9221	-0.023263039
69	0x3e81be5f	0.25340554
70	0xbc103e39	-0.008803898
71	0xbe38ea36	-0.18058094
72	0xbdeddbbd	-0.116141774
73	0xbd366822	-0.044532903
74	0x3ec17639	0.3778551
75	0xbd6cb85d	-0.05779301
76	0x3e59a2c6	0.212535
77	0x3e0ded61	0.13860084
78	0x3dd877cd	0.10569725
79	0x3e3782d4	0.17921
80	0x3de1ac27	0.110191636
81	0xbb849461	-0.0040460085
82	0x3dd3c1a2	0.10339667
83	0x3e17d421	0.14827015
84	0x3e0ccdf9	0.13750447
85	0xbdee3576	-0.116312906
86	0xbe14da47	-0.14536391
87	0xbe56f4fb	-0.2099189
88	0xbe2b1532	-0.16707304
89	0xbe3f6de5	-0.18694265
90	0x3e22844c	0.1587078
91	0xbe29664b	-0.16542928
92	0x3e853cf4	0.26023066
93	0xbdd47540	-0.10373926
94	0x3ddfa946	0.10920958
95	0xbe56265e	-0.20913073
96	0xbe2176cc	-0.15767974
97	0x3d82b098	0.06381339
98	0xbe55a9ec	-0.20865601
99	0x3d675f4d	0.05648737
100	0x3d863c04	0.06554416
101	0x3e7bde3c	0.24596494
102	0xbe1b1630	-0.15145183
103	0xbded736b	-0.1159428
104	0xbdf17a51	-0.11790908
105	0xbd60c816	-0.054878317
106	0x3e0ca377	0.13734232
107	0xbe45c2bf	-0.19312571
108	0xbe128b17	-0.14310871
109	0xbc9cb4ef	-0.019129245
110	0x3d2b9afb	0.041895848
111	0xbcf84d10	-0.030310184
112	0xbe262ed5	-0.16228803
113	0x3de89a74	0.113575846
114	0xbb88f062	-0.0041790465
115	0x3e2bd25a	0.16779462
116	0xbdd8170e	-0.10551272
117	0xbe20379e	-0.15646216
118	0xbd8dd4a9	-0.06925327
119	0xbd102639	-0.035192702
120	0xbd2b440f	-0.041812953
121	0xbe418de3	-0.18901782
122	0xbe485593	-0.19563894
123	0x3e81e089	0.2536662
124	0xbd17244f	-0.03689986
125	0xbe4a9de9	-0.197868
126	0xbdc30ac3	-0.09523537
127	0x3e24bf69	0.16088642
128	0xbdc4337d	-0.09580133
129	0xbd82e2c9	-0.06390912
130	0x3d1e2f38	0.03861925
131	0xbe3b16b3	-0.18270378
132	0xbe4fab71	-0.20280243
133	0x3dcfaeff	0.101408
134	0x3e8df8e8	0.27728963
135	0x3e0a2f72	0.13494661
136	0xbe8c4723	-0.27398023
137	0x3e1166a4	0.1419931
138	0x3de86472	0.113472834
139	0x3c87302b	0.01650246
140	0x3d0b5fe1	0.034026984
141	0xbe8b4b6a	-0.27205974
142	0x3d85f20a	0.06540306
143	0x3e256ad7	0.16154037
144	0x3c9be976	0.019032221
145	0xbe56cf73	-0.20977573
146	0x3e1c6bbe	0.15275475
147	0xbd886a5c	-0.066609114
148	0x3e7c1e4e	0.24620935
149	0x3c1c4e3a	0.009540135
150	0x3d911446	0.07083945
151	0xbd53f524	-0.051747456
152	0xbc2136c0	-0.009839714
153	0x3e368aba	0.17826357
154	0xbe413ba8	-0.18870413
155	0xbcc8627a	-0.02446102
156	0xbdad2a17	-0.084552936
157	0x3d98c9ce	0.07460366
158	0x3a4f8f78	0.0007917802
159	0x3dd76654	0.105175644
160	0x3d6bd769	0.057578478
161	0xbe3761fa	-0.17908469
162	0x3e075c28	0.13218749
163	0xbe382647	-0.17983352
164	0xbe021708	-0.12704098
165	0xbd231c69	-0.039822016
166	0x3ee10cc8	0.43955064
167	0xbe7e7174	-0.24847966
168	0x3f02bf01	0.510727
169	0xbe580ae7	-0.21097909
170	0xbdfab560	-0.12241626
171	0xbe10c96e	-0.1413934
172	0xbe0c71b0	-0.13715243
173	0x3dd2e214	0.10297027
174	0xbd476d99	-0.048688505
175	0x3e4be826	0.19912776
176	0xbe12d089	-0.14337362
177	0xbddacf7c	-0.10684106
178	0xbe3ecaff	-0.18632124
179	0x3e730105	0.23730858
180	0x3c4c9123	0.012485775
181	0xbe41cbc0	-0.1892538
182	0x3e297050	0.1654675
183	0xbdb1dfde	-0.086852774
184	0x3d328503	0.04358388
185	0xbdaa8b0f	-0.083273046
186	0x3e706084	0.23474318
187	0xbe7dd861	-0.24789573
188	0xbe41ef21	-0.18938877
189	0xbd4daa30	-0.05021113
190	0x3b916b18	0.0044378154
191	0xbe787135	-0.24261935
192	0x3ec8d5be	0.39225572
193	0xbe9e3c00	-0.3090515
194	0x3ead6c93	0.33871898
195	0xbbc10706	-0.00589073
196	0xbe0aec11	-0.13566615
197	0x3da0320d	0.078220464
198	0xbe3836bb	-0.17989628
199	0xbe2eddf8	-0.17076862
200	0xbde3a38b	-0.11115178
201	0xbe31f99e	-0.17380378
202	0xbe22bbf2	-0.15892008
203	0x3e826c36	0.25473183
204	0xbe2c1989	-0.16806616
205	0x3ea23b4a	0.3168586
206	0x3d17eceb	0.037091177
207	0x3defa43f	0.11701249
208	0xbe2a71a7	-0.16644917
209	0x3e686c5b	0.22697584
210	0xbd1f9f6a	-0.03897039
211	0x3b3f980f	0.002923492
212	0xbe0f668a	-0.1400396
213	0x3d03746f	0.03209346
214	0xbd12fb3f	-0.03588414
215	0xbe3db3d5	-0.18525632
216	0x3e7b3736	0.2453278
217	0x3e105c9b	0.14097826
218	0xbe225639	-0.15853204
219	0xbe201682	-0.15633586
220	0x3c05f33b	0.008175666
221	0xbe7f91fd	-0.24958034
222	0x3e4cb7e7	0.19992028
223	0xbe2e9b4b	-0.17051427
224	0x3e937e49	0.28807285
225	0xbd839a32	-0.06425895
226	0xbe85c99e	-0.26130384
227	0xbe620dac	-0.22075528
228	0xbe17aa1e	-0.14810988
229	0x3dd9597d	0.10612772
230	0xbd3bc74d	-0.045844365
231	0x3dcf4d90	0.10122216
232	0x3e12dee6	0.14342842
233	0x3dab104d	0.083527185
234	0x3d7d1fbe	0.06179785
235	0x3dfa69ef	0.122272365
236	0x3e13ae7a	0.14422026
237	0x3ea9ef12	0.3319021
238	0x3d28a423	0.041172158
239	0xbdae8d1a	-0.08523007
240	0x3d69b657	0.05705866
241	0x3c8905c1	0.016726376
242	0xbd63cd8c	-0.055615947
243	0x3c9c47ca	0.0190772
244	0xbdeac4ff	-0.11463355
245	0xbca1eed8	-0.01976721
246	0xbd8f551d	-0.06998656
247	0xbe05b0db	-0.13055746
248	0xbda7afba	-0.08187814
249	0x3e28c764	0.16482311

parameterizer.cl_layers.0.bias f4 [10]
0	0x3dbfba69	0.09361727
1	0x3e1ed48d	0.15510769
2	0xbe1c8f15	-0.15288956
3	0x3cd51f11	0.02601579
4	0x3cb5fe0b	0.022215864
5	0x3d9d66ce	0.07685624
6	0xbdcb8d6e	-0.09939085
7	0xbe463175	-0.19354804
8	0xbd5d5f46	-0.054045938
9	0xbc273a80	-0.010206819

parameterizer.cl_layers.3.weight f4 [20, 10, 5, 5]
0	0x3c865f7d	0.016402954
1	0xbd0820c4	-0.033234373
2	0xbd22c2fd	-0.039736737
3	0xbe039b38	-0.1285218
4	0xbcc83d94	-0.024443425
5	0x3c8f8d2c	0.01752337
6	0x3c3fb64a	0.011701176
7	0xbd95b406	-0.07309727
8	0xbd09c7a7	-0.03363767
9	0xbd2f7295	-0.042833883
10	0xbd5c363f	-0.05376267
11	0x3ca7bc35	0.020475486
12	0xbd29a227	-0.041414406
13	0xbd8a6c5d	-0.0675895
14	0x3ba13c5d	0.004920526
15	0x3d5aa7c2	0.053382643
16	0x3d1d1b83	0.038356315
17	0xbd3f063a	-0.046636797
18	0xbcb61d70	-0.022230834
19	0x3ce35d3f	0.027754424
20	0xbaaaf3bf	-0.0013042613
21	0x3ca80396	0.020509522
22	0x3cf2212d	0.029556835
23	0x3bac4a46	0.0052578775
24	0xbcecb3d1	-0.028894337
25	0xbc4bfd41	-0.012450517
26	0x3d820210	0.0634805
27	0xbd8372b6	-0.06418364
28	0xbd54b5ba	-0.05193112
29	0xbc582c25	-0.013194119
30	0xbd223d59	-0.039609287
31	0xbc809c0c	-0.015699409
32	0xbda5ca43	-0.08095219
33	0xbd5c3738	-0.0537636
34	0x3d1066db	0.03525434
35	0xbc8e8a37	-0.01739989
36	0xbd22f4bd	-0.039784182
37	0x3ccb463c	0.024813764
38	0xbc378697	-0.011201522
39	0x3ce92b2e	0.028462972
40	0xbcbd1c6a	-0.023084838
41	0x3c8b620a	0.017014522
42	0xbc13fb60	-0.0090321
43	0xbd3a09fb	-0.045419674
44	0xbd38936d	-0.04506247
45	0x3c19e4a2	0.009392889
46	0x3ba0bcfd	0.0049053417
47	0xbc8b325f	-0.016991792
48	0x3d25bcda	0.040463306
49	0x3d0354c9	0.03206328
50	0x3df35264	0.11880949
51	0x3c84f0af	0.016228048
52	0x3d50498b	0.050851386
53	0xbc518d8a	-0.012790093
54	0x3c6daaca	0.014506051
55	0x3c845519	0.016153859
56	0xbbc3ffbd	-0.005981414
57	0x3d38354d	0.044972707
58	0xbcec4f98	-0.028846547
59	0xbd0de4ed	-0.03464215
60	0x3cf732cd	0.03017559
61	0x3cfafd03	0.030638224
62	0xbd1b4c5b	-0.037914615
63	0xbd06616d	-0.032807756
64	0xbc906880	-0.017627954
65	0x3b77285c	0.0037713265
66	0x3d57375d	0.052543033
67	0x3b4af756	0.0030970178
68	0x3c498755	0.012300332
69	0xbd886afe	-0.06661032
70	0xbbb00a81	-0.005372346
71	0x3c89fd3c	0.016844384
72	0x3db88a9a	0.09010811
73	0x3d65f8ed	0.056145597
74	0x3cc0bfc3	0.02352894
75	0x3c9f775e	0.019466098
76	0xbc1ce4f6	-0.009576073
77	0xba05565d	-0.00050864165
78	0xbd370093	-0.044678282
79	0xbd06add5	-0.032880623
80	0xbcbb82d0	-0.022889525
81	0xbc38e430	-0.011284873
82	0xbd0518f4	-0.0324945
83	0x3c2c289f	0.010507732
84	0xbd5dc2d6	-0.05414089
85	0x3c79c210	0.015244022
86	0xbc6f7288	-0.014614709
87	0xbd8e7299	-0.069554515
88	0xbddee932	-0.10884322
89	0x3c1cc5f7	0.009568683
90	0x3be1b3e0	0.006887898
91	0x3cc65589	0.024210708
92	0x3b97ff2f	0.0046385746
93	0xbcb592b9	-0.02216469
94	0xbcea408f	-0.028595237
95	0x3d82d2fb	0.063878976
96	0xbcf344c7	-0.029695882
97	0xbcebd60f	-0.028788595
98	0x3cf48fdb	0.029853752
99	0xbd316b06	-0.043314956
100	0xbbe7b3e0	-0.0070710033
101	0xbcdaeba5	-0.026723692
102	0x3c0d20c7	0.008613772
103	0x3d62fb44	0.055415407
104	0xbc2456c5	-0.010030453
105	0x3ca9ccb7	0.020727498
106	0xbc8e564f	-0.01737514
107	0xbd2bde43	-0.041960012
108	0xbd07fcd3	-0.033200096
109	0x3d575ecd	0.052580643
110	0x3bcd8304	0.006271722
111	0x3c8cab09	0.0171714
112	0x3d98c65e	0.074597105
113	0xbc1ec58e	-0.009690655
114	0x3d7de9cf	0.061990555
115	0xbaf4a073	-0.001866354
116	0x3d73900f	0.059463557
117	0xbc8a72d3	-0.016900456
118	0x3d1ce83c	0.038307413
119	0xbd0dc29a	-0.034609415
120	0x3d97033c	0.07373664
121	0x3c553b29	0.013014593
122	0xb9c56a75	-0.00037654085
123	0xbcb5d3df	-0.022195755
124	0x3d067c37	0.032833304
125	0xbcf3343f	-0.029687999
126	0x3cffac60	0.031210124
127	0x3cdfe0c1	0.02732885
128	0x3d78b44f	0.06071883
129	0x3d8718a5	0.065964974
130	0xbc1f1bc2	-0.009711208
131	0x3d48e5ae	0.049047165
132	0x3db18475	0.08667842
133	0x3d9072de	0.07053159
134	0x3c7fd516	0.0156147685
135	0xbcbf3ced	-0.023344481
136	0x3d39289b	0.04520474
137	0x3d4f0d9b	0.050550085
138	0x3d4b3d9c	0.049619302
139	0xbb4d95c3	-0.0031369783
140	0x3baef389	0.0053390902
141	0x3b0e93bb	0.0021755535
142	0x3d3b6625	0.04575171
143	0x3da91fb0	0.08257997
144	0xbd81c117	-0.06335657
145	0xbbe6e4ce	-0.0070463186
146	0xbd07bc58	-0.033138603
147	0xbd01ccbe	-0.031689398
148	0xbd7be76c	-0.061499998
149	0xbc76f6be	-0.015073476
150	0xbc981017	-0.01856236
151	0x3df6db97	0.12053602
152	0x3ddbcfdc	0.107330054
153	0xbaae0b84	-0.0013278578
154	0x3c0ed729	0.00871829
155	0xbd5c255d	-0.05374657
156	0xbd6483bd	-0.055789698
157	0xbc40684c	-0.011743616
158	0xbcd33fc3	-0.02578724
159	0x3ca5dc90	0.020246774
160	0x3d38d924	0.045128956
161	0x3b6a6daf	0.0035770943
162	0x3d1fb2c6	0.03898885
163	0x3d1278f3	0.035759877
164	0x3c2e4355	0.01063617
165	0x3d46e2dd	0.048556197
166	0x3d752e21	0.059858445
167	0x3bd8cd65	0.006616282
168	0xbcd9ea60	-0.026601017
169	0x3cef2d90	0.02919653
170	0x3ce20730	0.027591318
171	0xbd1a98be	-0.037743323
172	0x3d0afd5b	0.033933025
173	0x3d06de85	0.032927055
174	0x3ceaf4d9	0.028681206
175	0xbca0a17f	-0.019608257
176	0x3dc4129b	0.09573861
177	0x3d2c18c3	0.042015802
178	0xbd8f7dd8	-0.07006425
179	0xbd0d1a68	-0.03444901
180	0xbdc43cfd	-0.09581945
181	0x3c43cc5a	0.011950577
182	0x3d2de3f4	0.04245372
183	0x3a48aa50	0.0007654773
184	0xbc0b2608	-0.008492954
185	0xbd92ae9a	-0.07162209
186	0x3b510bfe	0.0031898017
187	0x3b82659c	0.003979398
188	0x3d9ab10b	0.075532995
189	0xbc566717	-0.013086102
190	0xbd03b737	-0.03215715
191	0xbd293df0	-0.041318834
192	0x3c104436	0.008805325
193	0x3cb26402	0.021776203
194	0x3d3a8f22	0.04554666
195	0xbd2a9014	-0.04164131
196	0xbd4789c3	-0.048715364
197	0x3d012d12	0.031537123
198	0x3c0b61c0	0.008507192
199	0xbd971532	-0.073770896
200	0x3ca16105	0.019699583
201	0x3e048603	0.12941746
202	0x3d95d06b	0.07315143
203	0x3daa6d73	0.08321657
204	0xbc3d6ad3	-0.011561113
205	0xbd2b84c3	-0.04187466
206	0x3d2f186f	0.04274791
207	0x3d6eeb90	0.05833012
208	0x3d2c04ae	0.04199665
209	0x3d19ece8	0.037579447
210	0xbd40d134	-0.04707451
211	0xbbb089c8	-0.0053875186
212	0x3d082458	0.033237785
213	0xbd28e11d	-0.04123031
214	0xbca0ca7f	-0.019627808
215	0x3d6859d4	0.05672629
216	0xbd6649ed	-0.056222845
217	0x3c52b2b6	0.012859991
218	0xbd089c97	-0.03335246
219	0xbd7718fa	-0.060326554
220	0xbcfd1ba0	-0.030896962
221	0x3c9eb19b	0.019371798
222	0x3cd606fb	0.026126375
223	0x3cde120b	0.027108213
224	0x3c555560	0.013020843
225	0x3d86f317	0.065893345
226	0x3d7fa9df	0.06241786
227	0xbd4bdec0	-0.049772978
228	0xbc35615d	-0.0110705765
229	0x3ce0911b	0.027412942
230	0xbcd40a51	-0.025883825
231	0x3ceeb1e4	0.02913756
232	0x3c1b06ff	0.009462117
233	0xbc214f42	-0.009845557
234	0x3da85758	0.082197845
235	0x3d00f4ff	0.031483646
236	0x3d618684	0.055059925
237	0x3cddd704	0.027080067
238	0x3c39abe3	0.011332485
239	0x3d9606b9	0.07325501
240	0x3d81be10	0.0633508
241	0x3d151231	0.0363943
242	0xbca92817	-0.020649
243	0xbd07b559	-0.03313193
244	0x3d32a9f3	0.043619107
245	0x3c72e0d3	0.01482411
246	0x3cb0122e	0.021493044
247	0xbb74d80e	-0.0037360224
248	0xbc2007eb	-0.009767513
249	0x3b93bcbd	0.0045085833
250	0x3cd0c669	0.025485234
251	0x3adf8f61	0.001705628
252	0x3da4c141	0.08044673
253	0x3ca674c2	0.020319346
254	0x3d26594d	0.040612508
255	0x3c2bec56	0.010493359

parameterizer.cl_layers.3.bias f4 [20]
0	0x3d889512	0.06669058
1	0xbd077460	-0.03306997
2	0x3cc34575	0.02383683
3	0x3d8aeba2	0.06783225
4	0xbd2fa202	-0.042879112
5	0x3c48d2f0	0.012257323
6	0x3d83bcbb	0.06432482
7	0xbd335545	-0.04378249
8	0x3d04d0e6	0.032425784
9	0xbca70f92	-0.020393167
10	0x3ca59825	0.02021415
11	0xbcdf84a7	-0.027284933
12	0xbc05b303	-0.0081603555
13	0xbc2d61ff	-0.010582446
14	0xbd8b45df	-0.06800436
15	0x3c1bbd41	0.009505571
16	0xbb30777f	-0.0026926694
17	0x3bc29fc8	0.0059394576
18	0xbd1d98a3	-0.038475644
19	0xbccf8318	-0.025331065
