results/CONF_FASHION_MNIST/checkpoints/Epoch[5]-Step[1620].pt (torch, 374338 bytes, 66 tensors)

conceptizer.encoder.0.0.weight f4 [10, 1, 5, 5]
0	0xbe5acade	-0.2136645
1	0x3e4ba8ff	0.19888686
2	0x3e76dc45	0.24107464
3	0x3e0cdc7b	0.13755982
4	0x3dd989d2	0.1062199
5	0xbdfcec3c	-0.12349746
6	0x3c497f2b	0.012298386
7	0x3d5ba58c	0.053624675
8	0x3e32ad0c	0.17448825
9	0xbe0860de	-0.13318202
10	0x3e01ef5e	0.12688968
11	0x3e077377	0.1322764
12	0xbe3356e9	-0.17513622
13	0x3daff182	0.08590986
14	0xbe1f16e8	-0.15536082
15	0x3e49e7aa	0.19717279
16	0x3dcdeb65	0.100546636
17	0x3e04f9ec	0.12985963
18	0x3d042c42	0.03226877
19	0xbdf0285b	-0.11726447
20	0x3e69df0e	0.22838995
21	0x3c30a371	0.010781155
22	0xbd416132	-0.047211833
23	0xbdab7ece	-0.083737954
24	0x3df93f10	0.12170231
25	0xbdb1637c	-0.08661553
26	0x3de7a33b	0.113104306
27	0xbe050116	-0.12988696
28	0xbdef201c	-0.11676046
29	0xbe0a367f	-0.13497351
30	0xbca82990	-0.020527631
31	0xbd90416d	-0.07043729
32	0xbe3660ba	-0.17810336
33	0x3b16050e	0.0022891196
34	0xbe2988ea	-0.16556135
35	0x3da725eb	0.08161529
36	0xbe02d6fb	-0.12777321
37	0xbd6df0e7	-0.05809107
38	0xbe33df93	-0.17565756
39	0xbe238cb4	-0.15971643
40	0xbe71a2b0	-0.23597217
41	0xbd1d37f9	-0.038383458
42	0xbd85b302	-0.06528284
43	0x3cfe740c	0.031061195
44	0xbd193840	-0.03740716
45	0x3d21ab35	0.039469916
46	0x3cded50f	0.027201204
47	0xbdf3e9d8	-0.119098365
48	0xbe61e663	-0.22060542
49	0x39d68a9f	0.00040920542
50	0x3c881f24	0.016616412
51	0xbe2586ab	-0.16164653
52	0x3dc7f3c7	0.09763294
53	0xbd2eae53	-0.042646717
54	0xbdebb9dc	-0.11510059
55	0xbdce7e2c	-0.10082659
56	0xbe22d0c7	-0.15899955
57	0xbc1281a2	-0.00894204
58	0xbe381c96	-0.17979655
59	0xbe038116	-0.12842211
60	0xbe5d8048	-0.21630967
61	0x3e0f0edf	0.13970517
62	0xbd975123	-0.073885225
63	0xbe325a69	-0.17417301
64	0xbcc15bea	-0.023603398
65	0xbdb96b50	-0.09053671
66	0xbd29e986	-0.04148247
67	0xbe5a0ec2	-0.21294692
68	0xbdbf987b	-0.09355255
69	0xbe156305	-0.14588554
70	0x3dfba748	0.12287766
71	0x3b3b0051	0.0028534124
72	0x3cba34af	0.0227302
73	0xbc1e26c7	-0.0096528
74	0xbdc64efb	-0.09683033
75	0xbdf1289a	-0.11775322
76	0xbd0a281c	-0.033729658
77	0x3d9b474a	0.07581957
78	0xbd8eada8	-0.06966716
79	0xbdf6f438	-0.120583
80	0xbe01e512	-0.1268504
81	0xbc2d1991	-0.010565178
82	0xbdb0c8ec	-0.08632073
83	0xbd4130f2	-0.04716582
84	0x3d784e8f	0.060621794
85	0xbe4b495c	-0.19852203
86	0xbe3cf7a7	-0.18453847
87	0x3d587e99	0.052855108
88	0xbe444b30	-0.19169307
89	0xbcfbfc78	-0.030760035
90	0xbd89908e	-0.06717025
91	0xbdff7130	-0.12472761
92	0xbc165e14	-0.009177703
93	0xbdc19cd3	-0.0945374
94	0xbcc2a421	-0.023759903
95	0xbd6768b1	-0.056496326
96	0xbcd77781	-0.026302101
97	0xbe486d2f	-0.195729
98	0xbcfb4320	-0.030671656
99	0x3e2887db	0.16458075
100	0x3dbbc22c	0.09167895
101	0xbe175a3a	-0.14780512
102	0x3d710215	0.058839876
103	0x3d3424ef	0.043980535
104	0x3da42b85	0.08016113
105	0x3d9801a3	0.07422187
106	0xbe2806cb	-0.16408841
107	0xbce5b307	-0.028039468
108	0x3dd9b59e	0.10630344
109	0xbe6a29e7	-0.22867547
110	0x3d659d98	0.056058496
111	0x3d088b1a	0.033335783
112	0xbe52afcd	-0.20574875
113	0xbe63ba22	-0.22238973
114	0xbdd4873c	-0.103773564
115	0xbc2ff370	-0.010739192
116	0xbdd7e7a4	-0.10542229
117	0x3dcd8761	0.10035587
118	0xbe2f4f03	-0.17119984
119	0x3c95d841	0.018291594
120	0x3d512948	0.05106476
121	0x3e0aa2d3	0.13538675
122	0xbdb82794	-0.08991924
123	0xbe2b0d5c	-0.16704315
124	0x3cd81577	0.026377423
125	0xbd7454d5	-0.059651215
126	0x3df5e2b1	0.120061286
127	0x3e0a42f1	0.13502099
128	0x3e22807a	0.15869322
129	0x3d8548e9	0.06508047
130	0xbe2a9a82	-0.16660503
131	0xbdd1ed3d	-0.10250328
132	0x3e3f08e0	0.1865573
133	0x3e21f289	0.15815176
134	0xbd8a743a	-0.0676045
135	0x3e023641	0.12716009
136	0x3db9af00	0.09066582
137	0x3dfa57ff	0.12223815
138	0xbdc0193a	-0.093798116
139	0xbe4f74c9	-0.20259394
140	0xbe1b98b2	-0.15194967
141	0x3e28f8c5	0.16501148
142	0x3e436170	0.19080138
143	0xbd370401	-0.044681553
144	0xbe700de9	-0.23442806
145	0x3d99c2ab	0.07507833
146	0x3e5a7e65	0.21337278
147	0x3e0ab3f5	0.1354521
148	0xbe178654	-0.14797336
149	0xbd7e5fa0	-0.062102914
150	0x3e09fd9c	0.1347565
151	0xbe1cb662	-0.15303949
152	0x3dec75d4	0.115459114
153	0x3e20d14f	0.15704845
154	0x39c46ad5	0.0003746363
155	0xbdcb3af4	-0.09923354
156	0x3e38222b	0.17981784
157	0x3cc26150	0.023728043
158	0x3e373851	0.17892577
159	0x3e355f83	0.17712216
160	0xbe0c8d19	-0.137257
161	0xbd2288fa	-0.039681412
162	0xbd67d50f	-0.056599673
163	0xbdb36bcd	-0.08760796
164	0xbe230dd0	-0.15923238
165	0xbe0d67df	-0.13809155
166	0x3e3b15aa	0.18269983
167	0x3da6e7ca	0.08149679
168	0xbdc34b6a	-0.095358685
169	0xbe373715	-0.17892106
170	0xbdb5eb07	-0.088827185
171	0x3d9f42bc	0.077764004
172	0xbe497411	-0.19673182
173	0x3be8f70a	0.0071095275
174	0x3d36ebbb	0.044658404
175	0xbda9478d	-0.082656
176	0xbd3dbcfb	-0.046322804
177	0xbe5b7ed1	-0.21435095
178	0xbe586a88	-0.21134388
179	0x3de86dc9	0.11349065
180	0xbd78936f	-0.06068748
181	0xbe020351	-0.12696578
182	0x3d7ff8fb	0.062493306
183	0x3d064a0d	0.032785464
184	0xbdfe65e7	-0.1242178
185	0x3e687fc4	0.22704989
186	0x3d438377	0.047732797
187	0x3e2c93b0	0.16853213
188	0x3e5856e2	0.21126893
189	0x3d035976	0.03206774
190	0x3e76aa2e	0.24088356
191	0xbd447d23	-0.047970902
192	0x3dcdaa16	0.10042207
193	0xb99bde5b	-0.00029729572
194	0xbd43a3b7	-0.047763553
195	0x3d8ce1f1	0.068790324
196	0x3e686e98	0.22698438
197	0xbdce5d8b	-0.10076436
198	0x3d8993bd	0.06717632
199	0x3dffa86d	0.124832965
200	0x3e0f53f9	0.13996877
201	0x3ce544e0	0.027986944
202	0x3dc30335	0.09522096
203	0x3d1ce74b	0.038306516
204	0xbde26055	-0.1105353
205	0x3e047b54	0.12937671
206	0x3dbdb527	0.09263068
207	0xbde766c1	-0.112988956
208	0xbe251e15	-0.16124757
209	0x3e29ba05	0.16574867
210	0x3e3883ac	0.18018979
211	0xbe0325a6	-0.1280733
212	0xbdd8409b	-0.105591975
213	0xbe1ad5f9	-0.15120687
214	0xbe34cdd9	-0.1765665
215	0x3d9398bc	0.07206866
216	0xba47e913	-0.00076259783
217	0x3de2dbf3	0.11077108
218	0xbe3c6dd8	-0.18401277
219	0x3cc8232f	0.02443084
220	0xbe577eef	-0.21044515
221	0x3db2b308	0.08725554
222	0xbd3e4983	-0.046456825
223	0xbdaeb25d	-0.08530114
224	0x3e0be3e4	0.13661152
225	0xbd9ede68	-0.077572644
226	0x3e122279	0.14270963
227	0x3e531b4c	0.20615882
228	0x3e4407fa	0.19143668
229	0x3caaa542	0.020830754
230	0xbe29cba8	-0.16581595
231	0x3d749750	0.059714615
232	0x3e74aebd	0.23894782
233	0xbc148502	-0.009064915
234	0x3c5497f2	0.01297568
235	0x3da96ada	0.082723334
236	0x3e5277bc	0.20553488
237	0x3e6d184e	0.23153803
238	0xbe1b6d5d	-0.15178438
239	0x3bafd372	0.0053657824
240	0xbb6e9a8d	-0.0036408037
241	0x3e423da8	0.18968832
242	0xbcdbe15c	-0.026840858
243	0xbe389d89	-0.18028845
244	0xbc2f25f2	-0.010690199
245	0x3bb2e1dd	0.005459054
246	0x3d9a15da	0.07523699
247	0x3e760870	0.24026656
248	0x3e3f3a70	0.18674636
249	0xbba83c9d	-0.005134179

conceptizer.encoder.0.0.bias f4 [10]
0	0x3d14dbb0	0.036342323
1	0x3de18983	0.110125564
2	0x3e34a391	0.1764052
3	0xbd8178fe	-0.063219056
4	0x3e403b30	0.18772578
5	0x3d5f7fc7	0.054565217
6	0xbd85a932	-0.06526412
7	0xbd1d5f28	-0.038420826
8	0x3dada5ad	0.08478866
9	0x3dbd5a94	0.09245792

conceptizer.encoder.1.0.weight f4 [5, 10, 5, 5]
0	0xbd13f4f5	-0.03612228
1	0xbc831a7d	-0.016003842
2	0x3d89cb7d	0.067282654
3	0x3db044f0	0.08606899
4	0xbd2a839d	-0.041629422
5	0xbcd26fac	-0.025688015
6	0x3d394237	0.045229163
7	0x3d4aaf6b	0.049483698
8	0xbd335927	-0.043786194
9	0x3d102967	0.035195734
10	0xbd77b781	-0.060477737
11	0x3da4d4df	0.080484144
12	0xbd29d268	-0.041460425
13	0xbcc50a5e	-0.024052795
14	0xbdb4761e	-0.088115916
15	0x3cea6a72	0.02861521
16	0x3d4c59d4	0.049890354
17	0x3d23a140	0.0399487
18	0xbd1b67ba	-0.03794072
19	0xbd17eb9d	-0.037089933
20	0x3d079a10	0.03310591
21	0xbc040a20	-0.008059055
22	0x3cc10334	0.023561098
23	0xbc292a19	-0.010324978
24	0xbcf68128	-0.030090883
25	0x3d835179	0.06412024
26	0x3c2d367d	0.010572073
27	0x3c0a9c82	0.008460166
28	0xbc26b628	-0.010175265
29	0x3ba5b41d	0.0050568716
30	0x3d662b64	0.056193724
31	0xbbf19867	-0.007372904
32	0xbd312a85	-0.04325344
33	0x3cd32b50	0.025777489
34	0x3d5a06b7	0.05322906
35	0x3cbdae45	0.023154387
36	0x3ccd0ea3	0.025031393
37	0x3d0ac24c	0.033876702
38	0x3c1c7343	0.009548965
39	0xbc567883	-0.013090256
40	0xbca5f8da	-0.020260263
41	0xbbe6319d	-0.0070249573
42	0xbccba75b	-0.024860075
43	0x3db32b9d	0.08748553
44	0x3d3ff094	0.046860293
45	0x3bef9956	0.0073119802
46	0x3db3da93	0.08781924
47	0xbab8eef5	-0.0014109301
48	0x3b8c3ec5	0.0042799436
49	0xbd0a2537	-0.033726897
50	0x3d0d398c	0.03447871
51	0xbb5ae43d	-0.00334002
52	0xbcffc538	-0.03122197
53	0xbd159289	-0.0365167
54	0xbccc8810	-0.024967223
55	0xbb5af829	-0.0033412075
56	0xbc936014	-0.01799015
57	0x3cfea89f	0.031086264
58	0xbcece38c	-0.028917097
59	0x3da951d5	0.08267561
60	0x3d6e0301	0.058108333
61	0x3d14c680	0.036322117
62	0x3cc433d7	0.0239505
63	0xbc9633dd	-0.018335277
64	0x3ab6b8b5	0.0013940545
65	0x3d17feb2	0.03710813
66	0x3caa4a9c	0.02078753
67	0xbcad376e	-0.021144595
68	0x3d1ea83f	0.03873467
69	0xbd27521a	-0.040849783
70	0x3d71ec08	0.059062988
71	0xbbe44612	-0.006966361
72	0x3d82e415	0.063911594
73	0x3d7332d9	0.059374664
74	0x3c9bb144	0.019005425
75	0xbce87743	-0.02837718
76	0xbd04e9e0	-0.032449603
77	0xbd5e1ad8	-0.05422482
78	0x3bdb3b61	0.006690428
79	0x3d097401	0.033557896
80	0x3d8fd38a	0.0702277
81	0x3d1dd707	0.038535144
82	0xbd5914e6	-0.052998446
83	0x3d9bd1c4	0.07608369
84	0x3d8cf122	0.0688193
85	0x3da923d7	0.08258789
86	0x3c98b9f9	0.018643366
87	0xbd44110a	-0.047867812
88	0x3cd448c9	0.025913613
89	0x3a8afa37	0.0010603134
90	0xbd357468	-0.044300467
91	0xbd0abc0f	-0.033870753
92	0xbc823b86	-0.015897524
93	0x3d25d43f	0.040485617
94	0x3cf31df5	0.02967737
95	0x3cf36ae1	0.02971405
96	0xbb7fbe73	-0.0039023429
97	0x3d955949	0.072924204
98	0x3dca3ae8	0.09874517
99	0x3daa5a13	0.083179615
100	0x3d6e0298	0.058107942
101	0xbcbd9192	-0.023140702
102	0xbc8bf4bf	-0.017084477
103	0x3a899374	0.0010496215
104	0xbc1fbded	-0.009749872
105	0xbc831503	-0.01600123
106	0xbcff07c3	-0.03113163
107	0x3ba1d8a5	0.004939156
108	0x3d43f53e	0.047841303
109	0x3d60cdcc	0.054883763
110	0x3d745434	0.059650615
111	0xbd131209	-0.03590587
112	0x3da6f798	0.081526935
113	0xbbe6b740	-0.007040888
114	0xbd2022d4	-0.039095715
115	0xbb9cb633	-0.004782462
116	0x3d941254	0.07230058
117	0x3d11b89d	0.03557645
118	0x3d11405b	0.035461765
119	0x3d5008bb	0.050789576
120	0xbd2d67a0	-0.042335153
121	0x3cd5e4d4	0.02611009
122	0x3d7ee27a	0.062227704
123	0x3d0635f6	0.032766305
124	0x3a4f3264	0.0007903932
125	0x3c691e19	0.014228367
126	0x3daed4a5	0.085366525
127	0x3c06e836	0.008234074
128	0x3c9c7a74	0.019101359
129	0x3d01311f	0.031540986
130	0xbd84a522	-0.06476809
131	0x3d87476f	0.06605422
132	0x3cf2ed8a	0.029654283
133	0x3d070ee7	0.032973196
134	0xbc3a87c8	-0.011384912
135	0xbcf9b475	-0.030481556
136	0x3d7a238f	0.061069068
137	0x3d932998	0.07185668
138	0x3ce99cb6	0.028517108
139	0xba886f2f	-0.0010409112
140	0x3cde7ea0	0.027159989
141	0xbc2818b9	-0.010259801
142	0x3d574265	0.052553553
143	0xbd25f2cd	-0.040514756
144	0xbda2a44e	-0.07941495
145	0x3c52ea8b	0.012873302
146	0x3d919ba5	0.07109765
147	0xbcb73a03	-0.02236653
148	0xbd8d6d32	-0.06905593
149	0xbd2eacb5	-0.042645175
150	0x3d41bf64	0.047301665
151	0x3d3a0163	0.04541148
152	0x3ccea064	0.025222965
153	0x3d209fb4	0.039214805
154	0x3db97567	0.09055596
155	0x3d3f1841	0.04665399
156	0x3d70d743	0.05879904
157	0xbcbb9e26	-0.02290256
158	0xbd518d85	-0.051160354
159	0xbaad3c3a	-0.0013216801
160	0x3d219fe3	0.03945912
161	0x3d34cb40	0.044139147
162	0xbbe81761	-0.007082865
163	0xbce04d50	-0.027380615
164	0x3ccb596f	0.024822919
165	0x3da0f093	0.07858386
166	0xbbd782a6	-0.006576854
167	0xbc3d78f5	-0.011564483
168	0xbbf45637	-0.0074565667
169	0xbcef6123	-0.029221123
170	0xbc9505b9	-0.018191205
171	0x3c15d22b	0.009144346
172	0x3d4b74b1	0.049671832
173	0xbca8ec4a	-0.020620484
174	0xbc8bbf3c	-0.017058961
175	0xbda15d54	-0.07879129
176	0xbd977006	-0.07394414
177	0x3cf1f552	0.029535923
178	0x3c4ee23d	0.012627182
179	0xbd508ee0	-0.050917506
180	0x3c93e1b3	0.018051958
181	0x3d3a7865	0.045524973
182	0xbdb4b6bf	-0.088239186
183	0xbd6ac07e	-0.05731248
184	0xbddb512f	-0.10708844
185	0x3d529b0a	0.051417388
186	0xbd0dbef8	-0.03460595
187	0xbd9c079d	-0.076186396
188	0xbcef330e	-0.02919915
189	0x3d0a3d52	0.033749886
190	0xbc687610	-0.014188305
191	0x3cad5b43	0.021161681
192	0xbd50d0bd	-0.05098032
193	0xbc095cc4	-0.008383933
194	0xbd70ff74	-0.05883737
195	0xbbd572e2	-0.0065139392
196	0xbd740a63	-0.059580218
197	0xbe04cf64	-0.12969738
198	0xbd81e028	-0.063415825
199	0xbdad0616	-0.084484264
200	0xbd6181d1	-0.055055443
201	0x3d748ee8	0.0597066
202	0x3bdcbc89	0.0067363423
203	0xbc2da83f	-0.010599195
204	0x3d6d9267	0.05800095
205	0x39766a5e	0.00023500013
206	0x3cf87d7b	0.030333271
207	0x3d78b9f2	0.060724206
208	0x3d15f0c6	0.036606573
209	0x3d9255a5	0.07145242
210	0x3ccf98b5	0.025341371
211	0xbd096436	-0.033542834
212	0xbd0fb4fa	-0.035084702
213	0x3d0eae4b	0.034834187
214	0xbab6f02b	-0.0013957074
215	0x3ca09f26	0.019607138
216	0x3dad5c4e	0.08464871
217	0x3d374724	0.04474558
218	0x3c369c66	0.011145687
219	0x3d4fa229	0.050691757
220	0xbd665341	-0.05623174
221	0x3da9e8da	0.08296366
222	0x3bb09aae	0.005389533
223	0x3cd3d3b8	0.025857791
224	0x3cd9c502	0.026583198
225	0xbb9f00d7	-0.004852395
226	0xbd2ee8be	-0.04270243
227	0x3c8f8c40	0.017522931
228	0x3db22940	0.08699274
229	0x3d027c59	0.03185687
230	0xbc11f39c	-0.008908179
231	0x3d93ac19	0.072105594
232	0x3d1e641a	0.038669683
233	0xbd544d9c	-0.051831827
234	0xbd259ad5	-0.040430862
235	0x3aac2a7a	0.0013135218
236	0x3d9ece86	0.07754235
237	0xbd15d705	-0.03658201
238	0x3b9e8128	0.004837174
239	0xbdada7a4	-0.084792405
240	0x3d3109de	0.0432223
241	0x3c054fd9	0.008136713
242	0xbcec519c	-0.028847508
243	0xbd926400	-0.0714798
244	0xbbac69af	-0.005261622
245	0x3c1f7cf2	0.009734379
246	0xbccb2683	-0.024798637
247	0x3c401d0a	0.011725673
248	0x3c9f76e5	0.019465873
249	0xbd8e7c0d	-0.069572546
250	0x3d064903	0.032784473
251	0x3d85ec56	0.06539218
252	0x3d01f4d8	0.03172764
253	0x3d75250a	0.059849776
254	0x3d3e44c9	0.046452317
255	0x3d4ab701	0.049490932

conceptizer.encoder.1.0.bias f4 [5]
0	0xbcef8f59	-0.029243158
1	0x3d5f28d0	0.05448228
2	0xbd0a400f	-0.033752497
3	0xbc301eaf	-0.010749503
4	0x3d289081	0.041153435

conceptizer.encoder.2.layers.0.weight f4 [1, 16]
0	0xbca52d0d	-0.020163083
1	0xbe3469f1	-0.17618538
2	0xbdb591a3	-0.088656686
3	0xbe50bde6	-0.2038494
4	0x3df5c252	0.11999954
5	0x3dfd71e2	0.12375237
6	0x3dc72ddb	0.09725543
7	0xbe64fade	-0.22361323
8	0xbe1ce33c	-0.15321058
9	0xbe472627	-0.19448148
10	0xbe6a0a44	-0.22855479
11	0xbe7bed71	-0.24602295
12	0x3d6693e7	0.056293394
13	0xbe2dad75	-0.169607
14	0xbe400758	-0.18752801
15	0x3e150a87	0.14554797

conceptizer.encoder.2.layers.1.weight f4 [1, 16]
0	0x3e02f4c2	0.1278868
1	0xbe891aef	-0.2677836
2	0xbd93131e	-0.07181381
3	0x3cc96e6c	0.024588786
4	0xbdcf75d3	-0.10129895
5	0x3d91bbba	0.07115884
6	0xbe942cf2	-0.2894054
7	0x3e0976a9	0.13424172
8	0xbbbb616a	-0.0057184
9	0xbe8ca863	-0.2747222
10	0xbda4bdd1	-0.08044017
11	0xbd35d57e	-0.044393055
12	0x3d7f8e61	0.062391642
13	0xbd90f76f	-0.07078444
14	0x3d615064	0.055008307
15	0x3de1ff0e	0.11034976

conceptizer.encoder.2.layers.2.weight f4 [1, 16]
0	0xbe5ae846	-0.21377668
1	0x3e16fcbe	0.14744851
2	0x3e600149	0.2187549
3	0x3e0b59b1	0.13608433
4	0x3d9eed4e	0.07760106
5	0xbe2d76ed	-0.16939898
6	0x3e6ce091	0.2313254
7	0xbe543c45	-0.20726116
8	0xbe9d95df	-0.30778405
9	0xbe0d7b38	-0.13816535
10	0x3e1e3d2c	0.15453023
11	0xbe3a596d	-0.18198176
12	0xbe48ca3c	-0.19608396
13	0x3e1aaaba	0.1510419
14	0x3e3e176a	0.1856362
15	0xbdbebfd0	-0.09313929

conceptizer.encoder.2.layers.3.weight f4 [1, 16]
0	0x3e81a7b5	0.25323263
1	0x3dfa4a92	0.122212544
2	0xbd98490c	-0.074358076
3	0x3e37eeb2	0.17962149
4	0x3c4bd54a	0.012440989
5	0x3dec5c6b	0.11541065
6	0x3dabc954	0.0838801
7	0x3de98507	0.11402326
8	0xbdf1cea2	-0.1180699
9	0x3e665378	0.22492778
10	0xbdee23e6	-0.11627941
11	0x3db151ca	0.08658178
12	0x3df673fa	0.120338395
13	0xbd954f96	-0.072905704
14	0xbdb79dd4	-0.0896565
15	0xbdf34286	-0.11877923

conceptizer.encoder.2.layers.4.weight f4 [1, 16]
0	0x3e12c4d4	0.14332896
1	0xbe4d8dbd	-0.200736
2	0xbd23e1ca	-0.04001025
3	0xbb3cb53c	-0.0028794548
4	0xbe869a1f	-0.2628946
5	0xbdc992c7	-0.09842449
6	0x3da74a75	0.081684984
7	0xbde70452	-0.11280121
8	0xbdd0dc98	-0.10198325
9	0xbe86865d	-0.26274386
10	0xbe74c781	-0.2390423
11	0xbd34cf42	-0.04414297
12	0x3cd54ed1	0.02603856
13	0x3e14a158	0.14514673
14	0x3d380639	0.04492781
15	0xbd521840	-0.051292658

conceptizer.decoder.0.0.weight f4 [5, 16, 5, 5]
0	0xbbedd179	-0.007257637
1	0x3dcbe87d	0.09956453
2	0x3db32f05	0.08749203
3	0x3dd3dad6	0.10344474
4	0x3def53c8	0.11685902
5	0x3d4d0f4c	0.050063416
6	0x3da83fa8	0.082152665
7	0x3d9b9860	0.075974226
8	0xbcc80f82	-0.024421457
9	0xbd1c058e	-0.038091235
10	0x3de14cda	0.110009864
11	0x3d0e0414	0.034671858
12	0xbc111c57	-0.008856854
13	0x3d8467a5	0.06465081
14	0x3db61abd	0.08891819
15	0xbc9db53a	-0.019251455
16	0x3da17f3b	0.078855954
17	0x3cd88833	0.026432132
18	0xbc104c1f	-0.008807211
19	0xbd53fe22	-0.05175603
20	0x3cb50239	0.022095786
21	0xbdd44f76	-0.103667185
22	0xbd8d97b6	-0.06913702
23	0x3d00125c	0.03126751
24	0x3dd1ae53	0.10238328
25	0x3ce21a44	0.027600415
26	0x3dc07dd6	0.09399001
27	0x3d1245ce	0.035711102
28	0x3d212558	0.039342254
29	0x3db399b8	0.08769554
30	0x3d91b0b8	0.071137846
31	0x3d801312	0.062536374
32	0xbd8b1309	-0.0679074
33	0x3d8162f7	0.06317704
34	0x3d5c10ec	0.053727075
35	0x3d776bf4	0.060405686
36	0x3cc0124e	0.023446228
37	0x3dc37e08	0.09545523
38	0x3da9377a	0.082625344
39	0xbbc52001	-0.006015778
40	0x3d93164d	0.07181988
41	0xbd20d50a	-0.03926567
42	0x3dd97f60	0.10619998
43	0x3d492cab	0.049114864
44	0xbe07c7da	-0.13259831
45	0x3d68666c	0.056738302
46	0x3dd0e25b	0.10199424
47	0x3d54de84	0.05197002
48	0xbd617fea	-0.05505363
49	0xbd39ebc3	-0.045390856
50	0x3dde3eac	0.108517975
51	0x3cd33825	0.025783608
52	0x3c64dcd2	0.013968663
53	0x3d97d51a	0.07413693
54	0x3da8bdbf	0.08239316
55	0x3d5552e4	0.052081004
56	0x3dbc5669	0.09196169
57	0x3ddaa072	0.10675134
58	0xbd841e55	-0.06451098
59	0x3cd77735	0.02630196
60	0x3caee88d	0.021351123
61	0x3cb06331	0.021531673
62	0x3c912e35	0.017722229
63	0xbdac6bf4	-0.08419028
64	0xbcb8c153	-0.022553122
65	0x3df0ceca	0.11758192
66	0x3dae94c2	0.08524467
67	0xbc20d3bf	-0.009816109
68	0xbd03eb75	-0.03220697
69	0x3e17a0c9	0.14807428
70	0x3de3b212	0.111179486
71	0x3dcf789b	0.101304255
72	0x3c16dcf4	0.009207953
73	0xbdb0689c	-0.08613703
74	0xbe3e5397	-0.18586574
75	0x3cd5ec86	0.02611376
76	0x3b4872d2	0.0030586016
77	0xbc8bd259	-0.017068075
78	0x3dbaec4c	0.09127101
79	0x3d80fba7	0.06297999
80	0xbdaa1e3e	-0.083065495
81	0xbca11c48	-0.019666806
82	0xbc54aaf4	-0.0129802115
83	0xbdc66e29	-0.0968898
84	0xbcdf5967	-0.02726431
85	0x3c9b6fb7	0.018974168
86	0xbd763901	-0.060112957
87	0xbdcd98b2	-0.1003889
88	0x3be6d7fa	0.0070447894
89	0x3d4215ad	0.047383953
90	0x3d56ca6b	0.052439135
91	0x3b804d60	0.003915474
92	0xbd0cd0d2	-0.034378834
93	0x3dbafe30	0.09130514
94	0xbdc1f93f	-0.09471368
95	0x3ddce3ee	0.10785662
96	0x3d3e118b	0.04640345
97	0x3c211bf4	0.009833325
98	0x3d3fb01d	0.046798814
99	0x3df18299	0.11792488
100	0x3d05ceab	0.032667797
101	0xbd8b9297	-0.06815069
102	0x3de4bb75	0.11168567
103	0x3d2a2ff7	0.04154965
104	0x3e31d5a1	0.17366649
105	0xbcba439d	-0.022737319
106	0xbc52a638	-0.012857012
107	0x3daed33a	0.08536382
108	0xbd9808a7	-0.07423525
109	0xbdfb52f9	-0.12271685
110	0xbc7cdd53	-0.015433627
111	0x3cc5b15a	0.02413242
112	0xbb79365b	-0.0038026783
113	0xbdff3d09	-0.124628134
114	0xbdaaf85b	-0.08348151
115	0x3cf3130b	0.029672166
116	0x3c89be1f	0.01681429
117	0x3dae40ca	0.08508451
118	0xbd3fd00d	-0.046829272
119	0xbe23dca6	-0.1600214
120	0xb8c13e33	-9.214543e-05
121	0xbc8eb65b	-0.017420938
122	0x3a589122	0.00082613726
123	0xbbb1315b	-0.005407495
124	0xbd88487a	-0.06654449
125	0x3e0203d1	0.12696768
126	0xbb8046ed	-0.003914705
127	0x3ce14258	0.027497455
128	0x3da846d1	0.08216632
129	0x3d21511f	0.039384004
130	0x3cd17dd8	0.025572702
131	0xbdb6c080	-0.08923435
132	0x3d131291	0.03590638
133	0x3d1bf3fc	0.03807448
134	0xbd9c18fb	-0.07621952
135	0x3ccec672	0.02524111
136	0xbd507a79	-0.05089805
137	0x3c4f4c95	0.012652536
138	0xbd01f32b	-0.031726044
139	0x3d7a9049	0.061172757
140	0x3d1668ba	0.03672097
141	0x3c3516f5	0.011052837
142	0x3c836aa3	0.01604206
143	0xbde7163f	-0.1128354
144	0x3dc112e0	0.09427428
145	0x3e116e94	0.14202338
146	0x3d03c1fb	0.032167416
147	0xbbf6a861	-0.0075273965
148	0xbe106947	-0.1410266
149	0x3db610a3	0.08889892
150	0x3d6b46fe	0.05744075
151	0x3c515b38	0.012778096
152	0x3d8b4e1d	0.06802008
153	0x3d2c2b46	0.042033456
154	0x3da01e1d	0.07818244
155	0xbd1f71f5	-0.038927037
156	0x3d426615	0.047460634
157	0x3dfe6df1	0.124233134
158	0xbc1b69eb	-0.009485702
159	0xbe2c9d6c	-0.16856927
160	0xbca3a854	-0.019977726
161	0x3de8320c	0.11337671
162	0x3d9c45f2	0.076305285
163	0x3cd9a8ec	0.026569806
164	0x3d98a636	0.07453577
165	0x3d83db77	0.06438344
166	0xbd2cbcc5	-0.042172212
167	0x3d35b695	0.044363577
168	0x3db09aec	0.08623299
169	0xbd8ff4ca	-0.07029112
170	0xbccc9f4e	-0.024978306
171	0x3d2866c1	0.04111362
172	0xbd19672c	-0.037451908
173	0xbdd8011b	-0.10547086
174	0xbe10f449	-0.14155687
175	0x3e27a57a	0.16371718
176	0x3db8072c	0.08985743
177	0x3dc4c2ec	0.09607491
178	0x3df5376e	0.11973463
179	0x3e251f44	0.16125208
180	0x3cba3bcf	0.022733597
181	0x3d395d28	0.045254856
182	0x3d29e725	0.041480202
183	0x3db498cd	0.08818207
184	0x3d6cf3ce	0.057849698
185	0x3d978813	0.07399001
186	0x3db45b7f	0.08806514
187	0x3cb0d1df	0.02158445
188	0xbd9c0db8	-0.07619804
189	0xbd3d6bbf	-0.046245333
190	0x3ce6bed0	0.028167158
191	0x3d1b05f9	0.037847493
192	0xbe25b300	-0.16181564
193	0xbe041c70	-0.12901473
194	0xbc0f99ce	-0.008764697
195	0x3d99937b	0.07498833
196	0x3e0520e0	0.13000822
197	0xbd114746	-0.035468362
198	0xbdcf91f0	-0.10135257
199	0xbe3a5cff	-0.18199538
200	0x3d6f0392	0.058353014
201	0xbcd93078	-0.02651237
202	0xbd533916	-0.051568113
203	0x3d4b2e25	0.049604554
204	0x3e022b16	0.12711748
205	0x3d0a408a	0.033752955
206	0xbc973a6d	-0.018460477
207	0xbdd4be72	-0.10387887
208	0xbd69ad1b	-0.057049852
209	0x3ddb97e5	0.10722331
210	0x3d589d64	0.052884474
211	0x3ca6baa8	0.020352677
212	0xbdf4f917	-0.119615726
213	0x3d9c62b7	0.07636016
214	0x3ddeadaf	0.10872971
215	0x3e154965	0.14578779
216	0x3dc9b381	0.09848691
217	0xbcefd794	-0.0292776
218	0x3d6219ff	0.055200573
219	0x3dca5453	0.09879365
220	0x3cc265a9	0.023730116
221	0xbe116de0	-0.1420207
222	0xbe0327fc	-0.12808222
223	0xbd810e2f	-0.063015334
224	0x3dcfac47	0.10140281
225	0x3d5bafb5	0.053634364
226	0x3dbd8586	0.09253983
227	0x3d9fd3dc	0.07804081
228	0x3dc69050	0.09695494
229	0x3cb7cf71	0.022437783
230	0x3dbf0faa	0.093291596
231	0x3d5f8fc9	0.054580484
232	0x3d1394f4	0.036030725
233	0xbd09840f	-0.033573207
234	0x3e0867bd	0.13320823
235	0x3d511594	0.05104597
236	0x3db2ad26	0.08724432
237	0x3cfb77cd	0.030696774
238	0x3c719578	0.014745109
239	0x3c15c12b	0.009140293
240	0x3d715635	0.058920104
241	0xbda75b78	-0.08171743
242	0xbd76154b	-0.0600789
243	0x3d70bda6	0.058774613
244	0xbd30ec4e	-0.043194108
245	0x3df5d907	0.12004285
246	0x3df93a5b	0.121693335
247	0xbce20270	-0.027589053
248	0xbcf78a18	-0.030217215
249	0xbd8ec83d	-0.06971786
250	0xbd1b2161	-0.03787363
251	0xbd32148f	-0.043476637
252	0x3d1200cc	0.03564529
253	0xbd95f7f3	-0.07322683
254	0xbdfa4f7a	-0.1222219
255	0xbd45e0ed	-0.04831021

conceptizer.decoder.0.0.bias f4 [16]
0	0xbafc0708	-0.001922817
1	0x3d08be0c	0.033384368
2	0x3d9be885	0.07612709
3	0x3d939478	0.072060525
4	0x3c70fe72	0.014709102
5	0x3da488aa	0.08033879
6	0x3d9f1e40	0.077694416
7	0x3d8da575	0.06916324
8	0x3d2dcc05	0.042430896
9	0x3d42b582	0.04753638
10	0x3e029e66	0.12755737
11	0x3d385dcc	0.045011327
12	0x3d25e063	0.040497195
13	0x3c4c37ea	0.012464503
14	0x3c069e5d	0.008216468
15	0x3dd40c40	0.10353899

conceptizer.decoder.2.0.weight f4 [16, 8, 5, 5]
0	0x3de8539a	0.11344071
1	0x3dc896bc	0.09794375
2	0x3dbf0eb1	0.09328974
3	0xbd6b8fd2	-0.057510205
4	0x3d9d3a8d	0.07677183
5	0x3d275c74	0.040859655
6	0x3dbe990e	0.093065366
7	0x3c76f4b8	0.015072994
8	0xbd0c6804	-0.034278885
9	0x3e33148d	0.17488308
10	0xbd577fb9	-0.05261204
11	0x3d8103fe	0.062995896
12	0xbd8cd68c	-0.06876859
13	0x3cb8eb7a	0.022573221
14	0xbc43c2c8	-0.011948295
15	0xbc1fa3a5	-0.009743606
16	0x3cd32522	0.025774542
17	0xbdae3c78	-0.08507627
18	0xbce6d8ea	-0.028179605
19	0xbc90915a	-0.017647434
20	0xbd657618	-0.056020826
21	0xbd90689e	-0.07051204
22	0xbdfa2568	-0.12214166
23	0xbd4ac800	-0.04950714
24	0x3d575c57	0.052578297
25	0xbd4daf7a	-0.050216176
26	0xbdf23041	-0.1182561
27	0xbcc5f23f	-0.024163364
28	0x3d305875	0.04305311
29	0x3d248b17	0.04017171
30	0x3bf8c827	0.0075922194
31	0xbdb8a8eb	-0.090165935
32	0xbd1ff0a0	-0.039047837
33	0x3c0c5528	0.008565225
34	0xbcbcf591	-0.023066314
35	0xbcf3a0f8	-0.029739842
36	0xbbbd880d	-0.005784041
37	0xbc98fdb8	-0.01867567
38	0x3c731941	0.014837564
39	0xbcfc1c74	-0.030775286
40	0xbcc416dc	-0.023936681
41	0x3c527860	0.012846082
42	0x3da412ee	0.08011423
43	0x3dae3897	0.085068874
44	0x3cfc4725	0.030795643
45	0x3d74e451	0.059788052
46	0x3db8ea25	0.090290345
47	0x3dda6f7e	0.10665797
48	0x3d2c2a43	0.04203249
49	0x3ca87d15	0.020567456
50	0x3d9277ca	0.07151754
51	0x3c0052a0	0.007832199
52	0xbd8f7df6	-0.07006447
53	0x3cb8ddcc	0.022566698
54	0x3cf5a5cf	0.02998629
55	0xbd532e36	-0.051557742
56	0x39e02bde	0.00042757293
57	0xbd5a3bdf	-0.053279754
58	0xbd822189	-0.063540526
59	0x3d5608af	0.052254375
60	0x3ba3b2ce	0.0049956804
61	0xbd08ee6a	-0.033430494
62	0xbd83b714	-0.06431404
63	0x3bffba5f	0.0078041996
64	0xbcf6bd4a	-0.030119557
65	0x3c6c6068	0.014427282
66	0x3b8db94c	0.0043250676
67	0xbc18f419	-0.009335541
68	0xbd7a9e4c	-0.06118612
69	0xbd220fe9	-0.039565954
70	0x3d2a1b17	0.04152974
71	0xbd9f4a51	-0.077778466
72	0x3cdb92dc	0.026803426
73	0xbc089e3f	-0.00833851
74	0xbccc2b88	-0.024923101
75	0x3dd33c15	0.10314194
76	0x3e137ff1	0.14404275
77	0x3df805e0	0.121104956
78	0x3cf85eab	0.030318579
79	0x3d26369b	0.04057942
80	0x3e13223e	0.14368531
81	0x3d8988a5	0.06715516
82	0x3ca940d3	0.020660793
83	0x3d1f3e3d	0.038877714
84	0x3d2f5fd7	0.04281601
85	0xbe17e8ce	-0.14834902
86	0xbdf670ca	-0.120332316
87	0xbd2ce847	-0.042213704
88	0xbcfa3205	-0.03054143
89	0x3d85e3a7	0.06537562
90	0xbe1ad1c2	-0.15119079
91	0xbe0321b6	-0.12805828
92	0xbddc4738	-0.107557714
93	0xbbb4880a	-0.005509381
94	0x3d68ebab	0.056865375
95	0xbc2f56a5	-0.01070181
96	0xbdc3680c	-0.0954133
97	0xbe07b193	-0.13251333
98	0xbd90ac12	-0.0706407
99	0xbcaaedf0	-0.02086541
100	0x3d663ed7	0.056212272
101	0xbc84093e	-0.016117688
102	0xbd189be5	-0.037258048
103	0xbd356b17	-0.044291582
104	0xbda135f0	-0.07871616
105	0x3e3e4d8d	0.18584271
106	0x3dbce467	0.09223252
107	0x3dae8508	0.085214674
108	0x3d9480c1	0.0725112
109	0x3dbedc6a	0.093193844
110	0xbc72add9	-0.014811956
111	0x3c98ce96	0.018653195
112	0x3d9774f9	0.07395358
113	0x3ddce6a1	0.107861765
114	0x3d83070c	0.063978285
115	0xbde7dc88	-0.1132136
116	0xbc8dc7ad	-0.017307127
117	0x3b9cd99f	0.0047866846
118	0x3d0ba34f	0.03409129
119	0xbda98703	-0.082777046
120	0xbe28c98b	-0.16483133
121	0xbd4e1937	-0.050317015
122	0xbe09732f	-0.13422845
123	0xbd4da0a1	-0.050202016
124	0xbc71f438	-0.014767699
125	0x3e00106b	0.12506263
126	0x3e02aa1c	0.12760204
127	0x3dd562fb	0.1041927
128	0x3bd75ed1	0.0065725823
129	0x3dc5d134	0.09659043
130	0x3dfe146b	0.12406238
131	0x3de7c16b	0.113161884
132	0x3de4d6d4	0.11173788
133	0x3d204423	0.03912748
134	0x3d93b579	0.072123475
135	0xbdd1b9e9	-0.10240538
136	0xbe041de8	-0.12902033
137	0xbd1adc8b	-0.037807982
138	0xbc4648d7	-0.012102327
139	0xba9e8dd5	-0.0012096713
140	0xbde35c52	-0.11101593
141	0xbe06877e	-0.13137624
142	0xbd8abdd9	-0.06774492
143	0xbe05029c	-0.12989277
144	0xbd6579dc	-0.056024417
145	0xbd4bcd32	-0.049756236
146	0xbe210e17	-0.15728031
147	0xbcb65491	-0.022257121
148	0xbd26c5f6	-0.040716134
149	0x3d285db1	0.041104976
150	0x3e144fe3	0.144836
151	0x3e1aa1f1	0.15100838
152	0x3d4ce8ec	0.05002682
153	0x3c45bd8a	0.012069115
154	0x3d94950b	0.0725499
155	0xbcffd126	-0.03122766
156	0x3cdab3fb	0.02669715
157	0x3da98680	0.08277607
158	0x3de1782f	0.11009251
159	0x3cdb097b	0.02673792
160	0xbd562625	-0.05228247
161	0xbd913566	-0.07090263
162	0xbd23acb1	-0.039959613
163	0xbd14728b	-0.03624205
164	0xbde79959	-0.113085456
165	0xbd61c961	-0.05512369
166	0x3cbf6bef	0.023366896
167	0xbdc0878d	-0.09400854
168	0xbe09d264	-0.13459164
169	0xbd4f0b65	-0.050547976
170	0xbcaac978	-0.02084802
171	0xbc32bb17	-0.0109088635
172	0xbe02f340	-0.12788105
173	0xbe06eaa2	-0.13175443
174	0xbc71420e	-0.014725221
175	0x3e33bb99	0.17552032
176	0x3e189640	0.14901066
177	0x3da0aa4f	0.07844984
178	0x3ae65bac	0.0017574928
179	0x3d36a973	0.044595193
180	0xbccfc122	-0.025360648
181	0x3cd06f9e	0.025443848
182	0xbcdddc16	-0.027082484
183	0x3d8f7fae	0.07006775
184	0x3ce01346	0.02735294
185	0xbe06ccc8	-0.13164055
186	0xbd7531d8	-0.059861988
187	0x3c72d099	0.014820241
188	0xbc16462f	-0.0091720065
189	0x3d2c5e54	0.042082146
190	0xbd4574ff	-0.04820728
191	0xbdf45807	-0.119308524
192	0xbd9cf46d	-0.07663808
193	0x3d1ed077	0.038773026
194	0x3ca7f170	0.020500869
195	0xbe058162	-0.13037637
196	0xbd506cca	-0.050885
197	0xbdb4aa48	-0.08821541
198	0x3d272b72	0.040812917
199	0x3d778d2e	0.060437374
200	0x3e0eb747	0.13937102
201	0x3c907722	0.017634932
202	0x3d2c4209	0.042055164
203	0x3dcc6df8	0.099819124
204	0x3dad7790	0.0847007
205	0x3e04fd59	0.1298727
206	0xbd3dc786	-0.04633286
207	0x3d199e49	0.037504468
208	0x3c95acb4	0.018270828
209	0x3e04ca3a	0.12967768
210	0xbb840a99	-0.0040295837
211	0xbdcc6cf8	-0.09981722
212	0xbdac3c30	-0.08409917
213	0x3c61ec7a	0.013789291
214	0x3cb94896	0.02261762
215	0xbdc77673	-0.09739389
216	0x3d06dc0a	0.03292469
217	0x3c5c169f	0.013433128
218	0xbcacbbb2	-0.021085594
219	0x3cf22ddc	0.029562883
220	0x3a0ca8ea	0.00053657463
221	0x3dfb4b5b	0.12270232
222	0xbd9f5e04	-0.07781604
223	0xbcfaa1c2	-0.03059471
224	0x3dea4be2	0.11440255
225	0xbd77acf1	-0.060467664
226	0xbd911f63	-0.07086065
227	0xbd1399e4	-0.036035433
228	0xbc5d88df	-0.013521402
229	0x3c8a4446	0.016878258
230	0xbda0a6d6	-0.078443214
231	0xbb9379f5	-0.0045006224
232	0xbc968763	-0.018375104
233	0x3ccebd23	0.025236672
234	0xbc487b0c	-0.012236368
235	0x3dd2eefa	0.102994874
236	0x3e0881a8	0.1333071
237	0x3d9eb1af	0.07748734
238	0x3dae5121	0.08511568
239	0x3d17cc71	0.037060205
240	0x3d96915b	0.07351943
241	0x3d820b69	0.063498326
242	0xbd307e41	-0.043089155
243	0xbd1adf84	-0.037810817
244	0x3d9204f1	0.07129849
245	0xbd7bf130	-0.06150931
246	0xbd9f839f	-0.077887766
247	0xbd9a52d1	-0.07535327
248	0x3d8daff6	0.069183275
249	0x3d45784a	0.04821042
250	0xbcb7dbed	-0.022443736
251	0x3b1cc98a	0.0023923838
252	0xbcb398f2	-0.021923516
253	0x3ce7a37c	0.028276198
254	0xbd77878c	-0.060432002
255	0x3d451f94	0.04812582

conceptizer.decoder.2.0.bias f4 [8]
0	0x3d2c21cb	0.042024415
1	0xbb0d9dd8	-0.0021608975
2	0x3d4db8b2	0.050224967
3	0x3d3c5dfc	0.045988068
4	0x3d84a1f6	0.06476204
5	0x3ce85b09	0.028363721
6	0x3ce5712e	0.02800807
7	0x3cf906f9	0.030398833

conceptizer.decoder.4.0.weight f4 [8, 1, 2, 2]
0	0xbf0c87be	-0.54894626
1	0xbe90b78e	-0.2826504
2	0xbecc305b	-0.39880642
3	0x3ea51bc3	0.32247743
4	0x3f09545c	0.5364435
5	0x3f0df898	0.5545745
6	0x3f0e8f10	0.55687046
7	0x3f1125ed	0.56698495
8	0x3eb67b19	0.3564079
9	0x3ec156e6	0.3776161
10	0x3ed1e7f6	0.40997285
11	0xbea61c22	-0.3244334
12	0xbf0191af	-0.5061292
13	0xbf1335ad	-0.5750378
14	0xbeee1770	-0.46502256
15	0xbf08d81f	-0.53454775
16	0xbeb754c4	-0.3580686
17	0xbefeb81a	-0.49749833
18	0x3e5fb82e	0.21847603
19	0xbd377eb9	-0.044798587
20	0xbee2fef2	-0.44335133
21	0xbdc111f0	-0.094272494
22	0xbf2b9e47	-0.6703839
23	0xbec9e038	-0.39428878
24	0x3b906b90	0.0044073537
25	0xbf08568d	-0.53257066
26	0xbe2fd442	-0.17170814
27	0xbe02fc46	-0.12791547
28	0x3eafff48	0.34374452
29	0xbeddb01f	-0.43298432
30	0x3da02b6e	0.078207836
31	0xbf1d6e43	-0.6149637

conceptizer.unlinear.weight f4 [16, 1]
0	0xbf4aa1de	-0.7915324
1	0x3eec28ec	0.4612497
2	0xbee053aa	-0.4381383
3	0xbf976f39	-1.1830817
4	0xbf6d8093	-0.92774314
5	0xbf0c342d	-0.54767114
6	0x3f688677	0.9083018
7	0xbf54c818	-0.8311782
8	0xbf20b6f3	-0.6277916
9	0xbf52e6a1	-0.8238316
10	0x3f819467	1.0123414
11	0x3f157b48	0.5839124
12	0xbf476f98	-0.77904654
13	0xbda82ce0	-0.08211684
14	0xbf1998ab	-0.5999858
15	0x3f1b1473	0.6057808

conceptizer.unlinear.bias f4 [16]
0	0x3f3628cd	0.7115601
1	0xbe71a7ec	-0.23599213
2	0xbf8a530e	-1.0806596
3	0x3f577cae	0.8417462
4	0x3ec44037	0.38330242
5	0x3e205c81	0.15660287
6	0xbf194c3e	-0.5988196
7	0x3ef64976	0.4810292
8	0x3e1a9fb9	0.15099992
9	0xbf17fb50	-0.5936785
10	0xbf30ec8f	-0.6911096
11	0x3f25c9ed	0.6476124
12	0xbe790bff	-0.24320982
13	0xbf1f116a	-0.62135947
14	0xbf1ba9db	-0.60806054
15	0x3ec43855	0.38324228

parameterizer.cl_layers.0.weight f4 [10, 1, 5, 5]
0	0x3dfc8935	0.12330858
1	0xbc792a02	-0.015207769
2	0x3d9b4eb6	0.07583372
3	0x3e11677e	0.14199635
4	0x3dc0ade0	0.09408164
5	0xbc475de0	-0.012168378
6	0x3e5d0dc2	0.2158728
7	0xbdd35457	-0.10318821
8	0xbdf88b34	-0.12135926
9	0xbdb883c0	-0.09009504
10	0x3d834f59	0.06411619
11	0x3e012ff5	0.1261595
12	0x3dbb2294	0.09137455
13	0x3e857575	0.26066175
14	0x3e581118	0.21100271
15	0xbe511c8d	-0.20421048
16	0xbdade98e	-0.08491813
17	0xbdfd17b9	-0.1235804
18	0xbde3c131	-0.11120833
19	0xbe3d9eb1	-0.18517567
20	0xbd04dc3c	-0.032436594
21	0xbe64dd5c	-0.22350067
22	0xbe4b7526	-0.19868907
23	0xbe13b8be	-0.14425942
24	0xbe2c6cce	-0.1683838
25	0xbded354d	-0.11582432
26	0xbd80b7a1	-0.062850244
27	0x3e3ba864	0.18325955
28	0xbd4d41ef	-0.050111707
29	0xbce6a5a9	-0.028155165
30	0xbe2b2b0f	-0.16715644
31	0xbdf346e2	-0.11878754
32	0xbcbf0c4c	-0.023321293
33	0xbc16b69d	-0.009198812
34	0xbd965072	-0.073395625
35	0xbe01fd6f	-0.12694333
36	0x3dad084c	0.08448848
37	0xbe144b48	-0.14481843
38	0xbbd48b45	-0.006486329
39	0xbdf0e2dc	-0.1176202
40	0x3e3602eb	0.1777455
41	0xbda88b0b	-0.08229645
42	0x3b1dc2b1	0.0024072344
43	0xbe41d20c	-0.18927783
44	0xbde517cd	-0.1118618
45	0x3e80003b	0.25000176
46	0x3da14d44	0.078760654
47	0xbdfe9bcb	-0.12432059
48	0x3e46e710	0.19424081
49	0xbe2dd1fa	-0.16974631
50	0xbde086ea	-0.10963233
51	0x3d654a28	0.055978924
52	0x3de50ebc	0.11184451
53	0x3df5c6a5	0.12000779
54	0x3d388601	0.04504967
55	0x3cad9847	0.021190776
56	0xbdc1201c	-0.094299525
57	0x3e12a150	0.14319348
58	0x3dd1e82a	0.1024936
59	0x3dba6cff	0.091028206
60	0x3dc0b2c8	0.094091
61	0xbb3ce493	-0.0028822764
62	0xbd9f0271	-0.077641375
63	0x3de78c8c	0.11306104
64	0x3db3099a	0.08742066
65	0xbdfa8d81	-0.12234021
66	0xbe106fec	-0.14105195
67	0x3d9ef3e2	0.07761361
68	0xbb9e2070	-0.004825644
69	0x3e4e1f81	0.20129205
70	0x3d163666	0.036672972
71	0xbe34a521	-0.17641117
72	0xbd986d98	-0.07442778
73	0xbd2dc276	-0.04242178
74	0x3e9cd956	0.30634564
75	0xbd9522e1	-0.07282043
76	0x3e58512c	0.21124715
77	0x3e1f134c	0.15534705
78	0x3e092dd2	0.13396385
79	0x3e3f43f3	0.18678264
80	0x3de192db	0.110143386
81	0xbc2d0203	-0.010559562
82	0x3dd4d81e	0.103927836
83	0x3e1becc9	0.15227045
84	0x3e01fd7d	0.12694354
85	0xbd9c614e	-0.07635747
86	0xbe2a0453	-0.16603212
87	0xbe437469	-0.19087376
88	0xbe0e81dd	-0.13916726
89	0xbe375c5d	-0.17906328
90	0x3df9323e	0.12167786
91	0xbe2cfc9a	-0.16893235
92	0x3e2a83c5	0.16651829
93	0xbda74dba	-0.08169122
94	0x3dbf97a6	0.093550965
95	0xbe60b34c	-0.21943396
96	0xbe2e7c41	-0.17039587
97	0x3d8d7cf3	0.06908598
98	0xbe69e486	-0.22841081
99	0x3dad96ef	0.08476054
100	0x3d8a9e8e	0.06768523
101	0x3e5038fb	0.20334236
102	0xbe38188c	-0.17978114
103	0xbd966858	-0.07344121
104	0xbe0223dc	-0.12708992
105	0xbdb76eb2	-0.0895666
106	0x3de20c1e	0.110374674
107	0xbe452063	-0.19250636
108	0xbe0ca164	-0.1373344
109	0xbd15e09e	-0.036591165
110	0x3d0d4ca1	0.034496907
111	0xbb50a85a	-0.0031838627
112	0xbdde58e6	-0.108568
113	0x3df51bc4	0.119681865
114	0x3ce74ed5	0.028235832
115	0x3e0a5200	0.13507843
116	0xbd9d8f4f	-0.076933496
117	0xbde0497c	-0.10951516
118	0xbd14db49	-0.03634194
119	0xbd5a45ab	-0.053289097
120	0xbd100dbc	-0.035169348
121	0xbe44b965	-0.19211347
122	0xbe39fd69	-0.18163075
123	0x3e3900e0	0.1806674
124	0xbcf41252	-0.029793892
125	0xbe4dee29	-0.20110382
126	0xbdbb1adb	-0.09135982
127	0x3e1826b0	0.14858508
128	0xbda41355	-0.080115
129	0xbdb2ced3	-0.08730855
130	0x3d8f4712	0.069959775
131	0xbe43acb6	-0.19108853
132	0xbe415cc0	-0.18883038
133	0x3dfdab0b	0.123861395
134	0x3e5fc09f	0.21850823
135	0x3e0e6232	0.13904646
136	0xbe65efbd	-0.22454734
137	0x3e0a0aa2	0.13480619
138	0x3de8ac18	0.11360949
139	0xbb1eda8f	-0.0024239158
140	0x3db197ab	0.086715065
141	0xbe806c85	-0.25082794
142	0x3dc15aa8	0.094411194
143	0x3e17cb28	0.14823592
144	0x39ba6e10	0.00035558688
145	0xbe62b17b	-0.22138016
146	0x3de3224a	0.110905245
147	0xbda61190	-0.081088185
148	0x3e67dcd8	0.22642839
149	0x3d66c3b5	0.056338985
150	0x3d416831	0.047218505
151	0xbdbae0fc	-0.091249436
152	0x3d2adffb	0.04171751
153	0x3e2b1c67	0.16710053
154	0xbe482efd	-0.19549175
155	0xbd5a72a1	-0.053331975
156	0xbe1e07fb	-0.15432732
157	0x3dfeb480	0.124367714
158	0x3dafce57	0.08584278
159	0x3d6bf125	0.05760302
160	0x3d6bf0c0	0.057602644
161	0xbe0130dc	-0.12616295
162	0x3e2fd6ef	0.17171834
163	0xbe247aaa	-0.16062418
164	0xbe1afcb5	-0.15135463
165	0x3d352020	0.04422009
166	0x3e8e444d	0.27786484
167	0xbde658b0	-0.112473845
168	0x3e9d46bd	0.30718032
169	0xbe3d319a	-0.18475953
170	0xbe207dc0	-0.1567297
171	0xbe1001b8	-0.14063156
172	0xbdffe8be	-0.12495564
173	0x3e20ef21	0.1571622
174	0xbd413ed5	-0.047179062
175	0x3e55e4ab	0.20888011
176	0xbe2c4b42	-0.16825584
177	0xbe133d3a	-0.14378825
178	0xbe2a0a35	-0.16605456
179	0x3e78c212	0.24292782
180	0x3dca02fc	0.098638505
181	0xbe26e66f	-0.16298841
182	0x3d1ac868	0.03778878
183	0xbd90578a	-0.07047947
184	0x3dc95d72	0.098322764
185	0xbc72d04e	-0.0148201715
186	0x3e2edc38	0.17076194
187	0xbe57e0f4	-0.21081907
188	0xbe542f3d	-0.20721145
189	0xbcd04a9a	-0.025426198
190	0xbbac8d34	-0.005265856
191	0xbe3a8e3d	-0.18218322
192	0x3e6b907b	0.23004334
193	0xbe68d545	-0.22737606
194	0x3e73f3ab	0.2382342
195	0xbdc6a32a	-0.0969909
196	0xbe27a335	-0.16370852
197	0x3dd38454	0.10327974
198	0xbe3f3372	-0.18671969
199	0xbe381ac9	-0.17978968
200	0xbd965c9a	-0.07341881
201	0xbe58a2ca	-0.21155849
202	0xbe45011b	-0.19238703
203	0x3e401602	0.18758395
204	0xbdeff966	-0.11717491
205	0x3e75b138	0.23993385
206	0x3db5ca42	0.08876468
207	0x3def44c6	0.11683039
208	0xbdd4d5a8	-0.10392314
209	0x3e35f706	0.17770013
210	0x3c4d0d95	0.012515445
211	0x3da57ef5	0.08080856
212	0xbd9b3a5c	-0.075794905
213	0x3c8abf90	0.016937047
214	0xbd2a5f84	-0.041594997
215	0xbe4f0b0b	-0.20219056
216	0x3e311b94	0.17295676
217	0x3dfee7ff	0.124465935
218	0xbe38ab8e	-0.18034193
219	0xbe303eca	-0.17211452
220	0xbc95704b	-0.018242022
221	0xbe662ee1	-0.2247882
222	0x3e4a33d0	0.19746327
223	0xbe1decae	-0.15422317
224	0x3e8978e1	0.26850036
225	0xbd35d435	-0.04439183
226	0xbe7c38c7	-0.24631034
227	0xbe588a5d	-0.21146531
228	0xbe275bda	-0.16343632
229	0x3e09e4a1	0.13466121
230	0xbd2b3d6c	-0.041806623
231	0x3df22acb	0.11824568
232	0x3e176618	0.1478504
233	0x3d6637cc	0.056205556
234	0x3da72363	0.08161046
235	0x3df17bf2	0.11791219
236	0x3e041c92	0.12901524
237	0x3e800987	0.2500727
238	0x3d7abfea	0.06121818
239	0xbdc704fd	-0.09717748
240	0x3cffbb55	0.031217257
241	0x3c3023bf	0.01075071
242	0xbcc07cd7	-0.023497028
243	0x3d131ff3	0.03591914
244	0xbe01e3c8	-0.12684548
245	0xbd15ebba	-0.03660176
246	0xbd9eab5c	-0.07747528
247	0xbe017739	-0.12643136
248	0xbd5ee010	-0.0544129
249	0x3e0f966c	0.14022225

parameterizer.cl_layers.0.bias f4 [10]
0	0x3e14c2b6	0.14527401
1	0x3e2d95bd	0.16951652
2	0xbe2935d1	-0.16524436
3	0x3cb34318	0.021882579
4	0x3d2169cd	0.03940754
5	0x3dadfb5b	0.08495208
6	0xbdf218c4	-0.1182113
7	0xbe10b5ea	-0.14131895
8	0xbd939e90	-0.07207978
9	0xbccc1271	-0.024911137

parameterizer.cl_layers.3.weight f4 [20, 10, 5, 5]
0	0x3a8a0764	0.0010530767
1	0xbd071b3e	-0.032984965
2	0xbd1140de	-0.035462253
3	0xbdd3f50d	-0.10349474
4	0xbadb133c	-0.0016714106
5	0x3cae3699	0.021266269
6	0x3c38ad2f	0.011271759
7	0xbd67634b	-0.056491178
8	0x3b66ee77	0.003523735
9	0xbd10879f	-0.03528559
10	0xbd51da9c	-0.051233873
11	0x3c3b436b	0.011429648
12	0xbd027f31	-0.03185958
13	0xbd71f218	-0.05906877
14	0xbba4f635	-0.005034233
15	0x3d14afab	0.036300343
16	0x3d044f60	0.03230226
17	0xbd3ab783	-0.045585167
18	0xbd03233b	-0.03201602
19	0x3cf50fae	0.029914703
20	0xbc9ba6bf	-0.01900041
21	0x3c9860dc	0.018600874
22	0x3ca02cb6	0.01955257
23	0x3bc7d97e	0.006098925
24	0xbd291997	-0.04128417
25	0x3c231118	0.009952806
26	0x3d53dfd1	0.05172712
27	0xbd8689e7	-0.065692715
28	0xbd725826	-0.059166096
29	0xbc600d59	-0.013675057
30	0xbd358d2b	-0.04432408
31	0xbcbb56c2	-0.022868518
32	0xbd8b5d1f	-0.06804871
33	0xbd2a9324	-0.04164423
34	0x3d41f308	0.047350913
35	0xbc8d8abf	-0.017278073
36	0xbca86681	-0.02055669
37	0x3d070acb	0.032969277
38	0x3cc7672e	0.024341192
39	0x3d0d65e4	0.034521
40	0xbcb31ea3	-0.021865195
41	0x3cd50357	0.02600257
42	0x3bcee119	0.006313455
43	0xbd0772d4	-0.033068493
44	0xbd5e9737	-0.05434343
45	0x3c5c88fa	0.013460392
46	0x3c2b8842	0.010469498
47	0xbb9b65b6	-0.0047423495
48	0x3d1fd0fc	0.039017662
49	0x3c8b1598	0.01697807
50	0x3d946778	0.072462976
51	0xbcef0317	-0.029176278
52	0x3d07dcca	0.033169545
53	0xbc915986	-0.017742883
54	0x3cd6f40e	0.026239421
55	0xbca11863	-0.019664949
56	0xbd47daf0	-0.04879278
57	0x3d403ba8	0.046931893
58	0xbcea5f2c	-0.028609835
59	0xbcb6e25d	-0.022324735
60	0x3ca9ffd6	0.020751875
61	0x3d253a6c	0.04033892
62	0xbc79af92	-0.015239613
63	0xbc54788e	-0.012968196
64	0xbb20f88d	-0.002456221
65	0x3b3f95e9	0.002923364
66	0x3d8e10f0	0.06936824
67	0x3ab17a54	0.0013540485
68	0x3cb9cecb	0.022681614
69	0xbd7954f3	-0.06087203
70	0xbc8f29c3	-0.017475968
71	0x3c7e5afd	0.015524623
72	0x3d96c777	0.07362264
73	0x3d05f755	0.032706577
74	0x3ce2fef2	0.027709458
75	0xbb55cb54	-0.0032622414
76	0xbcf93414	-0.03042034
77	0xbce8b342	-0.02840579
78	0xbcd0eb1d	-0.025502736
79	0xbbdd21a3	-0.0067483946
80	0xbce5acf3	-0.02803657
81	0x3c17b7c7	0.0092601245
82	0xbcc547e8	-0.02408214
83	0x3ccebb11	0.025235685
84	0xbd70b303	-0.05876447
85	0x3c927dc2	0.017882232
86	0xbc9d0443	-0.019167071
87	0xbd813d4e	-0.06310521
88	0xbdc3a74f	-0.09553396
89	0x3c4bed3d	0.012446699
90	0x3ad4e2d9	0.0016241922
91	0x3d27d519	0.04097471
92	0x3d12c8e2	0.035836108
93	0xbc189921	-0.0093138525
94	0xbc5b64a5	-0.013390695
95	0x3d56a81b	0.05240641
96	0xbc33bfc3	-0.0109710125
97	0xbc742bd2	-0.014903026
98	0x3d0088d1	0.03138048
99	0xbd45ec91	-0.04832131
100	0x3c9e62ff	0.019334314
101	0xbd26ddde	-0.040738933
102	0x39d69b97	0.00040933184
103	0x3d5d1b5b	0.053981166
104	0xbc5afed5	-0.013366421
105	0x3d153bd9	0.03643403
106	0xbd1f6129	-0.03891102
107	0xbcdfd51c	-0.027323298
108	0xbd5e1e3d	-0.054228056
109	0x3d1eaeac	0.0387408
110	0x3ca1768c	0.019709848
111	0x3b46bb0b	0.0030323889
112	0x3d910d52	0.07082619
113	0xbd39b979	-0.045342896
114	0x3d3c3caf	0.04595631
115	0xbc14c191	-0.009079353
116	0x3d5bcb82	0.053660877
117	0xbd1f3952	-0.038873024
118	0x3d0c0fa8	0.03419462
119	0xbd38f1db	-0.045152526
120	0x3d871d8b	0.06597432
121	0x3c612c62	0.013743492
122	0xbc2c5386	-0.01051796
123	0xbcaee129	-0.0213476
124	0x3d393065	0.04521217
125	0xbc186837	-0.0093021905
126	0x3cc95035	0.024574379
127	0xbb12fc2e	-0.0022428143
128	0x3d6ac448	0.057316095
129	0x3d725b00	0.059168816
130	0x3b4f7322	0.0031654318
131	0x3d063ef6	0.032774888
132	0x3d9aa757	0.07551449
133	0x3d5a6ee9	0.05332843
134	0xbc6d3126	-0.01447705
135	0xbc0a8f5e	-0.008457033
136	0x3d060910	0.032723486
137	0x3d2197ec	0.039451525
138	0x3d0f0d98	0.034925073
139	0x3ac3fe00	0.0014953017
140	0x3c70688d	0.014673364
141	0xb8d7d43f	-0.00010291533
142	0x3d5f11c5	0.054460306
143	0x3d9b7cd2	0.07592167
144	0xbd720242	-0.059084184
145	0xbc254f2e	-0.010089679
146	0xbce484a3	-0.027895277
147	0xbc0ca149	-0.008583375
148	0xbd672652	-0.05643303
149	0xbbc3286f	-0.005955748
150	0x3c67af0a	0.014140854
151	0x3dc0085b	0.09376594
152	0x3d1f6775	0.038917024
153	0xbc76244e	-0.015023304
154	0x3c128305	0.00894237
155	0xbc59d23e	-0.013294755
156	0xbc88b590	-0.016688138
157	0x3bbb893d	0.005723147
158	0xbcbad292	-0.022805486
159	0x3bb3c774	0.005486423
160	0x3d077440	0.03306985
161	0xbcae1ae2	-0.021253053
162	0x3c0cab5a	0.008585775
163	0x3d21244c	0.039341256
164	0x3b889dfc	0.004169224
165	0x3d3911ca	0.04518298
166	0x3d3ba374	0.045810178
167	0x3c718bd6	0.014742812
168	0xbaa19b56	-0.0012329619
169	0x3d10fbb7	0.035396304
170	0x3d122b4e	0.03568583
171	0xbd0ac6e3	-0.03388108
172	0x3d424e06	0.04743769
173	0x3bfdbec8	0.00774369
174	0x3cdf50d9	0.02726023
175	0xbc4242ee	-0.011856778
176	0x3d9f3ce5	0.077752866
177	0x3c0c84d7	0.008576593
178	0xbd7431da	-0.059617855
179	0xbcb1db51	-0.021711024
180	0xbd4a1692	-0.04933793
181	0x3d027291	0.03184754
182	0x3d3ae96b	0.04563276
183	0x3c762fe6	0.015026068
184	0xbbb4cd91	-0.0055176695
185	0xbd706e53	-0.058698963
186	0xbc16936c	-0.009190422
187	0x3b9848a6	0.0046473322
188	0x3d64257f	0.05569982
189	0xbcbb71a0	-0.022881329
190	0xbbe558d9	-0.006999117
191	0xbcf424e0	-0.02980274
192	0xbbc73d3f	-0.006080299
193	0x3ba3dbe7	0.0050005796
194	0x3d8df8bd	0.06932209
195	0xbcb9c052	-0.022674713
196	0xbd03b103	-0.032151233
197	0xbc0fb56f	-0.0087712845
198	0x3c05eb57	0.008173785
199	0xbd868309	-0.06567962
200	0x3ce98e4c	0.028510235
201	0x3d8d88d3	0.06910863
202	0x3c87ff93	0.01660136
203	0x3d842d7a	0.064539865
204	0xbd11cc53	-0.03559525
205	0xbd300f1e	-0.042983167
206	0x3d2e553b	0.04256175
207	0x3c72405e	0.014785854
208	0x3d2b7536	0.041859828
209	0x3d1857e6	0.0371932
210	0xbced7968	-0.028988555
211	0xbc21ed7e	-0.009883283
212	0x3d05be3e	0.032652132
213	0xbc9da2ec	-0.019242726
214	0xbcab892f	-0.020939438
215	0x3d48aa51	0.04899055
216	0xbd5162f6	-0.051119767
217	0x3d02ef5e	0.03196656
218	0xbc96bb46	-0.018399846
219	0xbd05ee73	-0.032698106
220	0xbc6836f2	-0.014173256
221	0x3d696c91	0.056988303
222	0x3cba623f	0.022751926
223	0x3d328a89	0.04358915
224	0x3cb9ae3a	0.022666086
225	0x3d2e9cca	0.042629994
226	0x3d6db95e	0.058038108
227	0xbd3f0dc9	-0.046644006
228	0xbd27720b	-0.040880244
229	0x3c1497dd	0.00906941
230	0xbca588e1	-0.02020687
231	0x3d3fd38a	0.0468326
232	0xbc09f984	-0.008421306
233	0xbc9d1d8b	-0.019179126
234	0x3d9293d0	0.07157099
235	0xbc4b382a	-0.012403527
236	0x3cba81ef	0.022767035
237	0xbc02be1c	-0.007979896
238	0xbb90ac21	-0.0044150506
239	0x3d7ba6cf	0.061438378
240	0x3d63f5a9	0.0556542
241	0x3cea7f69	0.028625207
242	0xbbb0bd2d	-0.0053936453
243	0xbc2dd676	-0.0106102135
244	0x3d19ad96	0.03751906
245	0xbb5fad23	-0.0034130297
246	0x3c67a2cb	0.014137934
247	0x3c069f96	0.008216759
248	0x3a36fce2	0.00069804315
249	0xbc945b67	-0.01810999
250	0xbbc1aec8	-0.005910728
251	0xbbebaa63	-0.0071919425
252	0x3d99a952	0.075029984
253	0xba74baea	-0.00093357137
254	0x3d2d12ab	0.04225413
255	0x3c942594	0.018084325

parameterizer.cl_layers.3.bias f4 [20]
0	0x3d76cbc7	0.06025293
1	0xbcfd6e3a	-0.03093635
2	0x3bfdeef9	0.007749435
3	0x3d5040df	0.050843116
4	0xbcfa4b74	-0.030553557
5	0x3ca8aa79	0.0205891
6	0x3d5f8a12	0.054575033
7	0xbd3aea73	-0.045633744
8	0x3d074921	0.033028726
9	0xbcb6f113	-0.02233175
10	0x3d17999e	0.037011735
11	0xbc862f4f	-0.01637998
12	0xbb97347e	-0.004614412
13	0xbb44c7b3	-0.0030026257
14	0xbd8a6090	-0.06756699
15	0x3c8308de	0.01599544
16	0x3b3479fa	0.0027538524
17	0xbb8603b2	-0.004089796
18	0xbd1153dd	-0.03548037
19	0xbcf0683b	-0.029346576
