results/CONF_FASHION_MNIST/checkpoints/Epoch[38]-Step[10530].pt (torch, 374570 bytes, 66 tensors)

conceptizer.encoder.0.0.weight f4 [10, 1, 5, 5]
-0.028617714 0.15628888 0.13239527 0.08602347 0.2637886 0.071920976 -0.05179154 0.05217782
0.22855759 0.0017729595 0.08966799 0.008153852 -0.07474884 0.19941752 -0.10642649 0.1312567
0.1449992 0.19126126 -0.030420288 -0.08655486 0.315071 -0.02015694 -0.12001528 -0.053430207
0.09782499 0.034222886 0.14305429 -0.14383006 -0.104083374 -0.11754083 0.016125126 -0.048114426
-0.16290976 0.0112314215 -0.16339995 0.11111097 -0.10727816 -0.06648535 -0.1532563 -0.16357435
-0.118475705 0.0006194474 -0.046555325 0.055199545 -0.048208486 0.07443484 0.029837841 -0.09731346
-0.1918831 -0.03763611 0.015511455 -0.10086884 0.12667425 -0.011893737 -0.08397574 -0.078069754
-0.1285721 -0.012880695 -0.12821999 -0.07359011 -0.15770975 0.118671745 -0.06989511 -0.113152005
0.011652152 -0.082170576 -0.023734694 -0.17338698 -0.07606743 -0.1566932 0.10690392 0.08266706
0.12919882 0.018041173 -0.12820004 -0.08668304 -0.057806026 0.023728361 -0.042521995 -0.046567053
-0.060518518 0.00960925 -0.08039095 0.017876148 0.12924202 -0.15776038 -0.16791785 0.028338207
-0.16853228 -0.030269304 -0.048209243 -0.1359586 -0.039460152 -0.10061911 -0.06464973 -0.08062789
-0.07719889 -0.20813532 -0.050093792 0.11654655 -0.006724086 -0.0529445 0.111850806 0.091073915
0.23366536 0.0028904818 -0.14734593 0.016203942 0.10066405 -0.15770327 0.04531672 0.009798507
-0.21133485 -0.18286102 -0.05665471 -0.012742681 -0.10301192 0.08285229 -0.11454906 0.0048441854
-0.010343304 0.117235035 -0.07352066 -0.1368968 -0.031056667 -0.16038969 0.013232174 -0.032568384
0.0063460143 -0.019114675 -0.03470805 -0.17623171 0.05196414 0.09002599 -0.16070911 0.19152787
-0.025303904 0.10396448 0.024216773 -0.23620665 -0.09921853 0.21608537 0.22761336 -0.04292727
-0.23935254 0.13185029 0.2754455 0.1626564 -0.080063134 -0.10584122 0.22043268 -0.0729494
0.1408017 0.18753833 0.23094724 -0.016912995 0.08436692 -0.12980224 0.146603 0.21557568
-0.16010058 -0.07478685 -0.07301085 -0.1444082 0.029136062 -0.17724417 0.0738535 0.030175976
-0.06692522 -0.009218178 -0.15388508 -0.05610291 -0.23208319 -0.056285687 -0.0123735275 -0.06826003
-0.03085115 -0.2045109 -0.22347713 -0.03487508 -0.11514949 -0.17467697 -0.024979526 0.040542137
-0.04967017 0.0833391 -0.104168035 0.07434046 0.12259343 0.05468372 0.334631 0.062152367
-0.0040056286 -0.059028905 -0.041661642 0.1772811 0.31900766 -0.11247941 -0.017005028 0.055981115
0.28639078 0.1462623 0.021609176 -0.0052462732 -0.13476089 0.25793487 0.122737 -0.11495789
-0.13464712 0.096297786 0.2207285 -0.086001016 -0.06059737 -0.08257603 -0.1916438 0.122729175
0.039824516 0.08032777 -0.13698065 -0.06146924 -0.1463241 0.06766612 -0.08401851 -0.11762863
-0.042058244 -0.06608747 0.1037711 0.15122093 0.055253237 -0.11401383 -0.16513656 0.1246957
0.15643272 -0.22383155 -0.051845204 0.016746568 0.157392 0.05864459 -0.21286477 0.024139762
-0.0521501 0.14771596 -0.16547038 -0.19368708 0.028501686 0.019625872 0.089869276 0.10604064
0.15959604 0.01808483
00000000: b26f eabc 310a 203e a092 073e 132d b03d
00000010: 4d0f 873e 4e4b 933d 5e23 54bd 69b8 553d
00000020: 000b 6a3e a662 e83a daa3 b73d bc97 053c
00000030: eb15 99bd 1b34 4c3e 22f6 d9bd 2868 063e
00000040: ac7a 143e fed9 433e f833 f9bc ad43 b1bd
00000050: fc50 a13e 2b20 a5bc 92ca f5bd a2d9 5abd
00000060: 7858 c83d 4c2d 0c3d d37c 123e 3048 13be
00000070: aa29 d5bd 3fb9 f0bd d718 843c a213 45bd
00000080: d1d1 26be ff03 383c 5152 27be 268e e33d
00000090: a7b4 dbbd 7929 88bd 38ef 1cbe 0980 27be
000000a0: 64a3 f2bd 6962 223a ccb0 3ebd eb18 623d
000000b0: 4376 45bd 4b71 983d 7d6e f43c 484c c7bd
000000c0: 017d 44be 5228 1abd c223 7e3c 5394 cebd
000000d0: e5b6 013e f3dd 42bc 79fb abbd 09e3 9fbd
000000e0: 68a8 03be 8d09 53bc 1a4c 03be 69b6 96bd
000000f0: aa7e 21be 2c0a f33d 2b25 8fbd 3dbc e7bd
00000100: abe8 3e3c 0c49 a8bd 436f c2bc 5b8c 31be
00000110: 3ec9 9bbd 2f74 20be 71f0 da3d 594d a93d
00000120: b24c 043e 15cb 933c df46 03be e186 b1bd
00000130: 03c6 6cbd fb61 c23c 8b2b 2ebd 18bd 3ebd
00000140: 44e2 77bd 1e70 1d3c 03a4 a4bd 0071 923c
00000150: 0558 043e f08b 21be a8f2 2bbe 8725 e83c
00000160: ba93 2cbe 55f7 f7bc 0e77 45bd bb38 0bbe
00000170: f8a0 21bd 6411 cebd 1467 84bd 3c20 a5bd
00000180: 741a 9ebd 6d21 55be 262f 4dbd f5af ee3d
00000190: b955 dcbb 55dc 58bd 0912 e53d f684 ba3d
000001a0: f945 6f3e 3d6e 3d3b dae1 16be 21be 843c
000001b0: f428 ce3d f77c 21be 069e 393d eb89 203c
000001c0: 2a68 58be eb3f 3bbe c50e 68bd aec6 50bc
000001d0: eaf7 d2bd 76ae a93d b398 eabd f9bb 9e3b
000001e0: f676 29bc ec18 f03d 0092 96bd ad2e 0cbe
000001f0: 8d6a febc 323d 24be c3cb 583c 6d66 05bd
00000200: 3af2 cf3b 6196 9cbc 072a 0ebd 1676 34be
00000210: 5ad8 543d 8c5f b83d ee90 24be e21f 443e
00000220: 224a cfbc 54eb d43d 4162 c63c 28e0 71be
00000230: 1633 cbbd 7c45 5d3e 7a13 693e 81d4 2fbd
00000240: d518 75be c303 073e 3107 8d3e 668f 263e
00000250: 24f8 a3bd 48c3 d8bd 1bb9 613e 7f66 95bd
00000260: 522e 103e 0c0a 403e 6f7d 6c3e 1f8d 8abc
00000270: 90c8 ac3d e1ea 04be 191f 163e dfbf 5c3e
00000280: 68f1 23be d929 99bd b686 95bd bedf 13be
00000290: c0ae ee3c 7f7f 35be 8140 973d 9c33 f73c
000002a0: 1710 89bd d707 17bc 0d94 1dbe 2acc 65bd
000002b0: 37a7 6dbe d28b 66bd 56ba 4abc eacb 8bbd
000002c0: 8dbb fcbc 4e6b 51be 30d7 64be 2cd9 0ebd
000002d0: 7fd3 ebbd 85de 32be dda1 ccbc 830f 263d
000002e0: f372 4bbd b1ad aa3d 0d56 d5bd d03f 983d
000002f0: 4412 fb3d 09fc 5f3d c154 ab3e 7b93 7e3d
00000300: a641 83bb 4bc8 71bd 66a5 2abd 2d89 353e
00000310: f954 a33e 9b5b e6bd 214e 8bbc 744c 653d
00000320: d0a1 923e c9c5 153e ba05 b13c eee8 abbb
00000330: c2fe 09be 0a10 843e 895d fb3d 0b6f ebbd
00000340: efe0 09be c637 c53d a706 623e 4d21 b0bd
00000350: f334 78bd 9f1d a9bd 463e 44be 6f59 fb3d
00000360: 081f 233d e382 a43d a844 0cbe 2bc7 7bbd
00000370: fcd5 15be 8994 8a3d e611 acbd 47e7 f0bd
00000380: 4445 2cbd de58 87bd f185 d43d a9d9 1a3e
00000390: 3851 623d 1580 e9bd 8f19 29be 7660 ff3d
000003a0: e62f 203e 1934 65be a35b 54bd 1930 893c
000003b0: 5e2b 213e 4f35 703d 39f9 59be c0c0 c53c
000003c0: 589b 55bd da42 173e 1171 29be e855 46be
000003d0: 5e7c e93c 70c6 a03c 620d b83d d62b d93d
000003e0: 256d 233e a326 943c

conceptizer.encoder.0.0.bias f4 [10]
0.1818243 0.0792325 0.22097722 -0.05235045 0.24561939 0.08191435 -0.08531334 0.058447324
0.06630751 0.17397566
00000000: 2630 3a3e a644 a23d da47 623e 6d6d 56bd
00000010: a683 7b3e b6c2 a73d c3b8 aebd 7666 6f3d
00000020: 3bcc 873d ad26 323e

conceptizer.encoder.1.0.weight f4 [5, 10, 5, 5]
-0.013363562 -0.041141495 -0.027843282 0.08025464 0.10131511 0.02974889 -0.020193009 0.008517649
0.0061156615 0.068797685 0.0101665445 0.0047569294 -0.010954289 0.0625065 0.07121104 -0.07826271
-0.03180954 0.07424838 0.032456636 0.030632094 -0.10596011 -0.037224997 0.058732588 0.09731196
-0.019302102 0.039490934 0.025893658 0.014179825 -0.008618528 0.0053326585 0.044752967 0.0075219977
-0.031061051 0.03698903 0.09034496 0.024796637 0.01832171 0.055365276 0.02404661 0.04755836
-0.038187318 -0.036004562 -0.033949688 0.07798332 0.0930417 0.016697612 0.038240433 -0.0095893815
-6.6788148e-06 0.0028170943 0.007881768 0.009858446 -0.0156778 -0.031115498 -0.011469281 0.003680387
0.0034537918 0.048453327 -0.013008846 0.09856297 0.053805426 0.035196673 0.046371948 -0.0036907312
0.036408786 0.01775813 0.031087808 -0.012683312 0.049878042 0.013080472 -0.008821863 -0.02589311
0.044515137 0.05287845 0.029428072 -0.043849893 -0.04506461 -0.028296987 -0.003016848 0.031514958
0.05926048 0.029950472 -0.018544566 0.08080198 0.09422707 0.08849236 -0.021031698 -0.019903913
0.037220605 0.044084445 -0.04226313 -0.06663825 -0.021980472 0.045630872 0.05382476 0.028468834
0.020926105 0.035615377 0.096533224 0.08518475 0.06970026 0.047974646 0.0050111734 0.033286344
0.031614263 0.011321143 -0.047899075 0.015221757 0.02982908 0.020696003 0.044390135 -0.015758365
0.081746645 -0.022670511 -0.020247284 -0.015032139 0.010588435 0.032517258 0.025602777 0.0654505
-0.016048698 -0.02002476 0.026849214 0.030084109 0.073962525 -0.025103077 0.009733716 -0.004478838
-0.001102291 0.0201831 -0.043587375 -0.013449813 0.01616132 0.014249359 -0.024465634 -0.021196065
0.023236636 0.029762272 -0.016246332 -0.046687044 0.06323722 -0.0066366736 0.012389967 -0.03663616
-0.0013165099 0.058065265 0.080420054 -0.063028656 -0.01997087 0.017165938 0.05758826 0.042489704
-0.012759073 -0.014193581 -0.0084715765 -0.022520702 -0.041680828 0.021203214 0.07706219 -0.24159048
-0.07617122 0.023860058 0.019735252 -0.030754877 -0.028672379 0.019568464 -0.008049995 -0.019570604
-0.024075367 0.05818712 -0.029641928 0.0077015813 0.0060772416 -0.095470585 0.022273384 -0.037704702
-0.045051675 -0.06473676 -0.042549536 0.009595243 -0.06705069 0.040403053 -0.05334356 0.0068574306
0.007601337 -0.053741768 0.0039592674 -0.0073777344 0.012195961 0.0019197653 0.011550549 -0.0031372656
-0.016529072 -0.03797002 -0.024027344 0.012212229 -0.08016499 -0.067548044 0.0083255805 -0.13359724
-0.018831352 0.030010462 0.045272633 0.003125849 0.016657202 -0.13735846 -0.0052135573 0.06848453
0.053603552 0.07606612 -0.088575214 -0.043987732 0.001429559 0.06648088 0.07382982 0.010686979
0.053295802 0.033832103 -0.02362024 0.06588373 0.06494007 0.020035617 -0.0404598 -0.047816224
-0.021629607 0.0014023697 0.0041553103 0.031428814 0.038982186 -0.0033593865 0.017963257 0.017983548
0.03790156 -0.038632527 -0.034375224 0.030678404 0.030863978 -0.015791345 -0.025442077 -0.018331189
0.040923793 0.009426095 -0.023891512 -0.11083025 0.04217064 0.042717386 -0.013120741 -0.02938654
-0.03852764 -0.041462667 0.030604977 0.069078244 0.12520182 0.10498733 -0.00040061382 0.054113127
00000000: d7f2 5abc fc83 28bd 9817 e4bc 8b5c a43d
00000010: 4c7e cf3d f2b3 f33c cf6b a5bc 9c8d 0b3c
00000020: e365 c83b cde5 8c3d 9491 263c 04e0 9b3b
00000030: 9e79 33bc 6803 803d 18d7 913d 3348 a0bd
00000040: b84a 02bd 890f 983d 40f1 043d 28f0 fa3c
00000050: 9d01 d9bd 3d79 18bd 9591 703d 7e4b c73d
00000060: 711f 9ebc 3fc1 213d f01e d43c 7f52 683c
00000070: ba34 0dbc 95bd ae3b e34e 373d 177b f63b
00000080: bf73 febc cf81 173d c706 b93d 5122 cb3c
00000090: 6917 963c b3c6 623d 65fd c43c 8ecc 423d
000000a0: 4e6a 1cbd 8579 13bd d40e 0bbd b8b5 9f3d
000000b0: a68c be3d 6ec9 883c 00a2 1c3d c81c 1dbc
000000c0: 951a e0b6 009f 383b 8822 013c 5285 213c
000000d0: bb6e 80bc eee5 febc a7e9 3bbc a632 713b
000000e0: 0359 623b ff76 463d 0e23 55bc 62db c93d
000000f0: 1463 5c3d 632a 103d 83f0 3d3d 32e0 71bb
00000100: 6121 153d 7f79 913c dcab fe3c abcd 4fbc
00000110: eb4c 4c3d 7a4f 563c 9389 10bc ca1d d4bc
00000120: 8155 363d 1397 583d 2413 f13c f29b 33bd
00000130: ab95 38bd 15cf e7bc 4fb6 45bb d415 013d
00000140: 1ebb 723d b15a f53c c6ea 97bc 827b a53d
00000150: 1ffa c03d 7c3b b53d ab4a acbc 880d a3bc
00000160: a274 183d e491 343d 1b1c 2dbd a379 88bd
00000170: 6410 b4bc 70e7 3a3d 5a77 5c3d 7937 e93c
00000180: 396d ab3c 6ee1 113d 36b3 c53d 5875 ae3d
00000190: 03bf 8e3d 1081 443d c534 a43b 4357 083d
000001a0: f57d 013d 517c 393c d231 44bd ad64 793c
000001b0: 1d5c f43c aa8a a93c 6ed2 353d b017 81bc
000001c0: c96a a73d 82b7 b9bc a2dd a5bc 5c49 76bc
000001d0: 1e7b 2d3c d130 053d eabc d13c e90a 863d
000001e0: 8f78 83bc f70a a4bc e2f2 db3c f372 f63c
000001f0: aa79 973d f8a4 cdbc 2a7a 1f3c 37c3 92bb
00000200: c07a 90ba 0757 a53c ad88 32bd 9b5c 5cbc
00000210: bf64 843c 2576 693c 276c c8bc 5fa3 adbc
00000220: c25a be3c 02d0 f33c 0717 85bc ea3a 3fbd
00000230: 8482 813d 7478 d9bb 4aff 4a3c cc0f 16bd
00000240: be8e acba d8d5 6d3d 45b3 a43d 2b15 81bd
00000250: f399 a3bc 959f 8c3c abe1 6b3d af09 2e3d
00000260: 6e0b 51bc 328c 68bc 5ecc 0abc 567d b8bc
00000270: 84b9 2abd 5db2 ad3c c8d2 9d3d 7f63 77be
00000280: a8ff 9bbd 2b76 c33c d3ab a13c a7f1 fbbc
00000290: 56e2 eabc 0b4e a03c 20e4 03bc 8852 a0bc
000002a0: b439 c5bc 9e55 6e3d a1d3 f2bc 8c5d fc3b
000002b0: 9923 c73b 1586 c3bd ac76 b63c 3f70 1abd
000002c0: 1b88 38bd b594 84bd 6c48 2ebd 5e35 1d3c
000002d0: df51 89bd ac7d 253d c77e 5abd 4cb4 e03b
000002e0: a314 f93b 5420 5cbd bebc 813b ecc0 f1bb
000002f0: 91d1 473c a2a0 fb3a 843e 3d3c 959a 4dbb
00000300: fa67 87bc 7486 1bbd fed4 c4bc cd15 483c
00000310: 8b2d a4bd a156 8abd 0468 083c b7cd 08be
00000320: 3544 9abc 80d8 f53c cc6f 393d 0bdb 4c3b
00000330: af74 883c b2a7 0cbe 7dd6 aabb 9e41 8c3d
00000340: 668f 5b3d 8ec8 9b3d ec66 b5bd 7b2c 34bd
00000350: 0a60 bb3a 2127 883d 1734 973d 7018 2f3c
00000360: b34c 5a3d 8893 0a3d 3c7f c1bc 0dee 863d
00000370: 4dff 843d bc21 a43c 2db9 25bd f2da 43bd
00000380: 9330 b1bc b8cf b73a 4529 883b 80bb 003d
00000390: c9ab 1f3d 2729 5cbb ae27 933c 3c52 933c
000003a0: ab3e 1b3d 243d 1ebd 09cd 0cbd 4751 fb3c
000003b0: 74d6 fc3c da5c 81bc e76b d0bc 4a2b 96bc
000003c0: b59f 273d e86f 1a3c 22b8 c3bc f8fa e2bd
000003d0: 1fbb 2c3d 6df8 2e3d 60f8 56bc 0bbc f0bc
000003e0: 29cf 1dbd c2d4 29bd 4ab7 fa3c e578 8d3d
000003f0: e834 003e 9903 d73d 7a09 d2b9 baa5 5d3d

conceptizer.encoder.1.0.bias f4 [5]
-0.013302568 0.16426851 0.012776097 0.026383158 0.043792885
00000000: 04f3 59bc 0136 283e d652 513c 7e21 d83c
00000010: 2b60 333d

conceptizer.encoder.2.layers.0.weight f4 [1, 16]
-0.0546301 -0.13785948 -0.1402412 -0.12840721 0.11716816 0.08923001 0.16399772 -0.04879724
-0.17280275 -0.047305338 -0.25209925 -0.34678742 -0.00092800806 -0.11519899 -0.21577588 0.15853564
00000000: d0c3 5fbd 092b 0dbe 649b 0fbe 2e7d 03be
00000010: dcf5 ef3d 39be b63d 05ef 273e 9ddf 47bd
00000020: 34f3 30be 3ec3 41bd 2713 81be 1f8e b1be
00000030: 9145 73ba 73ed ebbd 5af4 5cbe 2b57 223e

conceptizer.encoder.2.layers.1.weight f4 [1, 16]
0.028902313 -0.19884516 -0.05064159 0.054349344 -0.27398834 0.021849068 -0.28973484 0.057845518
-0.0069451495 -0.23822519 -0.115663335 -0.026994051 0.061310258 -0.03294143 0.18148363 0.13365506
00000000: 8bc4 ec3c 119e 4bbe 8e6d 4fbd 6b9d 5e3d
00000010: 3348 8cbe d1fc b23c 2058 94be 6cef 6c3d
00000020: 2394 e3bb 4ef1 73be e6e0 ecbd a122 ddbc
00000030: 7720 7b3d 98ed 06bd d8d6 393e dfdc 083e

conceptizer.encoder.2.layers.2.weight f4 [1, 16]
-0.2206081 0.14910574 0.018832268 -0.012246256 0.024842678 -0.20904204 0.16850662 -0.18240845
-0.31117654 -0.123262815 0.15711547 -0.20634206 -0.1971196 0.16417874 0.1603543 -0.1490856
00000000: 17e7 61be 2daf 183e 2146 9a3c 85a4 48bc
00000010: df82 cb3c 1e0f 56be 008d 2c3e 48c9 3abe
00000020: 8852 9fbe 3771 fcbd e1e2 203e 554b 53be
00000030: b8d9 49be 791e 283e eb33 243e e5a9 18be

conceptizer.encoder.2.layers.3.weight f4 [1, 16]
0.19606712 0.068475686 0.06463052 0.28134325 0.024015129 0.13908042 0.06861448 0.06719019
-0.14050153 0.18652312 0.002595498 -0.033708833 0.19268255 -0.031420697 -0.0923548 -0.10759971
00000000: d2c5 483e fb3c 8c3d 025d 843d 390c 903e
00000010: 60bb c43c 196b 0e3e c085 8c3d 039b 893d
00000020: a2df 0fbe ebff 3e3e 3b19 2a3b 4612 0abd
00000030: 934e 453e fdb2 00bd 8324 bdbd 3d5d dcbd

conceptizer.encoder.2.layers.4.weight f4 [1, 16]
0.18307643 -0.16673672 -0.02093853 0.0021168706 -0.1519043 -0.13568325 -0.029180516 -0.11263388
-0.16989017 -0.29893965 -0.23528762 -0.16440973 -0.05729515 0.16660729 0.009789116 -0.0640175
00000000: 6378 3b3e 08bd 2abe 4887 abbc 32bb 0a3b
00000010: cd8c 1bbe 8df0 0abe fa0b efbc 97ac e6bd
00000020: b0f7 2dbe 9e0e 99be 3def 70be 065b 28be
00000030: 52ae 6abd 1a9b 2a3e 8762 203c 9b1b 83bd

conceptizer.decoder.0.0.weight f4 [5, 16, 5, 5]
-0.14918837 0.18727462 0.12573129 0.03547821 0.027334677 0.019206224 -0.0076590767 0.011819624
0.04382065 0.006930016 -0.0062413155 0.14160109 0.053089745 0.19843268 0.17181422 -0.18887605
0.017489873 -0.04520844 -0.0016712914 -0.00049566117 0.13340557 0.049073298 0.022866273 -0.13941728
0.04910164 0.043792136 0.029945657 -0.05829914 -0.15533547 0.05626647 0.23586315 0.04010598
-0.0024348162 0.11997977 0.24562655 0.18311355 0.1245886 0.16334699 0.13275957 -0.05550305
0.0025872206 -0.0017433199 0.16072679 -0.0064018653 -0.035170157 0.116648674 0.15519556 0.013880324
-0.06658691 -0.11380284 0.07517972 -0.09073988 -0.07685155 0.06793956 0.037463203 -0.0034277996
0.05819478 0.13428065 -0.04467829 -0.005389112 0.07797385 -0.03150542 0.023860393 -0.09672893
0.0055157267 0.114692025 -0.061281234 0.0095913615 0.0007847071 -0.0041562263 0.26329958 0.04775143
-0.18518381 0.1514748 -0.22233644 0.18737236 0.009928885 -0.0045008836 0.1360669 0.19983417
-0.09694397 -0.08540986 0.052711178 0.007228542 -0.08853378 -0.021830587 0.022761414 -0.008108639
-0.021532223 0.14313526 0.12599629 0.08335059 0.052408185 0.0014639472 -0.16782314 0.06523228
-0.038419385 -0.15342957 0.07516392 -0.05078639 0.04135185 -0.03758588 0.12997904 -0.0013497047
0.1582297 -0.1177058 0.042372603 0.051128983 -0.0030194076 0.035733763 -0.028110687 0.16012582
-0.0326655 -0.016637 0.06036653 0.065116376 0.13791151 0.15092343 0.033531215 -0.15343592
0.0018223075 -0.12055389 -0.072970286 0.11559491 -0.24904169 0.2275268 -0.18908037 -0.0688324
0.13746227 0.13214779 -0.16657893 -0.22992091 0.009150308 0.18159081 0.12583208 0.05548143
0.0016666844 0.10272565 0.025162363 0.14169924 0.15715818 -0.14341573 -0.1557614 -0.12856182
0.080060124 0.0055783517 0.019037472 -0.059949793 -0.20319816 0.21357448 -0.036122624 0.1325056
0.03084915 0.04966812 0.25345567 0.16594988 0.2286327 -0.033048324 -0.032145437 -0.039311208
-0.17445144 0.1147969 -0.078569114 0.19542827 0.0646979 0.032807462 -0.06589993 0.007023143
-0.048773035 -0.10307034 0.1318926 -0.024434494 -0.07033054 -0.09896013 -0.17015952 0.14890637
0.036890924 0.13367908 0.18152915 0.14247942 0.12560867 0.04903004 0.07668458 0.15166599
0.11098813 0.03779415 0.10572906 0.17021345 -0.051347304 -0.022746747 0.10505227 -0.073492296
-0.059553325 -0.14340228 -0.3035802 0.031455442 0.21234705 0.04521727 -0.14601062 -0.45117617
0.09697389 -0.24754402 0.06640645 0.079924196 0.1765662 0.07625112 -0.16691118 -0.028748767
-0.08782832 0.12706889 0.011026417 -0.019167146 -0.08942364 -0.21237464 0.22216944 0.12521647
0.09183284 -0.047639593 0.0037960717 0.047859486 -0.10049678 0.044790357 -0.2705504 -0.30543453
-0.057670332 0.013600024 -0.033032008 0.1725816 0.20044075 0.05737108 0.1436331 0.09139656
0.081881255 -0.067747205 0.21336645 0.03763541 0.12516506 0.0435206 -0.017808992 0.16573606
0.025646048 -0.013969772 -0.017519403 0.08861048 -0.0057890275 0.13064413 0.074701585 -0.08854694
-0.1387084 -0.11733318 -0.03945937 -0.121172816 0.047113787 -0.05863631 -0.24095353 0.059146468
00000000: d6c4 18be ebc4 3f3e b4bf 003e 9951 113d
00000010: f9ec df3c 5f56 9d3c fef8 fabb 19a7 413c
00000020: 487d 333d 3015 e33b f383 ccbb e0ff 103e
00000030: a274 593d f031 4b3e 11f0 2f3e b968 41be
00000040: ec46 8f3c 7c2c 39bd 3c0f dbba 42ef 01ba
00000050: 789b 083e 1501 493d 0d52 bb3c 67c3 0ebe
00000060: cd1e 493d 625f 333d 9850 f53c 14cb 6ebd
00000070: 4310 1fbe ac77 663d 1c86 713e 2b46 243d
00000080: 7091 1fbb f4b7 f53d 8785 7b3e 1e82 3b3e
00000090: 4f28 ff3d 6f44 273e 20f2 073e 2b57 63bd
000000a0: 5c8e 293b 1c80 e4ba 9095 243e bdc6 d1bb
000000b0: 950e 10bd 80e5 ee3d 96eb 1e3e 4c6a 633c
000000c0: b85e 88bd 7711 e9bd d3f7 993d d5d5 b9bd
000000d0: 5864 9dbd e523 8b3d 0473 193d efa4 60bb
000000e0: a65d 6e3d de80 093e 9500 37bd 2697 b0bb
000000f0: c1b0 9f3d d40b 01bd df76 c33c d119 c6bd
00000100: 45bd b43b a7e3 ea3d 0802 7bbd 1625 1d3c
00000110: cdb4 4d3a f430 88bb 34cf 863e 0197 433d
00000120: d3a0 3dbe 361c 1b3e 2aac 63be 8ade 3f3e
00000130: c3ac 223c 267c 93bb 1f55 0b3e 54a1 4c3e
00000140: 8f8a c6bd 5deb aebd ade7 573d 68dd ec3b
00000150: 3351 b5bd 0fd6 b2bc 2576 ba3c 19da 04bc
00000160: 5864 b0bc 0d92 123e 2c05 013e b7b3 aa3d
00000170: f7a9 563d ebe1 bf3a d4d9 2bbe 8098 853d
00000180: a55d 1dbd a41c 1dbe 8bef 993d 6405 50bd
00000190: 8f60 293d a7f3 19bd 3a19 053e 93e8 b0ba
000001a0: f706 223e bd0f f1bd e58e 2d3d a06c 513d
000001b0: 41e1 45bb 915d 123d 6248 e6bc 06f8 233e
000001c0: 42cc 05bd 514a 88bc e542 773d bc5b 853d
000001d0: ad38 0d3e ac8b 1a3e 0758 093d 4e1e 1dbe
000001e0: 7eda ee3a f5e4 f6bd 7271 95bd 06bd ec3d
000001f0: c904 7fbe c9fc 683e 499e 41be 00f8 8cbd
00000200: e9c2 0c3e c051 073e ab93 2abe 6370 6bbe
00000210: 2ceb 153c f1f2 393e 20da 003e 7f40 633d
00000220: a674 da3a d361 d23d 4d21 ce3c 9b19 113e
00000230: 13ee 203e 93db 12be eb7f 1fbe b6a5 03be
00000240: 90f6 a33d 9bca b63b 79f4 9b3c ea8d 75bd
00000250: 2e13 50be 45b3 5a3e 51f5 13bd 8caf 073e
00000260: 5bb7 fc3c cc70 4b3d f1c4 813e c4ee 293e
00000270: b11e 6a3e ae5d 07bd efaa 03bd ca04 21bd
00000280: 66a3 32be a31a eb3d d8e8 a0bd 591e 483e
00000290: 5580 843d 1e61 063d 8bf6 86bd 6522 e63b
000002a0: 3cc6 47bd 8b16 d3bd db0e 073e d92a c8bc
000002b0: 7509 90bd 9cab cabd 4c3e 2ebe e97a 183e
000002c0: f01a 173d 2be3 083e c7e2 393e 20e6 113e
000002d0: 8f9f 003e b9d3 483d ce0c 9d3d 544e 1b3e
000002e0: bf4d e33d 0ace 1a3d 7a88 d83d 6f4c 2e3e
000002f0: 8d51 52bd 6357 babc a525 d73d 2183 96bd
00000300: 30ee 73bd 0cd8 12be dd6e 9bbe 6cd7 003d
00000310: 8171 593e be35 393d cf83 15be 9000 e7be
00000320: 3f9a c63d 2e7c 7dbe 1b00 883d 4caf a33d
00000330: c5cd 343e 8c29 9c3d c4ea 2abe 8982 ebbc
00000340: 56df b3bd 591e 023e 25a8 343c 6b04 9dbc
00000350: be23 b7bd bd78 59be 6380 633e bf38 003e
00000360: db12 bc3d bc21 43bd 84c7 783b 4f08 443d
00000370: 41d1 cdbd 1876 373d 9585 8abe ea61 9cbe
00000380: ba37 6cbd a3d2 5e3c 924c 07bd 3bb9 303e
00000390: 5740 4d3e f0fd 6a3d 8e14 133e 1f2e bb3d
000003a0: 5cb1 a73d 0cbf 8abd bc7c 5a3e 9627 1a3d
000003b0: 452b 003e a842 323d 2ae4 91bc b7b6 293e
000003c0: a917 d23c 78e1 64bc da84 8fbc 6979 b53d
000003d0: e2b1 bdbb 93c7 053e 25fd 983d 1958 b5bd
000003e0: 9309 0ebe 614c f0bd 26a0 21bd 7429 f8bd
000003f0: 63fa 403d a12c 70bd 86bc 76be 9143 723d

conceptizer.decoder.0.0.bias f4 [16]
0.022053335 0.054962073 0.08291082 0.03187813 -0.06761994 0.09646579 -0.06368271 -0.02751955
-0.014027405 0.04325812 0.2050993 0.060265493 -0.018402109 0.10983903 -0.04409854 0.017760912
00000000: 32a9 b43c e91f 613d 26cd a93d a492 023d
00000010: 537c 8abd db8f c53d 156c 82bd ae70 e1bc
00000020: 33d3 65bc 6d2f 313d 8d05 523e f3d8 763d
00000030: 05c0 96bc 49f3 e03d aca0 34bd 557f 913c

conceptizer.decoder.2.0.weight f4 [16, 8, 5, 5]
0.190203 0.092802115 0.080419414 -0.05897492 0.0077747977 0.053206418 0.1614779 0.018838277
0.057020046 0.17511299 0.08606609 0.044849038 -0.12483588 -0.06888313 -0.07164842 0.0034536766
0.078813106 -0.11380922 -0.049970347 -0.11619715 -0.074810706 -0.007865899 -0.21059288 -0.10111735
0.121079996 -0.1596038 -0.033676106 -0.023195272 2.1839933e-05 0.013376403 -0.014528961 -0.04494351
-0.042672716 -0.027885906 0.08493931 -0.207675 -0.024954448 -0.016372746 0.07648061 0.10825789
-0.05986953 -0.0044658286 0.020676522 0.19492947 0.10851572 -0.0044988906 0.00016476847 0.015382411
-0.045440555 -0.073955774 0.09667547 -0.15907009 -0.17962444 0.012207553 -0.047791 0.047018085
0.047647845 -0.086463444 -0.037863873 0.08371205 -0.07304922 -0.16559212 -0.26232415 -0.12488423
-0.16135973 -0.031453755 0.052626546 -0.14270096 -0.18893892 0.02492041 0.014841677 -0.04394265
-0.13717958 0.08937937 -0.016728666 0.17413753 0.28159887 0.04305351 0.008310249 0.014743046
-0.011292727 -0.054536544 0.023713222 0.09155323 0.01892559 -0.25098476 -0.10432197 -0.028069729
-0.04090311 0.014827622 -0.26182565 -0.18082821 -0.109984234 -0.03859875 0.015953736 -0.17039868
-0.25274393 -0.16429931 -0.0029176595 0.07707952 0.12641484 0.0655559 0.06251829 0.023628063
-0.023098027 0.2613787 0.07368426 0.11819834 0.07671546 -0.013166694 -0.1285326 0.034393545
0.054814734 0.07138922 0.0014641408 -0.2881566 -0.017736861 -0.0046926835 0.006836614 -0.089114435
-0.19477122 -0.21363367 -0.14860338 -0.049095422 -0.08922125 0.1221386 0.096047364 0.024311144
0.05730466 0.04035396 0.07308378 0.04232625 -0.08242753 0.08521067 0.08838484 -0.18573919
-0.14107198 0.03695308 -0.050423868 -0.024868328 -0.32197553 -0.14233272 -0.16002257 -0.14112322
-0.02978665 -0.10955449 -0.18844192 -0.079578444 -0.09819319 0.057461485 0.27157077 0.0049511553
0.038104616 -0.055708844 0.03394383 0.09130216 -0.26090458 -0.1683041 0.1782714 -0.06332991
-0.21984632 -0.16274314 -0.17136627 -0.111209646 -0.17313892 -0.20180736 -0.18719958 -0.24736717
-0.28578424 -0.18528399 -0.2854338 -0.08067172 -0.10044091 -0.046188846 0.06881016 0.3854135
0.10273066 0.10459209 -0.050697014 0.0035048884 0.052260205 0.019410577 -0.01630112 0.068252526
-0.101145856 0.0020813234 0.15716994 0.09878499 -0.023500482 0.01650458 0.18887587 0.06535038
0.09615786 0.026480414 -0.018013025 -0.036251463 0.05708241 0.045038555 0.118869215 0.058051545
0.041142005 -0.1568205 -0.07790678 0.19860426 0.10585683 -0.05695527 0.045925263 0.065659896
0.28344876 0.11802993 -0.037694443 0.1530842 0.11910009 0.12087088 -0.15632157 -0.06350206
0.21223882 0.16997267 0.006434448 -0.103886954 0.10315485 0.19898178 0.08563511 -0.06356848
-0.060310088 -0.044323318 -0.119388156 -0.13896304 -0.017538587 0.07252274 -0.05268565 -0.013595695
-0.066511326 0.06220638 0.091688626 0.031994697 0.03670013 0.022970678 0.13014714 0.13797572
0.06603528 -0.09900089 -0.010786513 0.108446546 0.030365821 -0.14851382 -0.09280737 -0.014580938
0.15116471 -0.009727418 0.051374752 -0.067723736 -0.15449816 0.037949044 -0.19717838 0.1708007
00000000: 93c4 423e 090f be3d efb2 a43d b08f 71bd
00000010: bbc3 fe3b f9ee 593d 765a 253e bb52 9a3c
00000020: da8d 693d d250 333e 6b43 b03d a0b3 373d
00000030: f4a9 ffbd 9912 8dbd 68bc 92bd 1457 623b
00000040: c468 a13d cf14 e9bd b5ad 4cbd c5f8 edbd
00000050: 5b36 99bd f9df 00bc a9a5 57be 9d16 cfbd
00000060: caf8 f73d 2e6f 23be f5ef 09bd 0304 bebc
00000070: e634 b737 b328 5b3c e10a 6ebc b016 38bd
00000080: 96c9 2ebd fc70 e4bc a9f4 ad3d c1a8 54be
00000090: 456d ccbc 2320 86bc dea1 9c3d 50b6 dd3d
000000a0: c139 75bd 1656 92bb cf61 a93c 979b 473e
000000b0: 7d3d de3d 6e6b 93bb b3c5 2c39 8206 7c3c
000000c0: e01f 3abd 2076 97bd cafd c53d 45e3 22be
000000d0: 78ef 37be 3002 483c 7fc0 43bd 0996 403d
000000e0: 632a 433d bf13 b1bd 2617 1bbd 3971 ab3d
000000f0: d49a 95bd fb90 29be 5a4f 86be 4ec3 ffbd
00000100: 7c3b 25be a7d5 00bd ef8e 573d 3320 12be
00000110: 3479 41be e325 cc3c 812a 733c 35fd 33bd
00000120: ce78 0cbe 880c b73d 8e0a 89bc 1c51 323e
00000130: ba2d 903e e158 303d b627 083c d18c 713c
00000140: 2105 39bc b661 5fbd 3b42 c23c 4380 bb3d
00000150: d709 9b3c 1381 80be c2a6 d5bd 7df2 e5bc
00000160: 058a 27bd 8eef 723c 030e 86be 082b 39be
00000170: 6a3f e1bd b919 1ebd 69b1 823c fe7c 2ebe
00000180: a767 81be 143e 28be 3436 3fbb dedb 9d3d
00000190: e472 013e 2c42 863d 9709 803d a48f c13c
000001a0: 1338 bdbc 6ed3 853e c6e7 963d f911 f23d
000001b0: ff1c 9d3d 1eb9 57bc 0d9e 03be 3fe0 0c3d
000001c0: 6a85 603d 8334 923d 6ae8 bf3a 4389 93be
000001d0: e54c 91bc 15c5 99bb ad05 e03b a181 b6bd
000001e0: 1b72 47be c9c2 5abe 7c2b 18be 4818 49bd
000001f0: a1b9 b6bd cd23 fa3d 7bb4 c43d 2a28 c73c
00000200: 4bb8 6a3d 324a 253d f3ac 953d 4a5e 2d3d
00000210: c4cf a8bd ef82 ae3d 1c03 b53d 6a32 3ebe
00000220: 2c75 10be 1d5c 173d 4289 4ebd aab8 cbbc
00000230: fad9 a4be abbf 11be f5dc 23be 9b82 10be
00000240: 2203 f4bc 1b5e e0bd ebf6 40be 06fa a2bd
00000250: 8319 c9bd bc5c 6b3d 530b 8b3e 4d3d a23b
00000260: 9613 1c3d f52e 64bd af08 0b3d a0fc ba3d
00000270: 4995 85be e957 2cbe c78c 363e 1db3 81bd
00000280: 651f 61be 23a6 26be a47a 2fbe e2c1 e3bd
00000290: 544b 31be 97a6 4ebe 3fb1 3fbe d24d 7dbe
000002a0: 5052 92be 16bb 3dbe 6124 92be 3737 a5bd
000002b0: f7b3 cdbd 8430 3dbd 57ec 8c3d eb54 c53e
000002c0: 7464 d23d 6134 d63d aca7 4fbd 45b2 653b
000002d0: cc0e 563d ee02 9f3c ed89 85bc fbc7 8b3d
000002e0: 8f25 cfbd d066 083b 28f1 203e c94f ca3d
000002f0: 1584 c0bc 9d34 873c ad68 413e 6cd6 853d
00000300: 69ee c43d 74ed d83c 0d90 93bc 6a7c 14bd
00000310: 3fcf 693d 597a 383d b471 f33d 75c7 6d3d
00000320: 8584 283d 8e95 20be 978d 9fbd ea5e 4b3e
00000330: 77cb d83d ee49 69bd 211c 3c3d b278 863d
00000340: 3220 913e adb9 f13d 7d65 1abd 1bc2 1c3e
00000350: bfea f33d 278b f73d c312 20be 5e0d 82bd
00000360: 2255 593e 510d 2e3e 10d8 d23b afc2 d4bd
00000370: da42 d33d e1c1 4b3e 7661 af3d 3130 82bd
00000380: b607 77bd 5e8c 35bd c781 f4bd 544c 0ebe
00000390: 15ad 8fbc cd86 943d e8cc 57bd 7ac0 5ebc
000003a0: 1737 88bd 1ecc 7e3d 3fc7 bb3d df0c 033d
000003b0: e052 163d 012d bc3c 4b45 053e 8249 0d3e
000003c0: 813d 873d fbc0 cabd eab9 30bc 3919 de3d
000003d0: bec1 f83c 0214 18be ca11 bebd e3e4 6ebc
000003e0: ecca 1a3e c05f 1fbc 556e 523d beb2 8abd
000003f0: c434 1ebe 7570 1b3d 21e9 49be 61e6 2e3e

conceptizer.decoder.2.0.bias f4 [8]
0.14000776 -0.042323373 0.08925744 0.033213664 0.13792562 0.03813472 0.108771935 0.17851564
00000000: 325e 0f3e 465b 2dbd 9bcc b63d 0d0b 083d
00000010: 603c 0d3e 2733 1c3d d2c3 de3d cecc 363e

conceptizer.decoder.4.0.weight f4 [8, 1, 2, 2]
-1.2349519 -0.32500646 -0.54103875 0.3447206 0.7922285 1.0813364 1.2578139 1.219201
1.3409657 1.2287751 0.90003633 0.7917678 -0.8868762 -1.359325 -1.0776834 -1.45789
-1.0422964 -1.3967884 0.143604 -0.13748904 -0.87200326 -0.40236396 -1.6372919 -1.1380681
-0.6444019 -1.1971164 -0.9096435 -1.3343797 1.085063 0.83235115 0.86026967 0.5613517
00000000: e712 9ebf 3f67 a6be 8481 0abf 387f b03e
00000010: 7dcf 4a3f 3b69 8a3f 0c00 a13f c70e 9c3f
00000020: c4a4 ab3f 8148 9d3f c868 663f 4bb1 4a3f
00000030: 520a 63bf 5dfe adbf 88f1 89bf 249c babf
00000040: f869 85bf f6c9 b2bf ed0c 133e edc9 0cbe
00000050: 9b3b 5fbf a602 cebe c892 d1bf 37ac 91bf
00000060: 86f7 24bf 1c3b 99bf 65de 68bf f4cc aabf
00000070: 58e3 8a3f f714 553f a23a 5c3f bfb4 0f3f

conceptizer.unlinear.weight f4 [16, 1]
-1.01242 0.881224 -0.5179613 -1.365827 -1.0721098 -0.67235416 1.114907 -0.9779665
-0.92926985 -1.2929057 1.0964137 0.8285596 -1.3372836 -0.28465363 -0.8893133 0.9163
00000000: fb96 81bf e597 613f 1d99 04bf 6bd3 aebf
00000010: e53a 89bf 671f 2cbf 46b5 8e3f 035c 7abf
00000020: a1e4 6dbf ef7d a5bf 4957 8c3f 7b1c 543f
00000030: 1c2c abbf 1fbe 91be 09aa 63bf a392 6a3f

conceptizer.unlinear.bias f4 [16]
0.92913353 0.033273276 -1.3260483 0.7998796 0.6530407 0.12997009 -0.65620124 0.582029
-0.051738333 -0.77098393 -0.8748074 0.7094079 -0.387601 -0.7809137 -0.6781118 0.3939875
00000000: b2db 6d3f 8f49 083d f3bb a9bf e9c4 4c3f
00000010: ad2d 273f e116 053e cefc 27bf daff 143f
00000020: 93eb 53bd 345f 45bf 61f3 5fbf c29b 353f
00000030: a373 c6be f6e9 47bf bc98 2dbf bbb8 c93e

parameterizer.cl_layers.0.weight f4 [10, 1, 5, 5]
0.09471113 0.011378381 0.11391013 0.19500974 0.11997621 -0.02958105 0.19918892 -0.049244937
-0.0712363 -0.08848489 -0.039950535 0.12300509 0.14657173 0.19643115 0.1822166 -0.2634594
-0.13324246 -0.14670599 -0.11701214 -0.1996518 -0.11141466 -0.25661868 -0.28620538 -0.16049373
-0.25546288 -0.10494685 -0.03156802 0.18125443 0.024327205 0.06122525 -0.19816688 -0.13200143
-0.0021046319 0.036824528 0.020961449 -0.14393917 -0.024961734 -0.21104878 0.0042105736 -0.039565425
0.2297958 -0.08934762 -0.07609615 -0.20001145 -0.120941594 0.42284286 0.18804027 -0.052914616
0.0713484 -0.24231862 -0.18179283 -0.08182827 -0.06075165 0.09833604 0.12421246 -0.094022125
-0.20792696 0.14124632 0.09318218 0.0586117 -0.06476567 -0.16783623 -0.09543414 0.31763798
0.27256447 -0.25081566 -0.30394375 0.07463449 0.017481444 0.52720803 -0.09816717 -0.38270828
-0.1996212 -0.0044196923 0.40110275 -0.020549664 0.3681243 0.2719805 0.3031381 0.34369186
0.053163793 0.025193252 0.19091274 0.24899998 0.16560894 -0.16168223 -0.23303567 -0.17182434
-0.17070404 -0.25102872 0.053988565 -0.21271938 -0.017584303 -0.17681727 -0.029357633 -0.17494114
-0.16954574 -0.019052912 -0.24013284 0.054117925 0.12610613 0.16808593 -0.20051311 -0.038671155
-0.19397448 -0.09083495 0.07055234 -0.17263304 -0.1593632 -0.049089912 0.02707731 -0.03332765
-0.1207994 0.02927127 0.06365426 0.06083242 -0.106069356 -0.14745778 -0.046760682 -0.05001072
-0.12537014 -0.24454902 -0.21099511 0.18128718 0.013834976 -0.18757485 -0.11795765 0.034344062
-0.18811506 -0.13170157 0.016855665 -0.2037351 -0.2912026 0.08391436 0.17577744 0.017657699
-0.2714359 0.05538881 0.14466031 0.087028295 -0.0018906697 -0.2771847 0.19234657 0.097283654
0.3130793 -0.26114413 -0.034814857 -0.11895945 0.50740755 0.48096886 0.09025367 -0.09896963
0.14719598 0.2961169 -0.24403617 -0.07199354 -0.13015053 0.17825212 0.21273883 -0.13456942
-0.13395664 0.0946446 0.27852637 -0.24758136 -0.21726519 0.053129684 0.10253525 -0.055835556
0.1935378 -0.26544043 -0.119715065 -0.11529527 -0.10440997 0.21603534 -0.019698687 0.14096493
-0.25231603 -0.18007123 -0.19247846 0.4431825 0.1049357 -0.17066535 -0.058709662 0.023765575
0.2828931 -0.035977077 0.07933752 -0.20250607 -0.062586755 0.16116112 -0.024536993 -0.15121931
0.025321968 -0.21159703 0.20012435 -0.15227148 -0.1572392 -0.015653107 -0.27876294 -0.36552033
-0.07656933 -0.21670464 -0.110319026 0.21189478 -0.041310802 0.1785477 0.087704465 0.08410025
-0.06112398 0.17120335 0.04938508 0.13641539 -0.04879883 0.048635516 -0.04482507 -0.20690034
0.1169882 0.12358708 -0.20017198 -0.3198048 -0.007251609 -0.16754442 0.05669721 -0.2147304
0.4337843 -0.08534509 -0.29000872 -0.24395925 -0.10048943 0.17226636 -0.14622335 0.13652714
0.24026772 0.09945549 0.13459176 0.120565444 0.17272897 0.26777533 0.089949355 -0.081715345
0.17144106 0.10353767 -0.04401246 0.058743197 -0.13998929 0.015389087 -0.042872235 -0.1470395
-0.13448672 0.060038406
00000000: e9f7 c13d 646c 3a3c b749 e93d a2b0 473e
00000010: 16b6 f53d f553 f2bc 2ef8 4b3e 0fb5 49bd
00000020: 56e4 91bd 9137 b5bd 2ca3 23bd 18ea fb3d
00000030: e616 163e 3f25 493e fd96 3a3e 27e4 86be
00000040: b670 08be 183a 16be 10a4 efbd 8571 4cbe
00000050: 5f2d e4bd 8663 83be 8389 92be 7858 24be
00000060: 08cc 82be 60ee d6bd 784d 01bd c39a 393e
00000070: d949 c73c 54c7 7a3d 42ec 4abe 622b 07be
00000080: dded 09bb 51d5 163d 58b7 ab3c ca64 13be
00000090: 8d7c ccbc 2c1d 58be daf8 893b 5b0f 22bd
000000a0: 974f 6b3e e3fb b6bd 4cd8 9bbd cdcf 4cbe
000000b0: 3ab0 f7bd dc7e d83e a18d 403e ffbc 58bd
000000c0: 1c1f 923d 5f22 78be e627 3abe 9495 a7bd
000000d0: b9d6 78bd 6864 c93d 1a63 fe3d ac8e c0bd
000000e0: ceea 54be e0a2 103e 4cd6 be3d d212 703d
000000f0: dda3 84bd 43dd 2bbe f972 c3bd 72a1 a23e
00000100: 928d 8b3e e96a 80be 849e 9bbe f8d9 983d
00000110: 3f35 8f3c 1bf7 063f df0b c9bd 57f2 c3be
00000120: 8069 4cbe 11d3 90bb 575d cd3e c557 a8bc
00000130: ca7a bc3e 0741 8b3e eb34 9b3e 61f8 af3e
00000140: 47c2 593d 1462 ce3c a17e 433e daf9 7e3e
00000150: 6495 293e 0790 25be e7a0 6ebe b8f2 2fbe
00000160: 0acd 2ebe d686 80be 1d23 5d3d 1cd3 59be
00000170: f50c 90bc 960f 35be 6b7f f0bc c523 33be
00000180: 669d 2dbe da14 9cbc 62e5 75be c2aa 5d3d
00000190: f721 013e b81e 2c3e 4f53 4dbe a565 1ebd
000001a0: 3fa1 46be ad07 babd bf7d 903d b7c6 30be
000001b0: 1b30 23be 8112 49bd 3cd1 dd3c 9382 08bd
000001c0: ad65 f7bd 4dca ef3c 2a5d 823d 6a2b 793d
000001d0: e43a d9bd 2cff 16be 2188 3fbd 0ad8 4cbd
000001e0: 0861 00be 0f6b 7abe 1a0f 58be 59a3 393e
000001f0: 18ac 623c 9f13 40be c893 f1bd 5cac 0c3d
00000200: 3ca1 40be c7dc 06be e414 8a3c ef9f 50be
00000210: 8218 95be 4bdb ab3d 00ff 333e e1a6 903c
00000220: a5f9 8abe 60df 623d d521 143e e43b b23d
00000230: 59d0 f7ba 27eb 8dbe 80f6 443e a73c c73d
00000240: ee4b a03e afb4 85be 069a 0ebd 03a1 f3bd
00000250: 76e5 013f 8d41 f63e ebd6 b83d 97b0 cabd
00000260: 8bba 163e a29c 973e 9ee4 79be 5971 93bd
00000270: 2e46 05be b987 363e 35d8 593e 91cc 09be
00000280: ee2b 09be 07d5 c13d 029b 8e3e f885 7dbe
00000290: c47a 5ebe 839e 593d 00fe d13d d3b3 64bd
000002a0: c62e 463e cfe7 87be 2c2d f5bd ed1f ecbd
000002b0: e5d4 d5bd 5e38 5d3e 245f a1bc 1c59 103e
000002c0: 912f 81be 9864 38be 1319 45be d1e8 e23e
000002d0: 87e8 d63d e6c2 2ebe 8b79 70bd 06b0 c23c
000002e0: 5dd7 903e b35c 13bd b67b a23d c05d 4fbe
000002f0: 7c2d 80bd 6c07 253e ce01 c9bc 3cd9 1abe
00000300: 0470 cf3c e4ac 58be 66ed 4c3e 0eed 1bbe
00000310: 5003 21be f23a 80bc 04ba 8ebe 7b25 bbbe
00000320: 62d0 9cbd d2e7 5dbe f1ee e1bd f2fa 583e
00000330: 8435 29bd 35d5 363e 669e b33d c03c ac3d
00000340: 235d 7abd ee4f 2f3e 0248 4a3d 7ab0 0b3e
00000350: 48e1 47bd 0936 473d 7e9a 37bd afdd 53be
00000360: 8297 ef3d 391b fd3d e2f9 4cbe 74bd a3be
00000370: e89e edbb c490 2bbe 553b 683d 49e2 5bbe
00000380: fa18 de3e 68c9 aebd 067c 94be 74d0 79be
00000390: 67cd cdbd 9866 303e 93bb 15be c5cd 0b3e
000003a0: be08 763e 52af cb3d 6cd2 093e 04eb f63d
000003b0: dddf 303e d919 893e 5e37 b83d 605a a7bd
000003c0: 3f8e 2f3e 8f0b d43d 6946 34bd b59c 703d
000003d0: 5a59 0fbe 8222 7c3c cc9a 2fbd 8691 16be
000003e0: e3b6 09be d5ea 753d

parameterizer.cl_layers.0.bias f4 [10]
0.20051715 0.15811871 -0.04867362 0.034355152 0.03792842 0.12122449 -0.093480416 -0.18199599
-0.053011607 0.020829838
00000000: 5e54 4d3e dfe9 213e fd5d 47bd fdb7 0c3d
00000010: d55a 1b3d 8c44 f83d a972 bfbd 285d 3abe
00000020: b322 59bd 56a3 aa3c

parameterizer.cl_layers.3.weight f4 [20, 10, 5, 5]
0.011297397 -0.051617127 -0.06981272 -0.088407695 0.025323017 0.034342613 0.01081036 -0.04888113
0.025730768 -0.020858597 -0.0055951597 0.03127163 -0.033209752 -0.057610065 -0.0072025233 0.06810605
0.040204585 -0.04205537 -0.017627522 0.064389236 -0.06663886 -0.06544973 -0.04469138 -0.024349611
-0.18773481 0.07304315 0.05452329 -0.037946094 -0.04107218 0.003550468 0.0103057865 -0.035216
-0.041669592 -0.0133067425 0.027143147 0.0015870765 -0.011089669 0.035925392 0.008505329 0.022705738
-0.0092127705 0.056734 0.04862428 -0.024541486 -0.040145364 -0.015283799 0.044710215 0.084596224
0.05827637 -0.04229909 0.06323638 0.000764922 0.061261512 0.0032959294 0.06531638 -0.031644512
-0.053893194 0.032884795 -0.034937043 -0.051115025 -0.032499358 -0.0035367531 -0.05386321 -0.045907404
-0.03005943 -0.020240776 0.03387151 -0.0305418 -0.0028869794 -0.15433465 0.054695267 0.07766702
0.06954904 0.21382603 0.12934354 0.03689702 -0.033735313 -0.044204935 -0.03357772 0.0075498223
-0.012975681 0.0044238465 -0.036402237 0.017490001 -0.08773136 0.049452163 0.0152984755 -0.056500908
-0.10465554 -0.008738552 0.033825755 0.022227421 -0.0059366263 -0.04255539 -0.004862555 0.076889075
-0.024678187 -0.051816925 0.018968591 -0.03344653 0.032777708 -0.02222643 -0.034758125 0.027984105
-0.04859171 0.048779488 -0.03512651 -0.053063273 -0.03792451 0.06995139 0.039267242 -0.0033525333
0.067522466 -0.017134635 0.07235136 0.021277888 0.06585433 -0.0059478716 0.05058255 0.022637287
0.07190351 -0.02826596 -0.02263207 -0.019104667 0.046867725 -0.019578332 0.021854945 -0.011250204
0.045338813 0.013876167 0.003582672 0.036730662 0.045864347 0.038748268 -0.015483649 0.007580154
0.038459226 0.01770326 0.026516024 0.024123717 0.013080979 -0.015161899 0.03661891 0.024363384
-0.039922033 0.057223693 -0.0073536388 -0.030905427 0.046963625 0.15440372 0.040004633 0.03525952
-0.041675486 -0.043313175 -0.008025027 0.023237653 -0.006556827 -0.006466533 0.0008287996 0.02699639
0.029830258 -0.018384403 0.010795739 0.024757735 0.025148697 0.017539505 0.025264082 -0.004498029
0.0053232657 0.14191775 0.01833557 0.063217595 0.08741708 -0.020049905 -0.03572804 -0.017457003
0.06328194 -0.017563619 -0.047080696 -0.010584784 -0.01794088 0.050734513 0.04651952 0.025768854
0.001335726 -0.05876406 0.0026542607 -0.031070257 0.048246093 -0.027643174 -0.014341221 -0.0464682
-0.035100676 0.024581114 0.089463115 -0.06565844 -0.08254079 -0.05052213 0.00707093 -0.23371352
0.013555372 0.007149507 -0.032178104 0.03276383 -0.027114587 -0.0077586016 0.0013296464 -0.017205298
-0.004490812 0.009256797 0.023462063 -0.0027137427 0.011417099 -0.028537827 -0.009475874 0.1009155
-0.053834576 -0.028791636 0.019585114 0.073355064 0.037072666 0.037652206 -0.027866943 0.23971763
-0.01960152 0.021096228 -0.0021315617 -0.09015817 -0.05153388 -0.023373641 0.02702643 0.04499036
-0.0104145175 -0.041261405 0.027336493 0.07762947 0.06898104 0.013675973 -0.009364299 0.069788806
0.13574098 0.06426883 0.007988699 0.015392445 0.045160156 0.0076903743 -8.3721374e-05 -0.05100083
-0.08536227 -0.11103717 -0.035026126 -0.01293276 -0.008419234 -0.062091805 0.062093616 0.018713739
00000000: b818 393c 7b6c 53bd f9f9 8ebd 180f b5bd
00000010: 3772 cf3c d7aa 0c3d f01d 313c 9437 48bd
00000020: 55c9 d23c a6df aabc 9a57 b7bb ae16 003d
00000030: f306 08bd 88f8 6bbd 2503 ecbb 2f7b 8b3d
00000040: 90ad 243d 4042 2cbd 9867 90bc 81de 833d
00000050: f479 88bd 820a 86bd 4f0e 37bd d678 c7bc
00000060: 8e3d 40be a697 953d d053 5f3d 5d6d 1bbd
00000070: 4d3b 28bd f8ae 683b 9ad9 283c a73e 10bd
00000080: bcad 2abd 8604 5abc 4e5b de3c 7305 d03a
00000090: 71b1 35bc 8126 133d ef59 0b3c 6201 ba3c
000000a0: 29f1 16bc e961 683d 412a 473d 3a0b c9bc
000000b0: 776f 24bd e668 7abc 0f22 373d c940 ad3d
000000c0: 34b3 6e3d d041 2dbd 1382 813d 0c85 483a
000000d0: 5aed 7a3d 8500 583b 98c4 853d ad9d 01bd
000000e0: 1cbf 5cbd 35b2 063d 251a 0fbd fd5d 51bd
000000f0: 0c1e 05bd dfc8 67bb ab9f 5cbd 6709 3cbd
00000100: 323f f6bc fccf a5bc dabc 0a3d cc32 fabc
00000110: 7a33 3dbb e709 1ebe 2508 603d e30f 9f3d
00000120: ba6f 8e3d 36f5 5a3e a272 043e 5421 173d
00000130: 0a2e 0abd 3c10 35bd cb88 09bd 8064 f73b
00000140: f397 54bc eaf5 903b 831a 15bd 3147 8f3c
00000150: 80ac b3bd 5a8e 4a3d 75a6 7a3c 7f6d 67bd
00000160: a555 d6bd 252c 0fbc e08c 0a3d 4816 b63c
00000170: 0888 c2bb 904e 2ebd 1156 9fbb 0578 9d3d
00000180: e929 cabc fc3d 54bd 0564 9b3c 3bff 08bd
00000190: eb41 063d 3414 b6bc 895e 0ebd ec3e e53c
000001a0: 1a08 47bd 00cd 473d d1e0 0fbd e058 59bd
000001b0: bb56 1bbd ad42 8f3d b0d6 203d 2db6 5bbb
000001c0: 3849 8a3d ef5d 8cbc f32c 943d f74e ae3c
000001d0: a3de 863d 5de6 c2bb a62f 4f3d d571 b93c
000001e0: 2642 933d 048e e7bc e466 b9bc 6481 9cbc
000001f0: 5ff8 3f3d bd62 a0bc 2409 b33c c752 38bc
00000200: 31b5 393d dd58 633c 43cb 6a3b e472 163d
00000210: 41dc 3b3d 81b6 1e3d 22af 7dbc f162 f83b
00000220: 6c87 1d3d 6d06 913c 2238 d93c 1a9f c53c
00000230: 9a51 563c 9d69 78bc b6fd 153d b895 c73c
00000240: 4985 23bd 6463 6a3d cbf6 f0bb 612d fdbc
00000250: ee5c 403d 021c 1e3e e6db 233d 496c 103d
00000260: eab3 2abd 2869 31bd 677b 03bc e45c be3c
00000270: a7da d6bb 36e5 d3bb cd43 593a 8927 dd3c
00000280: 965e f43c e39a 96bc 9ce0 303c bcd0 ca3c
00000290: a404 ce3c 02af 8f3c 9ff6 ce3c 3464 93bb
000002a0: ca6e ae3b e352 113e 7a34 963c 3a78 813d
000002b0: ba07 b33d b33f a4bc 9157 12bd fd01 8fbc
000002c0: f699 813d 94e1 8fbc b0d7 40bd cd6b 2dbc
000002d0: c1f8 92bc fece 4f3d 418b 3e3d 3419 d33c
000002e0: 8713 af3a 95b2 70bd 1bf3 2d3b 0d87 febc
000002f0: b29d 453d f073 e2bc 71f7 6abc 7055 3ebd
00000300: bac5 0fbd 555e c93c 7038 b73d ef77 86bd
00000310: 250b a9bd 4bf0 4ebd 43b3 e73b 9952 6fbe
00000320: 5a17 5e3c 6946 ea3b 30cd 03bd 5e33 063d
00000330: 691f debc de3b febb 8847 ae3a 20f2 8cbc
00000340: a927 93bb d2a9 173c 8333 c03c 0cd9 31bb
00000350: c90e 3b3c 29c8 e9bc b240 1bbc c9ac ce3d
00000360: a581 5cbd 70dc ebbc f670 a03c 2e3b 963d
00000370: 82d9 173d 3339 1a3d 3749 e4bc 8a78 753e
00000380: 5e93 a0bc ffd1 ac3c acb1 0bbb d9a4 b8bd
00000390: 3115 53bd 147a bfbc 8866 dd3c d047 383d
000003a0: a7a1 2abc b801 29bd c8f0 df3c 33fc 9e3d
000003b0: ee45 8d3d 3011 603c b76c 19bc 6fed 8e3d
000003c0: afff 0a3e 609f 833d 08e3 023c 9830 7c3c
000003d0: dbf9 383d 89ff fb3b 9293 afb8 3fe6 50bd
000003e0: 6ad2 aebd 7567 e3bd 8e77 0fbd ede3 53bc
000003f0: d4f0 09bc fa53 7ebd e055 7e3d 8e4d 993c

parameterizer.cl_layers.3.bias f4 [20]
0.06317934 -0.029878512 -0.006724113 0.045702096 -0.042904694 0.01982706 0.040637996 -0.05616824
0.032391943 -0.023713112 0.041696254 -0.0040078433 -0.0093072085 0.0202821 -0.09821435 0.009519094
0.026546033 -0.013964025 -0.04461807 -0.051860716
00000000: 2b64 813d c8c3 f4bc f355 dcbb 1f32 3b3d
00000010: d5bc 2fbd 5c6c a23c 0774 263d ab10 66bd
00000020: 6aad 043d 0042 c2bc b1c9 2a3d 3a54 83bb
00000030: 437d 18bc a626 a63c 9b24 c9bd f9f5 1b3c
00000040: 1177 d93c 5ec9 64bc 70c1 36bd e76b 54bd

parameterizer.fc_layers.0.weight f4 [50, 320]
-0.04785697 -0.014799142 0.0079988865 -0.05207037 0.008120398 0.044841845 0.00389109 0.012662906
-0.03545217 0.029289609 0.00018249243 -0.023131529 -0.0006452627 0.05078192 0.05415756 0.04995552
-0.13412677 0.011960526 -0.05002561 -0.051033303 0.07261208 -0.008425977 0.019022198 0.022803565
0.017762223 -0.023585103 0.051402092 0.08499283 0.042674158 0.021934833 -0.026126085 0.07490648
-0.058992118 0.030099459 -0.013243758 -0.024955526 0.0046489974 -0.009603861 0.036036823 0.0139583135
-0.061685868 0.004049329 0.011647955 -0.0006057207 0.008999875 -0.015279913 0.033445057 0.024929384
0.08408771 0.026352538 -0.005560454 0.085673496 -0.0023845213 -0.040742293 -0.016558323 0.024587436
0.058418445 -0.015163709 0.007045624 -0.016686926 0.022379063 0.0072036576 -0.041450884 -0.024715059
0.010729745 0.051238228 -0.0015258894 0.0686023 0.009970548 -0.035897274 -0.034421057 -0.0298031
0.020136977 -0.003822501 -0.029593496 0.003448766 0.042672005 0.01259822 -0.0018744672 0.0058597075
-0.20488803 -0.0119171385 0.006037625 -0.012748935 0.07483535 0.05419397 -0.0003723907 0.000364171
0.08052396 -0.019057823 0.04393127 0.034811035 0.054088693 0.014612127 0.030988451 0.04696974
0.0018983996 0.0043490236 0.019893141 0.039821845 0.0046733604 0.0037784649 0.02804736 -0.029373448
0.05541958 -0.00874223 -0.07551094 -0.025054662 0.015493944 -0.056414545 -0.024023421 0.03169869
-0.02432853 -0.0145551795 0.0019731466 -0.0117633 0.0986414 0.049742162 0.046155278 0.028683597
-0.01802047 -0.063811 0.02970493 -0.05208127 0.012199532 -0.06500673 -0.010982738 0.024298875
0.16126916 0.014196473 0.04471266 0.06938602 -0.0063803475 -0.006782321 0.092751 -0.02177881
-0.02654626 0.018960075 0.014689531 -0.016675627 -0.04389458 -0.017472867 -0.03295627 0.020974288
0.16898677 0.039175116 -0.018059172 0.021537287 -0.05224483 0.023598744 0.029255334 0.036704548
-0.0385803 0.066999845 0.047456168 0.004785318 -0.06414693 -0.0029326815 -0.0073856916 -0.067896806
-0.12944236 0.05698776 0.04083018 0.011232738 0.026385298 0.0015742811 0.019008199 0.034033157
0.0339013 -0.012870365 0.02124362 0.092506826 0.008788821 -0.03412612 0.012297703 0.012468062
0.0326152 -0.0124301035 -0.02304299 -0.0019691442 0.044858664 -0.042354044 -0.013733413 0.047879197
-0.019642668 0.012019091 -0.05878077 0.0067789042 0.033744283 0.041190114 -0.024356205 0.042130515
-0.15857786 0.03045821 0.005789142 -0.016841004 0.06737467 -0.0036468506 0.03883606 0.0063207783
0.0066197445 -0.0037559294 0.00040470107 -0.013928448 0.026517458 0.018500816 0.04404262 0.061623134
0.29615638 0.03923071 0.014384975 -0.0011198258 0.009904953 -0.032356296 0.05280772 0.029257702
-0.004583563 0.019651659 0.051747542 -0.069403395 -0.08981872 -0.020466147 -0.053438514 -0.059572905
0.11636744 0.0013623236 -0.01687222 0.08621789 0.04110335 0.06681453 -0.008260486 0.05115221
-0.0017494083 -0.0473909 -6.534727e-06 0.039286483 -0.07523425 0.002071182 -0.02707761 0.055163987
-0.17668666 0.04677341 -0.02838764 0.062232215 -0.02339044 0.07240428 -0.022329204 0.037522778
0.029911267 0.005018154 0.027342115 0.038682986 0.0459094 0.002728052 0.07899421 0.06987365
00000000: ac05 44bd 1a78 72bc c30d 033c be47 55bd
00000010: 6b0b 053c 15ac 373d a801 7f3b 1478 4f3c
00000020: 4b36 11bd c3f0 ef3c 705b 3f39 557e bdbc
00000030: d926 29ba b400 503d 51d4 5d3d 299e 4c3d
00000040: 8758 09be 15f6 433c a7e7 4cbd 4c08 51bd
00000050: a4b5 943d 1c0d 0abc 71d4 9b3c 8bce ba3c
00000060: 1582 913c 8c35 c1bc 008b 523d b910 ae3d
00000070: 19cb 2e3d aeb0 b33c 5f06 d6bc 9268 993d
00000080: b8a1 71bd 2493 f63c 59fc 58bc 886f ccbc
00000090: 9e56 983b 8359 1dbc 599b 133d 69b1 643c
000000a0: 52aa 7cbd 3cb0 843b 10d7 3e3c 3ac9 1eba
000000b0: 3674 133c 9a58 7abc affd 083d b538 cc3c
000000c0: 2d36 ac3d 47e1 d73c 7834 b6bb 9675 af3d
000000d0: a145 1cbb 64e1 26bd 52a5 87bc 976b c93c
000000e0: 2e48 6f3d 3571 78bc fade e63b 05b3 88bc
000000f0: 4c54 b73c a90c ec3b 67c8 29bd 3c77 cabc
00000100: d0cb 2f3c 2ddf 513d 5a00 c8ba 5d7f 8c3d
00000110: 825b 233c 0509 13bd 18fd 0cbd a125 f4bc
00000120: 4df6 a43c ed82 7abb 0f6e f2bc b104 623b
00000130: d7c8 2e3d c468 4e3c afb0 f5ba ca02 c03b
00000140: 2bce 51be 1a40 43bc 45d7 c53b e9e0 50bc
00000150: 4743 993d 7ffa 5d3d 6f3d c3b9 34ee be39
00000160: bfe9 a43d 271f 9cbc 46f1 333d 0496 0e3d
00000170: 1b8c 5d3d b467 6f3c 7edb fd3c 5863 403d
00000180: b8d3 f83a 4182 8e3b f1f6 a23c 3b1c 233d
00000190: fd22 993b 1fa0 773b 94c3 e53c 96a0 f0bc
000001a0: a4ff 623d 923b 0fbc 7ba5 9abd 6f3f cdbc
000001b0: 50da 7d3c f012 67bd c4cc c4bc 7cd6 013d
000001c0: a04c c7bc d978 6ebc e84f 013b dbba 40bc
000001d0: 8104 ca3d 70be 4b3d 510d 3d3d ddf9 ea3c
000001e0: aa9f 93bc 57af 82bd c157 f33c 2b53 55bd
000001f0: 8ce0 473c 4022 85bd f1f0 33bc 6f0e c73c
00000200: be23 253e 5398 683c 9f24 373d 421a 8e3d
00000210: 3c12 d1bb 3b3e debb 3cf4 bd3d 7a69 b2bc
00000220: 8b77 d9bc 2952 9b3c 5cac 703c 539b 88bc
00000230: ceca 33bd 4223 8fbc 27fd 06bd 45d2 ab3c
00000240: de0a 2d3e 1676 203d d4f0 93bc f76e b03c
00000250: adfe 55bd 2752 c13c e2a8 ef3c 8257 163d
00000260: 6006 1ebd 3737 893d 6661 423d 28ce 9c3b
00000270: 775f 83bd 3b32 40bb ac03 f2bb 7b0d 8bbd
00000280: 8a8c 04be ff6b 693d 8c3d 273d 8509 383c
00000290: fb25 d83c 1c58 ce3a 15b7 9b3c 5a66 0b3d
000002a0: 17dc 0a3d 39de 52bc 1a07 ae3c 3874 bd3d
000002b0: fdfe 0f3c d5c7 0bbd 4e7c 493c d846 4c3c
000002c0: 8497 053d a2a7 4bbc a7c4 bcbc c20c 01bb
000002d0: b8bd 373d 6f7b 2dbd 1c02 61bc fa1c 443d
000002e0: a9e9 a0bc b9eb 443c 1bc4 70bd 9221 de3b
000002f0: 7237 0a3d f7b6 283d aa86 c7bc 0c91 2c3d
00000300: 3c62 22be 7f83 f93c d8b2 bd3b 25f6 89bc
00000310: bbfb 893d 0000 6fbb 8f12 1f3d 881e cf3b
00000320: 71ea d83b 0a26 76bb 0f2e d439 2534 64bc
00000330: 243b d93c 068f 973c 0966 343d 8a68 7c3d
00000340: cfa1 973e 62b0 203d f5ae 6b3c 1ec7 92ba
00000350: 6248 223c 0988 04bd e84c 583d d9ad ef3c
00000360: b731 96bb 84fc a03c 3bf5 533d 5e23 8ebd
00000370: e1f2 b7bd 9fa8 a7bc 58e2 5abd b802 74bd
00000380: 0d52 ee3d ff8f b23a 9c37 8abc 0193 b03d
00000390: fd5b 283d 0ed6 883d fd56 07bc fb84 513d
000003a0: 674c e5ba f61c 42bd e144 dbb6 ddea 203d
000003b0: 6a14 9abd abbc 073b ddd1 ddbc a2f3 613d
000003c0: 59ed 34be 7a95 3f3d 328d e8bc 35e7 7e3d
000003d0: 4f9d bfbc b248 943d bceb b6bc 7cb1 193d
000003e0: 7908 f53c 546f a43b 92fc df3c 0d72 1e3d
000003f0: 7f0b 3c3d 1ec9 323b b7c7 a13d eb19 8f3d

parameterizer.fc_layers.0.bias f4 [50]
-0.0001183664 -0.0664229 0.026694607 -0.0032631182 0.026841989 0.06217523 0.074604616 -0.013720441
0.0050298413 -0.021231545 0.009589311 -0.06586905 0.01775459 0.059886448 0.02703384 -0.006149435
0.032226104 0.018088909 0.07550698 0.04645238 0.046748556 -0.09815132 0.05600671 0.040106606
0.049399097 -0.00867011 0.032107566 -0.0027890583 0.015761364 0.067804545 -0.044416778 0.02591819
0.033337604 -0.059558645 -0.05386309 -0.04798194 -0.021643711 0.008253848 -0.03196265 0.013900574
-0.023523211 -0.010054048 0.0036478634 0.029350208 0.05405294 0.011509773 0.03548536 -0.0097862575
0.02567549 -0.008333734
00000000: 7a3b f8b8 bb08 88bd a6ae da3c 0ada 55bb
00000010: bbe3 db3c 74ab 7e3d 4eca 983d b3cb 60bc
00000020: 5ed1 a43b c7ed adbc 7c1c 1d3c 5ae6 86bd
00000030: 1372 913c 7e4b 753d 1276 dd3c 3381 c9bb
00000040: 85ff 033d 312f 943c 67a3 9a3d da44 3e3d
00000050: 6a7b 3f3d 8f03 c9bd 4b67 653d d346 243d
00000060: b556 4a3d 140d 0ebc 3983 033d a2c8 36bb
00000070: fa1d 813c 1cdd 8a3d 5eee 35bd 6252 d43c
00000080: 038d 083d c4f3 73bd 8b9f 5cbd b688 44bd
00000090: 274e b1bc 263b 073c 45eb 02bd 3cbf 633c
000000a0: c0b3 c0bc bcb9 24bc fe10 6f3b d96f f03c
000000b0: 9e66 5d3d 7d93 3c3c 1959 113d 8a56 20bc
000000c0: 6855 d23c 378a 08bc
