results/CONF_FASHION_MNIST/checkpoints/Epoch[4]-Step[1350].pt (torch, 374338 bytes, 66 tensors)

conceptizer.encoder.0.0.weight f4 [10, 1, 5, 5]
000000 33 21 45 be 27 06 55 3e ae 79 73 3e 18 8a 13 3e
       -0.19250946 0.20803128 0.23776886 0.14408147
000010 1c a6 03 3e fd dc b4 bd aa e5 45 3c 89 2c 72 3d
       0.12856334 -0.08831213 0.012078682 0.059124503
000020 0f 4f 55 3e 3d 3b b7 bd 88 a7 0a 3e 0e f5 f8 3d
       0.2083094 -0.08946846 0.1354047 0.121561155
000030 41 ed 18 be e5 1a 0c 3e f0 26 f8 bd ec ae 32 3e
       -0.14934255 0.13682134 -0.12116802 0.1744954
000040 83 5d b1 3d 6a 61 08 3e 54 06 45 3d 19 6c a6 bd
       0.08660414 0.1331841 0.048101738 -0.08126087
000050 5c f4 40 3e 35 2e b2 bc 80 14 82 bd 45 d1 8f bd
       0.18843216 -0.021750549 -0.06351566 -0.07022337
000060 72 68 16 3e 87 fd a3 bd cf 81 f9 3d e3 78 f9 bd
       0.1468828 -0.08007341 0.12182962 -0.121812604
000070 85 6d ce bd 86 02 dd bd f1 9b a5 bc d5 44 82 bd
       -0.10079483 -0.10791497 -0.02021596 -0.06360785
000080 6b 8d 34 be 52 4d 19 3a 4d dd 1c be 60 11 a5 3d
       -0.17632072 0.00058480084 -0.15318795 0.08059955
000090 6c e6 f7 bd 26 61 4b bd 97 45 30 be a8 a2 18 be
       -0.12104496 -0.049653195 -0.17214046 -0.14905798
0000a0 16 d2 61 be 0e f8 c8 bc dc c7 55 bd d8 58 23 3d
       -0.22052798 -0.024532344 -0.052192554 0.03987965
0000b0 24 f1 b7 bc 74 2f 9a 3d 6e cd 69 3d ee 74 c9 bd
       -0.022453852 0.07528582 0.05708068 -0.09836756
0000c0 67 d4 52 be fa 72 51 3c f4 8d 8b 3c 22 91 1f be
       -0.20588838 0.01278376 0.017035462 -0.15582708
0000d0 cc 8b d9 3d 88 12 1c bd 77 c8 da bd f9 8b cc bd
       0.10622367 -0.03810361 -0.10682767 -0.09987635
0000e0 1e 4e 20 be 6e 71 24 bc 2f 9c 39 be d6 3b 01 be
       -0.156548 -0.010036809 -0.18125986 -0.12620482
0000f0 3d 67 5a be 26 e7 0b 3e ef 9f 98 bd 9f 65 35 be
       -0.21328445 0.13662395 -0.0745238 -0.17714547
000100 e4 08 a3 bc 27 b2 a7 bd 0e 36 19 bd 42 14 58 be
       -0.0199017 -0.08188277 -0.037405066 -0.21101478
000110 e5 bd be bd 51 dc 11 be ef 11 1a 3e 50 b0 bf 3c
       -0.09313563 -0.142442 0.15045904 0.023399502
000120 d2 ee 32 3d 0f 9a ca 3b 09 af ae bd 43 f5 ca bd
       0.043684788 0.006182916 -0.08529479 -0.09910061
000130 10 f4 72 bc 7f 18 be 3d f5 55 58 bd 17 58 e8 bd
       -0.014828697 0.09282016 -0.05281635 -0.11344927
000140 fe fa e6 bd 10 f3 40 3b 1b 48 93 bd 8a a7 12 bd
       -0.11278342 0.0029441752 -0.071914874 -0.03580431
000150 46 6f 84 3d 46 19 42 be dc 4c 35 be b3 81 7d 3d
       0.06466536 -0.18954954 -0.17705101 0.06189127
000160 02 7d 3b be b6 bf f0 bc 74 c0 4f bd 50 04 ec bd
       -0.18309405 -0.02938829 -0.050720647 -0.1152426
000170 cb ad c5 ba cb c2 b4 bd ed ca f7 bc f6 ef 0d bd
       -0.0015081702 -0.08826216 -0.03024813 -0.034652673
000180 85 7d 2b bc 16 2e 3b be 37 70 a4 bc e8 59 1a 3e
       -0.010466938 -0.18279299 -0.02007304 0.15073359
000190 f4 cf a0 3d e4 fb 11 be e2 81 96 3d 8b 51 71 3d
       0.07852164 -0.14256245 0.07348992 0.058915656
0001a0 51 87 c3 3d ca ff 8d 3d e2 58 22 be 36 eb a4 bc
       0.09547294 0.069335535 -0.15854219 -0.020131689
0001b0 f7 dd f2 3d b2 e0 66 be a4 4f 6f 3d 0e 9e 1c 3d
       0.11858743 -0.22546652 0.05842556 0.03823667
0001c0 3c 99 4f be 23 52 61 be 9c 0e d4 bd 06 bd 9b 39
       -0.20273298 -0.22003989 -0.10354349 0.00029704737
0001d0 b3 09 c4 bd 42 08 e4 3d f7 ec 2a be 75 1c c4 3c
       -0.095721625 0.111343876 -0.16691957 0.02393935
0001e0 25 7f 92 3d e9 15 24 3e a0 fe a0 bd fb 4f 23 be
       0.07153157 0.16023983 -0.07861066 -0.15948479
0001f0 34 0c 16 3d 9e b3 7f bd ca 2b e5 3d 0d b5 03 3e
       0.03663273 -0.062427156 0.11189993 0.12862034
000200 90 08 2c 3e b1 56 a4 3d 7c f5 23 be 8f 78 c6 bd
       0.16800141 0.080243476 -0.16011614 -0.096909635
000210 44 4c 41 3e 68 b3 3b 3e 0a a3 39 bd f7 c4 17 3e
       0.1887675 0.18330157 -0.0453215 0.1482123
000220 c4 75 c3 3d c7 79 06 3e 8f bc 13 bd 98 6c 35 be
       0.095439464 0.13132392 -0.036068495 -0.17717206
000230 d1 9a 14 be 4b c7 25 3e a6 29 47 3e 14 c1 18 bc
       -0.14512183 0.16189305 0.19449481 -0.009323377
000240 3d 8a 57 be b3 f9 7c 3d 5d 8c 4a 3e c8 d7 00 3e
       -0.21048827 0.06176157 0.19780107 0.12582314
000250 b4 92 0d be ad 1d 25 bd f4 da 15 3e 02 5b 18 be
       -0.13825494 -0.040311504 0.14634305 -0.14878467
000260 8c b2 ba 3d 4c df d8 3d 24 02 56 bd 0a 05 bb bd
       0.09116086 0.105894655 -0.052248135 -0.091318205
000270 b0 58 38 3e 0e 6b f8 bb 89 fe 0c 3e f8 52 02 3e
       0.18002582 -0.0075811213 0.13768972 0.12726963
000280 ee e4 0a be 5c 4e 66 bd 57 14 a4 bd 36 49 cc bd
       -0.13563892 -0.056227073 -0.08011692 -0.099749014
000290 51 cc 2d be c0 d0 0d be 5b 23 19 3e ac 3c 7d 3d
       -0.16972472 -0.13849163 0.14954893 0.06182544
0002a0 91 0a c3 bd 88 57 39 be bd b2 c0 bd 3b c2 2d 3d
       -0.095235 -0.18099797 -0.094090916 0.04242156
0002b0 35 07 55 be f5 67 c6 bb e2 4e 3a 3d c2 3a 97 bd
       -0.2080353 -0.006054873 0.045485385 -0.07384254
0002c0 01 8b e9 bc 41 16 47 be cd 97 4f be f1 60 e3 3d
       -0.028508665 -0.19442083 -0.20272751 0.111024745
0002d0 ee f7 87 bd 61 18 f1 bd 19 05 78 3d 06 29 35 3d
       -0.06639086 -0.11772228 0.060551737 0.044228576
0002e0 61 36 df bd 45 ca 62 3e 91 46 4f 3d 22 74 39 3e
       -0.10899044 0.22147472 0.050604407 0.18110707
0002f0 7d e3 66 3e f8 19 6d 3d 1d 1c 6b 3e 48 1f 53 bd
       0.22547717 0.057886094 0.22959943 -0.051543504
000300 dc 4a d4 3d 8c 10 2a 3c da 20 d5 bc 07 41 69 3d
       0.10365841 0.010379922 -0.026016641 0.05694678
000310 b7 f6 61 3e 38 29 07 be 47 0e 69 3d 4e 11 f9 3d
       0.2206677 -0.13199317 0.05689838 0.12161504
000320 4e c8 eb 3d 8a 42 02 3b 0d 3d b3 3d 4b fd 13 3d
       0.115128145 0.0019876086 0.08751879 0.03613023
000330 eb 26 e2 bd cd 7b c6 3d be b8 9b 3d 2c 49 e5 bd
       -0.11042579 0.09691582 0.07603596 -0.11195597
000340 2c 86 23 be 7a 6a 28 3e 99 f5 1a 3e 7c 27 05 be
       -0.15969151 0.16446868 0.1513275 -0.13003343
000350 5b bf d0 bd 7e e5 17 be 90 fe 33 be d3 eb 8c 3d
       -0.10192748 -0.14833638 -0.17577577 0.068809174
000360 c3 7b 4b 3b 47 77 f7 3d 3d da 39 be 58 ff f8 3c
       0.003104911 0.12083297 -0.18149658 0.030395195
000370 6c 58 59 be f0 29 c9 3d ac 09 09 bd 06 37 a3 bd
       -0.21225137 0.09822452 -0.03345649 -0.07969479
000380 1d ce 1c 3e 80 ab 7e bd 79 fa 25 3e e2 cd 46 3e
       0.15313001 -0.062175274 0.16208829 0.19414476
000390 e4 7a 3f 3e e6 63 31 3c c3 29 1a be 56 f3 4d 3d
       0.18699223 0.01082704 -0.15054993 0.05028089
0003a0 8c 22 6c 3e 0c 79 eb 3a 00 c1 95 3c 8f 13 c5 3d
       0.23060054 0.0017965152 0.018280506 0.09622871
0003b0 53 a3 43 3e 83 cd 6d 3e 85 71 06 be 60 6a 00 3c
       0.19105272 0.23222928 -0.13129242 0.007837862
0003c0 72 75 4e bc 76 86 36 3e 62 6c e0 bc 28 36 2c be
       -0.012601243 0.1782473 -0.027395431 -0.16817534
0003d0 38 35 e8 bb 01 53 9c bb 16 5f 5b 3d 98 9d 5f 3e
       -0.0070864223 -0.004770637 0.053557478 0.21837461
0003e0 7d 92 37 3e 32 b7 18 bc
       0.17926975 -0.009321021

conceptizer.encoder.0.0.bias f4 [10]
000000 77 23 9b 3c 97 13 e2 3d 9e 67 38 3e f1 82 8b bd
       0.01893781 0.11038893 0.18008277 -0.068120845
000010 67 16 42 3e 6c 6c 1e 3d c3 56 98 bd 95 9d 47 bd
       0.18953858 0.038677618 -0.074384235 -0.048734266
000020 a1 38 ae 3d ef 1f a3 3d
       0.08506895 0.07965075

conceptizer.encoder.1.0.weight f4 [5, 10, 5, 5]
000000 86 d1 c5 bc 6f 85 a9 bc b4 d6 08 3d 04 6f 76 3d
       -0.02414776 -0.020693509 0.03340788 0.060164467
000010 2f e2 54 bd f6 e6 bd bc 6a b7 8d 3c 91 f1 c6 3c
       -0.051973518 -0.02318142 0.017299373 0.02428511
000020 83 e0 41 bd 3f ee 29 3d a5 a2 8c bd dc b2 5b 3d
       -0.04733325 0.041486975 -0.068669595 0.05363737
000030 8e b3 52 bd fa a8 48 bc df 1d a3 bd 9e d4 1c 3c
       -0.051440768 -0.012247318 -0.07964682 0.009572176
000040 0b d2 e2 3c de b5 3c 3d 4a 2c 0c bd f4 e7 33 bc
       0.027688047 0.04607188 -0.034221925 -0.010980595
000050 38 f3 0f 3c fa fe c3 bc 71 04 17 3d fe 00 09 3c
       0.008786015 -0.023925293 0.03686947 0.008362053
000060 05 ce 4b 3b 77 71 82 3d 40 3f 9c 3c ac 44 af 3c
       0.003109814 0.06369298 0.019073129 0.02139505
000070 5a 8f b9 bb ee 07 05 3c e0 63 74 3d 0c aa 5c 3b
       -0.005662841 0.008119566 0.05966556 0.0033670692
000080 13 79 19 bd fd 2f a3 3c c8 49 49 3d e9 78 23 3d
       -0.03746898 0.019920344 0.04914263 0.03991023
000090 37 a4 0c 3d 33 7a f0 3c fa da 3f 3b a1 6d 9a bc
       0.034336295 0.029355144 0.0029274807 -0.018851103
0000a0 ac 19 7b bb f6 51 ff bb cb 6d 00 bd 6f b9 a9 3d
       -0.0038314862 -0.007791753 -0.031354707 0.08287322
0000b0 47 7f 2d 3d ed d8 34 3c 88 fe 96 3d 50 68 63 bc
       0.04235771 0.011038047 0.07372767 -0.0138798505
0000c0 67 b9 91 bb 28 8f 21 bd ad 34 13 3d 5a 4b ab 3b
       -0.0044471505 -0.039443165 0.035938907 0.0052274885
0000d0 93 6a b5 bc c4 e4 f2 bc 81 ab a9 bc bb bb 89 38
       -0.022145545 -0.0296501 -0.020711662 6.5676366e-05
0000e0 61 06 38 bc b8 f7 11 3d 01 c4 fb bc 04 a7 a2 3d
       -0.01123199 0.035636634 -0.03073311 0.07942012
0000f0 3d ce 95 3d f8 bd 2b 3d 62 da ce 3c 50 10 c4 bc
       0.073147275 0.041929215 0.025250617 -0.02393356
000100 3c c6 77 bb 23 67 53 3d 59 db b4 3c 37 28 bb bc
       -0.0037807366 0.05161203 0.02207725 -0.022846324
000110 90 48 11 3d 3d da 33 bd 61 be 7e 3d 7b d5 57 bc
       0.03546959 -0.0439093 0.06219328 -0.013173456
000120 11 fc 64 3d 4c 2b 5e 3d 45 15 85 3c a0 51 0e bd
       0.05590445 0.05424051 0.016245494 -0.034745812
000130 12 dd d3 bc 8c 97 15 bd 47 71 ac 3c 2f cb 15 3d
       -0.02586225 -0.03652148 0.021050109 0.036570724
000140 a5 c9 8b 3d d9 6f 4d 3d 10 94 1f bd 58 e2 a2 3d
       0.0682557 0.050155494 -0.038959563 0.07953328
000150 d8 68 85 3d 92 99 be 3d 60 06 15 3d e5 d5 20 bd
       0.06514138 0.09306635 0.036383033 -0.039266486
000160 20 48 b9 3c d8 90 00 bb b3 37 e8 bc 7e 77 94 bc
       0.0226174 -0.0019617584 -0.028346872 -0.018123385
000170 c7 0c 82 bc 48 26 10 3d bd 5e e7 3c df bb 29 3d
       -0.015875233 0.035192758 0.028243417 0.041438933
000180 bc ae b2 b8 3e 12 68 3d fd 86 af 3d e3 a7 9d 3d
       -8.520248e-05 0.056658022 0.08570669 0.076980375
000190 5e 0c 85 3d d7 47 db bb f3 0e 23 bc b6 d8 26 3a
       0.064964995 -0.0066919136 -0.009952295 0.000636469
0001a0 5d 2b 26 bc e0 97 92 bb 56 0b c2 bc e1 95 5f 3b
       -0.010142175 -0.0044736713 -0.023687046 0.0034116434
0001b0 0e f5 29 3d 2b 8a 58 3d 24 2a a0 3d d5 07 1d bd
       0.041493468 0.052866142 0.07820538 -0.038337547
0001c0 d7 4b a3 3d 89 5e 01 bc 29 d7 2d bd 15 04 9d 3b
       0.0797345 -0.007896074 -0.04244152 0.0047917464
0001d0 de 14 8e 3d 86 4a 0e 3d ca 3e 15 3d 34 53 56 3d
       0.06937574 0.03473904 0.036436833 0.052325442
0001e0 d1 dc 2b bd 18 c8 95 3c d6 e6 67 3d 7d 13 05 3d
       -0.041958634 0.018283889 0.056616627 0.03248929
0001f0 66 3d 06 3b dd 9d bc 3c 67 ec 8f 3d bd 95 c8 bc
       0.0020483374 0.023024494 0.07027512 -0.024485463
000200 51 24 cb 3a b4 ab f7 3c 77 ff 7b bd dd 0d 14 3d
       0.0015498494 0.030233242 -0.061522927 0.036146034
000210 55 b4 21 3c 79 4f 04 3d 3d dd a8 bb 8e 67 30 bd
       0.009869655 0.032302354 -0.005153327 -0.043067507
000220 42 53 11 3d 96 af 93 3d 1f 7f 0b 3d f2 bb 47 3c
       0.03547979 0.07211225 0.03405678 0.012190806
000230 36 32 01 ba c4 da ec bc 4a d2 7e 3d ce 63 1b bd
       -0.00049284415 -0.02891291 0.062212266 -0.037936978
000240 c9 7f 5f bd 0f ac aa bc 1f e3 76 3d 63 58 ba bb
       -0.054565225 -0.020833997 0.060275193 -0.005686806
000250 0f 37 40 bd 13 12 bf bc e5 5c 6b 3d 3a c8 43 3d
       -0.046927508 -0.023324048 0.057461638 0.047798373
000260 66 a9 c7 3b 67 53 03 3d 77 6c aa 3d 72 00 85 3d
       0.006093192 0.03206196 0.08321469 0.064942256
000270 f9 55 62 3d de 43 f7 bc 45 2a 25 bd 59 44 0f 3b
       0.05525777 -0.030183729 -0.040323514 0.0021860807
000280 88 cc 58 3d 63 40 13 3d 9c 4d 2f bb a8 3e c2 bc
       0.05292943 0.035950076 -0.002674914 -0.023711517
000290 d2 51 08 3d 43 64 8c 3d 81 14 b6 bc e7 c6 61 bc
       0.033281155 0.06855061 -0.022226574 -0.013780332
0002a0 5b 40 cc bb 61 70 98 bc 0e ea 10 bd be 14 a7 b9
       -0.0062332577 -0.018608274 -0.035379462 -0.00031868176
0002b0 7b a9 41 3d ee 5e 57 bc bf cd 9c bb a8 14 8a bd
       0.04728077 -0.013145192 -0.004785269 -0.06742221
0002c0 17 ce 9c bd 82 57 ce 3c da aa be 3c 66 16 c3 bc
       -0.07656496 0.025188211 0.023274828 -0.023814391
0002d0 e6 8e 77 3c c0 eb 26 3d d3 10 a8 bd 32 75 0d bd
       0.015109753 0.040752172 -0.08206334 -0.034535594
0002e0 59 1e b4 bd 9a 37 14 3d 4b 86 31 bd 01 04 86 bd
       -0.08794851 0.03618584 -0.043340962 -0.065437324
0002f0 5d 06 8d bc d4 bf 39 3d 45 34 a1 bc e8 63 95 3c
       -0.017214948 0.045348957 -0.019678244 0.018236116
000300 57 1e 1e bd 92 36 3d 3c d0 ee d8 bc 57 dc d3 3b
       -0.038603153 0.011548655 -0.026481062 0.0064654755
000310 5c 5b 16 bd a2 75 ac bd 27 33 e4 bb 07 23 12 bd
       -0.03670822 -0.08420874 -0.0069641056 -0.035677936
000320 e1 cd 45 bd 8c 98 93 3d 0c 5b 54 3c 46 e2 c1 bc
       -0.048292045 0.072068304 0.01296116 -0.023667466
000330 32 8d 4b 3d ef ce 78 3c 81 84 32 3d e3 06 5f 3d
       0.0496952 0.015186056 0.043583397 0.054449927
000340 81 f3 bb 3c 83 ab 8e 3d 69 72 32 3d ce 12 0a bd
       0.02294326 0.06966307 0.04356614 -0.03370934
000350 bf 4f 41 bd 87 9c eb 3c f8 7c 52 3b 0b b2 e0 3c
       -0.047195192 0.028761161 0.0032117944 0.027428648
000360 7b ef 90 3d cb c6 02 3d e8 a4 2f 3c 44 78 63 3d
       0.07076927 0.031927865 0.010720469 0.055534616
000370 71 46 6a bd 66 02 84 3d 0b b9 8f bb 51 fd e2 3c
       -0.057196084 0.0644577 -0.0043860725 0.027708681
000380 7e 2c 00 3d 1f 67 e0 3b fc 3c 53 bd d5 67 d8 bb
       0.03129243 0.0068482305 -0.05157183 -0.0066041746
000390 c2 70 97 3d aa 0c 01 3d 2e 74 91 bb 2d e4 59 3d
       0.07394554 0.031506218 -0.0044388985 0.05319612
0003a0 89 32 ce 3c c3 a7 49 bd 0b 41 00 bd a4 94 b1 bb
       0.025170581 -0.049232256 -0.03131203 -0.0054193307
0003b0 a9 5a 7d 3d a9 6e 04 bd 99 dd 8d 3c 10 5b 97 bd
       0.06185404 -0.032332096 0.01731758 -0.07390416
0003c0 85 17 f2 3c 00 3d 8a bb 31 cd 3f bc 64 7c 80 bd
       0.02955223 -0.0042186975 -0.011706636 -0.06273726
0003d0 31 19 83 3c 4c 9b 22 bc f1 9f f5 bc 5a 18 09 3d
       0.016003223 -0.009924721 -0.029983493 0.03347049
0003e0 d8 53 21 3d f2 03 3d bd ff 1e 2d 3d 16 67 8f 3d
       0.0393866 -0.04614634 0.04226589 0.07002084
0003f0 98 50 ef 3c 3f 00 68 3d 2e 83 49 3d 0d 18 6e 3d
       0.029213235 0.05664086 0.04919737 0.058128405

conceptizer.encoder.1.0.bias f4 [5]
000000 bf 98 da bc df 58 47 3d 55 32 be bc 4e de 0f bc
       -0.026684163 0.04866874 -0.02321736 -0.008781029
000010 21 99 40 3d
       0.047021035

conceptizer.encoder.2.layers.0.weight f4 [1, 16]
000000 73 d3 2f 3a fd f8 2e be 3a 10 d1 bd 20 72 55 be
       0.00067072286 -0.17087169 -0.10208173 -0.20844316
000010 03 3a f6 3d de 0d da 3d 7a 1e b4 3d 12 84 5c be
       0.120227836 0.10647176 0.087948754 -0.21534756
000020 05 4f 21 be 3e 7d 56 be 53 dd 55 be 0d dc 71 be
       -0.157528 -0.20946214 -0.2088521 -0.23619099
000030 39 4c 65 3d ee fa 2d be 7d d6 27 be 1f 5f 11 3e
       0.055980895 -0.16990253 -0.16390415 0.14196442

conceptizer.encoder.2.layers.1.weight f4 [1, 16]
000000 b9 09 05 3e 4c c0 8f be 70 3f 91 bd 3e 9d fa 3c
       0.1299199 -0.28076398 -0.07092178 0.030592557
000010 1c 77 d5 bd 7e 59 80 3d 73 bc 95 be e3 a3 ff 3d
       -0.10423109 0.06267069 -0.29245338 0.12482431
000020 e4 4e 8e bb 42 de 8a be a5 28 a3 bd be b3 86 bd
       -0.0043429006 -0.27122694 -0.07966737 -0.06577252
000030 a3 42 8e 3d 0b b2 8d bd 63 88 49 3d c6 dd d9 3d
       0.06946304 -0.069187246 0.049202334 0.10638003

conceptizer.encoder.2.layers.2.weight f4 [1, 16]
000000 48 0c 76 be 50 1b 1e 3e ba 45 55 3e ad a7 cd 3d
       -0.24028122 0.15440106 0.2082738 0.10041747
000010 fe ed a7 3d fc 9b 17 be 2c 2d 5d 3e ea e0 68 be
       0.0819969 -0.14805597 0.21599263 -0.22742048
000020 73 5b 97 be 5a 94 14 be 7f d6 12 3e 5d 18 3a be
       -0.29561958 -0.14509717 0.14339636 -0.18173356
000030 a8 76 4d be 18 99 cf 3d ef 71 3d 3e d5 65 aa bd
       -0.20064795 0.10136622 0.18500493 -0.08320204

conceptizer.encoder.2.layers.3.weight f4 [1, 16]
000000 ab 1e 84 3e 03 39 09 3e 19 8e 8a bd 31 fd 31 3e
       0.25804648 0.13400654 -0.06765384 0.17381741
000010 67 f5 68 3c 03 4e ef 3d dc 11 ae 3d fb 71 eb 3d
       0.014218665 0.116848014 0.084995 0.114963494
000020 58 60 f9 bd d5 2d 56 3e 11 ec f2 bd 81 57 c0 3d
       -0.12176579 0.20915921 -0.11861432 0.0939169
000030 72 73 f3 3d 7f f1 9b bd 6c b5 a0 bd 05 e8 e0 bd
       0.11887254 -0.07614421 -0.078471035 -0.10981754

conceptizer.encoder.2.layers.4.weight f4 [1, 16]
000000 d0 85 0f 3e d3 97 41 be 6d f1 5c bd 7c 6c b1 bc
       0.14015889 -0.18905573 -0.05394118 -0.021658175
000010 30 91 86 be cc ac a9 bd e3 0d 9c 3d 55 18 ff bd
       -0.26282644 -0.082849115 0.07619836 -0.12455813
000020 f2 fc d7 bd fa fb 80 be 2d ea 7a be 74 5d 3e bd
       -0.10546292 -0.25192243 -0.24503393 -0.046475843
000030 8c 3e e0 3c 8d f4 16 3e ef ac 15 3d 6e 5b 6f bd
       0.027373575 0.14741726 0.036541875 -0.058436804

conceptizer.decoder.0.0.weight f4 [5, 16, 5, 5]
000000 25 88 2c bd a2 59 8e 3d 0a d4 cf 3d 30 39 f1 3d
       -0.042122025 0.0695069 0.10147865 0.11778486
000010 16 d6 3b 3d 66 57 92 3d cd e7 91 3c 31 df 49 3d
       0.045858465 0.07145576 0.017810727 0.049285118
000020 96 0d 90 3c 7a b5 b5 3c 40 4d 9a 3d e0 a1 aa 3b
       0.017584603 0.022181261 0.075342655 0.0052072853
000030 58 c4 33 3d 18 0d 68 3d eb 5a ab 3d 5c a9 b9 bd
       0.04388842 0.056653112 0.083669506 -0.09065506
000040 d1 b4 09 3c f3 d4 30 bd 43 c9 c7 bc 53 63 0f bd
       0.008404926 -0.043171834 -0.024387961 -0.035006832
000050 6b 51 0b 3c c6 1a ea bc 2c 10 4a 3d 3e 55 27 bd
       0.008503298 -0.02857722 0.04933183 -0.040852778
000060 25 5a 17 3d c0 e6 63 3b b0 e6 a6 3d 70 a2 2f 3d
       0.036951203 0.003477499 0.08149469 0.04287952
000070 a4 e5 83 3c ca 96 c2 3d de 31 8d 3d c4 cb 8a 3d
       0.016100712 0.09501417 0.06894277 0.067771465
000080 83 02 2a 3b 0c 8c aa 3d f1 c6 99 3d b8 45 61 3d
       0.0025941439 0.08327493 0.07508648 0.05499813
000090 e4 60 b6 3c 00 cc a8 3d ec d6 b0 3d 42 53 19 3b
       0.022262998 0.08242035 0.08634743 0.0023395573
0000a0 01 67 46 3d c4 17 9f bb db d2 80 3d 7e 5c fb 3c
       0.048438076 -0.004855128 0.062902175 0.030683752
0000b0 ba 7c 13 bd c4 0e 5f 3d d2 1e 40 3d 68 81 79 3c
       -0.03600762 0.05445744 0.046904393 0.015228607
0000c0 da 77 1a bd b4 df 60 bd 91 b4 bc 3d 6f fb 28 bc
       -0.037711956 -0.05490084 0.09214128 -0.010313853
0000d0 9b ea fc 3b 5f 6b c4 3d 47 b7 0d 3d 48 bd ed 3c
       0.007718397 0.09590792 0.034598615 0.02902092
0000e0 25 17 bc 3d b9 95 b1 3d b3 91 41 bc c7 b4 69 3d
       0.09184102 0.086711355 -0.011814523 0.05705717
0000f0 82 6d 09 3d a6 04 96 bc 7d 24 42 3d a4 a2 10 bd
       0.0335517 -0.018312763 0.04739808 -0.035311356
000100 44 58 2c 3d c7 3c d2 3d c4 77 34 bb 6d 8c 0a 3c
       0.042076364 0.102654986 -0.0027537206 0.008456332
000110 ed a1 5d 3c 63 dc 8f 3d 61 bb 0f 3e 5f d1 2c 3d
       0.013527376 0.07024457 0.14036323 0.04219186
000120 b2 68 b7 bd 98 08 b6 3d 0a bb af bd 7a 27 86 3d
       -0.08955516 0.08888358 -0.08580597 0.06550498
000130 94 ff 61 3c 8b 22 de bc 6d 04 87 3d 07 f2 f2 3d
       0.013793845 -0.02711608 0.06592641 0.11862569
000140 cd d9 f4 bc 25 48 59 bd 79 f9 6d 3d 3e 0e b3 bd
       -0.029889012 -0.053047318 0.058099244 -0.08742951
000150 53 08 b8 bd f4 6d 35 3d 7f 4e 34 3d 32 77 8a bc
       -0.08985963 0.044294313 0.044020172 -0.01690254
000160 ef 30 36 3d b8 2e 03 3d 25 26 d1 3d f7 5b 42 3d
       0.04448026 0.032026976 0.102123536 0.047450986
000170 c3 13 a3 3c d6 11 a0 3d 6c bd b7 bd 66 1b 93 3d
       0.019906884 0.07815902 -0.08971676 0.0718296
000180 60 12 c3 3c a1 7f 11 3d c3 31 94 3d 73 63 89 3d
       0.023812473 0.035522107 0.07236054 0.067084216
000190 7a 81 39 3d b6 df 0d bd fb 90 d1 3d 6e 20 5d 3d
       0.045289494 -0.034637176 0.10232731 0.053986005
0001a0 28 82 14 3e 5a 9e c7 bd 28 04 15 3d 37 a7 f2 3d
       0.14502776 -0.09747 0.036380917 0.118483
0001b0 53 2b 27 bd 01 b7 96 bd 70 71 49 3c e8 0a 7a 3d
       -0.0408128 -0.07359124 0.012295112 0.061045557
0001c0 7f eb e1 bc b9 21 57 bc 51 af df bd fb 2c 2f 3d
       -0.027578114 -0.013130599 -0.10922111 0.042767506
0001d0 27 4b 46 3d 9f 66 70 3d 03 85 ea bc 1d 2b ce bd
       0.048411515 0.058691617 -0.028627878 -0.10066817
0001e0 56 f2 1b 3d 00 38 24 be 9a 68 e9 bb 3d 30 b9 3d
       0.038072906 -0.16036987 -0.007123065 0.09042404
0001f0 ba 0a 8d bd a9 b4 eb 3d f3 b7 b7 ba 82 31 3a 3c
       -0.068868116 0.115090676 -0.0014016613 0.011364343
000200 8c 84 f9 3d d7 7e bf 3d 42 4f ad 3c a8 a3 1b bc
       0.121834844 0.09350365 0.021155957 -0.009499468
000210 f1 7e 20 3d cf 8d dd 3d 9a be cb bc 5c 35 79 3d
       0.03918356 0.108180635 -0.02487116 0.060841903
000220 d6 f8 a7 3b d3 44 f5 3c db 9e 37 3c 5c 82 4a 3d
       0.005126099 0.029940045 0.011207308 0.049440727
000230 90 ba 3f 3d a3 b7 aa 3b 1b b0 a9 bc 6b 11 42 bd
       0.04680878 0.0052098795 -0.020713856 -0.047379892
000240 93 72 d0 3d ba 24 f8 3d 03 fd 73 3b 2b 3b 18 3c
       0.10178103 0.1211638 0.0037229664 0.0092914505
000250 cd a6 a1 bd d0 3d a3 3d 4c 48 8f bd 73 97 f1 3a
       -0.07893143 0.07970774 -0.069962114 0.0018431976
000260 f1 cf 49 3d 1b 90 42 bd 68 4d fa 3d b1 a5 aa bc
       0.049270574 -0.04750071 0.12221795 -0.020830961
000270 b2 e2 c0 3c 6b 0d 94 3d c6 0e 52 bc 09 12 7c bd
       0.023545597 0.07229122 -0.012820905 -0.061540637
000280 f6 61 94 bc c3 cc f2 3d da b8 72 bd d3 19 90 3d
       -0.018113118 0.118554614 -0.05925832 0.070361756
000290 81 69 d0 3d da ae d2 bc 72 a3 11 3d 9d 93 90 3d
       0.10176373 -0.025718141 0.035556264 0.07059405
0002a0 63 96 c1 3d cb a3 df bd dd 31 4b 3c dc 53 93 3b
       0.09452512 -0.10919913 0.012402025 0.004496081
0002b0 fb 1e 22 bd 95 44 e1 bd a1 84 d3 bd 3c 53 05 3e
       -0.039580327 -0.10999409 -0.10328031 0.13020033
0002c0 35 d3 a6 3d 3d 56 f1 3d 53 db ec 3d 37 9d bc 3d
       0.08145753 0.11784027 0.1156527 0.09209674
0002d0 79 76 f4 3d 48 a0 6a 3d 2b ce 67 3c de 1d e2 3d
       0.11936659 0.057281762 0.014148275 0.11040853
0002e0 fd 08 ce 3d 28 51 ab 3d 69 90 f0 3d 66 74 c0 3d
       0.10060308 0.08365089 0.11746294 0.09397201
0002f0 ad 4d 33 bd 70 bd de 3c 5c b1 de 3d 54 44 14 3d
       -0.04377525 0.02718994 0.10873672 0.036197975
000300 79 43 9a bc d5 ee a7 bd db 1b 1b bd 92 e9 4a 3d
       -0.018831002 -0.081998505 -0.037868362 0.049539156
000310 41 d3 01 3e 93 22 34 bd 6d 67 84 bd 4c 78 26 be
       0.12678243 -0.043978285 -0.064650394 -0.16256827
000320 7c ab e6 3d e3 23 01 be 48 4e e6 bc 18 68 b7 3d
       0.11263177 -0.12611346 -0.0281135 0.08955401
000330 c6 54 1e 3e 51 15 d5 3d 06 11 ed 3b c2 be 26 bd
       0.15462026 0.104044564 0.0072346954 -0.040709265
000340 33 2b f5 bc a9 43 b8 bc 08 06 0d 3d 75 a5 de 3a
       -0.029927826 -0.0224932 0.03442958 0.0016986566
000350 19 ec 3a bc 5d 8e 9d bc 0e f3 f4 3d 16 7d e3 3d
       -0.011408829 -0.019232923 0.119604215 0.111078426
000360 5f a1 a9 3d 9d f2 3c bc 9f 12 d1 3d 59 76 c5 3d
       0.08282732 -0.011532453 0.1020863 0.09641714
000370 96 19 b7 bc c0 b9 8b bd c4 cb 26 be a4 fa 00 be
       -0.022351068 -0.068225384 -0.16288668 -0.12595612
000380 68 75 06 bd 12 d4 c6 3c e7 c3 7b 3d e3 ee 0c 3e
       -0.03282681 0.024271045 0.061466124 0.13763003
000390 10 e6 0d 3e f4 9b 34 3d ba e7 ec 3d a5 8b a5 3d
       0.13857293 0.04409404 0.11567636 0.08083276
0003a0 78 ea b7 3d 3e 09 cf bc 8e 2d 20 3e c7 00 e0 3c
       0.08980268 -0.025272962 0.15642378 0.02734412
0003b0 04 20 e4 3d 10 39 d3 3d 6c 98 00 3c 0e 0d 3f 3d
       0.11138919 0.10313618 0.00784884 0.04664331
0003c0 12 22 cd 3c 41 f3 42 3b 8e 0a 38 3a c5 76 dd 3d
       0.02504066 0.0029747041 0.0007020616 0.10813669
0003d0 cd 3b 11 3d b4 65 16 3e 0e 66 e1 3d 5f 5d 84 bb
       0.03545742 0.14687234 0.110057935 -0.004039451
0003e0 ab 98 2c bd 41 84 b3 bd 5d c5 4e bc b1 a7 44 bc
       -0.042137783 -0.0876546 -0.012620297 -0.012002871
0003f0 da f8 a2 3c f1 00 95 bd 30 57 a4 bd 46 6d eb ba
       0.019894052 -0.0727557 -0.08024442 -0.0017961643

conceptizer.decoder.0.0.bias f4 [16]
000000 7a 2a 84 bc 34 f2 e5 3c ef f2 b3 3d 42 03 97 3d
       -0.016133536 0.028069593 0.0878657 0.07373668
000010 fe f0 1b 3d 0f 31 9d 3d 99 4c af 3d 7e 76 a7 3d
       0.038071625 0.07675373 0.08559532 0.081768975
000020 40 18 c0 3c dc 12 08 3d e6 89 03 3e 8c fd 00 3d
       0.023449063 0.03322111 0.12845573 0.0314918
000030 57 e9 2e 3d 7f 14 1e 3d dd f7 8a 3c 33 b8 99 3d
       0.042703 0.038593765 0.016963894 0.07505836

conceptizer.decoder.2.0.weight f4 [16, 8, 5, 5]
000000 b9 f1 c3 3d ff c7 5a 3d 50 67 b2 3d ac 30 ad bd
       0.09567589 0.053413387 0.087111115 -0.08456549
000010 e9 3a 24 bd 9b c4 84 bc 11 bb 85 3d 7a 64 f0 bc
       -0.040095244 -0.01620703 0.06529821 -0.029344786
000020 70 7f 9e bc 04 c4 08 3e 64 b3 99 bd ea 54 c1 3b
       -0.019347876 0.13356024 -0.07504919 0.005900015
000030 07 e9 90 bd e5 4d 0b 3c bb c3 83 bd 2f 08 1a bc
       -0.070756964 0.008502458 -0.06433817 -0.009401365
000040 55 f7 9f bb 89 0b 20 bd 25 72 0b bb 0c 95 12 bd
       -0.004881779 -0.0390735 -0.0021277752 -0.035786673
000050 01 b6 2b bd aa 66 3e bd f8 87 ab bd 0b c1 86 bd
       -0.04192162 -0.046484627 -0.08375543 -0.06579789
000060 99 38 73 3d 49 39 1b 3c c0 3a 3c bd c9 47 92 bc
       0.059380148 0.009474107 -0.045954466 -0.017856495
000070 45 a0 df 3b 6e 10 4c b9 42 c9 5e 3d a1 cd 3c bd
       0.0068245255 -0.00019461077 0.054391153 -0.04609454
000080 3c fd 42 bd 95 fe c0 3c ea 0f 8d bc 54 e2 2a bd
       -0.047604784 0.023558894 -0.017219502 -0.04171975
000090 b0 65 af bb 8e 24 d4 bc a8 8d 22 ba c3 c4 1d bd
       -0.0053526983 -0.025896337 -0.0006200918 -0.038517725
0000a0 32 30 85 bd f0 1a 00 bd 13 1c c9 3c 27 80 7d 3d
       -0.06503333 -0.03127569 0.02454952 0.061889794
0000b0 f8 5a 67 3c 57 cd 18 bc 55 e8 10 3c 7f 0c 33 3d
       0.01412081 -0.009326301 0.008844455 0.04371309
0000c0 41 6f 17 bd 38 34 19 bd 54 ac c7 3c cf d0 fa 3b
       -0.036971334 -0.037403315 0.024374165 0.0076542865
0000d0 56 8b ad bd 93 fb 59 3c 5d 36 a9 3c 9d f2 5d bd
       -0.08473842 0.013304609 0.020655805 -0.054186452
0000e0 03 72 af 39 45 8e 59 bd dd 1d 81 bd 86 7c 54 3d
       0.00033463546 -0.053114194 -0.06304524 0.051876567
0000f0 fe 60 8f bb 6f 26 09 bd c3 41 83 bd af 4b f3 3b
       -0.004375576 -0.03348392 -0.064090274 0.0074247937
000100 f6 0c 08 bd 7f 2f e8 3b 39 eb 93 3b 19 08 17 bc
       -0.033215486 0.00708574 0.0045141247 -0.009218239
000110 b0 da 7c bd 1f 6e 1a bd 13 d7 1d 3d c1 58 a0 bd
       -0.061731994 -0.037702676 0.03853519 -0.078294285
000120 90 d5 dc 3c 69 b7 03 bc ba 1d b8 bc 75 9b b8 3d
       0.026957303 -0.008039334 -0.022475112 0.09014026
000130 ca 8b 95 3d f3 82 41 3d d2 a0 6f bc f4 df 0f bc
       0.07302053 0.047244024 -0.014625745 -0.008781422
000140 04 99 d9 3d 93 e4 9c 3c d7 ee a3 3b 4e 38 01 3d
       0.106248885 0.019151961 0.005002837 0.031547837
000150 84 91 12 bc 2c 26 3c be 40 0d e2 bd 6e 1b 09 bd
       -0.008945826 -0.18373936 -0.110376835 -0.033473425
000160 81 e5 59 bd c6 57 5f 3c 96 c0 41 be 09 5e f8 bd
       -0.053197388 0.013631767 -0.18921122 -0.12127311
000170 78 e9 c2 bd 82 38 1e bc 75 ae 93 3d 51 c8 4a bd
       -0.09517187 -0.009657027 0.072110094 -0.049507443
000180 7b 44 d4 bd c5 1c 11 be 20 96 52 bd c7 b9 8c 3c
       -0.10364624 -0.14171131 -0.0514127 0.01717843
000190 5d 1d 98 3c d8 1a ab ba c7 12 55 3d 45 29 49 bc
       0.018568689 -0.0013054265 0.05201986 -0.012277906
0001a0 89 8d f2 bd 44 0c 4d 3e 92 f4 6f 3d b1 cb 9c 3d
       -0.11843402 0.2002421 0.05858285 0.076560386
0001b0 fd 13 49 3d 29 a9 23 bd 86 d9 55 bd cd 69 dc 3c
       0.049091328 -0.039956246 -0.0522094 0.026905918
0001c0 77 61 91 3d c0 4a 81 3d 61 c7 16 3d 44 f4 37 be
       0.07098668 0.063130856 0.036811236 -0.17964274
0001d0 bb 72 cc bb 09 03 88 3c 01 71 6d 3d fb f3 2c bd
       -0.006239263 0.01660301 0.057969097 -0.042224865
0001e0 ff c4 17 be 09 6e 27 bd 64 d6 c3 bd 09 6e b4 3c
       -0.14821242 -0.040876422 -0.09562376 0.022025125
0001f0 88 15 2d bc 26 c3 f0 3d 28 49 ab 3d 27 b2 2b 3d
       -0.0105642155 0.117559716 0.08363563 0.041917946
000200 3f e4 df bc eb d3 8e 3d 88 7d ac 3d 17 39 9e 3d
       -0.027330516 0.06974014 0.08422381 0.07725733
000210 44 36 96 3d d3 ff bf 3c af 90 c6 3c e9 eb 16 be
       0.07334569 0.023437416 0.024238912 -0.1473843
000220 a3 40 07 be 5d 3a d4 ba 59 13 b0 bc a1 46 8d bc
       -0.1320825 -0.001619171 -0.0214936 -0.017245593
000230 41 0f 18 be 52 f7 0c be aa eb 25 bd 64 4c e5 bd
       -0.14849569 -0.1376622 -0.04050795 -0.11196211
000240 87 77 11 bd b7 22 c3 bd 31 2d 32 be f4 d4 d9 bc
       -0.03551438 -0.09528106 -0.17400052 -0.026590802
000250 d0 d8 91 bb 40 2a 81 3d e5 4f d8 3d ab ad ae 3d
       -0.004450895 0.06306887 0.10562114 0.08529218
000260 45 5f 08 bd b5 fb 27 3d b9 fa dc 3d 1b e9 e4 3c
       -0.03329398 0.04101153 0.10790009 0.027943185
000270 48 5b aa bd a4 37 e7 3c af a7 c9 3d fe f8 c4 bb
       -0.08318192 0.028224774 0.09846436 -0.0060111275
000280 82 6c d7 bd 77 4c 68 bd 06 46 b5 bb 78 38 3d bd
       -0.10518743 -0.056713548 -0.005532029 -0.04619643
000290 67 7b 16 be 7b 85 0c be 68 28 30 bc 7a c8 9f bd
       -0.14695512 -0.13722794 -0.010751821 -0.0780191
0002a0 b2 1f 05 be 1d 53 0c bd c0 d2 bb bd e9 01 39 bd
       -0.13000372 -0.03425895 -0.09171057 -0.045167837
0002b0 c2 70 ca bd 9f fd 2a 3d e3 4b 80 3d f4 7b 3f 3e
       -0.09884788 0.04174578 0.06264474 0.18699628
0002c0 14 13 ec 3c c3 6e 2e 3e 36 bb 09 3d 5a 98 5f 3a
       0.02881769 0.1703444 0.033625804 0.0008529477
0002d0 2b 68 7b bd 01 1c 98 3c 93 48 e2 bc 54 f4 3d 3d
       -0.06137864 0.01856804 -0.027622497 0.046375588
0002e0 36 33 4e bd 98 59 19 be 0c 46 83 3d bf f8 02 3d
       -0.050341807 -0.14975584 0.06409845 0.031975504
0002f0 67 74 a6 bc bc d8 eb ba 78 f0 06 3d 3d d9 a9 bb
       -0.020319177 -0.0017993669 0.032944173 -0.0051833675
000300 9f 9b a3 bc 94 81 d5 3c c5 9c 43 bd 31 6a b0 bd
       -0.019971667 0.026062764 -0.04775693 -0.086140044
000310 d3 0e 89 3c eb 32 b6 bc f7 c3 94 3d c6 a7 75 bc
       0.016730702 -0.022241076 0.0726394 -0.014993614
000320 5b b1 a8 3d 4f dd e0 bc 8a 49 ad bc 12 cb a4 3d
       0.08236953 -0.027449278 -0.02115323 0.08046545
000330 5b d0 d0 3d 7a 11 ce 3d fa 82 2d bd e6 02 19 3d
       0.10195991 0.10061927 -0.042361237 0.03735628
000340 cd 62 a2 3d 27 57 a6 3d 32 40 27 3d e2 9b 6a bd
       0.07929001 0.08122092 0.040832706 -0.057277568
000350 bd b4 ce bc c2 2d 9e 39 e0 83 68 bd 83 9b 11 bd
       -0.025232667 0.000301702 -0.05676639 -0.0355487
000360 4f ae 69 3d e5 d4 45 38 a8 e1 18 bd 96 8a 6c bd
       0.057051 4.7166734e-05 -0.037324578 -0.057749353
000370 d4 9d 80 3d 66 75 18 3e e3 16 fb bd 81 14 b0 bd
       0.06280103 0.14888534 -0.12260225 -0.08597661
000380 8b ce a7 3d 78 3f 8a 3c 2c f9 04 3d 7f 20 66 3c
       0.08193692 0.016875967 0.03246419 0.014045834
000390 d8 94 90 bb f8 a0 19 bc 40 6b 0e bd 4e c7 21 bc
       -0.004412275 -0.009376757 -0.03477025 -0.009874178
0003a0 8a 42 f9 bc 2e 04 ba 3c a2 64 27 bd 60 a4 51 3d
       -0.030427236 0.022707071 -0.040867455 0.05118215
0003b0 4e 02 4b 3d d2 10 ce 3c e9 5c 77 3d 31 23 5a 3c
       0.049562745 0.025154505 0.06039134 0.013314054
0003c0 b7 43 57 3d f6 fe a5 3c da 07 62 bd d2 38 8f bd
       0.052554812 0.020263176 -0.05518327 -0.069932595
0003d0 ec b2 11 3d df 5d 0e bd 63 1d 8c bd d3 79 8c bd
       0.035571024 -0.03475749 -0.068415426 -0.068591736
0003e0 5c 41 fb 3b 54 8e 99 bc a4 0e fe bc 8a 6a 1a 3b
       0.0076677036 -0.018744625 -0.03101284 0.0023562037
0003f0 3f 0b e0 bc a1 77 f1 3c 29 c0 76 bd 01 79 35 3d
       -0.027349113 0.029475989 -0.060241852 0.04430485

conceptizer.decoder.2.0.bias f4 [8]
000000 2e af ff 3c 19 c5 47 bb 95 65 4f 3d 72 61 35 3d
       0.031211462 -0.003048247 0.050633986 0.044282384
000010 e9 54 6d 3d 24 d3 c3 3c 94 70 f0 3c f7 94 9e 3d
       0.057942305 0.02390439 0.029350556 0.077432565

conceptizer.decoder.4.0.weight f4 [8, 1, 2, 2]
000000 b7 58 fc be 67 8a 5d be 97 44 c4 be 6d 66 c1 3e
       -0.49286434 -0.21634828 -0.3833358 0.37773457
000010 1f 81 c7 3e 58 47 d6 3e ee 88 f7 3e 39 69 e5 3e
       0.389657 0.41851306 0.48346657 0.4480684
000020 56 a8 b6 3e 45 01 c1 3e 1a f0 d1 3e 07 de a6 be
       0.35675305 0.3769628 0.41003495 -0.32591268
000030 0c 00 00 bf 76 f1 06 bf ce 29 e5 be fb ed 01 bf
       -0.5000007 -0.5271219 -0.44758457 -0.50753754
000040 1a 01 ab be b2 73 ee be 3e 28 92 3e c4 17 d3 bc
       -0.33399278 -0.46572644 0.28546327 -0.025768168
000050 de d2 d9 be 9b f8 ed bc 45 ef 23 bf a4 97 bc be
       -0.4254369 -0.029049208 -0.6403697 -0.36834443
000060 4c 20 31 3c b0 2c 09 bf d3 0f 39 be fc 46 f3 bd
       0.010810923 -0.5358381 -0.18072443 -0.118787736
000070 ca bd 1c 3f 97 44 a7 bc 9f a8 b9 3e 5c 8b e2 be
       0.61227095 -0.020418448 0.3626146 -0.44246948

conceptizer.unlinear.weight f4 [16, 1]
000000 7d 09 57 bf 53 9a fa 3e 76 00 d7 be 3e 56 85 bf
       -0.8399885 0.48945865 -0.4199254 -1.0416944
000010 32 c8 6a bf 2c 89 0a bf 53 a5 59 3f 29 3e 52 bf
       -0.91711724 -0.5411556 0.8501789 -0.821261
000020 67 b0 21 bf 18 65 58 bf 8d 9b 50 3f 3a 2c 10 3f
       -0.63159794 -0.84529257 0.8148735 0.56317484
000030 43 39 42 bf b6 85 df bd 44 0b 16 bf 15 ed 15 3f
       -0.75868624 -0.10914175 -0.5861094 0.58564883

conceptizer.unlinear.bias f4 [16]
000000 6e c8 45 3f d5 ce 72 be 39 06 8c bf 16 c9 4a 3f
       0.77258956 -0.23711713 -1.0939399 0.7921308
000010 7c 82 da 3e d1 2f 25 3e 31 c4 18 bf 80 b2 d8 3e
       0.42677677 0.16131522 -0.59674364 0.42323685
000020 63 1c 15 3e 24 82 18 bf cc 4c 36 bf 44 ec 08 3f
       0.1456161 -0.5957358 -0.7121093 0.5348551
000030 f5 89 70 be 9b 3e 2d bf a7 dc 17 bf af ff b0 3e
       -0.23490126 -0.67673653 -0.59321064 0.3457007

parameterizer.cl_layers.0.weight f4 [10, 1, 5, 5]
000000 7f 4a e6 3d 6c d3 32 3c f5 4a ca 3d 66 ce 29 3e
       0.11244678 0.010914665 0.09877578 0.16582641
000010 6e 6b de 3d 23 d9 5f bc 80 29 56 3e c1 7c ba bd
       0.10860334 -0.013662609 0.20914268 -0.09105826
000020 65 d9 de bd 5c 51 b0 bd 29 5c 54 3d 2b 12 0e 3e
       -0.108813085 -0.08609268 0.051845703 0.13874118
000030 c8 94 c6 3d 0f 56 5d 3e 81 1e 36 3e 13 e2 5f be
       0.096963465 0.2161486 0.17785074 -0.21863584
000040 05 57 da bd 77 94 0c be 60 36 c2 bd 08 99 55 be
       -0.10661129 -0.1372851 -0.094830275 -0.20859158
000050 75 34 00 bd 41 30 77 be b6 8c 65 be 96 60 0e be
       -0.031300027 -0.24139501 -0.22416958 -0.13904032
000060 fa 64 51 be 82 2d f3 bd 01 63 30 bd 8a b3 20 3e
       -0.20448676 -0.11873914 -0.043063167 0.15693489
000070 d6 76 a1 bc 61 2c 5a bc 51 9f 44 be 6b 19 e1 bd
       -0.019709986 -0.013316245 -0.192014 -0.10991176
000080 a1 d9 98 3c 55 a4 1c 3c 02 e9 63 bd db b8 fe bd
       0.018658461 0.009560664 -0.055642135 -0.12437602
000090 97 ea 7c 3d 83 23 f6 bd 9b 52 51 3c e7 b5 fd bd
       0.06174716 -0.12018492 0.012776042 -0.12388211
0000a0 48 91 37 3e 25 47 79 bd 8e 4a 41 ba ef b4 43 be
       0.17926514 -0.060858864 -0.0007373475 -0.1911199
0000b0 1a ac 02 be 70 73 7f 3e b4 e7 9e 3d e4 75 11 be
       -0.12760964 0.2494638 0.077590376 -0.14205128
0000c0 e3 84 fe 3d ab 75 49 be 6f 0e 2a be 39 75 88 bc
       0.1242769 -0.19673793 -0.16607068 -0.016657459
0000d0 c5 17 33 3d 3d af c1 3d 88 33 8e 3d 83 9a 85 bc
       0.04372384 0.09457252 0.069434226 -0.016309028
0000e0 89 75 10 be 54 a3 1c 3e a2 17 f5 3d e4 b8 e5 3d
       -0.14107336 0.1529668 0.11967398 0.11216906
0000f0 1d 21 6e 3d 37 8c 45 bd ea 05 81 bd cf bc 3d 3e
       0.058137048 -0.048229422 -0.06299956 0.18529056
000100 29 9c 16 3e 82 a2 25 be 74 3f 3a be 59 8b cb 3d
       0.14708008 -0.16175273 -0.18188268 0.09938688
000110 1c b2 a1 3c f7 6c 5b 3e 74 58 15 3c cd f6 64 be
       0.01973825 0.21428286 0.009115327 -0.22359772
000120 34 a5 cb bd fb 44 a2 bd 20 d9 86 3e ca ea 61 bd
       -0.09943619 -0.07923313 0.26337528 -0.055155553
000130 a8 50 8a 3e 42 85 4d 3e 88 99 63 3e 05 5b 6b 3e
       0.2701466 0.20070365 0.22226536 0.2298394
000140 70 d3 c9 3d db bf e9 3a 00 c7 16 3e 79 25 3f 3e
       0.09854782 0.0017833667 0.1472435 0.18666638
000150 05 9e f0 3d 17 7e ac bd c6 58 46 be f5 6d 35 be
       0.1174889 -0.08422487 -0.19369802 -0.17717727
000160 81 1f 12 be be 95 67 be 10 cf cd 3d d0 4f 42 be
       -0.1426983 -0.22615716 0.1004926 -0.18975759
000170 62 6b cc 3d 7a 3f d3 bd 4c 2a 10 3d 4c 25 5c be
       0.09981419 -0.103148416 0.035196587 -0.21498603
000180 07 b8 3d be cb 92 54 3d be 40 73 be bc 50 9e 3d
       -0.18527232 0.051897805 -0.23755166 0.077302426
000190 62 bf cf 3d 55 ee 35 3e e7 8f 42 be bc 1a 2b bd
       0.10143925 0.17766698 -0.19000207 -0.041773543
0001a0 b9 57 1c be d7 a5 da bd fc a2 b1 3d fb be 30 be
       -0.15267839 -0.10676163 0.08673665 -0.17260353
0001b0 ea 8e 0f be 66 81 67 bd 17 af ce 3c bd 99 85 ba
       -0.14019361 -0.05651989 0.025229974 -0.0010192912
0001c0 64 07 a8 bd da 85 e5 3d a2 d0 7d 3d 10 96 df 3d
       -0.08204535 0.11207171 0.061966546 0.10917294
0001d0 0e 7d 90 bd 3a f1 be bd b1 64 bb bc a8 2b 9c bd
       -0.07055102 -0.09323354 -0.022875162 -0.07625514
0001e0 4e 91 6c bd b2 a2 5d be 59 32 40 be 7c c3 20 3e
       -0.05775576 -0.21644095 -0.18769206 0.15699571
0001f0 5c 5f 12 bd 16 f4 5f be dd af e1 bd 0a b3 f5 3d
       -0.035735473 -0.21870455 -0.110198714 0.119970396
000200 96 ee be bd 51 9f c4 bd 22 45 71 3d 31 e1 56 be
       -0.093228504 -0.096007 0.05890382 -0.20984341
000210 b9 e3 57 be 21 09 08 3e a7 45 66 3e 44 98 df 3d
       -0.21082963 0.13284732 0.22487508 0.10917714
000220 29 8e 5e be ea 16 14 3e 53 d6 fa 3d b7 74 12 3c
       -0.21733917 0.14461866 0.1224791 0.00893896
000230 17 c5 99 3d d1 ae 6f be 35 bc 09 3e 91 30 2f 3e
       0.07508295 -0.23406531 0.13450702 0.1710837
000240 66 a5 0f 3d 3c 40 73 be a6 ee 7f 3d f7 c4 e6 bd
       0.035069846 -0.23754972 0.062483452 -0.11268037
000250 1b 22 89 3e 7f 8d 36 3e 21 16 ba 3c e4 e3 c1 bd
       0.26783833 0.17827414 0.02271563 -0.09467295
000260 aa b7 d6 3d 0d a6 5d 3e b4 7e 28 be f2 57 97 bd
       0.1048425 0.21645375 -0.16454583 -0.07389821
000270 32 96 06 be 10 d1 39 3e 11 e2 34 3e a7 8e 5e bc
       -0.13143232 0.18146157 0.17664362 -0.013583816
000280 d7 b2 bb 3b e0 7e 05 bd 2f b5 51 3e 51 9b 34 be
       0.0057281065 -0.0325917 0.20479272 -0.17637374
000290 1b a8 2c be 20 f1 87 3d 3c 4e 27 3e 7b ed 93 bd
       -0.16861002 0.06637788 0.16338438 -0.0722303
0002a0 b0 8a 33 3e d5 3c 4b be 1c 36 17 be 7c de f9 bd
       0.17533374 -0.19847424 -0.14766735 -0.12200639
0002b0 32 b2 fe bd 9e 53 02 3e 88 89 21 bd af 91 27 3e
       -0.12436332 0.1272721 -0.0394378 0.16364168
0002c0 1d d4 53 be 18 df 1c be e3 26 15 be 7c 6e 9d 3e
       -0.20686384 -0.15319479 -0.14565615 0.30748355
0002d0 5d 67 f7 3d 37 cf 1c be 3b 36 c1 3b cb 81 88 bc
       0.12080262 -0.15313421 0.0058963574 -0.016663453
0002e0 be 60 4c 3e 40 96 ee 3a e9 09 08 3e 62 fe 33 be
       0.19958779 0.0018202737 0.1328503 -0.17577508
0002f0 fd 49 1e be da f4 67 3c 0c 70 91 bc 41 1b 32 be
       -0.15457912 0.014157498 -0.017753623 -0.17393209
000300 af a1 d8 3d b8 0b 53 be 7a 98 1f 3e e3 ee 19 be
       0.10577714 -0.20609939 0.15585509 -0.15032534
000310 69 d6 3a be e9 5f 1b 3d be a7 48 be cf 22 77 be
       -0.18245853 0.037933264 -0.19595239 -0.24134372
000320 83 91 88 bd 53 e2 5a be cd 6a 07 be 04 59 59 3e
       -0.06668379 -0.21375398 -0.13224335 0.21225363
000330 eb 46 5f bd 09 54 25 3e bd 37 d2 3d 1b 5d fd 3d
       -0.054510992 0.16145338 0.102645375 0.12371274
000340 b8 61 3b bd c4 b6 16 3e 36 6d 23 3d 53 df 02 3e
       -0.04574749 0.14718157 0.039899074 0.12780504
000350 0e 6f 9c bc 3a 28 2a 3d 3e 40 29 bd 91 51 48 be
       -0.019095924 0.04154227 -0.04132103 -0.19562365
000360 03 46 03 3e 66 f7 d0 3d f1 eb 49 be fe b7 58 be
       0.12819676 0.102034375 -0.19718911 -0.21163937
000370 65 44 a6 bc f8 74 58 be af b2 e6 3d 4a fa 44 be
       -0.020296285 -0.2113837 0.1126455 -0.19236103
000380 b1 f7 68 3e df b0 0f bd 51 66 75 be 13 7f 48 be
       0.22750737 -0.035080787 -0.23964812 -0.19579725
000390 9e 0c f5 bd 8f 11 38 3e 3a b2 96 bd f2 27 05 3e
       -0.11965297 0.17975448 -0.07358213 0.13003519
0003a0 97 2b 2d 3e f1 08 33 3d 0a 4c f3 3d 96 b5 d2 3d
       0.1691116 0.0437097 0.11879738 0.10288541
0003b0 e0 4d f6 3d 8e 1d 68 3e e8 db 82 3d 01 4e dc bd
       0.12026572 0.22667524 0.063896 -0.107570656
0003c0 60 10 95 3d e9 22 66 3d 7f 02 d3 39 9a 6e 8a 3d
       0.07278514 0.056185637 0.00040246916 0.06759377
0003d0 e4 f3 0f be 13 a8 91 3b 42 a8 fb bc f2 fe de bd
       -0.1405788 0.004445085 -0.03071988 -0.10888471
0003e0 81 ae 8e bd fb be d9 3d
       -0.06966878 0.1063213

parameterizer.cl_layers.0.bias f4 [10]
000000 fb 72 35 3e 51 9c 34 3e 54 4c 00 be 92 c6 08 3d
       0.17719643 0.17637755 -0.12529117 0.033392496
000010 5b ca 43 3d 4f 4c dd 3d 62 3f 02 be 19 98 10 be
       0.047800403 0.1080557 -0.12719491 -0.1412052
000020 2b 81 8d bd bb a9 81 bc
       -0.069094025 -0.015828004

parameterizer.cl_layers.3.weight f4 [20, 10, 5, 5]
000000 f8 b1 52 bb d0 69 4e bd 5e cc 5b bd 1c 43 b1 bd
       -0.0032149535 -0.05039388 -0.053661697 -0.08655378
000010 f2 5f 45 3c 56 d8 44 3d f9 8a 2a 3c 9e 15 71 bd
       0.012046801 0.048057877 0.01040911 -0.058858506
000020 4f 1d 85 3c 2e 09 12 bd fb c4 22 bd 6d 46 b5 3c
       0.016249327 -0.035653286 -0.039738636 0.022128308
000030 df 81 e8 bc 71 d4 83 bd 44 27 60 bc 16 bb eb 3c
       -0.02838224 -0.06437004 -0.013681237 0.028775733
000040 62 5d 97 3c 3f ad 5b bd 76 fa 1a bd 6d 1e 0b 3d
       0.018477146 -0.053632017 -0.037836514 0.033964563
000050 73 2d 2c bd ed bd 0d bc 83 02 de 3a d5 01 31 bc
       -0.04203553 -0.008651239 0.0016938004 -0.010803659
000060 9c aa 83 bd 15 4b 63 3d 47 ce 7c 3d 4e a6 43 bd
       -0.064290255 0.055491526 0.06172016 -0.047766022
000070 cc 7a 57 bd 40 d6 af bb b2 13 17 bd 1b 11 eb bc
       -0.052607343 -0.0053661168 -0.036884017 -0.02869468
000080 5b 21 32 bd 54 f3 15 bd e9 34 27 3d 14 bd f8 bb
       -0.04348884 -0.03660901 0.040821943 -0.0075908992
000090 61 29 0a bc 75 5c 39 3d b5 4e e8 3c d3 ef 18 3d
       -0.008432717 0.04525419 0.028357843 0.03733809
0000a0 fb b4 b0 bc 8e 66 31 3d 77 da bb 3c d1 a5 ba bc
       -0.021570673 0.043310694 0.02293132 -0.022784146
0000b0 3d 76 47 bd a0 8f 32 ba 24 2f 07 3d 7f bd 06 3d
       -0.048696745 -0.0006811563 0.03300394 0.03289556
0000c0 c8 55 3b 3d 9a 75 dd bb 70 bb 6b 3d 8e 43 69 bc
       0.045736104 -0.006758404 0.0575518 -0.014237298
0000d0 2f 8c 51 3d ab 64 0d bc d3 70 49 3d 86 33 a1 bc
       0.05115908 -0.008629958 0.049179863 -0.019677889
0000e0 90 61 41 bd 6f 21 5a 3d 8d e8 cd bc 6e 6d 3a bd
       -0.047212183 0.05325454 -0.025135303 -0.045514517
0000f0 75 4c 1e 3b a1 99 e0 3c 04 d7 97 bc 50 cf 1e bc
       0.0024154459 0.027417006 -0.018535145 -0.009692982
000100 9d 50 db bb 56 bd 97 3b 83 a0 82 3d 10 dd b4 ba
       -0.0066929595 0.004630725 0.063782714 -0.0013798792
000110 47 4a 41 3d f5 10 46 bd dc c3 3c bc f1 68 ad 3c
       0.047189977 -0.048356015 -0.011521306 0.021168204
000120 b2 e7 9a 3d 03 b1 4d 3d f2 ac bd 3d a7 7b 96 bb
       0.075637236 0.05021764 0.09261502 -0.004592377
000130 b8 60 fe bc 79 a9 20 bd 94 a5 9f bc 70 75 2a 3c
       -0.031051978 -0.03922412 -0.019488133 0.010403976
000140 f4 e1 1c bc 2b 4f b0 3c 20 3f b0 bc 89 cc ec 3c
       -0.009575356 0.021522125 -0.021514475 0.028906124
000150 dc d6 aa bd 1a 8e 1a 3d 25 91 ad ba 98 0c 65 bd
       -0.083417624 0.037733175 -0.0013242109 -0.055920213
000160 6d 0d c8 bd f7 1f 65 bb 90 6c 58 3b 15 d1 3d 3d
       -0.09768186 -0.003496168 0.0033023693 0.046341974
000170 71 e4 0b 3d e7 e4 4c bc 78 4f e9 bb ca a8 66 3d
       0.034153406 -0.012505746 -0.007120069 0.056313314
000180 40 40 97 bc 84 28 ce bc 03 c1 c0 3c 8d c9 3b bd
       -0.018463254 -0.025165804 0.023529535 -0.04584651
000190 01 97 1e 3d 4a 7d 06 bd aa c0 d8 bc f6 57 66 3d
       0.038718227 -0.03283433 -0.026459057 0.05623623
0001a0 b4 35 0d bd 00 93 6c 3d b3 cf 20 bd 6d bb 19 bd
       -0.034475043 0.057757378 -0.039260577 -0.03753226
0001b0 b5 93 56 bd a8 9d 39 3d 19 13 b4 3c 0b 9a f1 bb
       -0.05238696 0.04531637 0.021981763 -0.0073730997
0001c0 b6 b9 85 3d 78 72 35 bd 9d fa 56 3d 35 27 65 bc
       0.06529562 -0.04429862 0.052485097 -0.0139863985
0001d0 b8 8b 5a 3d ba a9 c1 bc 9b 60 12 3d 0c a9 f2 bc
       0.053355902 -0.023640502 0.03573666 -0.029621623
0001e0 c7 c9 9b 3d ce dc 2c 3c dc 69 a1 3b 38 44 e1 bc
       0.07606845 0.010550691 0.0049259495 -0.02749835
0001f0 ab 1a 45 3d 9b 8c 3d b9 e1 d1 fa 3c 39 3e e7 bb
       0.048121136 -0.00018076824 0.030617656 -0.007056978
000200 80 18 52 3d 23 f1 1c 3d 77 a0 7d 3c 32 c8 22 3d
       0.051292896 0.038315903 0.015480152 0.039741702
000210 db 20 84 3d 2e 6e 50 3d 03 b1 a1 bc bd cc 8a 3b
       0.06451579 0.050886326 -0.019737726 0.0042358325
000220 04 25 e4 3c 68 35 d9 3c 43 2b 12 3d 3f 18 fd 3b
       0.027849682 0.026514724 0.03568579 0.0077238376
000230 cb 5f bc 3c cf 66 7f 3b 9a 0c 5b 3d c5 51 92 3d
       0.022994896 0.003897119 0.053478815 0.071445026
000240 72 26 ac bc b1 61 2b 3b 39 0d 7c bc 49 30 5c 3c
       -0.021014426 0.0026150758 -0.015384012 0.013439246
000250 ee 0f 22 bd 8d b6 83 3d ce 86 67 3d 7a 23 7a 3d
       -0.039565973 0.06431303 0.056525044 0.06106899
000260 9c 81 90 3c c0 25 0d bd 8b d0 3b bc de 70 b0 3c
       0.017639928 -0.03445983 -0.011463295 0.021538194
000270 16 39 a4 3a 7f b2 7e 3b d2 04 f0 bc 5c 59 3a ba
       0.001252922 0.0038863716 -0.029299174 -0.00071086525
000280 88 c3 88 3c a3 68 c8 bc 61 6b 15 bc a6 93 21 3d
       0.016694799 -0.024463957 -0.009119839 0.03944745
000290 a8 62 09 3c d0 af e4 3c bb a0 23 3d 8b 6c bd bb
       0.008385338 0.027915865 0.039948206 -0.0057807616
0002a0 41 30 e7 bb 9e 58 9b 3d fc c5 07 3d c9 2d d7 bb
       -0.007055313 0.07585262 0.033147797 -0.0065667373
0002b0 14 4a 64 3d 5d c8 2e bc 93 da 23 3c 00 49 2f bc
       0.05573471 -0.0106678875 0.010000843 -0.010698557
0002c0 a2 77 a1 3d 20 16 da bc 94 3b 5b bd d8 3d de bc
       0.07884146 -0.026621878 -0.053523615 -0.027129099
0002d0 df c6 59 bc 84 04 78 3d e3 37 1e 3d ee 2d bf 3c
       -0.0132920435 0.06055118 0.038627516 0.02333733
0002e0 d3 ac 2f bc 10 88 70 bd 73 88 2d bc dc f4 d4 bb
       -0.010722357 -0.05872351 -0.010591614 -0.006498916
0002f0 5e 01 54 3d 0d 5f 07 bd 7c b4 37 bc 29 7a 4e bd
       0.051759116 -0.033049632 -0.011212464 -0.05040947
000300 fc f7 8d bc 3f 32 0e 3b 4f 32 7b 3d e9 04 22 bd
       -0.017330162 0.002169743 0.061327275 -0.039555464
000310 a0 dc 16 bd 3b 3a d3 bc bb 33 89 3c 23 c1 a4 bd
       -0.0368315 -0.025784602 0.0167483 -0.080446504
000320 03 70 23 3d c2 69 f5 3c c1 6e b2 bc 10 71 89 3d
       0.039901745 0.029957656 -0.021781327 0.06711018
000330 92 77 55 bd a6 9a 1e bb 90 7d 3f 3d d7 52 4c bc
       -0.052115984 -0.0024201064 0.046750605 -0.012470922
000340 be e3 f2 3c 3f 91 c7 3c e2 4e 01 bd 8b 22 75 bc
       0.029649612 0.02436125 -0.03156937 -0.014961849
000350 e9 29 3b 3c 4f e1 55 bc ba f1 d1 bb 8a cd 94 3d
       0.011423566 -0.013054206 -0.00640699 0.07265766
000360 fd 47 34 bd a2 f3 2f 3c ce 27 64 bc 99 12 86 3b
       -0.044013966 0.010739239 -0.013925506 0.0040915725
000370 9e 80 bd bc 71 4a 82 3d 3a 6f 91 bc 1c 49 93 3c
       -0.023132619 0.06361855 -0.017753232 0.017979197
000380 09 9d a0 bc bb c6 4f 3d b3 98 31 3d 59 ea 7f bd
       -0.01960613 0.050726634 0.043358516 -0.06247935
000390 19 12 40 bd 2e 72 49 bc fe 07 6c 3c ba 7c 6b 3d
       -0.04689226 -0.012295289 0.014406202 0.057491995
0003a0 3b ae 46 bc 81 15 06 bd 85 99 5f 3d d3 58 27 3c
       -0.012126501 -0.03273535 0.054589767 0.010214048
0003b0 8d 17 18 3d 3a 74 11 bc 26 3d 20 bc 5c 36 7e 3d
       0.037131835 -0.008877808 -0.009780204 0.06206356
0003c0 4b b6 d4 3d 12 f6 43 3d 20 37 6c ba 1d 01 ac 39
       0.10386332 0.047842093 -0.00090109 0.00032807226
0003d0 c9 69 d3 3c 7d 84 09 bb 86 a9 89 3c cf fb 95 3b
       0.025807278 -0.002098351 0.016804468 0.004577137
0003e0 3e 66 b5 bc 6c a3 43 bd 97 83 4e bd 92 ae 94 bc
       -0.02214348 -0.047763273 -0.050418463 -0.018149648
0003f0 be 7d 37 3d 4f a5 1a bd 2f ec cc 3c 75 df 46 3c
       0.04479765 -0.037755307 0.025014965 0.012138237

parameterizer.cl_layers.3.bias f4 [20]
000000 f4 8e 83 3d ee 62 fb bc 53 8d a7 bb 6e 01 34 3d
       0.064237505 -0.030686822 -0.0051132827 0.043946676
000010 dc ef f4 bc 25 0f c9 3c a5 78 32 3d c6 49 5c bd
       -0.02989953 0.024543354 0.043572087 -0.053781293
000020 b3 f1 e4 3c 6f 2d b1 bc 9f 23 39 3d b4 37 91 bb
       0.027947282 -0.02162811 0.045199987 -0.004431689
000030 f0 b4 9d bb 65 d4 ca 3b d0 4c a0 bd 81 db 89 3c
       -0.004812829 0.00618987 -0.07827151 0.0168283
000040 2f 0f b2 3b 67 af 68 bc ac 73 09 bd e2 5a 24 bd
       0.005433939 -0.014201975 -0.03355758 -0.040125735
