results/CONF_FASHION_MNIST/checkpoints/Epoch[33]-Step[9180].pt (torch, 374454 bytes, 66 tensors)

conceptizer.encoder.0.0.weight f4 [10, 1, 5, 5]
-0.11868579 0.13443598 0.19138446 0.15267973 0.20233019 -0.05640886 -0.0025607953 0.019687917
0.120852515 -0.033154212 0.0676829 0.11561178 -0.110868126 0.12885882 -0.0064123315 0.2225834
0.15519229 0.15754156 0.083428405 -0.04709772 0.37378013 -0.013622477 -0.15566047 -0.12296894
0.08751681 -0.07785889 0.09063984 -0.13396226 -0.12464863 -0.17883031 -0.001195123 -0.06476871
-0.15197834 0.012923673 -0.16757855 0.121798694 -0.09756743 -0.035879064 -0.13278352 -0.15823866
-0.18111226 -0.019340409 -0.022793468 0.0684718 -0.058525026 0.00029820472 0.04117719 -0.076175846
-0.17412372 -0.035816185 0.027147686 -0.119441256 0.10026219 -0.012645427 -0.08849628 -0.06255667
-0.12180863 -0.004824171 -0.12925892 -0.09432054 -0.17462304 0.15438266 -0.050708883 -0.11364372
-0.004020766 -0.08662133 -0.029228056 -0.17923285 -0.06517485 -0.14829239 0.07801197 0.0020954972
0.063999526 -0.012033878 -0.15062198 -0.10065885 -0.051582895 0.05459867 -0.060445145 -0.07753748
-0.1068657 -0.03996728 -0.09723775 -0.04350733 0.09403903 -0.17470531 -0.17776737 0.05690469
-0.14594682 -0.023009202 -0.06861356 -0.12403753 0.0056976546 -0.075935066 -0.057329796 -0.066464394
-0.050320927 -0.19530544 -0.07393449 0.056964267 0.044111006 -0.18452422 0.06687146 0.07899425
0.13999128 0.0044321124 -0.19131926 0.012526265 0.123022534 -0.18216448 0.01845107 0.018483337
-0.13666785 -0.16515933 -0.04839208 -0.051916506 -0.11662688 0.084790066 -0.15354604 0.0060026185
0.0030497431 0.056355685 -0.09933866 -0.17368001 -0.034755062 4.6934336e-05 0.090182126 0.042269073
0.018045183 -0.06610681 -0.06797828 -0.15025999 0.04119485 0.004419155 -0.1660391 0.15461142
0.0483765 0.08942431 -0.0922743 -0.18962923 -0.109076485 0.19590399 0.18141167 -0.06447091
-0.23002248 0.17082675 0.30495408 0.19193445 -0.17681904 -0.12225334 0.1976 -0.118495174
0.06188227 0.20401964 0.22207275 -0.021918274 0.1248236 -0.016081769 0.12924308 0.15962642
-0.06385577 -0.034201644 -0.047678832 -0.101575494 -0.1287882 -0.122647986 0.1665057 0.06845468
-0.093729526 -0.18001866 -0.12647934 -0.0056670187 -0.19579647 -0.040494483 -0.059489213 -0.106460705
-0.07727262 -0.2135724 -0.22960599 0.0687096 -0.10232824 -0.1792593 -0.03632791 0.007627161
-0.030532613 0.07288606 -0.089773946 0.040192284 0.17216344 0.116504505 0.20204678 -0.036246967
0.07030078 -0.034264226 -0.040782742 0.18323645 0.2724697 -0.058201335 0.0148192225 0.07899941
0.22579259 0.103784695 0.015994245 0.01584643 -0.074326746 0.21415848 0.10508918 -0.13846278
-0.15404767 0.13973865 0.21814506 -0.07415191 -0.07343688 -0.1193576 -0.16812614 0.13745676
0.03510914 0.08189508 -0.16528876 -0.043345865 -0.16202614 0.05822781 -0.069202535 -0.0966593
0.09205057 0.13372865 0.29152077 0.23317625 0.09663296 0.05441359 -0.0931879 0.03703271
0.14402296 -0.12111693 0.03427129 -0.018785877 0.07248202 0.140572 -0.13790113 0.06472523
-0.14307375 0.082487896 -0.01570937 -0.11995559 0.055398952 -0.057376485 0.06808277 0.3002966
0.2627428 0.09835576
00000000: 8911 f3bd 96a9 093e 4afa 433e 1358 1c3e
00000010: a52f 4f3e fa0c 67bd 04d3 27bb 8e48 a13c
00000020: 8681 f73d b6cc 07bd 559d 8a3d dec5 ec3d
00000030: d40e e3bd 91f3 033e 891e d2bb e7ec 633e
00000040: baea 1e3e 9352 213e 83dc aa3d 8ae9 40bd
00000050: 1c60 bf3e cf30 5fbc 7565 1fbe 24d7 fbbd
00000060: 033c b33d 7b74 9fbd 61a1 b93d 672d 09be
00000070: c847 ffbd 4b1f 37be aca5 9cba 75a5 84bd
00000080: 36a0 1bbe d0bd 533c b699 2bbe 9871 f93d
00000090: 6fd1 c7bd edf5 12bd 67f8 07be 5109 22be
000000a0: 7e75 39be c76f 9ebc 5eb9 babc f13a 8c3d
000000b0: f0b7 6fbd 5c58 9c39 6aa9 283d 1502 9cbd
000000c0: 7d4d 32be feb3 12bd d364 de3c 9e9d f4bd
000000d0: 4356 cd3d c42e 4fbc 8a3d b5bd b61d 80bd
000000e0: ce76 f9bd 1414 9ebb 735c 04be 212b c1bd
000000f0: 62d0 32be 7d16 1e3e 1eb4 4fbd 0abe e8bd
00000100: a1c0 83bb 8666 b1bd ad6f efbc d188 37be
00000110: 647a 85bd f6d9 17be bdc4 9f3d 9c54 093b
00000120: 2f12 833d be29 45bc a63c 1abe 3a26 cebd
00000130: 9648 53bd dba2 5f3d 5495 77bd f8cb 9ebd
00000140: 67dc dabd bbb4 23bd 9624 c7bd be34 32bd
00000150: 8997 c03d f3e5 32be a608 36be e414 693d
00000160: 1573 15be cb7d bcbc 4485 8cbd 6307 febd
00000170: 64b3 ba3b d883 9bbd a6d2 6abd 7c1e 88bd
00000180: 511d 4ebd 26fe 47be f76a 97bd 5d53 693d
00000190: bead 343d ebf3 3cbe e7f3 883d bdc7 a13d
000001a0: e059 0f3e 413b 913b 32e9 43be f73a 4d3c
000001b0: 3df3 fb3d 5389 3abe b326 973c 5e6a 973c
000001c0: a8f2 0bbe 871f 29be c636 46bd 67a6 54bd
000001d0: 13da eebd 6aa6 ad3d 2c3b 1dbe 9db1 c43b
000001e0: 33de 473b 38d5 663d 1172 cbbd 2cd9 31be
000001f0: 535b 0ebd 5cdb 4438 68b1 b83d 5622 2d3d
00000200: 7ed3 933c 0263 87bd 3238 8bbd c1dd 19be
00000210: eebb 283d 8fce 903b 2706 2abe 7552 1e3e
00000220: 7026 463d 1824 b73d 4ffa bcbd 2a2e 42be
00000230: 7e63 dfbd 0e9b 483e fbc3 393e 5309 84bd
00000240: 038b 6bbe 35ed 2e3e f122 9c3e 778a 443e
00000250: 0d10 35be f65f fabd a857 4a3e 99ad f2bd
00000260: 4378 7d3d 86ea 503e 0a67 633e f48d b3bc
00000270: 84a3 ff3d eabd 83bc 4c58 043e 1c75 233e
00000280: d0c6 82bd 0617 0cbd e14a 43bd d006 d0bd
00000290: 0ee1 03be de2e fbbd 7880 2a3e f831 8c3d
000002a0: 44f5 bfbd d056 38be cd83 01be 66b2 b9bb
000002b0: df7e 48be 8bdd 25bd f6aa 73bd 1208 dabd
000002c0: 1b41 9ebd b9b2 5abe d51d 6bbe 9eb7 8c3d
000002d0: 7891 d1bd c08f 37be 93cc 14bd 44ed f93b
000002e0: 881f fabc 4945 953d 67db b7bd aaa0 243d
000002f0: 9d4b 303e ea99 ee3d 5ae5 4e3e b377 14bd
00000300: dbf9 8f3d a558 0cbd ce0b 27bd 56a2 3b3e
00000310: 2681 8b3e 8664 6ebd 53cc 723c 71ca a13d
00000320: 2c36 673e 128d d43d 5d06 833c 5fd0 813c
00000330: 9f38 98bd 5c4c 5b3e ff38 d73d 30c9 0dbe
00000340: acbe 1dbe a617 0f3e 6b61 5f3e f5dc 97bd
00000350: 1366 96bd c271 f4bd 4229 2cbe 77c1 0c3e
00000360: 9ace 0f3d 9cb8 a73d 7541 29be 6f8b 31bd
00000370: 2eea 25be 4980 6e3d 0fba 8dbd 50f5 c5bd
00000380: 0285 bc3d 2af0 083e 3642 953e c1c5 6e3e
00000390: 80e7 c53d c9e0 5e3d 4cd9 bebd 9caf 173d
000003a0: c17a 133e 270c f8bd 0d60 0c3d d7e4 99bc
000003b0: 7471 943d 1bf2 0f3e f435 0dbe a98e 843d
000003c0: ed81 12be 6aef a83d f0b0 80bc 47ab f5bd
000003d0: 03ea 623d 9b03 6bbd fb6e 8b3d 7ac0 993e
000003e0: 3986 863e bf6e c93d

conceptizer.encoder.0.0.bias f4 [10]
0.14241497 0.111289956 0.22173226 -0.0750498 0.2119005 0.06873324 -0.046081074 0.04851429
0.09915195 0.12478271
00000000: 3bd5 113e fdeb e33d c80d 633e b6b3 99bd
00000010: 72fc 583e 03c4 8c3d 82bf 3cbd ecb6 463d
00000020: 2d10 cb3d 148e ff3d

conceptizer.encoder.1.0.weight f4 [5, 10, 5, 5]
-0.053283036 -0.062866576 0.035101958 0.07580497 0.04781145 -0.008473052 0.0324361 -0.013031471
-0.026282666 0.069921575 -0.05597829 -0.0019700183 -0.016358411 0.046590604 0.012047067 -0.0017968336
0.035657533 0.057470918 0.012969216 -0.008168769 -0.022400737 -0.011430354 0.024418116 0.03515258
-0.040441733 0.06546521 0.0057941247 0.0031128582 -0.009301076 -0.004076779 0.065421514 0.010441862
-0.05127513 0.034193154 0.065840274 0.022819964 0.035030007 0.036607992 0.01800807 0.017971877
-0.028753541 -0.004906637 -0.049023587 0.09011078 0.06501102 0.018801728 0.07308315 0.0017388259
0.008726385 -0.011765524 0.031051658 -0.01013756 -0.022569997 -0.026041934 -0.021752952 0.0109472945
-0.003289702 0.0374487 -0.02035071 0.09748639 0.04503895 0.035506014 0.018334724 -0.0071208375
0.027086068 0.035754267 0.003136432 -0.020991113 0.030016067 -0.018465552 0.0342844 -0.011433934
0.049697585 0.06268048 0.025343249 -0.03672069 -0.039500456 -0.045514505 -0.0012958242 0.04373936
0.07514482 0.03857987 -0.02914033 0.07486799 0.07269611 0.07982606 -0.0095192 -0.00078636105
0.028054677 0.008774984 -0.066263065 -0.042317815 -0.008617862 0.044475343 0.027363166 0.015850741
-0.00082027965 0.057045482 0.08606988 0.07517278 0.03902249 -0.032442078 -0.00797499 0.019843668
0.014736236 -0.028480403 -0.018302506 -0.010078216 0.05955083 0.062516615 0.03173312 -0.031595636
0.070681736 -0.00911539 -0.012305552 -0.033475228 0.03255113 0.019344887 0.02509399 0.027766848
-0.061303023 0.026488177 0.034695607 0.044593386 0.012206968 -0.0041880426 0.042064484 0.023220794
0.004516296 0.0076167225 -0.010264822 0.029460477 -0.011223165 -0.021687215 0.0067328005 0.010800436
-0.0026504006 0.015436647 -0.04091387 -0.0007926345 0.026749216 -0.021747084 0.008009757 -0.038208995
0.013828388 0.028628314 0.033446655 -0.07547405 -0.040787026 -0.007564194 0.0067145326 -0.027673233
0.007908684 -0.0035914863 0.1538541 -0.032606103 -0.011465497 0.028801592 -0.06745421 0.014389178
0.03723705 0.037836842 0.00467849 -0.0063892184 0.02509564 0.055187788 -0.007935785 -0.004229834
0.0028587547 -0.02237265 -0.035414834 -0.0035616674 0.049565908 -0.0057875793 0.017783921 -0.006031901
-0.016693365 -0.010267561 -0.0032663199 0.017300086 -0.010951801 0.037261926 -0.061319523 0.011079864
-0.055049032 0.009939212 0.020057242 -0.009604152 0.004794724 -0.0012984432 0.052226 0.045384254
-0.010573316 -0.0061404854 -0.003084489 -0.06064607 -0.064750455 -0.10437074 0.009216873 -0.13014813
-0.08274231 0.030725906 0.028757911 0.02167194 0.014359556 -0.07048875 0.0036317045 0.04406739
-0.00211551 0.03498491 -0.044018548 -0.02510524 -0.054124855 -0.0067737782 -0.025308806 0.028002502
0.08490089 0.03663096 -0.035700027 0.009465583 0.004516033 0.05305824 -0.045492183 -0.010447602
-0.016684325 -0.03271894 0.011439287 0.06198533 0.07038754 0.08949058 0.019842574 0.009745362
-0.012989577 -0.057180375 -0.014394078 -0.022562113 0.0039879517 -0.04559014 0.058450326 -0.008872659
-0.0062762196 0.021990456 0.05081068 0.015158617 0.014584075 -0.037496876 0.001884817 0.009298053
-0.052082226 -0.04765136 0.09939574 0.06520029 0.07854749 0.03740504 -0.02679766 0.0073040607
00000000: 503f 5abd 31c0 80bd 12c7 0f3d a33f 9b3d
00000010: f0d5 433d 8ed2 0abc b7db 043d f381 55bc
00000020: bf4e d7bc 0b33 8f3d 7e49 65bd 6c1b 01bb
00000030: 1302 86bc cad5 3e3d 1061 453c bb83 ebba
00000040: a20d 123d a066 6b3d d67c 543c 4dd6 05bc
00000050: c081 b7bc 6146 3bbc 8008 c83c 27fc 0f3d
00000060: 3ba6 25bd a012 863d a4dc bd3b 1801 4c3b
00000070: 8a63 18bc 8096 85bb b7fb 853d 5814 2b3c
00000080: df05 52bd 1f0e 0c3d 44d7 863d eff0 ba3c
00000090: a07b 0f3d 43f2 153d a985 933c c239 933c
000000a0: 8c8c ebbc dbc7 a0bb f5cc 48bd 008c b83d
000000b0: 7f24 853d 1506 9a3c 9eac 953d 51e9 e33a
000000c0: 1df9 0e3c 2fc4 40bc 0c60 fe3c 0218 26bc
000000d0: b7e4 b8bc e555 d5bc 3f33 b2bc 485c 333c
000000e0: 0b98 57bb cf63 193d 88b6 a6bc f2a6 c73d
000000f0: c37a 383d c16e 113d b432 963c ea55 e9bb
00000100: 9ae3 dd3c 1173 123d 998c 4d3b 8ef5 abbc
00000110: 41e4 f53c 1245 97bc cd6d 0c3d 6555 3bbc
00000120: b28f 4b3d a05e 803d a59c cf3c 6f68 16bd
00000130: 3bcb 21bd 6b6d 3abd a5d8 a9ba 0b28 333d
00000140: 87e5 993d ed05 1e3d b4b7 eebc 6454 993d
00000150: b3e1 943d d87b a33d 6bf6 1bbc cc23 4eba
00000160: ecd2 e53c f3c4 0f3c eeb4 87bd 7255 2dbd
00000170: ef31 0dbc c72b 363d b828 e03c 6ad9 813c
00000180: 0908 57ba 86a8 693d 6845 b03d 30f4 993d
00000190: 0cd6 1f3d fce1 04bd 88a9 02bc 308f a23c
000001a0: 4170 713c bc4f e9bc 23ef 95bc 1a1f 25bc
000001b0: 92eb 733d b608 803d 97fa 013d 6d6a 01bd
000001c0: 96c1 903d b758 15bc 3a9d 49bc 521d 09bd
000001d0: 5554 053d 2b79 9e3c e991 cd3c 4d77 e33c
000001e0: e118 7bbd bcfd d83c fb1c 0e3d 8ea7 363d
000001f0: bcff 473c d93b 89bb cf4b 2c3d 8939 be3c
00000200: 70fd 933b b395 f93b c92d 28bc 1957 f13c
00000210: 5ee1 37bc 63a9 b1bc d39e dc3b 50f4 303c
00000220: 58b2 2dbb fee9 7c3c 4d95 27bd cdc8 4fba
00000230: 2c21 db3c f126 b2bc 5b3b 033c 0981 1cbd
00000240: 7790 623c ed85 ea3c 5cff 083d 2492 9abd
00000250: 4c10 27bd 0fdd f7bb 9505 dc3b fab2 e2bc
00000260: 6d93 013c 245f 6bbb ee8b 1d3e fa8d 05bd
00000270: c8d9 3bbc 51f1 eb3c 6f25 8abd 96c0 6b3c
00000280: e085 183d cefa 1a3d 054e 993b a65c d1bb
00000290: 5f95 cd3c 970c 623d 1805 02bc 6b9a 8abb
000002a0: f259 3b3b d946 b7bc 250f 11bd dd6a 69bb
000002b0: 9f05 4b3d bca5 bdbb 96af 913c 41a7 c5bb
000002c0: 86c0 88bc 4639 28bc c10f 56bb e9b8 8d3c
000002d0: 2f6f 33bc f69f 183d 2e2a 7bbd 5188 353c
000002e0: 187b 61bd 14d8 223c 164f a43c bc5a 1dbc
000002f0: 0f1d 9d3b 8630 aaba eeea 553d d7e4 393d
00000300: b43b 2dbc 2036 c9bb 2325 4abb 0368 78bd
00000310: e39b 84bd 54c0 d5bd 5e02 173c 8d45 05be
00000320: cd74 a9bd e5b4 fb3c b695 eb3c 5a89 b13c
00000330: 5844 6b3c 685c 90bd e401 6e3b 0280 343d
00000340: 5ea4 0abb 564c 0f3d cb4c 34bd 81a9 cdbc
00000350: 06b2 5dbd 92f6 ddbb 6a54 cfbc 8165 e53c
00000360: 85e0 ad3d 580a 163d 313a 12bd 8815 1b3c
00000370: 3bfb 933b 9953 593d 0356 3abd 6b2c 2bbc
00000380: 91ad 88bc 4c04 06bd d96b 3b3c 54e4 7d3d
00000390: 5827 903d d646 b73d e58c a23c 03ab 1f3c
000003a0: 3cd2 54bc f835 6abd 24d5 6bbc 2ed4 b8bc
000003b0: 5dad 823b babc 3abd 9c69 6f3d a15e 11bc
000003c0: bfa8 cdbb 5425 b43c dc1e 503d d95b 783c
000003d0: 0bf2 6e3c 5396 19bd f70b f73a dc56 183c
000003e0: 2c54 55bd 132e 43bd fe8f cb3d bb87 853d
000003f0: 82dd a03d 0736 193d c486 dbbc e756 ef3b

conceptizer.encoder.1.0.bias f4 [5]
-0.01522948 0.07965582 -0.026401773 0.02382614 0.050066844
00000000: 1285 79bc 9722 a33d 8848 d8bc 0a2f c33c
00000010: e412 4d3d

conceptizer.encoder.2.layers.0.weight f4 [1, 16]
-0.07667754 -0.22225109 -0.09437236 -0.15369445 0.15835564 0.09035072 0.08660479 -0.093117595
-0.20308931 -0.050025176 -0.21316135 -0.28097767 -0.01933174 -0.07532042 -0.21888623 0.14485826
00000000: 1d09 9dbd ca95 63be 4c46 c1bd 1462 1dbe
00000010: fb27 223e cc09 b93d da5d b13d 70b4 bebd
00000020: a5f6 4fbe 33e7 4cbd f846 5abe 4edc 8fbe
00000030: 995d 9ebc 9841 9abd b623 60be b955 143e

conceptizer.encoder.2.layers.1.weight f4 [1, 16]
0.06824181 -0.21743043 -0.15050094 -0.049798176 -0.10360949 0.08286346 -0.3199945 0.09494955
-0.0067765634 -0.22688578 -0.106557 -0.006258619 0.070749484 -0.051037252 0.13842696 0.17524566
00000000: 5dc2 8b3d 15a6 5ebe eb1c 1abe 2cf9 4bbd
00000010: 3631 d4bd 51b4 a93d 52d6 a3be e974 c23d
00000020: ef0d debb bf54 68be 8e3a dabd 1a15 cdbb
00000030: 1be5 903d 700c 51bd ccbf 0d3e 9973 333e

conceptizer.encoder.2.layers.2.weight f4 [1, 16]
-0.24063735 0.12049638 0.0615345 0.14380847 -0.0036149886 -0.22597736 0.10933798 -0.10426728
-0.35555977 -0.22721922 0.13007708 -0.09828897 -0.15229791 0.13440782 0.076406285 -0.13799904
00000000: a369 76be cec6 f63d 9a0b 7c3d 8742 133e
00000010: 72e9 6cbb 9c66 67be 97ec df3d 158a d5bd
00000020: ee0b b6be 28ac 68be ed32 053e ba4b c9bd
00000030: fcf3 1bbe 34a2 093e e67a 9c3d 9f4f 0dbe

conceptizer.encoder.2.layers.3.weight f4 [1, 16]
0.20352483 0.036928456 -0.03518589 0.1590271 0.021355312 0.086912535 0.122025035 0.06187595
-0.017985577 0.31899565 -0.047469407 0.0588005 0.15573503 -0.046299156 -0.16259708 -0.18062101
00000000: d068 503e 4b42 173d 141f 10bd 00d8 223e
00000010: 56f1 ae3c 33ff b13d 43e8 f93d a371 7d3d
00000020: 7d56 93bc 6653 a33e 486f 42bd cbd8 703d
00000030: 0179 1f3e 2fa4 3dbd d97f 26be b7f4 38be

conceptizer.encoder.2.layers.4.weight f4 [1, 16]
0.097769834 -0.21491465 0.046494793 0.11486808 -0.20160128 -0.17857672 0.13648733 -0.065543875
-0.09342218 -0.30239078 -0.19158353 -0.11090044 0.016658772 0.006427202 0.018168261 -0.020472014
00000000: 8d3b c83d 9612 5cbe 5371 3e3d f53f eb3d
00000010: 9170 4ebe d1dc 36be 56c3 0b3e de3b 86bd
00000020: 2154 bfbd f7d2 9abe 792e 44be c51f e3bd
00000030: fa77 883c 479b d23b 9bd5 943c edb4 a7bc

conceptizer.decoder.0.0.weight f4 [5, 16, 5, 5]
-0.00080979127 0.110053904 0.018983101 0.06935641 0.19902657 0.02954827 0.08197636 0.025426203
-0.06515487 -0.07064331 0.13538606 0.14081798 -0.07428214 0.09225233 0.08594895 0.039145827
0.073556684 0.06296178 -0.035988674 -0.06832126 0.044231925 -0.25028443 -0.1548623 0.17983456
0.1604648 -0.01994757 0.1208137 0.056351144 0.010725094 0.012486734 0.09561747 0.07224277
-0.11781402 0.079750136 0.13790353 0.1422245 -0.022977112 0.10204477 0.12180707 -0.030083984
0.02499268 -0.26492998 0.30874494 0.15256286 -0.21956234 0.03547721 0.0056976085 0.02716065
-0.10434407 -0.0018666056 0.14703032 0.04269461 -0.008159719 -0.0029338035 0.13806213 0.010524175
0.103052706 0.15523058 -0.11379216 0.11168202 0.086530186 0.018067373 0.053256422 -0.07278572
-0.012546225 0.17290998 0.08619083 -0.019622164 -0.04057101 0.24711119 0.12653436 0.21400525
0.064949535 -0.064877756 -0.21679434 -0.03126547 0.030092923 -0.027318511 0.13232361 0.051384624
-0.08345503 0.0044463705 -0.012691876 -0.12368376 -0.07094842 0.03239962 -0.17814922 -0.12475956
0.08947002 0.14348094 0.12274913 -0.025854044 -0.14648192 0.1491114 -0.12305867 0.102264605
0.049524143 0.1327104 0.09196873 0.16371883 0.059660222 -0.1114945 0.13236867 0.046931315
0.19999689 -0.015963975 -0.06168768 0.10340886 -0.088227056 -0.01984868 -0.019195665 0.004497232
0.025069224 -0.21223298 -0.044534612 0.07075455 0.093500294 0.11465397 -0.11774028 -0.1461338
-0.021767445 0.02050421 0.060369022 0.010304124 -0.11542882 0.1951392 -0.038012013 -0.022156896
0.017883208 0.002371715 -0.014357018 -0.14785123 0.08835169 0.034273136 -0.019786485 0.033190966
-0.07562082 0.03246797 -0.0042937743 -0.0022468055 0.0656274 -0.0046099783 0.046248574 -0.15458508
0.004633476 0.1518335 0.029126966 0.07588055 -0.19807738 -0.0033963118 0.086436056 0.09310676
0.0427845 0.08260031 0.14646134 -0.055783235 0.11103054 0.100471325 -0.12399984 -0.18705763
-0.029190581 0.114198714 0.06911992 0.061405405 0.0877979 0.096171334 -0.003741736 0.05891971
0.098089896 -0.029364593 0.048488613 -0.034316126 -0.0069739535 -0.081603214 -0.15212835 0.1678673
0.05946022 0.04736501 0.142879 0.17960641 -0.10815531 -0.031403117 0.039323173 0.10636065
0.15214106 0.097978696 0.06181756 0.035060346 -0.0849288 -0.058022056 0.07524557 0.06690465
-0.15794863 -0.15750791 -0.013222295 0.038266227 0.11657213 -0.03155631 -0.14734448 -0.23496461
0.002789195 -0.02587028 -0.11855267 0.033011105 0.10292006 0.059489034 -0.032214202 -0.103778005
-0.11490285 0.1435052 0.078281395 0.03685827 -0.18531641 0.06141911 0.11715369 0.16570452
0.12068841 -0.0032450114 -0.02942044 0.13434877 0.05056162 -0.18389148 -0.17217124 -0.047348686
0.11653323 0.109573536 0.11801852 0.022309884 0.044215396 -0.011978568 0.054781113 -0.01024551
0.024405876 0.047131147 0.16582748 0.06923568 0.17829977 -0.042394415 0.02765864 0.0073302197
0.05202535 -0.020229785 -0.11856939 0.024827048 -0.11244407 0.090668045 0.1780673 0.036231566
0.12705508 -0.23728658 -0.025130529 -0.039269164 0.0015463388 -0.01622454 -0.15757199 -0.11094901
00000000: 2c48 54ba f163 e13d 7382 9b3c bc0a 8e3d
00000010: 9fcd 4b3e 370f f23c 39e3 a73d 9d4a d03c
00000020: eb6f 85bd 71ad 90bd a5a2 0a3e 9732 103e
00000030: 3c21 98bd caee bc3d 0106 b03d 6057 203d
00000040: e3a4 963d 1bf2 803d dc68 13bd 04ec 8bbd
00000050: 892c 353d 4825 80be 3994 1ebe 8d26 383e
00000060: e250 243e 1669 a3bc 2c6d f73d 75d0 663d
00000070: 4eb8 2f3c 2995 4c3c 18d3 c33d 04f4 933d
00000080: 7a48 f1bd 0a54 a33d 9536 0d3e 4da3 113e
00000090: 7f3a bcbc d9fc d03d fc75 f93d b072 f6bc
000000a0: 73bd cc3c e7a4 87be d113 9e3e 7039 1c3e
000000b0: f3d4 60be 8d50 113d 01b3 ba3b 0380 de3c
000000c0: 58b2 d5bd e4a8 f4ba 1e8f 163e 8be0 2e3d
000000d0: 58b0 05bc 0e45 40bb 2960 0d3e 976d 2c3c
000000e0: 4c0d d33d c4f4 1e3e dd0b e9bd 8bb9 e43d
000000f0: bd36 b13d 0702 943c 6823 5a3d ae10 95bd
00000100: af8e 4dbc 500f 313e d184 b03d a9be a0bc
00000110: ca2d 26bd b70a 7d3e 3992 013e 3124 5b3e
00000120: 4304 853d a1de 84bd 56ff 5dbe 3910 00bd
00000130: 6f85 f63c 12cb dfbc d77f 073e af78 523d
00000140: 79ea aabd dcb2 913b 96f1 4fbc e94d fdbd
00000150: 684d 91bd 77b5 043d c06c 36be f181 ffbd
00000160: 0f3c b73d abec 123e e563 fb3d dccb d3bc
00000170: 5bff 15be a9b0 183e 2f06 fcbd 1b70 d13d
00000180: d4d9 4a3d 3ce5 073e 1a5a bc3d e9a5 273e
00000190: 475e 743d 3a57 e4bd a78b 073e 0d3b 403d
000001a0: fccb 4c3e e2c6 82bc 39ac 7cbd 06c8 d33d
000001b0: 63b0 b4bd b399 a2bc 3a40 9dbc 845d 933b
000001c0: f95d cd3c 9a53 59be ed69 36bd c3e7 903d
000001d0: 157d bf3d b3cf ea3d d121 f1bd 19a4 15be
000001e0: a451 b2bc 72f8 a73c 8245 773d a1d2 283c
000001f0: f265 ecbd 92d2 473e 7cb2 1bbd 6182 b5bc
00000200: ce7f 923c c66e 1b3b b339 6bbc 5066 17be
00000210: bbf1 b43d fd61 0c3d 4417 a2bc 40f3 073d
00000220: 17df 9abd 22fd 043d cab2 8cbb 243f 13bb
00000230: a967 863d 4d0f 97bb 256f 3d3d 8d4b 1ebe
00000240: 6ad4 973b 3e7a 1b3e ad9b ee3c 4367 9b3d
00000250: ccd4 4abe a894 5ebb 6305 b13d c2ae be3d
00000260: cd3e 2f3d 5a2a a93d f6f9 153e f67c 64bd
00000270: fb63 e33d e9c3 cd3d a1f3 fdbd 098c 3fbe
00000280: 1621 efbc 04e1 e93d bf8e 8d3d 3c84 7b3d
00000290: 63cf b33d 7af5 c43d ea37 75bb cb55 713d
000002a0: 5be3 c83d 048e f0bc ff9b 463d 118f 0cbd
000002b0: c385 e4bb 961f a7bd 89c7 1bbe 68e5 2b3e
000002c0: 8f8c 733d d001 423d df4e 123e beea 373e
000002d0: 8880 ddbd 8ea0 00bd 5611 213d 9dd3 d93d
000002e0: deca 1b3e 0ea9 c83d 6934 7d3d 709b 0f3d
000002f0: 27ef adbd 89a8 6dbd 591a 9a3d 4e05 893d
00000300: 49bd 21be c149 21be 53a2 58bc 0cbd 1c3d
00000310: 5ebd ee3d 3041 01bd 79e1 16be 909a 70be
00000320: edca 363b e9ed d3bc becb f2bd a736 073d
00000330: c1c7 d23d c6aa 733d 0af3 03bd 9089 d4bd
00000340: 2f52 ebbd 07f3 123e ff51 a03d b3f8 163d
00000350: 96c3 3dbe 9b92 7b3d 46ee ef3d 72ae 293e
00000360: 7c2b f73d 42aa 54bb 2203 f1bc b992 093e
00000370: b419 4f3d 0c4e 3cbe a84d 30be b2f0 41bd
00000380: f9a8 ee3d 1768 e03d b2b3 f13d 38c3 b63c
00000390: 341b 353d c141 44bc 2962 603d c9dc 27bc
000003a0: d5ee c73c 970c 413d aece 293e 70cb 8d3d
000003b0: 3794 363e c4a5 2dbd 5f94 e23c 5732 f03b
000003c0: 8918 553d efb8 a5bc 82d4 f2bd 1862 cb3c
000003d0: 1449 e6bd 2bb0 b93d 4657 363e 8d67 143d
000003e0: ba1a 023e 41fb 72be 8ade cdbc b4d8 20bd
000003f0: 85ae ca3a 54e9 84bc 8d5a 21be 3c39 e3bd

conceptizer.decoder.0.0.bias f4 [16]
-0.11118503 0.041395374 0.0032680628 0.10715475 -0.06116918 0.008683489 -0.027650392 0.059167415
-0.00597781 -0.06580594 0.11958979 0.11562918 0.021894407 -0.016255125 -0.045113806 0.08438828
00000000: fab4 e3bd 328e 293d ff2c 563b f373 db3d
00000010: 898c 7abd 3145 0e3c 1383 e2bc 8859 723d
00000020: 81e1 c3bb 44c5 86bd 7eeb f43d fece ec3d
00000030: e65b b33c 7829 85bc 41c9 38bd c3d3 ac3d

conceptizer.decoder.2.0.weight f4 [16, 8, 5, 5]
0.05129135 0.20727903 0.17307481 0.07094271 0.14372785 0.09187884 0.29298988 0.16428977
0.044983145 0.23720194 -0.06829237 0.13881107 -0.039826218 0.0517526 0.08812154 -0.021053176
0.03790479 -0.0655438 0.019419646 0.012477654 -0.13578989 -0.13564783 -0.14813924 -0.012362763
0.026794719 -0.10572326 -0.13526209 -0.060954988 0.0002535981 0.032208208 -0.03044782 -0.11505598
-0.11437585 -0.012326612 -0.04113088 -0.08741538 -0.063275404 -0.05609821 0.007801697 -0.09160027
0.0063110073 0.04182307 0.109633625 0.1268013 0.0073513184 0.119838886 0.092433974 0.079934835
0.051997636 0.027788777 -0.05477379 0.2613033 0.03103303 0.07314409 0.05173716 0.03607222
-0.18879613 0.11302528 -0.012397387 -0.009485582 -0.11953333 -0.18232541 0.055424176 0.05112576
0.0034757345 0.003670108 -0.023943644 0.026240382 -0.05169439 -0.03158594 0.07076669 -0.078314155
-0.0104345195 0.017803615 0.011375439 0.20432387 0.20299146 0.16097046 0.047951534 0.03675412
0.2403337 0.10643839 0.07915672 0.052230477 0.07858094 -0.08562227 -0.13514927 -0.038443547
-0.030071773 0.11846458 -0.21244006 -0.19356233 -0.15254009 -0.043432556 0.07373752 -0.05229859
-0.13371785 -0.14722209 -0.07284461 -0.04811069 0.023880053 -0.02242922 -0.08628283 -0.07603993
-0.09467862 0.19769977 0.16701052 0.19561383 0.09581295 0.060634855 0.13178043 0.18332902
0.20592228 0.17893565 0.1571096 -0.09531132 -0.05773553 0.011555117 0.07758757 -0.026538866
-0.20500731 -0.09379674 -0.060445633 -0.03181987 0.004103697 0.24243613 0.25469527 0.22715531
0.10173108 0.19026853 0.15581691 0.20042045 0.1669689 0.089184366 0.16573134 -0.10019275
-0.10835781 -0.015645761 0.012107154 0.054290444 -0.1432801 -0.19410509 -0.12345788 -0.14347391
-0.06202481 -0.13490905 -0.19205211 -0.03420177 -0.036554247 0.021391284 0.3526955 0.19524229
0.054910023 0.023907851 0.108812526 0.10969397 0.15018468 0.06556701 0.054000065 0.008811664
0.02927391 -0.034389596 -0.09622239 -0.098674014 -0.1328833 -0.14717075 -0.052236807 -0.15926214
-0.15038687 -0.0610672 -0.10886775 -0.08402612 -0.12825544 -0.068447106 0.11039126 0.30250126
0.19034022 0.04320562 0.054433495 0.026235553 0.028085269 0.097921036 0.017319754 0.04147019
0.045733128 -0.107281536 -0.10892869 0.032645565 -0.016770482 0.037706 -0.10338948 -0.18787023
-0.049432434 0.06696899 0.071999215 -0.2423456 -0.060100153 -0.027143713 0.0147896055 0.08561575
0.07472726 0.07885635 0.18722926 0.18121701 0.17886215 0.13552435 0.096253164 0.15123099
0.09146843 0.16601992 0.07079376 -0.06188836 -0.08954419 0.007097506 -0.0015077991 -0.073076434
-0.0012043819 0.005812612 -0.012645247 -0.0259862 -0.026853805 0.078120716 -0.060438763 0.055619434
0.1219578 -0.091039106 -0.15667298 -0.12387781 -0.03206974 0.026741175 -0.087832145 -0.011242313
-0.01156057 0.04176414 0.03263588 0.19114743 0.23440531 0.1680135 0.11934864 0.12213152
0.12959078 0.109305136 0.005607295 -0.027004909 0.12935452 0.01282356 -0.08107372 -0.056503326
0.08091177 0.085653156 -0.09423091 0.08762061 0.013605602 0.067343794 -0.085869886 0.02996075
00000000: e116 523d f440 543e 863a 313e 694a 913d
00000010: 652d 133e f92a bc3d c502 963e 943b 283e
00000020: 3f40 383d 11e5 723e dfdc 8bbd 7d24 0e3e
00000030: d120 23bd 89fa 533d 1179 b43d b677 acbc
00000040: 0e42 1b3d d43b 86bd f315 9f3c 136f 4c3c
00000050: 810c 0bbe 44e7 0abe d0b1 17be 308d 4abc
00000060: 9980 db3c 7085 d8bd 2582 0abe f0ab 79bd
00000070: 5cf5 8439 c1ec 033d b56d f9bc 78a2 ebbd
00000080: e33d eabd 8ff5 49bc db78 28bd d606 b3bd
00000090: 8996 81bd 3dc7 65bd 61a5 ff3b ec98 bbbd
000000a0: 91cc ce3b ab4e 2b3d 9887 e03d 33d8 013e
000000b0: 54e3 f03b 176e f53d 064e bd3d e0b4 a33d
000000c0: 79fb 543d 4aa5 e33c 7b5a 60bd 8cc9 853e
000000d0: fb38 fe3c 92cc 953d 58ea 533d 77c0 133d
000000e0: c653 41be cc79 e73d 691e 4bbc 6a69 1bbc
000000f0: e4cd f4bd 83b3 3abe 7604 633d 3f69 513d
00000100: 26c9 633b 3286 703b 7625 c4bc 12f6 d63c
00000110: 7fbd 53bd 4260 01bd 20ee 903d 2c63 a0bd
00000120: 8cf5 2abc e3d8 913c 0d60 3a3c 473a 513e
00000130: fedc 4f3e 71d5 243e d468 443d 7d8b 163d
00000140: 0a1a 763e 5ffc d93d eb1c a23d a0ef 553d
00000150: 0bef a03d bb5a afbd 9264 0abe fb76 1dbd
00000160: 1459 f6bc 8f9d f23d e389 59be 3435 46be
00000170: 7833 1cbe 56e6 31bd b203 973d 0c37 56bd
00000180: 55ed 08be 63c1 16be 8e2f 95bd b70f 45bd
00000190: 1aa0 c33c 7cbd b7bc 0db5 b0bd d3ba 9bbd
000001a0: dde6 c1bd cf71 4a3e ce04 2b3e fe4e 483e
000001b0: 9439 c43d 415c 783d 73f1 063e 9aba 3b3e
000001c0: 4add 523e e83a 373e 57e1 203e 9532 c3bd
000001d0: 177c 6cbd ac51 3d3c 3be6 9e3d 0968 d9bc
000001e0: 70ed 51be 8118 c0bd d795 77bd 8d55 02bd
000001f0: 4e78 863b 2d41 783e 6b67 823e 679b 683e
00000200: 6258 d03d c1d5 423e 788e 1f3e 053b 4d3e
00000210: e5f9 2a3e 4ba6 b63d 7ab5 293e db31 cdbd
00000220: b3ea ddbd 8a2b 80bc 165d 463c a85f 5e3d
00000230: 05b8 12be 7cc3 46be 7cd7 fcbd d3ea 12be
00000240: ba0d 7ebd 9925 0abe 4fa9 44be 2817 0cbd
00000250: e8b9 15bd c63c af3c 8194 b43e 98ed 473e
00000260: 55e9 603d 66da c33c 1ad9 de3d 3ba7 e03d
00000270: 03ca 193e ff47 863d 2c2f 5d3d cc5e 103c
00000280: d7cf ef3c 1bdc 0cbd 3f10 c5bd 9a15 cabd
00000290: 8f12 08be eeb3 16be 43f6 55bd 9d15 23be
000002a0: 04ff 19be 9a21 7abd 0ef6 debd e315 acbd
000002b0: 6555 03be ff2d 8cbd d014 e23d 72e1 9a3e
000002c0: 8ce8 423e 60f8 303d a8f5 5e3d f1eb d63c
000002d0: 1413 e63c d38a c83d 28e2 8d3c a5dc 293d
000002e0: a952 3b3d 6cb6 dbbd 0116 dfbd 5bb7 053d
000002f0: 4062 89bc 9b71 1a3d ddbd d3bd 0e61 40be
00000300: aa79 4abd 0a27 893d 5374 933d 7229 78be
00000310: 942b 76bd 7e5c debc 1a50 723c 4f57 af3d
00000320: 9b0a 993d 707f a13d 07b9 3f3e f490 393e
00000330: a427 373e e5c6 0a3e 6120 c53d 4cdc 1a3e
00000340: cd53 bb3d 2001 2a3e 52fc 903d a67e 7dbd
00000350: f262 b7bd 3292 e83b 58a1 c5ba 19a9 95bd
00000360: 5adc 9dba b977 be3b 032e 4fbc 03e1 d4bc
00000370: 83fc dbbc c1fd 9f3d a38e 77bd 34d1 633d
00000380: 03c5 f93d b672 babd e26e 20be a6b3 fdbd
00000390: 8f5b 03bd 4f10 db3c 57e1 b3bd ae31 38bc
000003a0: 8c68 3dbc e010 2b3d 33ad 053d 27bc 433e
000003b0: f207 703e bb0b 2c3e 0f6d f43d 1720 fa3d
000003c0: 72b3 043e 5fdb df3d 66bd b73b 6639 ddbc
000003d0: 8375 043e e919 523c fa09 a6bd 0870 67bd
000003e0: 12b5 a53d ec6a af3d 23fc c0bd 6f72 b33d
000003f0: 08ea 5e3c 8beb 893d 8ddc afbd 3f70 f53c

conceptizer.decoder.2.0.bias f4 [8]
0.01311638 0.039759107 0.042391468 0.04369641 0.06743545 0.009415495 0.18198551 -0.068957254
00000000: 16e6 563c 72da 223d ada2 2d3d 02fb 323d
00000010: 991b 8a3d 7343 1a3c 695a 3a3e 7639 8dbd

conceptizer.decoder.4.0.weight f4 [8, 1, 2, 2]
-1.3284206 -0.6962691 -0.9186589 -0.2254763 0.7084005 0.72368556 0.71181107 0.69067764
0.6001175 0.83073604 0.097412124 -0.07967201 -0.79311717 -0.9234506 -0.8140682 -0.8653181
-0.99035114 -1.1660177 0.03154528 -0.19076021 -0.6007107 -0.23681109 -1.2304457 -0.82358944
-0.8256262 -0.9698736 -0.8593495 -0.82322675 -0.018120918 -1.017409 -0.55755144 -1.5564522
00000000: b009 aabf b13e 32bf 3b2d 6bbf 42e3 66be
00000010: bc59 353f 7543 393f 4039 363f 40d0 303f
00000020: 4da1 193f 1eab 543f 0280 c73d 142b a3bd
00000030: ba09 4bbf 4267 6cbf c666 50bf 7d85 5dbf
00000040: a787 7dbf 1140 95bf a035 013d a556 43be
00000050: 2dc8 19bf 9b7e 72be 3f7f 9dbf c2d6 52bf
00000060: 3d5c 53bf a349 78bf 54fe 5bbf fdbe 52bf
00000070: 5272 94bc 753a 82bf b1bb 0ebf d339 c7bf

conceptizer.unlinear.weight f4 [16, 1]
-0.8025114 0.52703696 -0.5768103 -1.405727 -0.97333777 -0.6451392 0.9760402 -0.82409775
-0.7937877 -1.0391995 1.174214 0.64382017 -1.0677271 -0.040718436 -0.84248525 0.76267993
00000000: 6371 4dbf e5eb 063f d7a9 13bf ddee b3bf
00000010: aa2c 79bf d827 25bf c5dd 793f 12f8 52bf
00000020: ac35 4bbf 7d04 85bf a54c 963f 66d1 243f
00000030: 48ab 88bf 60c8 26bd 1dad 57bf fe3e 433f

conceptizer.unlinear.bias f4 [16]
0.7595104 -0.112169795 -1.055754 0.65405613 0.3019002 0.14680253 -0.56909776 0.6168211
0.004566711 -0.7782919 -0.79174036 0.79539925 -0.30551222 -0.69330615 -0.745941 0.4687067
00000000: 466f 423f 47b9 e5bd f222 87bf 3970 273f
00000010: aa92 9a3e 6753 163e 64b0 11bf fde7 1d3f
00000020: 59a4 953b 233e 47bf 7faf 4abf 499f 4b3f
00000030: 196c 9cbe 837c 31bf fdf5 3ebf 53fa ef3e

parameterizer.cl_layers.0.weight f4 [10, 1, 5, 5]
0.15182474 -0.028280495 0.09023762 0.1645999 0.11677344 -0.011800468 0.24235009 -0.06562889
-0.116903245 -0.058346655 0.036809888 0.08220616 0.10655607 0.2955048 0.2680888 -0.22512187
-0.097723946 -0.11917694 -0.16768922 -0.20019023 -0.09260981 -0.21182977 -0.2080677 -0.18014692
-0.13278183 -0.088437244 -0.088001855 0.18802847 -0.068437785 0.007684551 -0.1271757 -0.12927116
-0.09746171 -0.014263851 -0.010372637 -0.13744776 0.08023497 -0.19498624 0.014065154 -0.092661776
0.20579521 -0.1358374 0.03014153 -0.2039533 -0.12635738 0.2757004 0.076739855 -0.094439596
0.34700727 -0.16438852 -0.05838849 0.120443664 0.1431642 0.14384815 0.007720707 0.021526622
-0.08792083 0.148289 0.09714186 0.088635854 0.08492026 -0.0058841063 -0.085113734 0.11841418
0.14529383 -0.1367142 -0.13764952 0.009769063 -0.029179389 0.27498138 -0.034581073 -0.1829257
-0.13398987 -0.056430478 0.41223088 -0.04012027 0.20819792 0.12761894 0.11334999 0.17883518
0.11235765 0.0010727023 0.103920594 0.15044309 0.14352328 -0.1382513 -0.1458581 -0.23174334
-0.17503953 -0.18900947 0.16566853 -0.17779672 0.31067404 -0.117313564 0.10892 -0.19791572
-0.14577474 0.046735507 -0.18887755 0.04101177 0.06431456 0.26429093 -0.13681465 -0.13066268
-0.115852445 -0.02943716 0.15904416 -0.19385536 -0.15034801 -0.009184367 0.06865099 -0.025711829
-0.1830144 0.11319232 -0.0090948455 0.19426952 -0.114126176 -0.17498456 -0.090078734 -0.02708398
-0.036875553 -0.18675311 -0.21145454 0.273695 -0.050454445 -0.19765908 -0.10028898 0.16193101
-0.104942955 -0.053430427 0.009877892 -0.1665978 -0.20216016 0.08198763 0.3133683 0.12229394
-0.29229105 0.15839566 0.12034995 0.02667647 0.007370239 -0.2700676 0.059184387 0.17465283
0.031206092 -0.21031937 0.15964352 -0.05831775 0.25543222 -0.0045854924 0.06405335 -0.039666686
-0.015045819 0.1623996 -0.17261894 -0.02361451 -0.05032283 0.05735565 -0.021793164 0.11453866
0.047490112 -0.1913266 0.11810562 -0.17394194 -0.10749395 -0.089325555 0.49318475 -0.311308
0.5848258 -0.22045906 -0.10317734 -0.13751625 -0.1245225 0.05740757 -0.041140378 0.18525474
-0.124369875 -0.07643919 -0.17936325 0.21623397 -0.010284254 -0.19194299 0.21801889 -0.09615811
0.016247293 -0.08905037 0.26408258 -0.2716404 -0.17604828 -0.054453094 -0.0017398774 -0.2836091
0.46269023 -0.35334304 0.3600632 0.013024691 -0.13555153 0.04069831 -0.15976089 -0.1669416
-0.124099 -0.15610039 -0.13280118 0.28376907 -0.17989956 0.33998132 0.014836185 0.1088795
-0.18601926 0.2314814 -0.05334246 -0.018854326 -0.14489059 0.049411964 -0.04485178 -0.17389224
0.2771432 0.12888195 -0.15655063 -0.14448501 0.009584439 -0.251405 0.16958034 -0.1771684
0.28639558 -0.080218256 -0.2745387 -0.2293764 -0.14442356 0.094697595 -0.059438743 0.09436586
0.13747402 0.095596686 0.05875219 0.1256518 0.15946381 0.3731613 0.020590601 -0.08329215
0.079723544 0.03241734 -0.07515565 -0.005998841 -0.11971067 -0.012725661 -0.06993904 -0.13721083
-0.098432 0.16579075
00000000: f277 1b3e 7fac e7bc 80ce b83d e08c 283e
00000010: ea26 ef3d c056 41bc 9f2a 783e 7168 86bd
00000020: f86a efbd e7fc 6ebd f7c5 163d b45b a83d
00000030: 123a da3d 684c 973e ef42 893e 5986 66be
00000040: 7e23 c8bd 0a13 f4bd b9b6 2bbe abfe 4cbe
00000050: 36aa bdbd e7e9 58be b30f 55be 6f78 38be
00000060: f6f7 07be 961e b5bd 513a b4bd 898a 403e
00000070: 1c29 8cbd b0ce fb3b 593a 02be a95f 04be
00000080: 019a c7bd edb2 69bc fef1 29bc 1bbf 0cbe
00000090: 3b52 a43d 79aa 47be 8871 663c 75c5 bdbd
000000a0: fbbb 523e f618 0bbe 5feb f63c 22d9 50be
000000b0: d463 01be 9a28 8d3e c929 9d3d 8c69 c1bd
000000c0: f0aa b13e 7755 28be c528 6fbd 2bab f63d
000000d0: a399 123e ee4c 133e fcfd fc3b 9958 b03c
000000e0: d60f b4bd 12d9 173e 50f2 c63d b786 b53d
000000f0: acea ad3d 76cf c0bb 1c50 aebd 2283 f23d
00000100: e8c7 143e cffe 0bbe fff3 0cbe 6c0e 203c
00000110: 9d09 efbc 5cca 8c3e e2a4 0dbd e050 3bbe
00000120: a434 09be a523 67bd ed0f d33e 2755 24bd
00000130: d631 553e 8aae 023e 0a24 e83d 9220 373e
00000140: c51b e63d eb99 8c3a 52d4 d43d c10d 1a3e
00000150: c4f7 123e c091 0dbe d35b 15be 204e 6dbe
00000160: 903d 33be b38b 41be 03a5 293e 5810 36be
00000170: ab10 9f3e 1842 f0bd 7311 df3d 6baa 4abe
00000180: f945 15be bb6d 3f3d 1e69 41be f5fb 273d
00000190: 5ab7 833d 2451 873e 2419 0cbe 70cc 05be
000001a0: 0c44 edbd 3326 f1bc 79dc 223e 0582 46be
000001b0: d4f4 19be 077a 16bc e498 8c3d 9da1 d2bc
000001c0: 2068 3bbe 60d1 e73d 8c02 15bc 97ee 463e
000001d0: fcba e9bd 272f 33be 337b b8bd 39df ddbc
000001e0: d20a 17bd 353c 3fbe 8a87 58be c021 8c3e
000001f0: 52a9 4ebd 2467 4abe 4f64 cdbd 3ed1 253e
00000200: 55ec d6bd ddd9 5abd e2d6 213c 9d98 2abe
00000210: 1303 4fbe 21e9 a73d cf71 a03e 3f75 fa3d
00000220: 2ca7 95be 7932 223e 097a f63d 9d88 da3c
00000230: 0c82 f13b 4d46 8abe 546b 723d 31d8 323e
00000240: eba3 ff3c f65d 57be 9779 233e 98de 6ebd
00000250: 03c8 823e e641 96bb 672e 833d 8979 22bd
00000260: bd82 76bc 154c 263e 05c3 30be 3873 c1bc
00000270: 501f 4ebd c2ed 6a3d 9487 b2bc 3f93 ea3d
00000280: fe84 423d 1feb 43be 5ce1 f13d d61d 32be
00000290: ca25 dcbd 51f0 b6bd b682 fc3e c363 9fbe
000002a0: 25b7 153f 05c0 61be a44e d3bd 0fd1 0cbe
000002b0: a705 ffbd 3324 6b3d d082 28bd 6bb3 3d3e
000002c0: a2b5 febd 268c 9cbd 00ab 37be 706c 5d3e
000002d0: 4a7f 28bc b48c 44be 5840 5f3e 8bee c4bd
000002e0: 0b19 853c 0a60 b6bd d535 873e 7314 8bbe
000002f0: 0046 34be 350a 5fbd 990c e4ba 3635 91be
00000300: bce5 ec3e 61e9 b4be 345a b83e 8365 553c
00000310: 05ce 0abe 45b3 263d 5c98 23be bdf2 2abe
00000320: 9e27 febd c8d8 1fbe 08fd 07be 2e4a 913e
00000330: 9737 38be 0812 ae3e 7813 733c 37fc de3d
00000340: d57b 3ebe 7609 6d3e a07d 5abd 6374 9abc
00000350: 335e 14be 3364 4a3d 80b6 37bd cf10 32be
00000360: b7e5 8d3e a1f9 033e cf4e 20be e1f3 13be
00000370: 0d08 1d3c 28b8 80be 78a6 2d3e a26b 35be
00000380: 71a2 923e 7849 a4bd 5690 8cbe a6e1 6abe
00000390: c5e3 13be d0f0 c13d 0a76 73bd e342 c13d
000003a0: fdc5 0c3e 32c8 c33d 23a6 703d deaa 003e
000003b0: 7b4a 233e ff0e bf3e 9fad a83c 1395 aabd
000003c0: 1946 a33d 0bc8 043d 35eb 99bd ed91 c4bb
000003d0: de2a f5bd 4a7f 50bc 333c 8fbd ff80 0cbe
000003e0: b796 c9bd 0dc5 293e

parameterizer.cl_layers.0.bias f4 [10]
0.064839914 0.14267519 -0.15869549 0.02712528 0.013955926 0.06718412 -0.10782434 -0.2300114
-0.048783932 -0.005274527
00000000: caca 843d 7219 123e 1281 22be d635 de3c
00000010: 65a7 643c d497 893d 02d3 dcbd 1c88 6bbe
00000020: a9d1 47bd f0d5 acbb

parameterizer.cl_layers.3.weight f4 [20, 10, 5, 5]
0.025436774 -0.053751834 -0.061178833 -0.14504327 -0.039547857 0.012370122 0.000852744 -0.09380749
-0.055860765 -0.042830426 -0.057643954 0.018706081 -0.048727747 -0.0715617 0.01120431 0.051664546
0.02766627 -0.050442174 -0.018331992 0.024197299 0.00023524616 0.005892733 0.02134042 0.0020968532
-0.017063651 -0.035861842 0.08174014 -0.05675305 -0.046120998 -0.014892613 -0.038308296 -0.011776647
-0.09313131 -0.065699525 0.023742115 -0.020477008 -0.055753127 0.011338115 -0.030905757 0.026242798
-0.031025043 0.009853599 -0.016593792 -0.043948986 -0.027933592 -0.0022627832 -0.0045700106 -0.018444354
0.054791663 0.049263127 0.13929825 0.027465561 0.04073609 -0.023841396 -0.003396884 0.044544008
0.008495945 0.02735818 -0.055124294 -0.050994657 0.037471022 0.021615475 -0.06124194 -0.066667184
-0.037563294 -0.005025583 0.035071947 -0.0020237477 0.011283206 -0.06789402 0.0060122036 0.016543852
0.088976495 0.07476241 0.02844548 0.020243194 -0.026516229 -0.0014766629 -0.07027019 -0.062311057
-0.017936986 -0.033909842 -0.04727533 0.011976438 -0.045314502 0.015945459 -0.012501136 -0.0825905
-0.120438166 0.013269408 0.01088753 0.0041149687 -0.018241039 -0.035454884 -0.040829945 0.07102504
-0.043819256 -0.04025942 0.030735083 -0.03340548 -0.011467695 -0.011482838 0.0037451729 0.05111044
-0.009366517 0.01364242 -0.010068548 -0.050057996 -0.020281147 0.06414035 -0.009472784 0.020239476
0.080628365 0.011394294 0.07841029 0.00024407529 0.06210377 0.0016921286 0.02784903 -0.02966165
0.07656852 0.015018539 -0.0033975826 -0.039903376 0.009445434 -0.049617577 0.026983576 0.03351553
0.055812564 0.066039644 -0.020020494 0.04708828 0.082957014 0.08142115 0.029405564 -0.037523102
0.0346618 0.05133231 0.059427686 -0.010925773 -0.00043393284 0.006232425 0.03990626 0.0781347
-0.056079544 -0.0047753593 -0.034323923 -0.043442875 -0.056906678 -0.006078468 -0.047696352 0.15738127
0.14844477 -0.0031974323 0.0035527425 -0.07582837 -0.057504863 -0.04647616 -0.035417672 0.021624628
0.06522192 0.0045356946 0.02682407 0.02932628 0.0025622651 0.03627645 0.05117406 -0.011014302
-0.033250466 0.016320497 0.03426461 -0.042392053 0.037662424 0.039099053 0.028009092 -0.028086815
0.11344518 0.07030927 -0.066526495 -0.03871679 -0.119426794 -0.013679927 0.050060943 -0.005723369
-0.01697135 -0.073931985 0.0012640279 -0.0011631944 0.08800384 0.0038484114 -0.05360731 -0.050178934
0.016524972 0.026379636 0.030031247 -0.064241454 -0.054316547 0.056722544 0.010850413 -0.10126872
0.014270752 0.15336664 0.09339636 0.08732949 0.002943897 -0.047111176 0.044778373 0.07767071
0.038263865 0.029989082 -0.04506592 0.014718537 0.033357624 -0.050482955 -0.010948814 0.07529703
-0.062106773 -0.00687309 -0.041752845 -0.053622924 -0.035140242 0.0024033394 0.020550862 0.019637136
0.004840672 0.0725499 0.04217071 -0.056694772 0.009542993 0.033978958 -0.031980142 0.014227163
0.01981401 -0.0100238575 0.08608535 0.065386645 0.07207893 0.027642777 0.012703624 0.07519482
0.07940114 0.04244555 -0.035496093 -0.05048355 0.04496248 0.031412628 0.025626633 -0.02610551
-0.012525224 0.04133851 0.04414702 0.009127573 0.08607759 0.034204055 0.049233846 0.011991331
00000000: c860 d03c e22a 5cbd a896 7abd 3986 14be
00000010: effc 21bd 0dac 4a3c ae8a 5f3a 241e c0bd
00000020: 42ce 64bd f56e 2fbd 111c 6cbd 7f3d 993c
00000030: bf96 47bd f18e 92bd 4892 373c 349e 533d
00000040: 60a4 e23c 749c 4ebd f92c 96bc 6a39 c63c
00000050: 69ac 7639 d417 c13b 1bd2 ae3c 5c6b 093b
00000060: 12c9 8bbc dee3 12bd 6067 a73d e375 68bd
00000070: 5fe9 3cbd 2500 74bc 29e9 1cbd d6f2 40bc
00000080: a1bb bebd 798d 86bd d37e c23c 66bf a7bc
00000090: 645d 64bd 80c3 393c 122e fdbc 23fb d63c
000000a0: 3b28 febc fd70 213c b4ef 87bc da03 34bd
000000b0: fdd4 e4bc 344b 14bb 07c0 95bb 9d18 97bc
000000c0: 396d 603d 22c8 493d 33a4 0e3e 75ff e03c
000000d0: e3da 263d 084f c3bc 429e 5ebb c773 363d
000000e0: 9332 0b3c 431e e03c 03ca 61bd c6df 50bd
000000f0: 377b 193d f012 b13c d4d8 7abd ce88 88bd
00000100: f8db 19bd a5ad a4bb 9aa7 0f3d daa0 04bb
00000110: 32dd 383c 050c 8bbd 0502 c53b f986 873c
00000120: 4f39 b63d 091d 993d 7f06 e93c 0ed5 a53c
00000130: 9038 d9bc 968c c1ba d1e9 8fbd e139 7fbd
00000140: 96f0 92bc 0ce5 0abd c7a3 41bd d238 443c
00000150: b39b 39bd 0da0 823c 91d1 4cbc 3525 a9bd
00000160: 49a8 f6bd ee67 593c 9c61 323c dcd6 863b
00000170: 3b6e 95bc 2439 11bd 4d3d 27bd 9375 913d
00000180: d27b 33bd 10e7 24bd 24c8 fb3c 2fd4 08bd
00000190: 00e3 3bbc 8322 3cbc 9371 753b 2e59 513d
000001a0: 0576 19bc 7584 5f3c 8df6 24bc 9d09 4dbd
000001b0: a624 a6bc 045c 833d bc33 1bbc 42cd a53c
000001c0: 7c20 a53d 22af 3a3c 9395 a03d 76ee 7f39
000001d0: 8660 7e3d 6aca dd3a a623 e43c fdfc f2bc
000001e0: f5cf 9c3d 5110 763c faa9 5ebb b971 23bd
000001f0: 06c1 1a3c cd3b 4bbd a90c dd3c 9547 093d
00000200: b79b 643d cb3f 873d 0502 a4bc a4df 403d
00000210: 5ee5 a93d 22c0 a63d f0e3 f03c d3b1 19bd
00000220: 88f9 0d3d d441 523d 726a 733d 0302 33bc
00000230: 7b81 e3b9 5f39 cc3b bf74 233d 1605 a03d
00000240: aab3 65bd 9e7a 9cbb 3e97 0cbd 28f1 31bd
00000250: fa16 69bd e32d c7bb 405d 43bd 8e28 213e
00000260: e801 183e 038c 51bb 21d5 683b e84b 9bbd
00000270: 388a 6bbd c95d 3ebd 1f12 11bd 2226 b13c
00000280: 1293 853d 2aa0 943b 27be db3c ab3d f03c
00000290: adeb 273b 9d96 143d e49b 513d 5575 34bc
000002a0: a431 08bd 90b2 853c 0c59 0c3d 4aa3 2dbd
000002b0: ea43 1a3d 5426 203d 5373 e53c 5216 e6bc
000002c0: f255 e83d 4efe 8f3d 0b3f 88bd 7f95 1ebd
000002d0: 0996 f4bd c621 60bc b40c 4d3d 198b bbbb
000002e0: 8007 8bbc a769 97bd bdad a53a 5476 98ba
000002f0: 5b3b b43d a135 7c3b 5793 5bbd 6d88 4dbd
00000300: 615f 873c 1b1a d83c 1704 f63c 0691 83bd
00000310: 077b 5ebd e655 683d eec5 313c fa65 cfbd
00000320: dfcf 693c 250c 1d3e 9746 bf3d ced9 b23d
00000330: 65ee 403b a6f7 40bd 8769 373d d211 9f3d
00000340: 92ba 1c3d aaab f53c 0b97 38bd 0526 713c
00000350: 01a2 083d 37c7 4ebd a862 33bc 5435 9a3d
00000360: ac63 7ebd a837 e1bb 0805 2bbd b6a3 5bbd
00000370: 37ef 0fbd 5881 1d3b 485a a83c 0fde a03c
00000380: 809e 9e3b 0b95 943d 32bb 2c3d c738 68bd
00000390: 375a 1c3c 852d 0b3d 9cfd 02bd 0c19 693c
000003a0: fe50 a23c 1b3b 24bc 844d b03d 6fe9 853d
000003b0: 1e9e 933d 1b73 e23c dc22 503c beff 993d
000003c0: 119d a23d 63db 2d3d 5a64 11bd d7c7 4ebd
000003d0: 942a 383d 87aa 003d f2ee d13c 39db d5bc
000003e0: 9936 4dbc 9252 293d 81d3 343d d18b 153c
000003f0: 7349 b03d 8d19 0c3d 6ea9 493d 4a77 443c

parameterizer.cl_layers.3.bias f4 [20]
0.06605613 -0.031498462 0.034410533 0.077799216 -0.044874497 0.0074226987 0.07680787 -0.039333843
0.033665624 -0.02292642 0.015739687 -0.028885439 -0.009762827 -0.017953577 -0.06625752 0.006900313
-0.0056394036 0.012898165 -0.043525666 -0.021974178
00000000: 7048 873d 8804 01bd 0ff2 0c3d 3255 9f3d
00000010: 52ce 37bd 1c3a f33b 724d 9d3d 861c 21bd
00000020: f7e4 093d 30d0 bbbc 84f0 803c 28a1 ecbc
00000030: 44f4 1fbc 6113 93bc 06b2 87bd 051c e23b
00000040: bfca b8bb d352 533c f847 32bd 3103 b4bc

parameterizer.fc_layers.0.weight f4 [50, 320]
0.018758697 -0.026587492 0.024720792 -0.03659696 -0.07617682 0.08480385 0.020886693 0.019340554
-0.05568417 0.085745 0.036368225 -0.027909419 -0.015916567 0.018518446 0.06321573 0.013987
-0.00044416718 -0.03178176 -0.013448568 -0.059479706 0.084412925 0.042376474 0.019378541 0.008161728
-0.019466814 -0.019607576 0.044073448 0.10264707 0.009741836 -0.024304444 -0.02124472 0.11250097
-0.07217437 0.013186397 -0.013231368 -0.019429272 0.02420099 0.014322233 0.044907067 0.03695506
0.017518964 0.021896493 0.02454349 0.013296735 0.040498625 0.003575927 0.06338417 0.020652426
0.24904978 0.026179677 -0.014024791 0.0638635 -0.019407108 -0.050512146 -0.037282098 0.010634239
0.10012679 0.018869454 -0.013351062 -0.017066116 0.02555018 -0.009207028 -0.067989506 -0.039012045
0.029201912 -0.024919156 -0.031103287 0.012930887 -0.07322924 0.010577901 -0.017075246 -0.066668846
0.0035090707 0.03285442 -0.01192405 0.037230536 0.00087310857 -0.005935921 0.019382088 0.0061890506
-0.084800296 0.038820747 -0.025019107 -0.03981152 0.040705737 0.06205918 -0.0042433953 -0.0013678968
0.023894008 -0.033049878 0.09104781 0.06159655 0.0020726104 -0.034578193 0.014500397 0.09669905
0.10627018 -0.015217182 0.013377805 0.034407277 -0.003912877 -0.00070004433 0.0071574133 0.03332611
0.06399063 -0.026052427 -0.10264114 0.005363183 0.01848743 -0.06071117 -0.035995185 -0.0023180144
-0.0059840837 -0.08632888 0.032066565 0.0007149475 0.019443192 0.13325089 0.039383717 0.014470729
-0.05943686 -0.03764746 0.02832761 -0.016257152 0.0048450837 -0.0681873 0.044684745 0.05544432
0.024322957 0.027779125 0.07160541 0.051224522 0.02763754 -0.030085638 0.052807413 -0.042883363
-0.03312284 -0.0087070735 -0.010391065 -0.016097497 -0.013542565 -0.011832509 -0.0076325657 0.023559518
0.0032051161 0.026063744 -0.010301917 0.037056178 -0.057232108 0.009799716 0.056044314 0.080577075
-0.07361466 0.08174983 0.060414907 0.025580684 -0.033365164 -0.019271594 -0.008641437 -0.065416805
0.015873224 0.03512424 0.03630647 0.013673253 -0.09464567 0.043723486 0.034733355 0.01393648
0.040867068 -0.01676953 -0.026807744 0.048731178 -0.0031257062 -0.047959846 -0.03857999 0.0034743769
-0.08747483 -0.0337493 -0.0038099585 -0.008895048 0.03058433 0.025181519 0.04534082 0.026264215
0.012551227 0.04670702 -0.045439426 0.045043215 0.1052222 0.011018474 0.018239263 0.039360512
0.11999215 0.055192936 -0.0077417456 -0.029946763 -0.06666904 -0.016597679 0.05403514 -0.007899438
-0.0223869 0.008612632 0.02933825 -0.035852317 -0.06278657 -0.009778217 0.043311678 0.017685274
-0.044505995 0.015295512 0.00473988 0.005457504 0.059149276 0.03351288 0.071736135 0.05783887
0.036748774 0.018984497 0.027514113 -0.086750045 -0.010799973 0.017575 -0.05302491 -0.066057034
0.017000342 0.012605271 -0.043945752 0.017025635 0.041259695 0.10609137 0.0095802955 0.056234375
0.03341571 -0.028854862 0.0031491464 0.10249588 -0.032793753 -0.045513757 -0.05097762 0.057465315
-0.06560075 0.043858785 -0.024110364 -0.0039382298 0.10951178 0.09403366 -0.054725837 -0.09450129
-0.00492839 0.0416604 0.05107337 -0.025874132 0.019396907 -0.031131787 -0.024616126 0.033725724
00000000: d7ab 993c 03ce d9bc 4283 ca3c b2e6 15bd
00000010: 9802 9cbd a4ad ad3d 921a ab3c 1570 9e3c
00000020: 1615 64bd 139b af3d d9f6 143d 4ba2 e4bc
00000030: 7663 82bc ffb3 973c 4077 813d bb29 653c
00000040: 1cdf e8b9 972d 02bd 6257 5cbc fea0 73bd
00000050: afe0 ac3d f492 2d3d bfbf 9e3c c5b8 053c
00000060: de78 9fbc 11a0 a0bc 5c86 343d a138 d23d
00000070: 399c 1f3c 1d1a c7bc 6809 aebc e966 e63d
00000080: 28d0 93bd c20b 583c 61c8 58bc 232a 9fbc
00000090: 2841 c63c cda7 6a3c 79f0 373d 305e 173d
000000a0: ee83 8f3c 4660 b33c 6e0f c93c 8cda 593c
000000b0: e3e1 253d 1a5a 6a3b 8fcf 813d 472f a93c
000000c0: e806 7f3e c376 d63c 3dc8 65bc deca 823d
000000d0: a8fb 9ebc d3e5 4ebd 1db5 18bd 3b3b 2e3c
000000e0: 460f cd3d 1d94 9a3c 6abe 5abc 3dce 8bbc
000000f0: 9c4e d13c 13d9 16bc 153e 8bbd 18cb 1fbd
00000100: d938 ef3c 4223 ccbc 52cc febc 12dc 533c
00000110: 36f9 95bd ef4e 2d3c 63e1 8bbc ad89 88bd
00000120: 70f8 653b 5b92 063d 175d 43bc 0c7f 183d
00000130: 53e1 643a 1d82 c2bb 2fc7 9e3c 85cd ca3b
00000140: c7ab adbd 8102 1f3d dff4 ccbc 6811 23bd
00000150: 0fbb 263d c431 7e3d 2e0c 8bbb 004b b3ba
00000160: 5ebd c33c 4f5f 07bd 4677 ba3d aa4c 7c3d
00000170: a2d4 073b dda1 0dbd 1393 6d3c 270a c63d
00000180: 2ea4 d93d 7d51 79bc 952e 5b3c a5ee 0c3d
00000190: 9737 80bb 2e83 37ba bc88 ea3b f680 083d
000001a0: 850d 833d e66b d5bc 8535 d2bd a4bd af3b
000001b0: f372 973c 47ac 78bd b06f 13bd d4e9 17bb
000001c0: 2216 c4bb 32cd b0bd 3b58 033d 516b 3b3a
000001d0: 5447 9f3c ec72 083e d250 213d a316 6d3c
000001e0: 1174 73bd 3934 1abd 4e0f e83c b82d 85bc
000001f0: 82c3 9e3b c8a5 8bbd 5a07 373d 9519 633d
00000200: f040 c73c 0c91 e33c dba5 923d ced0 513d
00000210: 1f68 e23c 2876 f6bc 964c 583d 77a6 2fbd
00000220: d1ab 07bd 1da8 0ebc 493f 2abc e6de 83bc
00000230: a2e1 5dbc 24dd 41bc 9a1a fabb e4ff c03c
00000240: ed0c 523b a283 d53c 5fc9 28bc 38c8 173d
00000250: 376c 6abd fd8e 203c b98e 653d 9805 a53d
00000260: 48c3 96bd 746c a73d 9f75 773d 958e d13c
00000270: e9a9 08bd 76df 9dbc d094 0dbc 3ff9 85bd
00000280: 9008 823c 6fde 0f3d 18b6 143d c805 603c
00000290: 97d5 c1bd 6617 333d 9044 0e3d d555 643c
000002a0: 3a64 273d 4160 89bc ea9b dbbc 589a 473d
000002b0: a6d8 4cbb 8b71 44bd 0d06 1ebd 5fb2 633b
000002c0: 0126 b3bd b53c 0abd 7fb0 79bb 89bc 11bc
000002d0: fd8b fa3c 7949 ce3c 4cb7 393d 0d28 d73c
000002e0: a9a3 4d3c dc4f 3f3d b11e 3abd 3c7f 383d
000002f0: bd7e d73d d486 343c 826a 953c 7d38 213d
00000300: 72be f53d fd11 623d 78ae fdbb ea52 f5bc
00000310: c789 88bd dbf7 87bc f353 5d3d a56c 01bc
00000320: bb64 b7bc ff1b 0d3c c556 f03c e1d9 12bd
00000330: 3f96 80bd d134 20bc 9667 313d b5e0 903c
00000340: eb4b 36bd 079a 7a3c ff50 9b3b ddd4 b23b
00000350: 8346 723d cd44 093d 65ea 923d 73e8 6c3d
00000360: e285 163d 6085 9b3c 4765 e13c 02aa b1bd
00000370: 5ff2 30bc 72f9 8f3c a630 59bd e948 87bd
00000380: 4d44 8b3c 5786 4e3c 7600 34bd 5879 8b3c
00000390: edff 283d 6f46 d93d acf6 1c3c 0456 663d
000003a0: e9de 083d 0861 ecbc e961 4e3b 5ce9 d13d
000003b0: be52 06bd a26c 3abd e9cd 50bd c060 6b3d
000003c0: b059 86bd 45a5 333d 1983 c5bc 440c 81bb
000003d0: b647 e03d b894 c03d 3328 60bd e489 c1bd
000003e0: 557e a1bb 18a4 2a3d 4f32 513d fdf5 d3bc
000003f0: 43e6 9e3c 1708 ffbc c2a7 c9bc fc23 0a3d

parameterizer.fc_layers.0.bias f4 [50]
0.0053423652 -0.08979082 0.067255676 -0.0013954085 0.019014658 0.065635726 0.03968733 -0.026873704
0.013734648 -0.013743812 0.012109356 -0.08772785 0.053576704 0.04775103 0.0068832687 0.0051004575
-0.002792887 0.009383676 0.07424461 0.036906388 0.051635996 -0.12521061 0.08372848 0.04295009
0.051706642 -0.008048349 -0.009029836 0.0016978186 0.021641122 0.060554527 -0.02674908 0.048050802
-0.006709499 -0.050233584 -0.03696672 -0.045658767 -0.00457343 0.020563912 -0.03860252 0.0089191515
-0.02778129 -0.036276862 0.027746227 0.024598798 0.033525873 0.01585522 0.0022392254 -0.013329751
0.04002264 0.0019535052
00000000: 020f af3b 40e4 b7bd 58bd 893d 24e6 b6ba
00000010: a1c4 9b3c 066c 863d 2f8f 223d 3e26 dcbc
00000020: 4a07 613c ba2d 61bc 5266 463c a9aa b3bd
00000030: 3f73 5b3d 9696 433d 0b8d e13b bd21 a73b
00000040: de08 37bb fdbd 193c 8f0d 983d 272b 173d
00000050: 4480 533d 3637 00be d679 ab3d 6fec 2f3d
00000060: 58ca 533d 39dd 03bc e1f1 13bc 5789 de3a
00000070: b948 b13c 0608 783d e320 dbbc ebd0 443d
00000080: 5bdb dbbb bbc1 4dbd 6a6a 17bd b004 3bbd
00000090: b6dc 95bb a675 a83c ad1d 1ebd a221 123c
000000a0: 9695 e3bc 0c97 14bd 0e4c e33c 6b83 c93c
000000b0: 6d52 093d cee2 813c f8bf 123b 0765 5abc
000000c0: c8ee 233d 6106 003b
