results/CONF_FASHION_MNIST/checkpoints/Epoch[17]-Step[4860].pt (torch, 374454 bytes, 66 tensors)

conceptizer.encoder.0.0.weight f4 [10, 1, 5, 5]
0	0xbe3e017d	-0.18555255
1	0x3e38792b	0.18014972
2	0x3e48dfde	0.19616649
3	0x3dccb73e	0.09995888
4	0x3def1e2c	0.11675677
5	0xbd972db2	-0.073817626
6	0x3c944d5c	0.018103294
7	0x3c6f40ac	0.014602821
8	0x3e0abeb7	0.13549314
9	0xbdb1f874	-0.08689967
10	0x3e19d70f	0.15023445
11	0x3e038384	0.12843138
12	0xbe3ca3b1	-0.18421818
13	0x3dd7ef24	0.10543659
14	0xbdbfc0db	-0.09362956
15	0x3e802511	0.2502828
16	0x3df9fc85	0.122063674
17	0x3de9ccb3	0.114159964
18	0x3d2c1aa8	0.04201761
19	0xbdca0e87	-0.09866052
20	0x3e9a5be3	0.3014823
21	0x3c04111f	0.008060723
22	0xbde1dee0	-0.11028838
23	0xbdfeb8ae	-0.124375686
24	0x3d98bce1	0.07457901
25	0xbdbe4f29	-0.09292442
26	0x3dc59dd6	0.096492454
27	0xbe07a3a0	-0.13246012
28	0xbe00c0bb	-0.12573521
29	0xbe2c51fe	-0.16828153
30	0xbc8db508	-0.017298236
31	0xbd88b120	-0.06674409
32	0xbe2a08ac	-0.1660487
33	0x3bb57da1	0.005538658
34	0xbe36b124	-0.17841011
35	0x3dc288b8	0.09498733
36	0xbdd8652b	-0.10566171
37	0xbcdf3246	-0.027245652
38	0xbe12b0e9	-0.14325298
39	0xbe1d5f4c	-0.15368384
40	0xbe69ca89	-0.22831167
41	0xbcc8c606	-0.024508487
42	0xbcdc2ebd	-0.026877755
43	0x3d83e37c	0.064398736
44	0xbd2a8c5b	-0.04163776
45	0xbbc60bb1	-0.006043874
46	0x3cb8e991	0.02257231
47	0xbdb9b4c8	-0.090676844
48	0xbe4a6113	-0.19763593
49	0xbcf6f8a9	-0.030147867
50	0x3c83dff8	0.016098008
51	0xbe1163e7	-0.14198266
52	0x3dee23b3	0.11627903
53	0xbce1d8ad	-0.02756914
54	0xbdece594	-0.11567226
55	0xbdb114b4	-0.08646527
56	0xbe09fe69	-0.13475956
57	0x3c012b89	0.007883915
58	0xbe1f8825	-0.15579279
59	0xbdf95b9a	-0.12175675
60	0xbe53ee61	-0.20696403
61	0x3e1b14af	0.15144609
62	0xbd608e9b	-0.0548235
63	0xbe170d23	-0.14751105
64	0xbc75eef9	-0.015010589
65	0xbdcfb153	-0.10141244
66	0xbd039328	-0.03212276
67	0xbe4114dd	-0.18855615
68	0xbd9cb311	-0.07651342
69	0xbe16de7e	-0.14733312
70	0x3dbc4e60	0.09194636
71	0x3ab231f9	0.0013595215
72	0x3d185563	0.037190806
73	0xbc4e7772	-0.01260172
74	0xbe001a81	-0.1251011
75	0xbdfc75b0	-0.123271346
76	0xbd41e38e	-0.047336154
77	0x3d80320a	0.06259544
78	0xbda2b4e4	-0.079446584
79	0xbde5b98e	-0.112170324
80	0xbdf8cee3	-0.121488355
81	0xbc6113fd	-0.013737676
82	0xbdae879d	-0.0852196
83	0xbd3ee881	-0.04660845
84	0x3d966164	0.073427945
85	0xbe434a4b	-0.1907131
86	0xbe307b14	-0.1723445
87	0x3d92c379	0.0716619
88	0xbe2d7511	-0.16939189
89	0xbd06e871	-0.032936517
90	0xbd95137f	-0.07279109
91	0xbdeaa06c	-0.11456379
92	0x3c1178a2	0.008878859
93	0xbdb2a39f	-0.087226145
94	0xbd6570f8	-0.05601594
95	0xbd8df091	-0.0693065
96	0xbd0a03e7	-0.033695128
97	0xbe4858b8	-0.19565094
98	0xbd762e63	-0.06010283
99	0x3db3ce00	0.08779526
100	0x3d988fa0	0.07449269
101	0xbe2e92b3	-0.17048149
102	0x3d4a5b19	0.049403284
103	0x3d83ab0d	0.0642911
104	0x3de6cb8a	0.11269291
105	0x3d4e5fd4	0.050384358
106	0xbe31f264	-0.17377621
107	0xbc23e5f0	-0.010003552
108	0x3df72539	0.120676465
109	0xbe546220	-0.20740557
110	0x3d2a8577	0.04163119
111	0x3cf51d1c	0.029921107
112	0xbe36fc05	-0.17869575
113	0xbe483af3	-0.19553737
114	0xbd99505c	-0.074860305
115	0xbd0b6fab	-0.03404204
116	0xbdef993b	-0.11699148
117	0x3dba6244	0.09100774
118	0xbe240e54	-0.16021091
119	0x3cecba7f	0.028897522
120	0x3b118b80	0.0022208393
121	0x3da4d742	0.0804887
122	0xbde165b0	-0.110057235
123	0xbe34391f	-0.17599915
124	0xbbb269eb	-0.0054447553
125	0xbc42850b	-0.01187254
126	0x3e04c1e6	0.12964591
127	0x3dc6f3fb	0.09714504
128	0x3da7eb8f	0.08199226
129	0xbca81e84	-0.020522363
130	0xbdeccc2e	-0.11562382
131	0xbe0d96b8	-0.13827026
132	0x3de94889	0.11390788
133	0x3d54641f	0.051853295
134	0xbe10d819	-0.14144935
135	0x3e07e986	0.13272676
136	0x3d270ff3	0.040786695
137	0x3d91f4c1	0.07126761
138	0xbe0d12ef	-0.13776754
139	0xbe5fbd2a	-0.21849504
140	0xbe13d208	-0.1443559
141	0x3e2ce385	0.16883667
142	0x3e318e56	0.17339453
143	0xbda3bdb6	-0.07995169
144	0xbe85fe32	-0.26170498
145	0x3dec92db	0.11551448
146	0x3e870252	0.26368958
147	0x3e3ff0bd	0.18744178
148	0xbe2186e4	-0.15774113
149	0xbde264b1	-0.110543616
150	0x3e3c6cb1	0.18400837
151	0xbe06592f	-0.13119958
152	0x3df94e65	0.12173156
153	0x3e6798ae	0.22616836
154	0x3e1b2acc	0.15153044
155	0xbd8fa030	-0.07012975
156	0x3e31f904	0.17380148
157	0xbb70827d	-0.003669887
158	0x3e30a88a	0.17251793
159	0x3e52ab98	0.2057327
160	0xbde4f5b1	-0.111796744
161	0xbd3060c8	-0.043061048
162	0xbd9ea13d	-0.077455975
163	0xbddb0403	-0.106941245
164	0xbe1dc326	-0.15406474
165	0xbe10427f	-0.14087866
166	0x3e2aa296	0.16663584
167	0x3d5b78df	0.05358207
168	0xbde942a9	-0.113896675
169	0xbe45d7a8	-0.19320548
170	0xbde58dbd	-0.11208675
171	0x3d099bbf	0.033595797
172	0xbe6748f8	-0.22586429
173	0xbd012418	-0.031528562
174	0xbbe18754	-0.0068825874
175	0xbdd49733	-0.103804015
176	0xbd8cd6f4	-0.068769366
177	0xbe6b97e0	-0.23007154
178	0xbe6956f5	-0.22787078
179	0x3dbc53c4	0.091956645
180	0xbdbebf01	-0.09313775
181	0xbe3a1997	-0.18173824
182	0xbbb9e3b1	-0.005672895
183	0x3c852a37	0.016255481
184	0xbdd46a35	-0.1037182
185	0x3e224f18	0.15850484
186	0xbd197cac	-0.037472412
187	0x3e00a43e	0.12562653
188	0x3e555b01	0.20835496
189	0x3d78e4fe	0.06076526
190	0x3e67f5d6	0.22652373
191	0xbd566918	-0.05234632
192	0x3dc3ea54	0.09566179
193	0xbaa35c0e	-0.0012463348
194	0xbd29f75e	-0.041495673
195	0x3e174978	0.1477412
196	0x3e8aef3f	0.27135655
197	0xbd7d70a7	-0.06187501
198	0x3d756637	0.059911933
199	0x3df2d34f	0.1185671
200	0x3e50dd77	0.20396982
201	0x3d491547	0.049092557
202	0x3d72fef4	0.059325173
203	0x3d05f238	0.0327017
204	0xbdbf97da	-0.09355135
205	0x3e38cd0b	0.18046968
206	0x3dd38a6e	0.10329138
207	0xbdf985fb	-0.12183758
208	0xbe255457	-0.16145454
209	0x3e2148e0	0.15750456
210	0x3e5f880d	0.21829243
211	0xbdbc9a2d	-0.09209094
212	0xbdb93523	-0.09043338
213	0xbe10293a	-0.14078227
214	0xbe34665c	-0.17617172
215	0x3de3a8a5	0.11116151
216	0x3d0f3cb8	0.034970015
217	0x3def8af1	0.11696423
218	0xbe31a8ec	-0.17349595
219	0xb94f84af	-0.00019790487
220	0xbe38559d	-0.18001409
221	0x3ddcce18	0.10781497
222	0xbcf90d12	-0.03040174
223	0xbda4e8cf	-0.08052217
224	0x3de0f75e	0.109846815
225	0x3d2fde9a	0.0429369
226	0x3e50a95c	0.20377105
227	0x3e550601	0.20803072
228	0x3e08b4b7	0.13350187
229	0x3c21d919	0.00987842
230	0xbdf81a5d	-0.121144034
231	0x3d19b12e	0.037522487
232	0x3e50cfb0	0.20391726
233	0xbd895123	-0.06704929
234	0x3d2d948c	0.042377993
235	0x3c5dfc9d	0.013548997
236	0x3e0d25d7	0.13783966
237	0x3e543245	0.20722301
238	0xbe06cbca	-0.13163677
239	0x3d969f23	0.07354572
240	0xbda7c9a7	-0.08192759
241	0x3e1c1a74	0.15244466
242	0x3b7ac2f4	0.0038263174
243	0xbdeb549c	-0.11490747
244	0x3d2a17ee	0.041526727
245	0xb8601eaa	-5.343432e-05
246	0x3dae71a5	0.0851777
247	0x3e8e9729	0.278497
248	0x3e7c922b	0.24665134
249	0x3ca0d9d9	0.019635128

conceptizer.encoder.0.0.bias f4 [10]
0	0x3d80649a	0.06269188
1	0x3dee861d	0.11646674
2	0x3e3ba608	0.18325055
3	0xbd9a7335	-0.07541505
4	0x3e3d71c6	0.18500432
5	0x3dadda0a	0.08488853
6	0xbd38a282	-0.045076855
7	0x3b8c8bb2	0.004289114
8	0x3db62098	0.088929355
9	0x3db44e8d	0.08804045

conceptizer.encoder.1.0.weight f4 [5, 10, 5, 5]
0	0xbd55cc25	-0.05219664
1	0x3c5e2d18	0.013560556
2	0x3d85123f	0.06497621
3	0x3d97f5ff	0.07419967
4	0xbc613a4c	-0.013746809
5	0xbcb5a613	-0.022173917
6	0x3cf24ded	0.029578174
7	0x3c7ad562	0.0153096635
8	0xbd561ebf	-0.052275416
9	0x3d18f34e	0.03734141
10	0xbd9811ad	-0.074252464
11	0x3d315ba1	0.043300275
12	0xbd149581	-0.03627539
13	0xbb9ddb7f	-0.0048174257
14	0xbd2ca2d2	-0.042147465
15	0x3c71b869	0.014753439
16	0x3d3036fd	0.04302119
17	0x3d27c841	0.04096246
18	0xbb82369d	-0.0039737956
19	0xbc294894	-0.010332245
20	0x3c88d8c9	0.016704934
21	0xbca36b1c	-0.019948535
22	0x3cbb0ebe	0.022834178
23	0x3c44f774	0.012021888
24	0xbd2c58f3	-0.042077016
25	0x3d84f745	0.064924754
26	0x3bf7fb2c	0.007567784
27	0x3c0e2836	0.008676579
28	0xbc30cabd	-0.010790524
29	0xbbe7a390	-0.0070690587
30	0x3d801946	0.062548205
31	0x3bfd4681	0.007729352
32	0xbd4707f2	-0.04859156
33	0x3cd2af38	0.025718316
34	0x3d5e61f1	0.054292623
35	0x3cafcadd	0.021459037
36	0x3d12de11	0.03585631
37	0x3d0bbf98	0.034118265
38	0x3c420559	0.011842095
39	0xbb067bb8	-0.002052052
40	0xbcde421a	-0.027131129
41	0xbb4dd850	-0.003140945
42	0xbd141cf3	-0.03616042
43	0x3da5f29c	0.08102915
44	0x3d58c6a7	0.052923825
45	0x3c44e0e0	0.012016505
46	0x3da85cfe	0.08220862
47	0xbb260890	-0.0025334693
48	0x3b7678b5	0.0037608568
49	0xbcbc7004	-0.023002632
50	0x3d22d40d	0.03975301
51	0xbbe866aa	-0.0070923166
52	0xbce3514f	-0.027748732
53	0xbd13918e	-0.036027484
54	0xbceb91b7	-0.028756006
55	0x3c203f2a	0.0097806845
56	0xbbef21aa	-0.0072977142
57	0x3d190ac8	0.037363797
58	0xbcfaa7b2	-0.030597541
59	0x3dabc911	0.0838796
60	0x3d63f036	0.055649005
61	0x3d15f08f	0.036606368
62	0x3cb901f0	0.022583932
63	0xbc898baf	-0.01679024
64	0x3c4cb37c	0.012493964
65	0x3d07c43d	0.03314613
66	0x3c6ab038	0.01432424
67	0xbcd8c3f9	-0.026460635
68	0x3d004add	0.031321395
69	0xbd137c19	-0.03600702
70	0x3d3dafd1	0.04631025
71	0xbc5dfbaa	-0.013548771
72	0x3d5ad872	0.053429075
73	0x3d654f79	0.055983994
74	0x3cad7e18	0.02117829
75	0xbcc6d4d8	-0.024271414
76	0xbd0acdec	-0.03388779
77	0xbd2fed9f	-0.042951223
78	0xba329964	-0.0006813018
79	0x3d163b07	0.036677387
80	0x3d9a1f6c	0.075255245
81	0x3d32d9b5	0.043664653
82	0xbd0789af	-0.03309029
83	0x3d851a1e	0.06499122
84	0x3d89e8a8	0.06733829
85	0x3da02b0a	0.07820709
86	0x3c3f94f9	0.011693233
87	0xbcb9f78e	-0.022701051
88	0x3cb7abfc	0.022420876
89	0x396d96f2	0.00022658313
90	0xbd6ff548	-0.058583528
91	0xbd256856	-0.040382706
92	0xbc71eaa9	-0.01476542
93	0x3d08b4da	0.0333756
94	0x3c9c3c0c	0.019071601
95	0x3cb98293	0.02264527
96	0xbbe78a37	-0.007066037
97	0x3d8a910f	0.06765949
98	0x3db8bca2	0.09020354
99	0x3da5c1c0	0.080935955
100	0x3d47c29b	0.048769575
101	0xbcc64a81	-0.024205448
102	0xbc77e792	-0.015130894
103	0x3c3bd9b2	0.011465477
104	0xbb831f45	-0.0040015304
105	0xbcc38af8	-0.023869976
106	0xbcbe55ec	-0.02323433
107	0xbc0e0605	-0.008668427
108	0x3d4352ea	0.047686495
109	0x3d572aef	0.05253118
110	0x3d246070	0.040131032
111	0xbcdaa890	-0.026691705
112	0x3d993396	0.07480542
113	0xbc118e13	-0.008883971
114	0xbcd2f904	-0.025753506
115	0xbc9ac302	-0.018891815
116	0x3d6ff899	0.05858669
117	0x3c9b991a	0.018993903
118	0x3ccbde4e	0.024886277
119	0x3d1ec638	0.038763255
120	0xbd64503f	-0.05574059
121	0x3cbf6362	0.02336282
122	0x3d5139ff	0.0510807
123	0x3d008314	0.031375006
124	0x3c24a007	0.010047919
125	0x3c9c4647	0.01907648
126	0x3d3130b4	0.043259338
127	0x3c4da115	0.012550612
128	0x3c180f88	0.009281047
129	0x3ce94cd5	0.02847902
130	0xbd2c01d0	-0.041993916
131	0x3c62ab38	0.013834767
132	0x3c18e7b6	0.009332588
133	0x3c3a7cbd	0.011382279
134	0x3c333f87	0.010940439
135	0xbcaf0519	-0.021364735
136	0x3ca0d79a	0.019634057
137	0x3d41251a	0.047154523
138	0x3bdd70f8	0.0067578517
139	0x3ced900e	0.028999355
140	0x3cd5dab4	0.026105262
141	0xbcaaaa30	-0.020833105
142	0x3c8bde03	0.017073637
143	0xbd40076d	-0.04688208
144	0xbd1658fa	-0.03670595
145	0x3c7aceb2	0.015308069
146	0x3d2bb3c8	0.0419195
147	0xbd90ceda	-0.07070704
148	0xbd87b192	-0.06625666
149	0xbcf501c7	-0.029908074
150	0x3d2d31c9	0.042283807
151	0x3cd06fae	0.025443878
152	0x3cd1523f	0.025551913
153	0x3cc7f059	0.024406599
154	0x3e179fe2	0.14807084
155	0x3ca9fc78	0.02075027
156	0x3c16a066	0.009193515
157	0xb9a9ea67	-0.00032408835
158	0xbd70f613	-0.058828425
159	0x3ca6c990	0.020359784
160	0x3d347170	0.044053495
161	0x3d53a731	0.051673118
162	0x3c93c725	0.018039295
163	0xbc040561	-0.008057923
164	0x3d3f05cd	0.04663639
165	0x3d9703f9	0.073738046
166	0xbc481a68	-0.012213327
167	0xbca9d9cb	-0.020733735
168	0xbcacd2f5	-0.021096686
169	0xbd3fd00c	-0.04682927
170	0xbccd09e5	-0.025029132
171	0xbaa3e066	-0.0012502789
172	0x3d4bd74f	0.04976588
173	0xbc2f5cb8	-0.010703258
174	0xbba872fa	-0.0051406594
175	0xbd296bd0	-0.041362584
176	0xbd6cde0a	-0.05782894
177	0xbc9f14a9	-0.019419031
178	0xbbc6955f	-0.006060287
179	0xbd2efcf8	-0.04272172
180	0x3c9082b3	0.017640447
181	0x3d44049a	0.04785595
182	0xbd8a86a9	-0.06763966
183	0xbb884dfa	-0.004159686
184	0xbd8d3f69	-0.0689686
185	0x3d4cf208	0.050035506
186	0x3c296d7f	0.010341047
187	0xbd0be538	-0.034154147
188	0xba7d9188	-0.000967287
189	0x3d0fd9bd	0.03511976
190	0x3c9f6746	0.019458424
191	0x3d6c1c15	0.05764397
192	0xbc20ce05	-0.009814744
193	0x3c81b17d	0.015831703
194	0xbce7639e	-0.028245743
195	0xbd1c3aa5	-0.038141865
196	0xbd700ddd	-0.05860697
197	0xbe00fd3b	-0.125966
198	0xbd8a5da8	-0.06756145
199	0xbe1be7c4	-0.1522513
200	0xbde882fb	-0.113531075
201	0x3d45bfa0	0.04827845
202	0x3cb7c7bb	0.022434106
203	0x3aaef322	0.0013347606
204	0x3d073dd0	0.033017933
205	0xbd832736	-0.06403963
206	0x3cc35f89	0.023849266
207	0x3cb764af	0.022386877
208	0x3c358340	0.011078656
209	0x3d6eb2be	0.05827593
210	0xbccd2bd0	-0.025045305
211	0xbced7457	-0.02898614
212	0xbd819a8f	-0.06328308
213	0x3cd2f5d5	0.025751987
214	0x3c24af9b	0.010051633
215	0x3ca06380	0.019578695
216	0x3dbccd2d	0.09218822
217	0x3d144416	0.036197744
218	0xbc2502db	-0.010071482
219	0x3d25aa25	0.040445466
220	0xbd5b99b4	-0.05361338
221	0x3d94d39e	0.07266925
222	0xbc9f33d4	-0.019433893
223	0x3bbee4b7	0.005825605
224	0x3cdae05d	0.026718313
225	0xbd04a464	-0.032383338
226	0xbd038ca0	-0.032116532
227	0x3d28fc45	0.041256208
228	0x3d8922eb	0.06696113
229	0x3d503f09	0.050841365
230	0xba5a3ce6	-0.00083251146
231	0x3ceacfad	0.02866348
232	0x3b332459	0.0027334897
233	0xbdb452dc	-0.08804867
234	0xbcf046fb	-0.029330721
235	0xbc3d9e1e	-0.011573343
236	0x3d188021	0.03723157
237	0xbd3b71a5	-0.045762677
238	0x3c2cae42	0.010539593
239	0xbd32a6a1	-0.04361594
240	0x3cddf36e	0.027093615
241	0x3c915143	0.017738944
242	0x3b907a11	0.0044090827
243	0xbd3ddbf2	-0.046352334
244	0x3c2a48a0	0.010393292
245	0xbbb2074f	-0.005433
246	0xbcb82316	-0.022477668
247	0x3b6d033d	0.003616526
248	0xbc0f0140	-0.008728325
249	0xbd8f4175	-0.06994907
250	0x3dcf7e1a	0.10131474
251	0x3d43cd59	0.047803257
252	0x3d6f4b42	0.05842138
253	0x3cc722a9	0.02430852
254	0x3c8fbb90	0.017545491
255	0x3d13ea45	0.03611209

conceptizer.encoder.1.0.bias f4 [5]
0	0xbce1a099	-0.0275424
1	0x3d7a3b93	0.06109197
2	0xbd1356f1	-0.035971586
3	0xbb134873	-0.0022473603
4	0x3d14e149	0.03634766

conceptizer.encoder.2.layers.0.weight f4 [1, 16]
0	0xbd82da10	-0.06389248
1	0xbe57a654	-0.21059543
2	0xbdb64afb	-0.0890102
3	0xbe350e7b	-0.17681305
4	0x3df109aa	0.117694214
5	0x3dca5aa1	0.09880567
6	0x3dad47b4	0.08460942
7	0xbe29d7c8	-0.1658622
8	0xbe2b1e91	-0.16710879
9	0xbdec6519	-0.1154272
10	0xbe6b349c	-0.22969288
11	0xbe89a83d	-0.26886168
12	0x3d04cb0d	0.032420207
13	0xbdd86e72	-0.10567941
14	0xbe5aaefe	-0.21355817
15	0x3e209a99	0.15683974

conceptizer.encoder.2.layers.1.weight f4 [1, 16]
0	0x3dc1097e	0.094256386
1	0xbe791f5d	-0.2432837
2	0xbdf29531	-0.11844862
3	0x3ca145de	0.019686636
4	0xbdb0f395	-0.086402096
5	0x3dbbf9c4	0.091784984
6	0xbe9c7bab	-0.305631
7	0x3e19eb9a	0.15031281
8	0x3c85649d	0.016283328
9	0xbe888ea9	-0.2667134
10	0xbdbb76eb	-0.09153541
11	0xbc65e57f	-0.014031767
12	0x3d522243	0.051302206
13	0xbda4020e	-0.080082044
14	0x3da50d09	0.08059127
15	0x3df6f1af	0.12057816

conceptizer.encoder.2.layers.2.weight f4 [1, 16]
0	0xbe7e8e38	-0.2485894
1	0x3dc4542f	0.09586369
2	0x3defb0c2	0.11703636
3	0x3e1a0c9e	0.15043876
4	0x3c8340a4	0.016022034
5	0xbe82c326	-0.2553951
6	0x3e0c73cf	0.13716052
7	0xbde8a534	-0.11359635
8	0xbeb40ecf	-0.35167548
9	0xbe4e2b0b	-0.20133607
10	0x3ddb6138	0.107119024
11	0xbe1d1377	-0.15339456
12	0xbe3665ea	-0.17812315
13	0x3e12dd55	0.14342244
14	0x3dde8ba7	0.1086648
15	0xbdff8321	-0.12476183

conceptizer.encoder.2.layers.3.weight f4 [1, 16]
0	0x3e6023da	0.21888676
1	0x3da36521	0.07978273
2	0xbd30a90b	-0.043129962
3	0x3e3c3864	0.18380886
4	0x3bf6668a	0.007519548
5	0x3ddf14d5	0.10892645
6	0x3dc49c8a	0.0960017
7	0x3db1b477	0.08676999
8	0xbd9d46b7	-0.076795034
9	0x3e8e5426	0.27798575
10	0xbdcaf586	-0.09910111
11	0x3d9510ef	0.072786205
12	0x3e136f00	0.14397812
13	0xbd84a685	-0.064770736
14	0xbe1a0a5c	-0.15043014
15	0xbe193a90	-0.14963746

conceptizer.encoder.2.layers.4.weight f4 [1, 16]
0	0x3de5e209	0.112247534
1	0xbe51b6f8	-0.20479953
2	0x3d1f1a49	0.038843427
3	0x3d9bf92d	0.07615886
4	0xbe85efe8	-0.26159596
5	0xbe1a7762	-0.15084603
6	0x3df16828	0.11787444
7	0xbdacd3af	-0.08438813
8	0xbdce7f95	-0.10082928
9	0xbe946f3b	-0.28991112
10	0xbe4ebf82	-0.20190242
11	0xbdb68d8e	-0.08913718
12	0x3d1e1833	0.038597297
13	0x3daf0f05	0.085477866
14	0x3c79347f	0.01521027
15	0xbd1fd12f	-0.039017852

conceptizer.decoder.0.0.weight f4 [5, 16, 5, 5]
0	0x3c0d465a	0.00862273
1	0x3df130ad	0.11776862
2	0x3d48a1ae	0.048982315
3	0x3da2b6dc	0.07945034
4	0x3e5731e7	0.2101513
5	0x3d336d6c	0.043805525
6	0x3dcf348a	0.10117443
7	0x3d89903f	0.06716966
8	0xbd35f66d	-0.044424463
9	0xbd6af448	-0.05736187
10	0x3e222617	0.15834843
11	0x3de1051e	0.10987304
12	0xbd666daf	-0.056256946
13	0x3dba40ed	0.09094415
14	0x3dab5889	0.08366496
15	0x3cb1cd36	0.021704298
16	0x3d6baf8f	0.057540473
17	0x3d0d1b42	0.034449823
18	0xbd0e5947	-0.03475311
19	0xbdb496c3	-0.08817818
20	0x3d734920	0.05939591
21	0xbe3ce36b	-0.18446128
22	0xbdf817f3	-0.12113943
23	0x3e0ad1e4	0.1355663
24	0x3e128c10	0.14311242
25	0x3ae871f8	0.0017734161
26	0x3dc31d58	0.09527081
27	0x3d80cf7c	0.062895745
28	0x3c1fc8db	0.0097524775
29	0x3d97889c	0.07399103
30	0x3d8a610c	0.067567915
31	0x3d7ede5e	0.062223785
32	0xbddcc639	-0.107799955
33	0x3dce1678	0.10062879
34	0x3dfaddab	0.12249311
35	0x3dac0be0	0.084007025
36	0x3a63f1e4	0.00086954073
37	0x3e11e975	0.14249213
38	0x3de2e8a0	0.11079526
39	0x3ab4bc1e	0.0013788973
40	0x3cfc8b4a	0.030828137
41	0xbe40e540	-0.18837452
42	0x3e663358	0.22480524
43	0x3e044987	0.12918673
44	0xbe4c7ac2	-0.19968703
45	0x3d2797b6	0.040916167
46	0x3d046e79	0.032331917
47	0x3c8d510e	0.017250564
48	0xbdcfa0b3	-0.10138073
49	0x3cd3a700	0.025836468
50	0x3dfa334a	0.12216814
51	0x3cd5dfc9	0.026107686
52	0xbca76ea5	-0.020438502
53	0x3d63db22	0.055628903
54	0x3dfb8d4a	0.12282808
55	0x3c12ee94	0.008968014
56	0x3dd93673	0.106060885
57	0x3e145dc8	0.144889
58	0xbda62408	-0.08112341
59	0x3d82f1ed	0.063938
60	0x3d7f6eaa	0.062361397
61	0x3c7e183a	0.015508706
62	0x3cedf127	0.029045654
63	0xbd6a6df4	-0.057233766
64	0x3bb287c9	0.0054483158
65	0x3e295791	0.1653731
66	0x3de45726	0.11149435
67	0xbcb10afb	-0.021611681
68	0xbcc498b7	-0.023998601
69	0x3e659387	0.22419558
70	0x3df20681	0.11817647
71	0x3e1913e6	0.14948997
72	0x3d4df8b4	0.05028601
73	0xbd87d8a9	-0.066331215
74	0xbe43e8ec	-0.19131821
75	0xbd1adcf4	-0.037808374
76	0x3ca68b3c	0.020330064
77	0xbb8d5b44	-0.004313858
78	0x3de1aa1c	0.11018774
79	0x3d86db00	0.0658474
80	0xbdfb6422	-0.12274958
81	0xbc8efa44	-0.01745332
82	0xbc266753	-0.01015647
83	0xbdc5fbd3	-0.09667172
84	0xbd3b7241	-0.045763258
85	0x3c024943	0.007952037
86	0xbe1239e5	-0.14279898
87	0xbded1056	-0.115753815
88	0x3d9acd7b	0.075587235
89	0x3e0083b3	0.1255024
90	0x3dcfa2b0	0.10138452
91	0xbcaee634	-0.021350004
92	0xbe0b27bd	-0.13589378
93	0x3e121e55	0.14269383
94	0xbdcd9174	-0.100375086
95	0x3deb839f	0.11499714
96	0x3d2685e4	0.04065503
97	0x3dc5896c	0.09645352
98	0x3db99c2f	0.09062993
99	0x3e23d112	0.15997723
100	0x3d59ff5e	0.053222053
101	0xbdd5d250	-0.104405046
102	0x3de7f86d	0.1132668
103	0x3d3d586a	0.046226896
104	0x3e5fd3ce	0.21858141
105	0xbce2c890	-0.027683526
106	0xbd3e9701	-0.046530727
107	0x3db8cbdf	0.0902326
108	0xbdc27d04	-0.09496501
109	0xbd25bee3	-0.040465247
110	0xbac6f6ac	-0.0015179715
111	0x39eee72f	0.00045567143
112	0x3ba19f20	0.0049322993
113	0xbe326bc3	-0.1742392
114	0xbd46aae6	-0.048502825
115	0x3d825d3b	0.063654386
116	0x3d747a8a	0.059687175
117	0x3dd4810d	0.10376177
118	0xbdd49595	-0.10380093
119	0xbe17ec02	-0.14836124
120	0xbc50e55d	-0.012749997
121	0xbcfb671c	-0.030688815
122	0x3cef5114	0.029213466
123	0xbb43e754	-0.002989252
124	0xbddb8b9c	-0.10719988
125	0x3e3ea0ce	0.1861603
126	0xbbc4e796	-0.0060090525
127	0xbc1a8a0e	-0.009432329
128	0x3cf2aaa3	0.029622382
129	0x3d0131dd	0.031541694
130	0x3c2b9805	0.010473256
131	0xbe0f82b9	-0.1401471
132	0x3ce77e45	0.028258452
133	0x3cd135eb	0.025538405
134	0xbd209460	-0.039204
135	0x3cf3f361	0.029779138
136	0xbd591fd9	-0.053008888
137	0x3d1ce6ff	0.038306233
138	0xbc2b5fa5	-0.010459815
139	0x3d4b5bc5	0.049648065
140	0x3d8e58df	0.069505446
141	0x3aee8b18	0.0018199412
142	0x3d2ad94c	0.041711137
143	0xbe24976d	-0.1607339
144	0x3ca95f10	0.020675212
145	0x3e1a0ad2	0.1504319
146	0x3d0854f0	0.033284128
147	0x3d3cfc80	0.04613924
148	0xbe3882b9	-0.18018617
149	0x3d37a1eb	0.04483215
150	0x3d8c5dd6	0.06853835
151	0x3d880d99	0.066432185
152	0x3caad6cf	0.020854382
153	0x3d749629	0.059713516
154	0x3dd36315	0.10321633
155	0xbcf393b3	-0.029733514
156	0x3dcbedb3	0.09957447
157	0x3e13533c	0.1438722
158	0xbdb5a5fb	-0.08869549
159	0xbe6ba391	-0.23011614
160	0x3bd6fdda	0.006561023
161	0x3e06135b	0.13093321
162	0x3d848964	0.06471518
163	0x3d31a6e8	0.043372065
164	0x3d68f8d0	0.05687791
165	0x3d494e68	0.04914704
166	0xbceb7807	-0.028743757
167	0x3d8ed981	0.06975079
168	0x3db73767	0.08946114
169	0xbcf5015a	-0.029907871
170	0x3d2c1de5	0.042020697
171	0xbb45bdb9	-0.0030172898
172	0xbca55a3a	-0.020184625
173	0xbdadec8b	-0.084923826
174	0xbe3f03a6	-0.18653736
175	0x3e2e7047	0.17035018
176	0x3d907037	0.07052653
177	0x3d6609e5	0.05616178
178	0x3e17916d	0.1480157
179	0x3e39fe80	0.1816349
180	0xbda892b5	-0.08231107
181	0x3c148cd9	0.009066784
182	0x3d6b8790	0.05750233
183	0x3de419cb	0.11137732
184	0x3df1aaef	0.11800181
185	0x3db2ad94	0.08724514
186	0x3daf5c26	0.08562498
187	0x3d296fa5	0.04136624
188	0xbd9c8533	-0.07642593
189	0xbd6a46c4	-0.057196394
190	0x3cc83873	0.02444098
191	0x3d8f9979	0.070116945
192	0xbe3bd671	-0.18343522
193	0xbe23c8f9	-0.15994634
194	0x3c3eb8b3	0.011640715
195	0x3d6cdb94	0.057826594
196	0x3dfa0b0a	0.12209137
197	0xbd0401fa	-0.032228447
198	0xbe0d395c	-0.13791412
199	0xbe6a7ef0	-0.22899985
200	0x3d129dc7	0.035795
201	0xbd4992e8	-0.049212366
202	0xbdd0e5b3	-0.10200062
203	0x3d3bd4bc	0.045857176
204	0x3de866dc	0.11347744
205	0x3d36c731	0.044623557
206	0xbd219668	-0.03945008
207	0xbdc7b1df	-0.09750723
208	0xbdcaba69	-0.09898836
209	0x3e0670c1	0.1312895
210	0x3db0655a	0.08613081
211	0x3d24d3e6	0.040241145
212	0xbe26a98f	-0.16275619
213	0x3d614b2f	0.05500334
214	0x3dd31d87	0.10308366
215	0x3e2ce7b3	0.16885261
216	0x3e0127f8	0.12612903
217	0xbbe92199	-0.007114601
218	0xbc208b32	-0.009798812
219	0x3deb75a7	0.1149705
220	0x3d3d4d0d	0.04621606
221	0xbe20b374	-0.15693456
222	0xbe2bd322	-0.1677976
223	0xbd6958a6	-0.056969307
224	0x3dc16a01	0.09444047
225	0x3db00397	0.08594435
226	0x3e00a094	0.12561256
227	0x3d2ccf4c	0.04218988
228	0x3d952357	0.07282131
229	0xbaed3ec9	-0.0018100376
230	0x3d76d272	0.06025929
231	0x3ce8c253	0.028412974
232	0x3cd9c220	0.026581824
233	0x3b9db4fb	0.0048128343
234	0x3e2558a4	0.16147095
235	0x3d9d4cf6	0.07680695
236	0x3e1beed1	0.1522782
237	0xbc47effc	-0.012203213
238	0x3d5f41ff	0.0545063
239	0x3c1e8e4d	0.009677482
240	0x3d81fc0f	0.063469045
241	0xbd12d7f9	-0.0358505
242	0xbe033050	-0.12811399
243	0x3d1fe3ff	0.039035793
244	0xbdf73885	-0.12071327
245	0x3db3fbd5	0.087882675
246	0x3e14bc80	0.14525032
247	0xbc1b65a9	-0.009484687
248	0x3da01c1f	0.07817864
249	0xbe2e2c06	-0.17008981
250	0xbd3775cc	-0.044790074
251	0xbd37a1fc	-0.044832215
252	0xbc82a96d	-0.01594993
253	0xbc937632	-0.018000696
254	0xbe18de75	-0.1492861
255	0xbd9f74c5	-0.07785944

conceptizer.decoder.0.0.bias f4 [16]
0	0xbdb69c5d	-0.08916543
1	0x3d0c0843	0.034187566
2	0x3cdc4184	0.026886709
3	0x3dce14d6	0.10062568
4	0xbc8ff65c	-0.017573528
5	0x3d3b1218	0.045671552
6	0xbb5d2895	-0.0033746113
7	0x3d598004	0.0531006
8	0x3d078219	0.033083055
9	0xbbb5a5d0	-0.005543448
10	0x3dfd6230	0.123722434
11	0x3dc35ebf	0.09539556
12	0x3cd4d111	0.025978597
13	0xbc2f5292	-0.010700839
14	0xbcb10d1b	-0.021612694
15	0x3da4c1c1	0.08044768

conceptizer.decoder.2.0.weight f4 [16, 8, 5, 5]
0	0x3dda5133	0.10660019
1	0x3e5135e6	0.20430717
2	0x3e1ecd11	0.15507914
3	0x3d0332c7	0.032030847
4	0x3ddec124	0.108766824
5	0x3db17a94	0.08665958
6	0x3e74db3a	0.23911753
7	0x3dc59def	0.09649264
8	0x3c91242d	0.017717445
9	0x3e56e294	0.2098487
10	0xbcbefdf9	-0.023314463
11	0x3db57012	0.08859266
12	0xbd997753	-0.074934624
13	0x3d01c12d	0.031678367
14	0x3d0b61b0	0.03402871
15	0xbce1d139	-0.027565585
16	0x3ca5ddf2	0.020247433
17	0xbd931569	-0.07181818
18	0xbbb0784f	-0.0053854357
19	0x3b86ead2	0.004117348
20	0xbdd9f978	-0.106432855
21	0xbde14d7f	-0.11001109
22	0xbe139ace	-0.14414522
23	0xbcbbe46e	-0.022936072
24	0x3d297bc1	0.041377787
25	0xbe005294	-0.12531501
26	0xbe2b5d61	-0.1673484
27	0xbda0601b	-0.07830831
28	0xba0d5823	-0.00053918565
29	0x3d0544b6	0.03253623
30	0xbcfbe7fc	-0.030750267
31	0xbe049e18	-0.12950933
32	0xbdcc67df	-0.09980749
33	0xbcd7e76c	-0.026355468
34	0xbd460721	-0.048346642
35	0xbd6965e3	-0.056981932
36	0xbcbe9c2f	-0.023267834
37	0xbd0635ce	-0.032766156
38	0xbb57350d	-0.0032838017
39	0xbda12e11	-0.078701146
40	0xbb762429	-0.0037558174
41	0x3d494360	0.04913652
42	0x3dcad5f2	0.09904088
43	0x3ddb75ca	0.10715826
44	0x3cf8a7f3	0.030353522
45	0x3dc99590	0.0984298
46	0x3dc4d637	0.09611171
47	0x3daebd6d	0.08532224
48	0x3d116026	0.035492085
49	0x3c8ce039	0.017196761
50	0x3da67eeb	0.081296764
51	0x3c8de507	0.017321123
52	0xbd6b92f8	-0.057513207
53	0x3ca4bba0	0.020108998
54	0x3c380637	0.0112319505
55	0xbd97a2e5	-0.074041165
56	0xbc2c9c07	-0.010535247
57	0xbd4c46f6	-0.04987236
58	0xbd7dcf1a	-0.061965086
59	0x3d50200d	0.050811816
60	0x3b5522c4	0.0032521943
61	0xbd08c700	-0.033392906
62	0xbd0618e2	-0.032738574
63	0x3bffe93d	0.0078097866
64	0xbc841419	-0.016122865
65	0x3c6400e9	0.013916233
66	0x3b8b7807	0.0042562517
67	0xbd8bb8f2	-0.06822385
68	0xbd7166e3	-0.05893601
69	0xbcf26fcb	-0.029594323
70	0x3d5cf0e5	0.053940672
71	0xbd9f4dda	-0.07778521
72	0x3caa8de9	0.020819621
73	0x3bba44ff	0.0056844945
74	0xbc6169ed	-0.013758165
75	0x3e3dea28	0.18546355
76	0x3e66fdb0	0.22557712
77	0x3e30496e	0.17215511
78	0x3d80cbb9	0.06288857
79	0x3d4b18b9	0.049584124
80	0x3e6d016c	0.23145074
81	0x3dbab665	0.0911682
82	0x3d811173	0.06302156
83	0x3d827367	0.063696675
84	0x3d98f26b	0.074681126
85	0xbdf9ec47	-0.122032695
86	0xbdf9e0b6	-0.12201063
87	0xbd24e00b	-0.040252727
88	0xbc90cd87	-0.017676128
89	0x3ddb1a29	0.10698349
90	0xbe4a21ef	-0.19739507
91	0xbe3618af	-0.17782854
92	0xbe08bd4d	-0.13353463
93	0xbcc94eef	-0.024573771
94	0x3d7eb375	0.062182862
95	0xbd3f3d93	-0.04668958
96	0xbde49859	-0.111618705
97	0xbe075733	-0.13216858
98	0xbda7bd79	-0.08190436
99	0xbcb68e4a	-0.022284646
100	0x3dc4c4c7	0.09607845
101	0xbcc9765d	-0.024592573
102	0xbd0958e7	-0.03353205
103	0xbd188e1b	-0.037244897
104	0xbddd6300	-0.108098984
105	0x3e3a3625	0.18184717
106	0x3e096f5b	0.13421385
107	0x3e28a476	0.16468987
108	0x3da08514	0.07837883
109	0x3db0a236	0.08624689
110	0x3d94dd58	0.072687805
111	0x3de487d2	0.11158718
112	0x3e281bfa	0.16416922
113	0x3e2ce058	0.16882455
114	0x3ddbcc49	0.10732324
115	0xbe0b5825	-0.13607843
116	0xbd64cbd7	-0.05585846
117	0x3b8c3500	0.004278779
118	0x3d2ab4e9	0.041676436
119	0xbd5adae6	-0.053431414
120	0xbe385f88	-0.18005192
121	0xbda80448	-0.082039416
122	0xbdd43133	-0.103609465
123	0xbd410b60	-0.04712999
124	0xbd09efd5	-0.033675987
125	0x3e5a9658	0.21346414
126	0x3e6e509e	0.2327294
127	0x3e4b35d7	0.19844757
128	0x3da31fe8	0.0796507
129	0x3e12072a	0.14260545
130	0x3e241b37	0.16026007
131	0x3e393a06	0.1808854
132	0x3e17c1ab	0.14819972
133	0x3dcf668d	0.10126982
134	0x3e1497bf	0.14511012
135	0xbdc21e8d	-0.09478483
136	0xbe134097	-0.14380108
137	0xbd39ccc8	-0.04536131
138	0x3bcc8cf1	0.0062423875
139	0x3d035479	0.03206298
140	0xbdffef48	-0.12496811
141	0xbe3b5cf7	-0.18297182
142	0xbdd5fc0f	-0.10448467
143	0xbe0982ee	-0.13428852
144	0xbd7d776c	-0.061881468
145	0xbdcf3ae4	-0.10118654
146	0xbe4176f5	-0.18893035
147	0xbd0573b7	-0.032581057
148	0xbd270191	-0.04077298
149	0x3cef824e	0.029236939
150	0x3e8f1bfb	0.27951035
151	0x3e453445	0.1925822
152	0x3d92659e	0.07148288
153	0x3cb15ede	0.021651682
154	0x3dc0fb4d	0.09422932
155	0x3d9b3233	0.07577934
156	0x3e008477	0.12550531
157	0x3d9ffe33	0.078121565
158	0x3d96cc2b	0.07363161
159	0x3c874b28	0.01651533
160	0xbc553213	-0.013012427
161	0xbd34923c	-0.044084772
162	0xbdbf6d38	-0.09347004
163	0xbd83ea9b	-0.06441232
164	0xbe02a60b	-0.12758653
165	0xbdde9d9f	-0.108699076
166	0x3bf843ee	0.007576457
167	0xbe14c9a1	-0.1453004
168	0xbe044070	-0.12915206
169	0xbd738259	-0.05945048
170	0xbd0ed433	-0.034870338
171	0xbc2d23c8	-0.010567613
172	0xbdff6c6a	-0.1247185
173	0xbdc8a797	-0.0979759
174	0x3d1c94f9	0.03822801
175	0x3e880538	0.26566482
176	0x3e41c695	0.1892341
177	0x3dc31e50	0.09527266
178	0x3cb2ecf2	0.0218415
179	0x3d199900	0.037499428
180	0x3d01eae1	0.03171814
181	0x3db8a2be	0.090154156
182	0x3d18a768	0.037269026
183	0x3d9c22f0	0.07623851
184	0x3d7471c3	0.059678804
185	0xbdfc060f	-0.12305843
186	0xbdf685d0	-0.120372415
187	0x3cf9655b	0.030443838
188	0x3aa4cdb8	0.0012573516
189	0x3d849ebd	0.064755894
190	0xbdca39f6	-0.098743364
191	0xbe4ecde9	-0.20195736
192	0xbd84eaf0	-0.06490123
193	0x3d8cfa1c	0.06883642
194	0x3d9003f8	0.07032007
195	0xbe5cb360	-0.21552801
196	0xbd6d272a	-0.057898678
197	0xbd1cc0f2	-0.038269944
198	0x3d42af38	0.047530383
199	0x3db96c03	0.09053805
200	0x3dee6518	0.11640376
201	0x3d927328	0.071508706
202	0x3e156b0d	0.14591618
203	0x3e21a7cf	0.1578667
204	0x3e2f96be	0.17147347
205	0x3e126eba	0.14300051
206	0xbc3de2a1	-0.011589677
207	0x3dbeacbe	0.09310292
208	0x3da31c5f	0.07964396
209	0x3e3055e5	0.17220266
210	0x3c74897f	0.01492536
211	0xbddaae06	-0.106777236
212	0xbdabbbbd	-0.083854176
213	0x3c8408c9	0.01611747
214	0x3b4a745d	0.0030892112
215	0xbdcf731c	-0.10129377
216	0x3c3918e2	0.011297436
217	0xbb85a35c	-0.004078312
218	0xbd19b02f	-0.037521537
219	0x3c1120fa	0.00885796
220	0xbb94ab1f	-0.004537001
221	0x3dc35312	0.09537329
222	0xbdaa9fba	-0.08331247
223	0x3d1e174b	0.038596433
224	0x3df20033	0.11816444
225	0xbdaaf57b	-0.08347603
226	0xbe0db9c6	-0.13840398
227	0xbdc376f2	-0.095441714
228	0xbcdcfc50	-0.02697578
229	0x3cec3b28	0.028836802
230	0xbda586b1	-0.08082331
231	0x3bb1ce2c	0.005426189
232	0xbca5204b	-0.020157
233	0x3c940244	0.018067487
234	0xbb90894f	-0.0044108997
235	0x3e27f572	0.16402224
236	0x3e4aad20	0.19792604
237	0x3e0bbb32	0.13645628
238	0x3dd2ab3f	0.10286569
239	0x3dbbfcb1	0.091790564
240	0x3dd472ee	0.103734836
241	0x3da6c7cc	0.08143577
242	0xbc795123	-0.015217098
243	0xbd27462e	-0.040838413
244	0x3db7daf7	0.08977311
245	0xbcf2a4bc	-0.029619567
246	0xbdc1d36a	-0.09464152
247	0xbd9bf50a	-0.07615097
248	0x3d4b843a	0.049686648
249	0x3d5c70d8	0.053818554
250	0xbbdb7812	-0.006697663
251	0xbc5ff4ca	-0.013669202
252	0xbcbec750	-0.023288399
253	0x3cd34710	0.025790721
254	0xbd8747a6	-0.06605463
255	0x3d4aad62	0.049481757

conceptizer.decoder.2.0.bias f4 [8]
0	0x3cdf624b	0.02726855
1	0x3c581dcd	0.013190699
2	0x3d4ef3a6	0.05052533
3	0x3d271262	0.040789016
4	0x3d961e8a	0.073300436
5	0x3cd21498	0.025644585
6	0x3dadd796	0.084883854
7	0xbd246eae	-0.040144615

conceptizer.decoder.4.0.weight f4 [8, 1, 2, 2]
0	0xbf6ba0f6	-0.9204248
1	0xbed9f883	-0.42572412
2	0xbf1399ac	-0.5765636
3	0x3cbef554	0.023310341
4	0x3f27315c	0.6530969
5	0x3f2890c7	0.6584591
6	0x3f292411	0.6607066
7	0x3f22cbe7	0.6359238
8	0x3eb66b2b	0.35628638
9	0x3ebc5747	0.36785337
10	0x3ece22cd	0.40260926
11	0xbeb64d4b	-0.35605845
12	0xbf26d810	-0.65173435
13	0xbf404550	-0.7510576
14	0xbf251d98	-0.6449828
15	0xbf318f46	-0.6935924
16	0xbf235a8a	-0.63810027
17	0xbf4cdadf	-0.8002147
18	0x3dc44afc	0.09584615
19	0xbdd0a828	-0.10188323
20	0xbf0bbc11	-0.5458384
21	0xbe3e5c4e	-0.18589899
22	0xbf6eefed	-0.9333485
23	0xbf192e39	-0.59836155
24	0xbea8febc	-0.33006847
25	0xbf323e37	-0.6962618
26	0xbec070b5	-0.3758599
27	0xbeafc913	-0.34333095
28	0x3e2bde63	0.16784053
29	0xbf3866a6	-0.7203163
30	0xbe6a7def	-0.22899602
31	0xbf854e42	-1.0414507

conceptizer.unlinear.weight f4 [16, 1]
0	0xbf476fae	-0.77904785
1	0x3efe7100	0.49695587
2	0xbf06cbc9	-0.526547
3	0xbfabca16	-1.3421047
4	0xbf74f614	-0.95687985
5	0xbf18d3fd	-0.5969847
6	0x3f71fdce	0.945279
7	0xbf4e88bb	-0.80677384
8	0xbf37d07f	-0.71802515
9	0xbf75ee07	-0.96066326
10	0x3f8de0fe	1.1084287
11	0x3f20b16b	0.6277072
12	0xbf7384af	-0.95124334
13	0xbd90c6e0	-0.070691824
14	0xbf3bad8b	-0.7331168
15	0x3f33e811	0.7027598

conceptizer.unlinear.bias f4 [16]
0	0x3f4929fb	0.7857968
1	0xbe39ee7d	-0.18157382
2	0xbf8b2f5c	-1.0873828
3	0x3f385486	0.7200397
4	0x3e9f1eb5	0.31078115
5	0x3e1136e8	0.14181101
6	0xbf1a1854	-0.6019337
7	0x3f1b496f	0.60658926
8	0x3d803b8a	0.06261356
9	0xbf30bdd9	-0.69039685
10	0xbf3d3612	-0.7391063
11	0x3f4563b8	0.77105284
12	0xbe9c4a49	-0.30525425
13	0xbf2a3449	-0.6648603
14	0xbf34591f	-0.7044849
15	0x3efce2c7	0.49391767

parameterizer.cl_layers.0.weight f4 [10, 1, 5, 5]
0	0x3e106559	0.14101161
1	0xbca8cdbb	-0.020605912
2	0x3dafe037	0.085876875
3	0x3e214252	0.15747955
4	0x3dd60246	0.104496524
5	0xbc6fd543	-0.014638248
6	0x3e6a9ee6	0.22912177
7	0xbdb53c96	-0.088494465
8	0xbdfff188	-0.1249724
9	0xbda02179	-0.078188844
10	0x3d49f0f3	0.049302053
11	0x3dd0f815	0.10203568
12	0x3dc8d09c	0.09805414
13	0x3e903ef1	0.2817302
14	0x3e77c002	0.24194339
15	0xbe5c9576	-0.2154139
16	0xbdb479a5	-0.08812264
17	0xbdedd17e	-0.11612223
18	0xbe18f875	-0.14938529
19	0xbe445e7f	-0.19176672
20	0xbd85212b	-0.06500467
21	0xbe5f62f9	-0.21815099
22	0xbe4fe2d5	-0.20301373
23	0xbe28f89e	-0.1650109
24	0xbe13bbbd	-0.14427085
25	0xbdb90cf9	-0.090356775
26	0xbd907ad8	-0.070546806
27	0x3e3e44fa	0.18581
28	0xbd932aff	-0.07185935
29	0xba1f789a	-0.00060833397
30	0xbe07cb87	-0.13261233
31	0xbdfed7a3	-0.12443473
32	0xbd9a8eab	-0.07546743
33	0xbca08ea1	-0.01959926
34	0xbd1b8feb	-0.037979048
35	0xbe0e7408	-0.1391145
36	0x3db64b16	0.0890104
37	0xbe38491d	-0.1799664
38	0x3b830324	0.003998177
39	0xbdda1ee2	-0.10650422
40	0x3e3fded4	0.18737346
41	0xbe00f183	-0.1259213
42	0x3c81c638	0.015841588
43	0xbe4034b9	-0.18770112
44	0xbded559e	-0.11588596
45	0x3e837c4c	0.25680768
46	0x3d909019	0.070587344
47	0xbdd7c3b3	-0.105353735
48	0x3e8fddc8	0.28098893
49	0xbe2eb5ba	-0.1706151
50	0xbdb84c58	-0.089989364
51	0x3dac98a0	0.084275484
52	0x3e025c15	0.12730439
53	0x3e11d425	0.14241083
54	0x3d244312	0.040103026
55	0x3ca6954f	0.020334868
56	0xbdc424a1	-0.09577299
57	0x3e1397b8	0.14413345
58	0x3dc586c9	0.09644849
59	0x3dab525b	0.083653174
60	0x3dc677d2	0.09690823
61	0x3a0acf95	0.00052952144
62	0xbda88340	-0.08228159
63	0x3defcbe0	0.11708808
64	0x3deb8825	0.11500577
65	0xbe034ea0	-0.12822962
66	0xbe073ad4	-0.13206035
67	0x3d25e0f6	0.040497743
68	0xbc872e10	-0.016501456
69	0x3e7fcd46	0.2498065
70	0x3bd2f9b2	0.0064384574
71	0xbe31e754	-0.17373401
72	0xbdd40828	-0.10353118
73	0xbd14f3ca	-0.036365308
74	0x3ebe54e8	0.37174153
75	0xbd7ea4c1	-0.06216884
76	0x3e5ab1f0	0.2135694
77	0x3e0d9c36	0.13829121
78	0x3dda09d7	0.10646408
79	0x3e392d35	0.18083651
80	0x3ddefffa	0.108886674
81	0xbbe42c39	-0.0069632796
82	0x3dce7e9c	0.100827426
83	0x3e16eb35	0.14738162
84	0x3e08ff76	0.133787
85	0xbde23443	-0.110451244
86	0xbe17a39e	-0.14808509
87	0xbe546213	-0.20740537
88	0xbe290ccc	-0.16508788
89	0xbe403054	-0.18768436
90	0x3e1c2e1f	0.15251969
91	0xbe285a81	-0.16440775
92	0x3e79fd78	0.24413097
93	0xbdd2e810	-0.10298169
94	0x3dd9e9dd	0.10640309
95	0xbe5a42ec	-0.21314591
96	0xbe23cc3c	-0.15995878
97	0x3d872875	0.065995134
98	0xbe5a80a1	-0.2133813
99	0x3d69da2a	0.057092823
100	0x3d8a40f3	0.06750669
101	0x3e7715db	0.24129431
102	0xbe1fe765	-0.15615614
103	0xbde4169e	-0.111371264
104	0xbdf14020	-0.11779809
105	0xbd73ff74	-0.05956979
106	0x3e08f281	0.13373758
107	0xbe47309c	-0.19452137
108	0xbe0fb0e4	-0.14032322
109	0xbcbb26b6	-0.022845607
110	0x3d2469e1	0.040140036
111	0xbce491a7	-0.027901484
112	0xbe1ea914	-0.15494186
113	0x3dee244e	0.11628018
114	0xbb1679a8	-0.0022960696
115	0x3e246665	0.16054685
116	0xbdcdb6e8	-0.10044652
117	0xbe190761	-0.14944221
118	0xbd7e15c6	-0.062032484
119	0xbd1d75b5	-0.038442332
120	0xbd299e70	-0.041410863
121	0xbe3ea5a9	-0.18617882
122	0xbe43319f	-0.19061898
123	0x3e77be43	0.24193673
124	0xbd10eaa6	-0.03538003
125	0xbe484004	-0.1955567
126	0xbdbe4bb5	-0.09291784
127	0x3e237d9f	0.1596589
128	0xbdc21861	-0.09477306
129	0xbd84e993	-0.06489863
130	0x3d47e0a9	0.048798237
131	0xbe3a1a44	-0.18174082
132	0xbe4de654	-0.20107394
133	0x3ddacbb5	0.10683385
134	0x3e89a0a4	0.26880372
135	0x3e1098aa	0.14120737
136	0xbe87aca0	-0.2649889
137	0x3e0f8c63	0.14018397
138	0x3de827ed	0.1133574
139	0x3c79853e	0.015229521
140	0x3d332d0e	0.04374414
141	0xbe8a2580	-0.26981735
142	0x3d8eb901	0.069688804
143	0x3e232986	0.15933809
144	0x3c84b0af	0.01619753
145	0xbe59919c	-0.21246952
146	0x3e16fc55	0.14744695
147	0xbd8da264	-0.06915739
148	0x3e78eac8	0.24308312
149	0x3c618a6f	0.013765915
150	0x3d94c21e	0.072635874
151	0xbd66e308	-0.056368858
152	0xbbb4c9a0	-0.0055171996
153	0x3e39bd04	0.1813851
154	0xbe452e76	-0.19256005
155	0xbce03dfc	-0.027373306
156	0xbdcb8162	-0.09936787
157	0x3da809f4	0.082050234
158	0x3c36db57	0.011160693
159	0x3dcec228	0.10095626
160	0x3d6eca9e	0.0582987
161	0xbe31f5a4	-0.1737886
162	0x3e0eb009	0.1393434
163	0xbe36179e	-0.17782447
164	0xbe079f2e	-0.13244316
165	0xbcce246c	-0.025163852
166	0x3ed7436a	0.4204362
167	0xbe667024	-0.22503716
168	0x3ef97345	0.48720756
169	0xbe5276ae	-0.20553085
170	0xbe048f93	-0.12945394
171	0xbe112303	-0.14173512
172	0xbe0fbd5c	-0.14037079
173	0x3de7d107	0.11319166
174	0xbd513a33	-0.051080894
175	0x3e51df47	0.2049533
176	0xbe14bafb	-0.14524452
177	0xbde66396	-0.11249463
178	0xbe3d59a0	-0.1849122
179	0x3e78b7b0	0.24288821
180	0x3ccea7be	0.02522647
181	0xbe3f12b7	-0.18659483
182	0x3e16b959	0.14719142
183	0xbdab8024	-0.0837405
184	0x3d5c89d0	0.053842366
185	0xbd9bc9d0	-0.07606852
186	0x3e647ee8	0.22314036
187	0xbe742915	-0.23843797
188	0xbe4637fb	-0.19357292
189	0xbd3f3574	-0.046681836
190	0x3be4d2a2	0.006983117
191	0xbe6b56cf	-0.22982334
192	0x3ebd0b6f	0.36922786
193	0xbe97037b	-0.29494843
194	0x3ea6bfa7	0.32568094
195	0xbc8456b8	-0.016154632
196	0xbe10a23b	-0.14124386
197	0x3daedc87	0.08538156
198	0xbe3d703e	-0.18499848
199	0xbe2fd198	-0.17169797
200	0xbdda433a	-0.10657354
201	0xbe39eebb	-0.18157475
202	0xbe2bcae2	-0.16776612
203	0x3e7a5fd5	0.2445062
204	0xbe2754ce	-0.16340944
205	0x3e9e0450	0.30862665
206	0x3d2db8d1	0.042412583
207	0x3df04cb7	0.11733382
208	0xbe21cb22	-0.15800145
209	0x3e658006	0.22412118
210	0xbd08e82a	-0.033424534
211	0x3c21c185	0.009872799
212	0xbe0b46e6	-0.13601264
213	0x3cdef3cc	0.02721586
214	0xbd14e90c	-0.036355063
215	0xbe42c85f	-0.19021748
216	0x3e6f987b	0.2339801
217	0x3e0fc2fb	0.14039223
218	0xbe25f23c	-0.16205686
219	0xbe232ee5	-0.15935858
220	0x3bd07694	0.006361792
221	0xbe7de9b1	-0.24796177
222	0x3e538f73	0.2066019
223	0xbe2c2c41	-0.16813757
224	0x3e939020	0.28820896
225	0xbd823519	-0.06357784
226	0xbe860b6d	-0.26180592
227	0xbe62a0c9	-0.22131647
228	0xbe1c3ba6	-0.15257129
229	0x3ddffc95	0.10936848
230	0xbd478cc9	-0.048718248
231	0x3dd1654e	0.102244005
232	0x3e153539	0.14571084
233	0x3d9fd226	0.078037545
234	0x3d80e920	0.06294465
235	0x3df55edf	0.11980986
236	0x3e0f0ac0	0.13968945
237	0x3ea28e85	0.3174936
238	0x3d3332fe	0.0437498
239	0xbdb6d782	-0.089278236
240	0x3d5a3468	0.053272635
241	0x3c4c55ef	0.01247166
242	0xbd58322b	-0.05278222
243	0x3c9daaf0	0.019246548
244	0xbdf04b92	-0.11733164
245	0xbcbbcdbc	-0.02292525
246	0xbd94c013	-0.07263198
247	0xbe0797a7	-0.13241445
248	0xbda200cc	-0.07910308
249	0x3e26630d	0.16248722

parameterizer.cl_layers.0.bias f4 [10]
0	0x3dcc14f5	0.09964935
1	0x3e22b773	0.15890293
2	0xbe1f64f7	-0.15565859
3	0x3ce215d4	0.0275983
4	0x3ccbb155	0.024864832
5	0x3d9bc677	0.076062135
6	0xbdca945a	-0.09891577
7	0xbe3e7a04	-0.18601233
8	0xbd5bdf70	-0.053679883
9	0xbc4b8fe2	-0.012424441

parameterizer.cl_layers.3.weight f4 [20, 10, 5, 5]
0	0x3c3d5a87	0.011557228
1	0xbd044615	-0.032293398
2	0xbd22219c	-0.039582834
3	0xbe00638c	-0.12537974
4	0xbc98e40b	-0.018663427
5	0x3c787a76	0.015165916
6	0x3c37c036	0.01121526
7	0xbd884c69	-0.06655199
8	0xbcc19c63	-0.023634141
9	0xbd19833f	-0.03747868
10	0xbd6981ae	-0.057008438
11	0x3c9baa56	0.019002121
12	0xbd1c338f	-0.038135108
13	0xbd80d05f	-0.06289744
14	0x3bb65f43	0.0055655553
15	0x3d4d6934	0.050149158
16	0x3d17675b	0.0369638
17	0xbd387311	-0.04503161
18	0xbcbd21d5	-0.023087421
19	0x3cdbc6d8	0.026828215
20	0xbb07c669	-0.0020717627
21	0x3c949611	0.018137963
22	0x3ce51254	0.027962841
23	0x3ba6f1b2	0.0050947303
24	0xbd03d66e	-0.032186918
25	0xbbbe23f1	-0.0058026244
26	0x3d79f527	0.06102481
27	0xbd8f5954	-0.0699946
28	0xbd685127	-0.056718018
29	0xbc807041	-0.015678527
30	0xbd1c9491	-0.03822762
31	0xbc8cbf0a	-0.017180938
32	0xbda16b15	-0.078817524
33	0xbd5c88ec	-0.053841516
34	0x3d0d9ce7	0.03457346
35	0xbc7ded77	-0.015498511
36	0xbd0f3032	-0.034958072
37	0x3cf5d91b	0.03001075
38	0xbbc1c0f2	-0.0059128935
39	0x3cebb8a0	0.02877456
40	0xbcdf44fe	-0.027254578
41	0x3c9d0ea4	0.01917202
42	0xbba660d3	-0.0050774603
43	0xbd354549	-0.04425553
44	0xbd3e26ef	-0.04642385
45	0x3bcad33e	0.006189733
46	0x3be87361	0.0070938324
47	0xbc6e6318	-0.014549993
48	0x3d216612	0.039403982
49	0x3ce3e0e8	0.027817205
50	0x3dd4cfa4	0.10391167
51	0x3bbaec10	0.0057044104
52	0x3d5385b6	0.05164119
53	0xbc2fc960	-0.010729164
54	0x3c9714a4	0.01844246
55	0x3b9b926b	0.004747679
56	0xbc8db2e9	-0.017297225
57	0x3d3b611b	0.045746904
58	0xbcc52f03	-0.024070268
59	0xbce97cf2	-0.028501961
60	0x3ccb4f18	0.024817988
61	0x3cc22a7c	0.023701899
62	0xbd262ca0	-0.0405699
63	0xbcf42afc	-0.029805653
64	0xbc52a22a	-0.012856046
65	0x3b7d40af	0.003864329
66	0x3d4a724c	0.04942541
67	0xbb597755	-0.00331827
68	0x3c3fd4aa	0.011708418
69	0xbd8de172	-0.06927766
70	0xbbacf357	-0.005278032
71	0x3c403578	0.011731498
72	0x3da29682	0.07938863
73	0x3d4deb7d	0.050273407
74	0x3ca815f0	0.020518273
75	0x3c3b9c47	0.011450834
76	0xbc889f01	-0.016677381
77	0xbbc03bb3	-0.0058664917
78	0xbd312f2a	-0.04325787
79	0xbcc58dc3	-0.024115449
80	0xbcbab103	-0.022789484
81	0xbc0af84e	-0.008482052
82	0xbce7a4d7	-0.028276844
83	0x3c8d14be	0.017221805
84	0xbd5121cd	-0.051057626
85	0x3c72430b	0.014786492
86	0xbc8b8eda	-0.01703589
87	0xbd89e8aa	-0.0673383
88	0xbdd3607b	-0.103211366
89	0x3c5cb0e2	0.0134699065
90	0x3c0ae62b	0.008477728
91	0x3ce3e9aa	0.02782138
92	0x3c2d08b2	0.010561155
93	0xbcaad898	-0.020855233
94	0xbce0f12d	-0.027458752
95	0x3d86a916	0.06575219
96	0xbcfacae7	-0.03061433
97	0xbcf9406d	-0.030426228
98	0x3cecd160	0.028908432
99	0xbd3ac974	-0.045602277
100	0xbbdb17c7	-0.006686184
101	0xbcde77ce	-0.027156737
102	0x3bdaac44	0.0066733677
103	0x3d4f6b99	0.050639722
104	0xbc30ed0b	-0.010798703
105	0x3ca7ada2	0.020468537
106	0xbc8e9534	-0.01740513
107	0xbd28883a	-0.04114554
108	0xbd18b091	-0.03727776
109	0x3d54f505	0.05199148
110	0x3bd9e790	0.006649919
111	0x3c767fa6	0.015045082
112	0x3d98318d	0.07431326
113	0xbc55bace	-0.013045026
114	0x3d75453b	0.059880476
115	0xbb5b1135	-0.0033427004
116	0x3d6aa10e	0.0572825
117	0xbc837493	-0.016046798
118	0x3d2c0c34	0.042003825
119	0xbd0f12d1	-0.034930054
120	0x3d93e3ef	0.07221209
121	0x3c54ad8c	0.01298083
122	0x3b39d2ce	0.002835441
123	0xbca3e166	-0.02000494
124	0x3d0704b8	0.032963485
125	0xbcdd47ec	-0.027011834
126	0x3cd8d2f1	0.026467772
127	0x3cf526ce	0.02992573
128	0x3d85e43a	0.065376714
129	0x3d82f7fe	0.06394957
130	0xbc2acf15	-0.010425349
131	0x3d3b23c4	0.045688406
132	0x3daf2b44	0.08553174
133	0x3d8acf61	0.06777836
134	0x3c150aa6	0.009096777
135	0xbcab08a4	-0.020878144
136	0x3d2edec8	0.04269293
137	0x3d3ecb95	0.04658087
138	0x3d4d1b4d	0.050074864
139	0xbb5489a3	-0.003243067
140	0x3b66a153	0.0035191372
141	0xbb42ac77	-0.0029704848
142	0x3d2409cb	0.0400484
143	0x3dac2071	0.08404625
144	0xbd803f67	-0.06262093
145	0xbc1e3abd	-0.009657559
146	0xbd0bbe6a	-0.03411714
147	0xbd07be4b	-0.033140462
148	0xbd70a230	-0.058748424
149	0xbc81e079	-0.015854107
150	0xbc565ba2	-0.01308337
151	0x3de4578b	0.1114951
152	0x3db9667c	0.090527505
153	0x3b68cc8b	0.0035522308
154	0x3c4fa8ea	0.01267455
155	0xbd3a7d1e	-0.045529477
156	0xbd6659ba	-0.056237914
157	0xbbc59121	-0.0060292636
158	0xbcaa3d67	-0.020781232
159	0x3c942032	0.018081758
160	0x3d28fe00	0.04125786
161	0xbadc832e	-0.0016823763
162	0x3d0f12c2	0.03493
163	0x3d233baa	0.039851822
164	0x3b6c8674	0.0036090882
165	0x3d582fb0	0.052779853
166	0x3d7f76fc	0.06236933
167	0x3b8d1559	0.0043055234
168	0xbc953207	-0.018212331
169	0x3d0d22a4	0.034456864
170	0x3cd7e9fe	0.026356693
171	0xbd075c96	-0.03304728
172	0x3ce85655	0.028361479
173	0x3ce6e7b8	0.028186664
174	0x3cde2833	0.027118778
175	0xbcac911c	-0.021065287
176	0x3dbe38f5	0.092882074
177	0x3d13b824	0.036064282
178	0xbd92f156	-0.071749374
179	0xbd08bc17	-0.0333825
180	0xbdbbf6e4	-0.0917795
181	0x3c84c694	0.01620797
182	0x3d417cc5	0.04723813
183	0x39204aa1	0.0001528659
184	0xbb978733	-0.0046242713
185	0xbd979eb9	-0.07403321
186	0xba864414	-0.0010243678
187	0x3bdeb89a	0.0067969086
188	0x3d916792	0.070998326
189	0xbc56a714	-0.013101358
190	0xbcdca3d5	-0.02693359
191	0xbd30ca86	-0.04316189
192	0x3c06e2bd	0.00823277
193	0x3cb0eb7d	0.021596665
194	0x3d495eb2	0.049162574
195	0xbd173f68	-0.036925703
196	0xbd4b2851	-0.049598996
197	0x3cd49c6c	0.025953494
198	0x3c13c2bc	0.009018596
199	0xbd99658a	-0.0749007
200	0x3cab264b	0.020892283
201	0x3df5adbf	0.1199603
202	0x3d87277c	0.06599328
203	0x3da4e8bd	0.08052204
204	0xbc34fc05	-0.011046414
205	0xbd2bc148	-0.041932374
206	0x3d27408d	0.040833045
207	0x3d57583e	0.05257439
208	0x3d25fe07	0.040525462
209	0x3d15bff5	0.036560018
210	0xbd21ecc7	-0.03953245
211	0xbc0a2a93	-0.008433002
212	0x3d0ef5f9	0.034902547
213	0xbd22a6df	-0.039709922
214	0xbcbe0f16	-0.023200553
215	0x3d5a776e	0.053336553
216	0xbd533537	-0.05156442
217	0x3c7840ce	0.015152169
218	0xbcf3c177	-0.029755337
219	0xbd625b95	-0.05526312
220	0xbcdb8952	-0.026798878
221	0x3cd8ab96	0.026449006
222	0x3d0021d8	0.031282276
223	0x3cdb799f	0.026791392
224	0x3c6a9e5b	0.014319981
225	0x3d819da8	0.06328899
226	0x3d84e8ae	0.06489693
227	0xbd404773	-0.04694314
228	0xbbfaa8f6	-0.0076495362
229	0x3cf79eaa	0.030227024
230	0xbcb0c78f	-0.021579532
231	0x3d05deca	0.03268317
232	0x3c261927	0.010137833
233	0xbc486623	-0.012231383
234	0x3da14f0d	0.07876406
235	0x3cd9a86c	0.026569568
236	0x3d674413	0.056461405
237	0x3cc4991d	0.023998791
238	0x3bf08172	0.00733965
239	0x3d90bf87	0.07067781
240	0x3d8505d3	0.064952515
241	0x3d1d7b2c	0.038447544
242	0xbc8dff39	-0.017333614
243	0xbcf86322	-0.030320708
244	0x3d2c67a3	0.042091023
245	0x3c18d22a	0.009327451
246	0x3c92da91	0.017926486
247	0xbb8b333b	-0.0042480505
248	0xbbc67cf3	-0.0060573756
249	0x3ba96e08	0.0051705875
250	0x3cb5790c	0.022152446
251	0x39a72fd4	0.00031888357
252	0x3da2b767	0.079451375
253	0x3c90c48f	0.017671851
254	0x3d293d5a	0.041318275
255	0x3c4e9a7b	0.012610073

parameterizer.cl_layers.3.bias f4 [20]
0	0x3d84a86f	0.06477439
1	0xbd023af8	-0.03179452
2	0x3ca67994	0.020321645
3	0x3d8436ed	0.06455789
4	0xbd2aa2d3	-0.041659188
5	0x3c680461	0.0141612
6	0x3d82bf37	0.063841276
7	0xbd3bd329	-0.045855675
8	0x3d0643ab	0.032779377
9	0xbcb4d43c	-0.022073857
10	0x3cb53a9b	0.022122672
11	0xbcd2f2d5	-0.025750557
12	0xbc103da7	-0.008803762
13	0xbc251ac1	-0.010077179
14	0xbd886779	-0.06660361
15	0x3c352cd1	0.011058048
16	0xbb70c722	-0.0036739786
17	0x3ba6f917	0.005095612
18	0xbd1a3baf	-0.037654575
19	0xbcc1538a	-0.023599405
