results/CONF_FASHION_MNIST/checkpoints/Epoch[34]-Step[9450].pt (torch, 374454 bytes, 66 tensors)

conceptizer.encoder.0.0.weight f4 [10, 1, 5, 5]
000000 43 59 ed bd b9 6c 06 3e 89 80 44 3e 55 4a 20 3e
       -0.11589291 0.13127412 0.19189657 0.15653355
000010 e4 14 55 3e 95 99 69 bd 88 a1 62 bb 18 eb b4 3c
       0.2080875 -0.057031233 -0.0034581143 0.022084758
000020 ae 64 f5 3d 32 cb 02 bd 0f c5 7e 3d 19 a4 ea 3d
       0.11982094 -0.031932063 0.06219965 0.114570804
000030 e4 8d d9 bd 71 71 02 3e b4 8e a0 bb 41 74 5f 3e
       -0.106227666 0.12738587 -0.004899824 0.21821691
000040 fc 03 1f 3e 86 8b 22 3e 44 ed ab 3d a6 51 44 bd
       0.15528864 0.15873536 0.08394864 -0.04792943
000050 ac cb bf 3e c5 a0 6b bc 36 c0 1f be 3a d0 fb bd
       0.37460077 -0.014381592 -0.15600666 -0.122955754
000060 ad 62 ae 3d f8 c7 9e bd dc f3 b8 3d 52 95 09 be
       0.08514915 -0.07752985 0.090308875 -0.13435867
000070 32 98 ff bd 6f 49 37 be 94 52 84 ba 51 b4 85 bd
       -0.12480201 -0.17899106 -0.0010095411 -0.06528533
000080 4d 32 1b be 1e 83 5a 3c 24 7d 2a be dd c6 f9 3d
       -0.15155907 0.013336925 -0.166493 0.12196133
000090 6c ed c8 bd f6 95 19 bd f4 d8 07 be 6b d7 21 be
       -0.0981091 -0.03749653 -0.13266355 -0.15804832
0000a0 74 3c 37 be c7 01 9f bc f4 0f c1 bc 2b 22 8d 3d
       -0.17894155 -0.019410027 -0.023567177 0.06891283
0000b0 12 12 70 bd 9b 1e 2b 3a 5c 1c 2d 3d d5 94 9a bd
       -0.058610983 0.0006527693 0.042263374 -0.07547919
0000c0 4f 9b 30 be 61 1f 0e bd 0c a6 d2 3c a6 03 f3 bd
       -0.17246746 -0.034697894 0.025713943 -0.1186593
0000d0 b8 76 cb 3d 2d b1 3f bc 68 e1 b1 bd 6b b3 80 bd
       0.09934753 -0.011699957 -0.08685571 -0.06284221
0000e0 e4 72 f9 bd 5d 64 ad bb 9c bb 02 be 1e 6e be bd
       -0.12180117 -0.0052915053 -0.1276688 -0.09298347
0000f0 cc 21 32 be 67 3b 1e 3e 42 eb 4b bd 24 85 e3 bd
       -0.17395705 0.15452348 -0.049784906 -0.11109379
000100 6b 7e 46 bb 08 92 b0 bd ee 4a f1 bc 5b 4a 37 be
       -0.0030287753 -0.08621603 -0.029454675 -0.17899458
000110 de ba 83 bd 24 a2 17 be bc 59 9f 3d a9 6f 23 3b
       -0.064321265 -0.14807945 0.07780787 0.002493838
000120 49 35 87 3d 63 d3 38 bc 1c 9f 1a be 85 f4 ca bd
       0.0660196 -0.011280867 -0.15099758 -0.0990992
000130 37 e6 54 bd 07 ac 5d 3d 24 65 74 bd 77 c4 9c bd
       -0.051977362 0.054119136 -0.059666768 -0.0765466
000140 5f f3 d9 bd da 05 2b bd ce 28 ca bd 0e 2b 36 bd
       -0.106421225 -0.041753627 -0.09871064 -0.044474654
000150 85 26 c0 3d 37 83 32 be a9 d2 36 be ba cb 62 3d
       0.09382347 -0.17432867 -0.17853798 0.05537007
000160 07 e2 15 be 33 48 c0 bc 31 c8 8c bd 78 fc ff bd
       -0.14637004 -0.023471927 -0.06874121 -0.124993265
000170 65 2a 90 3b 1e 2b 9c bd 6a 7b 6a bd b2 6c 89 bd
       0.004399585 -0.076254115 -0.057246603 -0.06710185
000180 56 74 54 bd e2 ce 47 be 2a 1b 98 bd f6 11 65 3d
       -0.05186876 -0.19512513 -0.07427056 0.055925332
000190 a9 c5 2c 3d 85 c3 3c be 0c f0 8b 3d fb 39 a3 3d
       0.04218069 -0.1843396 0.06832895 0.07970043
0001a0 ca 4d 0f 3e d8 78 0a 3b c2 55 44 be 4a 9d 54 3c
       0.13994518 0.0021129157 -0.19173339 0.012976954
0001b0 88 39 fa 3d e8 f1 39 be b4 b7 90 3c 88 f4 91 3c
       0.122180045 -0.18158686 0.017665721 0.017816797
0001c0 7e 7f 0a be e5 d6 27 be 29 65 42 bd 85 dc 55 bd
       -0.13525197 -0.1639057 -0.047459755 -0.052212257
0001d0 25 70 ef bd dd d0 ab 3d 3b 34 1d be ac 1c a0 3b
       -0.11691312 0.08389447 -0.15351956 0.0048862305
0001e0 f5 59 95 3b 89 4c 62 3d 2e f6 ca bd 0f 24 31 be
       0.004557843 0.05524877 -0.09910236 -0.17298912
0001f0 e0 62 12 bd 1f 16 30 bb 3c 51 b5 3d dd 8e 1a 3d
       -0.035738826 -0.0026868654 0.08853385 0.0377339
000200 2e 70 6b 3c e5 c1 89 bd f3 96 88 bd 0a 4b 1a be
       0.014370007 -0.067264356 -0.06669416 -0.15067688
000210 aa 92 18 3d 85 65 14 3b 36 db 2a be 05 8e 1c 3e
       0.037249245 0.0022643518 -0.16685185 0.15288551
000220 10 0c 4a 3d 88 26 b9 3d 8e ab b7 bd f1 e8 40 be
       0.04932791 0.090405524 -0.08968268 -0.1883886
000230 c3 7a e3 bd d6 71 47 3e 13 b9 38 3e db 56 82 bd
       -0.11107399 0.19477019 0.1803935 -0.063642226
000240 08 eb 69 be d3 17 2f 3e e7 2a 9c 3e 57 06 42 3e
       -0.22843564 0.17098932 0.30501482 0.18947731
000250 49 1f 37 be a4 6a fe bd 05 33 4a 3e 13 76 eb bd
       -0.17883028 -0.12422684 0.19746025 -0.1149713
000260 fd c3 7a 3d 9e 35 4f 3e 65 45 64 3e 4f 68 a2 bc
       0.061222065 0.20235297 0.22292097 -0.019825129
000270 90 8a fc 3d 26 59 6b bc 92 e1 01 3e 88 31 20 3e
       0.12331116 -0.014364516 0.12683704 0.15643895
000280 c0 38 7b bd d5 8a 0a bd 08 64 3e bd 9a 8b cd bd
       -0.061333418 -0.033823807 -0.046482116 -0.100363925
000290 fb 02 01 be 19 ae f7 bd b9 93 28 3e bd fe 8b 3d
       -0.12598793 -0.12093753 0.16462602 0.06835697
0002a0 16 37 ba bd 44 b1 34 be a3 4c 02 be 67 41 02 bc
       -0.09092538 -0.17645746 -0.12724547 -0.007950163
0002b0 36 c5 45 be 3c 2e 1f bd 84 e2 75 bd 4c 0e d8 bd
       -0.19313511 -0.038862452 -0.060030475 -0.10549602
0002c0 9e 61 9d bd ab 79 58 be 62 7e 6a be 9d a6 8a 3d
       -0.076846346 -0.21140163 -0.22899774 0.0677006
0002d0 0e 54 d5 bd aa a5 36 be 54 42 16 bd 22 74 1d 3c
       -0.10416423 -0.17836633 -0.03668435 0.009610208
0002e0 87 ab dc bc 88 19 8f 3d ea 0a b7 bd c4 e5 18 3d
       -0.02693726 0.069872916 -0.089376286 0.037328497
0002f0 5d e0 2c 3e c1 f5 ee 3d bd 12 4e 3e c0 d0 10 bd
       0.16882463 0.116679676 0.20124336 -0.03535533
000300 05 11 8f 3d 82 d7 12 bd ad eb 2d bd 3d 21 3d 3e
       0.06985668 -0.035850056 -0.042461086 0.1846971
000310 9f 61 8b 3e 70 df 66 bd 83 e7 71 3c d8 86 a0 3d
       0.27222916 -0.05636543 0.014764669 0.078382194
000320 26 80 68 3e fa 9d d9 3d a5 12 6a 3c cd 49 6c 3c
       0.22705135 0.10625835 0.014286672 0.014421892
000330 c4 53 9a bd 1a 05 5d 3e c7 bf d5 3d a2 c6 0e be
       -0.07535508 0.21583977 0.10436969 -0.1394296
000340 35 72 1d be af 1b 0c 3e 05 7c 5f 3e 81 34 96 bd
       -0.15375598 0.13682435 0.21824653 -0.07334233
000350 36 07 92 bd 37 75 f0 bd 66 93 2b be 00 76 0d 3e
       -0.071302816 -0.11741107 -0.16755447 0.13814545
000360 1b e9 11 3d 1e 59 a6 3d 51 87 27 be 27 75 39 bd
       0.035622697 0.081224665 -0.16360213 -0.04527774
000370 df 2b 24 be 39 7d 6d 3d d5 cf 8f bd 0b da c7 bd
       -0.1603236 0.05798075 -0.07022063 -0.09758385
000380 44 08 bc 3d 0a 7b 06 3e ba bf 96 3e 33 67 72 3e
       0.09181264 0.13132873 0.2944315 0.2367218
000390 e7 7a c5 3d fe c2 71 3d 75 cd be bd 11 a4 17 3d
       0.096425824 0.05902385 -0.093165316 0.0370217
0003a0 c1 25 11 3e 87 e0 f8 bd fe 02 06 3d a0 97 85 bc
       0.14174558 -0.121522 0.032717697 -0.016307652
0003b0 0b 91 90 3d 87 c3 0c 3e 11 36 0b be 22 d3 84 3d
       0.07058915 0.13746463 -0.13594843 0.06485583
0003c0 3e c9 13 be 12 52 9d 3d c0 3a a0 bc c8 df f8 bd
       -0.14432237 0.07681669 -0.019559264 -0.12152058
0003d0 78 3a 66 3d 96 3d 7b bd c6 d3 81 3d f0 06 99 3e
       0.056208104 -0.06133803 0.06339221 0.29888105
0003e0 89 b3 84 3e e4 c1 cd 3d
       0.25918224 0.10046747

conceptizer.encoder.0.0.bias f4 [10]
000000 17 fc 18 3e 82 7c e3 3d f2 79 66 3e 53 93 98 bd
       0.14939915 0.11107732 0.22507456 -0.07449975
000010 3c 35 5b 3e af ee 91 3d 34 4d 3f bd 9d dd 4d 3d
       0.21407026 0.071256034 -0.046704486 0.050260175
000020 e0 c3 cb 3d 82 3c 05 3e
       0.099494696 0.13011363

conceptizer.encoder.1.0.weight f4 [5, 10, 5, 5]
000000 ab 8f 62 bd de 06 85 bd ef 5b 04 3d 82 34 9b 3d
       -0.055312794 -0.064954504 0.032314237 0.075783744
000010 44 2d 4a 3d 74 c7 1c bc b1 b1 00 3d c1 6f 7b bc
       0.049359575 -0.009569038 0.03141946 -0.015346468
000020 0d af ca bc 77 0d 93 3d 6f 79 61 bd 32 1f 83 bb
       -0.024741674 0.071803026 -0.05504745 -0.0040015215
000030 0e d0 84 bc a9 a9 43 3d 15 64 79 3c 0b 67 69 bb
       -0.01621249 0.047769222 0.015221615 -0.0035614397
000040 80 b0 0a 3d e0 42 69 3d ee 26 51 3c e7 d4 05 bc
       0.03385973 0.056948543 0.012765629 -0.008168436
000050 b0 57 c6 bc 0a 23 37 bc 6a 41 c6 3c 6c a7 14 3d
       -0.024211735 -0.011177788 0.024201114 0.03629248
000060 a1 97 24 bd 05 84 86 3d 96 df bb 3b 02 ba 3e 3b
       -0.040183667 0.065681495 0.0057334406 0.0029102569
000070 11 d5 11 bc c3 1e 64 bb d8 a7 86 3d 86 cb 33 3c
       -0.008900897 -0.0034808374 0.065749824 0.010973817
000080 25 b7 52 bd 3e c6 0c 3d a8 49 87 3d a4 83 c0 3c
       -0.05144419 0.034368746 0.06605846 0.023500271
000090 77 37 0f 3d 83 3f 15 3d e8 39 93 3c 33 62 99 3c
       0.034965005 0.036437523 0.017971948 0.018723583
0000a0 2b 90 e7 bc 83 05 a5 bb 6a 56 4a bd 0c 96 b9 3d
       -0.028266987 -0.0050360574 -0.049398817 0.09061822
0000b0 eb d6 86 3d d0 91 9f 3c 17 c7 94 3d 63 54 08 3b
       0.06583961 0.019478709 0.07264536 0.0020802252
0000c0 f0 4f 1b 3c 05 81 2e bc c2 7c fa 3c 28 4b 20 bc
       0.009479508 -0.010650878 0.030577067 -0.009783544
0000d0 d3 74 b6 bc 87 96 ce bc fe 95 ad bc 6c d8 3c 3c
       -0.022272503 -0.025218261 -0.021189686 0.011526208
0000e0 f7 ed 38 bb 6b 9e 19 3d eb c4 a3 bc 73 c4 c8 3d
       -0.002821801 0.037504595 -0.019991359 0.09803095
0000f0 b8 b2 38 3d a2 52 11 3d 9c 85 96 3c 4c bc de bb
       0.045092314 0.035479195 0.018374257 -0.006797349
000100 51 b6 e0 3c 55 cc 13 3d 75 f4 39 3b 7a c3 a9 bc
       0.027430685 0.036083538 0.0028374468 -0.020723093
000110 a5 08 f6 3c 2a f6 8b bc b4 ca 0b 3d 1d b2 34 bc
       0.030033419 -0.017085154 0.03412886 -0.011028794
000120 cd fa 4a 3d 1b a0 81 3d 3e 2b d6 3c e0 c8 16 bd
       0.04955559 0.06329366 0.026143666 -0.036812663
000130 9b a5 20 bd 38 6d 3a bd 7c 11 6a ba cd c4 34 3d
       -0.039220434 -0.045514315 -0.0008928997 0.044132996
000140 9b 57 9a 3d c6 34 1f 3d 7e 46 ea bc 90 d3 99 3d
       0.07536241 0.038868688 -0.028598066 0.075110555
000150 3f 99 94 3d 33 ed a4 3d f2 6c 20 bc b3 26 17 39
       0.07255792 0.08053055 -0.0097916 0.00014414899
000160 5d 40 e5 3c 8d 10 13 3c 53 df 86 bd 7d d8 29 bd
       0.027984792 0.008976114 -0.065855645 -0.041466225
000170 c8 4f 08 bc a0 fa 39 3d ae 46 e8 3c 5f 27 7c 3c
       -0.008319803 0.04540503 0.028354015 0.015390246
000180 4e 77 ba 38 b9 0e 67 3d 99 38 b0 3d c7 ad 99 3d
       8.8913934e-05 0.056410525 0.08604545 0.075038485
000190 b9 51 1e 3d a2 e1 03 bd 4b a6 f9 bb 7f bb a6 3c
       0.038652156 -0.032197602 -0.0076187006 0.020353077
0001a0 10 11 78 3c 61 ec e5 bc e8 f6 94 bc ac b2 1c bc
       0.015140787 -0.028066816 -0.01818414 -0.009564083
0001b0 94 2e 75 3d f0 8d 80 3d 93 1e 01 3d 5a 88 01 bd
       0.059858873 0.062770724 0.0315233 -0.031624176
0001c0 0e 85 90 3d 0a 8f 18 bc ad de 39 bc 71 be 0a bd
       0.07056628 -0.009311447 -0.011344594 -0.033873025
0001d0 e4 68 01 3d 76 96 9d 3c 7e 04 d1 3c a6 9b e4 3c
       0.031594172 0.019236784 0.025514837 0.02790625
0001e0 e6 cf 7b bd 89 11 d8 3c 94 dc 09 3d 2f 74 38 3d
       -0.061477564 0.026375549 0.033657625 0.045032676
0001f0 5d 0d 49 3c dc 74 e8 bb f1 5a 2e 3d c4 60 bd 3c
       0.012271252 -0.007094009 0.042567197 0.02311743
000200 40 8b 84 3b e5 3f f9 3b 3a e2 20 bc ef 69 f2 3c
       0.00404492 0.007606494 -0.009819562 0.029591529
000210 d4 2d 4d bc 4d fc b6 bc c7 e1 ec 3b 9b 02 46 3c
       -0.012523133 -0.022337103 0.007229063 0.012085582
000220 ca a3 6b bb a0 99 6d 3c 1d 90 2d bd 75 c7 05 bb
       -0.003595578 0.014501959 -0.042373765 -0.0020413075
000230 1e 5c d5 3c 67 e3 ba bc 03 dd 11 3c 29 5a 16 bd
       0.026044901 -0.022813512 0.008902791 -0.036707077
000240 c9 c7 66 3c cc a1 f1 3c 20 1b 09 3d 2c 77 96 bd
       0.014085718 0.029496096 0.033473134 -0.07346949
000250 87 22 1f bd 6b 37 ae bb 5c f3 b6 3b 61 79 e5 bc
       -0.038851287 -0.005316665 0.00558321 -0.02801198
000260 fd 4a df 3b d0 20 a8 bb f2 14 19 3e 3b e6 0a bd
       0.006814359 -0.0051308647 0.14949396 -0.03391097
000270 ab f7 4b bc 34 09 00 3d ea bb 88 bd 08 b4 70 3c
       -0.012449185 0.031258777 -0.06676467 0.01469136
000280 90 13 10 3d 47 c5 18 3d e0 b6 ad 3b 19 5b ad bb
       0.035174906 0.037297513 0.0053013414 -0.0052904007
000290 4a f4 d5 3c 12 80 5b 3d 98 b3 f8 bb 52 be 4f bb
       0.026117463 0.053588934 -0.0075897686 -0.0031699133
0002a0 05 c1 b6 3b b6 85 a2 bc 42 8c 16 bd 02 be 6f bb
       0.005577209 -0.019839149 -0.036754854 -0.003658176
0002b0 9f 9c 46 3d 98 a7 f2 bb 1f 51 95 3c 87 be d0 bb
       0.04848921 -0.0074052326 0.018227158 -0.006370369
0002c0 25 8d 80 bc 29 74 20 bc 1c 14 3c bb d5 72 b1 3c
       -0.015692303 -0.00979332 -0.002869851 0.021661201
0002d0 a5 88 54 bc c5 6d 14 3d 4c 89 7a bd 8f bc 36 3c
       -0.012972032 0.036237497 -0.061166093 0.011153354
0002e0 ff c0 60 bd 01 7b e5 3b 00 7d a4 3c 46 bb 0a bc
       -0.054871555 0.0070031886 0.020079136 -0.008467501
0002f0 9e 9e b9 3b 01 db 94 bb c0 e8 5b 3d 37 c4 30 3d
       0.0056646606 -0.004542709 0.053688765 0.043155875
000300 8b ae 2a bc 39 ee fb bb 1c 0c 69 bb f3 bd 74 bd
       -0.010417591 -0.0076883105 -0.0035560196 -0.059751462
000310 61 1a 86 bd 49 15 d4 bd 6e 6b 41 3c ce 15 02 be
       -0.06548 -0.10355622 0.011805398 -0.1270363
000320 61 56 a3 bd f3 ed e2 3c 39 70 ec 3c 16 ea bb 3c
       -0.0797546 0.027701354 0.028862106 0.02293877
000330 10 ba 5d 3c bf 01 90 bd a4 f5 e9 3a 11 2d 38 3d
       0.01353313 -0.07031583 0.0017849696 0.044964854
000340 aa 43 2d bb d2 2d 0b 3d b1 42 39 bd 4e fd d1 bc
       -0.0026438036 0.033979245 -0.045229618 -0.02563348
000350 72 f9 58 bd d7 5d 02 bc 71 cc d8 bc 01 dc d6 3c
       -0.052972265 -0.0079569435 -0.026464673 0.026227953
000360 cb 6a ab 3d 8b 0d 13 3d 9c eb 13 bd 4d 26 09 3c
       0.083699785 0.035901587 -0.036113366 0.008370948
000370 e1 d2 03 3c b4 01 52 3d 43 96 3e bd cb a8 31 bc
       0.008045883 0.051271155 -0.04653002 -0.010843466
000380 16 47 93 bc 8b ee 00 bd 2c ab 65 3c 89 03 7d 3d
       -0.017978232 -0.031477492 0.014017861 0.06177095
000390 61 6b 8d 3d bc 4f b7 3d d4 cb 9e 3c ae 32 00 3c
       0.069052465 0.08950755 0.019384302 0.007824583
0003a0 e7 4b 63 bc db ad 5f bd 66 01 44 bc 4a 8c be bc
       -0.013873077 -0.05460916 -0.011963224 -0.023260254
0003b0 c3 17 e6 3a 91 65 3d bd 65 e5 76 3d ee 08 ca bb
       0.0017554689 -0.04623944 0.06027736 -0.0061656153
0003c0 97 5f 0d bc d1 04 a7 3c ea b8 50 3d 5e d1 97 3c
       -0.008628747 0.020388039 0.050957598 0.018532451
0003d0 a6 d1 6c 3c ab 63 22 bd 3f 8d 2f 3b 2f f4 26 3c
       0.014454281 -0.039645832 0.002678707 0.010190054
0003e0 87 f4 54 bd 09 3b 46 bd 16 3e c8 3d 5f 59 86 3d
       -0.051991012 -0.048396144 0.09777467 0.06560015
0003f0 b5 62 a4 3d 04 b9 2b 3d 38 4f ec bc 75 f2 f1 3b
       0.08026639 0.04192449 -0.028846368 0.0073836395

conceptizer.encoder.1.0.bias f4 [5]
000000 03 8f 6d bc ee 78 a7 3d 23 9f d1 bc 8b a2 d0 3c
       -0.014499429 0.081773624 -0.025588578 0.025468132
000010 f6 01 50 3d
       0.05078312

conceptizer.encoder.2.layers.0.weight f4 [1, 16]
000000 ad 20 9d bd 7f 41 63 be ae 9e c2 bd f9 41 1c be
       -0.07672248 -0.22192954 -0.09502922 -0.15259542
000010 ee 72 24 3e 4b 48 b8 3d 13 e9 b1 3d 1a dd b7 bd
       0.16059467 0.08998164 0.086870335 -0.08977719
000020 77 77 51 be 9d 9a 3e bd be 0f 59 be 14 4d 90 be
       -0.20455728 -0.04653417 -0.21197411 -0.28183806
000030 f2 14 b7 bc 4f d9 97 bd 5c a7 5f be db 28 13 3e
       -0.022348855 -0.07414495 -0.21841186 0.14371054

conceptizer.encoder.2.layers.1.weight f4 [1, 16]
000000 e2 d2 8a 3d ee 42 5c be 27 5c 19 be 05 68 5a bd
       0.06778504 -0.21509907 -0.1497656 -0.053321857
000010 e6 bd d6 bd 7b 17 a7 3d ae cb a3 be 82 46 bd 3d
       -0.10485439 0.081587754 -0.31991333 0.09241964
000020 17 fb 1a bc 37 0b 67 be 65 ed dd bd c2 04 c9 bb
       -0.009459279 -0.22562872 -0.10836295 -0.0061346004
000030 c4 4d 92 3d 5f f2 4e bd f0 55 10 3e a2 f7 35 3e
       0.07143739 -0.05052411 0.14095283 0.17770246

conceptizer.encoder.2.layers.2.weight f4 [1, 16]
000000 c6 aa 74 be 90 03 fa 3d 28 b2 77 3d 99 77 12 3e
       -0.2389327 0.12207711 0.060472637 0.14303435
000010 c0 44 82 bb 5d 42 67 be 7a 54 dd 3d b5 ca d6 bd
       -0.003975481 -0.2258391 0.10807128 -0.10487882
000020 f4 30 b6 be 85 b7 68 be 48 6e 07 3e 12 72 c8 bd
       -0.35584223 -0.22726257 0.13225663 -0.09787382
000030 24 bb 1a be f8 11 0a 3e db f7 97 3d 56 2f 0d be
       -0.15110451 0.13483417 0.074203216 -0.13787588

conceptizer.encoder.2.layers.3.weight f4 [1, 16]
000000 5b 2b 50 3e bc 4c 0f 3d cb 6b 0d bd 6b 16 21 3e
       0.20329039 0.03498529 -0.034526628 0.15731208
000010 0e ba b3 3c 8a 37 af 3d ca 41 fd 3d be ab 78 3d
       0.021939304 0.08555515 0.12366064 0.06071066
000020 81 a3 79 bc 3e a4 a3 3e b9 2b 39 bd a4 7b 6d 3d
       -0.015236736 0.31961244 -0.045207713 0.05797924
000030 84 72 20 3e c8 36 35 bd d1 1b 26 be 8e 4f 3a be
       0.15668684 -0.044241697 -0.16221549 -0.1819441

conceptizer.encoder.2.layers.4.weight f4 [1, 16]
000000 b1 98 c8 3d 75 0f 5c be fe c2 37 3d b4 f1 ed 3d
       0.097947486 -0.21490271 0.044863693 0.11618367
000010 dc 22 4b be a5 35 39 be a7 76 0c 3e f0 2a 84 bd
       -0.19837517 -0.1808687 0.13717137 -0.06453502
000020 b5 7d c0 bd a6 cc 9a be 3a 7b 44 be 3c 39 e3 bd
       -0.09398977 -0.3023426 -0.19187632 -0.11094901
000030 d1 73 81 3c 67 dd 93 3b db 48 9d 3c a0 ac 99 bc
       0.015802296 0.004512477 0.01919978 -0.018759072

conceptizer.decoder.0.0.weight f4 [5, 16, 5, 5]
000000 4f 39 8f ba 62 b4 df 3d dd 77 91 3c 23 c1 8b 3d
       -0.0010927113 0.10923077 0.01775735 0.06823947
000010 73 35 48 3e 4d d2 f3 3c 5c d4 a4 3d 3f c1 c1 3c
       0.1955164 0.029763365 0.08048317 0.023651717
000020 00 d0 85 bd 34 f8 91 bd c9 ad 0a 3e 1b 3f 10 3e
       -0.065338135 -0.07127419 0.13542856 0.14086573
000030 57 dd 95 bd f2 f2 bd 3d f4 55 b5 3d d6 86 26 3d
       -0.07317608 0.09274854 0.08854285 0.040655933
000040 ef 64 99 3d 5b 75 82 3d f7 9c 11 bd aa 4d 8c bd
       0.07489955 0.0637004 -0.035550084 -0.06850751
000050 21 c7 38 3d 22 18 81 be fd d7 20 be 79 10 38 3e
       0.04511178 -0.25213724 -0.15707393 0.17975034
000060 1d 11 24 3e 2b b8 aa bc b5 f0 f7 3d a4 77 61 3d
       0.16022153 -0.020839771 0.12106458 0.05504574
000070 9f 16 4c 3c 45 ec 35 3c 53 ca c3 3d 49 f2 93 3d
       0.012456565 0.011103694 0.09560075 0.072239466
000080 33 00 f0 bd 9b 6a a1 3d 81 0a 0d 3e f2 b6 14 3e
       -0.11718788 0.078816615 0.13773538 0.14522913
000090 31 dd c7 bc f3 4a ce 3d bc 68 f8 3d 53 8c 00 bd
       -0.024397464 0.10072889 0.121293515 -0.031383824
0000a0 bf bc db 3c 32 24 89 be 43 d5 9e 3e 8e f5 1c 3e
       0.0268234 -0.26785427 0.3102208 0.15328047
0000b0 b8 65 62 be ae 01 12 3d b2 e2 b6 3b da 83 ec 3c
       -0.22109115 0.035646133 0.0055812234 0.028871465
0000c0 51 e0 d5 bd 0d 58 a7 ba 52 87 17 3e 1b bc 2e 3d
       -0.104431756 -0.001276733 0.14797714 0.04265986
0000d0 c2 65 08 bc c1 0b af bb 62 6f 0d 3e 16 f6 2c 3c
       -0.008325042 -0.0053419773 0.1381202 0.010556718
0000e0 57 f5 d3 3d 48 9f 1e 3e 60 35 ec bd 36 3a eb 3d
       0.10349529 0.15490448 -0.11533618 0.11485712
0000f0 e0 f8 b2 3d 0d 89 9b 3c f6 f9 5d 3d e7 59 96 bd
       0.087388754 0.01898625 0.05419346 -0.07341366
000100 38 bc 5d bc 73 42 30 3e 98 09 b0 3d 80 0c a0 bc
       -0.013533644 0.17212848 0.0859558 -0.01953721
000110 80 54 28 bd 1e 6f 7e 3e 7b 5d 02 3e 6c 05 5f 3e
       -0.04109621 0.24847075 0.12730972 0.21779412
000120 37 b9 85 3d 6e 41 87 bd f0 dc 5e be dd b0 f9 bc
       0.065294676 -0.066042766 -0.21763968 -0.030479843
000130 53 e5 fb 3c af db f0 bc 13 b9 08 3e 0e 11 50 3d
       0.030748999 -0.029401628 0.1335185 0.050797515
000140 ec 15 a6 bd 78 fd b2 3b 0a 47 52 bc 8e 5f fe bd
       -0.0810965 0.0054623447 -0.01283432 -0.12420569
000150 fe 77 94 bd fe 56 0d 3d 8e 2d 38 be 67 76 00 be
       -0.07249449 0.03450679 -0.17986128 -0.12545167
000160 98 42 ba 3d 63 5c 13 3e 29 4c fb 3d f5 a3 df bc
       0.09094733 0.14390711 0.12270386 -0.02729986
000170 2e 8b 16 be 34 99 19 3e b0 f5 fc bd ae 44 d0 3d
       -0.1470153 0.14999849 -0.12351549 0.101693496
000180 3f 17 4e 3d f7 0f 09 3e c9 bd ba 3d ef 4b 28 3e
       0.050315138 0.13384996 0.0911823 0.16435216
000190 e0 a1 76 3d 4b 97 e4 bd aa 9b 08 3e ec 6b 44 3d
       0.06021297 -0.11161669 0.13340631 0.047954485
0001a0 36 08 4c 3e 79 0e 85 bc 75 13 80 bd 39 41 d4 3d
       0.19925007 -0.016242253 -0.06253711 0.10364003
0001b0 5f 83 b3 bd 36 99 a0 bc 3a 6d b1 bc 5d e6 8b 3b
       -0.087652914 -0.019604307 -0.021658529 0.004269405
0001c0 40 f2 d8 3c e2 2a 5b be f8 38 36 bd 73 2b 91 3d
       0.026482701 -0.21403077 -0.044487923 0.070883654
0001d0 04 84 bf 3d 40 90 eb 3d a3 b8 f3 bd 81 23 16 be
       0.09351352 0.11502123 -0.11900451 -0.14661981
0001e0 8d ff b3 bc dd 21 b4 3c d9 67 82 3d 39 db 26 3c
       -0.021972442 0.021988804 0.063674636 0.010184103
0001f0 f5 b0 ed bd 7e cc 47 3e bc d2 29 bd e6 e4 b7 bc
       -0.116060175 0.19511601 -0.041460738 -0.022448014
000200 a0 0b 86 3c ad 0b ad 3a b4 5d 70 bc 3c c4 17 be
       0.016362965 0.0013202332 -0.014670778 -0.14820951
000210 3f fb ba 3d 7e 97 0e 3d b4 3a 9d bc 57 c8 0d 3d
       0.09129953 0.034812443 -0.01919303 0.034614887
000220 6e e6 9d bd d6 27 ff 3c 2e 9b 96 bb c6 f7 91 bb
       -0.077099666 0.031146925 -0.0045961356 -0.0044545857
000230 61 23 85 3d e8 65 a7 bb b9 6f 3d 3d 8c 1d 1e be
       0.065008886 -0.0051085837 0.046249125 -0.15440959
000240 1d c3 80 3b 06 de 1b 3e 8e 52 ea 3c ea 50 9e 3d
       0.0039295093 0.15221414 0.028603818 0.07730277
000250 6c b3 4b be ff d1 bf bb c3 d4 b0 3d a0 90 be 3d
       -0.19892663 -0.005853891 0.08634331 0.09304929
000260 36 29 32 3d ba 31 aa 3d 8b 7f 16 3e aa 8a 6c bd
       0.043496333 0.08310266 0.14697091 -0.057749428
000270 92 1b e3 3d 90 81 c6 3d ed f7 01 be eb e9 3a be
       0.11089243 0.09692681 -0.12692232 -0.18253295
000280 3b 8c fe bc 0e 5c e7 3d 4a 02 8e 3d f6 22 7f 3d
       -0.031072726 0.11296855 0.0693403 0.0622892
000290 0c 20 b7 3d 9c 23 cb 3d 19 a8 2f bb e8 42 73 3d
       0.08941659 0.09918901 -0.0026803075 0.05938998
0002a0 7b f4 c9 3d 43 21 f1 bc bd e9 4c 3d e9 bc 12 bd
       0.09861084 -0.029434806 0.050027598 -0.03582469
0002b0 d8 f3 d5 bb 7b eb a7 bd d8 b3 19 be 13 db 2c 3e
       -0.0065293126 -0.08199211 -0.15010011 0.16880445
0002c0 83 4c 73 3d 7c 97 3b 3d d3 a6 11 3e da ec 37 3e
       0.05939914 0.045798764 0.14223795 0.17961445
0002d0 a5 d2 df bd 88 b9 05 bd eb 87 1d 3d 3e 0a d8 3d
       -0.10928849 -0.03264764 0.0384597 0.105488285
0002e0 91 09 1d 3e 43 e8 cc 3d 9a c7 7a 3d aa f4 0d 3d
       0.1533568 0.10005238 0.06122551 0.034657158
0002f0 63 bf ad bd 8b 1c 70 bd 31 3c 9f 3d bf ee 89 3d
       -0.0848377 -0.05862097 0.077751525 0.0673499
000300 3c fb 21 be 17 79 21 be 03 b4 6a bc a0 34 1a 3d
       -0.15818495 -0.15768848 -0.014325145 0.037647843
000310 c6 4c ef 3d 29 62 f7 bc 03 7e 17 be d8 03 72 be
       0.11684565 -0.030198174 -0.14794163 -0.23634279
000320 09 98 4f 3a f6 c1 c6 bc 5e dd f5 bd df 24 03 3d
       0.00079190783 -0.02426241 -0.12005113 0.032017585
000330 d1 42 d3 3d 83 87 76 3d e9 a9 00 bd 40 07 d6 bd
       0.103154786 0.060187828 -0.03141204 -0.104506016
000340 4d d2 ed bd 62 c8 13 3e 1c 3b a0 3d 75 4e 12 3d
       -0.11612377 0.14431909 0.07823774 0.035719354
000350 c1 69 3f be f1 d9 81 3d 88 9a f1 3d 1e 6f 28 3e
       -0.18692686 0.06340397 0.117970526 0.16448638
000360 c9 64 f6 3d fc 6b 42 bb 60 21 fb bc a3 44 0a 3e
       0.12030942 -0.0029666414 -0.030655563 0.13502745
000370 8f 9a 51 3d c3 18 3d be 23 e0 2f be 2d 4d 44 bd
       0.05117279 -0.18466477 -0.17175345 -0.047925163
000380 25 9c ee 3d c8 8c e2 3d 5f b8 f0 3d a4 9f ae 3c
       0.11650876 0.11062008 0.11753916 0.021316357
000390 cc 85 2e 3d 36 1a 52 bc 2a 7a 5b 3d 04 cd 34 bc
       0.042608067 -0.012823632 0.0535833 -0.011035208
0003a0 b4 96 cf 3c d1 4e 42 3d c1 c5 29 3e 12 94 8c 3d
       0.025340416 0.047438446 0.16579343 0.0686418
0003b0 92 79 36 3e 9a 87 31 bd 2c 77 cf 3c 5d 16 e1 3b
       0.17819813 -0.04334221 0.02532538 0.006869121
0003c0 c8 53 53 3d 9c 79 a4 bc c7 8f ef bd 10 30 da 3c
       0.051593572 -0.02007752 -0.11697345 0.026634246
0003d0 60 21 e3 bd db 9f b9 3d f8 49 38 3e 34 e3 20 3d
       -0.1109035 0.09063693 0.17996967 0.039279178
0003e0 56 af 02 3e aa 3e 76 be 05 3b cc bc 23 36 21 bd
       0.12762198 -0.24047342 -0.024930486 -0.03935827
0003f0 70 20 25 3b 1c 45 84 bc b8 48 22 be 32 ea e4 bd
       0.0025196336 -0.016146235 -0.15848053 -0.11177482

conceptizer.decoder.0.0.bias f4 [16]
000000 af db e4 bd 2b fa 27 3d c5 0c 3a 3b f7 d5 dc 3d
       -0.11174714 0.041010063 0.002838896 0.10782998
000010 c6 27 80 bd 0a 16 f3 3b 9f 40 eb bc 5e e9 74 3d
       -0.06257586 0.0074183987 -0.028717337 0.05979287
000020 25 33 0b bc 5a 9c 8f bd a8 80 f5 3d 9a 62 ee 3d
       -0.0084960805 -0.070122436 0.1198743 0.116399005
000030 cf 61 b0 3c 44 b2 83 bc 05 29 3e bd a4 ca ae 3d
       0.021531014 -0.016076215 -0.046425838 0.085347444

conceptizer.decoder.2.0.weight f4 [16, 8, 5, 5]
000000 6b bf 4d 3d c4 6e 54 3e 85 8a 31 3e 7f 3e 91 3d
       0.05023138 0.20745379 0.17337997 0.07091998
000010 3a 67 15 3e 80 8c c0 3d c6 06 97 3e 7a 9b 2a 3e
       0.14590159 0.09401798 0.29497355 0.16660872
000020 b1 a7 3a 3d 17 01 75 3e 27 d8 91 bd 1f 4d 10 3e
       0.04557008 0.23926197 -0.07121306 0.1409192
000030 dc 0c 1b bd 1b 2a 52 3d f6 bc b7 3d ee ef a1 bc
       -0.03785406 0.051309686 0.08971588 -0.019767728
000040 e9 25 24 3d 9d 6c 87 bd 5f 22 a4 3c 4c d6 4b 3c
       0.040075216 -0.06612513 0.02003592 0.012441229
000050 0a 25 0b be 50 c6 0c be 3c 61 18 be e8 d3 64 bc
       -0.13588348 -0.13747525 -0.14880842 -0.013966538
000060 aa db cc 3c 6b ab d8 bd 2d 6b 09 be a0 09 75 bd
       0.025007088 -0.105795704 -0.1341979 -0.059823632
000070 99 8d d8 3a 9a dc 02 3d ee 86 00 bd cc 0f ec bd
       0.0016521692 0.031948663 -0.03137868 -0.115264505
000080 54 c7 eb bd f5 be 39 bc cd 22 28 bd 1d f4 b6 bd
       -0.11512628 -0.011337032 -0.041048814 -0.0893328
000090 31 1a 85 bd 6d 4b 6a bd 07 b4 0a 3c 70 fc bb bd
       -0.06499136 -0.057200838 0.008465773 -0.09179008
0000a0 d0 aa dc 3b 3f 1e 2a 3d 6c 0f e1 3d 03 4c 02 3e
       0.0067342296 0.04153275 0.109892696 0.12724309
0000b0 da 38 dc 3b 98 4b f7 3d 2d a5 bb 3d c9 26 a2 3d
       0.0067206444 0.12074965 0.09162364 0.07917554
0000c0 b2 62 56 3d 4b ed e7 3c a4 61 95 bd 50 81 84 3e
       0.052340217 0.028311392 -0.07294014 0.25879908
0000d0 39 22 08 3d 25 2d 98 3d 55 0a 5b 3d 25 68 0f 3d
       0.033235762 0.07430486 0.05347665 0.03501143
0000e0 86 4c 52 be 5c dc e9 3d d8 65 42 bc 84 f0 27 bc
       -0.20537004 0.11418983 -0.011865102 -0.0102502145
0000f0 18 9b fd bd c3 da 46 be b7 13 63 3d a0 02 56 3d
       -0.123830974 -0.19419388 0.055438723 0.052248597
000100 da 72 51 3b a7 42 c6 3b 9c 5d 6c bc b8 2e eb 3c
       0.0031959326 0.006050426 -0.014426615 0.0287088
000110 7a 7c 52 bd 05 45 00 bd 30 5a 8c 3d 27 82 a0 bd
       -0.05138824 -0.031315822 0.068531394 -0.078373246
000120 4b 29 12 bc 94 81 39 3c b7 80 71 3c 76 78 52 3e
       -0.008920978 0.011322398 0.014740161 0.20553765
000130 60 69 4e 3e 6d 9f 24 3e b8 b1 3e 3d 0b 07 15 3d
       0.20157385 0.16076441 0.046556205 0.03638367
000140 f2 c7 76 3e 55 62 db 3d 78 99 a3 3d 2b 17 51 3d
       0.2409971 0.10712115 0.07988256 0.051047485
000150 6a 44 a1 3d 20 ca ab bd 33 e7 0b be cc 3f 21 bd
       0.07874377 -0.08388162 -0.13662414 -0.039367482
000160 b4 92 fb bc 16 f9 f2 3d 43 0a 5a be 10 87 47 be
       -0.030709602 0.118639156 -0.21292977 -0.19485116
000170 bc 79 1d be 61 30 36 bd a3 e5 96 3d fd b3 55 bd
       -0.15378469 -0.04447973 0.073680185 -0.052173603
000180 82 ab 0a be 6d e3 17 be e4 c4 95 bd 2d 36 4b bd
       -0.13541988 -0.1483285 -0.073129445 -0.049612213
000190 a0 26 a7 3c 5f 57 c2 bc e2 b7 b1 bd 6c 25 9f bd
       0.02040416 -0.023723302 -0.08677651 -0.077708095
0001a0 61 d2 be bd fd 88 4d 3e 09 f2 2a 3e fb e1 47 3e
       -0.0931747 0.20071788 0.16693892 0.19519798
0001b0 18 2b c6 3d 0d 52 76 3d bc d5 08 3e 70 e7 3d 3e
       0.09676188 0.060136843 0.13362783 0.18545318
0001c0 b0 ae 54 3e 4a 0f 37 3e 52 d8 22 3e 2f f3 bc bd
       0.20769763 0.17876926 0.15902832 -0.09226071
0001d0 33 6a 6b bd f3 58 3c 3c dc 77 a1 3d 1e 60 d3 bc
       -0.057474326 0.0114958165 0.078841895 -0.025802668
0001e0 94 d1 52 be ef c5 c0 bd e0 0b 6e bd bf e7 02 bd
       -0.2058776 -0.09412753 -0.058116794 -0.03195929
0001f0 14 b4 97 3b f8 60 78 3e e6 6b 82 3e 8d 35 68 3e
       0.0046296213 0.2425574 0.25472945 0.22676678
000200 9c f4 cf 3d 01 2c 45 3e e9 32 1f 3e e1 29 4e 3e
       0.101540774 0.19255067 0.15546764 0.20133163
000210 de 52 2c 3e 12 70 b4 3d 15 34 2b 3e 8f 86 ce bd
       0.16828486 0.08810438 0.16719086 -0.10084259
000220 47 d6 da bd 51 0f 6c bc cb 32 46 3c 64 c1 5e 3d
       -0.106854014 -0.014407949 0.012097071 0.05438365
000230 71 b9 14 be 57 c1 46 be de 10 ff bd 73 42 13 be
       -0.14523865 -0.19409691 -0.12454389 -0.14380817
000240 c1 46 7d bd 9b b6 0b be a6 67 44 be 98 f4 0b bd
       -0.061835054 -0.13643877 -0.19180164 -0.03416881
000250 0b 8a 11 bd 33 09 a7 3c 35 59 b7 3e 2e c4 47 3e
       -0.03553204 0.020390129 0.35810247 0.1950843
000260 e8 28 5a 3d d2 d1 b5 3c 39 66 de 3d 72 6d e5 3d
       0.053261667 0.022194777 0.10859341 0.11202516
000270 b6 c1 1a 3e 95 59 89 3d 72 38 58 3d 92 5f e7 3b
       0.15112957 0.067065395 0.052788205 0.0070609534
000280 6b c5 fb 3c eb 0f 06 bd ee 52 c4 bd 23 d2 d0 bd
       0.030733785 -0.032730024 -0.0958613 -0.101963304
000290 05 46 07 be 8b a4 16 be 35 09 5c bd 71 77 22 be
       -0.13210304 -0.14711206 -0.053719718 -0.15865876
0002a0 f1 bb 1b be 93 de 7e bd a0 4e e5 bd 34 cb b1 bd
       -0.15208413 -0.062223982 -0.11196637 -0.08681336
0002b0 30 27 04 be 4c 98 8a bd 7f b5 e1 3d 64 3f 9b 3e
       -0.12905574 -0.067673296 0.11020946 0.303218
0002c0 e2 00 44 3e 4c 1e 23 3d d8 54 62 3d a1 84 d7 3c
       0.19140962 0.039823815 0.055256695 0.02630836
0002d0 8b 66 e5 3c f4 77 c9 3d 44 dd 75 3c aa c2 24 3d
       0.028002998 0.09837332 0.015006367 0.04022471
0002e0 7a 25 36 3d 3f ff d8 bd 3f 17 df bd 12 79 00 3d
       0.044469334 -0.10595559 -0.10893106 0.03136546
0002f0 4f 63 93 bc 82 f2 13 3d ab 20 d3 bd 53 fc 3f be
       -0.01799169 0.036119945 -0.10308965 -0.18748598
000300 bf 2a 4a bd 76 b0 87 3d 88 be 92 3d f7 93 79 be
       -0.049357172 0.06625454 0.07165247 -0.2437285
000310 1f 61 78 bd 8c aa e0 bc 50 ba 57 3c b8 51 ad 3d
       -0.060639497 -0.027425073 0.013166979 0.08462852
000320 18 06 96 3d 9f 9a 9a 3d 47 e3 41 3e b6 85 3a 3e
       0.07325381 0.07549023 0.18934356 0.18215069
000330 2a ea 37 3e 1f 25 0a 3e e1 3a d0 3d e4 14 1e 3e
       0.1796042 0.13490723 0.1016748 0.15437657
000340 25 0a bd 3d c6 8c 29 3e 2b dd 95 3d 9a 32 78 bd
       0.092304505 0.16557607 0.07317575 -0.060595132
000350 f6 4e b7 bd a7 21 ec 3b b3 8b 01 39 ca 21 95 bd
       -0.089506075 0.00720616 0.0001235444 -0.072818354
000360 12 ec 1a bb 94 e9 bc 3b 45 b6 3e bc 98 bf d7 bc
       -0.0023639244 0.0057651494 -0.011640136 -0.026336476
000370 2e ae e2 bc 0e b6 9d 3d c0 b6 74 bd 25 32 60 3d
       -0.027670946 0.0770074 -0.059744596 0.05473532
000380 b5 d7 f7 3d 66 02 ba bd 29 86 1e be 60 fe fe bd
       0.1210169 -0.09082489 -0.15480866 -0.12450862
000390 53 f5 07 bd 93 dc d8 3c 7e ff b6 bd b1 8b 3f bc
       -0.033192944 0.026472365 -0.0893545 -0.01169102
0003a0 df b1 38 bc 8a c0 2a 3d 13 88 0a 3d 79 30 44 3e
       -0.0112728765 0.041687526 0.033821177 0.19159116
0003b0 ac 49 71 3e dd 27 2d 3e 6c 12 f5 3d 31 6f fc 3d
       0.2356326 0.16909738 0.11966404 0.123258956
0003c0 84 26 06 3e 62 8d e3 3d b6 49 de 3b b2 35 d8 bc
       0.1310063 0.11110951 0.0067836894 -0.026392791
0003d0 90 93 05 3e bc 25 73 3c 59 ec a2 bd 20 8c 65 bd
       0.13044572 0.01484054 -0.07955236 -0.056041837
0003e0 26 bb a6 3d a5 94 b2 3d 18 5f d1 bd cf 0d c0 3d
       0.081411645 0.08719758 -0.10223216 0.09377634
0003f0 a4 05 64 3c 45 2c 8c 3d 63 c8 b0 bd 39 c9 ff 3c
       0.01391736 0.06844381 -0.08631971 0.03122388

conceptizer.decoder.2.0.bias f4 [8]
000000 6a 41 58 3c 2e 13 27 3d 3c 5a 2c 3d 46 39 33 3d
       0.01319919 0.040789776 0.04207824 0.043755792
000010 b7 e8 88 3d d6 7a 08 3c dc e8 3c 3e d6 d7 8e bd
       0.06685012 0.008330068 0.18448204 -0.06974761

conceptizer.decoder.4.0.weight f4 [8, 1, 2, 2]
000000 d9 c4 ac bf b0 4f 36 bf 25 f4 6f bf ad 13 74 be
       -1.3497573 -0.71215343 -0.9373191 -0.2383563
000010 00 d5 35 3f 68 ee 39 3f f5 be 36 3f 16 6f 31 3f
       0.7102814 0.72629404 0.7138513 0.6931013
000020 fc 6a 21 3f a6 ff 5b 3f 48 2a d2 3d ee 40 6c bd
       0.6305387 0.85936964 0.10261971 -0.05767911
000030 1f 71 4c bf f9 5c 6e bf 00 3b 52 bf 16 9b 5f bf
       -0.7986011 -0.93110615 -0.82121277 -0.8734602
000040 4d 31 81 bf 0f 94 97 bf 7b 12 e4 3c 6e 60 48 be
       -1.009317 -1.1842059 0.027840843 -0.19568035
000050 11 83 1a bf ad d4 75 be 32 76 9f bf 02 e9 55 bf
       -0.6035624 -0.2400691 -1.2457945 -0.83558667
000060 c0 f8 58 bf 29 d0 7c bf 45 9f 62 bf 1c ba 59 bf
       -0.8475456 -0.9875513 -0.88524276 -0.85049605
000070 87 82 e5 bc fc a2 84 bf 82 11 13 bf 38 c9 ca bf
       -0.028016342 -1.0362239 -0.5744859 -1.5842657

conceptizer.unlinear.weight f4 [16, 1]
000000 93 9e 4d bf f0 30 07 3f 27 09 14 bf 26 27 b4 bf
       -0.8032009 0.5280905 -0.57826465 -1.4074447
000010 24 b6 79 bf 9d 86 25 bf 3e 60 7a 3f ba bc 53 bf
       -0.9754355 -0.6465853 0.97803104 -0.8270985
000020 2a 38 4c bf 28 53 85 bf 75 ae 96 3f 6f e3 24 3f
       -0.797732 -1.0416002 1.177199 0.64409536
000030 71 6e 89 bf e3 4b 22 bd 12 b3 58 bf 53 f3 43 3f
       -1.0736829 -0.039623152 -0.8464824 0.7654316

conceptizer.unlinear.bias f4 [16]
000000 5e 6d 42 3f 5e 5e e3 bd 9f e8 86 bf ef f5 26 3f
       0.7594813 -0.111019835 -1.053974 0.65219015
000010 8b cd 9a 3e 39 2e 16 3e f1 01 11 bf 59 23 1e 3f
       0.30234942 0.1466607 -0.5664359 0.61772686
000020 5a f9 ad b8 66 5a 48 bf 94 19 4b bf fd 45 4b 3f
       -8.295728e-05 -0.7826294 -0.79335904 0.7940367
000030 00 0a 9d be 1a 27 32 bf 52 67 3f bf 0c 9e ee 3e
       -0.30671692 -0.69590914 -0.7476703 0.46604955

parameterizer.cl_layers.0.weight f4 [10, 1, 5, 5]
000000 05 a9 19 3e 75 40 e7 bc 74 44 bb 3d c0 96 29 3e
       0.15005882 -0.028228978 0.09143916 0.16561413
000010 89 32 f0 3d ab 4b 4d bc 32 c1 79 3e c4 97 82 bd
       0.11728389 -0.012530248 0.24390104 -0.06376603
000020 db d3 ef bd 34 2f 6d bd 89 24 0a 3d 9f ec a6 3d
       -0.1171033 -0.057906345 0.03372625 0.08150601
000030 f4 88 dc 3d 88 18 98 3e c9 e1 89 3e e8 dd 69 be
       0.10768309 0.29706216 0.26930073 -0.22838557
000040 b1 92 cb bd a2 ce f5 bd 2c 9c 2c be 35 e6 4c be
       -0.099400885 -0.12002303 -0.1685645 -0.20009692
000050 db 92 c4 bd 17 95 5a be 8e c8 56 be ba 3e 39 be
       -0.09598323 -0.21345936 -0.20974943 -0.18090335
000060 d2 86 06 be eb 36 b9 bd 13 81 b8 bd be ff 3d 3e
       -0.13137367 -0.09043678 -0.09008994 0.18554589
000070 a1 93 8e bd 54 4b 1e 3c d0 c9 05 be cc c3 06 be
       -0.06961752 0.009661514 -0.13065267 -0.13160628
000080 a9 54 d1 bd b8 0c 80 bc b0 7c 06 bc bb c5 0f be
       -0.10221226 -0.015631065 -0.008208439 -0.14040272
000090 2f df 9b 3d bc 48 49 be ad 3b 7f 3c 32 14 b8 bd
       0.07610928 -0.19656652 0.015578193 -0.08988227
0000a0 5e ca 52 3e 14 d8 0a be 6d 2e 02 3d a5 be 50 be
       0.2058501 -0.1355899 0.031782556 -0.20385225
0000b0 33 7b 00 be 2f 23 8d 3e 98 25 9e 3d 32 aa bf bd
       -0.12546997 0.27565905 0.07722014 -0.09358634
0000c0 72 03 b4 3e 62 7d 25 be a2 7e 6a bd 82 51 fc 3d
       0.3515888 -0.16161111 -0.057249673 0.12320234
0000d0 44 52 13 3e b7 77 12 3e 53 b7 65 3b 87 ab bc 3c
       0.1438685 0.1430348 0.0035051897 0.02303101
0000e0 e5 96 af bd f1 24 17 3e 32 1d ca 3d 4a 8b b8 3d
       -0.08573703 0.14760186 0.0986885 0.09010942
0000f0 04 68 b0 3d e5 75 7a bb 62 9b ae bd 17 ff f6 3d
       0.086135894 -0.0038217243 -0.08525731 0.12060373
000100 f9 7b 18 3e 60 26 0c be 04 5e 0e be 13 60 b9 3b
       0.14891042 -0.13686514 -0.13903052 0.005657205
000110 29 47 f1 bc 0a eb 8d 3e a8 82 17 bd 3e e1 3d be
       -0.029452877 0.27718383 -0.036989838 -0.18542954
000120 27 fa 0d be 96 b7 74 bd ee f7 d3 3e 26 0a 1c bd
       -0.13864957 -0.059745394 0.41400093 -0.038095616
000130 0d b0 56 3e 02 1f 04 3e 0a be e8 3d 0f d4 37 3e
       0.20965596 0.12902454 0.11364372 0.17951988
000140 ef c3 e8 3d dc 1a 67 3b ca b5 d7 3d 5d e2 19 3e
       0.11365496 0.0035263812 0.105327204 0.15027757
000150 65 8b 13 3e 4f 09 0d be 1b 28 14 be 0c eb 6f be
       0.14408644 -0.13773082 -0.14468424 -0.23429507
000160 38 26 35 be 89 b5 42 be 44 77 2a 3e ae b9 37 be
       -0.1769036 -0.19014563 0.16647059 -0.17941925
000170 70 b6 9e 3e 09 15 f9 bd e0 88 d9 3d 16 7e 49 be
       0.30998564 -0.12162215 0.1062181 -0.19677004
000180 cf c6 16 be ac 63 29 3d 71 27 43 be 8c 2a 1e 3d
       -0.14724277 0.04135482 -0.19058014 0.038614795
000190 eb 68 85 3d 45 21 88 3e e1 1e 0b be bc 1b 07 be
       0.06514152 0.26587883 -0.13585998 -0.13194174
0001a0 ff 68 ec bd 24 f6 df bc 52 cb 22 3e 26 75 48 be
       -0.11543464 -0.027339049 0.15897873 -0.19575939
0001b0 a6 53 1c be 46 9b 0e bc c3 a4 8e 3d ac 34 ed bc
       -0.15266284 -0.008704012 0.069650196 -0.02895578
0001c0 2f 54 3f be 5c 50 e6 3d 5e 28 13 bc e6 75 47 3e
       -0.18684457 0.11245796 -0.008981792 0.19478568
0001d0 14 7c f2 bd ec 3d 35 be dc 37 b7 bd 4f de d9 bc
       -0.11840072 -0.17699403 -0.08946201 -0.026595263
0001e0 77 06 1c bd 80 f5 40 be 10 46 59 be 61 15 8d 3e
       -0.038092103 -0.18843651 -0.21218133 0.27555373
0001f0 98 83 53 bd 39 fc 49 be 1e c7 cb bd bb bb 27 3e
       -0.05163917 -0.19725122 -0.09950088 0.16380207
000200 07 37 d0 bd 60 6b 51 bd a2 d9 02 3c 50 14 28 be
       -0.10166746 -0.05112779 0.007986458 -0.16413999
000210 20 42 4d be 66 5b a8 3d 70 8b a1 3e f8 95 f7 3d
       -0.20044756 0.08220558 0.31551695 0.12089151
000220 da 80 95 be 63 4d 23 3e 2e 61 f6 3d 77 76 d1 3c
       -0.29199868 0.1594749 0.12030254 0.025569184
000230 6a 67 db 3b 27 b1 89 be 04 d6 70 3d 56 a8 31 3e
       0.0066956775 -0.2689297 0.05879785 0.17349371
000240 f8 c0 ea 3c ce b5 56 be f7 6a 23 3e 7d 20 6c bd
       0.028656468 -0.2096779 0.15958773 -0.05764817
000250 cf 62 82 3e 53 f9 fe bb 98 ce 80 3d 73 b1 24 bd
       0.2546601 -0.0077811866 0.06289405 -0.04020829
000260 65 06 74 bc 95 e4 25 3e 78 0b 2d be f8 46 d0 bc
       -0.014894103 0.16200478 -0.16898906 -0.025424466
000270 8e 72 4b bd 37 73 68 3d 46 ae a7 bc 36 ae ee 3d
       -0.049669795 0.056750502 -0.020468842 0.11654322
000280 d2 2c 3d 3d 18 1f 44 be 7f 1b f4 3d 4d 42 2f be
       0.046185322 -0.19152486 0.11919307 -0.17115135
000290 a6 d9 d7 bd c9 85 bf bd 56 c7 fd 3e a9 1f a0 be
       -0.1053956 -0.09351689 0.49566144 -0.31274155
0002a0 8f 2c 17 3f 99 83 62 be ac e2 d0 bd 65 f9 09 be
       0.59052366 -0.22120513 -0.10199484 -0.13474043
0002b0 0d 17 f9 bd e2 76 5f 3d 6f 02 27 bd 64 e4 3e 3e
       -0.121626 0.054556735 -0.040773805 0.18641812
0002c0 1d 66 f7 bd 53 fd 97 bd a3 a1 37 be 65 d5 5a 3e
       -0.120800234 -0.07421365 -0.17932753 0.21370466
0002d0 1f b3 1c bc bb e7 42 be d9 fe 61 3e 6c 03 c9 bd
       -0.00956419 -0.1903371 0.22069873 -0.09815106
0002e0 4a 17 61 3c d1 22 b3 bd 31 e3 88 3e f0 50 8b be
       0.013738463 -0.08746875 0.26735833 -0.27210188
0002f0 e4 ff 31 be a7 82 60 bd 0c d3 d5 ba 29 53 91 be
       -0.17382771 -0.0548121 -0.0016313507 -0.2838376
000300 ab 6e f0 3e f7 28 b5 be 4b 93 b8 3e 0a 29 73 3c
       0.46959433 -0.35382816 0.36049876 0.014841327
000310 61 8f 0a be c4 1c 1f 3d c0 45 21 be 4c dd 2b be
       -0.13531257 0.038845792 -0.15749264 -0.16783637
000320 eb be ff bd 7f 5b 1e be 57 04 07 be f2 bf 91 3e
       -0.124875866 -0.1546459 -0.1318525 0.28466755
000330 df b0 38 be db 7a af 3e d8 34 75 3c da 23 dc 3d
       -0.18036221 0.3427342 0.014966212 0.10749026
000340 6f 47 40 be eb 0f 6e 3e e6 91 58 bd 0f 11 9a bc
       -0.1877725 0.2324826 -0.052873515 -0.018806962
000350 7a 77 14 be 12 31 4f 3d 15 63 38 bd ba 67 31 be
       -0.14498702 0.050583906 -0.045016367 -0.17324725
000360 a4 04 8f 3e 58 8a 04 3e 9c e8 1e be 64 62 13 be
       0.27933228 0.12943399 -0.15518421 -0.14393002
000370 19 4e 09 3c 2a ad 80 be c1 39 2c 3e cc 7a 34 be
       0.008380436 -0.25132114 0.16818906 -0.17624968
000380 cf 7b 92 3e a7 37 ab bd 65 f8 8c be 72 67 69 be
       0.28610083 -0.08360224 -0.2753326 -0.22793368
000390 2c d2 0f be 6e ef c5 3d 2a 1d 7d bd e5 78 c1 3d
       -0.14045018 0.09664808 -0.06179539 0.09446887
0003a0 b5 45 0f 3e 05 f7 cb 3d 0c 64 80 3d 3d bf fc 3d
       0.13991435 0.099592246 0.062690824 0.12341163
0003b0 bf c5 22 3e bb e7 c0 3e dd e4 b9 3c 9e c6 a0 bd
       0.15895747 0.37676796 0.022692138 -0.07850383
0003c0 83 6f a1 3d 11 04 07 3d 4f 15 95 bd b1 a2 57 bb
       0.07882597 0.032962862 -0.07279455 -0.0032903368
0003d0 84 6c ed bd 40 56 4f bc 48 f1 89 bd 39 fa 05 be
       -0.11592963 -0.012654841 -0.06735474 -0.13083734
0003e0 9c 28 c2 bd d5 d1 2c 3e
       -0.09480402 0.1687692

parameterizer.cl_layers.0.bias f4 [10]
000000 e2 54 81 3d 8d e1 11 3e 33 99 20 be 19 42 da 3c
       0.06315018 0.14246197 -0.15683441 0.026642846
000010 01 12 5d 3c cf 8e 86 3d 35 e4 dd bd 6b 6b 6d be
       0.013493062 0.06570207 -0.10834543 -0.23185508
000020 ca 40 40 bd e3 5f c9 bb
       -0.046936788 -0.006145464

parameterizer.cl_layers.3.weight f4 [20, 10, 5, 5]
000000 99 21 d0 3c d8 7c 5a bd cb 6f 6e bd d6 6b 12 be
       0.025406646 -0.053341717 -0.058212083 -0.14298949
000010 e3 06 1f bd 7c 86 29 3c 24 02 e2 b8 32 f3 c1 bd
       -0.038824927 0.010347005 -0.000107769185 -0.09470214
000020 68 61 62 bd ff 53 26 bd 77 3e 6e bd d8 cd 85 3c
       -0.055268675 -0.04060745 -0.05816504 0.016333506
000030 c8 77 52 bd 7e 4a 95 bd 0a 01 1d 3c a8 94 59 3d
       -0.051383764 -0.07289599 0.009582767 0.053120285
000040 c2 12 dd 3c cb 07 53 bd ed c4 90 bc b5 a8 c0 3c
       0.026986483 -0.051521104 -0.017672027 0.023517946
000050 3c b8 6a 3b 8a aa e3 3b 43 d3 ae 3c b9 8e cb 3a
       0.0035815379 0.00694782 0.021340972 0.0015530206
000060 37 a5 81 bc c5 26 17 bd b6 5e a8 3d 92 fb 67 bd
       -0.01582585 -0.036902208 0.0822119 -0.0566364
000070 bd 4b 38 bd 2f 42 6d bc 8a a5 19 bd 5b 07 34 bc
       -0.044994105 -0.014481111 -0.037511386 -0.010988082
000080 ae d7 be bd 92 ec 85 bd b3 42 bb 3c 7f 6e 9f bc
       -0.093184814 -0.06539263 0.022858953 -0.019461868
000090 61 eb 66 bd ae a0 3d 3c 8c dc f4 bc 7e c5 e1 3c
       -0.05637682 0.011573954 -0.029890321 0.027559992
0000a0 6b 3f 07 bd 6d 80 00 3c f8 61 84 bc 21 a9 37 bd
       -0.033019464 0.007843119 -0.016159996 -0.04483903
0000b0 c3 63 d8 bc f9 45 3a bb 6e a7 e3 bb 91 35 99 bc
       -0.026414758 -0.0028423055 -0.0069474494 -0.0187023
0000c0 dc 7f 63 3d fc ef 52 3d f1 a4 11 3e dc 0b f0 3c
       0.055541858 0.0514984 0.14223076 0.02930253
0000d0 3e 12 26 3d 14 86 b8 bc 10 d9 0e bb 65 a0 3c 3d
       0.04054474 -0.022524871 -0.002179686 0.0460514
0000e0 20 ea 1d 3c e1 dc d4 3c 45 d9 64 bd f8 a0 53 bd
       0.009638339 0.02598423 -0.055871267 -0.051667184
0000f0 99 06 1b 3d f0 58 a0 3c cb 84 82 bd ef d4 8c bd
       0.03784809 0.019573659 -0.063729845 -0.06876551
000100 8b 3d 17 bd 49 c1 0e bb c8 8f 07 3d 1f ea 02 bb
       -0.036923926 -0.0021782687 0.033096105 -0.0019975973
000110 88 ce 41 3c 0a ec 85 bd 9e 63 14 3c bd 6d 89 3c
       0.011829026 -0.065391615 0.009056954 0.01677596
000120 60 96 b9 3d 0e b0 9c 3d d8 6c f2 3c d2 66 ba 3c
       0.09061885 0.07650767 0.029592916 0.022754107
000130 74 86 ca bc 95 45 4f 3b 1f 04 88 bd 0c 52 84 bd
       -0.024722315 0.0031627167 -0.06641411 -0.06460962
000140 d7 96 89 bc 72 cd 09 bd 8f 25 3b bd 72 26 47 3c
       -0.016795559 -0.033643194 -0.045690116 0.012155162
000150 4d c1 32 bd 6d 5c 88 3c 6c 58 4e bc 70 1c ac bd
       -0.043641377 0.016645635 -0.012594324 -0.084038615
000160 9e c9 f5 bd 92 0a 5c 3c 66 e2 3b 3c 5d b3 86 3a
       -0.12001346 0.0134302545 0.011467552 0.0010276843
000170 3e 44 b1 bc d0 40 1a bd 74 4f 2e bd c9 ec 96 3d
       -0.021638986 -0.037659466 -0.04255624 0.07369382
000180 5a 8a 2d bd 5b a9 1d bd a4 ac 03 3d 39 b0 03 bd
       -0.04236827 -0.038491588 0.032147065 -0.03215048
000190 30 10 57 bc ac ac 49 bc f6 68 b1 3b 13 ae 5b 3d
       -0.013126418 -0.012309235 0.0054141236 0.053632807
0001a0 18 46 09 bc e7 89 39 3c 23 be 1d bc ea 73 45 bd
       -0.008378528 0.011324382 -0.009627852 -0.048206247
0001b0 6c a6 8c bc a9 eb 86 3d 0d c1 3d bc 0e 52 bb 3c
       -0.0171692 0.06587917 -0.011581671 0.022866275
0001c0 5d ac a9 3d 33 4d 5d 3c bc a0 a8 3d 6f 27 c5 3a
       0.08284829 0.013507175 0.08233783 0.0015041659
0001d0 18 9e 7f 3d 96 25 62 3b af c7 ee 3c 86 a2 db bc
       0.06240663 0.0034507266 0.029147951 -0.026810896
0001e0 a7 e6 a1 3d 53 fa 7c 3c 36 b8 93 ba a5 81 23 bd
       0.079053216 0.015440541 -0.0011270109 -0.03991856
0001f0 38 66 33 3c 55 a3 3b bd 92 16 e8 3c 48 5f 01 3d
       0.010949664 -0.045810062 0.028331075 0.031585008
000200 81 bc 60 3d 3a a1 88 3d e6 6e 90 bc 26 e4 3f 3d
       0.05486727 0.066713765 -0.017631005 0.04684844
000210 99 54 a9 3d c2 45 a9 3d 0a ef 03 3d cc 3d 15 bd
       0.08268089 0.08265258 0.032210387 -0.036435887
000220 e1 f1 16 3d 5f 0d 57 3d 1f b5 78 3d 73 d1 17 bc
       0.036851767 0.052502986 0.060719606 -0.009266245
000230 6d 0f 95 3a 34 6f ec 3b 49 f2 23 3d 2c ee a1 3d
       0.0011372395 0.007215405 0.040025983 0.07906756
000240 35 95 55 bd 0a 1a 27 bb d6 ff 09 bd 8c 80 31 bd
       -0.052144248 -0.0025497698 -0.03369125 -0.043335482
000250 d4 d4 5f bd 8c ec 6d bb 3a 65 49 bd 0c 8a 25 3e
       -0.054646328 -0.0036304323 -0.049168803 0.16165942
000260 66 cf 1c 3e 43 8f 6e bb 25 bd 4c 39 e7 e0 97 bd
       0.15313491 -0.0036401309 0.00019525418 -0.074159436
000270 9e e5 5f bd b4 fb 40 bd 25 6e 1c bd aa 02 ac 3c
       -0.05466234 -0.047115043 -0.03819098 0.020997364
000280 8a 56 8d 3d f5 6f 83 3b 66 1d d3 3c 20 e9 e7 3c
       0.06901272 0.004011149 0.025770854 0.028309405
000290 8c 92 1e bb 30 e6 1a 3d 28 56 5f 3d 64 1b 38 bc
       -0.0024196235 0.03781718 0.054525524 -0.011236999
0002a0 97 a1 f2 bc fc 4a 87 3c 8d 59 12 3d 1c b8 26 bd
       -0.029618068 0.016515248 0.035729934 -0.040702924
0002b0 2a d0 25 3d da 69 2e 3d ed 8f de 3c 96 86 eb bc
       0.040481724 0.042581417 0.027168239 -0.028750699
0002c0 d0 db e3 3d 3c 87 9b 3d f7 db 84 bd 72 44 1d bd
       0.1112591 0.07594153 -0.064872675 -0.038395353
0002d0 37 55 f3 bd 63 7a 85 bc 8e a2 4d 3d 7d 0b a5 bb
       -0.11881488 -0.01629371 0.050203852 -0.00503677
0002e0 40 6b 8f bc 59 76 99 bd 54 79 49 3a c6 50 09 bb
       -0.017507195 -0.07493276 0.0007685621 -0.0020952686
0002f0 dd 25 b2 3d ff 8a ce 3a c7 70 60 bd 82 13 54 bd
       0.08698628 0.0015757977 -0.054795053 -0.051776417
000300 f3 67 87 3c c1 fe e4 3c a9 b5 ee 3c c5 03 86 bd
       0.016529059 0.027953507 0.029139357 -0.06543688
000310 1c 91 59 bd e3 04 6f 3d 81 c4 1e 3c 88 44 ce bd
       -0.053116903 0.05835427 0.009690405 -0.10071665
000320 ab f9 57 3c 98 c6 1f 3e dd da c0 3d af a3 b8 3d
       0.013182084 0.15603101 0.09416745 0.09015595
000330 37 13 04 3b f2 f1 46 bd 47 cc 37 3d a7 e8 9f 3d
       0.0020153055 -0.04857058 0.04487255 0.07808047
000340 ac 14 16 3d 3a e1 fd 3c de 25 2d bd 02 cb 8d 3c
       0.036640808 0.030991185 -0.04227244 0.017308716
000350 8f 58 fd 3c 04 8e 50 bd 66 e2 32 bc 3e 0f 99 3d
       0.030926017 -0.050916687 -0.010918235 0.0747361
000360 e1 64 82 bd 99 bf 03 bc 61 83 30 bd b5 63 50 bd
       -0.063668974 -0.008041286 -0.043094043 -0.050876338
000370 1e 1a 0c bd a4 13 da 3a 26 df b3 3c 3b b9 ad 3c
       -0.034204595 0.0016637933 0.021956991 0.021206489
000380 51 67 ba 3b 45 f4 90 3d 54 c7 2b 3d ea 7b 5e bd
       0.005688586 0.07077841 0.04193814 -0.054317392
000390 04 cb 0c 3c d1 c2 05 3d 48 58 fd bc 00 4d 5f 3c
       0.008593325 0.032656495 -0.030925885 0.013629198
0003a0 e1 2d a1 3c 5d 9c 23 bc 99 12 b4 3d 2b 12 8e 3d
       0.019675197 -0.00998601 0.0879261 0.06937059
0003b0 aa d8 93 3d 75 e0 de 3c 55 28 43 3c 03 ee 97 3d
       0.0721906 0.027206639 0.011911471 0.07418444
0003c0 ed 6a a6 3d 3a ba 31 3d c9 00 10 bd f4 93 45 bd
       0.08125863 0.04339049 -0.035157 -0.048236802
0003d0 4a 02 3a 3d 3a e4 09 3d f8 65 de 3c bd 57 ef bc
       0.04541234 0.03366492 0.027148232 -0.029216642
0003e0 48 e7 60 bc ed 10 36 3d 6b 30 3f 3d 9e 6b 4b 3c
       -0.013727017 0.044449735 0.046677034 0.012415795
0003f0 66 1d b8 3d fd b4 10 3d d3 ae 41 3d 80 f7 25 3c
       0.08989982 0.035328854 0.047285866 0.010129809

parameterizer.cl_layers.3.bias f4 [20]
000000 b1 d2 89 3d 09 81 03 bd 79 8c 10 3d e8 92 a0 3d
       0.06729639 -0.03210548 0.035290215 0.0784052
000010 d7 84 3a bd a4 b6 c4 3b 3e 5d 9b 3d cb d7 25 bd
       -0.045536842 0.006003218 0.07586144 -0.040489
000020 83 1e 06 3d fb c5 cb bc 25 ea 7f 3c 80 2a f4 bc
       0.032743942 -0.024874678 0.015619789 -0.029805422
000030 46 30 06 bc f6 90 9d bc 6a b9 82 bd f5 e1 aa 3b
       -0.00819022 -0.019234162 -0.06383021 0.0052149245
000040 6b 98 d8 bb 6c de 5e 3c a9 31 2d bd 09 ea b8 bc
       -0.0066099665 0.013602834 -0.042283688 -0.022572534
