results/CONF_FASHION_MNIST/checkpoints/Epoch[3]-Step[1080].pt (torch, 374338 bytes, 66 tensors)

conceptizer.encoder.0.0.weight f4 [10, 1, 5, 5]
0	0xbe3f4d44	-0.18681818
1	0x3e5dac7a	0.21647826
2	0x3e716e78	0.23577297
3	0x3e0a4e30	0.13506389
4	0x3de80318	0.11328715
5	0xbdb0497e	-0.086077675
6	0x3c666825	0.014062916
7	0x3d659806	0.056053184
8	0x3e4b1c6b	0.1983506
9	0xbdcbf2f1	-0.09958447
10	0x3e0b11bc	0.13580984
11	0x3dfe09b0	0.124041915
12	0xbe1a5569	-0.15071644
13	0x3e03819d	0.12842412
14	0xbdfe12ed	-0.124059536
15	0x3e348636	0.17629322
16	0x3db822c9	0.0899101
17	0x3e0c7d09	0.13719572
18	0x3d4c3278	0.04985282
19	0xbda6114a	-0.081087664
20	0x3e45e43a	0.19325343
21	0xbc43b7a7	-0.011945642
22	0xbd5a7a3d	-0.05333923
23	0xbd892b73	-0.066977404
24	0x3e181c4b	0.14854543
25	0xbda14d79	-0.07876105
26	0x3e012cf1	0.126148
27	0xbdf32961	-0.11873127
28	0xbdc9d4d0	-0.09855044
29	0xbdd4b335	-0.103857435
30	0xbc9de72e	-0.019275274
31	0xbd813472	-0.06308831
32	0xbe348334	-0.17628175
33	0x3a879f80	0.0010347217
34	0xbe19cc9d	-0.1501946
35	0x3da3bd70	0.07995117
36	0xbdf99026	-0.12185697
37	0xbd4f73f9	-0.05064771
38	0xbe2f9565	-0.17146833
39	0xbe14978b	-0.14510934
40	0xbe644345	-0.22291286
41	0xbcca61f4	-0.02470491
42	0xbd50a19d	-0.050935376
43	0x3d308469	0.043095026
44	0xbc6ec54f	-0.014573409
45	0x3d99c0e5	0.07507495
46	0x3d713b7c	0.05889462
47	0xbdc3a845	-0.09553579
48	0xbe4e5061	-0.2014785
49	0x3cbcbcb5	0.023039201
50	0x3c904d45	0.01761497
51	0xbe1e8d4b	-0.15483586
52	0x3ddee378	0.1088323
53	0xbd156ebf	-0.03648257
54	0xbdd6a4ea	-0.104806736
55	0xbdcdbc04	-0.10045627
56	0xbe1fac62	-0.15593103
57	0xbc0dc4d2	-0.008652883
58	0xbe396cc2	-0.18107894
59	0xbe0051e7	-0.12531243
60	0xbe5c3397	-0.21504055
61	0x3e0c329a	0.13691178
62	0xbd9886d4	-0.074475914
63	0xbe359f14	-0.17736465
64	0xbc9bcfac	-0.019019924
65	0xbdaca00d	-0.08428965
66	0xbd1b0616	-0.0378476
67	0xbe579cdb	-0.2105593
68	0xbdbcda92	-0.092213765
69	0xbe0f4a73	-0.13993244
70	0x3e18b7d5	0.14913876
71	0x3cc5f484	0.024164446
72	0x3d3d37a0	0.046195626
73	0x3c1e72eb	0.009670953
74	0xbda46acd	-0.08028183
75	0xbdc83b58	-0.09776944
76	0xbc4159b6	-0.011801174
77	0x3dc5c6af	0.096570365
78	0xbd4edbea	-0.050502695
79	0xbde4c666	-0.11170654
80	0xbde636c3	-0.11240914
81	0x3b8ce6e9	0.0042999876
82	0xbd8fc4af	-0.07019936
83	0xbd0cfa19	-0.0344182
84	0x3d877ec6	0.06615977
85	0xbe42a8a9	-0.19009651
86	0xbe354760	-0.17703009
87	0x3d804917	0.06263941
88	0xbe3b4fa6	-0.18292102
89	0xbce89af7	-0.028394205
90	0xbd50d036	-0.050979815
91	0xbdebb4d5	-0.115091
92	0xba73e453	-0.00093037373
93	0xbdb3288e	-0.087479696
94	0xbce74872	-0.028232787
95	0xbd09ca58	-0.033640236
96	0xbc14cdd6	-0.009082278
97	0xbe3a022d	-0.18164892
98	0xbc8f3417	-0.017480893
99	0x3e1e9d51	0.15489699
100	0x3d941f0c	0.07232484
101	0xbe152009	-0.14563002
102	0x3d94ba17	0.07262056
103	0x3d6eaaca	0.058268346
104	0x3dc4f571	0.09617127
105	0x3d81ce19	0.06338138
106	0xbe25a0f7	-0.16174684
107	0xbcb299e2	-0.021801893
108	0x3dee6d6d	0.11641965
109	0xbe6899f5	-0.2271498
110	0x3d577d51	0.052609745
111	0x3d0e4dd4	0.03474219
112	0xbe52c110	-0.2058146
113	0xbe638326	-0.22217998
114	0xbdd6b11b	-0.10482999
115	0xbbc950a9	-0.0061436486
116	0xbdcc16f6	-0.09965317
117	0x3de004e8	0.10938436
118	0xbe2c6754	-0.16836292
119	0x3cc1f2b9	0.02367531
120	0x3d874a00	0.06605911
121	0x3e219b6e	0.15781948
122	0xbda2606b	-0.079285465
123	0xbe2492bf	-0.16071604
124	0x3d175834	0.03694935
125	0xbd71ab2e	-0.05900114
126	0x3df0f4b4	0.117654234
127	0x3e052e5f	0.1300597
128	0x3e29776e	0.16549465
129	0x3d96fb98	0.073722064
130	0xbe1e8b74	-0.15482885
131	0xbdbe7c04	-0.09300998
132	0x3e3fd23c	0.18732542
133	0x3e3861b1	0.18006016
134	0xbd498c08	-0.04920581
135	0x3e1fc778	0.15603435
136	0x3dcbc07b	0.09948822
137	0x3e057d54	0.1303609
138	0xbd2987a2	-0.041389115
139	0xbe340444	-0.17579752
140	0xbe0a59ca	-0.13510814
141	0x3e28d332	0.16486815
142	0x3e47188d	0.19442959
143	0xbc1d04dd	-0.009583679
144	0xbe55a3f8	-0.2086333
145	0x3d98135b	0.07425567
146	0x3e4f21ef	0.20227788
147	0x3e01decd	0.12682648
148	0xbe0b785f	-0.13620137
149	0xbd168e71	-0.036756936
150	0x3e129c8b	0.14317529
151	0xbe1b9aa6	-0.15195712
152	0x3db79810	0.089645505
153	0x3dd1c357	0.10242336
154	0xbd68c383	-0.05682708
155	0xbdbef7ca	-0.09324606
156	0x3e37430b	0.17896669
157	0xbbfd6ca8	-0.0077339
158	0x3e0aed16	0.13567004
159	0x3dfbd01c	0.12295553
160	0xbe0cfb74	-0.13767797
161	0xbd69a688	-0.057043582
162	0xbda5f00a	-0.081024244
163	0xbdd1e1be	-0.10248135
164	0xbe313d99	-0.17308654
165	0xbe10f30d	-0.14155217
166	0x3e17b013	0.1481326
167	0x3d772cbe	0.060345404
168	0xbdc8c6e4	-0.098035604
169	0xbe3c94ed	-0.18416186
170	0xbdc6fca0	-0.09716153
171	0x3d25a5cb	0.040441316
172	0xbe56ba43	-0.2096949
173	0xbc0a22a8	-0.008431114
174	0x3d31ef22	0.043440945
175	0xbd8e3e53	-0.06945481
176	0xbcb501e6	-0.022095632
177	0xbe42b264	-0.19013363
178	0xbe4f86ff	-0.2026634
179	0x3ddba4b0	0.10724771
180	0xbd7b7b92	-0.061397143
181	0xbde6db66	-0.11272316
182	0x3d754eb3	0.059889507
183	0x3d1e7066	0.03868141
184	0xbdebba75	-0.11510173
185	0x3e62aa72	0.22135332
186	0x3d3fa99d	0.046792615
187	0x3e339575	0.17537482
188	0x3e5f5e5e	0.21813342
189	0x3d538f94	0.0516506
190	0x3e66bb93	0.22532491
191	0xbd6ad702	-0.057333954
192	0x3dc79e4e	0.09746991
193	0x3b3e440a	0.0029032254
194	0xbcfbc07f	-0.030731438
195	0x3d506424	0.05087675
196	0x3e5edf30	0.21764827
197	0xbe06fb72	-0.13181856
198	0x3d632d7f	0.05546331
199	0x3df537e0	0.11973548
200	0x3ddb76ee	0.107160434
201	0xbb99ceec	-0.0046938565
202	0x3dabeef2	0.083951846
203	0x3d094a86	0.033518337
204	0xbde686df	-0.11256193
205	0x3db7df1e	0.08978103
206	0x3d8f6e55	0.07003466
207	0xbdee7106	-0.11642651
208	0xbe26dce1	-0.16295196
209	0x3e25df98	0.16198575
210	0x3e12fac0	0.14353466
211	0xbe0bba96	-0.13645396
212	0xbdd9d0ed	-0.106355526
213	0xbe1b3114	-0.1515544
214	0xbe3684fa	-0.17824164
215	0x3d7ac1d8	0.06122002
216	0xbaff4c64	-0.0019477722
217	0x3df0ff97	0.117675
218	0xbe3c5966	-0.18393478
219	0x3cea5d8d	0.028609062
220	0xbe6029bb	-0.21890919
221	0x3dbfbb6d	0.093619205
222	0xbd14884c	-0.036262795
223	0xbda85b1e	-0.08220504
224	0x3e197986	0.14987764
225	0xbd672caa	-0.05643908
226	0x3e301cfc	0.17198557
227	0x3e4918cb	0.19638364
228	0x3e3cf6c5	0.1845351
229	0x3b619716	0.003442233
230	0xbe14c111	-0.14526774
231	0x3d5906e0	0.052985072
232	0x3e6b00bd	0.229495
233	0x3930034e	0.00016785899
234	0x3c70c284	0.014694814
235	0x3dd21db4	0.10259572
236	0x3e4797b0	0.19491458
237	0x3e6ec89c	0.23318714
238	0xbe053889	-0.13009848
239	0x3c037123	0.008022579
240	0xbae963ae	-0.0017806196
241	0x3e3f3554	0.18672687
242	0xbc9eda83	-0.019391304
243	0xbe29e34c	-0.16590613
244	0xbbe8245d	-0.007084413
245	0x3c43a520	0.011941224
246	0x3d892fda	0.0669858
247	0x3e6846e3	0.22683291
248	0x3e38c7fc	0.18045038
249	0xbc1ae4b1	-0.009453938

conceptizer.encoder.0.0.bias f4 [10]
0	0x3c874f24	0.01651723
1	0x3de72ac7	0.11287456
2	0x3e39de97	0.18151318
3	0xbd896931	-0.06709517
4	0x3e43ed6f	0.19133542
5	0x3d1201b6	0.035646163
6	0xbd93aef4	-0.07211104
7	0xbd5ac5e1	-0.05341137
8	0x3db338d5	0.08751074
9	0x3d9ce6ce	0.0766121

conceptizer.encoder.1.0.weight f4 [5, 10, 5, 5]
0	0xbc58d9b4	-0.013235498
1	0xbc982266	-0.01857109
2	0x3cea35dc	0.028590135
3	0x3d729264	0.05922164
4	0xbd3ddc16	-0.04635247
5	0xbc3c516e	-0.011494024
6	0x3cb220fc	0.021744244
7	0x3cd52386	0.026017915
8	0xbd2afa8c	-0.041742846
9	0x3d510a83	0.051035415
10	0xbd7341af	-0.059388813
11	0x3d6e80fe	0.058228485
12	0xbd4c01e6	-0.049806498
13	0xbbd6e87b	-0.0065584756
14	0xbd9591b4	-0.07303181
15	0x3c879cc3	0.016554242
16	0x3ce02b55	0.027364412
17	0x3d396327	0.045260575
18	0xbcf2f33e	-0.029657003
19	0xbb881acf	-0.0041535865
20	0x3c3ff77c	0.01171672
21	0xbcee1560	-0.029062927
22	0x3d10ce5d	0.035353053
23	0x3c662084	0.014045838
24	0x3bae15ea	0.005312671
25	0x3d82ffa5	0.063964166
26	0x3cbe67da	0.02324288
27	0x3cd18c6e	0.025579657
28	0xbbb5477f	-0.0055322046
29	0x3bee4df7	0.0072724777
30	0x3d6f1548	0.058369905
31	0x3b907259	0.0044081626
32	0xbd175a5a	-0.0369514
33	0x3c96ddaa	0.018416245
34	0x3d46fba1	0.048579816
35	0x3d20c7e8	0.039253145
36	0x3d1950d5	0.037430603
37	0x3d017580	0.031606197
38	0x3b589ee0	0.0033053681
39	0xbc90de4d	-0.017684126
40	0xbb34fecf	-0.0027617698
41	0xbb397b93	-0.0028302416
42	0xbce8c2e5	-0.028413245
43	0x3dacb194	0.08432308
44	0x3d383666	0.044973753
45	0x3c542bde	0.012949912
46	0x3d9e00aa	0.077149704
47	0xbc56087c	-0.013063546
48	0xbb632f75	-0.0034665738
49	0xbd18f2aa	-0.037340797
50	0x3d1447dd	0.036201347
51	0x3c09d7ad	0.0084132375
52	0xbc979d01	-0.018507482
53	0xbceb8d24	-0.028753825
54	0xbcabb90e	-0.020962264
55	0xbacd8dd8	-0.0015682532
56	0xbc2a3390	-0.01038827
57	0x3d1222db	0.035677772
58	0xbd01c72f	-0.031684097
59	0x3da15c55	0.07878939
60	0x3d960f07	0.07327085
61	0x3d36535a	0.044513084
62	0x3cdc4b8e	0.026891496
63	0xbcbcec1c	-0.023061804
64	0xbb2ffc6a	-0.0026853331
65	0x3d5a24a0	0.053257585
66	0x3cd70baf	0.026250688
67	0xbca16aaf	-0.019704191
68	0x3d19b642	0.03752733
69	0xbd295932	-0.04134483
70	0x3d83853e	0.06421898
71	0xbc292800	-0.010324478
72	0x3d6e8b72	0.058238454
73	0x3d65fad2	0.056147404
74	0x3c9b8c4b	0.018987795
75	0xbd162142	-0.03665281
76	0xbcc9dca3	-0.02464134
77	0xbd02b107	-0.031907108
78	0x3cbe7787	0.023250354
79	0x3d0f5ed3	0.03500254
80	0x3d85edd1	0.065395005
81	0x3d498a5a	0.049204208
82	0xbd1606d1	-0.036627594
83	0x3da34f6f	0.07974135
84	0x3d80e68e	0.06293975
85	0x3dba628f	0.0910083
86	0x3d1a5e25	0.03768744
87	0xbd111a13	-0.035425257
88	0x3cc66bab	0.024221262
89	0xbb01bc4b	-0.001979607
90	0xbcf52266	-0.029923629
91	0xbc744112	-0.014908092
92	0xbc2c7d40	-0.010527909
93	0x3d16dc00	0.036830902
94	0x3cf479dc	0.029843263
95	0x3d2955a1	0.041341428
96	0x3b8acfe7	0.0042362097
97	0x3d775411	0.060382906
98	0x3daf949c	0.08573267
99	0x3d9fd659	0.078045554
100	0x3d877fa3	0.06616142
101	0xbb5da5b2	-0.0033820686
102	0xbc14df7b	-0.009086485
103	0xba5db420	-0.00084573217
104	0xbc29003f	-0.010315
105	0xbb611881	-0.003434688
106	0xbca6b7de	-0.020351347
107	0x3b95d1d6	0.0045721335
108	0x3d2b4a07	0.041818645
109	0x3d602a5f	0.05472791
110	0x3da853fe	0.08219145
111	0xbd07f2ed	-0.033190656
112	0x3da88114	0.08227745
113	0xbbda9eff	-0.006671786
114	0xbd224007	-0.039611842
115	0x3c198d0e	0.009372009
116	0x3d971aa8	0.07378131
117	0x3d16d2cc	0.036822125
118	0x3d1b4a00	0.03791237
119	0x3d63519b	0.055497747
120	0xbd1c43d5	-0.038150627
121	0x3cad1449	0.021127837
122	0x3d6d956e	0.058003835
123	0x3d0c40b8	0.034241408
124	0x3ba70ae0	0.005097732
125	0x3d0c0128	0.03418079
126	0x3d8b4cc5	0.06801752
127	0xbd09f370	-0.033679426
128	0xb98f74c4	-0.00027362083
129	0x3d12a49a	0.035801508
130	0xbd4e9c53	-0.05044205
131	0x3d1b6190	0.03793484
132	0x3c00fb75	0.007872452
133	0x3d120923	0.035653245
134	0x3b3d50c2	0.0028887247
135	0xbd0eba07	-0.03484538
136	0x3d15fd46	0.036618493
137	0x3d8fe631	0.070263274
138	0x3d1d0d5d	0.038342822
139	0x3c99e96f	0.018788068
140	0x3b9ab883	0.0047217025
141	0xbd0683ea	-0.032840647
142	0x3d740993	0.059579443
143	0xbd0ed259	-0.034868572
144	0xbd561a16	-0.05227097
145	0xbcb5fbe1	-0.022214832
146	0x3d548f57	0.051894512
147	0xbc199fb1	-0.009376452
148	0xbd34efdd	-0.044174064
149	0xbcd5f229	-0.026116448
150	0x3d6af19a	0.057359315
151	0x3d3f3bae	0.046687774
152	0x3b4acb62	0.003094398
153	0x3cf185e2	0.029482786
154	0x3da9053e	0.08252953
155	0x3d8a5ab0	0.067555785
156	0x3d72b589	0.059255157
157	0xbcdf9007	-0.027290357
158	0xbd134931	-0.035958473
159	0x3bfbb3b0	0.0076813325
160	0x3d6ef00c	0.058334395
161	0x3d315e16	0.043302618
162	0x3b3ad396	0.0028507463
163	0xbc94053a	-0.018068898
164	0x3d1e0165	0.03857555
165	0x3d972c30	0.07381475
166	0xbc953103	-0.018211847
167	0xbc32990b	-0.010900746
168	0xbb53cf45	-0.0032319587
169	0xbc745a5b	-0.014914121
170	0xbcefdbba	-0.029279578
171	0x3aa0b834	0.0012261928
172	0x3d45fd2c	0.048337147
173	0xbc490a41	-0.012270511
174	0xbb54976e	-0.0032438892
175	0xbd4e3a78	-0.05034873
176	0xbd82a996	-0.06380002
177	0x3d1cd85b	0.03829227
178	0x3d2541e9	0.04034606
179	0xb9df71ce	-0.00042618666
180	0x3ccc9c43	0.024976855
181	0x3d4cfbb7	0.05004474
182	0xbd94ce7f	-0.072659485
183	0xbcbfaf32	-0.02339897
184	0xbd9e3419	-0.077247806
185	0x3d2e88d5	0.042610962
186	0xbd1ead4f	-0.0387395
187	0xbd7b659b	-0.061376195
188	0xbc4c7d6a	-0.012481073
189	0x3d4c05d2	0.04981024
190	0xbc3680a5	-0.01113907
191	0x3cdd5710	0.027019054
192	0xbcf462e3	-0.02983231
193	0x3cc139b6	0.023587089
194	0xbc702837	-0.0146580255
195	0x3caafb3a	0.020871747
196	0xbcc0e0c6	-0.02354468
197	0xbd8f63e7	-0.07001477
198	0x3c1e8242	0.009674611
199	0xbc936deb	-0.017996749
200	0xbd39677c	-0.045264706
201	0x3d9dea8e	0.077107534
202	0x3c685ebe	0.014182745
203	0xbce0285c	-0.027362995
204	0x3d45443f	0.048160788
205	0x3ca75dfb	0.020430556
206	0x3d47cfef	0.048782285
207	0x3d669ea8	0.05630365
208	0x3cbc5c77	0.02299331
209	0x3d9510df	0.072786085
210	0x3d4cbe31	0.04998607
211	0xbcdbbd6d	-0.026823724
212	0xbd30a3e7	-0.04312506
213	0x3cf8b38c	0.030359052
214	0x3be89d4d	0.00709883
215	0x3d0db834	0.034599498
216	0x3d9e35c2	0.07725097
217	0x3d0bfbe1	0.034175757
218	0x3c3c0081	0.0114747295
219	0x3d71c6fd	0.05902766
220	0xbd4d83df	-0.05017459
221	0x3d8f425a	0.069950774
222	0xbb7d16c1	-0.0038618299
223	0x3ce64873	0.028110718
224	0x3d0b6b87	0.034038093
225	0x3c7a75ce	0.015286876
226	0xbd57da3a	-0.05269835
227	0xbc7cdd1a	-0.015433574
228	0x3d9150b1	0.07095469
229	0x3d12d522	0.03584779
230	0x3ba5c683	0.005059065
231	0x3d5cb404	0.053882614
232	0x3cbef137	0.02330838
233	0xbd40795f	-0.04699075
234	0xbcc5d839	-0.024150955
235	0x3a875539	0.0010325081
236	0x3d7f4492	0.062321253
237	0xbd0cd978	-0.03438708
238	0x3ca8bb28	0.020597056
239	0xbd8ef1fc	-0.069797486
240	0x3d0983e7	0.033573058
241	0xbbefb672	-0.0073154503
242	0xbc705df5	-0.014670839
243	0xbd75e83a	-0.06003592
244	0x3c98e92a	0.018665869
245	0xbc1fc98f	-0.009752645
246	0xbd140491	-0.036137167
247	0x3cf9f6d9	0.030513214
248	0x3d2f0f8c	0.042739436
249	0xbd4a8ea3	-0.049452435
250	0x3d3ce3c9	0.04611567
251	0x3d922f32	0.07137908
252	0x3cefec69	0.029287534
253	0x3d728fd1	0.059219185
254	0x3d51f577	0.051259484
255	0x3d7c12a5	0.06154122

conceptizer.encoder.1.0.bias f4 [5]
0	0xbccaecd9	-0.02477114
1	0x3d4a6c0c	0.049419448
2	0xbcc9fac6	-0.02465571
3	0xbc0897e5	-0.008336996
4	0x3d4189f3	0.0472507

conceptizer.encoder.2.layers.0.weight f4 [1, 16]
0	0xbb47b250	-0.0030471273
1	0xbe32ad44	-0.17448908
2	0xbdd867c0	-0.10566664
3	0xbe5772de	-0.21039912
4	0x3df13b2a	0.11778863
5	0x3dd3181e	0.10307334
6	0x3dad9a9b	0.08476754
7	0xbe6099f4	-0.21933728
8	0xbe1f2dbe	-0.15544793
9	0xbe56bd08	-0.20970547
10	0xbe54ff29	-0.20800461
11	0xbe7370ec	-0.23773545
12	0x3d653b1f	0.055964585
13	0xbe2ed811	-0.1707461
14	0xbe273c9e	-0.16331717
15	0x3e0e99a1	0.13925792

conceptizer.encoder.2.layers.1.weight f4 [1, 16]
0	0x3e035723	0.12826209
1	0xbe90d62d	-0.28288403
2	0xbd955dd9	-0.07293291
3	0x3ceccef0	0.02890727
4	0xbdd99e5a	-0.10625906
5	0x3d78ba34	0.060724452
6	0xbe96d620	-0.2946024
7	0x3dfbdf39	0.12298436
8	0xbbd17b6f	-0.0063928883
9	0xbe8bb85f	-0.272891
10	0xbda514bc	-0.080605954
11	0xbd89f09b	-0.06735345
12	0x3d8cf125	0.06881932
13	0xbd8fc3e4	-0.07019785
14	0x3d44fa81	0.04809046
15	0x3dd7a2f1	0.105291255

conceptizer.encoder.2.layers.2.weight f4 [1, 16]
0	0xbe70b629	-0.23506989
1	0x3e282f7d	0.16424365
2	0x3e627bcd	0.22117539
3	0x3ddd417f	0.10803508
4	0x3dba1cda	0.09087534
5	0xbe0704b4	-0.13185388
6	0x3e65225b	0.22376387
7	0xbe6aa3bb	-0.2291402
8	0xbe92ce88	-0.28673196
9	0xbe0767b6	-0.13223156
10	0x3e13c6df	0.14431332
11	0xbe39689c	-0.18106312
12	0xbe42e70d	-0.19033451
13	0x3de675e8	0.112529576
14	0x3e44e0f2	0.19226435
15	0xbd91f557	-0.07126873

conceptizer.encoder.2.layers.3.weight f4 [1, 16]
0	0x3e846d83	0.258648
1	0x3e09ed35	0.13469394
2	0xbd87f530	-0.06638563
3	0x3e32cdc6	0.17461309
4	0x3c785957	0.015158019
5	0x3df1b08e	0.11801253
6	0x3db0ab64	0.0862644
7	0x3ded4d96	0.11587064
8	0xbdf6dcaf	-0.12053811
9	0x3e58066b	0.21096198
10	0xbdf0168d	-0.11723051
11	0x3dc275d3	0.094951294
12	0x3df599c8	0.11992222
13	0xbd990af2	-0.07472791
14	0xbd9e2e0a	-0.07723625
15	0xbddef76d	-0.108870365

conceptizer.encoder.2.layers.4.weight f4 [1, 16]
0	0x3e0fdcc5	0.1404906
1	0xbe405aa2	-0.18784574
2	0xbd5d7767	-0.05406895
3	0xbcbc6a58	-0.022999927
4	0xbe8659ed	-0.26240483
5	0xbda55785	-0.08073334
6	0x3d9c2faa	0.07626279
7	0xbe00e60a	-0.12587753
8	0xbdd6bf66	-0.10485725
9	0xbe804c62	-0.25058275
10	0xbe7c605b	-0.24646132
11	0xbd3d7959	-0.046258304
12	0x3ce79678	0.028269991
13	0x3e181843	0.14853005
14	0x3d155e51	0.0364669
15	0xbd6b7934	-0.057488635

conceptizer.decoder.0.0.weight f4 [5, 16, 5, 5]
0	0xbd024dff	-0.031812664
1	0x3d89cfbe	0.06729077
2	0x3dc67483	0.096901916
3	0x3df539ca	0.11973913
4	0x3d5cde9b	0.05392323
5	0x3d964d3b	0.07338949
6	0x3c62fb05	0.013853793
7	0x3d47360c	0.048635527
8	0x3cc81505	0.024424085
9	0x3cc64202	0.024201397
10	0x3db8849b	0.090096675
11	0x3bbb86de	0.0057228645
12	0x3d01f07c	0.031723484
13	0x3d572717	0.052527513
14	0x3d9986f2	0.07496442
15	0xbda8ce0c	-0.08242425
16	0xbc27ba49	-0.010237285
17	0xbd055102	-0.03254796
18	0xbc545d16	-0.012961647
19	0xbce35b18	-0.027753398
20	0xba270008	-0.0006370549
21	0xbd1381a1	-0.036012296
22	0x3d3c8e49	0.04603413
23	0xbd0e62df	-0.03476226
24	0x3cea7888	0.028621927
25	0xbab6d5c6	-0.0013949207
26	0x3dac84d7	0.08423775
27	0x3d5499c6	0.051904462
28	0x3cd2f53e	0.025751706
29	0x3db17fcf	0.08666956
30	0x3d89a081	0.06720067
31	0x3d85a3a9	0.06525356
32	0x3c0fd340	0.008778393
33	0x3db3ef11	0.08785833
34	0x3d806452	0.062691346
35	0x3d57ba62	0.052667983
36	0x3c6df2f3	0.014523256
37	0x3d9d29f9	0.07674021
38	0x3d97ac24	0.0740588
39	0x3c1e36da	0.009656632
40	0x3d399e49	0.045316968
41	0xbb86dbd6	-0.004115562
42	0x3d81cfa0	0.063384295
43	0x3d004e46	0.031324647
44	0xbd0083f1	-0.03137583
45	0x3d47ea48	0.048807412
46	0x3d4f841e	0.050663106
47	0x3c4bcdb5	0.012439181
48	0xbcfd7e90	-0.030944139
49	0xbd309283	-0.043108474
50	0x3db4b2b5	0.08823148
51	0xbc25d80a	-0.0101223085
52	0xb94bf7f1	-0.00019451954
53	0x3db16768	0.08662301
54	0x3d28c301	0.041201595
55	0x3d0729b0	0.03299874
56	0x3daeec62	0.0854118
57	0x3db2bce2	0.08727433
58	0xbc219866	-0.009862995
59	0x3d47a9f7	0.048746075
60	0x3cfc36a8	0.03078778
61	0xbbcf3b40	-0.006324202
62	0x3d2943f8	0.041324586
63	0xbcf480b5	-0.029846529
64	0x3d1ff71c	0.03905402
65	0x3dc426ae	0.0957769
66	0xbac0fd93	-0.0014724009
67	0x3c2722c1	0.010201157
68	0x3c7447d5	0.014909704
69	0x3d6c800e	0.05773931
70	0x3e014fa3	0.12628035
71	0x3d215ead	0.03939693
72	0xbdbee1c8	-0.09320408
73	0x3db460d8	0.08807534
74	0xbdbdd623	-0.09269359
75	0x3d804d44	0.06264737
76	0x3be925c3	0.0071150973
77	0xbd030371	-0.031985704
78	0x3d760326	0.060061596
79	0x3dd84532	0.10560073
80	0xbcf713ac	-0.030160747
81	0xbd3a4ce5	-0.04548349
82	0x3d57182c	0.052513286
83	0xbd9cd29e	-0.076573595
84	0xbdb2e89a	-0.087357715
85	0x3d4791be	0.048722975
86	0x3d3b35e0	0.045705676
87	0xbc6680ec	-0.014068823
88	0x3d15d60b	0.03658108
89	0x3c58754b	0.013211559
90	0x3dcab069	0.09896929
91	0x3d26927b	0.04066704
92	0x3bb22e5b	0.005437655
93	0x3d95c569	0.073130436
94	0xbd9bada6	-0.0760148
95	0x3d876a52	0.06612076
96	0x3cec8f6c	0.028876983
97	0x3cff346a	0.031152923
98	0x3d5e1c0d	0.05422597
99	0x3d7cbcac	0.06170337
100	0x3d429db5	0.047513682
101	0xbd3481c8	-0.04406908
102	0x3dca3e11	0.098751195
103	0x3d163f58	0.036681503
104	0x3df94a60	0.12172389
105	0xbdbfdf79	-0.09368796
106	0x3d1db6ed	0.03850453
107	0x3de06077	0.10955899
108	0xbd08bae3	-0.033381354
109	0xbd951dd2	-0.072810784
110	0x3c466fee	0.012111647
111	0x3d841184	0.06448653
112	0xbcb82809	-0.022480028
113	0xbd177973	-0.036981057
114	0xbddba3b3	-0.107245825
115	0x3d04cda0	0.03242266
116	0x3d065034	0.03279133
117	0x3d1acb72	0.037791677
118	0xbcd0b20f	-0.02547553
119	0xbdc578c4	-0.09642175
120	0x3d171384	0.036883846
121	0xbe0e7b7b	-0.13914292
122	0xbca31c49	-0.019910948
123	0x3d86a8c6	0.0657516
124	0xbd80c227	-0.062870316
125	0x3dda624a	0.106632784
126	0x3c441a79	0.011969202
127	0x3c6c8b4f	0.014437511
128	0x3ddab3cc	0.10678825
129	0x3dacee94	0.08443943
130	0x3cbed551	0.023295077
131	0xbadfcbce	-0.0017074288
132	0x3d3314a0	0.04372084
133	0x3dc936e9	0.098249264
134	0xbd1b4c9f	-0.03791487
135	0x3d78e3e7	0.06076422
136	0x3be643c2	0.0070271203
137	0x3cd889d9	0.026432918
138	0x3c49f144	0.012325589
139	0x3d3c00ee	0.045899324
140	0x3d24ab4a	0.040202416
141	0x3c3c9743	0.011510673
142	0xbc985eec	-0.01859995
143	0xbce55785	-0.027995834
144	0x3dc11243	0.09427311
145	0x3df2f409	0.11862952
146	0x3a0839f5	0.00051966246
147	0x3c1e83a8	0.009674944
148	0xbd8c67e9	-0.06855757
149	0x3d83473a	0.0641007
150	0xbd69c453	-0.057071995
151	0xbbe2daad	-0.006923041
152	0x3d16720e	0.036729865
153	0xbd513c53	-0.05108292
154	0x3e04477b	0.12917893
155	0xbcd52ba1	-0.02602178
156	0x3bbf0523	0.0058294698
157	0x3d8db017	0.06918352
158	0xbc0b3352	-0.008496122
159	0xbd83e40e	-0.06439982
160	0xbc8a7422	-0.01690108
161	0x3dc5844d	0.09644375
162	0xbd59c7b4	-0.053168967
163	0x3d8fa531	0.0701393
164	0x3dcb19d3	0.09917035
165	0xbcc2a098	-0.023758218
166	0x3d206f19	0.03916845
167	0x3d313ae0	0.04326904
168	0x3dbdda0a	0.09270103
169	0xbdf1d74b	-0.11808642
170	0x3b15abfb	0.0022838104
171	0xbc32c91d	-0.010912207
172	0xbd190387	-0.03735688
173	0xbdf86cdb	-0.121301375
174	0xbde5ba7a	-0.11217208
175	0x3dfe4800	0.12416077
176	0x3daf70d6	0.085664436
177	0x3de9f81a	0.11424275
178	0x3dcb9b94	0.099417835
179	0x3dae2adc	0.085042685
180	0x3de6aad0	0.11263049
181	0x3d8854cf	0.06656801
182	0x3cc77513	0.024347818
183	0x3dc6103b	0.096710645
184	0x3da58ca0	0.08083463
185	0x3d98498f	0.07435905
186	0x3de1494d	0.11000309
187	0x3da4309e	0.080170855
188	0xbd2992cb	-0.04139976
189	0x3cf5410a	0.02993824
190	0x3dcb4964	0.099261075
191	0x3d1e4359	0.038638446
192	0xbcefc198	-0.029267117
193	0xbd923082	-0.071381584
194	0xbcd09faf	-0.025466768
195	0x3d58f43f	0.052967306
196	0x3de0d8b0	0.1097883
197	0xbd4e3884	-0.050346866
198	0xbd531ca7	-0.051540997
199	0xbe0fd6f4	-0.14046842
200	0x3de237fd	0.11045835
201	0xbdc7259a	-0.09723969
202	0xbcbe2b4c	-0.023214005
203	0x3d79b5a9	0.06096426
204	0x3e0b27e1	0.13589431
205	0x3dc9378a	0.09825046
206	0x3c19af01	0.009380103
207	0xbd30fd12	-0.043210097
208	0xbcbb6407	-0.022874845
209	0xbd2b5d9a	-0.041837312
210	0x3d2aa46a	0.041660704
211	0x3ca841ef	0.020539252
212	0x3b669017	0.00351811
213	0xbc288e1b	-0.010287787
214	0x3dc0e414	0.094185024
215	0x3dc65101	0.09683419
216	0x3d98e646	0.07465796
217	0xbc4b7377	-0.012417666
218	0x3dbd1598	0.09232634
219	0x3dbb6b28	0.09151298
220	0xbcb4daab	-0.022076925
221	0xbd968271	-0.073490985
222	0xbe0df1e1	-0.138618
223	0xbdd3b1d2	-0.10336651
224	0xbd37acc5	-0.0448425
225	0x3cbfda38	0.023419484
226	0x3d8cbf2c	0.06872401
227	0x3e019a67	0.12656556
228	0x3e00096c	0.12503594
229	0x3d27413a	0.04083369
230	0x3de48e2a	0.11159928
231	0x3d9848dc	0.07435772
232	0x3dabf45b	0.083962165
233	0xbcb66e85	-0.022269497
234	0x3e04acad	0.12956496
235	0x3cac8203	0.021058088
236	0x3dc5b10e	0.09652911
237	0x3dcf74e8	0.1012972
238	0x3c972ea0	0.01845485
239	0x3d1a6856	0.03769716
240	0x3ce7711a	0.028252173
241	0xbc2f538a	-0.01070107
242	0x3ab7fe59	0.0014037594
243	0x3db6bf20	0.08923173
244	0x3cd8828f	0.026429443
245	0x3e09ee2a	0.13469759
246	0x3dccdba5	0.10002831
247	0x3adab0c8	0.0016684765
248	0xbcabd9e5	-0.020977924
249	0xbd936ffe	-0.07199095
250	0xbb9122f6	-0.0044292165
251	0xbbe63629	-0.0070254994
252	0x3ca183e5	0.019716213
253	0xbdaf4877	-0.085587434
254	0xbda0b04d	-0.07846127
255	0xba8723ca	-0.0010310349

conceptizer.decoder.0.0.bias f4 [16]
0	0xbbd0b74f	-0.0063695083
1	0x3ce9d4c4	0.028543837
2	0x3db19ce1	0.086725004
3	0x3d99925a	0.074986175
4	0x3d196799	0.037452314
5	0x3da08a4c	0.07838878
6	0x3daa1897	0.083054714
7	0x3da7d15e	0.081942305
8	0x3cd521ff	0.026017187
9	0x3d176f15	0.03697117
10	0x3de43ded	0.11144624
11	0x3cc613ee	0.024179425
12	0x3d3e6c2e	0.046489887
13	0x3cf13242	0.02944291
14	0x3c899ac8	0.016797438
15	0x3d89a5f2	0.06721105

conceptizer.decoder.2.0.weight f4 [16, 8, 5, 5]
0	0x3dbf5ecb	0.09344252
1	0x3ccae079	0.02476524
2	0x3da8c897	0.082413845
3	0xbd98d145	-0.0746179
4	0xbd06c1b5	-0.032899577
5	0xbc97db26	-0.018537115
6	0x3d57dcdc	0.052700862
7	0xbce3f5d0	-0.027827173
8	0xbcc69185	-0.024239311
9	0x3e069652	0.1314328
10	0xbd99837a	-0.0749578
11	0x3c0f81d9	0.008758985
12	0xbd9838a4	-0.07432678
13	0x3c4ef191	0.012630836
14	0xbd67e3a2	-0.056613572
15	0xbbdd7c66	-0.006759214
16	0x38d08192	9.942347e-05
17	0xbd151fb7	-0.0364072
18	0x3b0d05fd	0.0021518462
19	0xbd0bba5b	-0.03411327
20	0xbd2c9203	-0.042131435
21	0xbd0630e1	-0.03276146
22	0xbd9ab9e8	-0.0755499
23	0xbd6dbd1a	-0.05804167
24	0x3d67ad89	0.05656198
25	0x3c1be159	0.009514176
26	0xbd3c3ac0	-0.045954466
27	0xbc9247c9	-0.017856495
28	0x3bdfa045	0.0068245255
29	0xb9a375de	-0.000311776
30	0x3d5eebb9	0.05442402
31	0xbd3ccda1	-0.04609454
32	0xbd42fd3c	-0.047604784
33	0x3cc4b05b	0.024009874
34	0xbc852d1b	-0.01625686
35	0xbd2aa467	-0.041660693
36	0xbba8c0e3	-0.005149947
37	0xbcd41fe0	-0.025894105
38	0xba228da8	-0.0006200918
39	0xbd1dc4c3	-0.038517725
40	0xbd85162f	-0.06498372
41	0xbcfc708f	-0.03081539
42	0x3ccad72d	0.024760807
43	0x3d7dac4c	0.061931893
44	0x3c675afe	0.014120815
45	0xbc11505e	-0.008869259
46	0x3c10e855	0.008844455
47	0x3d330c7f	0.04371309
48	0xbd14658b	-0.03622965
49	0xbd19251e	-0.037388913
50	0x3cc90d26	0.024542402
51	0x3bfad0cf	0.0076542865
52	0xbda3e9e2	-0.08003594
53	0x3c8c0773	0.017093396
54	0x3cc6bfdc	0.024261408
55	0xbd710d3f	-0.058850523
56	0x39af7203	0.00033463546
57	0xbd598e45	-0.053114194
58	0xbd811ddd	-0.06304524
59	0x3d547c86	0.051876567
60	0xbb9c8f4c	-0.0047778245
61	0xbd09266f	-0.03348392
62	0xbd8341c3	-0.064090274
63	0x3bf34baf	0.0074247937
64	0xbd080cf6	-0.033215486
65	0x3bb2c73f	0.005455881
66	0x3b93eb39	0.0045141247
67	0xbc170819	-0.009218239
68	0xbd7cdab0	-0.061731994
69	0xbd1a6e1f	-0.037702676
70	0x3d0988f3	0.03357787
71	0xbda058c1	-0.078294285
72	0x3cdcd590	0.026957303
73	0xbc03b769	-0.008039334
74	0xbcb81dba	-0.022475112
75	0x3db27e68	0.08715516
76	0x3d8f27e6	0.06990032
77	0x3d7aba7d	0.061213005
78	0xbc4a3218	-0.012341045
79	0xbc084865	-0.008318041
80	0x3dde4c2e	0.10854374
81	0x3c9b7c27	0.018980099
82	0x3be48b9a	0.0069746496
83	0x3d1f88e3	0.038948905
84	0xbb5d5153	-0.0033770397
85	0xbe383148	-0.1798755
86	0xbde5ad5a	-0.11214705
87	0xbcc95915	-0.02457861
88	0xbd507ef2	-0.050902314
89	0x3cb9edb1	0.022696348
90	0xbe308509	-0.17238249
91	0xbdd5a770	-0.10432327
92	0xbdb538e7	-0.08848744
93	0xbb9e4d9b	-0.0048310286
94	0x3d970144	0.07373288
95	0xbd2d1728	-0.04225841
96	0xbdbf1481	-0.09330083
97	0xbe07deef	-0.13268636
98	0xbd538aa5	-0.051645894
99	0x3c89ef8a	0.016837854
100	0x3d035538	0.032063693
101	0x3bc209eb	0.0059215925
102	0x3d43bf34	0.047789767
103	0xbc30fa3c	-0.010801848
104	0xbdecfa90	-0.115712285
105	0x3e3e650f	0.18593238
106	0x3d993ecc	0.07482681
107	0x3da5aa70	0.08089149
108	0x3d89b687	0.067242675
109	0xbcb6862f	-0.02228078
110	0xbd0ec1ef	-0.03485292
111	0x3cb97a39	0.022641288
112	0x3d84f4dd	0.064920165
113	0x3d810a37	0.063007765
114	0x3d0a3fc7	0.03375223
115	0xbe2b2c50	-0.16716123
116	0x3af31a84	0.0018547331
117	0x3cbbbb36	0.022916418
118	0x3d4fe7d3	0.050758194
119	0xbd6fe8d8	-0.058571666
120	0xbdf8a77e	-0.121413216
121	0xbca0ed87	-0.019644512
122	0xbdc050b4	-0.09390393
123	0x3c5425cf	0.012948467
124	0xbcebeeae	-0.028800335
125	0x3dd1543e	0.10221146
126	0x3dc21645	0.09476904
127	0x3d6eb480	0.058277607
128	0xbcef4b74	-0.029210784
129	0x3d92591d	0.07145903
130	0x3da8922c	0.08231005
131	0x3d8abe00	0.06774521
132	0x3da099bf	0.07841825
133	0x3caf6183	0.021408802
134	0x3ce97943	0.028500205
135	0xbe07d4ac	-0.13264722
136	0xbe071a7f	-0.13193701
137	0xbae67676	-0.0017582912
138	0xbc325a63	-0.010885808
139	0xbc08693e	-0.008325873
140	0xbe074021	-0.13208057
141	0xbdfd225c	-0.12360069
142	0xbd05fa76	-0.03270956
143	0xbddf4ec2	-0.10903694
144	0xbd2ac9ec	-0.041696474
145	0xbd99b489	-0.075051375
146	0xbe2609af	-0.16214631
147	0xbca747f3	-0.02042005
148	0xbc15e283	-0.009148243
149	0x3d7ae4d2	0.061253376
150	0x3ddcf1dc	0.107883185
151	0x3dadee24	0.08492687
152	0xbc3d1329	-0.011540213
153	0x3d2f40c8	0.04278639
154	0x3dde4cee	0.10854517
155	0x3ce048a1	0.027378382
156	0xbd7a592a	-0.06112019
157	0x3ce34383	0.027742153
158	0x3dc26acc	0.09493026
159	0xbc830e3c	-0.015997998
160	0xbdc0c6a8	-0.09412891
161	0xbd746343	-0.059664976
162	0x38b6c548	8.715183e-05
163	0xbd27403e	-0.04083275
164	0xbe0965cc	-0.13417739
165	0xbe019fcb	-0.12658612
166	0xbbfb5322	-0.0076698223
167	0xbd8c2f56	-0.06844966
168	0xbdff097a	-0.124529794
169	0xbd1124d9	-0.03543553
170	0xbd8e5cfe	-0.069513306
171	0xbd41a7e5	-0.047279257
172	0xbdbe7e10	-0.09301388
173	0x3c6abe83	0.014327648
174	0x3d1c3dfb	0.038145047
175	0x3e118d2a	0.14214006
176	0x3cc66acf	0.024220852
177	0x3e19e5fc	0.15029138
178	0x3cfea600	0.031085014
179	0xbb3e9cd7	-0.0029085183
180	0xbdad640e	-0.084663495
181	0x3c96a9e2	0.018391553
182	0xbd079672	-0.03310246
183	0x3d2d7411	0.042347018
184	0xbd4569ab	-0.048196476
185	0xbe1e88ae	-0.15481827
186	0x3d553fe6	0.05206289
187	0x3c78f852	0.015195923
188	0xbc881818	-0.016613051
189	0x3cabe2d5	0.020982185
190	0x3bc0c7a6	0.005883175
191	0xbca5c23a	-0.020234216
192	0xbd21e92e	-0.039529018
193	0x3cd6ecff	0.026236055
194	0xbd175d28	-0.036954075
195	0xbdc4ed56	-0.09615581
196	0xbbd2d0e9	-0.0064335954
197	0xbd3e56cc	-0.046469495
198	0x3d934bff	0.071922295
199	0x3bf291a6	0.0074026166
200	0x3dbf1299	0.09329719
201	0xbd0fa9db	-0.035074096
202	0xbccaa712	-0.024737868
203	0x3d8a1882	0.06742956
204	0x3dc8bb25	0.0980132
205	0x3dbb3501	0.09140969
206	0xbd3a4e1a	-0.04548464
207	0x3d1e26be	0.038611166
208	0x3d9a7459	0.07541723
209	0x3da7ab30	0.08186948
210	0x3d4aab64	0.049479857
211	0xbd55c074	-0.05218549
212	0xbcdb249e	-0.026750859
213	0x3b2cce61	0.0026368129
214	0xbd3e8d5e	-0.046521537
215	0xbd48925f	-0.048967715
216	0x3d760585	0.060063858
217	0x3b9e23ec	0.0048260596
218	0xbd11d6e1	-0.035605315
219	0xbd361a6f	-0.044458803
220	0x3d31ea2d	0.043436218
221	0x3e1a87b9	0.15090837
222	0xbdeef8a1	-0.11668516
223	0xbd96de41	-0.0736661
224	0x3db5cbd6	0.08876769
225	0x3c8a7934	0.016903497
226	0x3d04f92c	0.03246419
227	0x3c66207f	0.014045834
228	0xbb84270c	-0.004032975
229	0xbc13a136	-0.009010604
230	0xbd0e3730	-0.0347206
231	0xbc21c74e	-0.009874178
232	0xbcf9428a	-0.030427236
233	0x3cbe62f0	0.023240536
234	0xbd270712	-0.040778227
235	0x3d527dc9	0.05138949
236	0x3d4be661	0.049780253
237	0x3cce112d	0.025154674
238	0x3d775ce9	0.06039134
239	0x3c5a23ed	0.013314229
240	0x3d5841a4	0.052796975
241	0x3ca7bd14	0.020475902
242	0xbd61da01	-0.055139545
243	0xbd8f38d2	-0.069932595
244	0x3d11b2ec	0.035571024
245	0xbd0d0821	-0.03443158
246	0xbd8b4c56	-0.06801669
247	0xbd8c79d3	-0.068591736
248	0x3c0ca0ce	0.008583261
249	0xbc991c89	-0.018690364
250	0xbd0ff0fb	-0.035141926
251	0x3b1a6a8a	0.0023562037
252	0xbccae02b	-0.024765095
253	0x3cf29fc3	0.029617196
254	0xbd757126	-0.05992236
255	0x3d2ed261	0.0426811

conceptizer.decoder.2.0.bias f4 [8]
0	0x3d06ee18	0.032941908
1	0xbb45f012	-0.0030202908
2	0x3d4f06f6	0.050543748
3	0x3d33acff	0.043866154
4	0x3d7054e0	0.058674693
5	0x3cbb865c	0.022891216
6	0x3cd12365	0.025529573
7	0x3d7dc52a	0.06195561

conceptizer.decoder.4.0.weight f4 [8, 1, 2, 2]
0	0xbef2f02f	-0.4744887
1	0xbe5ec91f	-0.21756409
2	0xbebf3a37	-0.37349102
3	0x3ec92f46	0.3929388
4	0x3ec783f5	0.38967863
5	0x3ed64968	0.4185288
6	0x3ef78ab8	0.48348022
7	0x3ee56033	0.44799957
8	0x3eb6a856	0.35675305
9	0x3ec1c69d	0.37846842
10	0x3ed1f416	0.41006535
11	0xbea44ffa	-0.32092267
12	0xbef4672c	-0.47734964
13	0xbeff01d0	-0.4980607
14	0xbed9ddb6	-0.42551965
15	0xbef965ba	-0.48710424
16	0xbea25939	-0.31708696
17	0xbee567e5	-0.44805828
18	0x3e980dad	0.29697934
19	0xbc51de57	-0.012809358
20	0xbed24f6d	-0.41076222
21	0xbca370ee	-0.01995131
22	0xbf1cfc38	-0.61322355
23	0xbeb28ede	-0.34874624
24	0x3cef5d74	0.029219367
25	0xbf060cb2	-0.5236312
26	0xbe24e894	-0.16104347
27	0xbdca8b2c	-0.09889826
28	0x3f094cce	0.5363282
29	0xbde81813	-0.11332717
30	0x3e8fe1b2	0.2810188
31	0xbf02641d	-0.5093401

conceptizer.unlinear.weight f4 [16, 1]
0	0xbf51f68e	-0.8201684
1	0x3ef33cf1	0.47507432
2	0xbed5b7ec	-0.41741884
3	0xbf840447	-1.0313805
4	0xbf65cad5	-0.8976262
5	0xbf0868bf	-0.5328483
6	0x3f58c6b3	0.8467819
7	0xbf4d9d53	-0.8031818
8	0xbf1a56f2	-0.6028892
9	0xbf50f4ab	-0.81623334
10	0x3f528160	0.8222866
11	0x3f0b3715	0.54380924
12	0xbf3aa020	-0.7290058
13	0xbdf9ee3a	-0.12203641
14	0xbf10b1a4	-0.5652106
15	0x3f124f66	0.571524

conceptizer.unlinear.bias f4 [16]
0	0x3f407d9b	0.7519166
1	0xbe6ee377	-0.23328958
2	0xbf8abad2	-1.0838263
3	0x3f4d37a6	0.8016304
4	0x3edd2a84	0.431965
5	0x3e2cdafb	0.1688041
6	0xbf1726ba	-0.5904347
7	0x3ed72b5b	0.42025265
8	0x3e2598d3	0.16171579
9	0xbf165c8e	-0.5873498
10	0xbf3441a5	-0.70412666
11	0x3f0a3b68	0.53996897
12	0xbe69aac8	-0.22819054
13	0xbf270545	-0.65242416
14	0xbf11dee6	-0.5698074
15	0x3eb3d2a3	0.3512164

parameterizer.cl_layers.0.weight f4 [10, 1, 5, 5]
0	0x3dea32e2	0.114354864
1	0x3c3576ba	0.01107567
2	0x3dcafb83	0.09911253
3	0x3e283f4d	0.16430397
4	0x3ddb0574	0.106943995
5	0xbc3879aa	-0.011259476
6	0x3e5698a9	0.20956673
7	0xbdbd57d7	-0.0924527
8	0xbde13366	-0.109961316
9	0xbdb17977	-0.08665746
10	0x3d6d299e	0.057901017
11	0x3e0fcdfd	0.14043422
12	0x3dc1e110	0.094667554
13	0x3e5f7c23	0.21824698
14	0x3e384cad	0.17998
15	0xbe5b2043	-0.21399026
16	0xbdd42f6c	-0.103606075
17	0xbe0b053f	-0.1357622
18	0xbdba929e	-0.09109996
19	0xbe51e550	-0.20497632
20	0xbcc008df	-0.02344173
21	0xbe73414e	-0.2375538
22	0xbe6099e9	-0.21933712
23	0xbe0a5fbb	-0.13513081
24	0xbe4d16f0	-0.20028281
25	0xbdf3a1c6	-0.1189609
26	0xbd355f73	-0.04428048
27	0x3e1fd297	0.15607677
28	0xbcca18e1	-0.024670066
29	0xbcae2ed9	-0.021262573
30	0xbe42e7e7	-0.19033776
31	0xbddc48a1	-0.1075604
32	0x3ca08963	0.019596761
33	0x3bfa2aee	0.007634512
34	0xbd7324c3	-0.05936123
35	0xbdfb0980	-0.12257671
36	0x3d863548	0.06553131
37	0xbdf039ac	-0.1172975
38	0x3c660e9d	0.01404157
39	0xbdf9f2fc	-0.12204549
40	0x3e35e5f5	0.17763503
41	0xbd75a3fb	-0.059970837
42	0x3a288323	0.00064282323
43	0xbe42be85	-0.1901799
44	0xbdf83a08	-0.121204436
45	0x3e791d45	0.24327572
46	0x3d95f382	0.07321836
47	0xbe1501f9	-0.14551534
48	0x3e04b77e	0.12960622
49	0xbe416e03	-0.18889622
50	0xbe243604	-0.1603623
51	0xbc04a0b4	-0.008094955
52	0x3d58af02	0.052901275
53	0x3dbee10a	0.093202665
54	0x3d8c59dc	0.06853077
55	0xbbee4b49	-0.0072721583
56	0xbe07acaf	-0.13249467
57	0x3e2077e9	0.15670742
58	0x3df79a6c	0.120900005
59	0x3de7fa0d	0.1132699
60	0x3d87faae	0.0663961
61	0xbd21798e	-0.039422564
62	0xbd6ef8ed	-0.058342863
63	0x3e306486	0.17225847
64	0x3e072f3c	0.13201612
65	0xbe1e750a	-0.15474334
66	0xbe30110d	-0.17194004
67	0x3dd44174	0.10364047
68	0x3c6351c0	0.013874471
69	0x3e4f0136	0.20215306
70	0x3c93cc1c	0.018041663
71	0xbe58afb2	-0.21160772
72	0xbdbd81a7	-0.09253245
73	0xbda0af3f	-0.078459255
74	0x3e831165	0.25599208
75	0xbd654c47	-0.055980947
76	0x3e8809c6	0.26569957
77	0x3e49824e	0.19678614
78	0x3e5d3ad9	0.2160448
79	0x3e620617	0.22072636
80	0x3dcd913e	0.100374684
81	0x38ef15d4	0.00011400474
82	0x3e134450	0.14381528
83	0x3e39edc5	0.18157108
84	0x3de58f3e	0.11208962
85	0xbda4062f	-0.08008992
86	0xbe44f753	-0.19234972
87	0xbe3559ba	-0.17710009
88	0xbe10278d	-0.14077587
89	0xbe651762	-0.22372201
90	0x3dd63140	0.104586124
91	0xbe3ff0e3	-0.18744235
92	0x3ddd12aa	0.107945755
93	0xbdc6f2c9	-0.09714276
94	0x3d295e93	0.04134996
95	0xbe5d84e4	-0.21632725
96	0xbe3ba7ad	-0.18325682
97	0x3d70bae3	0.05877198
98	0xbe714db1	-0.23564793
99	0x3da2a47a	0.07941528
100	0x3dcab915	0.09898583
101	0x3e36c4cc	0.1784851
102	0xbe408bc6	-0.1880332
103	0xbd27741a	-0.040882207
104	0xbe185544	-0.14876276
105	0xbdde832b	-0.10864862
106	0x3dba1091	0.09085191
107	0xbe2f8b16	-0.17142901
108	0xbe0e4470	-0.13893294
109	0xbd613218	-0.054979414
110	0x3cd0a697	0.025470061
111	0x3b4e5835	0.003148568
112	0xbd9a7978	-0.075426996
113	0x3df69bbb	0.12041422
114	0x3d81c772	0.06336869
115	0x3de48427	0.111580186
116	0xbd8aeea7	-0.067838006
117	0xbdb43803	-0.08799746
118	0xbca17c3c	-0.01971256
119	0xbd9ac366	-0.075568005
120	0xbd592f14	-0.053023413
121	0xbe597519	-0.21236075
122	0xbe3d887e	-0.18509099
123	0x3e21abc8	0.15788186
124	0xbd150a4b	-0.03638677
125	0xbe610eab	-0.21978252
126	0xbdddcca1	-0.108300455
127	0x3e00dbc4	0.12583834
128	0xbdb99a76	-0.09062664
129	0xbdc85522	-0.09781863
130	0x3d7d9feb	0.061920088
131	0xbe53e176	-0.20691475
132	0xbe5267ee	-0.20547459
133	0x3e0a214e	0.13489267
134	0x3e628f1f	0.22124909
135	0x3df032fb	0.11728474
136	0xbe57dc21	-0.21080066
137	0x3e172d70	0.14763427
138	0x3df26394	0.11835399
139	0xb9476b78	-0.00019018154
140	0x3da81aa7	0.082082085
141	0xbe6b9b59	-0.23008479
142	0x3e074cc3	0.13212876
143	0x3e28ffe4	0.16503865
144	0x3c9b40aa	0.018951733
145	0xbe6ec00f	-0.23315452
146	0x3d8d8abe	0.069112286
147	0xbde331d8	-0.11093491
148	0x3e825fe4	0.25463784
149	0x3e21b36c	0.157911
150	0x3caf064c	0.021365307
151	0xbdbf4bb7	-0.09340613
152	0x3dd00296	0.10156743
153	0x3e57b8f3	0.21066646
154	0xbe24ba73	-0.1608675
155	0xbd9199fb	-0.071094476
156	0xbe085a4e	-0.13315699
157	0x3e37d41c	0.17952007
158	0x3e345d84	0.17613798
159	0xbb4e5f50	-0.0031489916
160	0x3c380bbb	0.0112332655
161	0xbd2816be	-0.041037314
162	0x3e4a6837	0.19766317
163	0xbe2fbbee	-0.17161533
164	0xbe262085	-0.16223343
165	0x3d858d1a	0.065210536
166	0x3e27b272	0.16376665
167	0xbd97726e	-0.073948726
168	0x3e3267a7	0.17422353
169	0xbe489bc6	-0.19590673
170	0xbe1adbb5	-0.15122874
171	0xbdfec5c2	-0.12440063
172	0xbe01c5f4	-0.1267317
173	0x3dfd19f9	0.123584695
174	0xbd2a0bb3	-0.041515063
175	0x3e2a37ec	0.16622895
176	0xbe4f16a3	-0.20223479
177	0xbe18c000	-0.14916992
178	0xbe124a86	-0.14286241
179	0x3e9871c2	0.2977429
180	0x3dfced73	0.12349977
181	0xbe191900	-0.14950943
182	0x3c4190e7	0.011814333
183	0xbc834273	-0.016022896
184	0x3e4522ff	0.19251631
185	0x3bd17a16	0.0063927276
186	0x3e0b52ac	0.13605756
187	0xbe32c41a	-0.1745762
188	0xbe21f449	-0.15815844
189	0x3c2529e3	0.010080787
190	0xbc6e0adf	-0.014528959
191	0xbe3393e2	-0.17536882
192	0x3ddf8189	0.10913379
193	0xbe528ff8	-0.20562732
194	0x3e23640e	0.15956137
195	0xbe1927e6	-0.14956626
196	0xbe3b76f2	-0.18307093
197	0x3d32cff6	0.04365536
198	0xbe4204e9	-0.18947186
199	0xbe6ba14c	-0.23010749
200	0xbd8a733e	-0.06760262
201	0xbe58b921	-0.21164371
202	0xbe058a5d	-0.13041063
203	0x3e595648	0.2122432
204	0xbd6009a1	-0.054696683
205	0x3e220d85	0.1582547
206	0x3dd4a37a	0.10382743
207	0x3e01d186	0.12677583
208	0xbd309494	-0.043110445
209	0x3e16cebf	0.14727305
210	0x3d1b9eb1	0.037993137
211	0x3e01ea80	0.12687111
212	0xbc94cd60	-0.018164337
213	0x3d27bea5	0.040953297
214	0xbd25f356	-0.040515266
215	0xbe473e10	-0.19457269
216	0x3e027760	0.1274085
217	0x3dcd823d	0.100346066
218	0xbe4a46fc	-0.19753641
219	0xbe552875	-0.20816214
220	0xbca15048	-0.019691601
221	0xbe584725	-0.2112089
222	0x3deedc63	0.11663129
223	0xbe448ab8	-0.19193542
224	0x3e5f7fad	0.21826048
225	0xbd00bc8f	-0.031429823
226	0xbe70825c	-0.23487228
227	0xbe44b329	-0.19208969
228	0xbdfbc739	-0.12293858
229	0x3e35eaf4	0.17765409
230	0xbd8b7e03	-0.06811144
231	0x3e08c0b3	0.13354759
232	0x3e2b37bc	0.1672048
233	0x3d1fc4bc	0.03900598
234	0x3deeadf4	0.11654273
235	0x3dd4cf41	0.10391093
236	0x3df2fe7d	0.11864946
237	0x3e6549b1	0.22391392
238	0x3d8055e7	0.062663846
239	0xbdd5ea5b	-0.104450904
240	0x3d85ce4e	0.0653349
241	0x3d505cb8	0.050869673
242	0x3ad01e7e	0.0015878228
243	0x3d8a87bc	0.067641705
244	0xbe0c2dfe	-0.1368942
245	0xbad41078	-0.0016179224
246	0xbd0c048b	-0.03418402
247	0xbdd8a4e6	-0.10578327
248	0xbd82ff08	-0.063962996
249	0x3de510be	0.11184834

parameterizer.cl_layers.0.bias f4 [10]
0	0x3e359ae2	0.17734864
1	0x3e34d376	0.17658791
2	0xbe0785a9	-0.13234581
3	0x3d0c226e	0.034212522
4	0x3d47999e	0.048730485
5	0x3dd8fe44	0.10595372
6	0xbe03068d	-0.12795468
7	0xbe0e4d5c	-0.13896698
8	0xbd8ec9c2	-0.06972076
9	0xbc9a525c	-0.0188381

parameterizer.cl_layers.3.weight f4 [20, 10, 5, 5]
0	0xbb48a175	-0.0030613814
1	0xbd511b1e	-0.05105125
2	0xbd59dc7b	-0.053188782
3	0xbdb0e4e4	-0.086374074
4	0x3c3f2bfa	0.0116682
5	0x3d4081d8	0.04699883
6	0x3c3685b5	0.011140277
7	0xbd69a08f	-0.057037886
8	0x3c8c75be	0.017145988
9	0xbd0cf8cf	-0.03441697
10	0xbd30b1cb	-0.043138307
11	0x3c97a4f8	0.01851128
12	0xbcf7a38e	-0.030229356
13	0xbd821343	-0.0635133
14	0xbc5f3a8d	-0.013624799
15	0x3cc8f581	0.024531128
16	0x3c8efdea	0.01745506
17	0xbd5ba864	-0.053627387
18	0xbd242190	-0.04007107
19	0x3cf58514	0.029970683
20	0xbd3345b1	-0.043767635
21	0xbbca71bb	-0.0061781085
22	0x3bc6e864	0.0060701836
23	0xbbff9917	-0.007800232
24	0xbd7add0f	-0.061245974
25	0x3d5b45b0	0.053533256
26	0x3d780a25	0.06055655
27	0xbd4419b3	-0.04787607
28	0xbd59cf98	-0.053176492
29	0xbbe596d4	-0.0070065055
30	0xbd1ed757	-0.038779583
31	0xbce46179	-0.02787851
32	0xbd397212	-0.0452748
33	0xbd1a9a4a	-0.037744798
34	0x3d288068	0.041138083
35	0xbc1051fc	-0.008808609
36	0xbc1bd038	-0.009510092
37	0x3d3e4b07	0.04645827
38	0x3cf30be7	0.029668761
39	0x3d13eb6e	0.036113195
40	0xbcaa8c6c	-0.020818911
41	0x3d302091	0.042999808
42	0x3cb3f04d	0.02196517
43	0xbccbbc3d	-0.024870032
44	0xbd4e83ee	-0.050418787
45	0x38bbdf8f	8.958496e-05
46	0x3d0b453b	0.03400157
47	0x3cfb877b	0.03070425
48	0x3d33ccd3	0.043896507
49	0xbc192a2e	-0.009348435
50	0x3d620f95	0.05519064
51	0xbc8e0177	-0.017334683
52	0x3d3d6cc9	0.046246324
53	0xbc3ef528	-0.0116551295
54	0x3d461fc4	0.048370138
55	0xbcb1739f	-0.021661578
56	0xbd4c5c87	-0.04989293
57	0x3d56a707	0.052405383
58	0xbcd4304b	-0.025901934
59	0xbd2cbd37	-0.042172637
60	0x3b4987c8	0.0030751098
61	0x3ce8dc8a	0.028425474
62	0xbc90f4ef	-0.017694918
63	0xbc079e1f	-0.008277445
64	0xbb20872a	-0.0024494627
65	0x3b89fb95	0.004210899
66	0x3d812aeb	0.06307014
67	0xbaddcc6c	-0.0016921884
68	0x3d472f3d	0.048629034
69	0xbd3bcb22	-0.04584802
70	0xbc965523	-0.018351143
71	0x3c51e321	0.012810499
72	0x3d9536dc	0.07285854
73	0x3d441216	0.04786881
74	0x3db44017	0.08801287
75	0xbbfee695	-0.0077789524
76	0xbd0ee79d	-0.034888852
77	0xbd276f75	-0.040877778
78	0xbc958a42	-0.018254403
79	0x3c266741	0.010156454
80	0xbc1ddb4b	-0.009634803
81	0x3cb9274a	0.022601742
82	0xbcb82efb	-0.02248334
83	0x3ced6d43	0.028982764
84	0xbda80bf9	-0.082054086
85	0x3d107a68	0.035272986
86	0xbb8b5a29	-0.0042526913
87	0xbd605496	-0.054768167
88	0xbdbf2510	-0.09333241
89	0xba79528d	-0.0009510897
90	0xba8b4d26	-0.001062785
91	0x3d3afd78	0.045651883
92	0x3d16a1ac	0.036775276
93	0xbc465e72	-0.012107478
94	0xbc18b906	-0.009321457
95	0x3d5c7f4a	0.05383233
96	0xbc8b02b7	-0.016969068
97	0xbcafd766	-0.021465015
98	0x3ccad6a8	0.02476056
99	0xbd44cb69	-0.04804555
100	0x3d284c42	0.04108835
101	0xbd033691	-0.03203446
102	0xbcd113fe	-0.025522228
103	0x3d6d3227	0.057909157
104	0xbd07b9d7	-0.033136215
105	0x3d68b83c	0.056816325
106	0xbd23319e	-0.03984224
107	0xbd0f7614	-0.035024717
108	0xbd5dd4fd	-0.0541582
109	0x3d33493e	0.04377102
110	0x3caf9f04	0.02143813
111	0xbbf9a398	-0.007618379
112	0x3d83b807	0.06431585
113	0xbd3e186d	-0.046410013
114	0x3d554ff9	0.05207822
115	0xbc8949e1	-0.016758861
116	0x3d5a19ad	0.053247143
117	0xbcc8b880	-0.024502039
118	0x3d10beea	0.03533832
119	0xbd08e39d	-0.033420194
120	0x3d9643e2	0.07337166
121	0x3c423f86	0.0118559655
122	0x3bb70b6e	0.0055860793
123	0xbce95a74	-0.028485514
124	0x3d3c1be7	0.045925047
125	0xb9c8ce42	-0.00038300647
126	0x3cfe9f39	0.031081783
127	0xbc358b4d	-0.011080575
128	0x3d501d66	0.050809287
129	0x3d2637aa	0.04058043
130	0x3c77c4de	0.01512262
131	0x3d1902b2	0.037356086
132	0x3d813786	0.063094184
133	0x3d4834f8	0.04887864
134	0xbca93f34	-0.02066002
135	0x3b2b205f	0.0026111824
136	0x3cd90735	0.026492694
137	0x3cd86f60	0.026420295
138	0x3d05d9ef	0.03267854
139	0x3bfc0a42	0.0076916525
140	0x3ccb307d	0.024803394
141	0x3a7550a0	0.00093580224
142	0x3d5bc8f4	0.05365844
143	0x3d972341	0.07379771
144	0xbcacdeda	-0.021102358
145	0xba4ba331	-0.0007768153
146	0xbc9ea60f	-0.019366292
147	0x3c54d2d0	0.012989715
148	0xbd1fbb91	-0.038997237
149	0x3d76f7bd	0.060294855
150	0x3d6220d9	0.055207107
151	0x3d7b4afc	0.061350808
152	0x3cabb54c	0.020960473
153	0xbd16fde8	-0.036863238
154	0xbc581108	-0.013187654
155	0x3caa40a7	0.020782782
156	0x3b3abfb0	0.0028495602
157	0x3926717f	0.00015873274
158	0xbd04fd01	-0.032467846
159	0xbb5c1e61	-0.0033587443
160	0x3c871ab9	0.016492235
161	0xbcd01fcd	-0.025405789
162	0xbc44f9cc	-0.012022447
163	0x3d1d715e	0.038438194
164	0x3b3e5c68	0.0029046778
165	0x3cd8bfd5	0.02645866
166	0x3d19cc8f	0.037548598
167	0xbbadfa06	-0.005309346
168	0xbc3f2c9b	-0.01166835
169	0x3d8ab77f	0.0677328
170	0x3d0c5f18	0.034270376
171	0xbc3d25ca	-0.011544654
172	0x3d5d2d42	0.05399824
173	0xbc5f59b7	-0.0136322295
174	0x3c39cae8	0.0113398805
175	0xbc17778b	-0.00924481
176	0x3da38328	0.079840004
177	0xbcd402f2	-0.02588031
178	0xbd551c41	-0.0520289
179	0xbccc36b5	-0.02492843
180	0xbc3e70bf	-0.01162356
181	0x3d7820c3	0.06057812
182	0x3d26b9f2	0.040704675
183	0x3ccff48a	0.02538516
184	0xbc317743	-0.010831657
185	0xbd6fa29d	-0.05850469
186	0xbc17143b	-0.009221132
187	0xbba2ed91	-0.004972168
188	0x3d52b95a	0.051446296
189	0xbcfada69	-0.030621724
190	0xbc24863f	-0.010041772
191	0xbd43aed5	-0.047774155
192	0xbc897040	-0.016777158
193	0x3a2c2a4c	0.0006567582
194	0x3d7fbdf3	0.06243701
195	0xbd21fc32	-0.039547153
196	0xbd0fc8ef	-0.035103735
197	0xbcc81412	-0.024423633
198	0x3c898a3b	0.016789546
199	0xbd9e9750	-0.07743704
200	0x3d209db4	0.039212897
201	0x3ce7e551	0.028307589
202	0xbca7e7c3	-0.020496255
203	0x3d8140ea	0.063112095
204	0xbd622477	-0.055210557
205	0xbaae4b82	-0.001329765
206	0x3d467c69	0.04845849
207	0xbc6c0fbd	-0.014408049
208	0x3d01e8ea	0.031716265
209	0x3cd3463e	0.02579033
210	0xbd163eb8	-0.036680907
211	0xbc91a5c7	-0.017779244
212	0x3c1403f7	0.009034148
213	0xbc4f4c79	-0.01265251
214	0xbbcec6fa	-0.006310341
215	0x3d8c54e9	0.06852133
216	0xbd39652b	-0.045262497
217	0x3c5a378e	0.013318909
218	0xbc88f1ed	-0.016716922
219	0xbb72786b	-0.0036998044
220	0xbcc93e4b	-0.024565836
221	0x3d80d71e	0.0629103
222	0xbc9edb2d	-0.01939162
223	0x3c599f71	0.013282643
224	0xbc86781a	-0.01641469
225	0x3d411623	0.04714025
226	0x3d30b52c	0.04314153
227	0xbd7b4d8d	-0.061353255
228	0xbd55e463	-0.05221976
229	0xbc37ede4	-0.011226151
230	0x3c363f73	0.011123526
231	0x3d62384c	0.05522947
232	0xbc7b6a3d	-0.015345153
233	0xbd047e0a	-0.032346763
234	0x3d5f558a	0.054524936
235	0x3af1adc9	0.0018438633
236	0x3cfebe12	0.031096492
237	0xbc3317a1	-0.010930927
238	0xbc3fa90c	-0.011698019
239	0x3d72fdf1	0.05932421
240	0x3dc8bb75	0.098013796
241	0x3d3bd599	0.045858
242	0xb9be46ae	-0.00036292284
243	0xba9ba8e1	-0.0011875891
244	0x3cbd3959	0.023098635
245	0xbb801cdc	-0.0039096903
246	0x3c8d8289	0.017274158
247	0x3beac441	0.0071645086
248	0xbc9d2e49	-0.01918711
249	0xbd2e55a6	-0.04256215
250	0xbd4dd6ee	-0.0502538
251	0xbc96da46	-0.018414628
252	0x3d415796	0.04720267
253	0xbd1a5948	-0.0376828
254	0x3cd0bacf	0.025479702
255	0x3c469605	0.012120728

parameterizer.cl_layers.3.bias f4 [20]
0	0x3d822a81	0.06355763
1	0xbcf6e887	-0.030140175
2	0xbb9c2e0b	-0.004766231
3	0x3d342d53	0.043988537
4	0xbcf3b2b3	-0.029748296
5	0x3ccbc04d	0.02487197
6	0x3d33e858	0.043922752
7	0xbd5dcb0f	-0.05414873
8	0x3ce3f678	0.027827486
9	0xbcb2c407	-0.021821989
10	0x3d39cddc	0.04536234
11	0xbb98f6e0	-0.0046681017
12	0xbb8fe70e	-0.0043915575
13	0x3b86c870	0.0041132495
14	0xbd9e3792	-0.07725443
15	0x3c8894c0	0.016672492
16	0x3be37f71	0.0069426824
17	0xbc733ae6	-0.014845585
18	0xbd050021	-0.032470826
19	0xbd22c7df	-0.039741393
