results/CONF_FASHION_MNIST/checkpoints/Epoch[7]-Step[2160].pt (torch, 374338 bytes, 66 tensors)

conceptizer.encoder.0.0.weight f4 [10, 1, 5, 5]
-0.20937397 0.20068564 0.23563138 0.12698357 0.1009476 -0.11826648 0.011601452 0.044086903
0.16118342 -0.14023678 0.13334972 0.13086867 -0.18389606 0.080093525 -0.15942958 0.20773602
0.10383735 0.12826246 0.033961948 -0.120438464 0.24010234 0.015990784 -0.048166037 -0.087492615
0.113820046 -0.087436326 0.11373623 -0.1280391 -0.119581595 -0.14396875 -0.01941245 -0.068338044
-0.17462672 0.0041537303 -0.16974601 0.08251062 -0.12592979 -0.05373666 -0.17196439 -0.1608069
-0.239847 -0.039486818 -0.06204372 0.03436884 -0.042267628 0.02784352 0.022359053 -0.11605361
-0.22036758 -0.011513667 0.015081387 -0.16211338 0.09737977 -0.042837784 -0.11933946 -0.10135844
-0.1575186 -0.006554991 -0.17761427 -0.12953562 -0.21672831 0.14181075 -0.06988507 -0.17062826
-0.023323989 -0.09073563 -0.03904876 -0.2094304 -0.09104526 -0.14815071 0.12133773 0.0030699924
0.02304994 -0.012623861 -0.10456794 -0.120636955 -0.03754159 0.071151406 -0.07460503 -0.12297309
-0.12770577 -0.011754455 -0.08837969 -0.049457807 0.05988262 -0.19855545 -0.18388785 0.0539137
-0.19077736 -0.03270301 -0.06850128 -0.12390961 -0.008017833 -0.09443469 -0.030311763 -0.06002018
-0.028762108 -0.1970192 -0.035548143 0.14978759 0.093072735 -0.14854346 0.059228428 0.047800656
0.082133204 0.0720386 -0.16371992 -0.024573233 0.1085951 -0.22716 0.052062932 0.032982208
-0.20288496 -0.2204378 -0.10164509 -0.015030827 -0.10753176 0.09881002 -0.17084533 0.019117653
0.046401348 0.1289548 -0.093464 -0.16847545 0.02169441 -0.047330197 0.13516076 0.13426332
0.14560877 0.05196809 -0.15605754 -0.10584609 0.1786273 0.14181745 -0.08121342 0.12807553
0.08153163 0.11632479 -0.105967045 -0.21087316 -0.16006032 0.1620156 0.19008785 -0.05258939
-0.24241036 0.06922406 0.21780047 0.1463842 -0.15427156 -0.075020224 0.14271511 -0.14627141
0.12646545 0.17543688 0.02801223 -0.09508856 0.18430811 0.02168684 0.18331349 0.19103101
-0.13614462 -0.042909097 -0.066686444 -0.095697 -0.16138218 -0.14134224 0.17657822 0.07170975
-0.103585824 -0.18594101 -0.09492884 0.0673409 -0.20848352 -0.0029612344 0.03210877 -0.08764008
-0.053256795 -0.22028466 -0.21715014 0.10284532 -0.070567146 -0.14576617 0.043923642 0.019443339
-0.13851698 0.2252516 0.039821196 0.1621143 0.20463777 0.022563571 0.2520246 -0.041173507
0.1042088 0.0043044128 -0.04320431 0.08412566 0.23995581 -0.08145579 0.08297948 0.1413398
0.15764886 0.039034277 0.09944601 0.04320561 -0.10681951 0.14316782 0.10087611 -0.10905944
-0.15936038 0.16559722 0.1900874 -0.122004874 -0.10278788 -0.15044883 -0.17799644 0.077273965
0.0029855059 0.11059135 -0.18360029 0.021444997 -0.20656796 0.087809846 -0.046206616 -0.08651057
0.13424578 -0.06115193 0.15983781 0.20774269 0.17974076 0.017305383 -0.15289028 0.06368864
0.23470818 -0.021799365 0.017771194 0.081381194 0.20168366 0.22613116 -0.15319288 0.01604041
-0.01146512 0.18547462 -0.024568094 -0.16894569 0.0004906535 0.0048494977 0.0787909 0.25235265
0.2025029 0.005112071
00000000: 2166 56be 8980 4d3e 5a49 713e fb07 023e
00000010: 9ebd ce3d b235 f2bd 0414 3e3c 7894 343d
00000020: 440d 253e 3b9a 0fbe d48c 083e 7002 063e
00000030: 404f 3cbe 1308 a43d 8241 23be c0b8 543e
00000040: ada8 d43d 3c57 033e af1b 0b3d 71a8 f6bd
00000050: 63dd 753e 1bff 823c c049 45bd 542f b3bd
00000060: 7c1a e93d d111 b3bd 8aee e83d af1c 03be
00000070: 32e7 f4bd 8b6c 13be dc06 9fbc d1f4 8bbd
00000080: 59d1 32be 041c 883b e6d1 2dbe 54fb a83d
00000090: bdf3 00be f91a 5cbd 6f17 30be 90aa 24be
000000a0: 749a 75be eebc 21bd 8e21 7ebd 57c6 0c3d
000000b0: d220 2dbd 1818 e43c 552a b73c 84ad edbd
000000c0: 0aa8 61be d2a3 3cbc ec17 773c 0d01 26be
000000d0: 0b6f c73d ac76 2fbd 3f68 f4bd 0495 cfbd
000000e0: 8e4c 21be 40cb d6bb 84e0 35be fca4 04be
000000f0: 07ee 5dbe d636 113e e71f 8fbd 2db9 2ebe
00000100: f311 bfbc 9ad3 b9bd 98f1 1fbd ec74 56be
00000110: f075 babd d2b4 17be ea7f f83d ed31 493b
00000120: 3ad3 bc3c 50d4 4ebc b727 d6bd 8210 f7bd
00000130: 36c5 19bd d4b7 913d 86ca 98bd 51d9 fbbd
00000140: 4dc5 02be c295 40bc 6900 b5bd 4594 4abd
00000150: 7a47 753d 1f52 4bbe 194d 3cbe 9dd4 5c3d
00000160: 245b 43be 97f3 05bd 664a 8cbd 52c4 fdbd
00000170: 3b5d 03bc fa66 c1bd 6050 f8bc b8d7 75bd
00000180: 839e ebbc 67bf 49be ee9a 11bd eb61 193e
00000190: eb9c be3d c71b 18be 8299 723d 9fca 433d
000001a0: 7435 a83d f988 933d 32a6 27be ce4d c9bc
000001b0: 1c67 de3d a29c 68be f13f 553d 5a18 073d
000001c0: 13c1 4fbe 72ba 61be 4d2b d0bd dc43 76bc
000001d0: 9d39 dcbd e85c ca3d 14f2 2ebe a09c 9c3c
000001e0: 570f 3e3d ba0c 043e 0e6a bfbd d484 2cbe
000001f0: 7ab8 b13c 4fdd 41bd 9567 0a3e 537c 093e
00000200: 771a 153e 7edc 543d 8ccd 1fbe d6c5 d8bd
00000210: 13ea 363e 9838 113e 3953 a6bd 3b26 033e
00000220: 0efa a63d b13b ee3d 4005 d9bd 22ef 57be
00000230: dae6 23be 6be7 253e 64a6 423e f967 57bd
00000240: 6c3a 78be 58c5 8d3d 1607 5f3e bde5 153e
00000250: 5df9 1dbe 34a4 99bd e923 123e 2cc8 15be
00000260: 2980 013e baa5 333e e779 e53c cabd c2bd
00000270: 44bb 3c3e 9aa8 b13c 88b6 3b3e a29d 433e
00000280: 7f69 0bbe 73c1 2fbd e792 88bd cafc c3bd
00000290: 5f41 25be 05bc 10be ecd0 343e 90dc 923d
000002a0: ce24 d4bd 5267 3ebe 0d6a c2bd 07ea 893d
000002b0: b47c 55be 4511 42bb 7c84 033d a47c b3bd
000002c0: cc23 5abd 4d92 61be 9b5c 5ebe 91a0 d23d
000002d0: 8285 90bd ba43 15be 47e9 333d a347 9f3c
000002e0: 65d7 0dbe 5ba8 663e 8d1b 233d 4b01 263e
000002f0: 908c 513e 3dd7 b83c 5e09 813e 8da5 28bd
00000300: 6c6b d53d 080c 8d3b 01f7 30bd 134a ac3d
00000310: fab6 753e 4bd2 a6bd 25f1 a93d 61bb 103e
00000320: b46e 213e 68e2 1f3d 5aaa cb3d 5ef8 303d
00000330: 30c4 dabd 969a 123e 2298 ce3d 8e5a dfbd
00000340: 5e2f 23be 5192 293e 45a6 423e b1dd f9bd
00000350: 7482 d2bd 420f 1abe b344 36be d041 9e3d
00000360: 7aa8 433b b87d e23d b701 3cbe 6bad af3c
00000370: 8d86 53be a6d5 b33d 2643 3dbd 742c b1bd
00000380: ba77 093e 727a 7abd 86ac 233e 80ba 543e
00000390: f60d 383e 05c4 8d3c 458f 1cbe 316f 823d
000003a0: 5757 703e 9594 b2bc e594 913c 2fab a63d
000003b0: 2986 4e3e ed8e 673e 98de 1cbe 2e67 833c
000003c0: 33d8 3bbc 0fed 3d3e 0743 c9bc 1900 2dbe
000003d0: 339f 003a 89e8 9e3b 205d a13d 5e34 813e
000003e0: ec5c 4f3e 2983 a73b

conceptizer.encoder.0.0.bias f4 [10]
0.04413045 0.11010471 0.1759214 -0.06368183 0.18763727 0.06505034 -0.05716832 -0.027957918
0.08485873 0.0941969
00000000: 21c2 343d 947e e13d bd24 343e 9f6b 82bd
00000010: fc23 403e 1d39 853d 5429 6abd 0108 e5bc
00000020: 6aca ad3d 4eea c03d

conceptizer.encoder.1.0.weight f4 [5, 10, 5, 5]
-0.0353731 -0.007185241 0.06964992 0.084849335 -0.03860622 -0.026121473 0.039390992 0.04296748
-0.050005864 0.035055246 -0.065669335 0.074234284 -0.044010602 -0.022427484 -0.074270874 0.026100324
0.048172783 0.037464824 -0.028501226 -0.029991575 0.035357688 -0.009291929 0.022016723 8.2568695e-05
-0.036423612 0.06210507 0.0070207478 0.006447449 -0.010675371 0.004066924 0.05858464 -0.0021430268
-0.042349834 0.02700998 0.055296972 0.02224855 0.02787549 0.031962533 0.007475252 -0.011193216
-0.023557544 -0.006865524 -0.03009342 0.08267379 0.047282923 0.0076094163 0.09010874 -0.001422974
0.0039485963 -0.031561628 0.033843145 -0.006827156 -0.033121236 -0.037474252 -0.025068317 0.0016370497
-0.012868321 0.03416159 -0.027261263 0.08525539 0.057047777 0.038003784 0.022808021 -0.019506378
0.003792766 0.033663526 0.019833278 -0.025571812 0.034619432 -0.041423015 0.058321714 -0.0058014677
0.06252048 0.057881635 0.019380944 -0.027987227 -0.03455157 -0.055500485 0.004947413 0.033955023
0.071802385 0.042889476 -0.04538051 0.07494146 0.070001334 0.07949805 0.01932019 -0.04328563
0.021286216 -0.00109975 -0.049177755 -0.03524617 -0.01814344 0.033643436 0.025309607 0.027359309
-0.0034904815 0.07404236 0.09753085 0.08379916 0.056459762 -0.024465198 -0.016740823 0.0048442306
-0.0072304895 -0.012499911 -0.02681776 0.0037312612 0.0485374 0.056408223 0.054486874 -0.033831444
0.076873235 -0.010064899 -0.036296643 -0.007846636 0.07239311 0.03037125 0.03141428 0.050448008
-0.04241459 0.028013173 0.061226062 0.031511676 0.003013467 0.019432781 0.081794076 0.011963278
0.020288799 0.036111165 -0.06453771 0.055264417 0.025146948 0.03251934 -0.0036526727 -0.035103116
0.052250165 0.06612174 0.031188684 0.008025345 0.027303752 -0.01269377 0.04721518 -0.03140591
-0.07736813 0.01959831 0.06936237 -0.027589997 -0.059986737 -0.04651141 0.058858786 0.05764276
0.039262053 0.051197838 0.1097789 0.049562484 0.052806843 -0.020332249 -0.055337314 -0.0008105498
0.032466583 0.037821915 -0.01092154 -0.029491547 0.022470467 0.08154916 -0.004184583 -0.0065946886
-0.0027169718 -0.031059714 -0.014546607 0.012676089 0.057675116 -0.010483607 -0.014015753 -0.086993806
-0.08351135 0.014293363 0.0006518609 -0.06621076 0.019855306 0.045110926 -0.08824824 -0.051041722
-0.10234196 0.0631998 -0.017825589 -0.06484449 -0.01655304 0.042836804 -0.0076093124 0.029443284
-0.041886162 0.0015894551 -0.046429876 -0.014987543 -0.065599464 -0.13728836 -0.07676185 -0.10352554
-0.062144216 0.059318874 0.012395243 -0.0031128929 0.061110385 -0.005597313 0.029538387 0.05444255
0.03429662 0.071443446 0.018831652 -0.03590544 -0.042904858 0.032375176 0.0018847786 0.01827261
0.08648715 0.040836986 0.009557442 0.054406367 -0.056529947 0.084586576 0.0029981467 0.026286919
0.03528184 -0.0017339448 -0.03603554 0.023366444 0.08376449 0.031575177 -0.007797449 0.06371853
0.032225855 -0.057229444 -0.03941382 -0.0010708676 0.06937613 -0.040982723 0.006021641 -0.0765808
0.043808635 0.0064189727 -0.032869026 -0.06331331 -0.0054078815 0.012131827 -0.026866727 0.006198826
0.027481904 -0.07006081 0.051689446 0.06500136 0.02831407 0.05738613 0.043615364 0.06292186
00000000: 62e3 10bd 2c72 ebbb 9ea4 8e3d 7dc5 ad3d
00000010: 8e21 1ebd b3fc d5bc 7358 213d abfe 2f3d
00000020: f3d2 4cbd 1796 0f3d a57d 86bd 2508 983d
00000030: 7644 34bd d8b9 b7bc 541b 98bd 59d0 d53c
00000040: d350 453d b774 193d 677b e9bc e4b0 f5bc
00000050: 39d3 103d 2d3d 18bc 6a5c b43c bb28 ad38
00000060: ed30 15bd e361 7e3d 4d0e e63b 1f45 d33b
00000070: c0e7 2ebc d543 853b 73f6 6f3d 0672 0cbb
00000080: 0577 2dbd 0944 dd3c 147f 623d 9742 b63c
00000090: 245b e43c 25eb 023d f5f2 f43b c063 37bc
000000a0: c0fb c0bc 31f8 e0bb 7a86 f6bc e050 a93d
000000b0: bdab 413d 6958 f93b ee8a b83d 1683 baba
000000c0: 3a63 813b c446 01bd 1c9f 0a3d 56b6 dfbb
000000d0: 22aa 07bd 9a7e 19bd 125c cdbc 4692 d63a
000000e0: a6d5 52bc 06ed 0b3d 0353 dfbc 619a ae3d
000000f0: eeaa 693d dba9 1b3d e3d7 ba3c d7cb 9fbc
00000100: 0e90 783b c4e2 093d 6679 a23c fa7b d1bc
00000110: 1bcd 0d3d 2eab 29bd c0e2 6e3d 3d1a bebb
00000120: bd0a 803d 4b15 6d3d c9c4 9e3c 7845 e5bc
00000130: f285 0dbd 7a54 63bd e91d a23b 6c14 0b3d
00000140: 210d 933d e0ac 2f3d eae0 39bd e87a 993d
00000150: dc5c 8f3d e0cf a23d 6045 9e3c 464c 31bd
00000160: 6e60 ae3c 7d25 90ba 9d6e 49bd 4a5e 10bd
00000170: 8da1 94bc b3cd 093d 1856 cf3c a120 e03c
00000180: 90c0 64bb 85a3 973d 41be c73d e59e ab3d
00000190: 5a42 673d 3d6b c8bc 0d24 89bc 5abc 9e3b
000001a0: beed ecbb 6dcc 4cbc ebb0 dbbc 2d88 743b
000001b0: 27cf 463d 4f0c 673d a12d 5f3d d792 0abd
000001c0: b76f 9d3d 3fe7 24bc caab 14bd 2d8f 00bc
000001d0: d742 943d 21cd f83c 43ac 003d 92a2 4e3d
000001e0: ecba 2dbd e27b e53c 2ec8 7a3d 6312 013d
000001f0: 967d 453b 7f31 9f3c a783 a73d a001 443c
00000200: b234 a63c 4de9 133d 592c 84bd f15c 623d
00000210: f900 ce3c 0033 053d ae61 6fbb 49c8 0fbd
00000220: 4504 563d d66a 873d 697f ff3c bd7c 033c
00000230: 1eac df3c 88f9 4fbc b464 413d 7ca3 00bd
00000240: 2f73 9ebd a38c a03c dc0d 8e3d 6b04 e2bc
00000250: a7b4 75bd c082 3ebd e915 713d d11a 6c3d
00000260: 3fd1 203d d3b4 513d c3d3 e03d 0802 4b3d
00000270: fd4b 583d d18f a6bc 61a9 62bd 147b 54ba
00000280: aefb 043d 27eb 1a3d 42f0 32bc 4298 f1bc
00000290: fc13 b83c 3f03 a73d d41e 89bb 4218 d8bb
000002a0: 390f 32bb f170 febc e454 6ebc 5faf 4f3c
000002b0: be3c 6c3d 6fc3 2bbc 54a2 65bc cf29 b2bd
000002c0: 0008 abbd b62e 6a3c a5e1 2a3a 8299 87bd
000002d0: 98a7 a23c 3cc6 383d 7ebb b4bd 2011 51bd
000002e0: a998 d1bd e66e 813d f806 92bc 30cd 84bd
000002f0: 3e9a 87bc a575 2f3d 8a57 f9bb 0b33 f13c
00000300: d390 2bbd 4355 d03a 412d 3ebd 508e 75bc
00000310: 0359 86bd 5295 0cbe 5135 9dbd 3305 d4bd
00000320: ef8a 7ebd 59f8 723d 6b15 4b3c ad01 4cbb
00000330: e24e 7a3d aa69 b7bb 7dfa f13c 27ff 5e3d
00000340: 9d7a 0c3d f150 923d d644 9a3c 9511 13bd
00000350: 01bd 2fbd d59b 043d ad0a f73a 71b0 953c
00000360: 2d20 b13d af44 273d d196 1c3c 36d9 5e3d
00000370: f28b 67bd ba3b ad3d 8e7c 443b aa57 d73c
00000380: b183 103d 8845 e3ba 019a 13bd fc6a bf3c
00000390: b88c ab3d f954 013d be81 ffbb dc7e 823d
000003a0: 42ff 033d 6c69 6abd 6370 21bd 5b5c 8cba
000003b0: 1315 8e3d 80dd 27bd 3051 c53b 65d6 9cbd
000003c0: af70 333d 3f56 d23b aca1 06bd 69aa 81bd
000003d0: 9934 b1bb 92c4 463c 9c17 dcbc 851f cb3b
000003e0: bb21 e13c 0b7c 8fbd 50b8 533d 6f1f 853d
000003f0: e9f2 e73c b80d 6b3d 06a6 323d 2ddd 803d

conceptizer.encoder.1.0.bias f4 [5]
-0.029325109 0.057098344 -0.03684658 -0.0100293 0.039023556
00000000: 363b f0bc f4df 693d 71ec 16bd ef51 24bc
00000010: 2ad7 1f3d

conceptizer.encoder.2.layers.0.weight f4 [1, 16]
-0.024928395 -0.1807803 -0.081130825 -0.19382137 0.11814389 0.12367911 0.10129424 -0.21684691
-0.1546779 -0.181141 -0.23525889 -0.2514914 0.053040955 -0.15810432 -0.196365 0.14835563
00000000: a236 ccbc 791e 39be eb27 a6bd 1c79 46be
00000010: 6cf5 f13d 794b fd3d 5b73 cf3d 1e0d 5ebe
00000020: e263 1ebe 077d 39be b5e7 70be 7bc3 80be
00000030: 7941 593d 19e6 21be e813 49be 8aea 173e

conceptizer.encoder.2.layers.1.weight f4 [1, 16]
0.12077922 -0.2615427 -0.07463487 0.024292015 -0.10012552 0.07495391 -0.28877884 0.14237958
-0.000667112 -0.27683905 -0.08363299 -0.034674015 0.064001046 -0.077145286 0.05291691 0.10895426
00000000: 185b f73d ede8 85be 2bda 98bd 0c00 c73c
00000010: 9c0e cdbd 7081 993d d2da 93be f4cb 113e
00000020: 21e1 2eba d9bd 8dbe c647 abbd 5706 0ebd
00000030: fb12 833d 59fe 9dbd 67bf 583d 6923 df3d

conceptizer.encoder.2.layers.2.weight f4 [1, 16]
-0.21587929 0.13498983 0.20367643 0.13888729 0.06179146 -0.1957549 0.21976508 -0.19211094
-0.32274735 -0.14748989 0.15165482 -0.17955929 -0.19786309 0.16035515 0.17292875 -0.10540665
00000000: 760f 5dbe c63a 0a3e 8e90 503e 7838 0e3e
00000010: 0b19 7d3d f973 48be 190a 613e bbb8 44be
00000020: 243f a5be 9707 17be 674b 1b3e 64de 37be
00000030: 9f9c 4abe 2434 243e 3c14 313e 71df d7bd

conceptizer.encoder.2.layers.3.weight f4 [1, 16]
0.24863781 0.11062927 -0.073108084 0.18627627 0.011529074 0.115011744 0.08218075 0.111221455
-0.11321611 0.23561533 -0.11599355 0.08133491 0.12614927 -0.06480437 -0.100567415 -0.12395971
00000000: e99a 7e3e 9991 e23d b1b9 95bd 35bf 3e3e
00000010: 71e4 3c3c 478b eb3d 624e a83d 13c8 e33d
00000020: d9dd e7bd 2545 713e 078e edbd eb92 a63d
00000030: 462d 013e 27b8 84bd 4af6 cdbd 97de fdbd

conceptizer.encoder.2.layers.4.weight f4 [1, 16]
0.14094813 -0.2014036 -0.025656613 0.011223812 -0.26371074 -0.111164175 0.08618221 -0.104719296
-0.103472866 -0.26958057 -0.23426257 -0.05006239 0.030238377 0.14294474 0.039039366 -0.050025333
00000000: b554 103e bf3c 4ebe d12d d2bc 14e4 373c
00000010: 1805 87be 0baa e3bd 4c80 b03d 1277 d6bd
00000020: 95e9 d3bd 7706 8abe 87e2 6fbe 380e 4dbd
00000030: 79b6 f73c 1b60 123e bee7 1f3d 5de7 4cbd

conceptizer.decoder.0.0.weight f4 [5, 16, 5, 5]
0.0014338297 0.11609736 0.08271118 0.098797545 0.14419486 0.052536976 0.094996154 0.08002828
-0.028784618 -0.043676246 0.1173252 0.041914903 -0.023481917 0.08746619 0.089634955 -0.0035285552
0.0711857 0.026876405 -0.015875746 -0.06154982 0.029076625 -0.122425936 -0.087542914 0.057105646
0.12086731 0.025732417 0.09950902 0.044860885 0.030398536 0.08407644 0.079934396 0.07647151
-0.08749292 0.068271786 0.07213001 0.059678745 0.02782557 0.1220553 0.09729205 0.003589735
0.07268565 -0.07439291 0.13246277 0.06350857 -0.1532294 0.05281122 0.08268459 0.04571443
-0.07414131 -0.02525469 0.11213374 0.018189596 -0.010925721 0.07583011 0.08790073 0.034951366
0.09025323 0.1260277 -0.07253658 0.02185837 0.027060669 0.013297589 0.010616135 -0.078813
-0.021748329 0.11492174 0.09445282 -0.011260187 -0.027873604 0.1749182 0.1074858 0.101162665
0.008211308 -0.090368666 -0.19402316 0.011527433 0.00081190973 -0.011006984 0.09070814 0.06363644
-0.10963529 -0.015115505 -0.026859215 -0.09402289 -0.026147034 0.015350439 -0.08181654 -0.11195214
0.023965133 0.07164265 0.05443966 -0.006602688 -0.06225881 0.11142749 -0.09891299 0.10783719
0.049600795 0.019206766 0.059739143 0.13337125 0.041335445 -0.07391837 0.10902271 0.054785907
0.18746878 -0.027087832 -0.030100945 0.080294944 -0.07716005 -0.11797214 -0.0126367975 0.009775804
-0.0029134545 -0.13565493 -0.08053023 0.039679807 0.020320594 0.08744376 -0.070341155 -0.17002091
-0.011928436 -0.032491233 0.0018817082 -0.004323959 -0.08188795 0.14594881 -0.012524561 0.017430123
0.07100755 0.0374538 0.03823337 -0.11408646 0.036253247 0.043571476 -0.07913034 0.030371735
-0.050088234 0.0262596 -0.02682394 0.06601678 0.03797381 0.0093208365 0.031390093 -0.1341798
0.071040414 0.14755283 0.030588275 0.0022633707 -0.16258332 0.09017082 0.0567522 0.028611999
0.052997928 0.029862443 0.07510084 -0.029932765 0.0696124 0.12335938 -0.027921442 -0.20496586
-0.010758157 0.117384814 0.077738084 0.032174733 0.074076794 0.050012995 -0.056476094 0.06282052
0.0882854 -0.051724523 -0.013315569 0.025920922 -0.031984445 -0.10528068 -0.15075363 0.1673655
0.091172464 0.08694078 0.13164867 0.16696425 -0.006441613 0.04062584 0.049480446 0.10101037
0.06797715 0.07273787 0.09647155 0.029949134 -0.076239705 -0.054129757 0.02450699 0.041542623
-0.18755125 -0.14145081 -0.0110263275 0.073452115 0.12705548 -0.034992184 -0.11050745 -0.20132814
0.056255557 -0.03272695 -0.058705803 0.051026873 0.12286246 0.030470427 -0.027260352 -0.099524364
-0.06676503 0.11836762 0.06282703 0.02771112 -0.13173516 0.07720321 0.110040456 0.1488855
0.1076977 -0.026615249 0.03813176 0.108405985 0.025933407 -0.15155594 -0.1442398 -0.056732018
0.1008581 0.060243066 0.10149327 0.06802926 0.087420866 0.021008406 0.08656059 0.062019434
0.044337317 -0.030724633 0.14408883 0.058790118 0.10565846 0.03353541 0.032492932 0.014872416
0.05508759 -0.07106904 -0.078029566 0.055750392 -0.06975006 0.1103045 0.13243878 -0.025901886
-0.007454727 -0.083565496 -0.04996701 -0.05432676 0.026517924 -0.060803175 -0.13282038 -0.044125885
00000000: 57ef bb3a 74c4 ed3d 7b64 a93d 5e56 ca3d
00000010: d1a7 133e 0331 573d 588d c23d dee5 a33d
00000020: b8cd ebbc dde5 32bd 3248 f03d f6ae 2b3d
00000030: 265d c0bc 7921 b33d 8892 b73d 553f 67bb
00000040: cfc9 913d e82b dc3c da0d 82bc aa1b 7cbd
00000050: 1a32 ee3c 73ba fabd b349 b3bd 9ce7 693d
00000060: 4889 f73d cacc d23c 63cb cb3d 0cc0 373d
00000070: 5a06 f93c 4530 ac3d a5b4 a33d 189d 9c3d
00000080: 7d2f b3bd 14d2 8b3d e6b8 933d b371 743d
00000090: 73f2 e33c 21f8 f93d 0e41 c73d c241 6b3b
000000a0: 37dc 943d 4f5b 98bd 52a4 073e c810 823d
000000b0: 2be8 1cbe 9450 583d 8a56 a93d 0e3f 3b3d
000000c0: 66d7 97bd ece2 cebc 60a6 e53d 5902 953c
000000d0: cc01 33bc d14c 9b3d 4c05 b43d 2a29 0f3d
000000e0: afd6 b83d 680d 013e 0f8e 94bd 5310 b33c
000000f0: 56ae dd3c 21de 593c 4cef 2d3c b668 a1bd
00000100: 8d29 b2bc 175c eb3d 7b70 c13d a67c 38bc
00000110: 2f57 e4bc c21d 333e 8421 dc3d 5f2e cf3d
00000120: b988 063c 3513 b9bd 02ae 46be 8fdd 3c3c
00000130: 57d6 543a a356 34bc 30c5 b93d d253 823d
00000140: 7888 e0bd 06a7 77bc db07 dcbc 138f c0bd
00000150: 4e32 d6bc 6880 7b3c 6e8f a7bd 2a47 e5bd
00000160: 8752 c43c 62b9 923d 1ffc 5e3d 5d5b d8bb
00000170: 1803 7fbd 1934 e43d e592 cabd bfd9 dc3d
00000180: 342a 4b3d 8257 9d3c 08b1 743d 7992 083e
00000190: 5b4f 293d 8462 97bd 4c47 df3d 3067 603d
000001a0: d1f7 3f3e 4de7 ddbc 4296 f6bc ad71 a43d
000001b0: 1706 9ebd 619b f1bd 920a 4fbc b22a 203c
000001c0: a8ef 3ebb 20e9 0abe 09ed a4bd 4b87 223d
000001d0: 6077 a63c b715 b33d 060f 90bd f619 2ebe
000001e0: 7d6f 43bc 8715 05bd a6a3 f63a ffaf 8dbb
000001f0: dfb4 a7bd 9b73 153e d133 4dbc 9ec9 8e3c
00000200: 686c 913d 2869 193d 989a 1c3d 29a6 e9bd
00000210: 497e 143d 0178 323d 160f a2bd 25ce f83c
00000220: 5229 4dbd 5f1e d73c e1bd dbbc ce33 873d
00000230: 6d8a 1b3d 6cb6 183c e692 003d 6e66 09be
00000240: a37d 913d 1718 173e 4394 fa3c 0f55 143b
00000250: 3e7c 26be 7bab b83d ff74 683d b663 ea3c
00000260: 5b14 593d 15a2 f43c 78ce 993d 8f35 f5bc
00000270: f290 8e3d d8a3 fc3d 82bb e4bc 92e2 51be
00000280: fb42 30bc 7367 f03d 2535 9f3d a7c9 033d
00000290: 93b5 973d 6dda 4c3d 7a53 67bd 0ba8 803d
000002a0: face b43d 18dd 53bd 8b29 5abc 1d58 d43c
000002b0: 1f02 03bd 669d d7bd 295f 1abe dd61 2b3e
000002c0: a1b8 ba3d 020e b23d e9ce 063e adf8 2a3e
000002d0: 2b14 d3bb 4867 263d 02ac 4a3d 86de ce3d
000002e0: 9b37 8b3d 98f7 943d e092 c53d e357 f53c
000002f0: 9023 9cbd 2ab7 5dbd e2c2 c83c 9928 2a3d
00000300: 6f0d 40be 7bd8 10be c5a7 34bc 106e 963d
00000310: d51a 023e f753 0fbd bb51 e2bd f728 4ebe
00000320: 3a6c 663d b20c 06bd 7f75 70bd 8e01 513d
00000330: 509f fb3d 1e9d f93c 1a51 dfbc 6ed3 cbbd
00000340: 1bbc 88bd b96a f23d 75ab 803d 6e02 e33c
00000350: 95e5 06be b71c 9e3d e45c e13d 7175 183e
00000360: 9d90 dc3d 3908 dabc 0c30 1c3d f503 de3d
00000370: 4c72 d43c 7b31 1bbe 99b3 13be d55f 68bd
00000380: b18e ce3d 6fc1 763d b4db cf3d ed52 8b3d
00000390: b609 b33d d219 ac3c ae46 b13d 1708 7e3d
000003a0: 0c9b 353d 3ab2 fbbc 068c 133e e8cd 703d
000003b0: 7663 d83d 6d5c 093d 4f17 053d 6fab 733c
000003c0: 86a3 613d a58c 91bd f7cd 9fbd 865a 643d
000003d0: 1fd9 8ebd 53e7 e13d 089e 073e 3130 d4bc
000003e0: c846 f4bb 6324 abbd 35aa 4cbd bd85 5ebd
000003f0: 1e3c d93c c00c 79bd 1102 08be 58bd 34bd

conceptizer.decoder.0.0.bias f4 [16]
-0.009830748 0.027949534 0.066165484 0.068818085 0.0038367726 0.07554516 0.063324794 0.063158385
0.042060636 0.044748142 0.1298303 0.059769753 0.038233697 0.007922538 -0.00090477866 0.10224327
00000000: 2511 21bc 6cf6 e43c c581 873d 7ff0 8c3d
00000010: 5d72 7b3b 6cb7 9a3d 6eb0 813d 2f59 813d
00000020: c647 2c3d d449 373d 3cf2 043e 21d1 743d
00000030: f09a 1c3d 88cd 013c ab2e 6dba eb64 d13d

conceptizer.decoder.2.0.weight f4 [16, 8, 5, 5]
0.1397043 0.13194075 0.104074106 -0.05448141 0.07996859 0.060694445 0.12898849 0.03499937
-0.02475088 0.182937 -0.031270128 0.06813692 -0.07727019 0.019301329 -0.0050989897 -0.013326974
0.022449331 -0.08534739 -0.015232137 -0.013339037 -0.06490915 -0.07393918 -0.12616472 -0.047387194
0.049384434 -0.07320358 -0.14567618 -0.034120716 0.03755637 0.03907028 -0.0020894161 -0.115081
-0.053261913 -0.0020753052 -0.033316813 -0.035314444 -0.002700835 -0.017920045 0.008802194 -0.041814156
-0.01766692 0.026798148 0.084034115 0.08597569 0.034325257 0.0660447 0.09285933 0.103386216
0.040954027 0.021900123 0.075990446 0.007837474 -0.07119959 0.021870136 0.025934922 -0.05027745
0.00042757293 -0.05321215 -0.063501604 0.052284595 0.0054713776 -0.033430494 -0.06431404 0.0078041996
-0.0301196 0.015138144 0.0043250676 -0.009335541 -0.06118612 -0.03956666 0.045232784 -0.077778466
0.026803426 -0.00833851 -0.024923101 0.12435484 0.1748394 0.12917608 0.035158012 0.043298807
0.16231318 0.081793725 0.027864475 0.048591755 0.05562241 -0.1427922 -0.1242329 -0.04507514
-0.02571767 0.072278924 -0.16236922 -0.14400238 -0.115378305 -0.0068384213 0.058017254 -0.018514123
-0.10108112 -0.13343881 -0.07269044 -0.023094878 0.07277317 -0.0059879576 -0.03538007 -0.049421575
-0.09366913 0.1807074 0.1071703 0.097368054 0.071523935 0.09908384 0.0035051953 0.03973372
0.09902734 0.11786086 0.06904604 -0.13043723 -0.031570327 0.005760597 0.037635967 -0.07515526
-0.18184891 -0.063101925 -0.1332769 -0.053430952 -0.02338508 0.14081334 0.14777532 0.11724076
0.013250804 0.10344744 0.13970068 0.14020535 0.1214848 0.058316395 0.09123446 -0.10138432
-0.13340737 -0.04180159 -0.009144191 0.0030687521 -0.112127766 -0.1481797 -0.08064974 -0.12766987
-0.058272187 -0.062024888 -0.16449457 -0.029627265 -0.04574024 0.039912432 0.16819187 0.17706364
0.052909624 0.009916314 0.07706338 -0.01884071 0.04049161 0.08158808 0.10302821 0.026813116
-0.053755447 -0.063941315 -0.043629043 -0.034466926 -0.113299854 -0.05927498 0.017949305 -0.0962126
-0.12698549 -0.056100745 -0.018902108 -0.017157545 -0.1603454 -0.13353242 -0.010621994 0.19388486
0.16600701 0.07556124 0.007213109 0.0457461 5.312165e-06 0.047458854 -0.011349025 0.07491825
0.035757504 -0.13266075 -0.072480746 0.024723886 0.003754461 0.044965815 -0.06426595 -0.149397
-0.07683698 0.041208707 0.030204462 -0.1488955 -0.060945485 -0.07315881 0.048036717 0.07108284
0.13685043 0.017969433 0.067035116 0.1101926 0.09929369 0.12422927 -0.040296108 0.0490018
0.028745238 0.13339803 -0.01740122 -0.11463775 -0.08812488 0.0184499 0.02462232 -0.10789995
0.019724034 0.0069362163 -0.013402517 0.028333938 0.00023357982 0.12022344 -0.07383819 -0.016406184
0.118007265 -0.063785724 -0.09534335 -0.05878248 -0.019014314 0.02595843 -0.08622078 -0.0036155889
-0.019567035 0.025139205 -0.007693562 0.11564906 0.147461 0.09282142 0.08672734 0.043748498
0.08183967 0.063330494 -0.037747793 -0.03723151 0.07053179 -0.059254203 -0.088696085 -0.087641075
0.06428007 0.046829034 -0.017706292 0.002393346 -0.022431634 0.028191283 -0.061735325 0.04994213
00000000: a50e 0f3e 7a1b 073e ce24 d53d e627 5fbd
00000010: 92c6 a33d bd9a 783d 8f15 043e 805b 0f3d
00000020: 5cc2 cabc d653 3b3e 1b15 00bd 5f8b 8b3d
00000030: d53f 9ebd d21d 9e3c 6d15 a7bb 6159 5abc
00000040: a9e7 b73c 9dca aebd 3790 79bc fa8b 5abc
00000050: 17ef 84bd 6d6d 97bd 5331 01be 1319 42bd
00000060: 5547 4a3d c2eb 95bd 232c 15be 2ac2 0bbd
00000070: b5d4 193d 2808 203d 96ee 08bb 96af ebbd
00000080: 2a29 5abd d801 08bb 3677 08bd e1a5 10bd
00000090: 7e00 31bb 0fcd 92bc 1437 103c 5245 2bbd
000000a0: 37ba 90bc ca87 db3c 141a ac3d 0614 b03d
000000b0: a498 0c3d 7242 873d 082d be3d 27bc d33d
000000c0: 69bf 273d e367 b33c e1a0 9b3d c068 003c
000000d0: 17d1 91bd 0029 b33c 7975 d43c baef 4dbd
000000e0: de2b e039 fcf4 59bd 210d 82bd 5f28 563d
000000f0: 3e49 b33b 6aee 08bd 14b7 83bd 5fba ff3b
00000100: 61bd f6bc fa05 783c 4cb9 8d3b 19f4 18bc
00000110: 4c9e 7abd a610 22bd 0346 393d 514a 9fbd
00000120: dc92 db3c 3f9e 08bc 882b ccbc c0ad fe3d
00000130: 1a09 333e bc46 043e d901 103d 175a 313d
00000140: 6d35 263e 7883 a73d 0a44 e43c 2608 473d
00000150: 53d4 633d 1e38 12be d26d febd b6a0 38bd
00000160: ddad d2bc f906 943d 1e44 26be 5c75 13be
00000170: 764b ecbd d614 e0bb 80a3 6d3d eeaa 97bc
00000180: 9e03 cfbd 2fa4 08be bade 94bd 7831 bdbc
00000190: 1a0a 953d a136 c4bb b1ea 10bd 476e 4abd
000001a0: 9ad5 bfbd 5c0b 393e 1a7c db3d e768 c73d
000001b0: 247b 923d 78ec ca3d 6bb7 653b d3bf 223d
000001c0: d9ce ca3d 0961 f13d 0368 8d3d 5691 05be
000001d0: e34f 01bd 64c3 bc3b 2c28 1a3d 00eb 99bd
000001e0: 9a36 3abe 953b 81bd bd79 08be 6ada 5abd
000001f0: 1192 bfbc 5f31 103e 6a52 173e ec1b f03d
00000200: e619 593c 40dc d33d b20d 0f3e fe91 0f3e
00000210: 06cd f83d 2cdd 6e3d 22d9 ba3d 95a2 cfbd
00000220: f19b 08be 2538 2bbd 84d1 15bc 1e1d 493b
00000230: 3ea3 e5bd 6bbc 17be b12b a5bd e4bb 02be
00000240: d1ae 6ebd cf0d 7ebd 4471 28be e1b4 f2bc
00000250: 1e5a 3bbd 387b 233d 7d3a 2c3e 2c50 353e
00000260: c3b7 583d 0978 223c 68d3 9d3d d557 9abc
00000270: 88da 253d a717 a73d 7400 d33d 2ea7 db3c
00000280: ac2e 5cbd aaf3 82bd 5eb4 32bd 312d 0dbd
00000290: c109 e8bd 52ca 72bd 6c0a 933c 1d0b c5bd
000002a0: 7c08 02be e5c9 65bd 98d8 9abc fb8d 8cbc
000002b0: 9631 24be b9bc 08be df07 2ebc c189 463e
000002c0: befd 293e dabf 9a3d f25b ec3b 4360 3b3d
000002d0: 263f b236 3764 423d 43f1 39bc bd6e 993d
000002e0: 7676 123d 38d8 07be c970 94bd bf89 ca3c
000002f0: 670d 763b 132e 383d de9d 83bd 87fb 18be
00000300: b55c 9dbd 76ca 283d 596f f73c 1078 18be
00000310: f9a1 79bd 49d4 95bd 26c2 443d e193 913d
00000320: 8522 0c3e a234 933c b549 893d a8ac e13d
00000330: 7d5a cb3d ea6b fe3d 880d 25bd 1db6 483d
00000340: 227b eb3c 7e99 083e 018d 8ebc 32c7 eabd
00000350: d17a b4bd 3f24 973c bfb4 c93c a6fa dcbd
00000360: 4c94 a13c 3349 e33b 3b96 5bbc 931c e83c
00000370: 1bed 7439 b537 f63d 7a38 97bd 4366 86bc
00000380: cbad f13d 17a2 82bd 6043 c3bd e6c5 70bd
00000390: e8c3 9bbc c6a6 d43c 8594 b0bd 84f3 6cbb
000003a0: 0c4b a0bc bcf0 cd3c 471a fcbb 6ad9 ec3d
000003b0: 0400 173e 2819 be3d 1b9e b13d a031 333d
000003c0: 8f9b a73d 6bb3 813d 6e9d 1abd 1180 18bd
000003d0: f972 903d 89b4 72bd 4ba6 b5bd 2a7d b3bd
000003e0: 45a5 833d cdcf 3f3d c90c 91bc afd9 1c3b
000003f0: 8cc2 b7bc 68f1 e63c 2ede 7cbd 1e90 4c3d

conceptizer.decoder.2.0.bias f4 [8]
0.042475607 0.0003892867 0.05027756 0.045976836 0.06652334 0.029123943 0.029328497 0.017338604
00000000: e7fa 2d3d 2d19 cc39 d8ef 4d3d 3552 3c3d
00000010: 643d 883d 5695 ee3c 5142 f03c b009 8e3c

conceptizer.decoder.4.0.weight f4 [8, 1, 2, 2]
-0.60838413 -0.3061587 -0.41650102 0.27739984 0.56289124 0.5822317 0.57763433 0.584016
0.35639116 0.37552476 0.40993938 -0.32968616 -0.5336214 -0.60278213 -0.49586594 -0.5634989
-0.3930461 -0.5437702 0.18560693 -0.062171753 -0.46467707 -0.116715774 -0.7121329 -0.42714283
-0.02591459 -0.55419654 -0.19091895 -0.15385765 0.3274641 -0.48631048 0.03609181 -0.6725977
00000000: 10bf 1bbf d5c0 9cbe 9f3f d5be 5a07 8e3e
00000010: a419 103f 230d 153f d8df 133f 1382 153f
00000020: e778 b63e c844 c03e 93e3 d13e a0cc a8be
00000030: 699b 08bf ee4f 1abf 24e2 fdbe 7741 10bf
00000040: 573d c9be 8634 0bbf be0f 3e3e cfa7 7ebd
00000050: 27ea edbe ae08 efbd 574e 36bf 77b2 dabe
00000060: d64a d4bc d3df 0dbf 4280 43be dc8c 1dbe
00000070: 60a9 a73e b0fd f8be 01d5 133d 5d2f 2cbf

conceptizer.unlinear.weight f4 [16, 1]
-0.76869863 0.46760225 -0.4487031 -1.2215408 -0.934538 -0.55006707 0.9234972 -0.8369099
-0.6530927 -0.85796016 1.0407501 0.59531003 -0.8186203 -0.08237817 -0.62229174 0.63039434
00000000: 6fc9 44bf 9069 ef3e 6abc e5be 735b 9cbf
00000010: e23d 6fbf 32d1 0cbf 506a 6c3f ba3f 56bf
00000020: 1531 27bf 47a3 5bbf 4d37 853f 3d66 183f
00000030: 1a91 51bf e3b5 a8bd 834e 1fbf 8661 213f

conceptizer.unlinear.bias f4 [16]
0.7369813 -0.23918124 -1.0779914 0.8330115 0.367599 0.14418726 -0.5997321 0.50232005
0.12657371 -0.6133893 -0.6942333 0.6718797 -0.25184825 -0.63741153 -0.63053364 0.40572575
00000000: ceaa 3c3f edeb 74be 9ffb 89bf 3e40 553f
00000010: f035 bc3e d3a5 133e 0b88 19bf 0c98 003f
00000020: 8a9c 013e 1507 1dbf 46b9 31bf 4f00 2c3f
00000030: 41f2 80be 672d 23bf a76a 21bf 49bb cf3e

parameterizer.cl_layers.0.weight f4 [10, 1, 5, 5]
0.12878832 -0.015760714 0.07553366 0.14220762 0.094114944 -0.011618678 0.21869045 -0.101850964
-0.12161377 -0.08585426 0.061127707 0.122005686 0.09583404 0.26960465 0.22171101 -0.20586018
-0.082405366 -0.116564624 -0.116492555 -0.18396682 -0.03944172 -0.22079748 -0.19705755 -0.14732525
-0.16259488 -0.11036051 -0.06381663 0.18197888 -0.058873862 -0.025988929 -0.16009395 -0.12069558
-0.03713401 -0.015611349 -0.06843691 -0.1297127 0.08646539 -0.15444583 -0.005536436 -0.113110654
0.18136325 -0.09284266 0.004958665 -0.18708506 -0.108584255 0.2522869 0.07813146 -0.115188904
0.21365912 -0.16937855 -0.11013576 0.05662707 0.111471504 0.12440762 0.044240788 0.018455034
-0.09841342 0.13849938 0.09904292 0.08540663 0.09315718 -0.0049919533 -0.08291829 0.11094838
0.09045182 -0.12521075 -0.14223455 0.065991014 -0.007055499 0.21246679 0.028460544 -0.1800785
-0.081235275 -0.036106963 0.32233337 -0.071789585 0.21296243 0.15295462 0.1256792 0.1862653
0.10882637 -0.009522369 0.10394677 0.15121002 0.12974043 -0.08433646 -0.16093323 -0.19225834
-0.14409332 -0.17913689 0.12870897 -0.16541973 0.18233962 -0.08718461 0.09918884 -0.21537898
-0.16671151 0.06982038 -0.22718279 0.07981977 0.067915335 0.21367022 -0.17501646 -0.08052899
-0.12272917 -0.08442958 0.112627886 -0.19379787 -0.13640757 -0.032174442 0.033528045 -0.008500562
-0.11862528 0.11857673 0.021233372 0.13891414 -0.081774056 -0.11806601 -0.03866868 -0.0489763
-0.039307337 -0.19186991 -0.18069604 0.19561817 -0.027387433 -0.1975367 -0.08839186 0.15618178
-0.08047969 -0.080858074 0.07081512 -0.18848905 -0.18943642 0.12524588 0.2295978 0.14071056
-0.2352218 0.13489376 0.1152774 0.001781561 0.0783249 -0.25666496 0.089595005 0.14986406
1.985832e-05 -0.21927062 0.12012277 -0.077789575 0.23030011 0.044861693 0.05977705 -0.08403582
0.030052997 0.17533924 -0.20071572 -0.04723014 -0.14863086 0.11386959 0.06920762 0.0662977
0.058915876 -0.13754793 0.16566852 -0.16761537 -0.14798239 0.034490954 0.31336582 -0.13309379
0.3506854 -0.18589668 -0.15127698 -0.14158644 -0.12839879 0.15418483 -0.05191748 0.21278042
-0.16694409 -0.14114241 -0.17173661 0.24599281 0.08699466 -0.16689812 0.05689326 -0.0738539
0.090092085 -0.026299408 0.18304217 -0.21289405 -0.20503035 -0.028182222 -0.0019297521 -0.18509655
0.26420614 -0.23615378 0.26001176 -0.07729691 -0.15596974 0.10676233 -0.18839853 -0.17588675
-0.08019962 -0.20572583 -0.18950997 0.19953199 -0.12926081 0.25857058 0.077969976 0.114825055
-0.118305124 0.19203654 -0.00065138453 0.06285461 -0.09607628 0.015511053 -0.039071824 -0.20187964
0.18796939 0.13115075 -0.17614284 -0.1709612 -0.011032498 -0.22855762 0.20692292 -0.1544996
0.27866137 -0.045642305 -0.24842778 -0.21213245 -0.16051692 0.12768345 -0.041187596 0.113470025
0.14979161 0.06134441 0.07506254 0.11980705 0.13012083 0.264414 0.0557637 -0.0995044
0.037524868 0.009012513 -0.031586375 0.033684522 -0.12656899 -0.032389592 -0.07688952 -0.12918453
-0.060216237 0.14367788
00000000: 16e1 033e 9d1c 81bc 64b1 9a3d e09e 113e
00000010: 56bf c03d 455c 3ebc 64f0 5f3e 3d97 d0bd
00000020: a410 f9bd 5cd4 afbd 0c61 7a3d 1ede f93d
00000030: a344 c43d 9f09 8a3e 3608 633e 03cd 52be
00000040: 25c4 a8bd 6fb9 eebd a693 eebd cc61 3cbe
00000050: a48d 21bd bc18 62be 74c9 49be 6edc 16be
00000060: 467f 26be b104 e2bd 4bb2 82bd ac58 3a3e
00000070: b825 71bd bce6 d4bc abef 23be 3f2f f7bd
00000080: d519 18bd bec6 7fbc a728 8cbd 68d3 04be
00000090: c414 b13d 0c27 1ebe fe6a b5bb 8fa6 e7bd
000000a0: 4ab7 393e 4b24 bebd 4c7c a23b 3a93 3fbe
000000b0: 6c61 debd c02b 813e 6303 a03d 29e8 ebbd
000000c0: 75c9 5a3e 9271 2dbe db8e e1bd c9f1 673d
000000d0: 2c4b e43d 6cc9 fe3d d435 353d 032f 973c
000000e0: fa8c c9bd c8d2 0d3e 04d7 ca3d ace9 ae3d
000000f0: 31c9 be3d 8a93 a3bb 10d1 a9bd e738 e33d
00000100: ce3e b93d 3f37 00be efa5 11be 4c26 873d
00000110: d131 e7bb e590 593e 1626 e93c 8066 38be
00000120: ae5e a6bd e5e4 13bd e108 a53e 6b06 93bd
00000130: d312 5a3e 23a0 1c3e 0cb2 003e 55bc 3e3e
00000140: 5ce0 de3d b603 1cbc 0be2 d43d cdd6 1a3e
00000150: adda 043e 98b8 acbd aecb 24be 5fdf 44be
00000160: 338d 13be a96f 37be 49cc 033e ca63 29be
00000170: 3db7 3a3e d88d b2bd 8523 cb3d 4f8c 5cbe
00000180: 6cb6 2abe fdfd 8e3d 9ba2 68be 8c78 a33d
00000190: 3217 8b3d 5ecc 5a3e 8437 33be 62ec a4bd
000001a0: 6e59 fbbd 6ae9 acbd 73a9 e63d f372 46be
000001b0: 6dae 0bbe 59c9 03bd b454 093d f145 0bbc
000001c0: d0f1 f2bd 5bd8 f23d 9cf1 ad3c 823f 0e3e
000001d0: 2879 a7bd 98cc f1bd 0d63 1ebd 5f9b 48bd
000001e0: bb00 21bd 8c79 44be 6208 39be 2150 483e
000001f0: 9c5b e0bc 1047 4abe cb06 b5bd 1eee 1f3e
00000200: 89d2 a4bd eb98 a5bd 8507 913d 4603 41be
00000210: 9ffb 41be 7540 003e b01b 6b3e 6e16 103e
00000220: fcdd 70be 9721 0a3e 8f16 ec3d 4483 e93a
00000230: ce68 a03d 9769 83be 967d b73d f775 193e
00000240: 6b95 a637 7a88 60be ed02 f63d 2450 9fbd
00000250: cbd3 6b3e e5c0 373d c8d8 743d f91a acbd
00000260: b431 f63c 218c 333e 6c88 4dbe 6474 41bd
00000270: b032 18be 7634 e93d babc 8d3d 17c7 873d
00000280: c651 713d 5dd9 0cbe 02a5 293e 5da3 2bbe
00000290: b288 17be 6346 0d3d 7c71 a03e bd49 08be
000002a0: 098d b33e b35b 3ebe 5ae8 1abe 09fc 10be
000002b0: f97a 03be a1e2 1d3e 6ca7 54bd 1ce3 593e
000002c0: 64f3 2abe a387 10be b9db 2fbe 8ae5 7b3e
000002d0: 422a b23d 57e7 2abe e808 693d b740 97bd
000002e0: 3382 b83d db71 d7bc 686f 3b3e e600 5abe
000002f0: 7af3 51be 67de e6bc bcef fcba f389 3dbe
00000300: 0746 873e 4cd2 71be 4320 853e d84d 9ebd
00000310: 88b6 1fbe 35a6 da3d 8beb 40be a81b 34be
00000320: b33f a4bd cba9 52be e70e 42be 1d52 4c3e
00000330: f25c 04be 5d63 843e b9ae 9f3d 6629 eb3d
00000340: f549 f2bd 3aa5 443e adc1 2aba ebb9 803d
00000350: a4c3 c4bd 1222 7e3c c709 20bd 89b9 4ebe
00000360: 0c7b 403e 624c 063e ca5e 34be 7410 2fbe
00000370: a7c1 34bc 020b 6abe 9ae3 533e 2535 1ebe
00000380: b4ac 8e3e 6df3 3abd da63 7ebe 4039 59be
00000390: 8c5e 24be 73bf 023e 53b4 28bd f962 e83d
000003a0: f962 193e 4744 7b3d 64ba 993d 665d f53d
000003b0: 653e 053e 4661 873e 7a68 643d f6c8 cbbd
000003c0: adb3 193d 38a9 133c b760 01bd c8f8 093d
000003d0: 4d9b 01be f3aa 04bd 4178 9dbd f348 04be
000003e0: 4da5 76bd 4b20 133e

parameterizer.cl_layers.0.bias f4 [10]
0.13221455 0.16473204 -0.16213578 0.02126788 0.035490196 0.083055936 -0.11033718 -0.1512519
-0.068328194 -0.021899324
00000000: 4063 073e 84af 283e ec06 26be fa39 ae3c
00000010: 2b5e 113d 3b19 aa3d 76f8 e1bd c7e1 1abe
00000020: a7ef 8bbd 3666 b3bc

parameterizer.cl_layers.3.weight f4 [20, 10, 5, 5]
0.0017215456 -0.029115317 -0.030495169 -0.10396593 -0.0054966225 0.018223844 0.01323726 -0.053294558
-0.00018779797 -0.035100438 -0.05102277 0.015479503 -0.030512428 -0.058532212 -0.0015848009 0.042092256
0.034512524 -0.043492507 -0.028904 0.02930553 -0.013679518 0.018445779 0.018690692 0.0020781327
-0.04401331 0.0076329405 0.050656058 -0.06961508 -0.059551936 -0.013974515 -0.042930257 -0.01969912
-0.07057807 -0.04385122 0.04695831 -0.015790869 -0.020115055 0.032045115 0.01680729 0.03369681
-0.023384938 0.025985029 0.0039432347 -0.03671835 -0.055619266 0.011827134 0.010330753 -0.0069384594
0.03652056 0.01765525 0.07666342 -0.021939017 0.03959936 -0.01468889 0.029050834 -0.019820789
-0.044328164 0.047591485 -0.028366968 -0.02229867 0.018524442 0.0314261 -0.020209527 -0.015323112
-0.0039322907 0.0027870394 0.06340567 -0.0004822564 0.021772547 -0.06325827 -0.013426701 0.017075473
0.07506073 0.039155416 0.025236558 -0.0031808678 -0.026799312 -0.019497124 -0.021087892 -0.004484509
-0.030394357 0.008437592 -0.019461274 0.025299871 -0.059076093 0.014339121 -0.019591076 -0.06181557
-0.09439898 0.01634581 0.0040913997 0.038287 0.030614782 -0.009685441 -0.0147834355 0.055054344
-0.016992489 -0.019731808 0.030749682 -0.049584176 0.014545619 -0.043076266 0.00019913224 0.05441806
-0.011545174 0.0323427 -0.03509861 -0.028705169 -0.050422035 0.04145006 0.018970145 0.0068692323
0.07272945 -0.04101698 0.047438186 -0.006623879 0.05627661 -0.033877626 0.036161944 -0.04129356
0.069168575 0.013889662 -0.005778505 -0.020690253 0.04241404 -0.009930419 0.027064398 0.0033577587
0.0601257 0.062120873 0.00019666976 0.030760814 0.07613509 0.05979058 -0.0074243834 -0.014856462
0.031552397 0.043204673 0.04398145 0.0015359728 0.008782339 -0.0053554936 0.0526494 0.079212375
-0.058776207 -0.010241802 -0.028687686 -0.014037952 -0.05602915 -0.007650212 0.00642918 0.0978963
0.046792287 -0.009156161 0.01090635 -0.021212202 -0.027235664 0.006813279 -0.017603463 0.011564696
0.0319239 -0.01661219 0.018354045 0.044800933 0.008846551 0.046453666 0.048451215 0.009999971
-0.0011425909 0.037552435 0.034442417 -0.03286913 0.043864816 0.0121313855 0.03241323 -0.009478193
0.080556825 0.015087702 -0.06357871 -0.022465372 -0.058040988 0.027588269 0.046054605 0.011282368
-0.0057342052 -0.06537985 -0.0059729638 0.007723658 0.059669662 -0.021570025 -0.01111899 -0.032203525
-0.0012511155 0.0077946465 0.068125285 -0.021770772 -0.036188606 0.00055728015 0.0057892287 -0.067889355
0.022955837 0.078846596 0.03414343 0.07207789 -0.024295483 -0.038081665 0.04059419 0.021983355
0.0404335 0.037475962 -0.03203619 -0.010768537 0.032933563 -0.018624905 -0.01989097 0.048253883
-0.051694673 0.031119037 -0.018426023 -0.033753294 -0.018470336 0.05173416 0.025901483 0.039206404
0.019367725 0.044932593 0.06371075 -0.039274443 -0.034679197 0.011441934 -0.018289568 0.04454263
-0.008126913 -0.019136366 0.07668504 -0.0047125216 0.032013353 0.0010487041 0.004865167 0.0675507
0.05755109 0.030771099 -0.00758643 -0.01145185 0.040876716 -0.0034670648 0.013254358 0.0045803846
-0.0026314587 -0.01575588 -0.00016940456 -0.004446853 0.07704454 0.003052268 0.040686745 0.015073085
00000000: 7ca5 e13a 3f83 eebc 01d1 f9bc 17ec d4bd
00000010: 031d b4bb 2c4a 953c 18e1 583c 654b 5abd
00000020: a2eb 44b9 7ac5 0fbd 41fd 50bd be9d 7d3c
00000030: 33f5 f9bc 79bf 6fbd 18b9 cfba ee68 2c3d
00000040: 015d 0d3d 3325 32bd 15c8 ecbc 2712 f03c
00000050: 0f20 60bc 9a1b 973c 391d 993c 4831 083b
00000060: 4d47 34bd bf1d fa3b ba7c 4f3d 5a92 8ebd
00000070: bbec 73bd 5df5 64bc a3d7 2fbd 0d60 a1bc
00000080: 3c8b 90bd 569d 33bd 5b57 403d da5b 81bc
00000090: 54c8 a4bc bd41 033d 71af 893c ab05 0a3d
000000a0: c591 bfbc 8ede d43c 4036 813b fb65 16bd
000000b0: 07d1 63bd 98c6 413c 5242 293c 045c e3bb
000000c0: 9596 153d bea1 903c b601 9d3d 74b9 b3bc
000000d0: f032 223d aca9 70bc 04fc ed3c 355f a2bc
000000e0: 7391 35bd 4aef 423d d861 e8bc b3ab b6bc
000000f0: 92c0 973c a7b8 003d 738e a5bc ca0d 7bbc
00000100: 72da 80bb c3a6 363b d5da 813d 5cd7 fcb9
00000110: 575c b23c 8d8d 81bd aafb 5bbc dde1 8b3c
00000120: 71b9 993d 6e61 203d e6bc ce3c 1b76 50bb
00000130: 3b8a dbbc 6fb8 9fbc 84c0 acbc caf2 92bb
00000140: 96fd f8bc d33d 0a3c 406d 9fbc ad41 cf3c
00000150: c6f9 71bd a2ee 6a3c 777d a0bc 5332 7dbd
00000160: 4154 c1bd a6e7 853c 2611 863b d4d2 1c3d
00000170: dacb fa3c afaf 1ebc 3936 72bc aa80 613d
00000180: d533 8bbc 9aa4 a1bc c2e6 fb3c c718 4bbd
00000190: bf50 6e3c bd70 30bd 27ce 5039 79e5 5e3d
000001a0: f827 3dbc c779 043d 8fc3 0fbd 1a27 ebbc
000001b0: 5687 4ebd 8ac7 293d 4767 9b3c 4c17 e13b
000001c0: 2ef3 943d 6c01 28bd 8b4e 423d 200d d9bb
000001d0: 4d82 663d 44c3 0abd 8c1e 143d 7023 29bd
000001e0: 41a8 8d3d 7791 633c 9d59 bdbb 9b7e a9bc
000001f0: 58ba 2d3d 32b3 22bc 28b6 dd3c d80d 5c3b
00000200: 5e46 763d 7572 7e3d 2339 4e39 1afe fb3c
00000210: b7ec 9b3d f8e6 743d 3e48 f3bb 8568 73bc
00000220: 163d 013d 62f7 303d e525 343d b252 c93a
00000230: cde3 0f3c 237d afbb e6a6 573d 193a a23d
00000240: 52bf 70bd 3bcd 27bc 7002 ebbc 70ff 65bc
00000250: d27e 65bd a1ae fabb dfab d23b db7d c83d
00000260: 45a9 3f3d b903 16bc 8cb0 323c 36c5 adbc
00000270: 541d dfbc ed41 df3b 2335 90bc da79 3d3c
00000280: a3c2 023d 4a16 88bc 395b 963c 2f81 373d
00000290: 20f1 103c 3346 3e3d c874 463d ebd6 233c
000002a0: fdc2 95ba 95d0 193d 7e13 0d3d c8a1 06bd
000002b0: 98ab 333d b8c2 463c bcc3 043d 6c4a 1bbc
000002c0: fafa a43d 6932 773c 8e35 82bd 4d09 b8bc
000002d0: 63bc 6dbd cb00 e23c c1a3 3c3d aed9 383c
000002e0: 00e6 bbbb dfe5 85bd dab8 c3bb bd16 fd3b
000002f0: 2d68 743d 9fb3 b0bc 6d2c 36bc d8e7 03bd
00000300: 78fc a3ba 3c6a ff3b 4585 8b3d 9e58 b2bc
00000310: 813a 14bd 7016 123a 92b3 bd3b 9309 8bbd
00000320: e10d bc3c 537a a13d fbd9 0b3d 939d 933d
00000330: 5207 c7bc 85fb 1bbd 1846 263d 7016 b43c
00000340: 999d 253d 6580 193d 6138 03bd 856e 30bc
00000350: 58e5 063d 4293 98bc 63f2 a2bc dda5 453d
00000360: cbbd 53bd 5aed fe3c 2cf2 96bc e540 0abd
00000370: 1a4f 97bc 33e7 533d 592f d43c e596 203d
00000380: 10a9 9e3c 3d0b 383d c87a 823d 3dde 20bd
00000390: c60b 0ebd f376 3b3c 01d4 95bc 5572 363d
000003a0: be26 05bc dec3 9cbc 0c0d 9d3d 7f6b 9abb
000003b0: 6f20 033d ac74 893a fb6b 9f3b 0558 8a3d
000003c0: b1ba 6b3d ac13 fc3c 9697 f8bb 8aa0 3bbc
000003d0: 586e 273d b237 63bb cf28 593c 0d17 963b
000003e0: 8d74 2cbb 7a12 81bc 31a2 31b9 e8b6 91bb
000003f0: 87c9 9d3d 8f08 483b 25a7 263d 1af5 763c

parameterizer.cl_layers.3.bias f4 [20]
0.061381757 -0.031009832 0.009656284 0.052930843 -0.033131182 0.020176705 0.057371333 -0.04565759
0.033039767 -0.021876963 0.034752984 -0.016871057 -0.005243514 -0.0043757455 -0.06854052 0.014253244
0.0017429478 -0.0035403387 -0.03640411 -0.02857204
00000000: 706b 7b3d 5508 febc 6435 1e3c 03ce 583d
00000010: 90b4 07bd 9e49 a53c 34fe 6a3d 7403 3bbd
00000020: b554 073d 5137 b3bc 2559 0e3d 2c35 8abc
00000030: c9d1 abbb 6a62 8fbb f95e 8cbd 7086 693c
00000040: a073 e43a 0705 68bb 7a1c 15bd e90f eabc

parameterizer.fc_layers.0.weight f4 [50, 320]
0.0013941097 -0.03039858 0.013616842 -0.05064395 -0.02398976 0.050759375 0.015852172 0.008627844
-0.054934144 0.02724169 0.013859292 -0.025048427 -0.019650947 0.016609434 0.049709115 0.017674493
0.014763332 0.0077682245 -0.026438264 -0.07008106 0.08869353 0.028634256 0.0392742 -0.008046834
-0.0028191127 -0.016384646 0.0498539 0.07392005 -0.001699702 -0.0026576482 -0.029932668 0.06284992
-0.062494412 0.025262786 -0.01857357 -0.0057885526 -0.015177235 0.023291774 0.052860808 0.05483978
-0.02280095 0.02758348 0.022317203 0.014540365 0.0068858946 -0.0172161 0.010865773 -0.0011717007
0.11958807 0.048704505 -0.037089642 0.036517914 0.0066349385 -0.043775097 -0.015436843 0.0026309798
0.087752715 0.010227441 0.0196717 -0.02002787 0.03391065 0.017304644 -0.034608744 -0.027516412
0.03027954 -0.0014806915 -0.051747847 -0.014356949 -0.025304085 0.0026351833 -0.0069996906 -0.056750193
0.021493908 0.042370252 0.0040041176 0.024437636 0.0321438 0.02426385 0.03411266 -0.025273042
-0.06699304 0.0043711527 -0.02659697 -0.05171729 0.058361925 0.056889683 -0.01102474 -0.021769358
0.035566397 -0.016652212 0.046949152 0.06733712 0.0026082871 0.006348958 0.03977961 0.06753907
0.0025986438 0.02665357 0.036562495 0.019616753 0.034626827 0.006218733 0.02097272 -0.0075470763
0.07225109 -0.0356695 -0.08104672 -0.014188566 0.0482694 -0.051127188 -0.027296633 0.015242641
-0.00661038 -0.026898883 0.011424344 0.011658785 0.036462583 0.09178478 0.06734157 0.015859697
-0.037960295 -0.042974453 0.031409416 -0.0312512 0.01756345 -0.063801736 0.004145782 0.030424414
0.016586874 0.020759543 0.034014847 0.0025115085 -0.0037583774 -0.031499907 0.06628635 -0.029764444
-0.020999752 0.009990946 0.01750445 -0.019086722 -0.008799623 0.006680116 0.0076384316 -0.011325311
0.017878203 0.02682184 -0.010509585 0.025025688 -0.059249308 0.0065616234 0.037884165 0.04658971
-0.073064595 0.05959039 0.05315846 0.023430062 -0.047627635 -0.0074867974 -0.010988501 -0.0586361
0.028177915 0.03372949 0.048811898 0.004023261 -0.062242903 0.0126686655 0.023650607 0.022650845
0.0031486382 -0.034615174 -0.026088955 0.058530018 -0.0035113485 -0.045141004 -0.004864405 0.0034625365
-0.04208882 -0.041700553 0.0041740155 0.0024798575 0.023055121 0.0020558347 0.034158845 0.03202713
-0.01678474 0.04209076 -0.05943899 0.03183664 0.052734252 -0.016191842 -0.025160797 0.02541716
0.06560845 0.043322783 -0.0032119711 -0.022708016 -0.007863254 -0.029441245 0.04583043 -0.0056324853
-0.008593092 -0.01654022 0.004529315 -0.01895313 -0.053691275 0.00044514745 0.056259315 0.051442057
-0.0068543297 0.025257269 0.014356779 0.0075150644 0.038512312 -0.006516349 0.07467968 0.036835596
0.028500114 0.023931505 0.02346153 -0.08725325 -0.01684509 0.003424773 -0.03912637 -0.050532036
0.020021467 0.008597384 -0.032198858 0.037130393 0.020412192 0.0784303 0.005819029 0.051389545
0.04816417 -0.020773713 0.0067578964 0.07099 -0.055879496 -0.030442672 -0.032750156 0.058872122
-0.029150134 0.023069747 -0.014456654 -0.0004126486 0.09109978 0.08703466 -0.039324164 -0.044203885
-0.008762629 0.038991883 0.023882579 -0.02864837 0.007854106 -0.037074726 -0.0049704406 0.032992974
00000000: 8fba b63a 7106 f9bc 2d19 5f3c 0870 4fbd
00000010: 2c86 c4bc 10e9 4f3d 6adc 813c cd5b 0d3c
00000020: a002 61bd f729 df3c 1512 633c 5c32 cdbc
00000030: 06fb a0bc 8210 883c c99b 4b3d 19ca 903c
00000040: e7e1 713c 978c fe3b 0f95 d8bc a986 8fbd
00000050: f4a4 b53d 6392 ea3c fcdd 203d ded6 03bc
00000060: ddc0 38bb 1839 86bc 9a33 4c3d 6563 973d
00000070: 89c8 deba f02b 2ebb 5b35 f5bc 75b7 803d
00000080: 24fa 7fbd e7f3 ce3c 9927 98bc e6ad bdbb
00000090: f0a9 78bc 64ce be3c 9384 583d ad9f 603d
000000a0: 0fc9 babc c0f6 e13c 91d2 b63c b63a 6e3c
000000b0: 12a3 e13b c708 8dbc 5b06 323c c093 99ba
000000c0: 97ea f43d 607e 473d 4feb 17bd cf93 153d
000000d0: e669 d93b 844d 33bd d0ea 7cbc 846c 2c3b
000000e0: b2b7 b33d ff90 273c 8c26 a13c 7d11 a4bc
000000f0: e5e5 0a3d 78c2 8d3c e6c1 0dbd 196a e1bc
00000100: cc0c f83c c313 c2ba 8df5 53bd 6939 6bbc
00000110: 834a cfbc 0ab3 2c3b a95d e5bb e472 68bd
00000120: fe13 b03c 6e8c 2d3d f934 833b 7031 c83c
00000130: 38a9 033d fbc4 c63c b7b9 0b3d 6909 cfbc
00000140: a633 89bd e33b 8f3b e4e1 d9bc 82d5 53bd
00000150: ea0c 6f3d 2805 693d 1ca1 34bc a755 b2bc
00000160: 12ae 113d 386a 88bc c14d 403d 0be8 893d
00000170: ccef 2a3b eb0a d03b f2ef 223d ed51 8a3d
00000180: 024e 2a3b 9658 da3c 8ec2 153d 50b3 a03c
00000190: dcd4 0d3d 83c6 cb3b fbce ab3c 774d f7bb
000001a0: 61f8 933d 2e1a 12bd d3fb a5bd 2977 68bc
000001b0: 22b6 453d be6a 51bd 309d dfbc 45bc 793c
000001c0: e39b d8bb 0c5b dcbc 2c2d 3b3c 7d04 3f3c
000001d0: ca59 153d a9f9 bb3d 61ea 893d 32ec 813c
000001e0: 417c 1bbd fb05 30bd 29a7 003d 4201 00bd
000001f0: 39e1 8f3c 7caa 82bd 57d9 873b 9f3c f93c
00000200: 32e1 873c eb0f aa3c 2753 0b3d 1f98 243b
00000210: 1c4f 76bb 0c06 01bd 23c1 873d 90d4 f3bc
00000220: ac07 acbc 11b1 233c 7e65 8f3c c25b 9cbc
00000230: 4b2c 10bc e0e4 da3b cf4b fa3b cc8d 39bc
00000240: 4f75 923c 7ab9 db3c 6530 2cbc ac02 cd3c
00000250: 67af 72bd e302 d73b 6d2c 1b3d dad4 3e3d
00000260: e4a2 95bd 0e15 743d afbc 593d 67f0 bf3c
00000270: 3215 43bd cf53 f5bb 1d09 34bc 682c 70bd
00000280: 5fd5 e63c ef27 0a3d fcee 473d 8fd5 833b
00000290: 6af2 7ebd 3c90 4f3c ebbe c13c 448e b93c
000002a0: 6259 4e3b a4c8 0dbd 81b8 d5bc 2cbd 6f3d
000002b0: a71e 66bb c6e5 38bd 9665 9fbb b9eb 623b
000002c0: 5465 2cbd 33ce 2abd 2ec6 883b 1b85 223b
000002d0: 18de bc3c 2fbb 063b 25ea 0b3d e12e 033d
000002e0: 2780 89bc 5c67 2c3d 4c76 73bd 2367 023d
000002f0: dfff 573d c1a4 84bc 041e cebc a637 d03c
00000300: b95d 863d 3b73 313d ef7f 52bb 2906 babc
00000310: e1d4 00bc c42e f1bc b0b8 3b3d b690 b8bb
00000320: 0aca 0cbc 5b7f 87bc a66a 943b 9843 9bbc
00000330: 62eb 5bbd ae62 e939 2b70 663d e8b4 523d
00000340: 499a e0bb 55e8 ce3c b238 6b3c ee40 f63b
00000350: 16bf 1d3d 1987 d5bb a9f1 983d ece0 163d
00000360: 1279 e93c 010c c43c 6532 c03c d5b1 b2bd
00000370: b7fe 89bc 2872 603b f942 20bd aefa 4ebd
00000380: 0f04 a43c 0bdc 0c3c f3e2 03bd 0a16 183d
00000390: 7837 a73c 11a0 a03d 8ead be3b d87d 523d
000003a0: cb47 453d a22d aabc 5871 dd3b 3563 913d
000003b0: e6e1 64bd e962 f9bc 0725 06bd e523 713d
000003c0: 43cc eebc c4fc bc3c 9adb 6cbc c258 d8b9
000003d0: 8592 ba3d 3a3f b23d 6012 21bd 220f 35bd
000003e0: 2191 0fbc f4b5 1f3d 66a5 c33c fdaf eabc
000003f0: 82ae 003c abdb 17bd 14df a2bb a423 073d
