results/CONF_FASHION_MNIST/checkpoints/Epoch[12]-Step[3510].pt (torch, 374454 bytes, 66 tensors)

conceptizer.encoder.0.0.weight f4 [10, 1, 5, 5]
0	0xbe592dba	-0.2120885
1	0x3e41e05d	0.18933244
2	0x3e658a68	0.22416079
3	0x3e0f173d	0.13973708
4	0x3e1e38ff	0.1545143
5	0xbd900e85	-0.070340194
6	0x3c21c072	0.009872543
7	0x3d45c325	0.048281807
8	0x3e60f784	0.2196942
9	0xbdadd457	-0.08487766
10	0x3e301623	0.17195944
11	0x3dfef953	0.124498986
12	0xbe162846	-0.146638
13	0x3e2c26b8	0.16811645
14	0xbe0104ad	-0.1259944
15	0x3e650a33	0.22367172
16	0x3de8aeb7	0.11361449
17	0x3df3589e	0.11882137
18	0x3cc50a3a	0.024052728
19	0xbdb99913	-0.090624
20	0x3e8f13a7	0.2794468
21	0xbad60ac2	-0.001633011
22	0xbdcc8376	-0.09986012
23	0xbdbcf760	-0.092268705
24	0x3de44368	0.11145669
25	0xbd8789aa	-0.06618054
26	0x3dd69f43	0.104795955
27	0xbe1892f8	-0.14899814
28	0xbdf225c4	-0.118236095
29	0xbdf6da5d	-0.12053368
30	0xbc77852a	-0.015107432
31	0xbd737143	-0.059434187
32	0xbe37e047	-0.17956649
33	0x3b61e583	0.0034469075
34	0xbe1fb3a1	-0.15595867
35	0x3db49649	0.08817727
36	0xbde16340	-0.110052586
37	0xbd1b8898	-0.037972063
38	0xbe213b6c	-0.15745324
39	0xbe1aa3c3	-0.15101533
40	0xbe5ee7cd	-0.21768112
41	0xbccd9e1b	-0.025099805
42	0xbd48cf53	-0.049025845
43	0x3d39b248	0.045336038
44	0xbd3e55a5	-0.046468396
45	0x3d264505	0.040593166
46	0x3ce23954	0.027615227
47	0xbdf4abce	-0.11946832
48	0xbe635e2b	-0.22203891
49	0xbd16d5cd	-0.03682499
50	0x3c5da441	0.013527931
51	0xbe226726	-0.1585966
52	0x3dca49f5	0.098773874
53	0xbd11963b	-0.03554366
54	0xbddc7cbb	-0.10765978
55	0xbdbb2e58	-0.09139699
56	0xbe1b0f1f	-0.15142487
57	0xbc0970c3	-0.008388701
58	0xbe2aca2c	-0.16678685
59	0xbded137f	-0.11575984
60	0xbe4b346c	-0.19844216
61	0x3e100cb7	0.1406735
62	0xbd8e15c7	-0.069377474
63	0xbe26c8c3	-0.16287522
64	0xbc6cc1b7	-0.014450482
65	0xbd9d57c6	-0.07682757
66	0xbd13584f	-0.03597289
67	0xbe596bb7	-0.21232496
68	0xbdc1b587	-0.09458452
69	0xbe1af1f1	-0.15131356
70	0x3e13a067	0.14416657
71	0x3c8e7518	0.017389819
72	0x3d19aa7d	0.037516106
73	0xbc386cad	-0.011256379
74	0xbdf3be5e	-0.11901544
75	0xbddff2d4	-0.10934988
76	0xbd1d4f83	-0.038405906
77	0x3d8e9eb6	0.069638655
78	0xbd65997d	-0.05605458
79	0xbdd36b01	-0.10323144
80	0xbdee339a	-0.11630936
81	0xbc07d548	-0.008290596
82	0xbda81beb	-0.0820845
83	0xbcfe2746	-0.031024586
84	0x3d926f0b	0.07150086
85	0xbe424078	-0.18969905
86	0xbe373567	-0.17891465
87	0x3d7548cd	0.05988388
88	0xbe32dd3a	-0.17467204
89	0xbd0df2a6	-0.034655236
90	0xbd59f9ad	-0.053216625
91	0xbdf8085c	-0.121109694
92	0xbc0942f4	-0.008377779
93	0xbdbc8634	-0.09205285
94	0xbd536124	-0.051606312
95	0xbd5a5b48	-0.05330971
96	0xbceea11f	-0.029129563
97	0xbe481b1d	-0.19541593
98	0xbd3794b5	-0.044819552
99	0x3dc465db	0.0958974
100	0x3da3de08	0.080013335
101	0xbe0d612d	-0.13806601
102	0x3da987fc	0.0827789
103	0x3daeeb87	0.08541017
104	0x3e04a011	0.12951685
105	0x3d54fbfc	0.051998124
106	0xbe2addf1	-0.16686226
107	0xbb88ddf7	-0.004176851
108	0x3e12ddc7	0.14342414
109	0xbe4d73a1	-0.2006364
110	0x3d129892	0.035790034
111	0x3cd93ce7	0.026518298
112	0xbe42b87e	-0.1901569
113	0xbe50f287	-0.20405017
114	0xbda40140	-0.08008051
115	0xbc40b364	-0.01176152
116	0xbdd3bb2a	-0.10338433
117	0x3ddb2aba	0.10701509
118	0xbe228eee	-0.15874836
119	0x3d11090d	0.035409022
120	0x3d4b976d	0.049704958
121	0x3e082285	0.13294418
122	0xbdbfc9ce	-0.09364663
123	0xbe25393b	-0.16135113
124	0x3ccad334	0.024758913
125	0xbde93b0b	-0.11388215
126	0x3d99cedf	0.07510161
127	0x3dc4a137	0.09601062
128	0x3de01c62	0.109429136
129	0xb9d69575	-0.00040928615
130	0xbe3e3288	-0.18573964
131	0xbe004e97	-0.1252998
132	0x3e244bc4	0.16044527
133	0x3e02f0e7	0.1278721
134	0xbe0f565c	-0.13997787
135	0x3de249c5	0.11049227
136	0x3d8c2704	0.06843379
137	0x3de426ec	0.11140236
138	0xbda2bd2c	-0.07946238
139	0xbe77fdfb	-0.2421798
140	0xbe2f5fa1	-0.17126323
141	0x3e33740f	0.17524742
142	0x3e451425	0.19245966
143	0xbd5c8b5f	-0.053843852
144	0xbe8059ac	-0.25068414
145	0x3d952c1a	0.07283802
146	0x3e663a14	0.22483093
147	0x3e0d21a1	0.1378236
148	0xbe13467d	-0.14382358
149	0xbdb627db	-0.088943206
150	0x3e567747	0.20943938
151	0xbde4bfa9	-0.11169369
152	0x3e1d4217	0.15357243
153	0x3e5b27e5	0.21401937
154	0x3d90dc1f	0.07073235
155	0xbd93e192	-0.072207585
156	0x3e340994	0.17581779
157	0xbcb784d0	-0.022402197
158	0x3e435aaf	0.19077562
159	0x3e4c48fb	0.19949715
160	0xbe1814af	-0.1485164
161	0xbda3f3fb	-0.0800552
162	0xbdc7a29e	-0.09747814
163	0xbdbff87d	-0.09373567
164	0xbe07fe30	-0.13280559
165	0xbe282d45	-0.16423519
166	0x3dcffb77	0.10155385
167	0x3d065651	0.03279716
168	0xbdb31a6d	-0.08745275
169	0xbe176798	-0.14785612
170	0xbe07d120	-0.13263369
171	0xbc215eb3	-0.009849238
172	0xbe6e512b	-0.2327315
173	0xbb668136	-0.003517223
174	0x3d1568ff	0.036477085
175	0xbd63b440	-0.05559182
176	0xbd3d34e4	-0.04619302
177	0xbe739c0b	-0.23789994
178	0xbe82238e	-0.2541775
179	0x3d538bff	0.051647183
180	0xbd2f1385	-0.042743225
181	0xbe2fd334	-0.17170411
182	0xbcfba31f	-0.03071743
183	0xbcff8b71	-0.03119442
184	0xbe1cdb4e	-0.15318033
185	0x3e929da1	0.28635886
186	0x3cdd1eac	0.026992165
187	0x3e096fc7	0.13421546
188	0x3e342aea	0.17594495
189	0x3cd3d4a2	0.025858227
190	0x3e9ec595	0.31010118
191	0xbc959138	-0.018257722
192	0x3dc51189	0.09622485
193	0x3c8b47ad	0.017001951
194	0xbc942e1c	-0.018088393
195	0x3db7a802	0.08967592
196	0x3e891df4	0.26780665
197	0xbdbeb3d4	-0.09311643
198	0x3df70090	0.12060654
199	0x3e4ed4e2	0.20198396
200	0x3e342b48	0.17594635
201	0x3d4e44ff	0.05035877
202	0x3dc3849a	0.09546776
203	0x3d239734	0.03993912
204	0xbde4f74f	-0.11179983
205	0x3e1b12b8	0.1514386
206	0x3ddac2a4	0.10681656
207	0xbdd44a8b	-0.103657804
208	0xbe21666f	-0.15761732
209	0x3e268d8b	0.16264932
210	0x3e3fd985	0.18735321
211	0xbdd8305f	-0.10556101
212	0xbdb58a76	-0.088643
213	0xbe0f50a9	-0.13995613
214	0xbe37a90e	-0.17935583
215	0x3dca345b	0.09873267
216	0x3cd6ebd5	0.0262355
217	0x3e026bba	0.12736407
218	0xbe33446b	-0.17506568
219	0x3c7a1d7c	0.015265819
220	0xbe420364	-0.18946606
221	0x3dd956d5	0.10612265
222	0xbd262a6e	-0.040567808
223	0xbdb4db38	-0.08830875
224	0x3df50bee	0.11965166
225	0xbd890da1	-0.06692053
226	0x3e0e34dc	0.13887352
227	0x3e3241e5	0.1740795
228	0x3e0a603c	0.13513273
229	0xbd809206	-0.06277852
230	0xbe3bef74	-0.18353063
231	0x3d5d3f07	0.054015186
232	0x3e53b49c	0.20674366
233	0xbdd6ad33	-0.10482254
234	0xbd503654	-0.05083306
235	0x3d1033dd	0.03520571
236	0x3e360b32	0.17777708
237	0x3e46786d	0.19381876
238	0xbe54c2f6	-0.20777497
239	0xbcf3e451	-0.029771956
240	0xbd5a79c9	-0.0533388
241	0x3e24af1e	0.16082427
242	0xbd9c84a8	-0.0764249
243	0xbe5df7fa	-0.21676627
244	0xbd1738f0	-0.036919534
245	0xbc1f80e4	-0.00973532
246	0x3d5a9544	0.053365007
247	0x3e2dbb43	0.16965966
248	0x3df41bde	0.11919378
249	0xbd55f639	-0.05223677

conceptizer.encoder.0.0.bias f4 [10]
0	0x3d741d92	0.059598513
1	0x3dc80477	0.097664766
2	0x3e33a463	0.17543177
3	0xbd8ed73a	-0.06974645
4	0x3e41ca24	0.18924767
5	0x3d951ec2	0.07281257
6	0xbd4c70f9	-0.049912427
7	0x3c9f0591	0.019411834
8	0x3db308cf	0.087419145
9	0x3dd7e246	0.10541205

conceptizer.encoder.1.0.weight f4 [5, 10, 5, 5]
0	0xbc359bfe	-0.011084555
1	0x3caeab2a	0.021321852
2	0x3ceec372	0.02914593
3	0x3d7817bd	0.060569514
4	0x3c4a0410	0.01233007
5	0xbcd90edd	-0.026496345
6	0x3bbcb563	0.0057589277
7	0x3c28bb3f	0.010298549
8	0xbd1f68a7	-0.038918164
9	0x3d9751ab	0.07388624
10	0xbd66e2c1	-0.056368593
11	0x3d3b67e4	0.045753375
12	0xbcf06ef9	-0.02934979
13	0x3caae6d0	0.020862013
14	0xbcaa28a0	-0.020771325
15	0xb989ddba	-0.00026295875
16	0x3d1e56a0	0.03865683
17	0x3d8f8125	0.07007054
18	0x3b32c9c6	0.002728091
19	0x3c1344c0	0.008988559
20	0x3c3c4cdc	0.011492934
21	0x3b59a81e	0.0033211778
22	0x3d4ac15e	0.049500816
23	0x3d7a0738	0.06104204
24	0xbd69c732	-0.057074733
25	0x3d40c73b	0.047065
26	0xbb96c43c	-0.0046010297
27	0x3bcc67d4	0.006237963
28	0xbc3fce2c	-0.01170687
29	0x3c3ff1b7	0.011715344
30	0x3d72e8fd	0.059304226
31	0x3b6a4352	0.0035745692
32	0xbd23a6b8	-0.039953917
33	0x3c9bc122	0.019012991
34	0x3d6da551	0.058018986
35	0x3d0c45fb	0.034246426
36	0x3ce9da20	0.028546393
37	0x3cd6a308	0.026200786
38	0x3b532311	0.0032216946
39	0xbc044c96	-0.0080749
40	0xbcea73a7	-0.0286196
41	0xbc7fc177	-0.01561009
42	0xbcf017fb	-0.02930831
43	0x3da2d935	0.07951585
44	0x3d63d1dc	0.05562006
45	0xbc48b5ce	-0.012250377
46	0x3d9e8054	0.077393204
47	0xbb653b04	-0.0034977803
48	0x3b185941	0.002324656
49	0xbcb03af0	-0.021512479
50	0x3ca7f6f6	0.020503502
51	0xbc7038e0	-0.014661998
52	0xbd166acb	-0.03672294
53	0xbd10617a	-0.03524921
54	0xbc732835	-0.014841129
55	0x3bd134a1	0.0063844477
56	0xbc3118cd	-0.010809136
57	0x3d0f9dc9	0.035062585
58	0xbd0c1dec	-0.034208223
59	0x3da98b18	0.08278483
60	0x3d931542	0.07181789
61	0x3d1630f9	0.036667798
62	0x3cbdeba2	0.023183648
63	0xbcf34741	-0.029697062
64	0x3b46c2b1	0.0030328447
65	0x3d0c54a7	0.03426042
66	0x3c663737	0.01405125
67	0xbcfa366c	-0.030543528
68	0x3d091923	0.033471238
69	0xbd0c6f3b	-0.034285765
70	0x3d0ab041	0.033859495
71	0xbc95c10f	-0.018280534
72	0x3d5dc471	0.05414242
73	0x3d60eef1	0.054915372
74	0x3cb7b039	0.022422897
75	0xbd23ecce	-0.040020756
76	0xbd2899b9	-0.041162226
77	0xbd4deb24	-0.050273076
78	0x3c058cea	0.008151272
79	0x3d14e2b2	0.036349006
80	0x3d98fc93	0.0747005
81	0x3d5a8063	0.053345095
82	0xbd00c856	-0.031441055
83	0x3d91fb57	0.071280174
84	0x3d94a7ca	0.07258566
85	0x3dc8be8d	0.0980197
86	0x3ca7de37	0.020491702
87	0xbd163dfe	-0.036680214
88	0x3c53da86	0.012930518
89	0x3aa6146b	0.001267088
90	0xbd30d16e	-0.043168478
91	0xbd468891	-0.048470084
92	0xbc8e1fdd	-0.017349178
93	0x3d16533d	0.036700476
94	0x3cf3cd78	0.029761061
95	0x3c9982d9	0.01873915
96	0xbc4b1343	-0.012394729
97	0x3d7c71fc	0.06163214
98	0x3dc68310	0.09692967
99	0x3db2226e	0.08697973
100	0x3d730032	0.05932636
101	0xbbcf0c00	-0.006318569
102	0xbc1f3031	-0.00971608
103	0x3c5c34e9	0.013440349
104	0x3bccdfa2	0.006252245
105	0xbc786ebf	-0.015163123
106	0xbd0f7b4d	-0.0350297
107	0xbc1073cf	-0.008816673
108	0x3d0686a1	0.032843236
109	0x3d30917d	0.0431075
110	0x3d548e55	0.05189355
111	0xbd28e48b	-0.04123358
112	0x3d987570	0.074442744
113	0xbc9706f5	-0.018435935
114	0xbd14c366	-0.03631916
115	0xbc9337b0	-0.01797089
116	0x3d8c28c4	0.06843713
117	0x3cfc81ce	0.030823614
118	0x3d02871b	0.031867128
119	0x3d71f989	0.059075866
120	0xbd61dc09	-0.055141483
121	0x3c61865d	0.013764945
122	0x3d5e539d	0.05427896
123	0x3ce21968	0.027600005
124	0x3c22a3b1	0.009926722
125	0x3b00b9cb	0.0019641991
126	0x3d9bebc1	0.07613326
127	0xbb99ea53	-0.004697123
128	0x3c12fa5b	0.008970822
129	0x3d756059	0.059906337
130	0xbd8b151e	-0.06791137
131	0x3c35dde9	0.011100271
132	0x3c792e85	0.015208845
133	0x3d24608f	0.040131148
134	0xb9d85b7e	-0.00041266897
135	0xbd327d87	-0.043576743
136	0x3d235da0	0.03988421
137	0x3da00325	0.078131
138	0x3d2a96ba	0.04164765
139	0x3cbc33d8	0.02297394
140	0x3c85d039	0.01633464
141	0xbb000dfd	-0.0019539588
142	0x3d68c28a	0.056826152
143	0xbcc83205	-0.024437914
144	0xbd5faf5a	-0.054610588
145	0x3cb553de	0.022134718
146	0x3db36f21	0.087614305
147	0xbd058fe2	-0.03260792
148	0xbd3d88df	-0.04627311
149	0xbda11569	-0.07865412
150	0x3dd24079	0.102662034
151	0x3db9321a	0.09042759
152	0x3cd4986d	0.025951589
153	0x3d3a2c55	0.045452435
154	0x3dcb28c0	0.09919882
155	0x3d5d6e04	0.054059997
156	0x3c9e2179	0.01930307
157	0xbcce18af	-0.025158254
158	0xbd1ea76e	-0.038733892
159	0xbd4e392b	-0.05034749
160	0x3ccf6c27	0.025320126
161	0x3d128805	0.03577425
162	0x3ca9b070	0.020714015
163	0xbc8c3f51	-0.017120035
164	0x3ce75e52	0.028243218
165	0x3d475787	0.048667457
166	0xbc84425f	-0.01614493
167	0xbc478a1d	-0.012178925
168	0x3b9712ae	0.004610381
169	0xbc5492a7	-0.012974418
170	0xbd1ff2d2	-0.03904993
171	0x3a8c307b	0.0010695601
172	0x3d273e85	0.040831108
173	0xbc48fb9b	-0.012267019
174	0xbb8ac4ec	-0.0042349007
175	0xbdd6f620	-0.10496163
176	0xbdc40c4b	-0.09572657
177	0xbcd9fdfe	-0.02661037
178	0xbc939f97	-0.018020434
179	0xbda9d220	-0.08292031
180	0xbc6fd9c2	-0.01463932
181	0x3cd68eaa	0.026191074
182	0xbdc74ca1	-0.09731413
183	0xbcd049e0	-0.025425851
184	0xbd6baa2c	-0.057535335
185	0x3ce2be28	0.027678564
186	0xbccbb08a	-0.024864454
187	0xbd3f8bef	-0.04676431
188	0xbcdc9284	-0.026925333
189	0x3cf58ac2	0.029973391
190	0x3c034c82	0.008013846
191	0x3d508b65	0.050914187
192	0xbc83c080	-0.016083002
193	0xbcec29d6	-0.028828543
194	0xbda68a4d	-0.081318475
195	0xbd078da2	-0.033094056
196	0xbd5d6da4	-0.05405964
197	0xbdc28923	-0.09498813
198	0xbd8de912	-0.0692922
199	0xbdfc26ae	-0.12312065
200	0xbd630a71	-0.05542988
201	0x3d8419e4	0.06450251
202	0x3d20f280	0.039293766
203	0xbba99eb4	-0.0051763896
204	0x3d6cdcf7	0.057827916
205	0xbd1b9078	-0.037979573
206	0x3c9fe237	0.019517047
207	0x3d278fdf	0.04090869
208	0x3ca32bbf	0.01991832
209	0x3d930221	0.071781404
210	0xbcec467e	-0.028842207
211	0xbd3a7ef6	-0.045531236
212	0xbd69027e	-0.056887142
213	0x3d1b8039	0.03796408
214	0x3ce47ebb	0.027892461
215	0xbc30590e	-0.01076342
216	0x3d97f9b5	0.07420675
217	0x3d2e6594	0.04257734
218	0x3c588400	0.013215065
219	0x3d8c94ca	0.06864317
220	0xbd837f34	-0.064207464
221	0x3d9b9976	0.0759763
222	0xbab4292e	-0.0013745183
223	0x3c204730	0.009782597
224	0x3d1c6003	0.0381775
225	0x3beef69f	0.007292583
226	0xbc945657	-0.018107576
227	0x3cfe9328	0.031076029
228	0x3d9cc1dd	0.07654164
229	0x3d641d38	0.055691928
230	0xbbc1ce62	-0.0059144953
231	0x3d21ecc7	0.03953245
232	0x3c92d8cd	0.017925644
233	0xbd54411f	-0.051819917
234	0xbce98165	-0.028504083
235	0x3ba1fe0f	0.004943616
236	0x3d50bc3c	0.050960764
237	0xbcf97d0a	-0.030455131
238	0x3ce29485	0.02765871
239	0xbd4066fa	-0.046973206
240	0x3d10ebf1	0.03538126
241	0x3c99ffa0	0.01879865
242	0xbc2ba20b	-0.010475646
243	0xbd68a698	-0.0567995
244	0x3c523e63	0.012832257
245	0x3c42a6bd	0.011880574
246	0xbb0a6f2b	-0.002112339
247	0x3c5513f5	0.013005246
248	0x3d2a84f8	0.041630715
249	0xbd832e06	-0.06405263
250	0x3e22adcd	0.15886612
251	0x3dc2bd2f	0.0950874
252	0x3dac2b2d	0.084066726
253	0x3dc3f6da	0.095685676
254	0x3d297eec	0.041380808
255	0x3db43740	0.087996006

conceptizer.encoder.1.0.bias f4 [5]
0	0xbce19ed3	-0.027541554
1	0x3d8b47bc	0.068007916
2	0xbbd0c1fb	-0.0063707805
3	0xbc225f1f	-0.009910374
4	0x3d299af7	0.04140755

conceptizer.encoder.2.layers.0.weight f4 [1, 16]
0	0xbb23134e	-0.0024883333
1	0xbe324fad	-0.17413206
2	0xbdc16c90	-0.09444535
3	0xbe25240b	-0.1612703
4	0x3e06ccce	0.13164064
5	0x3df8119b	0.12112733
6	0x3ded43ba	0.115851834
7	0xbe4f1971	-0.20224549
8	0xbe2a560a	-0.16634384
9	0xbe1e9cad	-0.15489455
10	0xbe6ef98e	-0.23337385
11	0xbe8777b1	-0.26458505
12	0x3d48520d	0.048906375
13	0xbe1829bd	-0.14859672
14	0xbe41787d	-0.18893619
15	0x3e27692d	0.16348715

conceptizer.encoder.2.layers.1.weight f4 [1, 16]
0	0x3db2f993	0.08739009
1	0xbe88c505	-0.26712814
2	0xbd96d2e8	-0.07364446
3	0x3cff6e5a	0.03118055
4	0xbe1590c9	-0.14606012
5	0x3c22af3d	0.009929475
6	0xbe99915c	-0.29993713
7	0x3dec9af2	0.11552991
8	0x3c5dfaa4	0.013548527
9	0xbe915b24	-0.28389847
10	0xbd902c44	-0.07039693
11	0xbd3a76df	-0.04552352
12	0x3dc6a460	0.09699321
13	0xbd952ba7	-0.07283717
14	0x3db41078	0.08792204
15	0x3e11b615	0.14229615

conceptizer.encoder.2.layers.2.weight f4 [1, 16]
0	0xbe874c50	-0.2642541
1	0x3e036505	0.12831505
2	0x3e14487b	0.14480774
3	0x3d9dee6f	0.07711493
4	0x3d4b29e9	0.049600516
5	0xbe58fece	-0.2119095
6	0x3e431328	0.19050276
7	0xbe3bece8	-0.18352091
8	0xbe9dabcc	-0.30795133
9	0xbe219b89	-0.15781988
10	0x3e30ed25	0.17277963
11	0xbe36c2c9	-0.17847742
12	0xbe4d419c	-0.20044559
13	0x3dfc88b4	0.123307616
14	0x3e00d631	0.12581708
15	0xbddb5e85	-0.107113875

conceptizer.encoder.2.layers.3.weight f4 [1, 16]
0	0x3e804f11	0.25060323
1	0x3df07ba3	0.11742332
2	0xbd0a2eb4	-0.033735946
3	0x3e5382cf	0.20655368
4	0x3c790265	0.015198325
5	0x3df35db1	0.118831046
6	0x3daf33a5	0.08554772
7	0x3de1fa9a	0.110341266
8	0xbe107e1d	-0.14110608
9	0x3e4a2105	0.19739158
10	0xbe06c2f7	-0.1316031
11	0x3d3ec01b	0.046569925
12	0x3e0f452e	0.13991234
13	0xbda07d6a	-0.07836421
14	0xbdce0c33	-0.100609206
15	0xbe0839ed	-0.13303347

conceptizer.encoder.2.layers.4.weight f4 [1, 16]
0	0x3e247dbc	0.16063589
1	0xbe416ccd	-0.1888916
2	0xbd36c1d7	-0.044618454
3	0xbccf5cbc	-0.025312774
4	0xbe6602a2	-0.22461942
5	0xbdb5238b	-0.0884467
6	0x3d2a703d	0.041610945
7	0xbe11ce38	-0.14238822
8	0xbdecb1e8	-0.115573704
9	0xbe8bc5e4	-0.27299416
10	0xbe8b2a6a	-0.27180797
11	0xbd9526b5	-0.072827734
12	0xbcaa1f11	-0.020766767
13	0x3dfa6fe8	0.12228376
14	0x3b9038be	0.0044012954
15	0xbd34f086	-0.044174694

conceptizer.decoder.0.0.weight f4 [5, 16, 5, 5]
0	0xbdf7b92e	-0.12095867
1	0x3e28dc05	0.16490181
2	0x3e0e1f88	0.13879216
3	0x3d39df4f	0.04537898
4	0x3d45e1dd	0.048311103
5	0x3c790b77	0.015200487
6	0xbb59be79	-0.0033225103
7	0x3d4914f5	0.04909225
8	0x3cb5955a	0.022165943
9	0xbc1de7ff	-0.009637832
10	0x3b8bfa38	0.0042717718
11	0x3dd719f8	0.10503
12	0x3d68ec74	0.056866124
13	0x3e3f9a23	0.18711142
14	0x3e0a53ef	0.1350858
15	0xbdf27206	-0.118381545
16	0x3d3512e9	0.044207487
17	0xbd505afa	-0.050868012
18	0x3bf9813d	0.0076142834
19	0xbd0f1f62	-0.03494204
20	0x3dcd7030	0.10031164
21	0x3d3dd655	0.04634698
22	0x3d43a07b	0.047760468
23	0xbdb08a95	-0.086201824
24	0x3b8a10c6	0.0042134253
25	0x3dc1b397	0.09458082
26	0x3dcd8c7a	0.100365594
27	0xbca4fff2	-0.020141575
28	0xbdaa3ede	-0.08312772
29	0x3d149a7e	0.036280148
30	0x3e31ab42	0.17350486
31	0x3d9e94cc	0.077432245
32	0xbd012a36	-0.031534396
33	0x3d4bfe9a	0.049803354
34	0x3e21c236	0.15796742
35	0x3e18b263	0.14911799
36	0x3db1ff72	0.086913005
37	0x3e0b92c6	0.13630208
38	0x3e06dec3	0.13170914
39	0xbd77ac24	-0.0604669
40	0x3cf42013	0.02980045
41	0xbcbfc480	-0.023409128
42	0x3ded2a28	0.11580306
43	0x3af7f1cd	0.0018916667
44	0xbd7069ef	-0.058694776
45	0x3d96c960	0.07362628
46	0x3d4fbdaa	0.050717987
47	0xbc93f220	-0.01805979
48	0xbdd437f4	-0.10362235
49	0xbd9ab59e	-0.07554172
50	0x3def45ca	0.11683233
51	0xbcec1b57	-0.02882163
52	0xbd499eb3	-0.049223613
53	0x3dac18ff	0.08403205
54	0x3d42d5a7	0.047567036
55	0xbb2d3b72	-0.0026433137
56	0x3d76fbcc	0.060298726
57	0x3db233da	0.08701296
58	0xbd5e127b	-0.054216843
59	0xbc6ae1ed	-0.0143360915
60	0x3d04ac50	0.032390893
61	0xbd1ba71e	-0.038001172
62	0x3c6d7aa9	0.0144945765
63	0xbdd4e40a	-0.103950575
64	0xbbf810fb	-0.0075703836
65	0x3de986e9	0.11402685
66	0xbd1a9198	-0.037736505
67	0xbb9410e0	-0.004518613
68	0xbc582026	-0.013191259
69	0x3ce47845	0.02788938
70	0x3e5214d4	0.20515758
71	0x3cb0e504	0.021593578
72	0xbda3d34a	-0.079992846
73	0x3d9f1543	0.07767727
74	0xbdf6a700	-0.120435715
75	0x3df2287c	0.11824128
76	0xbbc90909	-0.0061351103
77	0xbc60e27f	-0.013725876
78	0x3db8a6d5	0.09016196
79	0x3e04f21b	0.12982981
80	0xbdefaa0d	-0.117023565
81	0xbda8598a	-0.08220203
82	0x3d140602	0.036138542
83	0xbce24ab3	-0.02762351
84	0xbda4cce8	-0.08046895
85	0xbc10c319	-0.008835577
86	0x3c6d6300	0.0144889355
87	0xbcbb0fe2	-0.022834722
88	0xbcd125ff	-0.025530813
89	0x3d479370	0.04872459
90	0x3dbbb606	0.091655776
91	0x3d098b90	0.033580363
92	0x3d24b5d9	0.040212486
93	0xbad77525	-0.001643811
94	0xbe2e27b1	-0.17007329
95	0x3d630f92	0.05543477
96	0xbc40a329	-0.01175765
97	0x3bbab016	0.0056972606
98	0x3dc1bd88	0.09459978
99	0xbd0ade40	-0.03390336
100	0x3d0f3976	0.03496691
101	0xbce1262a	-0.027484018
102	0x3e0fd2bb	0.14045231
103	0x3da527d6	0.08064239
104	0x3e61643d	0.22010894
105	0xbe17340a	-0.14765945
106	0x3d1fe8dc	0.03904043
107	0x3da902ad	0.082524635
108	0xbcfaca11	-0.03061393
109	0xbd61ae33	-0.05509777
110	0xbc9e5817	-0.019329114
111	0x3de808b5	0.11329786
112	0xbd17871e	-0.036994092
113	0xbb239c81	-0.002496511
114	0xbd22bbf5	-0.03973003
115	0x3d909bce	0.070609674
116	0x3dc05632	0.093914405
117	0x3df8218d	0.12115774
118	0x3984e314	0.00025346188
119	0xbe0d9441	-0.13826086
120	0x3a6097eb	0.00085675594
121	0xbe027fb5	-0.12744029
122	0xbc5e31b7	-0.013561658
123	0x3ddb7eb0	0.10717523
124	0xbe53383e	-0.20626923
125	0x3e280737	0.16409002
126	0xbdf3d1de	-0.11905263
127	0xbd0265a6	-0.03183522
128	0x3e471c84	0.19444472
129	0x3e194d23	0.14970832
130	0xbd9d00e6	-0.07666187
131	0xbe36bac6	-0.17844686
132	0x3a11848a	0.0005551061
133	0x3e27f280	0.164011
134	0x3d716de9	0.05894271
135	0x3ca22f88	0.019798055
136	0xbd4dfa91	-0.050287787
137	0x3d931c31	0.071831115
138	0x3cca623d	0.024705047
139	0x3dbed8a4	0.09318665
140	0x3db6d5de	0.08927511
141	0xbda9cf5d	-0.082915045
142	0xbd62d99b	-0.055383306
143	0xbe191f5a	-0.14953366
144	0x3d8080f7	0.06274598
145	0x3dcd5641	0.10026217
146	0xbccc6239	-0.02494918
147	0xbcaf8d34	-0.021429636
148	0xbe19f5d8	-0.15035188
149	0x3e2f6e3c	0.17131895
150	0xbdbf58b9	-0.093430944
151	0x3d900378	0.070319116
152	0x3d596d0e	0.05308252
153	0x3b46261d	0.003023512
154	0x3e049640	0.12947941
155	0x3dcc8773	0.099867724
156	0x3e54b36d	0.2077157
157	0x3c7120d2	0.014717298
158	0xbd30d50c	-0.043171927
159	0xbd3c4226	-0.04596152
160	0xbdecbae5	-0.11559085
161	0x3dfa022a	0.12207444
162	0xbdf84a9a	-0.12123604
163	0x3dd4c1cc	0.10388526
164	0x3d970c5a	0.07375403
165	0xbc5ef34e	-0.013607813
166	0x3b446244	0.0029965797
167	0x3de6d6aa	0.11271413
168	0x3d9870da	0.074434
169	0xbd2185c0	-0.039434195
170	0x3ddf3647	0.108990245
171	0xbb8ae596	-0.0042387946
172	0xbd916932	-0.071001425
173	0xbd94d97a	-0.07268043
174	0xbd9f9f46	-0.07794051
175	0x3e086f08	0.13323605
176	0x3d2c6334	0.042086795
177	0x3dcbd682	0.099530235
178	0x3e25fffc	0.16210932
179	0x3df99354	0.12186304
180	0x3dfe0834	0.12403908
181	0xbb30ec25	-0.0026996222
182	0x3cee7b8b	0.029111644
183	0x3def851a	0.11695309
184	0x3e177554	0.14790851
185	0x3d96b31b	0.073583804
186	0x3d913884	0.070908576
187	0x3dc1e25a	0.09467001
188	0xbdb436b7	-0.087994985
189	0xbcdc28b2	-0.026874874
190	0x3e0d5a83	0.13804059
191	0x3c24228d	0.010018003
192	0xbcfa9d13	-0.030592477
193	0xbe1861ce	-0.1488106
194	0xbe429bb9	-0.19004716
195	0x3da3b2fd	0.07993124
196	0x3e3265f2	0.17421702
197	0x3c6bcb18	0.014391683
198	0xbde245a6	-0.11048441
199	0xbe8ee05c	-0.27905548
200	0x3e0313f7	0.12800585
201	0xbe383315	-0.17988236
202	0xbc05494e	-0.008135153
203	0x3e3b6fc0	0.18304348
204	0x3e4df534	0.20113069
205	0x3d453bee	0.048152857
206	0xbde4925b	-0.111607276
207	0xbd38d9d7	-0.045129623
208	0xbd84bb62	-0.06481053
209	0x3dd34163	0.10315206
210	0xbbe29a81	-0.006915391
211	0xbd27f713	-0.041007113
212	0xbd4de2a0	-0.050264955
213	0xbdeddb3c	-0.11614081
214	0x3e33920c	0.17536181
215	0x3df92972	0.12166108
216	0x3db318da	0.087449744
217	0xbd1740ba	-0.036926962
218	0x3d041850	0.03224975
219	0x3d1ac12f	0.03778189
220	0xbd807728	-0.06272727
221	0x3cac6691	0.021045001
222	0xbe7f50eb	-0.24933212
223	0xbe731832	-0.23739699
224	0xbd0b93cf	-0.034076508
225	0x3d4516a4	0.048117295
226	0x3c949718	0.018138453
227	0x3e186dbe	0.14885613
228	0x3e51b97c	0.20480913
229	0x3c9f9745	0.01948131
230	0x3e41fc28	0.18943846
231	0x3d95d338	0.073156774
232	0x3dacf956	0.084459946
233	0xbd50cc43	-0.05097605
234	0x3e3a21ad	0.18176909
235	0x3d6aec5f	0.057354327
236	0x3e0a4de9	0.13506283
237	0x3d354a16	0.044260107
238	0x3c7adc4a	0.01531131
239	0x3daf1ada	0.085500434
240	0xbcec03eb	-0.028810462
241	0xbbf0af1b	-0.007345093
242	0x3b03284c	0.0020013032
243	0x3de87305	0.11350063
244	0x3bf268a9	0.0073977304
245	0x3e0d2c75	0.1378649
246	0x3da66360	0.08124423
247	0xbd92b57e	-0.07163523
248	0xbdce223c	-0.100651234
249	0xbe13c1ec	-0.14429444
250	0xbdb2c8e9	-0.08729727
251	0xbdc12730	-0.094313025
252	0xbc9d3f21	-0.019195141
253	0xbd1c777b	-0.038199883
254	0xbe35657d	-0.17714496
255	0x3cbc5313	0.022988832

conceptizer.decoder.0.0.bias f4 [16]
0	0xbbce3ab9	-0.0062936214
1	0x3d2a0bc5	0.04151513
2	0x3da3f21d	0.08005164
3	0x3d28a770	0.041175306
4	0x3c1aa43c	0.009438571
5	0x3d687cf6	0.056759797
6	0x3d2ca23c	0.042146906
7	0x3d5bf144	0.053696886
8	0x3aebcf3b	0.0017990837
9	0x3d566cbe	0.0523498
10	0x3e2407df	0.16018628
11	0x3d07a0db	0.033112388
12	0x3d2b91f8	0.041887254
13	0x3dc20f8d	0.09475622
14	0x3cd36f0f	0.025809793
15	0x3ce66b10	0.028127223

conceptizer.decoder.2.0.weight f4 [16, 8, 5, 5]
0	0x3e15dc40	0.146348
1	0x3da7eec1	0.081998356
2	0x3dac51c7	0.08414035
3	0xbdcf0fdd	-0.101104476
4	0x3af90592	0.0018998852
5	0x3c86f8ac	0.016475998
6	0x3e39ad00	0.181324
7	0xbcf87435	-0.03032885
8	0x3d39f578	0.045400113
9	0x3e03e72b	0.12881152
10	0xbd2e523f	-0.042558905
11	0x3d8bc440	0.06824541
12	0xbda29984	-0.07939437
13	0xbd45e1da	-0.048311092
14	0xbd7261a4	-0.05917515
15	0x3cf52418	0.029924437
16	0x3ddeb3de	0.10874151
17	0xbd3b8043	-0.045776617
18	0xbcaf5112	-0.021400962
19	0xbd9c2267	-0.07623749
20	0xbdac2e68	-0.08407289
21	0xbd3efa85	-0.046625633
22	0xbdd76300	-0.105169296
23	0xbce9543d	-0.02848255
24	0x3e07f865	0.13278349
25	0xbbaf2ed8	-0.0053461604
26	0xbd428e30	-0.04749888
27	0xbcb78d60	-0.02240628
28	0x3c83554b	0.016031882
29	0x3cf6545e	0.030069526
30	0x3c61e1ee	0.013786776
31	0xbd811c95	-0.0630428
32	0xbd6643b5	-0.056216914
33	0x3c64be1f	0.013961344
34	0x3ce55d8b	0.027998706
35	0xbd7aaf77	-0.061202493
36	0xbbb8b10a	-0.005636339
37	0xbcd4f921	-0.0259977
38	0x3d4965ef	0.049169477
39	0x3c421990	0.011846915
40	0xbd8636dc	-0.06553432
41	0xbd00295d	-0.031289447
42	0x3cc80356	0.024415653
43	0x3caddf62	0.021224681
44	0xbbfbe1f3	-0.0076868474
45	0xbc256f92	-0.010097401
46	0x3bffd4cc	0.00780735
47	0x3d32eb1e	0.043681256
48	0xbd1cd849	-0.038292203
49	0xbd1a5842	-0.037681825
50	0x3dbea5f6	0.09308998
51	0xbdacdd43	-0.0844064
52	0xbdce329f	-0.10068249
53	0xbc9f29ca	-0.019429106
54	0x3cb24eaa	0.021766026
55	0x3be2eb23	0.006925003
56	0xbb190705	-0.0023350131
57	0xbd96fe68	-0.07372743
58	0xbdc06263	-0.09393766
59	0x3d70fbb2	0.058833785
60	0x3c798527	0.0152295
61	0xbd492355	-0.04910596
62	0xbd97380e	-0.073837385
63	0xbd7ca318	-0.061678976
64	0xbcc65264	-0.024209209
65	0x3b8864a3	0.0041623875
66	0x3c9fbf2c	0.019500338
67	0x3c2ee119	0.010673785
68	0xbe05f0a4	-0.13080078
69	0xbcf7a656	-0.030230682
70	0x3d46f0ed	0.04856961
71	0xbde7155c	-0.11283371
72	0x3c9791eb	0.018502196
73	0x3b00f6ab	0.0019678276
74	0xbc27fb1a	-0.010252738
75	0x3e315aba	0.17319766
76	0x3e4d47f4	0.20046979
77	0x3d1497d3	0.036277603
78	0x3c001dee	0.007819636
79	0xbbe275b4	-0.006911004
80	0x3dcdcc09	0.10048682
81	0xbb87e9b1	-0.0041477312
82	0x3c7537d9	0.014966928
83	0x3d873957	0.066027336
84	0xbabed7af	-0.0014560128
85	0xbe75c100	-0.23999405
86	0xbdce98fc	-0.10087773
87	0xbd3259b4	-0.04354258
88	0xbc6c11c1	-0.01440853
89	0x3beef63a	0.007292536
90	0xbe77c244	-0.241952
91	0xbe21586a	-0.15756384
92	0xbde434be	-0.11142872
93	0xbd08cf36	-0.033400737
94	0x3d21008c	0.039307162
95	0xbe133637	-0.1437615
96	0xbe28e005	-0.16491707
97	0xbe31f043	-0.17376809
98	0xbc64d7b2	-0.013967441
99	0x3d6ab6bc	0.057303175
100	0x3c7c793d	0.015409765
101	0x3d2e9e5d	0.042631496
102	0x3d76045e	0.06006276
103	0xbaf1eeee	-0.0018458047
104	0xbdd203fe	-0.10254668
105	0x3e562f8f	0.2091658
106	0x3da9b01e	0.08285545
107	0x3dc020a9	0.093812294
108	0x3d84443d	0.06458328
109	0xbcab2747	-0.020892752
110	0xbd595ef5	-0.053069074
111	0x3d14bbcb	0.036311906
112	0x3d9990d1	0.07498325
113	0x3d1d8170	0.03845352
114	0x3bb50ef9	0.0055254665
115	0xbe776947	-0.24161254
116	0xbccd0346	-0.025025975
117	0xbcb79c62	-0.022413436
118	0x3cd9e706	0.026599418
119	0xbd5e7fcb	-0.05432109
120	0xbe66ca8c	-0.22538203
121	0xbe1867dd	-0.1488337
122	0xbe002b19	-0.1251644
123	0xbcde1a77	-0.027112229
124	0xbd3c8541	-0.04602552
125	0x3e04c844	0.1296702
126	0x3db9152b	0.090372406
127	0x3d27eb2b	0.040995758
128	0x3c8ba582	0.017046694
129	0x3d467946	0.0484555
130	0x3d954f44	0.07290509
131	0x3dc931a7	0.098239236
132	0xb8f4f656	-0.0001168071
133	0x3d6815b9	0.05666134
134	0x3d451c3c	0.04812263
135	0xbe46739d	-0.1938004
136	0xbdfa718b	-0.12228688
137	0x3c70edac	0.014705103
138	0xbd0c5022	-0.034256108
139	0xbd19eba5	-0.037578244
140	0xbe85882f	-0.26080462
141	0xbe1ea1b8	-0.15491378
142	0xbd91b250	-0.071140885
143	0xbdfdebe0	-0.12398505
144	0xbd33ec5c	-0.04392658
145	0xbde213b1	-0.11038912
146	0xbe2fc189	-0.17163672
147	0xbd816817	-0.06318682
148	0xbd7015dc	-0.058614597
149	0x3d1ee8e2	0.038796313
150	0x3e54ec2c	0.20793217
151	0x3d9152b1	0.0709585
152	0xbc99b885	-0.018764744
153	0xbb019042	-0.0019769822
154	0x3d95ed66	0.07320671
155	0x3d9fb481	0.077981
156	0xbe1a6c14	-0.15080291
157	0xbd42daa4	-0.047571793
158	0x3dbc5b92	0.09197153
159	0xbdae2d30	-0.085047126
160	0xbdf84415	-0.121223606
161	0xbddc3873	-0.10752954
162	0xbd983f6c	-0.07433972
163	0xbd668030	-0.056274593
164	0xbe23f4ae	-0.16011307
165	0xbe588ef9	-0.2114829
166	0xbdc323d9	-0.09528322
167	0xbe61d615	-0.22054322
168	0xbe30f5ae	-0.1728122
169	0xbe089834	-0.13339311
170	0xbe49d794	-0.19711143
171	0xbd212e5d	-0.039350856
172	0xbdbab424	-0.0911639
173	0x3bcf6ba3	0.00632997
174	0x3dc637ca	0.0967861
175	0x3ea952c5	0.3307096
176	0x3d91d204	0.071201354
177	0x3de04c04	0.10951999
178	0xbd39d3f2	-0.045368142
179	0x3bf01618	0.0073268525
180	0x3d3d3656	0.046194397
181	0x3d31a522	0.043370374
182	0xbd576a5f	-0.052591678
183	0x3dc45222	0.09585978
184	0xbd77b02a	-0.060470738
185	0xbdb45ba8	-0.088065445
186	0x3e02ad2e	0.12761375
187	0x3dc3194f	0.095263116
188	0x3a9401ac	0.0011292002
189	0xbc0f3a83	-0.008741978
190	0x3da8f617	0.08250063
191	0x3da83001	0.08212281
192	0x3dccfe2e	0.100094184
193	0x3d20de14	0.03927429
194	0xbc3bbfe0	-0.011459321
195	0xbd9a13af	-0.075232856
196	0x3d4d152c	0.05006902
197	0x3d00d3c8	0.03145197
198	0x3df38dea	0.11892302
199	0x3d104672	0.035223432
200	0x3cf7e57b	0.030260792
201	0xbd3b215b	-0.045686107
202	0xbd164e26	-0.036695622
203	0x3dd5f515	0.10447136
204	0x3e1cc3bf	0.15309046
205	0x3d1f6156	0.038911186
206	0xbc8af479	-0.016962277
207	0x3da0acdc	0.0784547
208	0x3e0b2cd7	0.13591324
209	0x3e00002c	0.12500066
210	0xbd1dac6e	-0.03849452
211	0x3b4409b1	0.0029913003
212	0x3c6e909d	0.014560846
213	0x3d8c64f2	0.06855191
214	0xbdb28288	-0.08716303
215	0xbdb170be	-0.08664082
216	0x3e0d7fa7	0.13818227
217	0x3dd14ad0	0.102193475
218	0xbc8b711d	-0.01702171
219	0xbc37560e	-0.011189951
220	0x3d410bfc	0.04713057
221	0x3e35f9b3	0.17771034
222	0xbbbdfb8a	-0.005797808
223	0xbd755648	-0.059896737
224	0x3d6fb009	0.05851749
225	0x3bed956b	0.007250478
226	0x3cb7915f	0.022408186
227	0x3c5da4b9	0.0135280425
228	0x3bcaee9e	0.006192996
229	0x3cb288a3	0.02179367
230	0xbd3d90a8	-0.046280533
231	0xbc58c27f	-0.013229965
232	0xbcfc6d54	-0.03081385
233	0x3d944e25	0.072414674
234	0x3c8c168f	0.0171006
235	0x3d47fb81	0.048823837
236	0x3d4a5772	0.0493998
237	0x3ccd7fcb	0.02508535
238	0x3dc63720	0.09678483
239	0x3d187665	0.037222285
240	0x3d5271c1	0.051378015
241	0x3ca4eac9	0.020131486
242	0xbd62295f	-0.055215236
243	0xbdc28d11	-0.094995625
244	0x3d06bae0	0.03289306
245	0xbd118db9	-0.035535548
246	0xbd8c4838	-0.06849712
247	0xbd8c79d8	-0.06859177
248	0x3ba41d8b	0.0050084046
249	0xbcabe784	-0.020984419
250	0x3c61091f	0.013735085
251	0x3d5ac891	0.05341393
252	0xbd5d835d	-0.054080356
253	0x3cd199b7	0.025585992
254	0xbd9829e5	-0.07429866
255	0x3d36a203	0.0445881

conceptizer.decoder.2.0.bias f4 [8]
0	0x3d50a9f2	0.050943322
1	0xbb675348	-0.0035297442
2	0x3d543c69	0.051815424
3	0x3cf78041	0.030212523
4	0x3d7cbde6	0.06170454
5	0x3ca32365	0.019914338
6	0x3d66381e	0.05620586
7	0x3dbbc72c	0.091688484

conceptizer.decoder.4.0.weight f4 [8, 1, 2, 2]
0	0xbf363b0d	-0.71183854
1	0xbda92092	-0.082581654
2	0xbeaf6fd8	-0.34265018
3	0x3edcc84c	0.43121564
4	0x3e929582	0.2862969
5	0x3ed5f330	0.417871
6	0x3f02aca0	0.51044655
7	0x3f194404	0.5986941
8	0x3ed94c5f	0.4244108
9	0x3ef46ad5	0.47737756
10	0x3ec73c07	0.38912985
11	0xbe425067	-0.18975984
12	0xbf1ecf70	-0.62035275
13	0xbf576af1	-0.84147555
14	0xbf29cbd0	-0.6632662
15	0xbf4b4d8d	-0.7941521
16	0xbf0d16d1	-0.5511294
17	0xbf46a8b0	-0.77601147
18	0x3dcfef13	0.10153022
19	0xbe122501	-0.14271928
20	0xbf02e7fd	-0.51135236
21	0xbe3aad80	-0.18230247
22	0xbf67f550	-0.9060869
23	0xbf14d590	-0.5813837
24	0xbe6c9809	-0.23104872
25	0xbf33630d	-0.70073014
26	0xbec09d8d	-0.37620202
27	0xbec02589	-0.37528637
28	0x3f5d3a2a	0.86416876
29	0x3ef3b174	0.47596323
30	0x3f2809de	0.65640056
31	0x3df5e310	0.12006199

conceptizer.unlinear.weight f4 [16, 1]
0	0xbf784ae5	-0.9698928
1	0x3f340344	0.7031748
2	0xbeeece4a	-0.4664176
3	0xbf90a1b3	-1.1299347
4	0xbf82b07d	-1.021011
5	0xbf1963c4	-0.59917855
6	0x3f81a953	1.0129799
7	0xbf5a342c	-0.8523586
8	0xbf4ca9a1	-0.79946333
9	0xbf84ad1c	-1.0365329
10	0x3f81aafc	1.0130305
11	0x3f3be3eb	0.7339465
12	0xbf874e3b	-1.0570749
13	0xbe3bf99d	-0.18356939
14	0xbf2f94b0	-0.68586254
15	0x3f33c526	0.702227

conceptizer.unlinear.bias f4 [16]
0	0x3f5d5ebc	0.8647268
1	0xbe396c6b	-0.18107764
2	0xbf910ede	-1.1332662
3	0x3f3d9150	0.74049854
4	0x3f085caa	0.53266394
5	0x3e389416	0.1802524
6	0xbf0fcf34	-0.5617554
7	0x3ef3e7b4	0.47637713
8	0x3dc46564	0.09589651
9	0xbf291689	-0.6605001
10	0xbf393548	-0.72346926
11	0x3f2ecc87	0.68280834
12	0xbe84e901	-0.25959018
13	0xbf3d4bc0	-0.7394371
14	0xbf1eaffb	-0.61987275
15	0x3eb7b37b	0.3587912

parameterizer.cl_layers.0.weight f4 [10, 1, 5, 5]
0	0x3de394da	0.111123756
1	0x3c7cd15a	0.015430773
2	0x3ddd31f6	0.10800545
3	0x3e38817e	0.18018147
4	0x3dec8080	0.11547947
5	0xbca3a48d	-0.019975925
6	0x3e50bbd6	0.20384154
7	0xbda483b9	-0.080329366
8	0xbdc66efe	-0.09689139
9	0xbdae53e6	-0.08512096
10	0x3cab4dd4	0.020911135
11	0x3e05da90	0.13071656
12	0x3de6cf23	0.11269977
13	0x3e558c23	0.20854239
14	0x3e34c035	0.17651446
15	0xbe737e59	-0.23778667
16	0xbdf521bb	-0.11969324
17	0xbe11e7ac	-0.14248532
18	0xbdd7f62b	-0.10545
19	0xbe5a7c6a	-0.21336523
20	0xbd84b7d7	-0.06480377
21	0xbe8227aa	-0.25420886
22	0xbe7c65fa	-0.24648276
23	0xbe1a4f1f	-0.15069245
24	0xbe6067f1	-0.2191465
25	0xbdeb65f2	-0.11494054
26	0xbd24ca4c	-0.040231988
27	0x3e20df58	0.15710199
28	0xbaf82dbc	-0.0018934528
29	0x3ca9baee	0.020719018
30	0xbe4cd757	-0.2000402
31	0xbdf9a6c8	-0.12190014
32	0x3bec647e	0.007214128
33	0x3cb8b308	0.022546306
34	0xbcb4721e	-0.022027072
35	0xbe07f9de	-0.1327891
36	0x3cf8f3a4	0.030389614
37	0xbe1b0f27	-0.15142499
38	0x3b6bb850	0.0035968013
39	0xbdd3dc36	-0.10344736
40	0x3e4cd165	0.20001753
41	0xbd8ec08b	-0.069703184
42	0xbcd6a649	-0.026202338
43	0xbe4ebde5	-0.20189627
44	0xbe038930	-0.12845302
45	0x3e9a8855	0.30182138
46	0x3ddbe2b1	0.10736597
47	0xbdf822b4	-0.12115994
48	0x3dc7e56d	0.09760556
49	0xbe6295ca	-0.22127452
50	0xbe41715f	-0.18890904
51	0xbd5558df	-0.052086707
52	0xbb64d456	-0.00349166
53	0x3da689b2	0.08131732
54	0x3d8a5bde	0.067558035
55	0xbd6d652b	-0.05795781
56	0xbe3a888c	-0.18216151
57	0x3e0743db	0.13209479
58	0x3dd78c8c	0.10524854
59	0x3db17298	0.08664435
60	0xba780c0d	-0.0009462245
61	0xbddafc31	-0.10692633
62	0xbdc0c322	-0.09412219
63	0x3e809ec6	0.25121135
64	0x3e5fe452	0.21864441
65	0xbe5b6b10	-0.2142756
66	0xbe7c018e	-0.24609968
67	0x3d9be7f1	0.07612599
68	0x3ca72724	0.020404406
69	0x3ea1c093	0.31592235
70	0xbd462171	-0.048371736
71	0xbe99a06c	-0.30005205
72	0xbe1d29bf	-0.15347956
73	0xbda061ca	-0.07831152
74	0x3e999f4e	0.30004352
75	0xbd3dbb0b	-0.046320956
76	0x3e9b0c1f	0.30282685
77	0x3e657215	0.224068
78	0x3e8451ad	0.25843564
79	0x3e8b840c	0.2724918
80	0x3daf6a05	0.085651435
81	0x3c35de70	0.0111003965
82	0x3e25f372	0.16206148
83	0x3e5c7db1	0.21532322
84	0x3e0ce027	0.13757382
85	0xbdd6d1d3	-0.104892395
86	0xbe4d7914	-0.20065719
87	0xbe333575	-0.17500861
88	0xbe1c32fb	-0.15253823
89	0xbe706261	-0.23475029
90	0x3dae54e0	0.08512282
91	0xbe4926ec	-0.19643754
92	0x3d78f4f8	0.060780495
93	0xbe0645c3	-0.1311255
94	0x3c34a3f7	0.01102542
95	0xbe4f138d	-0.20222302
96	0xbe3e5979	-0.18588819
97	0x3cbbf078	0.022941813
98	0xbe7a33f5	-0.24433883
99	0x3d8aea91	0.06783021
100	0x3df11874	0.11772242
101	0x3e3a3db5	0.18187602
102	0xbe48d829	-0.19613709
103	0xbd281242	-0.041033037
104	0xbe29c4c0	-0.1657896
105	0xbdcae743	-0.09907391
106	0x3d9d7d4c	0.07689914
107	0xbe2daf0b	-0.16961305
108	0xbe150686	-0.1455327
109	0xbd65439a	-0.055972673
110	0x3cc5f1ce	0.024163153
111	0xbbeffdce	-0.007323957
112	0xbdd37205	-0.10324482
113	0x3d9ec6ec	0.07752785
114	0x3d69dd37	0.057095733
115	0x3db942a4	0.09045914
116	0xbda74312	-0.081670895
117	0xbdeb246f	-0.114815585
118	0xbd167091	-0.036728445
119	0xbd929df0	-0.071590304
120	0xbdb845cb	-0.08997687
121	0xbe6eb889	-0.23312582
122	0xbe48eeb1	-0.19622304
123	0x3e23fd54	0.16014606
124	0xbcba0e16	-0.022711795
125	0xbe5e62cf	-0.2171738
126	0xbe009487	-0.12556659
127	0x3db4303a	0.08798261
128	0xbe009ff8	-0.12561023
129	0xbdc56770	-0.0963887
130	0x3d23678d	0.039893676
131	0xbe5f7e87	-0.2182561
132	0xbe777353	-0.24165086
133	0x3dfc3149	0.12314088
134	0x3e6e6a17	0.23282658
135	0x3d92c597	0.071665935
136	0xbe79f389	-0.24409308
137	0x3df2ceec	0.118558735
138	0x3e14b551	0.14522292
139	0x3d5b4a99	0.05353794
140	0x3d2e17a1	0.042503003
141	0xbe8330b1	-0.25623086
142	0x3e161fdf	0.14660595
143	0x3e29d0e4	0.16583592
144	0x3e08bac4	0.13352495
145	0xbe815b7e	-0.25265115
146	0x3cd6b907	0.026211275
147	0xbdf83d34	-0.121210486
148	0x3eaec970	0.3413806
149	0x3e959c88	0.29220986
150	0x3d247c5e	0.04015767
151	0xbdc5fba1	-0.09667135
152	0x3e001383	0.12507443
153	0x3e80162b	0.25016913
154	0xbe3ea950	-0.18619275
155	0xbdabae8c	-0.083829015
156	0xbe06ea7c	-0.13175386
157	0x3e42aa9e	0.19010398
158	0x3e3fef58	0.18743646
159	0xbd85c33c	-0.065313786
160	0xbd04a8d9	-0.03238759
161	0x3c18333a	0.009289557
162	0x3e74f4d3	0.23921518
163	0xbe539824	-0.20663506
164	0xbe52a6cb	-0.20571439
165	0x3d974d5d	0.07387803
166	0x3e1e7cbb	0.15477268
167	0xbd82ae93	-0.06380954
168	0x3e39b9fc	0.18137354
169	0xbe67963c	-0.22615904
170	0xbe087b5e	-0.13328311
171	0xbded2e02	-0.11581041
172	0xbdee64f4	-0.11640349
173	0x3e1f1fdd	0.15539499
174	0xbd0dd207	-0.034624126
175	0x3e1ebada	0.15500966
176	0xbe692ff2	-0.22772196
177	0xbe2b0767	-0.16702043
178	0xbe25099d	-0.16116948
179	0x3eb6231f	0.3557367
180	0x3de78ded	0.11306367
181	0xbe26eaf9	-0.16300572
182	0xbc8f5169	-0.017494874
183	0x3a1e3d22	0.0006036331
184	0x3e7231d2	0.23651817
185	0xbc8746dd	-0.016513282
186	0x3dec1f97	0.11529463
187	0xbe3a1002	-0.18170169
188	0xbdfaddfd	-0.12249372
189	0x3d8574c0	0.06516409
190	0xbcdd2bfe	-0.026998516
191	0xbe2c2db2	-0.16814306
192	0x3d9f5629	0.077801056
193	0xbe5aa3f2	-0.21351603
194	0x3e25a3b1	0.16175725
195	0xbe19f3b4	-0.15034372
196	0xbe36dbe5	-0.1785732
197	0x3c177c48	0.00924594
198	0xbe6be6d5	-0.23037274
199	0xbe930a9d	-0.28719035
200	0xbd8fc8bd	-0.0702071
201	0xbe62c937	-0.2214707
202	0xbe05d2c6	-0.13068685
203	0x3e5be7bb	0.21475117
204	0xbd4c20a1	-0.049835805
205	0x3e30c22f	0.17261575
206	0x3dcd4988	0.100237906
207	0x3ddb16e6	0.10697727
208	0xbd4fbd34	-0.050717548
209	0x3e1bc29c	0.15210956
210	0x3d35bc03	0.044368755
211	0x3e0b8fb2	0.13629034
212	0xbcdcb182	-0.026940111
213	0x3d30bb8a	0.0431476
214	0xbd294628	-0.04132667
215	0xbe4e9fac	-0.20178097
216	0x3e038838	0.12844932
217	0x3ddeee42	0.10885288
218	0xbe4beade	-0.19913813
219	0xbe73e6b5	-0.23818476
220	0xbc73d889	-0.014883169
221	0xbe514929	-0.20438065
222	0x3dbfb52f	0.0936073
223	0xbe4ce291	-0.20008303
224	0x3e96712e	0.29383224
225	0xbd3a5baf	-0.045497593
226	0xbe82f182	-0.2557488
227	0xbe55d01a	-0.20880166
228	0xbdd1e3f8	-0.1024856
229	0x3e3ad764	0.18246228
230	0xbdb34613	-0.087536
231	0x3e05e74c	0.13076514
232	0x3e44412b	0.19165485
233	0x3d8afca8	0.067864716
234	0x3df95e09	0.12176139
235	0x3de4458f	0.1114608
236	0x3e0eee33	0.13958053
237	0x3e7b1bbe	0.24522302
238	0x3d930b1d	0.07179854
239	0xbddee7cd	-0.10884056
240	0x3de27ad4	0.11058584
241	0x3d9da29b	0.0769703
242	0xbc42ccee	-0.011889679
243	0x3d83a0bf	0.06427144
244	0xbe177939	-0.14792337
245	0x3cac0a38	0.021000966
246	0xbcc887d4	-0.02447883
247	0xbdfd0abb	-0.12355562
248	0xbdc54cfb	-0.096338235
249	0x3db0b87a	0.08628936

parameterizer.cl_layers.0.bias f4 [10]
0	0x3e3837cf	0.1799004
1	0x3e307a13	0.17234068
2	0xbda9e3ed	-0.082954265
3	0x3d29f483	0.04149295
4	0x3d28a194	0.041169718
5	0x3df7a9f5	0.120929636
6	0xbddf1c31	-0.10894049
7	0xbe1e9c33	-0.15489273
8	0xbd7a346e	-0.061085157
9	0x3b63ed91	0.0034779052

parameterizer.cl_layers.3.weight f4 [20, 10, 5, 5]
0	0xba686f82	-0.00088667136
1	0xbd618d30	-0.055066288
2	0xbd7add75	-0.061246354
3	0xbdb6633a	-0.08905645
4	0x3c7a0917	0.015260956
5	0x3d30d6f8	0.04317376
6	0x3c24fea6	0.010070479
7	0xbd5f2997	-0.054483023
8	0x3c6a599c	0.014303591
9	0xbd2078d2	-0.039177723
10	0xbcb2c38a	-0.021821756
11	0x3d1f39b4	0.03887339
12	0xbcc8aa8a	-0.024495382
13	0xbd84e5ca	-0.06489141
14	0xbc59eb50	-0.013300732
15	0x3d55eebe	0.052229635
16	0x3ce82490	0.028337747
17	0xbd51c74f	-0.051215466
18	0xbcfb7888	-0.030697122
19	0x3d3b6865	0.045753855
20	0xbd47fa66	-0.048822783
21	0xbd0021e5	-0.031282324
22	0xbcab19db	-0.020886352
23	0xbce043ce	-0.027376082
24	0xbddcecb4	-0.10787335
25	0x3d76e5b9	0.060277674
26	0x3d7e4077	0.062073197
27	0xbd49cd67	-0.049268153
28	0xbd3f78e7	-0.04674616
29	0x39ed31df	0.0004524132
30	0xbc9d0d50	-0.019171387
31	0xbceb40d4	-0.028717436
32	0xbd2a24fa	-0.04153917
33	0xbd0d066a	-0.034429945
34	0x3d248b8a	0.040172137
35	0xbb7a89b1	-0.0038229043
36	0xbc074b71	-0.008257733
37	0x3d171deb	0.036893766
38	0x3c6938fd	0.0142347785
39	0x3d0e5d1a	0.034756757
40	0xbcd9705f	-0.02654284
41	0x3d2a6f10	0.041609824
42	0x3cfefd88	0.031126752
43	0xbcab0c7a	-0.020879973
44	0xbd39e520	-0.045384526
45	0xbc1fbb46	-0.009749239
46	0x3ce77666	0.028254699
47	0x3d2f2e9a	0.042769052
48	0x3d40549d	0.046955694
49	0xbc3ad6cf	-0.011403753
50	0x3d894479	0.06702513
51	0xbaf18cc6	-0.0018428795
52	0x3d60ef3c	0.05491565
53	0x3a536fb9	0.0008065659
54	0x3d4b6dbf	0.04966521
55	0xbcdbd04b	-0.02683272
56	0xbd45f2fd	-0.048327435
57	0x3d2feb21	0.042948846
58	0xbcf3df0d	-0.029769445
59	0xbd71579a	-0.058921434
60	0xbc95fbb9	-0.018308507
61	0x3ba71faa	0.00510021
62	0xbd257524	-0.040394917
63	0xbcd0f056	-0.025505226
64	0xbcd263fa	-0.025682438
65	0xbc2bea5c	-0.010492887
66	0x3d387585	0.04503395
67	0xbcaaaba7	-0.020833803
68	0x3d0861bb	0.033296328
69	0xbd896692	-0.06709017
70	0x3c577133	0.013149547
71	0x3d4c6add	0.0499066
72	0x3d979eb4	0.07403317
73	0x3dd5e307	0.10443693
74	0x3df70233	0.12060966
75	0x3c4effea	0.012634257
76	0xbd13b16b	-0.03605787
77	0xbd405936	-0.04696008
78	0xbcea3247	-0.028588427
79	0x3bcee0ab	0.0063134036
80	0xbc7f2c56	-0.015574535
81	0x3c859d3b	0.016310325
82	0xbce23c7f	-0.027616737
83	0x3ca42bf7	0.020040495
84	0xbdbffdda	-0.0937459
85	0x3d3da0f8	0.04629609
86	0x3c0ae176	0.008476606
87	0xbd718fa3	-0.058974873
88	0xbde91e49	-0.113827296
89	0xbc5164e8	-0.012780406
90	0x3cb056a8	0.021525696
91	0x3d17feaa	0.0371081
92	0x3c72ec7a	0.014826888
93	0xbcbbb2b8	-0.022912368
94	0xba28d8ee	-0.00064410164
95	0x3d7216aa	0.059103645
96	0xbd0f358a	-0.03496317
97	0xbd44d2e7	-0.048052695
98	0x3c6f4ee1	0.014606209
99	0xbd341572	-0.043965764
100	0x3d0ddc55	0.034633953
101	0xbd09496b	-0.033517282
102	0xbd0c9331	-0.03432006
103	0x3d303d85	0.04302742
104	0xbd235aa5	-0.039881367
105	0x3d4c9fe3	0.049957167
106	0xbd27e52d	-0.040990043
107	0xbd38634c	-0.045016572
108	0xbd3fc864	-0.046821967
109	0x3d659d61	0.05605829
110	0x3ce71b9d	0.02821141
111	0xbb5142ec	-0.0031930758
112	0x3d90fbe3	0.070792936
113	0xbd0cce63	-0.034376513
114	0x3d6f2486	0.05838444
115	0x3b76d0c1	0.0037661048
116	0x3d803127	0.06259375
117	0xbc7e4a5f	-0.015520661
118	0x3d21bc5d	0.039486278
119	0xbc214456	-0.009842953
120	0x3da9eb1b	0.08296796
121	0xb863b1d5	-5.4286636e-05
122	0xbaab81d2	-0.0013084954
123	0xbcdb5885	-0.026775608
124	0x3d368bf0	0.04456705
125	0xbbd58028	-0.0065155216
126	0x3cd7f17c	0.026360266
127	0xbc48e4a5	-0.012261544
128	0x3d3f79c0	0.04674697
129	0x3cd376a5	0.02581341
130	0x3bd85afc	0.006602643
131	0x3d11fe9a	0.035643198
132	0x3d61a83c	0.05509208
133	0x3d3a4fde	0.045486324
134	0xbcbb592d	-0.02286967
135	0xbb9589f3	-0.004563564
136	0x3cb77e03	0.022398954
137	0x3c8a0809	0.016849535
138	0x3d0d9e6a	0.034574904
139	0x3c2697cb	0.010168026
140	0x3c0adbf9	0.008475297
141	0xbba0a391	-0.004902311
142	0x3d3977d1	0.04528028
143	0x3d6ebf1a	0.058287717
144	0xbbf3742f	-0.0074296216
145	0x3c3e1891	0.011602537
146	0xbbd079f9	-0.0063621965
147	0x3b63a364	0.003473484
148	0xbc4bfdd7	-0.012450657
149	0x3dd27da5	0.10277871
150	0x3d3f6003	0.046722423
151	0x3d499dc7	0.049222734
152	0xbc0577ba	-0.008146221
153	0xbcdffdc3	-0.027342683
154	0xba3f8d25	-0.0007307104
155	0x3ca79f3f	0.020461677
156	0xbc0ccda6	-0.008593952
157	0x38322453	4.2472337e-05
158	0xbc5c6df9	-0.013453954
159	0x3c93c487	0.018038047
160	0x3ca222e0	0.01979202
161	0xbcc35f90	-0.023849279
162	0xbb85f886	-0.004088464
163	0x3d19de7c	0.037565693
164	0x3ce5dd49	0.028059619
165	0x3cc66685	0.024218807
166	0x3cfd914b	0.03095307
167	0xbc2b0471	-0.010438071
168	0x3bda0c86	0.006654325
169	0x3de9743d	0.11399124
170	0x3c77f171	0.015133248
171	0x3bdbaaad	0.0067036957
172	0x3d590c52	0.052990265
173	0xbc229a83	-0.009924534
174	0x3c3f52ef	0.011677488
175	0xbc468aaa	-0.012118021
176	0x3d961b27	0.07329398
177	0xbcdcb53b	-0.026941886
178	0xbd5297d5	-0.05141433
179	0xbce0c530	-0.027437776
180	0xbc8e7929	-0.017391758
181	0x3d6dabbb	0.058025103
182	0x3d0d6047	0.034515645
183	0x3cb588a6	0.022159886
184	0xbc6ee4c3	-0.014580908
185	0xbd7ca1a0	-0.061677575
186	0xbbc79149	-0.0060903174
187	0xbc84ac22	-0.01619536
188	0x3d64c785	0.05585434
189	0xbd0f767e	-0.035025112
190	0xbc7e0ad3	-0.01550551
191	0xbd6a82db	-0.0572537
192	0xbcc902b2	-0.024537418
193	0x3c6c414a	0.014419863
194	0x3d84c919	0.06483669
195	0xbd32e441	-0.04367471
196	0xbd5d135e	-0.053973548
197	0xbd1966bd	-0.037451494
198	0x3c94e0db	0.018173626
199	0xbe01d8ad	-0.12680312
200	0x3ccf101d	0.025276238
201	0x3c698508	0.0142529085
202	0xbd02e3c6	-0.031955503
203	0x3d8155b5	0.063151754
204	0xbd26f801	-0.04076386
205	0xbb511fd3	-0.0031909838
206	0x3ce7209f	0.028213797
207	0xbc83b24b	-0.016076228
208	0x3c6dd5c2	0.014516296
209	0x3c5bf154	0.013424236
210	0xbb0a1e19	-0.0021075069
211	0xbc0a70fe	-0.008449791
212	0x3bc0afea	0.0058803456
213	0xbc8455db	-0.01615422
214	0xbc06a3cd	-0.008217764
215	0x3da3c32a	0.07996209
216	0xbd4bfa12	-0.049799033
217	0xbbaeeb3d	-0.005338101
218	0xbc2a7fca	-0.010406444
219	0x3d1a1252	0.037615128
220	0xbca77fb4	-0.020446636
221	0x3d4e0721	0.050299767
222	0xbca8833e	-0.020570394
223	0x3d8d9559	0.069132514
224	0xbcf310ec	-0.029671155
225	0x3d1b4b5d	0.03791367
226	0x3d07d244	0.03315951
227	0xbd8ba1c7	-0.06817966
228	0xbd191235	-0.03737088
229	0xbca78f2c	-0.020454012
230	0x3ccd529d	0.025063807
231	0x3d5e0257	0.05420145
232	0xbc5cdfa3	-0.0134810535
233	0xbd401f92	-0.046905108
234	0x3d1bdcd7	0.038052406
235	0x3d3e754f	0.046498593
236	0x3d69ba56	0.05706247
237	0xbba54cd1	-0.0050445576
238	0xbc2ad2c3	-0.010426226
239	0x3d893c26	0.067009255
240	0x3def64d3	0.116891526
241	0x3d5dc4bf	0.05414271
242	0x3b5a6715	0.0033325602
243	0x3bd88fcf	0.00660894
244	0x3cc4a67c	0.024005167
245	0xbc424e11	-0.011859433
246	0x3c4afbec	0.012389164
247	0xbc49a083	-0.012306335
248	0xbd522e0c	-0.051313445
249	0xbd887eb1	-0.066647895
250	0xbd3324ec	-0.043736383
251	0xbc6af4f1	-0.014340625
252	0x3cd86534	0.026415445
253	0xbd357584	-0.044301525
254	0x3cf4434c	0.029817246
255	0x3c8f7e45	0.017516265

parameterizer.cl_layers.3.bias f4 [20]
0	0x3d837637	0.06419032
1	0xbce50300	-0.027955532
2	0xbbb80978	-0.005616363
3	0x3d364111	0.044495646
4	0xbd099acd	-0.033594895
5	0x3cba2649	0.022723334
6	0x3d3040a2	0.04303039
7	0xbd66e5c3	-0.05637146
8	0x3ce8c882	0.028415922
9	0xbca15510	-0.019693881
10	0x3d355729	0.044272576
11	0xba68b8ed	-0.0008877654
12	0xbb9b24f2	-0.004734629
13	0x3c2a8f8d	0.010410202
14	0xbdb33c90	-0.08751786
15	0x3c4f5069	0.012653449
16	0x3c18e8cf	0.00933285
17	0xbc6843f6	-0.014176359
18	0xbd164e51	-0.036695782
19	0xbd2eeb6c	-0.042704985
