results/OUR_MODEL/checkpoints/best_model.pt (torch, 373294 bytes, 66 tensors)

conceptizer.encoder.0.0.weight f4 [10, 1, 5, 5]
000000 6d ba 10 be 6d eb cf 3d f3 96 f7 3d 3b d0 80 3d
       -0.14133616 0.10152326 0.12089338 0.06289717
000010 e8 07 ca 3d 5b d7 c5 bd bb a3 ed bd a5 82 ce bd
       0.09864789 -0.096602164 -0.11603495 -0.10083512
000020 b8 80 a3 3d 28 a5 6e bd aa 34 ae 3d 4b 99 ef 3c
       0.079835355 -0.058262974 0.085061386 0.0292479
000030 45 1a 6c be 7f 94 e6 3d 07 86 bb 3c 1b bc 33 3e
       -0.23056896 0.11258792 0.022891058 0.17552225
000040 60 93 aa 3d e3 1d f7 3d 41 15 e7 3d 43 83 59 3d
       0.08328891 0.12066247 0.11283351 0.053103697
000050 67 18 38 3e dc 1d 1c bd d3 f7 8d bd 3a ca 57 bd
       0.17978059 -0.038114414 -0.06932034 -0.052683093
000060 b4 cc fd 3d 98 27 86 bd df f2 4a 3e 9d 86 3a bd
       0.1239256 -0.06550521 0.1981921 -0.045538533
000070 7d 07 ce bd c8 56 03 be c0 0c 2b 3d 6f 10 f6 3a
       -0.10060022 -0.12826073 0.041760206 0.0018773208
000080 de f2 10 be cf 52 c6 bc 8e fb 23 be 72 22 17 3e
       -0.14155146 -0.024209408 -0.16013929 0.14759234
000090 a8 b9 ac bd 6a 29 41 bd 68 86 44 be 54 4f e0 bd
       -0.084338486 -0.047158636 -0.19191897 -0.10952631
0000a0 2e e7 d9 bd 21 65 50 3c 31 eb 24 bd c5 9a 03 3d
       -0.10639797 0.0127194235 -0.04026336 0.03213002
0000b0 bf ba 07 3d ba f6 59 3d 73 7d 54 3c 28 60 a0 bd
       0.03313708 0.053213812 0.012969363 -0.0783084
0000c0 ac 05 37 be 16 40 59 ba 2a a8 c0 bd fb 84 46 be
       -0.17873257 -0.00082874426 -0.09407075 -0.19386666
0000d0 47 47 33 3d 28 3c c6 bd 40 0e df bd 12 16 15 be
       0.043769147 -0.09679443 -0.1089139 -0.145592
0000e0 dc e2 4d be 81 75 87 bd d6 74 57 be 1c fa a3 bd
       -0.20106071 -0.06614209 -0.21040663 -0.08006689
0000f0 f8 78 82 be e7 15 94 3d 5d c1 06 be 13 bc 70 be
       -0.25482917 0.0723074 -0.131597 -0.23509245
000100 30 b2 db bc 2c ff 19 be 7b 01 a2 bd 16 2f 7e be
       -0.026818365 -0.15038747 -0.079104386 -0.2482265
000110 e1 9c 0e be b8 a8 0e be 70 80 04 bd da 31 a1 bd
       -0.13927032 -0.13931549 -0.03234905 -0.078708366
000120 da e1 2a bc 4e 35 45 bd e5 54 3c be 92 3b cf bd
       -0.010429824 -0.04814654 -0.1839176 -0.10118784
000130 86 cf a6 bc 07 0c c4 3c 02 c5 d4 bc 90 d2 46 3c
       -0.020362627 0.023931516 -0.025972847 0.012135163
000140 72 15 11 be f2 81 d9 bc fb 37 73 bd ce bf c2 3c
       -0.14168337 -0.02655122 -0.05937956 0.0237731
000150 40 a8 06 3e 04 29 5f be 32 2f 4a be 96 3d 8f 3d
       0.1315012 -0.2179299 -0.19744566 0.069941685
000160 06 46 f8 bd 53 67 b8 bb 78 17 c4 bd 3c d5 0e be
       -0.12122731 -0.0056275516 -0.09574789 -0.1394853
000170 af ea 6b 3b 61 c1 c5 bd 95 85 1f bc 5e a9 09 be
       0.0035998037 -0.09656025 -0.009736438 -0.13443515
000180 c9 0a 8d bd da 90 48 be 9e f9 88 bd 4e a4 1a 3e
       -0.06886823 -0.19586506 -0.06688236 0.1510174
000190 79 51 c6 3d 15 1d 13 be d9 0e ad 3d c1 3a b4 3d
       0.096835084 -0.14366563 0.084500976 0.08800269
0001a0 9a 95 32 3e 48 b3 af 3d b3 fa 5b be 48 ad 2d bc
       0.17439881 0.08579117 -0.21482353 -0.0106003955
0001b0 30 4a aa bb 28 ab 58 be ce 40 4e 3d 34 a1 89 bd
       -0.005196832 -0.21159041 0.05035477 -0.067202
0001c0 1a ce 12 be 42 08 6c be dc 87 2b bd ee a7 b3 3a
       -0.14336434 -0.23050025 -0.041877612 0.0013706663
0001d0 fc 34 20 be e2 70 b6 3d b0 91 47 be 9e e2 23 3d
       -0.15645212 0.089082494 -0.19489169 0.04001104
0001e0 18 29 d8 3c e8 43 01 3e 42 ca e3 bc d8 62 1e be
       0.026386783 0.1262356 -0.027806405 -0.15467393
0001f0 a2 77 28 ba a9 b9 31 3c 09 d0 b5 3d fc 8d bc bc
       -0.0006426518 0.0108474875 0.0887757 -0.023016922
000200 f5 ab 88 3d 7b be e7 3d 66 13 54 bd 95 92 a0 bd
       0.06673423 0.11315628 -0.051776312 -0.07840458
000210 89 87 ac 3d 08 6d d3 3d 00 9a 7a 3d ae 30 03 3e
       0.08424289 0.103235304 0.061182022 0.12811539
000220 6c c7 36 3d 77 da 1c 3d 18 42 4e bd 99 df 82 bd
       0.044623777 0.03829428 -0.050356 -0.06390304
000230 e6 0e 97 bd 0a 26 0b 3e be ee f4 3d 44 61 53 bc
       -0.073758885 0.1358873 0.11959599 -0.012901608
000240 30 c0 33 be db a1 34 3e d1 2a 64 3e e9 8f 7f 3d
       -0.17553782 0.17639868 0.22281958 0.062393103
000250 5f 3b e8 bd ec 64 b9 bc c7 1a 35 3e 9f 2c 2e be
       -0.11339449 -0.022631131 0.17685996 -0.17009209
000260 dd a8 5c 3d 05 0f 28 3e 40 ce b7 3d ad e6 68 bd
       0.053871978 0.1641198 0.08974886 -0.056860615
000270 11 40 07 3e d7 97 56 3c eb 2c 55 3e b6 29 5b 3e
       0.13208033 0.013097725 0.20817916 0.2140263
000280 1a b9 a8 bd bd bb 93 bc 18 f1 1c bc 47 32 fc bc
       -0.0823843 -0.018033857 -0.009578966 -0.030785693
000290 1f 05 51 bd 09 30 10 be 06 00 e5 3d c3 1e 0e 3d
       -0.051030274 -0.14080824 0.11181645 0.034697305
0002a0 88 f7 e4 bd 16 f2 19 be 12 69 fe bd 6c 35 38 bc
       -0.11180025 -0.15033755 -0.12422384 -0.0112432055
0002b0 de 0c 61 be f6 a5 57 bd a5 b3 26 bd c5 98 e2 3c
       -0.21977565 -0.052648507 -0.040698666 0.027660737
0002c0 b7 04 39 3c ec ad 2b be e1 a9 5e be be f3 fa 3d
       0.011292628 -0.16765565 -0.21744491 0.122535214
0002d0 ec 34 75 3c 73 be ed bd 99 74 e5 3c ee 6a 80 3b
       0.014966231 -0.11608591 0.0280097 0.003918997
0002e0 54 60 32 bd 7a 28 55 3e a5 8e 8d 3b c8 6c d0 3d
       -0.043548897 0.20816222 0.004319983 0.101769984
0002f0 cb 7b 20 3e 2c db 8e 3d 60 a7 7e 3e 68 6e 8b bd
       0.15672223 0.069753975 0.24868536 -0.06808168
000300 41 8a 84 3d c9 20 23 bc 83 f4 3f bc 1b 41 a1 3c
       0.06471682 -0.009956547 -0.011716011 0.019684365
000310 64 d3 da 3d 71 39 14 be d4 1d 55 bc ec c2 87 3d
       0.10684851 -0.14475037 -0.0130076 0.06628975
000320 68 e0 e6 3d 2e ff cf 3c 4c cd 21 3d 0c d2 8f 3c
       0.11273271 0.025390234 0.039502427 0.017556213
000330 62 c8 16 3d 6c ee 01 3e e0 1e d0 3d 0a ed d3 bd
       0.036812194 0.12688607 0.10162139 -0.10347946
000340 d6 af 09 be 7b 66 77 3e b4 c9 31 3e 4b 60 86 bd
       -0.13445982 0.24160187 0.173621 -0.06561335
000350 8f 7f 47 bd 90 cf fc bd a6 cf d2 bd c0 9a 4e 3d
       -0.048705634 -0.12344277 -0.10293512 0.05044055
000360 b9 c6 37 3d 6b 5e bb 3d bc 48 4a be de a6 5a 3d
       0.04486725 0.09148868 -0.19754308 0.053381793
000370 1a 70 4f be 08 ff d4 3d b0 94 16 bc a3 2c 4f bd
       -0.20257607 0.10400206 -0.009190723 -0.05057968
000380 f9 67 40 3e 0c 4a 4d bc a5 d6 75 3d e1 f8 91 3d
       0.18789662 -0.012529861 0.060019154 0.07127548
000390 85 3f 63 3d 55 f7 c7 3c e8 28 9b bd 4b 72 cc bc
       0.0554805 0.02440993 -0.075761616 -0.024956843
0003a0 c6 b3 f0 3d 59 2d 6d bd 78 2e c4 3d ee f0 eb 3d
       0.11753039 -0.057904575 0.09579176 0.11520563
0003b0 25 ef b5 3d e6 96 0b 3e 84 c6 ff bd 5f 26 ad 3d
       0.08883504 0.13631782 -0.12489036 0.08454584
0003c0 a5 11 27 bc ce 30 ce 3d dd 47 38 bd 31 ed fe bd
       -0.010197078 0.100679025 -0.04499041 -0.124475844
0003d0 89 93 bc 3d 6e f6 d6 bc 8e f1 b8 bb c0 be 30 3e
       0.092078276 -0.026240554 -0.00564403 0.17260265
0003e0 6f d0 3d 3e fb 38 99 3d
       0.18536542 0.07481571

conceptizer.encoder.0.0.bias f4 [10]
000000 2b ea c4 3d 6a 10 43 3e a3 89 90 3e 98 f4 a7 bb
       0.096149765 0.1904923 0.28230008 -0.0051255934
000010 29 7a 83 3e 3d 09 11 3e 4e 40 1d bc 13 82 8e 3b
       0.25679138 0.1416368 -0.009597851 0.004349002
000020 75 7d 31 3e 30 06 5d 3e
       0.17333014 0.21584392

conceptizer.encoder.1.0.weight f4 [5, 10, 5, 5]
000000 7f 5d 25 3d a2 3d ff 3c 32 bc 97 3c 67 d6 18 3d
       0.040372368 0.031157319 0.018522356 0.037313845
000010 66 f5 36 bd 4d 08 2e 3d c5 37 3e 3d a5 90 4c 3c
       -0.044667624 0.042488385 0.046439905 0.012485658
000020 3b 28 26 bd c8 eb 4b 3d fa ad ae 3b e6 47 83 3d
       -0.04056571 0.049785405 0.005330798 0.06410198
000030 25 bb 0e bc e9 59 1f 3d e2 84 26 bd f2 94 3a 3d
       -0.008711611 0.038904104 -0.04065407 0.0455522
000040 0f cd ad 3c 0a 16 dd 3c 66 60 12 bb 12 de 1e 3c
       0.021215944 0.026988048 -0.002233529 0.0096965
000050 53 83 6c 3c 87 59 e9 bc 96 bb ee 3a 97 34 44 bb
       0.014435607 -0.028485073 0.0018213864 -0.0029938573
000060 be 40 81 3c 7f be 90 3c d4 18 cf 3b 3a de 1c 3b
       0.015777942 0.01766896 0.0063200984 0.0023936168
000070 4b e3 0e bc fc f0 16 bd f5 7f 0e 3d 13 04 99 bb
       -0.008721183 -0.036850914 0.034789998 -0.004669675
000080 1f cd 59 bd ff d9 05 bc 02 04 6b bc 4a 41 24 3d
       -0.053174134 -0.00816965 -0.014344217 0.040101327
000090 09 00 90 bc 03 da a5 3c 5b 4f 90 bc ac 22 8a bc
       -0.017578142 0.020245558 -0.017615965 -0.016862236
0000a0 f1 d5 d8 bc 96 a7 91 ba cf 23 af bc a0 15 6a 3d
       -0.026469203 -0.0011112567 -0.02137938 0.05714953
0000b0 ea ab 4b 3d 9a 1a 6c 3c 2e f9 76 3d bb 6a a1 bc
       0.049724497 0.014410639 0.06029623 -0.019704213
0000c0 57 17 d0 bc 38 77 32 bc ee 86 93 bd 5f 6e 22 bd
       -0.025401754 -0.010892682 -0.0720347 -0.03965604
0000d0 43 79 c2 39 60 98 d2 bb 3b 11 dd 3c 6d 00 a6 bd
       0.0003709291 -0.006426856 0.026985755 -0.0810555
0000e0 18 4a 25 bd 7c f6 b4 3c 9f d8 27 bd 0d 33 8d 3d
       -0.040353864 0.02209019 -0.04097807 0.06894503
0000f0 bb c7 8a ba 11 b4 98 ba ce fc 55 3c ae 0b d1 b9
       -0.0010588089 -0.0011650344 0.013060762 -0.00039872288
000100 f5 e4 1a ba 2c e9 35 3d 90 95 2d 3c e5 dc 3e bc
       -0.0005908751 0.044411823 0.0105947405 -0.011649345
000110 29 a3 e1 3c 82 a9 98 bc 0e 22 a7 3d 9e 4d 95 3c
       0.027543621 -0.018635515 0.08160792 0.018225487
000120 50 11 32 3d 76 5f 84 3d 34 1e ff 3c 80 cd 2a 3a
       0.04347354 0.0646352 0.031142332 0.0006515607
000130 c7 94 93 bd 1a 8d f1 bc f9 0f 99 bc bb 46 40 3c
       -0.072061114 -0.029486228 -0.018684374 0.011735613
000140 46 eb 47 3d c4 82 ec 3b cb 8b a2 bc 5b 7d 58 3c
       0.04880836 0.007217737 -0.01984205 0.013213481
000150 63 48 b8 3c 20 af 8b 3d f8 93 b0 ba c2 3e 11 bd
       0.022495454 0.06820512 -0.0013471832 -0.03546024
000160 59 68 f8 3b b7 8a b9 ba ce dd af 3a a5 3b 80 bc
       0.0075807986 -0.001415572 0.0013417543 -0.01565344
000170 40 ac 81 3c cb c1 2e 3c e7 af 79 3c c5 f5 24 3c
       0.015829206 0.010666321 0.015239692 0.010068362
000180 dd 74 41 3c 64 bf 00 3c 58 7a ef 3c 39 67 13 3d
       0.0118076475 0.007858131 0.029233143 0.035987113
000190 0d d4 c5 3d 0e 13 69 3d fb 04 e7 3c 03 34 cb 3c
       0.09659586 0.056902938 0.028200617 0.024805075
0001a0 2f 1d 01 bd a4 ab de 3b a3 a1 10 3d 63 3f 3a bc
       -0.031521972 0.0067953635 0.0353104 -0.011367652
0001b0 8b 89 a6 3c e2 f6 d5 bb 8f bf ab 3d 1f c3 9b 3c
       0.020329257 -0.006529675 0.08386146 0.01901394
0001c0 c6 f0 9e 3d 5b 22 37 bc b6 65 0a bd 8a 0e 35 3c
       0.07760768 -0.011177625 -0.033788405 0.01105083
0001d0 d0 50 9a 3d e9 4a ec 3c 80 72 35 3c d9 98 2c 3d
       0.07534945 0.028844314 0.011074662 0.042137954
0001e0 3b 1c 18 bd 0a 3a bd 3c b5 d1 28 3d 3e b5 7b 3c
       -0.037136298 0.023098964 0.041215617 0.015363036
0001f0 b6 f4 bb 3c 29 6d 64 3d cd 84 71 3d d6 e7 2a bd
       0.022943836 0.055768166 0.05896454 -0.041725002
000200 bd 72 3c bd df 05 18 bc 3b 97 0b bd 95 0e c2 3c
       -0.04600786 -0.0092787435 -0.03407977 0.023688594
000210 58 73 ba bc d8 b2 f4 3a 5e 26 81 3c b2 3f f8 bc
       -0.022760078 0.0018669022 0.015765365 -0.03030381
000220 08 39 b6 3c 66 6e 23 3d 57 92 16 bc c0 4e 24 3d
       0.022243991 0.039900206 -0.009190164 0.040114164
000230 f0 8e 62 bc 24 f4 1c bd b9 44 a1 3c 72 fd cc bc
       -0.013828024 -0.03831877 0.01968609 -0.025023196
000240 c4 0f a5 bb bc 6d 53 bd 66 3a 9c bc ad 6d 8c bd
       -0.00503728 -0.051618323 -0.019070815 -0.068568565
000250 1c 22 44 bd c4 17 b0 bc 66 18 80 3d fc e4 7a 3d
       -0.04788409 -0.021495707 0.06254654 0.061253533
000260 07 d4 7e 3b a8 94 24 bc 98 85 e6 bc 00 38 44 3d
       0.0038883702 -0.010045208 -0.028139874 0.04790497
000270 6f bb 1f 3d 47 46 ae bc 41 27 15 bd c2 d3 2d ba
       0.03899711 -0.021273745 -0.03641439 -0.00066309806
000280 fa 06 1b 3c 6a f3 f6 3c f8 fa b4 3c 94 d1 48 bc
       0.009462113 0.030145366 0.022092327 -0.012256999
000290 bc d8 6b 3d 2e e5 7d 3d e1 20 aa bc 69 00 59 bc
       0.05757974 0.06198614 -0.020767631 -0.013244727
0002a0 bc c3 74 3c 42 04 bb 3c a8 e6 24 3d f2 1c 8c 3d
       0.014939245 0.022829179 0.040259033 0.068414584
0002b0 f9 3a af 3d 29 07 a4 3d 38 75 35 3d da 34 35 3c
       0.0855617 0.08009178 0.04430124 0.011059964
0002c0 30 cc d4 bb e2 24 02 3d ab af 94 3d 4b ed 94 3d
       -0.0064940676 0.031773455 0.072600685 0.072718225
0002d0 6f 70 24 3d 71 42 8d 3d 8f 3a 3c bd d8 05 d4 3b
       0.040146288 0.06897438 -0.045954283 0.006470423
0002e0 0f d2 b2 bb a0 9a 43 3d c0 ab 8e bc 2a 9d 15 bd
       -0.00545717 0.047754884 -0.017415881 -0.036526836
0002f0 23 44 80 3b 3c 04 73 3d 3f e2 06 3c 2f 2a ea 3c
       0.0039143725 0.05933021 0.008232652 0.028584568
000300 32 47 49 3c c8 98 56 3d 48 b6 c4 3c e3 42 26 3d
       0.012285041 0.052391797 0.0240127 0.040591132
000310 52 55 5c ba 44 58 22 bc 4f c6 99 3d df dd 32 3d
       -0.00084050477 -0.0099087395 0.075085275 0.043668624
000320 d4 e6 f6 3b ef 4e 86 3d 00 48 f2 3c 46 2f 0f 3b
       0.007534841 0.06558024 0.029575348 0.0021848246
000330 93 8b 12 bb 46 9b 7b 3d 60 c9 87 3d 90 5e 44 3d
       -0.0022361025 0.061427377 0.06630206 0.047941744
000340 80 4a 76 3a 55 68 87 3d 27 b7 8f 3d 71 1f 1c b9
       0.00093952566 0.06611697 0.070173554 -0.00014889032
000350 3d 6c 89 bc e0 73 78 3c ba 53 0d 3c b1 d1 2b 3d
       -0.016775245 0.0151643455 0.008625919 0.041948024
000360 a0 d9 77 3d 53 3f 77 3d 9c 83 62 bc a0 02 d7 3c
       0.060510278 0.060363125 -0.013825323 0.026246369
000370 63 90 57 bd f7 c4 eb 3c 00 e4 18 bd 10 d1 a6 bc
       -0.052627932 0.028780444 -0.037326813 -0.02036336
000380 70 33 21 3d bc 67 03 3d dd 86 12 bd 98 91 27 bc
       0.039355695 0.03208135 -0.035773147 -0.010227583
000390 5f 3e 45 3d 84 a8 c4 3c 47 21 22 3d 12 f1 33 3d
       0.048155185 0.024006136 0.039582517 0.043931074
0003a0 d7 9e 2d 3c 7d 83 51 bd ad 8e fc 3c b8 54 0c 3d
       0.010596952 -0.051150788 0.030829752 0.03426048
0003b0 97 85 73 3d 27 56 30 bd 1d 31 42 3c 23 d8 af bc
       0.059453573 -0.04305091 0.01185253 -0.021465367
0003c0 4c 9c 6e 3d 50 bd 58 3c 65 72 93 bb bc 27 26 bd
       0.058254525 0.013228729 -0.004499721 -0.040565237
0003d0 1f 90 57 3d ad f0 0e bd 66 0e 75 bd 1a f3 20 3c
       0.05262768 -0.034897495 -0.059828185 0.009823585
0003e0 62 33 5d 3d ea 19 90 3c 98 c0 5c 3c 87 37 51 3d
       0.05400408 0.017590482 0.013473652 0.051078346
0003f0 aa db 51 3d df c3 40 3d 73 64 bf 3c c1 49 3c 3d
       0.05123488 0.047061797 0.023363328 0.045968775

conceptizer.encoder.1.0.bias f4 [5]
000000 62 79 63 3c 1d e8 42 3d 3c df 9f 3d 7d 27 19 3d
       0.01388392 0.04758464 0.078062505 0.037391175
000010 e0 0e c0 3d
       0.09377837

conceptizer.encoder.2.layers.0.weight f4 [1, 16]
000000 32 1d b6 bb 9d 94 ea bc 4a ab d4 bb 21 58 06 be
       -0.0055576796 -0.028635317 -0.006490146 -0.13119556
000010 a8 0d d8 3d 56 ec 2c 3e a1 eb 09 3e 3c fe 8f bd
       0.1054948 0.1688703 0.13468792 -0.07030913
000020 70 a3 37 be ff 13 30 be cd 59 37 be 7c 7a 4d be
       -0.1793344 -0.17195128 -0.1790535 -0.20066255
000030 2d 76 18 bd 6e 26 7a be 10 2b 67 be 94 04 a3 3d
       -0.037222076 -0.24428722 -0.22575021 0.079598576

conceptizer.encoder.2.layers.1.weight f4 [1, 16]
000000 4a 38 79 3e 54 7f fd bc 7b e1 aa bd c4 a3 a8 bd
       0.24337879 -0.030944504 -0.08343788 -0.08234361
000010 ea 5d 14 be 75 2e b0 3a 75 31 87 3c 3b 72 4d 3e
       -0.1448895 0.001344158 0.016503075 0.20063107
000020 8b f3 b9 bb 70 1f fd bb 80 84 28 3e 6d 7f 11 3e
       -0.0056747845 -0.007724695 0.16456795 0.14208765
000030 0e e1 93 3d 94 3d 87 3c 83 d6 54 3e a1 c0 a0 3e
       0.0722066 0.016508855 0.20784955 0.31396964

conceptizer.encoder.2.layers.2.weight f4 [1, 16]
000000 27 fd 83 be 72 e8 63 3e 02 d7 17 3e db 0d 43 bd
       -0.25779077 0.2225664 0.14828113 -0.047620635
000010 e0 f6 ca 3d 2d ba 66 bd e7 51 ee 3d ef 30 83 be
       0.09910369 -0.056329895 0.116367154 -0.2562327
000020 27 bc 75 be 33 cf b0 bd 25 b8 be 3d 5e 60 da bc
       -0.23997556 -0.0863327 0.093124665 -0.02665728
000030 05 bc 48 be 17 9a 72 3d 46 30 bb 3c 94 f0 e1 3d
       -0.19602974 0.059228983 0.022850167 0.11032215

conceptizer.encoder.2.layers.3.weight f4 [1, 16]
000000 f2 34 26 3e 58 0d 1c 3e 46 c0 d4 3b ca 44 75 3e
       0.16231135 0.15239465 0.0064926473 0.23952022
000010 b1 07 5e bd dc 72 05 3e 36 1b d5 3d 06 59 d1 3d
       -0.054206554 0.13032097 0.10405581 0.10222058
000020 58 dd 1f be 88 a8 30 3e 13 23 7b bd 58 21 33 3d
       -0.1561178 0.1725179 -0.061312746 0.04373297
000030 8c 7c 49 3e 8b 60 04 be 26 79 ef bd 9a cd c6 bc
       0.19676417 -0.12927453 -0.11693029 -0.02426796

conceptizer.encoder.2.layers.4.weight f4 [1, 16]
000000 43 fb 25 3e 6d 0a 00 be 17 6d 34 3d a1 85 c6 3b
       0.1620913 -0.12503977 0.04404935 0.0060584103
000010 cc 26 82 be 68 bc d2 bd ea d0 94 3d 7f 7b 0c be
       -0.25420225 -0.10289842 0.0726641 -0.13718985
000020 8b e4 14 be a8 90 2a be e5 5c 41 be 94 bd 87 bd
       -0.14540307 -0.16656744 -0.18883093 -0.06627956
000030 e8 11 00 3e 1c c2 48 3e c0 ad 9b 3d 83 0a dd bd
       0.1250683 0.19605297 0.076014996 -0.107930206

conceptizer.decoder.0.0.weight f4 [5, 16, 5, 5]
000000 01 f5 9e 3c d6 49 80 bd 47 d1 b4 bc d6 9c d1 3c
       0.019403936 -0.06264083 -0.022072447 0.02558748
000010 57 38 81 3d 29 87 0c 3e 7f 6a 75 bb a9 93 bf bd
       0.06309574 0.13723435 -0.003744751 -0.09354336
000020 f9 9d 92 bd 9e 92 90 bd 1c 8c 00 3d c3 8f 87 3e
       -0.07159037 -0.07059215 0.03138362 0.2647687
000030 27 2b 79 3d b4 f9 b0 bd e9 f4 40 3c 93 f7 b3 bd
       0.06083217 -0.08641377 0.011777141 -0.087874554
000040 df 97 13 3e 10 c4 d9 bc 81 de e7 bd bc 3c e9 bd
       0.14413403 -0.026582748 -0.11321736 -0.11388537
000050 f2 35 92 3d 46 3a 6c 3d 65 22 73 3d ce 03 32 be
       0.071391955 0.05767276 0.059358973 -0.17384264
000060 71 b4 c3 bd 3d 16 83 3d 23 15 d5 3c d3 5b cb 3c
       -0.09555901 0.06400726 0.026011055 0.024824059
000070 c6 74 6e bc 40 05 7d 3a 21 b9 f9 bc ac 3b 8d 3d
       -0.014554208 0.00096519664 -0.030483784 0.06896147
000080 4d 95 af bc b1 d4 de 3c dc a3 6e 3c 34 c6 df bd
       -0.021433497 0.027201029 0.014565434 -0.10926476
000090 df be bc bd 97 bb 35 3c 87 d9 ff bb f1 f3 46 3d
       -0.09216093 0.011092088 -0.0078079137 0.048572484
0000a0 8d 56 0c be 14 f9 86 bd d3 48 76 bd 8a 1e 84 3d
       -0.13704892 -0.06590477 -0.060128044 0.06451137
0000b0 86 07 93 3c 93 b4 ab bc 9c 8a de bb bc a7 55 3d
       0.017947923 -0.020960128 -0.006791426 0.052161917
0000c0 1c 4a ea bd 88 e6 83 3d 22 a4 1f 3e 1e 92 a0 bd
       -0.114399165 0.06440455 0.15589955 -0.0784037
0000d0 79 0b e8 3d 5b ba a9 bc 10 eb 63 3d 62 25 9b bd
       0.11330313 -0.020718744 0.055644095 -0.075754896
0000e0 37 7e 23 3e e6 28 81 3d f8 6d af 3d 40 4d 96 3d
       0.15966116 0.06306629 0.08565897 0.07338953
0000f0 13 c3 1e bd 0e 9d 45 3e e0 45 b8 bc d5 45 3d 3d
       -0.038760256 0.19298193 -0.022494256 0.046209175
000100 f6 02 8c bd 1a c6 09 3e 35 0c ef bc 95 48 32 bd
       -0.06836502 0.13454476 -0.029180625 -0.04352625
000110 d3 0e 41 bd fa ef 9f bc fe b7 bd 3d f3 b4 ea 3c
       -0.047133278 -0.01952361 0.09263609 0.028650736
000120 fb fe 06 be d8 39 05 3e db 5c d5 bd c8 cb 95 bd
       -0.13183205 0.13010347 -0.104181014 -0.07314259
000130 89 39 39 be 7a 7e 01 be c5 24 db bc a4 fa a9 3c
       -0.18088354 -0.12645903 -0.026750932 0.020749398
000140 d6 fa 25 3d 09 41 e7 3d c7 bb 8f bd ad 31 cc bd
       0.04052242 0.11291701 -0.070182376 -0.099704124
000150 2a 16 00 3d 02 b1 3b 3e fc dc 59 3d a4 43 a4 3c
       0.031271137 0.18329242 0.053189263 0.020051785
000160 a6 1c 21 3d d2 39 3e 3d 7a 31 f8 3b 32 36 83 3d
       0.039333962 0.04644186 0.0075742574 0.06406821
000170 94 67 17 bc 3d 79 97 3d 95 f7 79 3d ac c9 9e bd
       -0.009241004 0.07396171 0.06102713 -0.077533096
000180 9a 25 65 3d d3 b3 31 3e 16 d2 04 3e f1 f6 b6 3d
       0.055944063 0.17353754 0.12970766 0.08933819
000190 16 02 aa 3d 3c d0 b0 bd 48 c0 eb bd 8b c3 94 bd
       0.08301179 -0.086334676 -0.11511284 -0.07263859
0001a0 a8 7d a1 3c 2d 8a e4 3b bd ce a4 3d fd 83 a7 3d
       0.019713238 0.0069744796 0.08047245 0.08179472
0001b0 6a d7 8d 3c f8 01 eb bd ae 38 b1 3d c0 d3 48 3e
       0.017314631 -0.11474985 0.08653389 0.19612026
0001c0 95 87 43 bd e2 39 90 3d 59 11 b4 bd 42 58 dd bb
       -0.047736723 0.0704229 -0.08792371 -0.006754906
0001d0 72 7f 82 3d 46 0e c0 3d 96 06 d8 3d 79 39 06 be
       0.063719645 0.093777224 0.10548131 -0.13107862
0001e0 29 f5 aa bc 2c b8 ae 3d 08 fa 70 bd b7 70 e7 3d
       -0.020868855 0.08531222 -0.0588322 0.113007955
0001f0 1a c3 8d bc 46 8d b9 bc 41 b0 ba bc 01 91 56 bd
       -0.017304946 -0.022650372 -0.022789123 -0.05238438
000200 1c 6e db 3b 4f 85 8a bd 84 62 0f be 71 fa 3c be
       0.0066964757 -0.06763708 -0.14002424 -0.18454911
000210 47 b0 d9 3c c1 cb d7 bb 46 5e d9 bd 5d 34 8a 3c
       0.026573313 -0.0065855687 -0.10613684 0.016870672
000220 d1 6c 78 bd da 54 3b 3c 9b 8a d4 3d 54 cc 22 3d
       -0.06065065 0.011433804 0.103779994 0.039745644
000230 3b c3 d9 bc ea d9 f2 bd 6e bd a3 bd 3d 72 f9 bd
       -0.026582351 -0.1185797 -0.07995115 -0.12179992
000240 4a 56 95 3d d5 70 54 3d 74 7c 80 bd db 88 0f 3e
       0.07291849 0.051865418 -0.062737375 0.1401705
000250 06 5c 63 3c 51 85 14 3d be 67 96 3d 44 d4 13 be
       0.013876921 0.036259953 0.07344006 -0.14436442
000260 37 93 05 be 97 86 81 bb 02 f5 9e 3d 2d 39 dd 3c
       -0.1304444 -0.003952812 0.07761575 0.027004803
000270 b7 d8 d3 bd 62 b9 0f bc b7 e1 cd bc fd a9 81 bd
       -0.103440695 -0.008772226 -0.025132043 -0.06331251
000280 4c 17 2d 3d b2 7f b8 bd 62 b3 2a 3d 0e 8d 88 bd
       0.042258546 -0.09008731 0.04167498 -0.06667529
000290 e9 42 58 bd 41 e0 08 3d d6 fb 82 be 0b a9 46 bd
       -0.052798185 0.03341699 -0.2558276 -0.048501056
0002a0 a9 7b b7 3b aa 03 29 bd 97 3a 26 bd 9a 29 b8 bd
       0.0055994582 -0.04126326 -0.04058322 -0.0899231
0002b0 93 fa 80 3d 62 f6 52 bc 8b 4b 7c bd 14 5f 8c 3c
       0.06297793 -0.012876125 -0.06159548 0.01713518
0002c0 db 5a 66 3d d8 e1 36 bc 95 71 48 3d ca 6b 82 3d
       0.05623899 -0.011162244 0.048936445 0.063682154
0002d0 eb fc 61 3d 7f 8c 06 3e d9 8c b4 bd 8f e1 9a 3d
       0.055172842 0.13139533 -0.08815927 0.07562553
0002e0 34 37 f5 bc d3 b6 9b 3d b4 d4 de bd 0c ee 56 3a
       -0.02993355 0.0760323 -0.10880414 0.0008198924
0002f0 f8 4f 02 bd 7d a2 18 be cc fb 7d 3d c2 c0 67 3d
       -0.031814545 -0.14905734 0.06200771 0.056580313
000300 0e cc 12 bd 9e b0 9d bd 47 1d 9c bd 7b bf 40 bc
       -0.035839133 -0.07699703 -0.07622772 -0.0117644025
000310 d6 18 b4 bd 80 ce c2 bb 95 fc 81 3d 00 06 5a bd
       -0.087937996 -0.005945027 0.06347004 -0.05322838
000320 34 49 72 3b 09 98 bc bc 3d 56 6c bc eb 2f 14 be
       0.0036969902 -0.023021715 -0.014424858 -0.14471404
000330 4f 68 fd 3d 0e bb c0 3d b4 49 d3 bd 87 d9 fa 3c
       0.12373411 0.09410678 -0.10316792 0.030621303
000340 ff 73 7f 3d 43 3a 62 3d 50 4f 60 ba 02 fd a3 3d
       0.062366482 0.055231344 -0.00085567404 0.08007242
000350 1a e5 18 3d b4 e2 87 3b ff 5c 05 3d ea a6 21 3d
       0.037327863 0.004146898 0.03255939 0.039465822
000360 41 58 43 be 94 65 04 3b 90 c0 80 bd a7 86 4e 3d
       -0.19076635 0.0020202147 -0.062867284 0.050421383
000370 53 c8 ca bc f1 b3 c7 bc 7e a1 a2 bc 86 ac ff ba
       -0.024753725 -0.024377795 -0.019852396 -0.0019506372
000380 6b b8 46 3e dd 43 0c be 6d 34 5a bd 54 f0 c5 3d
       0.19406287 -0.13697763 -0.053272653 0.096649796
000390 a9 0a d3 3d 9e ba a1 bd 4f cd 3b bc 0f 16 a4 3d
       0.10304768 -0.078969225 -0.011462524 0.0801202
0003a0 00 f6 00 3e a1 33 b0 bd 0b f8 ae 3d 13 1e 69 bc
       0.12593842 -0.086035974 0.08543404 -0.014228362
0003b0 b4 c8 23 3d 56 be 57 3c d5 79 06 bd 32 ae b7 bc
       0.039986327 0.013167938 -0.03283103 -0.02242193
0003c0 f7 8b cb bd f3 5b 64 3c 06 b5 fb 3d dc 61 62 3d
       -0.099388056 0.013937938 0.12290387 0.055269107
0003d0 e7 07 62 bd c1 3f ec 3c 2c 2e 72 3d 3b c2 94 3d
       -0.055183318 0.028838994 0.059126064 0.07263609
0003e0 1a 45 af 3d 18 ba 19 be 97 72 f8 bd f6 f8 2c bd
       0.08558102 -0.15012395 -0.12131231 -0.042229615
0003f0 74 9e b9 3d 34 e7 1e 3d 9d c0 47 bc 15 bf 7a be
       0.09063426 0.03879471 -0.012191919 -0.24486955

conceptizer.decoder.0.0.bias f4 [16]
000000 62 44 15 be 6e 4a ad bd 4b 14 d4 3c b8 34 a2 3d
       -0.14576867 -0.08461462 0.025888583 0.079202116
000010 f3 3d 1a bd 77 12 8d 3d 9c 7e 68 bd b7 e5 4f 3d
       -0.037656736 0.068882875 -0.05676137 0.050756183
000020 6f d4 0b bd 43 88 ab 3b c6 ad 6c bd 70 2c b6 bd
       -0.03413814 0.0052347495 -0.05778291 -0.088951945
000030 b9 f2 82 3b 5a d6 16 be 39 3a 9a bd 38 72 2f be
       0.00399622 -0.14730206 -0.07530636 -0.17133415

conceptizer.decoder.2.0.weight f4 [16, 8, 5, 5]
000000 49 39 d1 bd 70 67 47 be 89 ee 14 be 65 71 ad 3d
       -0.102160044 -0.19473052 -0.14544119 0.08468894
000010 e1 98 5e 3d 26 85 c8 bc b7 61 09 bc 85 98 0b 3e
       0.054345015 -0.024477553 -0.008385113 0.136324
000020 d0 98 6a 3e f9 1a a5 3d 59 71 e0 3d 72 94 15 3e
       0.22909856 0.08061785 0.10959119 0.14607409
000030 d2 40 8f 3e ea dd bc 3d 9c 28 1b 3d 11 48 31 3e
       0.2797914 0.09222014 0.037880525 0.17312647
000040 15 5e 1a 3e 80 aa 31 3e e7 1c 92 3d 29 99 9b bd
       0.15074952 0.17350197 0.07134419 -0.07597572
000050 dc d5 8e 3d fc 19 89 3d 62 25 fb 3d 8d db 47 3d
       0.06974384 0.06694409 0.122629896 0.048793364
000060 4c c6 82 3d f2 f5 bd 3c 3e 16 9d bd 5d 7a 9f bd
       0.063854784 0.023188565 -0.07670258 -0.07787011
000070 04 98 c0 3c 57 c4 c2 3d 9b 4e d8 3d 91 9e 8d bd
       0.023509987 0.09510105 0.10561868 -0.0691501
000080 aa 37 37 bd 1a 22 16 3e 80 46 00 3e 38 38 b7 3d
       -0.04473082 0.14661446 0.12526894 0.0894627
000090 58 60 be 3d 9d 42 d8 3c bd e0 18 3e fe 4c df 3d
       0.0929572 0.026398951 0.14929481 0.10903357
0000a0 a2 32 9d 3d 76 ac 23 3e cc 33 4b 3e 3f 68 42 3e
       0.07675673 0.15983757 0.19843978 0.18985079
0000b0 23 6f 84 3d b7 f2 11 3e 82 04 2c 3e a5 4e 31 3e
       0.0646651 0.14252745 0.16798595 0.17315157
0000c0 a6 fa fd 3d 6c e0 c8 3c ec bf 8c 3d b3 c9 8f 3c
       0.12401323 0.024521075 0.06872544 0.017552232
0000d0 8f 10 d4 bd 36 77 fc bc fc cb aa 3d a6 0f 54 bd
       -0.10354721 -0.030818563 0.08339688 -0.051772736
0000e0 3c 44 29 bd 85 7a 30 be 3e d2 b3 bb f6 22 33 3e
       -0.04132484 -0.17234237 -0.0054877093 0.17493805
0000f0 3d 27 03 3d 80 eb 94 3c 8c fe e8 bd ee 92 07 3e
       0.032019842 0.018178701 -0.11376676 0.13239643
000100 db d4 5e 3d fe 7e e0 3d 67 68 2f 3e 97 f4 e3 3d
       0.054402214 0.10961722 0.1712967 0.11130636
000110 16 7d ea 3d b8 a7 31 3d 7a db 2b 3e 8e 0b f1 3d
       0.114496395 0.04337284 0.16782942 0.11769782
000120 18 38 21 3e 8b 55 1b 3e 7f 04 80 3d f8 02 44 bb
       0.15744054 0.15169351 0.062508576 -0.0029908996
000130 e7 55 97 3e 07 76 b3 3d 6d 0a cc bd de 66 85 3d
       0.29557726 0.08762746 -0.09962926 0.06513761
000140 47 bc f7 3d 8c ce 2f bb 60 29 ca 3d e5 13 ef bc
       0.12096458 -0.0026825992 0.09871173 -0.029184291
000150 9d 59 0c 3e 5d 11 16 bc e4 07 0a be 77 8b b6 bd
       0.1370606 -0.009159413 -0.13479573 -0.089133196
000160 f0 a1 da bc 18 aa 32 3d 1e fb 1b be eb 95 10 be
       -0.026688546 0.043619245 -0.15232512 -0.14119689
000170 29 25 59 bd e1 9a 43 3e 8b 23 bd 3d 0f ee 1a 3d
       -0.053013954 0.1910205 0.09235295 0.037824687
000180 03 50 a6 bd e0 ba 0e 3d b7 96 4a 3e 8b ac 73 3d
       -0.0812073 0.034846187 0.19784056 0.05949072
000190 f4 ab 97 bc 3b fa 2f bd 9a 20 2c bb 6f c7 b7 bc
       -0.01851461 -0.042963248 -0.002626455 -0.022433965
0001a0 bf 6e c7 bc 08 65 0e 3e 0a 07 82 3e cb d4 69 3e
       -0.0243448 0.13905728 0.25395995 0.2283508
0001b0 03 42 62 3c 11 81 30 3d 51 b1 0f bb ba b5 f8 3d
       0.013809684 0.043091837 -0.0021925757 0.121440366
0001c0 f6 72 3e 3e b2 97 a7 bd 8c e5 0d bd b1 a3 0b be
       0.18598542 -0.081832305 -0.03464274 -0.13636662
0001d0 44 07 59 be b1 f5 e1 bd 6c 2f 9e be c9 e5 cb bd
       -0.21194178 -0.1103319 -0.30895555 -0.099559374
0001e0 b2 d0 09 be 5c 15 71 be 92 a4 5c be 84 6c 0a be
       -0.13458517 -0.23543304 -0.21547154 -0.13517958
0001f0 1e f9 bb bd e2 ea ac 3d 3c 30 75 3e 58 37 c1 3e
       -0.09178375 0.08443238 0.23944181 0.37737536
000200 51 7f a5 3d f4 22 d6 bd 2d 27 b2 3d 52 21 33 3e
       0.08080924 -0.104558855 0.086988784 0.1749318
000210 93 59 66 3e 45 92 48 be c2 e5 89 be 00 13 e1 bd
       0.22495107 -0.19587047 -0.26933104 -0.10989952
000220 ce 73 da bd 7f 49 70 bd 2a c7 9c be ac d6 1c be
       -0.10666619 -0.05866384 -0.306207 -0.15316266
000230 28 ac e1 bd df be 53 be d0 cb 54 be bf ba bb be
       -0.11019164 -0.2067828 -0.20780873 -0.36665913
000240 ce bb 16 be 49 04 49 3b 53 36 fe bd 4b 81 a0 bd
       -0.1472008 0.003067272 -0.12412705 -0.07837161
000250 0e b8 8e bd 3d a1 6e bb e0 a5 95 3d 81 52 16 3e
       -0.069686994 -0.0036412023 0.07307029 0.1467991
000260 77 8a 23 3e ae 4a 79 bd 1d df f0 bd e7 3f 87 3d
       0.15970789 -0.060862236 -0.117613055 0.06603985
000270 ca b1 2a 3e 28 77 e9 3d 00 b4 90 be 15 88 03 be
       0.16669384 0.113996804 -0.2826233 -0.1284488
000280 ae b2 8e bd d9 1f 83 bd 02 cc ff bd 99 68 a3 be
       -0.06967674 -0.06402559 -0.12490083 -0.3191574
000290 a6 48 95 bd 93 99 26 be 1f f3 86 be dd ee 8b be
       -0.07289247 -0.16269521 -0.26357362 -0.27330676
0002a0 97 b8 a5 be ab fe a6 3b a1 27 02 be 73 bc 82 be
       -0.32367393 0.0050962768 -0.1271043 -0.255344
0002b0 96 8b f3 bd a8 41 11 be e0 20 e8 3d d1 f2 fd bd
       -0.11891858 -0.14185202 0.113343954 -0.12399829
0002c0 71 61 c7 bd e6 a4 57 be 73 b7 44 be 25 3d 3d 3d
       -0.09735382 -0.21058998 -0.19210605 0.04620089
0002d0 de d6 64 be 0d fa e6 bd 32 57 ab be 3d a9 15 be
       -0.2234759 -0.11278162 -0.33464962 -0.1461534
0002e0 42 6a 4c 3e 67 b2 b1 bd 15 2f 84 3d 2b 0f 90 3d
       0.19962409 -0.08676606 0.06454293 0.07034143
0002f0 ad 08 e6 3d 9e bf 03 3e be b6 03 be 7c 11 e3 3c
       0.112321235 0.12866065 -0.1286268 0.027718298
000300 d2 bf af 3e 5d ab 5f 3e db 7b 62 3e f6 2b 2e bd
       0.34326035 0.21842714 0.2211756 -0.042522393
000310 99 43 31 3e 7c b3 4a 3e 15 a7 35 3e 58 99 0d 3d
       0.17310943 0.1979503 0.17739518 0.034570068
000320 e0 e3 9c bd f8 db 66 3d 31 53 3e bd 91 8b 59 3d
       -0.07660651 0.056362122 -0.046466056 0.053111617
000330 bd 36 44 bd c9 fd 57 3e 83 14 7f 3e 64 be 4e 3d
       -0.047903765 0.21092905 0.24910168 0.05047454
000340 24 17 90 3d dc 6e 8c bd 78 71 91 3e 6f a7 07 3e
       0.07035664 -0.06857082 0.28406882 0.13247465
000350 cb 87 77 bc c1 92 1f 3d 6f 89 95 bc 7c 82 1e 3e
       -0.015108059 0.038958315 -0.01825401 0.15479463
000360 4b b5 d3 bd b5 1a 12 be d3 a0 90 bd 63 af 2f bc
       -0.10337313 -0.14268 -0.07061925 -0.010722968
000370 c5 f1 36 3d 01 87 a7 bd 46 ec 30 3c bf 6f 80 3d
       0.044664163 -0.08180047 0.0107985195 0.06271314
000380 b8 c1 9f bd 59 0c a3 3c 95 18 63 3d ae b8 37 bb
       -0.07800621 0.019903349 0.055443365 -0.0028033662
000390 45 64 de ba b3 b0 6c 3c 89 0b 56 3c b2 78 1a 3e
       -0.0016967139 0.014446425 0.013064274 0.15085104
0003a0 a0 3c f1 bc c4 b4 c6 3d a3 10 b0 3c 51 60 1d 3e
       -0.029447854 0.09702447 0.021492308 0.15368773
0003b0 24 5a 49 3e 09 96 4e 3d c6 d7 04 3e 18 a4 a1 3d
       0.19663292 0.050436053 0.12972936 0.078926265
0003c0 b5 8b 02 3e 06 2f c1 3d 6d 98 b6 bd 46 10 dc bc
       0.12748607 0.09432797 -0.08915792 -0.026863229
0003d0 6c ee 29 3d e0 6c fd 3c 76 f9 88 bd 2a 94 e8 bc
       0.041487142 0.030935705 -0.06688206 -0.028390963
0003e0 23 11 ad 3d 99 61 2b 3d e2 56 22 bd 93 a8 0f bd
       0.08450534 0.041841123 -0.03963364 -0.035072874
0003f0 61 4a 42 bd 22 f4 82 3c 08 75 4e bc bb 99 9d 3b
       -0.047434215 0.015985552 -0.012601145 0.004809586

conceptizer.decoder.2.0.bias f4 [8]
000000 ef c9 d0 3c c5 f4 0a bb 0a 38 41 3d 9a df 86 3d
       0.025486914 -0.0021203023 0.047172584 0.06585617
000010 f4 48 38 bd 43 67 bb bd 63 ab 86 bd 20 40 fd bd
       -0.04499145 -0.09150555 -0.06575658 -0.123657465

conceptizer.decoder.4.0.weight f4 [8, 1, 2, 2]
000000 e1 f3 e2 be ee fc 0f bd 11 de 55 be e4 3a 3a 3f
       -0.4432669 -0.035153322 -0.20885493 0.7274611
000010 c4 7b 07 3f ef a7 02 3f 8d 61 12 3f 9d 76 1c 3f
       0.52923226 0.51037496 0.571801 0.6111849
000020 0a b4 12 3f ca ee 00 3f 06 26 fe 3e ac a2 e9 bd
       0.5730597 0.50364363 0.49638385 -0.1140798
000030 d2 5d 25 bf 90 47 3e bf 5c dc 39 bf 6a 46 4b bf
       -0.64596283 -0.74327946 -0.72601867 -0.7940432
000040 77 22 26 bf ca 50 73 bf 3f 7c 0f 3e bc 90 d5 be
       -0.6489634 -0.9504515 0.1401224 -0.41711986
000050 9a c9 0f bf d7 d7 70 be 6a 24 81 bf 72 9f 4c bf
       -0.56166995 -0.23519836 -1.0089238 -0.79930794
000060 4a 92 72 be bb 8a 71 bf b9 de 00 bf 84 00 39 bf
       -0.23688617 -0.9435231 -0.5033985 -0.7226641
000070 ab 24 d5 3f 69 73 df 3e ae 69 8f 3f df bf 9a 3d
       1.6651815 0.43642738 1.1204126 0.07556128

conceptizer.unlinear.weight f4 [16, 1]
000000 87 4d 42 bf 78 82 0c 3f 45 af 32 bf 36 11 a2 bf
       -0.7589955 0.5488658 -0.6979869 -1.2661502
000010 76 65 98 bf e8 bc 7c bf 72 18 ac 3f c2 39 96 bf
       -1.1905963 -0.9872575 1.344496 -1.1736376
000020 0d b7 66 bf f2 68 b7 bf 79 8e b0 3f be 6c ca 3e
       -0.90123063 -1.4328902 1.3793479 0.3953609
000030 02 e2 74 bf a9 b2 e8 be 59 d3 60 bf 33 d2 36 3f
       -0.9565736 -0.45448807 -0.8782249 0.7141449

conceptizer.unlinear.bias f4 [16]
000000 9b 79 44 3f 9c e4 c0 3d 07 9e 90 bf 9b 15 79 3f
       0.76748055 0.09418604 -1.1298226 0.9729859
000010 99 9c 21 3f a4 cb 0a 3f 74 ac 1c bf 96 91 fd 3e
       0.63129574 0.5421698 -0.6120064 0.49525136
000020 14 f0 f1 3d 72 f4 2e bf c6 c5 42 bf d1 74 30 3f
       0.118133694 -0.68341744 -0.7608303 0.6892825
000030 3b 0f cd be bc c2 1b bf d7 97 f4 be 2f 98 b0 3e
       -0.40050682 -0.60844016 -0.47772095 0.34491107

parameterizer.cl_layers.0.weight f4 [10, 1, 5, 5]
000000 8b 7b 94 3d e9 86 3a bd 5b 06 60 3d b3 f2 ed 3d
       0.072501265 -0.045538817 0.05469356 0.11618557
000010 91 6c ee 3d d3 91 10 3c fd 89 4a 3e d1 40 83 bd
       0.11641801 0.00882383 0.19779201 -0.06408847
000020 47 c7 9b bd 9c 11 8f bc ca 2c 82 3c 68 59 17 3e
       -0.076063685 -0.017464451 0.015890498 0.147802
000030 96 42 26 3e 1d da 7f 3e d4 68 42 3e 09 63 ae be
       0.16236338 0.24985547 0.18985301 -0.34059933
000040 e8 ee de bd 30 55 6a bd 48 1f f6 bd b4 b4 79 be
       -0.108854115 -0.057210147 -0.12017685 -0.24385339
000050 fe 3c f6 bd ca 9d 9a be 54 ff ad be 90 e1 87 be
       -0.12023352 -0.30198509 -0.33983862 -0.26539278
000060 55 12 4f be ec 51 7c be 7e db d8 bc 07 26 21 3e
       -0.20221837 -0.24640626 -0.02647185 0.15737163
000070 7d 0f 56 bb 38 5f 54 3d 88 42 98 be 85 96 8c be
       -0.003266304 0.05184862 -0.2973826 -0.27458587
000080 c3 d4 f0 bd 43 61 f9 bc ce a1 a9 bc d1 f8 9d bd
       -0.11759331 -0.030441886 -0.020707037 -0.077134736
000090 43 27 ab bd 4e 7c 89 be c8 c9 cf bd bb 8d 0e be
       -0.08357098 -0.2685265 -0.101459086 -0.13921253
0000a0 ae e1 62 3e fb e5 0b bd 9c 74 16 3c 82 68 47 be
       0.22156402 -0.034154873 0.009183075 -0.1947346
0000b0 20 1e 56 be 8a f4 54 3e 4a bf 12 3e 39 9d 8f bc
       -0.2090993 0.20796409 0.14330783 -0.017531024
0000c0 d7 5e 30 3e 79 a2 6c be 85 5e 51 bd c3 75 f5 3d
       0.17223679 -0.23108853 -0.05111553 0.11985352
0000d0 12 79 c6 3d 0c bc c9 3d bd 2d 8b 3d d7 92 f0 bc
       0.09691061 0.0985032 0.06795833 -0.029366894
0000e0 e3 0c c2 bd 10 e1 e2 3d fa 7d 9f 3d 4a c8 f4 3d
       -0.09475114 0.110780835 0.077877 0.119522646
0000f0 26 52 7a 3b 10 3d 10 bc a2 05 2d bd 7a 8f 03 3e
       0.0038195937 -0.008803621 -0.0422417 0.128477
000100 fb 98 bf 3d f1 d7 08 be 04 6d a7 bd e0 d9 01 3e
       0.093553506 -0.13363625 -0.0817509 0.12680769
000110 47 ae 0b bc 41 5b 0c 3e 92 23 06 bb 6e ea 12 be
       -0.008525438 0.13706686 -0.002046798 -0.1434724
000120 c9 3b 35 bd ca 3d 65 bd c6 41 57 3e 11 b6 d0 bc
       -0.04424647 -0.05596713 0.21021184 -0.025477441
000130 37 bf 7f 3e 4a 69 47 3e 90 8a 14 3e 84 b3 4e 3e
       0.24975286 0.19473758 0.14505982 0.20185667
000140 e7 4d 2e 3e 13 2e 3b 3d 49 58 f0 3d 0b 28 08 3e
       0.17021905 0.045698237 0.11735589 0.13296525
000150 65 8a 07 3e a7 6e c5 bc a7 06 02 be f7 35 3f be
       0.13236387 -0.024100615 -0.1269785 -0.1867293
000160 f3 86 11 be 24 17 26 be 65 67 c0 3d 46 74 29 be
       -0.14211635 -0.16219765 0.09394721 -0.16548261
000170 3a 88 56 3d 37 30 ca bd f8 e5 29 3d e1 e0 55 be
       0.05237601 -0.098724775 0.04147908 -0.20886566
000180 12 f1 0b be 1f 2e 34 3d 5c da 24 be 36 8a 3d 3d
       -0.1366618 0.043989297 -0.16098922 0.046274386
000190 b0 95 04 3e 12 d7 25 3e 31 4f f9 bd 5d b1 d5 bd
       0.12947726 0.16195324 -0.12173308 -0.1043422
0001a0 9e 15 99 be 0e 7b 04 3d dd 99 1f 3e a5 9b 4e be
       -0.29899305 0.032343917 0.15586038 -0.20176561
0001b0 94 bd 82 be 36 df bb bd d2 41 02 3e 93 7c 4b bd
       -0.25535262 -0.091734335 0.12720421 -0.04967935
0001c0 57 0f 98 be 69 61 a4 bd 07 7f b5 3d 22 a6 a9 3d
       -0.29699203 -0.08026392 0.08862119 0.082836404
0001d0 e1 4f 5b be 75 84 54 be b9 43 06 bd 65 bb e4 39
       -0.2141719 -0.20753653 -0.03277943 0.0004362717
0001e0 74 f7 37 be 90 12 86 be 06 aa 0b be 39 ac 22 3e
       -0.1796549 -0.26186037 -0.13639078 0.1588601
0001f0 11 cd 91 3c b8 06 62 be d8 4a e9 bd 5c e2 88 3d
       0.017797979 -0.22072875 -0.113912284 0.066837996
000200 5d 2a d1 bd 2e 30 6f bd 03 ef 08 bc 4d f3 36 be
       -0.10213158 -0.058395557 -0.008357766 -0.1786625
000210 1e 6f 1a be 66 c7 ae 3d 09 d1 4d 3e 49 3b bd 3c
       -0.1508145 0.08534126 0.20099272 0.023099558
000220 25 d7 2e be 3b 29 e9 3d c8 4e d1 3d 35 05 31 3d
       -0.17074259 0.11384817 0.102201045 0.043217856
000230 7f ea 30 3d 49 38 3e be 14 89 ee 3d cb 5c 0c 3e
       0.043192383 -0.18576159 0.11647239 0.13707273
000240 ce fd 36 3d 63 55 66 be 93 29 94 3d 9c b3 78 bd
       0.04467564 -0.2249351 0.07234492 -0.060718164
000250 db 9d 5c 3e d0 f3 01 3e bd d1 5e 3d d3 5a ca bd
       0.21544592 0.12690663 0.05439924 -0.098806046
000260 8d a8 83 3d b3 1f 24 3e 28 d2 42 be 97 a0 68 bd
       0.06428633 0.16027717 -0.19025481 -0.056793775
000270 cb ed ef bd 0d 76 41 3e 87 12 f9 3d cb 0c a0 bd
       -0.11715277 0.18892689 0.12161737 -0.0781494
000280 c5 9b 1d 3d d9 7c a9 bc b4 c3 7b 3e 4b 8d f6 bd
       0.03847863 -0.020689415 0.24586374 -0.12038668
000290 af 12 79 be c5 3b 6c 3d 49 b6 20 3e a2 28 87 bc
       -0.24323533 0.05767419 0.15694536 -0.016498867
0002a0 73 26 38 3e ad 37 49 be 29 78 0d be 4c ce e8 bd
       0.17983417 -0.19650145 -0.13815369 -0.11367473
0002b0 63 2c 73 bd 54 e4 28 3e 27 8a b9 3c f0 28 6c 3e
       -0.059368502 0.1649335 0.022648884 0.23062491
0002c0 65 fd 4f be 0b b7 4a be 3a 1e 14 be d2 1c 84 3e
       -0.20311506 -0.19796388 -0.14464656 0.25803238
0002d0 a0 38 47 3e 8d 57 3d be 23 95 07 be ee 83 b1 bd
       0.19455194 -0.18490429 -0.13240485 -0.08667742
0002e0 49 e0 70 3e 78 5b 99 3d 89 77 99 3d a6 97 59 be
       0.23523058 0.074881494 0.07493503 -0.21249256
0002f0 aa 2a 1a be cc 6d 1b 3e 7e 82 a6 3d aa bc 11 be
       -0.15055338 0.15178603 0.08130358 -0.14232126
000300 de 56 dc 3c 87 90 64 be ab b2 5b 3e 32 26 9d bd
       0.02689689 -0.22320758 0.21454875 -0.07673301
000310 02 8e ea bd 20 59 ba bc 05 59 6a be d3 6c 25 be
       -0.11452867 -0.022747576 -0.22885521 -0.16154794
000320 f0 0d 47 bd 74 9e 8d be ad d4 80 be d4 f8 c4 3d
       -0.048597276 -0.27659953 -0.2516226 0.09617773
000330 8d ad 1b bd db 98 60 3e 36 e4 02 3e 31 5e e4 3d
       -0.038007308 0.2193331 0.12782368 0.11150778
000340 f8 c3 79 bd 44 e9 10 3e a3 ff bf 3d a1 30 32 3e
       -0.060977906 0.14151484 0.09374931 0.17401363
000350 df e7 62 3a 88 7b 96 bb 11 bc 74 bd 25 0b 56 be
       0.00086557673 -0.004592363 -0.059749667 -0.20902689
000360 ed dc 0e 3e 8c cf e6 3d 3a 12 11 be 1e 74 1d be
       0.13951464 0.11270055 -0.14167109 -0.15376326
000370 b1 4c bb bd 2d 56 6e be cb f4 21 3e f2 cf 89 bd
       -0.09145487 -0.23275061 0.15816037 -0.067291155
000380 77 8b 5e 3e e6 1d dc bc f1 04 6f be e1 d8 3e be
       0.21732889 -0.026869725 -0.23341729 -0.1863742
000390 f0 f6 db bd bf 38 2f 3e 99 93 63 bd 53 6d ca 3d
       -0.10740459 0.1711149 -0.055560682 0.09884133
0003a0 44 fa f1 3d 4c 3b 95 3d 8e d2 aa 3d b8 79 99 3d
       0.118153125 0.072867006 0.08340941 0.07493919
0003b0 3a d6 b8 3d b4 d9 3d 3e 39 53 67 3d 31 6c bd bd
       0.090252355 0.18540078 0.05647585 -0.092491515
0003c0 f4 2c 68 3d 91 3b 7e 3d 7d 0c 97 3a 68 f7 fc 3c
       0.056683496 0.062068526 0.0011524108 0.030879691
0003d0 80 70 09 be 16 d3 d6 3c c9 29 2b bc 69 e4 d3 bd
       -0.13421822 0.0262237 -0.010446974 -0.103463
0003e0 db 1e 8e bd af f4 93 3d
       -0.06939479 0.07224404

parameterizer.cl_layers.0.bias f4 [10]
000000 f1 b1 f9 3d a3 ad 2e 3e 0c e0 62 be d7 29 d5 bc
       0.12192143 0.17058425 -0.2215578 -0.026020927
000010 4b 9b 30 3d 7e ed 0b bd 68 35 5a be 0b 4c cc bd
       0.04311685 -0.034162037 -0.21309435 -0.099754415
000020 5d ed d7 bd 8c 34 c1 bd
       -0.1054332 -0.09433851

parameterizer.cl_layers.3.weight f4 [20, 10, 5, 5]
000000 9b b3 3f bb a4 8c 29 bd 99 1a 86 bd 4d bd c6 bd
       -0.002925134 -0.04139389 -0.06548042 -0.09704075
000010 56 29 21 bd 17 08 e4 3c d5 16 9c 3c b0 3f e6 bc
       -0.03934606 0.027835889 0.019053856 -0.02810654
000020 2c de a0 bb fb a1 ba bd c7 bf 4b 3c d3 a6 97 3d
       -0.0049092975 -0.091129266 0.01243586 0.07404866
000030 f2 0b 68 3c 79 29 6c bd 76 0b de bc 3d cd 8a 3d
       0.014163004 -0.05765674 -0.027105074 0.06777427
000040 d0 d9 5c 3d a0 5c 11 bd 7f 03 4b bd 71 fa 27 3d
       0.05391866 -0.035488725 -0.04956388 0.041010324
000050 87 2a 26 bc 9c 63 70 3c e3 11 70 3b dd ca bb bc
       -0.010141975 0.014672186 0.0036631755 -0.022923881
000060 56 83 46 bd a1 a3 35 3d 6c 3c 49 3d 3a 49 51 bd
       -0.048465095 0.0443455 0.04912989 -0.051095225
000070 57 1b 76 bb f1 05 0c ba 10 f1 a6 3c 00 cd 1d 3d
       -0.0037552917 -0.00053414615 0.02037862 0.03852558
000080 5e 90 86 3c 91 6d 0b 3c 9f e5 5d 3d ac b6 fa 3c
       0.016426262 0.008510009 0.054174062 0.030604683
000090 1b f9 0a 3d b3 49 8e 3d ba fa 64 3c 9d c1 ee 3c
       0.03392897 0.06947651 0.0139757935 0.029145056
0000a0 c5 33 d5 3c ed 7c 9e 3d 60 20 67 bc f2 d4 0b bd
       0.026025662 0.077386715 -0.01410684 -0.034138627
0000b0 b8 ae b8 bd c4 5c fd bc 0c 8b be bc e6 9b af bc
       -0.090177 -0.030928023 -0.023259662 -0.021436643
0000c0 51 ed ec bc 28 04 1b bd d9 ba 0a 3d 2f e8 d2 bc
       -0.028921755 -0.03784576 0.033869598 -0.02574548
0000d0 2d 7f 54 3d 7a 2b dd 3b 79 ef 64 3d aa 5f 05 bd
       0.051879097 0.0067495676 0.05589244 -0.032561935
0000e0 fb 5b 62 bd 68 64 3f 3d 28 3b b7 bc a2 c0 99 3b
       -0.0552635 0.046726614 -0.022367075 0.004692153
0000f0 b7 8e 07 3c be 7b 01 3d 2f 26 9f bc 72 e4 08 bd
       0.008273772 0.03161215 -0.019427387 -0.033420987
000100 cf 22 da 3c 1b a4 1d bc 47 c9 61 3d 2d 64 62 bc
       0.026627926 -0.009621645 0.055123594 -0.013817829
000110 ca fc 21 3c e0 ed 4d bd 9e 59 8a bd 25 f4 c2 bc
       0.00988693 -0.050275683 -0.06755374 -0.023798058
000120 b4 f5 74 3d cb 4f 7c 3c 8c e3 ba 3c 0d 97 a6 3c
       0.059804633 0.0153998835 0.02281358 0.020335699
000130 15 0d 05 3c 9d bd bd bc d8 8c 95 bc fa 46 e9 bc
       0.008120795 -0.023161704 -0.018255636 -0.028476227
000140 0e 96 4f ba bf 3d eb 3c c6 57 c6 bc 99 2f 02 3d
       -0.0007918783 0.028715966 -0.024211776 0.031783674
000150 06 52 f2 bd 2d 09 31 3d e4 40 29 bc 2b a8 c5 bc
       -0.11832051 0.04322164 -0.010330413 -0.02412804
000160 2a 75 d1 bd c6 53 5f ba df fb f6 3c cd 28 67 3d
       -0.102274254 -0.0008519258 0.030149398 0.056435395
000170 63 66 39 3d fc 34 cb bc b2 5b 88 bb c1 28 66 3d
       0.04526366 -0.024805538 -0.0041613216 0.05619121
000180 e8 7b 94 3c 7d 31 8e 3c 4b 21 e5 3c 92 5b 4f bd
       0.01812549 0.017357582 0.027969977 -0.050624438
000190 3e b7 15 3d e9 0e 7a bc 75 85 aa bc 21 5b 6b 3c
       0.036551706 -0.015262344 -0.02081559 0.014364989
0001a0 32 23 2d bd 01 96 7f 3c e0 9f 9a bd db 07 87 bd
       -0.042269893 0.015599729 -0.07550025 -0.06593295
0001b0 70 3d 96 bd 74 2c f2 3c 77 24 6c bd 78 84 7d bd
       -0.07335937 0.029562213 -0.057651963 -0.06189391
0001c0 52 c2 2c 3d 61 5e cf bc 7c d9 1e 3d 52 fd e8 bc
       0.042177506 -0.025313558 0.038781628 -0.028441105
0001d0 5c 15 88 3c 54 17 23 bc 06 f2 64 3d 0e af 36 bd
       0.016611747 -0.009954292 0.055894874 -0.04460054
0001e0 d6 83 0b 3d 20 b9 2c 3d 36 a1 17 3d dc 6f 30 bd
       0.034061275 0.042168736 0.037018977 -0.043075427
0001f0 17 df d6 bb de 18 32 bd 21 ad c2 bb 7a 0a 15 bd
       -0.006557356 -0.043480746 -0.0059410487 -0.036386944
000200 23 8c a1 3c 48 3b 30 3d f2 d3 9c bc 83 0d 48 3b
       0.019720143 0.043025285 -0.019144032 0.0030525632
000210 93 8a f2 3c b6 7a 58 3a 51 12 81 bc c5 43 85 bc
       0.029607093 0.00082580314 -0.015755804 -0.016267667
000220 95 eb 87 3c 38 77 90 3b 9e a1 d3 3a 86 03 75 3b
       0.016591826 0.004408743 0.0016146188 0.0037386133
000230 51 8f 86 bb 3c 7d c5 b9 01 d9 56 3d 30 ca 34 3d
       -0.00410644 -0.00037668075 0.052453045 0.044138134
000240 1a 39 ab bd 42 fa 4a 3c 43 d7 06 bd 09 f9 f2 bb
       -0.08360501 0.012388768 -0.032920133 -0.007414941
000250 e2 e3 65 bd 1f b9 a1 bd 08 8b 5d 3d 18 72 b5 3d
       -0.05612553 -0.07896637 0.05408767 0.08859652
000260 91 5b 44 3d d9 6d 68 3d 10 aa 04 3d 08 41 bb 3c
       0.047938887 0.056745384 0.032388747 0.022858158
000270 5a da b4 3c 18 8f 27 bc b6 7a f5 3b c6 b6 f8 bc
       0.022076774 -0.010226987 0.007491435 -0.03036059
000280 cd 81 22 3d 66 e9 f1 3b 59 68 91 bc 34 6e 2a 3c
       0.03967457 0.0073825596 -0.017749952 0.010402251
000290 b8 1d 3c 3c 68 d1 e8 bc 4f a1 25 bc b4 8f 69 bd
       0.011481695 -0.028420165 -0.01010926 -0.05702181
0002a0 0c b4 7d bc c6 5b 59 3d 9a d4 b7 3c ba d9 47 bc
       -0.015484821 0.053066038 0.022440244 -0.012197906
0002b0 2d 20 84 3d 2c c3 df 3c 2e d3 e6 3b a1 ab f8 bb
       0.064514495 0.027314745 0.0070442175 -0.007588819
0002c0 e5 88 7c 3d 1b 87 20 3d 35 16 05 bd 41 f7 5f 3b
       0.06165399 0.039191347 -0.03249188 0.0034174474
0002d0 4b ea ce 3b 5c 1f 51 3d e7 50 5b 3d be a9 06 3d
       0.006314551 0.051055297 0.05354395 0.032876723
0002e0 03 fa 84 bc 26 0b b1 bd b7 6b 26 bc ec 26 ff bc
       -0.016232496 -0.086447045 -0.010157517 -0.03114649
0002f0 83 f7 70 3d 69 93 71 bc f8 c3 da bd 6a a2 e8 bd
       0.058829796 -0.014744618 -0.10681909 -0.11359103
000300 89 64 cc bc da 33 6a 3c 42 a3 b9 3d 1f 6a 0d bd
       -0.024950283 0.014294589 0.09064342 -0.034525033
000310 42 28 10 bd 48 8f fe 3c 60 43 c6 3c f7 11 c2 bd
       -0.035194643 0.031074181 0.024202049 -0.09476083
000320 57 b0 2f 3c 25 7a 79 3d 8a 7e c6 3a b2 08 b7 3d
       0.010723195 0.0609075 0.0015143913 0.089372054
000330 16 fe 8b 3a 5c 27 cc ba 1f 9a 90 3d 8e 0b 89 3c
       0.0010680582 -0.0015575695 0.07060646 0.016729143
000340 e4 af 04 3c 1f 66 de 3c 37 d1 2b 3c fe 88 46 3d
       0.008098576 0.027148305 0.010486892 0.04847049
000350 40 7d 10 3d 77 13 f6 3c c9 77 47 bb 3d 1a 3e 3d
       0.035275698 0.030038578 -0.0030436388 0.04641174
000360 bf 44 48 bc 54 7e 0e 3d 4d 55 6b bd 8c 11 9d bd
       -0.012223422 0.034788445 -0.057454396 -0.076693624
000370 6c 67 4a 3d e4 25 1a 3d 0c 45 6f 3c 5f 2c ac 3c
       0.049415037 0.03763379 0.014603864 0.021017252
000380 12 ea 74 3b 7c 13 f7 3c e6 24 3e 3d 55 67 08 bd
       0.0037370962 0.030160658 0.046421908 -0.03330167
000390 05 b3 da bc 5b 5b 1e bc 65 2c b8 ba 9f 78 fb 3c
       -0.026696691 -0.0096653355 -0.0014051317 0.030697165
0003a0 b5 32 af bc 74 ef 90 bd 16 b5 21 3d a1 97 11 3c
       -0.021386484 -0.07076922 0.039479338 0.008886249
0003b0 cf dc ea 3b 42 d1 66 bc 04 84 d9 bb 6e 2a a0 3d
       0.0071674357 -0.014087977 -0.006638052 0.07820593
0003c0 f4 9c 57 3d 1a 96 70 3d 13 6f ea 3c cf e1 ee 3c
       0.052639917 0.058736898 0.028617417 0.029160408
0003d0 ff bf 89 3c 38 ec b4 3a 51 63 32 3d f5 5b 1d 3d
       0.016815184 0.0013803309 0.043551747 0.038417775
0003e0 8b 98 34 bc 67 00 e4 bd 74 d7 6a 3c a1 f2 c7 3c
       -0.011022697 -0.11132889 0.014333595 0.024407687
0003f0 7a 74 88 3d ad 5b d4 3c f9 57 cd 3d 4f 23 22 3b
       0.06662841 0.02592262 0.10026545 0.0024740284

parameterizer.cl_layers.3.bias f4 [20]
000000 7a 58 9a 3d 18 50 80 bc c5 ff d2 bc 49 31 12 3d
       0.07536407 -0.015663192 -0.025756726 0.035691533
000010 14 0b 64 bc 98 34 19 3d db f6 30 3d e9 16 51 bd
       -0.013918657 0.037403673 0.04320417 -0.05104724
000020 a0 0b c2 3c fe a9 c8 bc b7 52 5f 3d 9b 11 30 3a
       0.023687184 -0.024495121 0.054522242 0.00067164906
000030 7c 53 1e bc be 2b b3 bc 2e 00 7a bd 8a 35 90 3c
       -0.009663459 -0.021871444 -0.061035328 0.017603654
000040 88 17 75 3c dc 12 aa bb b8 db da bc 53 28 49 bd
       0.014959224 -0.0051902365 -0.026716098 -0.04911072
