results/OUR_MODEL/checkpoints/Epoch[32]-Step[8910].pt (torch, 374454 bytes, 66 tensors)

conceptizer.encoder.0.0.weight f4 [10, 1, 5, 5]
-0.14644004 0.10498631 0.12103614 0.058458045 0.098315306 -0.09629678 -0.114732906 -0.097488105
0.08449684 -0.05594155 0.0916956 0.034291673 -0.2325271 0.11322243 0.022595534 0.17820668
0.082629025 0.1202947 0.112454236 0.05207438 0.182881 -0.03736319 -0.070022844 -0.05235315
0.13377956 -0.062745385 0.19537987 -0.053518154 -0.103888445 -0.124201916 0.043654956 0.0009889334
-0.14498149 -0.024822947 -0.15928666 0.14937533 -0.08416582 -0.0459387 -0.19158679 -0.11276528
-0.11055468 0.014233563 -0.036643505 0.035589118 0.03224509 0.056539323 0.016706085 -0.079769805
-0.18258166 0.00080168404 -0.08797927 -0.19577204 0.046919644 -0.09223853 -0.106663845 -0.14436038
-0.2009164 -0.064182445 -0.21362887 -0.08710519 -0.25566 0.0754106 -0.1298424 -0.23427649
-0.029107809 -0.15183812 -0.07880374 -0.2481256 -0.13839857 -0.14330786 -0.024834221 -0.076458886
-0.009323705 -0.048897915 -0.18221581 -0.097160384 -0.02257824 0.026958548 -0.02655312 0.009605481
-0.13851015 -0.027932268 -0.066294976 0.018507054 0.1306383 -0.21805507 -0.20021963 0.065398626
-0.13004957 -0.004711157 -0.09409854 -0.14107282 -0.0018291035 -0.09855716 -0.0057918816 -0.12554298
-0.06814687 -0.20174408 -0.06471546 0.15751311 0.101025835 -0.14483272 0.082648486 0.0837366
0.17013556 0.09073215 -0.2135224 -0.017278427 0.00031809526 -0.21840383 0.053173825 -0.06103178
-0.15247712 -0.2327055 -0.053546526 -0.004598578 -0.15388878 0.092052795 -0.19443806 0.035606943
0.02824337 0.13416913 -0.024921248 -0.15529114 -0.001403275 0.010417208 0.08868815 -0.015382609
0.07411844 0.115221255 -0.055170164 -0.08533243 0.08978422 0.110585384 0.062033594 0.13662091
0.04651889 0.041981608 -0.05653858 -0.06813457 -0.07592733 0.13874976 0.12336009 -0.014240765
-0.175597 0.16790478 0.2172846 0.06475609 -0.11393646 -0.017613793 0.17361143 -0.172408
0.05543862 0.16455318 0.08675696 -0.05737594 0.13822547 0.013190007 0.20997775 0.21682715
-0.083110616 -0.016621117 -0.012081149 -0.030557476 -0.052425377 -0.14635791 0.115465544 0.034867473
-0.11715515 -0.15580611 -0.13033599 -0.0067039104 -0.22162162 -0.0486897 -0.03271657 0.01657646
0.002971148 -0.16961193 -0.2109749 0.12898134 0.008147135 -0.11856644 0.029565983 0.007618583
-0.046982657 0.20909035 0.0036874604 0.103095524 0.15905972 0.0687441 0.25018156 -0.06714851
0.06617433 -0.00826769 -0.012181808 0.021364562 0.11349941 -0.14581887 -0.0072155455 0.068737164
0.113582134 0.023275463 0.04258832 0.021998646 0.035862315 0.12562779 0.1016058 -0.10331994
-0.1324976 0.24393657 0.17434399 -0.06723529 -0.04929301 -0.12708609 -0.106840655 0.05164595
0.04414118 0.09599687 -0.19994102 0.05497567 -0.2030096 0.10865574 -0.005694926 -0.049907375
0.18930687 -0.010881618 0.06353251 0.07262127 0.0613772 0.026442867 -0.06818717 -0.019805605
0.120936364 -0.055345807 0.0994007 0.12033666 0.094569534 0.14081843 -0.12331109 0.08610059
-0.008824794 0.10275206 -0.048106715 -0.12597233 0.090031706 -0.029563772 -0.007268076 0.17389081
0.18742569 0.0756446
00000000: 61f4 15be 1003 d73d cce1 f73d b471 6f3d
00000010: 8959 c93d 3f37 c5bd 16f9 eabd d8a7 c7bd
00000020: ae0c ad3d f722 65bd e7ca bb3d 6d75 0c3d
00000030: 961b 6ebe 29e1 e73d 451a b93c d07b 363e
00000040: 6839 a93d 115d f63d 684e e63d f24b 553d
00000050: 2845 3b3e 250a 19bd 2368 8fbd 4270 56bd
00000060: 82fd 083e a780 80bd a911 483e da35 5bbd
00000070: 77c3 d4bd 935d febd 8acf 323d 199f 813a
00000080: 0776 14be 7e59 cbbc 0b1c 23be d9f5 183e
00000090: 215f acbd 382a 3cbd 542f 44be 7cf1 e6bd
000000a0: 7e6a e2bd e433 693c 8017 16bd e5c5 113d
000000b0: 6d13 043d c795 673d 33db 883c 5a5e a3bd
000000c0: b0f6 3abe 1b28 523a 7a2e b4bd 7778 48be
000000d0: d02e 403d 8ee7 bcbd 9372 dabd 35d3 13be
000000e0: 07bd 4dbe 1672 83bd 87c1 5abe 3564 b2bd
000000f0: dee5 82be df70 9a3d 68f5 04be 2de6 6fbe
00000100: 8073 eebc 747b 1bbe db63 a1bd a314 7ebe
00000110: 5bb8 0dbe 4cbf 12be 2371 cbbc 7a96 9cbd
00000120: 74c2 18bc 2e49 48bd c896 3abe 06fc c6bd
00000130: 00f6 b8bc 2cd8 dc3c ee85 d9bc 4f60 1d3c
00000140: 9bd5 0dbe 36d2 e4bc a9c5 87bd 1b9c 973c
00000150: 0cc6 053e d449 5fbe 6006 4dbe b7ef 853d
00000160: b72b 05be 0d60 9abb bcb6 c0bd 6575 10be
00000170: 87be efba 56d8 c9bd d3c9 bdbb 578e 00be
00000180: 9690 8bbd 0096 4ebe 8a89 84bd 1e4b 213e
00000190: a2e6 ce3d 074f 14be 9c43 a93d 187e ab3d
000001a0: 0438 2e3e c7d1 b93d 9ea5 5abe 7d8b 8dbc
000001b0: 06c6 a639 41a5 5fbe cccc 593d 76fc 79bd
000001c0: f622 1cbe 5a4a 6ebe 9a53 5bbd abaf 96bb
000001d0: 0595 1dbe 2d86 bc3d c51a 47be 96d8 113d
000001e0: a45e e73c a263 093e a527 ccbc a404 1fbe
000001f0: 18ee b7ba f0ac 2a3c 22a2 b53d 5707 7cbc
00000200: 69cb 973d 1ff9 eb3d 1cfa 61bd c5c2 aebd
00000210: cae0 b73d 977a e23d f016 7e3d 5ae6 0b3e
00000220: 978a 3e3d e8f4 2b3d 0095 67bd 238a 8bbd
00000230: ca7f 9bbd 6b14 0e3e 37a4 fc3d 1952 69bc
00000240: b3cf 33be 3bef 2b3e db7f 5e3e d79e 843d
00000250: 8557 e9bd cd4a 90bc 32c7 313e b98b 30be
00000260: 9b13 633d a180 283e a2ad b13d 0903 6bbd
00000270: fa8a 0d3e e61a 583c 6804 573e f007 5e3e
00000280: e635 aabd 0229 88bc 03f0 45bc ac53 fabc
00000290: febb 56bd d9de 15be 3379 ec3d 32d1 0e3d
000002a0: 0aef efbd a38b 1fbe cc76 05be 7aac dbbb
000002b0: c7f0 62be da6e 47bd cf01 06bd 5bcb 873c
000002c0: 97b7 423b c0ae 2dbe ce09 58be af13 043e
000002d0: 907b 053c f6d2 f2bd 5c34 f23c 4ea5 f93b
000002e0: e370 40bd c81b 563e 52a9 713b bf23 d33d
000002f0: 8de0 223e b5c9 8c3d cc17 803e 2885 89bd
00000300: 6886 873d 3575 07bc 3596 47bc bc04 af3c
00000310: 6172 e83d 8b51 15be 6270 ecbb 12c6 8c3d
00000320: c09d e83d 2fac be3c 1771 2e3d 8136 b43c
00000330: 5de4 123d 92a4 003e b416 d03d 6899 d3bd
00000340: 73ad 07be 82ca 793e 3b87 323e a8b2 89bd
00000350: 78e7 49bd db22 02be 46cf dabd b48a 533d
00000360: 62cd 343d 029a c43d 57bd 4cbe 2b2e 613d
00000370: c0e1 4fbe e786 de3d 809c babb ad6b 4cbd
00000380: a9d9 413e d048 32bc 551d 823d 76ba 943d
00000390: a966 7b3d b69e d83c b7a5 8bbd 5d3f a2bc
000003a0: 7cad f73d 49b2 62bd 9892 cb3d 1173 f63d
000003b0: acad c13d b532 103e 868a fcbd 8255 b03d
000003c0: de95 10bc ac6f d23d 8c0b 45bd e4fe 00be
000003d0: 8b62 b83d b92f f2bc 0a29 eebb 6f10 323e
000003e0: 85ec 3f3e 8eeb 9a3d

conceptizer.encoder.0.0.bias f4 [10]
0.09124048 0.18550673 0.27678588 -0.0084696775 0.24936242 0.13608612 -0.0122288065 -0.0004721542
0.17046277 0.20570846
00000000: 4adc ba3d 7af5 3d3e e1b6 8d3e 67c4 0abc
00000010: dd58 7f3e 295a 0b3e 555b 48bc 778b f7b9
00000020: cb8d 2e3e 3da5 523e

conceptizer.encoder.1.0.weight f4 [5, 10, 5, 5]
0.042161267 0.031173326 0.019858742 0.037510164 -0.047028325 0.04346012 0.045768104 0.01527516
-0.03891234 0.05593481 0.0023875565 0.06502744 -0.010561559 0.036736805 -0.04135613 0.044600047
0.02247437 0.029191071 -0.0038179737 0.008746922 0.012818705 -0.03081522 0.0030409507 -0.0019524212
0.016579095 0.01976858 0.011366335 0.0038789695 -0.007917327 -0.031859055 0.032197878 -0.0069993637
-0.057949122 -0.005383444 -0.011120013 0.036721375 -0.019343385 0.017234875 -0.01726846 -0.017629068
-0.03030324 -0.0064287214 -0.025682475 0.058472123 0.049709294 0.014467641 0.061095096 -0.019957598
-0.025659023 -0.0121140145 -0.07133309 -0.036721565 0.00015771664 -0.009486296 0.023356458 -0.08189452
-0.03469712 0.024873467 -0.041357465 0.07120251 0.0036343061 0.0025242844 0.012705934 -0.0014336309
-0.00095066323 0.044875152 0.010198424 -0.010423518 0.028989915 -0.01936758 0.083240636 0.019785797
0.047542665 0.06410888 0.029770924 0.00013091549 -0.074426815 -0.025687335 -0.015353888 0.012307085
0.050073735 0.007966861 -0.020767404 0.01577633 0.024685454 0.0687739 0.002988462 -0.037116088
0.008871702 -0.002824873 -0.001442964 -0.017233718 0.016823802 0.016905164 0.0182746 0.009554921
0.0113291815 0.0139984535 0.034478802 0.040297687 0.096553616 0.053661954 0.024562284 0.020701168
-0.035890758 0.007924712 0.03294536 -0.0115228 0.020468581 -0.003722446 0.08520143 0.017968887
0.07594844 -0.014070264 -0.036143344 0.008325489 0.07167698 0.028556159 0.01160631 0.043545503
-0.041050095 0.018626897 0.038739894 0.013419949 0.019890115 0.0578796 0.06037553 -0.04363992
-0.045056 -0.009349916 -0.033909384 0.023689065 -0.021998098 0.004977558 0.016451197 -0.032418575
0.022506285 0.042862643 -0.0051931106 0.042479005 -0.014446386 -0.039271582 0.020873263 -0.027232883
-0.0067679486 -0.050700855 -0.01516129 -0.06767666 -0.046655353 -0.021859454 0.06450045 0.063211806
0.0034160072 -0.012060802 -0.02999684 0.049352754 0.043220818 -0.021814307 -0.039041057 -0.0065665212
0.010020086 0.028137462 0.020168215 -0.013609305 0.05612509 0.062079355 -0.022488333 -0.013166628
0.01169055 0.022745213 0.03953166 0.068112776 0.08501272 0.07687599 0.043272357 0.005667665
-0.012333039 0.033358727 0.07262297 0.07219857 0.040432185 0.06599981 -0.04895441 0.0053104404
-0.0071049696 0.047157157 -0.01999612 -0.038896658 0.0025123467 0.05915318 0.0058346936 0.03210659
0.01007751 0.05332432 0.025985185 0.038825158 -0.004378948 -0.014050048 0.07550605 0.047012325
0.0040353118 0.06814979 0.029460156 -0.0008662063 -0.0034977389 0.05915799 0.065970674 0.045511276
0.0012531227 0.06530205 0.071765475 -0.0032748755 -0.019917138 0.015262269 0.008124963 0.03891468
0.058653507 0.058217995 -0.015107962 0.028783266 -0.059228823 0.030360514 -0.034893807 -0.020459546
0.038213335 0.03255566 -0.036248256 -0.011318781 0.048154987 0.02352846 0.04001309 0.046434414
0.010909749 -0.049909372 0.028482119 0.03393744 0.060592316 -0.042636316 0.012946306 -0.022883855
0.055786766 0.010577561 -0.0059601744 -0.0408838 0.049918722 -0.0332657 -0.059152648 0.010882731
0.05312813 0.012492149 0.015348724 0.05441826 0.049998313 0.047227122 0.018612454 0.044201866
00000000: 4bb1 2c3d 345f ff3c cdae a23c 42a4 193d
00000010: c6a0 40bd 3d03 323d 5677 3b3d aa44 7a3c
00000020: 8c62 1fbd e61b 653d 8d78 1c3b 1b2d 853d
00000030: 640a 2dbc 5579 163d 0c65 29bd 8aae 363d
00000040: 2c1c b83c 1d22 ef3c f836 7abb 404f 0f3c
00000050: 8c05 523c 3370 fcbc b04a 473b 62e8 ffba
00000060: e2d0 873c b8f1 a13c dd39 3a3c 4f36 7e3b
00000070: adb7 01bc a47e 02bd ece1 033d eb5a e5bb
00000080: 0f5c 6dbd 9a67 b0bb b730 36bc 2769 163d
00000090: 0576 9ebc 2730 8d3c 9676 8dbc d66a 90bc
000000a0: 803e f8bc 06a8 d2bb 0e64 d2bc 7780 6f3d
000000b0: f99b 4b3d af09 6d3c da3e 7a3d 1e7e a3bc
000000c0: df32 d2bc dc79 46bc 1517 92bd 5a69 16bd
000000d0: bd60 2539 696c 1bbc 0b56 bf3c 50b8 a7bd
000000e0: 911e 0ebd 71c3 cb3c 7266 29bd 9fd2 913d
000000f0: 8a2d 6e3b 776e 253b 8d2c 503c ace8 bbba
00000100: ee35 79ba 02cf 373d 4a17 273c 67c7 2abc
00000110: 427c ed3c c2a8 9ebc 117a aa3d d315 a23c
00000120: 19bc 423d 844b 833d 27e2 f33c 5c46 0939
00000130: 166d 98bd 3f6e d2bc e08e 7bbc a8a3 493c
00000140: 1e1a 4d3d 7087 023c 6720 aabc 5d3d 813c
00000150: 2639 ca3c 55d9 8c3d 13da 433b 0a07 18bd
00000160: 9d5a 113c 8121 39bb d621 bdba ba2d 8dbc
00000170: 12d2 893c b37c 8a3c 9db4 953c 3e8c 1c3c
00000180: 089e 393c c559 653c a539 0d3d 300f 253d
00000190: e7bd c53d a3cc 5b3d d836 c93c 7f95 a93c
000001a0: 3002 13bd a7d6 013c b7f1 063d 20ca 3cbc
000001b0: baad a73c 48f4 73bb 167e ae3d 7d33 933c
000001c0: db8a 9b3d f786 66bc 0b0b 14bd a267 083c
000001d0: 61cb 923d 9bee e93c 6428 3e3c c55c 323d
000001e0: 2524 28bd 6f97 983c b9ad 1e3d 59df 5b3c
000001f0: 98f0 a23c 2913 6d3d 554c 773d c6bf 32bd
00000200: a48c 38bd 6430 19bc 91e4 0abd 920f c23c
00000210: 5b35 b4bc c81a a33b a9c4 863c 57c9 04bd
00000220: 1a5f b83c bd90 2f3d f82a aabb 77fe 2d3d
00000230: 89b0 6cbc 3ddb 20bd 68fe aa3c 7f17 dfbc
00000240: abc5 ddbb b3ab 4fbd 0f67 78bc 109a 8abd
00000250: af19 3fbd 9912 b3bc d018 843d 3175 813d
00000260: 17df 5f3b ac9a 45bc efbb f5bc 1d26 4a3d
00000270: 5008 313d ebb3 b2bc 84e9 1fbd f92b d7bb
00000280: 492b 243c 8980 e63c d037 a53c 90f9 5ebc
00000290: 6ce3 653d ec46 7e3d 7439 b8bc d7b8 57bc
000002a0: b889 3f3c 2b54 ba3c f3eb 213d b67e 8b3d
000002b0: 261b ae3d 2971 9d3d 5b3e 313d d2b7 b93b
000002c0: 8410 4abc 29a3 083d 5abb 943d d8dc 933d
000002d0: 389c 253d e92a 873d 6b84 48bd 3403 ae3b
000002e0: ced0 e8bb dd27 413d e7ce a3bc 1a52 1fbd
000002f0: 2fa6 243b 9b4a 723d f530 bf3b 3382 033d
00000300: 241c 253c 9a6a 5a3d e2de d43c 2107 1f3d
00000310: 477d 8fbb 2c32 66bc eaa2 9a3d ff8f 403d
00000320: a63a 843b 1e92 8b3d 6d56 f13c 1f12 63ba
00000330: 523a 65bb a64f 723d a21b 873d 086a 3a3d
00000340: d23f a43a 15bd 853d c7f9 923d 4b9f 56bb
00000350: 4429 a3bc 990e 7a3c 911e 053c 0065 1f3d
00000360: a93e 703d fe75 6e3d 6387 77bc e2ca eb3c
00000370: ec99 72bd 9db6 f83c cfec 0ebd c79a a7bc
00000380: 9685 1c3d 1559 053d 0d79 14bd 6972 39bc
00000390: 2a3e 453d c2be c03c c4e4 233d 0332 3e3d
000003a0: cebe 323c c56d 4cbd 5553 e93c fc01 0b3d
000003b0: a62f 783d 6ba3 2ebd be1c 543c ec76 bbbc
000003c0: aa80 643d 824d 2d3c 914d c3bb c575 27bd
000003d0: 9377 4c3d 9d41 08bd 0c4a 72bd 7b4d 323c
000003e0: e29c 593d dfab 4c3c 3779 7b3c aee5 5e3d
000003f0: 08cb 4c3d 3a71 413d 2579 983c 040d 353d

conceptizer.encoder.1.0.bias f4 [5]
0.009572596 0.044885047 0.07030658 0.033180073 0.08909063
00000000: 61d6 1c3c 62d9 373d e5fc 8f3d d4e7 073d
00000010: 2675 b63d

conceptizer.encoder.2.layers.0.weight f4 [1, 16]
-0.004831397 -0.03892562 -0.013952649 -0.13708305 0.105836816 0.16556707 0.13571759 -0.07645761
-0.18014866 -0.17605054 -0.18011317 -0.20276055 -0.03172129 -0.2411307 -0.22449753 0.08058324
00000000: b250 9ebb 7970 1fbd a799 64bc 805f 0cbe
00000010: f9c0 d83d 6a8a 293e 8df9 0a3e cf95 9cbd
00000020: e478 38be 9846 34be 966f 38be 76a0 4fbe
00000030: 2fee 01bd f7ea 76be aee2 65be d308 a53d

conceptizer.encoder.2.layers.1.weight f4 [1, 16]
0.24812683 -0.033276998 -0.08040252 -0.07582863 -0.15110788 0.005611081 0.013964634 0.20589353
-0.0056700427 -0.012565266 0.1676585 0.14334421 0.07651166 0.021761576 0.20650871 0.31329656
00000000: f614 7e3e 764d 08bd 14aa a4bd 0a4c 9bbd
00000010: 06bc 1abe 29dd b73b eccb 643c c1d5 523e
00000020: c4cb b9bb 8cde 4dbc abae 2b3e d3c8 123e
00000030: 25b2 9c3d 5545 b23c 0577 533e 6868 a03e

conceptizer.encoder.2.layers.2.weight f4 [1, 16]
-0.25749114 0.21792299 0.15351386 -0.042165365 0.09891378 -0.06023637 0.11852164 -0.24878716
-0.24540544 -0.09251811 0.09050272 -0.027524147 -0.19727638 0.05705879 0.020944133 0.10899873
00000000: e1d5 83be 3427 5f3e bd32 1d3e 97b5 2cbd
00000010: 4f93 ca3d 69ba 76bd 79bb f23d 10c2 7ebe
00000020: 904b 7bbe 237a bdbd 7d59 b93d 527a e1bc
00000030: d202 4abe 7ab6 693d 0893 ab3c ba3a df3d

conceptizer.encoder.2.layers.3.weight f4 [1, 16]
0.16725202 0.1524635 0.008001919 0.24070238 -0.05179548 0.129757 0.1066059 0.104107946
-0.15377147 0.17526986 -0.06311045 0.049362257 0.19020234 -0.12859024 -0.11816375 -0.027971292
00000000: 1d44 2b3e 641f 1c3e 7b1a 033c af7a 763e
00000010: 7f27 54bd 05df 043e 3254 da3d 8c36 d53d
00000020: 4576 1dbe f179 333e 0d40 81bd 1430 4a3d
00000030: 67c4 423e 29ad 03be d6ff f1bd 0d24 e5bc

conceptizer.encoder.2.layers.4.weight f4 [1, 16]
0.15726225 -0.1311151 0.04071859 0.0040745763 -0.25661427 -0.102419116 0.07693268 -0.13744536
-0.14653045 -0.16814065 -0.19037458 -0.06570507 0.11992574 0.19535515 0.07419872 -0.10427856
00000000: 5b09 213e 0943 06be 89c8 263d 0684 853b
00000010: f262 83be 1dc1 d1bd e28e 9d3d 7abe 0cbe
00000020: 140c 16be 102d 2cbe 8ef1 42be 6190 86bd
00000030: a09b f53d 2e0b 483e 80f5 973d ff8f d5bd

conceptizer.decoder.0.0.weight f4 [5, 16, 5, 5]
0.01940127 -0.058909517 -0.025767017 0.02683215 0.06566543 0.13014105 -4.729065e-05 -0.09556807
-0.073351435 -0.06135656 0.030439291 0.2571376 0.06435706 -0.090847865 0.009361044 -0.08461752
0.14137192 -0.02838218 -0.11272838 -0.106232256 0.07609891 0.05826364 0.06439762 -0.17563824
-0.09739793 0.059800893 0.027447496 0.023368333 -0.008158929 -0.0030944403 -0.030212155 0.069790915
-0.019718891 0.02675942 0.011575058 -0.109559886 -0.08901444 0.011545738 -0.011815922 0.04358355
-0.14110716 -0.065433115 -0.05296082 0.06339032 0.021736467 -0.024590505 -0.008748012 0.04657149
-0.11215541 0.06559832 0.15190849 -0.08296815 0.11246366 -0.01800168 0.056728955 -0.072406374
0.15707764 0.06292541 0.085396565 0.064695954 -0.038694 0.18658166 -0.018510811 0.039730437
-0.06443467 0.13287969 -0.02424317 -0.041834198 -0.041178964 -0.0205913 0.08608746 0.024448492
-0.13144004 0.12420177 -0.11082267 -0.06990351 -0.1808171 -0.12666987 -0.024065685 0.020292928
0.045082286 0.11419717 -0.07358056 -0.10160847 0.032928966 0.18860035 0.060678273 0.020450262
0.039880387 0.048668604 0.017812407 0.060059212 -0.010429054 0.06936046 0.059750468 -0.0779526
0.051611904 0.16989253 0.12354446 0.08652099 0.08832472 -0.08554748 -0.11570415 -0.07049051
0.020470895 0.0076311156 0.07765733 0.08309399 0.014953879 -0.11455457 0.08545927 0.19695725
-0.050105628 0.072131 -0.08624974 -0.011978476 0.061557405 0.09029913 0.10321392 -0.121445924
-0.024121309 0.08260873 -0.061274335 0.11630314 -0.016662741 -0.022417216 -0.019062845 -0.052529465
0.0034162807 -0.06572805 -0.13881849 -0.18431754 0.02406308 -0.007872882 -0.10634357 0.016425192
-0.062267847 0.009259438 0.10205611 0.038471863 -0.025991106 -0.115486026 -0.08176567 -0.117030375
0.07473787 0.052341636 -0.06413376 0.14108606 0.015363195 0.034942232 0.07577419 -0.14229009
-0.1313058 -0.0068646977 0.08158507 0.020336673 -0.103580445 -0.011438519 -0.029037168 -0.06071807
0.03437135 -0.09102374 0.03939294 -0.06627892 -0.059781395 0.034434244 -0.23906061 -0.054112613
0.0019277851 -0.04158677 -0.04004351 -0.09058571 0.06257973 -0.019591736 -0.058078766 0.021060681
0.05302398 -0.011230389 0.052146416 0.06669971 0.049194235 0.12977074 -0.08829297 0.06648025
-0.030825999 0.07464994 -0.10739997 -0.003067394 -0.03150627 -0.14666565 0.06386505 0.05724879
-0.03699569 -0.07831126 -0.078344524 -0.011154639 -0.08730739 -0.002023935 0.061187427 -0.058133002
0.0072863735 -0.023254452 -0.0113670165 -0.1450434 0.11989228 0.08646351 -0.10691734 0.030756362
0.059492264 0.056584395 -0.0009556006 0.07079657 0.037963282 -0.0022742667 0.037825827 0.037576422
-0.18455517 -0.003720007 -0.06370894 0.055308364 -0.02273764 -0.021062372 -0.022872457 -0.002135385
0.18496285 -0.13951288 -0.049436722 0.09450502 0.10649089 -0.07966474 -0.009101708 0.08011505
0.12640898 -0.08889758 0.07954387 -0.010910171 0.040785592 0.013261439 -0.027729906 -0.026240919
-0.09653139 0.014105516 0.12470589 0.04936113 -0.055645473 0.031353295 0.06813537 0.06674148
0.0858491 -0.15800084 -0.11397964 -0.042533096 0.086526744 0.029992227 -0.011733528 -0.24093643
00000000: 6aef 9e3c 1b4b 71bd 5a15 d3bc 19cf db3c
00000010: 997b 863d b243 053e f359 46b8 31b9 c3bd
00000020: 4739 96bd 0451 7bbd d25b f93c 8aa7 833e
00000030: a2cd 833d 720e babd 105f 193c f34b adbd
00000040: cdc3 103e bf81 e8bc 23de e6bd 4c90 d9bd
00000050: bfd9 9b3d dba5 6e3d e6e2 833d 83da 33be
00000060: 9178 c7bd c8f1 743d 92d9 e03c f26e bf3c
00000070: 07ad 05bc 18cc 4abb 7b7f f7bc 8aee 8e3d
00000080: 8389 a1bc 9236 db3c 50a5 3d3c ef60 e0bd
00000090: 344d b6bd 562a 3d3c 9297 41bc aa84 323d
000000a0: 657e 10be cc01 86bd 72ed 58bd c9d2 813d
000000b0: ad10 b23c 0772 c9bc d253 0fbc bfc1 3e3d
000000c0: bcb1 e5bd 6958 863d e68d 1b3e 35eb a9bd
000000d0: 5953 e63d 4278 93bc 9f5c 683d cb49 94bd
000000e0: f6d8 203e 0adf 803d 65e4 ae3d 507f 843d
000000f0: 9a7d 1ebd 430f 3f3e fca3 97bc 62bc 223d
00000100: 53f6 83bd 9d11 083e 9d99 c6bc 565a 2bbd
00000110: 46ab 28bd 16af a8bc 9f4e b03d 3448 c83c
00000120: 3898 06be 7f5d fe3d fff6 e2bd 9229 8fbd
00000130: 1e28 39be bfb5 01be 6625 c5bc 5b3d a63c
00000140: 34a8 383d 35e0 e93d 68b1 96bd 1a18 d0bd
00000150: 86e0 063d 7320 413e c889 783d 4f87 a73c
00000160: 9e59 233d bb58 473d 53eb 913c a600 763d
00000170: 9fde 2abc db0c 8e3d e8bc 743d 9da5 9fbd
00000180: 0167 533d 4ff8 2d3e e104 fd3d eb31 b13d
00000190: 97e3 b43d 8433 afbd 4cf6 ecbd 545d 90bd
000001a0: 94b2 a73c 700e fa3b ce0a 9f3d 2f2d aa3d
000001b0: 1d01 753c 969b eabd 4505 af3d 29af 493e
000001c0: 8f3b 4dbd 6bb9 933d b4a3 b0bd 5f41 44bc
000001d0: 9e23 7c3d c0ee b83d d261 d33d a4b8 f8bd
000001e0: 0d9a c5bc c42e a93d ccfa 7abd 5730 ee3d
000001f0: 4d80 88bc 4fa4 b7bc af29 9cbc 2329 57bd
00000200: aee3 5f3b 6e9c 86bd 6f26 0ebe bdbd 3cbe
00000210: f01f c53c 43fd 00bc a8ca d9bd 208e 863c
00000220: 920c 7fbd e6b4 173c cb02 d13d ac94 1d3d
00000230: 4deb d4bc f083 ecbd c274 a7bd 9fad efbd
00000240: 2b10 993d 2f64 563d 9058 83bd dd78 103e
00000250: e9b5 7b3c 961f 0f3d 802f 9b3d 7eb4 11be
00000260: 0775 06be 42f1 e0bb 1316 a73d 1899 a63c
00000270: fc21 d4bd a068 3bbc 5bdf edbc 83b3 78bd
00000280: f9c8 0c3d a86a babd 7e5a 213d 3ebd 87bd
00000290: 56dd 74bd ec0a 0d3d 4ecc 74be 30a5 5dbd
000002a0: bcad fc3a e456 2abd aa04 24bd 0085 b9bd
000002b0: cd29 803d d97e a0bc 00e4 6dbd 7387 ac3c
000002c0: ac2f 593d aaff 37bc 7b97 553d dc99 883d
000002d0: e57f 493d 9fe2 043e f2d2 b4bd cc26 883d
000002e0: ce86 fcbc 11e2 983d 84f4 dbbd 5506 49bb
000002f0: b80c 01bd 852f 16be aecb 823d b57d 6a3d
00000300: cb88 17bd a761 a0bd 1873 a0bd f2c1 36bc
00000310: 38ce b2bd ffa3 04bb ab9f 7a3d df1c 6ebd
00000320: 88c2 ee3b 1f80 bebc b93c 3abc 4286 14be
00000330: 158a f53d c813 b13d 7af7 dabd c4f4 fb3c
00000340: 29ae 733d 0ac5 673d 4581 7aba cbfd 903d
00000350: 637f 1b3d dd0b 15bb 41ef 1a3d bce9 193d
00000360: 08fc 3cbe 5ccb 73bb d579 82bd 068b 623d
00000370: 4a44 babc ff8a acbc 055f bbbc d1f1 0bbb
00000380: e766 3d3e 77dc 0ebe 297e 4abd d98b c13d
00000390: e517 da3d 4427 a3bd 551f 15bc 5c13 a43d
000003a0: 5b71 013e ef0f b6bd e6e7 a23d 93c0 32bc
000003b0: cb0e 273d 8246 593c d429 e3bc 32f7 d6bc
000003c0: 40b2 c5bd d21a 673c cd65 ff3d e52e 4a3d
000003d0: 82ec 63bd 506c 003d 8f8a 8b3d c2af 883d
000003e0: a7d1 af3d f9ca 21be 286e e9bd 2f37 2ebd
000003f0: ef34 b13d 42b2 f53c fc3d 40bc 0ab8 76be

conceptizer.decoder.0.0.bias f4 [16]
-0.14794825 -0.07855831 0.027410554 0.07986186 -0.033947095 0.071928844 -0.05375577 0.05220753
-0.033413354 0.006644526 -0.05652498 -0.08670131 0.004485937 -0.148254 -0.072147325 -0.16772187
00000000: bf7f 17be 2ee3 a0bd 198c e03c 9d8e a33d
00000010: 1c0c 0bbd 6e4f 933d 032f 5cbd 90d7 553d
00000020: 71dc 08bd 53ba d93b bd86 67bd 7590 b1bd
00000030: c4fe 923b e6cf 17be fac1 93bd 48bf 2bbe

conceptizer.decoder.2.0.weight f4 [16, 8, 5, 5]
-0.112332776 -0.18685253 -0.13721949 0.07984019 0.051167417 -0.024515282 0.00025804437 0.14426883
0.21989256 0.07851267 0.10203645 0.14815278 0.26842967 0.10114002 0.047974896 0.16392976
0.15165345 0.1667092 0.07756729 -0.07297422 0.053202398 0.0674714 0.11042374 0.048943244
0.06399372 0.021937504 -0.07772999 -0.0831598 0.026063127 0.09580485 0.10201389 -0.071265414
-0.045254603 0.14820181 0.12328905 0.08720638 0.091234356 0.034250006 0.15356685 0.10686556
0.0725796 0.1561044 0.20000464 0.18924294 0.07230916 0.13497172 0.16205025 0.17124647
0.11420858 0.026089845 0.068940245 0.01749998 -0.10935516 -0.02825629 0.08625361 -0.05533654
-0.043596577 -0.17340091 -0.003887608 0.17038105 0.031169577 0.01760378 -0.105874576 0.13844344
0.056079388 0.10883665 0.17181684 0.11484057 0.11296309 0.049565546 0.16443528 0.11214077
0.15617056 0.14594826 0.063876 -0.0122736925 0.28172234 0.09463466 -0.09037295 0.058104742
0.11318026 0.00018164169 0.10574512 -0.024553059 0.13066868 -0.01803729 -0.14407755 -0.08951341
-0.03221487 0.04144897 -0.1457757 -0.14582065 -0.06038376 0.18756685 0.08723126 0.059209075
-0.07762659 0.025191993 0.18268985 0.058436558 -0.01866324 -0.040463533 0.007133224 -0.017210722
-0.027233217 0.1408228 0.25348523 0.2278729 0.0116278455 0.037467785 0.0036656966 0.117620714
0.17501436 -0.0762856 -0.04045951 -0.13811213 -0.21042262 -0.11649821 -0.30849913 -0.10522416
-0.12898935 -0.22852103 -0.21719413 -0.13473624 -0.08886084 0.08592344 0.24083823 0.3787046
0.07585312 -0.10167196 0.091109164 0.17789005 0.2216529 -0.20123254 -0.2639731 -0.109366246
-0.102937795 -0.06964826 -0.30208352 -0.15346968 -0.1043536 -0.20291145 -0.2111903 -0.36254308
-0.14973259 0.011163875 -0.11988363 -0.07966609 -0.069779284 0.0011408877 0.075703196 0.1458692
0.15700799 -0.059576757 -0.112141214 0.06931129 0.16479161 0.111435555 -0.27605414 -0.121579275
-0.0671059 -0.066151 -0.12977174 -0.32486412 -0.07810051 -0.15574881 -0.25869322 -0.27548644
-0.3241421 0.00014733765 -0.121403374 -0.25125292 -0.12317676 -0.1393251 0.11449444 -0.11634901
-0.08121951 -0.19003496 -0.19525369 0.04830755 -0.21795222 -0.098165296 -0.3193864 -0.15384953
0.19625193 -0.10288402 0.0646404 0.061469924 0.109121196 0.13074383 -0.14078088 0.015613374
0.3337001 0.21162601 0.20008256 -0.049487423 0.16137183 0.18980661 0.1667276 0.03913184
-0.07762848 0.055516314 -0.04125851 0.05489702 -0.06177408 0.20126414 0.23186833 0.05191017
0.057389796 -0.0617828 0.26765224 0.13102362 -0.0067538847 0.039064758 -0.0148456255 0.14030302
-0.091056444 -0.122206986 -0.075943016 -0.0013043404 0.040870573 -0.07794156 0.012884047 0.055230126
-0.075045645 0.021466617 0.055663776 -0.0014368453 0.0043964903 0.010315746 0.009055141 0.14990902
-0.024458762 0.094124444 0.01675133 0.15410821 0.19377393 0.0535318 0.12881963 0.0782157
0.1266081 0.09763786 -0.07916733 -0.027717767 0.04877713 0.02815381 -0.063169144 -0.023329586
0.0826806 0.041302834 -0.038688015 -0.035672657 -0.04835946 0.019507384 -0.015602765 0.0026784968
00000000: ba0e e6bd 4556 3fbe 4483 0cbe 4183 a33d
00000010: ed94 513d 46d4 c8bc 214a 8739 35bb 133e
00000020: 842b 613e 40cb a03d 7cf8 d03d 5db5 173e
00000030: 9d6f 893e 8022 cf3d 5381 443d 34dd 273e
00000040: 0b4b 1b3e d1b5 2a3e 99db 9e3d 8273 95bd
00000050: c2ea 593d 722e 8a3d d825 e23d b678 483d
00000060: 240f 833d 48b6 b33c e730 9fbd af4f aabd
00000070: 5782 d53c 5535 c43d a9ec d03d 9af3 91bd
00000080: e45c 39bd 37c2 173e f87e fc3d 4299 b23d
00000090: 14d9 ba3d bc49 0c3d a140 1d3e 55dc da3d
000000a0: 9da4 943d d5d9 1f3e 04ce 4c3e e7c8 413e
000000b0: d316 943d 0736 0a3e 80f0 253e 3c5b 2f3e
000000c0: 30e6 e93d 5fba d53c 8b30 8d3d 1e5c 8f3c
000000d0: 99f5 dfbd bc79 e7bc bca5 b03d 91a8 62bd
000000e0: 5392 32bd 0290 31be 3dc7 7ebb 5f78 2e3e
000000f0: 5757 ff3c cd35 903c c5d4 d8bd 1ec4 0d3e
00000100: 80b3 653d c0e5 de3d c1f0 2f3e 8831 eb3d
00000110: 3159 e73d 3e05 4b3d b961 283e 0faa e53d
00000120: 2deb 1f3e 7673 153e 6cd1 823d 9917 49bc
00000130: e93d 903e d1cf c13d 7415 b9bd 3dff 6d3d
00000140: 0dcb e73d 1277 3e39 e690 d83d 7f23 c9bc
00000150: 03ce 053e f0c2 93bc 1189 13be cf52 b7bd
00000160: bdf3 03bd 65c6 293d 3a46 15be 0252 15be
00000170: f654 77bd 8611 403e 4ea6 b23d 3785 723d
00000180: b1fa 9ebd 705f ce3c 0c13 3b3e 2c5b 6f3d
00000190: a7e3 98bc 17bd 25bd d2bd e93b 80fd 8cbc
000001a0: 3218 dfbc da33 103e d1c8 813e 8357 693e
000001b0: b882 3e3c d277 193d 2f3c 703b 21e3 f03d
000001c0: f736 333e a03b 9cbd dfb8 25bd 446d 0dbe
000001d0: 0779 57be 9d96 eebd 99f3 9dbe c47f d7bd
000001e0: c915 04be 6b01 6abe 2368 5ebe 4cf8 09be
000001f0: acfc b5bd a1f8 af3d 4c9e 763e 92e5 c13e
00000200: e158 9b3d 6339 d0bd 7197 ba3d cf28 363e
00000210: faf8 623e e70f 4ebe 7b27 87be 69fb dfbd
00000220: 0dd1 d2bd bfa3 8ebd b1aa 9abe 2827 1dbe
00000230: 57b7 d5bd 05c8 4fbe 4542 58be 3f9f b9be
00000240: 8053 19be b0e8 363c 8c85 f5bd fa27 a3bd
00000250: 71e8 8ebd d789 953a 470a 9b3d bc5e 153e
00000260: b4c6 203e c206 74bd 4baa e5bd 14f3 8d3d
00000270: 22bf 283e 5338 e43d f856 8dbe 8efe f8bd
00000280: d16e 89bd 2d7a 87bd e2e2 04be 9754 a6be
00000290: 29f3 9fbd 9e7c 1fbe 7073 84be 8f0c 8dbe
000002a0: f4f5 a5be a67e 1a39 55a2 f8bd 39a4 80be
000002b0: 1944 fcbd 3dab 0ebe 107c ea3d 6448 eebd
000002c0: 6a56 a6bd 8698 42be 95f0 47be 23de 453d
000002d0: de2e 5fbe e30a c9bd 9d86 a3be bb8a 1dbe
000002e0: 44f6 483e dbb4 d2bd 3062 843d e3c7 7b3d
000002f0: ef7a df3d b6e1 053e dd28 10be 3dcf 7f3c
00000300: bdda aa3e 7db4 583e 71e2 4c3e 53b3 4abd
00000310: a83e 253e aa5c 423e a4ba 2a3e b548 203d
00000320: aefb 9ebd 1365 633d affe 28bd b3db 603d
00000330: d106 7dbd 3018 4e3e e46e 6d3e c29f 543d
00000340: 9011 6b3d f60f 7dbd b709 893e 0e2b 063e
00000350: b14f ddbb 5e02 203d 113b 73bc 98ab 0f3e
00000360: cd7b babd a847 fabd 0388 9bbd 67f6 aaba
00000370: e767 273d d39f 9fbd 9c17 533c fc38 623d
00000380: 88b1 99bd c2da af3c b3ff 633d 8754 bcba
00000390: 6f10 903b 6003 293c 045c 143c c081 193e
000003a0: be5d c8bc 51c4 c03d 163a 893c 8bce 1d3e
000003b0: ac6c 463e 2944 5b3d 4be9 033e 8e2f a03d
000003c0: 8ea5 013e 5cf6 c73d 7b22 a2bd 5f10 e3bc
000003d0: 87ca 473d d2a2 e63c d35e 81bd b01d bfbc
000003e0: 7254 a93d 292d 293d 5377 1ebd 7e1d 12bd
000003f0: 9214 46bd f3cd 9f3c bda2 7fbc b889 2f3b

conceptizer.decoder.2.0.bias f4 [8]
0.027430458 0.0002759624 0.04841036 0.068465255 -0.04240298 -0.087983444 -0.061595075 -0.11582325
00000000: d7b5 e03c 0caf 9039 f149 463d 8337 8c3d
00000010: bfae 2dbd aa30 b4bd 1e4b 7cbd bd34 edbd

conceptizer.decoder.4.0.weight f4 [8, 1, 2, 2]
-0.4318753 -0.040546946 -0.21530013 0.7212721 0.52782005 0.5099757 0.5709734 0.60765415
0.5690974 0.5018085 0.4974256 -0.11790791 -0.6451722 -0.7344411 -0.7186684 -0.77798253
-0.64751095 -0.925589 0.1343507 -0.4106558 -0.56694204 -0.23327324 -0.9982907 -0.79153657
-0.23894095 -0.93352497 -0.50248224 -0.7013456 1.5281265 0.3255592 0.99858797 -0.024429144
00000000: c21e ddbe 8e14 26bd a377 5cbe 4aa5 383f
00000010: 371f 073f c48d 023f 502b 123f 398f 1b3f
00000020: 5eb0 113f 8676 003f 91ae fe3e b479 f1bd
00000030: 012a 25bf 5504 3cbf a7fa 37bf dd29 47bf
00000040: 47c3 25bf 67f3 6cbf 3b93 093e 7a41 d2be
00000050: 1d23 11bf 2edf 6ebe fb8f 7fbf 24a2 4abf
00000060: f0ac 74be 7efb 6ebf ada2 00bf 638b 33bf
00000070: a699 c33f b2af a63e 76a3 7f3f a11f c8bc

conceptizer.unlinear.weight f4 [16, 1]
-0.7534752 0.5410182 -0.6899449 -1.2539542 -1.1769171 -0.9772534 1.3263067 -1.1610283
-0.8903923 -1.4133383 1.3613056 0.39055032 -0.94723564 -0.44561973 -0.86361265 0.7007153
00000000: c0e3 40bf 2b80 0a3f 3ba0 30bf 9281 a0bf
00000010: 38a5 96bf 472d 7abf 6bc4 a93f 939c 94bf
00000020: c0f0 63bf 45e8 b4bf 433f ae3f 36f6 c73e
00000030: 097e 72bf 4528 e4be b815 5dbf 1462 333f

conceptizer.unlinear.bias f4 [16]
0.7643182 0.08511322 -1.1222438 0.9668614 0.62905043 0.53616065 -0.601775 0.49338374
0.12475141 -0.67488056 -0.76035947 0.6914988 -0.3981512 -0.5990983 -0.46862093 0.3417765
00000000: 5caa 433f d74f ae3d afa5 8fbf 3b84 773f
00000010: 7309 213f d341 093f ed0d 1abf cb9c fc3e
00000020: ab7d ff3d f9c4 2cbf eba6 42bf 1106 313f
00000030: 79da cbbe 825e 19bf 15ef efbe 54fd ae3e

parameterizer.cl_layers.0.weight f4 [10, 1, 5, 5]
0.07263549 -0.04247699 0.058093634 0.1211277 0.11833664 0.0062159654 0.1967265 -0.06794165
-0.079707466 -0.023311375 0.016807903 0.14858483 0.16084073 0.24938618 0.18811949 -0.3343773
-0.10315294 -0.058110617 -0.11944835 -0.24265584 -0.11890356 -0.2976249 -0.33352664 -0.26110664
-0.2069754 -0.24193403 -0.02968815 0.15519477 -0.0068855705 0.04837081 -0.29244027 -0.27153078
-0.1172392 -0.03547269 -0.02440043 -0.081459925 -0.0801763 -0.2695813 -0.100292236 -0.14361253
0.2188778 -0.038851615 0.0017433757 -0.20117232 -0.21049389 0.20865987 0.13692059 -0.029381122
0.16607642 -0.23645394 -0.053646803 0.11436846 0.09455297 0.09749615 0.06954567 -0.026876008
-0.09494352 0.10947922 0.076881714 0.11919488 0.0076634814 -0.0059359455 -0.043310896 0.1245599
0.08941279 -0.12808613 -0.08191018 0.1276815 -0.012021977 0.13376398 0.0024087077 -0.1447021
-0.04735788 -0.05996401 0.20657887 -0.028845053 0.24776289 0.1899129 0.14338619 0.19985993
0.16888687 0.042210154 0.113792494 0.13179623 0.13134383 -0.022808611 -0.12868877 -0.18934871
-0.14198215 -0.1634079 0.10031551 -0.16519397 0.052164074 -0.09807889 0.043022282 -0.20614673
-0.14260109 0.040374704 -0.16664858 0.04985018 0.13091919 0.16599141 -0.12460551 -0.104083836
-0.2945981 0.0298783 0.15526235 -0.20325881 -0.2510781 -0.09209722 0.12167964 -0.048008587
-0.2920014 -0.076040804 0.08678003 0.0829641 -0.20845522 -0.20414835 -0.0333007 0.0002810559
-0.17261708 -0.26773676 -0.14248335 0.16252585 0.018853495 -0.21973257 -0.11848867 0.067945376
-0.09947103 -0.0611161 -0.0037445 -0.18082002 -0.15093818 0.08849188 0.20096652 0.03024354
-0.1720489 0.11740956 0.103181235 0.041039977 0.043221973 -0.19065897 0.11570062 0.13690557
0.04011846 -0.22906137 0.071071245 -0.06336038 0.21434636 0.12271063 0.049085166 -0.096117124
0.067058794 0.15968713 -0.18874724 -0.05705946 -0.1167091 0.18656754 0.1236432 -0.07233808
0.03809696 -0.024888901 0.24029107 -0.12058474 -0.2387636 0.05975076 0.15643741 -0.023205845
0.17927943 -0.19691633 -0.13673751 -0.11526879 -0.06437973 0.16325477 0.018825894 0.23356915
-0.19861469 -0.19872543 -0.14538452 0.25911638 0.19735244 -0.18046881 -0.12816298 -0.08693752
0.23220477 0.07793227 0.08380691 -0.21335481 -0.15455267 0.1484095 0.08356082 -0.13970298
0.032924727 -0.21895778 0.21923614 -0.07651979 -0.112258635 -0.017920125 -0.22280015 -0.16101654
-0.050052915 -0.2744484 -0.24540132 0.10119696 -0.03722357 0.21657348 0.12900975 0.11525408
-0.059604518 0.14259082 0.08979953 0.17290142 0.0015109865 -0.0027021863 -0.060615756 -0.20780593
0.13966088 0.112062186 -0.14288275 -0.1532775 -0.08704859 -0.23129705 0.15938209 -0.06596961
0.22125244 -0.021379167 -0.22902778 -0.182517 -0.10430674 0.17337511 -0.0512141 0.1041846
0.12057138 0.07074821 0.083229534 0.07601192 0.09014995 0.18442117 0.057148572 -0.09530495
0.057570685 0.062157553 0.0015101654 0.034060784 -0.13533767 0.028181208 -0.007310577 -0.097662084
-0.0591178 0.07937307
00000000: eac1 943d 5afc 2dbd 97f3 6d3d cd11 f83d
00000010: 7b5a f23d 4caf cb3b ac72 493e fe24 8bbd
00000020: ab3d a3bd 7ff7 bebc bab0 893c 9f26 183e
00000030: 6fb3 243e 175f 7f3e 65a2 403e 8033 abbe
00000040: d941 d3bd 6605 6ebd 56a1 f4bd c67a 78be
00000050: b683 f3bd 4a62 98be 01c4 aabe c5af 85be
00000060: 5cf1 53be 8ebd 77be 9034 f3bc 61eb 1e3e
00000070: 5aa0 e1bb 7820 463d bbba 95be 1506 8bbe
00000080: 1b1b f0bd d04b 11bd 69e3 c7bc 76d4 a6bd
00000090: 7933 a4bd 8f06 8abe 0466 cdbd 2a0f 13be
000000a0: 8121 603e df22 1fbd fb81 e43a 1e00 4ebe
000000b0: b68b 57be efaa 553e e934 0c3e aeb0 f0bc
000000c0: f00f 2a3e fb20 72be c0bc 5bbd 033a ea3d
000000d0: fda4 c13d 10ac c73d f66d 8e3d 132b dcbc
000000e0: c071 c2bd a436 e03d 2974 9d3d 721c f43d
000000f0: f11d fb3b 5282 c2bb c466 31bd 4319 ff3d
00000100: 0e1e b73d 0329 03be 86c0 a7bd f0be 023e
00000110: d4f7 44bc 6df9 083e 69db 1d3b ca2c 14be
00000120: 56fa 41bd d29c 75bd 6989 533e 764c ecbc
00000130: 8eb5 7d3e 8778 423e d4d3 123e 15a8 4c3e
00000140: aef0 2c3e 8ee4 2c3d 0a0c e93d 97f5 063e
00000150: ff7e 063e 20d9 babc fdc6 03be a1e4 41be
00000160: c563 11be 6754 27be 3872 cd3d 9c28 29be
00000170: ffa9 553d 96dd c8bd 2238 303d 2118 53be
00000180: 0506 12be f25f 253d eda5 2abe b42f 4c3d
00000190: ae0f 063e a7f9 293e 2c31 ffbd e829 d5bd
000001a0: 90d5 96be 56c3 f43c 18fd 1e3e 1423 50be
000001b0: 4f8d 80be 789d bcbd 2d33 f93d a7a4 44bd
000001c0: 3581 95be 48bb 9bbd bab9 b13d 15e9 a93d
000001d0: 4975 55be 440c 51be 5166 08bd af5a 9339
000001e0: 88c2 30be cb14 89be 28e7 11be 2d6d 263e
000001f0: a572 9a3c 9301 61be 30aa f2bd f226 8b3d
00000200: 78b7 cbbd e054 7abd 4966 75bb e228 39be
00000210: 8a8f 1abe 3b3b b53d 2bca 4d3e 4dc1 f73c
00000220: 962d 30be 6c74 f03d af50 d33d 8919 283d
00000230: 8609 313d 1b3c 43be 72f4 ec3d f930 0c3e
00000240: 4153 243d 108f 6abe cd8d 913d 16c3 81bd
00000250: 9d7d 5b3e b64f fb3d 870d 493d 0ed9 c4bd
00000260: 1f56 893d 0685 233e f546 41be 2eb7 69bd
00000270: 2e05 efbd 900b 3f3e a538 fd3d fd25 94bd
00000280: 8f0b 1c3d cfe3 cbbc dd0e 763e 22f5 f6bd
00000290: 727e 74be 37bd 743d 2131 203e 2f1a bebc
000002a0: 0795 373e 6fa4 49be eb04 0cbe 0b12 ecbd
000002b0: 85d9 83bd 422c 273e c338 9a3c c02c 6f3e
000002c0: a661 4bbe ae7e 4bbe aedf 14be e7aa 843e
000002d0: c216 4a3e d1cc 38be 283d 03be 4c0c b2bd
000002e0: 16c7 6d3e f49a 9f3d f5a2 ab3d af79 5abe
000002f0: 0e43 1ebe a9f8 173e ef21 ab3d 4c0e 0fbe
00000300: 14dc 063d 7836 60be 707f 603e 68b6 9cbd
00000310: dbe7 e5bd 3acd 92bc b925 64be 85e1 24be
00000320: 4904 4dbd 8084 8cbe 7c4a 7bbe 5a40 cf3d
00000330: be77 18bd 70c5 5d3e 221b 043e 550a ec3d
00000340: de23 74bd 5403 123e d1e8 b73d 120d 313e
00000350: 4b0c c63a 2a17 31bb 3a48 78bd 14cb 54be
00000360: 4303 0f3e dc80 e53d db4f 12be c7f4 1cbe
00000370: 8846 b2bd 22d9 6cbe 0f35 233e 131b 87bd
00000380: 0090 623e 5d23 afbc 4286 6abe bde5 3abe
00000390: c69e d5bd 3f89 313e e0c5 51bd bc5e d53d
000003a0: 21ee f63d 70e4 903d 3f74 aa3d 23ac 9b3d
000003b0: 89a0 b83d e7d8 3c3e 9f14 6a3d 3e2f c3bd
000003c0: 3dcf 6b3d eb98 7e3d bef0 c53a 5283 0b3d
000003d0: f595 0abe 47dc e63c 918d efbb 0f03 c8bd
000003e0: 8225 72bd 598e a23d

parameterizer.cl_layers.0.bias f4 [10]
0.12622456 0.17564227 -0.21694228 -0.026439436 0.04311106 -0.027371468 -0.21243401 -0.093289986
-0.101195894 -0.088015735
00000000: 0341 013e 91db 333e 1e26 5ebe 8497 d8bc
00000010: 3995 303d 213a e0bc 4d88 59be d20e bfbd
00000020: cb3f cfbd 9841 b4bd

parameterizer.cl_layers.3.weight f4 [20, 10, 5, 5]
0.0016635079 -0.033851106 -0.058744915 -0.09581258 -0.03570361 0.031664018 0.021111527 -0.024728514
-0.001411667 -0.08674991 0.006834432 0.06912742 0.012071028 -0.057611387 -0.0285049 0.068085894
0.050222177 -0.042109225 -0.053386126 0.035877865 -0.008267447 0.018479595 0.0038140716 -0.026157608
-0.052953828 0.04549145 0.05195844 -0.05146903 -0.004045257 -0.00032869208 0.019587247 0.03452372
0.014541042 0.007892935 0.053728845 0.028446404 0.033269085 0.07069375 0.013538177 0.028062576
0.026741918 0.0830886 -0.016002098 -0.039173678 -0.0927963 -0.027492449 -0.020006347 -0.019948533
-0.024358695 -0.038347736 0.030279284 -0.03011066 0.04952543 0.010362213 0.05628243 -0.037024938
-0.05843822 0.043759666 -0.019382745 0.002904554 0.007059601 0.0274577 -0.021693725 -0.034012288
0.024783665 -0.009832097 0.051986463 -0.013641778 0.008893872 -0.054053538 -0.06803121 -0.027866652
0.061674148 0.016487775 0.020500107 0.021775924 0.0052955556 -0.02205663 -0.015919767 -0.023227546
-0.0013769798 0.027979802 -0.022089526 0.036689483 -0.11264111 0.043760806 -0.0121795945 -0.024953386
-0.09788767 -0.0026277935 0.025604913 0.05353454 0.042719636 -0.02889186 -0.008837605 0.059567917
0.019462736 0.012342448 0.019550096 -0.060217492 0.03587939 -0.01793943 -0.022512393 0.010596193
-0.04666153 0.022684475 -0.068191186 -0.066582434 -0.07490558 0.03036217 -0.04974224 -0.061837304
0.0442958 -0.025708303 0.043243494 -0.03163524 0.019925041 -0.0067340126 0.05687452 -0.043189727
0.03165138 0.044179577 0.037122812 -0.046536114 -0.00870489 -0.046811808 -0.006999942 -0.037222035
0.020809768 0.037670717 -0.020273218 0.0036705178 0.028424872 0.0012603925 -0.018112963 -0.019886639
0.013247144 0.0013334957 0.00048388672 0.0053708525 -0.0059785503 -0.0055684526 0.05275393 0.049975406
-0.07859345 0.003315101 -0.03890619 -0.003411461 -0.04946593 -0.081702776 0.04623438 0.08488712
0.04122195 0.052767843 0.031964775 0.017101305 0.01843638 -0.01582805 0.001306982 -0.027752979
0.033676922 -0.0008797181 -0.019147107 0.011684305 0.014258962 -0.02335441 -0.0053711375 -0.05077095
-0.012748003 0.05191583 0.027403696 -0.016487613 0.06348706 0.027455108 0.0017625543 -0.0077663036
0.059336334 0.042646173 -0.03163823 -0.003206438 0.0037904873 0.045639817 0.054720197 0.03306311
-0.020383673 -0.088842295 -0.014407286 -0.028670553 0.059181307 -0.017872823 -0.10345613 -0.1144846
-0.019638097 0.014528407 0.08544097 -0.037784316 -0.034491766 0.036651082 0.019175353 -0.09783202
0.011373049 0.06100025 -0.002128036 0.08948564 -0.0019132999 0.00066541694 0.06955045 0.015969077
0.0075153965 0.024084037 0.00667042 0.04020182 0.03704006 0.026825076 -0.006162104 0.048518006
-0.013797657 0.037368324 -0.05334106 -0.07493632 0.047004357 0.041081965 0.012695821 0.026205149
0.005069483 0.030780805 0.04743342 -0.034079105 -0.026710225 -0.011958139 0.0008645472 0.031373374
-0.020178106 -0.06758478 0.037739266 0.005218311 0.0077665253 -0.012592212 -0.0072972085 0.074976124
0.055248152 0.059781898 0.02414348 0.025946436 0.016687669 0.00026249595 0.0395073 0.036284972
-0.0100408755 -0.10096875 0.01540501 0.023568684 0.0669562 0.023125015 0.09647088 0.004074142
00000000: 100a da3a 75a7 0abd 829e 70bd 6339 c4bd
00000010: f33d 12bd 21b2 013d 15f2 ac3c 7493 cabc
00000020: af07 b9ba f0a9 b1bd 5ff3 df3b ad92 8d3d
00000030: 90c5 453c ebf9 6bbd 1c83 e9bc 9e70 8b3d
00000040: c5b5 4d3d b97a 2cbd 69ab 5abd abf4 123d
00000050: 3074 07bc 8562 973c 81f5 793b 7b48 d6bc
00000060: 1de6 58bd 3e55 3a3d 60d2 543d 31d1 52bd
00000070: 138e 84bb 4e54 acb9 6f75 a03c bf68 0d3d
00000080: 8d3d 6e3c 5e51 013c c712 5c3d 6f08 e93c
00000090: 2a45 083d e3c7 903d 3bcf 5d3c 7de3 e53c
000000a0: de11 db3c 5b2a aa3d d516 83bc 9474 20bd
000000b0: fd0b bebd d837 e1bc 5ae4 a3bc 1b6b a3bc
000000c0: e38b c7bc 8412 1dbd 430c f83c a1aa f6bc
000000d0: 2ddb 4a3d 45c6 293c 6888 663d 76a7 17bd
000000e0: ea5c 6fbd 563d 333d 90c8 9ebc 545a 3e3b
000000f0: 3a54 e73b f8ee e03c 0ab7 b1bc 7850 0bbd
00000100: 1d07 cb3c ce16 21bc c2ef 543d c481 5fbc
00000110: 9ab7 113c 3e67 5dbd f253 8bbd 9b48 e4bc
00000120: 089e 7c3d 5f11 873c d7ef a73c 6c63 b23c
00000130: 5786 ad3b 1bb0 b4bc 2c6a 82bc b247 bebc
00000140: c67b b4ba e635 e53c 18f5 b4bc b647 163d
00000150: 62b0 e6bd 883e 333d ec8c 47bc 0b6b ccbc
00000160: 5579 c8bd 0f37 2cbb 65c1 d13c 0947 5b3d
00000170: c9fa 2e3d 9fae ecbc 9acb 10bc 7dfd 733d
00000180: 5170 9f3c fb37 4a3c 8627 a03c 9ea6 76bd
00000190: 44f6 123d b6f5 92bc e96b b8bc a89b 2d3c
000001a0: 2920 3fbd cbd4 b93c d2a7 8bbd 5f5c 88bd
000001b0: 1968 99bd 16ba f83c 85be 4bbd 1d49 7dbd
000001c0: 836f 353d 389a d2bc 1720 313d f493 01bd
000001d0: d739 a33c fea8 dcbb 42f5 683d b6e7 30bd
000001e0: e1a4 013d a5f5 343d 170e 183d a79c 3ebd
000001f0: f49e 0ebc bdbd 3fbd c55f e5bb 2276 18bd
00000200: 3f79 aa3c 9c4c 1a3d 0514 a6bc 128d 703b
00000210: 47db e83c c133 a53a a361 94bc 4ee9 a2bc
00000220: 8d0a 593c b1c8 ae3a 2db2 fd39 fafd af3b
00000230: b7e7 c3bb 9177 b6bb 8114 583d 03b3 4c3d
00000240: 9af5 a0bd 2a42 593b 195c 1fbd d192 5fbb
00000250: c99c 4abd c953 a7bd 4360 3d3d 4cd9 ad3d
00000260: 59d8 283d 1823 583d 7fed 023d 0918 8c3c
00000270: e407 973c d4a9 81bc 0a4f ab3a 375a e3bc
00000280: d0f0 093d e29c 66ba 65da 9cbc 876f 3f3c
00000290: 6c9e 693c bf51 bfbc 5e00 b0bb 33f5 4fbd
000002a0: 00dd 50bc b1a5 543d b77d e03c 0811 87bc
000002b0: 8105 823d 89e9 e03c 8205 e73a 7a7c febb
000002c0: a80a 733d c1ad 2e3d 1797 01bd 1a23 52bb
000002d0: d369 783b d1f0 3a3d 4922 603d 2f6d 073d
000002e0: a9fb a6bc f3f2 b5bd 8a0c 6cbc 82de eabc
000002f0: 1968 723d 076a 92bc cfe0 d3bd e776 eabd
00000300: 13e0 a0bc 8e08 6e3c adfb ae3d bac3 1abd
00000310: 3d47 0dbd 721f 163d a115 9d3c 275c c8bd
00000320: 0656 3a3c 66db 793d 8576 0bbb 3f44 b73d
00000330: b1c7 faba 606f 2e3a 7770 8e3d 95d1 823c
00000340: b743 f63b e34b c53c 8a93 da3b aaaa 243d
00000350: 51b7 173d 43c0 db3c 7aeb c9bb d1ba 463d
00000360: 910f 62bc 870f 193d 287c 5abd 3778 99bd
00000370: a487 403d 9045 283d 2202 503c 2eac d63c
00000380: e81d a63b 0728 fc3c 8c49 423d 8896 0bbd
00000390: 67cf dabc 12ec 43bc c8a2 623a 5e81 003d
000003a0: 8e4c a5bc e469 8abd 7d94 1a3d 5efe aa3b
000003b0: 567e fe3b 914f 4ebc 6c1d efbb 158d 993d
000003c0: e34b 623d dddd 743d 8cc8 c53c 9f8d d43c
000003d0: 94b4 883c 9c9f 8939 68d2 213d 8d9f 143d
000003e0: 7c82 24bc b4c8 cebd 4c65 7c3c 1d13 c13c
000003f0: 5520 893d ac70 bd3c 8692 c53d 6180 853b

parameterizer.cl_layers.3.bias f4 [20]
0.074471146 -0.01341694 -0.025354754 0.034351826 -0.01430314 0.036271606 0.044389565 -0.051403888
0.022583347 -0.025289115 0.05446414 -0.0015134341 -0.009000438 -0.019348262 -0.06363586 0.015050394
0.015475069 -0.0040849927 -0.02635381 -0.04804602
00000000: 5484 983d bad2 5bbc c6b4 cfbc 80b4 0c3d
00000010: b857 6abc 8991 143d d5d1 353d e28c 52bd
00000020: b600 b93c 1e2b cfbc ca15 5f3d 6c5e c6ba
00000030: 9376 13bc 3f80 9ebc 8553 82bd ee95 763c
00000040: 258b 7d3c 67db 85bb f2e3 d7bc e7cb 44bd

parameterizer.fc_layers.0.weight f4 [50, 320]
0.023550063 -0.04660253 0.010651699 -0.04452109 -0.026272232 0.09008845 0.0075332653 -0.01558606
-0.043203346 0.04177355 0.019593282 0.005693386 0.00020154321 -0.007193154 0.02496968 0.018778527
0.052260015 -0.0012579693 -0.028338712 -0.033267688 0.084838375 -0.019566106 0.033191815 0.043402806
0.043731544 -0.04413602 0.027333187 0.053727042 0.059915096 -0.015105422 -0.056951985 0.020758364
-0.055358186 0.02358613 -0.02639022 -0.026695885 -0.018850204 0.015170047 0.057452798 0.05846868
-0.017191717 0.027282946 0.01851865 0.017433994 -0.022680253 0.0055840164 0.02594716 0.059380792
0.061830737 0.03742167 0.016813409 0.12662318 0.16063944 -0.05702198 -0.019735886 0.062322486
0.15773909 -0.0032967008 -0.03838085 -0.014115776 0.03856784 -0.0153351575 -0.05533948 -0.011100751
0.019608106 0.020949557 -0.016179739 -0.02438879 0.029568717 -0.018081158 -0.022303324 -0.07667904
0.02624279 0.10613729 0.03581507 -0.00605865 0.00036968337 0.032296125 -0.019229136 -0.055710025
0.016948847 -0.019536968 -0.0152284205 -0.049256183 0.12078268 -0.0042723445 -0.074995175 -0.027056957
0.03028774 -0.04881383 0.0614142 0.067051984 0.019533271 0.003789412 0.08290146 0.13262905
-0.019110987 0.0023424234 0.014173444 0.06872531 0.020335732 -0.003791777 0.041288376 0.056669958
0.07143597 -0.010313057 -0.09186919 -0.005337631 0.032780353 -0.09799698 -0.005571504 0.0049104053
-0.03051299 -0.010566599 -0.036887974 0.014822578 0.0021661369 0.05917054 0.06188925 0.0434283
-0.023289537 -0.06821828 0.027873319 0.05065637 0.18553412 -0.047272276 -0.02112977 0.08987106
-0.0120446505 0.0071686693 0.00746922 0.029185224 -0.02882456 -0.059650093 0.1379809 -0.025657333
0.0036877603 0.018185776 0.061951008 -0.033956632 0.017642096 0.006721193 0.01986051 0.03718135
-0.021442808 -0.001798848 0.0056879446 0.0015626743 -0.057712488 0.01516746 0.04412126 0.08724074
-0.076108724 0.09250868 0.0856562 0.0287669 -0.018072508 -0.017896846 0.013011713 -0.0035233393
0.035903376 0.017199593 0.035708137 -0.013218882 -0.012448217 -0.008072673 -0.010809524 0.03233048
0.0032858308 -0.04592252 -0.03280071 0.13467541 0.013375047 -0.042981293 0.0418133 0.07024135
-0.0052519552 0.0030973854 -0.009426565 -0.016275076 -0.011739363 -0.044217784 0.0060036597 0.009599986
-0.05059077 0.053538136 -0.008710408 0.07223984 0.009887576 0.12572141 0.13863404 0.06477628
0.032214034 0.009516518 0.014226166 -0.00835368 -0.002399484 0.0054732817 0.034683414 -0.004811597
0.055601776 -0.042136658 -0.019317525 -0.030154452 -0.019811679 -0.034997202 0.056644976 -0.008473635
0.041470163 0.019739648 0.023584671 0.022972338 0.040064935 -0.032816563 0.032650482 0.016781349
0.09582492 0.06493625 0.030021105 -0.11754037 -0.018115724 0.0277475 -0.069560096 -0.03321962
0.050029486 0.0038676774 -0.021309167 0.018468695 -0.011702456 0.09762976 -0.009683333 0.08657929
0.026061544 -0.02772428 0.04220826 0.0720465 -0.043358374 -0.016720552 -0.025280496 0.034192134
-0.054801315 0.059041087 0.01508697 0.011355942 0.0004677066 0.07176586 -0.051086403 -0.025316216
-0.031761315 0.08422111 0.019691708 -0.056019347 -0.0017020479 -0.0004452159 0.053652026 0.010523386
00000000: 10ec c03c 4be2 3ebd 7784 2e3c bf5b 36bd
00000010: dd38 d7bc 4b80 b83d 9cd9 f63b ac5c 7fbc
00000020: fef5 30bd be1a 2b3d 1782 a03c 958f ba3b
00000030: 5855 5339 8db4 ebbb 378d cc3c 6dd5 993c
00000040: 990e 563d 72e2 a4ba 9626 e8bc b343 08bd
00000050: bebf ad3d 1949 a0bc 24f4 073d 24c7 313d
00000060: d91f 333d f9c7 34bd d9e9 df3c e310 5c3d
00000070: 8869 753d bb7c 77bc 7c46 69bd 720d aa3c
00000080: 44bf 62bd b337 c13c 4d30 d8bc 54b1 dabc
00000090: be6b 9abc ca8b 783c a053 6b3d db7c 6f3d
000000a0: a5d5 8cbc 7c80 df3c 6db4 973c bcd1 8e3c
000000b0: f0cb b9bc 20fa b63b 238f d43c 4639 733d
000000c0: 3a42 7d3d 7747 193d 46bc 893c 82a9 013e
000000d0: aa7e 243e e18f 69bd 27ad a1bc dd45 7f3d
000000e0: 5b86 213e 760d 58bb 3d35 1dbd db45 67bc
000000f0: 50f9 1d3d 5040 7bbc a7ab 62bd eddf 35bc
00000100: 2ea1 a03c 689e ab3c 5f8b 84bc 00cb c7bc
00000110: 183a f23c f01e 94bc 76b5 b6bc e709 9dbd
00000120: 1ffb d63c 825e d93d d3b2 123d a487 c6bb
00000130: 10d2 c139 f148 043d 6c86 9dbc 3230 64bd
00000140: 4fd8 8a3c fe0b a0bc a080 79bc dac0 49bd
00000150: e95c f73d 06ff 8bbb 1297 99bd 8da6 ddbc
00000160: ff1d f83c 03f1 47bd 758d 7b3d 8d52 893d
00000170: 3d04 a03c c957 783b 3ec8 a93d e9cf 073e
00000180: a58e 9cbc 5883 193b bc37 683c dbbf 8c3d
00000190: 1f97 a63c 767f 78bb 001e 293d c21e 683d
000001a0: 064d 923d 19f8 28bc ea25 bcbd 4be7 aebb
000001b0: b144 063d a4b2 c8bd 2a91 b6bb 77e7 a03b
000001c0: 61f6 f9bc 871f 2dbc d817 17bd 66da 723c
000001d0: bff5 0d3b cf5c 723d 957f 7d3d e0e1 313d
000001e0: b3c9 bebc 07b6 8bbd 9656 e43c 0e7d 4f3d
000001f0: a8fc 3d3e 93a0 41bd 5718 adbc 510e b83d
00000200: ed56 45bc 28e7 ea3b 5cc0 f43b da15 ef3c
00000210: 7c21 ecbc a853 74bd dd4a 0d3e 542f d2bc
00000220: 5aae 713b 56fa 943c 57c0 7d3d 1c16 0bbd
00000230: 2886 903c 743d dc3b 82b2 a23c 794b 183d
00000240: d4a8 afbc 53c7 ebba f061 ba3b a6d2 cc3a
00000250: ee63 6cbd f080 783c 7fb8 343d 46ab b23d
00000260: e4de 9bbd 3175 bd3d 856c af3d 90a8 eb3c
00000270: cc0c 94bc 689c 92bc 142f 553c d3e7 66bb
00000280: 6b0f 133d 29e6 8c3c b242 123d 0294 58bc
00000290: 9bf3 4bbc 3f43 04bc 6e1a 31bc f76c 043d
000002a0: 1857 573b 4119 3cbd 0a5a 06bd 5ae8 093e
000002b0: 0323 5b3c 270d 30bd 6c44 2b3d b2da 8f3d
000002c0: 9818 acbb 81fd 4a3b e171 1abc 4f53 85bc
000002d0: 7556 40bc b51d 35bd 59ba c43b 4249 1d3c
000002e0: 4438 4fbd ce4a 5b3d 19b6 0ebc 7bf2 933d
000002f0: 80ff 213c 1dbd 003e 15f6 0d3e 6da9 843d
00000300: ddf2 033d 2beb 1b3c dd14 693c e0dd 08bc
00000310: a940 1dbb 3759 b33b 3210 0e3d 9aaa 9dbb
00000320: b0be 633d 7d97 2cbd c93f 9ebc 7806 f7bc
00000330: 1a4c a2bc 3a59 0fbd 9004 683d 00d5 0abc
00000340: 9edc 293d 0bb5 a13c a434 c13c 7c30 bc3c
00000350: 211b 243d a96a 06bd 83bc 053d 0a79 893c
00000360: db3f c43d 4cfd 843d d2ee f53c 01b9 f0bd
00000370: 6d67 94bc ba4e e33c 8675 8ebd 4c11 08bd
00000380: b8eb 4c3d dc78 7d3b 9090 aebc a94b 973c
00000390: a8bb 3fbc 1df2 c73d d8a6 1ebc 7c50 b13d
000003a0: 057f d53c 071e e3bc 92e2 2c3d 1e8d 933d
000003b0: 8d98 31bd 8af9 88bc 0b19 cfbc 0d0d 0c3d
000003c0: 5877 60bd 11d5 713d 572f 773c 460e 3a3c
000003d0: 8436 f539 fbf9 923d fa3f 51bd f463 cfbc
000003e0: 2718 02bd 1e7c ac3d 8150 a13c 8b74 65bd
000003f0: 4017 dfba de6b e9b9 3ac2 5b3d 486a 2c3c
