results/OUR_MODEL/checkpoints/Epoch[12]-Step[3510].pt (torch, 374454 bytes, 66 tensors)

conceptizer.encoder.0.0.weight f4 [10, 1, 5, 5]
00000000: 18b4 42be 536f 0d3e c5fd 1c3e 13f0 a43d
00000010: 3600 f33d 8f07 bdbd 1e7b 9dbd 63ac e2bc
00000020: 8d69 163e 9ece 0fbd 985c 043e 98e3 943d
00000030: b14e 5fbe 31a3 e33d 7bb4 17bc 78df 363e
00000040: 3e4e 8f3d d015 f83d 89d0 bb3d 8a68 d43c
00000050: 4ccd 413e 0e30 08bd 3bae 6dbd 8da8 43bd
00000060: 6ecc 3f3e 2d08 4fbd 3887 2f3e 447e f0bd
00000070: 2d16 fdbd a809 ecbd 489a 303d f481 fdbb
00000080: ae95 38be 4bd2 b5bc 6231 23be eb91 163e
00000090: 3675 a4bd 11bc 62bd 74c9 44be 8e50 11be
000000a0: 2408 18be 19a0 883c 20b9 4abd 460c 083d
000000b0: 28e6 053b 8fe3 8f3d 4b6e 693d 506e cebd
000000c0: 17ba 51be cfa8 f33a 5bf7 23bd f524 45be
000000d0: bb0f a93d 9ff1 64bd d418 cabd 94be 1abe
000000e0: dd97 44be 7ffb 3abd 243e 61be 101e 10be
000000f0: 144b 85be 47cd c83d 4a72 eabd d5f1 5fbe
00000100: d472 54bd 0955 11be 76fd 94bd eb38 7abe
00000110: eec5 02be ce19 35be eb5e 203d 6efe 2dbd
00000120: 7668 c03b dc4f 0cbd 6350 20be a726 d2bd
00000130: 6526 e8bc b7b6 9e3d 7045 3abc 2a56 8bbc
00000140: f7c1 05be e516 debc f99f b9bd c60f 5a3b
00000150: b3b4 073e 9d7a 5abe 18f0 50be 534f 283d
00000160: 3b5a 29be 61d0 b23c 8ac6 a2bd 9e8f 11be
00000170: 4342 c8bc d29c cabd d3a2 1e3c bf02 94bd
00000180: d5c8 48bd 861f 60be c59e 13bd fcc9 2c3e
00000190: 0243 093e ad88 edbd e796 a93d 7c61 853d
000001a0: a004 0b3e 50c6 f83d 7e6d 17be b797 c5bc
000001b0: 5b45 953d a12e 77be 536d c63d aab0 243d
000001c0: 8008 56be 5e5b 73be 79bb e9bd 8364 953c
000001d0: 9db8 d4bd 6df1 ac3d 20a7 3ebe c2b5 863c
000001e0: 91b4 803d d349 1f3e 7fb6 89bd 74cc 18be
000001f0: 81e5 1d3d c3ce 053c a505 e53d 3eb3 883d
00000200: 529a fb3d ee2b dc3d 24c0 8dbd cfe2 fabd
00000210: d032 043e a06a 113e 6181 283d bc68 5d3e
00000220: cd90 7a3d 0155 853d 85d9 a4bd 858c d4bd
00000230: 3676 a3bd 637d 0f3e 548e 173e 0d06 723a
00000240: d49d 2fbe 27d9 f23d fb9c 373e 1519 a43d
00000250: 09ab d7bd 42db 3b3b cc35 1a3e b7d3 26be
00000260: 4e61 ad3d c7ef 213e 077e 423d d5f0 91bd
00000270: f39a 403e 173d 863c c073 4e3e c4ae 633e
00000280: 5f7f ddbd f4a9 cebc bdbd 31bd c64a 36bd
00000290: 0ff4 bfbd 0bf6 26be fd41 0e3e f6ce 3f3d
000002a0: 14c8 02be faa2 47be 5de6 0cbe a690 503c
000002b0: f0d1 70be 33be 0abd 8cc2 be3c 091b 37bd
000002c0: f87a 42bc c53a 38be c26d 2bbe fbaa 233e
000002d0: eacb 90bc 721e ccbd e92e 7c3d 2815 133d
000002e0: 5326 9cbd fb6a 5a3e 6108 7b3c 9c15 053e
000002f0: 2b75 443e 8507 8d3d b5fb 6b3e 7c2f 9ebd
00000300: ff25 853d 259c 4cbb 5982 80bc 00ef ea3c
00000310: a1eb 283e 2bb6 14be e411 263d 9a1d c23d
00000320: 65a6 fe3d 5a0a b13c 5f23 cb3d 9c4c 8b3d
00000330: 2110 0fbc 1928 da3d fc5b c13d 3127 d1bd
00000340: e3d9 06be d9e4 713e c17d 203e b31a e1bd
00000350: d635 bdbd 4e6f 21be 3a90 05be 2a7b 603d
00000360: d3b2 a13c c807 013e 9b75 3ebe de52 a73d
00000370: 9011 53be 3b73 f63d 26bb af3b f030 21bd
00000380: 1bde 4e3e 757e 9bbc e43d fe3d 9562 ef3d
00000390: c15f f83d 6a60 1b3d 4532 4fbd 09ef b93c
000003a0: b1e9 2f3e 92a2 6dbc fccd e93d a6cd 233e
000003b0: 2bee 1b3e 22e4 3e3e 2ee8 b0bd 27e0 ef3d
000003c0: 2dee 033c b587 033e 4bdc 69bd 5ee1 e2bd
000003d0: 3636 cb3d 64d4 c3bc e78a 293a 3723 413e
000003e0: cc21 553e 60ab ac3d
-0.19014013 0.13811998 0.1533118 0.08053603 0.118652746 -0.09229957 -0.07689498 -0.027670091
0.14688702 -0.035109155 0.12925947 0.072699726 -0.21807362 0.11115111 -0.0092593385 0.17858684
0.069973454 0.121135354 0.09170634 0.025928754 0.18925971 -0.033248954 -0.058027487 -0.047768164
0.18730327 -0.050544906 0.17141426 -0.11742833 -0.12357745 -0.11525279 0.043115884 -0.007736439
-0.18025848 -0.022195002 -0.15936807 0.14704101 -0.08030169 -0.055355135 -0.19217473 -0.14190885
-0.14846855 0.016677903 -0.049492955 0.03321483 0.0020431373 0.07025825 0.05698995 -0.10079634
-0.20481144 0.0018589738 -0.04003082 -0.19252379 0.082549535 -0.05589449 -0.09868017 -0.15111762
-0.19198556 -0.04565 -0.21996361 -0.14073968 -0.26033843 0.098047785 -0.1144758 -0.21869595
-0.05186732 -0.14192595 -0.07274906 -0.24435775 -0.12770817 -0.17685625 0.03915302 -0.04247897
0.0058718277 -0.034255847 -0.15655665 -0.102612786 -0.02833862 0.07749694 -0.011369094 -0.01700886
-0.13062273 -0.027110526 -0.090637155 0.0033273562 0.13252525 -0.21335836 -0.20404088 0.041091274
-0.16538326 0.021827878 -0.079480246 -0.14214942 -0.024445659 -0.09893192 0.009682375 -0.07227086
-0.049019653 -0.21887025 -0.036040086 0.16873926 0.13404468 -0.115983345 0.082807355 0.06512734
0.13575983 0.121472 -0.14787862 -0.024120195 0.07288619 -0.24138881 0.09688821 0.040207542
-0.2090168 -0.23765323 -0.11412711 0.018236404 -0.10386775 0.08444486 -0.1861844 0.01644409
0.0628444 0.15555505 -0.067242615 -0.14921743 0.03854895 0.008166972 0.11182717 0.06674813
0.12285294 0.107505664 -0.069214135 -0.122502916 0.12910008 0.1420083 0.04113901 0.21621984
0.06117325 0.06510354 -0.08049301 -0.103783645 -0.07981531 0.14012675 0.14800388 0.0009232469
-0.1715005 0.11857825 0.17930977 0.080125965 -0.10530669 0.0028664623 0.15059584 -0.162917
0.08465825 0.15814124 0.04748347 -0.07126013 0.18809108 0.016386552 0.20161343 0.22234637
-0.1081531 -0.025227524 -0.04339384 -0.044504903 -0.09372722 -0.16304795 0.1389236 0.046828233
-0.12771636 -0.19495764 -0.13759752 0.012729799 -0.23517585 -0.033872794 0.023286127 -0.044703517
-0.011870138 -0.17991169 -0.16741088 0.15983193 -0.017675359 -0.099667445 0.061568175 0.035908848
-0.07624497 0.21329872 0.015321822 0.12996525 0.19185321 0.068862 0.23045237 -0.07723901
0.06501388 -0.0031221 -0.015687155 0.028678417 0.16496135 -0.14522617 0.040544406 0.09478302
0.12434081 0.021611381 0.09918856 0.068017215 -0.008731873 0.10652179 0.09441373 -0.10212553
-0.13169055 0.23622455 0.15672971 -0.109914206 -0.09238784 -0.15765116 -0.130433 0.05480496
0.01973859 0.12600625 -0.1859955 0.081701025 -0.20612168 0.12033697 0.005362886 -0.03935331
0.20201914 -0.018981198 0.124141484 0.11688725 0.121276386 0.037933744 -0.05058505 0.022696989
0.1717899 -0.014504092 0.114162415 0.15996417 0.15227573 0.18641713 -0.08638035 0.117126755
0.008052391 0.12844737 -0.057094853 -0.11078142 0.09922449 -0.023904987 0.00064675364 0.1886109
0.20813674 0.08431125

conceptizer.encoder.0.0.bias f4 [10]
00000000: c528 543d 62c2 213e 32d9 6f3e 3260 00bd
00000010: 2a73 573e 0d80 ad3d 753b 14bd 08a5 f5bc
00000020: 2191 103e a6ba 063e
0.051796693 0.15796807 0.23422697 -0.03134174 0.21040025 0.084716894 -0.036189515 -0.02998592
0.14117862 0.13157138

conceptizer.encoder.1.0.weight f4 [5, 10, 5, 5]
00000000: fcc3 9c3c 1e57 db3b ba98 893c 08e0 0d3d
00000010: b99f 7ebd 3f51 033d 5f64 0c3d adaa f23c
00000020: cc95 06bd 9f1d a33d 873d d4bc 56c8 7f3d
00000030: d8da 20bd ea84 153c 50ec 18bd 1647 e43c
00000040: 30f6 dc3c d61b 203d a3cb 48bc ea7a e83c
00000050: c480 c6bb 451e 51bd 360e 883c ab81 853c
00000060: 8330 603c 3b77 6b3d f3aa 223d 4cbd 023d
00000070: 2dd7 903a c9ba 4eba 0090 573d 9a4b 43bb
00000080: 63f7 5cbd 1737 8f3c aecf 013c 278a 5a3d
00000090: 9f22 d0bb 88f5 b33c 583a a3bc 97b1 32bd
000000a0: 7158 f1bc 0bb1 b9bc 680d 1cbd 7101 803d
000000b0: 704b 1a3d 4722 bc3c 423f a73d 0294 87bc
000000c0: 1714 adbc 5fd6 0cbd 2478 12bd d9ed b9bc
000000d0: 16cc 22bc fb50 b6bc edb2 08bc eb34 98bd
000000e0: 2722 37bd a3b2 943c d630 0cbd 2b6c 933d
000000f0: f743 763d 769d 163d f17b 533c a081 e7bb
00000100: 019d 61bc 3a5e 663d 6e63 b0b7 2fa0 b9bc
00000110: 5e0a 183d e78f 23bd 6d14 b13d dd90 603c
00000120: 9314 843d 7ee2 613d 514e 6f3c 4a59 22bd
00000130: 88ce 69bd 391c 1cbd 538f 2e3c 0a66 903c
00000140: cbfc 583d 219d db3c 0802 72bd 9684 153d
00000150: a486 2c3d 2751 a93d 17fe 353d d34d 2cbd
00000160: 9c4a 8d3c d7c1 11bc 59fa cebc 4305 7cbc
00000170: 7aae 45bb 6d01 213d 541c e13c 0e40 443c
00000180: 4781 9bba c3ca 6e3d 8f85 a83d 28c4 753d
00000190: 3fea 9e3d 82d8 863c da1f fdbb 4015 a0bc
000001a0: 959a 6bbd 9fca e53b 654f c63b 3506 493b
000001b0: 997b ab3c 61e6 3e3c 049f 933d cb46 dbbc
000001c0: c58e 973d 7b28 b9bc feb3 4ebd b8ca bb3a
000001d0: 2e9f 7d3d d8d5 dd3c c135 b73c 810c 603d
000001e0: f33d 64bd 0a28 773a 5575 173d 0fc5 413c
000001f0: 4a7f 753b 33e2 933d 0ee9 863d e7af 71bd
00000200: a652 1dbd 5da5 fcbb 57cc a5bc 55e3 0a3d
00000210: af40 dabb 3e2f cc3c 2832 bc3c 837d e9bc
00000220: 2cb5 e33c 21ff 6a3d 01e8 de3c ceed 653d
00000230: df3f acbb e36b 2bbd 3855 153d bf3a 00bd
00000240: 5f95 a1bc c1ec 44bd b7e0 543c 842b 3cbd
00000250: e919 4cbd e8b8 c8bc c237 6c3d e38c 253d
00000260: b824 b0bc 40ef 53bd 6aa1 82bd 66e3 863d
00000270: 1e34 873d 7044 aabc 4334 5cbd 15c6 b5bc
00000280: 0f97 003d 0718 113d df80 233c cdb2 67bc
00000290: 3fc7 803d be8a 8a3d b5ee 96bc 7911 c6bb
000002a0: a5e3 0dbc 33d9 453c 677e a33c 9451 383d
000002b0: 97a2 b23d 78ff 3a3d 6259 663d e23e 5cbc
000002c0: 8591 03bd 56e4 513d 067e 923d 240f 813d
000002d0: b845 233d 3293 803d e56f 62bd 2702 023b
000002e0: 60ab b8bc 86a6 3d3d 03ae ebbc 93c3 4ebd
000002f0: 5a0b 47bb babf 8a3d 54a5 813a e793 183d
00000300: 9c44 32bc b630 543d 43c0 183d 7089 e43c
00000310: 8812 18bc d277 22bd 1c77 623d 7021 1b3d
00000320: e48c 2cbd 4802 a63d 7cfb 4ebb 5809 43bd
00000330: 31f7 aebb afd2 173d be80 903d e894 263d
00000340: f71d 0b3c dd3c 703d 37ce 623d b317 c4bc
00000350: d350 3dbd a285 c23c 55b4 093b efc1 e63c
00000360: d4ae 893d 1b7e 153d a74c bcbb 5968 633d
00000370: 3676 a5bd d9ca 2f3d a5d2 cdbc ba5b 48b8
00000380: 920f 043d aee9 0f3d ea2b 40bd 6add f2bc
00000390: f847 483d 57af c03c 505e 2c3d b400 6a3d
000003a0: a2ee 993c 4aef 28bd 19ba 5f3c 9af1 bc3c
000003b0: 81f5 7b3d 7bcd 1abd 9dd3 d03c 6ba5 f1bc
000003c0: a792 233d ce08 c4bb 6c59 aebc c13a 42bd
000003d0: 4150 423d c912 ddbc 96ea 7bbd e3ae 243c
000003e0: 41d0 4c3d 442a d6bc 9a28 d43c 1ab7 853d
000003f0: 27ba 0f3d ee07 593d 76cd 883b 6e38 263d
0.019136421 0.006693735 0.016796459 0.03463748 -0.062164042 0.032059904 0.03427541 0.0296224
-0.0328577 0.07964634 -0.025908245 0.062446915 -0.039271206 0.009125927 -0.03733474 0.027865928
0.02697286 0.039089046 -0.012255582 0.028378922 -0.0060578305 -0.051054258 0.016608339 0.016297182
0.013683441 0.057486754 0.03971381 0.03191881 0.0011050456 -0.00078861095 0.052627563 -0.00297997
-0.053946864 0.017482324 0.00792305 0.05335441 -0.0063517834 0.021967664 -0.019925281 -0.043626394
-0.029461117 -0.022667428 -0.038098723 0.06250275 0.0376696 0.022965563 0.08166362 -0.016550068
-0.021127744 -0.034384128 -0.035759106 -0.022696422 -0.009936353 -0.022255411 -0.0083434405 -0.07431968
-0.044710305 0.018151587 -0.03422626 0.07198366 0.06012341 0.03677126 0.012907968 -0.007065013
-0.013770343 0.056242205 -2.1027136e-05 -0.02265939 0.037119262 -0.039932158 0.08646474 0.013706413
0.06449237 0.05514764 0.014606074 -0.039635934 -0.05708173 -0.038112853 0.010654288 0.017626781
0.052975457 0.026808323 -0.05908397 0.036503397 0.04212059 0.08267432 0.044431772 -0.042066406
0.01724749 -0.008896313 -0.02526586 -0.015382114 -0.003016381 0.039308 0.027479328 0.011978162
-0.0011864089 0.058298837 0.08228599 0.060001522 0.07759523 0.01646066 -0.0077247443 -0.019541383
-0.057520468 0.0070126797 0.006051945 0.0030673866 0.02093296 0.011651606 0.07208064 -0.026767155
0.07400278 -0.02260231 -0.050464623 0.0014327383 0.061919384 0.027079508 0.022364499 0.054699425
-0.055723142 0.00094282685 0.03697713 0.011826768 0.0037459903 0.072208785 0.065874204 -0.059005644
-0.038408898 -0.0077101425 -0.020239038 0.033908207 -0.006660543 0.02492487 0.022973135 -0.028502231
0.02779635 0.057372216 0.027210237 0.05613499 -0.0052566375 -0.041850936 0.036458224 -0.031306025
-0.019724546 -0.04807735 0.012993029 -0.045939937 -0.049829397 -0.024502233 0.057670362 0.040417563
-0.021501884 -0.05174184 -0.063784435 0.065863416 0.066017374 -0.020784587 -0.05376078 -0.02218918
0.03139406 0.035423305 0.009979456 -0.0141417505 0.06288003 0.06764744 -0.018424371 -0.0060445634
-0.008660232 0.01207571 0.019957734 0.044999674 0.08722418 0.04565379 0.056237586 -0.013442727
-0.0321212 0.05124315 0.07152943 0.06301716 0.03986141 0.06278075 -0.055282492 0.0019837709
-0.022542655 0.046301387 -0.028769499 -0.050479483 -0.0030371756 0.0677485 0.000989119 0.037250426
-0.010880616 0.051804267 0.03729273 0.027897567 -0.009281762 -0.03966505 0.055289373 0.037873685
-0.04212655 0.08105904 -0.0031583002 -0.047616333 -0.005339526 0.037066158 0.070558056 0.04066935
0.008491031 0.058651794 0.055372443 -0.023937082 -0.046219658 0.023745362 0.0021012027 0.028168647
0.06722799 0.036497217 -0.0057464424 0.055519436 -0.080791876 0.04291806 -0.025124857 -4.7769143e-05
0.03224141 0.035134964 -0.04691688 -0.029646594 0.04889676 0.023521109 0.04208213 0.057129577
0.018790547 -0.04124383 0.013655209 0.023064423 0.061513428 -0.037793618 0.02549153 -0.029497823
0.03993478 -0.005982495 -0.021282874 -0.047419313 0.047439817 -0.026986497 -0.061503015 0.010051462
0.050003294 -0.0261432 0.025898267 0.065290645 0.035089638 0.052986078 0.0041748835 0.04058116

conceptizer.encoder.1.0.bias f4 [5]
00000000: 40f9 91bc c7bd f03c 0c36 8f3c 3244 f439
00000010: bcdb 593d
-0.017819047 0.029387368 0.017481826 0.00046590116 0.05318807

conceptizer.encoder.2.layers.0.weight f4 [1, 16]
00000000: 6c45 483b 761a febd 8bfc 95bd e017 3abe
00000010: 80cc ff3d e0fa 173e 4198 093e ca39 1cbe
00000020: 89ee 1dbe d6c9 44be 2880 45be e243 6dbe
00000030: b1a5 fe3c 1bd8 51be ed55 47be 89f0 bf3d
0.0030558957 -0.12407391 -0.073235594 -0.1817317 0.12490177 0.14841795 0.13436987 -0.1525642
-0.15423025 -0.1921762 -0.19287169 -0.23170426 0.031084867 -0.20492594 -0.19466372 0.0937205

conceptizer.encoder.2.layers.1.weight f4 [1, 16]
00000000: ea5a 8d3e 0623 b0bd 96d4 93ba bd3d d83b
00000010: af59 17be 5b49 bf3d f5ad ecbc d692 733e
00000020: fe18 bbbc a138 e9bd 2f9c 2a3e e62f 133e
00000030: 043f 123e 3019 9b3d c446 543e b80a 9b3e
0.27608424 -0.0860043 -0.0011278566 0.0065991567 -0.14780305 0.09340163 -0.028891543 0.23786482
-0.022839066 -0.11387754 0.16661142 0.1437374 0.14281851 0.075731635 0.2073012 0.30281615

conceptizer.encoder.2.layers.2.weight f4 [1, 16]
00000000: 8467 7fbe be95 3e3e e82f 2f3e db19 bf3b
00000010: beeb b63d 92c2 c2bd df19 f53d 38fe 30be
00000020: 7857 8abe f8b9 11be 26da 5f3d 79b7 15bd
00000030: c6c4 4ebe e559 1e3d b517 053d 9a19 ca3d
-0.24941832 0.1861181 0.17108119 0.0058319396 0.08931683 -0.095097676 0.11967825 -0.17284477
-0.27019858 -0.14231098 0.054651402 -0.036551926 -0.2019225 0.03865995 0.032493312 0.09868164

conceptizer.encoder.2.layers.3.weight f4 [1, 16]
00000000: b900 4e3e b9d4 1b3e c3e3 653c 2526 783e
00000010: d433 05bd 2678 013e 918c e63d a557 013e
00000020: eb93 0fbe 1bea 433e 56fb dabd 2ced a83d
00000030: e595 103e 98ba fbbd 9277 05be e75e b3bd
0.20117463 0.15217866 0.014031353 0.24233301 -0.03252013 0.12643489 0.1125728 0.1263109
-0.1402127 0.19132273 -0.1069247 0.08248362 0.1411968 -0.12291449 -0.13033894 -0.087583356

conceptizer.encoder.2.layers.4.weight f4 [1, 16]
00000000: e7b3 eb3d 3373 34be e32d 03bc 6662 81ba
00000010: af35 84be 3e44 abbd 1f58 e93d bbdb 06be
00000020: a2e8 f2bd 2750 3abe b58f 4cbe 81b5 6ebd
00000030: cd9a c63d 8698 493e 3b53 573d 4762 a1bd
0.11508923 -0.1762207 -0.008006546 -0.0009871244 -0.25822207 -0.083626255 0.11393761 -0.13169758
-0.118607774 -0.18194638 -0.19976695 -0.058278564 0.09697495 0.1968709 0.05256961 -0.07880073

conceptizer.decoder.0.0.weight f4 [5, 16, 5, 5]
00000000: 18b8 c6bb 78c4 92bc 65f3 98bc 8cea 983c
00000010: 850f ac3d f95f 673d b6ab 74bc 042c 85bd
00000020: 1248 bebd 664c 913c 0c94 473a 2ef8 bc3d
00000030: 2a96 d43d f9d8 ecbd 6add ddbc 6b01 97bd
00000040: cc56 7d3d ab2f bebd 26a2 cdbd 400f dabb
00000050: 6d4c db3d 1fb7 093c 6d71 bd3d 090b 1fbe
00000060: b2e0 cfbd 90ef f93b 9707 633d 058b 213d
00000070: 25fa 493c c9e2 52bb 5f9d 9dbc 471c 6d3d
00000080: ba55 d8bc 5932 a33c a053 de3c bfcc c6bd
00000090: 1d01 c5bd 8a03 f8bb 0fba 25bd 37eb d23c
000000a0: a171 2ebe 8343 6fbd f8bb 223d 4f9a 5c3d
000000b0: 5a5b 733d c724 8dbd c6dd 803c e040 5c3b
000000c0: d65a d0bd 9cba b23d 0e96 033e abba c4bd
000000d0: 6ce1 ab3d 0c96 173d c1fb 6a3d 71b1 3fbd
000000e0: 0771 b63d aee4 553d 6a63 9f3d 8611 96bc
000000f0: 52b9 0fbd a2a3 d73d 7e2a 9e3c 4e19 023b
00000100: 645b 7fbd 1f44 cc3d 5f0c 413c fd4e 83bb
00000110: aec7 1bbd 2a8a f4bc 97a8 b5bc cdcd f23a
00000120: 448b 9dbd 2d84 c13d aacb e0bd ce29 76bc
00000130: e2c4 0fbe b87f d2bd 284c 6b3c 7817 4a3d
00000140: af96 c83d ba91 fb3d 1119 81bd ee11 e7bd
00000150: 1740 943b a428 673e 3199 133d 277f f13c
00000160: be16 783c 21f3 823d 9434 573d 7cc9 0e3a
00000170: 8a3b a03c 86db a93d 8e9f ea3c 195b b7bd
00000180: e34a a93c 9626 173e 6cce d53d c116 d93d
00000190: 466e eb3d f668 3bbd 72a4 c2bd 651e bfbd
000001a0: fdcd a03c 60e9 663c 67e3 6a3d 40be b63d
000001b0: 4157 663c 45e7 d4bd 71df 833d 3b25 3d3e
000001c0: f664 b1bc e41a 233d 3024 88bd a1d8 633b
000001d0: 8a21 853d a2d3 ae3d ee51 e53d 94cd 02bd
000001e0: 8b38 58bd 21b1 4c3d 414d 25bd 23c4 053e
000001f0: 7e15 c73b d84e 30bc 071c 913b bd72 27bd
00000200: c6d6 4ebd 7768 7fbd 4037 dbbd eff8 1cbe
00000210: f872 9d3c 9608 73bc e73f c0bd d84d 833b
00000220: afd7 d7bd f9b8 dfbc 6419 4e3d 5e55 ab3b
00000230: 011f 21bd 2470 61bd 8768 a0bd 88ef 54bd
00000240: 591c b73d 4f5f 803d b4c9 b3bd c6a4 e13d
00000250: d73f 7d3b e79d 9b3c 4365 713d 65f0 edbd
00000260: 0adc dabd caa6 45bc 328a c53d acaf a7bc
00000270: d780 b2bd b547 9dbc c0fd 9ebd 6365 4abd
00000280: d9b0 9ebc 75b4 f5bd 2140 073d 24d8 53bd
00000290: 08e9 b2bd 568d 093d cc51 e9bd 1d4c b4bd
000002a0: 39ed d0bc cbd5 5abd fe5c d8bc aff5 85bd
000002b0: b81f 893d 5b3b 11be 8156 d2bc 080b 803d
000002c0: 12f0 f63c 8aaf 77bc 2f38 7b3d e52a 713d
000002d0: fdf1 003c fea7 ff3d ebd3 8dbd 0aea a5ba
000002e0: b3b0 203c bf41 8d3d 525b 9fbd c1af febc
000002f0: e6bb babb 6064 fbbd 2f60 af3d d688 863d
00000300: 113c 8dbd 2f7a 32bd 9bd6 92bd ed54 0c3c
00000310: 18dc a7bd f4bc cc3b c276 0a3d ebb0 91bd
00000320: 64ea 683d 74fe 12bd 313d 6abc 1037 e4bd
00000330: 185d 7f3d c43c 363d 1424 ddbd 12f2 c23c
00000340: 2759 113c b8b7 523d e531 8fbb 9f83 cc3c
00000350: 3f64 023d 9a45 86bd 6324 313d 35d0 b53a
00000360: 1eb0 ddbd 1539 92bc 3e9f 61bd 9e54 aa3d
00000370: b8d2 2fbd 0630 f93b 5908 44bd 907f 5bbc
00000380: c878 9e3d 1c83 11be daa9 ee3b b3c0 ac3d
00000390: 28e6 dc3d 13b4 aebd dfec 34b9 cbaf a63d
000003a0: 25b9 eb3d 0627 e0bd 64ab fc3c 2c7b ba3c
000003b0: 67e7 103d 83d5 3c3d 2c6f d93c ae19 1ebd
000003c0: 9be2 40bd 3130 9cba c8e9 e73d d951 00bc
000003d0: e047 9ebd 71a0 743d 2af5 b93d f7a6 5e3d
000003e0: 8594 673d 3702 1abe 10bf 4ebd 6074 f4bb
000003f0: cbf6 1f3d 2bdb aebd 0891 28bc 5a01 72be
-0.006064426 -0.01791595 -0.018670747 0.018666528 0.084013976 0.05648801 -0.014933517 -0.06502536
-0.0929109 0.017736625 0.0007613308 0.09227024 0.10380204 -0.11564822 -0.027083118 -0.07373317
0.061850354 -0.09286436 -0.10040693 -0.00665465 0.107079364 0.008405476 0.0925015 -0.15531553
-0.10150279 0.007627435 0.05542716 0.03943922 0.0123277055 -0.0032178632 -0.01924008 0.057888296
-0.026408065 0.019921469 0.027139485 -0.09707021 -0.09619353 -0.0075687813 -0.040460642 0.025746925
-0.17035533 -0.058413994 0.039730042 0.053858098 0.05941329 -0.0689178 0.01573075 0.0033608004
-0.101735756 0.08726999 0.1285021 -0.096059166 0.08392605 0.03700833 0.057368997 -0.04680008
0.08908277 0.05222004 0.077826336 -0.018318903 -0.035088845 0.10529257 0.019307371 0.0019851509
-0.062343016 0.099739306 0.011782735 -0.004007219 -0.038032226 -0.029851038 -0.022175116 0.0018524468
-0.076925784 0.09449039 -0.10976346 -0.015024615 -0.14039949 -0.10278267 0.014361419 0.049338788
0.097943656 0.122836545 -0.06303609 -0.11282717 0.0045242417 0.22574097 0.036034767 0.029479576
0.015142141 0.063940294 0.052540377 0.00054468936 0.01955964 0.08293824 0.028640535 -0.089529224
0.020665592 0.14760813 0.104397625 0.10600043 0.11495642 -0.045754395 -0.09504022 -0.09331969
0.019629473 0.014093727 0.057345774 0.08923006 0.014058889 -0.10395674 0.064391024 0.18471234
-0.021654587 0.039820567 -0.06647527 0.0034766572 0.06500538 0.085364595 0.111972675 -0.031934336
-0.0527883 0.04997361 -0.04035688 0.13063101 0.00607556 -0.010760985 0.00442839 -0.040880907
-0.050497793 -0.062355485 -0.107038975 -0.15329336 0.01921986 -0.01483359 -0.093871884 0.0040070824
-0.10539185 -0.027309882 0.050317183 0.0052286824 -0.03933621 -0.055038586 -0.07832437 -0.051986247
0.08940954 0.06268179 -0.08778706 0.11017756 0.0038642788 0.018996192 0.05893446 -0.11618117
-0.106865 -0.012063691 0.09645499 -0.020469509 -0.087159805 -0.019199232 -0.07763243 -0.049413096
-0.019371437 -0.1199731 0.033020142 -0.0517198 -0.087358534 0.033582054 -0.11392555 -0.0880358
-0.025503742 -0.053426545 -0.02641153 -0.06541001 0.06695503 -0.14182799 -0.025676014 0.06252104
0.030143771 -0.015117535 0.061332878 0.058878798 0.0078701945 0.12483214 -0.06925186 -0.001265825
0.009807753 0.06897306 -0.0778109 -0.031089665 -0.005698669 -0.122750044 0.085632674 0.06569068
-0.068962224 -0.043573555 -0.07169839 0.00856517 -0.081962764 0.006248111 0.033804663 -0.071138225
0.056864157 -0.035887197 -0.014296816 -0.11143315 0.06234464 0.044491544 -0.10797897 0.023797069
0.008871353 0.05144474 -0.0043699616 0.024965106 0.031833883 -0.06556244 0.04324759 0.0013871255
-0.10824607 -0.017849484 -0.055083506 0.08316921 -0.042925566 0.007604602 -0.047859523 -0.0133971125
0.07737881 -0.1421017 0.0072834315 0.08435192 0.10786086 -0.0853044 -0.00017254379 0.081389986
0.11509923 -0.10944943 0.030843444 0.022763811 0.035376932 0.04610206 0.026542269 -0.03859871
-0.047091108 -0.0011916218 0.11323887 -0.007832014 -0.07728553 0.05972332 0.090799645 0.05435845
0.056538124 -0.15039907 -0.05047518 -0.007460162 0.03905372 -0.08537897 -0.010288484 -0.23633328

conceptizer.decoder.0.0.bias f4 [16]
00000000: ba3a 08be 9e38 edbc d4a6 143d 2025 a03d
00000010: 130f 89ba c96b 9e3d a160 12bd 5eb4 583d
00000020: b9da b6bb 39ec e23c 0dac a4bc 622b a6bd
00000030: 3515 bb3c 1389 0cbe ec0e 25bd 16bf f6bd
-0.13303652 -0.028957661 0.036291912 0.07819581 -0.0010456763 0.07735402 -0.035736684 0.052906387
-0.005580273 0.02770053 -0.020101571 -0.08113743 0.02283726 -0.13724165 -0.040297434 -0.120481655

conceptizer.decoder.2.0.weight f4 [16, 8, 5, 5]
00000000: 21f7 bebd 83a4 39be 34f7 8dbc e182 b83d
00000010: c05e 8f3d cefa 20bd 0eab 7c3c 38c1 073e
00000020: f9b2 a23d d237 a13d 3c84 073d 5fa1 0b3e
00000030: bc29 103e 9252 b83d 8365 2d3b 8d0a db3d
00000040: 23bd 093e 6ca9 0b3e dce5 0f3d 48a0 12bd
00000050: b84b 193d 94c5 2f3d 641f cd3d 03a1 c43c
00000060: 2601 a93c 6285 a23b 8bb9 d1bd a2c9 94bd
00000070: 1ad2 4f3d cd48 a03d f8d4 8d3d 9b29 5fbd
00000080: 8b09 00bd 44d5 0e3e 9bc0 ba3d 7794 4d3d
00000090: 1a5d 8a3d bea0 a23d 00b3 133e 6db3 ae3d
000000a0: 5d98 033d b364 c93d afcc 3d3e fad2 513e
000000b0: 0134 f03d f4af 8a3d 5390 d23d 65b5 233e
000000c0: 8d85 653d bafc 343d 4d82 3b3d e1e3 24bb
000000d0: 37f3 0abe cfef 57bc 6b9a a83d 134d 9dbd
000000e0: 2a57 debc b9f8 14be 1060 a5ba 9708 043e
000000f0: 538e a73c dfde a23b cdff 00bd 6078 133e
00000100: 0750 9a3d 8e06 a83d 8127 0a3e f50f f43d
00000110: a357 e83d 6f61 743d 3d47 cd3d 93ab 403d
00000120: 0ddb 0c3e 190f cd3d 402b 913d 3a20 14be
00000130: af3d 0f3e 076e 363e 880b d93c a3d0 d73c
00000140: f38d 553c 7d3d b23c 4e6a 1f3e d95a 5a3d
00000150: e764 a93d e5d6 cebd 61f1 0abe ca53 eabc
00000160: e783 65bd 7efb db3c 6d78 bbbd 326d 2abe
00000170: ba65 0bbe ff09 983d 233e 353d b924 0b3e
00000180: 20c9 83bd 43ba 92bd dae1 8d3d c0b7 0a3d
00000190: e496 333c bfa5 ea3c 39b6 b63d 00cf 113d
000001a0: fe46 f53b 7b70 153e 3e86 543e 22ee 563e
000001b0: 20d4 ce3a 125e da3c 79d6 d73c 879f 9a3d
000001c0: 98f2 4b3d 7417 8cbd bcfd 9ebd 957a e6bd
000001d0: bd6b 1cbe e4c7 05be 1306 85be f851 f9bd
000001e0: 5dea 05bd aeb8 ecbd 46e8 55be 9978 fabd
000001f0: 8b95 95bd 969a c53d d151 823e 74ad a43e
00000200: a40a 89bb 34fe 51bd a3aa 0a3e 7c01 2b3e
00000210: 6df3 123e b9ed 5cbe 6256 49be 02cd 84bd
00000220: 32b6 82bd 5147 ffbd 20c8 82be 82c7 20be
00000230: 188d 71bd 86dd 19be 0294 52be d659 a7be
00000240: ba59 22be 1ff6 8d3d ab09 bbbd f881 bebd
00000250: 6c86 c1bd e7b7 923c 8e9f ac3d 1424 1c3e
00000260: 7a00 cd3d 00ad 85bd 2ada 3cbd 1b18 af3d
00000270: 9dab f93d 6d82 7d3d 25ea 38be 3801 89bd
00000280: f679 4dbd 5bd3 98bd 4c03 3ebe bfb5 94be
00000290: f795 a7bd 9626 b1bd 6bff 3cbe 3134 8dbe
000002a0: a3d5 a6be 39a9 e03c 468f 8abd 5850 2ebe
000002b0: ea92 2bbe 78d6 dcbd bffd ee3d 9636 943c
000002c0: c79f 1abc 4eec 6ebc b8ec 0bbe f661 5a3c
000002d0: 9683 03be 5957 f2bb 75bb f5bd 0df0 b3bd
000002e0: 5046 733d 5207 1dbe 480b f23c 634d 7c3d
000002f0: fbf0 213d 85d3 d43d 1dfa d6bc 86a1 3cbd
00000300: 3807 e33d d3f3 433e eef1 7b3d 1dc2 e8bc
00000310: a304 bc3c 55e8 8f3d 2a51 bf3d f52d 083d
00000320: 4479 31bd b6d5 083d e715 c2bb 985f 8d3d
00000330: f64a 71bd b2f6 eb3d d9c2 bd3d ef55 063d
00000340: b14a 69bc f5a5 37bb 4b4c 2f3e 4086 8d3d
00000350: fbe9 36bc 74ac 2d3d 300a d33c 3a42 a83d
00000360: ef07 b3bc b68c 1dbb f1b8 b2bd fece 4f3d
00000370: c280 59bc e861 12bd 1d61 cebb 0f2b c03b
00000380: 22a0 c73c 0196 053d c0e6 803d bc8d 0e3d
00000390: 54d2 413d 6b1e 373c da30 f7bb 3d2c d83d
000003a0: c171 a23c 0ae1 aa3d 4d50 fcbb a2f5 013e
000003b0: 3ffa 263e 4f18 b23d d8c9 eb3d c2b4 483d
000003c0: 97e6 073e d5ed e33d 602d d9ba 673b b2bc
000003d0: 41a0 a43d 3300 883c b51b a7bc 7cda c8bb
000003e0: e5e2 863d d480 f83c 3fb8 22bd b767 cebc
000003f0: f4d8 9dbc eb7d 733d 9a43 e8bc 321b 2b3c
-0.0932448 -0.18129162 -0.01732979 0.09009338 0.07000494 -0.039301686 0.015421642 0.13257301
0.079442926 0.07871975 0.033085093 0.13635777 0.1407842 0.09000124 0.002645821 0.10695372
0.13451056 0.13638848 0.03513132 -0.035797387 0.037425727 0.042913035 0.10015753 0.024002558
0.02063043 0.004959748 -0.10240468 -0.07265021 0.050737478 0.07826386 0.06925386 -0.054483037
-0.0312591 0.13948542 0.09118768 0.050190415 0.06756039 0.079408154 0.14423752 0.085303165
0.032127727 0.0983366 0.18535112 0.20490637 0.11728669 0.06771842 0.10281434 0.15987165
0.056035567 0.04418633 0.04577856 -0.002516024 -0.13569342 -0.013179733 0.08232578 -0.07680716
-0.027141172 -0.14548005 -0.001261713 0.12893902 0.020453608 0.004970416 -0.03149395 0.14401388
0.07534795 0.08204375 0.13491632 0.11917106 0.113448404 0.059663232 0.10023353 0.047038626
0.13755436 0.10012645 0.070883274 -0.14465418 0.13988374 0.1781541 0.026494756 0.026344603
0.013034332 0.021757836 0.15567896 0.053309295 0.08271199 -0.10099582 -0.13568641 -0.028604407
-0.056033995 0.02685332 -0.09153829 -0.16643217 -0.13613024 0.074237816 0.04424871 0.13588227
-0.06434846 -0.07164433 0.069278434 0.033866644 0.010961268 0.028643487 0.08921475 0.0355978
0.0074852696 0.14593689 0.20754334 0.20989278 0.0015779771 0.026656184 0.026347386 0.07549959
0.049791902 -0.06840411 -0.0776324 -0.112538494 -0.15275474 -0.13064533 -0.25981197 -0.121738374
-0.03269421 -0.11558662 -0.20889387 -0.122300334 -0.07303914 0.096486256 0.25453046 0.32163584
-0.0041821767 -0.051267818 0.13541655 0.16699785 0.14350672 -0.21575059 -0.19661859 -0.06484415
-0.06382407 -0.124647744 -0.25543308 -0.15701106 -0.058972448 -0.1502591 -0.20564273 -0.32685727
-0.1585454 0.069317095 -0.091327034 -0.09302133 -0.09449467 0.017909957 0.0842887 0.15248138
0.100098565 -0.06527138 -0.046106495 0.0854952 0.12190936 0.06189196 -0.18058069 -0.066896856
-0.05016514 -0.07462188 -0.18555945 -0.2904491 -0.081829004 -0.08649938 -0.18456809 -0.2757888
-0.32584867 0.027424442 -0.067656085 -0.17022836 -0.16755262 -0.10783094 0.11669492 0.018092435
-0.009437508 -0.014582707 -0.1366452 0.01332902 -0.12843165 -0.0073956666 -0.11998645 -0.087860204
0.059393227 -0.15334824 0.029546395 0.06159724 0.039536458 0.10391907 -0.02624231 -0.04605248
0.11085361 0.1913598 0.06151002 -0.028412873 0.02295143 0.07026736 0.09341653 0.033246953
-0.04332854 0.033406936 -0.005923021 0.06902999 -0.05890938 0.11521663 0.0926568 0.032796796
-0.014238999 -0.0028022502 0.17118947 0.06910372 -0.011164184 0.042400792 0.025761694 0.08215757
-0.021854369 -0.002404017 -0.08726681 0.050734513 -0.013275327 -0.035737902 -0.006298198 0.005864508
0.02436835 0.032613758 0.06294012 0.034803137 0.047319725 0.011176686 -0.0075436654 0.10555313
0.019829633 0.08343704 -0.0077000023 0.12691358 0.16306399 0.08696043 0.11513108 0.04900051
0.13271557 0.11129347 -0.0016569309 -0.02175684 0.080383785 0.016601657 -0.020398954 -0.006129561
0.065862454 0.030334868 -0.039726492 -0.02519594 -0.01926849 0.059446257 -0.028352547 0.010443496

conceptizer.decoder.2.0.bias f4 [8]
00000000: 6712 cb3c 9ba4 253c 95cf 5c3d b902 5f3d
00000010: e201 033c 2ed8 eebc c133 c0ba c9c1 a3bd
0.024789048 0.010110046 0.053908903 0.054445956 0.007996054 -0.029155817 -0.0014663861 -0.07995946

conceptizer.decoder.4.0.weight f4 [8, 1, 2, 2]
00000000: d770 b5be 0053 9abd ced2 92be 5a2d 263f
00000010: 7c8c 043f 6c44 fa3e 98c7 0b3f 7742 113f
00000020: 57df 063f d817 f03e 45d9 f73e 3198 2dbe
00000030: c0c1 15bf 78c2 21bf eaa4 19bf 11fd 25bf
00000040: 1dc0 11bf d6e8 2dbf b513 063e b33e 9cbe
00000050: 367d 10bf ac2e 37be 29ec 5abf 0e82 27bf
00000060: 97ad 47be 3483 49bf 20fe d3be c5da efbe
00000070: eb76 2e3f af9b 3bbe 7f85 b43e 4724 cbbe
-0.35437652 -0.07535362 -0.28676456 0.6491295 0.5177686 0.48880327 0.5460143 0.5674204
0.5268454 0.4689319 0.4840795 -0.16952588 -0.58498764 -0.6318736 -0.60017264 -0.64839274
-0.56933767 -0.67933404 0.13093455 -0.30516586 -0.56441057 -0.17888898 -0.855166 -0.6543282
-0.19499813 -0.78715825 -0.4140482 -0.46846595 0.68150204 -0.18321107 0.352581 -0.39676115

conceptizer.unlinear.weight f4 [16, 1]
00000000: 1ad6 39bf 6742 f33e 010c 21bf 5286 90bf
00000010: 23af 7cbf 56b1 63bf b4ae 933f 3b75 82bf
00000020: b0e4 42bf 0559 9abf 5391 983f b8de c93e
00000030: f53d 57bf e27f b0be 648d 37bf 4419 0a3f
-0.7259232 0.47511598 -0.6290894 -1.1290991 -0.9870474 -0.8894247 1.153769 -1.0192026
-0.761302 -1.2058417 1.191935 0.39427733 -0.84078914 -0.34472567 -0.7170012 0.539448

conceptizer.unlinear.bias f4 [16]
00000000: f37f 333f 7368 c6bb 35f3 83bf 8687 5e3f
00000010: 0cd6 123f 01fd e03e 4f62 03bf 5159 f03e
00000020: 4d03 373e 029d 0ebf b2c3 39bf 0b7a 333f
00000030: c219 c8be fe58 02bf a832 cabe 9f53 8e3e
0.7011711 -0.006054932 -1.0308596 0.8692554 0.5735786 0.43943027 -0.5132188 0.46943143
0.17872353 -0.55708325 -0.7256423 0.701081 -0.39082152 -0.5091704 -0.39491773 0.27798173

parameterizer.cl_layers.0.weight f4 [10, 1, 5, 5]
00000000: 6d0b ac3d b700 cebc 23ce 9a3d 1e40 133e
00000010: 4883 f23d 08ca c2bb 826a 413e 4bdb b4bd
00000020: 7c73 b6bd a6c0 4fbd 8f84 1f3d cf54 0e3e
00000030: 1d1b 073e 2c65 7e3e 4d31 3d3e e2de 8fbe
00000040: 8647 cfbd af5a b0bd 13a3 dabd e5c1 69be
00000050: c0ca a2bd 6241 89be 750c 89be 6119 5dbe
00000060: 6c66 61be 0071 4abe b468 76bd 1395 133e
00000070: fed5 d7bc 1f20 ea3b 5713 80be 3f40 5fbe
00000080: 4357 8cbd 1a51 bfbc d982 3dbd 4ad9 f3bd
00000090: 452c 07bd 3556 5cbe 21bf 31bd 7f34 f5bd
000000a0: 4164 433e 839b 75bd 13db 863b 78d4 3cbe
000000b0: 2b1b 23be a4d9 693e 159c ed3d 5c65 94bd
000000c0: f664 3c3e 0c85 4bbe f32d c3bd cbd0 8e3d
000000d0: dd3d a83d eeeb b53d e754 963d 5488 37bc
000000e0: 6b49 b6bd f7e4 0a3e 0fbf c13d 9fbc fa3d
000000f0: 9ae6 553d bb3d 8bba 736e 0fbd cd21 f63d
00000100: 27fb 943d e40e e8bd 3fc5 afbd a689 203e
00000110: 0d1d 72bc fe93 fd3d c6ed 3c3d 01d0 08be
00000120: 65e2 fabc 8491 83bd 3e2f 493e f1e7 6dbd
00000130: 4ec5 6f3e bfab 2c3e 2826 163e 34dc 363e
00000140: e38c 163e b437 a33c 19f2 e53d 695c 163e
00000150: bca6 023e 2613 e8bc 419d 11be 9999 2ebe
00000160: 9c2b f6bd 61c8 27be fe66 f03d 219a 31be
00000170: 3e72 bf3d 6c4e 99bd 7b94 683d b290 53be
00000180: e433 2bbe ec39 683d 5903 44be 9286 963d
00000190: 8e4e 033e fc3d 363e 0874 1abe fcd8 bdbd
000001a0: e93d 7ebe c511 38bc 9cea f83d aa83 69be
000001b0: f8e6 5abe cc16 97bd bdfc a83d 114d 4cbd
000001c0: 885a 73be d5d3 6cbc 1e55 ae3d 2d1e d63d
000001d0: b460 1ebe 7e40 38be d942 30bd 947b 95bc
000001e0: df94 d6bd 72a8 82be 67fe 3cbe 603b 2d3e
000001f0: 40de c93b c0c3 4dbe 86d9 e9bd 0e16 cc3d
00000200: 755f a3bd afd3 7ebd dc19 233d 4ea5 3fbe
00000210: bb88 2cbe 449c d33d 4939 4d3e 600e a73d
00000220: 46cf 3ebe 260a 013e 8129 cb3d dfc0 863b
00000230: a889 963d 47f4 4dbe 8917 fe3d 5ebc 113e
00000240: aa46 303c 8994 69be 81ca a83d 6b6c 8fbd
00000250: 86d3 5e3e e5dc dd3d a295 073d aad3 b5bd
00000260: 6112 9f3d c3c0 153e aa15 44be b095 83bd
00000270: f7d4 01be ad11 2d3e c796 093e 9fd6 c7bc
00000280: fe5e 143d ba59 5fbd 1cf5 4e3e 7be7 f8bd
00000290: a90b 42be af23 853d ace4 243e 4645 33bd
000002a0: f111 3e3e 3319 3fbe d271 0dbe 1cd0 f4bd
000002b0: bd55 abbd b78d 273e 6a6b 203c 799c 623e
000002c0: bcf0 44be 9e3f 57be 9362 29be 682d 783e
000002d0: f8d6 433e 9b51 32be 8720 babd 719c a6bd
000002e0: d35d 463e 06b2 9c3d 6132 d73d c1a3 60be
000002f0: 1271 29be 6657 ca3d 90fd 793d 8534 33be
00000300: 5368 8c3d 268a 46be 5a42 683e efaf a7bd
00000310: f3e3 16be 20e0 823c fbaf 4ebe 829e 34be
00000320: 6c03 3dbd 4bd8 86be f2ea 63be 9307 033e
00000330: c184 4fbd 12f0 423e 18c7 f63d d67f f53d
00000340: 7d8b 5ebd 7c5b 0d3e 9ffe 953d 106a 1e3e
00000350: 104a e9b9 a8ff 283c 2d1d 81bd 1713 47be
00000360: c1c0 083e cb91 d73d 9d21 23be 055a 25be
00000370: 2733 8fbd 51fa 6cbe 9068 243e 8510 b9bd
00000380: 2c36 5b3e cd28 423c a067 4cbe 306e 1abe
00000390: 80c4 d1bd a84e 3e3e efb0 d6bc b4a5 063e
000003a0: e0ae 093e 7a98 303d c4cd aa3d 2a75 b33d
000003b0: 220d bc3d bacb 3a3e 27fc 443d ad4b c4bd
000003c0: 66ec 123d 9ce5 3e3d 3d59 343c 158b 563d
000003d0: 0c7c fdbd 7dc3 943c bbd3 25bc c634 93bd
000003e0: 6a0f fdbc ee22 d23d
0.08400617 -0.025146825 0.07558849 0.14379928 0.11841446 -0.005944494 0.18888286 -0.08830889
-0.08908746 -0.050720833 0.038944777 0.1389954 0.13193937 0.24843282 0.18475838 -0.28099734
-0.10121064 -0.086110465 -0.10675635 -0.22827871 -0.07948828 -0.26807696 -0.26767316 -0.21591713
-0.22011727 -0.19769669 -0.060158446 0.14412336 -0.026347157 0.0071449424 -0.25014755 -0.21801852
-0.06852581 -0.023354102 -0.046267364 -0.11906679 -0.033001203 -0.2151726 -0.043395165 -0.119729035
0.19081213 -0.05996276 0.004115471 -0.18440425 -0.15928333 0.2283693 0.11602036 -0.07245895
0.18397889 -0.19874972 -0.095302485 0.06973418 0.082149245 0.08882891 0.073404126 -0.011201937
-0.08900722 0.13563906 0.0946027 0.12243008 0.052221872 -0.0010623256 -0.035017442 0.12018166
0.07274466 -0.11330965 -0.085825436 0.15677509 -0.014777434 0.12381743 0.046125196 -0.13360597
-0.030625531 -0.06424239 0.19646928 -0.058082525 0.2341511 0.16862391 0.14662993 0.17857438
0.14702182 0.019924022 0.11227817 0.14683689 0.12758917 -0.028329443 -0.14220144 -0.1705078
-0.120200366 -0.16385032 0.11738394 -0.17343952 0.09347962 -0.07485661 0.056782227 -0.20660666
-0.16719013 0.056695864 -0.19141902 0.07349886 0.12822935 0.17797083 -0.15083325 -0.09269902
-0.24828304 -0.011234705 0.12154123 -0.22804132 -0.2137717 -0.07377395 0.08251331 -0.049878184
-0.23765004 -0.014454802 0.085123286 0.10454974 -0.15466577 -0.17993352 -0.0430325 -0.018247403
-0.10477614 -0.2551914 -0.18456422 0.16917181 0.0061605275 -0.20094204 -0.114184424 0.09965144
-0.07977191 -0.062213596 0.039819583 -0.18715402 -0.16849034 0.1033254 0.20041384 0.08157039
-0.18633756 0.12601528 0.099200256 0.0041123475 0.073504746 -0.20112716 0.12406833 0.14232013
0.010759035 -0.22810568 0.082417496 -0.07003101 0.21760377 0.10833148 0.033101685 -0.08878262
0.077671774 0.14624314 -0.19148889 -0.06425035 -0.12678896 0.16901274 0.13436423 -0.024394331
0.036223404 -0.05452893 0.2021069 -0.121535264 -0.1894976 0.06500947 0.16102856 -0.043767236
0.18561532 -0.18661956 -0.1381295 -0.11953756 -0.08365963 0.16362654 0.0097912345 0.22130002
-0.19232458 -0.21020362 -0.1654151 0.24236071 0.19124973 -0.17413943 -0.09088235 -0.081353076
0.19371729 0.07651143 0.10507656 -0.21937467 -0.16547039 0.09879951 0.06103283 -0.17500503
0.06855836 -0.19388637 0.22681561 -0.081878535 -0.14735393 0.015976012 -0.20184319 -0.17638591
-0.04614584 -0.26336893 -0.22257593 0.12795858 -0.050663713 0.19036892 0.12049693 0.119872734
-0.054332245 0.1380443 0.07323956 0.15470147 -0.00044496404 0.010314859 -0.06304393 -0.19440876
0.1335478 0.10525855 -0.15930791 -0.16147621 -0.069921784 -0.23142363 0.16055512 -0.09036354
0.21407384 0.011850548 -0.19961405 -0.15081096 -0.102425575 0.18584692 -0.026207415 0.13149148
0.13445616 0.043114163 0.08340028 0.08762582 0.091821924 0.18241778 0.048092034 -0.095847465
0.03586998 0.04660569 0.011007604 0.052378733 -0.12377176 0.018159622 -0.010121281 -0.071878
-0.030891139 0.102605686

parameterizer.cl_layers.0.bias f4 [10]
00000000: 3472 233e 4332 4a3e 9a11 34be 1735 66bc
00000010: ae37 843d ab27 fb3c b5e0 40be 10c0 c4bd
00000020: e975 b5bd 7508 57bd
0.15961534 0.19745736 -0.1758484 -0.014050744 0.064559326 0.030658564 -0.18835719 -0.096069455
-0.0886038 -0.0524983

parameterizer.cl_layers.3.weight f4 [20, 10, 5, 5]
00000000: 4831 653b b9ac b1bc f047 c7bc 3b06 99bd
00000010: 5b31 2ebc 3e0b e73c 973f cb3c 3a32 00bd
00000020: e49d 563b 189e a6bd 06c0 61bc fb87 4f3d
00000030: b5dd 3f39 4061 76bd 2f4d fabc 7a00 343d
00000040: 19d7 133d 4bcd 41bd 729f 1dbd d716 3a3d
00000050: a93d c7bc 376c 8c3c 50f7 10bb a5bf b6bc
00000060: 62d0 5fbd 3881 403d 25c7 523d 89a5 6abd
00000070: 8e96 c1bc a9aa d13b d544 e9bb 347c a63c
00000080: 9190 56bb b45c 11bc 2c19 513d e2ea 1d3c
00000090: 9823 c43c 7e4c 893d 0146 bf3c 89cc e03c
000000a0: 27fc 433c 1a80 a73d 1f23 a5b8 a060 31bd
000000b0: e7c7 a7bd a199 c23a 2c62 b33c 88cf 483b
000000c0: 585c b83c 5ce3 8bbc e893 d13c a2f6 3abd
000000d0: 930f d53c 263a 5dbc 395e 323d 6ec9 14bd
000000e0: f97a 96bd 0f8e 0d3d 551f f7bc ec93 6bbc
000000f0: d41e 513c b184 dd3c 3dbe d4bc 579b 06bd
00000100: 4b5f c53c 5f32 f5ba 1ff9 833d 1b55 c9bb
00000110: 3074 303c 7f63 30bd fd6b 73bd 03ad d9bc
00000120: 55c5 653d ed59 603c 36aa c43c 574f 823b
00000130: 5ea2 41bc f1a4 92bc b325 303b 960b 1e3b
00000140: 4b1d 9cbc e89a 143d 4416 b4bb aa00 6c3d
00000150: ab7e b4bd cdae 1c3d 0355 84bc a2e2 38bd
00000160: be67 a6bd 01d1 203c 88ba d43b 1f69 7d3d
00000170: 7efa 4c3d 0e4a c3bc 171a 0ebc 5593 543d
00000180: 221b e23b 8d8e 89bb aabd 393c 51e0 87bd
00000190: 1658 d93c 07c4 f1bc 26bd d5bc 8580 a73c
000001a0: 1b41 36bd a4b6 eb3c 720e 3ebd ae50 87bd
000001b0: 0d5c 88bd 3662 2b3d 1834 e0bc 2e64 2bbd
000001c0: 3821 0e3d 46bf 0abd 6d7d 3a3d 0836 56bd
000001d0: d919 7a3c 2ede f4bc c87c 683d 774c 31bd
000001e0: 08b2 103d 65e8 cf3c 0588 513c 46e2 13bd
000001f0: 7a70 953a 569e 12bd 1939 ca3b 309b 21bd
00000200: 8016 a73c 7a06 103d 874a 0e3b 54ce 9d3c
00000210: 9605 073d 5ef6 873c a75b 57bc 9308 70bc
00000220: f649 9c3c 67b0 e23b 7dea 2a3c 05a6 403c
00000230: 4897 b6ba 1ba4 9dbc 5e9b 583d 35e7 883d
00000240: 209f 83bd bdf8 f9bc 2ad8 5dbd ce9d b7ba
00000250: 15cc 44bd 9425 79bd f08a 0f3d 11e2 7f3d
00000260: bf32 d73c d5f4 8e3c dbf5 be3b 34b2 ba3c
00000270: 4c5b 613b 9e16 c8bc 8fde 07bd 5cce f6bc
00000280: b6c4 d03c 67f1 01bd 2f40 c0bb e981 b13c
00000290: b7fe 7c3c 95b0 0abb b47e ab3b cc54 43bc
000002a0: 5439 a4bc 7e78 1e3d 0ae2 de3c e683 28bd
000002b0: c8f7 463d 8e2a 0a3c ce38 bebc ad4b cd3b
000002c0: 4914 a73d 3cd0 913c 1d0d 42bd c481 a1bb
000002d0: ee28 30bc 8e5a 033d f91d 1b3d 63ee 00bb
000002e0: 5260 6abc 4978 adbd 8749 04bd 4e04 1fbd
000002f0: 49f8 f03c d38f 73bc e2a6 51bd 94e7 b0bd
00000300: e505 50bc 1f00 873c 9aba 9b3d 825f f9bc
00000310: a654 ddbc 643c 583c 5fc9 a8ba 8c54 e1bd
00000320: 25d7 ae3c 55a1 3c3d f2d0 bb3a 5a49 ce3d
00000330: b871 ccbc 46fc 193c 3fb0 8e3d 0ca7 713c
00000340: 44c9 ea3c 71c7 073d 0848 6fbc 21be ce3c
00000350: ca13 3e3d 00cb 9b3c 038a 933b 6974 363d
00000360: f063 f7bc 46fd 333d 789a a2bc 1238 40bd
00000370: 7fc0 8f3c 7f9f 533d 91d5 06bc 3782 8b3c
00000380: cf78 a1bc 0ea9 d73c ce7a 393d c613 2dbd
00000390: 5fec 0bbd 33c3 b8bc 8812 18b9 b9f1 363d
000003a0: bd18 6bbc a935 25bd af71 693d 188d 87bc
000003b0: 0b51 353c ddea ceba 7b5a f43a f1ad 983d
000003c0: ecee 4e3d 5fb0 523d f9b0 873c fdd1 773c
000003d0: ae1c b63c 5e9c 37bc cd95 7c3c aea0 003d
000003e0: 2414 2b3c a60a 7fbd 7f25 883b 0393 4c3c
000003f0: 55fb a33d de28 983c c6d7 b03d 6d6f d4bb
0.0034972 -0.021688806 -0.024326295 -0.074718915 -0.010631884 0.028203603 0.024810595 -0.0312979
0.0032747919 -0.08135623 -0.013778692 0.05066679 0.00018297772 -0.06015134 -0.030554382 0.043945767
0.036093805 -0.047314923 -0.038482137 0.045431938 -0.024321394 0.017141445 -0.0022120066 -0.02230818
-0.05464209 0.046998233 0.05145945 -0.057286773 -0.02363136 0.006398518 -0.007118801 0.020322897
-0.0032739977 -0.0088722 0.051049396 0.00963852 0.023942754 0.06704043 0.02334881 0.02744128
0.011961973 0.0817873 -7.874355e-05 -0.04330504 -0.08192425 0.001484681 0.021897398 0.0030641276
0.02250497 -0.017076187 0.025583223 -0.045645364 0.026008403 -0.013502633 0.04354689 -0.03632491
-0.07347674 0.034559306 -0.030166307 -0.014378529 0.012763698 0.027040811 -0.025969619 -0.032862987
0.02409329 -0.0018707028 0.064440005 -0.0061441786 0.010769889 -0.043063637 -0.059429158 -0.026571756
0.056096394 0.013693315 0.024006944 0.003976743 -0.0118184965 -0.017900916 0.002687794 0.0024115792
-0.019056937 0.036280543 -0.0054958183 0.05761782 -0.088132225 0.03825264 -0.016153818 -0.04513801
-0.08125256 0.009815455 0.006491963 0.06186783 0.050043575 -0.023839023 -0.0086732125 0.05189832
0.006900207 -0.0041979016 0.011336723 -0.06634582 0.02653126 -0.029512418 -0.02609117 0.020447025
-0.044495683 0.028773613 -0.046400495 -0.06607185 -0.06658182 0.041841708 -0.02736859 -0.041843586
0.03469965 -0.03387382 0.04552977 -0.052297622 0.015264952 -0.0298911 0.056759626 -0.043285813
0.035326034 0.025379369 0.012788777 -0.036104463 0.0011401318 -0.035795532 0.0061713574 -0.03945464
0.020396471 0.035162427 0.0021711902 0.019263424 0.03296431 0.01659697 -0.01314441 -0.014650482
0.019078236 0.0069180015 0.010431883 0.011758332 -0.0013930583 -0.01924329 0.052882545 0.06684724
-0.06426835 -0.030514115 -0.05416123 -0.0014008821 -0.04804619 -0.060826853 0.03504461 0.062471453
0.026269315 0.01745073 0.005827648 0.022790052 0.0034386693 -0.024424847 -0.033171233 -0.030127697
0.025484424 -0.03172436 -0.0058670263 0.021668391 0.015441588 -0.002116238 0.00523361 -0.011922073
-0.020046867 0.03868913 0.027207393 -0.041141413 0.048576146 0.008432997 -0.023220446 0.006265125
0.08158166 0.01779949 -0.047375787 -0.0049287993 -0.010751946 0.03206878 0.03787038 -0.001967334
-0.014305191 -0.08470208 -0.032296684 -0.038822465 0.029415267 -0.014865833 -0.051184542 -0.0863792
-0.012696718 0.01647955 0.07603951 -0.03044105 -0.027017903 0.013197992 -0.0012877396 -0.11002454
0.021342823 0.046052296 0.0014329238 0.100725845 -0.02495657 0.009398526 0.0696721 0.0147493
0.028660424 0.033149187 -0.014604576 0.025237145 0.04640559 0.019017696 0.0045025363 0.04454461
-0.030199021 0.043942712 -0.019849047 -0.046928473 0.017547844 0.05166578 -0.008229629 0.017029865
-0.019710926 0.026325729 0.04528313 -0.042255186 -0.034160968 -0.022554016 -0.00014502753 0.04466412
-0.01434916 -0.040334377 0.056993183 -0.01654677 0.011066685 -0.0015786547 0.0018642688 0.07455052
0.050520822 0.05143773 0.01656388 0.015125749 0.022230472 -0.011206714 0.015416575 0.031403236
0.010441814 -0.062266015 0.0041548605 0.012486222 0.08006922 0.018574174 0.086349055 -0.0064830096

parameterizer.cl_layers.3.bias f4 [20]
00000000: f084 7e3d 76fa 8bbc 9996 9bbc e6e1 333d
00000010: fad0 51bc 9b52 ee3c 486d 563d 90d2 48bd
00000020: 1f56 a43c f70f cfbc ab1d 533d 0d0d c0bb
00000030: 89aa fabb ff41 0ebc 7536 93bd 75c5 6b3c
00000040: 8e4c 5e3c 2fca e6bb ba5d edbc 367e 15bd
0.062138498 -0.017087203 -0.018992709 0.043916605 -0.012806172 0.029092124 0.052350312 -0.049028933
0.020060597 -0.025276167 0.051541965 -0.005860931 -0.007649724 -0.008682727 -0.07188121 0.014390339
0.013568057 -0.007043145 -0.028975356 -0.036497317

parameterizer.fc_layers.0.weight f4 [50, 320]
00000000: 2c5c af3a f33d edbc ff8c 1e3c 83b8 64bd
00000010: 16b9 98bc 68d5 833d 6e31 703b 69d2 99bb
00000020: c25a 4fbd 3b1e ee3c 30d5 7e3c b24b ad3c
00000030: 3ea3 98bb 1912 3cbb 3c49 ce3c a122 733c
00000040: 3491 413d a353 fa3c bb7b 0bbd a730 76bd
00000050: 6c14 ad3d deae 13bb 1952 9e3c 92ba 5e3c
00000060: 4744 d53c 827e 23bd c011 703c 86d1 203d
00000070: 7244 fc3c 04a8 20bb 99fd 3dbd 88c3 293d
00000080: 1ad1 3cbd 5506 ce3c 6e3d eabc 506b f7bc
00000090: c450 9fbc bcd0 7a3c 318a 523d 3c1d 623d
000000a0: 6d58 29bd 13ea 003d b051 3f3d 4a96 b53c
000000b0: 8494 dfbc 72d3 77bc 3061 8d3c 49de 0f3c
000000c0: f717 6b3d 9554 1c3d 2eb6 8cbc 4769 9b3d
000000d0: 7076 8c3d e488 39bd b209 11bc 0918 ee3c
000000e0: 539b ec3d 2594 debb 0250 b7bb de08 d1bb
000000f0: bd48 e53c 583f 973b 11e0 31bd 96e4 abbc
00000100: be13 f13c 3e50 0d3d 2f6c 1bbd 779c 5bbb
00000110: eda0 f23c b807 073c 6736 4cbc d2fe a5bd
00000120: 3930 203d 1f64 d33d be46 043d de63 46bc
00000130: 434c 80bb d32c 303d 2e11 2639 f794 85bd
00000140: 180e 183a 0a3e dbbc 9668 07bd 5267 25bd
00000150: e943 c33d 25be 4c3c 471c 69bd e2e6 cbbc
00000160: f8e0 383d 334d 3fbd 6765 153d 72fb 123d
00000170: b5b3 543c 2302 f43a 513d 1f3d 8ec3 983d
00000180: f576 adbc 798b 3b3c 8d6a 813c d197 2b3d
00000190: 9818 853c 332d b93a d272 093d cf35 fa3c
000001a0: a218 823d 485d d8bc 2b1b aebd ad7b c6bb
000001b0: 0b33 c43c 476f b6bd 48e2 b2bc 0162 663b
000001c0: 5aa8 12bd 856e b5bb 1ed7 e4bc 96a8 273c
000001d0: 6b08 bb3c 5ecc 1b3d 0f91 a13d 176d 363d
000001e0: 3e80 81bc f8ac 7abd 26b6 f73c 7472 023d
000001f0: 2398 0d3e c28d c8bc db09 ddbc 4bf9 b33d
00000200: 50dd 11bb f9fa 443b b3cb c83c 10cf e23c
00000210: cd6c d0bc 81d6 88bd 9abd f13d e580 22bc
00000220: 4606 b7bb 8b14 d23c 8881 053d 4184 e6bc
00000230: a66d cd3c f01e c13c 8c6c 37bc 4745 aabc
00000240: bd2a 9c3b 4d4a a63c 8f94 05bb 5045 0f3c
00000250: 0203 6abd f231 ab3b 14d3 cb3c 5c88 653d
00000260: e460 8abd 7001 573d e03f 903d 356d 033d
00000270: 28ce eebc cf46 50bc 69e2 9f3b e247 18bd
00000280: 1469 1b3d a95a 1d3d ff89 753d 56fa 54bc
00000290: c57c a4bb 1059 133a bdbb dcbb 260c b23c
000002a0: e851 4abb 9969 75bd f971 1cbd 8ab5 b13d
000002b0: 9d53 cd3b e91f 25bd aa51 2b3d 5be9 ad3c
000002c0: f89e f3bb a0ec 1abc 3df1 bfbb 19ab cabb
000002d0: 84dc 17bb 04b9 e3bc 929d ab3c 4cc0 fb3b
000002e0: 201a 5dbd 1496 813d df71 fbbb 5b92 6f3d
000002f0: 4e97 d53c f560 303d a87c 863d 7762 143d
00000300: 5630 d63c 0c5f 123c b359 bf3a 967c e4bc
00000310: 384d b6bb 6185 0ebb 6d9a 273d cbc4 62bc
00000320: 5a1a 123d 8b1a 23bd b9d9 96bc 9772 e4bc
00000330: 96c7 dabc bcd8 85bc edcf 673d ecaf 753c
00000340: 2d5f e43c 1cfe c33c 5ffa c33c aa4c ab3c
00000350: a627 173d cd96 f3bc 232a 443d fbe5 363d
00000360: 515e 683d 6cf4 773d cb32 133d 5173 abbd
00000370: 75a2 93bc 5d37 3b3c ce3e 25bd 70ba 0dbd
00000380: 514e 7a3d 7cac ae3c eb5c ccbc fdfb 133d
00000390: 607a f43b f602 ae3d c88b 9fbb 1826 683d
000003a0: 9de0 2a3d e17f b1bc 10a2 183d b149 8e3d
000003b0: ebfd 62bd ffab b2bc 5f64 bdbc c64e 243d
000003c0: 49a7 29bd 7e31 d23c 9702 7b3c 9950 913c
000003d0: 28c4 1b3d 6645 a73d 6519 37bd 5657 fcbc
000003e0: f965 bfbc 107c 533d 2bf9 6a3c b72e 6ebd
000003f0: 1d40 ed3b 98d2 4bbc 58c6 5d3d ed72 5f3c
0.001337891 -0.028960204 0.009677171 -0.055840027 -0.018642943 0.064371884 0.0036650556 -0.0046942723
-0.050623663 0.02906715 0.015553758 0.021154258 -0.004658132 -0.002869731 0.025181405 0.014839799
0.047257617 0.03055746 -0.034053545 -0.060104992 0.08451161 -0.002253465 0.019326257 0.0135942865
0.026033534 -0.03991557 0.014652669 0.039262317 0.030794356 -0.0024514208 -0.046384428 0.04144624
-0.046097852 0.025149504 -0.028593745 -0.030202538 -0.019447692 0.015308555 0.05140132 0.05520366
-0.041344095 0.03147323 0.046708763 0.02216639 -0.027292497 -0.015126096 0.017258257 0.008781024
0.0573959 0.0381666 -0.017176714 0.075884394 0.06858528 -0.045296565 -0.008852409 0.029064195
0.11553063 -0.0067925625 -0.0055942545 -0.006379231 0.027988786 0.0046157055 -0.043426577 -0.020983022
0.02942836 0.034500353 -0.03794497 -0.0033510008 0.029617751 0.008241586 -0.012464142 -0.08105244
0.03910849 0.10321831 0.032294028 -0.012108771 -0.003915341 0.043011498 0.00015837394 -0.065225534
0.000580044 -0.026762981 -0.033058725 -0.040381737 0.09534437 0.012496506 -0.056911733 -0.024890367
0.045136422 -0.046704482 0.036473658 0.03588433 0.012982299 0.001861636 0.038876835 0.07459174
-0.021174887 0.011446827 0.015797878 0.04189283 0.016247079 0.001412785 0.033556767 0.030543236
0.063523546 -0.026411667 -0.08501276 -0.006057224 0.02395012 -0.08907943 -0.021836415 0.003515363
-0.035805084 -0.0055368566 -0.027934607 0.010233065 0.022831162 0.038036697 0.07888996 0.04453763
-0.015808221 -0.061200112 0.030238222 0.031847432 0.13827567 -0.024481658 -0.026982239 0.08787783
-0.0022257157 0.0030056818 0.024511194 0.027686626 -0.025442505 -0.066815384 0.11803742 -0.009918426
-0.0055854646 0.025644561 0.032594234 -0.028139235 0.025076699 0.023574322 -0.011195313 -0.020784987
0.004765837 0.020299101 -0.0020382737 0.008744553 -0.057131775 0.00522446 0.024880923 0.056038246
-0.06756762 0.052491605 0.07043433 0.03208657 -0.029151037 -0.012712195 0.004879285 -0.037177928
0.037942007 0.03841654 0.059946056 -0.012999138 -0.0050197565 0.00056208763 -0.0067362473 0.021734308
-0.0030871574 -0.05991516 -0.03819463 0.08677204 0.006266071 -0.040313635 0.041825928 0.021229437
-0.007434722 -0.00945583 -0.0058576153 -0.006184947 -0.002317221 -0.027798183 0.020949159 0.0076828357
-0.053979993 0.06327453 -0.0076734866 0.058489185 0.026073124 0.043061215 0.06566745 0.036226716
0.026146095 0.008933794 0.0014598876 -0.027891438 -0.0055634044 -0.002174698 0.040918756 -0.013840864
0.035669662 -0.039820235 -0.018414365 -0.027886672 -0.026706498 -0.016338699 0.056594778 0.014995556
0.027877415 0.02392488 0.023923097 0.02091058 0.036903046 -0.029734993 0.047891747 0.04465292
0.056730572 0.060535833 0.03593711 -0.08371604 -0.018021801 0.011426774 -0.0403431 -0.03460163
0.061109845 0.021322481 -0.02494665 0.036128987 0.0074608773 0.084966585 -0.004868958 0.056676954
0.041718114 -0.021667423 0.03726393 0.06947649 -0.055417936 -0.02181053 -0.02311915 0.040114187
-0.0414193 0.025658365 0.015320442 0.017738627 0.038028866 0.081675336 -0.044701952 -0.030803364
-0.023364054 0.051631987 0.014341633 -0.05815002 0.007240309 -0.012440346 0.054144233 0.01363824
