results/OUR_MODEL/checkpoints/Epoch[36]-Step[9990].pt (torch, 374454 bytes, 66 tensors)

conceptizer.encoder.0.0.weight f4 [10, 1, 5, 5]
00000000: d39e 0ebe f714 cc3d 715b f63d 955d 823d
00000010: 0fe7 cc3d 023b c5bd 3197 f0bd be07 d2bd
00000020: 29a0 9f3d 3ce6 70bd 4ab6 ad3d 56bc e43c
00000030: c73e 6bbe ee05 e83d 1506 c73c 81ad 343e
00000040: d79e ac3d 4adf f83d 8734 eb3d ec98 643d
00000050: e177 373e ad72 1dbd a866 8dbd 0677 52bd
00000060: f38e fb3d 0c4e 87bd d28f 4b3e bc25 32bd
00000070: f9ee c8bd d5f6 03be e779 2a3d 9fd8 0e3b
00000080: e8de 0ebe a46b c1bc f1f3 23be a0b1 173e
00000090: ea36 a8bd 1218 3bbd f902 44be d56f ddbd
000000a0: b8b1 d3bd b604 703c c101 23bd d977 013d
000000b0: 26a9 0a3d 584a 593d c315 573c 7881 a1bd
000000c0: 9b0b 37be a585 c4ba 3a25 c6bd ead4 44be
000000d0: 6829 343d 6b3c c6bd 39e3 e0bd 7b21 14be
000000e0: ba7b 4dbe 0b0c 87bd e56f 55be 9af2 a0bd
000000f0: a4c2 81be a0eb 923d 07e2 06be a295 70be
00000100: 3f68 dcbc 3c32 1abe c36a a2bd 18da 7dbe
00000110: db56 0ebe dde9 0cbe d70b 16bd d351 a5bd
00000120: 7364 32bc b1ec 41bd 56bd 3cbe a7e3 d4bd
00000130: 3930 96bc 9fd8 c13c 78c0 d6bc 0036 353c
00000140: 6177 12be 984e d2bc a188 6abd 9461 ca3c
00000150: 1644 063e cd34 5fbe 1463 49be ff4d 903d
00000160: e766 f6bd 9140 c5bb e140 c6bd e97b 0ebe
00000170: ad5c 883b 2f24 c8bd b4eb 1fbc f097 0dbe
00000180: 2a92 8ebd a3e1 47be 812b 8abd cadf 183e
00000190: 6f2d c23d 919e 13be c5d0 ab3d ad78 b43d
000001a0: 1fa0 323e 076e ab3d 9b5c 5ebe 505a 2ebc
000001b0: cfdd ecbb 9426 56be c6e7 463d ef26 91bd
000001c0: 729a 11be 793b 6bbe e534 14bd 0c98 0e3b
000001d0: d614 23be cf37 b43d 8507 47be 345e 2b3d
000001e0: ff6f d13c aff2 fe3d eeed dcbc 3077 1cbe
000001f0: a319 36ba 9247 583c f38d b63d 4c5f c6bc
00000200: eb73 863d 7fea e73d 6e57 4abd ba57 9dbd
00000210: 0e45 a93d 20a0 d33d 6f7b 813d 669c 013e
00000220: c8bd 343d 630c 193d d665 44bd 8ad4 7fbd
00000230: 5896 96bd 4e38 0a3e 7701 f13d 08ce 5bbc
00000240: 3db8 33be f641 363e c114 663e e907 7c3d
00000250: dee3 e5bd a5e8 b5bc 3c29 373e 413b 2dbe
00000260: 331c 573d 4f0b 273e ae40 ba3d 32fc 67bd
00000270: 1253 053e 2288 4a3c de49 543e 616f 5b3e
00000280: e018 acbd a209 a2bc c45f 28bc 57ee fdbc
00000290: d7ad 45bd 16cd 10be 5f1d df3d 71ea 093d
000002a0: 1f02 e3bd ee36 16be 2b2f 00be 0d8d 6ebc
000002b0: c6b8 61be adcf 5abd 0cc6 29bd 8617 fb3c
000002c0: d2a2 5f3c 231d 2abe d3d7 5fbe 766d f63d
000002d0: 04a7 873c f85d ecbd 7f24 e13c 2d87 193b
000002e0: 9b24 2ebd bde9 543e 6165 a83b a97f cf3d
000002f0: 9492 1f3e 7999 903d 5cba 7e3e 18ee 88bd
00000300: 86ff 833d 912c 20bc 3fe0 2dbc 7d13 a33c
00000310: 3b5e da3d 33a1 12be 031e 57bc df38 883d
00000320: cea8 e53d aae3 c93c bf1e 1c3d bba6 963c
00000330: 286b 223d cb0c 023e 9b54 d03d e263 d0bd
00000340: c3f7 06be 8c05 793e cce6 303e addb 84bd
00000350: 7fbc 3fbd e91e f7bd 0f29 cebd 092e 4d3d
00000360: dfc4 3d3d ff53 ba3d c1b5 49be ad13 593d
00000370: 74a6 4ebe 860c d43d 07ac 23bc 7757 52bd
00000380: 3286 3f3e 8efe 5dbc 2c20 6c3d 7d04 903d
00000390: 765d 563d 53fc c73c 8d42 a0bd b663 e1bc
000003a0: b6e6 ec3d 39aa 71bd a8f3 c33d fba5 e73d
000003b0: 11a4 b03d 688b 093e 0612 00be 46bb b03d
000003c0: 0313 2bbc 873c cc3d 1e47 35bd c26a fcbd
000003d0: a3db c13d 74ac ccbc aefc a7bb fcd5 303e
000003e0: a3e6 3d3e b36d 9c3d
-0.13927774 0.09964936 0.1202916 0.063655056 0.100050084 -0.096303955 -0.117475875 -0.10255383
0.0779422 -0.05881332 0.084820345 0.027921837 -0.22973166 0.11329256 0.024294892 0.17644311
0.08428734 0.12151964 0.11484628 0.0558099 0.17916824 -0.03843944 -0.06904346 -0.05138304
0.12283125 -0.06606683 0.19879082 -0.043493018 -0.098112054 -0.12887128 0.04162016 0.0021796597
-0.1395222 -0.023610897 -0.16011025 0.14813852 -0.08213599 -0.045677252 -0.19141759 -0.10812346
-0.103366315 0.014649561 -0.039796595 0.031608436 0.03385272 0.053049415 0.013127747 -0.07886022
-0.17875521 -0.0014993442 -0.09675069 -0.19221845 0.0439848 -0.096794926 -0.10980839 -0.14465897
-0.20066729 -0.06594094 -0.20843466 -0.078587726 -0.25343812 0.07173848 -0.1317216 -0.2349458
-0.026905177 -0.15058225 -0.079305194 -0.24790227 -0.1390032 -0.13761087 -0.036632385 -0.08072247
-0.010888207 -0.047344867 -0.18431601 -0.10394984 -0.018333541 0.023662863 -0.026214823 0.011060238
-0.14303352 -0.025672242 -0.057259206 0.024704732 0.1311191 -0.21797486 -0.19666702 0.070461266
-0.12031346 -0.00601966 -0.096803434 -0.13914455 0.0041614384 -0.097725265 -0.009760786 -0.13827491
-0.06961472 -0.19519667 -0.06746579 0.14929119 0.09481322 -0.14415957 0.08389429 0.088120796
0.17443894 0.083705954 -0.21715014 -0.010641649 -0.00722859 -0.20913154 0.04856088 -0.07087504
-0.14219072 -0.22971906 -0.036183257 0.0021758107 -0.15925917 0.08799707 -0.19436462 0.041837886
0.0255661 0.12448632 -0.026968922 -0.15279841 -0.0006946569 0.013200657 0.089137934 -0.024215363
0.06565078 0.113240235 -0.049399786 -0.07682748 0.08265124 0.10333276 0.06322371 0.12657318
0.044126302 0.03736533 -0.04794868 -0.062458552 -0.073528945 0.13498041 0.117678575 -0.013415821
-0.1755075 0.177986 0.22468854 0.06153098 -0.11225103 -0.02220566 0.17886823 -0.16917135
0.052517127 0.16312908 0.09094368 -0.056636997 0.1301997 0.012361558 0.20731303 0.21429206
-0.08403182 -0.019779984 -0.010276739 -0.030997438 -0.04826149 -0.14140734 0.10894274 0.033670846
-0.11084389 -0.14669392 -0.12517993 -0.014559996 -0.22043142 -0.05342071 -0.041448638 0.030650865
0.013649659 -0.16612677 -0.21859674 0.12032597 0.016559131 -0.115413606 0.027483223 0.0023426518
-0.04251538 0.20792289 0.0051390384 0.10131771 0.15583259 0.070605226 0.24875778 -0.06686038
0.064452216 -0.00977625 -0.0106125465 0.019906754 0.10662504 -0.14319305 -0.013129714 0.06651472
0.112138376 0.024644691 0.03811526 0.01839005 0.039652973 0.12700193 0.10172387 -0.10175301
-0.13180451 0.24318522 0.17275542 -0.06487212 -0.046810623 -0.120664425 -0.10066425 0.05009273
0.04633033 0.09098052 -0.1969824 0.05299728 -0.20180684 0.10353951 -0.009989745 -0.051352944
0.18703535 -0.01354946 0.05764787 0.07032106 0.052335225 0.02441231 -0.078251936 -0.027513366
0.11567442 -0.059000228 0.09567958 0.11310955 0.08625043 0.13432086 -0.12506875 0.086294696
-0.0104415445 0.09972482 -0.044257276 -0.1232505 0.094657205 -0.024984576 -0.0051265573 0.17269129
0.18545012 0.07638111

conceptizer.encoder.0.0.bias f4 [10]
00000000: 5c14 c93d 51d3 443e dc3b 913e 0d48 76bb
00000010: 7ad0 843e 6a60 133e f4d6 07bc 7127 d13b
00000020: e3e6 323e a898 603e
0.09818336 0.19221236 0.28365982 -0.0037579567 0.25940305 0.14392248 -0.008290995 0.0063828756
0.17470889 0.21933234

conceptizer.encoder.1.0.weight f4 [5, 10, 5, 5]
00000000: b111 253d 9cfd 013d d86a 973c 08f0 163d
00000010: 6278 36bd f95e 2d3d 6346 423d 6ab4 4c3c
00000020: 382f 26bd 44ae 463d 4ed6 b13b 321f 833d
00000030: 1dc0 ffbb af83 223d 23df 22bd 1213 383d
00000040: a7f5 a53c 16da d93c a0bf a9ba 5afa 333c
00000050: 896b 7c3c 4519 e1bc 6518 353b dfce 47bb
00000060: 2d9f 8e3c 15dd 983c eb64 843b c3ef 213b
00000070: 931e 05bc 4996 1abd 1b49 123d 9daf 98bb
00000080: 4c28 4fbd 20da 19bc 5f23 75bc 9b88 243d
00000090: 2f6d 91bc 44d9 a73c 294a 90bc 15b9 80bc
000000a0: e6dc d2bc c3af 1b3a a680 a4bc 6106 663d
000000b0: fd0d 4b3d 7b37 703c d993 793d ff37 a1bc
000000c0: 9ce3 d3bc 2fed 32bc c97a 92bd eac5 22bd
000000d0: 3b7b 363a 0395 89bb 3801 f03c 4b23 a4bd
000000e0: 26d5 2abd c622 ab3c db71 23bd 069a 8d3d
000000f0: c473 0cbb efbd 43bb 4474 5a3c 551c 0eba
00000100: 3245 87b9 2b71 3a3d a9b2 3d3c 41e3 39bc
00000110: 416b d83c 9223 9cbc be37 a83d f11f 9a3c
00000120: 588e 2e3d c551 833d b9b7 fa3c 0c2d 8b3a
00000130: 6f11 8fbd 3eb1 fbbc 0842 aabc 0334 483c
00000140: 9967 4a3d 6005 073c 7fb1 a6bc 0c57 523c
00000150: 47a3 b93c 3b03 8d3d 7f61 20bb 3525 10bd
00000160: e435 e53b c364 efb9 ccb2 643b 3c81 73bc
00000170: e7c0 873c eddb 0c3c 848e 6a3c 0ff7 2e3c
00000180: 07df 493c cf8c f53b f6fa df3c 280b 0c3d
00000190: 211b c63d 5094 6c3d 889e ee3c 938b df3c
000001a0: 2b02 f4bc 8817 f23b 2842 0f3d 1fca 49bc
000001b0: 9b80 a73c 992e fcbb 1ee0 ae3d 3523 9f3c
000001c0: fb64 a03d ac0f 22bc 4499 ffbc 7243 543c
000001d0: 87b9 9c3d 4d6e f03c dd72 243c 1f82 2b3d
000001e0: 3028 12bd 5b10 cf3c a55c 2d3d 53b6 793c
000001f0: dbf6 bf3c 8ac1 5e3d 9718 723d 2f83 25bd
00000200: e368 3cbd 719a 1bbc e82b 0dbd 38ed bd3c
00000210: 4661 bfbc 7efc 7a3a 81cb 7a3c 523e fbbc
00000220: 26cc b23c 692a 1f3d a385 2cbc 74e7 203d
00000230: 2413 6abc 3cea 1cbd 7f98 973c f06e cdbc
00000240: 8b94 8ebb bf43 54bd 272d a5bc 97ff 8ebd
00000250: 11ec 48bd c60e a3bc 16ae 773d 9f37 783d
00000260: 9c0c 823b 6163 26bc 8d38 e8bc 58a0 433d
00000270: ab67 1a3d 998c bebc 8aae 15bd 604b d4b8
00000280: b086 243c fd28 013d a0db bc3c f0ba 44bc
00000290: 6ade 6d3d 0fc9 7b3d 1eb9 a5bc 8743 53bc
000002a0: b813 6e3c 3060 b73c 03b4 243d 226b 8c3d
000002b0: cf9a b03d a8dc a73d db88 3b3d f1ae 593c
000002c0: 9d6d aabb 66de f93c 9094 933d 42ec 913d
000002d0: 02cd 263d 329d 8d3d e18c 36bd 0488 ec3b
000002e0: 881e 88bb aa25 423d b639 88bc 5513 12bd
000002f0: 3141 703b 0a89 723d e43e ed3b 309c e13c
00000300: adb6 4f3c 5e59 543d 21cb d63c 20e8 273d
00000310: b014 e3b8 bee3 14bc a54e 983d 4947 3b3d
00000320: 6bd1 103c 26cc 833d 1849 f93c b9a5 853b
00000330: e44e faba d13c 7d3d 9c43 873d 2769 463d
00000340: 2ffa 043a ac51 853d 4002 8f3d 0f4e 6f3a
00000350: 5f64 76bc 0a7b 7c3c 8798 1f3c 7827 293d
00000360: 9059 773d 73ad 7b3d a6f9 58bc 473b d93c
00000370: 47d3 53bd b6f8 eb3c eec9 1cbd 99e7 a9bc
00000380: fe8f 273d 6cd8 013d e712 11bd b124 11bc
00000390: ef5c 463d 65b2 c63c 3a9d 1f3d c526 313d
000003a0: 1591 2b3c bed8 53bd d81f 003d 39e1 0c3d
000003b0: 6d50 723d 8d86 30bd 4229 463c ecd1 a8bc
000003c0: 67cd 6f3d 20b9 5d3c df98 80bb e62a 22bd
000003d0: dbd5 603d d9ff 11bd 28f0 77bd a6ec 113c
000003e0: 9d05 623d c2b6 ac3c de9b 4e3c 508b 4e3d
000003f0: b98c 563d 2568 493d 2a14 e03c a11b 3e3d
0.040300075 0.031736 0.018483564 0.036850005 -0.0445484 0.0423269 0.047430407 0.012494186
-0.040572375 0.048506036 0.0054271584 0.064024344 -0.007804884 0.039676365 -0.03976358 0.044940062
0.020258738 0.02659325 -0.0012950785 0.010984981 0.015406498 -0.02747787 0.0027632948 -0.0030488295
0.017409885 0.018660108 0.0040403507 0.002470956 -0.008124965 -0.03774098 0.03571425 -0.0046596066
-0.05057554 -0.009390384 -0.014962046 0.04016934 -0.017752258 0.020489343 -0.017613487 -0.015713254
-0.025740098 0.00059389713 -0.020080876 0.056158427 0.049573887 0.014661665 0.060932014 -0.019680021
-0.025865369 -0.010920807 -0.07152326 -0.039739527 0.0006961112 -0.004198672 0.029297456 -0.08014544
-0.04170718 0.020890605 -0.039903503 0.06914143 -0.0021431306 -0.0029867848 0.013333384 -0.0005421092
-0.0002580076 0.04551808 0.01157824 -0.011345685 0.02641833 -0.01905993 0.08213757 0.018814059
0.04261622 0.06412081 0.030605184 0.0010618283 -0.06985747 -0.030724164 -0.02078344 0.012219432
0.049415205 0.008241028 -0.020348309 0.012838136 0.022660865 0.06885382 -0.0024472175 -0.035191733
0.0069949497 -0.00045660706 0.003489661 -0.014862355 0.016571475 0.008597356 0.014316205 0.010679021
0.01232124 0.0074935923 0.027341347 0.034190327 0.09673143 0.05775863 0.029128328 0.027288234
-0.02978619 0.007388059 0.0349752 -0.012316256 0.020447066 -0.0076959846 0.08538841 0.019425968
0.078317605 -0.009891432 -0.031201012 0.012955533 0.07652574 0.02934947 0.010037151 0.04187214
-0.035682857 0.025276354 0.04232468 0.015241223 0.02343314 0.054383792 0.059105482 -0.04040831
-0.045998465 -0.009497271 -0.0344657 0.023184404 -0.023361813 0.00095743674 0.015307308 -0.030669365
0.021825861 0.038858805 -0.010529908 0.03928323 -0.01428679 -0.03830932 0.018505333 -0.025077313
-0.004351204 -0.05182242 -0.020163132 -0.06982344 -0.049053255 -0.019904505 0.060468756 0.06059992
0.0039687883 -0.01015553 -0.028347278 0.047760338 0.03769652 -0.023260402 -0.036543407 -0.000101229874
0.010041878 0.03153323 0.023053944 -0.01200746 0.05807344 0.06147104 -0.020229872 -0.012894518
0.0145310685 0.022384733 0.040210735 0.068563715 0.086232774 0.08196384 0.045784812 0.013286338
-0.005201055 0.030501556 0.072060704 0.07125141 0.040722854 0.06914748 -0.044567946 0.0072183628
-0.0041540302 0.0473992 -0.016629081 -0.035662968 0.003665995 0.059212722 0.007240163 0.027540296
0.012677831 0.05184304 0.026219906 0.040992856 -0.00010828057 -0.009087501 0.07436875 0.04572228
0.008838992 0.064354226 0.030430362 0.0040785936 -0.0019096998 0.061825577 0.06604692 0.048440125
0.00050726807 0.06509718 0.06982851 0.0009128758 -0.015038579 0.015410194 0.009740955 0.041297406
0.060388148 0.06144471 -0.013243115 0.026517523 -0.05171516 0.028805118 -0.038278513 -0.020740317
0.040908806 0.031700537 -0.035418417 -0.008858846 0.048428472 0.024254987 0.038968302 0.043249864
0.010471602 -0.051720373 0.03128037 0.034394477 0.05915873 -0.043097068 0.012094798 -0.020607911
0.058545496 0.013532907 -0.0039244737 -0.039591692 0.05489145 -0.035644386 -0.060531765 0.008906519
0.055181134 0.02108324 0.012610404 0.050425828 0.052380297 0.049171586 0.027353365 0.046413068

conceptizer.encoder.1.0.bias f4 [5]
00000000: afc1 7d3c 98bc 463d ad13 a53d 3621 203d
00000010: c981 c43d
0.015488072 0.0485197 0.080603935 0.039094172 0.09595067

conceptizer.encoder.2.layers.0.weight f4 [1, 16]
00000000: 62f7 adbb 231e d2bc 9e52 92bb abe0 04be
00000010: 2a29 d83d 367b 2d3e a685 093e ea3f 8cbd
00000020: 47b4 37be c468 2fbe f8f7 36be 3097 4cbe
00000030: 7e30 20bd e246 7bbe b3a9 67be 4eb3 a13d
-0.0053090313 -0.025649136 -0.004465415 -0.12976329 0.105547264 0.16941532 0.13429889 -0.06848128
-0.17939864 -0.17129809 -0.1786803 -0.19979548 -0.039108746 -0.24538758 -0.22623329 0.07895528

conceptizer.encoder.2.layers.1.weight f4 [1, 16]
00000000: daee 773e 5846 dfbc 2504 acbd 71c3 acbd
00000010: 46da 12be b1f6 833a 2843 8f3c 1984 4b3e
00000020: 32c7 c2bb 8f5d a8bb bbeb 273e 9c32 113e
00000030: 9a49 933d cd64 833c e127 553e 89c3 a03e
0.24212208 -0.027255222 -0.08399228 -0.08435715 -0.14341077 0.0010068027 0.017488077 0.1987461
-0.005944156 -0.005138106 0.16398518 0.14179462 0.07191773 0.016039276 0.20815994 0.3139918

conceptizer.encoder.2.layers.2.weight f4 [1, 16]
00000000: 0aec 83be 7505 653e c76b 153e 709b 49bd
00000010: f1ac cb3d 1be9 60bd 1ee2 ea3d 4191 84be
00000020: ef22 74be a2bc adbd d65a c03d b817 dabc
00000030: 6d83 48be 426c 773d 212f c43c ed42 e33d
-0.2576602 0.22365363 0.14591895 -0.049220502 0.09945095 -0.054909807 0.1146891 -0.2589207
-0.23841451 -0.084832445 0.093923256 -0.026622638 -0.19581385 0.060405977 0.023948254 0.110967495

conceptizer.encoder.2.layers.3.weight f4 [1, 16]
00000000: 16d0 243e 01b8 1c3e ab12 c93b 5432 743e
00000010: 963b 61bd fc25 063e 307f d33d c699 cd3d
00000020: 376c 20be fa55 303e 502c 78bd a380 283d
00000030: a6d9 4b3e f018 04be 50f6 edbd bbd4 c2bc
0.16095003 0.15304567 0.0061362586 0.23847324 -0.054988466 0.13100427 0.103269935 0.100390956
-0.1566628 0.17220297 -0.060589135 0.041138303 0.19907245 -0.12900138 -0.11619246 -0.023783078

conceptizer.encoder.2.layers.4.weight f4 [1, 16]
00000000: b0dd 253e 402a fcbd 31a0 383d 0b2f c73b
00000010: 1640 82be df75 d2bd 607f 913d 1635 0dbe
00000020: b8e4 15be fbfd 29be 8754 41be a6c1 89bd
00000030: a9ae 003e 5e55 483e 7080 9b3d 374e e1bd
0.16197848 -0.12312746 0.045074645 0.006078606 -0.2543952 -0.102763884 0.07104373 -0.13789782
-0.1463803 -0.16600792 -0.18879901 -0.06726389 0.12566628 0.19563815 0.07592857 -0.110012464

conceptizer.decoder.0.0.weight f4 [5, 16, 5, 5]
00000000: d590 a03c 90d0 81bd eec8 a8bc aaf3 c93c
00000010: c820 7f3d 7012 0f3e 12ee 9abb 0189 bdbd
00000020: 57db 90bd c225 96bd 4ebe fd3c 1471 893e
00000030: f258 753d 2655 aebd 62d9 463c 4639 b5bd
00000040: 3274 143e abc8 d2bc e4cd e7bd 3d22 edbd
00000050: cc1b 903d 7227 6a3d 65cb 6c3d 7512 32be
00000060: 8e5d c2bd efbc 873d 0ced d03c 249d c93c
00000070: 964b 86bc 3d89 563a f6c5 f5bc 3856 8c3d
00000080: e84d b7bc c93b de3c d353 793c 2d54 e0bd
00000090: 73b7 bebd 5bfd 323c ea0c febb 69e2 483d
000000a0: 2b91 0bbe fba7 87bd d403 80bd 732d 853d
000000b0: 8758 883c 2c60 a5bc 12dc c9bb 776d 5d3d
000000c0: a1d5 eabd 2fee 833d 3b6f 213e 7d57 9cbd
000000d0: b6ba e93d caa6 afbc 6a03 623d 9b0e 9dbd
000000e0: 55c3 243e 0611 833d 308b af3d d31c 9b3d
000000f0: e5c0 1fbd 72a2 463e 51e9 c1bc 96a2 453d
00000100: 60fb 8ebd 11c8 093e f26a fcbc 7bda 34bd
00000110: e960 48bd 05d1 98bc c68b c23d aba3 ef3c
00000120: 4f42 07be d69d 063e 2b22 d0bd d0f1 96bd
00000130: 2f8a 39be ed1f 02be 9021 e2bc 8902 a83c
00000140: 717d 1e3d 50f5 e53d 183a 8dbd ef5b cabd
00000150: 9645 f93c da7d 3a3e d13d 4d3d 78ab a13c
00000160: cba8 203d 659d 3d3d fa36 903b 2eb9 853d
00000170: ecdd 1ebc 7081 993d c50f 7c3d 0bb9 9ebd
00000180: 858f 6a3d 4ca2 323e 16c8 063e 2cee b83d
00000190: 4359 a83d df1a b0bd 3ff2 ebbd 8e8f 96bd
000001a0: d672 a43c 16e2 f73b 6f15 a63d 186d a53d
000001b0: 4290 913c 37bf ebbd d34c b23d f8f4 483e
000001c0: 7cfb 40bd 1317 903d 2db7 b4bd b125 96bb
000001d0: 4f71 843d a940 c23d f94e d93d 1c65 09be
000001e0: 0c64 9fbc 26a3 b13d 73fd 6cbd 875a e63d
000001f0: 6fc5 8dbc 84b9 b5bc 83d3 c2bc 6e68 57bd
00000200: 41ea fb3b 77ab 8dbd 1468 0fbe 28fb 3cbe
00000210: 4b08 e13c c346 dcbb 5538 d9bd d9b9 8b3c
00000220: c230 75bd e1c5 433c a642 d63d 71a4 223d
00000230: bbcf e1bc 7e30 f6bd 917f a2bd 77ee fdbd
00000240: b458 943d e31a 513d f6d0 80bd 18e9 0e3e
00000250: ee52 573c c0c5 163d 5d64 923d 7f43 14be
00000260: 93a0 05be 4b32 5fbb 7fc1 9d3d dd10 ef3c
00000270: 0f7c d4bd 7913 e7bb 151f cebc 8c54 84bd
00000280: 68cc 343d 3609 b8bd fb21 2d3d 1166 88bd
00000290: 2171 51bd 88d0 053d dcab 85be f6d6 39bd
000002a0: bc04 d43b 283a 28bd 91dd 27bd 4291 b7bd
000002b0: ddb5 803d eefc 2cbc f8d6 7fbd 24bf 833c
000002c0: 48ae 693d 71ed 3dbc fa17 433d 5de5 7e3d
000002d0: 94fd 6e3d ba7a 073e ee48 b5bd 5a23 a23d
000002e0: 46af f8bc 7fa2 9d3d 398a dfbd fcd0 013b
000002f0: 3430 04bd 05ce 19be df7f 7e3d 6c68 663d
00000300: 82e2 11bd 2215 9dbd 2071 9dbd 9dec 47bc
00000310: 6748 b4bd 5dd3 efbb 66c0 843d a62c 55bd
00000320: 5310 4d3b 9349 bebc c859 82bc 678b 13be
00000330: c66d ff3d e7ad c53d 6ea8 d1bd 9177 f43c
00000340: 3f56 823d c078 5f3d 2a84 39ba c720 aa3d
00000350: 19c3 193d 1bcc dc3b 2d58 f73c e35d 243d
00000360: 2931 45be ec9a 553b e965 7ebd 4d6f 473d
00000370: d5ec d4bc 0e74 d2bc f088 99bc 69ad 82ba
00000380: bfb6 493e a65c 0bbe e73e 5bbd e9a2 c73d
00000390: 5d1f d03d 7ae5 a1bd 0b4d 3fbc 0200 a43d
000003a0: a398 003e 1740 aebd 3aa4 b23d af9b 74bc
000003b0: 6391 253d 5973 593c 83fe 0dbd 86d7 b0bc
000003c0: f8a6 cebd 728d 613c bc2d f93d fc0b 6a3d
000003d0: 3bae 64bd ab00 e63c 1bea 6c3d d1e0 993d
000003e0: e0f7 ae3d b7d5 17be a014 fbbd d96e 2cbd
000003f0: 2e2f ba3d 01fa 273d d044 43bc 4c2b 7cbe
0.019600311 -0.06338608 -0.020603623 0.02465232 0.062287122 0.13971877 -0.004728087 -0.09254647
-0.07073086 -0.073314205 0.030974533 0.26844084 0.059899278 -0.085123345 0.012136789 -0.08848815
0.1449745 -0.025730452 -0.113185674 -0.11578796 0.07036552 0.057166524 0.05781116 -0.17389853
-0.094905004 0.06627833 0.025503658 0.024611063 -0.016393464 0.0008183902 -0.030001622 0.068523824
-0.022376016 0.027128117 0.015217739 -0.10953555 -0.09312334 0.010924662 -0.0077530043 0.049044047
-0.13629596 -0.066238366 -0.0625073 0.065028094 0.016643776 -0.02018746 -0.0061602676 0.054059472
-0.11466528 0.06441914 0.15765087 -0.076338746 0.114125654 -0.021441836 0.055179037 -0.076688014
0.16090138 0.06399731 0.0857147 0.07573857 -0.039002318 0.19397905 -0.023670824 0.048250757
-0.0698154 0.13455226 -0.030812714 -0.04415367 -0.048920546 -0.018654356 0.09499316 0.029252848
-0.13208888 0.13146147 -0.10162767 -0.07370341 -0.18119119 -0.12707491 -0.027603894 0.020509021
0.03869385 0.1122843 -0.06895846 -0.09880816 0.030428689 0.18212071 0.05010778 0.019735083
0.039223474 0.04629268 0.004401085 0.06529461 -0.009696465 0.07495391 0.061538476 -0.07750138
0.057265777 0.17444724 0.13162264 0.09029803 0.0822015 -0.08598875 -0.11520814 -0.073516
0.02007429 0.0075647933 0.08109557 0.080774486 0.017768983 -0.11511081 0.08706059 0.19624698
-0.047114834 0.07035651 -0.088240005 -0.00458213 0.064669244 0.09484989 0.10610766 -0.13417476
-0.019456886 0.08673696 -0.057858896 0.112477355 -0.017306058 -0.022183187 -0.023782497 -0.052589826
0.0076878374 -0.0691747 -0.14004546 -0.18455184 0.027469775 -0.0067223026 -0.106064476 0.017056393
-0.059860952 0.0119490335 0.10461931 0.039707605 -0.027564874 -0.12020968 -0.079344876 -0.12398999
0.07243481 0.05105103 -0.06289856 0.13956106 0.013142331 0.036809683 0.07148049 -0.14478873
-0.13049535 -0.0034057077 0.07702922 0.029182846 -0.10375225 -0.007051882 -0.025161305 -0.064614385
0.04414025 -0.08986132 0.042268734 -0.066600926 -0.05113328 0.032669574 -0.2610768 -0.04537102
0.006470291 -0.041071087 -0.040982787 -0.089632526 0.06284688 -0.01055835 -0.06246087 0.016082354
0.057050973 -0.011592255 0.047630288 0.062230457 0.0583473 0.1323041 -0.08851801 0.07916899
-0.030357014 0.07697009 -0.10915036 0.0019808402 -0.032272533 -0.15019996 0.062133666 0.05625193
-0.035616405 -0.076700464 -0.076875925 -0.012202409 -0.08802872 -0.0073188976 0.064820096 -0.052044533
0.0031290248 -0.023228442 -0.015911952 -0.14408647 0.124721095 0.0965231 -0.102372035 0.02984217
0.063641064 0.054558516 -0.0007076884 0.08307033 0.037539575 0.0067381985 0.030193413 0.0401286
-0.19257034 0.0032593561 -0.062108908 0.04869013 -0.025991837 -0.025690105 -0.018742055 -0.0009969893
0.19698618 -0.13609561 -0.053526785 0.097478695 0.10162232 -0.07905097 -0.011676083 0.08007814
0.12558226 -0.08508318 0.0872273 -0.014929696 0.040421855 0.01327213 -0.03466655 -0.021587145
-0.100904405 0.013766633 0.12166926 0.057140335 -0.05583022 0.02807649 0.057840448 0.075135835
0.08543372 -0.1482762 -0.12259793 -0.0420979 0.0909103 0.041009907 -0.011918262 -0.24625891

conceptizer.decoder.0.0.bias f4 [16]
00000000: 670b 15be 6f3b b2bd 8b52 cf3c 43bf a13d
00000010: 4dd3 1ebd c9f1 8a3d 6ba0 6ebd adc0 4d3d
00000020: 288f 0bbd dec6 9d3b 5b21 6dbd 0668 b7bd
00000030: 97c2 7b3b db84 16be 855b 9cbd e361 30be
-0.14555131 -0.08702742 0.025307914 0.078978084 -0.03877573 0.06784398 -0.058258455 0.050232578
-0.03407207 0.0048149666 -0.05789314 -0.08955388 0.0038415545 -0.14699118 -0.076346435 -0.17224841

conceptizer.decoder.2.0.weight f4 [16, 8, 5, 5]
00000000: 954b cdbd bb34 49be 0c97 18be b836 b53d
00000010: 73ee 613d ecf4 bebc 284d 46bc 9ce8 083e
00000020: a63b 6b3e f519 a63d 57d3 e43d 4bde 153e
00000030: 1b4f 913e bcf9 b63d ad9a 0e3d 40c1 333e
00000040: 8a83 183e e227 343e 2a42 8d3d 0d24 99bd
00000050: 4e6d 993d d303 873d e650 023e f216 433d
00000060: 14c5 843d f583 bc3c 9899 9cbd efc1 9cbd
00000070: efd9 b73c c866 c23d 9228 db3d 301b 8bbd
00000080: 372a 37bd d28e 153e 8442 003e 6729 b93d
00000090: 9433 bf3d 2fab c23c f9bb 163e d1b2 df3d
000000a0: 9898 a03d 7d14 253e 2ad5 4a3e 47d2 423e
000000b0: aac0 7e3d e8ec 133e 4bec 2d3e cab4 323e
000000c0: 6050 023e a154 c73c d32c 8c3d dfa7 8b3c
000000d0: 9bd1 d0bd 1dec 02bd a5eb a93d 2b70 4fbd
000000e0: 97e2 23bd 653e 30be abc0 bdbb 2d05 343e
000000f0: 0788 053d 8c3b 933c a550 eebd 351c 053e
00000100: a47f 5a3d 489a e13d 6281 2f3e ea3a e23d
00000110: 2828 eb3d c8ef 273d eb4d 2c3e ffaf f43d
00000120: 0475 223e bc91 1d3e d444 7e3d 2604 abb9
00000130: 9af1 983e cbc7 af3d 3d6e d1bd 2760 8a3d
00000140: f7d6 fc3d a410 78bb 3a5d c73d 4963 f9bc
00000150: 01ee 0e3e 4906 eebb 022c 07be d142 b5bd
00000160: e5da c8bc 8709 393d 9720 1fbe 6711 0fbe
00000170: 58b5 4ebd 4da5 443e c5ff c03d ce4a f83c
00000180: 3898 a8bd e769 153d 131c 4f3e 0964 733d
00000190: 603a 96bc a089 32bd b7f6 9ebb 91a3 c0bc
000001a0: caaf bfbc 171b 0e3e a2e2 813e c2cf 693e
000001b0: afc7 673c 7876 393d 1b77 8bbb 64a5 fa3d
000001c0: f965 413e 8eb8 a8bd 4bd8 03bd a26d 0bbe
000001d0: 005a 59be c53c dfbd f70c 9ebe 5634 c7bd
000001e0: e3ee 0abe 8d62 73be 2930 5cbe b21b 0abe
000001f0: 9048 bebd 7880 ad3d 59bc 743e 3848 c13e
00000200: b2b7 a93d 2e25 d7bd b583 ae3d 0b77 313e
00000210: 186e 673e 9d96 46be e042 8abe 96de e1bd
00000220: 4454 dcbd 421f 62bd 0ff3 9cbe 6e13 1cbe
00000230: 3a40 e6bd 4e75 55be 04c1 53be 3f83 bcbe
00000240: 676c 15be 7854 573a 666a 00be e291 a1bd
00000250: e23d 8ebd edec babb c50c 953d b704 173e
00000260: a676 253e 0c3c 7cbd c4fd f3bd 4e80 843d
00000270: 8d02 2b3e 3850 eb3d 2d5d 91be bb9f 05be
00000280: bbf4 90bd d9a4 81bd 516d fcbd 4c06 a2be
00000290: 4031 90bd 4cea 28be 7fa1 87be e4e0 8bbe
000002a0: 9b97 a5be 4241 d63b b243 03be 1933 83be
000002b0: ba39 f2bd 5f78 11be e5b8 e43d 25d7 00be
000002c0: d2ac d3bd a6ba 5dbe 7bdc 44be ff6f 3a3d
000002d0: 8fe9 65be 2ebe f0bd 415f adbe 81a5 12be
000002e0: 0b4a 4c3e 2003 a9bd bec4 843d a51a 943d
000002f0: ab32 e83d 9783 033e ed30 ffbd ad0f 013d
00000300: 520d b13e 21d6 623e dec1 673e 54b8 23bd
00000310: 444b 333e 1ddb 4c3e 8db8 393e 337e 063d
00000320: 924e 9dbd dade 693d 8bcf 42bd b2e7 5a3d
00000330: d030 31bd b17f 5b3e 0257 823e 263e 4d3d
00000340: 2501 973d bd8a 91bd 7bb0 933e c0c6 083e
00000350: 858b 99bc ad3f 1e3d dd31 95bc a9b2 243e
00000360: defe dbbd abb7 17be c81c 90bd 28d2 4bbc
00000370: e27a 393d c5aa acbd a50d 023c 60d6 813d
00000380: 1bf2 a2bd 5f5b 9e3c f54e 613d e26b 4cbb
00000390: 311c 57bb 389d 833c 6bc4 683c 5cd1 1a3e
000003a0: 66d1 fbbc 6493 c83d 65f5 bb3c 9858 1d3e
000003b0: 9010 4a3e fcbc 493d 8c18 053e b2ae a13d
000003c0: 437c 023e 28d0 be3d ef4c bdbd 391d dbbc
000003d0: aa95 1f3d 2b47 043d f98a 8abd 0862 f9bc
000003e0: a934 ae3d 22a3 2c3d 175d 23bd 0c39 10bd
000003f0: 6878 40bd 39cc 773c 550c 39bc 2f84 b03b
-0.10024182 -0.19649021 -0.1490137 0.088483274 0.055159044 -0.023310147 -0.012103356 0.13369983
0.22971973 0.0811042 0.111731224 0.1463558 0.28380665 0.08934352 0.03481548 0.17554188
0.14893928 0.17593339 0.068973854 -0.07477579 0.07491551 0.06592526 0.12726173 0.047629304
0.06482902 0.02301214 -0.07646483 -0.076541774 0.022442786 0.0949226 0.107010975 -0.06792295
-0.044717994 0.14605263 0.12525374 0.090411 0.093360096 0.023763267 0.14720143 0.109227784
0.07841605 0.16121097 0.19807878 0.19025527 0.062195458 0.14445841 0.1698467 0.17451778
0.12725973 0.024332346 0.06844487 0.01704782 -0.10196229 -0.031963456 0.08296899 -0.05064408
-0.040011015 -0.17211302 -0.00579079 0.175801 0.03260043 0.01797273 -0.116364755 0.12999041
0.053344384 0.11015755 0.171392 0.11046393 0.114822686 0.041000158 0.16826598 0.11947631
0.1586495 0.15387625 0.06207736 -0.00032618752 0.29871827 0.08583029 -0.102261044 0.06756621
0.12345689 -0.0037851715 0.097345784 -0.03044285 0.13957979 -0.007263933 -0.13200381 -0.08850635
-0.02451844 0.0451751 -0.15539776 -0.13971482 -0.05046591 0.19203682 0.09423784 0.030309107
-0.082321584 0.03647795 0.20225553 0.059421573 -0.018338382 -0.04358828 -0.004851188 -0.023515495
-0.023399252 0.13877521 0.2536822 0.2283316 0.014146729 0.045278996 -0.004256142 0.12238577
0.18886556 -0.08238326 -0.032188695 -0.1361604 -0.21225739 -0.10900263 -0.30869266 -0.09726779
-0.1356769 -0.23768063 -0.21502747 -0.13487127 -0.09291184 0.08471769 0.23899974 0.3775041
0.0828699 -0.10505138 0.08521215 0.17330568 0.22600591 -0.19393392 -0.27004147 -0.11028783
-0.1075826 -0.05520559 -0.3065419 -0.15241787 -0.11242719 -0.2084553 -0.20679098 -0.36818883
-0.14592133 0.0008214186 -0.12540588 -0.07889153 -0.06945397 -0.0057045133 0.07277826 0.14747892
0.16158542 -0.061580703 -0.11913636 0.06469785 0.16700192 0.1148991 -0.283914 -0.13049214
-0.07077929 -0.0633027 -0.12325538 -0.3164543 -0.07040644 -0.16495627 -0.264904 -0.27320015
-0.32342228 0.006538541 -0.12818792 -0.25624922 -0.11827417 -0.14206074 0.11168078 -0.12582071
-0.10335697 -0.21653232 -0.19224732 0.045516964 -0.22452377 -0.11755024 -0.33861735 -0.14320947
0.1995012 -0.08252549 0.06482838 0.072316445 0.11337789 0.12843166 -0.12460504 0.03150909
0.34580475 0.22151996 0.22632548 -0.03997071 0.1750918 0.2000546 0.18136807 0.032835197
-0.07681002 0.057097293 -0.04756121 0.053443618 -0.04325944 0.21435429 0.25457007 0.050108097
0.07373265 -0.0710654 0.2884558 0.13357067 -0.018743286 0.038634945 -0.018212253 0.16083778
-0.107419714 -0.14816158 -0.070367396 -0.012440242 0.045283206 -0.08431009 0.007937823 0.06339717
-0.07956334 0.019330679 0.05500694 -0.0031192233 -0.00328232 0.016066179 0.014206986 0.15118927
-0.030739497 0.097937375 0.022944162 0.15365827 0.1973288 0.049252495 0.12997645 0.078946486
0.12742715 0.093170464 -0.092431895 -0.026747333 0.03896109 0.032294434 -0.06764788 -0.030442253
0.08506138 0.042147763 -0.0398837 -0.035210654 -0.04698983 0.015124374 -0.011294444 0.0053868513

conceptizer.decoder.2.0.bias f4 [8]
00000000: 668a cd3c 06fc 2ebb c8b9 3f3d cb64 843d
00000010: c82f 3bbd 75e0 bdbd 698a 89bd 4947 01be
0.025090408 -0.002670051 0.046808034 0.06464537 -0.045699865 -0.092713274 -0.06715853 -0.1262485

conceptizer.decoder.4.0.weight f4 [8, 1, 2, 2]
00000000: 1ff8 e4be c189 07bd 6bf6 53be 75bb 3a3f
00000010: 918f 073f c8b4 023f ef68 123f 10b9 1c3f
00000020: e503 133f a918 013f 3fe5 fd3e be8f e7bd
00000030: 846e 25bf b4e5 3ebf ed5c 3abf 7f96 4cbf
00000040: 423a 26bf 7b3a 75bf 5b97 113e 576d d6be
00000050: b54e 0fbf 1e3c 71be cc89 81bf 1b28 4dbf
00000060: b480 71be 2f3f 72bf 58c9 00bf eeab 3abf
00000070: 01f5 da3f 55a1 f23e e3a4 943f 34f2 de3d
-0.4472055 -0.033090357 -0.2069947 0.72942287 0.5295344 0.510571 0.57191366 0.6121988
0.5742782 0.50428253 0.49588963 -0.113067135 -0.6462176 -0.7456925 -0.72798043 -0.7991714
-0.64932644 -0.9579236 0.14217894 -0.41880295 -0.5597947 -0.23558089 -1.0120177 -0.8013932
-0.23584253 -0.9462766 -0.50307226 -0.72918594 1.7106019 0.47388712 1.161282 0.1088604

conceptizer.unlinear.weight f4 [16, 1]
00000000: a9e0 42bf 1105 0d3f 4629 33bf 0f8f a2bf
00000010: c8f4 98bf 7224 7dbf 89d6 ac3f 5ac1 96bf
00000020: 69a7 67bf f012 b8bf 782f b13f 068e ca3e
00000030: 9de5 75bf e137 eabe ece2 61bf a8b5 373f
-0.76124054 0.55085856 -0.69984853 -1.2699908 -1.1949701 -0.98883736 1.3502971 -1.1777756
-0.9048982 -1.4380779 1.3842611 0.3956148 -0.9605349 -0.45745757 -0.8823688 0.7176156

conceptizer.unlinear.bias f4 [16]
00000000: 327f 443f 8edb c23d bbf9 90bf 3a4f 7a3f
00000010: 26e1 223f bd89 0b3f a278 1dbf 6b9b fe3e
00000020: a45f f03d 7772 2fbf fd0f 43bf 2451 303f
00000030: 2110 cdbe 4372 1cbf f002 f6be f3d0 b03e
0.76756585 0.09514533 -1.1326212 0.9777714 0.636248 0.54507047 -0.61512196 0.4972795
0.11736992 -0.68534034 -0.7619627 0.6887381 -0.40051368 -0.6111185 -0.48049116 0.34534416

parameterizer.cl_layers.0.weight f4 [10, 1, 5, 5]
00000000: 68a0 923d 713c 43bd e657 5b3d b7d8 eb3d
00000010: dcf6 ee3d 46a7 e53b 6a11 493e d4be 83bd
00000020: bd88 9bbd 0550 8bbc 03cb 443c 68ed 153e
00000030: b3f7 253e b5c6 7d3e 5045 413e 7966 b0be
00000040: 89e4 e0bd 9c9f 6abd d4cc fbbd 398d 7bbe
00000050: a126 f8bd aaa6 9bbe dd29 afbe b167 89be
00000060: 93d3 50be 9700 7fbe bad5 d2bc 7460 223e
00000070: bdfc 8aba bef7 5e3d 8b97 98be 7da9 8dbe
00000080: 7bf7 f0bd de29 efbc deb4 92bc 7408 9abd
00000090: e2d3 b1bd e5d1 8abe caa5 d4bd be97 0bbe
000000a0: baf3 633e 66af 0cbd b899 143c 3b4c 46be
000000b0: 35b0 54be fc39 553e 6fdb 113e 27de 83bc
000000c0: d9e9 2f3e ba3d 6cbe 4235 56bd e72a f83d
000000d0: 4add c73d 0802 c63d 853f 863d 6a88 f7bc
000000e0: 9c4d bebd e4e2 e33d 37d6 9a3d 08a5 ec3d
000000f0: 927f 6f3b 742f f9bb c105 25bd 0a0f 023e
00000100: d236 b83d 0662 09be 41fa a3bd 0244 033e
00000110: 594e 0cbc b001 0a3e ecff a8bb 88d8 13be
00000120: a99e 33bd 1867 65bd ef7a 563e 4ca8 c1bc
00000130: 2134 7f3e e6e0 473e 05b1 133e b8e3 4e3e
00000140: d4eb 2e3e 082c 3c3d 53dc f03d c425 073e
00000150: 3309 073e 7fa0 bcbc 94f0 01be adfb 3ebe
00000160: e803 14be 4cd9 27be 0809 bf3d 4a92 2abe
00000170: 517a 513d 6dbf d0bd 3f72 233d e3b6 57be
00000180: 5adf 0bbe e851 373d 7259 24be d230 3d3d
00000190: 37c9 033e 0978 243e 5fe5 f7bd d735 d9bd
000001a0: e8d2 99be e823 003d 1d19 1e3e d340 4ebe
000001b0: 31da 83be 46ea babd 24f2 013e c70b 4cbd
000001c0: 80d1 97be f398 a1bd 2216 bb3d 0b24 a43d
000001d0: 3b30 61be db02 56be 1cf7 eebc 13eb 163b
000001e0: 9f68 3dbe 1c94 87be 18f2 07be 8556 233e
000001f0: fd2e 9a3c 845a 61be 17bf e3bd 8761 853d
00000200: 05d0 d3bd 47d4 6cbd 2304 26bc 56eb 36be
00000210: 757f 1abe d280 ad3d 8695 4f3e f378 bb3c
00000220: 2838 2ebe 21cd ea3d 4fd9 d23d e3bd 3a3d
00000230: 4eab 363d fe8e 3cbe 4954 f13d 6e7a 0c3e
00000240: ad70 393d 6dbf 62be da49 973d 2e1d 73bd
00000250: 43bb 5b3e 6320 003e 70d5 673d 2308 ccbd
00000260: 71ea 7b3d d297 223e afa9 43be 88a3 66bd
00000270: e153 f0bd 0a62 403e 000e f63d 410b a4bd
00000280: bd0d 1d3d 924d a7bc 01dd 7b3e 11d2 f8bd
00000290: d29c 7bbe 5a90 663d 1e3a 1f3e 18cc 87bc
000002a0: 9c27 373e 29bc 4abe cc17 0ebe b204 e7bd
000002b0: 3058 70bd 6a2a 293e fd1b c03c 80bf 6d3e
000002c0: 3c63 50be d184 4cbe 1167 14be 1ee4 833e
000002d0: 17d4 473e 7216 3dbe cba0 07be fe1d b3bd
000002e0: 3bb3 703e 6843 9a3d 7842 943d f2f8 5cbe
000002f0: 6214 1dbe 21d4 193e 1211 ab3d e347 11be
00000300: 52e0 b43c 640f 68be 1a50 593e 2837 96bd
00000310: a7f5 e5bd af3f d0bc 4add 6cbe 1127 25be
00000320: 5142 3fbd f01a 8dbe 793a 81be 2701 c43d
00000330: 7cb7 16bd e113 623e 60e3 013e f11a e13d
00000340: aaa4 7cbd 4f76 113e 35d8 be3d 7039 323e
00000350: 7c2a 333a c48c a1bb 0ecf 6fbd 87fc 57be
00000360: 572c 0f3e d6ca e83d 77c2 0ebe 0cdc 1abe
00000370: 76a5 bebd 1756 6fbe 35aa 213e 097c 86bd
00000380: 9d5f 603e a4bd d5bc 97a6 6bbe f368 3dbe
00000390: 1d93 d9bd b749 303e a8d6 65bd 0ee5 c93d
000003a0: 57bb f53d 81ad 983d 70c9 a93d ebaf 943d
000003b0: 7cfb b73d 0001 3f3e 2e3e 653d d029 c3bd
000003c0: 4ead 673d 658c 7c3d ae23 4839 2b79 e43c
000003d0: d608 0dbe 94a9 d53c 2766 35bc 3920 d7bd
000003e0: 3da8 92bd f50f 8d3d
0.07159501 -0.047665063 0.053550623 0.115159445 0.116681784 0.007008466 0.19635549 -0.06432882
-0.0759444 -0.01700593 0.012011292 0.14641345 0.16207771 0.24782832 0.18874097 -0.3445318
-0.109810896 -0.05728112 -0.12294927 -0.24565591 -0.12116743 -0.30400592 -0.34211627 -0.26836923
-0.20393209 -0.24902569 -0.025736678 0.15857106 -0.0010603886 0.054435484 -0.29803118 -0.27668372
-0.11765953 -0.029194769 -0.01790851 -0.075211436 -0.086829916 -0.27113262 -0.10383184 -0.13632104
0.22260943 -0.03434696 0.0090698525 -0.19365017 -0.20770343 0.208229 0.14243864 -0.016097141
0.1717905 -0.23070422 -0.052296884 0.12117558 0.097590044 0.09668356 0.06555084 -0.030216414
-0.092921466 0.1112726 0.075603895 0.11554915 0.0036544544 -0.007604534 -0.04028869 0.1270105
0.08994831 -0.13416299 -0.080067165 0.12818912 -0.008563601 0.13477206 -0.0051574614 -0.14438069
-0.043852482 -0.05600652 0.20945333 -0.02363982 0.2492223 0.19519386 0.14422996 0.20204055
0.17082149 0.04594043 0.117607735 0.13198 0.13187103 -0.02302575 -0.1268943 -0.18650694
-0.14454615 -0.16391486 0.093278944 -0.16657367 0.05114204 -0.101927616 0.039903875 -0.2106586
-0.1365942 0.044755846 -0.16049746 0.046189137 0.12869726 0.16061415 -0.12104296 -0.10605972
-0.3004372 0.031284243 0.15439267 -0.20141916 -0.25752404 -0.09126715 0.12690026 -0.04981592
-0.29652023 -0.07890501 0.09135081 0.08014687 -0.21991055 -0.20899527 -0.029170565 0.0023028299
-0.18496941 -0.26480186 -0.13275945 0.15950973 0.018821234 -0.22007185 -0.11120432 0.065127425
-0.10342411 -0.05781963 -0.010132822 -0.17863211 -0.15087683 0.08471836 0.20271882 0.022884822
-0.1701361 0.114649065 0.102953546 0.045591246 0.044596963 -0.18413922 0.11783654 0.13718578
0.04527347 -0.22143336 0.07387133 -0.059354 0.21458153 0.12512355 0.056600034 -0.099624895
0.061502878 0.15878227 -0.19107698 -0.0563083 -0.11734749 0.18787399 0.12014389 -0.08009959
0.03834318 -0.02042273 0.24596025 -0.12149442 -0.24571541 0.056290008 0.15549514 -0.016576812
0.17886204 -0.1979834 -0.13876265 -0.112801924 -0.058677852 0.16520086 0.023450846 0.23217583
-0.20350355 -0.1997254 -0.14492442 0.25759977 0.195145 -0.18465593 -0.13244931 -0.08745955
0.23505871 0.07532388 0.072392404 -0.2157934 -0.15339807 0.15022327 0.08352865 -0.14187579
0.02207962 -0.22662121 0.21221963 -0.07334739 -0.11228495 -0.025420992 -0.2313129 -0.16128184
-0.046694104 -0.27559614 -0.25239924 0.09570532 -0.036796078 0.22077896 0.12684393 0.10991467
-0.061680473 0.14205287 0.09318582 0.17404723 0.0006834639 -0.0049301106 -0.058547072 -0.21092425
0.13981758 0.11366813 -0.1394137 -0.15123004 -0.09308903 -0.23372684 0.15787585 -0.065666266
0.21911474 -0.026091404 -0.23012768 -0.18497066 -0.10623763 0.1721562 -0.056112915 0.09858142
0.11998623 0.07454968 0.08290374 0.07260116 0.08983514 0.18652725 0.055967502 -0.095294595
0.05656176 0.06165733 0.00019086778 0.027889809 -0.13772902 0.026081838 -0.011071718 -0.10504193
-0.07160995 0.06887809

parameterizer.cl_layers.0.bias f4 [10]
00000000: 2522 f63d 712d 2d3e cb08 67be 49d1 c4bc
00000010: 34f5 353d fc8d 12bd 1ceb 5bbe aeab cdbd
00000020: 31ab d7bd e4a1 c3bd
0.12018231 0.16911866 -0.22561948 -0.024025576 0.044423297 -0.035779938 -0.21476406 -0.10042511
-0.10530699 -0.095523626

parameterizer.cl_layers.3.weight f4 [20, 10, 5, 5]
00000000: a423 2abb 0a94 2dbd 28d8 8abd 5511 cbbd
00000010: 9838 1fbd b6ac 013d c554 aa3c 45b6 d3bc
00000020: 7d58 b3bb 9ef0 bbbd 5651 613c 705b 9b3d
00000030: 54c4 993c 2243 60bd 7af7 d2bc 366a 903d
00000040: c706 603d 58c0 0abd 5fbf 51bd b3e2 1e3d
00000050: 3c00 fabb ad0d 803c 9540 1a3b 19d6 c0bc
00000060: a305 49bd f7cd 243d 0eb3 3e3d 25e4 65bd
00000070: dda8 cfbb 5d23 f0ba cc81 943c 54f6 0a3d
00000080: af16 293c 39a7 ab3b bf6c 523d 8b99 003d
00000090: 3c2b 093d 9780 873d 6e41 0a3c 4b61 c13c
000000a0: 7054 dc3c 7f91 9c3d 6788 80bc 6157 16bd
000000b0: 8fd2 babd e82b fabc caef c4bc bd70 b0bc
000000c0: f6d9 07bd 5560 21bd 66f3 0d3d 4960 c6bc
000000d0: b9b6 653d 0102 2c3c edca 743d a1ab 03bd
000000e0: e871 53bd 5291 493d 13e9 9ebc 0428 ea3b
000000f0: 5965 ae3b 0f37 ff3c c261 96bc 305e 02bd
00000100: 0577 e43c 38e0 74bc 07ac 583d fff5 8cbc
00000110: 3578 303c 030e 52bd f822 97bd 72aa e0bc
00000120: 285f 623d 5b5b 703c 81e6 a83c dcbb af3c
00000130: 2e7b 3b3c 6a9a 9fbc c77c 74bc 54e2 d4bc
00000140: c774 bf3b aa14 033d 23a1 bcbc 9c5b 0d3d
00000150: 4aa6 efbd 7b72 313d fb95 18bc e684 b2bc
00000160: bf06 cabd 3ddb 8f3a d5d2 f13c 74bc 633d
00000170: 9a4c 393d cd67 c4bc 1b3c acbb 23ab 683d
00000180: 6730 893c 4044 6b3c b8a4 d13c 8237 5bbd
00000190: 12a5 173d 85ea 8fbc ff54 c0bc b11a 553c
000001a0: 8ec1 44bd c04d 893c b6f6 9bbd 9570 8abd
000001b0: afa1 9bbd d07b e23c 5f2b 6dbd 491d 76bd
000001c0: 0043 2e3d af5d b2bc 975f 263d 07bc c5bc
000001d0: fd0e a43c 7e30 09bc 7f5a 713d c9be 3fbd
000001e0: 2b35 233d 4907 363d 5280 233d 99e9 2dbd
000001f0: f72f 1cbc e112 31bd 242d b6bb 1683 07bd
00000200: 3498 b83c 3f1a 333d b9af b0bc 7b31 093b
00000210: 983b 003d 0aa6 b63a 23da 91bc 9f20 9fbc
00000220: 4fbf 8b3c 90f6 a13b aa57 3e3a 9068 333b
00000230: c7c7 ffbb b377 803a 1247 4f3d a2ea 353d
00000240: 1a5a a9bd 186e 1c3c bff5 04bd ee6e 1fbc
00000250: 6a3e 61bd 97c5 a7bd 2f7c 5d3d 182e ba3d
00000260: 05e7 5b3d 32fd 673d b5c4 1a3d d78d ae3c
00000270: 6e3f b23c 53a0 1dbc e97f d53b 3f54 d2bc
00000280: a202 183d a5e7 de3b 8ca7 8cbc e074 043c
00000290: 3080 5d3c 9069 fcbc 68f8 5cbc 1305 73bd
000002a0: 4559 95bc d002 633d 1f0b a63c 2157 64bc
000002b0: 68c2 7d3d 3436 c73c 3516 393c 4e0c 20bc
000002c0: 546c 7d3d 29f5 1e3d 18e9 ffbc 7f1c 8b3b
000002d0: bedb e13b 88fc 5a3d c4a3 5d3d a613 0c3d
000002e0: 78a1 83bc 7a8a b1bd 44b8 dfbb 24be f2bc
000002f0: 0e58 783d 6629 8abc 5a16 e3bd f288 e4bd
00000300: 5e06 cebc acce 8f3c 293f b43d d7b4 09bd
00000310: 84fe 14bd c5c0 023d 29c9 ed3c 3100 c5bd
00000320: 0cd3 803c ec9b 863d b50c 1c3b 049b ba3d
00000330: 22d6 303b 9e64 80bb db93 8e3d fccf 873c
00000340: 0bbe 253c 2146 f33c beaa 1b3c e4fe 393d
00000350: 756f fc3c 450c e83c 4c92 f0bb 770c 373d
00000360: 0917 5abc 50b9 f23c 6b7a 83bd e5de a5bd
00000370: e46f 473d 54c3 183d f018 3b3c 4242 823c
00000380: 404c fa3a 543a 0e3d 6b32 523d dc5b 01bd
00000390: 9b85 c8bc dc3e e4bb abde 02ba 2d9e ef3c
000003a0: 8ca3 abbc 99c6 89bd 22c4 1c3d 7934 193c
000003b0: 1ff4 8d3b 8878 71bc 584f 0dbc dd73 9b3d
000003c0: 7b65 593d 1e7c 653d 715b d43c 39b5 d03c
000003d0: 361d 613c b2e8 2c3a 5018 303d dfc3 0e3d
000003e0: 5858 76bc f66b ecbd 6106 663c 0db7 c93c
000003f0: 568e 873d f7f4 cb3c d0f8 ca3d 4dd6 ea3a
-0.0025961185 -0.04237751 -0.0677951 -0.09915415 -0.03887233 0.03165885 0.020792374 -0.025843749
-0.005473195 -0.091767535 0.013752302 0.075858 0.018770374 -0.054751523 -0.025752772 0.07051508
0.054693963 -0.03387484 -0.051207896 0.038790416 -0.0076294225 0.015631521 0.002353703 -0.02353959
-0.04907764 0.040235486 0.04655748 -0.05612578 -0.0063372687 -0.0018321086 0.018128298 0.033926323
0.01032035 0.0052384404 0.05137324 0.03139643 0.033488497 0.066163234 0.008438451 0.023605963
0.026895732 0.07644939 -0.015690042 -0.036704425 -0.09122192 -0.030538514 -0.024040122 -0.021538133
-0.033166848 -0.03939851 0.03465595 -0.024215834 0.05608246 0.010498525 0.059763838 -0.0321461
-0.0516223 0.049210854 -0.019398248 0.0071458835 0.00532214 0.031154184 -0.018357161 -0.031828105
0.027888784 -0.014946036 0.052898433 -0.017207144 0.010770847 -0.051282894 -0.07379717 -0.027425025
0.05526653 0.014670218 0.020617725 0.021451883 0.011442943 -0.01948281 -0.014922327 -0.025986828
0.0058427784 0.03200213 -0.023026055 0.034511194 -0.11701639 0.043322068 -0.009313102 -0.021791887
-0.09864568 0.0010975372 0.029519478 0.055599645 0.04523907 -0.023975277 -0.0052561886 0.056803834
0.016746713 0.014359534 0.02559124 -0.053519733 0.037022658 -0.017567882 -0.02347803 0.013006852
-0.04803615 0.016760707 -0.07615416 -0.067597546 -0.07599198 0.027646929 -0.05790269 -0.060086522
0.042544365 -0.021773187 0.040618505 -0.02413751 0.020026678 -0.008373378 0.058924194 -0.046812806
0.039845627 0.04444054 0.039917298 -0.042459104 -0.00953292 -0.043230895 -0.0055595804 -0.033083998
0.022533514 0.043726202 -0.021568166 0.0020934034 0.031306833 0.0013934982 -0.017804211 -0.019424735
0.017058996 0.0049427226 0.0007260988 0.0027375557 -0.0078057977 0.0009801298 0.050604887 0.044413216
-0.08269139 0.009547733 -0.032460924 -0.009731038 -0.054991163 -0.08191984 0.05407351 0.09090823
0.053687114 0.05663795 0.03778525 0.021307869 0.021758761 -0.009620744 0.006515492 -0.025674937
0.037111886 0.0068025165 -0.017169736 0.008084506 0.013519332 -0.030812055 -0.013486959 -0.05933101
-0.018231044 0.055422604 0.020268975 -0.013936789 0.06195298 0.024317838 0.0112967985 -0.009768559
0.061870888 0.03880802 -0.031239077 0.0042453404 0.0068926504 0.05346349 0.054111257 0.034198426
-0.016068205 -0.086689904 -0.006827386 -0.029631682 0.06063085 -0.016865443 -0.110882476 -0.11158933
-0.02514952 0.017554604 0.08801109 -0.033619728 -0.036375538 0.03192212 0.029026585 -0.09619177
0.015725635 0.065727085 0.0023811285 0.09111598 0.0026983102 -0.0039182445 0.06961795 0.016578667
0.010116111 0.029696526 0.009501157 0.0454091 0.030814866 0.028326163 -0.0073416587 0.04468962
-0.013311156 0.02962938 -0.06419834 -0.080991544 0.04869069 0.037295654 0.01141952 0.015900735
0.0019096211 0.034723595 0.051317614 -0.031581745 -0.02447777 -0.0069655012 -0.00049922866 0.029250229
-0.020952009 -0.067273326 0.038272984 0.009350889 0.00433208 -0.01473821 -0.008624874 0.075904585
0.053075295 0.05602657 0.025922509 0.025477039 0.013739875 0.00065959536 0.042991936 0.034854766
-0.015035711 -0.115440294 0.014039607 0.024623418 0.06618945 0.024897082 0.099107385 0.001791665

parameterizer.cl_layers.3.bias f4 [20]
00000000: ac20 973d be15 7dbc f490 dabc 952d 0f3d
00000010: 2fdd 7cbc ee5c 233d b8f3 2d3d b236 5bbd
00000020: ada6 cd3c f573 d1bc 8cf2 603d 6206 993a
00000030: 3d0e 42bc a6fc babc 1c1a 7abd fce7 793c
00000040: cd4c 7b3c da0c 35bb da6b d8bc 51aa 56bd
0.073792785 -0.015447078 -0.026680447 0.03495558 -0.015433594 0.039883547 0.042468756 -0.05351896
0.025103891 -0.025567988 0.05491881 0.0011674876 -0.011844215 -0.02282555 -0.061060056 0.015253063
0.015338135 -0.0027626068 -0.026418615 -0.05240852

parameterizer.fc_layers.0.weight f4 [50, 320]
00000000: 48fa c73c 40d5 08bd 3520 913c 666d 12bd
00000010: 6b5b e1bc 8633 cc3d f906 263c 8c32 1bbc
00000020: 0395 39bd 3836 483d 281b 963c a6d2 163c
00000030: 625b ab3a 0bad febb b1cc d53c c529 d83c
00000040: 5343 483d 5bbd 77bc 3e0a 0abd 7930 f0bc
00000050: 7bdc ac3d a339 d1bc 1827 123d f63a 323d
00000060: 0da4 4f3d 03df 42bd 27c5 d33c 65cf 533d
00000070: b8c2 7d3d 49f5 90bc b891 78bd b7e7 3b3c
00000080: ec70 64bd 34c7 a43c 1a8d fcbc 17c4 d8bc
00000090: 712a b8bc 975a 1a3c 1cac 5c3d 0e61 723d
000000a0: 2055 43bc 30f7 cf3c a1e6 973c 9b62 b93c
000000b0: 321c cabc 13dd eb3a f0c9 cd3c acd8 a03d
000000c0: a4f3 853d b1de 133d a047 433c 3173 fc3d
000000d0: b475 373e 7dd2 6ebd 48db bebc f2f8 893d
000000e0: 1ee8 293e f41c e1ba ec9c 43bd e226 a4bc
000000f0: cbd9 1b3d 50d0 97bc 6feb 62bd 3c5e e9bb
00000100: 8fc0 c73c d380 cb3c e73c 8bbb fb9a b3bc
00000110: 30a6 143d 1cdb 35bc 0b21 52bc 0b45 a1bd
00000120: 00e9 fb3c 9049 e83d d10a 343d ac3f 63bb
00000130: 4213 413c 3de8 233d f321 95bc b10b 5abd
00000140: a0a6 863c 7031 a4bc df60 57bc 2601 82bd
00000150: e404 ef3d 8b1d 0038 bd3a 8fbd 04e1 e6bc
00000160: 9289 003d 882f 45bd f941 943d 7d6d 9d3d
00000170: 1018 a63c 89d2 9eb9 1b84 a93d 24b8 113e
00000180: 5683 bbbc 45ae f0bb 530d 353c 12d1 8e3d
00000190: f8c1 953c ae90 1abc ca0b 2c3d a2ca 693d
000001a0: 2469 8a3d 3e51 5ebc 38eb c3bd 7076 24bc
000001b0: c9fa e33c 37c4 d4bd 603c 07bc 2c6e f839
000001c0: 54db ecbc ce43 f7bb 5a62 33bd efe1 483c
000001d0: cc43 0ebb 4194 4f3d 3e8f 833d 9888 673d
000001e0: b59a 00bd 6040 77bd 0614 0c3d f52a 7c3d
000001f0: bbb2 4b3e 9dd4 2ebd c965 7abc 480d a03d
00000200: bf0f 30bc e105 473c 6df4 4e3b be5a de3c
00000210: 540a e3bc 5990 6ebd cba2 0d3e d502 d4bc
00000220: bac0 0c3c ad4e 853c 777b 7f3d d67b eebc
00000230: bdda de3c 8611 263b a6be c43c 191e 563d
00000240: 0aea 85bc 0f84 7aba 1f1c a73b 31ee b03b
00000250: 43c6 53bd 77a0 b73c 1c21 2c3d 32c1 c53d
00000260: d942 9dbd 90ce c03d d1d3 c93d 21fb 1a3d
00000270: 25d7 7abc 0cf4 4cbc 4e0f 9c3c d2b9 483b
00000280: ab62 003d af83 da3b a159 d93c 6330 66bc
00000290: 7234 93bc ea04 6ebc 73f1 79bc d6ac ec3c
000002a0: b73b 09bb 6160 3dbd 0fb9 04bd 9408 143e
000002b0: 6712 6b3c 22bb 3cbd 1030 fe3c 46d0 8d3d
000002c0: 7989 babb 9336 bd3b 6e2d 2dbc 5859 94bc
000002d0: 5bd8 2ebc a632 33bd 4576 b8ba c0b5 a23b
000002e0: 8c9f 54bd 7245 6b3d 2ffb 83bb 7019 8f3d
000002f0: fd88 f03b 33b8 123e da6d 163e 3827 833d
00000300: cb2d 123d de82 373c 6bf4 853c d6db 22bb
00000310: b0d3 603b 650e 093c 2a07 de3c 1c31 94bb
00000320: 2326 703d 73ab 24bd 6585 afbc 2df8 05bd
00000330: 7520 b3bc 943f 28bd 2dbd 523d 9adc 4ebc
00000340: 54ae 113d c79c 8c3c 271b cd3c 4dbe aa3c
00000350: dffb 1c3d 2d28 01bd cb2f a33c 2d99 0c3c
00000360: db1f d13d f3cb 8f3d 87b0 f93c 2dd5 f1bd
00000370: 6bed 85bc a9c6 0b3d 356b 96bd d656 12bd
00000380: 571a 4f3d 0b2c c83b 1872 bebc a417 0f3c
00000390: 4856 6cbc ca74 cb3d c16b 61bc 6c5c be3d
000003a0: f8c6 db3c f7b3 d5bc 1ac2 1b3d feac a43d
000003b0: 13e0 1dbd 8ba8 8fbc 0ee8 e5bc 48ca 093d
000003c0: 8438 60bd 979b 5e3d 4601 543c e9c8 463c
000003d0: f54b 70bb c245 993d 566e 58bd 36ad d7bc
000003e0: 1c7c 00bd 772b c83d e0e1 e63c cb9d 57bd
000003f0: a763 163a a646 ff3b 9cc7 6d3d 0101 993c
0.024411336 -0.033406496 0.017715553 -0.03574886 -0.027509412 0.09970765 0.010133498 -0.0094725005
-0.045308124 0.048879832 0.018323496 0.009205496 0.0013073499 -0.007772093 0.026098581 0.026387105
0.04889233 -0.015120829 -0.033701174 -0.029319989 0.08440491 -0.025540179 0.035681814 0.04351326
0.05069356 -0.04757596 0.025850846 0.05171146 0.061953276 -0.017695086 -0.060685843 0.011468819
-0.055771753 0.020114519 -0.030829001 -0.02646069 -0.022481175 0.009421012 0.053875074 0.05917459
-0.011922151 0.025386423 0.01854259 0.022630027 -0.024671648 0.0017994962 0.025120705 0.07853827
0.065406114 0.036101047 0.011918932 0.123266585 0.17915994 -0.058306206 -0.02329792 0.06736936
0.16592452 -0.0017174766 -0.047757074 -0.020038072 0.0380495 -0.018531948 -0.05540031 -0.0071218293
0.024383811 0.024841702 -0.0042492035 -0.021924486 0.0362913 -0.011099603 -0.012825261 -0.07874497
0.030750751 0.11342156 0.043955628 -0.0034675403 0.011784377 0.0400164 -0.018204665 -0.053233806
0.016436875 -0.020043105 -0.013145654 -0.06347875 0.11670855 3.0545092e-05 -0.06993625 -0.028183468
0.031381197 -0.048141032 0.07239146 0.07686899 0.020275146 -0.0003029297 0.0827715 0.142304
-0.022889774 -0.0073449933 0.01105054 0.06973471 0.018280968 -0.009433908 0.04200343 0.05707801
0.06758335 -0.013569174 -0.09566349 -0.010038003 0.027829545 -0.103889875 -0.008254141 0.0004738433
-0.028913178 -0.0075459247 -0.043794967 0.012260898 -0.002170789 0.050678495 0.06423806 0.05652675
-0.03139754 -0.060364127 0.034198783 0.061564405 0.19892399 -0.042683233 -0.015283057 0.07815033
-0.010745942 0.012147398 0.0031578795 0.027142879 -0.027714886 -0.05824313 0.13831632 -0.025880257
0.0085908715 0.016272867 0.062373605 -0.029111784 0.027203912 0.0025340035 0.02401669 0.052274797
-0.01634695 -0.00095564214 0.005099788 0.0053994884 -0.05170275 0.022415383 0.042023763 0.0965599
-0.07678766 0.09414399 0.09854854 0.03783715 -0.0153100835 -0.012509357 0.019050267 0.0030628336
0.031344097 0.00666853 0.026531996 -0.014049622 -0.017969344 -0.014527539 -0.01525532 0.028891008
-0.0020940134 -0.046234492 -0.032403048 0.14456397 0.014347649 -0.0460769 0.031028777 0.06924491
-0.0056926575 0.005774328 -0.010569913 -0.018109009 -0.0106717 -0.043749474 -0.0014073333 0.004965514
-0.05190997 0.057439275 -0.004027746 0.06987274 0.007340549 0.14328079 0.14690343 0.06403965
0.035688203 0.011200635 0.0163519 -0.002485027 0.0034305863 0.008365248 0.027103025 -0.004522456
0.05863012 -0.04020257 -0.021425912 -0.032707382 -0.021866063 -0.041076258 0.051449943 -0.012625838
0.035566643 0.017164601 0.025037361 0.020842696 0.03832614 -0.031532455 0.01992025 0.008581442
0.10211154 0.07021322 0.030479683 -0.11808238 -0.016348561 0.034125004 -0.07344667 -0.035727344
0.05056223 0.006108766 -0.023247764 0.008733664 -0.014424868 0.09934385 -0.013758601 0.09294972
0.026828274 -0.02608679 0.038026907 0.08040808 -0.038543772 -0.017536422 -0.028064754 0.033640176
-0.054741398 0.0543476 0.012939757 0.012132862 -0.0036666368 0.07484008 -0.0528396 -0.02632771
-0.03136836 0.09773915 0.028183877 -0.052640717 0.0005736895 0.0077904044 0.05805169 0.018677237
