results/OUR_MODEL/checkpoints/Epoch[15]-Step[4320].pt (torch, 374454 bytes, 66 tensors)

conceptizer.encoder.0.0.weight f4 [10, 1, 5, 5]
00000000: 0594 3fbe f016 063e 91a4 143e eb4a 953d
00000010: 8d26 ea3d 6334 c1bd 737c aebd 8e67 31bd
00000020: fd18 083e 26c0 17bd 475a 003e 32c3 843d
00000030: c4bc 6abe 8ac5 d83d 8225 1cba 0e1c 383e
00000040: 64e9 8e3d 56d0 ec3d f7cf bb3d 78e8 083d
00000050: bf33 423e 4445 1bbd 249e 88bd aa37 53bd
00000060: 83a9 3b3e 5055 5bbd 693a 2e3e 0d7c e6bd
00000070: a045 f2bd dcbe e3bd ad29 2f3d 55d0 7fbc
00000080: 67ca 34be 3bf9 a8bc 431c 20be 7c36 153e
00000090: bc45 bbbd 2676 61bd 04a3 42be a534 0bbe
000000a0: ec4c 16be ee71 843b a2e0 49bd 46ac 103d
000000b0: 95f9 d43b 3a3f 893d 5ea3 3a3d b663 c7bd
000000c0: 25f4 4ebe a609 edba c1ee 6bbd 1221 49be
000000d0: 00bb 973d 4c0b 7ebd 1c39 bebd 66a7 1fbe
000000e0: ffcb 47be 366a 51bd 51e9 62be 1142 05be
000000f0: 7fa8 86be 8119 bf3d 5dab f1bd 9966 63be
00000100: dbbf 3bbd fa68 13be 8a06 97bd e053 7bbe
00000110: 3ea1 05be 24a9 31be 5344 e23c ef04 51bd
00000120: ff15 17bb e29d 41bd b159 32be c22b c7bd
00000130: c960 eebc b853 823d ea9c 9cbc d2a3 69bc
00000140: 9c55 03be d56c dcbc c54e bdbd d0a7 c0b9
00000150: 4379 023e fbbc 59be 3cbe 4fbe 77a6 2e3d
00000160: 614c 2abe 9707 483c 13da a3bd 171a 10be
00000170: 2ee0 abbc 2f9a d2bd 3abf 183b f1ce 9ebd
00000180: 274c 56bd bdc6 5fbe 1fba 49bd 3e44 283e
00000190: fb38 073e 54bd f0bd d190 a63d f8bf 7b3d
000001a0: b886 0b3e afd6 f83d 540c 20be 74a9 e2bc
000001b0: 0ec0 6e3d 0a11 77be 93c3 c03d 060b f43c
000001c0: e510 4dbe a75c 71be 9ebe e0bd 6b6d 493c
000001d0: 2640 e1bd 2c80 ac3d 1760 42be a044 203c
000001e0: 698a 5a3d 3b47 1b3e 0376 71bd 8444 17be
000001f0: 28c0 db3c e385 443c 673c d43d e539 473d
00000200: 16d6 eb3d fba7 df3d 058a 88bd 278f f8bd
00000210: 9a85 f93d e516 0d3e 36cb 373d 768f 513e
00000220: 50ec 6d3d 0009 783d 80ef a3bd 5dc6 c6bd
00000230: 8121 a5bd 72a1 0f3e 2720 143e eec2 18bb
00000240: 933b 2ebe 4edf fa3d f517 393e 8516 993d
00000250: 7820 debd 7d04 f23a b938 1a3e 12fb 2dbe
00000260: bdd8 9a3d 9e9b 233e e6ea 6f3d 2d38 8ebd
00000270: 9717 373e 52db 753c 16fe 533e b68f 6b3e
00000280: aac3 d1bd 2e29 c9bc 2387 17bd c5a8 1cbd
00000290: 10db 9bbd 4f01 27be da26 083e be57 243d
000002a0: d5b0 08be 0c05 3cbe f901 0fbe 5eef b83b
000002b0: 9379 79be 9cae 2cbd 555b 4b3c e4e2 07bd
000002c0: 1b6d 52bc 93cc 3bbe afb4 2dbe bcc4 233e
000002d0: 7797 68bc b0d2 d7bd 982c 5c3d a95c 073d
000002e0: 43a8 91bd fa7d 5a3e ea33 363c ea45 fa3d
000002f0: 583c 3d3e cc62 853d 7e81 723e 750a 98bd
00000300: 2548 813d d9c1 60bb 1847 76bc 6bfc de3c
00000310: 401b 1f3e 90b3 1cbe 9263 e93c 6af7 b73d
00000320: 47d3 f83d a521 9e3c 2ccc ad3d 1712 6e3d
00000330: 1adb b53a 185e e63d f62f c53d 93da ddbd
00000340: 3fef 09be 78a1 773e 72d1 273e 9609 cbbd
00000350: 9a75 abbd 021c 1bbe 626b fbbd f315 603d
00000360: 801f d93c 2196 f83d e87f 46be a46c 9e3d
00000370: 4687 54be 7b88 f73d 0584 6f3b fa03 34bd
00000380: a5b8 4b3e 1623 a1bc 9f67 e13d 49ff d63d
00000390: dc77 d73d f2d6 043d 2a1b 49bd c68d 803c
000003a0: e7c8 233e 2154 eebc 8cba e23d fb43 1d3e
000003b0: 1c53 103e 5124 343e fc3f cdbd addd de3d
000003c0: 91f8 713b 9460 fa3d 1698 71bd 3626 eabd
000003d0: 9228 c63d 8d69 febc 5135 01bc cb69 3c3e
000003e0: c5d9 513e ee8e ab3d
-0.18708809 0.13094687 0.14515902 0.0728968 0.11433134 -0.0943382 -0.085198306 -0.043311648
0.13290782 -0.03704848 0.12534438 0.06482543 -0.22923571 0.105845526 -0.0005956517 0.17979452
0.069781095 0.115631744 0.091705255 0.033424824 0.18965052 -0.037907854 -0.06670788 -0.051566757
0.18326382 -0.053548157 0.17014469 -0.112541296 -0.11829686 -0.11120388 0.042764354 -0.015613635
-0.17655335 -0.020626655 -0.15635781 0.14571565 -0.0914416 -0.055044316 -0.19007498 -0.13594301
-0.14677781 0.004041902 -0.049286492 0.035320543 0.006499479 0.06701513 0.045565955 -0.09735815
-0.20210321 -0.001808454 -0.05760074 -0.19641522 0.07408714 -0.062022492 -0.092882365 -0.15591201
-0.19511412 -0.05112668 -0.22159316 -0.13013484 -0.26300427 0.09331036 -0.11800263 -0.22207107
-0.045837265 -0.14395514 -0.07374294 -0.24543715 -0.1304979 -0.17349678 0.02762047 -0.051030096
-0.0023053882 -0.04726971 -0.17417027 -0.09725143 -0.029098885 0.06363624 -0.019117791 -0.014260249
-0.12825626 -0.026907364 -0.0924354 -0.00036746124 0.1274157 -0.21263497 -0.20287412 0.042639222
-0.16630699 0.012208841 -0.08000579 -0.14072452 -0.02098092 -0.102833144 0.002330734 -0.07754315
-0.05231872 -0.21853156 -0.049249765 0.16432282 0.1320533 -0.117548615 0.0813309 0.061462373
0.1362561 0.12150323 -0.15629703 -0.027668692 0.058288626 -0.24127594 0.09412303 0.029790413
-0.20025976 -0.235705 -0.10973857 0.012294154 -0.109985635 0.08422884 -0.18981968 0.0097819865
0.053354654 0.15163891 -0.058950435 -0.1477223 0.026825026 0.011994812 0.10363083 0.048639197
0.11515443 0.109207116 -0.0666695 -0.12136679 0.121836856 0.13778265 0.04487153 0.20464882
0.058086693 0.060555458 -0.080046654 -0.097058035 -0.08063031 0.1402643 0.1446539 -0.0023309547
-0.17014913 0.12249623 0.18075545 0.074749984 -0.10846037 0.0018464472 0.150607 -0.16990307
0.07560871 0.15977332 0.058573626 -0.069443084 0.17880093 0.015005903 0.20702395 0.2300404
-0.10242398 -0.024555769 -0.03699411 -0.03824689 -0.07610142 -0.16309093 0.1329607 0.04012274
-0.13348706 -0.183613 -0.13965596 0.005643769 -0.24362783 -0.042158708 0.012411912 -0.033175364
-0.012843396 -0.18339758 -0.16963457 0.15993017 -0.014196268 -0.10538232 0.053753465 0.033047352
-0.071121715 0.21337119 0.011120776 0.12220366 0.1848005 0.06512985 0.2368221 -0.074238695
0.063125886 -0.003429523 -0.0150315985 0.027219972 0.15537739 -0.15302873 0.028489862 0.08982737
0.12149673 0.019303152 0.08486208 0.05812272 0.0013874501 0.11248416 0.096282884 -0.10832705
-0.13470171 0.24182689 0.16388491 -0.09913938 -0.0837204 -0.15147403 -0.12276341 0.054708432
0.026504278 0.1213801 -0.1938473 0.07735565 -0.20754728 0.120865785 0.0036547196 -0.043949105
0.19894655 -0.01967005 0.11006092 0.104979105 0.10520908 0.03243155 -0.04909817 0.015692603
0.15994607 -0.02909285 0.11070737 0.15357964 0.14094204 0.17591979 -0.1002197 0.10882125
0.0036921839 0.12225452 -0.05898293 -0.114330694 0.09675707 -0.03105619 -0.007886247 0.18399732
0.20493229 0.08376871

conceptizer.encoder.0.0.bias f4 [10]
00000000: b55f 7a3d ef22 233e 75d2 763e 679a f6bc
00000010: 1927 5b3e 5aad c33d 835a 07bd 2c33 c8bc
00000020: ee78 163e 0487 173e
0.06112643 0.15931295 0.2410372 -0.030102922 0.21401633 0.095545486 -0.033045303 -0.024438463
0.14694569 0.14797598

conceptizer.encoder.1.0.weight f4 [5, 10, 5, 5]
00000000: 76da e03c 7df1 463c b26f 9f3c fb4e 0c3d
00000010: f18c 79bd f827 183d 9160 123d a4f6 fb3c
00000020: df08 09bd 4c23 9f3d 1e80 9bbc f4b5 813d
00000030: 8bac 0abd 02e7 5d3c 06e7 1dbd fb76 fa3c
00000040: 4a8c de3c 07b7 193d 2308 38bc a802 c83c
00000050: 7fb2 6ebb d4e1 43bd 76d5 653c 652f 4e3c
00000060: 72f1 8a3c 8e6f 5a3d d281 1d3d c020 db3c
00000070: 7245 9bba ee68 8bbb 10c5 493d 3bda c5bb
00000080: 0582 70bd de19 603c 0b47 cb3b 7d45 3f3d
00000090: 859a 65bc 3a8b aa3c 2de0 b3bc f112 21bd
000000a0: d08d 09bd ca5b bbbc 1038 19bd 32f0 783d
000000b0: a90e 283d 2301 ac3c 9d28 9e3d 2e22 93bc
000000c0: 4863 c6bc f2a5 00bd 9a85 47bd bb2d d0bc
000000d0: 3e56 03bc 5903 bcbc c52c 88bb 844b b0bd
000000e0: 71c1 25bd cc85 8b3c 1f5b 16bd ca78 943d
000000f0: 3593 323d fa0c 0b3d a60e 5a3c 3261 21bb
00000100: 484f 40bc a76a 4f3d c798 283b 6791 6fbc
00000110: 2a84 233d 495e 0bbd 5828 b23d 8d50 8f3c
00000120: 24e0 853d 1034 713d bb0d 8c3c aec5 05bd
00000130: 5dd9 85bd 8249 09bd ea2b c63b 55cf 5c3c
00000140: 36b1 543d a148 9d3c c54b 5fbd c120 f63c
00000150: 69e4 123d 6286 a23d 3673 123d 435c 3ebd
00000160: 24c7 913c c28b 14bc 01f7 b6bc e0cc 92bc
00000170: b9d4 a8ba 191d 183d 23e1 f03c 1bf0 003c
00000180: b385 ae3a dd48 533d 4be1 953d 84ab 6e3d
00000190: 45ed af3d bf1e c33c f88e a6ba 8f97 4abc
000001a0: fd59 58bd 4257 3f3c 0f68 4a3c 7f36 efb9
000001b0: 0fa5 9e3c af6c 2c3c acba 9f3d e2e5 8bbc
000001c0: 4ed1 953d 4fb1 cabc 755c 4bbd 83c0 a73b
000001d0: 8709 7d3d ed1a e63c 4e73 9c3c 2a08 533d
000001e0: 44a7 68bd f243 6b3b 5a3b 113d e8f4 293c
000001f0: c87b dc3b d304 963d 7dfa 883d 76b0 64bd
00000200: 613d 22bd 72cc f7bb 30dd b8bc c7fe 043d
00000210: d857 2fbc 631d b03c 7ffc be3c e285 ecbc
00000220: dcaf d93c b8dc 623d a21d b33c 9f5f 5d3d
00000230: b0f0 dabb a435 26bd 1e5d 053d 055e fdbc
00000240: 9d2d 9ebc 6264 43bd 0871 153c e688 51bd
00000250: 5072 47bd 036b c5bc a68f 753d f00c 5a3d
00000260: aae0 30bc 9644 26bd 340f 75bd ed14 803d
00000270: 6b4d 8f3d a07d 85bc ef35 42bd 1d45 c0bc
00000280: 6f9f ed3c dd47 143d c044 603c da1d 0bbc
00000290: 09b0 6f3d ff24 893d 0bce 9ebc 6937 b0bb
000002a0: 65b9 96bb e1ae 813c 0d4b c53c d4ea 4e3d
000002b0: defb b03d 4d7b 543d 9f3d 633d 4372 34bc
000002c0: b98e fabc 52d0 473d 0231 943d e236 893d
000002d0: 9b81 2d3d 13d6 7f3d 0e6a 59bd 53d9 733b
000002e0: 9ac5 97bc 11e8 483d 32db e2bc 05a1 3dbd
000002f0: c8da 13bb 14b2 843d 13cd 393b c2d7 203d
00000300: c55b a8bb e8c9 563d 3460 133d 55f6 f03c
00000310: 32f1 12bc d159 10bd 27fb 793d a45f 313d
00000320: 84c7 eabc 9b58 a53d 15b5 bc3b 5253 0abd
00000330: dbbe 7dbb b034 343d 2f81 8f3d a4ac 273d
00000340: ea55 bd3b dea3 7a3d 7e91 843d a96e b5bc
00000350: f913 29bd eea8 a83c d17f 173b b32a 063d
00000360: d163 853d ef0f 243d 493e 2dbc 1b81 463d
00000370: 12d9 a9bd 2d0f 273d e37c cfbc d2de bebb
00000380: 3ed3 073d 1b99 123d 3417 37bd af82 d5bc
00000390: dbf1 493d a22b bd3c b996 2f3d 2f94 633d
000003a0: ac9c 8f3c 81ef 2bbd ed6c 833c ff7a d33c
000003b0: 7074 7e3d ebec 1dbd 07f3 be3c 560d ddbc
000003c0: 2d7f 303d dfae 46bb 5389 9ebc 04d2 3bbd
000003d0: b89e 3f3d 3954 ddbc 3b8b 74bd 3d32 313c
000003e0: 9a2c 4e3d 7a73 a4bc 460e d33c f601 873d
000003f0: 30e1 1a3d 97a0 4b3d 380b a83b 05da 283d
0.02744792 0.012142536 0.01946244 0.03425501 -0.060925428 0.037147492 0.035736624 0.030757256
-0.033455726 0.07770404 -0.01898199 0.06333533 -0.033855956 0.013543846 -0.0385504 0.030574312
0.027166504 0.037528064 -0.011232409 0.02441533 -0.003642231 -0.04782279 0.014027944 0.012584542
0.016960833 0.053329043 0.038453884 0.026749015 -0.0011846258 -0.004254452 0.0492602 -0.006037978
-0.058717746 0.013678042 0.0062035373 0.04669713 -0.014013891 0.020818342 -0.021957481 -0.039324705
-0.03358251 -0.022870917 -0.03740698 0.060775943 0.041029606 0.020996636 0.0772259 -0.017960634
-0.024217263 -0.031408258 -0.048711397 -0.025412431 -0.008016167 -0.022950815 -0.0041557276 -0.086081535
-0.040467683 0.017031573 -0.036707994 0.07249601 0.04359742 0.033947922 0.0133091565 -0.0024624583
-0.011737652 0.05063882 0.0025725828 -0.014622069 0.039920963 -0.034025464 0.08699101 0.017494464
0.06536892 0.05888754 0.017096391 -0.032659225 -0.065355994 -0.03351737 0.0060477154 0.013477166
0.051926814 0.019199671 -0.05451562 0.030044915 0.03586236 0.07935788 0.035754405 -0.046474706
0.017795153 -0.009066524 -0.022334578 -0.017919958 -0.0012880779 0.037137125 0.029404229 0.007869746
0.0013314992 0.05158316 0.07318362 0.05826904 0.085901774 0.023818372 -0.0012707403 -0.012365236
-0.052820195 0.011678519 0.012353911 -0.00045626235 0.019365815 0.010523959 0.07799277 -0.01707739
0.07315312 -0.02474275 -0.04964872 0.0051193847 0.061776664 0.028089011 0.01909795 0.051521458
-0.056800142 0.0035898653 0.035456993 0.010373332 0.006728623 0.07325139 0.06688402 -0.05583235
-0.039609317 -0.0075622136 -0.022566408 0.032469537 -0.010702096 0.021498388 0.023313759 -0.028872434
0.026573114 0.055386275 0.021864716 0.05404627 -0.006681524 -0.0405785 0.032559507 -0.030928621
-0.01930886 -0.047703154 0.009121187 -0.051155947 -0.048693 -0.024098879 0.059951447 0.053234994
-0.010795752 -0.040592752 -0.059828952 0.06253991 0.06997188 -0.016295254 -0.047414716 -0.023470456
0.029006688 0.036201347 0.013688266 -0.008491004 0.05851749 0.066965096 -0.019385358 -0.005377699
-0.0045997375 0.01583046 0.024083639 0.05051692 0.0864179 0.0518754 0.05547869 -0.01101357
-0.030585634 0.048782654 0.0723591 0.06699921 0.04235993 0.062460016 -0.053079657 0.0037208393
-0.018526841 0.04904944 -0.027692411 -0.04629614 -0.0022560824 0.06479278 0.0028350994 0.039268263
-0.005137893 0.052438647 0.03598042 0.029414335 -0.008968638 -0.035241906 0.061030533 0.0433041
-0.02865959 0.08073541 0.0057588913 -0.033770867 -0.0038718495 0.04399556 0.07007062 0.040936127
0.005778064 0.061191432 0.06473063 -0.022147493 -0.041278813 0.020588364 0.0023116956 0.032755565
0.06513179 0.040054258 -0.010573932 0.04846297 -0.08293356 0.040785957 -0.025328105 -0.005824902
0.03316044 0.035790544 -0.044699863 -0.026063291 0.049302917 0.023092095 0.04286835 0.05556124
0.017530762 -0.041976456 0.01604315 0.025815485 0.062122762 -0.03855602 0.023309244 -0.026983898
0.043090034 -0.0030316634 -0.01935259 -0.045854583 0.046782225 -0.0270177 -0.059703093 0.0108152
0.050335504 -0.020074595 0.025763642 0.06592171 0.03781241 0.049713697 0.0051282905 0.041223545

conceptizer.encoder.1.0.bias f4 [5]
00000000: 4994 63bc e875 fb3c 0dce c73c ecf8 c33b
00000010: 24e5 6b3d
-0.013890334 0.03069587 0.024390245 0.0059806015 0.057591572

conceptizer.encoder.2.layers.0.weight f4 [1, 16]
00000000: edd9 1d3b 168f ddbd 54f4 81bd b28b 33be
00000010: 1946 f63d d032 193e 1a10 0c3e 1585 0bbe
00000020: 8562 25be e5ff 45be 0a28 43be 6ad1 64be
00000030: 72e0 8d3c 430f 5dbe 7edf 50be 184b b63d
0.0024086193 -0.10818307 -0.0634543 -0.17533758 0.12025089 0.1496079 0.13678017 -0.13624986
-0.16150863 -0.19335897 -0.19058242 -0.2234551 0.017318938 -0.21587853 -0.20397756 0.08901042

conceptizer.encoder.2.layers.1.weight f4 [1, 16]
00000000: 567b 8b3e 5e28 98bd 9eb6 9fbc a1f6 57bc
00000010: 4d7f 22be 18b9 943d 5352 46bc 9a6c 703e
00000020: f532 c0bc 763f cabd 8a7a 313e b443 173e
00000030: 1050 043e be0a 773d 03da 4d3e cb0b 9d3e
0.27242535 -0.074295744 -0.019496258 -0.0131813595 -0.15868874 0.07261866 -0.012104589 0.23478928
-0.023461798 -0.098753855 0.17331901 0.1477192 0.12921166 0.06031298 0.20102696 0.3067306

conceptizer.encoder.2.layers.2.weight f4 [1, 16]
00000000: f95d 80be 98fc 423e 3a5c 303e 394d 1abb
00000010: 3b8a bd3d ccec b1bd b72c f83d 5914 41be
00000020: 722b 89be c288 09be 3e3d 7d3d 5012 12bd
00000030: ae88 4ebe 3e2a 2a3d e1fc fa3c c6c6 d13d
-0.25071695 0.1904167 0.17222682 -0.0023544563 0.09254881 -0.086877435 0.12117904 -0.18855418
-0.2679096 -0.13431075 0.061825983 -0.035661995 -0.20169327 0.04154419 0.03063816 0.10242991

conceptizer.encoder.2.layers.3.weight f4 [1, 16]
00000000: 36dd 473e 76e4 1b3e 8def 893c c5b3 7c3e
00000010: aed0 1bbd d039 013e 77b7 ea3d f4d7 f73d
00000020: b7b9 12be 033d 413e a535 c4bd 1cbe a63d
00000030: 6310 183e 9229 ffbd 553c 01be 43e3 98bd
0.19517979 0.1522387 0.01683786 0.24677952 -0.03804081 0.1261971 0.114607744 0.12101737
-0.14328657 0.1887093 -0.095805444 0.08141729 0.14850001 -0.12459101 -0.12620671 -0.07465222

conceptizer.encoder.2.layers.4.weight f4 [1, 16]
00000000: 34ae ff3d 113a 2abe 9554 663b 0f83 a8ba
00000010: 5b22 83be d90c b2bd 91ac e03d aec3 07be
00000020: 06f4 01be 9448 38be d120 4abe b832 74bd
00000030: afd6 ce3d 8c29 493e 48fc 693d b2a4 a7bd
0.124843985 -0.16623713 0.003514563 -0.0012856441 -0.2561215 -0.08693857 0.109704144 -0.1325824
-0.12690744 -0.17996436 -0.19739081 -0.05961868 0.100995414 0.19644755 0.05712536 -0.0818571

conceptizer.decoder.0.0.weight f4 [5, 16, 5, 5]
00000000: a43b 8c3b 0835 bbbc 7d2e babc 61ae b63c
00000010: 4a24 aa3d 1929 903d fb14 d2ba 8f14 9bbd
00000020: 3c3b afbd 6c72 a23b c91d 3d3c 8657 083e
00000030: d44a c13d c3f5 f0bd 4d1d 8dbc 1761 9dbd
00000040: 000f b63d 402b 9cbd 8e3d d1bd ba7e c5bc
00000050: 420a d43d 01c0 c73c 07cc ba3d eca6 21be
00000060: 1676 d4bd 313d 8b3c 28e4 503d 1d48 233d
00000070: cf03 513c d38e 4dbc f46e b0bc 02f5 763d
00000080: 8731 9ebc d1d5 ca3c 67b3 8e3c 8f1b d2bd
00000090: f32e bcbd a4cf 40bc d0c5 21bd a88f bd3c
000000a0: c63e 2bbe fd92 65bd a3cb 8f3c 93c3 583d
000000b0: 9be7 643d ca09 83bd aeef 793c 44a6 093c
000000c0: fff3 d1bd 17fb ae3d 09d1 023e 9783 c9bd
000000d0: 735c b93d c490 783c 00bb 633d 1eef 58bd
000000e0: 6db9 df3d 127c 4b3d edad a43d 8ddc f23a
000000f0: 4eb5 f6bc 2efa fb3d 63d1 333c fee1 9c3a
00000100: 639b 61bd 4d83 d93d 0f8b 4a3c 7ea8 b2bc
00000110: a35f 10bd 3213 cbbc c9ba 7fba 686e 4abc
00000120: ab09 b7bd be70 c13d ce70 e2bd 0b9c 08bd
00000130: e422 1cbe bab6 e4bd e486 693b 3f97 163d
00000140: 6076 ad3d 24e1 fb3d ac92 91bd 8fee e4bd
00000150: ce65 863c 0c18 623e 010d 583d 4142 d63c
00000160: b393 c83c 2229 873d bf08 4b3d 35b3 3a3c
00000170: bcb7 ec3b 8771 933d 9298 213d 0a6e bfbd
00000180: c640 a13c fa2d 163e b4c9 d23d e03f ca3d
00000190: e123 eb3d ac00 51bd 1af8 ddbd 3364 acbd
000001a0: 3b06 c03c ee40 403c 6ce8 6f3d dadd b43d
000001b0: dd2b 603c 0561 dbbd f95b 8d3d e5c0 443e
000001c0: bc73 11bd e155 633d 5465 89bd d97d bcbb
000001d0: c447 8a3d cc4e a73d 7d54 d63d 3229 41bd
000001e0: bdd7 2cbd bb1a 563d d27b 66bd 7f6e 043e
000001f0: f544 90ba 7056 49bc b235 b63b 6715 2ebd
00000200: e85d 1dbd 20aa 84bd b5fd e9bd c3df 23be
00000210: bd8e 983c 1075 95bc dc6d c9bd b561 013c
00000220: 8d4c c1bd 915f 98bc 4195 783d 6e14 463c
00000230: f7bf 24bd 292a 84bd 4ca0 a7bd 796e 77bd
00000240: 840e b33d 9a7d 883d 2d68 a7bd 9297 f13d
00000250: e144 053c 1a44 b33c 0034 823d 1c9e f4bd
00000260: 0cea e7bd 7fa4 a2bc f59c be3d 5987 61bc
00000270: bcbf bcbd f836 acbc 9c43 91bd dd17 4fbd
00000280: 12c5 ffbb 6f08 efbd 37fc e73c 38c4 73bd
00000290: a727 aebd 896b 0d3d d8ad 05be c306 b5bd
000002a0: 367a 9bbc 4860 44bd 38a4 c7bc 12c3 9abd
000002b0: 5889 853d 592a e6bd 7b64 0abd f022 723d
000002c0: d7f1 143d e68b 6ebc 55ec 7f3d 6d7b 873d
000002d0: b665 d23b 245e 003e ffa9 8cbd f5e5 113c
000002e0: 4555 e5bb d9d6 8f3d 6f0a aebd f032 d4bc
000002f0: 10f2 4fbc c8da 01be 5f63 a63d a9c8 813d
00000300: 3104 68bd bb71 5bbd 54be a3bd 329c fd3b
00000310: 702a acbd 4501 413c 253d 2f3d 2673 95bd
00000320: d262 403d 8929 03bd 0dd3 f2bb 2f1d fbbd
00000330: 871b 9f3d 6712 493d 10b2 d3bd 16c5 c93c
00000340: f884 ae3c dab8 803d 0d3e e8ba f367 ce3c
00000350: 07da 143d 8cea 76bd 704f 343d 9f5e 403c
00000360: 713e 08be 7e90 b0bc 658e 6abd 2971 b73d
00000370: 8d52 2ebd 421e 233b 2e06 4cbd 63d4 c3bb
00000380: b98f c63d 5428 0fbe 5d65 703b 95e5 ae3d
00000390: a087 e63d e505 abbd 9615 183b f4fe a83d
000003a0: 1c89 f23d 2fb7 dabd 1b89 2a3d 4e12 913c
000003b0: e30d 163d f440 1e3d d490 8d3c 9411 0abd
000003c0: 8004 6cbd 4b83 5bbb 2943 f03d 45ae 823b
000003d0: 58ad 93bd 6a86 643d acf0 b63d dea8 5e3d
000003e0: dd89 8e3d 0fbf 25be ff7a 6dbd 80eb 85bc
000003f0: ab28 463d 4264 a0bd d557 27bc ba54 74be
0.0042795707 -0.022852436 -0.022727245 0.022299947 0.08307703 0.07039089 -0.0016027981 -0.075722806
-0.0855622 0.004957488 0.011542746 0.13314638 0.094381005 -0.11765625 -0.017225886 -0.07684534
0.0888958 -0.07625437 -0.10216819 -0.02410828 0.10353519 0.024383547 0.091209464 -0.15786332
-0.103740856 0.016996952 0.050998837 0.039863694 0.012757256 -0.012546259 -0.021537282 0.06029225
-0.019310726 0.024760159 0.01741953 -0.10259163 -0.09188642 -0.011768255 -0.03949529 0.02313979
-0.16723165 -0.056048382 0.017553156 0.05292089 0.05588494 -0.063983515 0.015254898 0.008401457
-0.10251617 0.08543985 0.12775053 -0.09839552 0.090508364 0.015171234 0.05559826 -0.052962415
0.10924039 0.04967887 0.08040986 0.0018528864 -0.03011575 0.12303577 0.010975215 0.0011969206
-0.05507983 0.10620747 0.012362256 -0.021808859 -0.035247456 -0.024789426 -0.0009755311 -0.012355424
-0.08937391 0.09445332 -0.11056672 -0.03335194 -0.15247685 -0.11167665 0.003563338 0.036765333
0.08469844 0.122988015 -0.071080536 -0.11178314 0.016405966 0.22079486 0.052746776 0.02615464
0.024484491 0.06599642 0.049568888 0.011395265 0.0072240513 0.07199388 0.039452143 -0.0934716
0.019684207 0.14665976 0.10292378 0.098754644 0.11481453 -0.05102603 -0.10838337 -0.08417549
0.02344047 0.01173423 0.058571264 0.08831377 0.013682333 -0.107118644 0.06902308 0.19214208
-0.035510764 0.055501822 -0.0670878 -0.005752307 0.067519695 0.08169326 0.104653336 -0.047158428
-0.04219793 0.052271586 -0.056270428 0.12932776 -0.0011006879 -0.012288675 0.0055606 -0.04250088
-0.038419634 -0.06477761 -0.11425344 -0.16003327 0.01862275 -0.018244296 -0.09835407 0.00789683
-0.09438429 -0.018600257 0.060689215 0.012089832 -0.040222134 -0.06453354 -0.08184871 -0.06040809
0.08743003 0.066645816 -0.08174167 0.11796488 0.008134098 0.02188306 0.063575745 -0.119442195
-0.11323938 -0.019853828 0.09307281 -0.01376518 -0.09216258 -0.021022305 -0.070929736 -0.050559867
-0.007805475 -0.116715305 0.028318508 -0.0595133 -0.08503657 0.03452638 -0.13054597 -0.0883918
-0.018979173 -0.047943383 -0.024370298 -0.07556738 0.06520337 -0.11238546 -0.033787232 0.05911535
0.03636345 -0.014559722 0.062481243 0.066153385 0.0064208163 0.12535912 -0.06868362 0.008904924
-0.0069986903 0.07023401 -0.08498084 -0.025903195 -0.01269199 -0.12681115 0.08124422 0.06337101
-0.056644622 -0.05357526 -0.079952866 0.007739567 -0.08406532 0.011780088 0.04278292 -0.072973534
0.046969242 -0.032022033 -0.007410413 -0.12261426 0.07768922 0.049089815 -0.10336697 0.02463011
0.021303639 0.06285258 -0.0017718688 0.025196051 0.03634074 -0.060282275 0.04402107 0.011741309
-0.1330507 -0.021553274 -0.057264704 0.089571305 -0.042559195 0.0024889861 -0.04981058 -0.005976246
0.09695382 -0.13980228 0.003668151 0.08539883 0.11256337 -0.08350734 0.0023206226 0.082517534
0.11842558 -0.10679471 0.04163466 0.017708924 0.036634337 0.038636163 0.017280973 -0.03370817
-0.05762148 -0.0033495005 0.1173156 0.0039880597 -0.07210797 0.05579225 0.08932623 0.054360263
0.06959889 -0.16186164 -0.057978626 -0.016347647 0.048378628 -0.07831623 -0.010213812 -0.23860446

conceptizer.decoder.0.0.bias f4 [16]
00000000: f7bb 10be 5681 25bd 1e81 093d f37b a23d
00000010: 62cf ddbb e659 a23d 3570 1fbd a7f1 593d
00000020: b081 3abc f493 b33c b780 e8bc eb49 afbd
00000030: d626 9f3c ae1a 14be 868e 3dbd d25b 0abe
-0.14134203 -0.040406547 0.0335704 0.07933798 -0.0067691067 0.07927303 -0.03892537 0.053208973
-0.011383459 0.021921135 -0.028381689 -0.085590206 0.019427698 -0.14463302 -0.0462785 -0.13511589

conceptizer.decoder.2.0.weight f4 [16, 8, 5, 5]
00000000: 2eaf dfbd 7146 43be a151 26bd 75d0 c33d
00000010: afce 6c3d d705 09bd d296 4a3c 7168 1f3e
00000020: c276 d33d 669b 9d3d 84af 693d 1c5c 183e
00000030: 6447 393e 72f6 cc3d 72b9 523c 23c7 ec3d
00000040: 347b 143e e0a6 093e b518 483d b17b 1abd
00000050: c78f 2e3d cf3e 1b3d 31db e13d cc98 fd3c
00000060: 5edf ca3c aabb fd3b 2b18 cbbd 4a42 aabd
00000070: 5f7b 343d 7386 ac3d ca8a 933d 2d34 75bd
00000080: 269c 13bd ff24 173e 9bfd ca3d e989 6d3d
00000090: a0c3 8f3d ae00 9f3d 88a7 1f3e a61d be3d
000000a0: 1c6b 2e3d e6bd e43d 0c40 493e 1ae9 533e
000000b0: 36b9 e93d df3f a43d 3ac8 e83d 099f 1e3e
000000c0: 0cf4 7a3d ae8d 323d 9a74 633d bad4 313b
000000d0: 43ff 0abe 3572 91bc 4aa3 b43d d8b6 9ebd
000000e0: 39f6 09bd b71b 20be 1af8 273b 34e7 0b3e
000000f0: b978 a63c a9a4 103b 41dd 38bd 6969 1b3e
00000100: cdd4 9b3d 6a70 b93d 00c2 143e 567a 043e
00000110: cf0d f13d 2521 7b3d 012f e53d 729c 803d
00000120: 868e 063e 2bab d83d 1587 963d f050 11be
00000130: 74b3 233e ff47 243e 2369 ca3b 3bb4 e23c
00000140: e4f3 183d 563b 923c b195 203e 90c5 273d
00000150: f833 ad3d f952 babd b695 16be 2a59 27bd
00000160: 283c 6cbd a862 f53c faf0 c4bd f251 35be
00000170: 0f92 05be 903e d63d c885 553d 7678 0e3e
00000180: ec57 77bd 374c 51bd 9e07 a93d cf6f 263d
00000190: 14b7 7fbb e095 853c 3dc2 973d 234e c63c
000001a0: 23c5 54bb f648 183e 380e 653e 2ea5 5e3e
000001b0: f1a9 063c 8d71 a03c f02a ed3c eb1e bd3d
000001c0: aa2f 8d3d b39b 83bd 4226 a1bd 5f44 06be
000001d0: 100d 2fbe c7ef 0ebe dfe1 8fbe 2466 f0bd
000001e0: 0652 55bd b1c3 13be 1fb9 59be b03b fbbd
000001f0: fe43 93bd e43e cd3d 1a99 813e 996c af3e
00000200: c7cf 773c 4c45 6fbd 0a44 053e f8be 2d3e
00000210: 8441 253e 273f 68be 5017 57be e679 9bbd
00000220: 8b54 90bd d8b7 f5bd 4060 8cbe 21d6 27be
00000230: fcda 8dbd 2b75 26be 2af4 5fbe 353e acbe
00000240: 665f 1fbe 06f3 6c3d f1c3 c1bd 5582 a9bd
00000250: e06a adbd ac30 533c 2f97 a23d 4e27 1d3e
00000260: cd8c f13d deb7 8dbd b148 64bd 4587 b33d
00000270: f239 0a3e 1278 933d cd5f 4dbe bb01 9cbd
00000280: d0a1 65bd 6db1 8dbd d3a0 3abe 969d 9ebe
00000290: 02e0 a9bd 7398 cdbd f9f5 50be 2ee9 90be
000002a0: cf47 a9be d2d8 823c 8cda a0bd 4f6e 40be
000002b0: 1686 1dbe 8705 dfbd 0a63 f03d f4c8 a93b
000002c0: b21b 19bc 9a52 06bd b732 26be 79e2 933c
000002d0: 7f85 10be ebf6 87bc e9f5 27be a5a8 f2bd
000002e0: b5d9 cb3d 385d 25be 7dab 053d 871b 593d
000002f0: be3d 5c3d 2320 063e 0b2c b6bd 79ed 46bd
00000300: 6b0d 2c3e 6530 493e b622 aa3d 7756 36bd
00000310: ef13 363d 0cea 9e3d 4e59 c93d bc7b 253d
00000320: f372 6dbd b59e 1f3d 7b92 d5ba a04c b23d
00000330: e20d a4bd 2998 023e 20d0 f43d f5fe b43c
00000340: b94c 7fbc 6d8b c8bc e929 403e 6e97 c43d
00000350: 2270 30bc 0209 473d 8e20 813c 2a56 c03d
00000360: 96ec 1dbd 8807 b1bc 4c70 c1bd ce1e 253d
00000370: f785 e9bb de9a 38bd 97bc 0fbb a0ae e23b
00000380: 59ef 0f3a 2992 0c3d 7dcc 7a3d 5333 da3c
00000390: d77e 2c3d 799e 6b3b d978 4bbc ce34 f43d
000003a0: aaf7 523c f732 ae3d a6d7 31bc 4192 033e
000003b0: e26e 2b3e e5e4 a63d 0837 f33d 1c25 613d
000003c0: 1fbc 083e 0389 e83d c529 fdbb db4d 94bc
000003d0: 94fa a23d d5fd 963c 4ce1 c6bc ff1c 9cbb
000003e0: 337b 8e3d 0ee1 063d 98e3 0abd 27ae f3bc
000003f0: e1a9 f7bc 70a7 483d bf21 e5bc d31a a83a
-0.10922085 -0.1906984 -0.04060519 0.095612444 0.057814296 -0.033452835 0.01236506 0.15567185
0.10325386 0.076956555 0.05705215 0.14878887 0.1809364 0.10007943 0.012861596 0.1156142
0.14500123 0.13442564 0.048851687 -0.037715618 0.042617586 0.037901696 0.110281356 0.030956648
0.024764713 0.0077433186 -0.09916719 -0.08313425 0.04406297 0.08424082 0.07204206 -0.05986421
-0.036037587 0.14760207 0.09911653 0.05799285 0.070197344 0.077638015 0.15591252 0.09282999
0.042582616 0.11169033 0.19653338 0.2069439 0.11412279 0.08019995 0.11366315 0.15490355
0.061267897 0.043592148 0.05553112 0.0027134852 -0.13573937 -0.017754653 0.088202074 -0.077497184
-0.03368208 -0.15635572 0.0025630058 0.13662416 0.020321237 0.0022070801 -0.04513288 0.1517693
0.07608948 0.090546444 0.1452713 0.12937292 0.11770212 0.061310906 0.11190606 0.062798396
0.13140306 0.10579523 0.073499836 -0.14191031 0.15986425 0.1604309 0.006177084 0.027673831
0.037341967 0.01785056 0.15682103 0.040959895 0.08457178 -0.09097857 -0.14705548 -0.040856518
-0.057674557 0.02995427 -0.09616275 -0.17707041 -0.13043998 0.104611516 0.052129537 0.1391314
-0.060386583 -0.051098075 0.08253406 0.040633973 -0.0039019035 0.016306818 0.07410095 0.02420718
-0.0032466135 0.14871582 0.22368705 0.21742699 0.008219228 0.019585395 0.028951138 0.09234413
0.06893857 -0.06426182 -0.07868625 -0.13112019 -0.17094827 -0.13958655 -0.28102013 -0.11738232
-0.052080177 -0.14430119 -0.21262024 -0.12267244 -0.07190703 0.10021761 0.2531212 0.3426254
0.015125222 -0.058415696 0.13014236 0.1696738 0.16138273 -0.2268034 -0.21004987 -0.0759161
-0.07047375 -0.11997956 -0.27417183 -0.16390277 -0.069265336 -0.16255634 -0.21870485 -0.3364121
-0.15563735 0.057848953 -0.09461201 -0.08276812 -0.084676504 0.012890022 0.07938992 0.15347025
0.11794434 -0.069198355 -0.055733386 0.08766035 0.13498667 0.07200636 -0.20056076 -0.076175176
-0.05606252 -0.06918607 -0.18225412 -0.30979604 -0.08294679 -0.10038843 -0.20406331 -0.28302902
-0.33062598 0.015972529 -0.078541845 -0.1879208 -0.15383181 -0.10889726 0.1173764 0.005181426
-0.009344982 -0.03279362 -0.16230284 0.018052327 -0.14113425 -0.016597232 -0.16402401 -0.11848573
0.09953634 -0.16148841 0.032634247 0.053004768 0.05376982 0.13098197 -0.08895119 -0.048566315
0.16801994 0.19647367 0.08307402 -0.044516053 0.044452604 0.07759485 0.09831487 0.040401205
-0.057970952 0.038969714 -0.0016294265 0.08706021 -0.080104604 0.12753357 0.11953759 0.02209423
-0.015582257 -0.024480546 0.18765987 0.095991954 -0.010768922 0.048592575 0.015762594 0.093914345
-0.038555704 -0.021610036 -0.09445247 0.04031258 -0.0071265656 -0.045069568 -0.0021932477 0.0069177896
0.00054906827 0.034319077 0.06123017 0.026635801 0.04211315 0.0035952611 -0.012418949 0.11924134
0.0128764305 0.085058145 -0.010854637 0.1284876 0.16741517 0.08149127 0.11875731 0.05496703
0.13353013 0.11354258 -0.0077259266 -0.01810353 0.0795795 0.018431583 -0.024277352 -0.004764199
0.06957092 0.032929473 -0.033908457 -0.029746128 -0.030232372 0.048987806 -0.027970193 0.0012825377

conceptizer.decoder.2.0.bias f4 [8]
00000000: 8dcf d83c e81c 203c 96c6 5a3d 05ef 743d
00000010: 0810 f7ba f34e 29bd cc34 4cbc 2119 adbd
0.026466155 0.009772517 0.053412043 0.05979826 -0.0018849382 -0.041335057 -0.01246376 -0.084520586

conceptizer.decoder.4.0.weight f4 [8, 1, 2, 2]
00000000: acde bcbe d581 8dbd 049c 8bbe 945f 2a3f
00000010: 5477 053f 7c39 fd3e ec7a 0d3f f7aa 133f
00000020: fce3 093f 4641 f43e 3d94 fa3e 8c8c 1fbe
00000030: 255c 19bf 3fc0 26bf 42d4 1fbf 6e85 2bbf
00000040: 4214 19bf 1595 3abf 6e1a f93d 59b6 abbe
00000050: f482 12bf e030 46be 20d2 63bf 12e2 30bf
00000060: 0410 5dbe 62b8 51bf d08a e2be ec60 05bf
00000070: 5cce 483f 2b8c 1ebe 9826 d13e 8cbe c7be
-0.36888635 -0.06909529 -0.27267468 0.6655209 0.52135205 0.4945792 0.5526569 0.57682747
0.538635 0.4770605 0.48941222 -0.15580958 -0.59906226 -0.65137094 -0.62433255 -0.6700047
-0.59796536 -0.7288373 0.12163244 -0.33537558 -0.5723107 -0.19354582 -0.889925 -0.69094956
-0.2158814 -0.8192197 -0.4424653 -0.52101016 0.7843988 -0.15483157 0.40849757 -0.39012563

conceptizer.unlinear.weight f4 [16, 1]
00000000: 18a3 3cbf b17d f73e b658 23bf a2cc 93bf
00000010: fef2 83bf d726 68bf 0c5d 983f 50c5 86bf
00000020: 55f8 4bbf 129d 9fbf 78dc 9d3f 4c45 c43e
00000030: 3f5f 5ebf 47e0 bdbe c261 42bf d4fc 113f
-0.7368636 0.48338082 -0.6380724 -1.1546824 -1.030853 -0.90684265 1.1903396 -1.0528965
-0.796758 -1.2469809 1.2332907 0.3833412 -0.86864084 -0.37085173 -0.75930417 0.5702641

conceptizer.unlinear.bias f4 [16]
00000000: 83b4 353f 99de 943c 85b9 85bf 1070 643f
00000010: ee93 123f dfc6 ee3e 5d24 05bf 0ec2 f73e
00000020: 1de8 2d3e 2ad9 13bf 86ef 3cbf df39 343f
00000030: 7314 c9be 3972 06bf bc58 d4be 8e0b 943e
0.70978564 0.01817255 -1.0447241 0.89233494 0.5725697 0.46636102 -0.5200861 0.4839024
0.16983075 -0.5775324 -0.73802984 0.70400804 -0.39273414 -0.5251804 -0.4147395 0.28915066

parameterizer.cl_layers.0.weight f4 [10, 1, 5, 5]
00000000: 335e a73d 1a71 d4bc 1cb8 9b3d 74e0 103e
00000010: 794e f83d 4628 2ebb 6eec 433e 9c4e abbd
00000020: 67bc b4bd a27c 3bbd 6147 183d e050 103e
00000030: b360 0f3e dbfe 7e3e 8bc9 3c3e c95c 94be
00000040: 97bd cdbd c3c5 a1bd 55e6 dbbd 0597 6cbe
00000050: 9742 b2bd 71a4 8dbe 812a 8fbe de71 63be
00000060: 953e 5fbe 0b43 51be 383e 69bd 649d 163e
00000070: 3427 b1bc c149 523c ee8e 84be 1d30 69be
00000080: 8181 99bd 50b4 b4bc 13b7 2cbd ecb6 eebd
00000090: 3574 24bd 355a 61be f28b 4ebd 649f 00be
000000a0: 581d 453e 2ef0 68bd 48e9 c13b 1294 3ebe
000000b0: ec67 30be af25 653e d205 f63d de9f 81bd
000000c0: b125 383e 2dfb 56be 1e8b afbd df83 a23d
000000d0: 0880 aa3d f2c0 b33d 212d 9a3d 30b2 66bc
000000e0: 96cc b8bd 0e77 033e ed65 b53d 03b2 f93d
000000f0: ca32 353d e775 3ebb e866 1ebd 7058 f53d
00000100: 86e8 993d 30c3 efbd e4bb b1bd 1e93 193e
00000110: 3d4f 75bc 0edc 013e 8c9a 1a3d debd 0abe
00000120: 02e9 0cbd f88e 83bd 68a3 4d3e b0f1 5cbd
00000130: 8478 733e 0f0f 303e c8a5 173e 12e7 3d3e
00000140: efb1 1a3e 79c3 c73c a03e e53d 9dfe 163e
00000150: a69e 053e 8b62 d6bc 1a25 0fbe 5275 33be
00000160: cb02 febd a2d6 28be 9521 ec3d fb04 33be
00000170: b4fb a93d c70a a2bd 2551 543d d3ef 4ebe
00000180: aa07 25be 53c5 603d 0c42 3ebe 35be 8d3d
00000190: 7ec6 063e be35 353e 92b6 16be 435c c6bd
000001a0: 3ae9 84be 093b 8939 1b3b 023e 81ac 67be
000001b0: 9740 64be ccfc a9bd b7ba bf3d 60b3 41bd
000001c0: 86ce 80be 0012 07bd baea a63d ef45 d33d
000001d0: 3e2c 26be 2c1e 40be 7664 36bd 639a 6dbc
000001e0: 188a edbd c81a 84be 5329 38be b04e 2d3e
000001f0: be40 203c d4af 52be 584c efbd bc8a bf3d
00000200: eee0 a8bd 1ba9 7dbd 57ca 0b3d ac79 3bbe
00000210: f5b3 27be b363 cf3d fb84 4e3e 36ca 9b3d
00000220: c8fc 3bbe ef33 fd3d 78ac cb3d a911 1e3c
00000230: e02a 913d 6edd 49be 8bce f83d 59c4 0f3e
00000240: 388b 4e3c 2347 69be 00ca a23d f318 90bd
00000250: 074d 5c3e 08e1 da3d cf0f 153d b0d1 b6bd
00000260: 6549 9a3d d8ee 163e 3d53 48be 5725 7bbd
00000270: fdc8 fdbd 022d 313e 6319 083e f2ae 1bbd
00000280: 5596 1d3d 4c89 4bbd 9cca 573e 97a4 f3bd
00000290: cc4f 50be 1143 853d 6033 253e aaea 1fbd
000002a0: 8ea6 3d3e 1f7c 46be fd78 0cbe 773f f0bd
000002b0: cc1f a8bd da1c 263e 305b 053c b914 623e
000002c0: 35b4 47be 5354 56be e83b 22be fc3c 803e
000002d0: c05f 443e de29 34be d5cd c9bd 711c a2bd
000002e0: df3f 513e 061e 9e3d 0c50 d63d 7392 5fbe
000002f0: e7c4 26be f526 e63d fd98 873d f0fd 29be
00000300: 3dad 843d 5fad 4bbe 8b53 6b3e 246e a4bd
00000310: e37b 11be ddb8 cb3b 01cb 55be a48a 2ebe
00000320: 9a6e 4abd 632c 8cbe 78e8 6abe da6a fd3d
00000330: e40a 47bd ae9b 473e 52a9 f43d fab5 f33d
00000340: 5b5b 5dbd 1db8 0b3e eefc 9a3d 8291 213e
00000350: 67a3 533a 8ee0 013c 4dc8 8cbd 0308 4bbe
00000360: c424 0a3e b822 dd3d b34f 20be 8910 26be
00000370: 4d48 9bbd aef6 6bbe c12f 263e a3d6 a7bd
00000380: 2907 5d3e da10 c73b ddd2 54be 0ed6 1ebe
00000390: 5ab6 d2bd 7063 373e 9dbb dfbc 1aa0 043e
000003a0: 6d84 093e 0bb9 483d 1c52 aa3d 79ff af3d
000003b0: bc46 b93d 7c92 3b3e 8f45 543d c9f4 bbbd
000003c0: 7d25 1f3d fdee 403d a0e2 f83b df6c 5b3d
000003d0: a241 febd cb5d 863c 03c0 41bc 1c2d 9fbd
000003e0: 47c5 09bd 6180 c83d
0.08172264 -0.025932837 0.076034755 0.14148122 0.121243425 -0.0026574298 0.1913316 -0.08364603
-0.088249974 -0.045773156 0.037177447 0.14093351 0.14001732 0.24901907 0.18436258 -0.2897704
-0.10045927 -0.07899048 -0.10737292 -0.23104484 -0.08704107 -0.2766452 -0.27962115 -0.22211406
-0.21801217 -0.20435731 -0.056944102 0.14708477 -0.021625139 0.012834967 -0.25890297 -0.2277226
-0.07495404 -0.022058636 -0.04216678 -0.11655983 -0.040149886 -0.22007068 -0.05042643 -0.12560803
0.19249475 -0.05686968 0.005917702 -0.18611172 -0.17227143 0.22377656 0.12012829 -0.0632932
0.17983128 -0.20994253 -0.085714564 0.07935309 0.08325201 0.08777036 0.07528139 -0.014080569
-0.09023397 0.12838385 0.088573314 0.12192156 0.04423789 -0.0029061974 -0.038672358 0.11979759
0.075150535 -0.11707151 -0.086784154 0.14997527 -0.014972505 0.126816 0.037745044 -0.13548991
-0.0344019 -0.064237535 0.20081866 -0.05394143 0.23776442 0.17193244 0.14809334 0.18545178
0.15106939 0.0243852 0.111935854 0.14745565 0.13048801 -0.026170036 -0.13978997 -0.17525223
-0.124028765 -0.16488126 0.11529843 -0.17482369 0.08299962 -0.07912212 0.051835198 -0.20208673
-0.16116205 0.054875683 -0.18579882 0.06921045 0.13161656 0.17696282 -0.14718083 -0.09685566
-0.25959188 0.0002617466 0.1271786 -0.22624399 -0.22290264 -0.0830017 0.09361785 -0.047290206
-0.25157565 -0.03297615 0.08150239 0.10316073 -0.16227815 -0.1876151 -0.0445294 -0.014502141
-0.11598605 -0.25801682 -0.17984514 0.16924548 0.009781061 -0.20574886 -0.11684483 0.09352633
-0.08246027 -0.06192885 0.034128513 -0.18308133 -0.16377242 0.10126438 0.20167916 0.07606928
-0.18358147 0.12363421 0.09945005 0.009647765 0.07088256 -0.19713375 0.1214877 0.14039744
0.0126064345 -0.22781043 0.07948685 -0.07036009 0.21513759 0.106874526 0.03639203 -0.089267135
0.0753353 0.14739549 -0.19563003 -0.061314907 -0.12391851 0.17302325 0.13290934 -0.038008638
0.038473446 -0.049691483 0.21073383 -0.118966274 -0.2034294 0.065069325 0.1613288 -0.039042152
0.18520567 -0.19383286 -0.13718028 -0.11730855 -0.0820919 0.16221943 0.008139417 0.22078218
-0.19502337 -0.20930605 -0.15843165 0.25046527 0.1917715 -0.17594096 -0.098537125 -0.07915581
0.20434521 0.0772057 0.104644865 -0.2183321 -0.1628605 0.11237899 0.06620977 -0.16600776
0.06478355 -0.19890355 0.22981088 -0.0802882 -0.14207415 0.006217106 -0.20878221 -0.17045075
-0.049421884 -0.27377614 -0.22940242 0.12373896 -0.04859437 0.19492981 0.11946358 0.11899944
-0.0540422 0.13644452 0.07567774 0.15778163 0.000807336 0.007927073 -0.06874142 -0.19827275
0.13490587 0.10797638 -0.15655403 -0.16217245 -0.0758215 -0.2304332 0.16229154 -0.081952356
0.21584763 0.006075007 -0.20783563 -0.15511343 -0.10288687 0.17909026 -0.02731114 0.12951699
0.13429423 0.049004596 0.08316442 0.085936494 0.09046695 0.18317598 0.05182415 -0.091775484
0.03885411 0.047102917 0.007595375 0.053570624 -0.12414862 0.016402146 -0.011825564 -0.07772276
-0.033635404 0.09790111

parameterizer.cl_layers.0.bias f4 [10]
00000000: 04cb 1b3e 5fbe 453e 2b0f 39be 19a2 8dbc
00000010: 6ab1 7a3d 64ae ac3c c000 45be bd48 bdbd
00000020: 7bb8 b8bd 4e24 72bd
0.15214163 0.19310902 -0.18072192 -0.017289208 0.06120435 0.02107925 -0.19238567 -0.09242389
-0.09019562 -0.059116654

parameterizer.cl_layers.3.weight f4 [20, 10, 5, 5]
00000000: e11f c03b 9bb2 bebc 3ddf 06bd fd78 a4bd
00000010: ff0b 9cbc b525 f83c e0cf ea3c 85de f9bc
00000020: 092c 043b cab7 afbd a03e 33bc 0c9c 5d3d
00000030: 20fd 9e3a f5ee 7abd 67d0 f5bc d1d9 563d
00000040: e908 303d 98b6 3cbd e317 1dbd 9313 3e3d
00000050: e063 96bc 1c54 a73c 4f5c c139 678c b3bc
00000060: 7de2 5ebd 6078 293d a866 383d 192f 6bbd
00000070: c992 c4bc 95c5 163b 67ed e0bb fe90 893c
00000080: cdb0 71bb 122f c7bb 37e4 3e3d 9721 5d3c
00000090: 6624 bc3c dacc 873d 3fb2 cc3c 17e7 ef3c
000000a0: be27 413c 9147 a63d f51a 95bb 94f5 34bd
000000b0: 29d5 abbd cec5 c7bb 22de 363c 0585 79bb
000000c0: 1c97 743c d02d 9ebc 2269 ea3c 4061 2fbd
000000d0: b217 ea3c 50e7 47bc 6d7e 393d 2339 0fbd
000000e0: 2845 91bd 0c37 0d3d 25e4 e5bc b460 34bc
000000f0: a950 253c 34d1 da3c cbf3 e1bc 1943 15bd
00000100: 82d2 c43c 3d2b 37bb e374 7d3d e052 16bc
00000110: b23d ff3b b586 44bd 9549 78bd ba34 c9bc
00000120: 13de 693d 211c 403c 702e 853c d92b 373c
00000130: aa70 16bc ecad 99bc 2275 ec39 cdb8 49bb
00000140: 298d 48bc 8012 1e3d 5b35 18bc ae59 4e3d
00000150: a20d c6bd 5a26 283d d0c1 83bc ecc2 3cbd
00000160: be87 aabd 2cbb f33b 1f50 0b3c c5f7 6f3d
00000170: b415 343d 73ff d9bc e7c4 dcbb dc39 703d
00000180: 1152 613c a564 5d3b fbd6 9a3c 22ef 82bd
00000190: 7082 ec3c 7655 e2bc 32e0 b9bc 7733 b23c
000001a0: 4708 3abd 3857 de3c dd5d 3fbd eeeb 7cbd
000001b0: 968f 89bd a74b 2b3d 2538 06bd 153d 28bd
000001c0: c472 173d c786 f6bc 1009 3e3d 1d61 47bd
000001d0: e739 8d3c 2fbf d7bc 12a2 723d 9f89 20bd
000001e0: ac47 153d d6ff bd3c 3156 713c 6da7 09bd
000001f0: 41c0 763a 20ad 12bd 2e8b b63b 09fc 1ebd
00000200: e8d6 9d3c f06b 1b3d 6419 113a 7a48 743c
00000210: 29a0 073d ac0f 5c3c fd10 2bbc 42f4 6bbc
00000220: d72a a43c 05ba 823b 607f da3b 9bb0 4b3c
00000230: 58da c7bb e567 75bc 351d 553d f26b 843d
00000240: 3e62 89bd 30d4 f8bc c442 56bd 7044 abbb
00000250: a876 49bd 11e4 90bd 0a44 213d 8c3a 903d
00000260: 20f7 043d ec89 da3c 478b 0a3c 62e6 c53c
00000270: aa29 053c ed8e dabc 7fef d9bc cf03 0cbd
00000280: 9e5f c93c 7483 debc 55d8 16bc e7de 803c
00000290: 66a3 813c 1a39 6ebc 7f47 f2b8 5f20 91bc
000002a0: d554 85bc e670 333d 9cbf a03c 0311 10bd
000002b0: 587d 5c3d 7bde 973c 903c aebc 128b 133a
000002c0: 4cfd aa3d 7624 af3c 8afa 24bd 9602 61bb
000002d0: 29d7 41bc 1d76 0e3d 0ca0 233d 0217 cf3b
000002e0: 76fb 55bc 1629 b5bd 132e 05bd 24e7 27bd
000002f0: ef9c 0f3d dbab 98bc e5be 81bd a668 cebd
00000300: 5479 78bc d5f0 793c 4612 a53d 9f8e 17bd
00000310: a194 15bd 7181 6b3c 1a6e 4739 a98b dcbd
00000320: a635 873c f9b0 543d e5ca 883b 1e2e ca3d
00000330: b4d0 cfbc a20c 1b3c ed41 933d 963d 703c
00000340: 7e52 e93c f72f 153d db3e 35bc 2a31 ca3c
00000350: bc17 293d 17a1 913c 2099 3cbb 019d 333d
00000360: 9dc5 c9bc a85d 323d 68bf 84bc 9057 46bd
00000370: c479 cc3c 5403 583d 844c 0d3a f913 d13c
00000380: 1fce 88bc 6acf df3c 1d8c 4a3d c870 22bd
00000390: 7a9c 16bd 81be cfbc 1a6d 683b 3c43 353d
000003a0: 66f1 7ebc 1520 30bd 2ae7 623d 21ca 44bc
000003b0: 49d7 183c 77b9 2dbb 58dc 65ba b800 963d
000003c0: 10cb 543d 3766 5e3d 4cb7 a63c 36a3 af3c
000003d0: 7ccb c23c 11b8 24bc d251 b93c 9f81 203d
000003e0: 1d12 1d3c c808 93bd fc15 163b 4e35 1b3c
000003f0: 06e2 9d3d 60b6 a13c ce6d b63d 0783 d4bb
0.0058631753 -0.023278525 -0.03292774 -0.08030889 -0.019048689 0.030291418 0.028663576 -0.030501613
0.0020167849 -0.08579977 -0.010940224 0.054103896 0.001212988 -0.061263043 -0.0300066 0.05245382
0.042977247 -0.046072572 -0.03835286 0.046405386 -0.018358171 0.020425849 0.00036880604 -0.021917535
-0.054415215 0.041374564 0.045019776 -0.057417963 -0.023995774 0.0023005952 -0.006864238 0.01679277
-0.0036879063 -0.0060786093 0.04660436 0.013496778 0.022966575 0.06630869 0.024987338 0.029284997
0.01178926 0.08119119 -0.0045503327 -0.044179514 -0.083902664 -0.006096578 0.011161359 -0.003807367
0.014928605 -0.019308954 0.028614584 -0.042817354 0.028575752 -0.012201145 0.045286585 -0.0349666
-0.07093269 0.034476325 -0.02806289 -0.011009384 0.010090032 0.026711084 -0.02758207 -0.036440942
0.02402616 -0.0027949356 0.06187905 -0.009175032 0.007789337 -0.04798003 -0.06061705 -0.024561275
0.057096552 0.011725456 0.016257495 0.011179888 -0.009182135 -0.01875969 0.00045100698 -0.0030780316
-0.012240686 0.03859186 -0.009290065 0.050378494 -0.09670569 0.0410522 -0.016083628 -0.04608433
-0.08326672 0.007438084 0.008502989 0.0585859 0.04396601 -0.026611065 -0.00673734 0.05864893
0.013752476 0.0033781913 0.018901339 -0.06393267 0.028870791 -0.027628642 -0.022689912 0.021753056
-0.04541805 0.027141199 -0.046720374 -0.061748438 -0.0671684 0.041820195 -0.032768387 -0.041073877
0.036974683 -0.030093564 0.04639536 -0.0486766 0.017239524 -0.02633628 0.059236594 -0.039193746
0.036445305 0.023193281 0.014730022 -0.033606935 0.00094128033 -0.035809636 0.0055707907 -0.03881458
0.019267514 0.037944734 0.00055350945 0.014909858 0.033111725 0.013431471 -0.010441062 -0.014401497
0.020039959 0.0039894604 0.0066680163 0.012432243 -0.0060990267 -0.014978384 0.052029807 0.064659014
-0.06708191 -0.030374616 -0.052309766 -0.0052266642 -0.049185425 -0.0707475 0.039371528 0.07042417
0.03246224 0.026677094 0.008456058 0.024157707 0.008127609 -0.02667948 -0.026603458 -0.03418332
0.024581727 -0.027162291 -0.009206851 0.015731288 0.015824985 -0.014539981 -0.000115527764 -0.017715631
-0.016275803 0.04380884 0.019622616 -0.035172474 0.053830475 0.018538704 -0.021269113 0.0005628328
0.08349094 0.02137969 -0.040277995 -0.0034333817 -0.011831083 0.03478061 0.039947554 0.0063198814
-0.013060441 -0.08845727 -0.032514643 -0.040991917 0.035061773 -0.018636635 -0.06335238 -0.10078554
-0.015165646 0.015255173 0.08060126 -0.03700125 -0.036518697 0.014374123 0.00019019135 -0.107688256
0.016505074 0.051926587 0.0041745775 0.098720774 -0.025368072 0.009463461 0.07190309 0.014663121
0.028481718 0.036422696 -0.011062349 0.024681646 0.0412824 0.017777009 -0.0028777793 0.043850902
-0.024630362 0.04354635 -0.01620455 -0.04842335 0.024960406 0.05273755 0.0005390125 0.025522219
-0.016699849 0.027320582 0.04945003 -0.039658338 -0.03677032 -0.025359394 0.003546542 0.044253573
-0.015560484 -0.042999346 0.055396236 -0.012011082 0.009328672 -0.002650825 -0.00087684905 0.07324356
0.051951468 0.0542967 0.020351075 0.02144013 0.02377867 -0.0100536505 0.022622023 0.039186116
0.009586838 -0.07179409 0.0022901287 0.009473158 0.07709126 0.019740283 0.08907662 -0.0064853462

parameterizer.cl_layers.3.bias f4 [20]
00000000: ba42 803d 16cf 82bc cc1b a2bc 1e2c 2b3d
00000010: 8ee4 6dbc 7fae f23c 8f68 483d 6513 4bbd
00000020: a1c6 b23c ba24 c4bc 2e50 503d 5c46 8bbb
00000030: e2dc cfbb 6fe5 2bbc 8fbc 8fbd 5a7e 7f3c
00000040: 7390 723c 15ab c9bb 86f0 e6bc 4dea 27bd
0.06262727 -0.015967887 -0.019788645 0.04179012 -0.014519824 0.029624222 0.04892784 -0.049579043
0.02182323 -0.023943294 0.050857715 -0.004250331 -0.00634347 -0.010491713 -0.070183866 0.015594089
0.014804947 -0.006154428 -0.028190862 -0.04099493

parameterizer.fc_layers.0.weight f4 [50, 320]
00000000: 14dc c83b 5838 dbbc 1bed 8d3c b00c 5ebd
00000010: 7580 aabc 3bff 903d 8b13 3e3c c974 e4ba
00000020: 638a 59bd 268a 143d 3073 c13c a994 c73c
00000030: 9184 84bb ddaf c53a 30f0 df3c 04d7 7f3c
00000040: 7b43 4f3d a272 de3c 8793 01bd af20 65bd
00000050: f6ff af3d 87a9 5dbb 3304 b63c ad55 b03c
00000060: d168 e73c a395 30bd 8314 803c a458 383d
00000070: b4ae 0c3d 8c04 e6ba cf37 45bd af1a 173d
00000080: c43f 46bd 9934 c43c a40f edbc 88fd f3bc
00000090: 666f 8bbc ebcd 5b3c b968 463d 28b9 793d
000000a0: 6737 0ebd bcea ea3c 9ecc 293d b0e2 e73c
000000b0: 157f 03bd 76a1 adbc 17f6 813c 6eac a13c
000000c0: b38c 803d 007e 1b3d b3ef 33bc cfc5 b23d
000000d0: 2118 b23d c9ac 32bd e710 30bc 8e40 083d
000000e0: c5b1 043e 9117 afbb 0858 31bc de0f 69bb
000000f0: 530d 033d 3a38 6e3a cf9b 3abd 64ce 9cbc
00000100: 469c 0d3d a8ea 0b3d 5163 09bd d433 bebb
00000110: 6547 003d efa4 873b f45b 7ebc 7400 aabd
00000120: 969f 143d 6101 db3d 83eb 0b3d 9d53 49bc
00000130: 5c43 fcba bc12 323d d60f 80bb 8519 86bd
00000140: c0b6 2bba 2400 e3bc 6010 dabc 1fbc 15bd
00000150: e588 c83d 83d0 ba3b 825a 6bbd 951a babc
00000160: 8b8e 293d a5f0 44bd bd23 273d 367e 3e3d
00000170: fa12 5a3c bb7a 183b 5900 413d 7717 a83d
00000180: 8a38 6dbc 9236 2f3c 93f3 813c 08a0 383d
00000190: 2259 a23c 9ca0 fc38 9214 0d3d 8921 253d
000001a0: 5754 913d 3a5c b0bc 210c b2bd 9517 a4ba
000001b0: 27db fd3c aacf adbd fecb 9ebc bc07 303c
000001c0: 1397 f1bc 1cc9 eebb 4197 dfbc 8c8a 0f3c
000001d0: 368f ab3c 91f2 303d 7338 9d3d 4c02 463d
000001e0: 0009 82bc d58f 6fbd b6f7 0d3d d60f 063d
000001f0: 8fb7 203e c6f2 8abc 1101 c5bc f7e4 c03d
00000200: 9939 00bc 8c9f b23b b5b6 bc3c a206 a73c
00000210: 8d8d debc f9f9 80bd 9eaf f33d db69 20bc
00000220: d6aa a9bb 9679 ce3c 9d72 2f3d c201 cabc
00000230: 1d39 c33c 1026 c83c abf3 443a f07d 70bc
00000240: f851 a93a e388 9f3c 1ffa 27b9 e7cd a03b
00000250: 0a06 60bd 45ec ca3b 45ee c63c 434e 783d
00000260: ee25 89bd d3f1 753d d5eb 9e3d 7ad2 023d
00000270: b02a dcbc 1e91 67bc 3ed3 f93b cd6b 0fbd
00000280: 08c9 193d 7ce2 103d 6d75 673d 8cdb 82bc
00000290: 02e5 e3bb 7fdc 1eba fd39 3bbc 1146 8d3c
000002a0: b70f 9abb bdcf 64bd 1dc3 1bbd e401 bc3d
000002b0: b806 133c fb5c 28bd 531a 2c3d 54c1 0b3d
000002c0: 23c8 b6bb 27a5 48bc 49a8 2cbc 63df 15bc
000002d0: d310 28bb 7993 11bd b01c 5a3c f3d4 9e3b
000002e0: 1e5b 71bd 157d 603d 7b27 b7ba 1c11 703d
000002f0: f97d b93c 43e0 703d 7c69 b13d c19b 313d
00000300: 104c d73c 70ad 013c f7ce b23b 983c bfbc
00000310: 7c28 dabb 592e e8ba 0c30 353d 3921 35bc
00000320: 35e5 203d ceef 09bd eb97 66bc 640a cdbc
00000330: e9ef aebc d09d 8abc 28d8 643d 2f93 6f3c
00000340: 4570 0c3d a83a e63c d58a b23c 8b3d 8e3c
00000350: dec2 0a3d e60d ffbc ac1f 373d 5493 183d
00000360: b9c7 7e3d 68e8 7e3d 4656 013d e434 bbbd
00000370: b5dc aabc 24a3 583c 8a6c 45bd baea 16bd
00000380: d0f7 6a3d 1be0 553c 461d 03bd b8ef fe3c
00000390: 6067 c139 3335 b03d c501 b8bb d70e 833d
000003a0: 11d1 373d 06df 91bc c9e7 2b3d 96cb 9e3d
000003b0: 85e7 4ebd 17b2 a3bc ed84 a7bc 24ce 333d
000003c0: b540 35bd 2f75 263d c083 883c b1eb 413c
000003d0: 6b7e 123d 4bdb ae3d 778c 3abd 8c5e efbc
000003e0: af5d c5bc 6355 6a3d c8d7 7e3c 580d 63bd
000003f0: 08a5 343c ab1d 77bb 1cbc 773d 073f a33c
0.006129751 -0.026760265 0.017324975 -0.05421132 -0.020813206 0.07079931 0.011601339 -0.0017429824
-0.05311049 0.03626456 0.023614496 0.024362879 -0.0040441235 0.0015082319 0.02733621 0.015615229
0.050601464 0.02715427 -0.031634834 -0.055939373 0.085937425 -0.003382297 0.0222188 0.021525228
0.028248223 -0.043111455 0.01563478 0.04500641 0.034346297 -0.0017548962 -0.048148926 0.03689068
-0.048400655 0.023950862 -0.028938122 -0.029783979 -0.017020892 0.013415794 0.048439715 0.060967594
-0.034720805 0.028676383 0.041454904 0.028306335 -0.032103617 -0.021195155 0.015864415 0.019735541
0.06276836 0.03796196 -0.010982442 0.08729135 0.086960085 -0.043621812 -0.010746217 0.03326469
0.12958439 -0.0053433855 -0.010824211 -0.0035562436 0.03199513 0.0009087358 -0.045558747 -0.019141383
0.034572862 0.034159333 -0.03354198 -0.0058045182 0.031318087 0.0041395347 -0.015524853 -0.08300868
0.036285006 0.106936224 0.03416015 -0.012288001 -0.0019246149 0.043474898 -0.003908138 -0.06547836
-0.0006550364 -0.027710028 -0.026619136 -0.03655636 0.097917356 0.005701126 -0.05745936 -0.022717753
0.041395705 -0.04808106 0.040805567 0.046507083 0.013310188 0.0023266512 0.047119472 0.082076006
-0.014478812 0.010694163 0.015863216 0.045074493 0.019817892 0.00012046212 0.034443446 0.040315185
0.07096165 -0.021528352 -0.0869372 -0.0012519235 0.030988289 -0.084868744 -0.01938438 0.0107440315
-0.029490983 -0.0072871577 -0.027293803 0.0087610595 0.020942312 0.04320008 0.076767825 0.048342034
-0.015873432 -0.05848678 0.034660064 0.032729946 0.15695022 -0.016961467 -0.02404836 0.094186716
-0.007826232 0.0054511484 0.02303634 0.020388905 -0.027167106 -0.062976785 0.11898731 -0.009790863
-0.005177836 0.025204461 0.042833913 -0.024659041 0.023830945 0.024432212 0.0007513116 -0.014678463
0.0012918105 0.019474452 -0.00016019538 0.004907358 -0.05469326 0.0061927163 0.024283538 0.06062151
-0.06696688 0.060045075 0.07759825 0.031939007 -0.026875824 -0.01413372 0.007624059 -0.035014916
0.037545234 0.035372242 0.05650847 -0.015973829 -0.00695479 -0.0006060078 -0.0114274 0.017245324
-0.0047015804 -0.055862177 -0.03802787 0.09180048 0.00897377 -0.041104298 0.042017292 0.03411992
-0.0055780574 -0.012246407 -0.010538169 -0.009147498 -0.0025644794 -0.03554103 0.013312504 0.004847163
-0.058924787 0.054806788 -0.0013973558 0.058610067 0.022643076 0.058807623 0.08662698 0.04336143
0.026281387 0.007914886 0.005456801 -0.023344323 -0.006657658 -0.0017714008 0.044235274 -0.011055284
0.03928109 -0.03367596 -0.014074306 -0.025029369 -0.021354632 -0.016920954 0.055870205 0.014622494
0.034286756 0.028104141 0.021794716 0.01736333 0.033877246 -0.031134557 0.04470794 0.037249878
0.06220219 0.06223336 0.031576417 -0.091409475 -0.020857194 0.0132224895 -0.048199214 -0.036844946
0.05736524 0.013053919 -0.03201034 0.031120166 0.0003688885 0.08603897 -0.0056154453 0.06399315
0.044877116 -0.017806541 0.041969094 0.07753675 -0.050513763 -0.01998238 -0.020449126 0.043897763
-0.044251163 0.0406391 0.016664386 0.011835978 0.035765093 0.085379206 -0.045544114 -0.029219888
-0.024092523 0.057210337 0.015554376 -0.055432647 0.011025675 -0.0037706892 0.06048213 0.019927515
