results/OUR_MODEL/checkpoints/Epoch[21]-Step[5940].pt (torch, 374454 bytes, 66 tensors)

conceptizer.encoder.0.0.weight f4 [10, 1, 5, 5]
00000000: 8110 3abe 4944 f33d 88b4 073e 4ee3 7e3d
00000010: 957c da3d eb35 cbbd ab39 cabd 1b26 8dbd
00000020: 9161 e63d 4c8d 2cbd a93f e63d 458a 533d
00000030: ca1e 74be 2c72 d83d 4dbb 343c a08b 383e
00000040: 8366 973d 1cac ec3d 10c2 c93d 1c61 2c3d
00000050: 1113 413e 234f 19bd ca44 89bd e030 54bd
00000060: 3fd4 2a3e d8d1 68bd 6be0 343e 616e c4bd
00000070: d8c3 e7bd 0729 e5bd 3851 303d 5e60 8ebc
00000080: 9fe1 2cbe d49b b1bc 9ec3 1ebe 2624 153e
00000090: a520 cbbd 7841 59bd 78fe 41be 05fd 00be
000000a0: 0d89 0dbe 5446 a3ba 7f5d 31bd 43e8 1b3d
000000b0: d94b 8a3c 0379 803d fcd9 023d e149 b9bd
000000c0: ba9f 4cbe 5615 84bb a2f7 9dbd d3b0 4ebe
000000d0: 409e 753d 63f1 97bd bba2 c2bd 3a9b 1fbe
000000e0: d95d 4bbe ac79 6bbd 11cc 61be 3e71 e6bd
000000f0: 288c 86be dbcf b03d dc17 fcbd bec9 68be
00000100: c33b 18bd 8d89 18be 1451 99bd ea07 7cbe
00000110: 45bc 09be b7db 2abe 1ab6 473c 0789 6bbd
00000120: e02f 50bb caf9 57bd 14ee 3ebe 7f3b b2bd
00000130: c562 d0bc fd5f 403d fd75 c0bc 25bf 64bb
00000140: 27e0 02be b94e e4bc b939 b1bd 98e4 bd3b
00000150: 852f 073e 01ad 5bbe 8c6f 4fbe 1d04 4d3d
00000160: 8209 20be 2138 103c 8098 aebd 92a8 0fbe
00000170: 5542 6abc 573c d8bd 3775 c2ba 4354 bdbd
00000180: c4a4 6dbd 3ddb 5cbe 9b4b 83bd ad3a 233e
00000190: c380 ff3d 1783 03be 9b8e a13d 5453 793d
000001a0: 301f 103e a807 e63d 0bf1 35be b06b 00bd
000001b0: 86ee b63c d66a 77be b860 a03d 481a 30ba
000001c0: 61ea 3bbe 48f3 72be 31cf c5bd eae9 983a
000001d0: d5c0 fcbd 95d5 b83d 56f8 45be 992e 5b3c
000001e0: 3ac8 2b3d 2c65 183e 3ee2 37bd 54cc 1ebe
000001f0: e2be 473b df2c 303c 7508 ba3d 7cce 923c
00000200: 5373 c93d 33d1 e63d f99b 7fbd 0bcf e1bd
00000210: d11f e13d 4d07 033e 98b6 583d 9168 383e
00000220: 7248 613d 82e3 653d 042c 98bd 9d67 afbd
00000230: 7d6d a6bd d05f 103e fe00 0d3e c6d7 10bc
00000240: 41db 30be 4ad4 093e c931 433e 9367 8c3d
00000250: 7bf6 e9bd 2541 92bb 57d8 203e 4e06 33be
00000260: 6443 893d 714f 293e 0b51 963d f524 8abd
00000270: 7919 243e 0e74 503c 3cf3 573e d642 6a3e
00000280: 69ff c5bd a2ac b3bc 7bf6 cebc 1cd1 0cbd
00000290: c52d 86bd cb6d 22be 4ec3 023e 04fb 173d
000002a0: 27ff 0abe 1f08 36be e73b 08be f092 cd3b
000002b0: 6740 75be f396 4fbd f339 29bc 43fb 84bc
000002c0: 6f1f 53bc 7d79 3bbe 206b 38be 33ea 1c3e
000002d0: 4dc9 ffbb 250f f1bd 901b 2f3d 7e25 e23c
000002e0: 3458 7ebd 64ab 573e 33d6 953b f1ec e43d
000002f0: 3660 313e 9d12 7b3d f455 7a3e 60b8 8ebd
00000300: df80 873d d12a 27bb 3b4d 72bc 3eb1 cf3c
00000310: c327 103e 8970 1cbe 3c27 623c ce58 a13d
00000320: 98b1 ef3d bc27 8a3c 45ca 7c3d 1d25 2b3d
00000330: 16ec 873c 6520 f53d 44c2 c63d 278f e5bd
00000340: f73a 0abe 36c0 7a3e aa3a 313e 1f5b adbd
00000350: 6314 8dbd c50a 12be 1ecd edbd b6bd 583d
00000360: 480b 023d 6658 e53d 9c09 4fbe a924 893d
00000370: b1b4 59be a79a ec3d 44d1 ea3a a439 48bd
00000380: 7ad8 463e 47c7 8fbc 84cd af3d ec66 b43d
00000390: ddc4 ab3d cf44 df3c 8b46 44bd 96a7 d23a
000003a0: 3bf0 0f3e 6014 3abd a461 dd3d 86bd 133e
000003b0: 36c3 fb3d 16ce 223e a785 f0bd 45d6 c93d
000003c0: 9bff cdba 753d e83d 38be 6cbd 81fa f8bd
000003d0: f683 b93d f93c 12bd 5859 45bc 6904 383e
000003e0: 7990 473e 8bd9 9c3d
-0.18170358 0.11878259 0.13252461 0.062228493 0.106682934 -0.099223934 -0.098742805 -0.06892034
0.11249078 -0.04212694 0.11242611 0.051645536 -0.2383987 0.105686516 0.011030984 0.18022013
0.073925994 0.11556265 0.098514676 0.0420848 0.1885493 -0.037428986 -0.067025736 -0.051804423
0.16682528 -0.056840748 0.17663734 -0.095913656 -0.11316651 -0.11189466 0.043046206 -0.017379936
-0.16882943 -0.02168075 -0.1550431 0.14564571 -0.09918336 -0.05304095 -0.18944728 -0.1259652
-0.13821812 -0.0012456873 -0.043302055 0.0380633 0.01688187 0.06273081 0.031946167 -0.090472944
-0.19982806 -0.0040308638 -0.07713248 -0.2018464 0.059965372 -0.07419088 -0.095036946 -0.15586558
-0.19860019 -0.057489082 -0.22050501 -0.11252068 -0.26278806 0.08633395 -0.12309238 -0.22733209
-0.03716637 -0.14896221 -0.074861676 -0.24612394 -0.13450725 -0.16685377 0.0121894125 -0.057503726
-0.0031766817 -0.05272845 -0.18645507 -0.08702754 -0.025437722 0.04696654 -0.023493761 -0.003490397
-0.1278082 -0.02786957 -0.08653588 0.0057950728 0.13201721 -0.21452715 -0.20257396 0.05005275
-0.15628627 0.008802445 -0.08525181 -0.14029148 -0.014298041 -0.10558384 -0.0014835958 -0.09244587
-0.05801846 -0.21568008 -0.06410905 0.15940352 0.12475731 -0.12842976 0.07888528 0.060870484
0.14074397 0.11231929 -0.17767732 -0.0313527 0.022330534 -0.24161848 0.07830948 -0.00067177834
-0.18351127 -0.23725617 -0.09658659 0.0011666392 -0.12341467 0.090251125 -0.19333014 0.013377809
0.041938998 0.14882344 -0.044893496 -0.15507632 0.0030478765 0.010752886 0.09083644 0.017920725
0.098364495 0.1127037 -0.062404606 -0.110258184 0.109923966 0.12795754 0.05290851 0.18008639
0.05500073 0.05612517 -0.0743027 -0.085646845 -0.08126352 0.1409905 0.1376991 -0.008840507
-0.17271139 0.13459888 0.1906196 0.06855693 -0.114239655 -0.0044633322 0.15707527 -0.17482874
0.06702307 0.1653421 0.073396765 -0.0674533 0.16025342 0.012722982 0.2108888 0.22877058
-0.09667856 -0.021932904 -0.025264015 -0.03437911 -0.065516986 -0.15862195 0.12769815 0.03710462
-0.13573895 -0.17776535 -0.13304101 0.00627362 -0.23950349 -0.050681066 -0.010328758 -0.016233092
-0.012885912 -0.18308063 -0.18009615 0.15323715 -0.0078059793 -0.11770467 0.042750895 0.027605768
-0.062095836 0.21061474 0.0045726537 0.111780055 0.17321858 0.061297048 0.24446851 -0.069687605
0.06616377 -0.0025507698 -0.014788921 0.02535307 0.14077668 -0.15277304 0.0138032995 0.07878266
0.11703795 0.01686465 0.061716337 0.04178344 0.016592067 0.119690694 0.09705022 -0.11208945
-0.13499056 0.24487385 0.17307535 -0.084646456 -0.06888654 -0.14261921 -0.116113886 0.052915297
0.03174904 0.11198501 -0.2021851 0.066964455 -0.21260335 0.11552935 0.0017915149 -0.048883095
0.19418517 -0.017551078 0.08584121 0.08808693 0.08387158 0.02725449 -0.047918838 0.0016071673
0.14056484 -0.045429587 0.10809639 0.14427766 0.12293093 0.15898928 -0.11744242 0.09855322
-0.0015716435 0.11339847 -0.057798594 -0.12157155 0.09058373 -0.03570268 -0.012045227 0.17970432
0.19488706 0.076586805

conceptizer.encoder.0.0.bias f4 [10]
00000000: 29ef 903d 4284 2a3e a2f6 813e 2f80 c5bc
00000010: 4f58 653e 8e6f e13d 9d2e ddbc e341 85bc
00000020: de74 1e3e c396 2c3e
0.07076866 0.16652015 0.25383478 -0.024108974 0.22396968 0.110076055 -0.026999766 -0.016266769
0.15474269 0.16854386

conceptizer.encoder.1.0.weight f4 [5, 10, 5, 5]
00000000: 1847 1a3d 7542 a83c 5117 b33c 7b86 123d
00000010: 8a2e 66bd caf7 2c3d 8539 1f3d ca4d d33c
00000020: 3043 0cbd 0c1f 943d 6bae 1abc 9b37 873d
00000030: 832d bfbc b3ca c13c e350 2cbd 496e 0d3d
00000040: 5b8a cd3c 8c81 083d 984a 28bc a7a1 813c
00000050: 812d 343b 2b96 2ebd d99e 133c fadf 0e3c
00000060: eeca 933c b4d0 193d 9952 053d 49b3 8a3c
00000070: e19f 89bb 3187 59bc 0803 243d 24b0 e7bb
00000080: c893 84bd 43e2 ce3b 9543 32ba b585 153d
00000090: cfa6 acbc 5a04 7a3c a0ca abbc 4e70 04bd
000000a0: 5fa4 13bd e5c7 98bc 68b7 18bd 6d09 773d
000000b0: 9043 403d 411d a33c 0302 8c3d 6490 bdbc
000000c0: 5c2a e4bc 4709 bfbc 7b86 86bd 4fa4 e5bc
000000d0: 013d dbbb 7596 a8bc 0659 c33b 0252 bcbd
000000e0: 75e3 f2bc e032 bc3c 0bec 27bd 2a1e 943d
000000f0: 4723 d83c 6fe1 c23c 4a8d 5a3c 999c 2f36
00000100: 63ca d7bb 027d 3c3d b2a5 ca3b 3498 f0bb
00000110: 82a4 173d f7e6 cdbc 5c87 b23d b226 b13c
00000120: 423f 733d 8a38 743d 69ec ad3c 73c5 8cbc
00000130: 230e 9bbd 4400 bebc 1cb3 62ba a84f 463c
00000140: 6c99 4a3d 855c 363c 8311 1dbd a40a b43c
00000150: 14a4 ed3c 3384 933d c151 c03c bad5 3cbd
00000160: 76b6 4b3c 1641 dabb 3e39 8abc 5930 a6bc
00000170: acad ad3b 6450 033d a2c8 ef3c 162a f73b
00000180: 063b 043c 8c4f 193d 4997 683d c165 493d
00000190: b7b3 be3d 2e0f 153d 468c 1c3c e680 baba
000001a0: 961f 3ebd 90f3 503c f86d b23c 98f2 bfbb
000001b0: 4d2b 9f3c ee1a b93b d4cb ae3d f60b 0eba
000001c0: 9b8b 963d b355 c5bc c0e7 3ebd 6da1 b93b
000001d0: a502 7e3d fce7 e43c d549 733c 0860 463d
000001e0: a80a 54bd 1b1d 083c 9ff2 053d 2dd8 113c
000001f0: 10d0 293c 701c 8e3d 9cbc 863d 76e0 54bd
00000200: bcc5 25bd a789 2abc fde2 dbbc a09d ec3c
00000210: ff1f 89bc ce68 6e3c f666 ae3c d063 f1bc
00000220: ce9e c53c 07b2 543d 9b42 513c 6d92 523d
00000230: cd96 3abc ed1a 29bd f4b0 da3c 30f8 f6bc
00000240: 4aff 5dbc fc55 40bd 19b5 33ba cdf8 6dbd
00000250: d892 35bd ff3b abbc 4bfe 803d 41ba 803d
00000260: eb3e 18bb 89e0 c3bc e094 5abd 578f 633d
00000270: 5770 803d 206d 6abc db1c 3dbd 8846 bbbc
00000280: e552 ad3c 3982 fa3c 23ad 8b3c 0959 14bc
00000290: 8693 653d 1aac 8b3d 0469 9abc f983 f0bb
000002a0: 76b7 083b a5c8 913c 633e 0a3d eaa9 783d
000002b0: 3079 b13d 3883 7b3d 00b9 3a3d 87ed 09bc
000002c0: c692 e9bc 87bd 313d 3e57 8f3d f0a1 8e3d
000002d0: 3988 2f3d 16c1 783d 4200 59bd 87ec 473b
000002e0: c93b 5ebc d880 413d b5fa cdbc fff6 2cbd
000002f0: ec1f 75ba 1a97 763d a8af 073b 8f03 223d
00000300: c1ce ed3a 0707 593d ff83 ea3c 614c ec3c
00000310: 7409 3cbc f006 fdbc db35 8e3d 67e8 3f3d
00000320: 12e0 4dbc ef69 9b3d 02e7 a13c 5507 a1bc
00000330: 530d 23bb 1951 513d 1569 8b3d 25a4 263d
00000340: ee4d c639 157c 803d f34a 943d 580c 79bc
00000350: 5a5f 09bd 8ae9 833c e6d9 c43a 7574 083d
00000360: 222e 783d cbc3 3c3d 1c8d 8cbc 3bdd 203d
00000370: cd32 a2bd 96f9 1b3d 8ab8 e8bc 16cf 67bc
00000380: dcc9 073d 8cce 0e3d 578f 28bd 1d99 aabc
00000390: 8744 4c3d b2c1 c13c 027f 2c3d 4184 593d
000003a0: e296 5f3c 4492 35bd 2d26 a23c 15fa f23c
000003b0: 6b61 7d3d 85a4 26bd bf39 9a3c 3b51 d3bc
000003c0: 02c9 413d cc90 b73a f43d 80bc cbb5 35bd
000003d0: 33b0 393d 588a ecbc 469a 6ebd 82f2 553c
000003e0: 889b 553d 9264 10bc 7094 ac3c 3565 813d
000003f0: d76b 2d3d e1a9 3f3d 919d a73b ac38 2a3d
0.037665457 0.020539502 0.021861704 0.03577278 -0.056196727 0.042228498 0.038873214 0.025793929
-0.034243762 0.07232484 -0.009440999 0.06602403 -0.023337131 0.023656225 -0.042069327 0.034529004
0.025090387 0.03332667 -0.010271691 0.015824152 0.0027492943 -0.04262368 0.00901004 0.008720392
0.0180411 0.03755255 0.032549474 0.016931193 -0.0041999673 -0.013276861 0.040041953 -0.007070558
-0.064734995 0.0063135936 -0.00068002316 0.036504466 -0.021075634 0.015259827 -0.020970643 -0.032333665
-0.03604543 -0.018650005 -0.037284285 0.060311724 0.046939433 0.01991141 0.06836321 -0.02314014
-0.02785223 -0.023319853 -0.06568619 -0.02803245 -0.006690622 -0.020579556 0.00596154 -0.09195329
-0.029649476 0.022973478 -0.040996592 0.07232316 0.026384009 0.023789136 0.01333935 2.6168184e-06
-0.0065854057 0.046017654 0.006184303 -0.007342363 0.03702212 -0.025134547 0.08717224 0.021624897
0.0593865 0.059624232 0.021230893 -0.017183995 -0.07571056 -0.023193486 -0.0008647905 0.0121039525
0.04946272 0.011130457 -0.03834678 0.02197773 0.029008903 0.072029494 0.023476483 -0.046102263
0.012433639 -0.006660591 -0.016872998 -0.020286726 0.0053002443 0.03205909 0.029270474 0.007542859
0.008070713 0.037429377 0.0567849 0.049169306 0.09311622 0.03639143 0.009554928 -0.0014229089
-0.04641684 0.012753382 0.021780953 -0.005857777 0.019429827 0.005648962 0.08534971 -0.00054186524
0.073508464 -0.024088716 -0.046607733 0.0056649954 0.06201424 0.02794265 0.014849146 0.048431426
-0.051767975 0.008307721 0.032702085 0.008901638 0.010364547 0.06939018 0.06578943 -0.051971875
-0.040471777 -0.010408795 -0.026841635 0.028883755 -0.01673889 0.014551355 0.02128933 -0.02946654
0.024123576 0.051927593 0.012772228 0.051409174 -0.011388493 -0.041285444 0.026695706 -0.030147642
-0.013549635 -0.046957 -0.0006855294 -0.058098603 -0.044329494 -0.020902632 0.062985025 0.06285525
-0.0023230861 -0.023910778 -0.053364635 0.05555662 0.06271427 -0.014308244 -0.046170097 -0.02286078
0.021157691 0.030579673 0.017050331 -0.009054431 0.056048892 0.06819935 -0.018848903 -0.007339951
0.0020861304 0.01779587 0.033750903 0.060708918 0.08665693 0.061404437 0.045586586 -0.008418447
-0.02851237 0.043393638 0.06999062 0.06964481 0.04285452 0.060731016 -0.05297876 0.0030505972
-0.013564059 0.047242016 -0.02514396 -0.04222774 -0.0009350765 0.060202695 0.0020704065 0.039554175
0.0018143283 0.052985217 0.028627394 0.028845014 -0.011476863 -0.030887097 0.06943866 0.046852496
-0.01256563 0.075885646 0.019763473 -0.019656816 -0.0024879768 0.05110273 0.06807152 0.040683884
0.00037823565 0.06273667 0.07240858 -0.015200697 -0.0335382 0.016102571 0.0015018552 0.033314187
0.06059087 0.04608516 -0.01715713 0.03927348 -0.07919846 0.03807982 -0.028408308 -0.014148494
0.033151492 0.034864947 -0.041152325 -0.020824963 0.04987004 0.023651931 0.04211331 0.053104643
0.013646813 -0.044328943 0.019793594 0.029660264 0.061860483 -0.04068424 0.018826364 -0.02579557
0.047310837 0.0014004945 -0.015654542 -0.044362824 0.045334052 -0.028874561 -0.058252595 0.013058307
0.05215028 -0.00881304 0.021066874 0.06318132 0.042339172 0.04679287 0.005115219 0.041557953

conceptizer.encoder.1.0.bias f4 [5]
00000000: b426 cbbb 0579 113d d76c 223d ef04 7d3c
00000010: 63f6 8c3d
-0.006199682 0.035515804 0.03965458 0.015443071 0.06882932

conceptizer.encoder.2.layers.0.weight f4 [1, 16]
00000000: e505 59ba b9f9 a2bd 3665 3abd 7dec 25be
00000010: 89a5 e93d 2c3b 1e3e a814 0d3e d3f1 e0bd
00000020: f2c3 2dbe b8f0 41be 9039 3ebe 60aa 59be
00000030: 0aff 6cbb 3b90 69be 20be 5bbe f268 af3d
-0.00082787714 -0.07957787 -0.04550668 -0.16203494 0.114085265 0.1545226 0.13777411 -0.10983624
-0.16969278 -0.18939483 -0.18576646 -0.21256399 -0.0036162757 -0.22808926 -0.21459246 0.085649386

conceptizer.encoder.2.layers.1.weight f4 [1, 16]
00000000: 0c82 873e 30c5 61bd 36af 41bd 0a96 2abd
00000010: fb91 22be 4f7a 2a3d 0210 273b 427e 673e
00000020: d219 55bc ee6a 7fbd 356f 333e 797d 193e
00000030: e08e da3d a758 333d fc75 4f3e 87c7 9f3e
0.26466405 -0.055119693 -0.047286235 -0.041646995 -0.15876 0.04162055 0.002549172 0.22606757
-0.013006644 -0.062357835 0.17522891 0.1498927 0.106717825 0.043785717 0.20259851 0.31206915

conceptizer.encoder.2.layers.2.weight f4 [1, 16]
00000000: 0b9d 82be 58b2 4a3e 3016 2c3e 05cc 8fbc
00000010: e9a7 c33d 2c4d 9ebd 7a44 fa3d 2b5c 5cbe
00000020: c423 86be 2df5 f3bd 18f0 9a3d 7e90 04bd
00000030: cd6b 4cbe 01b7 403d 3bef c03c 69b8 d73d
-0.2551044 0.19794595 0.16805339 -0.017553339 0.09553511 -0.07729563 0.12220092 -0.21519534
-0.26199162 -0.11911998 0.075653255 -0.03236436 -0.19962998 0.047049526 0.023551574 0.1053322

conceptizer.encoder.2.layers.3.weight f4 [1, 16]
00000000: cd3f 3b3e e505 1b3e 41bf 7a3c 3ad1 7b3e
00000010: edd5 36bd 2ba6 023e 1276 e93d 2603 e63d
00000020: 3b32 18be d8b4 3b3e 8f0f a2bd 5f64 8e3d
00000030: 2d7b 273e a357 02be 90dd fbbd c296 60bd
0.18286057 0.15138967 0.015304388 0.24591532 -0.04463761 0.127587 0.11399473 0.11231069
-0.14862911 0.18330705 -0.07913124 0.06952738 0.16355582 -0.12728743 -0.12298119 -0.054831274

conceptizer.encoder.2.layers.4.weight f4 [1, 16]
00000000: a4e9 0f3e a7bc 1bbe 0b9e 9c3c acdc 15bb
00000010: e1fd 82be b239 c3bd 6529 c23d ee1c 0cbe
00000020: e329 0dbe 6123 33be e8ab 47be e68d 7cbd
00000030: ad99 dc3d 5c8d 493e f88d 863d 4645 b5bd
0.1405397 -0.15208684 0.01911833 -0.0022867126 -0.2558432 -0.09532489 0.09480552 -0.13682911
-0.1378551 -0.17493965 -0.19499171 -0.061658762 0.10771499 0.1968283 0.06570047 -0.088511035

conceptizer.decoder.0.0.weight f4 [5, 16, 5, 5]
00000000: 9930 763c 2f09 1ebd f375 03bd b968 db3c
00000010: 682f a53d 637f c43d f345 983b df93 babd
00000020: 9ebc 9fbd afd9 67bc ccaa c63c ba44 463e
00000030: 7b47 a53d fae7 e7bd ee1b 86bb 89b7 a1bd
00000040: c275 f33d 00b0 5bbd ee0a dbbd fee5 60bd
00000050: 8627 c43d ea40 3f3d 96e9 af3d 29f3 2abe
00000060: f8a7 cebd ea68 163d e700 303d ec55 0c3d
00000070: 24ca d13b 848d 8cbc 7566 ddbc 11ad 823d
00000080: 4cca 45bc c154 f33c e701 ce3a efa8 dcbd
00000090: 0c6e aabd dfe8 76bb fb3c 0fbd 98e2 e93c
000000a0: 5c92 1dbe 9ed8 76bd ee9a 6bbc f19a 6e3d
000000b0: 51f0 373d 035e 5fbd 3416 e13a 97f2 c73c
000000c0: 7310 d4bd c0d5 9b3d 9aca 073e 0ec6 c7bd
000000d0: 7764 ce3d 9fc2 3bbb 651f 6b3d 12d0 76bd
000000e0: c84e 0a3e 7fab 593d 6270 a83d fa17 fa3c
000000f0: d43a 05bd 0690 1c3e 6cee 05b8 848e 463c
00000100: 3785 67bd d748 f63d a822 c63a bd22 0bbd
00000110: 3cd8 01bd 3087 aebc 72ab 1f3d 4c59 8bbb
00000120: 662c e9bd 2b17 d43d dc59 f7bd b6d1 53bd
00000130: 0a4a 2ebe af34 f7bd 2cfb 0ebc fcd6 e23c
00000140: 5ebb 893d 2fe8 f63d 702f a2bd d0f0 dabd
00000150: deee e63c 9f6f 573e 3320 8b3d 1f65 b13c
00000160: bc84 0f3d f9e1 7b3d 37ce 343d b818 083d
00000170: e416 01bc cb16 823d 2673 4e3d cedc b0bd
00000180: fa32 043d a154 1d3e 878c d93d 8090 b13d
00000190: cb39 dc3d 676a 83bd 6372 ebbd 29cd 97bd
000001a0: a169 cc3c bf1f ec3b 6cb1 743d 0542 ad3d
000001b0: 9f32 123c 769d e8bd a572 9a3d 11be 493e
000001c0: 9ca8 4cbd 6331 923d 12bc 96bd 774e 97bc
000001d0: f6e6 7d3d 4771 a63d c413 c13d e653 a2bd
000001e0: bbcb 0cbd 6481 7b3d 1380 86bd 4026 023e
000001f0: 7fed 1dbc 9cab 9abc cae3 03bc febd 3bbd
00000200: d296 52bc 2360 7fbd 221b 01be 6f69 33be
00000210: 2b27 a03c 3e5d 8abc a95d d0bd 089b 3b3c
00000220: 3f23 98bd 985a 3fbb be63 af3d a2d2 e03c
00000230: b0fc 06bd 32d8 aebd ae70 adbd 503b a0bd
00000240: 8a84 ab3d fb18 6c3d 32c2 94bd 5bd8 053e
00000250: 83ba 573c 2bf3 f03c 0aa0 913d 4f5f 02be
00000260: 3d49 fabd 6d70 90bc f049 bc3d 6925 95ba
00000270: 5cdb c6bd a266 9fbc ded2 4bbd ef69 59bd
00000280: 410b cd3b 7282 d6bd d396 f83c ecf2 85bd
00000290: 8220 a1bd f89e 123d 9627 2fbe c760 9ebd
000002a0: f937 3dbc 03b1 2dbd 1cd1 04bd 63d5 afbd
000002b0: aad8 873d 85df 8cbd 9db9 30bd 46ee 293d
000002c0: c7bc 293d aef7 86bc e25a 783d 9aa1 903d
000002d0: 12b2 8e3c 48ec fc3d 63a0 9ebd 60a4 f13c
000002e0: 91ae d2bc 3eaf 933d 7857 c0bd 2dd7 85bc
000002f0: e5d8 c5bc 78ec 0bbe 8333 943d 109a 783d
00000300: 0404 37bd a895 8fbd 9f04 a8bd cbe5 9c39
00000310: 8606 acbd 6c7f 1b3c a8f5 4f3d 915e 94bd
00000320: 845f 0a3d 910d 00bd f122 88bb b0e2 0ebe
00000330: 66b4 c53d dbb9 753d edd6 e1bd 8cfe e93c
00000340: 324b 283d e50e 883d 4bc7 763b 17e1 0e3d
00000350: ab33 2f3d 9ab1 14bd 4854 403d 918e d93c
00000360: 3529 23be 64c1 b5bc 25be 7dbd a7d2 ac3d
00000370: 7d2e e6bc f4de 00bc 51ac 18bd 9cf1 51ba
00000380: 47ed 0e3e f660 0ebe 58a2 89bc 5fc5 b43d
00000390: ac3f ea3d dd88 a7bd be30 143b 37a0 a83d
000003a0: 0584 fc3d 9459 ccbd a104 5c3d 41ac 0c3c
000003b0: 8717 003d 6fb0 cb3c 88e3 8cb9 b9b9 05bd
000003c0: dc35 97bd 799c 1c3b 6b78 fb3d 1790 b63c
000003d0: 4a3b 83bd 0587 3d3d f116 b83d 9604 613d
000003e0: b46b a43d ad7a 2fbe 23c5 a0bd b1c3 f6bc
000003f0: 1afd 883d f5e3 36bd 65e1 2fbc 4422 73be
0.015026235 -0.038582977 -0.032094907 0.026783334 0.08065683 0.095946096 0.0046470105 -0.091102354
-0.07799648 -0.014151021 0.024251364 0.19362155 0.080702744 -0.11323543 -0.004092685 -0.07896335
0.11887695 -0.053634644 -0.10695444 -0.054906838 0.09577851 0.046692766 0.08589475 -0.1669432
-0.10090631 0.036721148 0.04296961 0.03426163 0.006402271 -0.017157324 -0.027026394 0.06380666
-0.012072157 0.0297035 0.001571712 -0.10774409 -0.08321771 -0.0037675423 -0.034970265 0.028550431
-0.15387863 -0.060265176 -0.0143802 0.058253232 0.044906918 -0.054533016 0.0017172755 0.024407668
-0.103547 0.07609129 0.1326088 -0.09754573 0.10077756 -0.0028649939 0.057402987 -0.060257025
0.13506615 0.053142067 0.0822456 0.030529011 -0.032526806 0.15289316 -3.193172e-05 0.012118939
-0.056523528 0.12025612 0.001511653 -0.033968676 -0.031700358 -0.021304697 0.038981862 -0.0042525884
-0.113854215 0.103559814 -0.12077686 -0.051713668 -0.17020431 -0.120705955 -0.008726876 0.027690403
0.067251906 0.12056004 -0.07919204 -0.106904626 0.028190073 0.21038674 0.06793251 0.021654664
0.035038695 0.0614948 0.044141974 0.0332267 -0.007878993 0.06352004 0.050402783 -0.08635865
0.032275178 0.15364315 0.106225066 0.08670139 0.10753211 -0.06416779 -0.11496427 -0.07412178
0.024952712 0.007205933 0.059739515 0.08459858 0.008923202 -0.11358158 0.07541398 0.19701411
-0.049965486 0.07138326 -0.0736009 -0.018470032 0.06198784 0.08127075 0.09427598 -0.079261586
-0.03437398 0.061402693 -0.06567397 0.12709904 -0.009639143 -0.018880658 -0.008049915 -0.045835488
-0.012853341 -0.062347542 -0.12608007 -0.17520688 0.019549927 -0.016890164 -0.10174114 0.011450537
-0.07428598 -0.0029198285 0.08563946 0.027444188 -0.032955825 -0.0853733 -0.084687576 -0.07823813
0.08374889 0.05764101 -0.07263602 0.13070814 0.013167026 0.029412827 0.07110603 -0.1273167
-0.12221 -0.017631734 0.0919379 -0.0011378947 -0.09709808 -0.019458119 -0.049761645 -0.05307954
0.006257445 -0.10474099 0.030345356 -0.06540474 -0.078675285 0.035796136 -0.17104945 -0.077333026
-0.011548989 -0.04240514 -0.032425985 -0.08585622 0.06633122 -0.068785705 -0.043145765 0.041487
0.041439798 -0.016475525 0.060633548 0.07062073 0.017418895 0.123497546 -0.07745435 0.029497325
-0.025718005 0.07211159 -0.09391683 -0.016337955 -0.024151275 -0.13664424 0.072363876 0.0606938
-0.044681564 -0.070109665 -0.082040064 0.00029925848 -0.08399682 0.009490829 0.050771385 -0.072445996
0.033782497 -0.031262938 -0.004154556 -0.13953662 0.09653549 0.0599917 -0.11027322 0.02856376
0.041087337 0.06643466 0.003765541 0.03488263 0.042773884 -0.036302187 0.046955377 0.026557239
-0.15933688 -0.022186942 -0.061948914 0.08438616 -0.02809834 -0.007865656 -0.03727371 -0.000800872
0.13957702 -0.13904175 -0.016801044 0.08826708 0.11437926 -0.081804015 0.002261206 0.082336836
0.12329868 -0.09978023 0.053715352 0.00858599 0.031272437 0.024864404 -0.00026872405 -0.032647822
-0.0738332 0.0023896976 0.12278827 0.022285504 -0.06407793 0.046271343 0.08988751 0.054936014
0.08028355 -0.17136641 -0.07850101 -0.03012261 0.066889 -0.04465099 -0.010734891 -0.2374354

conceptizer.decoder.0.0.bias f4 [16]
00000000: 947e 1bbe 53bc 6ebd bc88 023d 5515 a63d
00000010: fce8 97bc 5efa a13d a3a2 2cbd 6147 5c3d
00000020: cbe9 98bc 3ee5 543c 8177 2bbd b01e aebd
00000030: 4a81 353c e6fc 18be 9238 65bd 4566 17be
-0.15185004 -0.05828507 0.03186868 0.081095375 -0.018543713 0.07909082 -0.04214729 0.05377901
-0.018666169 0.012994109 -0.041862015 -0.08501947 0.011078188 -0.14940223 -0.055962153 -0.14785106

conceptizer.decoder.2.0.weight f4 [16, 8, 5, 5]
00000000: 6179 03be d8f3 49be baa1 a5bd a730 c03d
00000010: 1328 3b3d e6d9 ccbc 1e79 3a3c 67dd 253e
00000020: 0d5b 1c3e 4a39 953d 2813 a43d cac7 143e
00000030: 1379 6a3e 00a3 e43d 94b6 163d 862c 093e
00000040: 47e6 1e3e 8b3d 0a3e fa16 743d 734f 61bd
00000050: 2dee 133d b8b5 113d df38 bd3d e337 443d
00000060: d6f6 423d 3b4a 4f3c 7b16 b6bd c9b9 babd
00000070: b4f2 073d 7642 c33d 86ac a83d 4434 8bbd
00000080: 99e4 37bd 1665 1e3e f400 e63d e4b1 933d
00000090: 1c6a a63d 985e 813d b773 273e 6137 cb3d
000000a0: 1914 6e3d 8e55 0b3e c9e6 533e e620 4d3e
000000b0: 14f5 cf3d 797c cd3d cda7 083e acd5 1f3e
000000c0: c3fd 9c3d f82d 0d3d ac3f 863d 6ee7 513c
000000d0: bfc4 04be ae7f cdbc e7d0 c13d f483 94bd
000000e0: 756e 29bd 9f1c 2dbe 3dfc ba3b 0ddb 193e
000000f0: c6b4 cd3c 72cb 273c a7ce 95bd eab5 1f3e
00000100: 9338 913d 9345 d03d c535 273e 0572 093e
00000110: 9f89 f03d 1d8a 7e3d 3e63 0a3e 85a7 b43d
00000120: 7081 0f3e 1125 f33d bcd7 8a3d 99cb c2bd
00000130: 64be 4c3e 63fc 003e 8cd0 e0bc f8b8 1d3d
00000140: 050d 963d 4b94 063c f1cc 093e 0a98 143c
00000150: 7fa8 c33d d38c 7ebd c724 21be 47b0 82bd
00000160: 9328 5fbd 8839 203d 168b efbd b73a 31be
00000170: 2583 d6bd 5ea9 193e a288 8c3d 1a38 fa3d
00000180: 87dc 8cbd 96b5 a7bc f305 f03d 7773 573d
00000190: 71a7 75bc e35d 19bc 6176 503d 7616 dc3b
000001a0: 26b6 b0bc b7ee 193e db1f 763e 7d93 683e
000001b0: c0a0 d33b 048c 9f3c e016 cb3c f921 d53d
000001c0: ba0d ea3d 97de 80bd d451 88bd 87fa 13be
000001d0: d630 48be 20f8 0dbe b086 9abe 3b7b e5bd
000001e0: f88b b6bd 6af7 40be 5aef 5dbe 07ec 01be
000001f0: f088 9dbd 6e76 c93d 8325 7c3e db40 bb3e
00000200: e61b 393d 8e64 a7bd 318d ea3d f315 353e
00000210: cbf2 473e dbc1 65be f6b5 6fbe d3a3 c2bd
00000220: 06fc b3bd dd33 d7bd 3a45 94be ee31 22be
00000230: cb86 afbd b265 3dbe ee0a 6abe 7b98 b2be
00000240: d386 18be a777 343d 9c1e cfbd 6e53 9ebd
00000250: 4a25 96bd 032b 6b3c 484f a03d 6fef 1d3e
00000260: aa2f 113e 351a 87bd dc1e 9cbd cfd5 ab3d
00000270: 2236 183e 5305 c03d d4c8 6fbe f081 b9bd
00000280: 369d 7dbd 95e7 88bd da7e 23be 0f50 a9be
00000290: ce0b b1bd 5eb5 febd 58ce 70be 4243 92be
000002a0: 6228 a7be c0bd 303b 0435 c5bd 6f45 5fbe
000002b0: 5395 0cbe 3c2c f7bd a1f5 f13d a763 59bd
000002c0: 8fd7 a8bc 40cf 8cbd 1b0f 46be 2508 1b3d
000002d0: dc0d 39be dce8 2dbd 38e8 80be 6777 24be
000002e0: 26df 1e3e 9341 13be 8d46 503d 55f0 383d
000002f0: 6602 a93d c1f1 1e3e 813a 19be 5c5f 3dbd
00000300: c009 833e b5bf 423e 8840 fd3d cb60 74bd
00000310: 8913 b93d ae83 fe3d 4375 033e da49 413d
00000320: 6d6c 8dbd 8dd9 2d3d 764e aeba 09b5 a83d
00000330: 1833 b1bd c742 1c3e b7f4 1d3e 8dfd 1b3d
00000340: 28c5 953b 856a 3cbd 66b9 5b3e 15ac 083e
00000350: c820 f73b c066 223d d554 f83a d1fa d63d
00000360: ea03 78bd 274f 42bd ea8c b6bd cb7c e83c
00000370: d05d 743c 320c 8bbd 6043 473c c2b7 8e3c
00000380: f850 22bd e584 083d 82ee 723d 47a3 663c
00000390: b49d 013d bea9 15bb 05ec 00bc 815d 093e
000003a0: e3ce d337 67c1 b23d 22a1 c6ba 8516 113e
000003b0: d4e6 333e e866 943d c52c ff3d d7c8 8c3d
000003c0: 9d04 093e 827d e63d d0fd ffbc 6aae a9bc
000003d0: 5af0 9a3d c98b b73c 65a3 23bd 3e30 01bc
000003e0: 3bc0 9a3d a5cc 213d be7d febc 4d7f 05bd
000003f0: c886 35bd 3ac0 1b3d 2243 ebbc 74bc c0ba
-0.12839271 -0.19721925 -0.080874875 0.0938428 0.045692515 -0.025006246 0.011381416 0.1619774
0.15269108 0.07286318 0.08011466 0.14529338 0.22897749 0.11163902 0.036795214 0.1339589
0.15517531 0.1350004 0.059592225 -0.05500741 0.036115814 0.03557369 0.09239363 0.04790486
0.047598682 0.012651975 -0.088910066 -0.09117467 0.033190444 0.09534161 0.08236031 -0.06797078
-0.044895742 0.15468249 0.112306505 0.07211664 0.081257075 0.063168705 0.16352735 0.09922672
0.058124635 0.13606855 0.20693506 0.20032081 0.10154167 0.10033507 0.13345261 0.15608853
0.07665589 0.034467667 0.06555113 0.012811525 -0.12965678 -0.025085296 0.09463673 -0.072517306
-0.041365106 -0.1690545 0.0057063387 0.15024967 0.025110614 0.010241376 -0.073148064 0.15596738
0.07090869 0.1016952 0.16329105 0.13422401 0.11744999 0.062143434 0.1351442 0.08821014
0.1401422 0.11872304 0.06779429 -0.095114894 0.19994503 0.12596278 -0.027443193 0.038506478
0.07326702 0.008214067 0.13457085 0.009069452 0.095536225 -0.06214602 -0.15736686 -0.063812785
-0.054482054 0.039117366 -0.116964504 -0.17307554 -0.104742326 0.15006015 0.06861998 0.12217732
-0.06878 -0.02047233 0.11719885 0.05260035 -0.014993534 -0.009360763 0.050894145 0.0067165447
-0.02157123 0.15032469 0.2403559 0.22712512 0.006458372 0.019475944 0.024791181 0.104068704
0.114283994 -0.06292456 -0.066562325 -0.14451037 -0.1954988 -0.13864183 -0.30180883 -0.11205145
-0.08913416 -0.18844381 -0.21673337 -0.12687694 -0.076921344 0.09837042 0.24623685 0.36572918
0.04519262 -0.08173476 0.114527114 0.17684154 0.19526212 -0.22437231 -0.23409256 -0.09503903
-0.08788304 -0.10507939 -0.28959066 -0.15839359 -0.085706316 -0.18495825 -0.22855732 -0.34881958
-0.14895181 0.044059422 -0.1011326 -0.07730757 -0.07331331 0.0143535165 0.07827622 0.15423368
0.14178339 -0.065967955 -0.076230735 0.0839039 0.148644 0.093760155 -0.23416454 -0.09057987
-0.061917506 -0.06684796 -0.15966359 -0.33068892 -0.0864483 -0.12436937 -0.23516214 -0.2856694
-0.32647997 0.0026968569 -0.096292526 -0.2180383 -0.13728838 -0.12068984 0.11814428 -0.05307355
-0.020610599 -0.06875467 -0.193417 0.037849564 -0.18071693 -0.0424584 -0.2517717 -0.16061173
0.15514812 -0.14380483 0.050848532 0.045151073 0.082524106 0.1552191 -0.14963724 -0.04623352
0.25593376 0.19018443 0.12365824 -0.05966262 0.09036929 0.1242746 0.128377 0.04718957
-0.06905446 0.0424438 -0.001329853 0.08237655 -0.086523235 0.15259849 0.15425383 0.0380836
0.004570622 -0.046000022 0.21457443 0.13346894 0.0075417496 0.03964877 0.001894618 0.10497058
-0.060550608 -0.047438767 -0.08913596 0.028379818 0.014914945 -0.067894354 0.01216206 0.017421607
-0.039628 0.033329863 0.05930949 0.014077014 0.031644538 -0.002283677 -0.007868771 0.13414575
2.52495e-05 0.08728295 -0.0015154222 0.14168747 0.17568523 0.0724619 0.12459711 0.06874245
0.13380666 0.112544075 -0.031248957 -0.02071305 0.07565375 0.022405522 -0.039950747 -0.007885037
0.07556196 0.039501805 -0.031065818 -0.032592107 -0.04431799 0.03802512 -0.028718535 -0.0014704601

conceptizer.decoder.2.0.bias f4 [8]
00000000: 8844 e63c a301 d53b 9549 523d b50a 893d
00000010: df40 a6bc f376 76bd aa23 0bbd bcf8 c6bd
0.02810885 0.0065004393 0.051339705 0.06691495 -0.020294605 -0.060172033 -0.03396956 -0.09715411

conceptizer.decoder.4.0.weight f4 [8, 1, 2, 2]
00000000: dc75 c8be 5243 78bd 1463 7dbe dc01 313f
00000010: 2557 063f a2b6 003f 6713 103f 5238 173f
00000020: f891 0d3f 8eb2 fa3e 8830 fe3e c839 0dbe
00000030: 09b3 1ebf a97a 2fbf 03a3 2abf 59bc 35bf
00000040: 346f 20bf 16db 4fbf 085a f93d 142f bebe
00000050: e57a 13bf 1617 5cbe 71cf 70bf 5aa5 3dbf
00000060: c3db 70be 1ceb 5ebf 7b03 f4be 3189 19bf
00000070: 5d75 843f 0926 04bd 7861 153f 836b a7be
-0.3915242 -0.060611077 -0.24744827 0.6914346 0.5247672 0.50278676 0.56279606 0.5907031
0.55300856 0.4896435 0.496464 -0.13791573 -0.61991936 -0.6854654 -0.66654986 -0.7099052
-0.6266968 -0.81193674 0.12175375 -0.37145293 -0.576094 -0.21493182 -0.9406653 -0.7408043
-0.23521332 -0.870775 -0.47658905 -0.5997496 1.0348316 -0.032262836 0.5835185 -0.32699212

conceptizer.unlinear.weight f4 [16, 1]
00000000: aa23 3fbf ca75 023f c89a 29bf c15f 99bf
00000010: ced7 8cbf 6d49 6fbf 0240 9f3f 22cf 8dbf
00000020: 3c19 58bf 9e2f a8bf d597 a43f 5c33 c43e
00000030: a42e 68bf 761e cebe ac79 4ebf 5847 213f
-0.74663794 0.5096098 -0.662518 -1.1982347 -1.1003358 -0.93471414 1.2441409 -1.1078837
-0.84413505 -1.3139532 1.2858835 0.38320434 -0.9069617 -0.40257615 -0.80654407 0.62999487

conceptizer.unlinear.bias f4 [16]
00000000: dcf8 3b3f 39c9 4f3d 34cc 89bf d0cf 6a3f
00000010: 02f4 173f c6b3 003f 9a8c 0cbf 1233 fa3e
00000020: e596 153e 7cb2 1fbf 89e8 3fbf 877d 333f
00000030: c53a cbbe cfbb 0cbf 404d e0be 798b a03e
0.73426604 0.05072901 -1.0765443 0.91723347 0.593567 0.5027431 -0.5490204 0.4886709
0.14608343 -0.6238172 -0.74964195 0.70113415 -0.39693275 -0.54974073 -0.43808937 0.3135641

parameterizer.cl_layers.0.weight f4 [10, 1, 5, 5]
00000000: 8cd6 9f3d ffe6 e9bc bcde 923d cd43 0b3e
00000010: ee10 fc3d 5fb1 2939 7c9b 463e 38ba 9fbd
00000020: 35d4 afbd c9c7 13bd 2b19 f53c b445 153e
00000030: 0564 183e 4ba1 7c3e 166b 3c3e 8b03 9cbe
00000040: 7cb4 d1bd b275 93bd a133 eebd 92f4 70be
00000050: 0ea0 d1bd 35e1 92be 3aca 9abe cc94 72be
00000060: eb88 54be 2b86 68be eb1c 53bd e0b6 1b3e
00000070: ad86 1dbc f3ed 093d 8d61 8cbe 8019 81be
00000080: 7b6f c2bd ee22 c3bc 2676 05bd 7988 d4bd
00000090: f3dc 76bd 8796 78be 5aa9 8cbd daad 09be
000000a0: 71b5 4c3e 7430 54bd 1550 183c 89ee 3dbe
000000b0: c367 3fbe edae 5d3e 5d54 033e ce10 38bd
000000c0: dc1a 353e 384d 66be f3e2 99bd c027 c23d
000000d0: 4648 b33d b2cd bd3d b6a1 903d a50c b2bc
000000e0: c8e6 bcbd a68c f83d fdc3 ad3d c10e f23d
000000f0: 9b92 d43c 2ef8 b2bb fb79 1ebd 27b7 fe3d
00000100: c047 ab3d 5998 f4bd 7629 adbd 278f 133e
00000110: 9f8b 6fbc af65 093e a7c4 d83c f991 0dbe
00000120: d5ad 20bd bc16 86bd 4124 523e 258c 25bd
00000130: cd79 7b3e d33e 363e a863 143e c508 433e
00000140: 4a50 253e 4ab3 043d 9d3a e93d 0956 113e
00000150: f95f 083e 5073 bbbc 8efe 0abe aff5 38be
00000160: 3134 05be ebea 25be 614c e13d ea45 33be
00000170: 3fb3 863d a0a4 b3bd 033f 513d 8e41 51be
00000180: cf52 22be 4540 383d fff1 38be 979c 823d
00000190: 9d45 093e 7d30 323e 8eb3 0cbe fa58 d3bd
000001a0: 84db 8fbe 860e 803c 3a56 0d3e c465 63be
000001b0: 20ca 72be 6b90 bbbd a15b d33d 392e 44bd
000001c0: d12b 89be 40f8 4dbd 414c ac3d 2dcb c13d
000001d0: 7b63 38be 2635 44be bc5e 1bbd 3b03 debb
000001e0: 6d32 0fbe f087 86be e89d 2dbe 1d84 2c3e
000001f0: 3c22 843c 5c23 59be 511e f4bd a5ff a73d
00000200: 1044 b6bd 9006 70bd 6271 903c 6555 3ebe
00000210: 1e1c 27be acb2 bf3d 12e3 4f3e eef2 663d
00000220: 2736 3ebe 269f e93d 0a00 c83d 82b4 b53c
00000230: c832 6b3d cc5a 4cbe 628f ec3d 8886 0d3e
00000240: a912 cd3c 42d6 69be 5d76 9d3d 7c3a 8abd
00000250: 293b 5d3e 1984 ea3d f314 193d efc1 c7bd
00000260: 7c96 8b3d 81b0 1b3e 865e 43be 994a 71bd
00000270: 399e f6bd d5b2 383e baf8 063e 01f1 54bd
00000280: 7d06 183d 29ac 15bd 3071 673e c98a f6bd
00000290: 045d 60be c218 823d 32ac 253e e35b fdbc
000002a0: c9cd 3b3e 7c9e 46be 8e7e 0dbe 4ca7 efbd
000002b0: 0190 98bd 324d 263e bb5e 413c 79fc 663e
000002c0: 2fbf 49be b178 57be 9d7f 21be 52c4 7e3e
000002d0: 3bb1 473e acd9 34be 664e eebd 9a60 b0bd
000002e0: 8d3f 593e 314b a13d 2cea c73d 69b7 62be
000002f0: e701 26be b8cc 003e fbf4 9b3d a5e5 1bbe
00000300: c2bb 523d 4651 53be ae0c 643e 950b a5bd
00000310: 65a2 04be 32e1 b1bb 117c 5dbe cc7a 30be
00000320: 87fa 48bd b335 8dbe 5f02 71be 54fe e73d
00000330: a06c 32bd e93e 503e 83cd f93d 2972 ef3d
00000340: ea3e 68bd 1e72 123e 84d7 a43d 5150 263e
00000350: 82c9 19ba d02f a33b b844 72bd 56eb 4cbe
00000360: 0467 0a3e 94c3 dc3d f809 19be 9641 1bbe
00000370: bffd 9dbd 48fa 6cbe ad03 233e 7f11 98bd
00000380: f8d0 603e 5f7f 00bc 82ad 5fbe 351d 2abe
00000390: ba3a d4bd 86f5 353e eb14 12bd cbde f33d
000003a0: 9aca 003e 9865 663d 4805 a73d dce9 a93d
000003b0: 9c21 b63d b2f3 373e f983 533d 8202 c5bd
000003c0: 1135 3a3d 911c 593d 6d85 863b df1c 413d
000003d0: 0d16 04be 54af ae3c 8f91 16bc 5b35 abbd
000003e0: 7865 2ebd c8ff b93d
0.078045934 -0.02855253 0.071713895 0.13600083 0.123079166 0.00016183172 0.1939525 -0.0779919
-0.08585397 -0.0360792 0.029919228 0.14577371 0.14881904 0.24670903 0.18400225 -0.30471453
-0.10239503 -0.07200183 -0.11630941 -0.23530796 -0.10235606 -0.28687444 -0.30232412 -0.23689574
-0.20755355 -0.22707431 -0.05154125 0.1520648 -0.009614629 0.03367419 -0.27418175 -0.25214767
-0.094939195 -0.023820367 -0.03258338 -0.103775926 -0.060269307 -0.24276172 -0.06868239 -0.13445225
0.1999109 -0.05180402 0.009296437 -0.18548025 -0.18691926 0.2164876 0.12825151 -0.0449379
0.17686027 -0.22490394 -0.0751399 0.09480238 0.087540194 0.09267749 0.07062094 -0.021734545
-0.092237055 0.121362016 0.084846474 0.1181922 0.025948813 -0.005461714 -0.03869055 0.12437277
0.083632946 -0.119431205 -0.08455174 0.14410077 -0.014620691 0.13417695 0.026460959 -0.13825215
-0.03922828 -0.06547305 0.20521642 -0.040416855 0.24558182 0.17797403 0.14491141 0.19046314
0.16143909 0.032397546 0.11388133 0.14192976 0.1331786 -0.022882134 -0.13573667 -0.18062471
-0.1300819 -0.16202895 0.11000896 -0.17507139 0.06577157 -0.08771634 0.051085483 -0.20435163
-0.15851901 0.044983167 -0.18061064 0.063775234 0.13405462 0.1740131 -0.1374037 -0.10319705
-0.28097165 0.015631925 0.13802424 -0.2220679 -0.23709917 -0.09158405 0.10320211 -0.047895644
-0.26791242 -0.050285578 0.08412982 0.09462581 -0.18006699 -0.191609 -0.037932143 -0.0067752874
-0.1398408 -0.26275587 -0.16954768 0.16847272 0.016129605 -0.21204895 -0.11919845 0.08203057
-0.08899701 -0.05860001 0.01763219 -0.18587263 -0.1631932 0.09360251 0.20301464 0.05638402
-0.18575345 0.11407308 0.097656325 0.0221808 0.057421476 -0.19956511 0.115507856 0.13820851
0.025033312 -0.22835639 0.07688592 -0.06749436 0.21604599 0.11450977 0.037373494 -0.09753787
0.06815812 0.1520405 -0.19079027 -0.058909032 -0.12041897 0.18036969 0.13180819 -0.05198765
0.037115563 -0.036541138 0.22601771 -0.1203819 -0.21910483 0.063523784 0.16178969 -0.030927604
0.1834022 -0.19396394 -0.13817808 -0.11701831 -0.074493416 0.16240385 0.011802371 0.22557248
-0.19701837 -0.21042134 -0.15771337 0.24879578 0.19501202 -0.1766116 -0.11636047 -0.08612175
0.21215649 0.0787567 0.097614616 -0.22140278 -0.16211663 0.12578094 0.07615086 -0.15224321
0.05144859 -0.20636472 0.22270462 -0.0805885 -0.12952574 -0.0054284567 -0.21629359 -0.17234343
-0.049067046 -0.27580032 -0.23536061 0.11327806 -0.043560624 0.20336498 0.121974014 0.11691696
-0.056700625 0.14301345 0.08048919 0.16241576 -0.0005866514 0.004980065 -0.059147567 -0.20011649
0.1351586 0.10779491 -0.14945209 -0.15161738 -0.07714414 -0.2314235 0.15919371 -0.07425212
0.21954715 -0.007842868 -0.21843532 -0.16612704 -0.10362764 0.17769441 -0.03566448 0.11907729
0.12577286 0.05624923 0.08155304 0.08296558 0.08893129 0.17964056 0.05163953 -0.09619619
0.045460764 0.05300576 0.004105261 0.047146674 -0.12899037 0.021323837 -0.009189977 -0.08359786
-0.042577237 0.090819895

parameterizer.cl_layers.0.bias f4 [10]
00000000: 2697 133e c329 413e cdc5 46be 4690 b5bc
00000010: 2d9d 603d 8744 5b39 50cf 4bbe ff52 b1bd
00000020: f447 c6bd a662 8dbd
0.14413127 0.18863587 -0.19411393 -0.022163521 0.054837395 0.00020910996 -0.19903302 -0.086584084
-0.09681693 -0.06903581

parameterizer.cl_layers.3.weight f4 [20, 10, 5, 5]
00000000: 3a7a 163a 339e cfbc bd6e 23bd 92d7 a6bd
00000010: 3929 dfbc b488 e03c 067c c13c 20bf dabc
00000020: 6d6b 8eb8 6d01 b3bd ff23 3e3b 52de 8b3d
00000030: 5c31 1f3c b6ba 61bd 2d84 d4bc 63b2 653d
00000040: 8808 323d 79e5 36bd b35f 2ebd 9bfd 2b3d
00000050: 998e 80bc 8658 a53c 8b91 7f3a 9d81 b3bc
00000060: b3cd 57bd 3fdb 383d fccd 563d d85e 5ebd
00000070: f9b1 8bbc af31 4e3b 0ed0 f23a 21e9 d73c
00000080: 0d83 df3b 6284 2e3a 65df 423d 5fa7 363c
00000090: b211 be3c 9f72 843d 21f2 943c c0fa ee3c
000000a0: cb5d b83c b3c6 b83d dd83 42bc ba54 39bd
000000b0: 4111 b8bd 5101 78bc c932 673a d924 dbbb
000000c0: 6e5f 913a 1357 e3bc 9605 e23c d76d 09bd
000000d0: 610c 263d 9139 85ba ea15 593d 6826 15bd
000000e0: d018 82bd 5238 263d 4af9 b2bc 8dc8 d8ba
000000f0: aff8 403c ec8f f93c da9d d0bc 4384 09bd
00000100: a317 fe3c 1627 1abb d2d2 763d 7e31 02bc
00000110: 01da 1f3c 15c7 48bd 9d92 7fbd 5ba3 d2bc
00000120: 0e11 7e3d e19a 613c 9c25 953c 389e 5b3c
00000130: c477 29bb ac59 a3bc e429 f5bb ec6d 3abc
00000140: d017 54bc 10b2 0d3d 4680 52bc 88cc 353d
00000150: 192e dfbd 1663 443d 1a0a 57bc 1d6b 2dbd
00000160: 23c9 b4bd c266 963b 1631 a33c d40e 743d
00000170: 5b47 3d3d 4ed8 cbbc ab4d 9abb e789 623d
00000180: 15ed 6c3c 34c8 c43b eb8b 993c 844d 79bd
00000190: 4bad 063d 1284 cabc 7e9f dfbc 3733 683c
000001a0: 802f 3ebd 8aa3 cd3c 8b49 5abd 83ce 89bd
000001b0: f35c 94bd c371 033d 591a 1abd 9ad3 5cbd
000001c0: 96ef 133d 7b4b edbc 6fa7 233d 2380 4abd
000001d0: 8031 653c fe0a 97bc 04dd 723d d5e9 24bd
000001e0: 1e87 f73c 2ec1 fd3c 5a71 d23c 1f95 15bd
000001f0: 6940 92bb c28d 23bd 4d98 803b b145 1fbd
00000200: 53de 873c 17ee 223d dbf0 4fbb 398f 493c
00000210: 7281 e53c 0345 cc3b 78be 2abc 0091 88bc
00000220: afb7 9e3c f9ed 013b e4cb ce3b 56d1 333c
00000230: 11a3 aabb e10c 65bc 18ba 5b3d 4bbb 803d
00000240: c82d 94bd 1c6e 5dbc 638f 44bd fea5 8fba
00000250: 090e 39bd 8ee8 acbd a851 133d f483 9f3d
00000260: 3943 163d f826 1d3d 45ea 933c c293 ac3c
00000270: 4fc0 983c 3312 c2bc a15e b2bc 9519 09bd
00000280: 6748 c43c f64e 8ebc 462b 3fbc d93e d03b
00000290: 94ea b13c 4c43 b3bc c40e b8bb c0ab f6bc
000002a0: ff90 8cbc b90f 483d 3fa2 bf3c e5c3 d4bc
000002b0: 4fdb 693d 5f54 d83c 1d6f 69bc 4efe 4f39
000002c0: 3c8e a53d 24db 0a3d 1757 0fbd deb4 9cbb
000002d0: cc2a 23bc 8fc0 2b3d 2735 3e3d 91de 3d3c
000002e0: bb3f a3bc ee33 b9bd 2bfa bdbc ad77 18bd
000002f0: 111d 413d bf6f 98bc a291 a2bd 3dfd e2bd
00000300: 4132 9cbc d24e 893c 3d37 a43d 60f4 33bd
00000310: 6913 12bd 9d86 d43c d5af 173b 2ea8 d5bd
00000320: d36e b93b b838 403d f0f1 dbbb 69b1 bf3d
00000330: 623b 9bbc f661 363c 8311 9d3d 64d9 663c
00000340: 8486 733c 1d20 0a3d c8d1 94bb b639 053d
00000350: 0715 353d 5fd2 c33c 2c26 893b c52e 353d
00000360: f8b8 b3bc f0bf 223d bf10 c7bc 5f2f 79bd
00000370: ffac 033d 6167 433d 2217 a43b 7adf f73c
00000380: 0405 53bc 0d42 dc3c d891 4c3d 51ca 22bd
00000390: f329 0ebd 4502 c3bc 1e9a 043c cd29 2c3d
000003a0: 3f0e b9bc ffe3 6ebd 22c1 553d 9189 eabb
000003b0: 7188 0d3c e8af 0abb 97d7 9cb8 d7a1 a03d
000003c0: 5363 513d 4508 643d ec17 923c f95f c43c
000003d0: de6b c13c b16e b6bb 12f7 fa3c c4ba 1b3d
000003e0: ad70 053c 7a50 9ebd dba0 1b3c 6910 503c
000003f0: 6235 943d a6ae 9e3c 540e af3d c0de c8bb
0.0005740259 -0.02534399 -0.03990053 -0.081465855 -0.027241336 0.027408935 0.02361871 -0.026702464
-6.791097e-05 -0.08740506 0.0029013155 0.068295136 0.009716358 -0.055109702 -0.025941933 0.056078326
0.043465167 -0.044652436 -0.042571735 0.041989904 -0.015692996 0.020183813 0.00097491656 -0.02191239
-0.052686404 0.045130964 0.052442536 -0.05428967 -0.017052637 0.003146272 0.001852514 0.026356282
0.0068210424 0.00066573 0.047576327 0.011148303 0.023201797 0.06467175 0.018181862 0.029172301
0.022505661 0.09022274 -0.011872259 -0.045246817 -0.08987666 -0.015137033 0.0008819518 -0.006687742
0.0011091062 -0.027751481 0.027590554 -0.033552017 0.04053915 -0.0010164251 0.052999415 -0.03641358
-0.06352389 0.040581055 -0.021847386 -0.0016539261 0.011778041 0.030464135 -0.025465894 -0.0335734
0.03101713 -0.0023521832 0.060259648 -0.00794637 0.009756566 -0.049017984 -0.06239568 -0.02571266
0.062027983 0.013769836 0.01820641 0.0134044215 -0.002585874 -0.01994022 -0.0074818004 -0.0113787465
-0.0129451305 0.03459364 -0.012847966 0.04438451 -0.10897464 0.04794606 -0.013124967 -0.04233848
-0.08827426 0.0045898864 0.019920867 0.059584454 0.046210628 -0.024883416 -0.004708966 0.055307295
0.014460822 0.0060053114 0.018743476 -0.06086494 0.03288011 -0.02472118 -0.027297731 0.014172367
-0.04643202 0.025102396 -0.053292792 -0.06728842 -0.07244291 0.032090914 -0.037622783 -0.053912736
0.03611716 -0.028966656 0.0399546 -0.049438607 0.0139888525 -0.018437859 0.05929281 -0.040262062
0.030215796 0.030975904 0.025688816 -0.036519166 -0.0044632447 -0.039930113 0.0039244057 -0.038884822
0.016585505 0.03977784 -0.0031729254 0.012302213 0.028015826 0.006233813 -0.010421388 -0.016670704
0.019374697 0.001982568 0.0063109268 0.010975203 -0.0052074273 -0.013980121 0.05364427 0.06285723
-0.072352946 -0.013515022 -0.047988307 -0.0010959504 -0.0451794 -0.08442794 0.035966545 0.0778884
0.036685202 0.03836724 0.018056044 0.02106655 0.018646387 -0.023690319 -0.021773638 -0.033471663
0.023960305 -0.017371636 -0.011668032 0.0063551483 0.0217183 -0.021882676 -0.0056169946 -0.030111194
-0.017158983 0.04884312 0.023392795 -0.025972316 0.057093915 0.026407419 -0.014247683 0.00019835794
0.0808377 0.033900395 -0.034995165 -0.0047823032 -0.009958934 0.041931685 0.04643741 0.0115887085
-0.01992785 -0.09043108 -0.023190578 -0.037223507 0.04714686 -0.018607972 -0.079379335 -0.110834576
-0.019066932 0.016761217 0.08018348 -0.043934226 -0.035663042 0.025943095 0.0023145576 -0.10432468
0.005658963 0.04692909 -0.006712191 0.0936001 -0.018949214 0.011131754 0.07669356 0.014089916
0.014863614 0.03372203 -0.0045416094 0.03252574 0.044209506 0.023904024 0.0041854586 0.044234056
-0.021938786 0.039733827 -0.024299977 -0.060836192 0.032147404 0.04770601 0.0050076405 0.03025793
-0.012879614 0.026886964 0.049943775 -0.039743725 -0.034707975 -0.023804793 0.008093385 0.04203205
-0.0225898 -0.058322903 0.05218614 -0.0071575125 0.008638487 -0.0021161977 -7.4788164e-05 0.078433685
0.051120114 0.05567195 0.017833672 0.023971545 0.023611005 -0.0055673947 0.03063539 0.03801991
0.00814454 -0.077301934 0.0094988 0.012699225 0.072367445 0.019370388 0.08547655 -0.0061300695

parameterizer.cl_layers.3.bias f4 [20]
00000000: 2c60 8d3d 93d6 8dbc f3b2 babc 0d4d 1f3d
00000010: a717 58bc 4929 013d ed50 443d 52b8 4dbd
00000020: 4fc5 a73c 941c b3bc 12d6 563d baac 69bb
00000030: 4026 1cbc b93b 54bc 44c7 89bd 3cba 853c
00000040: 62d8 803c c000 7dbb a858 eabc 6438 38bd
0.06903109 -0.017314231 -0.022790408 0.03889184 -0.013189233 0.031533513 0.04792874 -0.05022461
0.020479826 -0.021864213 0.052450247 -0.0035655932 -0.009530604 -0.012953692 -0.0672746 0.016324155
0.01572818 -0.0038605183 -0.028606728 -0.044975653

parameterizer.fc_layers.0.weight f4 [50, 320]
00000000: 6f36 173c 6606 18bd bad0 723c 7c26 68bd
00000010: 53e5 edbc c80c 9a3d 080a 623c bbb4 f0bb
00000020: 9c25 64bd 38d7 1b3d aa3b c13c cc74 703c
00000030: ed2e 35bc ac95 35bb 7b68 df3c 3f5e 813c
00000040: 8e7d 543d 1187 673c cb92 05bd f379 65bd
00000050: 0e77 b33d 8ef6 78bc fbc0 b53c 14c8 0d3d
00000060: 82c4 003d 6cbb 31bd 0985 8a3c 1172 483d
00000070: f2cf 2c3d 6dfb 04bc 0489 4fbd 55f1 ff3c
00000080: 7157 42bd 343e a23c c4cf 0fbd bd20 15bd
00000090: c422 8ebc 5021 173c 4a57 453d 645b 743d
000000a0: f470 c2bc 3803 f43c 16df 193d de05 c83c
000000b0: ba5a d2bc 2f71 71bc 4ca7 8b3c 5282 f33c
000000c0: 4643 823d 0112 223d ee02 063b 948d e03d
000000d0: db0f f93d dad2 3cbd 5b03 19bc ee72 453d
000000e0: 5b73 123e c211 06bc 8bc9 ddbc 3728 a6bb
000000f0: ebbb 133d 2116 aaba 3449 3dbd 6b1b 4ebc
00000100: dcc2 df3c 2a48 f33c 7ce1 d2bc ec82 66bc
00000110: aec8 093d c1da 1cbb 3e54 afbc 09b6 acbd
00000120: 8ceb 0b3d df9d dc3d 953c 0d3d 9d57 1dbc
00000130: 4a76 16bc 07b7 153d d611 25bc e2a9 7dbd
00000140: 86af f23b 37b6 e0bc 6c3e c3bc cd8f 18bd
00000150: 3576 d53d 1fad 933b 9ede 81bd 0199 acbc
00000160: 8254 053d 581f 6dbd 0f50 363d 486d 633d
00000170: 19dd 943c 24fb b3ba f5d4 813d 8d49 b93d
00000180: 7955 a3bc bec0 f93a 4093 6c3c ac64 843d
00000190: c822 bb3c b26d 57bb 8b17 3c3d 25ed 543d
000001a0: c900 9b3d b932 71bc d14f b3bd c10f ecbb
000001b0: c623 da3c f8ca b6bd 87d4 7bbc 31a1 8a3a
000001c0: 19f6 02bd 798c 30bc ea2c 10bd e13b ff3b
000001d0: 15e6 9e3c c2be 313d afcc 913d 9978 323d
000001e0: 0042 50bc 2d4e 97bd aef2 e53c c001 0b3d
000001f0: dc9d 293e 65ba 04bd 7bb5 d7bc 6df5 c13d
00000200: 20a8 11bc 722a 7bba df92 663c 8c77 a73c
00000210: 396b bcbc bf9f 89bd 1d22 073e 3728 48bc
00000220: ce29 163b 0a3e a23c d756 4a3d ec5c c5bc
00000230: d516 b63c ea25 173c 173d 833b 4845 5c38
00000240: 426e 0cbc fc05 fa3b 4e55 c638 4c86 e63b
00000250: 2e1a 5dbd a2e5 f23b 066d c53c 0ae7 943d
00000260: 9395 8dbd 6b56 8b3d 0d10 a33d 51d6 e23c
00000270: 411b e1bc 6e51 a3bc 4529 243c 1271 a5bc
00000280: 28c0 203d 99fb 013d 340f 343d 788d 70bc
00000290: e76f 22bc fa3e 613a 4c18 20bc 21ae d93c
000002a0: 8412 51bb 36f2 33bd 15d1 ffbc 4114 e73d
000002b0: 46f9 8c3c 7948 1abd 8e9c 3e3d 7207 603d
000002c0: e737 dbbb e46f 10bc 94c2 69bc aea9 65bc
000002d0: 8028 f7bb a2db 21bd f72e 0f3b 5819 b73a
000002e0: b3d6 74bd 0ac3 4d3d 918c bfbb 8159 823d
000002f0: 4986 6c3c 9bbe a53d 59ad e53d 9fa0 443d
00000300: 31cf ce3c e983 9a3b 08fc e83b 2c79 8cbc
00000310: c24e afba 406a 3f3b f1ae 273d ee21 dabb
00000320: ed20 4a3d 77f6 f0bc 6baa a1bc 290c dabc
00000330: 89e2 a4bc 4aa4 e8bc 8e37 6b3d 3156 9c3b
00000340: da4b 1f3d 2e3d df3c 0854 a73c 3b64 713c
00000350: 03bb 173d 4f92 f8bc 6656 353d 7bb7 0b3d
00000360: 5259 943d 7d01 863d 1121 1f3d d3e9 cfbd
00000370: 5990 bfbc 74cf 9c3c b23e 6abd 6f19 f1bc
00000380: 2cf0 523d c57f 143b fbf4 12bd f7b9 d53c
00000390: 3fc0 28bc db3d a23d 849e 43bc 348f 953d
000003a0: 6ded 023d 093d d3bc 9697 313d 96c3 9b3d
000003b0: cd61 38bd 41e3 8abc e2b9 abbc a0cd 2c3d
000003c0: 419f 5fbd a0f3 4c3d 41e7 9d3c 9986 353c
000003d0: f80f 8f3c 15e6 b63d 23ba 29bd 1537 d1bc
000003e0: 24c3 d8bc fa70 8e3d 1f28 983c 6ab8 4fbd
000003f0: dfac 433c df9d 0e3b 44de 803d a7b8 b63c
0.009229287 -0.037115477 0.014820272 -0.056677327 -0.029040014 0.07521969 0.013796337 -0.0073457635
-0.05569993 0.038047045 0.02358802 0.014676284 -0.011058551 -0.002770762 0.0272715 0.01579201
0.05187755 0.014131323 -0.032610696 -0.056024503 0.08762942 -0.015195502 0.022186747 0.034614637
0.031437404 -0.04339163 0.01690914 0.048936907 0.0421905 -0.008116585 -0.050667778 0.031243006
-0.047446672 0.019805051 -0.03511025 -0.036408175 -0.017350562 0.009224251 0.04817895 0.05965747
-0.0237355 0.029786691 0.037566267 0.02441686 -0.025678027 -0.014736458 0.017047547 0.029725228
0.06360488 0.03956795 0.0020448524 0.10964504 0.12161227 -0.04609952 -0.009339179 0.04820531
0.14301817 -0.008182945 -0.027073642 -0.005070712 0.036067884 -0.0012976566 -0.04621239 -0.012579779
0.027314596 0.029697496 -0.025742285 -0.0140693 0.03363865 -0.0023934098 -0.021402474 -0.08433158
0.034160182 0.10772299 0.034481604 -0.009603408 -0.009183476 0.0365515 -0.010075053 -0.06192959
0.007406178 -0.027430637 -0.023833476 -0.037246514 0.10422937 0.0045067216 -0.06341289 -0.021069052
0.032551296 -0.05789122 0.044509944 0.05552414 0.018171834 -0.0013731462 0.063394465 0.09047232
-0.019938217 0.0019054634 0.014439404 0.06464514 0.022843733 -0.003287178 0.04592089 0.05198397
0.07568509 -0.014721566 -0.08755458 -0.0072040264 0.026628386 -0.08925432 -0.015370495 0.0010576603
-0.03197298 -0.010775679 -0.035199083 0.0077891205 0.019396821 0.04339481 0.071191184 0.043572042
-0.012711048 -0.07387958 0.02806982 0.033937216 0.16564125 -0.032404322 -0.026331654 0.094706394
-0.008890182 -0.0009581215 0.014073103 0.020442747 -0.023000346 -0.06719922 0.13196607 -0.012216619
0.00229131 0.019804973 0.049399223 -0.02409216 0.022227684 0.009225348 0.004005085 5.251661e-05
-0.008571209 0.007630108 9.457265e-05 0.0070350524 -0.053980045 0.0074126283 0.024099838 0.0727063
-0.06913295 0.06803592 0.07962046 0.027690085 -0.027478816 -0.01993629 0.010019605 -0.020195518
0.039245754 0.031734083 0.04395981 -0.014682166 -0.009914375 0.0008592453 -0.009771418 0.026572289
-0.0031901905 -0.043932162 -0.031227628 0.1128316 0.017208707 -0.03766677 0.04653602 0.0546946
-0.0066900137 -0.008815739 -0.014267582 -0.014017506 -0.00754267 -0.0395161 0.0021848062 0.0013969345
-0.059775066 0.050234832 -0.0058456142 0.06364728 0.014436313 0.08092996 0.11214704 0.048004743
0.025245281 0.004715432 0.0071101226 -0.017147623 -0.0013374912 0.0029207617 0.04093832 -0.0066568768
0.049347807 -0.029414399 -0.019734582 -0.026617127 -0.020127552 -0.028398652 0.057426028 0.004771017
0.038890697 0.027250852 0.020425811 0.014733369 0.037043583 -0.030343203 0.04427185 0.034110527
0.07243599 0.065432526 0.038849894 -0.1015202 -0.02338426 0.01914189 -0.057188697 -0.029431073
0.051498577 0.0022659164 -0.035878163 0.026089652 -0.010299741 0.07921954 -0.011939649 0.073027045
0.031964708 -0.02578594 0.043357454 0.076056644 -0.045015145 -0.016954066 -0.02096266 0.042188287
-0.054595236 0.050037026 0.01927531 0.011079454 0.01746367 0.089306034 -0.04143728 -0.02553896
-0.026460238 0.06955142 0.018573819 -0.05071298 0.011943071 0.002176158 0.06292394 0.022304846
