results/OUR_MODEL/checkpoints/Epoch[2]-Step[810].pt (torch, 374222 bytes, 66 tensors)

conceptizer.encoder.0.0.weight f4 [10, 1, 5, 5]
000000 4b 30 26 be 65 d4 46 3e d9 df 4b 3e 28 85 e0 3d
       -0.1622936 0.1941696 0.1990961 0.109628975
000010 ff b1 00 3e 92 44 70 bd dd 1a d9 bc e6 e9 cf 3c
       0.125679 -0.058659144 -0.026502067 0.025380086
000020 08 5d 3b 3e 87 f3 45 bd 4a eb 16 3e 75 4a de 3d
       0.18297207 -0.04832795 0.14738193 0.10854045
000030 22 af 32 be 02 25 09 3e 46 e1 4f bd ee ab 39 3e
       -0.1744962 0.13393024 -0.050751947 0.18131992
000040 44 4a ac 3d f2 aa 18 3e 70 d8 c5 3d cc 43 5d bc
       0.084126025 0.1490896 0.09660423 -0.013504934
000050 df 48 4d 3e 49 4d ba bb d4 d4 9a bc 25 8d d4 bc
       0.2004733 -0.0056854826 -0.018900312 -0.02594621
000060 fb c4 46 3e 06 90 a0 bd df b7 0c 3e 34 cf 04 be
       0.1941108 -0.0783997 0.13742016 -0.12969667
000070 30 e6 ed bd 90 c3 df bd ef 4b 2e 3b d7 d8 30 bd
       -0.116161704 -0.109259725 0.0026595553 -0.043175545
000080 2b 25 3e be fb dd 80 bc 63 da 21 be 40 a6 d9 3d
       -0.18568866 -0.015730849 -0.15805964 0.10627413
000090 4d 0a d4 bd 00 73 6b bd f0 29 3f be 60 e3 16 be
       -0.10353527 -0.05748272 -0.18668342 -0.14735174
0000a0 d5 9b 5d be db 49 79 bc 59 ec 6b bd 4d e6 13 3d
       -0.21641476 -0.015215362 -0.057598446 0.036108304
0000b0 8e b0 43 3b c6 1a 8c 3d 3b d6 7c 3d ca 56 ce bd
       0.0029859873 0.06841044 0.061727744 -0.100751474
0000c0 b8 70 4f be ae f2 2f 3d 41 f2 d2 3b 15 84 34 be
       -0.20257843 0.042956047 0.0064375703 -0.1762851
0000d0 e8 88 b9 3d ad 05 67 bd ed 15 ed bd 37 3b e9 bd
       0.09059316 -0.056401897 -0.11576448 -0.113882475
0000e0 5e e3 2e be 3a 1e bf bc f2 d5 4d be 4a da 0b be
       -0.17078921 -0.023329843 -0.20101145 -0.1365749
0000f0 08 83 6e be 53 95 f6 3d 26 34 c1 bd d4 9e 4a be
       -0.23292172 0.120402 -0.09433775 -0.1978715
000100 4e ef f4 bc ed a4 e1 bd 5f 34 70 bd 7b a0 6d be
       -0.029899266 -0.11017785 -0.058643695 -0.2320575
000110 b4 43 e3 bd 25 f2 15 be d2 92 da 3d f2 00 ba bb
       -0.11096898 -0.14643152 0.10672535 -0.005676382
000120 d3 57 c4 3c c1 16 ed bb f9 47 af bd 69 19 02 be
       0.02396766 -0.0072353785 -0.085586496 -0.12705006
000130 d2 88 0b bd 9f 2b ca 3d f1 98 bf bc dd 11 56 bd
       -0.03406603 0.09871601 -0.023388358 -0.05226313
000140 3e 84 0b be c7 53 ab bc 4c c8 9e bd e1 71 a2 3a
       -0.13624665 -0.020913972 -0.07753047 0.0012393558
000150 57 c8 0f 3e ee 2d 5a be 9a ab 4d be f8 3e 3e 3d
       0.14041267 -0.21306583 -0.20084992 0.04644677
000160 8d bb 1e be a1 2d 6a 3d 10 29 99 bd c5 7e 0c be
       -0.15501232 0.05717242 -0.07478535 -0.13720234
000170 d5 da 96 bc 81 6f 4e bd e6 2c 49 3d 82 14 61 bd
       -0.018414894 -0.050399307 0.049115084 -0.0549512
000180 86 aa 03 bd d4 a4 49 be ce 85 03 3d 31 df 55 3e
       -0.032145046 -0.19691783 0.032110028 0.20885922
000190 b5 4e c8 3d 46 d4 fa bd 86 52 b5 3d f8 b6 8e 3d
       0.09780637 -0.12247519 0.08853631 0.06968492
0001a0 1e 56 e4 3d 78 33 bb 3d ef 09 0b be 6e f0 5d bb
       0.11149238 0.09140676 -0.13578008 -0.003386523
0001b0 63 e5 f0 3d be 63 6c be a6 63 9e 3d db 4c 6c 3d
       0.11762502 -0.23084924 0.0773385 0.057690483
0001c0 0e ea 45 be 66 bc 6b be 43 f9 db bd 70 a5 f6 3b
       -0.19327566 -0.23021087 -0.10740902 0.007527046
0001d0 ee 42 b4 bd 7f d6 dc 3d eb 3e 3c be 38 3d fa 3c
       -0.08801828 0.107830994 -0.18383376 0.03054677
0001e0 c1 3b 89 3d 1d f3 26 3e b4 13 ad bd 3d 35 31 be
       0.0670085 0.16303678 -0.08451024 -0.17305465
0001f0 98 c5 6b 3d 6a 6c 22 bb be 22 1f 3e b5 36 fd 3d
       0.057561487 -0.0024783858 0.15540597 0.1236395
000200 81 1e 28 3e 71 d1 ee 3d 7f 86 a8 bd 06 c1 c7 bd
       0.16417886 0.116610415 -0.08228778 -0.09753613
000210 0e 5f 30 3e 2b 08 38 3e dc a5 0c 3d 58 10 62 3e
       0.1722376 0.17971866 0.034337863 0.22076547
000220 ad 73 b7 3d 50 3d e8 3d f5 32 23 bd 3c e1 c5 bd
       0.0895761 0.113398194 -0.03984352 -0.09662101
000230 b9 80 c9 bd 09 84 19 3e 66 3e 37 3e e8 48 1e 3d
       -0.09839005 0.14991774 0.17894897 0.038643748
000240 34 3a 17 be b7 e9 d2 3d 5a 13 41 3e 05 c9 d4 3d
       -0.14768296 0.10298484 0.18855038 0.10389904
000250 ca bb b4 bd 39 fa 2a 3c 54 db 1e 3e c1 b8 0e be
       -0.088248804 0.010435634 0.15513355 -0.13937666
000260 6f 3c c2 3d c3 20 fe 3d 9e 8f 0f bd 95 0f 99 bd
       0.09484183 0.124085926 -0.035049073 -0.07473675
000270 89 0e 45 3e 04 9f 80 3b e4 c6 1b 3e 9f be 0e 3e
       0.19243826 0.003925206 0.1521259 0.13939904
000280 7d c1 ee bd 06 bc fc bc fa c4 62 bd 3e 87 ae bd
       -0.11657999 -0.030851375 -0.055363633 -0.08521889
000290 b9 9b 2d be 24 1f fb bd 46 4e 3a 3e d6 04 bc 3d
       -0.16953935 -0.12261799 0.18193921 0.0918061
0002a0 e4 73 c1 bd d4 d7 45 be 52 b9 a2 bd f1 fc 8c 3d
       -0.094459325 -0.19320613 -0.07945503 0.06884182
0002b0 1c 94 3a be 17 a1 63 b9 23 80 5a 3d 4c a5 95 bc
       -0.18220562 -0.00021708418 0.053344857 -0.018267296
0002c0 44 b4 28 3d 31 4b f7 bd 5d 0c f7 bd 7b d8 3d 3e
       0.04118754 -0.120748885 -0.12062905 0.18539612
0002d0 71 11 ba bb 4e c5 78 bd 61 ab db 3d f8 ce 82 3d
       -0.0056783487 -0.06073504 0.10726047 0.063871324
0002e0 bb c9 ac bd 19 50 56 3e 4e a7 0c 3d bb 82 27 3e
       -0.084369145 0.20928992 0.03433924 0.16358463
0002f0 53 7b 57 3e b8 ad 60 3d ef 8f 59 3e 06 31 9b bd
       0.21043138 0.05485317 0.21246313 -0.0757771
000300 d8 d3 a2 3d 8b 9a 55 bc 22 f9 33 bd b2 ed 30 3d
       0.07950562 -0.013037334 -0.043938763 0.043195434
000310 ab d9 4b 3e c4 a1 ed bd 1f d1 5d 3d 33 72 ca 3d
       0.19907252 -0.1160312 0.05415451 0.09885063
000320 45 d5 f3 3d 5a 7c c3 3c d4 9f 01 3e ea 55 a5 3d
       0.11905912 0.023863006 0.12658626 0.080730274
000330 91 e0 72 bd 58 04 ba 3d 93 07 c4 3d 48 14 ad bd
       -0.059296194 0.0908286 0.09571757 -0.08451134
000340 b6 d8 fd bd e1 e1 56 3e 35 7d 1b 3e fb f5 eb bd
       -0.1239485 0.20984603 0.15184481 -0.115215264
000350 13 0f b1 bd 1b db 09 be b5 bf 0d be 6a b9 9e 3d
       -0.08645453 -0.13462488 -0.13842662 0.07750209
000360 cd 80 8c 3c 72 1a 0c 3e 45 e4 21 be 69 ea b0 3d
       0.01715126 0.13681963 -0.15809734 0.0863846
000370 2c e1 48 be 4d 77 db 3d 2c df 40 bc 7b 26 fc bc
       -0.19617146 0.10716114 -0.011771958 -0.030780068
000380 ad 51 5a 3e 75 f9 54 3c f7 11 3d 3e 73 8e 36 3e
       0.2132022 0.012998928 0.18463884 0.17827778
000390 a1 31 2f 3e 86 f9 9e 3c bc 50 4e bd a7 4e 6d 3d
       0.17108776 0.019406091 -0.050369963 0.057936337
0003a0 d7 d9 62 3e f9 82 34 3c de 22 9e 3d 7a ec 3a 3e
       0.22153412 0.011017554 0.07721494 0.18254271
0003b0 b9 ea 4d 3e 7f b7 6e 3e 21 0b 81 bd c5 62 c4 3d
       0.20109071 0.23312186 -0.06300951 0.09589151
0003c0 8a f8 33 3d a9 40 31 3e bd 5e 00 bd 69 26 d4 bd
       0.043938197 0.17309822 -0.03134035 -0.10358889
0003d0 ff 58 a4 3d 20 bf b9 3c f8 41 40 3d 43 5f 56 3e
       0.08024787 0.022674143 0.046937913 0.20934777
0003e0 e3 81 53 3e 97 71 7c 3d
       0.20655017 0.061631765

conceptizer.encoder.0.0.bias f4 [10]
000000 4c 78 95 3c 39 31 12 3e 6e 5a 52 3e b1 03 2b bd
       0.018245839 0.1427659 0.20542309 -0.041751567
000010 14 4a 4b 3e a4 9c 1d 3d 42 b3 6d bd 13 d2 69 bd
       0.19852477 0.038479462 -0.05803228 -0.057085108
000020 4f 9b c3 3d 6a 3b a9 3d
       0.09551107 0.082632855

conceptizer.encoder.1.0.weight f4 [5, 10, 5, 5]
000000 0d d0 b4 3b 75 bc 0f bc aa 12 a0 3c c8 37 41 3d
       0.0055179656 -0.008772959 0.01954015 0.047172338
000010 14 ba 43 bd 28 d0 1d 3c 5a e8 e7 3c 04 76 d0 3c
       -0.04778488 0.009632148 0.028309036 0.0254469
000020 d2 a8 1d bd fa 87 90 3d 4c 16 34 bd 52 e4 7e 3d
       -0.038491078 0.070571855 -0.043966576 0.062229462
000030 a6 18 43 bd 60 28 ff 3b fd 4d 1f bd 4e 40 aa 3c
       -0.04763093 0.0077867955 -0.038892735 0.020782616
000040 74 b4 c5 3c fd 29 32 3d a1 01 6a bc 78 88 e7 3c
       0.024133898 0.043497074 -0.014282615 0.028263316
000050 59 79 5e 3b dd 24 1d bd a6 f0 10 3d c9 6d 1f 3d
       0.003394684 -0.038365234 0.03538575 0.03892306
000060 fc 7e 0f 3d 43 08 73 3d 14 31 be 3c ff 75 01 3d
       0.03503321 0.05933405 0.023216762 0.03160667
000070 c4 c7 8a ba 62 09 33 3b 08 1b 64 3d 68 e1 27 bb
       -0.0010588099 0.0027318825 0.05568984 -0.002561653
000080 ad 67 22 bd d9 a6 72 3c 88 53 0e 3d 54 07 33 3d
       -0.039649654 0.014810287 0.03474763 0.04370816
000090 48 5d 02 3d 29 54 a5 3c fb 9e 28 bc c1 a7 13 bd
       0.03182724 0.020181732 -0.01029181 -0.036048654
0000a0 fa 06 07 3b 39 80 c4 ba 17 c4 1d bd 42 06 97 3d
       0.0020603524 -0.0014991827 -0.038517084 0.073742405
0000b0 88 f2 11 3d 7d 0d a5 3c e7 cc 9d 3d 58 be bb bc
       0.035631686 0.020148033 0.07705098 -0.022917911
0000c0 27 09 5e bc d9 f2 39 bd 2a 68 e7 3c 82 85 e8 3b
       -0.013551987 -0.045397613 0.028247911 0.0070959935
0000d0 a6 87 6f bc 2f 98 c0 bc 77 6b b5 bc 1b b0 89 bb
       -0.014619743 -0.023510067 -0.02214597 -0.0042019016
0000e0 7e ea 81 bc 28 e5 11 3d 96 5e 0b bd cb 98 8e 3d
       -0.015858885 0.03561893 -0.03402575 0.06962737
0000f0 d1 87 9c 3d 2c 8b 2c 3d 35 85 a8 3c f8 43 13 bd
       0.076430924 0.042124912 0.02057133 -0.035953492
000100 b7 57 9d bc e2 a5 76 3d 6b 6e f2 3c 05 9d c6 bc
       -0.019206865 0.060216792 0.029593667 -0.024244795
000110 64 f9 da 3c 58 bc 55 bd 09 63 91 3d 41 4b a7 bb
       0.026730247 -0.05218157 0.070989676 -0.0051054065
000120 61 0a 4d 3d 30 60 2e 3d 3f c4 20 3c df 29 4b bd
       0.050058726 0.0425722 0.009812414 -0.04960048
000130 a0 91 fa bc 9f b0 f9 bc 44 29 25 3d 06 dc 48 3d
       -0.030587018 -0.030479727 0.040322557 0.049037956
000140 dd 7d 47 3d 4f c0 2e 3d 71 a0 13 bd e2 5f af 3d
       0.048704017 0.04266387 -0.03604168 0.0856321
000150 e6 1f 88 3d e0 95 a5 3d 2e 38 16 3d 5d ac f3 bc
       0.06646709 0.08085227 0.03667467 -0.029745275
000160 64 aa d5 3c 0d 48 29 bc ce 7f 0e bd a3 a5 e6 bb
       0.026082225 -0.01033212 -0.034789853 -0.0070387884
000170 97 24 cf 3b e5 2e 48 3d 08 e5 f5 3c da 59 22 3d
       0.0063215005 0.048872847 0.030016437 0.03963647
000180 7e cb 79 3c 35 10 95 3d 88 cb b2 3d 41 3c 90 3d
       0.01524627 0.07278482 0.08730227 0.070427425
000190 b2 92 7b 3d 95 bc 34 bb b9 8a 43 bc d2 87 12 bc
       0.061419196 -0.0027578224 -0.0119349295 -0.008943515
0001a0 0f 9a c4 bc 99 89 31 bc ab 8a fd bc b6 3d be bb
       -0.023999242 -0.0108360285 -0.030949911 -0.0058056964
0001b0 d4 87 ff 3c 68 ef 29 3d 48 bc 98 3d 45 0b 38 bd
       0.031192698 0.04148808 0.07457787 -0.044932622
0001c0 dd e5 8c 3d d5 a2 8d bc a9 68 4a bd 24 c7 c7 3b
       0.068797804 -0.017289558 -0.049416218 0.0060967375
0001d0 8f b5 85 3d 4a 03 ca 3c 48 8d 00 3d 6e 31 59 3d
       0.0652877 0.024659771 0.031384736 0.053025655
0001e0 2f 8c 2d bd f2 e1 5c 3c 89 58 4a 3d 8d 93 f5 3c
       -0.042370018 0.013481604 0.04940084 0.029977584
0001f0 b2 59 a4 3b 25 4e 4e 3d b8 e1 6f 3d 80 cb 6c bd
       0.0050155753 0.050367493 0.05856487 -0.05781126
000200 0c 96 b1 bc 27 bc de 3c b3 de 0c bd 8f d3 ff 3c
       -0.021677993 0.027189327 -0.03439207 0.031228809
000210 3f 0a a5 bb 18 fa e5 3c 35 1c 90 3c 3d 85 fe bc
       -0.005036622 0.028073356 0.017591575 -0.031069392
000220 eb 7f dd 3c a3 4a 70 3d a5 75 2a 3d 20 83 46 3d
       0.027038535 0.05866493 0.0416161 0.048464894
000230 7b 61 e5 ba 82 4e 49 bd 53 5c 47 3d b1 d0 d3 bc
       -0.0017500365 -0.049147137 0.04867203 -0.025856348
000240 0b 3d f1 bc 6b 8d 2d bd b5 cf fd 3c ca 46 b0 bc
       -0.029448053 -0.042371195 0.030982831 -0.02151813
000250 91 23 ec bc d8 4b 12 bc ec 26 6b 3d 9c c0 2a 3d
       -0.028825553 -0.008929215 0.057410166 0.041687593
000260 42 32 83 bc 2b 52 1a ba 79 8e 3a 3d 06 32 83 3d
       -0.016015176 -0.0005886878 0.04554603 0.064060256
000270 8e 4f 42 3d 31 a9 36 bd 86 5a 69 bd 69 45 0f bc
       0.04743915 -0.044594947 -0.056971096 -0.008744576
000280 7e a8 62 3d be 9e 08 3d 7d 13 d5 bb 76 20 d5 bc
       0.055336468 0.033354513 -0.0065025673 -0.026016455
000290 6a 03 1f 3d 8d 63 90 3d f7 67 c6 bc e4 91 41 bc
       0.038821615 0.07050238 -0.024219496 -0.011814568
0002a0 08 6b 21 bb ad 28 c2 bb 7e 38 15 bd 04 52 c0 bb
       -0.0024630446 -0.005925259 -0.03643083 -0.005869152
0002b0 30 cb 39 3d 1b 56 37 bc 52 2b 12 3b ab 90 cf bc
       0.04535979 -0.011189963 0.0022303653 -0.025337538
0002c0 c3 69 42 bd d2 26 4b 3d 56 2e 69 3d 19 36 13 3d
       -0.047464143 0.04959757 0.056928955 0.035940263
0002d0 c7 ba 26 3d 3a dd 81 3d 28 d5 6c bd 7a 79 64 ba
       0.04070547 0.06341024 -0.05782047 -0.0008715611
0002e0 65 07 26 bd 22 65 51 3d 1f 36 f9 bc d4 f5 59 bd
       -0.040534396 0.05112184 -0.030421315 -0.053212956
0002f0 26 fa 98 3b 6b ce 9d 3d e4 8d 2b bb f0 c4 0e 3d
       0.004668492 0.07705387 -0.0026177103 0.034855783
000300 1e 30 78 bc 6b 4f 62 3d 67 68 08 3d 65 f8 1f 3d
       -0.015148191 0.05525152 0.03330269 0.039055247
000310 24 96 c0 37 c2 d1 11 bd 4b bd 63 3d f4 7e 09 3d
       2.2958098e-05 -0.03560043 0.055600446 0.033568338
000320 b9 65 5b bd 9d 32 8e 3d 7a 53 c4 b9 a3 85 44 bd
       -0.053563807 0.069432475 -0.00037446228 -0.04797901
000330 21 3d cd 3c 2f c1 25 3c 66 51 2f 3d b2 55 3c 3d
       0.025053563 0.010116859 0.042802237 0.045980163
000340 f5 a4 30 3c c2 38 7a 3d 92 2b 20 3d 4e df 0c bd
       0.010781516 0.061089285 0.039104052 -0.034392647
000350 b6 ac 59 bd 18 d1 b1 3c 73 ee 8e 3a c1 c3 dc 3c
       -0.053143226 0.021706149 0.0010904804 0.026948811
000360 85 ff 8d 3d f7 c9 b5 3c 0c b9 8b 3b 59 e1 7d 3d
       0.06933502 0.02219103 0.0042640027 0.061982486
000370 ee f5 72 bd 0c a2 76 3d 47 51 5e bc 44 1e cc 3c
       -0.059316568 0.060213134 -0.013569183 0.024916776
000380 94 19 20 3d 3d 58 e9 3c dc 0d 5d bd e9 59 fb bc
       0.039086893 0.028484458 -0.053968295 -0.030682521
000390 bb 37 5f 3d b8 a2 03 3d 84 da bf 3c 55 1a 5c 3d
       0.054496508 0.032137603 0.023419626 0.05373605
0003a0 78 0c 97 3c 75 a9 41 bd 52 02 c7 bb b5 ae 53 3c
       0.018438563 -0.047280747 -0.0060732746 0.012920071
0003b0 11 04 78 3d e3 0a 19 bd df ae f7 3c 9d e0 26 bd
       0.060550753 -0.037363898 0.030234752 -0.04074155
0003c0 fd 4c 0d 3d 06 42 83 bc 14 c0 b5 bc 4c 24 40 bd
       0.03449725 -0.016022693 -0.022186317 -0.046909615
0003d0 96 96 44 3d 94 e8 98 bc aa 66 52 bd 47 5d c6 3c
       0.047995172 -0.01866559 -0.05136744 0.0242144
0003e0 30 69 88 3d 3c 0d c1 bc 8e e6 36 3d 86 96 7a 3d
       0.06660688 -0.023565881 0.044653468 0.061178707
0003f0 3c 38 0a 3c e8 b1 13 3d 7e 13 15 3c 11 e0 41 3d
       0.008436259 0.036058336 0.009098886 0.047332827

conceptizer.encoder.1.0.bias f4 [5]
000000 76 8b d8 bc 7f 91 fc 3c e6 a7 72 ba 7f 59 29 bc
       -0.026433688 0.030831097 -0.0009256586 -0.010336279
000010 c2 a0 22 3d
       0.03970409

conceptizer.encoder.2.layers.0.weight f4 [1, 16]
000000 3e 5b 01 bc c6 da 2e be c8 76 e6 bd 94 7c 57 be
       -0.007895289 -0.17075643 -0.112531245 -0.21043617
000010 fa 0c fe 3d 51 0c ed 3d 2d 11 c4 3d b2 79 58 be
       0.12404819 0.11574615 0.095735885 -0.21140173
000020 71 78 0e be 1d f9 41 be bb 14 41 be 7f b9 6c be
       -0.13913132 -0.18942685 -0.18855564 -0.23117636
000030 7d c0 82 3d 48 82 22 be 54 dc 19 be 0b 5f 10 3e
       0.063843705 -0.15870011 -0.15025455 0.14098756

conceptizer.encoder.2.layers.1.weight f4 [1, 16]
000000 d3 5e 97 3e 32 70 17 be 25 06 94 3d af ac 1c 3e
       0.29564533 -0.14788893 0.072277345 0.15300249
000010 0d 34 f0 3c c5 d7 2b 3e 79 24 13 be ed bf 8a 3e
       0.029321695 0.16781528 -0.14369382 0.27099553
000020 c4 8f d1 3d d8 e4 13 be 85 5d b6 3d 6c d4 c2 3d
       0.10232499 -0.14442766 0.08904556 0.095131725
000030 fd 53 44 3e 5b c5 9c 3d ff f4 53 3e 64 50 83 3e
       0.19172664 0.0765483 0.20698927 0.2564727

conceptizer.encoder.2.layers.2.weight f4 [1, 16]
000000 d7 53 7f be f7 ee 27 3e f3 4a 33 3e b2 d8 57 3d
       -0.24934326 0.16399752 0.1750906 0.05269689
000010 88 c2 91 3d ab 9e 00 be ea 93 0c 3e 88 0d 6e be
       0.07117182 -0.12560527 0.137283 -0.2324735
000020 d5 b3 8c be b0 12 12 be 41 91 83 3c 0a 41 2c be
       -0.2748095 -0.14264941 0.016060473 -0.16821685
000030 6e e0 48 be e5 86 3e 3d 0d b9 8c 3d c2 45 83 bc
       -0.19616863 0.046515364 0.06871233 -0.016024474

conceptizer.encoder.2.layers.3.weight f4 [1, 16]
000000 6e 85 7c 3e 0c cf 10 3e 88 cc 22 bd fc 48 4e 3e
       0.24660274 0.14141482 -0.039745837 0.20145029
000010 be a3 02 3c 64 fe fd 3d 73 c8 b8 3d 02 47 09 3e
       0.0079736095 0.12402037 0.09022608 0.13405994
000020 ce 19 f4 bd 34 92 53 3e 38 4d 0e be 97 55 b2 3d
       -0.11918984 0.20661241 -0.13896644 0.08707731
000030 eb 96 05 3e 8e ab b7 bd e2 8a 05 be 18 34 f3 bd
       0.13045852 -0.08968268 -0.13041261 -0.118751705

conceptizer.encoder.2.layers.4.weight f4 [1, 16]
000000 e8 02 07 3e fa 1e 42 be d6 4c 31 bd b0 56 bc bb
       0.13184702 -0.18957129 -0.043286167 -0.0057476386
000010 b3 3e 87 be 65 5f 8b bd 03 3d ce 3d a4 b0 da bd
       -0.26415023 -0.068053044 0.10070231 -0.10678223
000020 7c 74 d3 bd 4c 39 65 be 72 45 5c be 7a 85 0c bd
       -0.10324952 -0.22385138 -0.21510866 -0.03430698
000030 73 2c 15 3d 45 9d 35 3e 2e 41 6e 3d 04 0d 64 bd
       0.036419343 0.17735775 0.05816763 -0.055676475

conceptizer.decoder.0.0.weight f4 [5, 16, 5, 5]
000000 b9 7b 48 bd 8d 5e a9 3c 55 a6 6a 3d ee 23 a1 3d
       -0.048946116 0.020674968 0.057287533 0.07868181
000010 4a a6 53 3d 08 e6 29 3d 2b 51 c8 b9 a3 be 26 bd
       0.051672257 0.04147914 -0.00038207448 -0.04070915
000020 ac 6d 6d bd d3 35 ab 3c c2 81 70 3d 4c d2 b7 3c
       -0.05796592 0.020899689 0.058717497 0.022439145
000030 bc 2b d4 3d 31 9e 22 3c b4 68 97 3c 16 e4 0c bc
       0.10359904 0.009925411 0.018482544 -0.008599302
000040 53 f9 ab 3d 68 ee 4a bd fe 5f 57 bd 6a 32 d9 3c
       0.08397164 -0.04954377 -0.05258178 0.026513297
000050 36 82 81 3c 83 0b cf 3c 6e c6 b0 3d a5 b5 d1 bd
       0.01580916 0.025274044 0.086315975 -0.10239724
000060 4c 63 aa bc 08 80 0c bd bd d1 a3 3c e3 65 b7 ba
       -0.020799302 -0.034301788 0.019997472 -0.0013992157
000070 d8 c9 48 3c 66 d8 61 3c 6c a0 34 bc 8f 64 8c 3d
       0.012255155 0.013784504 -0.011024576 0.068551175
000080 86 19 79 bd 4f 33 29 3d 90 8e ff 3c 6a f4 0d 3d
       -0.060815357 0.041308697 0.031195909 0.03465692
000090 c7 60 89 bd a8 70 fa 3c 38 c3 70 3b 41 6b 78 3c
       -0.06707912 0.030571297 0.0036737453 0.01516229
0000a0 ce fa f8 bc f2 6d 81 bd bd 6f 24 3d f9 a2 a7 3d
       -0.03039303 -0.063197985 0.040145624 0.081853814
0000b0 8c c3 cb 3c f8 63 61 bd 01 32 fc bc 4c 2d 3e bd
       0.024873517 -0.05502698 -0.030785562 -0.046429917
0000c0 6e bb d2 bd 38 34 19 3d ba 30 f8 3c d6 11 70 bd
       -0.102896556 0.037403315 0.030296672 -0.05861076
0000d0 08 69 15 3c d3 12 57 3d 55 bd 5f 3c 2e 9a 97 bc
       0.00911928 0.052508187 0.01365598 -0.018506136
0000e0 fa 77 05 3d b7 24 0c 3b e2 ad e4 3c 99 1e 3c bc
       0.03258512 0.0021384188 0.027914945 -0.011481904
0000f0 d6 d1 36 bd 1f 8c 29 bd 06 74 6c 3c cb 71 af bc
       -0.04463371 -0.041393396 0.014431959 -0.021416565
000100 76 ed ab bc 12 90 16 3d 94 e8 be bb 40 d8 c6 3c
       -0.020987254 0.03675849 -0.0058260653 0.024273038
000110 e4 8e 85 3c b3 18 51 bd 9b 51 83 bd 92 14 28 3c
       0.016303487 -0.051048946 -0.064120494 0.010258811
000120 9b fc 4a bd fe b3 95 3c 5f 45 bf bd ba a0 37 3c
       -0.04955731 0.018274304 -0.09339403 0.011207754
000130 93 75 88 bd 02 87 2a bd 0f 8e 39 3d 15 88 95 3d
       -0.066630505 -0.04163266 0.045301493 0.07301346
000140 5d 3a 54 bc 7d d9 2c 3d 38 20 5b bd 4a 43 c8 bd
       -0.012953368 0.0421996 -0.053497523 -0.09778459
000150 45 2e db bb 39 fd 53 3d 9b f3 43 bd ca 8d 50 3d
       -0.0066888654 0.051755164 -0.047839742 0.05091647
000160 ce eb 2a 3d 15 7c 32 bd 78 cf 4d 3d a8 0c 8f 3c
       0.041728787 -0.043575365 0.050246686 0.01746209
000170 0f 3d 46 bd 45 f2 7c bc 51 f4 02 3b 7a 2e 1b bd
       -0.048398074 -0.015438621 0.001998205 -0.03788612
000180 c2 c4 d9 bb d9 47 9e 3d 2b ba 9f 3d 15 60 6e 3d
       -0.00664577 0.077285476 0.077991806 0.0581971
000190 57 07 76 3d 9b 41 e9 bc cf 8f b3 bc 95 16 a9 bd
       0.060065594 -0.028473666 -0.02191916 -0.0825626
0001a0 bb 00 2d bc a5 86 6d bd 40 a0 1a 3d a7 f7 b5 3d
       -0.010559256 -0.057989735 0.037750483 0.088851266
0001b0 5c b7 6f 3c 45 d3 9f bd 8e 92 b8 bc 96 d9 d1 3d
       0.014631119 -0.07803968 -0.02253082 0.10246579
0001c0 25 ec c2 bc 5d ee d3 bc 8b 79 a7 bd 38 e3 99 3c
       -0.023794243 -0.025870496 -0.08177479 0.018785104
0001d0 f9 24 60 3d 62 46 a8 3d bd a1 f5 3d 86 64 90 bd
       0.05472276 0.082165495 0.1199374 -0.07050423
0001e0 0e 59 44 bd 0d 90 af 3b b1 a5 c1 3c a4 80 02 3e
       -0.04793649 0.0053577484 0.023638578 0.12744385
0001f0 d9 0c 07 bd c4 78 15 3d 5e 78 78 bd 23 84 3d bd
       -0.032971237 0.036492124 -0.060661666 -0.046268594
000200 be 68 c8 3c 8c 94 d3 3b 75 3c 8d bd 40 7c da bd
       0.024464007 0.006456917 -0.06896297 -0.1066823
000210 98 86 20 3d c2 10 42 3d ad c4 86 bc a2 fb fd 3c
       0.03919086 0.047379263 -0.016451204 0.031003777
000220 d4 80 ab bd a7 79 ff bc 70 f0 be 3c 7b c8 ca 3c
       -0.083741814 -0.031185938 0.023308009 0.0247538
000230 d1 ea ba bc 45 a4 a1 bc 06 05 99 bd 50 0f 53 bb
       -0.022817047 -0.01973165 -0.07471661 -0.0032205172
000240 c8 12 b5 3d 18 a4 33 3d 54 ee 9f bd 55 4c 5a 3d
       0.08841473 0.043857664 -0.07809129 0.053295452
000250 aa 21 a4 bb 61 fa 3f 3d 28 b9 6b bc 08 9f c3 bd
       -0.005008896 0.04686964 -0.014387406 -0.09551817
000260 d4 fb 51 bd 24 0f 08 bc 08 e7 ff 3c 92 11 3a bd
       -0.051265553 -0.008304391 0.031238094 -0.045426913
000270 0e 31 2f bc 5d 94 2b bd fa 58 33 bd ca 44 c7 bc
       -0.010692848 -0.041889537 -0.043786027 -0.024324793
000280 39 b2 27 3b 33 bc 3c bd 6f 68 40 3d a6 9c 30 3c
       0.0025588407 -0.04607792 0.046974596 0.010779535
000290 27 ed 65 bd 5c 1c a5 3d 5e e9 93 bd 3e 56 20 bd
       -0.05613437 0.0806205 -0.07222246 -0.039144747
0002a0 2f e5 97 bc f7 f8 4b bd 52 4e b1 bc 70 24 3b bd
       -0.0185419 -0.04979798 -0.021643791 -0.045689046
0002b0 b3 4f 19 3d 2f 50 10 be 7b c5 46 bc fe 0d ad 3d
       0.037429523 -0.14093088 -0.012132044 0.084499344
0002c0 fa cf fd 3b 15 16 10 bb 84 30 fa 3c 0f 89 88 3d
       0.00774574 -0.0021985818 0.030540712 0.06666767
0002d0 26 11 7c 3d 83 2d ae 3d a2 ce d7 bc ee 52 54 3c
       0.06153979 0.085047744 -0.026343647 0.012959225
0002e0 a3 fd 5c 3d aa ce 7e 3d 29 58 bb bb e3 d4 96 3c
       0.053952824 0.06220881 -0.0057172966 0.01841206
0002f0 00 09 25 bb 2f 29 a0 bd 76 e0 5d 3d 0c 68 83 3d
       -0.0025182366 -0.07820355 0.05416914 0.0641633
000300 f4 39 9d bd 3f e2 65 bd fb ff f7 3a cb cd 33 bc
       -0.07677069 -0.05612397 0.0018920893 -0.010974358
000310 46 09 d4 bc eb 9e 99 3b d9 fd e0 3c 61 3a 0f bd
       -0.025883328 0.004688134 0.027464794 -0.034967784
000320 a8 09 5b 3d 04 41 e0 bc 21 36 17 bd c1 11 65 bd
       0.053476006 -0.027374752 -0.036916856 -0.055925135
000330 92 bd 4c 3d b8 e6 4d 3c 70 06 88 bd c7 eb f1 bc
       0.049985476 0.012567215 -0.06641853 -0.029531373
000340 e4 cf 20 3c 09 22 05 3d 0e 84 e3 3c 3b 55 6f 3d
       0.00981519 0.03250316 0.02777293 0.05843089
000350 4c 44 6b 3c 36 85 2e bd 03 d6 3c 3d f0 d7 2a 3d
       0.014359545 -0.04260751 0.046102535 0.04170984
000360 bf 53 96 bc 87 e2 e2 bb 34 75 5c bd 2a 07 48 3d
       -0.01835048 -0.006923977 -0.05382271 0.048834957
000370 b9 c0 de bc 2d 78 15 bc 19 2c 5a bd cb 66 70 bd
       -0.027191507 -0.00912289 -0.05326471 -0.05869178
000380 a2 84 43 3d e7 12 7c bd 17 88 2f 3d 96 8b 81 3d
       0.04773391 -0.061541464 0.042854395 0.06325452
000390 6d c7 7f 3d 00 87 7c bd 23 4d cf 3c 5a 97 9d 3d
       0.062446047 -0.061652184 0.025305336 0.07694884
0003a0 8c db 97 3d 4e 08 b3 bd a9 45 8c 3c bb ba 47 3c
       0.07414922 -0.08741818 0.01712306 0.012190516
0003b0 e9 c0 92 3c 62 9e 85 3d 96 b0 e2 3c a4 dd 1e bc
       0.017914252 0.0652435 0.027672093 -0.009696398
0003c0 32 cd 2b bd 33 ed 2e 3c ab ae ad 3d 32 05 ef bc
       -0.041943736 0.01067667 0.08480581 -0.029177282
0003d0 39 58 a0 bd 9a cc 92 3c 0b 9c 76 3d d0 79 92 3d
       -0.07829327 0.017919827 0.060207408 0.0715214
0003e0 05 5b 3a bc 10 ba 86 bd 7a 88 1f bd 59 77 03 3d
       -0.01137424 -0.06578457 -0.038948514 0.03209624
0003f0 66 31 f1 3c 8d 2b 58 bd 73 29 b5 3c ab 8e b9 bd
       0.0294425 -0.05277591 0.022114491 -0.09060415

conceptizer.decoder.0.0.bias f4 [16]
000000 f4 cb 12 bd 6a 50 14 3c f5 9e 17 3d b0 66 53 3d
       -0.035839036 0.009052375 0.037016828 0.051611602
000010 49 c5 53 3c e3 77 8e 3d 0c 98 a4 3c 57 7e 81 3d
       0.012925454 0.0695646 0.020092033 0.063229255
000020 09 d5 69 3c 60 ed 02 3d 8b 44 bf 3c 40 92 d5 bc
       0.014271983 0.03196466 0.023348114 -0.026070714
000030 05 e9 cb 3c 25 65 c7 bd 55 65 59 bc e6 75 b8 3b
       0.024891386 -0.09736089 -0.013268788 0.005629289

conceptizer.decoder.2.0.weight f4 [16, 8, 5, 5]
000000 ee 08 cc 3a f3 73 54 bd b4 65 fa 3c f0 5c d6 3c
       0.0015566626 -0.05186839 0.030566074 0.026167363
000010 b5 82 c0 3d 8a f8 88 bd b1 f0 e6 3c 46 d3 bf bc
       0.093999304 -0.0668803 0.028190942 -0.023416173
000020 8f a6 42 bb b5 ca 80 3d 70 c8 0f bd c3 82 98 3d
       -0.0029701327 0.06288663 -0.03510326 0.07446816
000030 14 a1 db bc 63 17 89 3d 5f e2 0e bd b2 6e 99 3d
       -0.026810206 0.06693914 -0.034883853 0.074918166
000040 97 ea eb 3d fe c3 33 3d 9d 0f 27 3d 64 c6 1e bd
       0.11519354 0.043888085 0.040786374 -0.03876342
000050 f6 6d 88 3d 84 33 49 3d 55 0b 8d 3d 2e 78 96 3c
       0.066615984 0.049121395 0.06886927 0.018367853
000060 06 35 01 bc 42 c8 68 3c 15 0e 51 bd 92 83 80 3c
       -0.007886177 0.014207901 -0.05103882 0.015687738
000070 e9 0d 95 3d 3b 7e a1 3d af 70 8e 3d 62 d0 ce bc
       0.07278044 0.07885405 0.069550864 -0.025245849
000080 aa 00 8c 3a 7a dc cb 3d 6b 2c a0 3d 7d 32 9d 3b
       0.001068135 0.09954162 0.07820972 0.0047972784
000090 59 ed 1b 3d bb 9a 18 3d 0f b0 98 3d 27 68 05 3d
       0.03806815 0.037256937 0.074554555 0.03257003
0000a0 21 12 a8 bc 70 17 e5 3c dc 95 c7 3d 67 7c 0d 3e
       -0.020516457 0.027965277 0.0974538 0.13816987
0000b0 f9 02 8d 3d 00 63 f0 3c 1c b0 79 3d 0d 8d 03 3e
       0.068853326 0.029344082 0.060958967 0.12846775
0000c0 55 ea 28 3d 0f 8a ba 3b ee d0 66 3c 38 db 07 bc
       0.0412391 0.0056927274 0.014087899 -0.008292012
0000d0 c4 78 8e bd ce da 0f 3d 10 a0 b3 3d 32 a5 86 bd
       -0.06956628 0.035120778 0.08770764 -0.06574477
0000e0 be c7 16 3c 16 c8 02 bd 1d 54 2d bc 51 7d 0a 3e
       0.009202896 -0.031929098 -0.010579136 0.13524367
0000f0 7b b6 16 3c c7 d8 2b bb e0 65 90 bc cc 84 b0 3d
       0.00919878 -0.0026221739 -0.017626703 0.08619079
000100 1a cd 3d 3d 5a fd ff 3c ca 0d 4d 3d dc a9 2f 3d
       0.04633818 0.031248737 0.05006198 0.0428866
000110 ba 1b 4c 3c 3e a2 9a 3b 06 b2 36 3d 45 db 6b bc
       0.012457782 0.004719048 0.04460337 -0.01439554
000120 0e 56 d1 3d ae cf aa 3d 6a 69 fb 3c 3c 5e a9 bd
       0.10221492 0.08340393 0.030689914 -0.08269927
000130 fd fa 90 bb 08 f6 fe 3d 3d 42 a7 3c 01 01 79 3c
       -0.0044244514 0.124492705 0.020417327 0.015197993
000140 6e 69 ba bc 94 6b cf bc 73 34 7e 3d f3 90 58 3d
       -0.02275535 -0.025319852 0.06206174 0.05287261
000150 8f 43 6b 3c 81 7e 0b be 7a 6a b1 bd 49 cb 19 3c
       0.014359369 -0.13622476 -0.08662887 0.009386846
000160 be e9 e4 bb c4 cc 4b 3d 0a 77 b8 bd 6e 72 92 bd
       -0.006985872 0.049755827 -0.0900708 -0.07150732
000170 f7 fe ae bd 1e 15 0f 3c 70 f5 c6 3d 9a fc a9 3d
       -0.085447244 0.008733062 0.09714782 0.08300133
000180 ee 5e 27 bd b7 67 bb bd ae f3 60 3c c6 24 22 3d
       -0.040862016 -0.091506414 0.013729973 0.03958585
000190 b6 65 22 3d 29 ab 3e 3d 2a 9c 5e 3d 53 db 9e ba
       0.03964778 0.04654995 0.05434815 -0.0012119807
0001a0 da 5b 30 bd 57 21 d8 3d d5 b9 b4 3d 7f b1 71 3d
       -0.043056346 0.10553234 0.08824507 0.059007164
0001b0 62 5f 32 bd 95 d5 82 bc 76 a5 bc 3c b4 9a 96 3c
       -0.043547995 -0.015970984 0.023028117 0.018384315
0001c0 d9 40 29 3c 40 cb f5 bc f1 18 e7 bc 94 da 66 bc
       0.010330402 -0.030004144 -0.028210135 -0.014090199
0001d0 42 2b 0c bc 7a d5 af 3b d0 db ab bc cb 84 88 bd
       -0.008555235 0.0053660246 -0.020978838 -0.06665953
0001e0 ac 66 98 3c 13 db 06 bc 63 d4 0c be 3f 47 f1 bd
       0.018603645 -0.008230942 -0.13752894 -0.11781167
0001f0 70 3d aa bd b6 56 69 3d 7f 46 10 3e 9c d3 e8 3d
       -0.083124995 0.05696746 0.14089392 0.11368486
000200 11 dd c0 bd 03 33 88 bd a2 50 0b 3e 8e 47 fd 3d
       -0.09417165 -0.06650355 0.13604978 0.123671636
000210 30 fe 8e 3d 83 93 15 be 8a d7 21 be ba 30 c6 3c
       0.06982076 -0.14607053 -0.15804878 0.024193157
000220 29 4b d5 bc 3b 94 7d bd 5b 0b bf bd b3 47 4c bd
       -0.026036816 -0.06190894 -0.09328338 -0.049873065
000230 54 85 11 3d 79 81 85 bd 22 9d 7f bd ec 5e 55 be
       0.035527542 -0.065188356 -0.062405713 -0.20836991
000240 96 6b cc bd 6a eb 07 3e 8d 56 81 bd b5 b4 07 bd
       -0.09981458 0.13273397 -0.063153364 -0.03313132
000250 47 5a ba bd ae ce d0 3d 55 9b a2 3d 13 aa ea 3d
       -0.0909925 0.10195671 0.079397835 0.1145822
000260 fa e3 19 bc ef d7 aa bd ed 61 87 bd 8e ec 4a 3d
       -0.009392733 -0.08341967 -0.06610475 0.049542002
000270 8c 27 4e 3d e5 0b 2c bd db 9f b8 bd 34 7f df bd
       0.050330684 -0.04200353 -0.09014865 -0.10912934
000280 f2 c8 0d bc 3e 8a 4e bd cf 46 d7 bd 7c 68 0a be
       -0.008653866 -0.050424807 -0.105115525 -0.1351642
000290 63 3d de bd d0 a8 a4 3c 75 99 d3 bc 28 99 a6 bd
       -0.10851552 0.020100027 -0.02583001 -0.08134681
0002a0 da 28 35 be e7 da b7 3d 57 98 ca bb 11 dd b4 bd
       -0.17691365 0.08977299 -0.006182711 -0.088312276
0002b0 d9 87 fb bd 20 7c f6 bd 68 aa be 3d ed 76 85 3b
       -0.1228177 -0.12035394 0.09309846 0.004073015
0002c0 79 1d 55 3c 52 60 06 3d d4 31 a6 bd 75 be f3 bb
       0.013007515 0.032806702 -0.08114973 -0.0074384757
0002d0 94 82 b1 bd f7 79 c9 3c 62 7d 38 bd da 2e a1 bc
       -0.08667484 0.02459429 -0.04504145 -0.01967566
0002e0 bc 44 d4 bc 5c 06 88 bd 43 ca f3 3c 03 5f 40 3d
       -0.025911681 -0.06641838 0.029759532 0.04696561
0002f0 17 2c 22 bd 2e d0 54 3d 0c 30 08 3d dd 08 28 bd
       -0.03959283 0.051956348 0.033248946 -0.041024078
000300 55 ba 09 3c d4 85 2c 3d dd 53 5e ba ee ea ae bd
       0.008406241 0.042119816 -0.00084811245 -0.08540903
000310 4c 2d 87 ba 1a f0 bb bc 91 4f 24 3d 17 6a 21 3d
       -0.0010313182 -0.022941638 0.040114943 0.039407816
000320 35 00 55 3d 38 82 f0 bc 6b 9d 46 bc 4d 29 5b 3d
       0.05200215 -0.029358968 -0.012122492 0.053506184
000330 0c b3 e2 3c 70 45 65 3d 35 66 e2 bc bb ac 4e 3d
       0.027673267 0.055974424 -0.027636627 0.050457697
000340 57 31 cd 3c 77 c5 5b 3d 0e bd 1a 3d e0 39 10 bd
       0.025047941 0.053655114 0.037777953 -0.035211444
000350 8e 52 ab bb cd e7 4a 3d cb ff 1f 3d f0 aa 80 bc
       -0.005228347 0.04953747 0.039062303 -0.01570651
000360 4a 09 4d 3c 86 3f 3d 3d d6 82 62 3c af 9d 39 3d
       0.012514422 0.04620316 0.013825139 0.045316394
000370 0b e7 67 bb 6c d5 96 3d d4 f4 42 bd c4 f6 ed bb
       -0.0035385515 0.07364926 -0.047596768 -0.007262083
000380 ca 43 ac 3d fe a4 23 3d 7e e0 77 3d 68 8d 65 3d
       0.08411367 0.03995227 0.060516827 0.05604306
000390 00 b5 4d 3d aa 9d 2d 3d 72 4b b7 3b c0 24 26 3d
       0.050221443 0.04238669 0.0055937106 0.04056239
0003a0 5e 59 69 3c 72 94 8d 3d 72 c7 09 3c 8c 2a ce 3d
       0.014242498 0.06913079 0.008409368 0.10066709
0003b0 cf 47 d5 3d af 64 91 3d 97 99 ba 3d 05 1c 3a 3d
       0.10414087 0.07099282 0.09111326 0.045436878
0003c0 1a c5 ec 3d 9e e3 99 3d 6c 17 1b bc 89 f7 f4 bc
       0.11561032 0.07514118 -0.009466033 -0.02990319
0003d0 fd 77 9f 3d 04 4b dc 3c bb 54 70 bc 65 e2 16 bc
       0.07786558 0.026891239 -0.014668639 -0.00920925
0003e0 c0 62 86 3d 2b 33 d2 3c 8a e4 6c bd f0 63 92 3b
       0.06561804 0.025659164 -0.05783514 0.00446748
0003f0 54 30 8b 3c 2d 6a 8d 3d be 36 92 bc 86 be 62 3d
       0.016990818 0.06905017 -0.017848369 0.05535748

conceptizer.decoder.2.0.bias f4 [8]
000000 44 60 8f 3c e3 2a 0e 3c 9c fa 69 3d e7 19 35 3d
       0.017501958 0.008677217 0.057123765 0.044214156
000010 af 9b 21 3d e8 a5 f3 3c 4f 72 01 3d d8 b1 10 bd
       0.039455112 0.029742196 0.031603154 -0.035325855

conceptizer.decoder.4.0.weight f4 [8, 1, 2, 2]
000000 16 9c 9b be 4b 85 f1 bd f4 97 a6 be 2e e9 0c 3f
       -0.30392522 -0.11793002 -0.32537806 0.55043304
000010 4d 5a f3 3e 1e 1f ed 3e 60 1e fd 3e aa 62 02 3f
       0.47529832 0.46312803 0.49437237 0.509318
000020 73 df e4 3e 9d b8 dd 3e f9 53 dc 3e 64 a0 76 be
       0.44701728 0.4330491 0.43032816 -0.24084622
000030 8f 75 ec be 61 bf 00 bf 35 50 e0 be a4 af fd be
       -0.4618344 -0.5029202 -0.43811193 -0.49548066
000040 9e db a5 be 83 be e4 be 68 0e 92 3e b6 08 47 bd
       -0.32394117 -0.446766 0.28526616 -0.04859229
000050 54 9e dd be 03 3b 41 bd 56 6f 1f bf 63 38 c6 be
       -0.43284857 -0.04717542 -0.6227926 -0.38714895
000060 23 b5 3e 3a 05 23 14 bf a6 88 33 be a1 c6 21 be
       0.0007274916 -0.57865936 -0.17532596 -0.15798427
000070 2a c8 00 3f 7e 21 72 be 6a fb 93 3e aa d2 d2 be
       0.50305426 -0.23645589 0.2890275 -0.4117635

conceptizer.unlinear.weight f4 [16, 1]
000000 66 fe 2a bf 38 c6 e3 3e bb 0c 03 bf d7 85 81 bf
       -0.6679443 0.44487166 -0.511913 -1.011897
000010 07 d3 5d bf 91 e9 35 bf 68 b0 68 3f 88 c6 62 bf
       -0.8665013 -0.7105952 0.90894175 -0.88584185
000020 75 54 15 bf 1d 81 73 bf 5b 13 70 3f b4 69 ba 3e
       -0.58331996 -0.95118886 0.93779534 0.3640877
000030 cb 44 2a bf 18 48 35 be 9c 99 fd be 58 f6 f3 3e
       -0.6651122 -0.17703283 -0.49531257 0.47648883

conceptizer.unlinear.bias f4 [16]
000000 c8 59 3a 3f 92 9e 0f be f7 6d 83 bf f5 94 46 3f
       0.72793245 -0.14025334 -1.0267934 0.7757104
000010 6c 6e 08 3f 1b 27 9b 3e 0d 39 0a bf 89 63 dc 3e
       0.5329349 0.30303273 -0.539933 0.4304469
000020 27 6e 89 3e 73 05 09 bf bb e8 29 bf 11 a8 13 3f
       0.26841852 -0.5352394 -0.66370744 0.57678324
000030 eb 8a 93 be 81 97 0e bf 35 7c e1 be 15 ca 8e 3e
       -0.28816923 -0.55699927 -0.44040075 0.2788855

parameterizer.cl_layers.0.weight f4 [10, 1, 5, 5]
000000 19 e1 ce 3d 09 66 ed bb 5d 22 9d 3d 72 c2 13 3e
       0.10101528 -0.0072448296 0.0767257 0.14429644
000010 0a c5 cf 3d 57 5a 66 bc cc 39 42 3e 02 88 de bd
       0.10145004 -0.014059625 0.1896736 -0.10865785
000020 4a 95 de bd 08 b6 a9 bd fd ca 60 3d 14 ec 0c 3e
       -0.108683184 -0.08286673 0.054881085 0.13761932
000030 69 8e c5 3d 38 4f 74 3e 93 b0 35 3e e6 92 67 be
       0.09646303 0.23858345 0.17743139 -0.22614631
000040 ec 96 b7 bd c6 79 f7 bd 4a 17 b0 bd f3 17 4d be
       -0.08964333 -0.12083773 -0.08598192 -0.20028667
000050 3b 97 a7 bc d8 06 79 be 32 79 66 be a6 46 20 be
       -0.020457854 -0.24319017 -0.2250717 -0.1565195
000060 af b9 50 be d9 43 22 be d4 f9 7f bd b9 81 1c 3e
       -0.20383333 -0.15846194 -0.062494114 0.1528386
000070 65 fe 0a bd 02 f0 f7 bc bf a8 59 be 5b 79 14 be
       -0.033934016 -0.030265812 -0.21255778 -0.14499418
000080 71 95 93 bb e7 cc 9d bb c8 a8 98 bd 03 4c ff bd
       -0.004503899 -0.004815686 -0.074540675 -0.1246567
000090 ac d5 25 3d 54 56 0d be bd 9a 4f 3c a9 23 f6 bd
       0.040486977 -0.13802463 0.01267117 -0.120185204
0000a0 44 79 2d 3e 4c 67 72 bd 85 9a 5e 3b 54 5a 3b be
       0.1694079 -0.059180543 0.0033966613 -0.18296176
0000b0 81 8e ec bd 24 ea 63 3e a9 1b 94 3d 55 39 0d be
       -0.11550618 0.22257286 0.07231838 -0.13791402
0000c0 5e ed 28 3e 1b f4 2d be ad a4 fa bd 4c 86 16 3d
       0.16496798 -0.1698765 -0.12238441 0.03674917
0000d0 07 f3 85 3d f0 57 91 3d 66 fa 84 3d 01 1b 09 3d
       0.065404944 0.07096851 0.06493072 0.03347302
0000e0 04 d4 90 bd 77 50 24 3e 0a 2e e0 3d f9 d8 0a 3e
       -0.07071689 0.1604632 0.10946281 0.13559331
0000f0 53 72 e3 3d a2 50 e0 3c 4f 7a 9c bc 06 df 01 3e
       0.1110579 0.027382199 -0.01910129 0.12682733
000100 66 24 8e 3d c1 31 c2 bd f7 4e be bd 3c 2e 28 3e
       0.06940536 -0.09482146 -0.09292405 0.16423887
000110 2a 3d 86 bc 14 bd ed 3d df b5 8d 3d bf 1e 0d be
       -0.016386587 0.116083294 0.06919455 -0.1378126
000120 ea 50 ef bc 86 4f 8b bd 91 48 48 3e 49 3f 90 bd
       -0.029213388 -0.06802277 0.19558932 -0.07043321
000130 53 06 5e 3e 6d a0 1e 3e f8 53 16 3e c3 67 22 3e
       0.216821 0.15490885 0.14680469 0.15859894
000140 09 39 0a 3e c4 8c cb 3a 35 10 eb 3d 3b d9 15 3e
       0.1349832 0.0015529622 0.114777006 0.14633648
000150 4c 69 d7 3d 72 0b e8 bc 9e 28 15 be 93 4f 22 be
       0.10518131 -0.02832577 -0.14566275 -0.15850668
000160 c0 d9 ea bd 40 51 31 be 67 24 08 3e b7 b6 25 be
       -0.11467314 -0.1731615 0.13295136 -0.16182981
000170 8b a2 08 3e 96 43 73 bd 31 32 af 3d 53 c5 58 be
       0.13343255 -0.059390627 0.08554495 -0.21169023
000180 20 e3 31 be 63 ca 94 3d c3 a0 54 be cc f3 ec 3d
       -0.17371798 0.07265165 -0.2076445 0.11569938
000190 1c f5 b9 3d 2f a1 2a 3e f9 f0 41 be 5f a5 99 bd
       0.09079954 0.16663049 -0.1893958 -0.07502245
0001a0 a3 4e 33 be 71 80 a3 bd ae f7 bb 3d bf 24 69 be
       -0.17510466 -0.07983483 0.091781005 -0.22767924
0001b0 cc 64 34 be 27 70 4f bd db bb 1c 3d 32 18 f5 bc
       -0.17616576 -0.050644066 0.03826509 -0.029918764
0001c0 c0 7b 0d be 44 83 a4 3d fe 3a ae 3d 60 9b e6 3d
       -0.13816738 0.080328494 0.085073456 0.11260104
0001d0 95 ee da bd 4b 4c f6 bd cc 24 13 bd 8c 27 54 bd
       -0.10690037 -0.120262705 -0.035923764 -0.051795527
0001e0 37 ba 3a bd 50 a1 61 be 24 35 44 be 78 09 22 3e
       -0.045587745 -0.22034192 -0.19160897 0.15823925
0001f0 f8 27 d3 bc b8 41 53 be bc 96 d2 bd b5 e1 0c 3e
       -0.025775895 -0.20630538 -0.102826566 0.13757975
000200 95 b7 9c bd 06 4b ba bd 1e 70 97 3d 59 a3 34 be
       -0.07652203 -0.09096341 0.073944315 -0.17640437
000210 37 41 2e be 17 35 d6 3d 48 76 3a 3e 49 c7 0b 3e
       -0.17017065 0.10459345 0.18209183 0.1365024
000220 cc ad 2d be 2f 5b 0b 3e a0 63 c4 3d aa fc 04 bd
       -0.1696083 0.13609003 0.095893145 -0.03246752
000230 da 66 e3 3d 1b 2a 47 be 8d 9f 07 3e 48 9b 12 3e
       0.11103602 -0.19449656 0.13244458 0.14317048
000240 56 21 99 bc 1c 1b 51 be 44 d3 cc 3d 1a 4f a7 bd
       -0.018692654 -0.20420498 0.10001233 -0.08169384
000250 d6 8e 58 3e 39 45 b8 3d ed da a5 3c 60 62 c6 bd
       0.21148238 0.08997578 0.020245994 -0.09686732
000260 b7 c0 94 3d fe cb 10 3e f6 9d 35 be 26 b5 81 bd
       0.0726332 0.14140317 -0.17736039 -0.063333794
000270 cb 99 0f be a5 8e 16 3e 08 50 07 3e 0b 68 68 3c
       -0.14023511 0.14702852 0.13214123 0.014184962
000280 70 c1 1c 3d 18 10 9d bd 17 98 2c 3e ab 0b 0c be
       0.038270414 -0.07669085 0.16854893 -0.13676326
000290 25 ba 1c be 37 87 70 3d 04 bd 2d 3e 0b e4 5f bd
       -0.15305384 0.0587227 0.16966635 -0.054660838
0002a0 a8 3a 42 3e 9e f9 27 be 81 79 25 be 2e f9 02 be
       0.18967688 -0.16403815 -0.16159631 -0.12790367
0002b0 fc 49 c5 bd 98 bd 24 3e 4f 08 cf 3a 0a cb 56 3e
       -0.09633252 0.1608795 0.0015795323 0.20975891
0002c0 74 ec 3f be 68 c7 42 be 6e 5f 2a be 6f f9 69 3e
       -0.18742543 -0.1902138 -0.16637966 0.22849058
0002d0 b8 8d 32 3e 0e 09 27 be 87 80 07 bd 20 2c 83 bd
       0.17436874 -0.16312048 -0.033081558 -0.064049006
0002e0 32 57 1e 3e fe 94 85 3d 6a 5f f3 3d 49 99 58 be
       0.1546295 0.06522559 0.11883433 -0.21152224
0002f0 fe f0 35 be ea e6 1d 3d 9f d3 4f 3d cf 00 48 be
       -0.17767712 0.038550295 0.050738927 -0.19531558
000300 ee 1e c0 3d ca e7 35 be 2c 3b 59 3e 2e 65 b2 bd
       0.09380899 -0.17764202 0.21213979 -0.08710705
000310 85 4e 38 be 73 22 63 3d 5a e8 25 be 39 d0 38 be
       -0.17998703 0.055452775 -0.16201916 -0.1804818
000320 7a 07 33 bd e4 c7 62 be a9 d6 3e be 7e e8 12 3e
       -0.043708302 -0.22146565 -0.18636574 0.14346501
000330 13 34 93 bd 96 5b 28 3e 69 97 f6 3d b9 84 00 3e
       -0.07187667 0.16441187 0.12040598 0.1255063
000340 74 88 67 bd 7e 31 06 3e 2f 9b 6b 3d a3 0f 0f 3e
       -0.056526616 0.13104817 0.05752104 0.13970809
000350 1f 86 f8 bb d5 9d ac 3c db 3d 2a bd af 91 3c be
       -0.007584348 0.021071354 -0.041562896 -0.18414949
000360 65 a5 04 3e 37 64 be 3d c0 20 2e be 75 f4 24 be
       0.12953718 0.09296458 -0.1700468 -0.16108878
000370 a4 68 40 bd 3d 2b 69 be da 57 1e 3e 39 1f 07 be
       -0.046974793 -0.227704 0.154632 -0.13195504
000380 ea 19 4c 3e 9f 6b a2 3c 6a 44 35 be 88 d2 0b be
       0.1993176 0.019826708 -0.17701879 -0.1365453
000390 5d dc e1 bd 8d 13 41 3e d7 33 83 bc 84 21 1d 3e
       -0.11028359 0.18855114 -0.01601593 0.15344816
0003a0 2d 7b 19 3e f8 77 da 3c 54 f3 c6 3d f3 96 e0 3d
       0.14988394 0.026668534 0.0971438 0.10966291
0003b0 35 ef d9 3d 2a 9d 45 3e 6a d5 38 3d 53 7c b5 bd
       0.10641328 0.19298235 0.045125403 -0.088616036
0003c0 eb fe 09 3d 31 13 38 3d 39 4b db 3c 17 aa 67 3d
       0.033690374 0.044940177 0.026769267 0.056558695
0003d0 d8 ad f4 bd 0f 5d ad 3c 91 77 c1 bb 5f a4 57 bd
       -0.119472206 0.021162538 -0.005904146 -0.05264699
0003e0 35 ca 8b bc 49 04 ff 3d
       -0.017064193 0.12451989

parameterizer.cl_layers.0.bias f4 [10]
000000 8a bd 41 3e da 0f 4b 3e 80 43 2e be 71 ec 2c bc
       0.1891996 0.19830266 -0.17017937 -0.010554419
000010 9c 34 94 3d 55 6d a1 3d 6a ce 1b be 54 52 e0 bd
       0.07236597 0.078821816 -0.1521546 -0.10953203
000020 f9 21 ab bd 83 2d 27 bd
       -0.08356089 -0.040814888

parameterizer.cl_layers.3.weight f4 [20, 10, 5, 5]
000000 c0 9b 85 b9 7b 1b 1d bd f4 df f8 bc b7 8e 92 bd
       -0.0002548378 -0.038356286 -0.030380227 -0.07156127
000010 aa 8f 87 3b f6 6b 06 3d 8d de d1 3c fa 79 18 bd
       0.004136999 0.032817803 0.025618816 -0.0372257
000020 bc c0 0f 3c 17 56 82 bd 92 04 45 bd 71 bc 82 3c
       0.008773979 -0.063640766 -0.04810006 0.015958996
000030 b5 5c c5 bc 95 f7 8f bd 65 34 fc bc ac e1 28 3d
       -0.024092058 -0.070296444 -0.030786702 0.041230842
000040 93 8a 2c 3d c6 6b 14 bd cc e6 0f bd 7f cf 12 3d
       0.042124342 -0.036235593 -0.035132214 0.035842415
000050 8a 11 e3 bc 28 0d b0 3c 0b d1 60 3c a6 6c 23 b9
       -0.027718324 0.021490648 0.013721715 -0.00015585366
000060 08 49 36 bd 93 de 1d 3d 5e 33 79 3d 25 9f 33 bd
       -0.04450324 0.03854234 0.060840003 -0.043852944
000070 1c 10 0d bd 34 8e 1d bc 3e 8a 22 bd de e7 0f bc
       -0.03443919 -0.009616423 -0.03968262 -0.008783309
000080 63 40 b9 bc c5 11 af bc 53 55 5c 3d bd 1b b5 bc
       -0.02261371 -0.021370778 0.05379231 -0.022107953
000090 7d 46 a3 bb 19 72 5c 3d 58 90 13 3d 1c c9 26 3d
       -0.004982768 0.05381975 0.03602633 0.040719137
0000a0 87 ec 35 bc a9 2e 4a 3d 51 48 9b bc 98 a4 32 bd
       -0.011103756 0.049360905 -0.018955382 -0.043614
0000b0 fe 33 7e bd 4a c6 9a 3c cc 5b 07 3d 98 52 f0 39
       -0.062061302 0.01889338 0.03304653 0.00045837904
0000c0 30 8f 19 3d 6c 2a 98 bc 74 99 d4 3c c9 22 5d bd
       0.03749007 -0.018574916 0.025952078 -0.05398825
0000d0 27 44 26 3c b0 78 a1 bc b5 9c 3a 3d 2c c9 01 bd
       0.010148085 -0.019710869 0.045559604 -0.031685993
0000e0 e0 b4 94 bd 5f 48 e6 3c 56 7a 07 bd 3a d9 b3 bc
       -0.07261062 0.028110681 -0.033075653 -0.021954168
0000f0 b1 ab 75 3c 65 9a f1 3c 17 cc d6 bc 9c 7e f3 bc
       0.014994548 0.029492566 -0.026220364 -0.029723458
000100 37 df 50 3c 89 10 0f 3b 29 44 8a 3d 21 5e 54 ba
       0.012748531 0.0021829924 0.06751282 -0.00081011845
000110 77 67 cd 3c 39 8f 3e bd ef 4d 77 bd 06 40 17 bd
       0.02507375 -0.046523307 -0.060377058 -0.036926292
000120 e2 39 35 3d 60 83 70 3c 52 30 22 3d 0a 50 43 bc
       0.044244654 0.01467976 0.039596863 -0.011920938
000130 ef d6 0d bd 9f 1a c3 bc 35 73 ab 3c 0c 57 f2 3c
       -0.034628805 -0.023816405 0.020928958 0.029582523
000140 ff 74 bf bc f7 75 d2 3c df 4c b7 bb 10 e9 88 3d
       -0.023371218 0.025691016 -0.0055938805 0.06685078
000150 69 a2 8c bd 81 75 df 3c fe 6c 51 bc dd dd 4e bd
       -0.06866915 0.02727771 -0.012782333 -0.050504554
000160 dd ba 93 bd 46 04 72 3c 5d e2 06 39 37 b2 93 3d
       -0.07213376 0.014771527 0.00012863563 0.07211726
000170 40 7d 85 3d 96 2b 17 bc a1 40 22 bc b7 c5 5f 3d
       0.0651803 -0.0092267 -0.009903104 0.054631915
000180 21 f1 07 3c 46 d9 c3 3b c4 47 ca 3c 11 b6 83 bd
       0.008297236 0.0059768287 0.024692424 -0.06431211
000190 84 95 2e 3d 60 9a 27 bd 87 c2 0e bd 08 fb 29 3d
       0.042623058 -0.040918708 -0.034853484 0.041499168
0001a0 bd 80 1c bd a7 f8 0e 3d 22 58 4d bd e6 3c 46 bd
       -0.038208712 0.034905102 -0.050132878 -0.04839792
0001b0 bb 3a 7f bd c1 90 17 3d d3 e2 a2 bb 38 ea d9 bc
       -0.06231187 0.037003282 -0.004970887 -0.026600942
0001c0 62 9b 69 3d fd c5 39 bd 9a 99 44 3d 07 c3 2e bd
       0.05703295 -0.045354832 0.04799805 -0.04266646
0001d0 2d 58 de 3c 1d 36 11 bd 98 a0 fa 3c 9a 46 48 bd
       0.027141655 -0.035451997 0.030594155 -0.048895456
0001e0 a2 3d 2a 3d dd db 8c 3c b5 6c 10 bc 64 a0 22 bd
       0.041562684 0.017194683 -0.00881498 -0.03970374
0001f0 e7 b8 cc 3c 39 bd a2 bc b4 d4 a2 3c ff 32 20 bd
       0.024990512 -0.019865619 0.019876815 -0.039111134
000200 c4 93 05 3d 67 6c 38 3d 72 7e 44 3c b3 a7 f2 3c
       0.032611623 0.045025256 0.011993038 0.02962098
000210 be 9e 12 3d ca 9e fd 3c d2 85 87 bc cb 2d 33 bc
       0.03579592 0.030959506 -0.016543303 -0.010936211
000220 c5 f6 99 3c 47 b7 95 3c 96 c6 99 3c bf 05 31 3c
       0.018794427 0.01827587 0.018771451 0.010804593
000230 23 ea 27 3b 0f 88 d6 bc 3f 20 56 3d 11 d4 8d 3d
       0.0025621734 -0.026187925 0.052276846 0.06925214
000240 6b e4 42 bd 7f a9 23 bd 98 59 75 bd f0 10 bc 3a
       -0.047581118 -0.039956566 -0.059899896 0.001434831
000250 1f e1 58 bd b5 be d5 bb b1 f0 00 3d 7d e5 63 3d
       -0.052949067 -0.006522978 0.03147954 0.05563878
000260 4f ce c3 3c 17 12 bd bc 34 f2 11 3c 0f 5f 10 3c
       0.023902087 -0.023079915 0.008907843 0.008811726
000270 f1 b2 5c bb bf 9b f2 bc 46 bb 4a bd a9 fc ac bc
       -0.0033675993 -0.029615281 -0.049495004 -0.021116572
000280 eb 9f 84 3c 56 f1 03 bd c2 6f 55 bc 53 a6 2e 3d
       0.016189536 -0.032212578 -0.013027133 0.042639088
000290 79 9a 91 3c 3c 8b 09 3c aa 3a ea 3c 62 15 8c 3b
       0.017773854 0.0083950125 0.028592426 0.00427501
0002a0 79 57 34 bc 1b 57 1f 3d bc 77 d4 3c 41 c1 69 bd
       -0.011007183 0.03890143 0.025936 -0.057069067
0002b0 41 ee 32 3d c3 8e 8a bc 86 6f a4 bc 7c 3b 91 3a
       0.043684248 -0.016913777 -0.02007271 0.001108035
0002c0 ab 97 b2 3d 27 07 a8 bb cf 70 6b bd 06 08 ad bc
       0.087203346 -0.0051278058 -0.05748063 -0.02112199
0002d0 d0 03 bb bc 10 17 09 3d fc f5 d2 3c ab 45 31 3b
       -0.022828966 0.03346926 0.02575206 0.0027049582
0002e0 58 03 53 bc a5 d8 8d bd 62 30 e6 bc 5d f8 e9 bc
       -0.012879215 -0.06926087 -0.028099243 -0.028560812
0002f0 bb 27 15 3d 60 b8 97 bc a8 ad 1e bc ba bd 2d bd
       0.036414843 -0.018520534 -0.009684958 -0.042417265
000300 a5 7d ea bb 0f 9a ce ba e7 24 8d 3d fe f3 ba bc
       -0.0071560913 -0.0015762466 0.06891804 -0.022821423
000310 8b 86 ce bc 74 f3 8a bc ee 19 2e bc e0 b0 bc bd
       -0.02521064 -0.01696179 -0.010626299 -0.09213424
000320 42 a4 92 3c 81 c7 eb 3c 9f 76 1d bc 30 c2 a8 3d
       0.01790059 0.028781654 -0.009610801 0.08240163
000330 aa 80 4f bd 54 ad 28 bb 92 d2 87 3d d7 52 4f 3c
       -0.050659813 -0.0025738077 0.0663196 0.012654028
000340 0f 47 28 3d 8b e5 f0 3c f2 8c 42 bd 3a 41 80 bc
       0.04108339 0.02940633 -0.047497697 -0.015656102
000350 45 41 b9 3c b0 92 1a 3b ca 9f 56 39 b9 f0 65 3d
       0.02261413 0.0023585968 0.00020468156 0.056137774
000360 8d 50 ce bc 4f ff 42 3d 1a f2 62 bb fe 7a e4 bc
       -0.025184894 0.047606762 -0.0034629167 -0.027890678
000370 03 5a a4 bc f3 d5 25 3d 0e 9d 00 bd 8a db 46 3c
       -0.020062452 0.04048724 -0.03139978 0.012137303
000380 50 60 1f bc 05 42 ac 3c 41 7d 2b 3d b6 54 53 bd
       -0.0097275525 0.021027574 0.0418675 -0.05159446
000390 3c 35 3e bd 8e e0 bc bc 83 63 3a ba 3d ae 60 3d
       -0.046437487 -0.023056295 -0.00071101653 0.054853667
0003a0 41 c5 5d bc 51 9f f8 bc 77 0b 76 3d 40 fd ef bc
       -0.0135357985 -0.030349405 0.060069527 -0.029295564
0003b0 f8 d7 e2 3b a4 06 12 bc 7d 37 5e bb ec bb 7b 3d
       0.006922718 -0.008912716 -0.0033907585 0.061458513
0003c0 2b d8 7f 3d 74 46 25 3d 6d 4d 6b 3c 62 55 7e 3c
       0.062462013 0.040350392 0.014361721 0.015523287
0003d0 f5 e9 a0 3c 61 14 9d bc a9 66 60 bb 0c 62 c4 3c
       0.01964281 -0.019174756 -0.0034240878 0.023972534
0003e0 cf 62 8f 3c c8 09 55 bd 24 73 40 bc 2e 2d 27 ba
       0.01750317 -0.05201128 -0.011746202 -0.0006377277
0003f0 df dc 95 3d 2e 1f 45 ba 1a 5d 82 3d 66 52 8a 3b
       0.073175184 -0.00075196 0.06365414 0.0042212484

parameterizer.cl_layers.3.bias f4 [20]
000000 0f 1d 5c 3d 21 c1 db bc f5 35 4b bc b4 2a 52 3d
       0.05373865 -0.02682549 -0.012403001 0.051310256
000010 75 9c aa bc 6d 39 c1 3c 75 9f 58 3d fb 34 43 bd
       -0.020826558 0.023586953 0.052886445 -0.047657948
000020 77 a3 b3 3c 9b 44 d5 bc c2 23 52 3d 3d 68 61 bc
       0.021928532 -0.02603369 0.051303633 -0.0137577625
000030 7d 3b 1a bb 48 74 47 bb 23 11 8c bd 89 f4 50 3c
       -0.0023533993 -0.00304343 -0.06839206 0.012753614
000040 da 9f d0 3b 1d 38 07 bc 7c 51 f1 bc 3f d2 f7 bc
       0.006366712 -0.008253125 -0.0294578 -0.03025162
