results/OUR_MODEL/checkpoints/Epoch[16]-Step[4590].pt (torch, 374454 bytes, 66 tensors)

conceptizer.encoder.0.0.weight f4 [10, 1, 5, 5]
0	0xbe3ecf0e	-0.18633673
1	0x3e02c89e	0.12771842
2	0x3e101e7f	0.14074133
3	0x3d8d0481	0.06885625
4	0x3de5a8fb	0.11213871
5	0xbdc5356e	-0.096293315
6	0xbdb639cf	-0.08897745
7	0xbd49d556	-0.04927572
8	0x3e0339e1	0.12815048
9	0xbd1c680e	-0.03818517
10	0x3dfa5a7a	0.12224288
11	0x3d7b6e51	0.061384503
12	0xbe6da825	-0.23208673
13	0x3dd74d99	0.105128475
14	0x3a8a8544	0.0010568281
15	0x3e37eb37	0.17960821
16	0x3d8ef160	0.069796324
17	0x3deb2640	0.11481905
18	0x3dbe3354	0.09287134
19	0x3d10a756	0.035315834
20	0x3e413f0e	0.1887171
21	0xbd1e28cb	-0.038613122
22	0xbd88d74b	-0.06681689
23	0xbd52d2ed	-0.051470686
24	0x3e39d98e	0.18149397
25	0xbd5e44d6	-0.054264866
26	0x3e2eb529	0.17061295
27	0xbde21c97	-0.11040609
28	0xbdf00393	-0.11719432
29	0xbde38120	-0.11108613
30	0x3d30769d	0.04308187
31	0xbc75dd81	-0.015006424
32	0xbe32544c	-0.17414969
33	0xbca437c4	-0.020046122
34	0xbe1fb0c3	-0.15594773
35	0x3e166347	0.14686309
36	0xbdbc930e	-0.09207736
37	0xbd5d12a3	-0.05397285
38	0xbe41f9c4	-0.18942934
39	0xbe090faf	-0.13384889
40	0xbe137908	-0.14401639
41	0x3b3b0768	0.002853835
42	0xbd43a1e7	-0.047761824
43	0x3d10b41e	0.035328023
44	0x3c017bb9	0.007903033
45	0x3d894ae2	0.06703736
46	0x3d314634	0.04327984
47	0xbdc3e9d8	-0.095660865
48	0xbe4e3263	-0.20136409
49	0xbb02fa80	-0.0019985735
50	0xbd7d91fa	-0.061906792
51	0xbe4a0712	-0.1972926
52	0x3d928b6d	0.071554996
53	0xbd80d560	-0.06290698
54	0xbdb8e3a7	-0.09027796
55	0xbe200ea2	-0.15630582
56	0xbe47e36a	-0.19520345
57	0xbd53cd53	-0.051709484
58	0xbe6226c9	-0.22085108
59	0xbe003251	-0.12519194
60	0xbe867f3d	-0.2626895
61	0x3dbdc71d	0.092664935
62	0xbdf25c98	-0.11834067
63	0xbe63cb44	-0.22245508
64	0xbd3003f9	-0.04297254
65	0xbe1389f4	-0.14408094
66	0xbd962ef6	-0.07333176
67	0xbe7a9ef7	-0.24474703
68	0xbe05c2ca	-0.13062587
69	0xbe3063ac	-0.17225522
70	0x3cd50759	0.02600448
71	0xbd4f4872	-0.0506062
72	0xbaa4afd0	-0.0012564603
73	0xbd43909d	-0.047745336
74	0xbe35771e	-0.17721221
75	0xbdc5b514	-0.096536785
76	0xbcee5fa4	-0.02909834
77	0x3d76f790	0.060294688
78	0xbca73dc3	-0.020415192
79	0xbc42ef81	-0.0118979225
80	0xbe02b351	-0.12763716
81	0xbcdc9cec	-0.026930295
82	0xbdbcec19	-0.092247196
83	0x386f7c01	5.7097528e-05
84	0x3e02f741	0.12789632
85	0xbe59a168	-0.21252978
86	0xbe4f169f	-0.20223473
87	0x3d3528ad	0.044228245
88	0xbe276568	-0.16347277
89	0x3c4da1af	0.012550755
90	0xbda44eb2	-0.080228224
91	0xbe0f685e	-0.14004657
92	0xbc9cce74	-0.019141413
93	0xbdd0ced0	-0.10195696
94	0x3b5d3b5e	0.003375731
95	0xbda21d14	-0.079157025
96	0xbd58581c	-0.052818403
97	0xbe5f4660	-0.2180419
98	0xbd53305f	-0.051559802
99	0x3e28dfe2	0.16491655
100	0x3e052dd2	0.1300576
101	0xbdf6dc28	-0.1205371
102	0x3da00574	0.0781354
103	0x3d6e0e66	0.0581192
104	0x3e094d11	0.13408305
105	0x3df47c29	0.11937744
106	0xbe253439	-0.16133203
107	0xbcfc1164	-0.030770011
108	0x3d506bfa	0.050884224
109	0xbe77f575	-0.24214728
110	0x3dba4329	0.09094841
111	0x3cc7c2a0	0.024384797
112	0xbe4a5b70	-0.19761443
113	0xbe703043	-0.2345591
114	0xbddb4408	-0.10706335
115	0x3c1da2a5	0.009621297
116	0xbde51309	-0.11185271
117	0x3db05a12	0.086109295
118	0xbe419762	-0.18905404
119	0x3c36ecbe	0.011164842
120	0x3d4a6dce	0.049421124
121	0x3e196934	0.14981538
122	0xbd654243	-0.055971395
123	0xbe180013	-0.14843778
124	0x3cb94813	0.022617375
125	0x3c34d0a8	0.011036076
126	0x3dc9e1f7	0.098575525
127	0x3d2c1c11	0.042018954
128	0x3de46a2f	0.111530654
129	0x3dde2e9f	0.10848736
130	0xbd8b40a2	-0.06799437
131	0xbdfa20e1	-0.122133024
132	0x3df35f8f	0.11883461
133	0x3e0b4aa9	0.136027
134	0x3d3a7bac	0.0455281
135	0x3e4bcd0a	0.19902435
136	0x3d66c394	0.05633886
137	0x3d743031	0.05961627
138	0xbda10a5a	-0.078633025
139	0xbdc33c1d	-0.0953295
140	0xbda5a796	-0.08088605
141	0x3e0fef78	0.14056194
142	0x3e13cfb7	0.14434706
143	0xbb10d5b0	-0.0022100024
144	0xbe2dc045	-0.16967876
145	0x3dfd9565	0.1238201
146	0x3e3a6d55	0.1820577
147	0x3d986d2c	0.07442698
148	0xbddc70d1	-0.107637055
149	0x3b1af692	0.0023645503
150	0x3e194edc	0.14971489
151	0xbe30359c	-0.1720795
152	0x3d948c0e	0.07253276
153	0x3e23e57a	0.16005507
154	0x3d78ac80	0.060711384
155	0xbd9045a0	-0.0704453
156	0x3e32c644	0.17458445
157	0x3c5b9337	0.013401798
158	0x3e54a600	0.20766449
159	0x3e6c8832	0.2309883
160	0xbdd13c54	-0.10216585
161	0xbcca9e1a	-0.024733592
162	0xbd121c01	-0.035671238
163	0xbd14c00a	-0.036315955
164	0xbd9514bc	-0.072793454
165	0xbe2835b0	-0.1642673
166	0x3e0553be	0.13020226
167	0x3d1b6c2c	0.037944958
168	0xbe0a0ab3	-0.13480644
169	0xbe3b38cd	-0.18283387
170	0xbe10578a	-0.14095894
171	0x3b852b09	0.004063968
172	0xbe7b3a18	-0.2453388
173	0xbd384a11	-0.04499251
174	0x3be966af	0.0071228365
175	0xbcfb4ca9	-0.030676203
176	0xbc661813	-0.014043826
177	0xbe3c461e	-0.18386123
178	0xbe2f4492	-0.17116001
179	0x3e227cda	0.1586794
180	0xbc5ae47a	-0.013360137
181	0xbdde5b7e	-0.108572945
182	0x3d540740	0.051764727
183	0x3d0582fd	0.032595623
184	0xbd8eeb3c	-0.06978461
185	0x3e5a072c	0.21291798
186	0x3c1a2c19	0.009409928
187	0x3df4de17	0.11956423
188	0x3e3a8dbe	0.18218133
189	0x3d82249c	0.06354639
190	0x3e74631c	0.23865932
191	0xbd96c3d6	-0.073615715
192	0x3d80b659	0.0628478
193	0xbb425be4	-0.0029656822
194	0xbc687e29	-0.014190235
195	0x3cd70178	0.026245818
196	0x3e1bcaa2	0.15214017
197	0xbe1e1b90	-0.15440202
198	0x3cd88547	0.02643074
199	0x3db7155b	0.0893962
200	0x3df491c8	0.11941868
201	0x3c8d06eb	0.017215213
202	0x3da21574	0.07914248
203	0x3d606a8a	0.054789104
204	0x3b5e36a4	0.003390708
205	0x3de751ab	0.11294874
206	0x3dc3af51	0.09554923
207	0xbde1514e	-0.11001836
208	0xbe0a57b4	-0.13510019
209	0x3e77c972	0.24197939
210	0x3e29d00a	0.16583267
211	0xbdc6f19e	-0.097140536
212	0xbda66c98	-0.08126181
213	0xbe196a9d	-0.14982076
214	0xbdf8b620	-0.121441126
215	0x3d600fd8	0.05470261
216	0x3ce148e5	0.02750058
217	0x3df4a340	0.119452
218	0xbe486906	-0.19571313
219	0x3d9b797d	0.075915314
220	0xbe558d32	-0.20854643
221	0x3df4ed10	0.119592786
222	0x3b0c246c	0.0021384014
223	0xbd3cc3a6	-0.046085022
224	0x3e4a55ba	0.19759265
225	0xbca478f6	-0.02007721
226	0x3dd50892	0.10402025
227	0x3dcd26e9	0.10017187
228	0x3dcc24e4	0.09967974
229	0x3cfc4a4a	0.030797143
230	0xbd44c57e	-0.048039906
231	0x3c4680c7	0.012115664
232	0x3e1f9119	0.15582694
233	0xbd08386f	-0.033256944
234	0x3de0e3a1	0.10980917
235	0x3e1cf727	0.15328656
236	0x3e0cd503	0.13753133
237	0x3e313601	0.17305757
238	0xbdd5f2e3	-0.104467176
239	0x3dda2d18	0.10653132
240	0x3b8a2fb2	0.0042171115
241	0x3df92df4	0.12166968
242	0xbd6eaba3	-0.058269154
243	0xbded9ebd	-0.116025425
244	0x3dc4c82a	0.09608491
245	0xbcfeef0c	-0.031119846
246	0xbc14663a	-0.009057576
247	0x3e3aefbf	0.18255518
248	0x3e4f83e7	0.2026516
249	0x3da94f03	0.082670234

conceptizer.encoder.0.0.bias f4 [10]
0	0x3d7c5b68	0.06161061
1	0x3e23a685	0.15981491
2	0x3e7885e4	0.24269825
3	0xbcf358e9	-0.029705482
4	0x3e5b56a3	0.21419768
5	0x3dc8b69f	0.09800457
6	0xbd051617	-0.03249177
7	0xbcc0d604	-0.02353955
8	0x3e172618	0.14760625
9	0x3e1a3a64	0.15061337

conceptizer.encoder.1.0.weight f4 [5, 10, 5, 5]
0	0x3cee4579	0.029085862
1	0x3c4bb607	0.012433535
2	0x3c998f95	0.018745223
3	0x3d07b339	0.033129904
4	0xbd7d8eac	-0.06190364
5	0x3d1cd345	0.03828742
6	0x3d118e0c	0.035535857
7	0x3cf1468c	0.029452585
8	0xbd0bebfd	-0.034160603
9	0x3d9d6c3b	0.07686659
10	0xbc8ec85e	-0.017429527
11	0x3d814d0e	0.06313525
12	0xbd05cbc0	-0.032665014
13	0x3c6aa555	0.014321645
14	0xbd21247b	-0.03934143
15	0x3cfc0f20	0.03076893
16	0x3cd84031	0.026397796
17	0x3d148895	0.036263067
18	0xbc2fec9e	-0.010737566
19	0x3cc02c57	0.023458643
20	0xbb6363bb	-0.0034696895
21	0xbd449a70	-0.047998846
22	0x3c44af0f	0.012004628
23	0x3c3b1ba7	0.011420167
24	0x3c884b88	0.016637579
25	0x3d4eb513	0.050465655
26	0x3d1b3a60	0.037897468
27	0x3ccb8e78	0.024848208
28	0xbb2be764	-0.002623045
29	0xbbb7bb29	-0.005607028
30	0x3d460528	0.04834476
31	0xbbc57242	-0.0060255835
32	0xbd783acd	-0.06060295
33	0x3c466335	0.012108614
34	0x3b999f3b	0.004688171
35	0x3d3566e4	0.044287577
36	0xbc8e1232	-0.01734266
37	0x3c98efb1	0.018668981
38	0xbcbf64e2	-0.023363534
39	0xbd21f377	-0.039538827
40	0xbd109ff1	-0.035308782
41	0xbcc0474d	-0.023471499
42	0xbd1f8b0e	-0.038950972
43	0x3d717885	0.058952827
44	0x3d27a5eb	0.040929716
45	0x3ca79019	0.020454453
46	0x3d9ac114	0.07556358
47	0xbca8bd5c	-0.020598106
48	0xbcd76926	-0.026295256
49	0xbd00aa45	-0.03141238
50	0xbd53b1d3	-0.05168326
51	0xbcd833b1	-0.026391836
52	0xbbff8242	-0.0077975104
53	0xbcbc6e24	-0.023001738
54	0xbb41c3c6	-0.0029566153
55	0xbdb2daa7	-0.08733111
56	0xbd1bba79	-0.03801963
57	0x3c91cd72	0.01779816
58	0xbd18ca89	-0.037302528
59	0x3d94dfe5	0.07269267
60	0x3d2317ab	0.039817493
61	0x3cff6643	0.031176692
62	0x3c490a3b	0.012270506
63	0xbaf8fd35	-0.001899636
64	0xbc453f61	-0.0120390365
65	0x3d475d57	0.048673
66	0x3afca7a7	0.0019276039
67	0xbc6b7e2c	-0.014373343
68	0x3d218b8c	0.039439723
69	0xbd0768cb	-0.033058923
70	0x3db25532	0.08707656
71	0x3c951338	0.01819764
72	0x3d835ce6	0.06414203
73	0x3d6e3674	0.0581574
74	0x3c8a3ee0	0.016875684
75	0xbcfb95b2	-0.030711029
76	0xbd8a455a	-0.06751509
77	0xbd00a459	-0.031406734
78	0x3b8512a4	0.00406106
79	0x3c488c8a	0.012240538
80	0x3d52a1ce	0.05142384
81	0x3c8e01f2	0.017334912
82	0xbd590bc0	-0.05298972
83	0x3cd8edd2	0.026480589
84	0x3d0a100a	0.033706702
85	0x3d9c677c	0.076369256
86	0x3d06b125	0.032883782
87	0xbd4773c1	-0.048694376
88	0x3c7a9c69	0.01529608
89	0xbc248c3e	-0.010043202
90	0xbcbf080a	-0.023319263
91	0xbc9cd624	-0.019145079
92	0xbb2c3765	-0.0026278135
93	0x3d0bfb44	0.034175172
94	0x3cef1594	0.029185094
95	0x3be82235	0.007084156
96	0x3b0c4b56	0.0021407208
97	0x3d48e754	0.049048737
98	0x3d8ca4f4	0.068674
99	0x3d643fc7	0.055724885
100	0x3db1bee3	0.08678987
101	0x3cd1fa80	0.025632143
102	0x3a6954be	0.0008900872
103	0xbc3a2655	-0.011361678
104	0xbd5675ca	-0.052358426
105	0x3c35def2	0.011100518
106	0x3c58e7f1	0.013238893
107	0xbb00c6f7	-0.0019649842
108	0x3c926317	0.017869515
109	0x3c10f7a3	0.008848104
110	0x3da0c1fc	0.078494996
111	0xbc78adfb	-0.015178199
112	0x3d92e738	0.07173008
113	0xbcda5a37	-0.026654346
114	0xbd4ee668	-0.0505127
115	0x3b9e5df9	0.0048329798
116	0x3d7ba2ab	0.06143443
117	0x3cdee3d8	0.027208254
118	0x3c8db6ae	0.017299023
119	0x3d509794	0.050925806
120	0xbd62d6f2	-0.05538077
121	0x3b8e2b4c	0.0043386575
122	0x3d0b45fa	0.03400228
123	0x3c07495c	0.008257236
124	0x3be2e54b	0.0069243065
125	0x3d936400	0.07196808
126	0x3d8710d8	0.065950096
127	0xbd66dcce	-0.05636292
128	0xbd27bff6	-0.040954553
129	0xbc223cad	-0.009902162
130	0xbcc548a6	-0.024082493
131	0x3cfe046a	0.031007964
132	0xbc591e38	-0.013251834
133	0x3c9b4dc3	0.018957978
134	0x3cb2fc34	0.021848775
135	0xbcef86b6	-0.02923904
136	0x3cd1f4dc	0.025629453
137	0x3d5d8a63	0.054087054
138	0x3ca194d0	0.01972428
139	0x3d58a67d	0.05289315
140	0xbbf6236e	-0.0075115478
141	0xbd2959a7	-0.041345265
142	0x3cf95a2e	0.030438509
143	0xbcff0cc9	-0.031134026
144	0xbc99f89e	-0.018795308
145	0xbd4419f6	-0.04787632
146	0x3bcf44cb	0.0063253394
147	0xbd5c4b93	-0.05378301
148	0xbd48aac1	-0.04899097
149	0xbcc9fe88	-0.024657503
150	0x3d713f06	0.058897994
151	0x3d5ce608	0.053930312
152	0xbc1a6b83	-0.009425047
153	0xbd1d67fe	-0.038429253
154	0xbd79936f	-0.06093162
155	0x3d720b8d	0.059093047
156	0x3d895568	0.06705743
157	0xbc8f29ae	-0.01747593
158	0xbd4c1cb0	-0.049832046
159	0xbcdb7083	-0.026787048
160	0x3cdb2e04	0.02675534
161	0x3d0f77b6	0.035026275
162	0x3c68a55b	0.01419958
163	0xbbfde3bc	-0.0077480953
164	0x3d6bf959	0.057610843
165	0x3d89d527	0.06730109
166	0xbca0ceb8	-0.019629821
167	0xbbc1744b	-0.005903756
168	0xbb66a5e7	-0.00351941
169	0x3c852928	0.016254976
170	0x3cd40928	0.025883272
171	0x3d562e5c	0.052290305
172	0x3db33cd9	0.0875184
173	0x3d59234e	0.053012185
174	0x3d5d9238	0.054094523
175	0xbc45245a	-0.012032593
176	0xbd00bc6a	-0.031429686
177	0x3d426b56	0.047465645
178	0x3d919022	0.07107569
179	0x3d8895dc	0.066692084
180	0x3d2d3baa	0.04229323
181	0x3d7bb3ea	0.061450876
182	0xbd5ad761	-0.053428058
183	0x3b5a4a98	0.0033308621
184	0xbc9130a4	-0.017723389
185	0x3d47a946	0.048745416
186	0xbce3620a	-0.02775671
187	0xbd39a8d7	-0.045327034
188	0xbb1187f9	-0.002220629
189	0x3d838be2	0.06423165
190	0x3b515e45	0.0031947058
191	0x3d22a27a	0.03970573
192	0xbb83a698	-0.0040176623
193	0x3d568544	0.052373186
194	0x3d116f03	0.03550626
195	0x3ce57c0d	0.028013254
196	0xbc34f0ef	-0.011043771
197	0xbd104247	-0.035219457
198	0x3d7d6410	0.061863005
199	0x3d371d92	0.044705935
200	0xbce3a36a	-0.027787883
201	0x3da2ca7a	0.079487756
202	0x3c015d7b	0.007895823
203	0xbd0659c8	-0.032800466
204	0xbb8c4fa4	-0.004281955
205	0x3d332d22	0.043744214
206	0x3d8c457e	0.06849192
207	0x3d2482a1	0.04016364
208	0x3b769af7	0.0037628987
209	0x3d77701f	0.06040966
210	0x3d86d497	0.06583517
211	0xbcb47dc4	-0.022032626
212	0xbd25cbb5	-0.040477473
213	0x3c9a6743	0.018848067
214	0x3aad9fac	0.0013246438
215	0x3d036c9f	0.03208601
216	0x3d827e84	0.06371787
217	0x3d26c019	0.040710542
218	0xbc543ba8	-0.012953676
219	0x3d3fd673	0.046835374
220	0xbda929ea	-0.082599476
221	0x3d238b8b	0.039928
222	0xbcdffaaa	-0.027341206
223	0xbc17477d	-0.009233353
224	0x3d08d065	0.033401866
225	0x3d0e5f9c	0.03475915
226	0xbd3852bf	-0.045000788
227	0xbcd8a902	-0.026447777
228	0x3d46aeec	0.048506662
229	0x3cb631e6	0.02224059
230	0x3d2d1371	0.04225487
231	0x3d5fb0b3	0.054611873
232	0x3c838b8c	0.016057752
233	0xbd301272	-0.04298634
234	0x3c832ac6	0.016011607
235	0x3cd6ef6b	0.02623721
236	0x3d7c85fa	0.061651208
237	0xbd216918	-0.039406866
238	0x3cb67d1b	0.022276452
239	0xbcd9b14e	-0.026573803
240	0x3d3190c6	0.043350957
241	0xbb28dc34	-0.0025766017
242	0xbc9ccd12	-0.019140754
243	0xbd3aaca1	-0.045574788
244	0x3d3ed595	0.046590406
245	0xbce2e497	-0.02769689
246	0xbd76f6dd	-0.06029402
247	0x3c29d1db	0.010364975
248	0x3d4f5156	0.050614677
249	0xbc95b361	-0.018274011
250	0x3cc93ab6	0.024564128
251	0x3d857307	0.0651608
252	0x3d1c6c22	0.03818906
253	0x3d4756d5	0.048666794
254	0x3b63dd49	0.0034769347
255	0x3d27b0d3	0.040940117

conceptizer.encoder.1.0.bias f4 [5]
0	0xbc5bebff	-0.013422965
1	0x3cff2f1d	0.031150395
2	0x3cd6bbef	0.02621266
3	0x3bf0e5cf	0.007351614
4	0x3d7184c4	0.058964506

conceptizer.encoder.2.layers.0.weight f4 [1, 16]
0	0x3ae8c84f	0.0017759892
1	0xbdd23579	-0.10264105
2	0xbd734a09	-0.059396777
3	0xbe308789	-0.17239203
4	0x3df44ed3	0.11929097
5	0x3e1aad7b	0.1510524
6	0x3e0da2e3	0.13831668
7	0xbe055dd8	-0.1302408
8	0xbe2726a9	-0.16323341
9	0xbe4500e1	-0.19238617
10	0xbe418eb0	-0.18902087
11	0xbe620574	-0.22072393
12	0x3c5c9e18	0.013465427
13	0xbe5f251f	-0.21791504
14	0xbe52e028	-0.20593321
15	0x3db4d654	0.08829942

conceptizer.encoder.2.layers.1.weight f4 [1, 16]
0	0x3e8abb4a	0.27096015
1	0xbd934cd9	-0.07192392
2	0xbcd28504	-0.025698192
3	0xbca47df7	-0.020079596
4	0xbe23df8c	-0.16003245
5	0x3d8bd009	0.06826789
6	0xbc0d09bb	-0.008608277
7	0x3e6f357f	0.23360251
8	0xbcad6f07	-0.021171106
9	0xbdb981a4	-0.0905793
10	0x3e3355c8	0.17513192
11	0x3e181adc	0.14853996
12	0x3e0009bb	0.12503712
13	0x3d62f37a	0.05540798
14	0x3e4be4f5	0.19911559
15	0x3e9d73eb	0.307525

conceptizer.encoder.2.layers.2.weight f4 [1, 16]
0	0xbe8092dc	-0.25112045
1	0x3e451305	0.19245537
2	0x3e30f06e	0.17279217
3	0xbb854f17	-0.004068266
4	0x3dbffc8f	0.093743436
5	0xbdac30ad	-0.08407722
6	0x3df7f909	0.121080466
7	0xbe4560ad	-0.1927516
8	0xbe887fcd	-0.26660004
9	0xbe070027	-0.13183652
10	0x3d8525e2	0.06501366
11	0xbd096327	-0.033541825
12	0xbe4d8707	-0.2007104
13	0x3d2eaea5	0.042647023
14	0x3cef865d	0.029238874
15	0x3dd5816f	0.10425078

conceptizer.encoder.2.layers.3.weight f4 [1, 16]
0	0x3e44d887	0.19223224
1	0x3e1b90c8	0.15191948
2	0x3c8d4b59	0.017247843
3	0x3e7d91eb	0.24762695
4	0xbd2517d6	-0.040305935
5	0x3e00dfe3	0.12585406
6	0x3deb5727	0.11491232
7	0x3df4316a	0.119234875
8	0xbe144b9f	-0.14481972
9	0x3e3fdeb6	0.18737301
10	0xbdbde48f	-0.0927211
11	0x3da2cb6c	0.07948956
12	0x3e1a7d06	0.15086755
13	0xbe0084db	-0.1255068
14	0xbe008f9f	-0.12554787
15	0xbd906efd	-0.07052419

conceptizer.encoder.2.layers.4.weight f4 [1, 16]
0	0x3e0338c2	0.1281462
1	0xbe2639ea	-0.1623303
2	0x3be7e3dd	0.007076724
3	0xbad5e260	-0.0016318075
4	0xbe82b7c9	-0.25530842
5	0xbdb3ad7c	-0.08773324
6	0x3ddc93d6	0.10770385
7	0xbe08896b	-0.13333671
8	0xbe03f7f6	-0.12887558
9	0xbe37305d	-0.17889543
10	0xbe495aed	-0.19663592
11	0xbd74fdbc	-0.059812292
12	0x3dd18322	0.1023009
13	0x3e49a76c	0.19692773
14	0x3d734c46	0.059398912
15	0xbda8ea49	-0.08247811

conceptizer.decoder.0.0.weight f4 [5, 16, 5, 5]
0	0x3bc7a360	0.006092474
1	0xbce1e02c	-0.027572714
2	0xbcc82de9	-0.024435954
3	0x3cb9422f	0.022614567
4	0x3dab4321	0.08362413
5	0x3d991181	0.07474042
6	0x39b300b3	0.00034142061
7	0xbda16a34	-0.07881585
8	0xbdaacc33	-0.08339729
9	0x3a8b96b2	0.0010649769
10	0x3c6bece0	0.014399737
11	0x3e170884	0.14749342
12	0x3dbc44a7	0.09192782
13	0xbdf45d83	-0.119318984
14	0xbc6345c4	-0.013871614
15	0xbda10555	-0.07862345
16	0x3dc3c341	0.09558726
17	0xbd8f2307	-0.06989103
18	0xbdd1638f	-0.102240674
19	0xbcf2ed82	-0.029654268
20	0x3dd2aa8e	0.10286437
21	0x3cef58c6	0.029217135
22	0x3dbb874c	0.09156665
23	0xbe240d45	-0.16020687
24	0xbdd2c195	-0.10290829
25	0x3cae2349	0.02125706
26	0x3d4deae5	0.05027284
27	0x3d286e50	0.041120827
28	0x3c4d06e7	0.012513853
29	0xbc7826ed	-0.015145999
30	0xbcaf0fe8	-0.02136989
31	0x3d778223	0.060426842
32	0xbc8df844	-0.017330296
33	0x3cd2b655	0.025721708
34	0x3c53b304	0.012921099
35	0xbdd678c6	-0.104722545
36	0xbdba8187	-0.09106737
37	0xbc4c2177	-0.0124591505
38	0xbd1ff894	-0.039055422
39	0x3cc9b40f	0.024621991
40	0xbe29b814	-0.16574126
41	0xbd684c71	-0.056713525
42	0x3c487297	0.012234352
43	0x3d5b4508	0.05353263
44	0x3d60aea6	0.054854058
45	0xbd7f6633	-0.062353324
46	0x3c5eeb1d	0.01360586
47	0x3c3b39b3	0.011427331
48	0xbdd2ad9d	-0.1028702
49	0x3dae5280	0.085118294
50	0x3e041101	0.12897111
51	0xbdc89367	-0.0979374
52	0x3dbde558	0.092722595
53	0x3c324a39	0.010881954
54	0x3d64e42d	0.055881668
55	0xbd5bedf4	-0.053693727
56	0x3deac1a3	0.114627145
57	0x3d4b77a4	0.049674645
58	0x3da4cf64	0.08047369
59	0x3bf17cc5	0.00736961
60	0xbcf66111	-0.030075582
61	0x3e03ee29	0.1288382
62	0x3c0fa9bd	0.008768496
63	0x3b16f358	0.0023033228
64	0xbd620d9c	-0.05518876
65	0x3de0a004	0.109680206
66	0x3c3e16d5	0.011602123
67	0xbcc81c46	-0.024427544
68	0xbd0eacc0	-0.034832716
69	0xbcc5fa53	-0.024167215
70	0x3bc60b2d	0.0060438127
71	0xbc518b76	-0.012789598
72	0xbdbf442d	-0.093391754
73	0x3dc56ebf	0.09640264
74	0xbde83cd9	-0.11339731
75	0xbd198ffe	-0.037490837
76	0xbe204b37	-0.15653692
77	0xbdeb405e	-0.114868864
78	0x3a7f62fc	0.0009742228
79	0x3d0bff3c	0.034178957
80	0x3da85230	0.08218801
81	0x3dfccc6b	0.12343677
82	0xbd973ad7	-0.0738427
83	0xbde38592	-0.11109461
84	0x3c9ded2a	0.019278128
85	0x3e618322	0.2202268
86	0x3d6ad9e5	0.057336707
87	0x3cc8e119	0.024521397
88	0x3cda2844	0.026630528
89	0x3d86c7c9	0.06581075
90	0x3d4c4135	0.049866874
91	0x3c85ad9c	0.016318135
92	0x3b96d68f	0.004603214
93	0x3d905b93	0.070487164
94	0x3d2abbb9	0.041682933
95	0xbdbc6eed	-0.09200845
96	0x3cb2f79f	0.02184659
97	0x3e16839d	0.14698644
98	0x3dd1f500	0.10251808
99	0x3dc4df4f	0.09612905
100	0x3de936f2	0.11387433
101	0xbd557dab	-0.0521218
102	0xbde28cb6	-0.11061995
103	0xbda97752	-0.08274712
104	0x3cc66c57	0.024221582
105	0x3c372f91	0.011180774
106	0x3d708e48	0.05872944
107	0x3db282a1	0.08716322
108	0x3c5fed11	0.013667361
109	0xbddf58d2	-0.10905613
110	0x3d8fec5f	0.07027506
111	0x3e46f2f3	0.19428615
112	0xbd1d07bc	-0.038337454
113	0x3d70ecc5	0.05881955
114	0xbd8acaee	-0.06776987
115	0xbc10793b	-0.008817966
116	0x3d8a79db	0.06761523
117	0x3da6519f	0.08121037
118	0x3dd26584	0.10273269
119	0xbd5ae2fb	-0.05343912
120	0xbd289c41	-0.04116464
121	0x3d5b8593	0.053594183
122	0xbd733977	-0.059380975
123	0x3e03c327	0.12867413
124	0xbb4eff17	-0.003158515
125	0xbc60f4c9	-0.013730236
126	0x3b7cbc4b	0.003856438
127	0xbd2a6af5	-0.04160591
128	0xbd09db17	-0.033656206
129	0xbd8525ce	-0.06501351
130	0xbdeebb77	-0.1165685
131	0xbe269a21	-0.16269733
132	0x3c95601f	0.01823431
133	0xbc9278e5	-0.017879913
134	0xbdcc103e	-0.099640355
135	0x3c0daa09	0.008646497
136	0xbdb8e427	-0.090278916
137	0xbc7b1e90	-0.015327111
138	0x3d86623f	0.06561708
139	0x3c814e08	0.015784279
140	0xbd222fdd	-0.039596427
141	0xbd8ac670	-0.0677613
142	0xbdaaf42b	-0.083473526
143	0xbd823893	-0.06358447
144	0x3db135e1	0.08652855
145	0x3d88f79b	0.06687852
146	0xbda23a83	-0.079213165
147	0x3df57f10	0.11987126
148	0x3c16aa5d	0.009195891
149	0x3cbd1b15	0.023084203
150	0x3d849972	0.0647458
151	0xbdfa3ff1	-0.12219227
152	0xbdec71fe	-0.1154518
153	0xbca4a07e	-0.02009606
154	0x3dc133e6	0.09433727
155	0xbc4e16f4	-0.012578715
156	0xbdbf15b6	-0.09330313
157	0xbca81c8a	-0.020521421
158	0xbd8a157b	-0.06742378
159	0xbd528e4a	-0.05140523
160	0xbbbd3cf6	-0.0057750894
161	0xbdebf804	-0.115219146
162	0x3ce7ce50	0.02829662
163	0xbd7b90dd	-0.06141745
164	0xbdacbc08	-0.084343016
165	0x3d109fee	0.03530877
166	0xbe0ca0e9	-0.13733257
167	0xbdb37842	-0.08763172
168	0xbc9145a5	-0.017733404
169	0xbd412ac2	-0.047159918
170	0xbcd3e424	-0.025865622
171	0xbd9e572d	-0.07731471
172	0x3d875940	0.0660882
173	0xbdd60920	-0.10450959
174	0xbd0e887c	-0.03479813
175	0x3d65b7a0	0.05608332
176	0x3d195af0	0.03744024
177	0xbc5c3875	-0.013441195
178	0x3d80c7a8	0.062880814
179	0x3d85e9df	0.06538748
180	0x3be615dd	0.0070216493
181	0x3dfffc77	0.12499326
182	0xbd8f79a2	-0.070056215
183	0x3c55dc4a	0.013053009
184	0xbc40880f	-0.011751189
185	0x3d916f42	0.07101299
186	0xbdb185af	-0.08668076
187	0xbcb9adec	-0.02266594
188	0xbc74729e	-0.014919905
189	0xbe049937	-0.12949072
190	0x3da36105	0.079774894
191	0x3d80dfad	0.06292663
192	0xbd5c2f2e	-0.05375593
193	0xbd6d2de8	-0.057905108
194	0xbda7163b	-0.08158537
195	0x3bfda874	0.0077410284
196	0xbdad6fd7	-0.084685974
197	0x3c43f01b	0.011959101
198	0x3d3718b5	0.044701297
199	0xbd99e80a	-0.07514961
200	0x3d357533	0.044301223
201	0xbd025a16	-0.031824194
202	0xbba904e8	-0.0051580556
203	0xbe00e8b5	-0.1258877
204	0x3da646b0	0.08118951
205	0x3d515e26	0.051115178
206	0xbdd672c2	-0.10471107
207	0x3cd41d21	0.025892796
208	0x3cdd150e	0.026987579
209	0x3d84e273	0.06488504
210	0xba53869a	-0.00080690684
211	0x3cd094a3	0.0254615
212	0x3d1f2d59	0.038861606
213	0xbd66dbb6	-0.056361876
214	0x3d3c18d6	0.045922123
215	0x3c767d86	0.015044576
216	0xbe0f08ee	-0.1396825
217	0xbcab7ef3	-0.020934558
218	0xbd6c9d64	-0.057767287
219	0x3db9e337	0.09076541
220	0xbd2fc1fd	-0.04290961
221	0x3a3f4a9a	0.0007297188
222	0xbd45488f	-0.0481649
223	0xbba9d500	-0.0051828623
224	0x3dd3c0ae	0.10339485
225	0xbe0f5639	-0.13997735
226	0x3a7be386	0.0009608794
227	0x3db08a9b	0.08620187
228	0x3de88976	0.113543436
229	0xbda78c68	-0.08181077
230	0x3b4dd139	0.0031405224
231	0x3da95f17	0.0827009
232	0x3df4bd88	0.11950213
233	0xbdd8d538	-0.10587543
234	0x3d38553c	0.04500316
235	0x3c81d59a	0.015848923
236	0x3d1248a1	0.035713796
237	0x3d148682	0.03626109
238	0x3c713705	0.01472259
239	0xbd041f8e	-0.032256655
240	0xbd79f3f9	-0.061023686
241	0xbb41f239	-0.002959384
242	0x3df341ca	0.11877783
243	0x3c0339d5	0.008009394
244	0xbd8e0c06	-0.06935887
245	0x3d5f298c	0.05448298
246	0x3db80e67	0.08987122
247	0x3d5f498d	0.054513503
248	0x3d953565	0.07285575
249	0xbe282264	-0.16419369
250	0xbd79c683	-0.06098033
251	0xbc9a023c	-0.018799894
252	0x3d5495b1	0.05190057
253	0xbd9a4632	-0.0753292
254	0xbc2fe3ae	-0.010735435
255	0xbe74c487	-0.23903094

conceptizer.decoder.0.0.bias f4 [16]
0	0xbe12fd93	-0.14354543
1	0xbd33e523	-0.043919694
2	0x3d083d6d	0.033261705
3	0x3da3c752	0.07997002
4	0xbc0cba5d	-0.008589354
5	0x3da26a29	0.07930405
6	0xbd206b76	-0.039164983
7	0x3d5b3d7a	0.053525425
8	0xbc4e1257	-0.012577615
9	0x3ca81b04	0.020520695
10	0xbcfcb7a5	-0.030849287
11	0xbdaf97ce	-0.08573876
12	0x3c956845	0.018238196
13	0xbe1521a3	-0.14563613
14	0xbd44f20b	-0.048082393
15	0xbe0c4d82	-0.13701442

conceptizer.decoder.2.0.weight f4 [16, 8, 5, 5]
0	0xbde9d585	-0.11417679
1	0xbe44a925	-0.19205149
2	0xbd43508d	-0.04768424
3	0x3dc636d9	0.0967843
4	0x3d62708c	0.055283114
5	0xbd05a9f4	-0.032632783
6	0x3c49a0fb	0.012306447
7	0x3e23041d	0.15919538
8	0x3de93e40	0.11388826
9	0x3d9bcc61	0.076073416
10	0x3d817e94	0.06322971
11	0x3e195bab	0.14976375
12	0x3e45a3c3	0.19300751
13	0x3dd47b01	0.10375024
14	0x3c7986af	0.015229865
15	0x3df17156	0.11789195
16	0x3e16e613	0.14736204
17	0x3e080c00	0.13285828
18	0x3d569e0d	0.052396823
19	0xbd2a9dff	-0.041654583
20	0x3d2c5710	0.042075217
21	0x3d13353e	0.035939448
22	0x3dde30be	0.108491406
23	0x3d119136	0.035538875
24	0x3ce7525b	0.028237512
25	0x3c108cba	0.008822614
26	0xbdc71ce5	-0.09722308
27	0xbdaf265a	-0.08552237
28	0x3d29744d	0.04137068
29	0x3db12f08	0.086515486
30	0x3d971c48	0.07378441
31	0xbd78a893	-0.06070764
32	0xbd1a9cf0	-0.037747324
33	0x3e19c71b	0.15017359
34	0x3dd161a9	0.10223705
35	0x3d77f5fe	0.06053733
36	0x3d93586d	0.071946
37	0x3d9b9af8	0.07597917
38	0x3e22a7a7	0.15884267
39	0x3dc2bc28	0.09508544
40	0x3d3bce41	0.045850996
41	0x3dee50a8	0.11636478
42	0x3e4c5deb	0.19957702
43	0x3e53aa3e	0.20670411
44	0x3de5b07a	0.11215301
45	0x3dabbe4c	0.083859056
46	0x3df07355	0.11740748
47	0x3e1e209d	0.15442128
48	0x3d822539	0.06354756
49	0x3d2ec02b	0.042663734
50	0x3d6ee09f	0.058319684
51	0x3b9ab24e	0.0047209626
52	0xbe0a98bc	-0.13534826
53	0xbca11ca1	-0.019666972
54	0x3db76faf	0.08956849
55	0xbd9cc6d1	-0.07655109
56	0xbd0e0ede	-0.034682147
57	0xbe22afe6	-0.15887412
58	0x3b670b5c	0.0035254573
59	0x3e0ef897	0.13962017
60	0x3caa2aa6	0.02077229
61	0x3b48f620	0.003066428
62	0xbd4dc526	-0.050236844
63	0x3e1d210c	0.15344638
64	0x3d9c3dc4	0.07628968
65	0x3dbf124a	0.0932966
66	0x3e1896e5	0.14901312
67	0x3e072ffb	0.13201897
68	0x3df23428	0.11826354
69	0x3d7d1a50	0.06179267
70	0x3dedc0d0	0.11609042
71	0x3d8ba319	0.06818218
72	0x3e073555	0.13203938
73	0x3ddbca8c	0.10731992
74	0x3d95ac91	0.07308305
75	0xbe0f7bac	-0.14012021
76	0x3e29fee1	0.16601135
77	0x3e1ca67c	0.15297884
78	0x3af517e8	0.0018699141
79	0x3cef56b3	0.029216146
80	0x3d367452	0.044544525
81	0x3c765071	0.015033827
82	0x3e1e1a76	0.15439782
83	0x3d1216a6	0.03566613
84	0x3daf453c	0.08558127
85	0xbdb24c4a	-0.08705957
86	0xbe194a81	-0.14969827
87	0xbd3805f1	-0.04492754
88	0xbd6e6dd8	-0.058210224
89	0x3cf75344	0.030191071
90	0xbdcafcff	-0.099115364
91	0xbe36fc9e	-0.17869803
92	0xbe026d7c	-0.12737077
93	0x3de99506	0.11405377
94	0x3d620554	0.055180863
95	0x3e0dafbd	0.1383657
96	0xbd7744ee	-0.06036847
97	0xbd361d9b	-0.044461828
98	0x3db3dcbf	0.08782338
99	0x3d2e2e20	0.042524457
100	0xbbf003c1	-0.0073246663
101	0x3c3b3022	0.01142505
102	0x3d8fa320	0.070135355
103	0x3cabc222	0.020966593
104	0xbbd23bc1	-0.0064158146
105	0x3e1860d5	0.14880688
106	0x3e682934	0.22671968
107	0x3e6132f5	0.21992095
108	0x3c01f64c	0.007932257
109	0x3c9002a7	0.01757939
110	0x3ced37c7	0.02895726
111	0x3dc24e38	0.09487575
112	0x3d9c9ad6	0.0764672
113	0xbd80ee2f	-0.0629543
114	0xbd9e93a8	-0.07743007
115	0xbe0b250a	-0.13588348
116	0xbe352729	-0.1769072
117	0xbe0fedb7	-0.14055525
118	0xbe921f6d	-0.285396
119	0xbdeadcc9	-0.11467893
120	0xbd707361	-0.058703784
121	0xbe1cf8d7	-0.153293
122	0xbe5b214a	-0.21399418
123	0xbdfcfb49	-0.12352616
124	0xbd95063f	-0.07276582
125	0x3dcd9ce2	0.10039689
126	0x3e80e1d8	0.25172305
127	0x3eb21533	0.347818
128	0x3cb47111	0.02202657
129	0xbd7eefc8	-0.062240392
130	0x3e02995a	0.12753811
131	0x3e2e450b	0.17018525
132	0x3e2b5165	0.16730268
133	0xbe6a4433	-0.22877578
134	0xbe5cceb8	-0.21563232
135	0xbda2b8b8	-0.079453886
136	0xbd9614a9	-0.07328159
137	0xbdf0a158	-0.11749524
138	0xbe8eaba2	-0.2786532
139	0xbe293b8b	-0.1652662
140	0xbd9434c8	-0.0723663
141	0xbe2a9791	-0.1665938
142	0xbe639dcf	-0.22228168
143	0xbead7fb9	-0.33886507
144	0xbe1db1dd	-0.1539988
145	0x3d6266a5	0.05527367
146	0xbdc3f37c	-0.09567925
147	0xbda5502c	-0.08071932
148	0xbda9ba4e	-0.08287488
149	0x3c44a9af	0.012003346
150	0x3da06854	0.07832399
151	0x3e1d0cd6	0.15336928
152	0x3dfca178	0.12335485
153	0xbd8e8e8d	-0.06960783
154	0xbd713695	-0.058889944
155	0x3db27e90	0.08715546
156	0x3e0c67c2	0.13711455
157	0x3d9a97e3	0.07548501
158	0xbe542e60	-0.20720816
159	0xbda23c39	-0.07921643
160	0xbd6be905	-0.05759527
161	0xbd8c640d	-0.06855021
162	0xbe382653	-0.1798337
163	0xbea13301	-0.31484225
164	0xbdaa7176	-0.08322422
165	0xbdd6e3d6	-0.10492675
166	0xbe577c9a	-0.21043625
167	0xbe91ad8b	-0.28452715
168	0xbea97911	-0.3310018
169	0x3c5d210e	0.01349665
170	0xbda812f6	-0.082067415
171	0xbe46c36a	-0.19410482
172	0xbe1ad471	-0.15120102
173	0xbde2916a	-0.11062892
174	0x3df0e5ad	0.11762557
175	0xbb1d744b	-0.0024025615
176	0xbc32534e	-0.010884119
177	0xbd16ac79	-0.036785576
178	0xbe2e34f9	-0.17012395
179	0x3cb0abcc	0.021566294
180	0xbe14c620	-0.14528704
181	0xbc9c3dd7	-0.019072456
182	0xbe383d9e	-0.17992255
183	0xbe02b07d	-0.12762637
184	0x3de4a03f	0.11163377
185	0xbe238ab5	-0.15970881
186	0x3d0a71e1	0.03380001
187	0x3d59b3d9	0.05315003
188	0x3d687c4d	0.056759167
189	0x3e109ce2	0.14122346
190	0xbdd49b48	-0.1038118
191	0xbd46f668	-0.048574835
192	0x3e3bdb8c	0.18345469
193	0x3e482c34	0.19548112
194	0x3db7a542	0.08967067
195	0xbd42bdda	-0.047544338
196	0x3d59475e	0.053046577
197	0x3daf7e11	0.08568967
198	0x3dcf0219	0.10107822
199	0x3d2d0434	0.042240337
200	0xbd75c41a	-0.06000147
201	0x3d25ac12	0.040447302
202	0x3a52ca34	0.0008040995
203	0x3db5c39f	0.088752024
204	0xbdaa44d4	-0.08313909
205	0x3e05f5ee	0.13082096
206	0x3e0151e9	0.12628902
207	0x3cb4bbae	0.022062149
208	0xbc5fffb8	-0.013671808
209	0xbcf1ab4c	-0.029500626
210	0x3e4522fe	0.1925163
211	0x3dd4694f	0.103716485
212	0xbc0d0ba0	-0.008608729
213	0x3d465132	0.048417278
214	0x3c4cd4df	0.012501924
215	0x3dc3a83d	0.09553573
216	0xbd2fec81	-0.042950157
217	0xbcd9a8e6	-0.026569795
218	0xbdc1ee03	-0.09469225
219	0x3d1f0d55	0.038831074
220	0xbb87edbd	-0.0041482137
221	0xbd4aec14	-0.049541548
222	0xba84fdc0	-0.0010146424
223	0x3bf33dd3	0.0074231415
224	0xbbc40715	-0.0059822896
225	0x3d0bcd03	0.03413106
226	0x3d79c639	0.060980055
227	0x3ccca085	0.024978885
228	0x3d2838ac	0.04106967
229	0x3afbf370	0.001922233
230	0xbc4db4f8	-0.012555353
231	0x3dfbff47	0.1230455
232	0x3c3af2dd	0.011410442
233	0x3db03988	0.08604723
234	0xbc24e4b6	-0.010064295
235	0x3e053823	0.13009696
236	0x3e2cdb6c	0.16880578
237	0x3da407c0	0.08009291
238	0x3df6ed73	0.120570086
239	0x3d6d227a	0.057894208
240	0x3e095fdc	0.13415474
241	0x3dea112c	0.114290565
242	0xbc2d0e7d	-0.010562536
243	0xbc8d2e5b	-0.017234018
244	0x3da2b09a	0.0794384
245	0x3c9f1672	0.019419882
246	0xbcd805e3	-0.026369995
247	0xbb98ecb9	-0.0046668914
248	0x3d91da21	0.07121683
249	0x3d0cb399	0.034350965
250	0xbd083f55	-0.033263523
251	0xbcfa9a54	-0.030591168
252	0xbd05ef08	-0.03269866
253	0x3d430f5d	0.047622073
254	0xbce6f6d1	-0.028193863
255	0x37aab24e	2.0348609e-05

conceptizer.decoder.2.0.bias f4 [8]
0	0x3cdf8c53	0.027288591
1	0x3c1700a5	0.009216462
2	0x3d58a557	0.052892055
3	0x3d7b215a	0.061311103
4	0xbb9929fb	-0.004674194
5	0xbd356a42	-0.04429079
6	0xbc842f1d	-0.016135747
7	0xbdb18ca7	-0.086694054

conceptizer.decoder.4.0.weight f4 [8, 1, 2, 2]
0	0xbebef403	-0.3729554
1	0xbd8953cc	-0.06705436
2	0xbe89474b	-0.26812205
3	0x3f2bac13	0.6705944
4	0x3f05b768	0.5223298
5	0x3efe307f	0.49646375
6	0x3f0e0fef	0.5549306
7	0x3f146c70	0.5797796
8	0x3f0abbce	0.5419282
9	0x3ef5a8f0	0.47980452
10	0x3efb7cfc	0.49118793
11	0xbe1b8a4b	-0.15189473
12	0xbf1a530d	-0.60282975
13	0xbf285ec7	-0.6576962
14	0xbf21bcf0	-0.6317892
15	0xbf2d4d54	-0.6769612
16	0xbf1ac1f5	-0.60452205
17	0xbf3e66ca	-0.74375594
18	0x3df74256	0.120731995
19	0xbeaf6654	-0.34257758
20	0xbf12e962	-0.57387364
21	0xbe4a5f5f	-0.19762944
22	0xbf665919	-0.899797
23	0xbf33713c	-0.70094657
24	0xbe61a66e	-0.22036144
25	0xbf542450	-0.8286791
26	0xbee63834	-0.44964755
27	0xbf092bbb	-0.5358235
28	0x3f52675a	0.8218895
29	0xbe109d93	-0.1412261
30	0x3ede1ff8	0.43383765
31	0xbec51ad3	-0.38497028

conceptizer.unlinear.weight f4 [16, 1]
0	0xbf3d0df9	-0.73849446
1	0x3ef9f0d1	0.4881654
2	0xbf246ecc	-0.6423156
3	0xbf94e275	-1.1631609
4	0xbf85cf59	-1.0453902
5	0xbf69643b	-0.91168565
6	0x3f99b0b7	1.2007054
7	0xbf8853d5	-1.0650584
8	0xbf4e7c3b	-0.8065831
9	0xbfa14fe2	-1.2602503
10	0x3f9f3a9e	1.2439764
11	0x3ec2b458	0.38028216
12	0xbf6019da	-0.87539446
13	0xbec20073	-0.37890968
14	0xbf44c080	-0.7685623
15	0x3f149200	0.5803528

conceptizer.unlinear.bias f4 [16]
0	0x3f36859c	0.7129762
1	0x3cd0ddf7	0.025496466
2	0xbf867c48	-1.0506678
3	0x3f656628	0.89609003
4	0x3f14356c	0.57894015
5	0x3ef24f84	0.4732629
6	0xbf06307d	-0.5241774
7	0x3ef8c2ae	0.4858603
8	0x3e28d9b5	0.16489299
9	0xbf1604c2	-0.5860101
10	0xbf3dcbd5	-0.7413915
11	0x3f343a3d	0.70401365
12	0xbeca7162	-0.3953963
13	0xbf074cc0	-0.52851486
14	0xbed74324	-0.42043412
15	0x3e96891b	0.29401478

parameterizer.cl_layers.0.weight f4 [10, 1, 5, 5]
0	0x3da1ccdf	0.07900404
1	0xbce954ef	-0.028482882
2	0x3d9adae1	0.07561279
3	0x3e112bda	0.14176884
4	0x3dfc3d13	0.123163365
5	0xbb52dbae	-0.0032174396
6	0x3e4352ea	0.19074598
7	0xbda8cb4f	-0.08241903
8	0xbdb29aea	-0.08720954
9	0xbd2f1ac5	-0.04275014
10	0x3d0cf387	0.034411933
11	0x3e1092cf	0.14118503
12	0x3e11a659	0.14223613
13	0x3e802a7f	0.25032422
14	0x3e3e9e34	0.18615037
15	0xbe969d7d	-0.2941703
16	0xbdd006f8	-0.10157579
17	0xbd9f1936	-0.077684805
18	0xbddc6720	-0.10761857
19	0xbe6b25bd	-0.22963615
20	0xbdbd42f5	-0.09241287
21	0xbe8ebdb0	-0.27879095
22	0xbe918ddd	-0.28428546
23	0xbe670836	-0.22561726
24	0xbe5c3e18	-0.21508062
25	0xbe5481d5	-0.20752652
26	0xbd696c3f	-0.056987997
27	0x3e188d88	0.1489774
28	0xbc8ac3d2	-0.016939078
29	0x3c9104f4	0.017702557
30	0xbe86a151	-0.2629495
31	0xbe6ec576	-0.23317513
32	0xbd9c6e22	-0.07638194
33	0xbc9edd70	-0.019392699
34	0xbd25140b	-0.040302318
35	0xbdee90fe	-0.11648749
36	0xbd330c59	-0.043712948
37	0xbe62ddce	-0.22154924
38	0xbd58f0a8	-0.052963883
39	0xbe05b001	-0.13055421
40	0x3e45f6f8	0.19332492
41	0xbd67a7d5	-0.05655654
42	0x3bc960c3	0.006145568
43	0xbe4071bb	-0.18793385
44	0xbe3522db	-0.17689078
45	0x3e645a9e	0.22300193
46	0x3dfa2676	0.12214367
47	0xbd7c6502	-0.061619766
48	0x3e365aeb	0.1780812
49	0xbe59d349	-0.21272005
50	0xbdaee752	-0.085402146
51	0x3da745a7	0.08167582
52	0x3dae431f	0.08508896
53	0x3dba9e42	0.091122165
54	0x3d991d99	0.074763484
55	0xbc7df1e4	-0.015499566
56	0xbdb64b43	-0.08901074
57	0x3e040dff	0.12895964
58	0x3db5b17c	0.08871743
59	0x3df4f9c1	0.11961699
60	0x3d2eee6e	0.042707853
61	0x381eb56d	3.78391e-05
62	0xbd15c597	-0.03656539
63	0x3df967ca	0.12177999
64	0x3d9a8b04	0.075460464
65	0xbdedd930	-0.11613691
66	0xbdadbfc6	-0.084838435
67	0x3e1a2dd0	0.15056539
68	0xbc616824	-0.013757739
69	0x3e03a36f	0.12855314
70	0x3d186c16	0.037212454
71	0xbe0aae19	-0.13542975
72	0xbd0c2088	-0.03421071
73	0xbd822b59	-0.06355924
74	0x3e4ea2af	0.20179246
75	0xbd5d3774	-0.054007962
76	0x3e73eb4f	0.23820232
77	0x3e30d335	0.17268069
78	0x3e16be39	0.14721002
79	0x3e3f2318	0.18665731
80	0x3e1b46a7	0.1516367
81	0x3ccba5b6	0.02485929
82	0x3de4ab47	0.11165481
83	0x3e162355	0.14661916
84	0x3e072fd3	0.13201837
85	0xbce0c99b	-0.027439883
86	0xbe111344	-0.14167506
87	0xbe357f2f	-0.17724298
88	0xbdff0f1b	-0.12454053
89	0xbe287efb	-0.16454689
90	0x3de3c397	0.1112129
91	0xbe37d923	-0.17953925
92	0x3da0f97d	0.07860086
93	0xbda7ac00	-0.08187103
94	0x3d4de69a	0.050268747
95	0xbe52093a	-0.20511332
96	0xbe272f1a	-0.16326562
97	0x3d555239	0.052080367
98	0xbe3e7491	-0.18599154
99	0x3d8958df	0.06706404
100	0x3e07dd9b	0.1326813
101	0x3e340650	0.17580533
102	0xbe1701e7	-0.1474682
103	0xbdcc0fa9	-0.099639244
104	0xbe86af97	-0.2630584
105	0x3b64b40a	0.003489735
106	0x3e04c318	0.12965047
107	0xbe6640ec	-0.22485703
108	0xbe640416	-0.22267184
109	0xbda4e755	-0.080519356
110	0x3dc73093	0.09726062
111	0xbd3ccb33	-0.046092223
112	0xbe81e3d5	-0.25369135
113	0xbd0c7751	-0.034293476
114	0x3dad74e4	0.08469561
115	0x3dd29e7d	0.102841355
116	0xbe29d741	-0.16586019
117	0xbe4201cd	-0.18946
118	0xbd38ab48	-0.04508522
119	0xbc4c6bfd	-0.012476918
120	0xbdf2d3a9	-0.11856777
121	0xbe84e95b	-0.25959286
122	0xbe37028f	-0.1787207
123	0x3e2bc8e1	0.16775848
124	0x3c31ddc4	0.010856096
125	0xbe5344b9	-0.20631684
126	0xbdf5b3a1	-0.11997152
127	0x3db87aa3	0.09007766
128	0xbdabbc9e	-0.08385585
129	0xbd7a2e9a	-0.0610796
130	0x3cf6ed18	0.030142352
131	0xbe3eaff8	-0.18621814
132	0xbe290d0c	-0.16508883
133	0x3dca695d	0.09883378
134	0x3e4e6e10	0.20159173
135	0x3d921bf4	0.07134238
136	0xbe3c895b	-0.18411772
137	0x3dfa0c0c	0.12209329
138	0x3dc9e380	0.09857845
139	0x3c38321e	0.011242418
140	0x3d8bedd9	0.06832475
141	0xbe49a495	-0.1969169
142	0x3df7d5f2	0.12101354
143	0x3e0eca0a	0.1394426
144	0x3c6b67df	0.0143680265
145	0xbe6be400	-0.23036194
146	0x3d9f4e20	0.07778573
147	0xbd8fe255	-0.07025591
148	0x3e5c526d	0.21515818
149	0x3dde767e	0.10862444
150	0x3d14158c	0.03615336
151	0xbdb9a17f	-0.09064006
152	0x3d97a335	0.07404176
153	0x3e1760c1	0.14783002
154	0xbe4705a4	-0.19435745
155	0xbd78bfdd	-0.06072985
156	0xbdfb3bf4	-0.122672945
157	0x3e324f19	0.17412986
158	0x3e07d2ee	0.13264057
159	0xbd25d102	-0.04048253
160	0x3d23aba4	0.03995861
161	0xbd3c41d3	-0.045961212
162	0x3e5b3514	0.21406966
163	0xbdf230e2	-0.1182573
164	0xbe5249c9	-0.2053596
165	0x3d88eb8c	0.06685552
166	0x3e281465	0.1641403
167	0xbd12867d	-0.03577279
168	0x3e4054f0	0.18782401
169	0xbe4323c6	-0.19056615
170	0xbe0935fe	-0.13399503
171	0xbdea4fbb	-0.11440989
172	0xbda14003	-0.078735374
173	0x3e284b6c	0.16435021
174	0x3c375646	0.011190003
175	0x3e626d52	0.22112015
176	0xbe49a3ad	-0.19691344
177	0xbe580eb6	-0.21099362
178	0xbe230001	-0.1591797
179	0x3e801a0b	0.2501987
180	0x3e4456d0	0.19173741
181	0xbe337af3	-0.1752737
182	0xbdcbf8c1	-0.099595554
183	0xbda12fdf	-0.07870459
184	0x3e53e96c	0.20694512
185	0x3d9db050	0.076996446
186	0x3dd5c564	0.1043804
187	0xbe5d1095	-0.21588357
188	0xbe23d462	-0.15998986
189	0x3dedf60c	0.11619195
190	0x3d8660cd	0.06561432
191	0xbe2a4f06	-0.16631708
192	0x3d81f546	0.0634561
193	0xbe4b464d	-0.19851036
194	0x3e6ad445	0.22932537
195	0xbdaa122d	-0.08304248
196	0xbe12e8c4	-0.14346606
197	0x3b4d8df9	0.003136514
198	0xbe57cf6a	-0.21075216
199	0xbe2ffb29	-0.17185654
200	0xbd4f9f51	-0.050689045
201	0xbe8ce1dd	-0.2751607
202	0xbe6b6cc2	-0.22990707
203	0x3dfcd775	0.12345783
204	0xbd3ba201	-0.045808796
205	0x3e48a13c	0.19592756
206	0x3df53674	0.11973277
207	0x3df44a79	0.11928267
208	0xbd5b4edf	-0.053542014
209	0x3e0de695	0.13857491
210	0x3d9d1ef9	0.07671923
211	0x3e22b810	0.15890527
212	0x3a1b59a5	0.0005926139
213	0x3bded57d	0.006800352
214	0xbd8a2e4c	-0.06747112
215	0xbe4a5133	-0.19757538
216	0x3e09efca	0.13470379
217	0x3ddb3258	0.10702962
218	0xbe2021ac	-0.15637845
219	0xbe254f6d	-0.1614358
220	0xbd994508	-0.0748387
221	0xbe6ce356	-0.23133597
222	0x3e24c553	0.16090898
223	0xbda67980	-0.08128643
224	0x3e5cb35d	0.21552797
225	0x3ab00b72	0.0013431145
226	0xbe56ff69	-0.20995869
227	0xbe1e7e89	-0.15477957
228	0xbdcd6ba7	-0.10030299
229	0x3e370d36	0.17876133
230	0xbd0389fc	-0.032114014
231	0x3dfedc6e	0.124443874
232	0x3e07317a	0.13202468
233	0x3d48e08e	0.049042277
234	0x3da4c071	0.08044518
235	0x3da89818	0.082321346
236	0x3db4a113	0.08819785
237	0x3e3a0ea8	0.18169653
238	0x3d4f7312	0.05064685
239	0xbdc0de2a	-0.094173744
240	0x3d22302f	0.039596733
241	0x3d44ffa8	0.048095375
242	0x3be62eaf	0.007024608
243	0x3d549506	0.051899932
244	0xbdffcca2	-0.124902025
245	0x3c8c7f9e	0.017150696
246	0xbc3876df	-0.01125881
247	0xbda19439	-0.07889599
248	0xbd0ebd44	-0.034848467
249	0x3dc85b8f	0.097830884

parameterizer.cl_layers.0.bias f4 [10]
0	0x3e199b17	0.15000568
1	0x3e4736a3	0.19454436
2	0xbe39a225	-0.1812826
3	0xbc90bf88	-0.017669454
4	0x3d782459	0.06058154
5	0x3c940aa4	0.01807148
6	0xbe4640e9	-0.19360699
7	0xbdb85508	-0.090005934
8	0xbdbc2e8b	-0.09188565
9	0xbd800c8f	-0.06252395

parameterizer.cl_layers.3.weight f4 [20, 10, 5, 5]
0	0x3b639f4e	0.0034732404
1	0xbcd86dce	-0.026419546
2	0xbd157db6	-0.03649684
3	0xbda75780	-0.08170986
4	0xbcb1c24f	-0.021699099
5	0x3cf3d2c2	0.029763583
6	0x3ce55c5e	0.027998146
7	0xbcde5858	-0.027141735
8	0x3bb974dc	0.0056596827
9	0xbdaa8671	-0.08326424
10	0xbbf2bbd9	-0.007407647
11	0x3d6b9122	0.057511456
12	0x3b07d7c8	0.002072798
13	0xbd7c9248	-0.061662942
14	0xbcf34af3	-0.029698825
15	0x3d508e72	0.050917096
16	0x3d2637d1	0.040580574
17	0xbd41fc38	-0.047359675
18	0xbd22dd3f	-0.039761778
19	0x3d40fcb8	0.04711601
20	0xbc884038	-0.016632184
21	0x3cb11fef	0.021621672
22	0x39be4fd6	0.00036299106
23	0xbcc2f805	-0.023799906
24	0xbd5f4529	-0.054509316
25	0x3d368974	0.04456468
26	0x3d405f46	0.04696586
27	0xbd6d0933	-0.0578701
28	0xbcc2941a	-0.023752261
29	0x3a3c4deb	0.00071832415
30	0xbc0396f7	-0.008031598
31	0x3c693fb5	0.01423638
32	0xbb38ebe7	-0.002821678
33	0xbbbffda2	-0.005859093
34	0x3d33000b	0.043701213
35	0x3c764a7e	0.015032409
36	0x3cb46988	0.022022977
37	0x3d8684f1	0.06568325
38	0x3ccca8f9	0.024982916
39	0x3cffcac9	0.031224625
40	0x3c886ede	0.016654428
41	0x3db2e1b1	0.087344535
42	0xbb365f67	-0.002782786
43	0xbd2e0884	-0.04248859
44	0xbdaafa8c	-0.08348569
45	0xbbf48dcc	-0.0074631926
46	0x3c12e5a9	0.008965888
47	0xbb875e15	-0.0041310885
48	0x3c913d4b	0.017729422
49	0xbc87ecc8	-0.016592398
50	0x3cee29b1	0.029072614
51	0xbd25e187	-0.040498283
52	0x3ce2da8c	0.027692102
53	0xbc285e5a	-0.010276401
54	0x3d43002f	0.047607597
55	0xbd09dd8e	-0.033658557
56	0xbd897f25	-0.06713704
57	0x3d0e2453	0.03470261
58	0xbcd91572	-0.026499484
59	0xbbe5c80f	-0.0070123742
60	0x3c428e18	0.011874698
61	0x3cf5a58a	0.029986162
62	0xbcdcb4cc	-0.02694168
63	0xbd11f419	-0.03563318
64	0x3cd7ecce	0.026358034
65	0xbb5bbba7	-0.0033528598
66	0x3d791392	0.06080968
67	0xbc1c862f	-0.009553476
68	0x3bdb8f46	0.006700429
69	0xbd40e5be	-0.0470941
70	0xbd79a193	-0.060945105
71	0xbccb54bd	-0.02482068
72	0x3d6d9790	0.05800587
73	0x3c32e8f2	0.010919796
74	0x3c86c147	0.016449584
75	0x3c2a3f7d	0.010391113
76	0xbc280fb3	-0.010257649
77	0xbcaa92b0	-0.0208219
78	0xbb44ea23	-0.0030046783
79	0xbbc5776c	-0.006026199
80	0xbc4be185	-0.012443905
81	0x3d1f0aff	0.038828846
82	0xbc00a51b	-0.007851864
83	0x3d5b9711	0.053610865
84	0xbdc3f2da	-0.09567805
85	0x3d323681	0.04350901
86	0xbc4726db	-0.01215526
87	0xbd2fbd1c	-0.042904958
88	0xbda70068	-0.08154374
89	0x3c11c384	0.008896712
90	0x3c05fba3	0.008177671
91	0x3d68038b	0.056644004
92	0x3d353367	0.044238474
93	0xbceb4676	-0.028720122
94	0xbbeb7245	-0.007185253
95	0x3d6f8778	0.058478802
96	0x3c5db7f1	0.013532625
97	0x3b8e3f15	0.004341016
98	0x3c9b74bf	0.018976567
99	0xbd7c71ee	-0.06163209
100	0x3cfbc5f3	0.030734038
101	0xbced14dd	-0.028940612
102	0xbcb9c987	-0.022679104
103	0x3cb6cd64	0.022314735
104	0xbd3cd003	-0.046096813
105	0x3ce26c18	0.027639434
106	0xbd466d14	-0.04844387
107	0xbd80f04c	-0.06295833
108	0xbd89003a	-0.06689496
109	0x3d273006	0.040817283
110	0xbd089c85	-0.033352394
111	0xbd35513a	-0.044266917
112	0x3d1ce675	0.03830572
113	0xbce8428f	-0.02835205
114	0x3d3a093a	0.045418955
115	0xbd50a6e4	-0.05094041
116	0x3c7ca659	0.01542052
117	0xbcb51c73	-0.022108292
118	0x3d762eb4	0.060103133
119	0xbd21c929	-0.039498482
120	0x3d0812d4	0.03322108
121	0x3cce8c56	0.025213402
122	0x3c9f9450	0.0194799
123	0xbd057402	-0.032581337
124	0x3acbf5f5	0.0015560972
125	0xbd08a69d	-0.03336202
126	0x3bfad4bb	0.007654754
127	0xbd26a171	-0.040681306
128	0x3ca7d1cd	0.020485783
129	0x3d28c177	0.041200127
130	0x3ad17a8a	0.0015981954
131	0x3c92a409	0.017900484
132	0x3cfdb31f	0.0309692
133	0x3c46c069	0.012130835
134	0xbc0eabc6	-0.008707946
135	0xbc744a11	-0.014910237
136	0x3ca24260	0.01980704
137	0x39ba1b74	0.0003549714
138	0x3bbd2512	0.0057722414
139	0x3c64367a	0.013929004
140	0xbbb9524b	-0.005655562
141	0xbc8e136f	-0.017343251
142	0x3d509b3c	0.050929293
143	0x3d827391	0.06369699
144	0xbd8bc148	-0.06823975
145	0xbcfaa6a6	-0.030597042
146	0xbd548f58	-0.051894516
147	0xbada28d4	-0.0016644248
148	0xbd467d51	-0.048459355
149	0xbd95e807	-0.07319646
150	0x3d11b3d2	0.03557188
151	0x3d98bb0a	0.0745755
152	0x3d053492	0.032520838
153	0x3cef3721	0.029201092
154	0x3c473690	0.012159005
155	0x3cb028a3	0.021503752
156	0x3c4edb97	0.0126255965
157	0xbcc10a75	-0.023564557
158	0xbcd685f9	-0.02618693
159	0xbd01d8c5	-0.03170087
160	0x3cbf8943	0.023380881
161	0xbcd2e8aa	-0.025745708
162	0xbc2213fc	-0.00989246
163	0x3c628317	0.0138252
164	0x3c94cec7	0.018165005
165	0xbc80276c	-0.015643798
166	0x3acb5bca	0.0015515026
167	0xbc9ed29e	-0.01938754
168	0xbc88b88c	-0.016689561
169	0x3d364dd4	0.044507816
170	0x3cabc970	0.020970076
171	0xbcfbe439	-0.030748473
172	0x3d6bc496	0.057560526
173	0x3cb211a7	0.021736933
174	0xbcb81f09	-0.022475736
175	0x3a8d9547	0.0010801934
176	0x3da020c8	0.078187525
177	0x3cb15a8e	0.021649625
178	0xbd183233	-0.03715725
179	0xbb33252e	-0.0027335393
180	0xbc137337	-0.008999637
181	0x3d0debe8	0.034648806
182	0x3d255482	0.040363796
183	0x3c233fc3	0.009963932
184	0xbc61a3eb	-0.013771991
185	0xbdb47b27	-0.08812552
186	0xbd0339c3	-0.032037508
187	0xbd235de9	-0.03988448
188	0x3d28ecd3	0.04124148
189	0xbcae47e7	-0.02127452
190	0xbd8d5c09	-0.0690232
191	0xbdd1bb15	-0.10240761
192	0xbc80337b	-0.015649548
193	0x3c9373c0	0.01799953
194	0x3da7c0e4	0.08191088
195	0xbd2d2af6	-0.0422773
196	0xbd112883	-0.035439026
197	0x3c80a122	0.015701834
198	0x3aa0573e	0.0012233031
199	0xbdd5db15	-0.10442177
200	0x3c7c2fa5	0.015392219
201	0x3d4e5b18	0.050379843
202	0x3a479282	0.0007613079
203	0x3dc6f7ba	0.09715219
204	0xbcbf3983	-0.023342853
205	0x3c5abea4	0.013351116
206	0x3d98922d	0.07449756
207	0x3c991bb4	0.018689968
208	0x3cddc0b9	0.027069436
209	0x3d1b8186	0.03796532
210	0xbc2742ec	-0.0102088265
211	0x3cce1cd7	0.025160236
212	0x3d31c3ec	0.043399736
213	0x3ca60060	0.02026385
214	0xbba198e5	-0.0049315565
215	0x3d2c61df	0.042085525
216	0xbcdc763e	-0.026911851
217	0x3d2080cb	0.039185327
218	0xbc992aac	-0.018697105
219	0xbd45b069	-0.04826394
220	0x3cf1fd56	0.029539745
221	0x3d696914	0.056984976
222	0x3b96f1a7	0.004606444
223	0x3cd7facd	0.026364708
224	0xbc820911	-0.015873464
225	0x3ce083c8	0.027406588
226	0x3d50d354	0.05098279
227	0xbd1ddfd4	-0.038543537
228	0xbd117a2c	-0.035516903
229	0xbcc0b2dc	-0.023522787
230	0x3c03dedb	0.008048738
231	0x3d43a614	0.047765806
232	0xbc54bfc2	-0.012985172
233	0xbd2d6375	-0.042331178
234	0x3d6b1299	0.057390783
235	0xbc158fec	-0.009128552
236	0x3c14eee4	0.009090159
237	0xbae47813	-0.0017430804
238	0xbafaafdf	-0.00191259
239	0x3d9346a1	0.07191206
240	0x3d55fcfe	0.052243225
241	0x3d5d6221	0.05404866
242	0x3c891cae	0.016737308
243	0x3cad36e1	0.021144332
244	0x3cc5087c	0.024051897
245	0xbbdbf2e7	-0.006712306
246	0x3cd83d30	0.026396364
247	0x3d1ef6b4	0.038809493
248	0x3c2140ca	0.009842107
249	0xbd9a1b3d	-0.075247265
250	0x3bb65a44	0.0055649597
251	0x3c528cc3	0.012850943
252	0x3d9f2649	0.07770974
253	0x3ca4fd5e	0.020140346
254	0x3db9a9cf	0.090655915
255	0xbb9afc3c	-0.0047297757

parameterizer.cl_layers.3.bias f4 [20]
0	0x3d83e23a	0.06439634
1	0xbc842160	-0.016129196
2	0xbcad5d59	-0.021162676
3	0x3d260de0	0.040540576
4	0xbc5d9eaa	-0.013526598
5	0x3cffdd92	0.031233583
6	0x3d4e77d9	0.050407264
7	0xbd48e55c	-0.04904686
8	0x3cb0dcb8	0.021589622
9	0xbcc1e865	-0.023670385
10	0x3d53cab9	0.051707003
11	0xbb9af0c4	-0.0047284085
12	0xbbe38b26	-0.006944078
13	0xbc3ee28e	-0.0116506945
14	0xbd90db39	-0.070730634
15	0x3c8ee19a	0.01744156
16	0x3c79cf79	0.015247219
17	0xbba18ed4	-0.0049303565
18	0xbce4146a	-0.027841765
19	0xbd2309bc	-0.039804205
