results/OUR_MODEL/checkpoints/Epoch[4]-Step[1350].pt (torch, 374338 bytes, 66 tensors)

conceptizer.encoder.0.0.weight f4 [10, 1, 5, 5]
-0.17561503 0.17690551 0.18597335 0.10409664 0.12594138 -0.07234241 -0.042599298 0.013745544
0.17962801 -0.04206006 0.1379574 0.09689082 -0.1836777 0.13319087 -0.041205667 0.17621125
0.077702984 0.14406957 0.098138064 -0.007771907 0.1957287 -0.012509906 -0.024573699 -0.02837131
0.19066328 -0.06381738 0.15309723 -0.127817 -0.12090292 -0.11333938 0.021123169 -0.031500626
-0.18736927 -0.018822137 -0.15960607 0.12309961 -0.096196756 -0.059005883 -0.18924367 -0.14869894
-0.20151506 -0.0056966282 -0.056782763 0.03602766 -0.0004794098 0.07043991 0.066798344 -0.09998405
-0.20234784 0.032735992 0.01427602 -0.17460656 0.09284514 -0.054992136 -0.11694989 -0.11627585
-0.17352398 -0.025860602 -0.20485613 -0.14055608 -0.23712794 0.11690818 -0.09809798 -0.2022234
-0.035753593 -0.115152255 -0.060283884 -0.23391122 -0.11269168 -0.15039349 0.09549626 -0.009344438
0.025699785 -0.004821026 -0.08933105 -0.11840295 -0.028344428 0.1026135 -0.015469333 -0.04385438
-0.13538037 -0.023678614 -0.07829462 0.0083352225 0.14583178 -0.21650702 -0.20486815 0.043643232
-0.15072195 0.061074026 -0.078488335 -0.14150585 -0.020368673 -0.047738966 0.05154277 -0.056603465
-0.035076622 -0.1944347 0.034753174 0.21011116 0.1075802 -0.11803222 0.09214567 0.07402259
0.119474635 0.10412899 -0.12790893 0.0034874135 0.11634933 -0.23641035 0.089751825 0.061943803
-0.19540502 -0.23511526 -0.11578748 0.015601536 -0.08895843 0.09951832 -0.18656379 0.025265463
0.07183618 0.16506316 -0.0812237 -0.1645887 0.060778905 -0.0065892343 0.14384687 0.11699093
0.16203552 0.119864345 -0.08414678 -0.10566408 0.16425423 0.1738415 0.03477365 0.22137453
0.08300372 0.10250959 -0.04947409 -0.10327446 -0.09318308 0.1472398 0.17069133 0.029170442
-0.1593785 0.10753092 0.18483172 0.09526944 -0.098396026 -0.0030591004 0.14722769 -0.14306195
0.100602314 0.13700907 -0.016220078 -0.079833955 0.19747931 0.012699031 0.16298065 0.15104102
-0.12107601 -0.025616687 -0.049776983 -0.07940708 -0.16918884 -0.13099037 0.18037775 0.08856089
-0.09853736 -0.20028819 -0.08750636 0.066059574 -0.18711144 -0.0065282895 0.051663723 -0.04377233
0.020406717 -0.13453202 -0.12187803 0.1917322 -0.021219831 -0.07325616 0.09984643 0.06486795
-0.07504472 0.20717026 0.030909084 0.16143097 0.21172518 0.06130667 0.21642038 -0.07492043
0.078823365 -0.0125834495 -0.042560246 0.04427183 0.19591808 -0.12109604 0.048607953 0.09129514
0.12100574 0.02535155 0.12695898 0.08178436 -0.05462966 0.09701359 0.096286446 -0.08738167
-0.12589708 0.20994271 0.1549289 -0.1183095 -0.09415737 -0.14737073 -0.14564256 0.07372865
0.011956565 0.12903646 -0.16899054 0.08143255 -0.19840361 0.10632482 -0.011361373 -0.032313876
0.21269877 -0.0062698363 0.16925043 0.17327549 0.175114 0.036885653 -0.05912514 0.05031968
0.21803512 0.0152389575 0.090870425 0.1723576 0.19187045 0.22614406 -0.06295571 0.10131929
0.030434566 0.16200335 -0.039861448 -0.10765137 0.08162496 0.0057606837 0.034932993 0.2027763
0.20479926 0.06692156
00000000: 6dd4 33be b826 353e cc6f 3e3e 9f30 d53d
00000010: c7f6 003e 4228 94bd 9a7c 2ebd fd34 613c
00000020: 68f0 373e 2b47 2cbd b444 0d3e b26e c63d
00000030: 0216 3cbe 3063 083e 46c7 28bd b970 343e
00000040: be22 9f3d f986 133e 9cfc c83d 7bab febb
00000050: 1b6d 483e 59f6 4cbc c84e c9bc f36a e8bc
00000060: 3c3d 433e b0b2 82bd 85c5 1c3e 76e2 02be
00000070: f39b f7bd 7a1e e8bd 7f0a ad3c cd06 01bd
00000080: bbdd 3fbe e230 9abc c66f 23be a61b fc3d
00000090: ce02 c5bd 27b0 71bd 18c9 41be 8944 18be
000000a0: f759 4ebe c8aa babb 0b95 68bd bd91 133d
000000b0: 4b59 fbb9 cd42 903d 92cd 883d 70c4 ccbd
000000c0: 4634 4fbe 2d16 063d f8e5 693c 10cc 32be
000000d0: 9825 be3d 6f3f 61bd 6d83 efbd 0822 eebd
000000e0: 45b0 31be 9dd9 d3bc cec5 51be efed 0fbe
000000f0: abd1 72be 8e6d ef3d 98e7 c8bd a713 4fbe
00000100: 5c72 12bd f2d4 ebbd 3cec 76bd 6c86 6fbe
00000110: e5ca e6bd c000 1abe 8b93 c33d 6a19 19bc
00000120: 5b88 d23c b3f9 9dbb 33f3 b6bd 3f7d f2bd
00000130: 9332 e8bc 0727 d23d 1673 7dbc a6a0 33bd
00000140: 27a1 0abe a7f9 c1bc ee58 a0bd 7590 083c
00000150: ed54 153e 04b4 5dbe f5c8 51be 3fc3 323d
00000160: db56 1abe c228 7a3d 7ebe a0bd e9e6 10be
00000170: 34dc a6bc ef89 43bd 831e 533d 09d9 67bd
00000180: 81ac 0fbd e419 47be 5859 0e3d 6127 573e
00000190: 0253 dc3d e0ba f1bd deb6 bc3d 2899 973d
000001a0: 1eaf f43d 9441 d53d 8ffa 02be 178d 643b
000001b0: 8f48 ee3d 8e15 72be cecf b73d c9b8 7d3d
000001c0: 4118 48be 0ec2 70be fc21 edbd 969d 7f3c
000001d0: d62f b6bd 43d0 cb3d 940a 3fbe 84f9 ce3c
000001e0: d91e 933d 5106 293e 9c58 a6bd f189 28be
000001f0: 4df3 783d 81ea d7bb 984c 133e f198 ef3d
00000200: a4ec 253e 707b f53d 2655 acbd 6966 d8bd
00000210: 4332 283e 8203 323e d16e 0e3d 01b0 623e
00000220: dbfd a93d 8cf0 d13d 58a5 4abd 8f81 d3bd
00000230: c5d6 bebd 08c6 163e b5c9 2e3e daf6 ee3c
00000240: 1e34 23be 2c39 dc3d 8744 3d3e a01c c33d
00000250: db83 c9bd 307b 48bb dbc2 163e d57e 12be
00000260: 9608 ce3d 1b4c 0c3e f8df 84bc fc7f a3bd
00000270: 0438 4a3e 990f 503c 66e4 263e 7faa 1a3e
00000280: b3f6 f7bd 16da d1bc f3e2 4bbd 2ea0 a2bd
00000290: d73f 2dbe 5722 06be f2b4 383e 695f b53d
000002a0: f5cd c9bd 5918 4dbe 8936 b3bd 3e4a 873d
000002b0: 249a 3fbe 43eb d5bb 579d 533d 9d4a 33bd
000002c0: fd2b a73c c3c2 09be 309b f9bd 7255 443e
000002d0: 36d5 adbc 5307 96bd 497c cc3d 7dd9 843d
000002e0: 0cb1 99bd 7124 543e 0c35 fd3c 294e 253e
000002f0: 7cce 583e b41c 7b3d 4e9d 5d3e e26f 99bd
00000300: 256e a13d d02a 4ebc a753 2ebd 6156 353d
00000310: c09e 483e 3301 f8bd 2219 473d f2f8 ba3d
00000320: dbd1 f73d 0eae cf3c 8901 023e 8f7e a73d
00000330: 5ac3 5fbd 10af c63d d431 c53d 29f5 b2bd
00000340: 2aeb 00be 39fb 563e aea5 1e3e 404c f2bd
00000350: 94d5 c0bd 5ae8 16be 5323 15be 0cff 963d
00000360: 78e5 433c 2222 043e db0b 2dbe 1cc6 a63d
00000370: 512a 4bbe d4c0 d93d 0d25 3abc 8e5b 04bd
00000380: b5cd 593e 3373 cdbb fc4f 2d3e 216f 313e
00000390: 1651 333e 6915 173d 342d 72bd 021c 4e3d
000003a0: 9944 5f3e d2ac 793c 461a ba3d 837e 303e
000003b0: b079 443e 4f92 673e ecee 80bd 7d80 cf3d
000003c0: e951 f93c 35e4 253e c245 23bd 5278 dcbd
000003d0: fd2a a73d 1ec4 bc3b e615 0f3d 97a4 4f3e
000003e0: e6b6 513e 2c0e 893d

conceptizer.encoder.0.0.bias f4 [10]
0.027547834 0.14715144 0.21073884 -0.03618817 0.20352413 0.048974063 -0.04600158 -0.04859772
0.10585983 0.08844045
00000000: ffab e13c deae 163e eccb 573e 0c3a 14bd
00000010: a168 503e 0799 483d 276c 3cbd 670e 47bd
00000020: 0acd d83d 4420 b53d

conceptizer.encoder.1.0.weight f4 [5, 10, 5, 5]
0.0043156105 -0.009074413 0.013421816 0.0408402 -0.04997006 0.012339024 0.02818526 0.021388654
-0.039926894 0.07406436 -0.040641453 0.06402878 -0.048932742 0.0063996557 -0.035560664 0.02194411
0.025412142 0.041987356 -0.015891394 0.030198678 0.0028997294 -0.039881263 0.03171497 0.034734536
0.033773288 0.059249412 0.029244207 0.042444155 0.005966626 0.0020837265 0.05600003 0.0038292138
-0.034343723 0.020421987 0.027299121 0.04641795 0.029657112 0.021641621 -0.006447554 -0.038595647
-0.0039682803 -0.0065029515 -0.040016443 0.076915085 0.037458364 0.018732958 0.0761069 -0.022895303
-0.01174251 -0.042316567 0.021532629 0.006356166 -0.006908884 -0.015604959 -0.019132772 -0.011037684
-0.017864186 0.04072132 -0.027319813 0.067164466 0.079315245 0.046207853 0.026343329 -0.028271375
-0.017372232 0.058900572 0.023232587 -0.02371819 0.028500142 -0.04763181 0.07223689 -0.0033231857
0.05099214 0.04321071 0.012256129 -0.049015872 -0.03460306 -0.02807705 0.050798852 0.058538374
0.044903833 0.03671298 -0.036554083 0.09507977 0.07603802 0.07812646 0.035952132 -0.028836532
0.036868636 -0.0033139195 -0.03715389 -0.013112869 0.005346475 0.055014074 0.033100035 0.032375894
0.008706641 0.0766119 0.09303691 0.071732216 0.060967054 0.0013012732 -0.009068757 -0.01672962
-0.0378723 -0.011310432 -0.027908638 9.541059e-05 0.030385684 0.031222295 0.07372764 -0.04206886
0.073874004 -0.013474961 -0.05300865 0.0012957759 0.06080741 0.023558617 0.034611616 0.05663072
-0.040133115 0.014943914 0.051708836 0.03303668 0.006761544 0.05243978 0.05773068 -0.066847555
-0.03377646 0.018195586 -0.02927654 0.031387705 -0.008065069 0.023991678 0.020191567 -0.029026939
0.027622601 0.0574895 0.037741296 0.054013673 -0.002037848 -0.049342975 0.046773486 -0.02909854
-0.025171604 -0.04108453 0.02937049 -0.02454051 -0.033226173 -0.010646331 0.057718825 0.034487538
-0.039043162 -0.029700123 0.0129124755 0.06741776 0.044048406 -0.04269954 -0.058913678 -0.006067077
0.05428576 0.030685965 -0.0061614187 -0.028615639 0.048789255 0.071165726 -0.025116432 -0.010539153
-0.0033874353 0.00499184 -0.012607705 0.0130741615 0.05849815 -0.004025311 0.010511449 -0.023292946
-0.0474166 0.046917222 0.056020375 0.04157391 0.04111129 0.063344084 -0.0598346 -0.0025019199
-0.03903696 0.049762554 -0.030457526 -0.056044467 0.0024958914 0.07767843 -0.0004010915 0.039256535
-0.011987168 0.05794156 0.03429422 0.03784647 -0.0008443777 -0.038467295 0.0548424 0.033393502
-0.057579815 0.0691232 -0.0048887236 -0.062839955 0.009780639 0.011665286 0.04610229 0.045861777
0.009976608 0.058727685 0.04495871 -0.03050321 -0.05172103 0.022343248 -0.0029090492 0.026165549
0.06799794 0.022075716 0.005292351 0.062946506 -0.059094112 0.06306521 -0.008410654 0.028808795
0.041632336 0.026345855 -0.055678803 -0.038691062 0.04612855 0.029992238 0.027204994 0.05415714
0.015510219 -0.049333733 2.2022725e-05 0.016073763 0.061327767 -0.038911168 0.026655152 -0.038345993
0.035932787 -0.014721734 -0.023024516 -0.049422663 0.04932661 -0.018461803 -0.05242382 0.022994122
0.063919134 -0.02316463 0.028042143 0.05963811 0.02036285 0.046059318 -0.007331199 0.03367683
00000000: f769 8d3b d9ac 14bc 2de7 5b3c 0e48 273d
00000010: 68ad 4cbd 9e29 4a3c c6e4 e63c 4237 af3c
00000020: 628a 23bd 0eaf 973d a777 26bd 8521 833d
00000030: b36d 48bd 34b4 d13b 0fa8 11bd 22c4 b33c
00000040: 202d d03c effa 2b3d ab2e 82bc 3863 f73c
00000050: 6309 3e3b 895a 23bd 8ee7 013d cd45 0e3d
00000060: dc55 0a3d 83af 723d 8c91 ef3c ecd9 2d3d
00000070: b083 c33b 218f 083b 4a60 653d 8cf3 7a3b
00000080: 01ac 0cbd 034c a73c 68a2 df3c c020 3e3d
00000090: 79f3 f23c c549 b13c 0146 d3bb 7816 1ebd
000000a0: 5908 82bb b616 d5bb 48e8 23bd a885 9d3d
000000b0: f16d 193d dc75 993c efdd 9b3d ee8e bbbc
000000c0: a863 40bc 2354 2dbd 3265 b03c 6347 d03b
000000d0: eb63 e2bb f1ab 7fbc 55bc 9cbc 67d7 34bc
000000e0: ea57 92bc 66cb 263d cdcd dfbc 868d 893d
000000f0: 0870 a23d 7244 3d3d f7cd d73c 5f99 e7bc
00000100: 3650 8ebc ba41 713d 4452 be3c a64c c2bc
00000110: 2179 e93c 9319 43bd eff0 933d cec9 59bb
00000120: 22dd 503d b7fd 303d eecd 483c dec4 48bd
00000130: f0bb 0dbd d701 e6bc 7512 503d efc5 6f3d
00000140: 15ed 373d 5a60 163d bcb9 15bd 2fb9 c23d
00000150: d2b9 9b3d c400 a03d 8b42 133d 973a ecbc
00000160: 9103 173d 582e 59bb ad2e 18bd 5cd7 56bc
00000170: 7c31 af3b 7056 613d e793 073d 969c 043d
00000180: 4da6 0e3c b3e6 9c3d 238a be3d 57e8 923d
00000190: 97b8 793d 7c8f aa3a 2095 14bc 8e0c 89bc
000001a0: fc1f 1bbd 644f 39bc a8a0 e4bc 2c17 c838
000001b0: 66eb f83c e6c5 ff3c 84fe 963d 6650 2cbd
000001c0: 414b 973d 15c6 5cbc 991f 59bd 06d7 a93a
000001d0: 3111 793d 00fe c03c e9c4 0d3d 9df5 673d
000001e0: 9f62 24bd 51d7 743c a5cc 533d 7851 073d
000001f0: f18f dd3b 18cb 563d 0177 6c3d 5fe7 88bd
00000200: 2f59 0abd e90e 953c 5bd5 efbc 6590 003d
00000210: 5a23 04bc 328a c43c c968 a53c e7c9 edbc
00000220: cb48 e23c 1c7a 6b3d 9e96 1a3d 713d 5d3d
00000230: 6b8d 05bb dc1b 4abd 8e95 3f3d 1060 eebc
00000240: ae34 cebc 4148 28bd 629a f03c 2e09 c9bc
00000250: 2b18 08bd f36d 2ebc 936a 6c3d ce42 0d3d
00000260: b9eb 1fbd ac4d f3bc d98e 533c 5312 8a3d
00000270: 1a6c 343d b6e5 2ebd 784f 71bd 55ce c6bb
00000280: bf5a 5e3d 2261 fb3c bae5 c9bb 586b eabc
00000290: 3ed7 473d 56bf 913d fac0 cdbc 69ac 2cbc
000002a0: bcff 5dbb 9792 a33b 8c90 4ebc 0235 563c
000002b0: c29b 6f3d c2e6 83bb 3638 2c3c d9d0 bebc
000002c0: e937 42bd 462c 403d 9f75 653d 6749 2a3d
000002d0: 5064 283d 8bba 813d 2015 75bd 40f7 23bb
000002e0: 38e5 1fbd d2d3 4b3d 1082 f9bc e28e 65bd
000002f0: 1c92 233b de15 9f3d 9749 d2b9 76cb 203d
00000300: d465 44bc 2154 6d3d 1978 0c3d e604 1b3d
00000310: 3a59 5dba e28f 1dbd 6da2 603d a0c7 083d
00000320: d0d8 6bbd 7790 8d3d 9631 a0bb 3cb2 80bd
00000330: f93e 203c c11f 3f3c c1d5 3c3d 8fd9 3b3d
00000340: ed74 233c 718c 703d a026 383d dee1 f9bc
00000350: 6ed9 53bd 3009 b73c bfa5 3ebb 2259 d63c
00000360: 8142 8b3d 22d8 b43c 756b ad3b 19ea 803d
00000370: ab0c 72bd 5528 813d d7cc 09bc 6c00 ec3c
00000380: ab86 2a3d 43d3 d73c 750f 64bd 857a 1ebd
00000390: 4af1 3c3d 48b2 f53c 02dd de3c e1d3 5d3d
000003a0: 931e 7e3c 2b12 4abd 71bd b837 20ad 833c
000003b0: d332 7b3d 5161 1fbd e85b da3c b010 1dbd
000003c0: 422e 133d 6e33 71bc e99d bcbc 6b6f 4abd
000003d0: b30a 4a3d 353d 97bc 5cba 56bd 2b5e bc3c
000003e0: 09e8 823d c0c3 bdbc a3b8 e53c 1747 743d
000003f0: fecf a63c b2a8 3c3d 8e3a f0bb b7f0 093d

conceptizer.encoder.1.0.bias f4 [5]
-0.024059257 0.030628692 0.0014158542 -0.00964323 0.04240978
00000000: eb17 c5bc 06e9 fa3c 2f94 b93a a3fe 1dbc
00000010: e1b5 2d3d

conceptizer.encoder.2.layers.0.weight f4 [1, 16]
-0.0069721295 -0.17112248 -0.111682646 -0.21112342 0.12727448 0.122811705 0.10018848 -0.21076614
-0.13873763 -0.1841124 -0.18686666 -0.23407368 0.060926553 -0.16145061 -0.15437931 0.13439931
00000000: 7676 e4bb bb3a 2fbe dfb9 e4bd bd30 58be
00000010: 3e54 023e b484 fb3d 9e2f cd3d 14d3 57be
00000020: 3d11 0ebe f687 3cbe f959 3fbe 03b1 6fbe
00000030: 1f8e 793d 4f53 25be 9c15 1ebe f99f 093e

conceptizer.encoder.2.layers.1.weight f4 [1, 16]
0.29998213 -0.12654176 0.05365248 0.10206947 -0.0007845446 0.173135 -0.1268201 0.26282683
0.09316317 -0.11592398 0.117743835 0.11152394 0.20137528 0.09131749 0.2267418 0.270873
00000000: 4297 993e 2a94 01be b4c2 5b3d cc09 d13d
00000010: e6a9 4dba 4d4a 313e 21dd 01be 3d91 863e
00000020: 55cc be3d 8d69 edbd ae23 f13d aa66 e43d
00000030: 5235 4e3e aa04 bb3d 012f 683e deaf 8a3e

conceptizer.encoder.2.layers.2.weight f4 [1, 16]
-0.24713628 0.17546546 0.16314644 0.024459595 0.07572609 -0.11930536 0.12533933 -0.18075569
-0.2748082 -0.1487079 0.020100182 -0.09441113 -0.20048729 0.029867744 0.03680969 0.045859534
00000000: 4b11 7dbe 38ad 333e dc0f 273e 7d5f c83c
00000010: 4816 9b3d 5e56 f4bd f458 003e 0518 39be
00000020: a9b3 8cbe e246 18be 23a9 a43c 9f5a c1bd
00000030: 8a4c 4dbe 33ad f43c c2c5 163d 35d7 3b3d

conceptizer.encoder.2.layers.3.weight f4 [1, 16]
0.23157257 0.14604023 -0.019326752 0.20750614 -0.0022205182 0.12600869 0.093385585 0.13028635
-0.119405314 0.20145547 -0.1434701 0.07446827 0.1356103 -0.104053445 -0.14087279 -0.11377878
00000000: 5c21 6d3e 928b 153e 2353 9ebc 7d7c 543e
00000010: 1d86 11bb 6c08 013e f140 bf3d c969 053e
00000020: c68a f4bd 584a 4e3e d3e9 12be d282 983d
00000030: 6ddd 0a3e f919 d5bd f540 10be d904 e9bd

conceptizer.encoder.2.layers.4.weight f4 [1, 16]
0.11656639 -0.19341433 -0.03744428 -0.0025401486 -0.26813075 -0.07281241 0.112590194 -0.10997355
-0.105580874 -0.20779243 -0.21019408 -0.04085194 0.05382416 0.18865229 0.05587132 -0.06217566
00000000: 5cba ee3d 680e 46be 2c5f 19bd 9f78 26bb
00000010: 6f48 89be ac1e 95bd b095 e63d d039 e1bd
00000020: c93a d8bd 8ac7 54be 1e3d 57be 5d54 27bd
00000030: b976 5c3d 112e 413e 53d9 643d e8ab 7ebd

conceptizer.decoder.0.0.weight f4 [5, 16, 5, 5]
-0.06424762 0.007026406 0.015325767 0.069729164 0.055863976 0.03804808 -0.017971348 -0.048050877
-0.050543692 0.010629264 0.02651149 0.02547417 0.105413705 -0.012737082 -0.01830382 -0.03107615
0.07544512 -0.04896746 -0.092190236 0.03537436 0.0634974 0.016622117 0.102646366 -0.1341785
-0.058386955 -0.014219631 0.04527979 -0.0030389691 -0.00029570167 -0.00063232443 -0.014329769 0.07524954
-0.06937211 0.020345777 0.017987762 0.00011236755 -0.079899475 0.024511054 0.008559 0.009352485
-0.07284319 -0.05353882 0.07051743 0.07925686 0.030712273 -0.08311391 -0.035253376 -0.02569432
-0.10800494 0.053738326 0.063627005 -0.07779919 0.033899028 0.07126426 0.045712527 -0.021073852
0.022074971 0.010881711 0.048659403 -0.021414299 -0.06285956 -0.028169956 0.029379405 -0.0042212554
-0.03151653 0.045166977 0.00070979196 0.046765707 0.008320046 -0.06257265 -0.10239584 0.032010645
-0.039716598 0.059854764 -0.12106638 0.0267255 -0.079176456 -0.04575135 0.053665906 0.08186678
0.01839232 0.06763173 -0.04146652 -0.1186763 -0.013038113 0.083174266 -0.030901419 0.048904732
0.026148042 -0.016320357 0.055704344 0.0063143913 -0.02931213 -0.010691024 -0.0121641 -0.047750693
0.013835978 0.09637746 0.0802825 0.07318238 0.06110283 -0.0021632488 -0.03917942 -0.10352863
0.003685045 -0.024596801 0.06770313 0.10130126 0.016384799 -0.07681233 -0.0048738164 0.13149717
-0.034455877 -0.020131802 -0.065202095 0.0130682895 0.06351858 0.09920443 0.13375974 -0.06463513
-0.06893926 0.045492645 0.01676964 0.14014849 -0.014850861 -0.0074624247 -0.04670181 -0.038640942
0.011889872 -0.018128239 -0.08569157 -0.11487263 0.036722925 0.027178526 -0.015806368 0.00796109
-0.089988984 -0.03084715 0.03382258 0.03566578 -0.009061952 -0.024176601 -0.081131205 -0.014681042
0.10342554 0.0329792 -0.11083596 0.048223983 -0.0041579898 0.07013677 0.02046195 -0.099646404
-0.09201553 -0.0024022213 0.058477208 -0.007635469 -0.036258385 -0.040660087 -0.058897685 -0.04400075
0.001376326 -0.0721447 0.035800252 0.00062977115 -0.07402725 0.07442617 -0.07926421 -0.035384938
-0.040471405 -0.08092523 -0.015668752 -0.03464914 0.061165005 -0.17843397 -0.020949926 0.072487466
0.003941649 -0.011559693 0.037293177 0.07245856 0.056368582 0.09912017 -0.054647014 -0.010841181
0.06457747 0.060187735 -0.029571334 0.002801985 -0.00199811 -0.07849975 0.06714575 0.06996695
-0.08254928 -0.059310596 -0.009037984 -0.007504015 -0.046863087 -0.0030333025 0.02238846 -0.047470223
0.07000295 -0.02611015 -0.04855095 -0.06381716 0.04525987 0.011628074 -0.07643102 -0.019504236
0.00046383165 0.026896171 0.030482257 0.056717824 0.016751124 -0.053451408 0.047424477 0.03730456
-0.019805936 -0.005689885 -0.06752918 0.04838062 -0.029012082 -0.0068330006 -0.05477838 -0.059214324
0.049506508 -0.080142885 0.039148517 0.05773674 0.05100781 -0.08785449 0.016282182 0.07402877
0.0796918 -0.09043451 -0.0019897744 0.02492092 0.017736055 0.06937534 0.014486241 -0.038625628
-0.032197822 0.012351058 0.09055294 -0.051249564 -0.10569179 0.048301335 0.058731582 0.07810036
-0.025697237 -0.0893826 -0.05811257 0.034932606 0.018945789 -0.04541456 0.010588002 -0.13565685
00000000: 4294 83bd c43d e63b ed18 7b3c 2ace 8e3d
00000010: a0d1 643d 4ed8 1b3d a638 93bc ffd0 44bd
00000020: e706 4fbd 5d26 2e3c a02e d93c 35af d03c
00000030: 24e3 d73d 32af 50bc e5f1 95bc 6993 febc
00000040: f982 9a3d 1a92 48bd 3cce bcbd b4e4 103d
00000050: ed0a 823d 1b2b 883c 4238 d23d 1766 09be
00000060: 2927 6fbd 75f9 68bc 4d77 393d 7129 47bb
00000070: 6808 9bb9 93c2 25ba 68c7 6abc 6e1c 9a3d
00000080: f712 8ebd 30ac a63c 125b 933c dea6 eb38
00000090: 56a2 a3bd 68cb c83c 0c3b 0c3c 2a3b 193c
000000a0: cf2e 95bd 864b 5bbd 716b 903d 6c51 a23d
000000b0: 4e98 fb3c a037 aabd d865 10bd e57c d2bc
000000c0: b231 ddbd b81c 5c3d e04e 823d 2f55 9fbd
000000d0: b5d9 0a3d fff2 913d 0f3d 3b3d 12a3 acbc
000000e0: 92d6 b43c 3449 323c 154f 473d 0a6d afbc
000000f0: 83bc 80bd aec4 e6bc 14ad f03c 7552 8abb
00000100: 7a17 01bd 0201 393d 5511 3a3a 668d 3f3d
00000110: cd50 083c 1726 80bd e9b4 d1bd 981d 033d
00000120: dfad 22bd 452a 753d a6f1 f7bd 70ef da3c
00000130: 4427 a2bd c465 3bbd c8d0 5b3d c5a9 a73d
00000140: 7eab 963c 8182 8a3d ccd8 29bd 8f0c f3bd
00000150: cf9d 55bc 4557 aa3d f924 fdbc 5450 483d
00000160: 6b34 d63c 45b2 85bc 3d2a 643d f4e8 ce3b
00000170: fe1f f0bc 6829 2fbc ef4b 47bc 3b96 43bd
00000180: 4cb0 623c 8c61 c53d 276b a43d a5e0 953d
00000190: f646 7a3d 4bc5 0dbb 997a 20bd d206 d4bd
000001a0: cc80 713b 3b7f c9bc f0a7 8a3d 0977 cf3d
000001b0: 6a39 863c c84f 9dbd 89b4 9fbb 32a7 063e
000001c0: 9b21 0dbd 73eb a4bc ad88 85bd 611c 563c
000001d0: 0716 823d b12b cb3d 50f8 083e 6c5f 84bd
000001e0: 0730 8dbd 7f56 3a3d 7c60 893c 1683 0f3e
000001f0: 0751 73bc 5b87 f4bb 664a 3fbd f745 1ebd
00000200: bdcd 423c ac81 94bc 107f afbd 5742 ebbd
00000210: c76a 163d 80a5 de3c 5b7c 81bc 3b6f 023c
00000220: 254c b8bd 2ab3 fcbc 8c89 0a3d 4816 123d
00000230: 9578 14bc 020e c6bc 1e28 a6bd c188 70bc
00000240: c5d0 d33d 3315 073d f7fd e2bd 8386 453d
00000250: bf3f 88bb dea3 8f3d d29f a73c 6a13 ccbd
00000260: a372 bcbd 966e 1dbb cc85 6f3d f532 fabb
00000270: ac83 14bd 318b 26bd b33e 71bd 213a 34bd
00000280: d665 b43a 9ac0 93bd 49a3 123d 3a17 253a
00000290: 999b 97bd bf6c 983d 4655 a2bd ccef 10bd
000002a0: 58c5 25bd 21bc a5bd c15b 80bc 42ec 0dbd
000002b0: 2888 7a3d 65b7 36be 2e9f abbc 4f74 943d
000002c0: f328 813b de64 3dbc bbc0 183d 2765 943d
000002d0: bee2 663d 84ff ca3d 8cd5 5fbd 359f 31bc
000002e0: 3141 843d 6a87 763d 953f f2bc 82a1 373b
000002f0: b9f2 02bb 7ac4 a0bd b683 893d d54a 8f3d
00000300: 990f a9bd abef 72bd 0d14 14bc 3ee4 f5bb
00000310: 82f3 3fbd 5fca 46bb 0168 b73c 2370 42bd
00000320: b55d 8f3d f4e4 d5bc 5cdd 46bd 92b2 82bd
00000330: 6a62 393d ad83 3e3c de87 9cbd 59c7 9fbc
00000340: 6e2e f339 5c55 dc3c edb5 f93c f350 683d
00000350: a739 893c ddef 5abd 2b40 423d abcc 183d
00000360: 0f40 a2bc 3772 babb bd4c 8abd c22a 463d
00000370: bfaa edbc 5de7 dfbb 4b5f 60bd b88a 72bd
00000380: 56c7 4a3d f421 a4bd 325a 203d 5c7d 6c3d
00000390: 91ed 503d 0eed b3bd 3662 853c 659c 973d
000003a0: 7435 a33d ba35 b9bd e066 02bb f526 cc3c
000003b0: 344b 913c a914 8e3d b357 6d3c e835 1ebd
000003c0: dde1 03bd 185c 4a3c d273 b93d 10eb 51bd
000003d0: f074 d8bd 9fd7 453d 8790 703d 15f3 9f3d
000003e0: 0383 d2bc 390e b7bd 7207 6ebd 7e15 0f3d
000003f0: 3334 9b3c 9e04 3abd 4d79 2d3c a1e9 0abe

conceptizer.decoder.0.0.bias f4 [16]
-0.067419246 0.003468211 0.031115567 0.05875523 0.019180097 0.07422255 0.0043817405 0.062982194
0.01224755 0.0328371 0.01529936 -0.04576023 0.023324074 -0.11247068 -0.013007989 -0.028812477
00000000: 1a13 8abd ed4a 633b 13e6 fe3c 53a9 703d
00000010: 941f 9d3c fe01 983d b494 8f3b cffc 803d
00000020: f3a9 483c 3280 063d 2baa 7a3c 146f 3bbd
00000030: 2112 bf3c 0757 e6bd 761f 55bc 2508 ecbc

conceptizer.decoder.2.0.weight f4 [16, 8, 5, 5]
-0.010135374 -0.053847358 0.05679515 0.067424834 0.099749506 -0.08941447 0.041233763 0.02516398
0.0334908 0.055852704 -0.04719715 0.07844931 0.022209547 0.09009668 -0.039009217 0.064224884
0.12933922 0.07886967 0.052495044 -0.04724486 0.056249563 0.063512966 0.07984028 0.011180824
-0.020503776 0.010031507 -0.068227805 0.0046094274 0.0846694 0.09541998 0.07364083 -0.030042814
0.0005585308 0.11189051 0.08954555 0.01679964 0.040671952 0.046634153 0.09236597 0.04782272
-0.010448135 0.03535204 0.11713015 0.16177318 0.086837105 0.034418803 0.06740047 0.13998163
0.05660271 0.01470607 0.015622504 -0.026773855 -0.09438946 0.02182445 0.0948393 -0.052419223
-0.004063959 -0.06070379 -0.013110195 0.14497785 0.024162201 -0.0017464344 -0.027252397 0.094727114
0.06037039 0.050174024 0.0563486 0.0563997 0.03961979 0.025030358 0.056770656 -0.00983161
0.11507144 0.103781685 0.044626284 -0.10644717 0.023857344 0.14980452 0.048745807 0.012259041
-0.04891434 -0.003411573 0.10551145 0.06694576 0.034558244 -0.12968026 -0.09850169 0.014629469
-0.0112735545 0.035800394 -0.10075352 -0.09304449 -0.11436036 -0.014397568 0.07898102 0.09317942
-0.06645805 -0.12080482 0.011787399 0.05172407 0.04724576 0.059817035 0.06255431 0.004186321
-0.032559652 0.11166535 0.123388425 0.10013249 -0.04569893 -0.023407599 0.025061674 0.026571985
0.021993453 -0.046759605 -0.03397012 -0.043638624 -0.02202428 -0.022819819 -0.08204079 -0.08352489
0.009511592 -0.030697502 -0.15538286 -0.16168074 -0.0779465 0.067320034 0.17591855 0.16355895
-0.10244433 -0.092902645 0.1331478 0.1339604 0.074947715 -0.16771409 -0.17749372 0.001370389
-0.021735476 -0.07993869 -0.14482602 -0.090746626 0.016823338 -0.06516386 -0.100951575 -0.25983125
-0.13335904 0.12833394 -0.058303684 -0.052083492 -0.12563369 0.0683011 0.09006934 0.14722022
0.009963584 -0.0958477 -0.0720989 0.051686395 0.06479412 -0.024857063 -0.11585784 -0.09090945
-0.028514018 -0.055307716 -0.11878809 -0.17400861 -0.07606141 -0.014979625 -0.059253946 -0.15005387
-0.24138358 0.077353984 -0.024499713 -0.101704486 -0.14101729 -0.14484836 0.11608951 -0.009939329
0.012463793 0.018404556 -0.09885681 0.0010641239 -0.101655915 0.02827739 -0.06908799 -0.034372997
0.006708826 -0.0675149 0.030712565 0.052195497 -0.030263273 0.089960665 0.034569886 -0.05047782
0.0022775908 0.086834684 0.027579024 -0.0686025 -0.005772684 0.018779496 0.071879484 0.056415748
0.029569248 -0.011177845 -0.011337209 0.029026687 0.025926767 0.06628142 -0.0034176402 0.042605367
-0.0024952737 0.06009218 0.061129365 -0.026254857 -0.016652757 0.025310729 0.0515471 0.015797459
0.018999461 0.025687976 -0.0054425057 0.06888291 0.009773189 0.07472513 -0.060006656 0.002237939
0.092078485 0.039434727 0.06560717 0.060806755 0.04465403 0.035834342 0.010206886 0.054525178
0.019526457 0.066474415 0.006481749 0.11196044 0.11855857 0.08073146 0.08962035 0.042968694
0.12427181 0.0883347 -0.0007770991 -0.029894631 0.07748246 0.029764475 -0.007936068 -0.0015552322
0.062103428 0.024518475 -0.05172038 0.00070215046 0.022464126 0.07267885 -0.026466569 0.053292103
00000000: d70e 26bc 0c8f 5cbd 08a2 683d 0816 8a3d
00000010: 7849 cc3d ef1e b7bd bce4 283d b124 ce3c
00000020: a62d 093d cec5 643d cc51 41bd 08aa a03d
00000030: ccf0 b53c 9c84 b83d 21c8 1fbd 5688 833d
00000040: 8071 043e 6c86 a13d 0b05 573d d483 41bd
00000050: f165 663d 1613 823d 4d83 a33d c62f 373c
00000060: 89f7 a7bc 315b 243c 05bb 8bbd ae0a 973b
00000070: 2667 ad3d 8d6b c33d 01d1 963d 591c f6bc
00000080: 5e6a 123a da26 e53d a863 b73d 669f 893c
00000090: a297 263d 7403 3f3d 5f2a bd3d c2e1 433d
000000a0: a82e 2bbc 4dcd 103d efe1 ef3d dea7 253e
000000b0: a7d7 b13d bbfa 0c3d 4209 8a3d 5857 0f3e
000000c0: 3ed8 673d baf1 703c 88f5 7f3c d854 dbbc
000000d0: 434f c1bd 30c9 b23c 1b3b c23d 8ab5 56bd
000000e0: f52a 85bb 8aa4 78bd 25cc 56bc 1375 143e
000000f0: cfef c53c 9de8 e4ba 6b40 dfbc 4a00 c23d
00000100: f146 773d 4783 4d3d cacd 663d 5f03 673d
00000110: 5c48 223d 770c cd3c 5988 683d c314 21bc
00000120: 93aa eb3d 7e8b d43d 0dca 363d f900 dabd
00000130: 7a70 c33c 5b66 193e afa9 473d 25da 483c
00000140: 675a 48bd b294 5fbb 6316 d83d dc1a 893d
00000150: f28c 0d3d e7ca 04be 41bb c9bd 71b0 6f3c
00000160: b7b4 38bc 6fa3 123d dd57 cebd 1c8e bebd
00000170: c435 eabd c7e3 6bbc cdc0 a13d dad4 be3d
00000180: 281b 88bd 8468 f7bd ef1f 413c 9edc 533d
00000190: c584 413d b502 753d 791c 803d 682d 893b
000001a0: 455d 05bd ceb0 e43d 12b3 fc3d 4312 cd3d
000001b0: cd2e 3bbd 4bc1 bfbc 244e cd3c 7ead d93c
000001c0: 9d2b b43c 0087 3fbd 4124 0bbd 6abe 32bd
000001d0: 436c b4bc a1f0 babc 0005 a8bd 190f abbd
000001e0: 82d6 1b3c 5479 fbbc af1c 1fbe a38f 25be
000001f0: 6aa2 9fbd 16df 893d fe23 343e ff7b 273e
00000200: 55ce d1bd be43 bebd e657 083e ea2c 093e
00000210: 307e 993d 3ebd 2bbe eac0 35be a09e b33a
00000220: 990e b2bc e5b6 a3bd 464d 14be 5ed9 b9bd
00000230: 19d1 893c a174 85bd b3bf cebd 9a08 85be
00000240: 468f 08be f969 033e d8cf 6ebd 8055 55bd
00000250: 1ea6 00be 72e1 8b3d 4676 b83d e6c0 163e
00000260: 4d3e 233c cd4b c4bd 97a8 93bd 1db5 533d
00000270: c8b2 843d 0aa1 cbbc e046 edbd bc2e babd
00000280: 3b96 e9bc 588a 62bd 2c47 f3bd 502f 32be
00000290: 16c6 9bbd 1a6d 75bc 44b4 72bd b9a7 19be
000002a0: 422d 77be c46b 9e3d 9fb3 c8bc 714a d0bd
000002b0: d666 10be 2153 14be 56c0 ed3d 91d8 22bc
000002c0: f034 4c3c 27c5 963c 7075 cabd 137a 8b3a
000002d0: fa30 d0bd fca5 e73c 017e 8dbd b3ca 0cbd
000002e0: b6d5 db3b 4045 8abd eb98 fb3c f2ca 553d
000002f0: afea f7bc 4c3d b83d 2799 0d3d d5c1 4ebd
00000300: a243 153b 62d6 b13d 68ed e13c 787f 8cbd
00000310: c828 bdbb 75d7 993c 8d35 933d 3314 673d
00000320: 353b f23c 4823 37bc b3bf 39bc 60c9 ed3c
00000330: 5f64 d43c 8ebe 873d 7dfa 5fbb f782 2e3d
00000340: bf87 23bb 3823 763d c962 7a3d 6d14 d7bc
00000350: 5d6b 88bc 7258 cf3c 0d23 533d ac69 813c
00000360: c2a4 9b3c 976f d23c 0c57 b2bb 7c12 8d3d
00000370: ba1f 203c 7d09 993d 8ac9 75bd 63aa 123b
00000380: a593 bc3d 4f86 213d 0d5d 863d 8110 793d
00000390: 25e7 363d 08c7 123d c83a 273c cb55 5f3d
000003a0: f3f5 9f3c bd23 883d da64 d43b 844b e53d
000003b0: d6ce f23d 8956 a53d e08a b73d f1ff 2f3d
000003c0: 3882 fe3d d3e8 b43d 3db6 4bba 96e5 f4bc
000003d0: 20af 9e3d a1d4 f33c 4806 02bc efd8 cbba
000003e0: 2a60 7e3d f8da c83c c0d8 53bd 8510 383a
000003f0: b006 b83c a6d8 943d 6bd0 d8bc d248 5a3d

conceptizer.decoder.2.0.bias f4 [8]
0.026856035 0.009652846 0.05576397 0.039184637 0.043385644 0.019793663 0.022158736 -0.040987875
00000000: 3001 dc3c f826 1e3c c368 643d 1280 203d
00000010: 25b5 313d 5226 a23c 3d86 b53c e7e2 27bd

conceptizer.decoder.4.0.weight f4 [8, 1, 2, 2]
-0.3142363 -0.097421706 -0.3250608 0.5873 0.48973736 0.47074938 0.50973743 0.5245686
0.46988747 0.4415236 0.44535455 -0.22463673 -0.5072204 -0.5487971 -0.481449 -0.5451893
-0.40211314 -0.50385666 0.23455097 -0.12598255 -0.48465496 -0.08112878 -0.69266534 -0.46250486
-0.061484747 -0.6429812 -0.2483851 -0.24740797 0.52235246 -0.23510014 0.28935623 -0.40969157
00000000: 95e3 a0be 0885 c7bd 5f6e a6be 4b59 163f
00000010: dbbe fa3e 1006 f13e 277e 023f 214a 063f
00000020: 1795 f03e 620f e23e 8305 e43e 2c07 66be
00000030: 32d9 01bf f77d 0cbf 7c80 f6be 8791 0bbf
00000040: c6e1 cdbe c0fc 00bf 212e 703e 9201 01be
00000050: b224 f8be d926 a6bd 8452 31bf 70cd ecbe
00000060: 6ed7 7bbd 6a9a 24bf aa58 7ebe 8458 7dbe
00000070: e4b8 053f 17be 70be 8026 943e 18c3 d1be

conceptizer.unlinear.weight f4 [16, 1]
-0.6355271 0.47518978 -0.55531 -1.0288182 -0.88106763 -0.7744825 0.9827148 -0.93287766
-0.6482867 -1.0258653 1.0071137 0.37821594 -0.69008744 -0.18664752 -0.51024425 0.50156313
00000000: e7b1 22bf 134c f33e cc28 0ebf 51b0 83bf
00000010: a68d 61bf 7c44 46bf 3293 7b3f 12d1 6ebf
00000020: 1ef6 25bf 8e4f 83bf 1ae9 803f 85a5 c13e
00000030: 92a9 30bf 8720 3fbe 5e9f 02bf 7166 003f

conceptizer.unlinear.bias f4 [16]
0.7340586 -0.10391063 -1.0127543 0.78830904 0.5510529 0.3344882 -0.532359 0.4453353
0.2291923 -0.5371762 -0.6764419 0.59658575 -0.3347679 -0.5305762 -0.39761043 0.2645873
00000000: 44eb 3b3f 19cf d4bd efa1 81bf 9fce 493f
00000010: ce11 0d3f 0a42 ab3e ae48 08bf fd02 e43e
00000020: 63b1 6a3e 6184 09bf 4c2b 2dbf d8b9 183f
00000030: b366 abbe d8d3 07bf 9893 cbbe fd77 873e

parameterizer.cl_layers.0.weight f4 [10, 1, 5, 5]
0.09493081 -0.012846689 0.078206755 0.14762941 0.11203565 -0.013534636 0.18739867 -0.10181566
-0.10035372 -0.06979111 0.048626862 0.1353321 0.10704409 0.24565494 0.18177186 -0.24377866
-0.097030886 -0.10751674 -0.09012227 -0.21039973 -0.04323403 -0.25933275 -0.23714319 -0.17573078
-0.21517669 -0.16596301 -0.06179092 0.14591186 -0.040390514 -0.027220704 -0.21999417 -0.1615351
-0.022372367 -0.014452902 -0.06831674 -0.12703703 0.022365304 -0.15946761 -0.00071709143 -0.12065093
0.17445429 -0.0602009 0.002709691 -0.18072936 -0.124775365 0.22658715 0.08448967 -0.12419457
0.171984 -0.17527975 -0.115909845 0.04767441 0.07397587 0.0761629 0.06596763 0.025460023
-0.07292361 0.15325223 0.10319223 0.12975048 0.10065764 0.021188729 -0.027106196 0.11918773
0.06704079 -0.09450696 -0.08762708 0.16306607 -0.015518879 0.11815366 0.065312035 -0.1328046
-0.028626941 -0.064260535 0.19831723 -0.07031162 0.22086804 0.15773991 0.14862388 0.16732076
0.13567786 0.005337579 0.11300134 0.14820647 0.113505326 -0.03075667 -0.1453513 -0.16280137
-0.11682412 -0.17233299 0.12850977 -0.16369617 0.121900216 -0.06590104 0.075142264 -0.20789123
-0.17277195 0.06463853 -0.20836039 0.10357018 0.1047808 0.17330371 -0.17783119 -0.07904423
-0.19219781 -0.05894298 0.10031334 -0.23026153 -0.18332979 -0.055641662 0.048717555 -0.039982304
-0.16901003 0.05122008 0.081019714 0.108571604 -0.11811291 -0.13954087 -0.0409869 -0.04629229
-0.05624185 -0.22184072 -0.18434577 0.16189109 -0.018654848 -0.20790562 -0.109429814 0.12847827
-0.07681861 -0.08369874 0.06369144 -0.17862329 -0.16915004 0.10398362 0.18661349 0.121673934
-0.1748378 0.13354258 0.09496838 -0.02225253 0.09752638 -0.19931069 0.13016279 0.14243922
-0.010960689 -0.21542822 0.09311769 -0.07890127 0.21285108 0.09602439 0.023657585 -0.0936216
0.0759133 0.140959 -0.18325159 -0.0654287 -0.13806185 0.15291058 0.13467215 0.0044678524
0.030872297 -0.074166454 0.17845966 -0.13011044 -0.16260193 0.05706658 0.16805603 -0.04972067
0.18808036 -0.17087151 -0.15455659 -0.12338015 -0.093917765 0.15755327 0.0010998744 0.2183
-0.18418574 -0.20098814 -0.17042466 0.2326427 0.18492676 -0.16469446 -0.050490413 -0.06916952
0.16580527 0.07222534 0.113643676 -0.21513708 -0.16915864 0.060808122 0.05933075 -0.19376476
0.084249265 -0.17903978 0.22258241 -0.078626946 -0.17423913 0.041055623 -0.17229605 -0.18136631
-0.04781095 -0.24034265 -0.2012492 0.13825162 -0.067635395 0.16858046 0.116659686 0.12027358
-0.057922196 0.13112044 0.06021796 0.14155583 -0.008666842 0.015880173 -0.048855275 -0.18829225
0.12920012 0.09497657 -0.16830534 -0.1635678 -0.056986492 -0.23098281 0.15429677 -0.119423434
0.20225693 0.023108952 -0.1787929 -0.13792957 -0.10595389 0.18837264 -0.016737157 0.15038909
0.14630319 0.031867694 0.09354382 0.10454307 0.10208196 0.19105718 0.04882646 -0.08853233
0.0333609 0.045957163 0.022407904 0.05621719 -0.12138067 0.02298124 -0.0060947966 -0.059320215
-0.021957159 0.116562895
00000000: 166b c23d eb7a 52bc dd2a a03d 2a2c 173e
00000010: f272 e53d 61c0 5dbc 70e5 3f3e bb84 d0bd
00000020: 4086 cdbd a4ee 8ebd f62c 473d 7f94 0a3e
00000030: ef39 db3d f88c 7b3e 6722 3a3e 1da1 79be
00000040: 21b8 c6bd bd31 dcbd 0692 b8bd 0773 57be
00000050: 2b16 31bd 43c7 84be aad5 72be c5f2 33be
00000060: 4757 5cbe 35f2 29be 7a18 7dbd eb69 153e
00000070: 8670 25bd f4fd debc 2746 61be 7569 25be
00000080: 4146 b7bc ddcb 6cbc a6e9 8bbd ff15 02be
00000090: 7137 b73c 7a4b 23be 31fb 3bba d617 f7bd
000000a0: 25a4 323e 3895 76bd 1295 313b 1e11 39be
000000b0: 3a8a ffbd 7606 683e ec08 ad3d b959 febd
000000c0: 931c 303e 897c 33be 2462 edbd 3e46 433d
000000d0: a980 973d 4bfb 9b3d 091a 873d 8a91 d03c
000000e0: f958 95bd 27ee 1c3e 7356 d33d 4fdd 043e
000000f0: 9825 ce3d fc93 ad3c d00d debc b218 f43d
00000100: af4c 893d dd8c c1bd d475 b3bd cbfa 263e
00000110: e542 7ebc 8cfa f13d 51c2 853d eefd 07be
00000120: 0c83 eabc 079b 83bd ac13 4b3e 8aff 8fbd
00000130: 3b2b 623e 9286 213e dc30 183e 2256 2b3e
00000140: 23ef 0a3e dce6 ae3b 3f6d e73d 70c3 173e
00000150: 7b75 e83d 69f5 fbbc f9d6 14be 67b5 26be
00000160: 7c41 efbd 0f78 30be 1198 033e f89f 27be
00000170: d2a6 f93d 20f7 86bd 30e4 993d 70e1 54be
00000180: 21eb 30be 3561 843d 6d5c 55be 9a1c d43d
00000190: 5197 d63d 8776 313e 6119 36be f1e1 a1bd
000001a0: 81cf 44be 326e 71bd 1571 cd3d aec9 6bbe
000001b0: ceba 3bbe 83e8 63bd 0f8c 473d 7cc4 23bd
000001c0: f710 2dbe 26cc 513d aaed a53d ca5a de3d
000001d0: 2ee5 f1bd cde3 0ebe e1e1 27bd fc9c 3dbd
000001e0: db5d 66bd 372a 63be 23c5 3cbe c7c6 253e
000001f0: 0dd2 98bc 36e5 54be bd1c e0bd cf8f 033e
00000200: 1353 9dbd 3f6a abbd a870 823d 06e9 36be
00000210: ab35 2dbe 5df5 d43d 9b17 3f3e 2f30 f93d
00000220: ae08 33be 63bf 083e c87e c23d f04a b6bc
00000230: e9bb c73d 1a18 4cbe 6549 053e 96db 113e
00000240: 7694 33bc 3799 5cbe 7db4 be3d fd96 a1bd
00000250: a2f5 593e 6fa8 c43d 8dcd c13c aebc bfbd
00000260: 6f78 9b3d 8e57 103e 4ea6 3bbe 7bff 85bd
00000270: 1660 0dbe 9794 1c3e 7fe7 093e 1067 923b
00000280: e6e7 fc3c 95e4 97bd 21be 363e ac3b 05be
00000290: 1f81 26be a5be 693d e116 2c3e e7a7 4bbd
000002a0: 2398 403e f1f8 2ebe 1544 1ebe bbae fcbd
000002b0: f557 c0bd a555 213e a929 903a 098a 5f3e
000002c0: 309b 3cbe d6cf 4dbe cd83 2ebe e339 6e3e
000002d0: 715d 3d3e aaa5 28be 09cf 4ebd c0a8 8dbd
000002e0: dbc8 293e e1ea 933d 04be e83d e54c 5cbe
000002f0: ec37 2dbe f011 793d cd04 733d 456a 46be
00000300: e18a ac3d 3456 37be a5ec 633e 2a07 a1bd
00000310: be6b 32be f129 283d 606e 30be 17b8 39be
00000320: 6ad5 43bd 621c 76be 4514 4ebe d591 0d3e
00000330: 6d84 8abd 5ba0 2c3e 46eb ee3d ff51 f63d
00000340: d33f 6dbd 7044 063e 1ca7 763d 03f4 103e
00000350: 5fff 0dbc 2317 823c 781c 48bd afcf 40be
00000360: 094d 043e 1383 c23d 3c58 2cbe 517e 27be
00000370: ab6a 69bd c286 6cbe f9ff 1d3e 4694 f4bd
00000380: 711c 4f3e fc4e bd3c 7c15 37be 693d 0dbe
00000390: 5afe d8bd c2e4 403e 5d1c 89bc 99ff 193e
000003a0: 81d0 153e b387 023d e793 bf3d ad1a d63d
000003b0: 5910 d13d 7ea4 433e 41fe 473d 7050 b5bd
000003c0: 70a5 083d 943d 3c3d c890 b73c ff43 663d
000003d0: 6e96 f8bd 2743 bc3c dcb6 c7bb c1f9 72bd
000003e0: 80df b3bc 87b8 ee3d

parameterizer.cl_layers.0.bias f4 [10]
0.17940986 0.19614686 -0.17049013 -0.009696815 0.067922644 0.07015546 -0.16602042 -0.10249237
-0.08573567 -0.04271127
00000000: 38b7 373e b9da 483e f794 2ebe 64df 1ebc
00000010: 071b 8b3d aaad 8f3d 4201 2abe 85e7 d1bd
00000020: 2f96 afbd 03f2 2ebd

parameterizer.cl_layers.3.weight f4 [20, 10, 5, 5]
-0.0017400798 -0.030034693 -0.026085122 -0.0726848 -0.0035403685 0.030042894 0.030644543 -0.031346172
0.0058740648 -0.07236515 -0.038461313 0.026146913 -0.017527685 -0.06551787 -0.026019871 0.04214768
0.040178485 -0.038619123 -0.032124553 0.041828856 -0.030616775 0.0177417 0.00943429 -0.0054540113
-0.048401058 0.041987885 0.05851418 -0.046242274 -0.03161134 -0.00495399 -0.028167732 0.0016808853
-0.016271569 -0.019772083 0.053417742 -0.008398409 0.008204626 0.06082694 0.034257773 0.03425681
-0.005192688 0.064427726 -0.01111292 -0.04365601 -0.067803465 0.0133107 0.03901923 0.007745323
0.031594425 -0.018404169 0.024222674 -0.05043038 0.015034974 -0.01946961 0.042714465 -0.03216537
-0.07223678 0.030595874 -0.030910354 -0.021076098 0.015215219 0.029713811 -0.027041728 -0.02866421
0.017556205 0.0014440637 0.06784405 -0.003477998 0.020893972 -0.04573795 -0.05780563 -0.03560191
0.045725547 0.014209646 0.035732046 -0.0150304185 -0.032483477 -0.02583548 0.014562837 0.01995767
-0.024725765 0.032317616 0.0013700073 0.067469075 -0.07794438 0.027904766 -0.013904963 -0.051047165
-0.07116879 0.019385107 0.002844305 0.0694686 0.06217269 -0.010103028 -0.0039014898 0.052262176
0.0046800463 0.0008628262 0.021358395 -0.06557344 0.043300554 -0.034295786 -0.032416478 0.042621434
-0.03602808 0.03184684 -0.04743843 -0.050786562 -0.057791676 0.038133394 -0.010547853 -0.03061578
0.051557083 -0.041461386 0.04673582 -0.045537103 0.023489758 -0.032181837 0.039254867 -0.04387195
0.03759561 0.019560749 -0.0015257347 -0.034004867 0.018502839 -0.020620171 0.018429015 -0.03779498
0.029706601 0.044951767 0.010860178 0.025157884 0.03267842 0.03129467 -0.012387459 -0.013245124
0.016520612 0.018555734 0.021057133 0.011233926 -0.0006450324 -0.024531059 0.05376197 0.06938181
-0.05321854 -0.03596388 -0.05812343 -0.0016374135 -0.050118044 -0.01222361 0.028825551 0.057276268
0.02696538 -0.010231399 0.007213934 0.013211775 -0.0001329934 -0.026559679 -0.048038065 -0.02281194
0.021048736 -0.032254416 -0.011123877 0.041411046 0.019818537 0.006655532 0.023657456 0.0031071748
-0.008211197 0.040071666 0.0241793 -0.05380466 0.047918145 -0.009832041 -0.02180902 0.0074875746
0.089787036 -0.0032347504 -0.05361601 -0.018442819 -0.01597069 0.032154933 0.024831198 0.0007360185
-0.0142195765 -0.07123981 -0.029001521 -0.031542107 0.039194092 -0.015216239 -0.018542875 -0.05318157
-0.0061297133 0.008509733 0.07138777 -0.02669949 -0.025229024 -0.003901632 -0.0047795353 -0.09929924
0.016899468 0.035243895 0.0006179189 0.09456306 -0.04261753 0.0011079279 0.06686039 0.011767396
0.038724054 0.03147834 -0.035805434 -0.0048948023 0.029349495 0.011476927 0.010449052 0.056992657
-0.025940169 0.05034388 -0.0021928637 -0.027801678 -0.010386244 0.040046282 -0.02807459 0.012847237
-0.008587142 0.020945165 0.043739107 -0.045640152 -0.04120699 -0.024735797 0.0009975298 0.053207044
-0.014911361 -0.032731425 0.062148295 -0.024237504 0.008254887 -0.008276748 0.0008381749 0.0702339
0.05936069 0.042142 0.016585752 0.016332733 0.018364672 -0.01792554 0.0018475923 0.025708638
0.016402509 -0.052291 -0.009424865 0.004685405 0.08024111 0.00907405 0.06787176 0.0035792028
00000000: 6413 e4ba 510b f6bc 77b0 d5bc c5db 94bd
00000010: 8705 68bb 841c f63c 440a fb3c d864 00bd
00000020: 3a7b c03b 2e34 94bd 9c89 1dbd 0d32 d63c
00000030: 3896 8fbc 3c2e 86bd a027 d5bc 0ca3 2c3d
00000040: 3292 243d 162f 1ebd 0995 03bd bc54 2b3d
00000050: 08d0 fabc 0b57 913c 4892 1a3c 90b7 b2bb
00000060: 3040 46bd 7dfb 2b3d 91ac 6f3d 8a68 3dbd
00000070: e47a 01bd 1555 a2bb 04c0 e6bc 2751 dc3a
00000080: f44b 85bc 10f9 a1bc 90cc 5a3d 7b99 09bc
00000090: b26c 063c ab25 793d e151 0c3d de50 0c3d
000000a0: 6d27 aabb aff2 833d f712 36bc a5d0 32bd
000000b0: 8bdc 8abd 1f15 5a3c a1d2 1f3d 7acc fd3b
000000c0: 2869 013d 57c4 96bc a16e c63c 1690 4ebd
000000d0: 4055 763c bb7e 9fbc 5df5 2e3d d6bf 03bd
000000e0: e0f0 93bd 33a4 fa3c b637 fdbc c8a7 acbc
000000f0: 4149 793c 616a f33c 9d86 ddbc 35d1 eabc
00000100: 08d2 8f3c bd46 bd3a d2f1 8a3d 20ef 63bb
00000110: d629 ab3c b757 3bbd 99c5 6cbd 4fd3 11bd
00000120: b64a 3b3d 93cf 683c c45b 123d 2542 76bc
00000130: 650d 05bd eea4 d3bc f798 6e3c 447e a33c
00000140: b08d cabc 7a5f 043d d191 b33a 3a2d 8a3d
00000150: 4ea1 9fbd 8998 e43c a4d1 63bc d516 51bd
00000160: f1c0 91bd 84cd 9e3c 8567 3a3b 8e45 8e3d
00000170: caa8 7e3d 2c87 25bc 23b0 7fbb dd10 563d
00000180: 135b 993b 492f 623a cdf7 ae3c 5e4b 86bd
00000190: ec5b 313d bd79 0cbd 24c7 04bd d093 2e3d
000001a0: 2e92 13bd d571 023d cd4e 42bd 9205 50bd
000001b0: f7b6 6cbd c331 1c3d e7d0 2cbc f2cd fabc
000001c0: 852d 533d 6ad3 29bd 0f6e 3f3d 1d85 3abd
000001d0: 986d c03c 1ad1 03bd b6c9 203d 13b3 33bd
000001e0: dbfd 193d dd3d a03c 29fb c7ba b048 0bbd
000001f0: 4493 973c a2eb a8bc 72f8 963c e9ce 1abd
00000200: 425b f33c 581f 383d e3ee 313c e817 ce3c
00000210: cfd9 053d d72e 003d c5f4 4abc 1402 59bc
00000220: 3c56 873c 3202 983c 0280 ac3c 800e 383c
00000230: 6417 29ba 5cf5 c8bc 8335 5c3d 0d18 8e3d
00000240: affb 59bd dd4e 13bd d512 6ebd 7b9e d6ba
00000250: 9448 4dbd 8945 48bc 9023 ec3c 859a 6a3d
00000260: 80e6 dc3c 99a1 27bc dd62 ec3b 3376 583c
00000270: 2574 0bb9 af93 d9bc 90c3 44bd 1be0 babc
00000280: 666e ac3c 351d 04bd ec40 36bc a19e 293d
00000290: 7c5a a23c a616 da3b 48cd c13c bea1 4b3b
000002a0: 4288 06bc 3022 243d ab13 c63c 4662 5cbd
000002b0: d145 443d 9216 21bc d4a8 b2bc 545a f53b
000002c0: 44e2 b73d 1bfe 53bb 769c 5bbd 6515 97bc
000002d0: f7d4 82bc e4b4 033d cc6a cb3c 5ef1 403a
000002e0: 3af9 68bc 2de6 91bd 9994 edbc 4c32 01bd
000002f0: fc89 203d 884d 79bc 3ae7 97bc ebd4 59bd
00000300: c3db c8bb 686c 0b3c c033 923d e4b8 dabc
00000310: 19ad cebc 86b2 7fbb a69d 9cbb 665d cbbd
00000320: c170 8a3c e75b 103d d6fb 213a 47aa c13d
00000330: b88f 2ebd e437 913a 1aee 883d 09cc 403c
00000340: 1d9d 1e3d 6fef 003d b8a8 12bd 9464 a0bb
00000350: 5a6e f03c b909 3c3c 8032 2b3c 2271 693d
00000360: 7a80 d4bc 6235 4e3d 26b6 0fbb 58c0 e3bc
00000370: 112b 2abc 9207 243d affc e5bc 387d 523c
00000380: 16b1 0cbc 3295 ab3c c727 333d 2bf1 3abd
00000390: a9c8 28bd baa2 cabc 8cbf 823a a1ef 593d
000003a0: c84e 74bc 6311 06bd 368f 7e3d bb8d c6bc
000003b0: 813f 073c 329b 07bc f7b8 5b3a cad6 8f3d
000003c0: 3224 733d 179d 2c3d d8de 873c 39cc 853c
000003d0: 8271 963c 95d8 92bc e92a f23a ec9a d23c
000003e0: 8e5e 863c 162f 56bd c06a 1abc 0788 993b
000003f0: 7355 a43d 53ab 143c 5900 8b3d 0f91 6a3b

parameterizer.cl_layers.3.bias f4 [20]
0.05731722 -0.025008539 -0.016002174 0.04999012 -0.020310974 0.025892448 0.052982736 -0.048242263
0.022520563 -0.026578097 0.050460644 -0.011145516 -0.001958851 -0.00525612 -0.06970475 0.012639583
0.0084876465 -0.0065894662 -0.029207991 -0.032736693
00000000: 76c5 6a3d b5de ccbc fe16 83bc 71c2 4c3d
00000010: 3363 a6bc 661c d43c 6d04 593d ae99 45bd
00000020: 0b7d b83c 4fba d9bc d2af 4e3d af9b 36bc
00000030: 1160 00bb 883b acbb 5dc1 8ebd 4116 4f3c
00000040: c50f 0b3c 73ec d7bb 9945 efbc e916 06bd

parameterizer.fc_layers.0.weight f4 [50, 320]
0.0029962894 -0.023226347 0.007955881 -0.057063174 -0.008751211 0.056447335 0.0018782358 0.003931566
-0.044783562 0.0015921214 0.0031462756 0.017108291 0.0015987181 -0.002687148 0.03329255 0.03258515
0.026651008 0.028067775 -0.03600625 -0.06300263 0.07016752 -0.0073861456 0.013754393 -0.00672907
0.0154588735 -0.043006644 0.008694105 0.028773014 0.014939203 -0.00063346553 -0.04802271 0.042500872
-0.044753827 0.033538114 -0.024935598 -0.021999964 -0.017069757 0.022027 0.047558006 0.059572745
-0.05115742 0.03347601 0.04832878 0.013382237 -0.03171859 -0.022856157 0.013134616 -0.012358753
0.055512916 0.050339416 -0.030308515 0.024083657 0.028976683 -0.0387406 -0.004126601 -0.00044296816
0.07377614 -0.0028416524 0.024307637 -0.00097364915 0.025351675 0.021179892 -0.027349792 -0.013640108
0.031999666 0.030767612 -0.047469296 0.00803988 0.024851218 -0.002576543 -0.009412865 -0.06401515
0.037588555 0.07654035 0.02890187 0.007244734 0.002712539 0.04966123 0.0048202258 -0.060267154
-0.014051659 -0.015796782 -0.02453163 -0.04139484 0.06598241 0.0342698 -0.030527133 -0.017454926
0.049200617 -0.027789868 0.029388392 0.028802708 0.013837566 0.01665388 0.026754688 0.049760833
-0.016117943 0.028004333 0.026575632 0.03204403 0.018811565 0.017979048 0.03687414 -0.0012287798
0.07586969 -0.017785674 -0.0784401 -0.0029908845 0.040323675 -0.07202548 -0.021618107 0.020264072
-0.03750033 -0.0018915688 -0.022321943 0.0071463156 0.030171916 0.051975526 0.070935525 0.022347298
-0.011844141 -0.05712257 0.015085303 -0.0035440228 0.10481442 -0.02993727 -0.0505604 0.05588689
0.003242527 0.014566907 0.044515543 0.027809795 -0.017807642 -0.0662346 0.099464886 -0.0033257788
-0.0075086737 0.023207348 0.0072744424 -0.03261278 0.022504712 0.031462256 -0.014587687 -0.029753484
0.029590383 0.028259829 -0.0022859229 0.022942306 -0.053941157 0.008510524 0.016062364 0.032219216
-0.057453644 0.045275472 0.06270232 0.03687604 -0.035857882 0.002492455 0.0049104947 -0.04610803
0.028292699 0.04867014 0.05765441 -0.0066058603 -0.026440278 -0.0024185544 -0.013676193 0.0256614
-0.012774422 -0.075101346 -0.036237568 0.0728141 -0.003802822 -0.04093314 0.05288937 0.0007180665
-0.0061881146 -0.020722952 0.007154001 0.0053711273 0.016427498 -0.017522508 0.04375304 0.025068935
-0.04795826 0.06129627 -0.013307294 0.04606318 0.022911089 0.007949336 0.0123793585 0.016348185
0.04023343 0.01917837 -0.005082731 -0.031689998 -0.003860238 -0.006000749 0.036707878 -0.0129225105
0.020113219 -0.041654203 -0.021380568 -0.022672608 -0.038384512 -0.009714608 0.062411312 0.03923122
0.021010734 0.015787208 0.016247373 0.021659143 0.029181061 -0.039521236 0.042361524 0.03731212
0.034216665 0.042462178 0.033324048 -0.07445374 -0.025726806 -0.006457872 -0.033722408 -0.036498476
0.05224129 0.02826502 -0.013413959 0.05066849 0.0011391427 0.07023108 -0.02063678 0.04386017
0.037188146 -0.02928456 0.02179749 0.050189834 -0.05996333 -0.016543953 -0.017792653 0.040468354
-0.03268867 0.011980864 0.0035476196 0.01635831 0.056078635 0.08652685 -0.03630262 -0.024664607
-0.016154882 0.022210214 0.013500795 -0.051195882 0.0053064795 -0.021219881 0.04522331 0.01871001
00000000: 655d 443b 2e45 bebc 6259 023c 13bb 69bd
00000010: 3d61 0fbc 5235 673d 232f f63a 5ed4 803b
00000020: f86e 37bd bbae d03a bf31 4e3b b026 8c3c
00000030: 148c d13a dd1a 30bb c55d 083d 0278 053d
00000040: 3753 da3c 64ee e53c 4a7b 13bd 8607 81bd
00000050: fdb3 8f3d 7b07 f2bb 1b5a 613c 887f dcbb
00000060: 3747 7d3c bc27 30bd b871 0e3c 62b5 eb3c
00000070: 8fc3 743c 270f 26ba 76b3 44bd 6515 2e3d
00000080: ca4f 37bd 435f 093d bd45 ccbc 4539 b4bc
00000090: e0d5 8bbc f871 b43c 2fcc 423d 8d02 743d
000000a0: 718a 51bd 241e 093d 66f4 453d 2c41 5b3c
000000b0: 5aeb 01bd d63c bbbc 9332 573c 5e7c 4abc
000000c0: 8361 633d b430 4e3d 9049 f8bc 174b c53c
000000d0: 8260 ed3c 77ae 1ebd 7038 87bb 2e3e e8b9
000000e0: f217 973d 043b 3abb cf20 c73c 7d3c 7fba
000000f0: 51ae cf3c 7481 ad3c ac0c e0bc c27a 5fbc
00000100: 1512 033d 5c0c fc3c 2a6f 42bd b3b9 033c
00000110: c894 cb3c 38db 28bb 6b38 1abc 601a 83bd
00000120: 75f6 193d 30c1 9c3d 9dc3 ec3c 3c65 ed3b
00000130: dac4 313b 9369 4b3d fcf2 9d3b b1da 76bd
00000140: ee38 66bc 4168 81bc 8ff6 c8bc a38d 29bd
00000150: c921 873d 7d5e 0c3d 0a14 fabc a2fd 8ebc
00000160: 9686 493d 94a7 e3bc edbf f03c a8f3 eb3c
00000170: f5b6 623c b86d 883c a62c db3c 04d2 4b3d
00000180: c709 84bc 5869 e53c 24b5 d93c 9a40 033d
00000190: b61a 9a3c cc48 933c 5709 173d 020f a1ba
000001a0: 9161 9b3d 43b3 91bc 34a5 a0bd b702 44bb
000001b0: 702a 253d 1882 93bd 7518 b1bc d700 a63c
000001c0: f299 19bd 84ee f7ba 82dc b6bc a42b ea3b
000001d0: 182b f73c 4ae4 543d a546 913d ae11 b73c
000001e0: ee0d 42bc 5bf9 69bd 5928 773c d642 68bb
000001f0: f1a8 d63d 013f f5bc 6c18 4fbd a7e9 643d
00000200: 9380 543b 09aa 6e3c ee55 363d 5ed1 e33c
00000210: 55e1 91bc 02a6 87bd 3fb4 cb3d 4ff5 59bb
00000220: 520b f6bb 561d be3c 725e ee3b fa94 05bd
00000230: cd5b b83c 91de 003d 3201 6fbc 94bd f3bc
00000240: 8867 f23c 2881 e73c 6ccf 15bb 81f1 bb3c
00000250: 67f1 5cbd ba6f 0b3c 3895 833c 4cf8 033d
00000260: 8354 6bbd c672 393d 136a 803d 550b 173d
00000270: b7df 12bd 7558 233b 37e8 a03b c6db 3cbd
00000280: 17c6 e73c 575a 473d 0827 6c3d f975 d8bb
00000290: 4899 d8bc 9c80 1ebb 1c12 60bc db37 d23c
000002a0: cf4b 51bc bcce 99bd d86d 14bd 8f1f 953d
000002b0: c438 79bb 82a9 27bd 86a2 583d a13c 3c3a
000002c0: abc5 cabb 2ec3 a9bc 1c6c ea3b 4800 b03b
000002d0: f692 863c 5d8b 8fbc 6336 333d 5e5d cd3c
000002e0: e16f 44bd cc11 7b3d d606 5abc bfac 3c3d
000002f0: 09b0 bb3c ef3d 023c cbd2 4a3c a1ec 853c
00000300: cfcb 243d f51b 9d3c 0a8d a6bb 5fcd 01bd
00000310: 0cfc 7cbb eea1 c4bb 005b 163d f0b8 53bc
00000320: 7ac4 a43c 999d 2abd 4d26 afbc e8bb b9bc
00000330: 1439 1dbd 052a 1fbc 01a3 7f3d eab0 203d
00000340: b41e ac3c 2d54 813c 3619 853c 846e b13c
00000350: 1f0d ef3c 05e1 21bd 4783 2d3d 98d4 183d
00000360: c626 0c3d d2ec 2d3d cc7e 083d 347b 98bd
00000370: 06c1 d2bc 8f9c d3bb 8220 0abd 6d7f 15bd
00000380: f7fa 553d 0b8c e73c 39c6 5bbc c389 4f3d
00000390: 494f 953a 50d5 8f3d 770e a9bc b9a6 333d
000003a0: 9952 183d 2ce6 efbc a690 b23c db93 4d3d
000003b0: 1c9c 75bd 2f87 87bc e6c1 91bc 25c2 253d
000003c0: 8ee4 05bd 634b 443c 2e7f 683b dd01 863c
000003d0: b6b2 653d fd34 b13d 0eb2 14bd 6e0d cabc
000003e0: 3e57 84bc 32f2 b53c 7032 5d3c c6b2 51bd
000003f0: fae1 ad3b 51d5 adbc 143c 393d bc45 993c
